src/Photosynthesis/RL/SavedModels/model_59.pth (torch, 30290 bytes, 34 tensors)

player_tree_1.W.weight f4 [12, 12]
00000000: d0a3 acbe b4c4 5ebe ac36 9dbe 9ca1 2a3f
00000010: 7c22 1b3e 460b b9bd 264d 603d b74f 843d
00000020: ba62 08bd f982 d4bd af32 ddbe 9a82 a9bd
00000030: 8d97 60bd 6c68 d13e 4eec c23d cfe0 a53e
00000040: c50e 1dbf de77 683e 4b5b 9abe 0483 a5bd
00000050: 7a91 49be f559 66be 13d1 873e c844 6b3e
00000060: 4e17 623d f022 0ebe 953f 10bd c4a8 f63e
00000070: aa7b aabb 14dd acbe 1f52 003e 56dd fd3d
00000080: ebdf 1dbf bb3b e13d 15f9 9bbd e956 cb3d
00000090: e835 bebe e7d0 863e 1b19 843e eae6 4f3c
000000a0: 6850 013f a217 7e3e badb 963d e51f 5bbe
000000b0: 624c 863e c4f5 bcbe 39e9 89be 0bc6 36be
000000c0: ab11 f7be b224 8f3e 195b 953e 96c6 8f3d
000000d0: 6d51 06be 82a3 293d 9b80 8c3c 10c1 fcbe
000000e0: 2e3d 20be 9987 913e 7a60 4a3e b229 9cbe
000000f0: dd1c 54be 70d1 3b3f a232 0d3e 51ea 953e
00000100: 66fe 4e3d b969 6abe 48c3 3dbe 8c24 4dbd
00000110: 09f2 c439 8c30 0c3f 5743 dfbe a3f6 be3e
00000120: 6517 b83e 54c3 23bf 3db4 3e3f 994d 263e
00000130: 7fe4 663d 2162 24bd db31 e33e b0e4 4a3e
00000140: 6abd 62be 55f5 0c3c c086 ff3d 3454 343e
00000150: b1c3 313e ed83 d7be 1d11 3dbe f166 983e
00000160: 4d90 a53d b7f2 cb3e 6441 aa3e 016e abbe
00000170: b31b babe 3e7f 8abe c180 973e 67b7 0fbf
00000180: 52a0 983d 09c5 fdbe 560c 28bf 0239 a8bd
00000190: 3db4 0b3c acc8 5a3e e095 4a3d 108b 5fbd
000001a0: 3332 6c3e 0f10 abbe 0cb7 c5bd 1aeb 39bf
000001b0: ba20 ab3d b2dc 7cbe ff66 78be cb46 8bbe
000001c0: fcd7 963c 462a 09be 4150 393e b81e e2be
000001d0: ef3f 47bd 93f0 afbe e2e4 6a3d ccfb b4bd
000001e0: ddce 11be 5c49 0a3e d67d 79be 0e64 023e
000001f0: bbf6 853e 2927 65be 63b9 c63d 3de4 a73c
00000200: d3ac 9bbe d499 4d3e da89 ad3e d0cc 1fbe
00000210: 2e4c 4dbd 4a86 cbbe 6ca5 ec3d 1fbe a9be
00000220: c996 573e c12a 283e 8f9a d8be 0536 a5be
00000230: e0c0 dc3e c012 3a3e 3d0a 1cbf 2e0d a3be
-0.3371873 -0.21754724 -0.30705774 0.66652846 0.15149873 -0.09035353 0.054761074 0.06460517
-0.033297278 -0.103765436 -0.4320273 -0.082768634 -0.05483203 0.4089998 0.09517728 0.32398078
-0.6135066 0.22701976 -0.30147776 -0.0808163 -0.19684401 -0.22495253 0.26526698 0.22975457
0.055198006 -0.13880515 -0.035216887 0.48175633 -0.00520273 -0.3376242 0.12531327 0.12395732
-0.61669797 0.10997721 -0.07615868 0.09928686 -0.37150502 0.26331255 0.25800404 0.012689332
0.50513315 0.24813703 0.07366128 -0.21398886 0.2623015 -0.36906254 -0.26935747 -0.17848985
-0.48255667 0.27957684 0.29171064 0.07020299 -0.13116999 0.0414157 0.017151168 -0.49366045
-0.15648338 0.28423765 0.19763365 -0.3050056 -0.20714135 0.7336645 0.13788846 0.29280332
0.050535582 -0.22891892 -0.18531525 -0.050083682 0.00037564363 0.54761577 -0.43606064 0.37297544
0.3595535 -0.6396992 0.7449377 0.16240539 0.056370255 -0.040132646 0.44373974 0.198138
-0.22142568 0.008603414 0.124768734 0.17610246 0.17359807 -0.4209284 -0.1846356 0.29766038
0.08084164 0.39833614 0.33253014 -0.33482364 -0.36349258 -0.27050203 0.2959042 -0.56139225
0.07452454 -0.49564388 -0.65643823 -0.082139984 0.008526859 0.21365613 0.04945934 -0.05457598
0.23066024 -0.3341069 -0.09654054 -0.7262436 0.083558515 -0.24693564 -0.2425804 -0.27202448
0.018413536 -0.13395032 0.1809702 -0.44164062 -0.048644956 -0.3436323 0.057347186 -0.08837089
-0.14239068 0.13504547 -0.24364409 0.1273348 0.26164803 -0.2237822 0.097033285 0.020494575
-0.30405292 0.20078212 0.33894235 -0.15605474 -0.05012148 -0.39750892 0.11554989 -0.33152863
0.21053614 0.1642256 -0.4230542 -0.32267776 0.43115902 0.18171215 -0.6095312 -0.31845993

player_tree_1.W.bias f4 [12]
00000000: 8783 393d 7568 afb9 f66f cb3c d2a6 463d
00000010: da50 ad3c 14eb d33c 8d39 6e3c b2ac b6bc
00000020: 5582 b53c 1425 903c 5e36 5dba 1173 a5bb
0.04529145 -0.00033456428 0.02483366 0.048498936 0.021156717 0.02586893 0.014540088 -0.022299144
0.022156874 0.017595805 -0.00084385823 -0.0050491174

player_tree_1.W_self.weight f4 [12, 12]
00000000: f76e a23e 128c 6b3e 8780 51be 13ad 84bd
00000010: 0064 2c3d 2812 f33e 707f 0dbd c389 08be
00000020: eefc b7bd 587f 83bf 58ee dd3c 4e64 8cbe
00000030: 7c26 09be 7338 123f d14a 37be e5b1 22bd
00000040: bd3f b0be 4ab7 813c 4ef0 bbbe 80b6 0dbf
00000050: 541e 853e 2010 44be 6742 b43e f05b 5abe
00000060: f3dc 013f 62f9 de3d 3a62 f3be 2508 ae3e
00000070: 271c e5be 40e5 25be 9b80 c13e 5343 fcbe
00000080: ef86 3ebe 2bae 0dbd afd2 c2bd 653b f83d
00000090: d730 a4be 5731 70bd 15a7 df3d b604 d6bd
000000a0: 7e80 63bd 3af6 0b3f 5bee cd3e 009f 1a3f
000000b0: 1411 b5bc 86da 963e 6de8 94be faba 213c
000000c0: c305 8f3e 0d79 08be 9759 4f3e c958 41bd
000000d0: 8bda 9bbe 0437 643d 8828 e13c 7925 84bb
000000e0: c2cb 963e 0f45 8dbe f6c9 7d3e d6df 043d
000000f0: d028 24bf 4b92 b93d 6895 48bd a204 e23e
00000100: 7d08 6ebe 385e e6bc 96a3 c13d 0823 ff3e
00000110: b634 0f3f bdd3 8dbe 2666 683d 267c 273e
00000120: 70c3 e93d 7f1e 01bd 57d1 613e 5379 b7be
00000130: 4588 e6bd c42e f93c 0286 213e 1da3 49be
00000140: 4f19 31bd 58f3 fd3d 8d40 4ebe a164 553d
00000150: 2f62 ccbe d511 57bd 4d31 f63e 99e3 bb3d
00000160: aec3 c43e e033 1cbe 94ec aa3e d9f1 c13e
00000170: e302 9fbe 8528 af3d 2029 8d3c c80f a33d
00000180: 194a 23be 793a ffbe 69c7 f8bb d411 4cbe
00000190: d89a 2cbe 1f26 ba3e 0bb8 173f ddd5 993e
000001a0: a17b f63d 5fdf 203f 2364 cfbe 8b39 c7be
000001b0: 2ebe 50bd 2398 d53e 930f 303c fb3e 30be
000001c0: 9e88 99be 84e4 ecbe 94be 8dbe 13dc a2bd
000001d0: b533 f73c 11e7 5cbe 30f4 2dbd c367 21bf
000001e0: f395 67be a75b a6be 7fb3 743e e658 3abe
000001f0: 6c3e 953e 246d 923e 7351 04be 24e6 943e
00000200: 576a 89bd 0950 15be adae adbe 77bb b13d
00000210: 18d6 123d 0c31 8abe 05f9 38be 11ee 4e3e
00000220: 8c16 a33e d3de 353d c4b6 80be 1839 6c3e
00000230: b503 3c3e 264a 72bd d8c1 813e 6f7b afbe
0.31725284 0.23002651 -0.20459186 -0.06478324 0.042087555 0.4747479 -0.034545362 -0.13333802
-0.089837894 -1.0273237 0.02709119 -0.27420276 -0.13393587 0.57117385 -0.17899634 -0.039720435
-0.34423628 0.01583447 -0.36706775 -0.553566 0.259997 -0.19146776 0.3520691 -0.21324134
0.50727767 0.1088741 -0.47535878 0.3399059 -0.4474804 -0.16200733 0.3779343 -0.49270114
-0.1860616 -0.034589928 -0.09512841 0.121207036 -0.32068512 -0.058640804 0.1092054 -0.10450117
-0.05554246 0.54672587 0.40220913 0.60398865 -0.02210287 0.29463595 -0.29083577 0.009871239
0.27934083 -0.13327427 0.2024902 -0.047203813 -0.30440173 0.05571653 0.027485147 -0.0040327874
0.2945233 -0.2759175 0.24784073 0.03244003 -0.64124775 0.09061106 -0.04897061 0.4414416
-0.23245426 -0.028121099 0.0945503 0.49831414 0.55939806 -0.27700606 0.05673804 0.16355953
0.1141423 -0.031523224 0.22052513 -0.3583475 -0.1125646 0.030417807 0.15773776 -0.19691129
-0.043237027 0.1239993 -0.20141812 0.05209792 -0.39918658 -0.05250724 0.4808449 0.0917427
0.38430542 -0.15254164 0.3338362 0.37879828 -0.3105689 0.0855265 0.017231524 0.079619944
-0.15946235 -0.498493 -0.007592131 -0.19928676 -0.16855943 0.3635721 0.592652 0.30045977
0.12035299 0.6284084 -0.40506086 -0.3891109 -0.05096262 0.41717634 0.010745901 -0.17211525
-0.29987043 -0.46268094 -0.27684462 -0.07952132 0.030176023 -0.2157252 -0.042469203 -0.6304895
-0.22615795 -0.324918 0.23896597 -0.18197975 0.29149187 0.28598893 -0.12921695 0.29081833
-0.06709736 -0.14581312 -0.3392233 0.08678334 0.035848707 -0.26990545 -0.18063743 0.20208003
0.3185314 0.044401955 -0.2513944 0.23068655 0.18360789 -0.059152745 0.25343204 -0.3427386

player_tree_1.W_self.bias f4 [12]
00000000: 8783 393d 7568 afb9 f66f cb3c d2a6 463d
00000010: da50 ad3c 14eb d33c 8d39 6e3c b2ac b6bc
00000020: 5582 b53c 1425 903c 5e36 5dba 1173 a5bb
0.04529145 -0.00033456428 0.02483366 0.048498936 0.021156717 0.02586893 0.014540088 -0.022299144
0.022156874 0.017595805 -0.00084385823 -0.0050491174

player_tree_2.W.weight f4 [12, 12]
00000000: 0395 5e3e 9dcd 96bd a1e8 58be 61b6 c6bb
00000010: e8da ee3e 9f69 0bbe 461b d6be dfce 7bbe
00000020: 03c5 b6bd 1092 b5be 7d3a 0c3e 8581 013d
00000030: cec2 a1be 3f99 bfbe 9604 8a3e d9fc ac3b
00000040: f30e 56bf e719 363e 7d33 eebd 43cf 3bbe
00000050: f6b8 f53e 8593 f5bc 92d3 9b3d 5476 5c3e
00000060: c016 17be 5ee7 67bd 2091 d83e e190 8fbd
00000070: 129b 023f cf4e e33e dd2f f5bd 988a e9bd
00000080: 41c3 bb3d df93 c5be 2da4 96bd 3424 4ebe
00000090: 0025 843e 341e 903e 07d2 54be b56f 1b3e
000000a0: 4078 1dbe 87eb 213e 693a f0be 6fed adbe
000000b0: 70cd 9ebd 47fa f8bd db9f 3b3e d5c4 10be
000000c0: cf83 68be 088e 67be e045 ea3c b221 f13e
000000d0: 358c cfbe 8325 a3be 0dd7 5d3e 1d81 96be
000000e0: 49a0 82bc 467a be3d b1b0 193f 707e 9d3e
000000f0: e8f4 d53e dacc 813e 9615 29be e3ea 863e
00000100: e51d da3e 9ebc 77be 6a80 98be 07f6 803e
00000110: 1eaa b3bc 3e8e b53e 0429 5f3e 26ae 9f3e
00000120: ebf5 893e 097d 593e e713 0abe 909c 613d
00000130: 8998 28bd ae3b 563e ecd0 aa3d 18f7 333f
00000140: ed3d c03d 8366 943c 870f 363e 82a3 fe3e
00000150: 27b5 f73d 0fc6 72bd 6e9d b93e 987e 1fbf
00000160: 8884 4a3e 5376 e43e 212c 363e c9b9 073e
00000170: 5cd5 06bd 16e4 203e e7aa bc3d eb3e a23e
00000180: a4d9 933e 369e 01bf 4ea6 fabd 730c 383e
00000190: c16c 6b3e 114f 81be c3b7 0a3e cbf7 adbe
000001a0: 5833 803d bba7 17bf a4c3 cdbe e42c 3bbe
000001b0: 234b 15be 70ff 003f 009b 87bd 2cfc 83bd
000001c0: 65d3 1d3e 8b6a b1bb 2b9d d53e 1fb2 45be
000001d0: a176 eebd 6b06 0dbe 25d0 68bd 538e 563e
000001e0: 6e54 c0be df65 f93e f0e8 06be bc72 6d3e
000001f0: 4cd2 37bc e95d f23d a893 12be 699c 60be
00000200: 4662 d73d b4ad 263e 0ec4 aabd 1751 3cbe
00000210: 69a6 89be c504 113f fa78 95bd a912 87be
00000220: 6f40 e13d b49a 7abe f5fe 6fbe d5a4 7abe
00000230: b81b 6d3e b13a 23be 66cb c23e a336 093e
0.21736531 -0.07363436 -0.21182491 -0.0060642217 0.46651387 -0.1361451 -0.41817683 -0.24590634
-0.08924296 -0.35463 0.13694187 0.03161766 -0.31593937 -0.37421605 0.26956624 0.005279165
-0.8361656 0.17783318 -0.11630914 -0.18340783 0.47992676 -0.02997757 0.07608713 0.21529514
-0.14754772 -0.056617133 0.42298222 -0.07010055 0.5101787 0.44396064 -0.1197202 -0.11403388
0.09168101 -0.3858938 -0.07355533 -0.20130998 0.2580948 0.28148043 -0.20783244 0.15179332
-0.15377903 0.15812503 -0.46919563 -0.3397021 -0.07754028 -0.121571116 0.18322699 -0.14137585
-0.22706531 -0.22612774 0.028597772 0.4709602 -0.40536657 -0.31864557 0.21664067 -0.2939538
-0.01594557 0.093006656 0.60035235 0.30760527 0.4178841 0.25351602 -0.1651214 0.2635108
0.42600933 -0.24193045 -0.29785472 0.25187704 -0.021931704 0.35460085 0.2179299 0.31187552
0.26945433 0.21239103 -0.13484155 0.05508095 -0.041161094 0.20921203 0.0834063 0.7029891
0.093868114 0.018115288 0.1777936 0.49734122 0.12095099 -0.059270915 0.36252922 -0.6230254
0.19777119 0.44621524 0.17790271 0.13254465 -0.03291832 0.15712008 0.092122845 0.31688628
0.28876984 -0.50632036 -0.12238751 0.17973499 0.22990705 -0.25255635 0.13546662 -0.33978114
0.06259793 -0.5924031 -0.40188324 -0.18278843 -0.14579444 0.50389767 -0.06621361 -0.06444582
0.15412672 -0.0054143122 0.41721472 -0.19306229 -0.116437204 -0.1377198 -0.056839127 0.2095273
-0.37564415 0.48710534 -0.13174796 0.23188299 -0.011219572 0.11834318 -0.14314139 -0.21934666
0.10516791 0.162772 -0.08338176 -0.18390308 -0.26884773 0.566479 -0.07298465 -0.26381424
0.10998618 -0.24473077 -0.23437102 -0.24476941 0.23155105 -0.15940358 0.38045806 0.13399749

player_tree_2.W.bias f4 [12]
00000000: ceea dd3c 4854 43bb dba0 d53c 7f7d c13c
00000010: 1ee4 35bc c00c afbb bfe5 2b3c d624 cd3c
00000020: aa26 ee3c 1721 78bc e69f af3a b2cb 263b
0.027089503 -0.0029804874 0.026077678 0.023619412 -0.011101751 -0.005342096 0.010491787 0.025041979
0.02907117 -0.015144608 0.0013399094 0.0025451002

player_tree_2.W_self.weight f4 [12, 12]
00000000: f0a6 26be 7ecf 5fbe 272a 27be f86f dd3e
00000010: 5ef5 edbd 2f13 a43e 725b fabd b9a5 513e
00000020: 92fb 6bbc 8d87 aa3e 51f2 a3be 4454 fdbc
00000030: 58c5 29be 0f1d 953e e1c2 e43d 4a6a 65be
00000040: 3053 42be d6c4 9abe 5b87 12bd 4464 2d3e
00000050: 45e4 7ebe 2ae9 813d fcb1 063e fe4a cebc
00000060: e2c8 b43d 050e a3be 28df 963e d948 8d3e
00000070: ef7f 3f3e c99f aa3d 55c9 57be d59f 003f
00000080: a03d babd 3cb1 943e f3e1 af3e b415 bf3e
00000090: 766a 2abd d5bd 923e ee3a 093f d60d 293d
000000a0: 366e f83c e2d4 cd3d d9c2 f33d 9deb 12bf
000000b0: 1826 b73e 8b51 51be 97ea 03be c16c dcbd
000000c0: 114c a13e 1563 d0be 4f93 d1bd ae28 c43d
000000d0: f52a 36be cc2c a8bd 6408 16bf 332d 203e
000000e0: e402 96be 5fbe 533d b128 d2be eadd 47be
000000f0: 1d02 3dbe b579 4a3e f2a1 c03e 38a6 f33e
00000100: 2da5 b3bd 8e12 0a3e d055 c33e 502a 43bf
00000110: ae34 21be 1188 82be 4da3 8a3e a9ab 263f
00000120: c172 463e 45d7 043e 3e02 973e fdf9 543e
00000130: f780 683e f792 d9bb b9cf d7be d1ed 51be
00000140: c0d5 44be 3d01 17be 67db 263e 1711 793e
00000150: 5e3c 0fbc fe37 52be 4687 943a b899 9d3d
00000160: 9c3e a5bd 2f40 60be 2bff d93d 4105 55be
00000170: 3a32 a63d 5b49 d73c 27f4 6bbe 2cc6 20bc
00000180: 7e9d 46be d92b c2bd eb1f 003f c44d 973d
00000190: 632c dfbd 99ce 0bbf 9375 403e f0eb 183d
000001a0: a36d ff3e 3089 613e 4bd9 f8bc b9fd c2be
000001b0: 13c0 e63c 9858 553e 612a 10bd 0ced 5b3e
000001c0: 7926 513e b40e 02be cf3d 34be 54b3 a4bb
000001d0: ad52 9ebe 10f3 67be fdb2 53be cd8a 64bc
000001e0: cdaa eebe 0514 36bf a048 9a3e 9cff 75be
000001f0: c48b 12be 9be7 8c3c 7137 adbc c51d cd3e
00000200: 660c c33d c494 2bbf c973 e4bd 7398 5abd
00000210: f77d 8ebe 668b 71be 53f2 0d3e fc61 e03e
00000220: b8f6 8c3e 128b 793e a532 ecbe db11 bdbe
00000230: 5076 ae3e de31 5cbd 8692 bc3c 1d39 e6bd
-0.16274619 -0.21856496 -0.16324674 0.43249488 -0.11619066 0.32045886 -0.12224473 0.20473374
-0.014403241 0.33306542 -0.3202081 -0.03092397 -0.16579187 0.29123732 0.11169983 -0.22403827
-0.18977046 -0.302283 -0.035773616 0.1693278 -0.24891765 0.06343301 0.13153833 -0.025182243
0.08827378 -0.31846634 0.2946713 0.2759464 0.18701147 0.08331258 -0.21072896 0.50243884
-0.09093785 0.2904147 0.34352073 0.37321246 -0.041605435 0.28660455 0.53605545 0.04127296
0.03032599 0.1005037 0.119023986 -0.5739077 0.3577125 -0.20441262 -0.12882458 -0.10762931
0.31503347 -0.40700594 -0.10233175 0.095780715 -0.17789824 -0.08211669 -0.58606553 0.15642242
-0.2929908 0.051695224 -0.4104667 -0.19518247 -0.18457837 0.1977299 0.37623554 0.47587752
-0.08771739 0.1348364 0.38151407 -0.7623644 -0.15742752 -0.25494435 0.27077714 0.6510568
0.19379713 0.12972744 0.29493898 0.20798488 0.22705446 -0.006639834 -0.42150667 -0.20500876
-0.19222164 -0.14746566 0.16294633 0.24322926 -0.00874242 -0.20529172 0.0011331819 0.07695335
-0.080685824 -0.21899484 0.106443726 -0.20802785 0.08115049 0.026280096 -0.23042355 -0.009812873
-0.19396016 -0.094810195 0.500487 0.073878795 -0.10897138 -0.5461212 0.18794851 0.037334383
0.49888334 0.22024989 -0.03037705 -0.380842 0.02816776 0.20834577 -0.035196666 0.21477145
0.20424832 -0.12700921 -0.17601703 -0.0050262604 -0.30922452 -0.22651315 -0.20673747 -0.013949108
-0.46614686 -0.711243 0.30133533 -0.24023288 -0.14311129 0.017200282 -0.0211446 0.40061775
0.09523849 -0.67023873 -0.11154897 -0.053368043 -0.2783048 -0.23588333 0.1386197 0.43824756
0.2753198 0.24369457 -0.4613239 -0.36927685 0.3407464 -0.053758495 0.023019087 -0.11241362

player_tree_2.W_self.bias f4 [12]
00000000: ceea dd3c 4854 43bb dba0 d53c 7f7d c13c
00000010: 1ee4 35bc c00c afbb bfe5 2b3c d624 cd3c
00000020: aa26 ee3c 1721 78bc e69f af3a b2cb 263b
0.027089503 -0.0029804874 0.026077678 0.023619412 -0.011101751 -0.005342096 0.010491787 0.025041979
0.02907117 -0.015144608 0.0013399094 0.0025451002

player_tree_3.W.weight f4 [12, 12]
00000000: d558 9a3d 44e5 063e 8096 c03e 422c 053f
00000010: 82f8 e83e d9e0 0fbe d104 f23e 4994 973e
00000020: 3b62 7bbe 2838 0d3f 6662 9abd b7f4 103f
00000030: 558f 723e 907d 13be f4c6 b2bc c626 1b3f
00000040: a254 5f3e e6bd 953e a304 473e 225d 90bd
00000050: 265a d3be 5b06 053e b3cd 82ba fc19 ae3d
00000060: 4253 c2bb 1deb edbe 1a42 f53d b606 c33d
00000070: 1cc9 4a3e 83b2 b3be 047e f8be 055a 743e
00000080: 8de3 b63e b2a9 62bc 2724 f8be 1623 cabe
00000090: 9221 06bf f5ca a83e 0bfd 9bbe 3a92 c03e
000000a0: 0037 e93c 0e50 073e 1ecf 12bd db65 b43e
000000b0: b0bd 8dbe 9f49 403e 30ec 773d 2188 65bd
000000c0: c883 87bc 9190 3e3d 720b 05bf 7e36 e5bd
000000d0: 3c81 163e bd56 8f3e 0094 033e 74a6 e0be
000000e0: 35c9 9abd d236 443e 2308 8d3d 44fc 9c3e
000000f0: 078a 12be 9be7 c43e e356 633d 1c0f 943c
00000100: 07b2 7ebd c2a3 66bd 01f6 fabb 906d 21be
00000110: 68d0 58bb 0f77 d4bd 90dd 8bbe 52b9 c1be
00000120: 21fd 4e3e 9ac0 8dbe 7282 bc3e 0326 af3e
00000130: 6460 a03b 6ac7 71bc 1f0c 433e 560c 163e
00000140: 1f6e 263f 84c9 f23c b6ea a8be a7c9 5ebe
00000150: 1ee3 d43e 79f1 313d af92 94be 059b e4bc
00000160: dfbe e0be 9878 983e f5b3 20bd eae1 72be
00000170: cabc 183f f8fe 21bd 2bd2 3d3e 0414 9cbe
00000180: 06e6 663e fd7e 4abd cced 6abd d2a0 02bd
00000190: 04c9 7a3c d044 38be 61c4 2cbe 45a3 043e
000001a0: aebe 9f3d 0d02 b0be c4d1 c9bc c500 73bd
000001b0: 8efa 9d3d e5ed f83c 73c7 863e 522a 62be
000001c0: dd1b 1a3e 7dff b1be a481 b6be bad7 133e
000001d0: 3693 b53d afd8 0abf 3d72 acbe 8e0d 573e
000001e0: 666d bf3e 507b 79be f5e2 693e edcf fcbe
000001f0: b10a 1fbe b491 893c 70f2 883d 9419 9abe
00000200: b155 893e c65c 83be 55cb a6bd 0d57 e0bd
00000210: 898f 9a3d 8257 b3bd 7cf7 b53e 0a99 af3c
00000220: 6205 17b9 8a71 cf3d 2a3f 2f3d 4a06 783d
00000230: d5e4 c0be f7fe acbe a3d1 e7be e9b8 8a3e
0.075364746 0.13173395 0.37614822 0.5202066 0.45502096 -0.14050616 0.472693 0.2960532
-0.2454919 0.5516381 -0.07538299 0.56623405 0.2368749 -0.14403367 -0.021823384 0.6060604
0.21809629 0.29246444 0.19435363 -0.07049014 -0.41279715 0.12990706 -0.0009979516 0.0850105
-0.0059303353 -0.4646844 0.119754985 0.095227644 0.1980328 -0.3509713 -0.48533642 0.23862465
0.35720482 -0.013834404 -0.48465082 -0.39479893 -0.52394974 0.32967344 -0.30466494 0.37611562
0.028468609 0.13214132 -0.035842054 0.3523396 -0.27683783 0.18778084 0.06052798 -0.056038026
-0.01654233 0.046524588 -0.5197059 -0.11192034 0.14697737 0.27995864 0.12849426 -0.43876994
-0.075579084 0.19161537 0.068863176 0.30661213 -0.14310466 0.3845795 0.055502784 0.018073611
-0.0621815 -0.056308515 -0.0076587205 -0.15764451 -0.0033083204 -0.10374271 -0.27317476 -0.378367
0.20213749 -0.27686006 0.36818272 0.34208688 0.004894303 -0.014757017 0.19047593 0.14653143
0.6501178 0.029637106 -0.3299157 -0.21756612 0.41579527 0.043443177 -0.2901816 -0.02790595
-0.43895623 0.29779506 -0.03923412 -0.23718992 0.5966307 -0.039549798 0.18537204 -0.3048402
0.22548684 -0.04943751 -0.057355687 -0.03189165 0.015306715 -0.17995 -0.16871788 0.12952907
0.07800041 -0.34376565 -0.024636157 -0.059326906 0.07713805 0.030386874 0.26324043 -0.22086456
0.15049691 -0.34765235 -0.35645783 0.14437762 0.08865969 -0.5423688 -0.33680907 0.21001264
0.37388152 -0.24363446 0.22840483 -0.49377385 -0.15531422 0.01679311 0.06686866 -0.3009764
0.2682319 -0.25656718 -0.08144251 -0.109541036 0.075469084 -0.08756925 0.35540378 0.02143528
-0.00014402487 0.10129078 0.042784847 0.060552873 -0.37674585 -0.33788273 -0.45277128 0.270942

player_tree_3.W.bias f4 [12]
00000000: f16a 4b3d 149b 483b c479 8b3c b138 64bc
00000010: 2d9c 1abd 052a 8cbc 0fd6 753c a442 6b3b
00000020: 1b39 6f3d e744 573c e467 393d 4d1c 833c
0.049662534 0.0030610012 0.017025836 -0.013929532 -0.037746597 -0.01710988 0.015004649 0.0035897875
0.05840407 0.013138986 0.045265093 0.016004706

player_tree_3.W_self.weight f4 [12, 12]
00000000: 9b02 2a3e d92a 02be 8433 9ebb 89e1 823e
00000010: e83a 3a3e 7f82 763e c54a b83e 8e2d b8be
00000020: 4062 163d d795 3abc af1c 1dbe 54ff 3d3e
00000030: 0077 18bf 26ad 3fbe 5abb 003f ac0c 17be
00000040: 5198 df3e d548 f03d d351 25be 5d74 ed3b
00000050: 20ab ccbe 5ec8 eb3e 44a8 84be f456 3ebe
00000060: 5f4b 893e af29 5f3d 5d9b d23e 5368 aeba
00000070: f4f2 e33d f8cb cfbe d9f6 a0be b533 043f
00000080: 4d42 383f 869a 923e 01e7 9abd 80c1 fa3b
00000090: 4738 8d3e 5308 8fbe cf87 a3be e6bb a93e
000000a0: 8407 e4bd 75a0 07bf e6d5 5abe a092 563e
000000b0: 879d 0abf 37a2 68be e10d cebe 53c3 e7be
000000c0: 13fc 84be 4d78 61be 445c 79be 70ef 9bbe
000000d0: a79a f73e 7deb 2e3d 9804 873e d196 c3be
000000e0: 8021 fa3e 5e4f d9be 642b edbd 91f2 d33e
000000f0: fc30 8ebe 4f2c 6b3d 9ab4 0c3f fe62 60be
00000100: d7a5 8cbd 2eda 3a3e d768 b6be a383 ae3d
00000110: 5bb0 cf3d 5e1d 2a3e 3ed6 41be c403 3cbf
00000120: b37f 2a3e f35a d43e 835c aabc 9ff8 1d3e
00000130: 5508 cf3d e531 3f3e fb3b 3abd 81e4 8f3c
00000140: f1e0 883e 7e2a 463d 891a d3bd eff3 863e
00000150: eb16 ac3e c967 223c fc38 0a3f 3960 6ebe
00000160: 7c1b 88be cd96 f73d 4c10 213d 1a12 7fbd
00000170: 6532 32be cce0 c6bd a142 dc3e e987 8bbe
00000180: 6dc5 c33d f850 163e 4e0f 033f 4cd8 0cbd
00000190: 774f 6bbc c0a8 15bd 0692 d7be 9471 2bbe
000001a0: 829c 1d3d 84f1 cdbe f751 63be 393a 27bd
000001b0: 3c3a 8f3e 065e ec3d 4ec9 a53e 51d9 8dbd
000001c0: c1d8 4a3e 57ca 14bf 6ea2 563c 9bb4 c1be
000001d0: 7fd7 eb3a c346 333e dd33 273f aa74 723d
000001e0: 42dd 11bd 995b 3bbe f864 b13b 8e5c 0fbd
000001f0: f0e4 9d3e 942e 873e 8794 8fbd eed5 ce3e
00000200: 6a7f 373d 8644 d63d c553 a73e 7611 2ebf
00000210: 2e30 313f dde5 d7be 93b1 c73d 9411 f73e
00000220: 10f0 e03e 32fc 10bf 9774 94bd bad0 87bd
00000230: bc7a cdbe 23e0 433e de35 92be 4ce1 72bd
0.16602556 -0.12711658 -0.0048279185 0.25562695 0.18186533 0.24073218 0.35994545 -0.35972255
0.036714792 -0.011388264 -0.15342973 0.18554431 -0.5955658 -0.18718395 0.50285876 -0.14750928
0.43670896 0.117326416 -0.16144495 0.0072465376 -0.39974308 0.46051306 -0.25909626 -0.18587857
0.26815316 0.054483112 0.41134158 -0.0013306238 0.11130324 -0.40585303 -0.3143833 0.516414
0.71976167 0.28633517 -0.07563592 0.0076524615 0.27582 -0.27936038 -0.3193955 0.33151168
-0.11134246 -0.52979213 -0.21370658 0.2095437 -0.5414662 -0.2271813 -0.40244964 -0.45266208
-0.25973567 -0.22018547 -0.24351603 -0.30456114 0.48360178 0.042705048 0.26370692 -0.38201
0.48853683 -0.42443365 -0.11580542 0.41396 -0.27771747 0.057415303 0.54963076 -0.21912763
-0.06867569 0.18247291 -0.3562686 0.085212015 0.10141059 0.16612765 -0.18929383 -0.73443246
0.16650276 0.4147564 -0.020796066 0.15426873 0.10109011 0.18671377 -0.045467358 0.017565014
0.26734117 0.048380367 -0.103077956 0.26357982 0.33611235 0.00991244 0.539932 -0.23278894
-0.2658347 0.1208931 0.039322183 -0.062273122 -0.17402036 -0.09710845 0.43019584 -0.2725213
0.0955914 0.14679325 0.5119523 -0.034385964 -0.014362208 -0.036537886 -0.42103595 -0.16742545
0.038479336 -0.40223324 -0.22199236 -0.04082701 0.27974117 0.11541371 0.32380146 -0.069262154
0.19809248 -0.58121246 0.01310025 -0.37833104 0.00179933 0.17507462 0.6531351 0.05919329
-0.0356114 -0.1829666 0.0054136477 -0.035000376 0.30838728 0.26402724 -0.07010751 0.4039759
0.044799246 0.104622886 0.326811 -0.67995393 0.6921414 -0.4216756 0.097506665 0.482556
0.43933153 -0.5663482 -0.072488 -0.06631608 -0.401327 0.1912847 -0.28556722 -0.05929689

player_tree_3.W_self.bias f4 [12]
00000000: f16a 4b3d 149b 483b c479 8b3c b138 64bc
00000010: 2d9c 1abd 052a 8cbc 0fd6 753c a442 6b3b
00000020: 1b39 6f3d e744 573c e467 393d 4d1c 833c
0.049662534 0.0030610012 0.017025836 -0.013929532 -0.037746597 -0.01710988 0.015004649 0.0035897875
0.05840407 0.013138986 0.045265093 0.016004706

player_tree_4.weight f4 [8, 12]
00000000: 56eb 6fbd 0714 37bf 2143 af3e 566b 9ebe
00000010: 8053 39bf d810 a7be da0f 453e d550 70be
00000020: 2551 533e ce3f aa3e bb70 953c ed84 c2be
00000030: 6e73 713e 07d7 da3d 1161 18be 9252 be3d
00000040: 6281 e6bc 615a 17be 5f87 ccbe 6fc0 3c3e
00000050: 47d1 c93e 5878 cabe e878 b0be 9ec8 203f
00000060: 480a 0e3e 6842 b23d dcdf acbc 66e2 053e
00000070: e759 0ebe 0971 e63d 1173 b23d 230f febe
00000080: a292 553f d84a bbbd b477 0dbc 2c8a 1b3d
00000090: 97c7 a13e 41d2 00be 8f51 843e a711 e53d
000000a0: 6df5 9d3b 4c8b 1abf ca28 eb3d 1fdd 703e
000000b0: bb82 ed3c fee6 db3e e2f9 813e 77ab 4a3e
000000c0: 9a28 ca3e 9dd9 123f a716 00bf c766 a1bc
000000d0: ba89 0cbe 4a8b bc3e 9a4d a5be 1a7a 903e
000000e0: 9356 ae3d 6a7c 71bd b8d5 003f 6458 64bf
000000f0: 74a0 823e 1495 063e 59da b73e 76ae 343f
00000100: e12c 973d 5f91 ca3d 4d98 ac3d 8255 d23e
00000110: 8c62 c0bd 8e92 1b3e 379e 363e 1d7f 9fbe
00000120: be48 39be 305a 7b3e 966a 62be 54eb 2e3f
00000130: 2239 003f 3e8b 2abf 2c0a 2c3e 561f c43c
00000140: 3b3c 133e a76a 08bf 2ffe 623c d9c9 6ebe
00000150: ee63 013e dcf1 003f ea84 fc3c 176b 4dbf
00000160: a78b 22be e4e7 4c3f d8bf 8f3d aea0 00bf
00000170: c8af 21bd dd79 c5bc 9caa 783e a746 c33e
-0.058574043 -0.71514934 0.34230903 -0.30941266 -0.72393036 -0.32630038 0.19244328 -0.23468335
0.20636423 0.33251804 0.01824223 -0.3799204 0.23579189 0.106855445 -0.14880778 0.09293093
-0.028137866 -0.1478057 -0.3994703 0.18432783 0.39417478 -0.3954494 -0.34467244 0.6280612
0.1387111 0.08704072 -0.021102838 0.13074645 -0.13901483 0.112520285 0.087133534 -0.49620923
0.8342687 -0.09145135 -0.0086344965 0.037973568 0.31597587 -0.12580206 0.25843474 0.111850075
0.004820517 -0.603688 0.11482389 0.23521851 0.028993001 0.4294967 0.25385958 0.19791971
0.39484102 0.573633 -0.50034565 -0.019702328 -0.13724414 0.3682502 -0.32285768 0.28218156
0.085126065 -0.05895654 0.5032611 -0.89197373 0.2551304 0.13142806 0.35908774 0.70578706
0.07381607 0.098910086 0.084274866 0.41080862 -0.09393796 0.15192625 0.17833792 -0.31151667
-0.18094155 0.24546123 -0.22110972 0.6832783 0.5008718 -0.66618717 0.16800755 0.023940723
0.14378445 -0.5328774 0.013854547 -0.23319186 0.12635776 0.5036905 0.030825097 -0.8024153
-0.15873586 0.80041337 0.07019013 -0.5024518 -0.03947428 -0.02410596 0.24283832 0.3813984

player_tree_4.bias f4 [8]
00000000: a7dd 053d 7c60 1a3d c7e5 043d 8c05 3e3d
00000010: 2794 403c 7392 3d3d e599 d7bc 1d2e ec3c
0.032682087 0.03768967 0.032445695 0.04639201 0.011754072 0.046282243 -0.0263185 0.028830582

sun_influence_1.W.weight f4 [12, 12]
00000000: 2c13 a7be d93f 11bf 9ac3 32bf 2a84 013f
00000010: 4844 0e3d 7680 dbbd c35d c33d d56b cf3d
00000020: a4b7 093f f39d 563e 6f41 263f e181 a63e
00000030: 86f4 293e 0660 10bf 032f b5be b21b 36be
00000040: 88d0 72be b9a3 98be 8a62 06bf f75c 1bbf
00000050: 86be 06be ce19 8fbe 7a89 abbd 9169 36be
00000060: d497 2cbf bb0b d03e 3e6c fb3d 5a24 ff3d
00000070: f12f 33bf b8ee 30bd 6e61 70be cb40 7a3e
00000080: dd1e ed3d 77e3 2f3e eeeb a6be 3226 063d
00000090: 8cae 2ebe de38 95be 99b7 563e a83f 993e
000000a0: 07a2 0ebe cc98 edbe 4b3d 1b3d c367 31be
000000b0: 4d70 3abe 04a4 f43c 3451 9f3e 40b5 da3d
000000c0: b355 233e c2a3 06be cb23 7cbe 4a1d b93e
000000d0: 5302 173e 6d49 833e 9aa2 0ebe 6203 c9be
000000e0: f1a7 843e 49ef 22be c99f cdbe 34b2 babd
000000f0: 51f7 bd3e 1900 68be 0efe edbb f073 22be
00000100: e6ec 0d3d ef43 aebe 27c6 90bd 97a6 93bd
00000110: 3dc8 54bc 91ab 893e 12f2 ef3e 7136 c8bc
00000120: e10f 883e f4a5 a83c 698a 3d3e 1621 04bf
00000130: 9daa 863e d096 dfbc 0a9a 693e 4442 eb3d
00000140: 6cd4 46bf 97c5 983c 9a44 b8bd 60a9 a73e
00000150: b6a0 ddbc 1993 f6be 64c4 2bbd a569 883e
00000160: d533 38bd 512e 873f c4df 7bbe 6104 9c3d
00000170: 7961 833e 6f0c 2abe 3b3c 163f 485c f6bd
00000180: ab68 0a3f 0aa5 99bd b82b f43e f392 4b3e
00000190: 949a b4be ffc3 dd3d 7f25 733e f227 cf3d
000001a0: 52cc 87bd 5433 fe3d a6d2 1cbe c651 25be
000001b0: 91b6 ccbc ddbf 7d3d f398 083f 2af6 2dbf
000001c0: dc72 8ebe 60b6 9e3d b485 04bf e9e4 11be
000001d0: 7a17 ecbd c466 febe dadb 413e f459 0f3e
000001e0: f6d9 6bbe f793 47be b7ea d73e d4cd 0abf
000001f0: fe0a e0be e1a7 5fbd 17c0 99be ed0b ee3d
00000200: 77d4 593e 7bbe 103c ba0c 9e3e fa8f 0ebd
00000210: b205 433e 7c9b 83be ede3 c5be 96ae bc3c
00000220: cb47 debe c9aa 643e bf54 123d e830 bf3e
00000230: 4a45 1b3d b2f9 bd3e 76d1 d8bd 4f4e 323d
-0.32631814 -0.5673805 -0.69829714 0.5059229 0.034733087 -0.10717861 0.09539368 0.10127989
0.5379584 0.2095869 0.64943594 0.32520965 0.16597185 -0.5639652 -0.3538743 -0.17784002
-0.23712361 -0.2981241 -0.5249411 -0.6068873 -0.13158616 -0.27949375 -0.08375831 -0.17813708
-0.6741917 0.4063395 0.12276505 0.124581054 -0.6999503 -0.04319641 -0.23474666 0.24438779
0.11578152 0.17176615 -0.32601875 0.03275127 -0.17058772 -0.2914495 0.20968474 0.29931378
-0.13928996 -0.46405637 0.03790025 -0.17324738 -0.18206902 0.029863365 0.3111664 0.10679102
0.1595066 -0.13148406 -0.24623029 0.36155158 0.1474698 0.25641957 -0.13929215 -0.39260393
0.2590938 -0.15911593 -0.4016097 -0.09116021 0.3710275 -0.22656287 -0.0072629517 -0.15864539
0.034649752 -0.34036204 -0.070690446 -0.07209509 -0.012987194 0.26888707 0.46864372 -0.024440022
0.26574615 0.020586945 0.1850983 -0.51612985 0.26302043 -0.027293593 0.22812667 0.114872485
-0.7766788 0.018648906 -0.0899746 0.3274641 -0.027054172 -0.48159102 -0.04193534 0.266431
-0.044971306 1.056101 -0.24597079 0.07618023 0.25660303 -0.16606306 0.58685654 -0.1202932
0.5406596 -0.07502182 0.47689605 0.19880275 -0.35274184 0.10828399 0.23744772 0.10115041
-0.06630768 0.12412134 -0.15314731 -0.16144475 -0.024989398 0.061950553 0.5335838 -0.6795374
-0.27822006 0.07749629 -0.51766515 -0.14247479 -0.11527915 -0.4968778 0.18931523 0.13999158
-0.23032364 -0.19490038 0.4217126 -0.5422032 -0.43758386 -0.05460346 -0.30029365 0.116233684
0.21272455 0.008834477 0.30869085 -0.034805275 0.19045141 -0.25704563 -0.38650456 0.023032468
-0.4341415 0.22330774 0.03572535 0.37342 0.037907876 0.37104565 -0.105868265 0.043531712

sun_influence_1.W.bias f4 [12]
00000000: 67bf 37bb d03f e7bc 4a03 a3bb 0d8b cc3c
00000010: 9324 c0bc 67c6 35bc fc8f 6cbc dc58 b33c
00000020: 88b6 223b e74f d8bb 1ac7 52bc ccec 1fbb
-0.0028037669 -0.02822867 -0.0049747573 0.024968648 -0.02345494 -0.011094666 -0.014438625 0.021892957
0.0024828035 -0.006601322 -0.012864852 -0.0024402617

sun_influence_1.W_self.weight f4 [12, 12]
00000000: 4c81 0dbd 6608 3f3e 4f92 053e 8e0f d1be
00000010: c10e a53e 4128 13be 1089 35be 116d e53b
00000020: 8dd6 9b3d d952 9abe 25d4 8bbe 8d3f 39be
00000030: 5cae 583e 255f c53d e6fe acbc 2503 7cbd
00000040: f347 913e 6d05 b63d bbca cfbd ad77 073e
00000050: 1c2e 1bbd f7b5 a73c 166d bbbd eb64 49bd
00000060: b1b0 d2bd 1570 97bd 8d99 e83e 0efc 28be
00000070: c775 323e daec b83c 8f8c bc3d ae57 443e
00000080: e4e0 e43e 14a4 af3e 950b b7bd 7889 503e
00000090: 89f6 50be b69a 07bd 308a 4d3c 6f76 06be
000000a0: b3dc 54be c726 823e c8ee 573d 4fee 4d3e
000000b0: dd04 f2bb c721 c1be 771e 943e 7203 923c
000000c0: 1167 1cbe 733b 683e 84ef a4be 2626 a3be
000000d0: 5383 2bbe 07d8 a83e 3bc8 413e 76d6 a9be
000000e0: 6b8e 55bd ec8b 13be bcf1 4a3e 0a7b 163e
000000f0: 4605 a5be 70b1 e33d 256b 873e 8260 bebd
00000100: 2c30 5fbe 62e9 ffbe 308b f23e cf3e 3bbe
00000110: af63 413e df98 573d 5b31 1e3f 1a13 6b3e
00000120: 2e0f d7be e1c4 2ebd 13e9 0dbf 1d26 4abd
00000130: 816e a8bc 8660 143e 3820 963c ae75 2a3d
00000140: 2049 e3bd 5f0d dfbd 08da 063f 5c83 6c3d
00000150: 163d 08bf 3b7c b0bc ce38 1d3b 992c 2b3f
00000160: b874 46be 6394 3b3f c035 f1be 1003 23bf
00000170: 7885 5e3e a40c 22bd 8ac3 20bf ffc8 373e
00000180: 60f0 93be 031b 373e 3ac2 18be 5a42 c43d
00000190: 3a80 b9bd 3ea6 b9bd c0e5 1abe 8c83 9f3e
000001a0: 0f39 dcbe b6bb 9bbd 82b3 64be 0310 e4bd
000001b0: afe9 7e3e 093b 2ebf 5bb3 06be b19c a73e
000001c0: 456a 853d 8dfa 223e 3bba 90be 8b95 17bf
000001d0: 0b42 d33e 9d73 cb3e 4436 5c3f 3ff8 acbe
000001e0: 138e 0abf b18b 693d ce03 05bd 3d6b adbe
000001f0: bf4d 26be c9aa 033f 4339 16be 5707 d5be
00000200: 8549 403e 89c8 033f cb51 313c 1ad8 9abe
00000210: 3069 9cbe 2409 ae3e 9eb3 773d 9058 edbe
00000220: 3a7f e8be 5759 37be 8a3d fc3d f5ca 24be
00000230: 904d 46be 4792 a33e 4e47 93be f56c 6abe
-0.034547135 0.18655547 0.13044094 -0.4083218 0.3223782 -0.14370824 -0.17728066 0.007001527
0.07609282 -0.30141333 -0.2731029 -0.18090649 0.21160263 0.09637288 -0.021117639 -0.061526436
0.28375205 0.08887754 -0.1014609 0.13229246 -0.03788577 0.02047251 -0.09151666 -0.04916851
-0.102876075 -0.07394425 0.4542965 -0.16502401 0.17427741 0.022573877 0.09206497 0.19174072
0.44702828 0.3430487 -0.08937756 0.2036494 -0.20406546 -0.03310653 0.0125451535 -0.13131116
-0.20787315 0.2542021 0.052717954 0.20110439 -0.0073858337 -0.37721083 0.28929493 0.017823908
-0.15273692 0.22678928 -0.32213986 -0.31865042 -0.16749315 0.32977316 0.18924038 -0.33171433
-0.052137773 -0.14408845 0.19818777 0.14695373 -0.32230586 0.11117828 0.26448932 -0.09295751
-0.2179572 -0.49982744 0.47371817 -0.18285678 0.18885683 0.052636024 0.6179406 0.22956505
-0.4200377 -0.042668227 -0.5543377 -0.049352754 -0.020560505 0.14489946 0.01832591 0.041616134
-0.11097932 -0.10891222 0.5267644 0.05774246 -0.5321821 -0.021543613 0.0023990157 0.66864926
-0.19380462 0.73273295 -0.4711132 -0.6367655 0.21730602 -0.039562836 -0.6279837 0.17947768
-0.2889433 0.17881398 -0.14917842 0.09582968 -0.090576604 -0.09064911 -0.15126705 0.3115505
-0.43012282 -0.076041624 -0.22334102 -0.111358665 0.2489383 -0.6805883 -0.13154356 0.32736734
0.0651441 0.1591589 -0.28267083 -0.5921256 0.41261324 0.39736643 0.860203 -0.33783147
-0.5412304 0.057017986 -0.03247433 -0.3387088 -0.16240595 0.5143247 -0.14670281 -0.41607162
0.18778045 0.5147787 0.010822724 -0.30242997 -0.30549002 0.3399135 0.06047403 -0.4635663
-0.45409566 -0.17905174 0.12316425 -0.16093047 -0.19365525 0.31947538 -0.2876534 -0.22893126

sun_influence_1.W_self.bias f4 [12]
00000000: 67bf 37bb d03f e7bc 4a03 a3bb 0d8b cc3c
00000010: 9324 c0bc 67c6 35bc fc8f 6cbc dc58 b33c
00000020: 88b6 223b e74f d8bb 1ac7 52bc ccec 1fbb
-0.0028037669 -0.02822867 -0.0049747573 0.024968648 -0.02345494 -0.011094666 -0.014438625 0.021892957
0.0024828035 -0.006601322 -0.012864852 -0.0024402617

sun_influence_2.W.weight f4 [12, 12]
00000000: 3eb7 95be eae7 4bbd 47ba 88be bafc ffbc
00000010: 137f 0fbe 853e f13d 80df 81be 7bbb 82be
00000020: af87 4a3c 20ba 073c 295c cdbe 4aee aabd
00000030: 82cc c53e 9cb0 3f3e 420b 78be d127 873e
00000040: 092b 9f3e 1c76 8e3e cb0f f43e bb8d c6be
00000050: 56f1 0e3d 3ea8 253d 866d 68bc 6960 34be
00000060: a627 80bc 3b53 1bbe e966 843d 2f34 79be
00000070: 47f4 463e 868d 07bd 6328 893e 5700 b43e
00000080: 9123 1ebd 5cef aa3e 0c74 dabe 9121 70be
00000090: c247 1d3e fd7a 6fbe f6ba 3b3e 1519 473e
000000a0: 209b 493d 7d78 773e 4a70 4bbe 43fe a73d
000000b0: 5bbf 63bd b180 f03d aa78 07bd 30c5 24be
000000c0: 2b77 2f3e 6e47 2f3e 4cf4 073f 9303 eb3e
000000d0: 036f d23c 3791 9fbe dc84 22be c738 643e
000000e0: 5a60 18be 8bae d23e d2c5 473e 9b23 eabd
000000f0: 669e 333e 00eb 033c 2ca0 973e df5d ee3d
00000100: c992 673e a7d1 913b 76ba 1ebe 15fb b0be
00000110: 7653 853e f55f 073e 538d 0dbe 2f9c 543e
00000120: bd5d 56be 0181 3ebf e6ab 203f b7f0 11bf
00000130: 3209 5f3e f557 fb3d 0a1b 75bd 44a0 8d3e
00000140: 16ee 363e 6061 c53d d190 d8bd ff84 cabc
00000150: fa4f 383e b4bb 4c3d 76c0 7bbe 2a80 8b3e
00000160: 065e 183f c04e ecbd adbf 593c c51c 97be
00000170: ebd6 6bbc 3f69 2abe 146a 5fbf 4505 30be
00000180: 28dd 0ebe 3108 0fbe 8923 923e 3eb9 0e3f
00000190: 3833 36be 88ab 8ebd e688 463e 24a3 01be
000001a0: 3f1e 0abf d0fc 51bd 9d10 c9bd a487 633e
000001b0: 8bf5 ef3e 777f 6ebe a39f 3b3e 582d 75be
000001c0: 9100 c0bd 918c f7bd 71eb 0d3e af22 c73c
000001d0: 2523 b1bd 90e2 4d3e 0776 b73e 515f ce3d
000001e0: 422a f9bd 036d ab3d 0395 283e 25e7 353e
000001f0: 25d6 b13d 666f ed3d f92a 8bbe 4dd3 57bd
00000200: 26d0 a3bd 60f3 2b3e 23e1 cdbc da88 d43e
00000210: 55d9 1cbd 48de 94be 6bec 063e aeae c83e
00000220: b6e5 e33c d72e d03e 1f23 babe a48d ff3e
00000230: af20 17bf 08ef 18bf 5b82 363e 0048 333e
-0.29241365 -0.049781717 -0.26704618 -0.03124844 -0.14013319 0.11779503 -0.2536583 -0.2553366
0.012361451 0.008284122 -0.40109375 -0.08346231 0.3863259 0.18719715 -0.24223045 0.26397565
0.3108752 0.27824485 0.476683 -0.38780007 0.034898125 0.04044365 -0.014186269 -0.17614903
-0.015643906 -0.15168469 0.06464941 -0.24336313 0.19429122 -0.03309395 0.26788625 0.3515651
-0.038608138 0.33385742 -0.42666662 -0.23450305 0.15359405 -0.2338676 0.18333039 0.19443162
0.049220204 0.24167056 -0.19867054 0.082027934 -0.055602413 0.11743296 -0.03307406 -0.16090846
0.17135303 0.17117092 0.5310714 0.45901164 0.0256877 -0.31165478 -0.15870994 0.22287284
-0.14880505 0.4114879 0.19509056 -0.114325725 0.17540893 0.008051634 0.2961439 0.11638998
0.22614588 0.0044500413 -0.15500817 -0.3456656 0.26040238 0.13220198 -0.13823442 0.20762704
-0.20934196 -0.74415594 0.62762296 -0.57007927 0.21780851 0.12272636 -0.05984024 0.27661335
0.1786426 0.096377134 -0.105744965 -0.02472162 0.17999259 0.049983695 -0.24585137 0.2724622
0.5951847 -0.11538458 0.013290328 -0.29514137 -0.014394502 -0.1664171 -0.8727124 -0.1718951
-0.13951552 -0.13967969 0.28542736 0.5575141 -0.17792976 -0.06966311 0.1938816 -0.1265989
-0.539524 -0.05126649 -0.09817622 0.22219712 0.46867022 -0.23290811 0.18322615 -0.23943079
-0.09375108 -0.12087358 0.13859345 0.02430853 -0.086492814 0.20105958 0.35832235 0.10076774
-0.12166263 0.08370402 0.16463093 0.17763956 0.08683423 0.11593513 -0.27181223 -0.052691747
-0.079986855 0.16792059 -0.025131768 0.4151066 -0.0382932 -0.29075837 0.13176124 0.3919577
0.027819496 0.40660736 -0.3635492 0.4991275 -0.59034246 -0.5973973 0.17823164 0.17507935

sun_influence_2.W.bias f4 [12]
00000000: 0158 55bb d63c 52bc 52ea d7bb aa6d e5bc
00000010: 0dc4 e23b 6fe2 9c3b 9a05 d53c e9bd 41bc
00000020: 6008 473c 16c3 253c 9977 5fbc 55f7 efbb
-0.0032553675 -0.012831887 -0.0065892125 -0.028006393 0.0069203437 0.004787735 0.026003648 -0.011825063
0.012147993 0.010117313 -0.013639354 -0.0073231854

sun_influence_2.W_self.weight f4 [12, 12]
00000000: 52d7 98be c677 5f3e 8a10 babd 0516 17bf
00000010: 0d14 963e 8d0e 4b3e 2f01 c6be e402 8f3e
00000020: 49bc b0bc 579f e5bd 1139 053f d70a 503d
00000030: 2307 01be 8ddd 00be 98f8 843e 38b6 5c3e
00000040: 4681 ba3e 3fd4 f8bd fa26 b33e ce55 2c3e
00000050: b6d5 2c3e 30b7 97be 820b 163e e5c9 cabe
00000060: 28d8 1cbe 5f18 5d3d 05c7 e23e 5cfa 633e
00000070: 0704 cabe 1fa0 873e 970d 533e 2283 bebe
00000080: 33c7 c1be a46f 733c 7a20 2fbe d40e 12be
00000090: bcc5 acbe 10c2 5cbe 7044 943e 269c f5bd
000000a0: 52b3 333e 51fd bbbc f28c afbd 0152 05be
000000b0: 4371 823e 8eeb d93e 9ba7 083f da0b 8bbe
000000c0: 1925 0bbf aea2 043e 98e1 44bd bd50 b83d
000000d0: 5b34 f93d eecd 3ebe 8c9d 9ebd a34e de3d
000000e0: f8d5 a23d b7a2 c23e 54e1 4d3d f559 7f3e
000000f0: fda1 793f 6552 39bf 3da9 9c3e e0fb 7ebe
00000100: 71d8 1dbd 9712 c43c a4dd fcbd 2446 42bd
00000110: 32f9 9a3e 7058 cdbd 9278 b3bd 8098 b9be
00000120: ec5d 7bbc 18d7 073e c714 ea3b 6876 86bd
00000130: 82d0 13bd 6271 c6be 0df8 1a3e a453 48bd
00000140: 1131 f23e 8102 ef3d d553 b7bc 4a91 fb3d
00000150: 99f2 68be 899f 4a3e 207d 003f 96da 063e
00000160: 8096 d43c e7b9 73be 2897 9d3e 86a7 ee3e
00000170: 768a a6bd 8df3 c0be 2f47 513e 5aa5 183e
00000180: 6638 a43e e226 3d3d d8e8 6dbe 4f58 8cbe
00000190: c75b 99be 7eb4 90bf 8d88 13be ec31 143f
000001a0: 6ac7 be3e a8a3 d6bc 8c47 85bc f38b bebe
000001b0: a7d1 fc3e d428 d23d 935e 803e 4825 0d3d
000001c0: 77f2 3e3e 1b0c f23e 2761 e8bc 8eea 59bf
000001d0: 3683 e9bd e78e c83e 8ce6 c43c 46a6 c53e
000001e0: 63fb fd3e 5937 f5bd de48 023c 7918 b5bd
000001f0: 209f 823c 0993 093e efdb b8be 88ac 083e
00000200: 8ff9 253e cadb 053e dbed aebc 4916 003e
00000210: 5442 963e ba1a c2bd 5ce0 96be 0210 f3bc
00000220: 5eab 153e f51a 763e c3c2 133f 250e 37bd
00000230: fe81 c5bc 0a7b 8abd a4a4 a33e 4b3c f9bb
-0.29851776 0.21823034 -0.09085186 -0.59017974 0.29312173 0.1982977 -0.38672778 0.27931893
-0.021574156 -0.11212032 0.520402 0.050791588 -0.12600379 -0.12584515 0.25970912 0.21553886
0.36426753 -0.12149858 0.34990674 0.16829607 0.16878399 -0.29631948 0.14652827 -0.39607158
-0.15316832 0.05397832 0.44292465 0.22263473 -0.39456198 0.2648935 0.20610653 -0.3720942
-0.3784729 0.01485816 -0.17102233 -0.14263469 -0.3374461 -0.21558404 0.28958464 -0.119926736
0.17548874 -0.02294794 -0.08571805 -0.13019563 0.25477037 0.42562526 0.53380746 -0.2715748
-0.5435348 0.12952682 -0.048066705 0.089997746 0.12168189 -0.18633243 -0.077448934 0.108548425
0.079509676 0.38014767 0.050263718 0.2493666 0.975128 -0.7239135 0.3059787 -0.2490077
-0.038536493 0.023934646 -0.12346962 -0.047430173 0.30268246 -0.10026634 -0.08763231 -0.3624916
-0.015342217 0.13265646 0.00714359 -0.06565553 -0.03608752 -0.3875838 0.15133686 -0.04890789
0.4730306 0.116703995 -0.022378841 0.12283571 -0.22748794 0.1978742 0.50190926 0.13169321
0.02595067 -0.23801385 0.30779386 0.46612185 -0.08131878 -0.37685814 0.2043731 0.14906827
0.3207428 0.04617966 -0.23233354 -0.27411124 -0.29952833 -1.1305082 -0.14407559 0.57888675
0.37261516 -0.026201084 -0.016269468 -0.37216148 0.49378702 0.102616936 0.25072154 0.034459382
0.1864718 0.4727486 -0.028366638 -0.8512353 -0.114019796 0.39171526 0.024035715 0.3860342
0.49605855 -0.11973447 0.007951943 -0.088425584 0.015945017 0.13434996 -0.36105296 0.13347065
0.1620848 0.13072124 -0.021353653 0.12508501 0.2934748 -0.09477754 -0.29468048 -0.029670719
0.14616153 0.24033721 0.5771906 -0.044691224 -0.024109837 -0.06761749 0.31961548 -0.0076060644

sun_influence_2.W_self.bias f4 [12]
00000000: 0158 55bb d63c 52bc 52ea d7bb aa6d e5bc
00000010: 0dc4 e23b 6fe2 9c3b 9a05 d53c e9bd 41bc
00000020: 6008 473c 16c3 253c 9977 5fbc 55f7 efbb
-0.0032553675 -0.012831887 -0.0065892125 -0.028006393 0.0069203437 0.004787735 0.026003648 -0.011825063
0.012147993 0.010117313 -0.013639354 -0.0073231854

sun_influence_3.W.weight f4 [12, 12]
00000000: 4a5a 31bd 7c88 8ebd 80f7 883e 419d 073e
00000010: c5af 9f3e 9ecf 03bf 812c 44be 5efd 603e
00000020: f775 c53d 97b2 b83d 62e3 513e 72db 71bd
00000030: 65c7 2b3e d5aa ccbd c938 893e d9a6 dcbe
00000040: 8794 8dbd b2cd 4abe c603 bfbe 50b3 3cbe
00000050: 54d0 643d a828 edbe 51b5 5f3e af40 93bd
00000060: 61eb 213f aa75 d03d 4636 11be 7c81 dd3d
00000070: a4d4 86bd 6c8c 8a3e 1a26 1a3e e9c3 aa3d
00000080: 15c4 8d3d 8018 3b3e 486a 1e3e 4644 3cbf
00000090: c322 cd3e 955d ea3e d453 cc3e 0c51 653e
000000a0: bc5f d73d 12e3 893e eb83 b2be d069 453b
000000b0: 8142 6b3e 3848 9e3d 1e77 dbbe bb1e 0abe
000000c0: 99be b0be b2e7 80be 4a7f dc3e 2cc8 73be
000000d0: c925 763d ef77 913e cbc0 123f def3 3a3d
000000e0: 446c 3dbf a288 d43e d94c 0bbb b0e0 d33d
000000f0: 9eda dcbe abce a7be 1080 913e 0007 803e
00000100: 55ea ac3c c6fc 313e ea58 b03c 79c8 2d3e
00000110: 7fff d2bd 9075 b83d f97e 0fbe 3d1e 91bd
00000120: 3ee4 d93d 734a c8bc ad52 f53d 5104 90be
00000130: 488f 063e bb86 cf3e 672c 9ebe 00dc 3f3e
00000140: 7670 803e 5411 fa3d 7637 dcbd 299a 843d
00000150: cbb3 48be 5ea6 bd3e 282c 8d3d 84cf e8bb
00000160: bf07 5f3e a9cf de3c c339 65bd 5704 2bbf
00000170: 7a39 8ebe 49eb babe 5b14 b03d 4c87 80be
00000180: b70a 373e 4557 963e 8580 833d 8874 74be
00000190: 977f 1e3e 9032 b33d 00fc d13e 99a7 5cbe
000001a0: 69ab 82bd 9ec3 d53b a6f3 5c3d 5d0b afbe
000001b0: 63f7 8c3e 3e26 10be b742 b63e 7c25 68bc
000001c0: 4a81 65bd dbbc 943d 2c94 b6be ac96 1d3f
000001d0: 0406 cc3e 5964 81be a1df 243d 1797 0ebe
000001e0: dc60 c73d ca7c efbc 95cb 08be 76f2 c5bd
000001f0: fe76 403d 4741 02be 871e c03e a69a 58be
00000200: 1011 b83e d088 483a 31b2 e1bd a8d3 d4be
00000210: 9081 64be 2a6f debd 1814 03bf d270 6bbe
00000220: f8b4 1abe d6b1 373d 80f9 eebe b24d c23d
00000230: cd87 84be 42f7 e03e be3a edbd 7e55 abbe
-0.043298997 -0.06959626 0.26751328 0.13243581 0.3118879 -0.51488674 -0.19157602 0.21971652
0.09641641 0.09018438 0.20496896 -0.05904717 0.16775282 -0.09993521 0.26801136 -0.43096045
-0.06913095 -0.19805029 -0.37307566 -0.18427777 0.05586274 -0.4632008 0.2184651 -0.07190072
0.63249785 0.10178693 -0.1418086 0.10815713 -0.06583527 0.27060258 0.15053597 0.08338148
0.06922165 0.18271065 0.1547023 -0.73541677 0.40065584 0.45774522 0.39907706 0.22394198
0.10516307 0.26931053 -0.3486627 0.0030122884 0.22974588 0.077286184 -0.42864317 -0.13488285
-0.34520414 -0.2517677 0.43065864 -0.23806828 0.06009463 0.28411815 0.5732543 0.045642726
-0.73993325 0.41510493 -0.0021255522 0.1034559 -0.43135542 -0.32774863 0.28418016 0.2500534
0.021107832 0.17381582 0.021526773 0.16971005 -0.10302638 0.09006798 -0.1401328 -0.070858456
0.10639237 -0.024449563 0.1197866 -0.28128293 0.13140595 0.4053248 -0.3089325 0.18736267
0.250858 0.12210336 -0.10752766 0.06474716 -0.19599836 0.3704099 0.06893188 -0.007104816
0.21780299 0.02719863 -0.05596329 -0.668035 -0.27778226 -0.36507633 0.085976325 -0.25103223
0.17875181 0.29363456 0.064209975 -0.23872578 0.15478359 0.087498784 0.41012573 -0.21548308
-0.0638035 0.0065235635 0.0539433 -0.34188357 0.2753249 -0.14077088 0.35597774 -0.014169093
-0.056031503 0.07262584 -0.3565992 0.6155803 0.3984834 -0.25271872 0.04025233 -0.13924824
0.09735271 -0.029234309 -0.1335891 -0.096653864 0.04698848 -0.12720214 0.3752329 -0.21152744
0.35950518 0.0007649781 -0.110203154 -0.4156773 -0.22315049 -0.108610466 -0.51202536 -0.22992256
-0.15108097 0.044847332 -0.46674728 0.094874755 -0.25884858 0.43938643 -0.1158347 -0.33463663

sun_influence_3.W.bias f4 [12]
00000000: dc76 f23c 2ca6 0b3c ccc1 af39 0f71 e5bb
00000010: 0602 143c 19b6 96bc 134e 3e3c ff52 20bc
00000020: 6c2b afbb 9f98 86bc 0753 fc3c 205e c43b
0.029597692 0.008523505 0.0003352299 -0.007002003 0.009033686 -0.018397378 0.011615294 -0.009785413
-0.0053457525 -0.016430197 0.03080131 0.005992666

sun_influence_3.W_self.weight f4 [12, 12]
00000000: cbdf d03e 81d9 903d a11f 5d3d 6e5e 1dbe
00000010: 7972 eebd acaf f93e a33d 2e3f 53ff 40bd
00000020: 0566 c13d b467 d9be 4f01 95bd f895 11bd
00000030: d033 5dbc 6274 d4bd d179 743e c10a 11bc
00000040: 7e38 9b3e ed24 d23d 7823 803e 9883 5c3e
00000050: 96b6 863c d01a 52bd d796 10bf 7929 8f3d
00000060: ea6a 41bd 4fe8 64be 196e 893e dc10 23be
00000070: a64c 10bc 0c39 753e 27ef f5bb b065 e8be
00000080: a1c2 e43d ad44 f63e b3b0 073f 58e8 193e
00000090: a2a6 f93d e056 733d 51b7 073d 1629 d83e
000000a0: 1693 32bd 74a3 f13d d93e b5be c62c bf3e
000000b0: db2d 893e b9f8 92be 1651 e2bd 7979 03bb
000000c0: 0efb dbbc e257 bf3c 4831 e93d 4c34 9d3d
000000d0: a157 5fbc 5094 3cbe 9bc9 d8be f092 6bbe
000000e0: 60e9 9cbe 7443 ba3d 1987 fb3e 8de6 183e
000000f0: 2202 debc ba76 3abe b593 d7bd b1c2 b73c
00000100: 38eb 30be bd9d 993e 2435 e43e 32eb 58be
00000110: d2a2 503e 1d2f 873d fb73 c43e 0011 80be
00000120: 486c 7abe 64ab af3e a82b a1bd 1ed6 0bbf
00000130: 30a5 94be 553b 8e3e d9e0 0f3f 2c59 bcbe
00000140: 84da 963e 8bf6 4e3e bc0a b2be c0aa 86be
00000150: 7416 523d 006c 25be b0f2 bc3e 23e9 f1bc
00000160: a623 8c3e 1b4e 48bd 7b1b 19bf 598f f2bd
00000170: c9a5 2f3f 1066 efbd 3dfc 4e3e 6555 8f3e
00000180: 84f4 fc3a dab5 593e d6fd a4bd 3933 33bd
00000190: 9504 093f def3 e1be 75ae ccbd 2878 a13e
000001a0: 654e 95be 65cf 0a3f d53a d8bd 8820 113f
000001b0: eb2b 86be c95f bfbd 0bcb 3c3e df80 693e
000001c0: 6b9c c1be b911 23be 24b0 68be e07c 4e3d
000001d0: b3b9 383e 07f0 ed3d f777 b93d cfd6 953e
000001e0: afcf fcbd 549e 9ebd 9844 a93e eb79 09bf
000001f0: 80a6 6fbe 644f cbbd 5c4d 43bd 6bc3 a23e
00000200: ecf6 bd3e 722a dcbd 10a9 0f3d 864b 9e3e
00000210: a59a a73e 693f 463e e758 42be ebf1 de3e
00000220: d203 fabd 844a 18bf 98d0 523c 8ad4 4c3e
00000230: d4dd c83d 8e6a aa3c 9294 7d3d 289c b5be
0.4079574 0.070727356 0.05398524 -0.15368053 -0.11642928 0.4876684 0.680628 -0.047118496
0.09443287 -0.42461932 -0.0727564 -0.035543412 -0.013501123 -0.10373761 0.23874594 -0.008852662
0.30316538 0.10260949 0.2502706 0.21534574 0.016444486 -0.0512951 -0.56480163 0.06990332
-0.0472211 -0.22354244 0.2684181 -0.159244 -0.008807337 0.23947543 -0.007505316 -0.4539008
0.11169935 0.4809927 0.53003997 0.15030038 0.12189986 0.059409022 0.03313381 0.42218846
-0.043597303 0.11798754 -0.3539951 0.37338847 0.26792797 -0.28705385 -0.11050622 -0.0020061417
-0.02685311 0.023357335 0.11386353 0.076759905 -0.013631732 -0.18415952 -0.42341313 -0.23005271
-0.306468 0.09094897 0.4912651 0.14931698 -0.027100626 -0.18209353 -0.1052622 0.022431703
-0.17277229 0.30003157 0.44571793 -0.2118347 0.20374611 0.06600783 0.38369736 -0.2501297
-0.24455369 0.34310448 -0.07869655 -0.5462359 -0.29032278 0.27779642 0.56202465 -0.36786783
0.2946359 0.20211236 -0.34773815 -0.26302147 0.051290944 -0.1615448 0.36903906 -0.029530114
0.27370948 -0.048902612 -0.59807557 -0.11843748 0.68612343 -0.11689389 0.20213409 0.27994838
0.0019298946 0.21260777 -0.08056228 -0.04375002 0.53522617 -0.44131368 -0.099942125 0.31536984
-0.29161373 0.5422271 -0.10558096 0.56690264 -0.26205382 -0.093444414 0.1843683 0.22803067
-0.3781465 -0.1592473 -0.22723442 0.05041206 0.18039589 0.11618047 0.090560846 0.29265448
-0.123443 -0.077450424 0.33060145 -0.5370166 -0.23403358 -0.09927252 -0.047681198 0.31789717
0.3710245 -0.10750283 0.03507334 0.30916995 0.32735172 0.19360127 -0.18979226 0.43543944
-0.1220776 -0.594887 0.012867115 0.20002952 0.09807935 0.020802762 0.061909266 -0.354707

sun_influence_3.W_self.bias f4 [12]
00000000: dc76 f23c 2ca6 0b3c ccc1 af39 0f71 e5bb
00000010: 0602 143c 19b6 96bc 134e 3e3c ff52 20bc
00000020: 6c2b afbb 9f98 86bc 0753 fc3c 205e c43b
0.029597692 0.008523505 0.0003352299 -0.007002003 0.009033686 -0.018397378 0.011615294 -0.009785413
-0.0053457525 -0.016430197 0.03080131 0.005992666

sun_influence_4.weight f4 [8, 12]
00000000: eb83 adbc 2258 06bf dc4b 8d3d 40f7 fe3e
00000010: 1e20 38bf f372 c4bd f9ee e5bd 19c5 d7bd
00000020: 5eae f73e f760 8f3e 7485 773e 46cf fa3e
00000030: f76e 8e3e 8e48 33bd 2f3d 50bd 62b4 5c3e
00000040: 8d32 833e 9dba 43be f763 343e 3e9f ddbe
00000050: 7a6c c6ba cb99 003f 4dd1 afbe 44e5 05be
00000060: a873 023f 89f7 633e 2f29 fcbc 1fd1 f4bd
00000070: 1f4c 783d 9bb4 97bd ff6d 2dbe 8577 0bbe
00000080: 65f5 69bb 456a 963e 46cc a03e 1b95 00bf
00000090: 6be5 213f 65c0 b33d 6efa eebe d078 e83e
000000a0: a928 193e 5be4 2fbe 9e2b d13e 6bd4 673e
000000b0: 229d 313e a532 0fbe 0eae d5bd d81b 8dbe
000000c0: 6691 0dbe 4f63 9d3e 7058 2a3f 0306 eebd
000000d0: ff74 02bc 02d4 5e3c df7e 143e 2b18 45bc
000000e0: 8151 bbbe 0ba0 613e ef75 573f 0fd3 aabe
000000f0: cc21 383f a061 073f 0f68 2bbe 4901 8bbd
00000100: 4211 45be 8a4c 973e eeb9 16be 5f81 2bbe
00000110: e041 19be e779 e2be a9ae 50bf 6151 67be
00000120: c92a 0b3f 7f9e 523e 338c 643e e830 243f
00000130: b867 1f3e d770 a33c 5d9f 8e3e 8674 e2be
00000140: ec11 84be 7682 38bf 20ea 9f3e 763c d43e
00000150: 2ea8 93bd 424b 553e 7201 50bd 7f57 a0bd
00000160: 8d5e 38bf c1fa 76be a32a c3bd d57c f7be
00000170: a2d7 d4bd 3042 a4be 439b 563e a021 a53e
-0.021181067 -0.5247823 0.06899235 0.49798012 -0.71924007 -0.09592237 -0.11227221 -0.1053564
0.4837522 0.28003666 0.24172002 0.48986262 0.27819034 -0.043770365 -0.0508396 0.21553186
0.25624505 -0.19114156 0.17616259 -0.43285555 -0.001513853 0.5023467 -0.3433937 -0.13075739
0.5095773 0.22262396 -0.030781357 -0.11953949 0.06061947 -0.07407495 -0.16936491 -0.13619812
-0.0035699245 0.29377952 0.31405848 -0.50227517 0.6324069 0.08776931 -0.46675438 0.45404673
0.14956917 -0.17176954 0.4085359 0.22639625 0.17345098 -0.13984163 -0.10433589 -0.27560306
-0.13824996 0.3073983 0.66541195 -0.116222404 -0.007962464 0.013600351 0.14501522 -0.012029688
-0.3658562 0.22033708 0.8416433 -0.3336415 0.7192657 0.5288334 -0.16738914 -0.067873545
-0.19244865 0.29550582 -0.14719364 -0.1674857 -0.14966536 -0.4423363 -0.8151651 -0.22589637
0.5436216 0.20568274 0.22319107 0.64137125 0.1556691 0.019951267 0.2785596 -0.44229525
-0.25794923 -0.7207407 0.3123331 0.41452378 -0.07209812 0.2082949 -0.05078263 -0.078291886
-0.72019273 -0.24119093 -0.09529617 -0.48337427 -0.10392691 -0.32081747 0.20957665 0.32252216

sun_influence_4.bias f4 [8]
00000000: cb21 d33b d45b 803c e4f2 93bb 057a 463c
00000010: 44d9 af3b 757d cd3c 37f4 573c 1917 3d3b
0.0064432374 0.015668787 -0.004515039 0.012114053 0.0053664763 0.025084237 0.013180784 0.0028852879
