src/Photosynthesis/RL/SavedModels/model_10.pth (torch, 30290 bytes, 34 tensors)

player_tree_1.W.weight f4 [12, 12]
000000 2a a7 b9 3e 63 a3 dc be a0 70 a5 3e 62 85 da bd
       0.3626035 -0.43093404 0.3231249 -0.10669972
000010 ad d6 7f 3e 14 b0 eb bd b8 96 0b be 62 af 66 3e
       0.24984236 -0.115081936 -0.13631713 0.2252784
000020 b2 ff 08 3f 40 ec 2e be 2e 8b 0e 3e 3c 46 cc 3d
       0.5351516 -0.1708231 0.1392028 0.09974334
000030 45 80 df 3d 2e 7d 57 3e 72 cc b4 3e 5e ae 06 bc
       0.10913137 0.21043846 0.3531223 -0.008220283
000040 fa 91 30 3e 34 cf 10 bf e6 09 d4 bd 73 c4 63 bd
       0.17243186 -0.56566167 -0.103534505 -0.05560727
000050 9d 64 be 3e 0f 80 03 3e 7e a5 01 3f be d0 a6 3e
       0.37186137 0.12841819 0.50643146 0.32581133
000060 82 a1 6f be 76 31 5a 3e df be d6 be 01 7a 04 3e
       -0.23401454 0.2130793 -0.41942498 0.12937166
000070 44 25 7c 3e 83 5c 6a 3e f0 30 86 bd 4d 5c bf be
       0.2462359 0.22886853 -0.06552303 -0.37375107
000080 f3 5c b9 3e 75 c3 06 3e ef 3a c4 be e0 5a e6 bd
       0.36203727 0.13160498 -0.38326213 -0.11247802
000090 bd 92 d5 3d 42 59 99 3e 7e c0 ee 3c e4 e3 79 3d
       0.10428379 0.2995091 0.029144522 0.06100835
0000a0 cc 69 f6 3d 11 35 51 be b3 b2 c3 bd 2f 6b c3 be
       0.12031898 -0.204304 -0.095555685 -0.38167712
0000b0 52 93 88 be 1b d9 8b 3e d2 d2 5f be 20 3d b2 3e
       -0.26674896 0.27314076 -0.21857765 0.3481226
0000c0 32 aa 80 be 91 1c a9 3d 92 2f 43 bd d1 1d 9e 3d
       -0.2512985 0.08257402 -0.04765279 0.07720531
0000d0 56 7b 92 3d 59 5f 6f 3e 23 e6 c2 be f6 68 cc 3e
       0.07152431 0.23376216 -0.38066205 0.3992383
0000e0 ff 4e 44 be 79 60 71 3e 9e de 04 3e ce 14 3a 3f
       -0.1917076 0.23571958 0.12975547 0.72687995
0000f0 d9 8e a1 bb 8a ce 57 3e 7d af ac 3e c2 eb a4 bd
       -0.004930359 0.21074882 0.33727637 -0.0805278
000100 91 24 d7 3d cd ca b2 3e 67 78 ec 3d 33 2b b9 3d
       0.10505021 0.3492035 0.115464024 0.09041443
000110 51 a8 0e 3d ec 67 37 3f da 81 31 be 3a 22 6d 3e
       0.034828488 0.7164295 -0.1733469 0.23157588
000120 f5 b7 c2 bd b9 89 ee 3d cf 75 f8 3e e3 0f 8d 3e
       -0.09507743 0.11647362 0.4852738 0.27551183
000130 93 c9 9b be 94 eb 96 be ee 9a bc bb 66 f3 a6 3e
       -0.30427226 -0.29476607 -0.0057557737 0.32607573
000140 9b 58 48 be a7 85 b1 be d4 51 f8 3c 69 78 80 3a
       -0.1956505 -0.3467228 0.030312456 0.000980151
000150 55 28 5a 3e c0 2d 25 3e 3e 03 20 bd 73 89 b8 bd
       0.21304448 0.16130733 -0.039065592 -0.09010591
000160 e3 58 e2 3d a3 5a 30 be 14 e8 f7 be d1 27 82 3d
       0.1105211 -0.17222075 -0.4841925 0.063552506
000170 e5 fe ab be d9 42 a2 3e 49 9d 84 be 73 58 fd 3e
       -0.33592907 0.31691626 -0.2590125 0.49481544
000180 76 92 9d 3e c2 97 6a be 31 5e 35 bf b8 15 13 3d
       0.30775803 -0.22909454 -0.7084685 0.035909384
000190 51 82 c6 be 55 1d 28 bc c0 f0 8b be 87 fd 11 bd
       -0.387713 -0.0102609 -0.27332115 -0.035642173
0001a0 59 c4 82 3e ee ae 80 3e fc 6e f3 be 04 15 04 bd
       0.25540426 0.2513346 -0.47545612 -0.032246605
0001b0 bb 3d f1 bc 8e 8f a1 3e c2 b6 9c be c4 9f 72 bd
       -0.02944838 0.31554836 -0.30608183 -0.059234396
0001c0 78 e4 0a 3e 6b 1b 6a 3e 2b 40 df be a7 e1 33 bd
       0.13563716 0.22862022 -0.43603644 -0.04391637
0001d0 f2 6f 08 bf e0 a6 66 bd 84 4b 0b be e3 bd 78 3e
       -0.53295815 -0.05631149 -0.13603026 0.24291186
0001e0 6b 84 50 3f 04 fc 92 3d 92 db 8d bd fe 53 b3 3c
       0.81452054 0.071769744 -0.06926645 0.021890637
0001f0 6f d7 c5 3e 53 3a d3 3e 97 64 2a be 78 04 de 3d
       0.38640925 0.41255435 -0.16639934 0.10840696
000200 1b 92 cb bc f0 4d d2 be 97 32 d2 be 2d b9 2b 3e
       -0.024849942 -0.41075087 -0.41054222 0.16769858
000210 e4 4e cc 3d 92 b5 be be 32 08 2b 3e 17 be 8f be
       0.09975985 -0.37247902 0.16702345 -0.28074715
000220 52 e5 81 3d db 42 85 be 5c 08 4a 3e 57 1e 08 be
       0.063425675 -0.2602757 0.19729751 -0.13292824
000230 e3 ab 1f bf f1 a8 00 bf cb 5e b9 3c 3b 46 23 bd
       -0.62371653 -0.50257784 0.022628209 -0.0398619

player_tree_1.W.bias f4 [12]
000000 d1 00 2a bc a2 54 82 bc 54 01 8c 3d d5 77 4f bc
       -0.010376171 -0.015909497 0.06836191 -0.0126628475
000010 50 bb ea bc a5 54 08 3d 39 ab e2 38 84 2b 5e 3c
       -0.02865377 0.03328385 0.000108084125 0.01356018
000020 07 e8 9a bc 39 8d 1a bd 51 d4 80 bc 50 a5 4c bc
       -0.018909467 -0.037732337 -0.01572624 -0.012490585

player_tree_1.W_self.weight f4 [12, 12]
000000 fa ba a9 3d 38 25 e0 3e c7 f2 c9 3d 63 bc bc be
       0.08287616 0.43778396 0.09860759 -0.36862478
000010 53 74 2c bd 93 5a 5e be 64 31 25 3e 66 af b0 3d
       -0.042103123 -0.21714239 0.16132122 0.086272046
000020 8b 10 03 3f 72 d7 1e be ef d1 bd be 8c 11 44 bd
       0.5119712 -0.15511873 -0.3707423 -0.047868297
000030 b4 82 d8 bd 5b 11 c0 3e e1 ef 17 3e b1 cb 89 be
       -0.10571805 0.3751324 0.148376 -0.26913217
000040 14 ed 5c 3d a1 50 2b be fa ca a1 3e e7 cc 86 3d
       0.053937033 -0.16729976 0.3160017 0.06582051
000050 af 5f 81 3e e2 4a 0c 3f 70 6e d1 3d 2e ec 95 3d
       0.25268313 0.5480176 0.102261424 0.07320438
000060 9c 7c a2 bc 9f f9 75 3e 29 33 89 3d 37 d3 1e 3e
       -0.019834809 0.24021004 0.06699211 0.1551026
000070 35 0d 98 3d 52 0d aa bd 0c 12 58 bd f8 b3 dc be
       0.07424394 -0.08303322 -0.052751586 -0.43106055
000080 89 5f 00 bf a0 ed 6a 3e 71 c9 f3 3d 91 a5 3a 3e
       -0.50145775 0.22942209 0.11903656 0.18227221
000090 f8 d6 03 bf ab a1 53 3e ea 14 e2 3e 20 04 04 bf
       -0.5149989 0.2066714 0.4415658 -0.51568794
0000a0 1e 08 a6 3e 18 e4 85 3e 56 51 3c 3e 96 56 5f bf
       0.32428068 0.26150584 0.18390402 -0.87241495
0000b0 4a 0a c6 3d a2 19 33 bd c6 2c f6 3d 28 e4 a4 3d
       0.09669931 -0.043725617 0.120202586 0.0805133
0000c0 b9 0d 13 be 00 06 04 be da f0 86 3e e2 1a 81 bd
       -0.14360704 -0.12892914 0.2635563 -0.063039556
0000d0 87 07 6e 3e 41 69 12 3e fa a4 09 3e c6 c9 a7 be
       0.23245059 0.14297964 0.1344184 -0.32771128
0000e0 31 e7 24 3e 16 cf b7 bd 4d 10 d5 be 74 00 2b bd
       0.16103818 -0.089750454 -0.41614 -0.04174848
0000f0 ff fa 0d be ee 07 e1 3e 0d ec 01 3e 84 d2 ee 3e
       -0.13865279 0.43951362 0.12687702 0.46644986
000100 42 a3 57 be 38 66 01 3e be be e6 bd 8c 59 63 bd
       -0.21058372 0.1263665 -0.1126685 -0.05550532
000110 43 2e 88 be 51 83 10 bf 58 04 89 3e 1d d8 61 be
       -0.26597795 -0.5645037 0.26761127 -0.22055097
000120 63 5d 41 3e 08 b0 0d 3c da d7 13 3f bb 5d 0d 3f
       0.1888328 0.008647926 0.5775124 0.55221146
000130 32 89 12 3e de 45 8d 3e c9 29 a7 bd 08 41 1a bf
       0.14310148 0.27592367 -0.08162267 -0.6025548
000140 89 3e d1 3d d6 1c 0d bc dc e6 19 bf a5 42 13 be
       0.10217006 -0.008612832 -0.6011789 -0.14380892
000150 ff 74 6c 3c de 03 3b 3a c2 91 85 3e 1d d4 68 3e
       0.014432191 0.000713406 0.26087767 0.22737165
000160 91 ff 96 be ac 81 bf 3e 72 63 0c bf 61 6c 1b 3e
       -0.29491857 0.3740362 -0.5483924 0.15178062
000170 71 0f c9 3d 56 97 33 3e 74 df 06 3d 64 b7 93 3e
       0.09817398 0.17538199 0.032927945 0.28850853
000180 e1 94 dc 3e d3 93 f4 be 2c 99 3c bf dc e0 f9 3e
       0.43082336 -0.4776903 -0.7367122 0.48804367
000190 27 d0 b8 3e e9 bb be be bd ce e3 bd 77 49 b9 3e
       0.36096308 -0.3725274 -0.111234166 0.36188862
0001a0 0b 10 e8 bd 07 65 f6 3e 1b 52 59 3e 07 d2 e7 bd
       -0.11331185 0.48123953 0.21222727 -0.113193564
0001b0 01 8f de be a1 3d b7 bd 52 58 e9 bc 54 ea f9 3e
       -0.43468478 -0.08947302 -0.028484497 0.4881159
0001c0 b3 6b 47 3e 6f 5c 8a 3e 57 a7 ef 3e e8 4a 6e 3e
       0.19474678 0.27023646 0.46807358 0.23270762
0001d0 65 18 80 3e 45 27 e5 3d 39 2c 57 be 38 15 b4 be
       0.25018612 0.11189131 -0.21012963 -0.3517244
0001e0 73 1c 98 3e 0e cc 5d be 36 3e 98 3e d8 5d f9 bb
       0.29709205 -0.21659872 0.29734963 -0.007610064
0001f0 84 db e2 be c9 fa 8b 3e a9 09 13 bc 29 a6 ab 3d
       -0.44308102 0.2733977 -0.008974471 0.08381302
000200 60 59 7d be 78 fa 78 3e 86 4b ac bd ea e4 85 be
       -0.24741125 0.24314296 -0.084128425 -0.2615121
000210 63 01 05 3e 86 42 d5 3e 9d f5 c6 be 0c 6e 9a 3e
       0.1298881 0.41652316 -0.38859263 0.30162084
000220 69 fe 8d be 4a cd 88 3e 50 c9 a5 be 34 5c ff bd
       -0.27733162 0.26719123 -0.32380152 -0.12468758
000230 d5 32 74 3e 5b 96 da bd 46 a0 39 be f2 4d 08 bf
       0.23847516 -0.10673209 -0.18127546 -0.53243935

player_tree_1.W_self.bias f4 [12]
000000 d1 00 2a bc a2 54 82 bc 54 01 8c 3d d5 77 4f bc
       -0.010376171 -0.015909497 0.06836191 -0.0126628475
000010 50 bb ea bc a5 54 08 3d 39 ab e2 38 84 2b 5e 3c
       -0.02865377 0.03328385 0.000108084125 0.01356018
000020 07 e8 9a bc 39 8d 1a bd 51 d4 80 bc 50 a5 4c bc
       -0.018909467 -0.037732337 -0.01572624 -0.012490585

player_tree_2.W.weight f4 [12, 12]
000000 90 19 75 3e 81 d9 a3 be 61 ee 2b bf 58 ce fb bb
       0.23935533 -0.3200188 -0.6716061 -0.00768451
000010 da 6d 9f bd c3 dc 90 be f0 04 c6 3e 6e 7d e9 3d
       -0.077846244 -0.28293428 0.38675642 0.11400877
000020 83 09 c2 3e 7d 8c 24 be 13 43 25 be 51 0a 25 bf
       0.37897882 -0.16069217 -0.16138868 -0.64468867
000030 fd 2e 07 bf bc db 9b be 73 29 c6 3c f2 15 d6 3e
       -0.52806073 -0.30441082 0.024189686 0.41813618
000040 68 74 9f 3e 3b b3 4a 3e c6 31 a2 3e 3b e4 1f 3e
       0.31143498 0.19794933 0.316786 0.15614407
000050 04 6a f5 be 6e e9 4d 3e 45 a0 c7 be aa 40 69 3d
       -0.47932446 0.20108578 -0.38989463 0.056946434
000060 59 18 4f 3f d8 b6 bb be 57 be 1f 3f 79 df 38 bd
       0.80896527 -0.36662936 0.6239981 -0.045134995
000070 8c 4d c2 3e 17 fb 13 3e 03 47 7c be 54 22 fe bd
       0.3794979 0.14451252 -0.24636464 -0.12408891
000080 60 e4 26 be ad 00 a7 3e 8d 92 00 bf bf e2 ce be
       -0.16298056 0.32617703 -0.5022362 -0.4040737
000090 c0 71 44 bc 9d 62 0e be 45 4f 80 3c 04 9f a0 be
       -0.011990011 -0.13904805 0.015662799 -0.3137132
0000a0 19 18 64 3e 36 e0 04 3c d6 a8 9b 3d 65 f1 41 be
       0.22274818 0.008110097 0.07600562 -0.18939741
0000b0 7b 6c ff 3d 7f 1c 9a bd 6f 50 ab bd db 0b f0 3d
       0.12471863 -0.075249664 -0.08364951 0.11721011
0000c0 44 28 d7 bd 7d b2 07 bd 37 48 e7 be a3 b8 ad be
       -0.10505727 -0.033129204 -0.45172283 -0.3392993
0000d0 dd 34 aa bc 79 69 dc bb 63 5b a1 3d e6 04 69 3e
       -0.02077716 -0.0067264405 0.07878759 0.22755775
0000e0 cd 20 a9 3d 74 72 e8 3d 4e 98 08 3e 4b d3 07 3e
       0.082582094 0.11349955 0.1333935 0.13264196
0000f0 7c 21 bb 3e 97 87 3e 3e 2f 68 59 3e 3a 4e dc 3d
       0.36548984 0.18606411 0.21231149 0.10757108
000100 72 97 02 3e c6 45 2b be 5a e6 f5 bd 06 bc ae be
       0.12753084 -0.16725835 -0.12006827 -0.34127825
000110 36 b6 ca 3e 52 ee b5 bc 9a 97 27 bf 99 de 82 be
       0.3959214 -0.022208367 -0.654657 -0.25560454
000120 14 b0 da bd 93 dd 26 be 0e 0a 05 bf 54 d8 e3 3e
       -0.106781155 -0.16295461 -0.5196847 0.44500983
000130 e9 3e 41 3d b7 34 56 3e 98 12 92 3d 8a f8 73 3e
       0.047179136 0.20918547 0.07132453 0.23825279
000140 7b 58 e3 3d 70 b3 fd 3c a3 8d ec be a3 54 1a 3d
       0.11100861 0.030969352 -0.4620181 0.037678372
000150 b2 bc a5 3e 4d 0b 39 be 45 a1 1c bc 62 0b 43 3d
       0.32370526 -0.18070717 -0.009559934 0.047618277
000160 29 b2 af 3e 4d 8b c0 bd 2c b2 89 3e be 38 2c be
       0.34315613 -0.094015695 0.26893747 -0.1681852
000170 05 9a f8 3e 7a fa e1 bd 5a 65 91 3d d2 84 2e bf
       0.48555008 -0.11034103 0.070994094 -0.6817142
000180 a9 b3 e4 be de 69 71 bc 2a 95 ae 3d 99 13 80 3e
       -0.4466832 -0.014734713 0.085245445 0.25014952
000190 12 b9 07 3f 10 5d 97 3e fc 98 a0 3e 0a 8e 1f 3e
       0.5301677 0.2956319 0.31366718 0.15581527
0001a0 15 aa 7f 3e 08 ce a0 bd c4 c6 bf bc c6 34 6d bd
       0.24967225 -0.07851797 -0.023410209 -0.057911657
0001b0 92 14 f2 be 98 88 e1 3e dd d0 05 be 8b 81 83 3e
       -0.4728132 0.44049525 -0.13067956 0.2568477
0001c0 05 09 c3 3e 20 87 03 bf 9b bf 18 bf f9 85 98 bb
       0.3809282 -0.5137806 -0.59667367 -0.0046546427
0001d0 81 ba dc bc ac b2 f6 3e 22 9d a0 3c 44 37 f5 3e
       -0.0269444 0.4818319 0.019606177 0.47893727
0001e0 51 aa ec bd 4e ac 03 3e d8 91 48 be 4a ec 2a be
       -0.11555923 0.12858698 -0.19586885 -0.166917
0001f0 bb 0b 8b be 10 33 83 be 71 14 1f bf 83 8e bc 3d
       -0.27157387 -0.25624895 -0.62140566 0.092068695
000200 19 20 49 3d 45 f4 84 be 45 0e 12 be 35 ba 31 3e
       0.049102876 -0.25967613 -0.14263256 0.17356189
000210 35 73 34 3e 27 84 63 3e d2 bb 86 be ea 3a 04 be
       0.17622073 0.22218381 -0.2631517 -0.12913099
000220 ef ae 93 be 5a 71 0c bf 95 b7 cb 3d 01 61 f2 3e
       -0.288444 -0.5486046 0.09947125 0.47339633
000230 5a c9 7d 3e 5b 7e ec bd cb ec bc be bb c1 d5 3d
       0.24783841 -0.11547538 -0.3689941 0.10437342

player_tree_2.W.bias f4 [12]
000000 ff 06 8b bc d7 38 ac bb 9b 38 6e 3d 15 3a eb 3c
       -0.01697111 -0.0052557993 0.058159452 0.02871422
000010 89 50 fb bc 5e 89 93 bd 4d 29 3a bc d0 b9 37 3d
       -0.03067805 -0.07203935 -0.011362386 0.04485494
000020 2d 5f 77 bc 20 9b 58 bb b9 10 60 3b 06 bd 14 3d
       -0.015098375 -0.0033051446 0.0034189655 0.03631308

player_tree_2.W_self.weight f4 [12, 12]
000000 3e 7d 1a 3e 64 c7 ae be 3c 61 98 3e 63 a4 08 3f
       0.15086839 -0.34136498 0.29761684 0.53375834
000010 8a 16 f9 be ee 67 40 bf a4 64 e2 3d 97 e8 61 bd
       -0.48650008 -0.75158584 0.11054352 -0.055153456
000020 27 a2 3f bd a9 5a f2 be 32 0f bb 3e 84 15 8f 3e
       -0.0467855 -0.47334793 0.3653503 0.27946103
000030 bb 85 db 3e 79 c3 a0 bd 2b 8f 04 be 66 7a 2e 3b
       0.42875466 -0.078497835 -0.12945239 0.0026623248
000040 d5 27 e1 bd 7f 24 dc be b6 f4 97 be 02 1f a5 bd
       -0.109939255 -0.42996594 -0.29678887 -0.08062555
000050 e2 c3 33 3f 2d 15 95 3e bb 53 ef 3d 15 e5 ec ba
       0.7022077 0.29117718 0.11685892 -0.0018073643
000060 14 b0 42 be 11 ff 82 be 74 18 52 be 0f 34 c1 be
       -0.19012481 -0.25585225 -0.2051714 -0.3773503
000070 d8 7e 70 3e 99 79 f2 bd 8f ed b1 be 96 12 88 3e
       0.23485887 -0.11839599 -0.34751555 0.2657668
000080 6d 97 ec bd 2f 8e 46 bc 5d 92 1a be b4 31 76 bd
       -0.1155232 -0.01211886 -0.15094896 -0.060105994
000090 20 ca 82 bd 47 c5 04 3d 33 23 80 bf 88 b8 2c 3e
       -0.063862085 0.0324147 -1.0010742 0.16867268
0000a0 65 df 72 3e b9 6a 58 be dc 89 39 3f 54 76 96 be
       0.23718031 -0.21134461 0.7247598 -0.29387152
0000b0 56 e2 bb 3d 7f 22 c6 bd 56 05 fa 3c 78 6f 05 be
       0.091740295 -0.09674548 0.030520122 -0.13030803
0000c0 0b 9e fb be ff 9f 89 bd 73 dd b1 be 6b 5d 6c 3e
       -0.49144015 -0.0671997 -0.34739265 0.23082511
0000d0 6f c5 9c 3e 3d cc 31 be 6e 2b 12 be 44 ad dc 3d
       0.3061938 -0.17363067 -0.1427438 0.10775235
0000e0 28 e6 50 3d a9 c7 98 3e d8 ee 80 be c2 15 41 3e
       0.051000744 0.2983983 -0.25182223 0.18855956
0000f0 d4 90 c6 be c3 f8 d7 bd 5d b3 46 be e3 4f e7 be
       -0.3878237 -0.105454944 -0.19404359 -0.45178136
000100 c1 89 1f be 94 e2 ba 3e e7 ef 1d be b5 09 cb be
       -0.15579893 0.3650099 -0.15423547 -0.39655843
000110 5c 91 75 3e c4 56 d2 3c db b4 30 be 60 95 db be
       0.23981231 0.025676139 -0.17256491 -0.42887402
000120 bd 33 d8 3e 6c cd 37 bd 88 6f 39 3e 24 66 ea 3d
       0.42226973 -0.04487364 0.18108952 0.11445263
000130 f1 64 b5 3e c0 88 c5 3e 15 98 a6 3e d9 fe 19 bf
       0.35428575 0.38580894 0.32537904 -0.6015449
000140 11 17 89 bd b7 e6 8b 3e e6 4c b5 bc c9 52 b0 be
       -0.06693853 0.2732446 -0.022131395 -0.3443816
000150 6c d8 0e 3f 40 d9 2a be 82 fa 03 3f 2d 53 bf bd
       0.55798984 -0.16684437 0.5155412 -0.093420364
000160 0f 1d d4 bd 29 af 6d bd 76 5c 95 be 5c a2 b5 3e
       -0.10357105 -0.058028374 -0.29172105 0.35475433
000170 90 cc cc 3e 2f 4c 53 be c2 c7 d0 3e c6 57 05 3d
       0.3999982 -0.2063453 0.40777403 0.03255441
000180 7d 4a bb 3e a0 36 d9 3e a2 a1 84 be 8b f1 7e be
       0.36580268 0.42424488 -0.25904566 -0.24896829
000190 e9 14 0c be 74 f5 c7 be fa ee 23 bf ff 2d d3 bd
       -0.13679852 -0.39054453 -0.64036524 -0.103115074
0001a0 0b a1 54 bd a5 6a 7d be bb 48 80 3e 4e 98 85 be
       -0.051911395 -0.24747713 0.2505549 -0.26092762
0001b0 0b 7e b5 3e 5f 93 df 3e 66 52 85 3e d3 d0 f4 bd
       0.35447726 0.43667123 0.26039428 -0.119538926
0001c0 a1 2b 2c 3f 25 44 c0 3e 01 8e c4 3e cd 3e ab 3e
       0.6725407 0.3755199 0.3838959 0.3344635
0001d0 e5 07 32 3e e2 ae ee 3e aa 96 be 3e cb 6a ec 3e
       0.17385824 0.466178 0.37224323 0.46175227
0001e0 bf 7d 19 3f d2 34 f4 3d ab b2 9b be f0 70 eb be
       0.599575 0.11924137 -0.3040975 -0.45984602
0001f0 da f6 e5 3e c7 f1 96 be d3 80 e0 3e ae 09 74 bd
       0.44914895 -0.29481336 0.43848285 -0.059579544
000200 86 93 14 3e 6b f1 4b be 2c 38 5e be 24 2e 55 be
       0.145094 -0.19916312 -0.21701115 -0.20818383
000210 35 f2 3d 3d ea 58 bb 3d af 64 3b bd 2c a5 df bc
       0.046373565 0.091478184 -0.045750316 -0.02730044
000220 a5 f9 f7 3c e5 cd a5 be 29 e5 2c be 65 1c eb be
       0.030270407 -0.32383648 -0.16884293 -0.459201
000230 20 63 cf bd f6 a5 eb bd 9b f5 93 be ef 19 c9 3e
       -0.101263285 -0.11506264 -0.2889832 0.39277598

player_tree_2.W_self.bias f4 [12]
000000 ff 06 8b bc d7 38 ac bb 9b 38 6e 3d 15 3a eb 3c
       -0.01697111 -0.0052557993 0.058159452 0.02871422
000010 89 50 fb bc 5e 89 93 bd 4d 29 3a bc d0 b9 37 3d
       -0.03067805 -0.07203935 -0.011362386 0.04485494
000020 2d 5f 77 bc 20 9b 58 bb b9 10 60 3b 06 bd 14 3d
       -0.015098375 -0.0033051446 0.0034189655 0.03631308

player_tree_3.W.weight f4 [12, 12]
000000 6d 1c bc be 26 07 35 be 99 ea 2d be d0 a3 51 bf
       -0.36740437 -0.17678508 -0.16984023 -0.81890583
000010 a6 93 df 3e a1 9c 06 3c 02 2e 95 be 59 06 a7 3e
       0.43667334 0.008216054 -0.29136664 0.3262203
000020 ec 0b 73 3e b1 ef 54 be b8 bb d4 be 1b 20 3d bd
       0.23735017 -0.2079456 -0.41549468 -0.046173196
000030 06 5f e3 be fa d6 bd be cc 91 4f bf 44 75 46 3c
       -0.44408435 -0.37078077 -0.81081843 0.012112919
000040 b5 1f 6f 3e 67 f4 03 3e a3 93 6e be 1f c0 7a 3e
       0.23351939 0.12886201 -0.23298506 0.24487351
000050 65 a4 19 3e d9 f9 2d 3e e1 7e 4f be 38 8f 08 be
       0.15004118 0.1698984 -0.20263244 -0.13335884
000060 94 86 74 be eb 78 e7 3e d5 fd 5b 3d 28 23 b3 3d
       -0.23879462 0.4520944 0.05370887 0.0874694
000070 87 26 81 3e cc 45 86 be 04 2a 0f be ca be df bd
       0.25224707 -0.26225126 -0.13980871 -0.10925062
000080 8c 19 85 3c 02 0e 9e 3e 7b 7f 1a 3f f9 f0 87 3d
       0.016247533 0.30870062 0.6035077 0.06637759
000090 a7 98 10 be 75 70 77 3e 31 c6 d3 be 43 1e ee 3e
       -0.14120732 0.24163993 -0.41362146 0.46507463
0000a0 c5 c4 0c be 99 5a c4 be a9 12 5e be 9f e4 b5 bd
       -0.13746937 -0.3835037 -0.21686806 -0.08881497
0000b0 b2 7b c6 bd ca 9f 0e be 86 10 39 be 38 cf 02 bf
       -0.09691562 -0.13928142 -0.1807271 -0.5109744
0000c0 08 b7 39 3e 34 d6 a9 3e 3c 77 88 be 59 9a 3a bf
       0.18136227 0.33171237 -0.2665347 -0.72891766
0000d0 f8 94 8d 3e d6 0e 1e 3e aa 7c 11 3e 23 b1 35 bc
       0.27652717 0.15435347 0.14207712 -0.011089596
0000e0 08 ee 99 3d 15 da 2a be 3e fd 05 3f 0c b3 98 3d
       0.07516104 -0.16684754 0.5233954 0.074560255
0000f0 66 59 04 3e 5e 62 8f 3d 21 0f f4 3e c6 c9 63 3e
       0.12924728 0.07001184 0.47667792 0.22244939
000100 fd 36 16 3f 0a e6 23 3e 95 22 42 3f d5 e0 c5 be
       0.58677655 0.16005722 0.7583402 -0.38648096
000110 f0 a0 51 3e 4a 58 5e 3e fe be 03 be dd a4 e0 3e
       0.20471549 0.21713367 -0.12865826 0.4387578
000120 f7 ab 09 be ef b3 55 bd 5c 5c 86 be 49 f0 80 be
       -0.13444506 -0.05217355 -0.2624234 -0.25183323
000130 62 55 a2 bd 94 b9 76 3e cc 3b bf bd df 2d f0 3c
       -0.07926442 0.2409423 -0.09337577 0.029318748
000140 fe 24 b0 bd 33 5e 81 3e fa c6 06 3e 11 14 cd 3e
       -0.08600806 0.2526718 0.13161841 0.40054372
000150 ab 48 e0 3e 55 55 ac 3e 30 fa 21 3f 13 1f 1c bf
       0.4380544 0.33658853 0.6327238 -0.60984915
000160 9d 7a c0 bd 22 b7 32 be fe 68 e5 3d 06 7d 01 bf
       -0.093983866 -0.17452672 0.11201666 -0.50581396
000170 9a fb d5 be a6 0c 8c 3e f9 fd 8c bc c5 29 82 3e
       -0.4179352 0.273534 -0.017210947 0.25422493
000180 8e cd a1 be 1d 78 f4 be 33 ab ac 3d 5c 33 36 bd
       -0.31602138 -0.4774789 0.08431091 -0.044482574
000190 25 6d 93 3d ac c3 90 bd 24 9b 90 3e b4 6e c1 be
       0.07198552 -0.070685714 0.28243363 -0.37779772
0001a0 0c 1b 5b 3e 64 b4 85 bd 07 f9 33 be 37 a5 11 3f
       0.21397036 -0.065285474 -0.17575465 0.5689272
0001b0 41 1a 26 3e 4a 93 c4 be 2b 0e 80 be 60 31 e5 3c
       0.16220953 -0.38393623 -0.2501081 0.027977645
0001c0 5a 6b 4e 3e 4e 1a 70 be 98 93 a0 3d 71 db eb 3e
       0.20158139 -0.23447534 0.07840651 0.46065858
0001d0 52 64 c6 bd 51 c6 91 be 9a 6c d5 3e 51 3c 3a 3c
       -0.09687103 -0.28471616 0.4168442 0.01136692
0001e0 2f f1 99 3e 71 b9 20 bf 5c 2e 2f 3d 27 ae b6 3d
       0.3006682 -0.6278296 0.04276882 0.08919936
0001f0 fd 28 29 be be a9 ef bb 2a ed 66 be 3b 7c d7 3e
       -0.16519542 -0.007313936 -0.22551408 0.42086968
000200 77 c6 54 3d 03 86 a7 be ba e8 d9 bd e5 f0 6c be
       0.051947083 -0.3271943 -0.10640092 -0.23138769
000210 26 8c 01 be 6f 80 73 3d 44 3b 13 3e fd 3c b8 3e
       -0.12651119 0.059448656 0.14378077 0.3598403
000220 d6 a4 32 3d bb da 37 ba 8f c4 2f bd 35 fb 93 bc
       0.04361423 -0.00070134894 -0.042912062 -0.01806412
000230 8c 60 e5 bd 73 ba ca be 96 06 2b be d4 cd b8 3e
       -0.112000555 -0.39595374 -0.16701731 0.36094534

player_tree_3.W.bias f4 [12]
000000 cc 53 1a bd c8 ed 06 3d 5e ab 86 bc c0 14 39 bd
       -0.03767757 0.03294161 -0.016439136 -0.045185804
000010 5b cd e8 bc 90 c9 1b bc ee d9 20 bd 55 cd 82 bd
       -0.028418234 -0.009508505 -0.039270334 -0.0638682
000020 23 bd ae bc ed 21 9c bc 59 d8 9b bb 29 8a b4 3d
       -0.021330422 -0.019059146 -0.0047560153 0.088154145

player_tree_3.W_self.weight f4 [12, 12]
000000 31 48 d1 3d 4a 4f 3c be cc 4d 0b 3f 77 94 56 bf
       0.102188475 -0.18389621 0.54415584 -0.8382029
000010 6d 6a fd be 07 7e c3 bd 75 e8 91 3d b3 db d7 be
       -0.4949526 -0.09545522 0.07124416 -0.42159805
000020 89 6e 22 3e 7b 56 85 be 90 da 81 3e 64 7f b5 be
       0.15862478 -0.26042542 0.25362062 -0.35448754
000030 52 85 e4 bc b9 6b b8 3e 2d e8 09 bf d5 62 24 3e
       -0.027895603 0.36019686 -0.538699 0.16053326
000040 2a 9d 05 be ea bf 4d 3e c6 07 f8 3c 47 ba 08 3c
       -0.13048235 0.2009274 0.030277144 0.008345193
000050 a6 eb 5f 3f 2d 7b 00 bd 17 7f d4 be 81 01 3c 3d
       0.87468946 -0.03136747 -0.41503212 0.04589987
000060 8f e0 dd 3c 00 a3 e3 ba b4 d6 1c be 98 fb 10 be
       0.027084617 -0.0017367303 -0.15316278 -0.14158475
000070 e0 f3 dc be 45 04 15 be e7 f3 93 be 3e cf b0 be
       -0.43154812 -0.1455241 -0.2889702 -0.34533113
000080 31 c8 d5 be c7 1c 05 3f d4 90 69 be 1c 93 29 3e
       -0.41754296 0.51997036 -0.22809154 0.16560024
000090 70 a3 05 be 4a 03 90 3e 03 60 eb 3d f3 ec 5e 3e
       -0.13050628 0.2812751 0.11492922 0.21770076
0000a0 4e b7 15 bf a0 4e 86 be 19 ac b8 3c 5a 91 d8 be
       -0.58482826 -0.2623186 0.022543 -0.42298394
0000b0 3e ad 1b be fa 3e f7 be cd b7 53 3e 62 29 8c 3e
       -0.15202805 -0.48290235 0.20675583 0.27375323
0000c0 7d 02 e9 be cf 85 c4 3e 9e 3e 7f be 82 09 f3 be
       -0.4550971 0.38383338 -0.2492623 -0.4746819
0000d0 db 8b 85 bd 31 64 09 bd c6 9f 52 bc dd 0f 94 bd
       -0.06520816 -0.033542816 -0.012855476 -0.07229588
0000e0 34 21 84 be db 4a 25 be 51 ed a4 bd 06 1c c6 3d
       -0.25806582 -0.16141836 -0.08053077 0.09673314
0000f0 cf d6 b2 3e cb fe fc bc e8 b7 fa bb 5b d9 dc 3e
       0.3492951 -0.030883214 -0.007651318 0.4313458
000100 a4 72 f2 3e 95 5e cd 3d 63 c9 a9 3e 59 0d 3c 3e
       0.4735309 0.10027806 0.33161458 0.18364467
000110 c5 46 db 3e ea e2 34 3e ac 55 e9 3d 12 71 d1 be
       0.4282743 0.17664686 0.11393294 -0.40906578
000120 c4 4d f9 3e 50 9c 84 be 29 8c b0 3e bd d1 5c bd
       0.48692143 -0.25900507 0.34481934 -0.05391096
000130 f6 78 9b 3e 24 c5 9d be ba e6 f7 3e f6 6b 8f 3b
       0.30365723 -0.3081447 0.48418218 0.0043768836
000140 bb 6e 1e bd 30 a2 38 3f 57 10 00 3f af 11 1a 3f
       -0.03867982 0.7212248 0.5002493 0.60183233
000150 f8 db bb 3c be cb 97 3e 6d 4a 9d 3e c9 81 41 3e
       0.022932038 0.2964763 0.30720845 0.18897165
000160 0c 3b 13 3f ab 3f 33 bd ff a9 6e bd f1 36 12 bf
       0.57511973 -0.04376189 -0.05826759 -0.57115084
000170 9e 98 a9 3e 83 43 ba be c0 4a d5 3e 04 81 1c be
       0.3312425 -0.36379632 0.41658592 -0.1528359
000180 fd c3 35 3f 66 33 92 be cb 3e 6d be 96 fd da 3d
       0.7100218 -0.2855484 -0.23168485 0.10692899
000190 ea 77 22 bd 76 03 bb 3e 4a 7d 4c 3d 27 11 0a be
       -0.03966514 0.36526078 0.049924172 -0.13483106
0001a0 a3 0a ee be 82 9d ee 3d 89 27 80 be 26 d9 bf 3e
       -0.4649249 0.11651136 -0.25030163 0.3747036
0001b0 36 dd 81 3e 1e a9 db 3e 24 ef 0b be e2 1d 19 bf
       0.25364083 0.42902464 -0.13665444 -0.5981122
0001c0 42 69 13 be 23 18 a5 be 71 2c 24 bf 7a f7 a2 3e
       -0.14395621 -0.32244977 -0.6413031 0.31829435
0001d0 33 0c 21 be dd 8a 5e 3d 69 2a 85 3e 71 98 f4 bb
       -0.1572731 0.05433165 0.2600892 -0.0074644615
0001e0 3c b6 c9 be b7 3d 1f bf f8 28 85 be 96 3a 95 3e
       -0.39396846 -0.62203544 -0.2600782 0.2914626
0001f0 1f e1 50 be ea 23 3c be ab 70 a7 3d 30 f0 8c be
       -0.20398377 -0.18373075 0.081757866 -0.27527
000200 15 7b 6a 3e 78 a9 9b 3e de cd a1 be 54 47 44 be
       0.22898515 0.30402732 -0.31602377 -0.19167835
000210 f3 f8 c0 be 57 c6 20 be 3e 61 66 3e f7 45 b4 bd
       -0.37689933 -0.1570066 0.22498032 -0.08802407
000220 26 4a ab 3d 4f 03 e6 be 85 1a 0e 3e e9 59 bf 3e
       0.08363752 -0.449244 0.13877304 0.37373284
000230 cd 80 14 3d a5 ab 6a 3e c3 75 a0 3e 5c 23 9d 3e
       0.036255646 0.2291704 0.31339845 0.3069104

player_tree_3.W_self.bias f4 [12]
000000 cc 53 1a bd c8 ed 06 3d 5e ab 86 bc c0 14 39 bd
       -0.03767757 0.03294161 -0.016439136 -0.045185804
000010 5b cd e8 bc 90 c9 1b bc ee d9 20 bd 55 cd 82 bd
       -0.028418234 -0.009508505 -0.039270334 -0.0638682
000020 23 bd ae bc ed 21 9c bc 59 d8 9b bb 29 8a b4 3d
       -0.021330422 -0.019059146 -0.0047560153 0.088154145

player_tree_4.weight f4 [8, 12]
000000 e6 2f 35 be 1c 26 21 bf f1 50 ff 3e a0 43 aa 3b
       -0.17694053 -0.62948775 0.4986644 0.00519605
000010 04 24 b8 be f6 4c 6a be 7e 22 52 be ea e6 0f 3f
       -0.35964978 -0.22880921 -0.2052097 0.5621172
000020 24 89 6d be c1 fb be be 23 a8 d3 3d 99 f4 0f bf
       -0.23196846 -0.37301448 0.10334804 -0.562326
000030 a8 68 e3 bc 85 8b a6 bd a9 26 23 be 82 52 a1 3e
       -0.027759865 -0.0813208 -0.15932716 0.3150826
000040 9f 86 e7 3d 84 78 2d bf ff b6 49 bf 58 62 81 be
       0.11304974 -0.6776202 -0.78794855 -0.25270343
000050 6e e2 c4 be 13 4c 97 3e be 80 17 be d2 b9 04 be
       -0.38454002 0.29550228 -0.14795205 -0.1296151
000060 dc fa a6 be c9 f3 b4 be d2 72 90 3d a8 f1 94 bc
       -0.32613266 -0.35342243 0.0705315 -0.018181637
000070 f5 48 a2 3e 3c 82 fd be 7e c6 60 be c1 09 0d bf
       0.31696287 -0.49513423 -0.21950719 -0.5509301
000080 d0 e8 9c 3e 37 1e 1d bf 65 67 c8 3e ff 4a 04 3d
       0.30646372 -0.6137423 0.39141384 0.032298084
000090 e1 20 2a 3e dd 85 46 3e 32 d9 90 3e c9 3c fb 3d
       0.16614105 0.19387002 0.28290707 0.12267453
0000a0 96 c0 b1 be e3 a7 6c bd f5 17 34 3f 68 66 ed 3e
       -0.34717244 -0.057777297 0.70349056 0.46367192
0000b0 96 33 34 3b 14 22 0a 3f 77 20 be bd af 91 84 3c
       0.0027496568 0.5395825 -0.09283536 0.016182749
0000c0 2f 11 98 be 99 70 2b 3e 98 cb f9 bd f2 6d f9 3d
       -0.2970061 0.16742171 -0.121970356 0.121791735
0000d0 ab a7 0b 3f bb a9 5a be 2c 9b 89 bd 95 87 00 3e
       0.54552716 -0.2135381 -0.0671905 0.1255172
0000e0 0e 03 72 3e 47 66 1e 3e ca 1c 52 bf d2 c1 f3 be
       0.23633978 0.15468703 -0.8207518 -0.4760881
0000f0 80 b4 9e be d8 4b 6e be ae 02 a8 be f1 38 06 be
       -0.30997086 -0.2327112 -0.32814544 -0.13107659
000100 53 23 c2 3e 8e 85 ad be 6f cf de be 29 0a 46 3e
       0.37917575 -0.33890957 -0.43517634 0.19339813
000110 d9 66 91 bd b4 65 44 3e e8 73 c6 3e c6 4d 3f 3d
       -0.07099695 0.19179422 0.38760304 0.04670503
000120 df bb 86 be a3 33 78 3c fc c7 00 3f 07 40 fd bd
       -0.2631521 0.01514903 0.5030515 -0.12365728
000130 4d cd f2 bd 00 ee 61 bf 8c 9c 2e 3f e0 b2 ab 3e
       -0.11855564 -0.88253784 0.6820762 0.33534908
000140 63 71 4c 3e a5 fa b8 be 50 a4 45 bd 6d 43 66 3c
       0.19965129 -0.36128727 -0.048252404 0.0140541615
000150 57 bb 06 3e 3c 71 24 bf e4 d8 d5 bd 05 10 9e 3d
       0.13157402 -0.6423528 -0.10441759 0.07717899
000160 75 55 fb 3e ad 87 88 bc 8c b0 9c bc b5 6c df 3d
       0.49088636 -0.016666258 -0.019127153 0.10909406
000170 3a 8b 31 3d 26 28 1a 3e 57 e7 3a 3e ab d4 f9 3e
       0.043345667 0.15054378 0.18252312 0.48795065

player_tree_4.bias f4 [8]
000000 e3 31 94 bc 14 70 26 3d 0b 93 a9 3c b2 49 40 bd
       -0.018090194 0.04063423 0.020699998 -0.04694528
000010 f1 38 78 bd 7d 8a f5 bc d8 a7 53 3d c4 ec 84 3b
       -0.06060118 -0.029973263 0.05167374 0.004056545

sun_influence_1.W.weight f4 [12, 12]
000000 8b 84 8d 3e 39 ec 73 be 76 7a 08 bd 80 b1 75 3f
       0.27640185 -0.2382058 -0.033319913 0.9597397
000010 84 b6 78 bd 75 0f f4 3e 9d 4c 87 3e c4 11 22 3e
       -0.060720935 0.47668043 0.2642564 0.1582709
000020 9f 47 7e be 27 f8 0b bd 91 a0 4d 3d 3f a8 f8 bc
       -0.24832009 -0.034172203 0.050201956 -0.030353663
000030 a9 21 ac bd 31 8c 17 3f c5 ad bb 3c 48 d9 52 bd
       -0.08404858 0.5919829 0.022910008 -0.051476747
000040 ff 07 7b bd 21 b3 ad 3e 3f 08 90 be 87 82 12 be
       -0.061286923 0.33925727 -0.2813129 -0.14307605
000050 e3 7b ad bc 51 ab 3a 3e 18 ee f7 3e b4 a9 4f 3e
       -0.021177238 0.18229415 0.4842384 0.2027958
000060 20 35 a5 bd 81 cc b7 be e8 6a 53 3e fb 0d 67 3e
       -0.080667734 -0.35898212 0.2064625 0.22563927
000070 e8 27 03 bf 8d 46 d3 3d 37 70 a7 be 0c bb 34 be
       -0.5123277 0.10316191 -0.327028 -0.17649478
000080 26 2f 0b bf 84 ac c9 be af 02 7f be b1 d5 ba bd
       -0.5436882 -0.3938943 -0.24903367 -0.0912279
000090 02 2a 02 3e ba 39 5d 3d 19 ad 13 be af 6c 00 bd
       0.12711337 0.05401013 -0.144215 -0.03135365
0000a0 08 59 2a 3e 01 75 cb be ed 15 01 3f 08 d6 00 3f
       0.16635525 -0.39737704 0.5042408 0.50326586
0000b0 d3 05 83 3d 33 4d a1 be ed c6 35 be d0 1c 39 bd
       0.06397595 -0.3150421 -0.17751665 -0.045193493
0000c0 33 5c e7 3c 03 55 3a 3b 63 c5 86 3e 32 30 9b be
       0.028242206 0.0028432019 0.2632247 -0.30310208
0000d0 c4 c8 c3 be 8f cb 71 bd 94 1f 2e 3e b9 3c ad be
       -0.3823911 -0.05903202 0.17004234 -0.3383539
0000e0 5b d4 09 3d 4c a9 6b 3e 59 ec 45 3f c4 74 80 3e
       0.033649784 0.230138 0.7731376 0.25089085
0000f0 c6 cf 53 be 5a 90 94 3b 6a b5 e5 3d 3c 99 b5 be
       -0.20684728 0.0045338096 0.112162426 -0.3546847
000100 af e8 02 be 33 7d 0e be 3a 77 1e 3e 05 52 5f 3e
       -0.12784074 -0.13914947 0.15475169 0.21808632
000110 e8 bd b7 3e 8f 20 23 3e 2c ef 9c 3d 6c 4d d1 3c
       0.35887074 0.15930389 0.07662806 0.025549613
000120 ea 7c 7b 3e 82 3a 03 bf df 65 10 bf 78 47 2b be
       0.2455937 -0.5126115 -0.5640544 -0.16726482
000130 33 b4 06 3e a8 16 cc be 1f 45 13 3e e6 b8 88 be
       0.13154678 -0.39861035 0.14381836 -0.26703566
000140 75 1d b1 be fa 2b ec 3d 0e cf 86 3e ac 34 d6 3e
       -0.34592786 0.11531825 0.26329845 0.4183706
000150 32 51 fd 3d 72 89 b5 3e 17 49 e3 3e ad 53 aa be
       0.123690024 0.35456425 0.443917 -0.33266965
000160 ee 09 9a 3b 4b 9c 94 3e 57 7b fc be 36 bc 06 bf
       0.0047008907 0.29025492 -0.4931285 -0.5263094
000170 3b 67 7b be 38 d0 a5 3e 92 9b d4 bd e6 ff 1d bf
       -0.24551098 0.3238542 -0.10381235 -0.61718595
000180 a2 10 8a 3d d6 a9 1e bf 7a 67 93 3e 99 fd c4 be
       0.06741454 -0.619779 0.28789884 -0.3847473
000190 5a a0 c9 3e 97 6e 06 3e ae 0c cb be 37 45 c1 bd
       0.3938015 0.13128124 -0.3965811 -0.0943703
0001a0 01 83 73 3d 78 62 a5 3d 7b 04 89 3e d6 5e 69 3d
       0.059451107 0.08075422 0.2676123 0.05697521
0001b0 6c 9f 07 bf 82 11 ca 3e f3 b5 82 be 63 3d 13 3e
       -0.52977633 0.39466482 -0.2552944 0.14378886
0001c0 d2 ad 90 3d 0b 9f 41 bd 5e 1e ac be 53 1d 8c be
       0.070644036 -0.047270816 -0.33616918 -0.27366123
0001d0 31 e3 fb 3e 74 4e 14 be 9d c5 3a be 14 68 26 bd
       0.4919677 -0.14483052 -0.18239446 -0.0406266
0001e0 6e e7 a8 be a3 04 fd 3c f1 70 c3 be 3b cb 9b 3d
       -0.32989067 0.030886 -0.38172105 0.076071225
0001f0 87 e4 50 be a2 90 18 be cf 80 57 be a2 71 02 3f
       -0.20399676 -0.14898923 -0.2104523 0.5095464
000200 3a da ab be bc b1 06 bf ab 11 a6 3e dd 97 0c be
       -0.3356493 -0.5261495 0.32435355 -0.13729806
000210 34 70 34 bd 88 ee d7 3b 6d 6b cd 3d da 34 db 3c
       -0.044052318 0.0065897144 0.100302555 0.0267586
000220 b3 09 5d be 7d 35 57 be 54 3c 27 be 85 2b 4f bf
       -0.21585731 -0.21016498 -0.16331607 -0.8092578
000230 cf 7f 4a 3e ad 48 d8 3b e2 19 43 3f 22 fb ba 3e
       0.19775318 0.0066004605 0.7621137 0.36519724

sun_influence_1.W.bias f4 [12]
000000 f0 c7 9c bc 37 c0 b0 3c 59 50 67 3d b7 86 08 bd
       -0.019138306 0.02157603 0.05647311 -0.0333316
000010 20 02 90 3b 5d b3 b6 ba 5f a5 e1 3c cb 0c fd bb
       0.0043947846 -0.0013938952 0.027544675 -0.0077224723
000020 07 22 b0 bc f8 e1 27 bd 59 21 d0 3c 8a 97 bf 3b
       -0.0215006 -0.040986985 0.025406526 0.0058469223

sun_influence_1.W_self.weight f4 [12, 12]
000000 bf 0d a4 be 57 95 ca 3d 08 fa 02 3f e8 1c c8 3c
       -0.32041737 0.098917656 0.5116277 0.024427846
000010 ee a3 04 3d 55 9d 88 3e 3c fa cc 3e ea d0 1b bf
       0.032382898 0.26682535 0.40034664 -0.6086565
000020 f4 3f 98 3e 32 5f 7b bd 2d 59 5d 3f af 02 df 3e
       0.29736292 -0.061370082 0.86464196 0.43556735
000030 fd af d5 3e 4a 3e b8 be 00 e7 98 be 27 5a b0 3d
       0.4173583 -0.35985023 -0.2986374 0.08610945
000040 a7 8f e5 3e 73 bc 1c 3d 7c 83 c6 3d d2 d7 bc bd
       0.4483616 0.038265657 0.096930474 -0.09220852
000050 aa 71 78 3e 48 3d b4 3e 2c 34 a7 bd 89 50 61 be
       0.2426211 0.35203004 -0.08164248 -0.22003378
000060 70 90 b6 be c6 e4 1c be 32 61 41 be fe 39 6e 3d
       -0.35657072 -0.15321645 -0.18884733 0.058160774
000070 64 61 5e be 8f 6a b0 be 3c 6a 9c 3e d2 9a a9 3e
       -0.21716839 -0.34456298 0.305498 0.3312593
000080 d2 6e a9 be 6e aa 23 3f 67 22 dc 3e 6e 07 5f 3e
       -0.33092362 0.6393193 0.42994997 0.21780178
000090 73 f3 a6 3e f1 e6 cb 3d 9a 9e 1a be b1 b0 8e 3e
       0.32607612 0.09956158 -0.15099564 0.2786918
0000a0 37 f9 04 be 24 c5 b0 be 4f 96 6d be 3c ca a0 bc
       -0.12985693 -0.34525406 -0.2320187 -0.019627683
0000b0 19 cc 37 be fc a7 cc be 49 59 fc be 25 df 01 bd
       -0.17948951 -0.39971912 -0.4928687 -0.031706948
0000c0 e4 4a 1c be b8 6c 97 3d 74 60 03 bf 8a d5 51 be
       -0.15262944 0.07393783 -0.5131905 -0.20491615
0000d0 cf c7 82 3e 31 20 cd 3c 62 37 61 be 97 82 0c bc
       0.25543067 0.025039764 -0.21993783 -0.008576057
0000e0 00 97 2a bf bb b9 c5 bd dd 73 a7 3e 0a 19 21 be
       -0.6663666 -0.09654566 0.32705584 -0.15732208
0000f0 f0 de 5b bd 1f 41 dc 3e a8 75 74 3e f5 7e 10 bf
       -0.053679407 0.43018433 0.23873007 -0.5644372
000100 4c 03 e9 3d 22 b4 e0 3e 28 2b 01 3d 21 4c 60 be
       0.11377582 0.4388743 0.031535298 -0.21904041
000110 1a 13 4e 3c 61 29 3b 3f 45 24 d1 be c3 93 01 3c
       0.012577796 0.73110014 -0.40847984 0.007908764
000120 c0 a7 bc 3c 77 37 bb be 88 43 aa be aa e5 78 3d
       0.023029208 -0.36565754 -0.33254647 0.0607659
000130 ad 8e db 3e 0b b2 1e bb 6a 29 b7 3e 35 a3 2d 3f
       0.4288229 -0.0024215009 0.35773784 0.6782716
000140 b1 26 aa 3c 72 67 1d 3d e9 a0 b8 3c 20 5a 6f 3e
       0.020770403 0.03842873 0.022537665 0.23374224
000150 09 4a e4 3e 52 02 3d 3e 33 53 c6 be 62 2a af 3e
       0.44587734 0.18457916 -0.3873535 0.34212023
000160 ad b2 99 3e 1f f5 79 3e 12 d3 54 3e ab 34 80 bd
       0.3001913 0.24409913 0.20783642 -0.062600456
000170 26 2c 7e 3e d9 88 c6 3d 7a 1d df 3e d5 0d 4d 3d
       0.24821529 0.0969407 0.43577176 0.05006202
000180 e3 6c f2 3e 7f 1a 50 be 70 c8 8f 3e 41 72 04 3e
       0.473487 -0.20322607 0.2808261 0.1293421
000190 65 8d 25 3d e4 d7 ae 3d 30 65 20 be 9e 53 9a 3e
       0.040418047 0.085372716 -0.156636 0.3014192
0001a0 96 e3 8e be 40 fb 8a bd b6 20 84 be a2 cc c4 3d
       -0.2790801 -0.067862034 -0.25806206 0.09609343
0001b0 6f 61 62 3e 30 be 6d 3e 84 df a6 3e cf 9e 01 be
       0.2210748 0.23217082 0.32592404 -0.12658237
0001c0 ee cb 3a 3e 7a 54 3b be 17 b8 64 be 65 f9 6e be
       0.18241856 -0.18293944 -0.2233585 -0.23337324
0001d0 60 21 14 bf 6e 32 33 be d0 f9 1b be 2f 81 9f 3e
       -0.57863426 -0.17499706 -0.15232015 0.31153247
0001e0 b8 01 ba be d5 53 75 be ae 26 c7 bd 85 bb 5e 3e
       -0.36329436 -0.2395776 -0.097241744 0.2175122
0001f0 e8 9e 52 be 06 20 a4 bd 15 6b cb bd 3c 1c 72 3e
       -0.2056843 -0.080139205 -0.09932534 0.23643583
000200 ac cf 05 bf 0f dd da be 25 c3 6d be 50 93 0b bf
       -0.5227001 -0.4274678 -0.23218973 -0.54521656
000210 d1 a7 2d 3e d1 dd 8e be e5 c7 8a bd 0c a0 01 bf
       0.16958548 -0.27903607 -0.06776408 -0.5063484
000220 33 b1 44 3e f9 fa cf 3d d8 11 c0 3d 2f 42 46 3e
       0.19208221 0.10155291 0.093784034 0.19361185
000230 63 62 5b 3e 84 9b 9f be 4d fb 86 be a4 e0 a0 be
       0.2142425 -0.31173337 -0.26363602 -0.31421387

sun_influence_1.W_self.bias f4 [12]
000000 f0 c7 9c bc 37 c0 b0 3c 59 50 67 3d b7 86 08 bd
       -0.019138306 0.02157603 0.05647311 -0.0333316
000010 20 02 90 3b 5d b3 b6 ba 5f a5 e1 3c cb 0c fd bb
       0.0043947846 -0.0013938952 0.027544675 -0.0077224723
000020 07 22 b0 bc f8 e1 27 bd 59 21 d0 3c 8a 97 bf 3b
       -0.0215006 -0.040986985 0.025406526 0.0058469223

sun_influence_2.W.weight f4 [12, 12]
000000 88 55 8c bd f7 99 c5 be ba e7 0e 3f d5 d2 6e bf
       -0.06852251 -0.38594028 0.55822337 -0.93290454
000010 f9 30 98 bd 74 1f 1e bf f7 1b f9 3d 5d fe 1b 3c
       -0.07431216 -0.61766744 0.12163537 0.009521094
000020 7b d1 b5 3e 65 7e a4 3e 46 16 28 bf d2 85 91 be
       0.35511383 0.3212768 -0.65658987 -0.2842241
000030 d9 3f 0f be 3b a2 b0 be 5d 51 84 3d d9 b0 f5 3d
       -0.139892 -0.34498772 0.06460831 0.11996622
000040 04 33 80 3d 27 9f a5 bd 21 e3 24 3d 37 00 88 3e
       0.062597305 -0.080869965 0.04025567 0.26562664
000050 df 8a f4 bd 7d 95 05 3e 52 ae 2d bd e7 1c 95 be
       -0.1194055 0.13045307 -0.042402573 -0.29123613
000060 95 8e e3 be ec d9 eb bd 1c 87 3c 3a 28 93 83 be
       -0.4444472 -0.11516175 0.0007191764 -0.2569821
000070 f0 e1 0f 3e d3 5f c6 be c6 91 ff bd 8b 11 87 3d
       0.14051032 -0.38744983 -0.12478976 0.06595143
000080 87 12 8c 3e 31 7d 8e 3e 10 ee e4 be 1f d8 5b 3e
       0.27357885 0.27829888 -0.44712877 0.21469162
000090 82 e6 94 3d ce be 9a be d3 8b 7b 3e bf 84 06 3e
       0.072705284 -0.30223697 0.24565057 0.13136576
0000a0 29 eb 93 3e 9c 5b 15 3e 6e de e6 be 32 6d fb 3e
       0.2889035 0.14585727 -0.45091575 0.49106747
0000b0 97 22 df 3e da ff 89 bd 96 6c 28 3d 1e cf bd 3e
       0.43581077 -0.06738253 0.04111918 0.3707208
0000c0 6c 28 27 be ed 7e 14 bf 0f f5 85 3e f0 2d 4c bf
       -0.16324013 -0.58006173 0.26163527 -0.79757595
0000d0 72 8a ea bd 63 74 5a 3d 52 b3 cd 3d 3b b5 c1 3e
       -0.114521876 0.05333365 0.10043968 0.3783358
0000e0 2b 94 1a 3e 59 7a fb 3d e1 22 37 3e 27 78 de 3d
       0.15095584 0.12279195 0.17884399 0.10862761
0000f0 3c 2b 58 3e 4c 35 8f be f1 43 cd 3e 36 4f da 3e
       0.21110243 -0.2797035 0.40090898 0.42638558
000100 39 a1 ba be a9 18 df bd 7d 72 d8 3d 5d d7 b3 3e
       -0.36451128 -0.108933754 0.10568712 0.35125247
000110 ef 79 9f 3e 88 59 bb be e9 e6 c3 3e 6f c8 79 be
       0.31147715 -0.36591744 0.38262108 -0.24392866
000120 cc 80 a4 3e 72 b6 86 be 35 09 7f be e2 1b 9b be
       0.32129514 -0.2631107 -0.24905856 -0.3029471
000130 cf 95 cb 3e d3 64 3d 3e b9 40 0e 3e c7 c4 97 3d
       0.39762732 0.18495493 0.13891877 0.07410579
000140 9c 1f 99 be f2 01 f2 3e d5 ff 49 be ba 44 67 3e
       -0.2990693 0.4726711 -0.19726498 0.22584811
000150 b2 fb 48 bd cb 8d 7f be 61 2c 32 3e cb b5 c9 3e
       -0.04906816 -0.24956433 0.17399742 0.3939651
000160 bd e9 b8 be 26 f6 d1 bd a4 ec 92 bd 6b a2 a6 bd
       -0.36115828 -0.10252027 -0.07174042 -0.081364475
000170 1b 3f 25 be 60 19 55 bd 9c a2 93 3c cd a2 19 bf
       -0.16137354 -0.052026153 0.018021874 -0.6001404
000180 7d b0 d9 be e5 d8 d0 be fa df a8 3e 91 ec 02 3e
       -0.42517462 -0.40790477 0.3298338 0.12785555
000190 0a 1f 21 be a2 50 e1 be a0 e1 87 bd bb 81 b9 be
       -0.15734497 -0.4400683 -0.066348314 -0.3623179
0001a0 06 90 e0 3d 12 ee 90 3d ab 8c 10 3f 19 c5 ab bc
       0.1096497 0.07076658 0.5646464 -0.020968007
0001b0 e8 ca 37 3e ec 4d 0f 3d 3f de 85 be 16 0e b6 3c
       0.17948496 0.03498642 -0.26146123 0.022223514
0001c0 55 fa 4d 3d b9 7f 84 be 79 b5 27 be f0 89 d8 3d
       0.050287563 -0.25878695 -0.1637782 0.105731845
0001d0 52 1b 65 3e 26 c7 d6 be 20 43 ee be a5 55 89 3e
       0.22373703 -0.41948813 -0.46535587 0.26823154
0001e0 60 a2 b4 3e 37 b7 dc 3c 88 f8 09 3f b4 e0 02 bf
       0.35280132 0.026942832 0.53894854 -0.5112412
0001f0 bf 8d af be 2e 89 5d 3e 17 7e f3 be 26 e0 01 bf
       -0.3428783 0.21634361 -0.47557136 -0.5073265
000200 bc e4 b3 bd da 02 dc 3e cc 8d 4d 3d 82 84 b2 bb
       -0.08783862 0.42970926 0.050184056 -0.005447925
000210 b1 b6 2a 3f 14 98 21 bd ce 87 aa 3d 02 90 49 be
       0.66685015 -0.039451674 0.08326684 -0.19683841
000220 d0 54 f3 bc 34 16 9f 3e 89 12 1c be 9e 29 e2 3d
       -0.029703528 0.31071627 -0.15241446 0.11043094
000230 d1 88 5f 3d 12 13 5a 3d 8c 7a 03 bd d2 1b 0b 3f
       0.054573838 0.053240843 -0.03209929 0.54339325

sun_influence_2.W.bias f4 [12]
000000 8b b3 96 3d e4 e5 a4 bc e9 da 15 3d 96 6c de bb
       0.07358464 -0.020129152 0.036585722 -0.006787847
000010 51 de 83 3d 0f 57 eb bc a7 18 26 bd 72 31 94 bd
       0.06438888 -0.028728036 -0.040550854 -0.072359934
000020 05 6a c5 3d ce 8e 15 bd 2c 9c 87 bd 9d aa ca bc
       0.09639362 -0.036513142 -0.06621584 -0.024739558

sun_influence_2.W_self.weight f4 [12, 12]
000000 fd 56 d6 bc b3 f7 3e be 70 20 c9 3d f2 5c c7 bc
       -0.026164526 -0.18649177 0.0982064 -0.024336312
000010 06 fe a1 be 60 6a 18 bf 97 5a 94 3e 05 02 98 3c
       -0.31639117 -0.59537315 0.28975365 0.01855565
000020 57 fe d6 bd 8a 96 42 be 04 27 18 bd f4 c0 d0 3e
       -0.1049773 -0.19002739 -0.037146583 0.40772212
000030 f6 0e b7 3e 0b e8 ae be a6 92 8a 3e 0a 55 17 bf
       0.35753602 -0.3416141 0.2706501 -0.59114134
000040 77 e7 43 3f fd bd bd bc f8 e3 86 3e 17 34 13 bd
       0.7652506 -0.023161883 0.263458 -0.03593835
000050 63 b1 00 bd 0e 20 ea 3e d3 a1 b9 be f8 31 c8 3d
       -0.03141917 0.4572758 -0.36256275 0.09775156
000060 0e b2 2a 3e 10 cd 20 3e bb b6 90 3e 6d 4a a5 be
       0.16669485 0.15703225 0.28264412 -0.32283345
000070 54 23 fa bd 52 bc ad 3e 01 75 c8 3e a7 39 25 3f
       -0.122137696 0.3393274 0.39151767 0.64541095
000080 26 ea 0b be 76 6b 3b 3f 9e bf b5 be 1a e1 9b be
       -0.1366354 0.7321085 -0.35497755 -0.30445176
000090 48 a7 ff 3c 7a 4d 5f 3d bc 6f f4 bd 92 5a ab bd
       0.031207696 0.054517247 -0.11935374 -0.08366884
0000a0 d0 e5 05 3f 7e ab fe be e0 fd ab 3b 47 9f d9 3c
       0.5230379 -0.49740213 0.00524877 0.026565207
0000b0 91 0f f0 3d 95 ba 8b be 65 fa b4 be 95 67 30 bd
       0.11721719 -0.27290788 -0.35347286 -0.043067534
0000c0 30 ee 02 bf 47 d0 c3 be de db ad bd 14 8d 85 be
       -0.51144695 -0.3824484 -0.08489202 -0.26084197
0000d0 4c d2 17 3e 11 74 ed bd 89 73 da 3d 59 7e a7 3d
       0.14826316 -0.115944035 0.10666568 0.08178396
0000e0 a4 74 58 3e 76 69 33 be 94 9d 5a be a9 35 e6 be
       0.21138245 -0.17520699 -0.21349174 -0.44962814
0000f0 13 21 21 3d 8e a7 16 bf ac b2 1e bd 6f f1 03 be
       0.039338183 -0.5884942 -0.038744614 -0.12885068
000100 18 44 5e be 4f 0b aa be ad 5d 22 3e 1a b4 a0 3d
       -0.21705663 -0.33211753 0.15856047 0.07846852
000110 0e a8 9f bc 0a a7 0a bf ed 3e e6 bd f7 ee 37 bd
       -0.019489314 -0.5416113 -0.11242471 -0.04490563
000120 b8 4c 38 be c4 66 47 3e 2b a0 f8 be 16 43 0b 3f
       -0.17998016 0.19472796 -0.48559698 0.5439924
000130 23 48 df 3e 1c e0 85 be 27 81 4a be 78 04 01 3f
       0.43609723 -0.26147544 -0.1977583 0.50397444
000140 85 2c e1 3e 73 0a 90 3e 53 41 1c be dd 5f 64 bd
       0.43979278 0.28132972 -0.15259294 -0.055755485
000150 3d ad 58 be f1 e9 ed 3c c2 5d a4 3d 77 07 6f 3e
       -0.21159835 0.029042216 0.080256954 0.23342691
000160 b8 dd f2 3d 2f 67 b1 bd 47 4f 6e 3e f6 d7 ba bd
       0.11858696 -0.08662259 0.2327243 -0.091232225
000170 ce 00 29 be d7 b7 a9 3e b1 a9 76 3e ae 4b b2 3d
       -0.16504213 0.3314807 0.2408817 0.08705841
000180 f7 21 4d 3e 34 90 28 3d 2b 23 86 3e 8d a2 33 3d
       0.20032488 0.041153148 0.26198706 0.043856192
000190 05 24 cd bd 95 2e bf be 9e 6a bf be cf da b5 be
       -0.10016636 -0.37340227 -0.3738603 -0.355185
0001a0 05 38 71 be 39 2f 1d bf 6f 15 7d 3e 30 c4 8a 3e
       -0.23556526 -0.6140018 0.24715208 0.27102804
0001b0 f2 c2 3c 3c c0 c5 05 bf 5f 56 aa 3b f3 e5 82 3e
       0.011521088 -0.5225487 0.0051982845 0.25566062
0001c0 ab 15 8f 3d cf 21 9f 3e 3b d3 11 be 4e ff 91 be
       0.06986555 0.3108048 -0.14240734 -0.28515095
0001d0 a4 54 9d 3e 5e b8 0f be f6 20 5c bd ee 2e 8a be
       0.30728638 -0.14035174 -0.05374237 -0.2698893
0001e0 1d ed 2b bf d6 cc e6 3d c3 30 bf 3d de 47 3d be
       -0.6715868 0.11269538 0.093354724 -0.18484446
0001f0 48 84 c8 3e c8 6e 5b be 41 5f 08 bd b9 d3 24 be
       0.39163423 -0.21428978 -0.033293966 -0.16096391
000200 a5 07 a7 3a 82 ed c0 be cb 14 76 bd 57 f1 f3 bd
       0.0012743367 -0.37681204 -0.060078423 -0.11911266
000210 92 bd 92 3e a7 a6 34 3e 30 5d 08 be f9 2d e9 3d
       0.28660256 0.17641698 -0.13316798 0.11385722
000220 da 01 64 3d 47 8a ac be 53 26 aa 3e 7a e0 69 3e
       0.05566583 -0.33699247 0.33232364 0.22839537
000230 76 82 ee be 64 11 c4 3e af fa 16 3e 61 c4 87 be
       -0.4658391 0.38294518 0.14744066 -0.26517013

sun_influence_2.W_self.bias f4 [12]
000000 8b b3 96 3d e4 e5 a4 bc e9 da 15 3d 96 6c de bb
       0.07358464 -0.020129152 0.036585722 -0.006787847
000010 51 de 83 3d 0f 57 eb bc a7 18 26 bd 72 31 94 bd
       0.06438888 -0.028728036 -0.040550854 -0.072359934
000020 05 6a c5 3d ce 8e 15 bd 2c 9c 87 bd 9d aa ca bc
       0.09639362 -0.036513142 -0.06621584 -0.024739558

sun_influence_3.W.weight f4 [12, 12]
000000 bb ca 83 be e8 64 81 3e b1 32 17 3e 2f 06 fb bd
       -0.2574061 0.25272298 0.14765431 -0.12257039
000010 11 97 09 be 96 2a 57 be d1 a4 0a 3f 1b 12 09 3e
       -0.13436534 -0.21012339 0.5415774 0.13385813
000020 c6 0a 18 3e a0 c2 9d be 86 83 8d 3e b1 88 03 3f
       0.1484786 -0.3081255 0.27639407 0.5138045
000030 2f 2d 2c 3f da 82 86 be d7 73 11 3f b3 1f 80 be
       0.67256445 -0.26271707 0.5681738 -0.25024185
000040 50 9e bf be bc 78 ed 3e cf 42 bd be 27 17 35 be
       -0.3742547 0.46381176 -0.36965033 -0.17684613
000050 c4 2c 4f bc e5 38 94 be 23 3f 35 3e a9 81 9a 3d
       -0.01264495 -0.28949657 0.17699866 0.07544262
000060 8e 49 3e bf 47 ef f4 be 8b ed bd be 0c 58 52 3e
       -0.74330986 -0.47838804 -0.37095293 0.205414
000070 1d 77 3d 3d b9 68 f3 3e 88 e0 99 be 1e 7c 42 3e
       0.046256173 0.47540835 -0.30054116 0.1899266
000080 3d ad f5 3e 19 ae 19 be a5 b0 68 3e c3 ad d8 3e
       0.47983733 -0.15007819 0.22723635 0.4232007
000090 89 ff 28 3c 53 ae 12 bf 59 f7 f0 bb 9e 97 32 3e
       0.010314831 -0.5729725 -0.007353705 0.1744065
0000a0 fd 84 36 bd 88 76 a5 bd 1e a7 7f be 2b f1 4a 3e
       -0.04456042 -0.08079249 -0.24966094 0.19818561
0000b0 f4 07 fc bd 4a 32 6b 3e bc 67 a6 be 83 87 c0 be
       -0.123062044 0.22968403 -0.32501018 -0.37603387
0000c0 68 cb c3 bc 6e 5d 7c 3e d7 c0 03 3e 93 91 16 be
       -0.023900703 0.24645016 0.12866531 -0.1470397
0000d0 58 4a 1e be 88 87 c2 3e 30 4f 34 be 3c db 91 3e
       -0.15458047 0.37994027 -0.17608333 0.28487575
0000e0 23 30 87 3e 9b ba ff 3d af 41 81 3e d9 60 b2 bd
       0.26403913 0.12486764 0.25245425 -0.087098785
0000f0 5a 3e 1d 3e ea de c7 be 33 9c 87 3d 7b 3e 0e bc
       0.15355816 -0.39037257 0.066215895 -0.008681889
000100 7d f4 02 3f 30 a4 b9 bd ec 18 3e 3d 23 97 98 be
       0.5115431 -0.090645194 0.046410486 -0.29802808
000110 bb 91 43 be 09 5d 97 3e f8 1d b5 3e 28 cf a7 be
       -0.1909856 0.29563168 0.35374427 -0.32775235
000120 95 9a 28 3e 4b 10 b7 be 8d 9a 70 be 23 f0 3c be
       0.16465218 -0.35754618 -0.23496456 -0.1845098
000130 19 ce af be 9d fb da bd cd 3b bf 3e d7 43 48 be
       -0.34336928 -0.10692523 0.37350312 -0.19557129
000140 ca 40 29 3f af 65 2d 3e ab 4e 9c be a2 14 56 3e
       0.66114485 0.1693332 -0.3052877 0.20906308
000150 2b 20 5d bd 42 60 32 3e dd b4 09 3e 7a 86 98 be
       -0.053985756 0.17419532 0.134479 -0.29790097
000160 3f 96 f8 3c f2 7e aa be 07 6e 0b 3e b4 9f 69 3e
       0.03034508 -0.33299977 0.13616191 0.22814828
000170 c9 b2 b9 be 14 83 6f be 69 13 ad be c0 0c 0c 3f
       -0.36269215 -0.23389846 -0.3380387 0.54706955
000180 13 13 14 bd cd db 80 3d 1d 5f 23 be 6f 24 92 be
       -0.036151003 0.06291924 -0.15954252 -0.28543422
000190 f6 14 7f 3d b0 f7 dc 3e bc 60 79 bb 43 59 c0 be
       0.06227585 0.4315772 -0.0038052043 -0.375681
0001a0 21 cc e9 bd 61 09 4a 3e 1d 51 5a 3e c0 66 ee be
       -0.114158876 0.1973014 0.21320005 -0.46562767
0001b0 a0 bb fb 3e 34 85 b2 bd a4 77 ab be 74 d1 86 bf
       0.49166584 -0.08716813 -0.33489716 -1.053267
0001c0 f7 dc cc 3d 1e d2 6b be 37 c8 a7 3d f8 99 01 3f
       0.10003083 -0.23029372 0.08192485 0.5062556
0001d0 4e 92 13 3f 4c 7c 4e be e3 ee 76 3f 46 ee 00 bf
       0.5764512 -0.20164603 0.9645826 -0.50363576
0001e0 c9 fd c2 3e 84 6b 0c 3e d4 c9 49 bd 92 ae 03 bf
       0.38084248 0.13712889 -0.049264744 -0.5143825
0001f0 42 b5 90 be 9a 3c da be 4d f4 fb 3d 49 f8 a1 3e
       -0.2826329 -0.4262436 0.12302456 0.3163474
000200 0f c5 38 3e b5 ec 52 3e 23 83 b0 be c7 ea 4a 3e
       0.18043922 0.20598109 -0.3447505 0.19816123
000210 96 5a 4c 3e fc b2 42 bd 8a 95 dd bd e1 c4 51 be
       0.19956431 -0.047533974 -0.10819538 -0.2048526
000220 70 43 a7 3d 3b 97 86 be 19 56 6c 3e 52 72 11 be
       0.081671596 -0.26287255 0.23079719 -0.14203766
000230 62 40 e0 be da 6e 3c be 09 a2 77 3e 30 f2 25 3f
       -0.4379912 -0.18401662 0.24182905 0.64822674

sun_influence_3.W.bias f4 [12]
000000 da 90 15 bd 91 b2 24 bc d1 b5 25 bb bd 73 8e bd
       -0.036515094 -0.010052339 -0.0025285373 -0.06955669
000010 e2 3e b3 3a 75 2f 5b bd 79 ce 44 bd 10 ad 6f bc
       0.0013675357 -0.053512055 -0.04804847 -0.014628664
000020 f0 cb 15 bd b3 70 a7 3c 6c 01 ed 3c d5 ea 0c 3d
       -0.036571443 0.020439481 0.028931342 0.03440364
