src/Photosynthesis/RL/SavedModels/model_46.pth (torch, 30290 bytes, 34 tensors)

player_tree_1.W.weight f4 [12, 12]
0.24049707 -0.38179013 0.3770849 -0.3185321 0.33711398 -0.11001078 -0.2195998 0.08232636
0.5495042 -0.114582375 -0.14563002 -0.0337361 0.069268666 0.116686985 0.3225562 -0.19181785
0.22938757 -0.5632554 -0.14953145 -0.19467309 0.21113975 0.16243616 0.58185196 0.25320578
-0.054520883 0.25655937 -0.57201016 0.053270124 0.3460555 0.26286623 -0.07139358 -0.45080274
0.56403047 0.12740794 -0.31429112 -0.25520614 -0.05112006 0.1562487 -0.042195473 -0.14028457
0.083861284 -0.35270876 -0.091490805 -0.50030106 -0.33325943 0.21109018 -0.27405947 0.13787353
-0.2762615 -0.02990081 -0.030347252 0.007122736 0.048447665 0.13027821 -0.44447654 0.30035296
-0.22537261 0.060253292 0.028136406 0.7115457 0.27904928 0.28492135 0.4839184 -0.23293532
0.13508262 0.4450539 0.14303456 0.19863766 0.18948047 1.0611588 0.019483602 0.2867303
-0.14202772 0.19335991 0.53432596 0.07089212 -0.24564819 -0.16967842 0.0024494382 0.26701993
-0.14037608 -0.2950783 -0.15059792 -0.047814183 0.24116597 0.12182877 -0.1178392 -0.083277754
0.16594246 -0.07758407 -0.46788102 -0.069069676 -0.18875688 0.24939647 -0.3005709 0.3589569
0.19328858 -0.3569301 -0.9095358 -0.0666234 -0.27231842 -0.20302305 -0.46154243 -0.15575878
0.2069512 0.096642025 -0.42138767 -0.17104737 -0.07725905 0.17896694 -0.21060699 -0.11300584
0.06319945 0.13842224 -0.4880899 -0.16910252 -0.40746036 -0.21346337 -0.2905607 0.15148114
0.77763 0.020504873 -0.07906352 -0.034653403 0.5314703 0.44125596 -0.24073575 -0.014438383
0.1438699 -0.4008255 -0.42809853 0.056285124 0.13210061 -0.38232866 0.083972864 -0.39045504
0.13740973 -0.12972327 0.15610741 -0.22933501 -0.49991068 -0.5737229 -0.12126696 -0.017942905
00000000: dd44 763e ff79 c3be 4611 c13e a416 a3be
00000010: 349a ac3e 554d e1bd c5de 60be b99a a83d
00000020: 4fac 0c3f 2aaa eabd 0920 15be dd2e 0abd
00000030: bbdc 8d3d 96f9 ee3d 1626 a53e e66b 44be
00000040: 93e4 6a3e 8231 10bf c61e 19be 6258 47be
00000050: 0535 583e aa55 263e 40f4 143f 30a4 813e
00000060: 4a51 5fbd c05b 833e 426f 12bf c631 5a3d
00000070: 302e b13e 6796 863e cc36 92bd 9ecf e6be
00000080: 4d64 103f 3a77 023e c4ea a0be 61aa 82be
00000090: 4563 51bd a9ff 1f3e 29d5 2cbd c2a6 0fbe
000000a0: 77bf ab3d 3e96 b4be 885f bbbd bb13 00bf
000000b0: fba0 aabe 0628 583e 8651 8cbe b82e 0d3e
000000c0: 2672 8dbe 8bf2 f4bc cd9a f8bc d765 e93b
000000d0: 0f71 463d a767 053e 6e92 e3be ddc7 993e
000000e0: 14c8 66be 28cc 763d 527e e63c dc27 363f
000000f0: 8cdf 8e3e 36e1 913e 27c4 f73e 9986 6ebe
00000100: 1953 0a3e 1bde e33e a777 123e ac67 4b3e
00000110: 2b07 423e 0dd4 873f 139c 9f3c 50ce 923e
00000120: b76f 11be 2400 463e 96c9 083f e32f 913d
00000130: 338b 7bbe 2ec0 2dbe c186 203b d6b6 883e
00000140: bfbe 0fbe 8114 97be 5736 1abe ced8 43bd
00000150: 36f4 763e 5d81 f93d ae55 f1bd 878d aabd
00000160: d2ec 293e 66e4 9ebd 1a8e efbe 6774 8dbd
00000170: 7c49 41be ca61 7f3e 6ee4 99be 33c9 b73e
00000180: 71ed 453e 8bbf b6be 57d7 68bf d971 88bd
00000190: 526d 8bbe 46e5 4fbe 4a4f ecbe 3b7f 1fbe
000001a0: 04eb 533e 41ec c53d 20c0 d7be 0b27 2fbe
000001b0: fe39 9ebd 1c43 373e 5ca9 57be 9b6f e7bd
000001c0: b76e 813d 8fbe 0d3e ebe6 f9be 3629 2dbe
000001d0: a59e d0be 2496 5abe 5fc4 94be df1d 1b3e
000001e0: c212 473f d6f9 a73c 0eec a1bd baf0 0dbd
000001f0: 700e 083f 4dec e13e 6f83 76be f88e 6cbc
00000200: a252 133e 0039 cdbe bb2f dbbe 3b8b 663d
00000210: 6245 073e 95c0 c3be f7f9 ab3d b9e9 c7be
00000220: 23b5 0c3e 2dd6 04be 9fda 1f3e ccd6 6abe
00000230: 4bf4 ffbe 81df 12bf d05a f8bd 00fd 92bc

player_tree_1.W.bias f4 [12]
-0.048629157 0.03552666 0.01648296 -0.055461477 -0.052452825 0.14373381 0.017382344 -0.00355091
-0.1330372 0.033400014 -0.005434439 0.023741225
00000000: 5e2f 47bd 6784 113d 4607 873c 932b 63bd
00000010: c6d8 56bd f52e 133e 6b65 8e3c 62b6 68bb
00000020: e73a 08be 74ce 083d 6113 b2bb f57c c23c

player_tree_1.W_self.weight f4 [12, 12]
-0.065131545 0.5918651 0.16523461 -0.36862478 0.04817671 -0.0960145 0.2255195 -0.0023180307
0.51611316 0.03713885 -0.35546547 -0.15136416 -0.22286795 0.43421903 0.17068861 -0.29996696
0.08357476 -0.28541654 0.34718114 0.043723073 0.016727863 0.73028576 0.29249796 0.12738
-0.061164986 0.40161395 -0.042454466 0.21395735 0.13282254 0.071812525 0.048008 -0.43106055
-0.48496723 0.3828364 0.33538374 0.18614925 -0.5149989 0.16336437 0.4043464 -0.51568794
0.31821766 0.12732372 0.18423282 -0.87241495 0.09669931 -0.1513958 0.19310491 -0.044093296
-0.14360704 -0.20350671 0.2988035 -0.065005645 0.21952417 0.22433607 0.20958264 -0.32771128
0.08826958 -0.20601669 -0.41614 -0.026968928 0.004190763 0.5591716 0.24773641 0.37577257
-0.26303175 0.27592057 -0.010083915 0.0389247 -0.31847972 -0.12978914 0.46617693 -0.18170057
0.1781024 0.1847769 0.6107756 0.54692817 0.11434782 0.42190593 -0.16198325 -0.6025548
0.061467886 0.09208087 -0.6011789 -0.11230083 0.011459622 0.109507516 0.2063548 0.27132946
-0.30687842 0.53480124 -0.5483924 0.0634351 0.09817398 0.26344448 0.123310305 0.271112
0.31603914 -0.4776903 -0.7367122 0.3122222 0.43425462 -0.3725274 -0.090412304 0.2699218
-0.15855858 0.47278982 0.32284263 -0.056359243 -0.43468478 -0.24810553 0.15816166 0.45471042
0.13297029 0.3605567 0.4874087 0.122833215 0.25018612 0.009281312 -0.24161373 -0.3517244
0.20928325 -0.0648528 0.30372503 0.045997802 -0.41274777 0.43367782 -0.04793439 -0.019117178
-0.24741125 0.3945305 0.14350119 -0.2345393 0.14129208 0.5113423 -0.38859263 0.3260769
-0.30994463 0.47464573 -0.32380152 -0.12163617 0.23847516 -0.1000693 -0.15618926 -0.53243935
00000000: b063 85bd 7984 173f 4333 293e 63bc bcbe
00000010: f154 453d 40a3 c4bd 95ee 663e 1aea 17bb
00000020: fe1f 043f e81e 183d 92ff b5be 35ff 1abe
00000030: 7f37 64be f551 de3e ffc8 2e3e 4595 99be
00000040: 3e29 ab3d 1e22 92be bac1 b13e f716 333d
00000050: df08 893c 02f4 3a3f 4bc2 953e e76f 023e
00000060: 2388 7abd 58a0 cd3e bce4 2dbd a317 5b3e
00000070: a202 083e 7212 933d 09a4 443d f8b3 dcbe
00000080: a04d f8be 2203 c43e 6bb7 ab3e e99d 3e3e
00000090: f8d6 03bf fd48 273e 7e06 cf3e 2004 04bf
000000a0: 6ded a23e 2661 023e 87a7 3c3e 9656 5fbf
000000b0: 4a0a c63d 8007 1bbe 4bbd 453e 2c9b 34bd
000000c0: b90d 13be 1064 50be c6fc 983e ae21 85bd
000000d0: f2ca 603e 5bb8 653e d59c 563e c6c9 a7be
000000e0: aec6 b43d 0af6 52be 4d10 d5be f1ed dcbc
000000f0: ab52 893b df25 0f3f 9dae 7d3e 4365 c03e
00000100: 19ac 86be 7645 8d3e 0137 25bc 826f 1f3d
00000110: c60f a3be 72e7 04be beae ee3e b70f 3abe
00000120: 7a60 363e 2836 3d3e ca5b 1c3f 7c03 0c3f
00000130: 312f ea3d 0e04 d83e f0de 25be 0841 1abf
00000140: c0c5 7b3d e594 bc3d dce6 19bf fafd e5bd
00000150: 23c1 3b3c 7a45 e03d ac4e 533e b2eb 8a3e
00000160: 2b1f 9dbe bce8 083f 7263 0cbf 43ea 813d
00000170: 710f c93d 32e2 863e 1d8a fc3d 31cf 8a3e
00000180: e2cf a13e d393 f4be 2c99 3cbf 97db 9f3e
00000190: 9f56 de3e e9bb bebe 162a b9bd 3133 8a3e
000001a0: 2e5d 22be 8211 f23e a14b a53e f3d8 66bd
000001b0: 018f debe 600f 7ebe 21f5 213e cecf e83e
000001c0: 5d29 083e e39a b83e a28d f93e fb8f fb3d
000001d0: 6518 803e a510 183c 9769 77be 3815 b4be
000001e0: 594e 563e 8bd1 84bd d981 9b3e 3168 3c3d
000001f0: ad53 d3be 050b de3e da56 44bd a19b 9cbc
00000200: 6059 7dbe e7ff c93e faf1 123e 122b 70be
00000210: dfae 103e 54e7 023f 9df5 c6be 8df3 a63e
00000220: 10b1 9ebe c404 f33e 50c9 a5be 621c f9bd
00000230: d532 743e 22f1 ccbd 14f0 1fbe f24d 08bf

player_tree_1.W_self.bias f4 [12]
-0.048629157 0.03552666 0.01648296 -0.055461477 -0.052452825 0.14373381 0.017382344 -0.00355091
-0.1330372 0.033400014 -0.005434439 0.023741225
00000000: 5e2f 47bd 6784 113d 4607 873c 932b 63bd
00000010: c6d8 56bd f52e 133e 6b65 8e3c 62b6 68bb
00000020: e73a 08be 74ce 083d 6113 b2bb f57c c23c

player_tree_2.W.weight f4 [12, 12]
0.2527727 -0.3022961 -0.8260115 -0.017614806 -0.08714892 -0.4125189 0.30761263 0.064629406
0.33530822 -0.17560911 -0.20585898 -0.7313493 -0.5649132 -0.35113505 -0.038068596 0.39264134
0.2577337 0.17823933 0.26154637 0.09253805 -0.5171435 0.14369194 -0.4269654 -0.029834503
0.8740712 -0.36533043 0.552145 -0.097792454 0.36055806 -0.1064539 -0.40333107 -0.18262045
-0.16547908 0.27061883 -0.6877557 -0.38064155 -0.100062266 -0.23174639 -0.051134277 -0.4069807
0.20154525 -0.14134917 -0.03387785 -0.28765264 0.032209754 -0.07758881 -0.1819443 0.031239338
-0.14135407 -0.096257806 -0.4891919 -0.37452808 -0.061634433 -0.086647555 0.06648257 0.19214453
0.04750787 0.06201795 0.11565336 0.14104185 0.23519436 0.16358316 0.22216459 0.022594722
0.036989745 -0.038361643 -0.12969412 -0.20841528 0.4269663 -0.14294477 -0.65396696 -0.28122592
-0.13705379 -0.19316073 -0.5754895 0.36797073 -0.04719791 0.17817654 0.071603954 0.15462759
0.08674208 -0.09979976 -0.53039485 0.030989727 0.33379698 -0.22963803 -0.11338606 0.07990031
0.3025149 -0.26721027 0.15398014 -0.46327984 0.35382944 -0.15224606 -0.05732037 -0.83027154
-0.5304787 -0.039909996 0.14741738 0.3054194 0.5918671 0.3089137 0.37649298 0.10100038
0.16257045 -0.02354053 -0.08634436 -0.07221517 -0.48408362 0.39715353 -0.16832972 0.22339083
0.2687608 -0.5408168 -0.56783867 -0.12238089 -0.06715828 0.35307565 -0.00028657875 0.45031494
-0.2171012 0.049073208 -0.21813455 -0.19131048 -0.3588202 -0.31094372 -0.6296187 0.04847283
-0.0031649014 -0.2119091 -0.2317027 0.06417185 0.17691043 0.1999703 -0.2556452 -0.1463144
-0.36812717 -0.37517196 0.14981665 0.39963964 0.23437332 -0.073436566 -0.34092894 0.004215313
00000000: 6c6b 813e 8ec6 9abe 7d75 53bf ed4c 90bc
00000010: 227b b2bd ad35 d3be 677f 9d3e 6c5c 843d
00000020: 85ad ab3e e0d2 33be b2cc 52be b539 3bbf
00000030: 279e 10bf f9c7 b3be d1ed 1bbd 4908 c93e
00000040: acf5 833e 5f84 363e 68e9 853e 9784 bd3d
00000050: 8463 04bf fb23 133e 359b dabe 7d67 f4bc
00000060: 21c3 5f3f 970c bbbe 6059 0d3f 6947 c8bd
00000070: 119b b83e 8104 dabd 6981 cebe db00 3bbe
00000080: 5973 29be 8d8e 8a3e c210 30bf 73e3 c2be
00000090: 72ed ccbd ed4e 6dbe 2d72 51bd c65f d0be
000000a0: e161 4e3e d6bd 10be 80c3 0abd 3547 93be
000000b0: 60ee 033d e2e6 9ebd 9b4f 3abe a4e9 ff3c
000000c0: 1fbf 10be d022 c5bd 5c77 fabe 25c2 bfbe
000000d0: 6374 7cbd 4674 b1bd 0328 883d 89c1 443e
000000e0: 9d97 423d 8906 7e3d abdb ec3d 466d 103e
000000f0: cad6 703e 5882 273e 1d7f 633e 9118 b93c
00000100: 8f82 173d 1921 1dbd 89ce 04be d16a 55be
00000110: 549b da3e 1d60 12be 616a 27bf d8fc 8fbe
00000120: d457 0cbe edcb 45be 4853 13bf a966 bc3e
00000130: 9852 41bd e973 363e 18a5 923d b256 1e3e
00000140: d5a5 b13d d163 ccbd f5c7 07bf 2bde fd3c
00000150: 70e7 aa3e 3b26 6bbe f336 e8bd c6a2 a33d
00000160: 3ce3 9a3e c9cf 88be f8ac 1d3e 0433 edbe
00000170: 2229 b53e 64e6 1bbe c4c8 6abd ad8c 54bf
00000180: 74cd 07bf aa78 23bd 95f4 163e ee5f 9c3e
00000190: 9a84 173f f029 9e3e b0c3 c03e 4ad9 ce3d
000001a0: de78 263e 12d8 c0bc 50d5 b0bd 8ce5 93bd
000001b0: cfd9 f7be b557 cb3e a05e 2cbe 91c0 643e
000001c0: 049b 893e f872 0abf e05d 11bf d5a2 fabd
000001d0: 488a 89bd 55c6 b43e f33f 96b9 ae8f e63e
000001e0: c74f 5ebe fd00 493d aa5e 5fbe e5e6 43be
000001f0: 48b7 b7be 0434 9fbe b12e 21bf 728b 463d
00000200: 3c6a 4fbb b3fe 58be 7943 6dbe 886c 833d
00000210: 0228 353e 04c5 4c3e ede3 82be 71d3 15be
00000220: 2a7b bcbe 8a16 c0be 8969 193e 919d cc3e
00000230: 8fff 6f3e e965 96bd 3d8e aebe 9c20 8a3b

player_tree_2.W.bias f4 [12]
-0.027873304 -0.06856072 -0.03133608 -0.060213063 -0.076550774 0.066932045 0.009527559 -0.059996802
-0.056512438 0.047729157 -0.097550154 -0.012083758
00000000: 8e56 e4bc 9069 8cbd 435a 00bd f9a1 76bd
00000010: a7c6 9cbd ab13 893d 7b19 1c3c 35bf 75bd
00000020: 9679 67bd a67f 433d 60c8 c7bd f4fa 45bc

player_tree_2.W_self.weight f4 [12, 12]
0.17061827 -0.3262586 0.1327763 0.50374806 -0.5174934 -0.9069878 0.005292589 -0.121674016
-0.083925776 -0.48963743 0.3166526 0.19781981 0.37609643 -0.12688515 -0.18590507 -0.021486918
-0.14585307 -0.46683943 -0.33440125 -0.14970776 0.644902 0.23178142 0.05323721 -0.028896032
-0.11429635 -0.23452352 -0.25194976 -0.39894238 0.24140622 -0.34311977 -0.37924105 0.21161047
-0.050530322 -0.04518204 -0.20014125 -0.012455817 -0.16344538 -0.06196986 -1.055008 0.07503747
0.19814113 -0.35711414 0.61898905 -0.3641204 0.04598083 -0.08584729 -0.08822674 -0.18170294
-0.5018482 -0.11478819 -0.35391167 0.19920705 0.27409038 -0.19903864 -0.12372915 0.1024674
0.06247019 0.28146815 -0.2563806 0.24108276 -0.52985686 -0.12506032 -0.24185973 -0.6124201
-0.3616359 0.3865753 -0.3686703 -0.27904105 0.22901803 -0.20030311 -0.22301139 -0.5071364
0.417958 0.047921732 0.23761229 0.10145456 0.29990098 0.48782882 0.42107165 -0.5362241
-0.026499065 0.22456561 -0.021991968 -0.24848576 0.57239866 -0.10885051 0.4989712 -0.047659203
-0.12999788 -0.069003716 -0.29268202 0.23464583 0.29787105 -0.18716697 0.32394743 0.006668992
0.23239481 0.42039344 -0.19399954 -0.23897001 -0.122903824 -0.41211683 -0.6557654 -0.14133015
-0.12508748 -0.26499513 0.17792669 -0.30442357 0.29434592 0.59059775 0.42894888 -0.07314036
0.6378882 0.51557297 0.4855253 0.41431788 0.23414302 0.45498502 0.44289568 0.5753003
0.48946902 0.060486518 -0.29088566 -0.42851606 0.46771014 -0.3002079 0.46204045 -0.0566652
0.12575372 -0.095293745 -0.2591343 -0.29774782 0.036140736 0.10869824 0.024902754 -0.04416422
-0.03914855 -0.13289404 -0.10823185 -0.46647504 -0.056924973 -0.047943685 -0.15294862 0.31655663
00000000: 8eb6 2e3e 5e0b a7be 83f6 073e a2f5 003f
00000010: 737a 04bf 5a30 68bf 746d ad3b 3a30 f9bd
00000020: 47e1 abbd c2b1 fabe 4a20 a23e 4791 4a3e
00000030: b68f c03e 2eee 01be e65d 3ebe 5505 b0bc
00000040: 825a 15be 9405 efbe a436 abbe fe4c 19be
00000050: 4c18 253f 1c58 6d3e 430f 5a3d 5fb7 ecbc
00000060: 3414 eabd ef26 70be 8fff 80be 2d42 ccbe
00000070: 3133 773e 65ad afbe e22b c2be 6ab0 583e
00000080: e2f8 4ebd ce10 39bd d4f1 4cbe 7c13 4cbc
00000090: 3a5e 27be 1cd4 7dbd 810a 87bf 3fad 993d
000000a0: 82e5 4a3e aad7 b6be 1176 1e3f fd6d babe
000000b0: 6556 3c3d b4d0 afbd 39b0 b4bd 5610 3abe
000000c0: 2079 00bf 1216 ebbd e933 b5be effc 4b3e
000000d0: 9355 8c3e c9d0 4bbe b565 fdbd 6eda d13d
000000e0: bee0 7f3d 981c 903e 5144 83be 66de 763e
000000f0: b3a4 07bf d00f 00be 14aa 77be 90c7 1cbf
00000100: 5728 b9be 33ed c53e 5bc2 bcbe 78de 8ebe
00000110: b483 6a3e 421c 4dbe 195d 64be b1d3 01bf
00000120: 97fe d53e 9449 443d a350 733e 69c7 cf3d
00000130: 9f8c 993e b3c4 f93e b496 d73e fc45 09bf
00000140: 9114 d9bc 87f4 653e 8028 b4bc 0d73 7ebe
00000150: b888 123f 04ed debd 2779 ff3e 4c36 43bd
00000160: 2a1e 05be d251 8dbd 6bda 95be ff46 703e
00000170: 8e82 983e b3a8 3fbe 70dc a53e 8f87 da3b
00000180: e8f8 6d3e cf3d d73e d1a7 46be 8eb4 74be
00000190: 00b5 fbbd fa00 d3be 3ee0 27bf dab8 10be
000001a0: ef16 00be 71ad 87be 6a32 363e 68dd 9bbe
000001b0: 82b4 963e 6a31 173f 309f db3e 9dca 95bd
000001c0: a44c 233f 97fc 033f c696 f83e 7921 d43e
000001d0: 30c3 6f3e ccf3 e83e 39c3 e23e e146 133f
000001e0: af9b fa3e b6c0 773d f7ee 94be 7566 dbbe
000001f0: b477 ef3e dab4 99be 9190 ec3e c519 68bd
00000200: 95c5 003e 5e29 c3bd 40ad 84be 6772 98be
00000210: 4f08 143d 2f9d de3d dc00 cc3c 8be5 34bd
00000220: 3b5a 20bd 6015 08be a9a8 ddbd d1d5 eebe
00000230: 292a 69bd 9960 44bd 909e 1cbe b613 a23e

player_tree_2.W_self.bias f4 [12]
-0.027873304 -0.06856072 -0.03133608 -0.060213063 -0.076550774 0.066932045 0.009527559 -0.059996802
-0.056512438 0.047729157 -0.097550154 -0.012083758
00000000: 8e56 e4bc 9069 8cbd 435a 00bd f9a1 76bd
00000010: a7c6 9cbd ab13 893d 7b19 1c3c 35bf 75bd
00000020: 9679 67bd a67f 433d 60c8 c7bd f4fa 45bc

player_tree_3.W.weight f4 [12, 12]
-0.3490391 -0.17678508 0.011172807 -0.550097 0.43667334 0.09574965 -0.12294753 0.4783025
0.13233972 -0.071983665 -0.28668422 0.052330125 -0.45854208 -0.3816374 -0.7604177 0.033945035
0.21560057 0.4277862 -0.18857013 0.2646291 0.103026874 0.2681668 -0.2449372 -0.35911798
-0.3245032 0.4375659 -0.07164232 0.040313374 0.1761336 -0.37137818 -0.31748423 -0.30042532
-0.14078157 0.05295192 0.51133907 0.041139446 -0.14120732 0.24163993 -0.41362146 0.46507463
-0.13746937 -0.3835037 -0.21686806 -0.08881497 -0.09691562 -0.13928142 -0.1807271 -0.5109744
0.18239225 0.34781086 -0.25533906 -0.728096 0.27622923 0.15504128 0.14340825 -0.012820387
0.06742887 -0.17015393 0.5185304 0.07724123 0.1019058 0.07759475 0.38967243 0.17664176
0.559024 0.074841656 0.64624333 -0.4752335 0.0625432 0.04636806 -0.16282804 0.26787212
-0.09820532 -0.032227106 -0.27950063 -0.22693306 -0.11352507 0.43872038 -0.09556535 0.046734534
-0.11494596 0.13187079 0.13265549 0.31552273 0.58076984 0.33601528 0.72849023 -0.6542007
-0.12671289 -0.19107842 0.18234737 -0.37885445 -0.27060357 0.48592097 -0.00997851 0.37476948
-0.29983726 -0.46904284 0.17093574 -0.05731224 0.06155522 0.070074305 0.2680194 -0.33460167
0.2454196 0.11133371 -0.15802306 0.5857417 0.06875328 -0.36701444 -0.22861728 0.059868444
0.17404868 -0.26250356 0.0007649513 0.38479516 -0.12859736 -0.37771708 0.3770979 -0.014576015
0.32755595 -0.60907465 0.104876615 0.1093692 -0.18569304 0.20638241 -0.23758447 0.35108858
-0.031796053 -0.43725607 -0.04890868 -0.24491999 -0.10852517 0.07972917 0.15801762 0.40242362
0.039510272 0.14958744 -0.03488507 -0.049919166 -0.16973521 -0.5019136 -0.14498647 0.25376377
00000000: 41b5 b2be 2607 35be 260e 373c 28d3 0cbf
00000010: a693 df3e 6418 c43d eacb fbbd 11e4 f43e
00000020: 1084 073e 2c6c 93bd 46c8 92be 1d58 563d
00000030: 07c6 eabe fa65 c3be bcaa 42bf f309 0b3d
00000040: 65c6 5c3e cb06 db3e 8718 41be 777d 873e
00000050: c1ff d23d 294d 893e d1d0 7abe 50de b7be
00000060: 4925 a6be a308 e03e 35b9 92bd a31f 253d
00000070: 5e5c 343e 4825 bebe 4b8d a2be 59d1 99be
00000080: 0b29 10be 1de4 583d 1ee7 023f d681 283d
00000090: a798 10be 7570 773e 31c6 d3be 431e ee3e
000000a0: c5c4 0cbe 995a c4be a912 5ebe 9fe4 b5bd
000000b0: b27b c6bd ca9f 0ebe 8610 39be 38cf 02bf
000000c0: 09c5 3a3e 4414 b23e cdbb 82be 8064 3abf
000000d0: eb6d 8d3e 24c3 1e3e 9dd9 123e 9a0c 52bc
000000e0: 2618 8a3d d53c 2ebe 69be 043f a630 9e3d
000000f0: fdb3 d03d ffe9 9e3d 2583 c73e 94e1 343e
00000100: 321c 0f3f 9546 993d 3470 253f ce51 f3be
00000110: a616 803d 6fec 3d3d 65bc 26be 8926 893e
00000120: df1f c9bd 9200 04bd b51a 8fbe 2461 68be
00000130: d57f e8bd f59f e03e c4b7 c3bd b66c 3f3d
00000140: ca68 ebbd 2309 073e d7d6 073e 328c a13e
00000150: 55ad 143f 320a ac3e 567e 3a3f b279 27bf
00000160: 06c1 01be 10aa 43be 45b9 3a3e 36f9 c1be
00000170: 8d8c 8abe a2ca f83e e87c 23bc c9e1 bf3e
00000180: 4584 99be 6226 f0be c709 2f3e 3dc0 6abd
00000190: 5421 7c3d 1e83 8f3d d739 893e e950 abbe
000001a0: 474f 7b3e ee02 e43d ccd0 21be 2bf3 153f
000001b0: 85ce 8c3d 51e9 bbbe a61a 6abe 9d38 753d
000001c0: d139 323e de66 86be 0387 483a df03 c53e
000001d0: 07af 03be 2264 c1be fa12 c13e 3dd0 6ebc
000001e0: 6ab5 a73e 51ec 1bbf 8dc9 d63d f6fc df3d
000001f0: 5126 3ebe e955 533e 5849 73be e2c1 b33e
00000200: 943c 02bd 07e0 dfbe 7854 48bd 4ecc 7abe
00000210: 7242 debd 0c49 a33d 5fcf 213e 780a ce3e
00000220: 86d5 213d 732d 193e a6e3 0ebd 0a78 4cbd
00000230: 11cf 2dbe 697d 00bf 5577 14be 53ed 813e

player_tree_3.W.bias f4 [12]
0.14989606 0.13714539 -0.124577984 -0.045185804 -0.029743996 -0.14812249 -0.0021033604 0.044126105
-0.037057184 -0.064273216 0.02093541 0.050402287
00000000: 5a7e 193e d76f 0c3e be22 ffbd c014 39bd
00000010: aea9 f3bc 6cad 17be 88d8 09bb 93bd 343d
00000020: 46c9 17bd ada1 83bd bd80 ab3c a172 4e3d

player_tree_3.W_self.weight f4 [12, 12]
0.13029875 -0.18389621 0.70259404 -0.64958584 -0.4949526 -0.0405788 0.24349985 -0.26106596
-0.04319203 0.023351418 0.34644508 -0.27313134 -0.043541998 0.3426546 -0.32336086 0.2822256
-0.17311135 0.3880807 -0.0069177747 0.0039889826 0.79348546 -0.052251954 -0.42460775 -0.059533793
-0.003561207 -0.018773707 -0.19184819 -0.1455846 -0.48606947 -0.17525312 -0.39867276 -0.50890326
-0.6023151 0.25390667 -0.31405026 0.1883009 -0.13050628 0.2812751 0.11492922 0.21770076
-0.58482826 -0.2623186 0.022543 -0.42298394 -0.15202805 -0.48290235 0.20675583 0.27375323
-0.45556504 0.43566298 -0.25233832 -0.4746819 -0.06520816 -0.030235479 -0.018457992 -0.06966476
-0.26778933 -0.15516636 -0.08857144 0.10188335 0.31434858 0.0050937315 -0.11767525 0.44399545
0.4718576 -0.030382143 0.25854924 0.1213688 0.34229562 0.09347904 0.057905454 -0.63301384
0.49067736 -0.20951416 0.28434563 -0.007299074 0.29470593 -0.19893722 0.53496253 0.06637852
-0.026040463 0.7619445 0.4414135 0.4452991 0.18717651 0.28408155 0.41207513 0.054555964
0.60682565 0.038380053 0.036214866 -0.47188914 0.4285782 -0.20314668 0.42183155 -0.007103186
0.6422969 -0.27192405 -0.2053366 0.1419993 -0.04604762 0.59584075 0.060666125 -0.08341306
-0.4816567 0.2790312 -0.26858544 0.33946252 0.16012314 0.4624375 -0.12672572 -0.5850778
-0.13922854 -0.3656131 -0.697188 0.247589 -0.1548795 -0.007223722 0.22311217 -0.036555476
-0.42207786 -0.5699447 -0.24047586 0.34838703 -0.19292139 -0.08334159 0.10959043 -0.2973626
0.18342565 0.35951915 -0.3994765 -0.38314897 -0.40972593 -0.11586955 0.20316857 0.005915686
0.0950477 -0.3584874 0.17797472 0.3681352 0.030275702 0.2933413 0.2812371 0.12252073
00000000: 096d 053e 4a4f 3cbe 34dd 333f 424b 26bf
00000010: 6d6a fdbe f535 26bd 0658 793e 70aa 85be
00000020: 20ea 30bd 794b bf3c 4061 b13e dfd7 8bbe
00000030: 1859 32bd 6c70 af3e 8e8f a5be e07f 903e
00000040: 1a44 31be 83b2 c63e 80ae e2bb 03b6 823b
00000050: dd21 4b3f 2506 56bd 3066 d9be b5d9 73bd
00000060: 2463 69bb 51cb 99bc da73 44be 2114 15be
00000070: 19de f8be 8e75 33be d61e ccbe 7c47 02bf
00000080: 5331 1abf 0e00 823e 32cb a0be f3d1 403e
00000090: 70a3 05be 4a03 903e 0360 eb3d f3ec 5e3e
000000a0: 4eb7 15bf a04e 86be 19ac b83c 5a91 d8be
000000b0: 3ead 1bbe fa3e f7be cdb7 533e 6229 8c3e
000000c0: d23f e9be 380f df3e 7d32 81be 8209 f3be
000000d0: db8b 85bd 65b0 f7bc 3735 97bc 66ac 8ebd
000000e0: af1b 89be eee3 1ebe f164 b5bd 38a8 d03d
000000f0: 4cf2 a03e 51e9 a63b b9ff f0bd 5f53 e33e
00000100: 5297 f13e f9e3 f8bc 9160 843e 3590 f83d
00000110: 5f41 af3e f071 bf3d 452e 6d3d 320d 22bf
00000120: 103a fb3e e18a 56be c095 913e 122d efbb
00000130: b2e3 963e 33b6 4bbe 4ef3 083f 76f1 873d
00000140: cf52 d5bc cb0e 433f f300 e23e 3efe e33e
00000150: 33ab 3f3e 2373 913e 83fb d23e 1376 5f3d
00000160: ed58 1b3f 6734 1d3d 0a56 143d 749b f1be
00000170: 9a6e db3e af05 50be 4efa d73e d8c1 e8bb
00000180: 926d 243f a139 8bbe c243 52be 4468 113e
00000190: 6e9c 3cbd 0589 183f 0b7d 783d 77d4 aabd
000001a0: b59b f6be 2ddd 8e3e 0884 89be 08ce ad3e
000001b0: 52f7 233e 9cc4 ec3e 63c4 01be a9c7 15bf
000001c0: ed91 0ebe a431 bbbe ea7a 32bf f987 7d3e
000001d0: bb98 1ebe f9b4 ecbb 8477 643e 32bb 15bd
000001e0: 971a d8be e5e7 11bf 4e3f 76be c95f b23e
000001f0: 2f8d 45be ffae aabd f370 e03d e93f 98be
00000200: efd3 3b3e e512 b83e 2f88 ccbe 1a2c c4be
00000210: 99c7 d1be 044d edbd 6c0b 503e 5fd8 c13b
00000220: 5ea8 c23d a98b b7be 013f 363e 387c bc3e
00000230: c004 f83c d530 963e 4ffe 8f3e 26ec fa3d

player_tree_3.W_self.bias f4 [12]
0.14989606 0.13714539 -0.124577984 -0.045185804 -0.029743996 -0.14812249 -0.0021033604 0.044126105
-0.037057184 -0.064273216 0.02093541 0.050402287
00000000: 5a7e 193e d76f 0c3e be22 ffbd c014 39bd
00000010: aea9 f3bc 6cad 17be 88d8 09bb 93bd 343d
00000020: 46c9 17bd ada1 83bd bd80 ab3c a172 4e3d

player_tree_4.weight f4 [8, 12]
-0.321971 -0.64285254 0.46632087 0.00519605 -0.36380094 -0.09812275 -0.12105865 0.6743605
-0.07214711 -0.35985777 0.08364917 -0.47997868 -0.17646804 -0.14184423 -0.1908167 0.3150826
0.105371766 -0.6236962 -0.78944665 -0.21759532 -0.26822963 0.23842038 -0.26212716 -0.101266704
-0.22272842 -0.36721817 0.13476494 -0.018181637 0.31594372 -0.5682618 -0.2010988 -0.5058476
0.360955 -0.54026806 0.48380545 0.024346422 0.04011856 0.040757176 0.1928586 0.12267453
-0.33945382 -0.096591115 0.6522073 0.37561327 -0.037759747 0.5110018 -0.09686883 0.002991653
-0.45974052 0.21463767 -0.12565346 0.121791735 0.5488724 -0.05832177 0.05725515 0.12274795
0.40582377 0.18645385 -0.8043975 -0.38513127 -0.48437673 -0.3101421 -0.38421726 -0.13107659
0.37948987 -0.19437756 -0.34070835 0.24283783 0.13115644 0.16471784 0.36942327 0.15288782
-0.194378 -0.016008526 0.45140937 -0.12365728 -0.116687596 -0.9665402 0.60093766 0.38247192
0.10502999 -0.33600807 0.0013267052 -0.0075635766 0.15864675 -0.69243366 -0.09809536 0.07717899
0.49048543 -0.09966126 -0.075644545 0.06409749 -0.040773783 0.19157816 0.22466412 0.44167992
00000000: 62d9 a4be fc91 24bf 9cc1 ee3e a043 aa3b
00000010: 1e44 babe 95f4 c8bd 99ed f7bd e4a2 2c3f
00000020: ddc1 93bd 473f b8be 4250 ab3d c4bf f5be
00000030: 0ab4 34be 9d3f 11be 7465 43be 8252 a13e
00000040: 27cd d73d 8eaa 1fbf 2d19 4abf 4fd1 5ebe
00000050: 6555 89be 7924 743e 8835 86be eb64 cfbd
00000060: eb12 64be 0504 bcbe d2ff 093e a8f1 94bc
00000070: 60c3 a13e 9b79 11bf d8ec 4dbe 3a7f 01bf
00000080: 18cf b83e 024f 0abf 59b5 f73e 2672 c73c
00000090: 5c53 243d fff0 263d ba7c 453e c93c fb3d
000000a0: e4cc adbe 90d1 c5bd 0ff7 263f 6250 c03e
000000b0: f7a9 1abd 04d1 023f 2a63 c6bd 9c0f 443b
000000c0: 1c63 ebbe fac9 5b3e 4dab 00be f26d f93d
000000d0: e782 0c3f cfe2 6ebd 6084 6a3d 4763 fb3d
000000e0: 22c8 cf3e c2ed 3e3e ffec 4dbf ed2f c5be
000000f0: 3a00 f8be f2ca 9ebe 20b8 c4be f138 06be
00000100: 7f4c c23e e90a 47be 5371 aebe 7baa 783e
00000110: e04d 063e cbab 283e 0c25 bd3e a08e 1c3e
00000120: 070b 47be 5024 83bc 211f e73e 0740 fdbd
00000130: e8f9 eebd 2e6f 77bf 0dd7 193f 5cd3 c33e
00000140: f719 d73d 4009 acbe d7e4 ad3a e1d7 f7bb
00000150: 4b74 223e 5543 31bf 38e6 c8bd 0510 9e3d
00000160: e820 fb3e 341b ccbd 87eb 9abd 8b45 833d
00000170: 6902 27bd 112d 443e 5a0e 663e df23 e23e

player_tree_4.bias f4 [8]
0.046280667 0.010028336 0.025562026 -0.17091827 0.0056187655 -0.04843489 0.10278591 -0.07112756
00000000: cc90 3d3d e44d 243c 7467 d13c 3305 2fbe
00000010: 9f1d b83b aa63 46bd 6b81 d23d 54ab 91bd

sun_influence_1.W.weight f4 [12, 12]
0.41104275 -0.0647974 -0.03921469 0.9810767 -0.037516665 0.48036093 0.33458778 0.8308866
-0.3342097 0.0785513 0.06917953 0.13899471 -0.22608516 0.41434455 0.2510836 0.06726744
-0.044106115 0.0887592 -0.11340645 -0.010831107 0.2678273 -0.094102986 0.3291671 0.49749702
-0.22932759 -0.27141514 0.13582657 0.063364215 -0.5384165 0.2853465 -0.25524384 -0.23203161
-0.36516494 -0.338341 -0.25719804 -0.21417809 -0.116771944 0.024554005 -0.082226075 0.09963886
0.28424346 -0.44558474 0.49430314 0.7059961 0.23097855 -0.4287695 -0.23451549 0.20677441
0.20794427 -0.104605995 0.32699192 -0.50183403 -0.38274136 -0.21001688 0.28948414 -0.12134504
0.032271758 0.092313044 0.634897 0.47200447 -0.20634304 0.06182552 0.33094996 -0.32562235
-0.09995894 0.015113255 0.156923 0.4104323 0.30435294 0.045434557 -0.123321414 0.20688982
0.35563076 -0.46467116 -0.50823504 -0.32081082 0.1393367 -0.47513863 0.23182128 -0.28594518
-0.51999784 -0.019132802 0.3175033 0.32716796 0.10674781 0.29690287 0.2991609 -0.101464175
-0.022968186 0.25962982 -0.21819639 -0.30728668 -0.18099749 0.24903159 -0.17494313 -0.43789488
0.18377146 -0.72224456 0.32646966 -0.28412813 0.25003815 -0.02321957 -0.42662975 -0.13634425
0.19067012 0.11322404 0.33805153 0.024405569 -0.3389279 0.36859587 -0.21018927 0.18430741
0.044565056 -0.19476643 -0.30879366 -0.16690168 0.51393145 -0.1769268 -0.41883475 0.11509173
-0.30165333 -0.0681764 -0.428249 0.035713993 -0.2708042 -0.073611945 -0.15249914 0.6533719
-0.5281417 -0.49928528 0.43460402 -0.13655765 -0.23656629 -0.28220594 0.0050107744 0.12027374
-0.4133788 -0.3128884 0.022310873 -0.83385116 -0.0803498 -0.023784932 0.7224022 0.5295426
00000000: 3274 d23e 80b4 84bd 959f 20bd d827 7b3f
00000010: 13ab 19bd def1 f53e 174f ab3e fcb4 543f
00000020: 891d abbe 81df a03d ffad 8d3d a154 0e3e
00000030: de82 67be f824 d43e 088e 803e 83c3 893d
00000040: 9da8 34bd 62c7 b53d a441 e8bd f574 31bc
00000050: a920 893e 11b9 c0bd 9788 a83e eeb7 fe3e
00000060: dad4 6abe edf6 8abe 1f16 0b3e 19c5 813d
00000070: aad5 09bf f018 923e 52af 82be b299 6dbe
00000080: e6f6 babe 083b adbe 76af 83be 8051 5bbe
00000090: 2126 efbd 7b25 c93c 2566 a8bd 750f cc3d
000000a0: 5c88 913e af23 e4be 4d15 fd3e 29bc 343f
000000b0: a485 6c3e ad87 dbbe d424 70be acbc 533e
000000c0: 58ef 543e ab3b d6bd 7c6b a73e 3278 00bf
000000d0: adf6 c3be aa0e 57be 4437 943e c083 f8bd
000000e0: 642f 043d 9f0e bd3d 9c88 223f 92aa f13e
000000f0: 974b 53be c23c 7d3d 4672 a93e f9b7 a6be
00000100: 46b7 ccbd 969d 773c 6cb0 203e 2f24 d23e
00000110: 26d4 9b3e 9619 3a3d f08f fcbd edda 533e
00000120: 3c15 b63e 61e9 edbe b11b 02bf 5141 a4be
00000130: 48ae 0e3e 5f45 f3be 8f62 6d3e 6867 92be
00000140: 941e 05bf 65bc 9cbc cb8f a23e 8f82 a73e
00000150: 999e da3d a703 983e 9e2b 993e 73cc cfbd
00000160: c727 bcbc 33ee 843e e06e 5fbe ae54 9dbe
00000170: 6857 39be 2302 7f3e 4b24 33be c233 e0be
00000180: 962e 3c3e 05e5 38bf 0827 a73e 3e79 91be
00000190: 0005 803e f836 bebc 376f dabe d49d 0bbe
000001a0: 073f 433e 01e2 e73d 1715 ad3e 30ee c73c
000001b0: f587 adbe 99b8 bc3e db3b 57be 15bb 3c3e
000001c0: d989 363d da70 47be 341a 9ebe 46e8 2abe
000001d0: 0391 033f 4d2c 35be 8271 d6be 37b5 eb3d
000001e0: 4e72 9abe 12a0 8bbd 7443 dbbe d648 123d
000001f0: d9a6 8abe dcc1 96bd bc28 1cbe 6143 273f
00000200: 4b34 07bf 52a2 ffbe 6b84 de3e c5d5 0bbe
00000210: 6f3e 72be 4c7d 90be 6c31 a43b 1452 f63d
00000220: 63a6 d3be e932 a0be 4bc5 b63c 4577 55bf
00000230: 708e a4bd 9ed8 c2bc 5aef 383f 1b90 073f

sun_influence_1.W.bias f4 [12]
-0.034437917 -0.05705741 0.08826623 -0.0740228 -0.03291105 -0.0028818992 -0.07499101 -0.08508069
-0.123940274 -0.08727861 -0.007306262 0.058781475
00000000: c60e 0dbd 08b5 69bd edc4 b43d 4499 97bd
00000010: bdcd 06bd 3fde 3cbb e394 99bd c93e aebd
00000020: 66d4 fdbd 21bf b2bd 5e69 efbb d8c4 703d

sun_influence_1.W_self.weight f4 [12, 12]
-0.3506249 0.10164888 0.5825743 -0.019170245 0.11661984 0.3092554 0.50408155 -0.6159738
0.41030878 0.061731104 0.8532008 0.55988896 0.34063143 -0.52341133 -0.33956474 0.15246773
0.4952472 0.03635555 -0.04941043 -0.046900067 0.53837985 0.20614965 -0.21755548 -0.35186532
-0.35657072 -0.13690066 -0.14877912 -0.027902873 -0.21716839 -0.5283755 0.44077545 0.29525095
-0.33092362 0.68258756 0.5892896 0.13061756 0.26536494 0.19421613 -0.19979113 0.38784745
-0.1582221 -0.34525406 -0.32874343 0.03840417 -0.27388266 -0.39971912 -0.4928687 -0.12429273
-0.21470298 -0.16974032 -0.5635297 -0.18486483 0.42831028 -0.098628 -0.29280052 0.22298019
-0.6663666 -0.29363453 0.17349698 -0.08258278 0.20173304 0.58301127 0.63244843 -0.5644372
0.101026766 0.5878899 0.019231616 -0.29931682 -0.1494382 1.0251818 -0.40847984 0.024673073
0.19687349 -0.36565754 -0.33254647 -0.03166325 0.3471472 -0.0024432344 0.52019984 0.7377328
0.0041422877 -0.06814703 0.23814419 0.099228695 0.57263196 0.2202474 -0.47448352 0.53686386
0.37290716 0.25172737 0.5097677 -0.062600456 0.44437522 0.068033844 0.3203004 0.033402413
0.5116536 -0.20322607 0.46236098 0.12245828 -0.00899408 -0.02491348 -0.156636 0.3121163
-0.2790801 -0.07415398 -0.30163816 0.06891057 0.5139256 0.27010548 0.42981964 -0.1451175
0.07404352 -0.19545525 -0.2233585 -0.23337324 -0.6118372 -0.2047018 -0.17789967 0.39186177
-0.36329436 -0.2131246 -0.1310393 0.1558464 -0.2292427 -0.09917514 -0.15038998 0.31436175
-0.5227001 -0.4274678 -0.13936222 -0.54521656 0.15416914 -0.41786408 -0.09501337 -0.5229318
0.2959898 -0.05954369 0.27162924 0.15397735 -0.039253253 -0.25792938 -0.28641486 -0.33038765
00000000: 1b85 b3be 4a2d d03d 9723 153f eb0a 9dbc
00000010: 62d6 ee3d b956 9e3e 7d0b 013f 75b0 1dbf
00000020: fe13 d23e c1d9 7c3d 5e6b 5a3f e254 0f3f
00000030: 3e67 ae3e 49fe 05bf 6edb adbe 8020 1c3e
00000040: 0a91 fd3e 8fe9 143d 9762 4abd 491a 40bd
00000050: 43d3 093f e518 533e ddc6 5ebe b127 b4be
00000060: 7090 b6be b02f 0cbe 8e59 18be 9194 e4bc
00000070: 6461 5ebe 9e43 07bf 52ad e13e 222b 973e
00000080: d26e a9be 0fbe 2e3f afdb 163f 9cc0 053e
00000090: eadd 873e 98e0 463e 0c96 4cbe f193 c63e
000000a0: f904 22be 24c5 b0be 0f51 a8be b14d 1d3d
000000b0: 593a 8cbe fca7 ccbe 4959 fcbe 308d febd
000000c0: 19db 5bbe 68d0 2dbe 7b43 10bf 354d 3dbe
000000d0: 7c4b db3e 7afd c9bd f3e9 95be eb54 643e
000000e0: 0097 2abf 4457 96be 31a9 313e 2921 a9bd
000000f0: 1b93 4e3e 3a40 153f 24e8 213f f57e 10bf
00000100: 1fe7 ce3d f47f 163f 9f8b 9d3c 0e40 99be
00000110: 5406 19be 2839 833f 4524 d1be 2f1f ca3c
00000120: 3499 493e 7737 bbbe 8843 aabe 53b1 01bd
00000130: 47bd b13e ac1e 20bb d12b 053f 0fdc 3c3f
00000140: 07bc 873b ac90 8bbd 12dc 733e 6a38 cb3d
00000150: 0298 123f 8988 613e 81ef f2be e96f 093f
00000160: b0ed be3e 69e2 803e 2380 023f ab34 80bd
00000170: 2685 e33e 5455 8b3d 6afe a33e f8d0 083d
00000180: bbfb 023f 7f1a 50be 94ba ec3e 68cb fa3d
00000190: e85b 13bc 5b17 ccbc 3065 20be b5cd 9f3e
000001a0: 96e3 8ebe 0bde 97bd 5170 9abe fc20 8d3d
000001b0: a190 033f 444b 8a3e 5211 dc3e af99 14be
000001c0: 21a4 973d 6c25 48be 17b8 64be 65f9 6ebe
000001d0: 5da1 1cbf 599d 51be 552b 36be 1ba2 c83e
000001e0: b801 babe 563d 5abe 2b2f 06be 3396 1f3e
000001f0: 99be 6abe 561c cbbd d5ff 19be 06f4 a03e
00000200: accf 05bf 0fdd dabe f8b4 0ebe 5093 0bbf
00000210: 84de 1d3e 48f2 d5be 5f96 c2bd dcde 05bf
00000220: fa8b 973e 16e4 73bd fd12 8b3e 3dac 1d3e
00000230: 05c8 20bd 520f 84be f8a4 92be 9228 a9be

sun_influence_1.W_self.bias f4 [12]
-0.034437917 -0.05705741 0.08826623 -0.0740228 -0.03291105 -0.0028818992 -0.07499101 -0.08508069
-0.123940274 -0.08727861 -0.007306262 0.058781475
00000000: c60e 0dbd 08b5 69bd edc4 b43d 4499 97bd
00000010: bdcd 06bd 3fde 3cbb e394 99bd c93e aebd
00000020: 66d4 fdbd 21bf b2bd 5e69 efbb d8c4 703d

sun_influence_2.W.weight f4 [12, 12]
-0.13105963 -0.3770442 0.4618582 -1.0647833 -0.2907704 -0.65161437 0.14880659 0.094837666
0.37750274 0.17114204 -0.74456316 -0.42892584 -0.18314487 -0.5688324 0.070155025 -0.08651103
0.03588633 -0.12734796 0.063329294 0.15067625 -0.21522646 0.17063414 -0.046288565 -0.266862
-0.40456325 -0.082557544 -0.06533117 -0.17277773 0.15500994 -0.6275844 -0.1778468 -0.16257358
0.27390411 0.05114954 -0.50154054 0.38554347 0.13068287 -0.22699691 0.38359296 0.30404487
0.44659644 0.121534765 -0.40171087 0.44581917 0.4263658 0.058048688 0.19699708 0.4491274
-0.3369565 -0.59766227 0.31045488 -0.7708085 -0.34346074 0.20863266 -0.006344985 0.52222794
0.085131094 0.10191432 0.00046083212 -0.072232194 0.106357865 -0.364212 0.320499 0.4539792
-0.57943857 -0.31979358 0.13292222 0.33326504 0.32077023 -0.80783576 0.4318721 -0.3738587
0.51404023 -0.35843387 -0.35029078 -0.3672962 0.4390389 0.34155625 0.11379715 0.09950982
-0.40211612 0.5757765 -0.01859938 0.18570635 -0.17022327 -0.28641385 0.17574629 0.47369516
-0.33493114 -0.17001058 -0.04609812 -0.1831409 -0.22157264 -0.05122834 0.09030599 -0.6216766
-0.4989509 -0.3968658 0.2246557 0.086945824 0.013863889 -0.4715531 -0.3156546 -0.33760768
-0.1745286 0.060419235 0.5526473 0.010353799 0.18225315 -0.024656255 -0.18752752 0.16468714
0.11679582 -0.39064798 -0.22743087 0.08828201 0.30882975 -0.6613659 -0.3743717 0.38883996
0.27900562 -0.013868864 0.46521884 -0.52385116 -0.37898633 0.12217251 -0.54253066 -0.54313487
-0.1523884 0.34031615 0.042772546 -0.06076231 0.77320087 -0.12537228 0.050986193 0.11818674
0.09288869 0.34165695 -0.12997675 0.115586504 0.13133088 0.22654395 0.34332147 0.5229229
00000000: 7f34 06be f00b c1be ae78 ec3e d24a 88bf
00000010: dcdf 94be 33d0 26bf c160 183e 403a c23d
00000020: 0a48 c13e dc3f 2f3e b19b 3ebf 2b9c dbbe
00000030: 548a 3bbe 009f 11bf 70ad 8f3d b22c b1bd
00000040: 8bfd 123d 8167 02be cab2 813d e04a 1a3e
00000050: 5364 5cbe b7ba 2e3e 1499 3dbd 23a2 88be
00000060: ea22 cfbe ee13 a9bd 59cc 85bd a5ec 30be
00000070: edba 1e3e 5fa9 20bf 791d 36be b079 26be
00000080: 293d 8c3e 2e82 513d f664 00bf f465 c53e
00000090: bbd1 053e e171 68be 4c66 c43e c5ab 9b3e
000000a0: 4aa8 e43e 38e7 f83d 0cad cdbe 6942 e43e
000000b0: 9e4c da3e 76c4 6d3d 9ab9 493e 07f4 e53e
000000c0: 9085 acbe 6500 19bf f1f3 9e3e b553 45bf
000000d0: 16da afbe cda3 553e 98e9 cfbb bbb0 053f
000000e0: 3659 ae3d 74b8 d03d d79b f139 79ee 93bd
000000f0: 27d2 d93d ff79 babe 7218 a43e f66f e83e
00000100: 1656 14bf fcbb a3be c31c 083e b7a1 aa3e
00000110: ff3b a43e 53ce 4ebf 571e dd3e 686a bfbe
00000120: 2498 033f a584 b7be 5059 b3be 3f0e bcbe
00000130: b5c9 e03e 76e0 ae3e 7b0e e93d cecb cb3d
00000140: 2ae2 cdbe 1766 133f ba5d 98bc ce29 3e3e
00000150: 024f 2ebe d6a4 92be d6f6 333e 2c88 f23e
00000160: 187c abbe 4117 2ebe 62d1 3cbd 4a89 3bbe
00000170: f0e3 62be cfd4 51bd 59f2 b83d 3326 1fbf
00000180: 7e76 ffbe fe31 cbbe 250c 663e a710 b23d
00000190: 5d25 633c 686f f1be 7b9d a1be eada acbe
000001a0: a0b7 32be 297a 773d 4b7a 0d3f fba2 293c
000001b0: 92a0 3a3e eafb c9bc 3707 40be bfa3 283e
000001c0: a632 ef3d 0303 c8be a3e3 68be 33cd b43d
000001d0: ef1e 9e3e 474f 29bf a6ad bfbe 0816 c73e
000001e0: d3d9 8e3e 3b3a 63bc 2a31 ee3e 1c1b 06bf
000001f0: 7f0a c2be 9535 fa3d 4ae3 0abf e30a 0bbf
00000200: b40b 1cbe eb3d ae3e 4432 2f3d e6e1 78bd
00000210: 7ef0 453f 9761 00be e6d6 503d e40b f23d
00000220: 6d3c be3d a9ed ae3e a018 05be 9eb8 ec3d
00000230: 9a7b 063e 23fb 673e d5c7 af3e 46de 053f

sun_influence_2.W.bias f4 [12]
0.08707101 -0.11060732 0.120714016 0.020160899 -0.059872486 -0.12587623 -0.104898155 -0.08375902
0.07053316 -0.052012075 -0.14495654 -0.029894533
00000000: 4952 b23d 1786 e2bd e938 f73d 7828 a53c
00000010: da3c 75bd b3e5 00be d8d4 d6bd d989 abbd
00000020: b073 903d 9d0a 55bd 7d6f 14be 61e5 f4bc

sun_influence_2.W_self.weight f4 [12, 12]
0.01075913 -0.1473334 0.12538685 0.0074525136 -0.3320693 -0.59911394 0.29793873 0.10578128
-0.04088474 -0.25680166 -0.07276841 0.45386338 0.38866153 -0.44498587 0.426135 -0.6966941
0.7994916 -0.10901463 0.31397197 -0.10697381 0.08400332 0.43132624 -0.40538675 0.16434376
0.44346967 0.326209 0.29469487 -0.012292245 -0.03458934 0.4052192 0.43134108 0.7172524
0.10841603 0.70411813 -0.15281753 -0.036759928 0.026331255 0.29764637 -0.26014006 -0.007606955
0.576944 -0.6453961 0.13460585 0.104766086 0.108678386 -0.14668243 -0.25342953 0.016906505
-0.7028552 -0.20853189 -0.13455161 -0.12971032 0.10839795 -0.028407188 0.0782809 0.32085025
0.2634422 -0.117142506 -0.3212594 -0.46356353 -0.08878013 -0.4793168 -0.08602552 -0.06468921
-0.41311362 -0.42112005 0.17427088 0.066313304 0.013003116 -0.56822306 -0.035985965 -0.076402366
-0.09381121 0.1473527 -0.4492611 0.38612053 0.39802423 -0.19748318 -0.17870325 0.4942128
0.40648985 0.25257358 -0.05459194 -0.11053878 -0.2833565 -0.0025099665 0.08935089 0.2914791
0.08204566 -0.08351877 0.25344503 -0.117111795 -0.18933527 0.33744243 0.27698848 0.14371738
0.02317817 -0.041760083 0.26310515 0.085214585 0.04892312 -0.6585987 -0.4624146 -0.39189467
-0.23503613 -0.5838942 0.25705537 0.3068425 0.142894 -0.39032248 -0.0063110883 0.53159857
0.3001266 0.20549019 -0.04034056 -0.18988031 0.57186705 0.013587699 0.13894646 0.12668289
-0.6706449 0.080685124 0.058512058 -0.20797971 0.33393356 -0.25036266 -0.11296989 -0.18991396
-0.033106 -0.3803211 -0.07620462 -0.20740977 0.29054648 0.16836984 -0.33153602 0.30047068
0.078124166 -0.3281975 0.39442006 0.34216538 -0.33519983 0.49381363 0.38700902 -0.29304442
00000000: 1047 303c 91de 16be 6965 003e 3734 f43b
00000010: fd04 aabe 885f 19bf 6d8b 983e dba3 d83d
00000020: c276 27bd 827b 83be 9b07 95bd c860 e83e
00000030: a5fe c63e 30d5 e3be 5e2e da3e 8b5a 32bf
00000040: 7bab 4c3f 1043 dfbd efc0 a03e 1615 dbbd
00000050: ef09 ac3d cbd6 dc3e da8e cfbe bb49 283e
00000060: 750e e33e de04 a73e 3fe2 963e 6a65 49bc
00000070: 8dad 0dbd e478 cf3e bdd8 dc3e da9d 373f
00000080: 3909 de3d 1641 343f 337c 1cbe 9491 16bd
00000090: a5b4 d73c 1b65 983e 1431 85be c343 f9bb
000000a0: 9ab2 133f ae38 25bf 1ed6 093e 9a8f d63d
000000b0: c692 de3d eb33 16be 84c1 81be 837f 8a3c
000000c0: 52ee 33bf 6289 55be e6c7 09be c8d2 04be
000000d0: bfff dd3d 31b6 e8bc bd51 a03d 7c46 a43e
000000e0: e5e1 863e 69e8 efbd 1d7c a4be 3358 edbe
000000f0: 5bd2 b5bd 0369 f5be 262e b0bd c77b 84bd
00000100: a183 d3be 0c9d d7be 1174 323e 45cf 873d
00000110: 050b 553c 1177 11bf 0566 13bd d878 9cbd
00000120: 1720 c0bd a0e3 163e 8d05 e6be 97b1 c53e
00000130: d5c9 cb3e 0839 4abe fcfd 36be 7609 fd3e
00000140: 701f d03e 5351 813e cc9b 5fbd 2862 e2bd
00000150: 1a14 91be 407e 24bb 99fd b63d c03c 953e
00000160: 8e07 a83d e40b abbd 8cc3 813e 4fd8 efbd
00000170: 1be1 41be 41c5 ac3e 6fd1 8d3e a62a 133e
00000180: 25e0 bd3c 9f0c 2bbd b8b5 863e fc84 ae3d
00000190: 9c63 483d ed99 28bf 9bc1 ecbe 6ba6 c8be
000001a0: 50ad 70be 177a 15bf c39c 833e 761a 9d3e
000001b0: ce52 123e 59d8 c7be 3fcd cebb d816 083f
000001c0: 32aa 993e 056c 523e 253c 25bd fc6f 42be
000001d0: e165 123f f19e 5e3c fb47 0e3e 29b9 013e
000001e0: 62af 2bbf 3e3e a53d 57aa 6f3d a2f8 54be
000001f0: 57f9 aa3e 892f 80be c25c e7bd ce78 42be
00000200: 289a 07bd 72b9 c2be 2b11 9cbd 3a63 54be
00000210: 82c2 943e 2569 2c3e 17bf a9be 4bd7 993e
00000220: 90ff 9f3d 8109 a8be 6df1 c93e 4d30 af3e
00000230: 509f abbe 24d5 fc3e 0c26 c63e eb09 96be

sun_influence_2.W_self.bias f4 [12]
0.08707101 -0.11060732 0.120714016 0.020160899 -0.059872486 -0.12587623 -0.104898155 -0.08375902
0.07053316 -0.052012075 -0.14495654 -0.029894533
00000000: 4952 b23d 1786 e2bd e938 f73d 7828 a53c
00000010: da3c 75bd b3e5 00be d8d4 d6bd d989 abbd
00000020: b073 903d 9d0a 55bd 7d6f 14be 61e5 f4bc

sun_influence_3.W.weight f4 [12, 12]
-0.2604389 0.31451932 0.10671225 -0.1776869 -0.039290488 -0.19200084 0.5337651 0.3251738
0.21604382 -0.25100484 0.2696109 0.58229584 0.5611425 -0.26649782 0.5263028 -0.25501418
-0.6819025 0.45530555 -0.58591133 -0.051856324 -0.05840895 -0.30495018 0.17838755 0.10699458
-0.8205112 -0.4388134 -0.37692675 0.1807301 0.06545323 0.5388087 -0.41233328 0.30975652
0.5119208 -0.19053622 0.22790575 0.44979122 -0.17576192 -0.74143195 -0.050367143 0.035940878
-0.32642132 -0.23444954 -0.28976876 0.20317946 -0.11140464 0.038443655 -0.32034522 -0.40970555
-0.20879388 0.22371498 0.14698339 -0.36467305 -0.18161887 0.30507553 0.011644929 0.32204267
0.105889924 0.09648099 0.26729304 0.04238159 0.20094791 -0.33751574 0.02336079 0.17576014
0.61381745 0.206593 0.13408199 -0.30340275 0.124965884 0.31869265 0.3365474 -0.33228672
0.26657674 -0.2805096 -0.19736373 -0.21967311 -0.0148034515 -0.029696835 0.4881754 -0.07278714
0.6180078 0.26667202 -0.30876026 0.35176045 -0.19488323 0.16167322 0.27751985 -0.31213093
0.14068791 -0.48538762 0.2351315 0.30558026 -0.56177986 -0.2694314 -0.30548483 0.5780736
-0.04284558 0.17007741 -0.070149116 -0.20365909 -0.03393756 0.40911868 0.0037797168 -0.37454984
-0.062077872 0.25365913 0.21320005 -0.4288286 0.4590645 -0.08147896 -0.4134828 -1.0668287
0.16998559 0.077364 -0.010103318 0.59348464 0.62288797 -0.14429961 0.9344958 -0.5924991
0.5760534 0.26236194 0.020141672 -0.5266122 0.054030214 -0.40034753 0.2586538 0.33904263
0.21518007 0.19130285 -0.31577396 0.15827832 0.07294176 -0.030407652 0.03681544 -0.16927087
0.069827 -0.49296194 0.40029135 -0.16392475 -0.6893499 -0.16885148 0.27287638 0.7787903
00000000: 3f58 85be ad08 a13e f48b da3d 8ef3 35be
00000010: 10ef 20bd de9b 44be d4a4 083f 2e7d a63e
00000020: 973a 5d3e b583 80be 710a 8a3e 5711 153f
00000030: 09a7 0f3f 6772 88be c8bb 063f 3891 82be
00000040: 2a91 2ebf cf1d e93e 49fe 15bf 4c67 54bd
00000050: 393e 6fbd 6e22 9cbe 3aab 363e f91f db3d
00000060: 060d 52bf 26ac e0be 8bfc c0be 5011 393e
00000070: 580c 863d 5eef 093f 591d d3be 6898 9e3e
00000080: 3e0d 033f ed1b 43be 2060 693e 094b e63e
00000090: effa 33be 7cce 3dbf c74d 4ebd be36 133d
000000a0: b220 a7be 8a13 70be 925c 94be 470e 503e
000000b0: 1e28 e4bd 1877 1d3d 4a04 a4be edc4 d1be
000000c0: 10ce 55be 8a15 653e d082 163e 6db6 babe
000000d0: 4cfa 39be dc32 9c3e 5fca 3e3c c7e2 a43e
000000e0: d1dc d83d d397 c53d a2da 883e 5198 2d3d
000000f0: 4ac5 4d3e ddce acbe 215f bf3c 77fa 333e
00000100: 2423 1d3f 1e8d 533e ca4c 093e 9b57 9bbe
00000110: 1dee ff3d af2b a33e f14f ac3e 7c21 aabe
00000120: bf7c 883e f49e 8fbe b819 4abe fdf1 60be
00000130: 2d8a 72bc c746 f3bc 20f2 f93e 6d11 95bd
00000140: c235 1e3f 3c89 883e d315 9ebe f219 b43e
00000150: 788f 47be aa8d 253e 1517 8e3e a0cf 9fbe
00000160: 7e10 103e ba84 f8be 50c6 703e 0475 9c3e
00000170: ced0 0fbf eaf2 89be 8268 9cbe a2fc 133f
00000180: d97e 2fbd c628 2e3e 57aa 8fbd 028c 50be
00000190: 1c02 0bbd 0178 d13e 20b5 773b ffc4 bfbe
000001a0: 5e45 7ebd 9cdf 813e 1d51 5a3e 6c8f dbbe
000001b0: 810a eb3e 71de a6bd 04b4 d3be d88d 88bf
000001c0: b410 2e3e 0471 9e3d 6388 25bc 9cee 173f
000001d0: 9675 1f3f 47c3 13be 1e3b 6f3f 05ae 17bf
000001e0: 3c78 133f 4e54 863e 2600 a53c 0fd0 06bf
000001f0: c94e 5d3d 5afa ccbe 456e 843e ff96 ad3e
00000200: 2a58 5c3e e5e4 433e 20ad a1be b613 223e
00000210: 7d62 953d 7819 f9bc c9cb 163d 5855 2dbe
00000220: 7501 8f3d 8265 fcbe fdf2 cc3e e4db 27be
00000230: 3c79 30bf 67e7 2cbe 74b6 8b3e cd5e 473f

sun_influence_3.W.bias f4 [12]
-0.031827156 0.031623267 -0.01332126 -0.09938702 -0.06858129 -0.10654474 -0.123007506 -0.0027784146
0.021561246 0.108965665 -0.067938 0.025547236
00000000: 315d 02bd 6687 013d 6a41 5abc 6c8b cbbd
00000010: 5974 8cbd 2134 dabd 5ceb fbbd 1016 36bb
00000020: 36a1 b03c 6429 df3d 1423 8bbd 7048 d13c

sun_influence_3.W_self.weight f4 [12, 12]
-0.5981961 0.31085074 -0.19294876 0.02738436 0.13124262 -0.16419849 -0.0746281 -0.23108816
-0.33520776 0.360051 -0.048060313 -0.17955282 0.16676858 0.119177654 0.15271127 0.38645047
-0.5273374 0.013995691 0.3268015 0.3139626 -0.29354736 0.0030385307 -0.023007302 -0.5821348
-0.32514808 0.43877575 -0.44705737 -0.25915253 -0.16241015 0.3601865 0.045099337 -0.030214436
0.0825561 -0.20010501 -0.34496415 -0.27295843 0.13647206 0.4804104 0.14941573 0.030618658
-0.13337786 0.05663906 0.1629204 -0.4526805 0.11870161 -0.5098156 0.38871548 0.26761714
0.07336046 -0.1589567 -0.12680207 -0.6109228 0.16258629 0.011059374 0.2713361 0.026003432
-0.5564259 -0.3776477 -0.6258704 0.32112962 -0.35089064 0.20712572 0.081752844 0.31865007
-0.040575325 0.24217497 -0.03495499 0.26290053 -0.14227958 0.61564374 -0.03232838 0.16959935
0.37049645 0.25646934 0.09497461 0.12318486 0.10890326 0.10233802 0.15954833 -0.5630957
0.1409383 -0.3440495 0.11165719 0.08795569 0.1926116 0.50083494 -0.032588627 0.13708958
-0.022910288 0.11086547 -0.069240585 -0.024634775 0.029569646 0.266431 -0.046668798 0.20032828
-0.5617234 0.0752285 -0.69947445 -0.18699968 0.16861199 -0.05406438 0.20288439 0.00791037
-0.09941767 0.03412024 0.014686089 -0.12772846 0.6879232 0.27451828 0.6724597 0.024251876
-0.011429969 -0.06360717 -0.2627746 0.42294246 -0.19790918 0.44254312 -0.7099643 0.13363065
0.17520748 0.0028493344 -0.28075132 0.008188647 -0.359487 0.43560076 -0.47856197 0.010904493
0.2120564 -0.0699648 -0.11120496 -0.3229294 -0.14920095 -0.32736704 0.06314521 0.3191509
0.11961421 -0.12943515 0.049290366 -0.6772336 -0.18843164 -0.3071092 -0.36587715 0.06102081
00000000: 6123 19bf d427 9f3e 5c94 45be 2a55 e03c
00000010: 7764 063e a623 28be 9ed6 98bd 60a2 6cbe
00000020: 5aa0 abbe 9b58 b83e e4da 44bd b2dc 37be
00000030: 62c5 2a3e 6a13 f43d 5860 1c3e d6dc c53e
00000040: 95ff 06bf 2f4e 653c 8752 a73e b5bf a03e
00000050: d74b 96be 1622 473b cf79 bcbc c906 15bf
00000060: cf79 a6be 37a7 e03e b4e4 e4be a4af 84be
00000070: d94e 26be 5d6a b83e 15ba 383d 4484 f7bc
00000080: 2c13 a93d 54e8 4cbe 249f b0be 35c1 8bbe
00000090: 55bf 0b3e 5af8 f53e 7000 193e fbd3 fa3c
000000a0: 3594 08be 5cfe 673d 9bd4 263e bdc5 e7be
000000b0: d419 f33d 4683 02bf b705 c73e 1d05 893e
000000c0: 023e 963d 8cc5 22be 67d8 01be 7065 1cbf
000000d0: 057d 263e 6032 353c 91ec 8a3e 2605 d53c
000000e0: ee71 0ebf 0a5b c1be 0b39 20bf 1a6b a43e
000000f0: f0a7 b3be c418 543e 096e a73d 1a26 a33e
00000100: 5032 26bd b7fc 773e f72c 0fbd e69a 863e
00000110: bdb1 11be d49a 1d3f c36a 04bd 74ab 2d3e
00000120: b6b1 bd3e f34f 833e 0c82 c23d 5848 fc3d
00000130: ac08 df3d 9996 d13d a360 233e 0a27 10bf
00000140: 2152 103e 4227 b0be 86ac e43d 1d22 b43d
00000150: fa3b 453e b836 003f a77b 05bd 3661 0c3e
00000160: 5bae bbbc 6f0d e33d 02ce 8dbd dece c9bc
00000170: 0b3c f23c a569 883e c827 3fbd db22 4d3e
00000180: 1bcd 0fbf 6611 9a3d c210 33bf d87c 3fbe
00000190: 9fa8 2c3e 9c72 5dbd edc0 4f3e 7f9a 013c
000001a0: 7e9b cbbd aac1 0b3d ec9d 703c 40cb 02be
000001b0: bc1b 303f a98d 8c3e 5226 2c3f dfab c63c
000001c0: c444 3bbc 7a44 82bd 648a 86be ea8b d83e
000001d0: b4a8 4abe 0395 e23e 38c0 35bf 79d6 083e
000001e0: 9769 333e e6bb 3a3b a3be 8fbe ad29 063c
000001f0: ae0e b8be 1007 df3e 1306 f5be c2a8 323c
00000200: 5025 593e b449 8fbd 6dbf e3bd 0157 a5be
00000210: 22c8 18be a79c a7be 4752 813d bf67 a33e
00000220: 4cf8 f43d a68a 04be b2e4 493d 2e5f 2dbf
00000230: 39f4 40be 6b3d 9dbe 4054 bbbe f5f0 793d

sun_influence_3.W_self.bias f4 [12]
-0.031827156 0.031623267 -0.01332126 -0.09938702 -0.06858129 -0.10654474 -0.123007506 -0.0027784146
0.021561246 0.108965665 -0.067938 0.025547236
00000000: 315d 02bd 6687 013d 6a41 5abc 6c8b cbbd
00000010: 5974 8cbd 2134 dabd 5ceb fbbd 1016 36bb
00000020: 36a1 b03c 6429 df3d 1423 8bbd 7048 d13c

sun_influence_4.weight f4 [8, 12]
-0.4346903 -0.38719964 -0.056508742 0.3265206 0.10872601 -0.9349451 0.20105684 0.08236264
0.17696129 -0.9152555 0.26482233 0.87221104 0.31427142 0.44013286 0.011844203 0.28999075
-0.10763324 -0.19429937 -0.056679316 -0.109170794 -0.19744073 -0.84818107 -0.12520978 0.018571673
-0.10122087 0.38563257 0.20046455 0.18530346 -0.19230801 -0.25172666 0.05600135 -0.13111581
0.43004307 -0.06769591 0.060834087 0.05559548 -0.19501017 0.5883725 -0.2827111 0.18362886
0.10018544 -0.16352256 0.15633602 0.29768708 0.08262059 -0.2967085 0.20352463 -0.45469403
0.14437361 0.022516653 0.7103025 -0.11028371 0.52119553 0.1986651 0.5196236 0.4584534
0.44844425 -0.39016122 0.33477384 0.41747844 -0.04803704 0.23681028 -0.24776053 0.040993292
-0.1411127 0.007324412 -0.6089592 0.52766 -0.13176814 -0.3740035 0.43883586 -0.19122736
-0.4002105 -0.14320096 -0.80278754 -0.07642314 0.0380779 0.17002192 -0.16519693 -0.12619491
-0.19935554 -0.2168486 -0.11584887 0.03443457 -0.26579595 -0.1312176 -0.056884762 0.23370351
0.24266265 -0.029784719 -0.023286195 0.3944864 0.14341564 -0.105379224 0.02986535 -0.41142398
00000000: ba8f debe 083f c6be b675 67bd b52d a73e
00000010: beab de3d 9058 6fbf d8e1 4d3e bead a83d
00000020: 5735 353e 2f4e 6abf cb96 873e 3949 5f3f
00000030: 2fe8 a03e 1859 e13e 300e 423c ab79 943e
00000040: d16e dcbd 6af6 46be 9228 68bd f094 dfbd
00000050: e72d 4abe 6522 59bf fe36 00be 9f23 983c
00000060: e34c cfbd a271 c53e 9446 4d3e 31c0 3d3e
00000070: 64ec 44be 51e2 80be ac61 653d 3943 06be
00000080: 9b2e dc3e 27a4 8abd 2a2d 793d 16b8 633d
00000090: bfb0 47be 959f 163f 82bf 90be 3409 3c3e
000000a0: 062e cd3d 7572 27be 8d16 203e 716a 983e
000000b0: fc34 a93d 2dea 97be c368 503e a8cd e8be
000000c0: add6 133e d874 b83c 62d6 353f 6ddc e1bd
000000d0: 126d 053f dd6e 4b3e 0d06 053f 67ba ea3e
000000e0: 7c9a e53e 36c3 c7be 7a67 ab3e bcbf d53e
000000f0: 7dc2 44bd 657e 723e f0b4 7dbe 95e8 273d
00000100: d97f 10be 9f01 f03b c0e4 1bbf ba14 073f
00000110: 3aee 06be 637d bfbe 18af e03e 1bd1 43be
00000120: 64e8 ccbe 46a3 12be 7c83 4dbf bc83 9cbd
00000130: 92f7 1b3d 3a1a 2e3e 6229 29be 3d39 01be
00000140: dc23 4cbe 8f0d 5ebe 2c42 edbd 440b 0d3d
00000150: 6816 88be e85d 06be ffff 68bd f94f 6f3e
00000160: 8f7c 783e 15ff f3bc b1c2 bebc 1ffa c93e
00000170: 8ddb 123e 10d1 d7bd 2ea8 f43c 2aa6 d2be

sun_influence_4.bias f4 [8]
-0.076055355 0.0648569 0.13388768 0.19552405 -0.10388426 0.056923598 0.07311187 0.12017788
00000000: e9c2 9bbd b2d3 843d da19 093e 7537 483e
00000010: 45c1 d4bd b828 693d adbb 953d d21f f63d
