src/Photosynthesis/RL/SavedModels/model_66.pth (torch, 30290 bytes, 34 tensors)

player_tree_1.W.weight f4 [12, 12]
0.26127735 -0.48836324 0.26976624 -0.14599518 0.31693915 -0.09485581 -0.3143031 0.0016502676
0.5496927 -0.037126213 -0.32073778 -0.11094076 0.14343348 0.17691198 0.36793527 -0.0106973145
0.2238738 -0.32578444 -0.043787703 -0.219538 0.11249088 0.30341512 0.58013815 0.32555455
-0.05822029 0.26172262 -0.722668 0.17643066 0.35598603 0.32851237 -0.1416836 -0.5760543
0.5386881 0.23267134 -0.38773486 -0.22269988 -0.20524126 0.008032993 -0.1470402 -0.23749247
0.09562332 -0.42466915 -0.020426717 -0.5846792 -0.47656026 0.14435449 -0.35829636 0.035847396
-0.43984368 -0.05139598 0.030245354 0.032562334 0.056939453 0.10299386 -0.37623152 0.3585505
-0.38744974 0.13103022 -0.07167011 0.6116154 0.26140776 0.4866287 0.6265497 -0.14092787
0.23016535 0.5946458 0.30103752 0.35176262 0.19288453 1.2649437 -0.01606079 0.35161692
-0.1487621 0.2152842 0.544396 0.19569042 -0.12551734 -0.07869192 -0.0661395 0.31271803
-0.13493305 -0.17417014 -0.2649941 -0.027147466 0.20718779 0.033402313 -0.18373834 -0.012658349
0.08030275 -0.038565066 -0.5715642 -0.12420497 -0.18397817 0.27058387 -0.3787404 0.41152737
0.20094848 -0.17659225 -0.9634542 -0.04831597 -0.3056156 -0.040333044 -0.529083 -0.11467218
0.2398913 0.14072403 -0.41303542 -0.21121657 -0.29935637 0.2363301 -0.2770706 -0.11455829
0.04519508 0.13117014 -0.4759757 -0.04535915 -0.550439 -0.07125351 -0.38435277 0.10685439
0.72541356 -0.057721287 -0.17045668 0.057336483 0.512898 0.44444335 -0.46735927 -0.04410466
0.10804282 -0.377805 -0.54184693 -0.012291341 0.13588893 -0.43664965 -0.061263252 -0.30745783
0.24001032 -0.1269042 0.040750306 -0.23180626 -0.6860383 -0.4470793 -0.24479268 -0.040272832
00000000: 25c6 853e bf0a fabe cd1e 8a3e c37f 15be
00000010: d945 a23e c343 c2bd 56ec a0be cb4d d83a
00000020: a9b8 0c3f a811 18bd be37 a4be e934 e3bd
00000030: 3ae0 123e 6a28 353e 0362 bc3e ca43 2fbc
00000040: 2c3f 653e 38cd a6be bc5a 33bd 92ce 60be
00000050: 9e61 e63d 3a59 9b3e ef83 143f 16af a63e
00000060: 6678 6ebd 8200 863e c500 39bf 3daa 343e
00000070: cd43 b63e c632 a83e 8115 11be 4b78 13bf
00000080: 77e7 093f 6541 6e3e 2f85 c6be 700b 64be
00000090: c42a 52be d19c 033c b591 16be 3a31 73be
000000a0: 29d6 c33d 3c6e d9be ee55 a7bc 89ad 15bf
000000b0: b5ff f3be aad1 133e 9f72 b7be b8d4 123d
000000c0: 3133 e1be 9784 52bd 1bc5 f73c 1560 053d
000000d0: 5839 693d 72ee d23d 6ba1 c0be ee93 b73e
000000e0: d05f c6be c92c 063e c7c7 92bd d492 1c3f
000000f0: 3dd7 853e 6627 f93e 9065 203f 654f 10be
00000100: 77b0 6b3e b53a 183f 9721 9a3e 3b1a b43e
00000110: 8683 453e ade9 a13f eb91 83bc 2207 b43e
00000120: 1855 18be 7673 5c3e 895d 0b3f 1263 483e
00000130: 9e87 00be 3b29 a1bd 2574 87bd 941c a03e
00000140: e42b 0abe a859 32be 4fad 87be 5d64 debc
00000150: 0929 543e ddd0 083d e725 3cbe f764 4fbc
00000160: c575 a43d 67f6 1dbd 0852 12bf 2d5f febd
00000170: c664 3cbe f889 8a3e 43ea c1be b7b3 d23e
00000180: 70c5 4d3e 99d4 34be efa4 76bf f7e6 45bd
00000190: a679 9cbe 4334 25bd fc71 07bf 3fd9 eabd
000001a0: 11a6 753e f619 103e 6179 d3be 2849 58be
000001b0: 3d45 99be 8500 723e 33dc 8dbe 899d eabd
000001c0: 7a1e 393d 7751 063e 16b3 f3be 84ca 39bd
000001d0: 92e9 0cbf 5ced 91bd e3c9 c4be 79d6 da3d
000001e0: b4b4 393f 286d 6cbd 328c 2ebe a9d9 6a3d
000001f0: 494d 033f 148e e33e b749 efbe 17a7 34bd
00000200: 8e45 dd3d a86f c1be 7bb6 0abf 9f61 49bc
00000210: 7826 0b3e 8b90 dfbe 2def 7abd 1d6b 9dbe
00000220: 44c5 753e 2df3 01be cbe9 263d 9f5e 6dbe
00000230: 35a0 2fbf 94e7 e4be efaa 7abe 20f5 24bd

player_tree_1.W.bias f4 [12]
0.027400173 0.003155826 -0.015173782 -0.08182426 -0.015348082 0.036313508 -0.020332709 0.035488524
-0.08333077 -0.023944365 0.04149914 -0.028142646
00000000: 5476 e03c f9d1 4e3b 749b 78bc 7a93 a7bd
00000010: 8676 7bbc 79bd 143d c890 a6bc 6a5c 113d
00000020: 53a9 aabd f926 c4bc 01fb 293d 688b e6bc

player_tree_1.W_self.weight f4 [12, 12]
-0.04267459 0.55284214 0.17629117 -0.36862478 0.04733806 -0.13000423 0.26015285 0.11825982
0.52730465 0.12715055 -0.38723093 -0.22460386 -0.22286795 0.5179068 0.26179594 -0.29996696
0.0945693 -0.31515765 0.4487908 0.1935207 -0.13124295 0.8451889 0.40915743 0.26299635
-0.071182884 0.42473674 -0.13296075 0.17739724 0.14703768 0.10816623 0.091939785 -0.43106055
-0.5156745 0.48519456 0.4547184 0.3386874 -0.5149989 0.08085694 0.2934507 -0.51568794
0.34629917 0.11860057 0.26932195 -0.87241495 0.09669931 -0.1513958 0.16790542 -0.044093296
-0.14360704 -0.23082583 0.36299866 -0.065005645 0.19085313 0.26490024 0.30664062 -0.32771128
0.08826958 -0.04833332 -0.41614 -0.020233294 -0.024621988 0.6984441 0.41151077 0.2783954
-0.32372403 0.32007536 0.12193425 0.24807157 -0.35314596 -0.042284567 0.52411824 0.0015349537
0.0688209 0.23800683 0.7320481 0.47173932 0.057143707 0.4203989 -0.17346829 -0.6025548
0.061467886 0.20686993 -0.6011789 -0.11230083 -0.014454676 0.08174923 0.20240258 0.24998438
-0.3374233 0.53982794 -0.5483924 0.15742645 0.039165467 0.3169105 0.190481 0.39031252
0.34698454 -0.4776903 -0.7367122 0.31104544 0.4136 -0.3725274 -0.090412304 0.33205628
-0.20113386 0.5690939 0.3870866 -0.056359243 -0.43468478 -0.24646574 0.118812405 0.40776336
0.058842648 0.38171664 0.56623155 0.2823043 0.25018612 0.10883478 -0.24161373 -0.3517244
0.17615062 -0.095238276 0.31504065 0.026313998 -0.3986017 0.44277143 -0.19640023 0.07359022
-0.34356338 0.45794874 0.25865626 -0.32757312 0.13144419 0.5424588 -0.38859263 0.29193512
-0.30994463 0.51811576 -0.32380152 -0.12163617 0.23847516 -0.1000693 -0.15618926 -0.53243935
00000000: 8dcb 2ebd 1087 0d3f ac85 343e 63bc bcbe
00000010: 8ee5 413d d41f 05be c132 853e 3432 f23d
00000020: 70fd 063f c133 023e 2243 c6be 8efe 65be
00000030: 7f37 64be 8a95 043f 1e0a 863e 4595 99be
00000040: 8dad c13d 585c a1be e8c7 e53e 4a2a 463e
00000050: 8d64 06be 4d5e 583f 157d d13e 75a7 863e
00000060: 55c8 91bd 1877 d93e dd26 08be 9fa7 353e
00000070: 0c91 163e 4286 dd3d ed4a bc3d f8b3 dcbe
00000080: 3e03 04bf 6c6b f83e dad0 e83e 6f68 ad3e
00000090: f8d6 03bf 5398 a53d 2c3f 963e 2004 04bf
000000a0: 204e b13e dbe4 f23d 91e4 893e 9656 5fbf
000000b0: 4a0a c63d 8007 1bbe 66ef 2b3e 2c9b 34bd
000000c0: b90d 13be 9b5d 6cbe f6da b93e ae21 85bd
000000d0: 016f 433e 01a1 873e 0000 9d3e c6c9 a7be
000000e0: aec6 b43d 29f9 45bd 4d10 d5be 4bc0 a5bc
000000f0: 0db4 c9bc 3ccd 323f 8ab1 d23e d889 8e3e
00000100: 28bf a5be ebe0 a33e aab8 f93d 7906 7e3e
00000110: 8ccf b4be 9532 2dbd 9d2c 063f 8030 c93a
00000120: f9f1 8c3d 10b8 733e 8167 3b3f d187 f13e
00000130: 850f 6a3d 863e d73e aca1 31be 0841 1abf
00000140: c0c5 7b3d b6d5 533e dce6 19bf fafd e5bd
00000150: 4ed3 6cbc 246c a73d 9f42 4f3e e8fb 7f3e
00000160: bfc2 acbe 2a32 0a3f 7263 0cbf 6634 213e
00000170: f86b 203d 1842 a23e 740d 433e 0bd7 c73e
00000180: f5a7 b13e d393 f4be 2c99 3cbf 5941 9f3e
00000190: 61c3 d33e e9bb bebe 162a b9bd 4803 aa3e
000001a0: 09f6 4dbe 23b0 113f 3730 c63e f3d8 66bd
000001b0: 018f debe 8461 7cbe eb53 f33d 5cc6 d03e
000001c0: fd04 713d 5d70 c33e 8df4 103f 308a 903e
000001d0: 6518 803e c5e4 de3d 9769 77be 3815 b4be
000001e0: d460 343e 490c c3bd 024d a13e 7490 d73c
000001f0: 8615 ccbe f0b2 e23e 241d 49be 78b6 963d
00000200: 8ae7 afbe 4278 ea3e 986e 843e aab7 a7be
00000210: 4e99 063e 94de 0a3f 9df5 c6be 8578 953e
00000220: 10b1 9ebe 3ca3 043f 50c9 a5be 621c f9bd
00000230: d532 743e 22f1 ccbd 14f0 1fbe f24d 08bf

player_tree_1.W_self.bias f4 [12]
0.027400173 0.003155826 -0.015173782 -0.08182426 -0.015348082 0.036313508 -0.020332709 0.035488524
-0.08333077 -0.023944365 0.04149914 -0.028142646
00000000: 5476 e03c f9d1 4e3b 749b 78bc 7a93 a7bd
00000010: 8676 7bbc 79bd 143d c890 a6bc 6a5c 113d
00000020: 53a9 aabd f926 c4bc 01fb 293d 688b e6bc

player_tree_2.W.weight f4 [12, 12]
0.28517398 -0.26345235 -0.86871403 -0.07948894 -0.15002613 -0.41096434 0.24839936 -0.00079077395
0.38037327 -0.20726444 -0.18863995 -0.7118767 -0.5649132 -0.35113505 -0.038068596 0.39264134
0.2577337 0.17823933 0.26154637 0.09253805 -0.5171435 0.14369194 -0.4269654 -0.029834503
0.8688379 -0.3893604 0.51890004 -0.1263027 0.31507114 -0.09734641 -0.38473248 -0.14558813
-0.21332867 0.24171571 -0.7389592 -0.38344547 -0.10193743 -0.23256268 -0.051134277 -0.40819493
0.19916153 -0.14253376 -0.03596753 -0.28832346 0.032209754 -0.0776363 -0.18376882 0.031239338
-0.14135407 -0.096257806 -0.4891919 -0.37452808 -0.061634433 -0.086647555 0.06648257 0.19214453
0.04750787 0.06201795 0.11565336 0.14104185 0.24554375 0.28853625 0.34439448 0.18535648
0.18003426 0.09921916 0.09940368 -0.14379415 0.4489513 -0.05158154 -0.54616076 -0.15493008
-0.08318054 -0.113964066 -0.4740254 0.39668033 0.03755701 0.2172109 0.17217442 0.25288862
0.1898373 -0.053125225 -0.40544486 0.20024018 0.2903047 -0.29327738 -0.18786044 0.09144534
0.27114415 -0.283494 0.037371643 -0.47947988 0.34704787 -0.1838729 -0.040182665 -0.812679
-0.5257009 -0.017033372 0.16070534 0.29612294 0.56935877 0.3243307 0.40189776 0.15129337
0.20990944 -0.0417916 -0.074470215 -0.09056614 -0.45867288 0.4117285 -0.11076924 0.2355684
0.30799803 -0.5583398 -0.5244191 -0.10583456 0.0042325957 0.3680102 -0.0006121539 0.5509666
-0.12400149 0.12102306 -0.2101681 -0.2552387 -0.42054954 -0.37994173 -0.6853676 0.16046081
0.03573751 -0.2584411 -0.2522472 0.0721912 0.109540544 0.16030681 -0.33516812 -0.1463144
-0.36812717 -0.43823642 0.14981665 0.39963964 0.23437332 -0.073436566 -0.34092894 0.004215313
00000000: 5302 923e 3ae3 86be 0b64 5ebf 19cb a2bd
00000010: 73a0 19be eb69 d2be 675c 7e3e f14b 4fba
00000020: 49c0 c23e 213d 54be d52a 41be 8d3d 36bf
00000030: 279e 10bf f9c7 b3be d1ed 1bbd 4908 c93e
00000040: acf5 833e 5f84 363e 68e9 853e 9784 bd3d
00000050: 8463 04bf fb23 133e 359b dabe 7d67 f4bc
00000060: 296c 5e3f 3f5a c7be a2d6 043f 7f55 01be
00000070: 0151 a13e 8e5d c7bd a8fb c4be 0e15 15be
00000080: d572 5abe 5384 773e 6e2c 3dbf f752 c4be
00000090: 92c4 d0bd e924 6ebe 2d72 51bd edfe d0be
000000a0: 00f1 4b3e 5ff4 11be b052 13bd 229f 93be
000000b0: 60ee 033d c8ff 9ebd e52d 3cbe a4e9 ff3c
000000c0: 1fbf 10be d022 c5bd 5c77 fabe 25c2 bfbe
000000d0: 6374 7cbd 4674 b1bd 0328 883d 89c1 443e
000000e0: 9d97 423d 8906 7e3d abdb ec3d 466d 103e
000000f0: d26f 7b3e 06bb 933e 7954 b03e 17ce 3d3e
00000100: e75a 383e 6a33 cb3d 2894 cb3d c63e 13be
00000110: f2dc e53e 2a47 53bd 31d1 0bbf fea5 1ebe
00000120: 8f5a aabd fe65 e9bd 75b3 f2be af19 cb3e
00000130: 61d5 193d 896c 5e3e 7e4e 303e 9e7a 813e
00000140: b664 423e d699 59bd 7896 cfbe c30b 4d3e
00000150: d1a2 943e 7428 96be 7d5e 40be b247 bb3d
00000160: 68d3 8a3e 2026 91be 0213 193d 637e f5be
00000170: 42b0 b13e 2d49 3cbe 9496 24bd bb0b 50bf
00000180: 5694 06bf 9289 8bbc f18f 243e 6d9d 973e
00000190: 7fc1 113f ac0e a63e 8bc5 cd3e a6ec 1a3e
000001a0: 80f2 563e ab2d 2bbd d783 98bd be7a b9bd
000001b0: 2cd7 eabe 14ce d23e fcda e2bd d838 713e
000001c0: ebb1 9d3e 5bef 0ebf 5540 06bf cabf d8bd
000001d0: 96b1 8a3b d56b bc3e f478 20ba 260c 0d3f
000001e0: 7ef4 fdbd f0da f73d 4e36 57be a6ae 82be
000001f0: 4552 d7be b987 c2be 4074 2fbf d74f 243e
00000200: 7f61 123d 6452 84be 8c26 81be fbd8 933d
00000210: cb56 e03d 7827 243e 289b abbe 71d3 15be
00000220: 2a7b bcbe 8660 e0be 8969 193e 919d cc3e
00000230: 8fff 6f3e e965 96bd 3d8e aebe 9c20 8a3b

player_tree_2.W.bias f4 [12]
-0.005098977 -0.06856072 -0.053530462 -0.061387584 -0.076550774 0.0098292995 -0.028472738 0.062297434
-0.100222535 -0.01328145 -0.012843639 -0.06572059
00000000: 5215 a7bb 9069 8cbd c242 5bbd 8c71 7bbd
00000010: a7c6 9cbd 120b 213c a93f e9bc 982b 7f3d
00000020: 7941 cdbd 709a 59bc 206e 52bc 8498 86bd

player_tree_2.W_self.weight f4 [12, 12]
0.20316598 -0.3000155 0.079907805 0.44062746 -0.58178836 -0.912412 -0.058725063 -0.19145009
-0.04820541 -0.5162327 0.32988054 0.21602032 0.37609643 -0.12688515 -0.18590507 -0.021486918
-0.14585307 -0.46683943 -0.33440125 -0.14970776 0.644902 0.23178142 0.05323721 -0.028896032
-0.11605274 -0.2711879 -0.29251075 -0.4235009 0.1999285 -0.34073916 -0.37449336 0.22876014
-0.11748793 -0.07773775 -0.24797207 -0.026914744 -0.1683455 -0.06608721 -1.055008 0.07322973
0.19332418 -0.36029524 0.6157788 -0.36600456 0.04598083 -0.08599337 -0.091700315 -0.18170294
-0.5018482 -0.11478819 -0.35391167 0.19920705 0.27409038 -0.19903864 -0.12372915 0.1024674
0.06247019 0.28146815 -0.2563806 0.24108276 -0.48887146 -0.11247355 -0.23615557 -0.5823294
-0.32465887 0.4847186 -0.14499913 -0.2699515 0.13439843 -0.20733078 -0.22115842 -0.3693296
0.46286252 0.16963403 0.36554134 0.123756036 0.43246096 0.5988555 0.48694563 -0.4136203
0.075756915 0.29497167 0.11597429 -0.111172915 0.53991383 -0.13948102 0.4665547 -0.012516561
-0.118431166 -0.07357294 -0.33533183 0.28508878 0.32430217 -0.16847707 0.3646835 0.06994156
0.23163556 0.41595143 -0.20052524 -0.2561019 -0.15037371 -0.3872406 -0.7641897 -0.13466558
-0.12875682 -0.24831742 0.14650595 -0.3784992 0.33184764 0.7039283 0.5765118 -0.0377889
0.73777544 0.6073342 0.51561207 0.5071984 0.3514664 0.5037751 0.47717822 0.6797511
0.5814839 0.12079667 -0.28123176 -0.49430537 0.40671834 -0.36529192 0.40884548 0.011890349
0.16247031 -0.13319425 -0.29201367 -0.29774782 -0.0315029 0.07394185 -0.034519047 -0.04416422
-0.03914855 -0.16777913 -0.10823185 -0.46647504 -0.056924973 -0.047943685 -0.15294862 0.31655663
00000000: be0a 503e a29b 99be b4a6 a33d ec99 e13e
00000010: 15f0 14bf d593 69bf b189 70bd 7e0b 44be
00000020: 0973 45bd d427 04bf 1ae6 a83e 6e34 5d3e
00000030: b68f c03e 2eee 01be e65d 3ebe 5505 b0bc
00000040: 825a 15be 9405 efbe a436 abbe fe4c 19be
00000050: 4c18 253f 1c58 6d3e 430f 5a3d 5fb7 ecbc
00000060: 0fad edbd 24d9 8abe f8c3 95be 1cd5 d8be
00000070: 0fba 4c3e 5d75 aebe 98bd bfbe 1940 6a3e
00000080: 839d f0bd f834 9fbd 64ec 7dbe 4f7c dcbc
00000090: c362 2cbe bb58 87bd 810a 87bf 78f9 953d
000000a0: c6f6 453e 9e78 b8be aea3 1d3f f364 bbbe
000000b0: 6556 3c3d 4b1d b0bd 60cd bbbd 5610 3abe
000000c0: 2079 00bf 1216 ebbd e933 b5be effc 4b3e
000000d0: 9355 8c3e c9d0 4bbe b565 fdbd 6eda d13d
000000e0: bee0 7f3d 981c 903e 5144 83be 66de 763e
000000f0: 5c4d fabe 8858 e6bd c4d2 71be 8a13 15bf
00000100: b039 a6be 092d f83e a77a 14be 1537 8abe
00000110: be9f 093e 854e 54be 5a77 62be c518 bdbe
00000120: 51fc ec3e 8bb4 2d3e 3c28 bb3e ce73 fd3d
00000130: 866b dd3e 984e 193f f050 f93e 0ac6 d3be
00000140: 7126 9b3d 8706 973e ee83 ed3d a0ae e3bd
00000150: cb37 0a3f 1dd4 0ebe 42e0 ee3e 4312 4dbc
00000160: 0a8c f2bd 69ad 96bd 9db0 abbe 28f7 913e
00000170: ef0a a63e 4185 2cbe ccb7 ba3e 853d 8f3d
00000180: df31 6d3e 96f7 d43e 7d56 4dbe ca1f 83be
00000190: 91fb 19be 6644 c6be f0a1 43bf c6e5 09be
000001a0: d4d8 03be ec46 7ebe a805 163e a6ca c1be
000001b0: efe7 a93e a534 343f 4796 133f 89c8 1abd
000001c0: dade 3c3f 417a 1b3f 27ff 033f c1d7 013f
000001d0: 67f3 b33e 68f7 003f b450 f43e 2b04 2e3f
000001e0: 21dc 143f 3f64 f73d 9cfd 8fbe 9815 fdbe
000001f0: 633d d03e 8b07 bbbe 3254 d13e bdcf 423c
00000200: 9e5e 263e 1364 08be d182 95be 6772 98be
00000210: 2f09 01bd d36e 973d d863 0dbd 8be5 34bd
00000220: 3b5a 20bd 4bce 2bbe a9a8 ddbd d1d5 eebe
00000230: 292a 69bd 9960 44bd 909e 1cbe b613 a23e

player_tree_2.W_self.bias f4 [12]
-0.005098977 -0.06856072 -0.053530462 -0.061387584 -0.076550774 0.0098292995 -0.028472738 0.062297434
-0.100222535 -0.01328145 -0.012843639 -0.06572059
00000000: 5215 a7bb 9069 8cbd c242 5bbd 8c71 7bbd
00000010: a7c6 9cbd 120b 213c a93f e9bc 982b 7f3d
00000020: 7941 cdbd 709a 59bc 206e 52bc 8498 86bd

player_tree_3.W.weight f4 [12, 12]
-0.34309542 -0.17678508 -0.00011157263 -0.54964775 0.43667334 -0.058240023 -0.21672721 0.44229296
0.09631068 -0.09735144 -0.28183085 0.055982422 -0.43303785 -0.3816374 -0.7335948 0.033594653
0.21560057 0.33190742 -0.19089577 0.25070637 0.16985287 0.30397415 -0.20139337 -0.35765618
-0.32378915 0.4375659 -0.09491399 0.040313374 0.1761336 -0.41343698 -0.33994833 -0.34015602
-0.23848903 0.00826247 0.51133907 0.040914282 -0.14120732 0.24163993 -0.41362146 0.46507463
-0.13746937 -0.3835037 -0.21686806 -0.08881497 -0.09691562 -0.13928142 -0.1807271 -0.5109744
0.18239225 0.34781086 -0.25533906 -0.728096 0.27622923 0.15504128 0.14340825 -0.012820387
0.06742887 -0.17015393 0.5185304 0.07724123 0.018751338 0.07759475 0.3545369 0.17653713
0.559024 0.0059338813 0.6773026 -0.49103716 0.013766603 0.06257271 -0.22525845 0.26623598
-0.12744859 -0.032227106 -0.34916094 -0.22687289 -0.11352507 0.44526565 -0.18386005 -0.0054564592
-0.19374393 0.07611134 0.12334272 0.30882442 0.66859746 0.33601528 0.76953024 -0.6544081
-0.12671289 -0.15488793 0.38946328 -0.32587716 -0.26107445 0.5366354 0.082084365 0.36350337
-0.17969827 -0.46904284 0.18886982 -0.05731224 0.06155522 -0.014189454 0.2583429 -0.35517374
0.26902032 0.050075375 -0.086296454 0.57982135 0.12801127 -0.36701444 -0.112560414 0.059868444
0.17404868 -0.20434386 0.12996337 0.4588162 -0.09901055 -0.34959483 0.49311692 -0.016416851
0.41211855 -0.60907465 0.06608758 0.10956337 -0.18569304 0.18008798 -0.33526126 0.3244366
-0.09415733 -0.47184342 -0.0071278187 -0.23397341 -0.11970451 0.07972917 0.16771531 0.40257525
0.039510272 0.05408729 -0.11298788 -0.06044345 -0.2464357 -0.5130584 -0.18013118 0.25493467
00000000: 34aa afbe 2607 35be 1afc e9b8 b7b5 0cbf
00000010: a693 df3e 178d 6ebd bded 5dbe 3974 e23e
00000020: 893e c53d 3160 c7bd 224c 90be d34d 653d
00000030: 23b7 ddbe fa65 c3be decc 3bbf 8c9a 093d
00000040: 65c6 5c3e c5ef a93e 2e7a 43be 965c 803e
00000050: e9ed 2d3e 80a2 9b3e 103a 4ebe b61e b7be
00000060: b1c7 a5be a308 e03e 4462 c2bd a31f 253d
00000070: 5e5c 343e 03ae d3be b50d aebe ee28 aebe
00000080: 7836 74be 505f 073c 1ee7 023f bc95 273d
00000090: a798 10be 7570 773e 31c6 d3be 431e ee3e
000000a0: c5c4 0cbe 995a c4be a912 5ebe 9fe4 b5bd
000000b0: b27b c6bd ca9f 0ebe 8610 39be 38cf 02bf
000000c0: 09c5 3a3e 4414 b23e cdbb 82be 8064 3abf
000000d0: eb6d 8d3e 24c3 1e3e 9dd9 123e 9a0c 52bc
000000e0: 2618 8a3d d53c 2ebe 69be 043f a630 9e3d
000000f0: 689c 993c ffe9 9e3d dc85 b53e 26c6 343e
00000100: 321c 0f3f 0171 c23b b463 2d3f 3969 fbbe
00000110: 518d 613c 1f26 803d 27aa 66be 1550 883e
00000120: e281 02be 9200 04bd 39c5 b2be 5e51 68be
00000130: d57f e8bd dcf9 e33e cf45 3cbe 19cc b2bb
00000140: cf64 46be 43e0 9b3d 1c9b fc3d 3c1e 9e3e
00000150: 3429 2b3f 320a ac3e efff 443f 4a87 27bf
00000160: 06c1 01be f19a 1ebe bb67 c73e 5fd9 a6be
00000170: 8dab 85be f060 093f d91b a83d 1d1d ba3e
00000180: d302 38be 6226 f0be 1767 413e 3dc0 6abd
00000190: 5421 7c3d e27a 68bc 8545 843e 55d9 b5be
000001a0: 08bd 893e d61b 4d3d 32bc b0bd 2c6f 143f
000001b0: 6315 033e 51e9 bbbe 1386 e6bd 9d38 753d
000001c0: d139 323e 843f 51be 1e15 053e f5e9 ea3e
000001d0: 0bc6 cabd 18fe b2be d279 fc3e a27c 86bc
000001e0: 3401 d33e 51ec 1bbf ed58 873d c362 e03d
000001f0: 5126 3ebe fc68 383e 5da7 abbe 8e1c a63e
00000200: 8fd5 c0bd 7695 f1be 7a90 e9bb ba96 6fbe
00000210: a327 f5bd 0c49 a33d 90bd 2b3e 581e ce3e
00000220: 86d5 213d a28a 5d3d 3166 e7bd 8d93 77bd
00000230: a459 7cbe cc57 03bf 4f74 38be cc86 823e

player_tree_3.W.bias f4 [12]
0.051781137 0.09119936 -0.14346743 -0.045185804 -0.029743996 -0.19983996 -0.023883415 -0.018418713
-0.16440763 0.08066268 0.03990652 0.038344454
00000000: 7518 543d bbc6 ba3d 20e9 12be c014 39bd
00000010: aea9 f3bc d9a2 4cbe 27a7 c3bc d7e2 96bc
00000020: 795a 28be 7a32 a53d 0575 233d 130f 1d3d

player_tree_3.W_self.weight f4 [12, 12]
0.113513425 -0.18389621 0.7138408 -0.6488782 -0.4949526 -0.20625784 0.24991342 -0.24563153
-0.010224879 0.11406663 0.34255034 -0.2721008 -0.009458062 0.3426546 -0.33603406 0.2816844
-0.17311135 0.28910193 -0.07601689 -0.03214711 0.7881864 -0.08806997 -0.4845152 -0.059533793
-0.003561207 -0.018773707 -0.19184819 -0.1455846 -0.48606947 -0.23474222 -0.4093576 -0.5167335
-0.64930403 0.21958756 -0.31405026 0.1883009 -0.13050628 0.2812751 0.11492922 0.21770076
-0.58482826 -0.2623186 0.022543 -0.42298394 -0.15202805 -0.48290235 0.20675583 0.27375323
-0.45556504 0.43566298 -0.25233832 -0.4746819 -0.06520816 -0.030235479 -0.018457992 -0.06966476
-0.26778933 -0.15516636 -0.08857144 0.10188335 0.28876847 0.0050937315 -0.19397716 0.44362554
0.4718576 -0.11370804 0.26305482 0.03663375 0.22212122 0.08276578 0.03427454 -0.63301384
0.42338935 -0.20951416 0.20413728 -0.0071655745 0.29470593 -0.19309455 0.48608497 0.021140704
-0.05969124 0.78111637 0.40232924 0.4379198 0.230926 0.28408155 0.37328482 0.054187033
0.60682565 0.08427874 0.10115492 -0.49648574 0.37665558 -0.23336904 0.43947577 -0.014451081
0.6422969 -0.27192405 -0.20592198 0.1419993 -0.04604762 0.50487757 0.025766209 -0.12238549
-0.4556443 0.19140948 -0.26823258 0.33769357 0.23689027 0.4624375 0.00501137 -0.5850778
-0.13922854 -0.31380722 -0.5958051 0.3112196 -0.12297697 -0.06612588 0.35491118 -0.038455285
-0.42784038 -0.5699447 -0.2688216 0.34882638 -0.19292139 -0.12094694 0.13218236 -0.2527157
0.22527654 0.45862702 -0.40637693 -0.3799311 -0.46517783 -0.11586955 0.22214475 0.006278256
0.0950477 -0.49531093 0.20977093 0.3990347 0.028383886 0.41026425 0.21498385 0.122191995
00000000: ba79 e83d 4a4f 3cbe 45be 363f e21c 26bf
00000010: 6d6a fdbe 4135 53be 4ee9 7f3e d586 7bbe
00000020: 4086 27bc c49b e93d c262 af3e cc50 8bbe
00000030: fdf5 1abc 6c70 af3e a80c acbe f038 903e
00000040: 1a44 31be 2b05 943e beae 9bbd b0ac 03bd
00000050: 95c6 493f 075e b4bd 6012 f8be b5d9 73bd
00000060: 2463 69bb 51cb 99bc da73 44be 2114 15be
00000070: 19de f8be 4460 70be 5297 d1be a648 04bf
00000080: ca38 26bf 90db 603e 32cb a0be f3d1 403e
00000090: 70a3 05be 4a03 903e 0360 eb3d f3ec 5e3e
000000a0: 4eb7 15bf a04e 86be 19ac b83c 5a91 d8be
000000b0: 3ead 1bbe fa3e f7be cdb7 533e 6229 8c3e
000000c0: d23f e9be 380f df3e 7d32 81be 8209 f3be
000000d0: db8b 85bd 65b0 f7bc 3735 97bc 66ac 8ebd
000000e0: af1b 89be eee3 1ebe f164 b5bd 38a8 d03d
000000f0: 76d9 933e 51e9 a63b f3a1 46be e322 e33e
00000100: 5297 f13e c3df e8bd 1faf 863e 450d 163d
00000110: bf73 633e 1b81 a93d 7663 0c3d 320d 22bf
00000120: 7dc6 d83e e18a 56be 5d09 513e 32cd eabb
00000130: b2e3 963e 94ba 45be 21e0 f83e 452f ad3c
00000140: cd7e 74bd 3ef7 473f 19fe cd3e 0637 e03e
00000150: de77 6c3e 2373 913e 301f bf3e 39f3 5d3d
00000160: ed58 1b3f 559a ac3d 502a cf3d 6133 febe
00000170: 00d9 c03e 4bf8 6ebe f802 e13e 3ac4 6cbc
00000180: 926d 243f a139 8bbe 36dd 52be 4468 113e
00000190: 6e9c 3cbd a83f 013f a813 d33c 3ea5 fabd
000001a0: 364a e9be d900 443e c855 89be 2ce6 ac3e
000001b0: 5d93 723e 9cc4 ec3e 6b36 a43b a9c7 15bf
000001c0: ed91 0ebe 57ab a0be af86 18bf 2d58 9f3e
000001d0: 5adb fbbd 016d 87bd ebb6 b53e 4a83 1dbd
000001e0: e50d dbbe e5e7 11bf fca2 89be 5f99 b23e
000001f0: 2f8d 45be 07b3 f7bd d05a 073e f463 81be
00000200: e5ae 663e 29d1 ea3e a310 d0be 5486 c2be
00000210: ca2b eebe 044d edbd ea79 633e d4b9 cd3b
00000220: 5ea8 c23d 6599 fdbe 31ce 563e 474e cc3e
00000230: 5385 e83c 280e d23e ba24 5c3e cc3f fa3d

player_tree_3.W_self.bias f4 [12]
0.051781137 0.09119936 -0.14346743 -0.045185804 -0.029743996 -0.19983996 -0.023883415 -0.018418713
-0.16440763 0.08066268 0.03990652 0.038344454
00000000: 7518 543d bbc6 ba3d 20e9 12be c014 39bd
00000010: aea9 f3bc d9a2 4cbe 27a7 c3bc d7e2 96bc
00000020: 795a 28be 7a32 a53d 0575 233d 130f 1d3d

player_tree_4.weight f4 [8, 12]
-0.287142 -0.61851877 0.452914 0.00519605 -0.36380094 0.030254526 -0.20256121 0.8299331
-0.08661832 -0.3689551 -0.036430523 -0.57466435 -0.13911954 -0.0015662723 -0.19973733 0.3150826
0.105371766 -0.58451146 -0.7837385 -0.11615807 -0.26529458 0.24647895 -0.26822904 -0.15813272
-0.25465676 -0.367413 0.14256957 -0.018181637 0.31594372 -0.6407027 -0.13233444 -0.6670306
0.39023936 -0.6034357 0.622082 0.10575821 0.06529266 0.0477129 0.19434015 0.12267453
-0.33945382 -0.1586221 0.56561744 0.33154333 -0.10288554 0.47303423 -0.11520677 0.030848831
-0.35428035 0.26875955 -0.14459425 0.121791735 0.5488724 0.041730497 -0.016816335 0.24691716
0.3610761 0.22465277 -0.90560806 -0.43649974 -0.35553613 -0.15222424 -0.3873846 -0.13107659
0.37948987 -0.10131721 -0.40096536 0.34747 0.112353705 0.16195375 0.28959233 0.12481425
-0.33332428 -0.118112214 0.4636339 -0.12365728 -0.116687596 -0.9437486 0.6099484 0.22523753
0.16573288 -0.41104412 0.11195228 -0.036608424 0.16045895 -0.6840512 -0.087594524 0.07717899
0.49048543 -0.20304734 -0.013656485 -0.03480883 -0.040589936 0.14550248 0.35963315 0.527486
00000000: 4704 93be 3f57 1ebf 58e4 e73e a043 aa3b
00000010: 1e44 babe 57d8 f73c 356c 4fbe 7f76 543f
00000020: f264 b1bd afe7 bcbe 2c38 15bd 341d 13bf
00000030: 5a75 0ebe 614b cdba f187 4cbe 8252 a13e
00000040: 27cd d73d 8ba2 15bf 16a3 48bf 48e4 edbd
00000050: b1d4 87be fa64 7c3e 5155 89be 8bed 21be
00000060: 5f62 82be 8f1d bcbe c2fd 113e a8f1 94bc
00000070: 60c3 a13e 1805 24bf ae82 07be 84c2 2abf
00000080: 74cd c73e c37a 1abf c440 1f3f c397 d83d
00000090: 28b8 853d 9a6e 433d 1b01 473e c93c fb3d
000000a0: e4cc adbe d56d 22be 4ecc 103f 0cc0 a93e
000000b0: a7b5 d2bd 8b31 f23e 87f1 ebbd b0b6 fc3c
000000c0: 3c64 b5be da9a 893e 8410 14be f26d f93d
000000d0: e782 0c3f 99ed 2a3d 69c2 89bc dad7 7c3e
000000e0: f7de b83e 600b 663e eed5 67bf e57c dfbe
000000f0: d508 b6be ace0 1bbe 4657 c6be f138 06be
00000100: 7f4c c23e 667f cfbd 554b cdbe 96e7 b13e
00000110: b319 e63d 34d7 253e 7245 943e 9d9e ff3d
00000120: 7ba9 aabe d1e4 f1bd 6c61 ed3e 0740 fdbd
00000130: e8f9 eebd 8299 71bf 9425 1c3f aba4 663e
00000140: e1b5 293e 6074 d2be 3d47 e53d b7f2 15bd
00000150: 5a4f 243e fb1d 2fbf c264 b3bd 0510 9e3d
00000160: e820 fb3e a4eb 4fbe 73bf 5fbc b493 0ebd
00000170: a241 26bd 9afe 143e d621 b83e 5309 073f

player_tree_4.bias f4 [8]
0.050026454 0.145009 0.00094057596 -0.17035381 0.05426243 0.0942803 -0.009794402 -0.083990976
00000000: 8ae8 4c3d 3d7d 143e fc90 763a 3b71 2ebe
00000010: 4842 5e3d 0816 c13d b378 20bc 7603 acbd

sun_influence_1.W.weight f4 [12, 12]
0.41470796 -0.03566217 0.008547667 0.97935504 -0.04001028 0.4528193 0.37036952 0.95586807
-0.36918452 0.004074998 0.07657798 0.18363985 -0.25983953 0.41167614 0.38120916 0.14911549
-0.009750081 0.0091201095 -0.056925572 0.06911111 0.330208 -0.11350079 0.28823856 0.48822212
-0.3361731 -0.1863753 0.06488067 0.05695772 -0.48937917 0.2842381 -0.24360593 -0.28646922
-0.28361416 -0.39320552 -0.31263918 -0.26979226 -0.16888854 0.036081444 0.027801596 0.1801081
0.3431904 -0.41414803 0.44999033 0.8350762 0.33669478 -0.46570146 -0.24499032 0.3241902
0.24183828 0.055032723 0.2799694 -0.5222175 -0.4098966 -0.16204906 0.17265143 -0.042960532
0.12711345 0.093753874 0.61536556 0.5545858 -0.21123047 0.2083865 0.28053302 -0.49975705
-0.13127148 0.04375685 0.22575821 0.34960246 0.32146168 0.06760164 -0.15815485 0.19261833
0.29638892 -0.4285945 -0.46530977 -0.44380218 0.1973069 -0.46434584 0.33341685 -0.34161067
-0.550103 -0.07128257 0.36713144 0.354896 0.035213668 0.3725634 0.1443524 -0.077604
-0.031284872 0.2921367 -0.14367668 -0.22827195 -0.23084979 0.23393817 -0.1955814 -0.44146827
0.06904225 -0.7337287 0.27367646 -0.08016766 0.31687984 0.01608838 -0.307822 -0.049600188
0.3089885 0.15186583 0.3338371 0.08735565 -0.365517 0.38420343 -0.15327609 0.14137582
0.059440512 -0.253999 -0.29863727 -0.16604339 0.5935229 0.020112695 -0.46285376 0.16472591
-0.38387448 -0.07466837 -0.43384597 0.083621904 -0.37091115 -0.008483799 -0.2309699 0.6657264
-0.57051593 -0.54737324 0.5075526 -0.10275798 -0.28586748 -0.2501963 -0.035553046 0.197353
-0.49990618 -0.2807902 -0.11582481 -0.7861728 -0.109384954 0.0116767185 0.61394095 0.67468977
00000000: 9a54 d43e 7f12 12bd 840b 0c3c 03b7 7a3f
00000010: d2e1 23bd eed7 e73e 13a1 bd3e c5b3 743f
00000020: c105 bdbe 9087 853b ead4 9c3d 160c 3c3e
00000030: b009 85be 37c7 d23e d92d c33e bbb1 183e
00000040: cebe 1fbc 836c 153c ca2a 69bd 208a 8d3d
00000050: 0611 a93e 1a73 e8bd 0194 933e 40f8 f93e
00000060: e11e acbe 2bd9 3ebe 28e0 843d 804c 693d
00000070: e88f fabe a887 913e d573 79be 18ac 92be
00000080: e035 91be 3c52 c9be 3e12 a0be 3622 8abe
00000090: 1ef1 2cbe 23ca 133d 2cc0 e33c 426e 383e
000000a0: a7b6 af3e 360b d4be 2265 e63e 8ec7 553f
000000b0: 4263 ac3e 6c70 eebe bede 7abe 42fc a53e
000000c0: 74a4 773e fe69 613d 2658 8f3e 0cb0 05bf
000000d0: f8dd d1be 30f0 25be 89cb 303e 62f7 2fbd
000000e0: 072a 023e 0802 c03d 9988 1d3f 56f9 0d3f
000000f0: cd4c 58be 4563 553e 06a2 8f3e 28e0 ffbe
00000100: 086c 06be 623a 333d 292d 673e 18ff b23e
00000110: a096 a43e bb72 8a3d 58f3 21be bd3d 453e
00000120: 4ac0 973e bd70 dbbe 153d eebe 0a3a e3be
00000130: d20a 4a3e bdbe edbe 9db5 aa3e 98e7 aebe
00000140: 8dd3 0cbf 99fc 91bd a7f8 bb3e eeb4 b53e
00000150: 353c 103d a1c0 be3e 1ed1 133e d9ee 9ebd
00000160: 9124 00bd f192 953e fb1f 13be 1fc0 69be
00000170: e363 6cbe 7d8d 6f3e 7e46 48be 2108 e2be
00000180: 0666 8d3d a5d5 3bbf 521f 8c3e f12e a4bd
00000190: 133e a23e c7cb 833c d89a 9dbe 9129 4bbd
000001a0: be33 9e3e b782 1b3e b2ec aa3e 85e7 b23d
000001b0: 0b25 bbbe 50b6 c43e 68f4 1cbe d3c4 103e
000001c0: e577 733d 280c 82be fce6 98be 4707 2abe
000001d0: 1ef1 173f 61c3 a43c 2bfb ecbe e9ad 283e
000001e0: 328b c4be bbeb 98bd 0f21 debe f641 ab3d
000001f0: 11e8 bdbe a2ff 0abc 6083 6cbe 0c6d 2a3f
00000200: 550d 12bf a720 0cbf f8ee 013f c772 d2bd
00000210: 395d 92be bb19 80be 12a0 11bd e816 4a3e
00000220: b4f3 ffbe bcc3 8fbe 8f35 edbd 9f42 49bf
00000230: 3805 e0bd b54f 3f3c 3c2b 1d3f 78b8 2c3f

sun_influence_1.W.bias f4 [12]
-0.06720397 -0.051862173 0.15850519 -0.057777967 -0.016071161 -0.009167229 -0.11226474 -0.10183879
-0.1901768 -0.09962957 -0.009338613 0.072346956
00000000: 3ca2 89bd 6e6d 54bd 2f4f 223e 97a8 6cbd
00000010: aba7 83bc 2532 16bc 0eeb e5bd db90 d0bd
00000020: b5bd 42be 970a ccbd fb00 19bc a42a 943d

sun_influence_1.W_self.weight f4 [12, 12]
-0.37756273 0.0035850757 0.62159926 -0.0046079177 0.12040371 0.29698014 0.58914524 -0.48521736
0.44779706 0.0472882 0.864158 0.5462862 0.38819486 -0.52341133 -0.35152486 0.2118463
0.50460374 0.06731813 -0.12639809 0.041136783 0.5501805 0.15890414 -0.3127333 -0.43705395
-0.35657072 -0.13921054 -0.21319611 -0.013319705 -0.248933 -0.6329204 0.40418392 0.29189256
-0.33092362 0.60069275 0.58106667 0.09224325 0.30750248 0.16841213 -0.30522305 0.43853256
-0.17424631 -0.34525406 -0.3433822 0.09499972 -0.22581948 -0.39971912 -0.4928687 -0.10208829
-0.25113782 -0.31415585 -0.5635297 -0.18486483 0.47622758 -0.11890468 -0.31871867 0.28396708
-0.6663666 -0.33256513 0.1757508 -0.0477808 0.23895852 0.6287432 0.54230165 -0.5644372
0.12979044 0.64198786 0.1316625 -0.32280305 -0.10943234 1.0471349 -0.40847984 -0.023407372
0.17538977 -0.36565754 -0.33254647 -0.03166325 0.33963475 -0.0024432344 0.60190815 0.7335159
0.0041422877 -0.06686707 0.30200693 0.0819322 0.47382912 0.25581592 -0.47448352 0.53299
0.396327 0.27193975 0.5014244 -0.062600456 0.44420642 0.029078485 0.3499529 0.033402413
0.44248268 -0.20322607 0.44835344 0.12245828 -0.018021356 -0.02491348 -0.156636 0.4182992
-0.2790801 -0.07415398 -0.30163816 0.058165804 0.5316918 0.29708567 0.48100054 -0.16946536
0.116935834 -0.19545525 -0.2233585 -0.23337324 -0.6118372 -0.2047018 -0.17789967 0.37586537
-0.36329436 -0.2973943 -0.15795855 0.19640511 -0.2292427 -0.10835266 -0.115129806 0.3130903
-0.5227001 -0.4274678 -0.12924756 -0.54521656 0.15476315 -0.40899387 -0.10778592 -0.48276165
0.38956705 -0.063305154 0.16376191 0.20236093 -0.10149468 -0.29861566 -0.32342422 -0.26057693
00000000: e74f c1be 97f3 6a3b 2121 1f3f 04fe 96bb
00000010: 3896 f63d c80d 983e 39d2 163f 696e f8be
00000020: a845 e53e 46b1 413d 7539 5d3f 6ad9 0b3f
00000030: 7ac1 c63e 49fe 05bf 11fb b3be 3dee 583e
00000040: b62d 013f 16de 893d 806e 01be 0b7f 283d
00000050: a1d8 0c3f c4b7 223e 941e a0be 89c5 dfbe
00000060: 7090 b6be 358d 0ebe 1550 5abe e43a 5abc
00000070: 4be8 7ebe 1207 22bf 32f1 ce3e f172 953e
00000080: d26e a9be 00c7 193f c9c0 143f 07ea bc3d
00000090: f770 9d3e 3b74 2c3e 3246 9cbe 5787 e03e
000000a0: a06d 32be 24c5 b0be cbcf afbe 378f c23d
000000b0: 393d 67be fca7 ccbe 4959 fcbe aa13 d1bd
000000c0: 2395 80be 09d9 a0be 7b43 10bf 354d 3dbe
000000d0: 1ad4 f33e 4c84 f3bd 182f a3be 2264 913e
000000e0: 0097 2abf fa45 aabe 05f8 333e cdb5 43bd
000000f0: 8bb1 743e 50f5 203f 48d4 0a3f f57e 10bf
00000100: c9e7 043e 5159 243f 89d2 063e 7146 a5be
00000110: 101e e0bd 8408 863f 4524 d1be d1c0 bfbc
00000120: 6099 333e 7737 bbbe 8843 aabe 53b1 01bd
00000130: 9be4 ad3e ac1e 20bb a716 1a3f b3c7 3b3f
00000140: 07bc 873b 9af1 88bd a7a0 9a3e 12cc a73d
00000150: bb99 f23e 4efa 823e 81ef f2be 0872 083f
00000160: 5feb ca3e b03b 8b3e 595d 003f ab34 80bd
00000170: 066f e33e 0136 ee3c 072d b33e f8d0 083d
00000180: 178d e23e 7f1a 50be 958e e53e 68cb fa3d
00000190: 86a1 93bc 5b17 ccbc 3065 20be 502b d63e
000001a0: 96e3 8ebe 0bde 97bd 5170 9abe 443f 6e3d
000001b0: f41c 083f 9d1b 983e b445 f63e 5488 2dbe
000001c0: 0e7c ef3d 6c25 48be 17b8 64be 65f9 6ebe
000001d0: 5da1 1cbf 599d 51be 552b 36be 6d71 c03e
000001e0: b801 babe 1144 98be e3bf 21be 6c1e 493e
000001f0: 99be 6abe 00e8 ddbd 2dc9 ebbd 5f4d a03e
00000200: accf 05bf 0fdd dabe 7959 04be 5093 0bbf
00000210: 3b7a 1e3e a567 d1be ddbe dcbd 892c f7be
00000220: 5575 c73e 22a6 81bd 34b1 273e b437 4f3e
00000230: 71dc cfbd 27e4 98be dc97 a5be 576a 85be

sun_influence_1.W_self.bias f4 [12]
-0.06720397 -0.051862173 0.15850519 -0.057777967 -0.016071161 -0.009167229 -0.11226474 -0.10183879
-0.1901768 -0.09962957 -0.009338613 0.072346956
00000000: 3ca2 89bd 6e6d 54bd 2f4f 223e 97a8 6cbd
00000010: aba7 83bc 2532 16bc 0eeb e5bd db90 d0bd
00000020: b5bd 42be 970a ccbd fb00 19bc a42a 943d

sun_influence_2.W.weight f4 [12, 12]
-0.12368382 -0.3238901 0.45608434 -1.1552871 -0.44075364 -0.66215616 0.15627144 0.08585028
0.33853585 0.0860037 -0.86826915 -0.49587643 -0.15412714 -0.77356213 0.13343808 -0.15311211
0.041111637 -0.10916757 0.15625378 0.058175072 -0.32181358 0.117979236 0.008103309 -0.19501922
-0.302249 -0.031072622 -0.19723263 0.059986137 0.27510113 -0.71692103 -0.29170108 -0.19203487
0.27712116 0.15941922 -0.6118034 0.4006148 0.23485792 -0.28840485 0.4504149 0.50343156
0.5863707 0.07171281 -0.4453884 0.42115992 0.46983498 0.13149023 0.31104404 0.5914187
-0.41434696 -0.8122261 0.4712271 -0.94867176 -0.35779452 0.26269597 0.016378935 0.52537274
-0.00029554334 0.060806394 0.14225382 0.018774524 0.06376384 -0.5865497 0.27945927 0.3940962
-0.58359325 -0.4918091 0.15422085 0.35007128 0.33660185 -1.080059 0.3990821 -0.47930497
0.49593252 -0.44598773 -0.40220112 -0.5490843 0.47062907 0.3985228 0.09192483 0.12967134
-0.4266692 0.60672027 -0.027649144 0.19593947 -0.24031693 -0.33710122 0.20184484 0.47117123
-0.35222653 -0.24573736 -0.057021864 -0.28306472 -0.2144408 -0.12424945 0.090631805 -0.7052568
-0.6192275 -0.32947057 0.23530705 0.046636317 0.014464521 -0.56875145 -0.36915216 -0.3565339
-0.17181359 -0.009589669 0.5134364 0.12773047 0.15288562 0.0020506287 -0.22040214 0.13570365
0.122649655 -0.41637862 -0.26842558 0.031872302 0.22177207 -0.7638113 -0.37261584 0.34405217
0.25674388 -0.019542377 0.44372293 -0.52385116 -0.38357577 0.100521185 -0.54253066 -0.54313487
-0.1523884 0.34031615 0.042772546 -0.07226785 0.8021554 -0.080995776 0.012453998 0.22158483
0.20197764 0.3444739 -0.19194311 0.08313324 0.10959041 0.29624596 0.40566483 0.5950505
00000000: f14d fdbd ecd4 a5be e383 e93e 73e0 93bf
00000010: 76aa e1be 1183 29bf 9f05 203e 46d2 af3d
00000020: 9254 ad3e b522 b03d e346 5ebf 84e3 fdbe
00000030: 81d3 1dbe 2b08 46bf fea3 083e 6cc9 1cbe
00000040: ad64 283d 3f93 dfbd fe00 203e fc48 6e3d
00000050: c0c4 a4be 199f f13d bec3 043c 1eb3 47be
00000060: 62c0 9abe 038c febc 5af7 49be 06b4 753d
00000070: 0eda 8c3e 2388 37bf d859 95be caa4 44be
00000080: d3e2 8d3e cb3e 233e 269f 1cbf 621d cd3e
00000090: 987e 703e cda9 93be c89c e63e e4e0 003f
000000a0: 641c 163f 2ade 923d f309 e4be 46a2 d73e
000000b0: 368e f03e 60a5 063e 2a41 9f3e 3767 173f
000000c0: 4925 d4be 0dee 4fbf ae44 f13e 27dc 72bf
000000d0: d830 b7be 1680 863e 1e2d 863c d47e 063f
000000e0: 28f3 9ab9 2010 793d fcaa 113e 08cd 993c
000000f0: 9e96 823d 1f28 16bf 4915 8f3e fac6 c93e
00000100: 5e66 15bf 67ce fbbe 12ec 1d3e 8b3c b33e
00000110: 1457 ac3e 603f 8abf 7d54 cc3e 7667 f5be
00000120: deea fd3e 8158 e4be 4eed cdbe ca90 0cbf
00000130: 4bf6 f03e 2e0b cc3e 1643 bc3d 90c8 043e
00000140: 6374 dabe 0552 1b3f 7580 e2bc 5ba4 483e
00000150: a415 76be 8898 acbe 6ab0 4e3e 5b3d f13e
00000160: 0957 b4be 93a2 7bbe c28f 69bd dced 90be
00000170: 5e96 5bbe 7f76 febd 2b9d b93d b68b 34bf
00000180: b285 1ebf 5eb0 a8be 55f4 703e b905 3f3d
00000190: 99fc 6c3c b299 11bf 8301 bdbe 9d8b b6be
000001a0: e7ef 2fbe fd1d 1dbc 9170 033f c7cb 023e
000001b0: 0c8e 1c3e d763 063b 19b1 61be e6f5 0a3e
000001c0: be2f fb3d 942f d5be 146f 89be 888c 023d
000001d0: 3818 633e 2389 43bf 81c7 bebe 9b27 b03e
000001e0: ef73 833e 5617 a0bc a72f e33e 1c1b 06bf
000001f0: 0b64 c4be 0dde cd3d 4ae3 0abf e30a 0bbf
00000200: b40b 1cbe eb3d ae3e 4432 2f3d 2b01 94bd
00000210: 0e5a 4d3f 1de1 a5bd db0b 4c3c 22e7 623e
00000220: 3ad3 4e3e e25e b03e bc8c 44be c341 aa3d
00000230: f070 e03d 8dad 973e 4db3 cf3e 3b55 183f

sun_influence_2.W.bias f4 [12]
0.060450483 -0.14747377 0.10918907 0.037815485 0.031454474 -0.13906932 -0.12576139 -0.10638584
0.08996452 -0.113681525 -0.16493957 -0.07011342
00000000: ed9a 773d 5d03 17be 859e df3d 69e4 1a3d
00000010: 68d6 003d 3068 0ebe 98c7 00be d2e0 d9bd
00000020: 513f b83d dcd1 e8bd ebe5 28be a097 8fbd

sun_influence_2.W_self.weight f4 [12, 12]
0.044285815 -0.078848936 0.11297158 0.014041882 -0.36720222 -0.6356985 0.25724655 0.08104644
-0.09017172 -0.26556668 -0.1037972 0.46414956 0.43152443 -0.48306462 0.45985222 -0.7630179
0.7997 -0.10757903 0.38841006 -0.0852504 -0.017148025 0.32671848 -0.36900955 0.2213213
0.5467983 0.3212105 0.2225126 0.21469223 0.116516635 0.3854025 0.40367267 0.69548345
0.14080074 0.79484564 -0.062427133 0.05683887 0.05056351 0.28103328 -0.2662202 0.10635602
0.5552831 -0.6273092 0.13466762 0.118279144 0.17959498 -0.041250154 -0.15750083 0.019755503
-0.5913671 -0.23331618 -0.018689921 -0.16030072 0.124676324 0.057913773 0.023987237 0.29804274
0.1617354 -0.084257595 -0.26010767 -0.28669536 -0.12189891 -0.50761324 -0.10293086 -0.09079872
-0.37010556 -0.48405313 0.17025426 0.079379514 0.016855247 -0.57911 -0.05101087 -0.076079905
-0.108589105 0.1743749 -0.45259178 0.23464139 0.41823512 -0.1725935 -0.18315595 0.5003774
0.35719356 0.21359962 -0.052597944 -0.12270186 -0.31890482 -0.19217722 0.065888025 0.28539616
0.13069779 -0.11160547 0.2521931 -0.16658156 -0.1674532 0.3286871 0.27197915 0.10077381
-0.05539526 -0.03905303 0.2907953 0.068463534 0.0036440063 -0.68479896 -0.47821686 -0.39933684
-0.18743797 -0.5544614 0.20038082 0.31693843 0.1363186 -0.41354576 -0.02974758 0.58075166
0.30359456 0.17047863 -0.11569373 -0.20651948 0.5105489 -0.019617796 0.16732804 0.12459961
-0.6706449 0.080685124 0.049750403 -0.20797971 0.32675007 -0.25303835 -0.11296989 -0.18991396
-0.033106 -0.3803211 -0.07620462 -0.22042409 0.3114031 0.23650007 -0.3433753 0.35539278
0.10250825 -0.2881667 0.40559658 0.33750722 -0.30135897 0.4836661 0.45073184 -0.2673805
00000000: 0b65 353d 8d7b a1bd a55d e73d ec0f 663c
00000010: ee01 bcbe 23bd 22bf d2b5 833e adfb a53d
00000020: f3ab b8bd 5bf8 87be a093 d4bd 03a5 ed3e
00000030: c5f0 dc3e 3f54 f7be c071 eb3e 2455 43bf
00000040: 24b9 4c3f 6552 dcbd afdd c63e c397 aebd
00000050: 047a 8cbc a547 a73e d2ee bcbe 0da2 623e
00000060: f9fa 0b3f b475 a43e 58da 633e 48d8 5b3e
00000070: 46a0 ee3d 7a53 c53e 2fae ce3e 340b 323f
00000080: 122e 103e 017b 4b3f 98b3 7fbd e0cf 683d
00000090: af1b 4f3d 98e3 8f3e 044e 88be 2fd1 d93d
000000a0: 0927 0e3f 5697 20bf 4fe6 093e 563c f23d
000000b0: bfe7 373e ecf5 28bd e647 21be 4bd6 a13c
000000c0: d663 17bf 70ea 6ebe 9b1b 99bc df25 24be
000000d0: 4d56 ff3d fe36 6d3d e280 c43c 0f99 983e
000000e0: f79d 253e 3f8f acbd d52c 85be bcc9 92be
000000f0: 23a6 f9bd f1f2 01bf 6acd d2bd aef4 b9bd
00000100: 7a7e bdbe d0d5 f7be 2257 2e3e ba91 a23d
00000110: 0414 8a3c 8e40 14bf c6f0 50bd c8cf 9bbd
00000120: f763 debd 558f 323e 1cba e7be d545 703e
00000130: ea22 d63e 5abc 30be 3c8d 3bbe bc18 003f
00000140: 13e2 b63e dcb9 5a3e f170 57bd 1d4b fbbd
00000150: 7e47 a3be 1bca 44be 4df0 863d 721f 923e
00000160: a4d5 053e 6991 e4bd 741f 813e 5b94 2abe
00000170: da78 2bbe ad49 a83e da40 8b3e 8062 ce3d
00000180: 24e6 62bd 12f6 1fbd 1fe3 943e 9c36 8c3d
00000190: 48d0 6e3b fc4e 2fbf d7d8 f4be e175 ccbe
000001a0: bdef 3fbe 2ff1 0dbf a130 4d3e c145 a23e
000001b0: 1a97 0b3e 45bc d3be 32b1 f3bc 24ac 143f
000001c0: bf70 9b3e f391 2e3e d6f0 ecbd d879 53be
000001d0: 55b3 023f 80b5 a0bc 0b58 2b3e 152e ff3d
000001e0: 62af 2bbf 3e3e a53d 14c7 4b3d a2f8 54be
000001f0: c94b a73e 3e8e 81be c25c e7bd ce78 42be
00000200: 289a 07bd 72b9 c2be 2b11 9cbd dab6 61be
00000210: 3a70 9f3e 132d 723e e3ce afbe 0bf6 b53e
00000220: d8ef d13d 968a 93be 5baa cf3e bfcd ac3e
00000230: b94b 9abe 15a3 f73e 53c6 e63e 19e6 88be

sun_influence_2.W_self.bias f4 [12]
0.060450483 -0.14747377 0.10918907 0.037815485 0.031454474 -0.13906932 -0.12576139 -0.10638584
0.08996452 -0.113681525 -0.16493957 -0.07011342
00000000: ed9a 773d 5d03 17be 859e df3d 69e4 1a3d
00000010: 68d6 003d 3068 0ebe 98c7 00be d2e0 d9bd
00000020: 513f b83d dcd1 e8bd ebe5 28be a097 8fbd

sun_influence_3.W.weight f4 [12, 12]
-0.24643926 0.3755988 0.086926825 -0.1723241 -0.014900264 -0.2085772 0.55770046 0.34686282
0.26039678 -0.25840625 0.2696109 0.59455025 0.49331406 -0.31910065 0.54784083 -0.24883854
-0.8284758 0.38763875 -0.6865973 -0.014613318 -0.1469575 -0.24756698 0.17696725 0.16984323
-0.8775569 -0.39779755 -0.36415452 0.21581101 0.018350339 0.52791125 -0.4612027 0.33727345
0.5139929 -0.1202686 0.22790575 0.48675743 -0.18641247 -0.75761825 -0.06349048 0.019907154
-0.33372718 -0.23419654 -0.2893194 0.20317946 -0.11210338 0.038173985 -0.32034522 -0.42274642
-0.17983316 0.35667387 0.18026729 -0.30170763 -0.16613783 0.28582639 0.0804387 0.35286933
0.099356994 0.12990192 0.26729304 0.08468743 0.26561248 -0.35631916 -0.009710202 0.18052457
0.6560195 0.3079755 0.0993455 -0.17520188 0.2800079 0.24689835 0.3365474 -0.3506952
0.34525886 -0.31037778 -0.17450587 -0.24978514 0.027969716 -0.12658727 0.5286093 -0.03694554
0.73010087 0.20046018 -0.30462015 0.36988136 -0.2256619 0.17795375 0.2854502 -0.28789154
0.10337039 -0.5591735 0.22507143 0.3732995 -0.63324624 -0.24406601 -0.30079877 0.59795433
-0.3035437 0.36187777 -0.04198939 -0.040181566 0.054287966 0.30385122 -0.16306932 -0.25510928
-0.19144547 0.31894267 0.22609784 -0.4455193 0.3890112 -0.075864844 -0.47135746 -1.1863363
0.17294963 0.1576921 0.054136537 0.5498768 0.5134134 -0.2083081 0.92808867 -0.61252433
0.70597297 0.33619982 0.1004119 -0.3885989 0.121847205 -0.3862343 0.17479137 0.3944948
0.34704524 0.33343002 -0.31028676 0.18455532 -0.030953564 0.0431724 -0.006142691 -0.17241628
0.10059452 -0.6117035 0.41768357 -0.14854607 -0.86723423 -0.13646714 0.2763202 0.7969168
00000000: 935a 7cbe 7c4e c03e b106 b23d bb75 30be
00000010: 3d20 74bc 4395 55be 75c5 0e3f 0198 b13e
00000020: ba52 853e d34d 84be 710a 8a3e 7234 183f
00000030: a993 fc3e 2961 a3be 4c3f 0c3f 88cf 7ebe
00000040: fd16 54bf 9678 c63e d7c4 2fbf b36c 6fbc
00000050: 077c 16be 3382 7dbe e736 353e 62eb 2d3e
00000060: 92a7 60bf 1fac cbbe 7672 babe 90fd 5c3e
00000070: 7353 963c 3125 073f c322 ecbe 1baf ac3e
00000080: 0a95 033f 624f f6bd 2060 693e 4538 f93e
00000090: e9e2 3ebe 45f3 41bf 4c07 82bd 5414 a33c
000000a0: 4ade aabe 38d1 6fbe ac21 94be 470e 503e
000000b0: 7596 e5bd 535c 1c3d 4a04 a4be 3872 d8be
000000c0: 2f26 38be f59d b63e fd97 383e 6c79 9abe
000000d0: 0920 2abe d657 923e 0cbd a43d 4aab b43e
000000e0: ae7b cb3d 0205 053e a2da 883e 9a70 ad3d
000000f0: 5cfe 873e 776f b6be 8a17 1fbc 6fdb 383e
00000100: e5f0 273f f7ae 9d3e a775 cb3d 1f68 33be
00000110: 325d 8f3e ecd2 7c3e f14f ac3e 528e b3be
00000120: c5c5 b03e d6e9 9ebe abb1 32be adc7 7fbe
00000130: bf20 e53c 18a0 01be f052 073f 3554 17bd
00000140: e4e7 3a3f 6f45 4d3e 2cf7 9bbe 1761 bd3e
00000150: ea13 67be 8239 363e 8726 923e 8566 93be
00000160: dbb3 d33d ff25 0fbf 2079 663e 1d21 bf3e
00000170: 6d1c 22bf 71ec 79be 4c02 9abe 8913 193f
00000180: 146a 9bbe 0b48 b93e 11fd 2bbd 6d95 24bd
00000190: 0f5d 5e3d 6392 9b3e a5fb 26be af9d 82be
000001a0: 480a 44be 744c a33e 3186 673e 1b1b e4be
000001b0: 7a2c c73e 075f 9bbd c455 f1be ded9 97bf
000001c0: b519 313e 0a7a 213e 46be 5d3d bac4 0c3f
000001d0: 106f 033f b84e 55be 3897 6d3f 65ce 1cbf
000001e0: a5ba 343f 6222 ac3e c1a4 cd3d 6ff6 c6be
000001f0: 078b f93d 81c0 c5be 82fc 323e 39fb c93e
00000200: eaaf b13e 57b7 aa3e e8dd 9ebe 12fc 3c3e
00000210: 5492 fdbc 8bd5 303d a048 c9bb e58d 30be
00000220: 8004 ce3d 9a98 1cbf 9fda d53e 761c 18be
00000230: 1003 5ebf 0bbe 0bbe d779 8d3e bd02 4c3f

sun_influence_3.W.bias f4 [12]
-0.069033474 -0.0023304366 0.007908901 -0.11129177 -0.04850011 -0.10229623 -0.12643765 -0.038029086
0.12332925 0.111042984 -0.04776736 0.0069451244
00000000: 6c61 8dbd 3dba 18bb 5694 013c f1ec e3bd
00000010: 0da8 46bd b080 d1bd df78 01be 63c4 1bbd
00000020: 0c94 fc3d 816a e33d b5a7 43bd ed93 e33b

sun_influence_3.W_self.weight f4 [12, 12]
-0.60744315 0.35215473 -0.14126545 0.027723877 0.0716214 -0.21191673 -0.022232074 -0.22285128
-0.31019804 0.3391191 -0.048060313 -0.1392491 0.13217144 0.0667012 0.15546733 0.33222848
-0.44156015 0.042578675 0.2772754 0.27342933 -0.42523107 0.025270868 -0.023007302 -0.56492287
-0.36157575 0.51434416 -0.3601261 -0.22078048 -0.21598539 0.32229704 -0.0697986 -0.034589555
0.039287336 -0.16559291 -0.34496415 -0.23515715 0.12354809 0.46380177 0.1355353 0.015468281
-0.13337786 0.057128925 0.16366372 -0.4526805 0.118613414 -0.50880635 0.38871548 0.25142968
0.09705566 -0.13523376 -0.08891911 -0.6177976 0.10660617 -0.010496295 0.31486544 0.048857335
-0.5785734 -0.36051053 -0.6258704 0.34711292 -0.40573534 0.22414963 0.12647228 0.329142
-0.058636874 0.24528183 -0.0057567717 0.38586617 -0.14635177 0.6023446 -0.03232838 0.22812103
0.3999835 0.27113366 0.14131686 0.11796753 0.056001004 0.034250863 0.20771158 -0.5432492
0.16415538 -0.38395876 0.11165719 0.13677336 0.26128563 0.46637794 -0.029950496 0.09833756
0.07617709 0.16631751 -0.08536274 -0.023064574 -0.0415006 0.2631929 -0.039960705 0.1586166
-0.63325655 -0.038200907 -0.6688423 0.006981378 0.28148693 -0.028363636 0.1815227 -0.010876081
-0.09601326 -0.031935126 0.031050874 -0.097922936 0.6361592 0.31690517 0.6916836 -0.0015480398
-0.08380846 -0.086772 -0.15268224 0.4274864 -0.19477096 0.40771714 -0.71673274 0.2327903
0.20381925 0.030835336 -0.27271643 0.06924654 -0.44287062 0.38290867 -0.54570687 0.048038393
0.22710197 -0.015559434 -0.11120496 -0.36270538 -0.12377811 -0.2841119 0.036466137 0.29664993
0.12013527 -0.1457963 0.0813086 -0.74566525 -0.2495186 -0.30199534 -0.35911635 0.05283091
00000000: 6581 1bbf a04d b43e e4a7 10be 2f1d e33c
00000010: 3eae 923d b300 59be 0a20 b6bc 2033 64be
00000020: 47d2 9ebe 05a1 ad3e e4da 44bd 5197 0ebe
00000030: f357 073e a49a 883d d432 1f3e da19 aa3e
00000040: 2c14 e2be fa66 2e3d 0bf7 8d3e eefe 8b3e
00000050: e3b7 d9be da04 cf3c cf79 bcbc c99e 10bf
00000060: 7520 b9be 0fac 033f 7362 b8be 4714 62be
00000070: 462b 5dbe 1e04 a53e 92f2 8ebd c7ad 0dbd
00000080: c2eb 203d 3091 29be 249f b0be 09cd 70be
00000090: c806 fd3d 6d77 ed3e c4c9 0a3e ac6e 7d3c
000000a0: 3594 08be 0500 6a3d 7697 273e bdc5 e7be
000000b0: 97eb f23d 2241 02bf b705 c73e 64bb 803e
000000c0: 1ec5 c63d b87a 0abe 391b b6bd fc27 1ebf
000000d0: 5654 da3d a7f8 2bbc 0b36 a13e a11e 483d
000000e0: 631d 14bf d694 b8be 0b39 20bf c9b8 b13e
000000f0: 8bbc cfbe 7b87 653e f381 013e 4d85 a83e
00000100: 382d 70bd 292b 7b3e 4da3 bcbb 4090 c53e
00000110: 3ddd 15be 4133 1a3f c36a 04bd 8f98 693e
00000120: a3ca cc3e 08d2 8a3e 5eb5 103e f698 f13d
00000130: 4f61 653d a24a 0c3d 58b2 543e 6112 0bbf
00000140: 5918 283e 3e96 c4be 86ac e43d 510e 0c3e
00000150: 3bc7 853e 17c9 ee3e be5a f5bc 3465 c93d
00000160: bc02 9c3d 234f 2a3e a9d2 aebd ebf1 bcbc
00000170: 88fc 29bd 38c1 863e d6ad 23bd 646c 223e
00000180: 1a1d 22bf 8e78 1cbd 4039 2bbf 0bc4 e43b
00000190: 0e1f 903e db5a e8bc 16e1 393e 9731 32bc
000001a0: 9aa2 c4bd 68ce 02bd 675e fe3c d28b c8bd
000001b0: 54db 223f 6541 a23e 2d12 313f 99e7 caba
000001c0: c5a3 abbd 85b5 b1bd bc58 1cbe 7fdf da3e
000001d0: 0a72 47be 4dc0 d03e cc7b 37bf 9560 6e3e
000001e0: feb5 503e 639a fc3c 7da1 8bbe 21d1 8d3d
000001f0: f0bf e2be 9b0c c43e 72b3 0bbf e8c3 443d
00000200: 6b8d 683e ffec 7ebc 6dbf e3bd 85b4 b9be
00000210: 617f fdbd 1d77 91be 845d 153d 80e2 973e
00000220: 7b09 f63d a04b 15be 2085 a63d ebe3 3ebf
00000230: ce81 7fbe 229f 9abe 19de b7be 3965 583d

sun_influence_3.W_self.bias f4 [12]
-0.069033474 -0.0023304366 0.007908901 -0.11129177 -0.04850011 -0.10229623 -0.12643765 -0.038029086
0.12332925 0.111042984 -0.04776736 0.0069451244
00000000: 6c61 8dbd 3dba 18bb 5694 013c f1ec e3bd
00000010: 0da8 46bd b080 d1bd df78 01be 63c4 1bbd
00000020: 0c94 fc3d 816a e33d b5a7 43bd ed93 e33b

sun_influence_4.weight f4 [8, 12]
-0.54851574 -0.34731242 -0.071397305 0.319452 -0.032749303 -0.97189873 0.25522596 0.049539987
0.27642846 -0.91527015 0.36034167 0.8470269 0.274266 0.47258303 0.032496445 0.28390408
-0.15778348 -0.19810697 -0.07899863 -0.1381322 -0.026785158 -0.860005 -0.012865412 -0.009256539
-0.11639156 0.38523585 0.20420808 0.18273152 -0.2205603 -0.23019968 -0.026398163 -0.16016288
0.39850703 -0.11986431 -0.0401859 0.048938446 -0.20543769 0.56049377 -0.2502426 0.17796823
0.08626729 -0.22522287 0.11123371 0.28222945 0.27678964 -0.41052842 0.24397132 -0.4630505
0.12994978 0.04896097 0.7219716 -0.113254726 0.52004623 0.15773602 0.5870368 0.4677124
0.5382469 -0.33274382 0.4303758 0.42733452 -0.11764389 0.24098973 -0.17557442 0.03331573
-0.20305963 -0.0053982963 -0.60168815 0.51000386 0.011196568 -0.40098032 0.52515626 -0.19576573
-0.39318264 -0.028142253 -0.80296993 -0.08108773 0.026343811 0.16811618 -0.1979667 -0.1441044
-0.21843296 -0.24966699 -0.13541417 0.027682045 -0.2461364 -0.13361783 -0.03564633 0.23674074
0.2638371 -0.009568838 -0.08423439 0.37148708 0.111312635 -0.13395521 -0.06713522 -0.41608775
00000000: 876b 0cbf efd2 b1be c038 92bd 368f a33e
00000010: 2224 06bd 5bce 78bf faac 823e 71ea 4a3d
00000020: 0888 8d3e 254f 6abf b47e b83e c1d6 583f
00000030: 986c 8c3e 67f6 f13e fe1a 053d e05b 913e
00000040: fe91 21be 8edc 4abe 09ca a1bd 8772 0dbe
00000050: 8c6c dbbc 4a29 5cbf 73c9 52bc bda8 17bc
00000060: b35e eebd a23d c53e ec1b 513e f91d 3b3e
00000070: 8fda 61be 77b9 6bbe f640 d8bc bd01 24be
00000080: 1d09 cc3e 6b7b f5bd f899 24bd ae73 483d
00000090: 425e 52be 857c 0f3f cc1f 80be 4e3d 363e
000000a0: e8ac b03d d3a0 66be 80ce e33d 6180 903e
000000b0: 5fb7 8d3e c830 d2be 9ed3 793e f514 edbe
000000c0: 8e11 053e 4c8b 483d 21d3 383f 18f2 e7bd
000000d0: c021 053f 8d85 213e 0b48 163f 0078 ef3e
000000e0: 8dca 093f 665d aabe 385a dc3e 97cb da3e
000000f0: 48ef f0bd 03c6 763e c8c9 33be 1376 083d
00000100: ddee 4fbe 31e4 b0bb 3c08 1abf 9d8f 023f
00000110: cf71 373c 4b4d cdbe a470 063f d076 48be
00000120: 3c4f c9be 958a e6bc 708f 4dbf 5311 a6bd
00000130: face d73c a626 2c3e c8b7 4abe 1b90 13be
00000140: e4ac 5fbe b4a8 7fbe 03aa 0abe 75c5 e23c
00000150: 2e0b 7cbe 1dd3 08be e301 12bd 2a6c 723e
00000160: a815 873e 9ec6 1cbc 1483 acbd 8e33 be3e
00000170: e1f7 e33d 8e2b 09be 317e 89bd 7409 d5be

sun_influence_4.bias f4 [8]
-0.09877339 0.060841966 0.14520136 0.16072136 -0.094830185 0.040483315 0.1087827 0.14095205
00000000: b449 cabd 6d35 793d aaaf 143e 2494 243e
00000010: 5436 c2bd d5d1 253d 77c9 de3d bc55 103e
