src/Photosynthesis/RL/SavedModels/model_62.pth (torch, 30290 bytes, 34 tensors)

player_tree_1.W.weight f4 [12, 12]
0.25277406 -0.4943251 0.26304227 -0.16909787 0.3332083 -0.1160126 -0.29284808 0.02947659
0.53622633 -0.024367893 -0.3437833 -0.12701514 0.086048886 0.14539367 0.3261231 -0.051532652
0.21931577 -0.3732001 -0.09020346 -0.17336857 0.11352719 0.2761357 0.5662521 0.2631307
-0.08176631 0.2473169 -0.7275544 0.1869641 0.37043583 0.3018068 -0.10757934 -0.5714626
0.5354117 0.23746987 -0.41650203 -0.28827795 -0.18891135 0.028896308 -0.12664561 -0.20574516
0.07137684 -0.38861406 -0.006104284 -0.5486074 -0.453873 0.1581981 -0.34821022 0.0423931
-0.4146543 -0.060823247 0.008953933 0.018095199 0.0615096 0.096598916 -0.35441935 0.289414
-0.3366631 0.118809216 -0.07905268 0.571866 0.25596413 0.45875224 0.5995849 -0.13531823
0.14694868 0.57505924 0.27646807 0.33124146 0.17880963 1.229882 -0.007763016 0.27771217
-0.16141887 0.18318768 0.52534527 0.20139408 -0.18958952 -0.09624284 -0.07694541 0.28483105
-0.14459437 -0.19658962 -0.28779373 -0.081028916 0.20885482 0.016303414 -0.22817524 -0.025462827
0.051459797 -0.07035582 -0.60395926 -0.11456152 -0.17514764 0.2718316 -0.42594823 0.3587508
0.207701 -0.18671277 -0.9498654 -0.051104803 -0.297567 -0.081698574 -0.5358293 -0.12932256
0.24124362 0.16092142 -0.407271 -0.2003746 -0.23572563 0.21634679 -0.24392118 -0.10721797
0.004519171 0.12037653 -0.4373275 -0.10490167 -0.50900114 -0.10305879 -0.4069121 0.10577794
0.73730725 -0.0587976 -0.18420786 0.046461865 0.5144482 0.42376786 -0.44670808 -0.03312056
0.120041735 -0.36251748 -0.55005777 -0.022254862 0.13483381 -0.45403165 -0.077601776 -0.29903463
0.17014693 -0.14200437 0.113406464 -0.23204298 -0.66741484 -0.49924135 -0.26133108 -0.08542576
00000000: 9a6b 813e 2e18 fdbe 7aad 863e fe27 2dbe
00000010: 479a aa3e 0498 edbd 2ff0 95be e478 f13c
00000020: 2146 093f 2d9f c7bc 5d04 b0be 4210 02be
00000030: 663a b03d 14e2 143e 9bf9 a63e e713 53bd
00000040: 5094 603e 1514 bfbe 97bc b8bd 8887 31be
00000050: f280 e83d a961 8d3e e6f5 103f 11b9 863e
00000060: 1875 a7bd a440 7d3e 0141 3abf 8473 3f3e
00000070: c4a9 bd3e 6c86 9a3e 8f52 dcbd 5f4b 12bf
00000080: be10 093f 4d2b 733e c13f d5be 2b99 93be
00000090: fa71 41be f3b7 ec3c 63af 01be dcae 52be
000000a0: 052e 923d 6cf8 c6be 7206 c8bb 8971 0cbf
000000b0: 0b62 e8be affe 213e 9c48 b2be 63a4 2d3d
000000c0: 924d d4be cc21 79bd 84b3 123c 623c 943c
000000d0: 7ef1 7b3d a7d5 c53d 7476 b5be 122e 943e
000000e0: 1b5f acbe 3f52 f33d 5fe6 a1bd cf65 123f
000000f0: bb0d 833e 93e1 ea3e 657e 193f dd90 0abe
00000100: b779 163e 1537 133f 398d 8d3e 7b98 a93e
00000110: df19 373e c66c 9d3f e660 febb 4a30 8e3e
00000120: fd4a 25be 8d95 3b3e 077d 063f 403a 4e3e
00000130: c123 42be f71a c5bd 8e95 9dbd 60d5 913e
00000140: 8c10 14be ca4e 49be b359 93be 7df2 a5bd
00000150: 0ade 553e bd8e 853c c5a6 69be 6b97 d0bc
00000160: 82c7 523d b616 90bd 139d 1abf 3b9f eabd
00000170: e759 33be 832d 8b3e e315 dabe 2fae b73e
00000180: 92af 543e a231 3fbe 612a 73bf 4553 51bd
00000190: b45a 98be 9551 a7bd 1c2c 09bf 226d 04be
000001a0: 9108 773e 96c8 243e d385 d0be 002f 4dbe
000001b0: 0f62 71be 038a 5d3e 79c6 79be 1895 dbbd
000001c0: 8e15 943b f887 f63d 64e9 dfbe b0d6 d6bd
000001d0: e64d 02bf 7d10 d3bd c856 d0be 1ba2 d83d
000001e0: 2bc0 3c3f c1d5 70bd fca0 3cbe cc4e 3e3d
000001f0: e1b2 033f 1af8 d83e ecb6 e4be 6da9 07bd
00000200: 71d8 f53d e49b b9be 96d0 0cbf d44f b6bc
00000210: e011 0a3e d676 e8be aeed 9ebd 111b 99be
00000220: ff3a 2e3e 9869 11be a641 e83d ad9c 6dbe
00000230: b3db 2abf 909c ffbe 30cd 85be b3f3 aebd

player_tree_1.W.bias f4 [12]
0.010404447 -0.0032516343 0.006578123 -0.09545608 -0.014893313 0.050319802 -0.02514756 -0.008243217
-0.07037411 -0.04190686 0.061357923 -0.017291497
00000000: 6a77 2a3c 5f19 55bb 4c8d d73b 7a7e c3bd
00000010: 1503 74bc 231c 4e3d 4102 cebc 8f0e 07bc
00000020: 4d20 90bd 87a6 2bbd 7252 7b3d e6a6 8dbc

player_tree_1.W_self.weight f4 [12, 12]
-0.041571505 0.54292554 0.14957033 -0.36862478 0.0704943 -0.14509775 0.25987223 0.08986952
0.50919807 0.14443274 -0.38723093 -0.22027527 -0.22286795 0.49617228 0.22350454 -0.29996696
0.0951496 -0.28519997 0.43194142 0.15938716 -0.11071591 0.8514876 0.39880615 0.15655234
-0.071182884 0.41458192 -0.08534424 0.17849703 0.18746062 0.10908098 0.09025492 -0.43106055
-0.5162339 0.4931887 0.4439023 0.23364556 -0.5149989 0.07838053 0.31443185 -0.51568794
0.31714892 0.11906684 0.277919 -0.87241495 0.09669931 -0.1513958 0.1679052 -0.044093296
-0.14360704 -0.23026247 0.32691145 -0.065005645 0.21446839 0.26118353 0.30145428 -0.32771128
0.08826958 -0.17068268 -0.41614 -0.06472257 -0.016153827 0.698716 0.36609372 0.30885512
-0.32372403 0.32946464 0.12006825 0.21395747 -0.35314596 -0.040268723 0.5407254 -0.115159035
0.12629078 0.22239284 0.6955175 0.4850701 0.11434782 0.43321776 -0.17346829 -0.6025548
0.061467886 0.20174058 -0.6011789 -0.11230083 -0.006753815 0.057130214 0.1851939 0.24053088
-0.3374233 0.54297847 -0.5483924 0.12962812 0.10904648 0.31470034 0.16778906 0.30117688
0.34346893 -0.4776903 -0.7367122 0.3196676 0.41950542 -0.3725274 -0.090412304 0.30923015
-0.20113386 0.5812882 0.390132 -0.056359243 -0.43468478 -0.24646574 0.14647673 0.4145288
0.05149733 0.38003612 0.5566128 0.22858372 0.25018612 0.09609886 -0.24161373 -0.3517244
0.1963258 -0.10517487 0.2866317 0.02326461 -0.38720915 0.44179142 -0.1793706 0.048869565
-0.34356338 0.46997765 0.24137233 -0.34385994 0.1378466 0.5186397 -0.38859263 0.28796634
-0.30994463 0.5097911 -0.32380152 -0.12163617 0.23847516 -0.1000693 -0.15618926 -0.53243935
00000000: e246 2abd 2bfd 0a3f f728 193e 63bc bcbe
00000010: 515f 903d 8194 14be f90d 853e 830d b83d
00000020: ce5a 023f 2de6 133e 2243 c6be d78f 61be
00000030: 7f37 64be 4b0a fe3e 60de 643e 4595 99be
00000040: cbdd c23d bb05 92be 6d27 dd3e 6336 233e
00000050: 06bf e2bd 17fb 593f 5230 cc3e 424f 203e
00000060: 55c8 91bd 1544 d43e f6c8 aebd edc7 363e
00000070: adf5 3f3e d965 df3d 92d7 b83d f8b3 dcbe
00000080: e827 04bf 3b83 fc3e 2a47 e33e c840 6f3e
00000090: f8d6 03bf f985 a03d 36fd a03e 2004 04bf
000000a0: 5861 a23e 51d9 f33d 664b 8e3e 9656 5fbf
000000b0: 4a0a c63d 8007 1bbe 57ef 2b3e 2c9b 34bd
000000c0: b90d 13be edc9 6bbe f060 a73e ae21 85bd
000000d0: 9a9d 5b3e d9b9 853e 3758 9a3e c6c9 a7be
000000e0: aec6 b43d 71c7 2ebe 4d10 d5be 448d 84bd
000000f0: 0855 84bc 0ddf 323f a370 bb3e 4222 9e3e
00000100: 28bf a5be 97af a83e 58e6 f53d ab17 5b3e
00000110: 8ccf b4be d1f0 24bd fb6c 0a3f 80d8 ebbd
00000120: 5f52 013e f3ba 633e 6f0d 323f 1c5b f83e
00000130: 312f ea3d b8ce dd3e aca1 31be 0841 1abf
00000140: c0c5 7b3d 1595 4e3e dce6 19bf fafd e5bd
00000150: 1b4f ddbb 5f01 6a3d 78a3 3d3e ba4d 763e
00000160: bfc2 acbe a300 0b3f 7263 0cbf 3cbd 043e
00000170: c353 df3d 6720 a13e e5d0 2b3e db33 9a3e
00000180: 29db af3e d393 f4be 2c99 3cbf 79ab a33e
00000190: 6ac9 d63e e9bb bebe 162a b9bd 6a53 9e3e
000001a0: 09f6 4dbe 4ecf 143f 62bf c73e f3d8 66bd
000001b0: 018f debe 8461 7cbe fffd 153e 1e3d d43e
000001c0: ddee 523d 1894 c23e 2d7e 0e3f da11 6a3e
000001d0: 6518 803e 7bcf c43d 9769 77be 3815 b4be
000001e0: a109 493e ec65 d7bd 64c1 923e 6c95 be3c
000001f0: 4740 c6be 7c32 e23e edac 37be 742b 483d
00000200: 8ae7 afbe e9a0 f03e 4f2a 773e 690e b0be
00000210: a927 0d3e 92c5 043f 9df5 c6be 5370 933e
00000220: 10b1 9ebe ab81 023f 50c9 a5be 621c f9bd
00000230: d532 743e 22f1 ccbd 14f0 1fbe f24d 08bf

player_tree_1.W_self.bias f4 [12]
0.010404447 -0.0032516343 0.006578123 -0.09545608 -0.014893313 0.050319802 -0.02514756 -0.008243217
-0.07037411 -0.04190686 0.061357923 -0.017291497
00000000: 6a77 2a3c 5f19 55bb 4c8d d73b 7a7e c3bd
00000010: 1503 74bc 231c 4e3d 4102 cebc 8f0e 07bc
00000020: 4d20 90bd 87a6 2bbd 7252 7b3d e6a6 8dbc

player_tree_2.W.weight f4 [12, 12]
0.28756353 -0.2611518 -0.86867124 -0.07948894 -0.15002613 -0.41096434 0.24839936 -0.0002752651
0.38037327 -0.20726444 -0.18863995 -0.7118767 -0.5649132 -0.35113505 -0.038068596 0.39264134
0.2577337 0.17823933 0.26154637 0.09253805 -0.5171435 0.14369194 -0.4269654 -0.029834503
0.8626685 -0.372334 0.53541213 -0.10842311 0.33218896 -0.097349964 -0.38473248 -0.15294974
-0.21332397 0.24172528 -0.7246795 -0.38344547 -0.10193743 -0.23256268 -0.051134277 -0.40819493
0.19916153 -0.14253376 -0.03596753 -0.28832346 0.032209754 -0.0776363 -0.18376882 0.031239338
-0.14135407 -0.096257806 -0.4891919 -0.37452808 -0.061634433 -0.086647555 0.06648257 0.19214453
0.04750787 0.06201795 0.11565336 0.14104185 0.24989146 0.28430158 0.33860397 0.15221293
0.17259833 0.106020205 0.12121614 -0.13390008 0.44518235 -0.046958134 -0.5326958 -0.13895003
-0.09070089 -0.1493842 -0.51519305 0.36977735 0.0058464217 0.18803461 0.14214656 0.22438803
0.1653703 -0.07008967 -0.4395671 0.15254079 0.28767383 -0.26983643 -0.16828085 0.103990346
0.28283468 -0.27625233 0.04226921 -0.47392806 0.36045006 -0.17402549 -0.043432996 -0.81549895
-0.5011537 0.013336188 0.1860736 0.30248323 0.588677 0.34984174 0.4352131 0.17291427
0.21301664 -0.00943806 -0.051860236 -0.0700874 -0.4644666 0.3969725 -0.15261938 0.21544705
0.25366426 -0.57181895 -0.5643029 -0.120715186 -0.00070434884 0.33621532 0.0020752335 0.5116097
-0.14959696 0.06065283 -0.19176699 -0.24597582 -0.41474888 -0.37959325 -0.6880875 0.040339645
0.03558792 -0.24508226 -0.2510724 0.07077414 0.109540544 0.16030681 -0.33516812 -0.1463144
-0.36812717 -0.43823642 0.14981665 0.39963964 0.23437332 -0.073436566 -0.34092894 0.004215313
00000000: 873b 933e b0b5 85be 3d61 5ebf 19cb a2bd
00000010: 73a0 19be eb69 d2be 675c 7e3e 7551 90b9
00000020: 49c0 c23e 213d 54be d52a 41be 8d3d 36bf
00000030: 279e 10bf f9c7 b3be d1ed 1bbd 4908 c93e
00000040: acf5 833e 5f84 363e 68e9 853e 9784 bd3d
00000050: 8463 04bf fb23 133e 359b dabe 7d67 f4bc
00000060: d8d7 5c3f 90a2 bebe c510 093f ef0c debd
00000070: ac14 aa3e 6b5f c7bd a8fb c4be db9e 1cbe
00000080: 9971 5abe d586 773e 9984 39bf f752 c4be
00000090: 92c4 d0bd e924 6ebe 2d72 51bd edfe d0be
000000a0: 00f1 4b3e 5ff4 11be b052 13bd 229f 93be
000000b0: 60ee 033d c8ff 9ebd e52d 3cbe a4e9 ff3c
000000c0: 1fbf 10be d022 c5bd 5c77 fabe 25c2 bfbe
000000d0: 6374 7cbd 4674 b1bd 0328 883d 89c1 443e
000000e0: 9d97 423d 8906 7e3d abdb ec3d 466d 103e
000000f0: 8ce3 7f3e fa8f 913e 805d ad3e b5dd 1b3e
00000100: 9ebd 303e 1f21 d93d 2b40 f83d 1a1d 09be
00000110: f1ee e33e 2c57 40bd c05e 08bf eb48 0ebe
00000120: 63c1 b9bd 2cf8 18be b1e3 03bf 7553 bd3e
00000130: 5793 bf3b 258c 403e de8e 113e fac5 653e
00000140: d556 293e 2c8b 8fbd f00e e1be a733 1c3e
00000150: fc49 933e 0028 8abe d151 2cbe e4f8 d43d
00000160: b5cf 903e f270 8dbe 7b22 2d3d b3a6 f2be
00000170: e98c b83e bd33 32be cce6 31bd 8ac4 50bf
00000180: 9c4b 00bf 0780 5a3c 148a 3e3e 15df 9a3e
00000190: 89b3 163f 751e b33e 40d4 de3e 7010 313e
000001a0: 0921 5a3e 18a2 1abc 666b 54bd fc89 8fbd
000001b0: 91ce edbe fb3f cb3e 4148 1cbe 279e 5c3e
000001c0: 48e0 813e ba62 12bf 2876 10bf 8639 f7bd
000001d0: 0da4 38ba 6a24 ac3e a400 083b daf8 023f
000001e0: f22f 19be 1a6f 783d 915e 44be 16e1 7bbe
000001f0: f759 d4be 0c5a c2be 8126 30bf 2f3b 253d
00000200: a4c4 113d d8f6 7abe 908c 80be 08f2 903d
00000210: cb56 e03d 7827 243e 289b abbe 71d3 15be
00000220: 2a7b bcbe 8660 e0be 8969 193e 919d cc3e
00000230: 8fff 6f3e e965 96bd 3d8e aebe 9c20 8a3b

player_tree_2.W.bias f4 [12]
-0.0039879926 -0.06856072 -0.051127575 -0.061387584 -0.076550774 0.049674146 -0.02972431 0.04197058
-0.06458137 0.024330324 -0.039210938 -0.06572059
00000000: b5ad 82bb 9069 8cbd 266b 51bd 8c71 7bbd
00000010: a7c6 9cbd 1e77 4b3d 6580 f3bc 58e9 2b3d
00000020: 3d43 84bd 6350 c73c a69b 20bd 8498 86bd

player_tree_2.W_self.weight f4 [12, 12]
0.20555711 -0.2979928 0.07994898 0.44062746 -0.58178836 -0.912412 -0.058725063 -0.19097118
-0.04820541 -0.5162327 0.32988054 0.21602032 0.37609643 -0.12688515 -0.18590507 -0.021486918
-0.14585307 -0.46683943 -0.33440125 -0.14970776 0.644902 0.23178142 0.05323721 -0.028896032
-0.122187816 -0.25442818 -0.27613404 -0.4055815 0.21706195 -0.340746 -0.37449336 0.22550231
-0.11748338 -0.07772613 -0.23381256 -0.026914744 -0.1683455 -0.06608721 -1.055008 0.07322973
0.19332418 -0.36029524 0.6157788 -0.36600456 0.04598083 -0.08599337 -0.091700315 -0.18170294
-0.5018482 -0.11478819 -0.35391167 0.19920705 0.27409038 -0.19903864 -0.12372915 0.1024674
0.06247019 0.28146815 -0.2563806 0.24108276 -0.47018597 -0.095078714 -0.21657506 -0.5940938
-0.33281705 0.5047042 -0.13583642 -0.25135124 0.13850383 -0.18142188 -0.22338754 -0.34866655
0.46305323 0.1565576 0.34896576 0.11783992 0.3954493 0.5651572 0.47998995 -0.42708972
0.08510663 0.28606454 0.10144946 -0.12991682 0.5313435 -0.12583935 0.4799171 -0.0076087983
-0.11388677 -0.06864362 -0.3376748 0.29132435 0.3359123 -0.17144965 0.36013266 0.06637036
0.24813852 0.45235983 -0.1661137 -0.25097406 -0.14745747 -0.36753023 -0.7164228 -0.10943624
-0.10731211 -0.27741945 0.1822691 -0.36914316 0.34170845 0.68460536 0.5460919 -0.03106564
0.69996995 0.5784131 0.50553215 0.47266936 0.36062446 0.48223615 0.48874855 0.6629547
0.5559207 0.06385217 -0.26129532 -0.49220553 0.4084229 -0.36860847 0.39982328 -0.10849299
0.16247031 -0.112528905 -0.3017403 -0.29774782 -0.0315029 0.07394185 -0.034519047 -0.04416422
-0.03914855 -0.16777913 -0.10823185 -0.46647504 -0.056924973 -0.047943685 -0.15294862 0.31655663
00000000: 907d 523e 8392 98be 4abc a33d ec99 e13e
00000010: 15f0 14bf d593 69bf b189 70bd f38d 43be
00000020: 0973 45bd d427 04bf 1ae6 a83e 6e34 5d3e
00000030: b68f c03e 2eee 01be e65d 3ebe 5505 b0bc
00000040: 825a 15be 9405 efbe a436 abbe fe4c 19be
00000050: 4c18 253f 1c58 6d3e 430f 5a3d 5fb7 ecbc
00000060: 9b3d fabd 6944 82be 7161 8dbe 61a8 cfbe
00000070: 7d45 5e3e 4276 aebe 98bd bfbe 14ea 663e
00000080: 209b f0bd e12e 9fbd 8f6c 6fbe 4f7c dcbc
00000090: c362 2cbe bb58 87bd 810a 87bf 78f9 953d
000000a0: c6f6 453e 9e78 b8be aea3 1d3f f364 bbbe
000000b0: 6556 3c3d 4b1d b0bd 60cd bbbd 5610 3abe
000000c0: 2079 00bf 1216 ebbd e933 b5be effc 4b3e
000000d0: 9355 8c3e c9d0 4bbe b565 fdbd 6eda d13d
000000e0: bee0 7f3d 981c 903e 5144 83be 66de 763e
000000f0: 37bc f0be a1b8 c2bd dac5 5dbe 8816 18bf
00000100: ff66 aabe 4b34 013f b418 0bbe 1cb1 80be
00000110: f3d3 0d3e a8c6 39be b4bf 64be 6c84 b2be
00000120: 5015 ed3e a350 203e a4ab b23e 0e56 f13d
00000130: 5578 ca3e 24ae 103f 3ec1 f53e 81ab dabe
00000140: 634c ae3d 0d77 923e bcc4 cf3d ea08 05be
00000150: 2106 083f 08dc 00be b2b7 f53e 3a53 f9bb
00000160: 783d e9bd 0795 8cbd b6e3 acbe 7728 953e
00000170: b2fc ab3e 7f90 2fbe 4f63 b83e 2fed 873d
00000180: 0618 7e3e b59b e73e b619 2abe ac7f 80be
00000190: 17ff 16be ec2c bcbe 7c67 37bf 1b20 e0bd
000001a0: 74c6 dbbd ec09 8ebe c0a4 3a3e 5500 bdbe
000001b0: 69f4 ae3e 4c42 2f3f aecc 0b3f 5e7d febc
000001c0: 3b31 333f e212 143f 8e6a 013f b801 f23e
000001d0: c5a3 b83e a8e7 f63e 403d fa3e 66b7 293f
000001e0: d250 0e3f edc4 823d 80c8 85be 5d02 fcbe
000001f0: ce1c d13e 40ba bcbe a3b5 cc3e 9331 debd
00000200: 9e5e 263e 8e75 e6bd b47d 9abe 6772 98be
00000210: 2f09 01bd d36e 973d d863 0dbd 8be5 34bd
00000220: 3b5a 20bd 4bce 2bbe a9a8 ddbd d1d5 eebe
00000230: 292a 69bd 9960 44bd 909e 1cbe b613 a23e

player_tree_2.W_self.bias f4 [12]
-0.0039879926 -0.06856072 -0.051127575 -0.061387584 -0.076550774 0.049674146 -0.02972431 0.04197058
-0.06458137 0.024330324 -0.039210938 -0.06572059
00000000: b5ad 82bb 9069 8cbd 266b 51bd 8c71 7bbd
00000010: a7c6 9cbd 1e77 4b3d 6580 f3bc 58e9 2b3d
00000020: 3d43 84bd 6350 c73c a69b 20bd 8498 86bd

player_tree_3.W.weight f4 [12, 12]
-0.37312385 -0.17678508 -0.023985796 -0.54964775 0.43667334 -0.039377354 -0.24233057 0.4106451
0.087190755 -0.1079294 -0.3140865 0.055982422 -0.4394595 -0.3816374 -0.7420626 0.033594653
0.21560057 0.31999743 -0.17697126 0.27115813 0.19046594 0.32528636 -0.2101905 -0.35765618
-0.32378915 0.4375659 -0.09491399 0.040313374 0.1761336 -0.41368908 -0.33736715 -0.3389959
-0.23368782 0.009759729 0.51133907 0.040914282 -0.14120732 0.24163993 -0.41362146 0.46507463
-0.13746937 -0.3835037 -0.21686806 -0.08881497 -0.09691562 -0.13928142 -0.1807271 -0.5109744
0.18239225 0.34781086 -0.25533906 -0.728096 0.27622923 0.15504128 0.14340825 -0.012820387
0.06742887 -0.17015393 0.5185304 0.07724123 0.030427087 0.07759475 0.36372307 0.17653713
0.559024 -0.0061291046 0.67121685 -0.4901432 0.023413647 0.06036012 -0.20771506 0.26623598
-0.15447818 -0.032227106 -0.37382093 -0.22687289 -0.11352507 0.46267578 -0.2142032 -0.023055198
-0.20656087 0.07496695 0.0795795 0.30882442 0.66513455 0.33601528 0.7657637 -0.6544081
-0.12671289 -0.16038881 0.37606186 -0.33912244 -0.2542034 0.5230107 0.08035903 0.36350337
-0.22550184 -0.46904284 0.17102988 -0.05731224 0.06155522 -0.021204114 0.24036065 -0.36086777
0.2648427 0.05507638 -0.12525305 0.57982135 0.105727404 -0.36701444 -0.13371699 0.059868444
0.17404868 -0.23761518 0.1230569 0.4447953 -0.09811797 -0.36543968 0.47039762 -0.016416851
0.4102032 -0.60907465 0.06571831 0.10956337 -0.18569304 0.20270061 -0.34648475 0.311712
-0.10721471 -0.48176932 -0.011745068 -0.23397341 -0.1264002 0.07972917 0.16370077 0.40257525
0.039510272 0.076744705 -0.12741892 -0.077046946 -0.2569156 -0.5296176 -0.1895127 0.25493467
00000000: 170a bfbe 2607 35be dc7d c4bc b7b5 0cbf
00000010: a693 df3e 264a 21bd 8125 78be 1340 d23e
00000020: 1191 b23d 170a ddbd f2cf a0be d34d 653d
00000030: d600 e1be fa65 c3be d1f7 3dbf 8c9a 093d
00000040: 65c6 5c3e b4d6 a33e f437 35be 3dd5 8a3e
00000050: 8109 433e ef8b a63e 2e3c 57be b61e b7be
00000060: b1c7 a5be a308 e03e 4462 c2bd a31f 253d
00000070: 5e5c 343e 0ecf d3be 63bb acbe df90 adbe
00000080: dc4b 6fbe 45e7 1f3c 1ee7 023f bc95 273d
00000090: a798 10be 7570 773e 31c6 d3be 431e ee3e
000000a0: c5c4 0cbe 995a c4be a912 5ebe 9fe4 b5bd
000000b0: b27b c6bd ca9f 0ebe 8610 39be 38cf 02bf
000000c0: 09c5 3a3e 4414 b23e cdbb 82be 8064 3abf
000000d0: eb6d 8d3e 24c3 1e3e 9dd9 123e 9a0c 52bc
000000e0: 2618 8a3d d53c 2ebe 69be 043f a630 9e3d
000000f0: 3a42 f93c ffe9 9e3d e939 ba3e 26c6 343e
00000100: 321c 0f3f a8d6 c8bb ded4 2b3f 0df4 fabe
00000110: facd bf3c 2c3c 773d 42b3 54be 1550 883e
00000120: 872f 1ebe 9200 04bd 7565 bfbe 5e51 68be
00000130: d57f e8bd d7e3 ec3e 1558 5bbe 41de bcbc
00000140: b184 53be 4688 993d 94fa a23d 3c1e 9e3e
00000150: 4246 2a3f 320a ac3e 1709 443f 4a87 27bf
00000160: 06c1 01be f73c 24be 2e8b c03e 75a1 adbe
00000170: f326 82be 07e4 053f 4693 a43d 1d1d ba3e
00000180: f4e9 66be 6226 f0be 7522 2f3e 3dc0 6abd
00000190: 5421 7c3d 40b4 adbc 1a21 763e a9c3 b8be
000001a0: 7699 873e c597 613d 5642 00be 2c6f 143f
000001b0: 9c87 d83d 51e9 bbbe 1bed 08be 9d38 753d
000001c0: d139 323e 6551 73be 4205 fc3d 36bc e33e
000001d0: 13f2 c8bd e91a bbbe f5d7 f03e a27c 86bc
000001e0: 2706 d23e 51ec 1bbf 5297 863d c362 e03d
000001f0: 5126 3ebe c090 4f3e 7366 b1be b798 9f3e
00000200: 6393 dbbd 78aa f6be 636e 40bc ba96 6fbe
00000210: 0e6f 01be 0c49 a33d 2da1 273e 581e ce3e
00000220: 86d5 213d 542c 9d3d 1b7a 02be caca 9dbd
00000230: 718a 83be 0595 07bf 9e0f 42be cc86 823e

player_tree_3.W.bias f4 [12]
0.059420165 0.074278146 -0.14274879 -0.045185804 -0.029743996 -0.19064254 0.0062638884 -0.003253847
-0.16122365 0.046249334 0.06418073 0.05854532
00000000: 8f62 733d 241f 983d bd2c 12be c014 39bd
00000010: aea9 f3bc cc37 43be 4e41 cd3b 7e3e 55bb
00000020: d017 25be f16f 3d3d 3071 833d 38cd 6f3d

player_tree_3.W_self.weight f4 [12, 12]
0.0804176 -0.18389621 0.6871891 -0.6488782 -0.4949526 -0.1968145 0.22469096 -0.27067912
-0.03840825 0.09319425 0.3074087 -0.2721008 -0.009458062 0.3426546 -0.33760828 0.2816844
-0.17311135 0.2799972 -0.05814939 -0.019565418 0.8266224 -0.060098644 -0.46231797 -0.059533793
-0.003561207 -0.018773707 -0.19184819 -0.1455846 -0.48606947 -0.23474222 -0.407276 -0.51539636
-0.64930403 0.22109573 -0.31405026 0.1883009 -0.13050628 0.2812751 0.11492922 0.21770076
-0.58482826 -0.2623186 0.022543 -0.42298394 -0.15202805 -0.48290235 0.20675583 0.27375323
-0.45556504 0.43566298 -0.25233832 -0.4746819 -0.06520816 -0.030235479 -0.018457992 -0.06966476
-0.26778933 -0.15516636 -0.08857144 0.10188335 0.28876847 0.0050937315 -0.19397716 0.44362554
0.4718576 -0.121635206 0.25975406 0.055902086 0.25765288 0.08922227 0.036261726 -0.63301384
0.40373468 -0.20951416 0.18375584 -0.0071655745 0.29470593 -0.17781024 0.47191754 0.013369773
-0.09207277 0.77155817 0.36164594 0.4379198 0.2480041 0.28408155 0.380994 0.054187033
0.60682565 0.07821302 0.10463825 -0.5047101 0.40612236 -0.23215446 0.46458945 -0.014451081
0.6422969 -0.27192405 -0.20592198 0.1419993 -0.04604762 0.4969259 0.008454843 -0.13962764
-0.46059272 0.19572748 -0.26858568 0.33769357 0.21036659 0.4624375 -0.020392668 -0.5850778
-0.13922854 -0.34722456 -0.6206515 0.29321486 -0.11944573 -0.077364214 0.32815155 -0.038455285
-0.42784038 -0.5699447 -0.26739618 0.34882638 -0.19292139 -0.11094843 0.112880215 -0.25888097
0.18993133 0.43716493 -0.4112864 -0.3799311 -0.47059366 -0.11586955 0.21947199 0.006278256
0.0950477 -0.48615617 0.18932897 0.39198127 0.0008916095 0.38426822 0.2046426 0.122191995
00000000: fcb1 a43d 4a4f 3cbe a0eb 2f3f e21c 26bf
00000010: 6d6a fdbe be89 49be 6315 663e 7496 8abe
00000020: f851 1dbd a0dc be3d ac64 9d3e cc50 8bbe
00000030: fdf5 1abc 6c70 af3e feda acbe f038 903e
00000040: 1a44 31be cb5b 8f3e 0e2e 6ebd a847 a0bc
00000050: 879d 533f ff29 76bd f1b4 ecbe b5d9 73bd
00000060: 2463 69bb 51cb 99bc da73 44be 2114 15be
00000070: 19de f8be 4460 70be 7b86 d0be 04f1 03bf
00000080: ca38 26bf eb66 623e 32cb a0be f3d1 403e
00000090: 70a3 05be 4a03 903e 0360 eb3d f3ec 5e3e
000000a0: 4eb7 15bf a04e 86be 19ac b83c 5a91 d8be
000000b0: 3ead 1bbe fa3e f7be cdb7 533e 6229 8c3e
000000c0: d23f e9be 380f df3e 7d32 81be 8209 f3be
000000d0: db8b 85bd 65b0 f7bc 3735 97bc 66ac 8ebd
000000e0: af1b 89be eee3 1ebe f164 b5bd 38a8 d03d
000000f0: 76d9 933e 51e9 a63b f3a1 46be e322 e33e
00000100: 5297 f13e e11b f9bd 7cfe 843e 96f9 643d
00000110: 14eb 833e 2aba b63d 2d87 143d 320d 22bf
00000120: 50b6 ce3e e18a 56be 7e2a 3c3e 32cd eabb
00000130: b2e3 963e e313 36be 2d9f f13e e40c 5b3c
00000140: a690 bcbd d684 453f a829 b93e 0637 e03e
00000150: c9f4 7d3e 2373 913e a511 c33e 39f3 5d3d
00000160: ed58 1b3f 262e a03d 944c d63d ae34 01bf
00000170: 45ef cf3e e6b9 6dbe abde ed3e 3ac4 6cbc
00000180: 926d 243f a139 8bbe 36dd 52be 4468 113e
00000190: 6e9c 3cbd 126d fe3e 2f86 0a3c 8cfa 0ebe
000001a0: cfd2 ebbe c96c 483e 1084 89be 2ce6 ac3e
000001b0: 576a 573e 9cc4 ec3e 860e a7bc a9c7 15bf
000001c0: ed91 0ebe 6bc7 b1be 04e3 1ebf 4220 963e
000001d0: f69f f4bd 2171 9ebd 7b03 a83e 4a83 1dbd
000001e0: e50d dbbe e5e7 11bf 27e8 88be 5f99 b23e
000001f0: 2f8d 45be ee38 e3bd be2d e73d 0c8c 84be
00000200: 5c7d 423e 15d4 df3e 2294 d2be 5486 c2be
00000210: a7f1 f0be 044d edbd 44bd 603e d4b9 cd3b
00000220: 5ea8 c23d 76e9 f8be 74df 413e c5b1 c83e
00000230: e7ba 693a cebe c43e d48d 513e cc3f fa3d

player_tree_3.W_self.bias f4 [12]
0.059420165 0.074278146 -0.14274879 -0.045185804 -0.029743996 -0.19064254 0.0062638884 -0.003253847
-0.16122365 0.046249334 0.06418073 0.05854532
00000000: 8f62 733d 241f 983d bd2c 12be c014 39bd
00000010: aea9 f3bc cc37 43be 4e41 cd3b 7e3e 55bb
00000020: d017 25be f16f 3d3d 3071 833d 38cd 6f3d

player_tree_4.weight f4 [8, 12]
-0.27628437 -0.60082144 0.45302737 0.00519605 -0.36380094 0.018626025 -0.18060839 0.82965857
-0.094109595 -0.33080167 -0.020533407 -0.5602482 -0.14336018 -0.018765178 -0.19968173 0.3150826
0.105371766 -0.5825053 -0.7830082 -0.086675145 -0.2657239 0.27530193 -0.3043284 -0.16727011
-0.23013051 -0.3729173 0.14245296 -0.018181637 0.31594372 -0.6407762 -0.1442929 -0.63910776
0.3912603 -0.5811848 0.62054217 0.12037411 0.08218872 0.04554063 0.19438171 0.12267453
-0.33945382 -0.13115126 0.5797687 0.35238189 -0.09231968 0.49831545 -0.082338676 0.06065457
-0.35756147 0.2888565 -0.1444872 0.121791735 0.5488724 0.03475368 0.0010518895 0.22236316
0.35644582 0.22317797 -0.8880249 -0.42793483 -0.34524703 -0.16299136 -0.38728553 -0.13107659
0.37948987 -0.105298385 -0.38439935 0.37153375 0.111302786 0.20014624 0.28471226 0.1399995
-0.30623353 -0.12277016 0.46357608 -0.12365728 -0.116687596 -0.9455568 0.61383665 0.25040302
0.16063316 -0.3844499 0.11524868 -0.008777292 0.16509996 -0.6895551 -0.08769998 0.07717899
0.49048543 -0.18722455 -0.036953356 -0.034834474 -0.030215442 0.1376189 0.3608466 0.5297218
00000000: 2575 8dbe 6fcf 19bf 34f3 e73e a043 aa3b
00000010: 1e44 babe 9b95 983c 68f1 38be 8164 543f
00000020: 88bc c0bd d65e a9be ad35 a8bc 6d6c 0fbf
00000030: 03cd 12be 6eb9 99bc 5e79 4cbe 8252 a13e
00000040: 27cd d73d 111f 15bf 3a73 48bf bd82 b1bd
00000050: f70c 88be 60f4 8c3e efd0 9bbe db48 2bbe
00000060: 55a7 6bbe 04ef bebe 30df 113e a8f1 94bc
00000070: 60c3 a13e e909 24bf 85c1 13be 919c 23bf
00000080: 4553 c83e 87c8 14bf dadb 1e3f b486 f63d
00000090: 8f52 a83d d088 3a3d 000c 473e c93c fb3d
000000a0: e4cc adbe 844c 06be b96b 143f 666b b43e
000000b0: 1a12 bdbd 3423 ff3e 2ea1 a8bd ed70 783d
000000c0: 4c12 b7be 00e5 933e 74f4 13be f26d f93d
000000d0: e782 0c3f e059 0e3d 8edf 893a 2bb3 633e
000000e0: 1180 b63e c488 643e 9a55 63bf 461a dbbe
000000f0: 38c4 b0be 35e7 26be 4a4a c6be f138 06be
00000100: 7f4c c23e aea6 d7bd fecf c4be ac39 be3e
00000110: b7f2 e33d 23f3 4c3e cec5 913e 075c 0f3e
00000120: a4ca 9cbe ec6e fbbd d859 ed3e 0740 fdbd
00000130: e8f9 eebd 0310 72bf 6624 1d3f d334 803e
00000140: 057d 243e 9ed6 c4be 8007 ec3d a2ce 0fbc
00000150: f70f 293e af86 30bf 0c9c b3bd 0510 9e3d
00000160: e820 fb3e cbb7 3fbe 675c 17bd 98ae 0ebd
00000170: 6086 f7bc f8eb 0c3e e3c0 b83e d99b 073f

player_tree_4.bias f4 [8]
0.049283657 0.11718926 0.036377296 -0.14931722 0.054480292 0.078011565 0.019410487 -0.06164274
00000000: a9dd 493d ec00 f03d 5c00 153d 9de6 18be
00000010: ba26 5f3d 87c4 9f3d be02 9f3c 197d 7cbd

sun_influence_1.W.weight f4 [12, 12]
0.4022083 -0.047060244 0.022663483 0.9559256 -0.017281229 0.45364237 0.36922565 0.9400893
-0.3229501 0.015462476 0.0982352 0.16117698 -0.2700561 0.44390863 0.26656798 0.12121691
0.012613597 0.06261518 -0.07878011 0.06351033 0.33089763 -0.11271616 0.31003782 0.44971374
-0.3422111 -0.1879975 0.010728829 0.048463028 -0.4934712 0.2987815 -0.24307227 -0.2821197
-0.26610148 -0.40898082 -0.29773843 -0.23510602 -0.14225727 0.0531962 -0.023435226 0.16079783
0.3064565 -0.47368836 0.44237912 0.79733706 0.33289036 -0.46667817 -0.2597518 0.2412591
0.23884816 0.020607967 0.25013506 -0.4945513 -0.4270078 -0.19775707 0.16802397 -0.06841057
0.13315938 0.081068926 0.62465763 0.501955 -0.1629753 0.17147799 0.36022565 -0.4498266
-0.14447698 0.02219923 0.2062667 0.43379328 0.2615164 0.036317177 -0.13466771 0.16083845
0.28274256 -0.4180328 -0.48411033 -0.42742112 0.18374705 -0.42635888 0.33085033 -0.305809
-0.4874626 -0.052818824 0.34712702 0.3351662 0.056184314 0.34283343 0.26847413 -0.10022801
-0.022350702 0.2812501 -0.1563266 -0.29171222 -0.18665916 0.22237581 -0.17482147 -0.45616007
0.100200325 -0.7337287 0.2761204 -0.17110464 0.27597407 0.026814437 -0.3475795 -0.019326974
0.25163496 0.13503058 0.30535734 0.05987894 -0.34949532 0.3830017 -0.13653043 0.13382298
0.09768705 -0.22521806 -0.25315523 -0.21053444 0.5625155 -0.00083294476 -0.43467042 0.13800508
-0.3417948 -0.076717064 -0.4049902 0.06435165 -0.36720195 -0.019926019 -0.17921123 0.65683824
-0.564143 -0.5112927 0.50386226 -0.09797923 -0.3195969 -0.23009865 -0.08836911 0.16576217
-0.49810043 -0.27851006 -0.10273468 -0.82095546 -0.09530806 -0.02391628 0.66500205 0.6247552
00000000: 3fee cd3e 3ec2 40bd c5a8 b93c 8ab7 743f
00000010: 5d91 8dbc d043 e83e 250b bd3e b1a9 703f
00000020: b759 a5be 5356 7d3c 892f c93d 940b 253e
00000030: cb44 8abe fe47 e33e 997b 883e 9240 f83d
00000040: 43a9 4e3c 633c 803d 7757 a1bd b411 823d
00000050: 6a6b a93e bbd7 e6bd 47bd 9e3e e140 e63e
00000060: 4b36 afbe 6b82 40be f8c7 2f3c 2b81 463d
00000070: 42a8 fcbe e4f9 983e f0e7 78be fe71 90be
00000080: 743e 88be ef65 d1be 2c71 98be a2bf 70be
00000090: e4ab 11be 42e4 593d 3bfb bfbc 30a8 243e
000000a0: dee7 9c3e 4887 f2be 847f e23e 481e 4c3f
000000b0: 9b70 aa3e 71f0 eebe 30fe 84be a00c 773e
000000c0: 9d94 743e 0ad2 a83c b411 803e d435 fdbe
000000d0: c4a0 dabe d480 4abe 7a0e 2c3e d71a 8cbd
000000e0: ef5a 083e 7707 a63d 90e9 1f3f 1f80 003f
000000f0: ffe2 26be ed97 2f3e 7f6f b83e ac4f e6be
00000100: c6f1 13be 29db b53c 9437 533e 271a de3e
00000110: 7ae5 853e 52c1 143d 55e6 09be d6b2 243e
00000120: a2c3 903e 6508 d6be 4fdd f7be f1d6 dabe
00000130: 3028 3c3e b64b dabe 3765 a93e ff92 9cbe
00000140: b394 f9be 8d58 58bd a2ba b13e e79a ab3e
00000150: 8621 663d dd87 af3e 7175 893e 5844 cdbd
00000160: d218 b7bc 0300 903e 1514 20be 4e5b 95be
00000170: 9423 3fbe 7cb6 633e 6604 33be d08d e9be
00000180: d435 cd3d a5d5 3bbf a75f 8d3e 0e36 2fbe
00000190: 794c 8d3e f3a9 db3c f1f5 b1be 9a53 9ebc
000001a0: 4cd6 803e 7545 0a3e cc57 9c3e 9f43 753d
000001b0: 0df1 b2be cc18 c43e a2ce 0bbe e408 093e
000001c0: 2610 c83d 909f 66be 909d 81be 5796 57be
000001d0: 0401 103f fa59 5aba 1f8d debe 3451 0d3e
000001e0: baff aebe d61d 9dbd e05a cfbe ccca 833d
000001f0: e501 bcbe e43b a3bc 2683 37be 8d26 283f
00000200: ad6b 10bf 14e4 02bf 1efd 003f 56a9 c8bd
00000210: 34a2 a3be fb9e 6bbe ddfa b4bd 8fbd 293e
00000220: 0507 ffbe df98 8ebe 8f66 d2bd 232a 52bf
00000230: df30 c3bd 13ec c3bc 933d 2a3f f5ef 1f3f

sun_influence_1.W.bias f4 [12]
-0.046135772 -0.047585897 0.13458483 -0.07384243 -0.037823748 -0.033743892 -0.10608819 -0.09099816
-0.17804758 -0.07914511 -0.008226077 0.06298453
00000000: ddf8 3cbd 6ee9 42bd 9bd0 093e b33a 97bd
00000010: 13ed 1abd 0937 0abd c444 d9bd 3e5d babd
00000020: 1b52 36be d516 a2bd abc6 06bc 09fe 803d

sun_influence_1.W_self.weight f4 [12, 12]
-0.36910436 0.023345865 0.6556457 -0.02238924 0.12864198 0.2915164 0.58620983 -0.5164667
0.4698599 0.060699794 0.87674665 0.5303787 0.36116952 -0.52341133 -0.35152486 0.19262087
0.5290558 0.112225376 -0.12639809 0.038011976 0.54618293 0.16981621 -0.3127333 -0.43705395
-0.35657072 -0.13100922 -0.26915294 -0.046203014 -0.21716839 -0.6140088 0.42009202 0.3011034
-0.33092362 0.5767718 0.5927169 0.11068926 0.29474354 0.18662956 -0.22530732 0.45474547
-0.1866921 -0.34525406 -0.348433 0.044150442 -0.238125 -0.39971912 -0.4928687 -0.17906904
-0.2573498 -0.27861533 -0.5635297 -0.18486483 0.44779196 -0.10123262 -0.31829667 0.27480403
-0.6663666 -0.28341517 0.17583364 -0.07107227 0.2695279 0.58356506 0.6590618 -0.5644372
0.060478065 0.6105822 0.10779435 -0.2690171 -0.15477118 1.0291076 -0.40847984 -0.021058833
0.19251437 -0.36565754 -0.33254647 -0.03166325 0.33442524 -0.0024432344 0.61738217 0.74228954
0.0041422877 -0.06686707 0.28492168 0.06778584 0.5037792 0.229993 -0.47448352 0.5378356
0.39483458 0.2621691 0.4931902 -0.062600456 0.4671178 0.018198706 0.3351127 0.033402413
0.44480318 -0.20322607 0.449656 0.12245828 -0.018021356 -0.02491348 -0.156636 0.4470312
-0.2790801 -0.07415398 -0.30163816 0.058165804 0.5421536 0.27984178 0.5128189 -0.16315241
0.14414497 -0.19545525 -0.2233585 -0.23337324 -0.6118372 -0.2047018 -0.17789967 0.3640247
-0.36329436 -0.2973943 -0.15795855 0.18601915 -0.2292427 -0.06885669 -0.10817425 0.29085538
-0.5227001 -0.4274678 -0.14090303 -0.54521656 0.11335093 -0.40899387 -0.09107693 -0.47341785
0.3632552 -0.09048301 0.18998845 0.16743092 -0.07237435 -0.2581271 -0.27894893 -0.28464067
00000000: 3ffb bcbe d43f bf3c 66d8 273f a469 b7bc
00000010: b9ba 033e a341 953e d911 163f 2937 04bf
00000020: 7a91 f03e 59a0 783d 7872 603f e6c6 073f
00000030: 36eb b83e 49fe 05bf 11fb b3be 683e 453e
00000040: 3370 073f 6bd6 e53d 806e 01be 72b2 1b3d
00000050: a5d2 0b3f 4de4 2d3e 941e a0be 89c5 dfbe
00000060: 7090 b6be 4827 06be 6ace 89be 5f3f 3dbd
00000070: 6461 5ebe ae2f 1dbf 4d16 d73e 3a2a 9a3e
00000080: d26e a9be 51a7 133f 4bbc 173f 0db1 e23d
00000090: a0e8 963e d21b 3f3e f6b6 66be 66d4 e83e
000000a0: 372c 3fbe 24c5 b0be cf65 b2be 18d7 343d
000000b0: 0ad7 73be fca7 ccbe 4959 fcbe e05d 37be
000000c0: 5ac3 83be aba6 8ebe 7b43 10bf 354d 3dbe
000000d0: fd44 e53e 0c53 cfbd c8f7 a2be 1db3 8c3e
000000e0: 0097 2abf cb1b 91be bc0d 343e 578e 91bd
000000f0: 90ff 893e 8564 153f 46b8 283f f57e 10bf
00000100: d9b7 773d 1d4f 1c3f 49c3 dc3d 9cbc 89be
00000110: 567c 1ebe ccb9 833f 4524 d1be 9383 acbc
00000120: 7d22 453e 7737 bbbe 8843 aabe 53b1 01bd
00000130: c939 ab3e ac1e 20bb c20c 1e3f b006 3e3f
00000140: 07bc 873b 9af1 88bd 41e1 913e 4dd3 8a3d
00000150: acf7 003f 4983 6b3e 81ef f2be 98af 093f
00000160: c227 ca3e 073b 863e 6d83 fc3e ab34 80bd
00000170: 102a ef3e 7415 953c e493 ab3e f8d0 083d
00000180: 3ebd e33e 7f1a 50be 5039 e63e 68cb fa3d
00000190: 86a1 93bc 5b17 ccbc 3065 20be 46e1 e43e
000001a0: 96e3 8ebe 0bde 97bd 5170 9abe 443f 6e3d
000001b0: 94ca 0a3f 6c47 8f3e 1948 033f 6d11 27be
000001c0: bd9a 133e 6c25 48be 17b8 64be 65f9 6ebe
000001d0: 5da1 1cbf 599d 51be 552b 36be 7261 ba3e
000001e0: b801 babe 1144 98be e3bf 21be ce7b 3e3e
000001f0: 99be 6abe bc04 8dbd 768a ddbd ffea 943e
00000200: accf 05bf 0fdd dabe e248 10be 5093 0bbf
00000210: 8824 e83d a567 d1be 8b86 babd d363 f2be
00000220: 96fc b93e 284f b9bd 558c 423e 0373 2b3e
00000230: 0139 94bd 3c29 84be 65d2 8ebe 6cbc 91be

sun_influence_1.W_self.bias f4 [12]
-0.046135772 -0.047585897 0.13458483 -0.07384243 -0.037823748 -0.033743892 -0.10608819 -0.09099816
-0.17804758 -0.07914511 -0.008226077 0.06298453
00000000: ddf8 3cbd 6ee9 42bd 9bd0 093e b33a 97bd
00000010: 13ed 1abd 0937 0abd c444 d9bd 3e5d babd
00000020: 1b52 36be d516 a2bd abc6 06bc 09fe 803d

sun_influence_2.W.weight f4 [12, 12]
-0.11175714 -0.33408335 0.47700697 -1.1517739 -0.40223944 -0.6493065 0.13367216 0.073681004
0.32692733 0.111556135 -0.86585766 -0.44467503 -0.14694235 -0.6831218 0.12966181 -0.117556654
0.020254968 -0.08396623 0.12871946 0.10719854 -0.31892174 0.13663489 -0.024854546 -0.23012495
-0.32650355 -0.022263858 -0.15525968 -0.065854594 0.26866788 -0.7023725 -0.27516437 -0.16320096
0.23387605 0.15561865 -0.6319223 0.44069722 0.20150128 -0.24193157 0.42235386 0.48969135
0.5736953 0.035770107 -0.42434675 0.43516305 0.46261063 0.08653718 0.32686055 0.53766924
-0.38162285 -0.75415015 0.37760857 -0.9436942 -0.40726775 0.26804498 -0.023792956 0.5073662
0.021697095 0.08861504 0.095934644 -0.07106101 0.06273551 -0.5876084 0.27712846 0.39294365
-0.58601946 -0.487387 0.15496711 0.34999332 0.33647156 -1.080059 0.3989975 -0.47931704
0.5204392 -0.46853712 -0.37609097 -0.5227939 0.44211626 0.40393832 0.098472685 0.11045331
-0.39349362 0.6058299 -0.040839344 0.1882944 -0.18779814 -0.33548748 0.18585968 0.4665193
-0.37912643 -0.23517103 -0.06835114 -0.2611029 -0.22776486 -0.13707703 0.08160933 -0.7260394
-0.5993717 -0.41064063 0.19562513 0.012773346 -0.0013914006 -0.5586358 -0.40924296 -0.37658796
-0.21239349 0.019587515 0.478118 0.0845926 0.18861237 -0.0028041087 -0.19159634 0.13307782
0.12924148 -0.3975223 -0.27348295 0.048902865 0.23643158 -0.7507212 -0.38012666 0.34229898
0.25674388 -0.019542377 0.44372293 -0.52385116 -0.38357577 0.100521185 -0.54253066 -0.54313487
-0.1523884 0.34031615 0.042772546 -0.07226785 0.79879564 -0.07395525 0.010118307 0.1795501
0.16883066 0.33551836 -0.17735206 0.07900631 0.12919497 0.28235087 0.38682267 0.573574
00000000: ede0 e4bd f90c abbe 423a f43e 546d 93bf
00000010: 54f2 cdbe f338 26bf 5be1 083e 11e6 963d
00000020: 0563 a73e 8b77 e43d d9a8 5dbf 72ac e3be
00000030: 0e78 16be 12e1 2ebf 11c6 043e 8bc1 f0bd
00000040: bfed a53c 7df6 abbd 09cf 033e e88a db3d
00000050: b649 a3be 04ea 0b3e c39b cbbc e0a5 6bbe
00000060: 792b a7be b262 b6bc 65fc 1ebe c6de 86bd
00000070: d68e 893e afce 33bf 58e2 8cbe 271e 27be
00000080: 347d 6f3e 7f5a 1f3e a9c5 21bf 11a3 e13e
00000090: 5a56 4e3e e9bc 77be c43e d83e d3b8 fa3e
000000a0: b2dd 123f ad83 123d fa43 d9be b1cd de3e
000000b0: 4ddb ec3e 683a b13d 445a a73e b1a4 093f
000000c0: 1264 c3be fc0f 41bf e955 c13e f195 71bf
000000d0: 6685 d0be 313d 893e 72e9 c2bc c0e2 013f
000000e0: 1bbe b13c cd7b b53d 6279 c43d 6f88 91bd
000000f0: 7a7b 803d 816d 16bf c8e3 8d3e e92f c93e
00000100: 5f05 16bf ca8a f9be b3af 1e3e 5332 b33e
00000110: 0046 ac3e 603f 8abf 6649 cc3e 0b69 f5be
00000120: 813b 053f 19e4 efbe ff8e c0be d2d5 05bf
00000130: 105d e23e 01d1 ce3e 0cac c93d 5835 e23d
00000140: ff77 c9be ab17 1b3f 2847 27bd 3fd0 403e
00000150: 284e 40be 04c5 abbe 0052 3e3e 9edb ee3e
00000160: dc1c c2be add0 70be affb 8bbd 48af 85be
00000170: 313b 69be ec5d 0cbe cb22 a73d b8dd 39bf
00000180: 6c70 19bf 7d3f d2be f451 483e 4c47 513c
00000190: a85f b6ba c102 0fbf 4b88 d1be 23d0 c0be
000001a0: ae7d 59be ff75 a03c e2cb f43e e33e ad3d
000001b0: 9a23 413e 23c5 37bb d531 44be 8d45 083e
000001c0: e157 043e 0b88 cbbe f505 8cbe 5f4e 483d
000001d0: 1f1b 723e 442f 40bf f69f c2be d041 af3e
000001e0: ef73 833e 5617 a0bc a72f e33e 1c1b 06bf
000001f0: 0b64 c4be 0dde cd3d 4ae3 0abf e30a 0bbf
00000200: b40b 1cbe eb3d ae3e 4432 2f3d 2b01 94bd
00000210: df7d 4c3f da75 97bd 41c7 253c fbdb 373e
00000220: f2e1 2c3e 10c9 ab3e c79b 35be 0fce a13d
00000230: b04b 043e 4b90 903e 9f0d c63e bfd5 123f

sun_influence_2.W.bias f4 [12]
0.07695938 -0.12728705 0.13593145 0.02233954 -0.039098475 -0.13946159 -0.122527726 -0.116889454
0.048226286 -0.091202796 -0.16493957 -0.06904762
00000000: e19c 9d3d 8957 02be 9d31 0b3e 6901 b73c
00000010: b925 20bd 05cf 0ebe d1ef fabd bd63 efbd
00000020: ed88 453d 88c8 babd ebe5 28be d768 8dbd

sun_influence_2.W_self.weight f4 [12, 12]
0.047806215 -0.101274796 0.15909317 0.027794585 -0.36146042 -0.56030434 0.25656015 0.084906355
-0.08377779 -0.22501267 -0.106665894 0.50631654 0.4461735 -0.48226056 0.4809679 -0.7288555
0.7868854 -0.098206766 0.37484857 -0.063806 0.0075334325 0.35069877 -0.40639317 0.20078799
0.5152357 0.34107557 0.24953793 0.1520879 0.08064359 0.36678916 0.4270762 0.7148905
0.14642389 0.80358976 -0.10804784 0.084432125 0.026287595 0.3188665 -0.29854965 0.12183762
0.56767267 -0.64375407 0.14556922 0.11660834 0.16550173 -0.066357635 -0.13640566 -0.02846993
-0.691956 -0.20258026 -0.11279908 -0.15574521 0.095427714 0.033787545 0.02355246 0.30334437
0.19001147 -0.0824575 -0.28404042 -0.35214522 -0.12244923 -0.50794244 -0.1054575 -0.092010975
-0.37274075 -0.4790892 0.17087898 0.07938032 0.016726494 -0.57911 -0.05133985 -0.07610626
-0.090565726 0.1374068 -0.4398002 0.26682332 0.37677374 -0.15615392 -0.19702087 0.4877187
0.400688 0.21946579 -0.076377116 -0.13383357 -0.28684196 -0.16321957 0.053946584 0.27316716
0.1020549 -0.07847903 0.23070301 -0.13327034 -0.18793288 0.33633003 0.2539566 0.14550607
-0.07823256 -0.04748676 0.25491 0.012210121 -0.022622792 -0.74982125 -0.5083114 -0.406648
-0.2338693 -0.58381563 0.16350205 0.3053678 0.17995262 -0.41524255 0.0059004608 0.5579893
0.32787415 0.19362861 -0.11881931 -0.20238754 0.5257004 -0.009706702 0.15301074 0.12958965
-0.6706449 0.080685124 0.049750403 -0.20797971 0.32675007 -0.25303835 -0.11296989 -0.18991396
-0.033106 -0.3803211 -0.07620462 -0.22042409 0.29844126 0.23961869 -0.34160197 0.32480076
0.073342 -0.29950973 0.39862186 0.3268073 -0.29729515 0.4775991 0.4214631 -0.29162693
00000000: 73d0 433d 2969 cfbd 52e9 223e 78b1 e33c
00000010: 5711 b9be 1b70 0fbf da5b 833e 62e3 ad3d
00000020: b193 abbd b969 66be a673 dabd f69d 013f
00000030: da70 e43e dbea f6be 6d41 f63e 4696 3abf
00000040: 5271 493f a120 c9bd 27ec bf3e b8ac 82bd
00000050: 03db f63b ca8e b33e c412 d0be 5e9b 4d3e
00000060: 7de6 033f 75a1 ae3e df86 7f3e eebc 1b3e
00000070: 7728 a53d cacb bb3e bba9 da3e 1003 373f
00000080: 25f0 153e 0fb8 4d3f 3048 ddbd c0ea ac3d
00000090: 1559 d73c 7842 a33e 80db 98be 0186 f93d
000000a0: ff52 113f 11cd 24bf 1910 153e 5ad0 ee3d
000000b0: 4979 293e 83e6 87bd edad 0bbe c539 e9bc
000000c0: 0724 31bf 3371 4fbe 3403 e7bd ac7b 1fbe
000000d0: 9b6f c33d cf64 0a3d 17f1 c03c f44f 9b3e
000000e0: 5e92 423e 7adf a8bd bf6d 91be 614c b4be
000000f0: a9c6 fabd 8408 02bf 1afa d7bd 4070 bcbd
00000100: e0d7 bebe 2e4b f5be e6fa 2e3e 2692 a23d
00000110: 0006 893c 8e40 14bf bc49 52bd 99dd 9bbd
00000120: 867a b9bd 5eb4 0c3e 7e2d e1be 119d 883e
00000130: 7de8 c03e d0e6 1fbe d7bf 49be 44b6 f93e
00000140: fa26 cd3e a4bb 603e 9b6b 9cbd ab0b 09be
00000150: f3dc 92be 0823 27be 18f7 5c3d 91dc 8b3e
00000160: 2902 d13d 9db9 a0bd 693d 6c3e 0578 08be
00000170: 7a71 40be 7333 ac3e 9906 823e 8bff 143e
00000180: 6438 a0bd 7a81 42bd 9083 823e f60c 483c
00000190: 6f53 b9bc 49f4 3fbf b220 02bf 2b34 d0be
000001a0: 6f7b 6fbe f174 15bf 156d 273e 2b59 9c3e
000001b0: 8045 383e ac9a d4be a758 c13b 63d8 0e3f
000001c0: 1fdf a73e 9446 463e 8a57 f3bd ae3e 4fbe
000001d0: 4d94 063f dc08 1fbc d9ae 1c3e 26b3 043e
000001e0: 62af 2bbf 3e3e a53d 14c7 4b3d a2f8 54be
000001f0: c94b a73e 3e8e 81be c25c e7bd ce78 42be
00000200: 289a 07bd 72b9 c2be 2b11 9cbd dab6 61be
00000210: 4bcd 983e 9a5e 753e 74e6 aebe 494c a63e
00000220: 5534 963d 5759 99be 2a18 cc3e 4953 a73e
00000230: 1237 98be df87 f43e 03ca d73e 2050 95be

sun_influence_2.W_self.bias f4 [12]
0.07695938 -0.12728705 0.13593145 0.02233954 -0.039098475 -0.13946159 -0.122527726 -0.116889454
0.048226286 -0.091202796 -0.16493957 -0.06904762
00000000: e19c 9d3d 8957 02be 9d31 0b3e 6901 b73c
00000010: b925 20bd 05cf 0ebe d1ef fabd bd63 efbd
00000020: ed88 453d 88c8 babd ebe5 28be d768 8dbd

sun_influence_3.W.weight f4 [12, 12]
-0.25900397 0.34664994 0.085370675 -0.22146034 -0.013658065 -0.20994447 0.55920357 0.3383705
0.22053054 -0.2732793 0.2696109 0.5844526 0.4934043 -0.30919608 0.548583 -0.25948882
-0.7523807 0.38765815 -0.6694983 -0.022268524 -0.1444282 -0.2620633 0.17696725 0.13900381
-0.8590431 -0.37354374 -0.34969255 0.18522179 0.0964883 0.5268662 -0.4056223 0.3214107
0.51622856 -0.17957062 0.22790575 0.46251634 -0.18641247 -0.75761825 -0.06349048 0.019907154
-0.33372718 -0.23419654 -0.2893194 0.20317946 -0.11210338 0.038173985 -0.32034522 -0.42274642
-0.13600585 0.34626645 0.20303597 -0.32136288 -0.1689502 0.29173437 0.065061 0.35751516
0.1458292 0.13065931 0.26729304 0.08945709 0.23780356 -0.36900708 -0.009530333 0.15313707
0.64247483 0.30886406 0.11553442 -0.21018271 0.26982132 0.24993582 0.3365474 -0.3588236
0.32794267 -0.30261132 -0.18063208 -0.26624456 0.0006882788 -0.12880827 0.524953 -0.06234294
0.69957894 0.19568893 -0.30462015 0.364507 -0.20464797 0.17697808 0.28374404 -0.30679062
0.10329692 -0.56044614 0.2314141 0.34889016 -0.5976011 -0.24940649 -0.30079877 0.5805652
-0.26738825 0.3173303 -0.0089800935 -0.03038984 0.07248875 0.30385122 -0.09577976 -0.21848151
-0.13499384 0.3148094 0.22609784 -0.42000005 0.3975818 -0.06762938 -0.46385214 -1.1552538
0.16419744 0.15769535 0.07019324 0.5536419 0.53583986 -0.19560899 0.92808867 -0.5892082
0.67765224 0.35527274 0.08403276 -0.40550622 0.10680415 -0.38901773 0.20997243 0.376661
0.30668953 0.32664 -0.31028676 0.19419883 0.007822154 0.023591263 -0.0008799643 -0.18297553
0.08114164 -0.60953265 0.41828364 -0.1488792 -0.8228675 -0.14744022 0.2763202 0.78977364
00000000: 2b9c 84be 1a7c b13e d2d6 ae3d 80c6 62be
00000010: 14c6 5fbc affb 56be f727 0f3f e63e ad3e
00000020: c2d2 613e 44eb 8bbe 710a 8a3e b09e 153f
00000030: 7d9f fc3e f34e 9ebe ef6f 0c3f b8db 84be
00000040: 069c 40bf 217b c63e 3e64 2bbf 7b6c b6bc
00000050: fce4 13be 292d 86be e736 353e 0457 0e3e
00000060: 40ea 5bbf 2041 bfbe e70a b3be c8aa 3d3e
00000070: a89b c53d b4e0 063f baad cfbe f18f a43e
00000080: 8e27 043f 5ce1 37be 2060 693e f1ce ec3e
00000090: e9e2 3ebe 45f3 41bf 4c07 82bd 5414 a33c
000000a0: 4ade aabe 38d1 6fbe ac21 94be 470e 503e
000000b0: 7596 e5bd 535c 1c3d 4a04 a4be 3872 d8be
000000c0: 1e45 0bbe d649 b13e a9e8 4f3e ad89 a4be
000000d0: 4801 2dbe 355e 953e b43e 853d 3a0c b73e
000000e0: 4054 153e 8ecb 053e a2da 883e 4735 b73d
000000f0: c782 733e 7fee bcbe 1d25 1cbc f7cf 1c3e
00000100: 3b79 243f 6e23 9e3e 4f9d ec3d 233a 57be
00000110: 0526 8a3e 2def 7f3e f14f ac3e bab7 b7be
00000120: 1ae8 a73e dfef 9abe 9ef7 38be 3551 88be
00000130: 9c6d 343a 51e6 03be 5263 063f 505b 7fbd
00000140: 9b17 333f ae62 483e 2cf7 9bbe a9a0 ba3e
00000150: 3d8f 51be be39 353e e646 913e a913 9dbe
00000160: 568d d33d 6679 0fbf d1f7 6c3e bba1 b23e
00000170: 63fc 18bf 6a64 7fbe 4c02 9abe ec9f 143f
00000180: 1de7 88be 1e79 a23e 3e21 13bc 1df4 f8bc
00000190: fb74 943d 6392 9b3e 2e28 c4bd 9eb9 5fbe
000001a0: d33b 0abe b32e a13e 3186 673e 3f0a d7be
000001b0: d78f cb3e 4681 8abd 077e edbe 5bdf 93bf
000001c0: 6023 283e e47a 213e 79c1 8f3d 7abb 0d3f
000001d0: cd2c 093f b94d 48be 3897 6d3f 59d6 16bf
000001e0: 9e7a 2d3f 4fe6 b53e 5e19 ac3d 839e cfbe
000001f0: 22bc da3d 552d c7be 0303 573e b6d9 c03e
00000200: 6906 9d3e 5c3d a73e e8dd 9ebe 0fdc 463e
00000210: 7e28 003c 7742 c13c 68ad 66ba f05d 3bbe
00000220: 972d a63d 550a 1cbf 4629 d63e ca73 18be
00000230: 72a7 52bf 92fa 16be d779 8d3e 9b2e 4a3f

sun_influence_3.W.bias f4 [12]
-0.065232836 -0.0015421404 -0.001761439 -0.11129177 -0.019191818 -0.1010406 -0.13285439 -0.03617942
0.15247148 0.1215921 -0.06879177 0.007963948
00000000: cb98 85bd a521 caba 16e0 e6ba f1ec e3bd
00000010: 2938 9dbc 60ee cebd fb0a 08be df30 14bd
00000020: 7c21 1c3e 4705 f93d b3e2 8cbd 387b 023c

sun_influence_3.W_self.weight f4 [12, 12]
-0.6178401 0.33759257 -0.16024804 -0.009181776 0.08797852 -0.20981036 -0.024196133 -0.2338571
-0.35738805 0.33531556 -0.048060313 -0.15466154 0.099070765 0.08955673 0.16194275 0.33591768
-0.41847765 0.042578675 0.28230017 0.31511807 -0.4423843 0.015206478 -0.023007302 -0.5743498
-0.34348843 0.52131927 -0.34811506 -0.24351919 -0.123677686 0.32481167 -0.036526117 -0.035678286
0.058248732 -0.19587089 -0.34496415 -0.26156706 0.12354809 0.46380177 0.1355353 0.015468281
-0.13337786 0.057128925 0.16366372 -0.4526805 0.118613414 -0.50880635 0.38871548 0.25142968
0.12894516 -0.10876911 -0.06822891 -0.62532693 0.13386625 -0.0012501854 0.3144606 0.058843102
-0.5682632 -0.3524306 -0.6258704 0.36152968 -0.4044629 0.21329695 0.11257989 0.31612742
-0.07720614 0.24651021 -0.0023702614 0.33544815 -0.10391927 0.6053239 -0.03232838 0.20787457
0.3846336 0.27386937 0.12833458 0.09405383 0.060745973 0.03489051 0.20311259 -0.5606634
0.13588116 -0.39276543 0.11165719 0.125524 0.24975687 0.46286947 -0.03571556 0.10286378
0.059726376 0.16632631 -0.0843879 -2.4722074e-05 -0.032140948 0.25140074 -0.039960705 0.15286775
-0.6217578 -0.019431474 -0.6411156 0.016633682 0.30612218 -0.028363636 0.19704771 0.0037088168
-0.069514565 -0.032515325 0.031050874 -0.08159448 0.66428655 0.321614 0.6972793 0.0131847095
-0.10616386 -0.086762264 -0.14908089 0.41255468 -0.16192777 0.42585024 -0.71673274 0.22545469
0.18065667 0.052073125 -0.29021102 0.055775214 -0.43745473 0.3792796 -0.47855356 0.044778794
0.19233127 -0.018385652 -0.11120496 -0.33087137 -0.120287366 -0.28788748 0.029597605 0.30192974
0.1285799 -0.14106363 0.07397519 -0.7214167 -0.26122773 -0.30878636 -0.35911635 0.045367427
00000000: c52a 1ebf efd8 ac3e 1018 24be 296f 16bc
00000010: 152e b43d 87d8 56be f836 c6bc 3c78 6fbe
00000020: 91fb b6be 7bae ab3e e4da 44bd 985f 1ebe
00000030: 9de5 ca3d 8569 b73d 52d4 253e 67fd ab3e
00000040: b442 d6be fa66 2e3d a689 903e 2857 a13e
00000050: 3280 e2be 9724 793c cf79 bcbc 9708 13bf
00000060: b7dd afbe 2e75 053f 233c b2be 185d 79be
00000070: ba4a fdbd b74d a63e 699c 15bd 6523 12bd
00000080: 3996 6e3d 6192 48be 249f b0be 1eec 85be
00000090: c806 fd3d 6d77 ed3e c4c9 0a3e ac6e 7d3c
000000a0: 3594 08be 0500 6a3d 7697 273e bdc5 e7be
000000b0: 97eb f23d 2241 02bf b705 c73e 64bb 803e
000000c0: 330a 043e 57c2 debd 99bb 8bbd 6d15 20bf
000000d0: 3c14 093e 43dd a3ba fb00 a13e 7705 713d
000000e0: b279 11bf c971 b4be 0b39 20bf 6b1a b93e
000000f0: c315 cfbe 846a 5a3e 4990 e63d 74db a13e
00000100: 411e 9ebd 2c6d 7c3e 6356 1bbb dcbf ab3e
00000110: a0d3 d4bd 82f6 1a3f c36a 04bd 12dd 543e
00000120: b2ee c43e 9b38 8c3e 246a 033e 4b9f c03d
00000130: c5d0 783d 5ae9 0e3d bffc 4f3e a387 0fbf
00000140: 6e24 0b3e 8d18 c9be 86ac e43d 5d89 003e
00000150: 44c0 7f3e 3afd ec3e 7b4a 12bd 3faa d23d
00000160: a5a3 743d 7251 2a3e 90d3 acbd 4062 cfb7
00000170: 3aa6 03bd 99b7 803e d6ad 23bd 5d89 1c3e
00000180: 852b 1fbf c12e 9fbc 2720 24bf 5c43 883c
00000190: 0cbc 9c3e db5a e8bc e0c6 493e 9f0f 733b
000001a0: a75d 8ebd ca2e 05bd 675e fe3c 021b a7bd
000001b0: af0e 2a3f 97aa a43e e580 323f ae04 583c
000001c0: 706c d9bd 6ab0 b1bd a9a8 18be 5e3a d33e
000001d0: 65d0 25be 0b09 da3e cc7b 37bf 98dd 663e
000001e0: 10fe 383e a14a 553d 8a96 94be 8d74 643d
000001f0: 11fa dfbe f030 c23e f904 f5be f869 373d
00000200: 7df2 443e 829d 96bc 6dbf e3bd f967 a9be
00000210: 3959 f6bd fd65 93be ad76 f23c 8996 9a3e
00000220: 73aa 033e fc72 10be 4e80 973d c4ae 38bf
00000230: a4bf 85be 3f19 9ebe 19de b7be 32d3 393d

sun_influence_3.W_self.bias f4 [12]
-0.065232836 -0.0015421404 -0.001761439 -0.11129177 -0.019191818 -0.1010406 -0.13285439 -0.03617942
0.15247148 0.1215921 -0.06879177 0.007963948
00000000: cb98 85bd a521 caba 16e0 e6ba f1ec e3bd
00000010: 2938 9dbc 60ee cebd fb0a 08be df30 14bd
00000020: 7c21 1c3e 4705 f93d b3e2 8cbd 387b 023c

sun_influence_4.weight f4 [8, 12]
-0.5268163 -0.34534916 -0.0017299958 0.319452 -0.0026089225 -0.9542912 0.25114277 0.050365854
0.28170356 -0.9346388 0.33311337 0.8460848 0.28025624 0.47001922 0.0843259 0.28390408
-0.14682749 -0.16936821 -0.053259622 -0.13868658 -0.017191954 -0.8614223 -0.028180195 -0.012610312
-0.11087132 0.38566998 0.21895084 0.18273152 -0.23193711 -0.20974858 -0.011528777 -0.14886077
0.38325876 -0.09737754 -0.021515284 0.05924997 -0.20724374 0.5602413 -0.23355854 0.17796823
0.081979394 -0.1884527 0.13438392 0.27879012 0.28427726 -0.38424125 0.23459494 -0.4685495
0.13323937 0.045711216 0.7017168 -0.113254726 0.5519572 0.15779346 0.5788692 0.46537885
0.55064756 -0.35226756 0.4139786 0.42321923 -0.1102784 0.24333805 -0.13292848 0.03331573
-0.19021966 0.014465472 -0.5735325 0.50452816 0.021473622 -0.40189844 0.5115638 -0.2004854
-0.39509895 -0.03730974 -0.78372294 -0.08108773 0.01464036 0.20075385 -0.19093655 -0.13578048
-0.26085415 -0.23073603 -0.13508885 0.033686597 -0.25108075 -0.1401685 -0.06563814 0.23674074
0.23837051 -0.0011276085 -0.074083276 0.3767602 0.10246134 -0.11008551 -0.035459563 -0.40746087
00000000: 6fdd 06bf 9bd1 b0be 07c1 e2ba 368f a33e
00000010: 75fa 2abb 6e4c 74bf c995 803e 6d4c 4e3d
00000020: 733b 903e 7d44 6fbf d68d aa3e 0399 583f
00000030: bf7d 8f3e 5ca6 f03e 0fb3 ac3d e05b 913e
00000040: f259 16be dc6e 2dbe c326 5abd db03 0ebe
00000050: 24d6 8cbc 2c86 5cbf 27da e6bc 7b9b 4ebc
00000060: 8110 e3bd 8976 c53e a634 603e f91d 3b3e
00000070: ec80 6dbe 55c8 56be 32e3 3cbc f56e 18be
00000080: 7e3a c43e e06d c7bd d240 b0bc 19b0 723d
00000090: b437 54be f96b 0f3f f829 6fbe 4e3d 363e
000000a0: d0e4 a73d bff9 40be f09b 093e 94bd 8e3e
000000b0: ca8c 913e 45bb c4be a839 703e b8e5 efbe
000000c0: e76f 083e af3b 3b3d b6a3 333f 18f2 e7bd
000000d0: 114d 0d3f 9c94 213e c630 143f 2346 ee3e
000000e0: 3df7 0c3f 6a5c b4be 01f5 d33e 31b0 d83e
000000f0: a4d9 e1bd 9c2d 793e 671e 08be 1376 083d
00000100: f1c8 42be 9600 6d3c 07d3 12bf c228 013f
00000110: 73e9 af3c a2c5 cdbe d8f5 023f 0b4c 4dbe
00000120: 694a cabe 19d2 18bd 11a2 48bf 5311 a6bd
00000130: 1fde 6f3c 6b92 4d3e df84 43be 0a0a 0bbe
00000140: ad8e 85be 1146 6cbe bb54 0abe f5fa 093d
00000150: a88d 80be 5588 0fbe 4a6d 86bd 2a6c 723e
00000160: 6617 743e 43cc 93ba f9b8 97bd b7e6 c03e
00000170: 40d7 d13d 8374 e1bd 0c3e 11bd b69e d0be

sun_influence_4.bias f4 [8]
-0.109639026 0.06227034 0.1547777 0.16002049 -0.099541984 0.0419205 0.11270633 0.15025479
00000000: 6d8a e0bd 2f0f 7f3d 0c7e 1e3e 69dc 233e
00000010: abdc cbbd d5b4 2b3d 94d2 e63d 64dc 193e
