src/Photosynthesis/RL/SavedModels/model_44.pth (torch, 30290 bytes, 34 tensors)

player_tree_1.W.weight f4 [12, 12]
0	0xbd92d663	-0.07169797
1	0xbee448b8	-0.4458673
2	0x3ebe2bdb	0.37142834
3	0xbe56e072	-0.20984057
4	0x3e23b48b	0.1598684
5	0x3eaac4f2	0.33353382
6	0x3e00df2f	0.12585138
7	0x3ddcc9b9	0.10780663
8	0x3d6cf618	0.05785188
9	0x3eb8866e	0.36040062
10	0x3e3f269c	0.18667072
11	0xbd955213	-0.07291045
12	0xbe2bbe5d	-0.16771837
13	0x3ea347cf	0.31890723
14	0xbe5ac8d0	-0.21365666
15	0xbebd13fb	-0.36929306
16	0x3ea9bd7f	0.33152387
17	0x3df0b3d1	0.11753047
18	0xbc83716c	-0.016045295
19	0x3e50e276	0.20398888
20	0xbe99ef3a	-0.30065328
21	0x3f2b2586	0.6685413
22	0x3f49977e	0.78746784
23	0xbbd16cbb	-0.0063911355
24	0x3c5a4c45	0.013323848
25	0xbe63f025	-0.22259577
26	0x3dbbd829	0.09172089
27	0x3e9c7689	0.30559185
28	0x3e8f9261	0.28041366
29	0x3db04573	0.086069964
30	0xbd5c3b69	-0.053767595
31	0x3ee1eef6	0.44127625
32	0x3f0b494f	0.54408735
33	0x3ec92673	0.39287147
34	0x3d4e0611	0.050298754
35	0xbe43d013	-0.19122343
36	0xbdffd778	-0.12492269
37	0xbe9dc81f	-0.30816743
38	0xbdce07c5	-0.10060076
39	0xbca3d6da	-0.01999991
40	0xbe592343	-0.21204858
41	0x3e1613bd	0.14655967
42	0x3db7de0f	0.08977901
43	0xbda319a8	-0.07963878
44	0xbe372e02	-0.17888644
45	0xbcafc3c3	-0.021455651
46	0xbf5a4bba	-0.852718
47	0x3e0fb9fc	0.14035791
48	0x3d6994bc	0.05702661
49	0xbe0139de	-0.12619731
50	0xbd150557	-0.036382046
51	0xbe2ce182	-0.168829
52	0xbd903bfb	-0.0704269
53	0x3f22a59e	0.6353396
54	0x3e50a07d	0.20373721
55	0xbe12eab6	-0.14347348
56	0x3ec6ce93	0.3882948
57	0xbdaac65f	-0.083386175
58	0x3da2de5d	0.07952569
59	0x3b469d62	0.003030621
60	0x3deaf2a4	0.11472061
61	0x3e10cf56	0.14141592
62	0xbe906c20	-0.28207493
63	0x3d4127eb	0.04715721
64	0xbececca8	-0.40390515
65	0xbda8684b	-0.08223017
66	0xbdfb614c	-0.12274417
67	0xbca258e9	-0.019817786
68	0xbe584577	-0.21120249
69	0xba139c70	-0.0005630916
70	0xbe3c85a6	-0.18410358
71	0x3ead4862	0.33844286
72	0xbe2d8980	-0.16946983
73	0x3e681d90	0.22667527
74	0xbe490bd5	-0.1963342
75	0x3e1fcc23	0.15605216
76	0x3f3b11c4	0.73073983
77	0xbd18554e	-0.037190728
78	0x3f2e0691	0.6797877
79	0xbe847b0d	-0.2587513
80	0xbe854880	-0.26031876
81	0xbe8b90cc	-0.2725891
82	0xbe6295be	-0.22127435
83	0xbbbc3934	-0.005744124
84	0x3efa25b6	0.48856896
85	0x3e8ccbee	0.27499336
86	0x3cfd7ead	0.030944193
87	0xbdc9b866	-0.09849624
88	0x3dc56114	0.09637657
89	0xbe92eaaf	-0.28694674
90	0xbef2b7fc	-0.47405994
91	0xbd955a97	-0.07292669
92	0xbea00b17	-0.3125846
93	0x3eaad535	0.3336579
94	0x3ef74fd4	0.48303092
95	0xbd04504f	-0.03230315
96	0x3d7c89db	0.061654907
97	0xbe29920e	-0.16559622
98	0xbec176f6	-0.37786072
99	0x3e87f067	0.265506
100	0xbe32115a	-0.17389432
101	0xbe755860	-0.23959494
102	0x3dfb5419	0.122719
103	0x3d43b2a8	0.0477778
104	0xbef5b37f	-0.47988507
105	0x3dbc43d7	0.09192627
106	0x3ee4159c	0.44547737
107	0x3cb5b386	0.02218033
108	0xbe8fb599	-0.28068236
109	0xbddbc01d	-0.10730002
110	0xbed34c94	-0.41269362
111	0x3d6cb5c8	0.057790548
112	0xbd8ccc44	-0.06874898
113	0x3ed61062	0.41809374
114	0x3ea1805a	0.31543237
115	0x3f29359f	0.66097444
116	0xbe7a61d7	-0.24451385
117	0x3edf1ac2	0.43575102
118	0xbd925a9f	-0.07146191
119	0xbbb1599b	-0.005412293
120	0xbe995393	-0.29946575
121	0x3e96d9a5	0.29462925
122	0xbc13b7ab	-0.009015958
123	0xbcb70b46	-0.022344243
124	0xbed083f4	-0.40725672
125	0xbf8c9fc2	-1.0986254
126	0x3ea5cd54	0.32383215
127	0xbd583bb5	-0.052791316
128	0x3ce7ef8a	0.028312463
129	0x3c1d8477	0.009614102
130	0xbe439b29	-0.19102158
131	0xbdfb8f05	-0.12283138
132	0x3e33f0b4	0.1757229
133	0x3e944f86	0.28966922
134	0xbe2c886b	-0.16848914
135	0x3ebf4a4a	0.37361366
136	0xbdfbfc42	-0.12303974
137	0xbeb0b240	-0.34510994
138	0xbd6fd0bb	-0.05854867
139	0x3d34d0f5	0.04414459
140	0x3e9b6acb	0.30354914
141	0xbd6f20f9	-0.058381055
142	0x3e895faa	0.26830798
143	0x3f3d17a3	0.7386419

player_tree_1.W.bias f4 [12]
0	0xbba9473d	-0.005165963
1	0xbc3d8672	-0.011567699
2	0xbb4d3c92	-0.003131662
3	0xbb7f2a58	-0.003893515
4	0xbc1fb46b	-0.009747605
5	0xbc3e0a6c	-0.011599164
6	0xbc0438b1	-0.008070157
7	0xbbd2155a	-0.0064112367
8	0xbbd05ea0	-0.0063589364
9	0xbbfacad6	-0.0076535745
10	0xbcb651d2	-0.022255812
11	0xbc89ca10	-0.016819984

player_tree_1.W_self.weight f4 [12, 12]
0	0xbe0aa20b	-0.13538377
1	0x3e23724b	0.15961568
2	0x3f20c5ea	0.6280199
3	0xbe656b3e	-0.22404191
4	0x3f36cec6	0.7140926
5	0xbccae7b0	-0.02476868
6	0xbe499c55	-0.19688542
7	0xbe48c5fa	-0.19606772
8	0xbc54b3ea	-0.012982348
9	0x3ef35864	0.47528374
10	0x3e45c61d	0.19313855
11	0x3c8d9769	0.017284112
12	0x3ecc7ff7	0.3994138
13	0xbde78a50	-0.11305678
14	0xbd74860d	-0.059698153
15	0xbd99067a	-0.074719384
16	0xbe311904	-0.17294699
17	0xbede91de	-0.43470663
18	0x3e8a9661	0.27067855
19	0x3f19cefe	0.6008147
20	0x3e0c03ab	0.13673274
21	0x3d9f8600	0.0778923
22	0x3e8e2e03	0.2776948
23	0xbcd78ddf	-0.026312767
24	0x3e32915c	0.17438263
25	0x3e8b0a08	0.2715609
26	0x3dbd5c10	0.09246075
27	0xbe1642c2	-0.14673904
28	0x3d3c8fd7	0.046035614
29	0x3d3d010c	0.046143577
30	0xbee91b17	-0.4552848
31	0x3f82794d	1.0193268
32	0x3eb4d2f1	0.35317186
33	0x3e91d1f8	0.28480506
34	0xbe2396d0	-0.15975499
35	0x3e472dbe	0.19451043
36	0xbe665ba9	-0.22495903
37	0xbd0c70d2	-0.03428728
38	0xbec6447a	-0.38724118
39	0x3da041f3	0.07825079
40	0x3ef07765	0.4696609
41	0x3df95785	0.12174896
42	0xbf116b4b	-0.5680434
43	0x3d836118	0.064150035
44	0x3da1ff52	0.079100266
45	0xbe800f3f	-0.25011632
46	0x3da99e1f	0.08282112
47	0xbe9b25a3	-0.30302152
48	0x3ee47db7	0.44627163
49	0x3e6db6fb	0.23214333
50	0x3c8a9fcc	0.0169219
51	0x3f1a1dab	0.6020152
52	0x3e66109a	0.2246727
53	0xbe86ecf4	-0.26352656
54	0xbe2de212	-0.1698077
55	0x3ea529cd	0.32258454
56	0xbe4dadc4	-0.20085818
57	0xbdb5f5b9	-0.088847585
58	0xbdd8256f	-0.10554015
59	0xbd3775b3	-0.04478998
60	0xbe8de7d6	-0.2771594
61	0xbeecfa61	-0.46284774
62	0xbe8ec8d8	-0.27887607
63	0xbea660d4	-0.3249575
64	0x3b9a2e7e	0.0047052493
65	0xbea54f23	-0.3228694
66	0xbf186dd2	-0.5954257
67	0xbdb22da3	-0.08700111
68	0xbea19f0e	-0.31566662
69	0x3f04e036	0.5190462
70	0xbee813df	-0.4532766
71	0x3e412f65	0.18865736
72	0x3f02ad8a	0.5104605
73	0xbdca1072	-0.09866418
74	0xbe8e0ed0	-0.27745676
75	0xbdd7bdcf	-0.1053425
76	0x3e54eb1b	0.2079281
77	0x3d1debca	0.038554944
78	0x3eb53e37	0.3539903
79	0x3cfea5e9	0.031084972
80	0x3e68bde2	0.22728685
81	0x3f3bd9ed	0.73379403
82	0xbdf636f9	-0.12022204
83	0x3e5ae3e8	0.21376002
84	0x3c34817c	0.0110172
85	0x3e2b7d8b	0.1674711
86	0x3e2ed48f	0.17073272
87	0xbe8731db	-0.26405224
88	0x3ec15955	0.37763467
89	0x3eb0f345	0.345606
90	0x3decf13b	0.115694486
91	0xbebec68f	-0.37260863
92	0xbd88a1e6	-0.06671505
93	0xbd998f47	-0.07498031
94	0x3efbfc36	0.4921586
95	0xbf1a3355	-0.60234576
96	0x3e9a3850	0.30121088
97	0x3e0c6342	0.13709739
98	0xbd2edf95	-0.042693693
99	0xbe82f7d1	-0.25579694
100	0xbe5715ef	-0.21004461
101	0x3ebb556f	0.36588618
102	0x3ee3e577	0.44511005
103	0x3e02d94a	0.12778202
104	0x3e981678	0.29704642
105	0xbe54acdd	-0.20769067
106	0x3ea06843	0.31329545
107	0x3eae0a5a	0.33992273
108	0xbc88452e	-0.01663455
109	0x3e6c9df1	0.23107125
110	0xbe04788e	-0.12936613
111	0xbed06e4d	-0.40709153
112	0xbe25f62c	-0.16207188
113	0x3cf5b50b	0.029993555
114	0x3e8407dd	0.2578725
115	0xbe23c2f8	-0.15992343
116	0xbe8f81f7	-0.28028843
117	0xbe1cfa21	-0.15329792
118	0xbdee4b21	-0.116354235
119	0xbe00125b	-0.12507002
120	0x3add5734	0.001688695
121	0x3e53fbbc	0.20701498
122	0xbe0014c6	-0.12507924
123	0x3f2e1807	0.6800541
124	0xbd2b327d	-0.041796196
125	0xbf0f3ddb	-0.5595376
126	0xbf0d1774	-0.5511391
127	0xbe1c31c7	-0.15253364
128	0x3e0ffaec	0.14060563
129	0x3e7db88d	0.24777432
130	0xbe956b73	-0.2918354
131	0xbebd7759	-0.37005118
132	0xbedf7bfd	-0.43649283
133	0xbf2043fd	-0.6260374
134	0x3ee63c8f	0.44968078
135	0xbe1f87bf	-0.15579127
136	0xbf0d236a	-0.5513216
137	0xbe2e201e	-0.17004439
138	0x3d12333e	0.0356934
139	0xbe49c48c	-0.19703883
140	0x3e466bd8	0.19377077
141	0xbe4140cb	-0.18872373
142	0xbe8c6a78	-0.2742498
143	0xbf376552	-0.7163898

player_tree_1.W_self.bias f4 [12]
0	0xbba9473d	-0.005165963
1	0xbc3d8672	-0.011567699
2	0xbb4d3c92	-0.003131662
3	0xbb7f2a58	-0.003893515
4	0xbc1fb46b	-0.009747605
5	0xbc3e0a6c	-0.011599164
6	0xbc0438b1	-0.008070157
7	0xbbd2155a	-0.0064112367
8	0xbbd05ea0	-0.0063589364
9	0xbbfacad6	-0.0076535745
10	0xbcb651d2	-0.022255812
11	0xbc89ca10	-0.016819984

player_tree_2.W.weight f4 [12, 12]
0	0x3edc4956	0.430247
1	0x3e9c84c2	0.30570036
2	0xbe3be117	-0.18347584
3	0xbec8195b	-0.39081845
4	0xbed04dc0	-0.4068432
5	0x3f311e9c	0.6918733
6	0xbe609370	-0.21931243
7	0xbf10b0ae	-0.5651959
8	0xbea1c23c	-0.31593502
9	0x3cc2ba27	0.023770405
10	0xbb285922	-0.0025687893
11	0x3eb81632	0.35954434
12	0x3e71cd96	0.23613581
13	0x3e1f6efe	0.15569684
14	0x3ec5a66f	0.3860354
15	0xbe34c4e7	-0.17653237
16	0xbea12e42	-0.31480604
17	0xbeb28557	-0.34867355
18	0x3e274305	0.1633416
19	0x3e8b3c00	0.27194214
20	0x3ef13e8e	0.47118038
21	0x3eeb55fc	0.45964038
22	0xbe602ecd	-0.21892853
23	0xbf4cd956	-0.8001913
24	0xbe06d32d	-0.13166495
25	0x3ea7d7ba	0.32781774
26	0xbe10ef50	-0.1415379
27	0x3dc50526	0.096201226
28	0x3efd067f	0.4941902
29	0x3d87e504	0.06635478
30	0xbdb79414	-0.089637905
31	0x3b9a3132	0.0047055716
32	0x3d732da8	0.059369713
33	0x3e7e2f96	0.2482284
34	0x3e24a213	0.16077451
35	0x3f72b06f	0.94800466
36	0x3c8165ef	0.015795676
37	0x3f2790a3	0.65455073
38	0x3e19a8d4	0.15005809
39	0xbe1da180	-0.15393639
40	0xbe72125a	-0.23639813
41	0xbe0858ff	-0.133152
42	0xbe9b31ee	-0.3031153
43	0xbd9f3685	-0.07774071
44	0x3dd0094d	0.10158024
45	0xbd2b9b68	-0.041896254
46	0x3dd0ed31	0.10201491
47	0x3df9f497	0.12204855
48	0xbd027778	-0.031852216
49	0xbe849ee2	-0.25902468
50	0xbd6389e5	-0.05555143
51	0xbe915673	-0.28386268
52	0xbe0ee1e2	-0.13953355
53	0x3f30ac23	0.6901266
54	0xbc5cb086	-0.013469821
55	0x3d93cfb3	0.0721735
56	0x3eaf3a5d	0.34224215
57	0x3f2d1627	0.67611927
58	0x3de54237	0.1119427
59	0x3e730348	0.2373172
60	0x3e9e8159	0.3095806
61	0xbe377644	-0.17916209
62	0xbe2e66d8	-0.1703142
63	0xbd6b9601	-0.0575161
64	0xbe9eb5f8	-0.30998206
65	0x3ef46b41	0.47738078
66	0x3e91afad	0.28454342
67	0x3e995230	0.29945517
68	0xbd23b3ba	-0.039966322
69	0x3d7c850a	0.061650313
70	0x3e377225	0.17914636
71	0xbeb1429d	-0.34621134
72	0x3e789c5d	0.24278398
73	0xbdeeb796	-0.1165611
74	0xbeb49ff7	-0.35278293
75	0xbe0be890	-0.13662934
76	0xbe4a2fd1	-0.19744803
77	0x3f389f11	0.72117716
78	0x3e8c5017	0.27404854
79	0xbd67c8e9	-0.056588087
80	0x3d11256f	0.03543609
81	0x3e4ffb3d	0.20310684
82	0x3e804ef0	0.25060225
83	0xbe4c753e	-0.199666
84	0x3e2ba175	0.1676081
85	0x3dbf8cfc	0.093530625
86	0x3f12a8e9	0.57288986
87	0xbe946e9d	-0.2899064
88	0x3e87af32	0.2650085
89	0x3e65f5c0	0.22457027
90	0x3b9c7d0f	0.0047756503
91	0x3e922dd5	0.28550592
92	0x3e9185c2	0.28422362
93	0xbd920bd7	-0.071311645
94	0x3dbb554c	0.091471285
95	0xbe1a2149	-0.1505176
96	0x3e80b453	0.25137576
97	0x3eb472e8	0.35243917
98	0x3eb511fd	0.35365286
99	0x3dfcc80a	0.12342842
100	0xbea7b634	-0.32756197
101	0x3e710c50	0.23539853
102	0x3e20d8ff	0.15707777
103	0x3e08edff	0.13372038
104	0x3f014261	0.5049191
105	0x3eca320d	0.3949131
106	0xbd98c2f3	-0.074590586
107	0xbdcc9da5	-0.09991006
108	0x3e78dec5	0.2430373
109	0x3ea35034	0.31897128
110	0x3eaae816	0.33380193
111	0xbd6cd466	-0.057819746
112	0xbe962c83	-0.29330835
113	0xbe9b07da	-0.30279428
114	0x3e9c488a	0.30524093
115	0xbc520aa0	-0.012819916
116	0xbf1cafa2	-0.61205494
117	0xbf077d01	-0.52925116
118	0xbca502b1	-0.020142885
119	0xbe095358	-0.134107
120	0xbe87477f	-0.26421735
121	0x3e8f96ba	0.28044683
122	0x3e937fcf	0.28808448
123	0x3ecac498	0.39603114
124	0xbe443ee5	-0.19164617
125	0x3f00d18b	0.5031974
126	0xbec73c03	-0.38912973
127	0x3d508c83	0.050915252
128	0xbeb65cca	-0.35617667
129	0xbe8676f6	-0.26262635
130	0xbdbd8a32	-0.09254874
131	0xbddd273c	-0.10798499
132	0xbeb8e94d	-0.36115494
133	0x3e2f2c33	0.17106704
134	0x3db3cc09	0.08779151
135	0x3e2098b5	0.15683253
136	0x3caee5a3	0.021349734
137	0xbe7186d4	-0.23586589
138	0x3e9246d1	0.28569654
139	0x3e0c2e19	0.1368946
140	0x3e58e7ac	0.21182126
141	0xbec4332d	-0.38320294
142	0xbdceb1aa	-0.100924805
143	0xbe63d03c	-0.22247404

player_tree_2.W.bias f4 [12]
0	0xbd5421fa	-0.051790215
1	0xbb977827	-0.0046224776
2	0xbc02ea17	-0.007990382
3	0xbb8c8153	-0.0042878776
4	0xbb8e1fad	-0.004337272
5	0xbc001e1d	-0.00781968
6	0xbbb530cb	-0.005529498
7	0xbb33fe41	-0.002746478
8	0xbc2c42ca	-0.010513971
9	0xbb91ac05	-0.004445555
10	0xbd016ab1	-0.03159589
11	0xbca9fcd4	-0.02075044

player_tree_2.W_self.weight f4 [12, 12]
0	0xbe31f44c	-0.17378348
1	0xbbb14306	-0.005409601
2	0x3da45ab0	0.0802511
3	0xbe5ff8d5	-0.21872266
4	0x3e6dc6a8	0.23220313
5	0xbeb68aaf	-0.35652682
6	0xbe5d5790	-0.21615434
7	0xbee64507	-0.4497454
8	0xbebb9e49	-0.366442
9	0x3e8c9d92	0.27463967
10	0x3da2b70e	0.07945071
11	0xbe17cd82	-0.14824489
12	0xbee26fc9	-0.4422591
13	0xbe89c5ea	-0.2690881
14	0x3de304e6	0.11084919
15	0x3e62c011	0.2214358
16	0xbee28e6e	-0.4424929
17	0xbf002297	-0.5005278
18	0xbe90ed2f	-0.28305957
19	0x3f350e87	0.7072529
20	0xbe297f2e	-0.16552421
21	0xbbb0f1d1	-0.0053999205
22	0x3dddc74b	0.10829028
23	0x3c9e21db	0.019303253
24	0xbed34f2a	-0.41271335
25	0x3ef0313a	0.46912557
26	0xbed54882	-0.41656882
27	0x3b3ca35d	0.0028783896
28	0x3dab5f85	0.08367828
29	0x3ed0b556	0.40763348
30	0x3e402dc8	0.18767464
31	0xbb75681c	-0.0037446087
32	0x3edeb224	0.43495286
33	0x3e9be5c5	0.30448738
34	0xbe66c31e	-0.22535369
35	0xbeb3b435	-0.35098425
36	0x3ef82961	0.4846907
37	0x3e315a72	0.17319658
38	0x3f2002f2	0.62504494
39	0x3e8253de	0.2545461
40	0x3d4ae827	0.049537804
41	0x3e648911	0.22317912
42	0x3efc9258	0.493304
43	0xbe469154	-0.19391376
44	0x3f2ffe91	0.6874781
45	0xbdd3f8aa	-0.10350163
46	0xbed09fb0	-0.40746832
47	0xbe1e019d	-0.15430303
48	0x3f0ee7ce	0.55822456
49	0x3e191de2	0.14952806
50	0xbe93fc38	-0.28903365
51	0x3df9d33f	0.12198495
52	0xbdb0de1a	-0.086361125
53	0x3f089649	0.53354317
54	0x3ddacbff	0.106834404
55	0xbd4a45c2	-0.049382932
56	0x3ec9015e	0.39258856
57	0x3d8bba40	0.06822634
58	0xbe38f2e4	-0.18061405
59	0x3d861192	0.0654632
60	0x3d3f6d79	0.04673526
61	0x3e926f11	0.28600362
62	0x3deb948d	0.11502943
63	0x3d8afb01	0.067861564
64	0x3ebc80fe	0.36817163
65	0x3ee2e96f	0.4431872
66	0xbf10aac6	-0.5651058
67	0x3e7151c3	0.23566346
68	0x3e878d4e	0.26474994
69	0x3d896a67	0.06709748
70	0x3eda9a31	0.42695764
71	0x3f0c201c	0.54736495
72	0xbd8e16a3	-0.06937911
73	0x3eb42b2e	0.35189193
74	0x3e202ecb	0.1564285
75	0xbf286015	-0.6577161
76	0x3f17bce9	0.5927263
77	0x3d9190a3	0.071076654
78	0x3ebed7e1	0.37274078
79	0x3c48ee89	0.012263902
80	0x3e4810b2	0.19537619
81	0xbe807841	-0.25091746
82	0x3ea859d0	0.32881021
83	0x3e157df5	0.1459883
84	0xbca2b72a	-0.01986273
85	0xbe9780fe	-0.295906
86	0x3e827399	0.2547882
87	0x3e654a2b	0.22391574
88	0x3e3fac1f	0.18718003
89	0xb9ee6522	-0.00045470247
90	0x3e61a8c1	0.22037031
91	0x3f210110	0.62892246
92	0xbed4a73c	-0.4153384
93	0x3e203ffa	0.15649405
94	0x3d586148	0.05282715
95	0x3e772577	0.24135385
96	0x3d5cf7d5	0.05394729
97	0x3e95281c	0.29132164
98	0xbf01a2c8	-0.5063901
99	0x3f11054b	0.566487
100	0xbe38fe6a	-0.18065801
101	0xbedebb1e	-0.43502134
102	0xbebee810	-0.37286425
103	0xbdbc13d8	-0.091834724
104	0x3ef472b1	0.47743753
105	0x3ecd9d4c	0.4015907
106	0xbd54841f	-0.051883813
107	0xbeb13121	-0.34607795
108	0xbefc1dfe	-0.49241632
109	0xbd11e10b	-0.03561501
110	0xbed48b22	-0.415124
111	0x3d22cf61	0.039748553
112	0xbd457313	-0.048205446
113	0xbe8c2c18	-0.2737739
114	0xbef0f40c	-0.47061193
115	0x3e207a03	0.15671544
116	0xbe99cc4a	-0.30038673
117	0x3e96deac	0.2946676
118	0x3e633d42	0.22191337
119	0xbd6fad77	-0.05851504
120	0xbc495833	-0.012289095
121	0xbe2847d7	-0.16433655
122	0xbebe9e66	-0.37230223
123	0x3ecc288e	0.3987469
124	0x3e4ca194	0.19983512
125	0xbdc4d00e	-0.09609996
126	0xbe595511	-0.21223857
127	0x3e44902d	0.19195624
128	0xbf170bdc	-0.5900247
129	0xbddb850a	-0.107187346
130	0xbe4ab808	-0.19796765
131	0xbd1cb98e	-0.038262896
132	0x3dc51312	0.09622778
133	0xbd82860d	-0.063732244
134	0xbed0b4fc	-0.4076308
135	0x3e8e79ba	0.27827245
136	0xbf315c25	-0.69281226
137	0x3da84580	0.08216381
138	0x3db346ff	0.08753776
139	0xbe904f85	-0.2818567
140	0xbed3aa89	-0.41341045
141	0xbe619c1a	-0.22032204
142	0x3e1d096b	0.15335624
143	0xbcab8be2	-0.020940725

player_tree_2.W_self.bias f4 [12]
0	0xbd5421fa	-0.051790215
1	0xbb977827	-0.0046224776
2	0xbc02ea17	-0.007990382
3	0xbb8c8153	-0.0042878776
4	0xbb8e1fad	-0.004337272
5	0xbc001e1d	-0.00781968
6	0xbbb530cb	-0.005529498
7	0xbb33fe41	-0.002746478
8	0xbc2c42ca	-0.010513971
9	0xbb91ac05	-0.004445555
10	0xbd016ab1	-0.03159589
11	0xbca9fcd4	-0.02075044

player_tree_3.W.weight f4 [12, 12]
0	0x3e427943	0.1899157
1	0xbf426540	-0.75935745
2	0xbda0c502	-0.07850076
3	0x3d81ec68	0.06343919
4	0xbdd198e4	-0.1023424
5	0xbd7a3c7a	-0.06109283
6	0xbd1ebe29	-0.03875557
7	0xbe3559be	-0.17710015
8	0x3ded4f71	0.11587418
9	0x3c5d52ea	0.013508538
10	0x3e661e01	0.22472383
11	0xbd37b3fc	-0.04484938
12	0x3db095a4	0.08622292
13	0x3e950d2c	0.29111612
14	0x3ee93bf0	0.4555354
15	0xbe48aa09	-0.19596113
16	0x3d9a7bd0	0.075431466
17	0xbda17acc	-0.0788475
18	0x3c5a217d	0.013313648
19	0xbe1579fd	-0.14597316
20	0x3cfe0de3	0.031012481
21	0x3eec2101	0.4611893
22	0xbd359795	-0.044334013
23	0x3ed6bd77	0.41941425
24	0x3d9f10ee	0.07766901
25	0x3ebced4f	0.36899802
26	0x3db5dcd2	0.08880009
27	0x3e448dd9	0.19194736
28	0x3e90f341	0.28310588
29	0x3e96e6cb	0.29472956
30	0xbddc1f1a	-0.1074812
31	0x3f0d73b7	0.5525469
32	0x3e4fbee0	0.20287657
33	0xbefd6f1c	-0.49498832
34	0xbd377134	-0.044785693
35	0x3d2c9dbe	0.042142622
36	0xbe88d8df	-0.2672796
37	0xbd109092	-0.035294123
38	0x3c581baa	0.013190189
39	0xbe0ebb48	-0.1393863
40	0xbcb3b06d	-0.021934712
41	0x3e345135	0.17609103
42	0xbbfa78da	-0.007643801
43	0x3ea1a7fd	0.31573477
44	0xbcd70576	-0.026247721
45	0xbea01e98	-0.3127334
46	0x3f18d6bc	0.5970266
47	0xbe5912d1	-0.21198584
48	0xbe39c5a7	-0.18141805
49	0xbd0d156b	-0.034444254
50	0x3e7f9023	0.24957328
51	0xbe0c976b	-0.13729636
52	0x3e8baa41	0.2727833
53	0xbe49a608	-0.19692242
54	0x3e7fd6da	0.24984303
55	0x3be80b48	0.007081423
56	0x3eba9057	0.36438248
57	0x3cc6e706	0.024280082
58	0xbce1829c	-0.0275281
59	0x3e2b1cca	0.16710201
60	0xbe12cf74	-0.1433695
61	0x3ef56370	0.47927427
62	0xbdb1f929	-0.08690102
63	0xbe7f1072	-0.24908617
64	0x3ea364a9	0.31912735
65	0xbe7c1e5e	-0.24620959
66	0xbea95454	-0.3307215
67	0xbf2043a6	-0.62603223
68	0xbedbe8af	-0.4295096
69	0x3deccbac	0.11562285
70	0xbd21048e	-0.039310984
71	0x3dfa56d0	0.122235894
72	0xbe5ba301	-0.214489
73	0xbda66938	-0.08125538
74	0xbdaea83b	-0.08528181
75	0xbc151b19	-0.009100699
76	0xbe94af0f	-0.2903981
77	0x3dd28f53	0.10281243
78	0x3f0f94ad	0.56086236
79	0x3d5c3892	0.053764887
80	0x3ed0efd0	0.40807962
81	0xbed0088e	-0.40631527
82	0x3e864860	0.26227093
83	0x3e0fea9d	0.14054342
84	0xbe55220e	-0.20813772
85	0x3c37e7ca	0.011224696
86	0x3d60f400	0.054920197
87	0xbd44e4d0	-0.048069775
88	0xbd9c5cf0	-0.07634914
89	0x3bd05368	0.006357599
90	0x3e9c0f11	0.30480245
91	0xbe616985	-0.22012909
92	0xbead41eb	-0.33839354
93	0x3d5fd1b3	0.054643344
94	0xbe29797d	-0.1655025
95	0x3e05a417	0.13050877
96	0x3ccfec36	0.025381189
97	0x3da0e254	0.07855669
98	0x3d9ba51f	0.07599854
99	0x3db95be5	0.090507306
100	0xbe2fa1f4	-0.17151624
101	0x3e5238d5	0.20529492
102	0x3f3ebee3	0.7451002
103	0x3dafbf01	0.08581353
104	0x3db17d26	0.08666448
105	0xbdef39ac	-0.11680922
106	0xbd020d3b	-0.0317509
107	0xbd9ca318	-0.07648295
108	0xbc16a724	-0.009195123
109	0x3edff0ac	0.43738306
110	0x3efb6346	0.49099177
111	0x3e94a353	0.29030856
112	0x3f69a987	0.91274303
113	0x3e95f5db	0.29289135
114	0x3dec19e7	0.11528378
115	0x3e1f5158	0.15558374
116	0xbd20ab00	-0.03922558
117	0x3f204aae	0.6261395
118	0xbe232341	-0.15931417
119	0x3e1695b9	0.14705552
120	0x3e61784d	0.22018547
121	0x3ccab2e0	0.024743497
122	0xbefa79ae	-0.4892096
123	0xbe9272c1	-0.28603175
124	0x3d5592e0	0.052142024
125	0xbe12261a	-0.14272347
126	0x3e0da988	0.13834202
127	0xbeab7cf7	-0.33493778
128	0x3ddb76d8	0.10716027
129	0xbe60e68d	-0.21962948
130	0x3f0915f4	0.5354912
131	0x3eb25d32	0.34836727
132	0xbee7ef9f	-0.45300004
133	0x3dd52dcb	0.10409125
134	0x3e9fff92	0.31249672
135	0x3c540818	0.012941383
136	0x3eb92837	0.36163494
137	0x3e660eed	0.22466631
138	0xbf0f5523	-0.55989283
139	0x3e59d860	0.21273947
140	0xbc58a3f5	-0.013222684
141	0x3e8c8321	0.27443793
142	0xbca63dca	-0.020293135
143	0xbf254e23	-0.6457235

player_tree_3.W.bias f4 [12]
0	0xbb0a085a	-0.0021062107
1	0xbcb43f56	-0.022002857
2	0xbb8a9e49	-0.004230295
3	0xbc8e3667	-0.017359925
4	0xbba642c8	-0.005073879
5	0xbd50441a	-0.050846197
6	0xbd6e734a	-0.058215417
7	0xbde75ab7	-0.11296599
8	0xbbc7e1af	-0.0060999016
9	0xbc160a4d	-0.009157729
10	0xbc609356	-0.013707003
11	0xbb7be7c8	-0.0038437713

player_tree_3.W_self.weight f4 [12, 12]
0	0xbe4ceae1	-0.20011474
1	0xbe5a5610	-0.21321893
2	0xbd604ad7	-0.054758873
3	0xbd38d70f	-0.04512697
4	0x3f016bdf	0.50555223
5	0x3e9b4c3d	0.30331603
6	0x3eea6fb0	0.45788336
7	0x3ebea22d	0.37233105
8	0x3d9d1336	0.0766968
9	0x3e1bbe42	0.15209296
10	0x3d599ace	0.05312615
11	0xbeb385f1	-0.35063127
12	0xbeb4de4c	-0.3532585
13	0xbcfae6be	-0.030627605
14	0xbd35dc98	-0.044399828
15	0xbd7d89a8	-0.061898857
16	0xbd81e870	-0.06343162
17	0xbe0a9406	-0.13533029
18	0xbe14266c	-0.14467782
19	0xbd9e0b3b	-0.07716986
20	0xbeb604a8	-0.35550427
21	0xbd4055ab	-0.0469567
22	0x3e374dff	0.17900847
23	0xbec2c340	-0.3803959
24	0xbe6b0707	-0.229519
25	0x3ecc0889	0.39850262
26	0x3ea31c78	0.31857657
27	0x3ea88430	0.3291335
28	0x3ecfcc97	0.40585777
29	0xbcde39f7	-0.02712725
30	0xbda3b5bc	-0.079936475
31	0x3ead296e	0.3382067
32	0x3e9bc913	0.30426845
33	0xbe0884fc	-0.1333198
34	0x3ed39eaa	0.4133199
35	0xbda7a65f	-0.0818603
36	0xbf44604c	-0.7670944
37	0x3c620f3e	0.013797579
38	0x3d2d5e76	0.042326413
39	0x3eb8ece1	0.36118224
40	0xbe201a17	-0.15634952
41	0xbe9d5dae	-0.30735534
42	0xbea51920	-0.3224573
43	0x3f195ccd	0.5990723
44	0xbd4b86e8	-0.049689204
45	0xbed465f4	-0.41484034
46	0x3e27a95a	0.16373196
47	0xbf106f31	-0.56419665
48	0xbe4ccf2d	-0.20000906
49	0xbe42fabd	-0.19040962
50	0xbe43975d	-0.1910071
51	0x3eeebe30	0.46629477
52	0x3f3b59fa	0.7318417
53	0x3edc10c1	0.42981532
54	0x3c2a31d9	0.010387861
55	0x3e2fa5eb	0.17153136
56	0xbe1164dd	-0.14198633
57	0xbe8e36f8	-0.27776313
58	0x3e9f4fa4	0.31115448
59	0x3e24b3ef	0.16084264
60	0x3e9be352	0.3044687
61	0x3dea7e1a	0.11449833
62	0x3eb90d7b	0.36143097
63	0x3eb0d4ad	0.3453726
64	0xbc5f70a5	-0.013637696
65	0xbe7595fc	-0.23982996
66	0x3e063f69	0.13110127
67	0xbe156e26	-0.145928
68	0xbe904422	-0.2817698
69	0xbe162cf0	-0.1466558
70	0xbd3b4f9d	-0.045730222
71	0xbefc0e4f	-0.49229667
72	0x3e51fad6	0.20505843
73	0xbf4e6c0c	-0.80633616
74	0xbe2e9401	-0.17048647
75	0xbe1f1588	-0.15535557
76	0x3e3fe126	0.18738231
77	0xbe1a2088	-0.15051472
78	0x3e008486	0.12550554
79	0x3e0e5e4b	0.13903157
80	0x3d71a48e	0.058994822
81	0xbc5c0847	-0.013429708
82	0x3c83135c	0.016000442
83	0xbd152e5b	-0.03642116
84	0x3de6480a	0.11244209
85	0xbe5f29da	-0.21793309
86	0x3e120895	0.14261086
87	0x3e7a2928	0.24429762
88	0x3e722b28	0.23649275
89	0x3f20fa00	0.6288147
90	0xbbaf2c01	-0.005345822
91	0xbf2baf40	-0.67064285
92	0xbd9b26ce	-0.07575761
93	0xbdd31590	-0.10306847
94	0xbdaa1fb8	-0.08306831
95	0xbebbda2b	-0.36689886
96	0xbf612a98	-0.8795562
97	0x3e4e2733	0.20132141
98	0xbe2778b7	-0.16354643
99	0x3ed05ae7	0.40694353
100	0x3e60b5e2	0.21944383
101	0x3f1f9564	0.62337327
102	0xbee75a33	-0.45186004
103	0x3ec96bd7	0.39340088
104	0x3df67009	0.12033088
105	0x3e3b9e95	0.18322213
106	0xbf1cd39c	-0.6126039
107	0x3b9e3a82	0.004828752
108	0xbacb6ec5	-0.0015520683
109	0x3e98d2ca	0.2984832
110	0x3f013c12	0.50482285
111	0xbd9f823b	-0.07788511
112	0x3e9113f2	0.2833553
113	0x3ab8538c	0.0014062985
114	0x3ec8b1a7	0.39198038
115	0xbead55ce	-0.33854526
116	0x3ea71c02	0.32638556
117	0xbdd66dc3	-0.10470154
118	0x3ef44028	0.47705197
119	0xbf012c50	-0.5045824
120	0xbdefb46f	-0.11704337
121	0xbdaec4fe	-0.08533667
122	0xbd349b30	-0.04409331
123	0xbb1c11d3	-0.0023814335
124	0xbdbe252f	-0.09284436
125	0xbdd79a65	-0.10527495
126	0xbef768c2	-0.4832211
127	0x3eb28024	0.3486339
128	0x3c348c70	0.011019811
129	0x3efbc338	0.49172378
130	0x3d9e0bd8	0.07717103
131	0xbe362871	-0.17788865
132	0x3e096381	0.13416864
133	0xbeb3a560	-0.3508711
134	0x3e976f31	0.2957702
135	0x3ee8cae1	0.45467284
136	0x3d88ab9c	0.06673357
137	0x3eef338e	0.4671902
138	0x3e51d0d5	0.2048982
139	0xbbc08bcf	-0.0058760415
140	0x3e1a6ede	0.15081355
141	0x3f24ef07	0.64427227
142	0x3c7cb3e9	0.015423753
143	0xbe89673b	-0.2683657

player_tree_3.W_self.bias f4 [12]
0	0xbb0a085a	-0.0021062107
1	0xbcb43f56	-0.022002857
2	0xbb8a9e49	-0.004230295
3	0xbc8e3667	-0.017359925
4	0xbba642c8	-0.005073879
5	0xbd50441a	-0.050846197
6	0xbd6e734a	-0.058215417
7	0xbde75ab7	-0.11296599
8	0xbbc7e1af	-0.0060999016
9	0xbc160a4d	-0.009157729
10	0xbc609356	-0.013707003
11	0xbb7be7c8	-0.0038437713

player_tree_4.weight f4 [8, 12]
0	0x3ea0aed3	0.3138338
1	0xbe3373c1	-0.17524625
2	0x3dcfc022	0.10144068
3	0x3e39f840	0.18161106
4	0x3bb4a235	0.0055125006
5	0xbe84f6a7	-0.2596943
6	0xbf39ee7e	-0.72629535
7	0xbe8932e4	-0.2679664
8	0x3ec6fe2f	0.38865802
9	0x3e13d083	0.1443501
10	0xbde92104	-0.1138325
11	0x3f82e8dd	1.0227314
12	0x3e3161dd	0.17322488
13	0x3e76ffa5	0.24120958
14	0x3e915a23	0.2838908
15	0x3e64a40b	0.22328202
16	0x3dc4a2ee	0.09601389
17	0x3d77b5f5	0.060476262
18	0xbf3a34a7	-0.7273659
19	0xbe3063d6	-0.17225584
20	0x3e1d5610	0.15364861
21	0xbe39406b	-0.1809098
22	0xbd340a96	-0.043955408
23	0x3f15f03c	0.58569694
24	0xbd060c5f	-0.03272664
25	0x3d4c74d6	0.04991611
26	0xbf2b4459	-0.66901165
27	0x3ede9d5d	0.43479434
28	0xbf0a1b0d	-0.53947526
29	0x3f00dacd	0.50333863
30	0x3ed44882	0.4146157
31	0xbecd8391	-0.4013944
32	0x3f087a81	0.53311926
33	0xbdc8b5c0	-0.09800291
34	0xbe06170e	-0.13094732
35	0xbc9bf77b	-0.019038906
36	0x3d9ca92c	0.076494545
37	0x3c8344cf	0.016024021
38	0xbe4938d7	-0.19650589
39	0xbed25646	-0.41081446
40	0xbe0d90df	-0.13824795
41	0xbe2d4e82	-0.1692448
42	0xbe71aad8	-0.23600328
43	0x3e90e168	0.2829697
44	0xbe8b8d5b	-0.27256283
45	0xbecf85fe	-0.40531915
46	0x3ccd6435	0.025072196
47	0x3e3b6375	0.18299659
48	0x3bc86421	0.006115452
49	0x3de0590c	0.10954484
50	0x3ecffa0c	0.40620458
51	0x3e640e5b	0.22271101
52	0xbeb86420	-0.3601389
53	0xbe68d3db	-0.22737066
54	0xbe660a94	-0.22464973
55	0x3ea02d3d	0.31284514
56	0x3d2a1a34	0.041528895
57	0xbe93a934	-0.2884003
58	0x3dd390a1	0.1033032
59	0x3dcfa479	0.101387925
60	0x3f48ee9e	0.784891
61	0xbebc723a	-0.36805898
62	0x3ef6fcc8	0.48239732
63	0xbef3dd2f	-0.47629687
64	0x3f395bda	0.7240578
65	0xbe02cb9b	-0.12772982
66	0xbe87493b	-0.26423058
67	0xbea4567b	-0.3209723
68	0x3eed9d39	0.46409014
69	0x3f2b72c0	0.6697197
70	0x3e3f47dc	0.18679756
71	0xbd054b9e	-0.032542817
72	0x3d563561	0.052297
73	0x3e007c3e	0.12547395
74	0xbddca568	-0.10773736
75	0x3e79ee8e	0.24407408
76	0x3edbed38	0.4295442
77	0x3e5eb45b	0.21748488
78	0x3e67abe3	0.22624163
79	0x3e312595	0.17299493
80	0xbe4dfba8	-0.2011553
81	0x3b93b991	0.004508205
82	0xbeb51906	-0.35370654
83	0x3e1433e1	0.14472915
84	0xbdb70838	-0.089371145
85	0xbdf0156e	-0.117228374
86	0x3e8649fb	0.26228318
87	0xbe891a9c	-0.26778114
88	0xbedabd1e	-0.4272241
89	0x3beed1b9	0.0072881845
90	0x3e456a7c	0.19278902
91	0x3edf5522	0.4361964
92	0xbde7da90	-0.11320984
93	0xbe975e65	-0.29564205
94	0xbee8372b	-0.4535459
95	0x3f3e8104	0.7441561

player_tree_4.bias f4 [8]
0	0x3b3b2151	0.0028553794
1	0x3cd9e605	0.02659894
2	0x3a44d894	0.00075090793
3	0x3ba09e62	0.004901693
4	0xbc76bfd6	-0.015060386
5	0xbb29a03a	-0.0025882856
6	0xbc2790cc	-0.010227393
7	0xbc0e9743	-0.008703056

sun_influence_1.W.weight f4 [12, 12]
0	0xbef3574f	-0.4752755
1	0xbe4c89f9	-0.19974507
2	0xbeabc97e	-0.33552164
3	0x3e8b3955	0.27192178
4	0xbe2e41df	-0.17017315
5	0x3eb44765	0.3521072
6	0xbea62bf7	-0.32455418
7	0x3c7169d8	0.014734708
8	0x3e38b9c0	0.18039608
9	0xbe079db4	-0.13243753
10	0x3e035618	0.12825811
11	0x3ed1f93d	0.41010466
12	0x3ed1bb97	0.40963432
13	0x3d9a03a6	0.07520227
14	0xbec19f37	-0.37816784
15	0x3e33fbed	0.17576571
16	0x3e403a33	0.18772201
17	0xbc4ff7f9	-0.012693399
18	0x3c1e5c75	0.009665598
19	0x3e5ab70a	0.21358886
20	0x3ef4e715	0.47832552
21	0xbd8c1594	-0.06840053
22	0xbebdb7a8	-0.3705418
23	0x3e0a8a3f	0.13529299
24	0xbd374502	-0.044743545
25	0xbf16fd76	-0.589805
26	0x3eca48de	0.39508718
27	0xbe388951	-0.18021132
28	0xbe92470d	-0.28569832
29	0xbe92d8f6	-0.28681153
30	0x3ecb30c6	0.3968565
31	0xbe1f2aa3	-0.15543608
32	0xbe5a9ed4	-0.2134965
33	0x3e4b0ac2	0.19828323
34	0xbf61a5af	-0.8814344
35	0xbe50959b	-0.2036957
36	0xbe39abd9	-0.18131961
37	0x3ebf8065	0.37402645
38	0xbd5c0dd6	-0.053724132
39	0xbc4467ff	-0.011987685
40	0x3e6792bc	0.22614568
41	0x3d93e0fa	0.07220645
42	0xbd8be221	-0.0683024
43	0x3e2bcd2a	0.16777483
44	0xbe079d31	-0.13243558
45	0xbe90a4bc	-0.28250682
46	0x3e1790ef	0.14801382
47	0xbe03cfce	-0.1287224
48	0xbea2aa60	-0.3177061
49	0xbe2a2ee8	-0.16619456
50	0x3e5377a5	0.2065111
51	0xbe80bc62	-0.25143725
52	0x3e738ab8	0.23783386
53	0x3eb5ed3f	0.35532567
54	0xbde59ff7	-0.112121515
55	0x3ec98bba	0.39364415
56	0xbe88035e	-0.2656507
57	0x3e401a65	0.18760069
58	0x3d7c57b2	0.06160707
59	0xbea75687	-0.32683203
60	0xbd938143	-0.07202389
61	0x3ea5e665	0.3240234
62	0xbe4a01da	-0.19727269
63	0x3e301ca4	0.17198426
64	0x3cc773ae	0.024347153
65	0xbf16b874	-0.58875203
66	0xbe951c7a	-0.29123288
67	0xbdc7bb63	-0.09752538
68	0xbe633937	-0.22189794
69	0x3e8fa15c	0.28052795
70	0x3e86e41f	0.26345918
71	0xbeb25353	-0.34829196
72	0xbec1a516	-0.37821263
73	0x3d35d79b	0.04439507
74	0x3ddd0dce	0.10793649
75	0xbe7e9ca7	-0.24864446
76	0xbdf278ba	-0.11839433
77	0x3e14b68e	0.14522764
78	0x3dcdf06e	0.10055624
79	0x3b5e783d	0.003394618
80	0x3ebd90f1	0.37024644
81	0x3df71b52	0.12065758
82	0xbca72523	-0.02040345
83	0x3ec6f959	0.38862112
84	0x3d95a9de	0.0730779
85	0xbf2ca92d	-0.6744564
86	0x3df2adde	0.11849569
87	0x3e88a5fc	0.26689136
88	0x3f3e44ac	0.74323535
89	0xbcc7208b	-0.02430751
90	0xbee6a204	-0.45045483
91	0xbe43167a	-0.19051543
92	0x3cc8380f	0.024440793
93	0xbe8b73c3	-0.27236757
94	0x3e8ec89c	0.27887428
95	0xbf011d4e	-0.5043534
96	0xbda61727	-0.08109885
97	0xbe89690e	-0.26837963
98	0x3eb77b36	0.3583619
99	0xbddf3133	-0.10898056
100	0xbe838d5d	-0.2569379
101	0xbe8e3295	-0.27772966
102	0x3f3047ff	0.6885986
103	0xbefd1d19	-0.49436262
104	0x3cbdd432	0.023172472
105	0x3e36b0c9	0.17840876
106	0x3c5aab9c	0.013346579
107	0xbc8ef27c	-0.01744961
108	0x3de94e13	0.113918446
109	0x3db23c43	0.087029
110	0x3e340c2e	0.17582771
111	0x3e27dbf9	0.16392507
112	0xbdfbe4c3	-0.12299492
113	0x3e7da84c	0.24771231
114	0xbe68ffb5	-0.22753794
115	0x3eb30205	0.34962478
116	0xbeacee4f	-0.33775565
117	0x3ef190ae	0.47180694
118	0x3f09ac6b	0.53778714
119	0xbeade4e5	-0.33963695
120	0x3eccc596	0.39994496
121	0xbe340de4	-0.17583424
122	0x3cebe5c3	0.028796082
123	0xbd980458	-0.074227035
124	0x3e427860	0.18991232
125	0x3ea8c1cc	0.32960355
126	0xbd994f3a	-0.074858144
127	0x3f041499	0.5159393
128	0x3e9d85a3	0.3076602
129	0xbc874e0b	-0.016516706
130	0x3da06d51	0.078333504
131	0xbb80cf94	-0.0039309952
132	0xbd848e60	-0.064724684
133	0x3e442559	0.19154872
134	0x3e272709	0.16323484
135	0x3cab1e83	0.020888573
136	0x3ee5c8e9	0.44879845
137	0x3d5951b7	0.053056445
138	0xbed85777	-0.4225423
139	0x3e013ace	0.12620088
140	0xbc02af90	-0.007976428
141	0x3e8a0635	0.2695786
142	0xbeb248d1	-0.3482118
143	0xbe791eca	-0.24328151

sun_influence_1.W.bias f4 [12]
0	0x3c2574f3	0.010098684
1	0xbbffb510	-0.0078035668
2	0xbacae4f8	-0.0015479615
3	0xbae11376	-0.0017171938
4	0x3a8654b3	0.0010248631
5	0xbd5d1a90	-0.05398041
6	0xbd9adad5	-0.0756127
7	0x3ae44f5d	0.0017418672
8	0xbbb170f1	-0.005415075
9	0xbc330f22	-0.010928901
10	0x3ab2863e	0.001362033
11	0xbbced173	-0.0063115894

sun_influence_1.W_self.weight f4 [12, 12]
0	0xbe676c87	-0.22599994
1	0xbe972295	-0.29518571
2	0xbe809877	-0.2511632
3	0xbe19e8ad	-0.15030165
4	0xbe848ac1	-0.2588711
5	0x3d98d9e1	0.07463432
6	0x3da97285	0.08273796
7	0xbd9b1127	-0.07571631
8	0x3e89ca4a	0.26912147
9	0x3e67cc18	0.2263645
10	0xbc465415	-0.012105008
11	0xbdcd36a0	-0.100201845
12	0xbed44f6e	-0.4146685
13	0xbe5047fd	-0.20339961
14	0xbef8deee	-0.48607582
15	0x3f59b797	0.8504576
16	0x3e749493	0.23884802
17	0x3e322266	0.17395934
18	0x3ef8521e	0.4850015
19	0xbdec1c73	-0.11528864
20	0xbe5b442d	-0.21412726
21	0xbe8f90b1	-0.28040078
22	0x3d26b45f	0.04069936
23	0xbee4b2b6	-0.44667596
24	0x3e881d62	0.26584917
25	0x3f143f68	0.5790925
26	0x3e96fe95	0.29491106
27	0x3ce3c202	0.027802471
28	0x3eb0cfe9	0.34533623
29	0xbe1f0828	-0.15530455
30	0xbf0c1410	-0.5471811
31	0xbefcf173	-0.4940296
32	0x3e9351de	0.28773397
33	0xbd58e53f	-0.052953
34	0x3e6a1bae	0.22862121
35	0x3de34e38	0.110989034
36	0xbea9c97b	-0.3316153
37	0x3e620658	0.22072732
38	0xbb9c726a	-0.0047743814
39	0x3eaa704f	0.3328881
40	0xbe8c1fb2	-0.27367932
41	0xbb878cf3	-0.0041366755
42	0xbd4d66a5	-0.050146718
43	0x3e967871	0.29388765
44	0x3edcc555	0.43119302
45	0xbdabdb68	-0.08391458
46	0xbe181b10	-0.14854074
47	0x3f27db77	0.6556925
48	0xbe604c78	-0.2190417
49	0x3e923032	0.28552395
50	0x3e7aa20b	0.24475877
51	0x3e50ec28	0.20402586
52	0x3db1722e	0.08664356
53	0x3f05ef58	0.52318335
54	0x3b2fda1b	0.0026832882
55	0x3e6720cc	0.22571105
56	0x3f0fbed9	0.56150585
57	0x3e8ee957	0.279124
58	0xbeed7888	-0.4638102
59	0x3d233452	0.03984482
60	0x3eb779fe	0.3583526
61	0xbdd57723	-0.10423114
62	0x3cd675f4	0.026179291
63	0xbecc9f67	-0.39965364
64	0xbe54cc58	-0.20781076
65	0x3e5217b3	0.20516853
66	0x3e2a7f99	0.16650237
67	0x3e9fafb9	0.31188753
68	0xbeef2f13	-0.46715602
69	0xbd818beb	-0.06325515
70	0x3e505dd7	0.20348297
71	0xbe878c26	-0.26474112
72	0xbe5a5d4c	-0.21324652
73	0x3ec562f9	0.38552073
74	0xbf028c17	-0.5099501
75	0x3e277b87	0.16355716
76	0xbe9dee77	-0.30845997
77	0x3dda8635	0.10670129
78	0x3e4dfb22	0.20115331
79	0xbd8ba108	-0.06817824
80	0x3e9e95b9	0.30973604
81	0x3eb78899	0.35846403
82	0x3e6e9e56	0.23302588
83	0xbdd82652	-0.10554184
84	0xbe8cec65	-0.27524105
85	0x3e6f6f52	0.23382309
86	0xbe777ec1	-0.24169447
87	0x3d4e9de9	0.050443564
88	0xbe67d020	-0.22637987
89	0x3e570760	0.20998907
90	0x3ed060ed	0.40698949
91	0x3da7ff93	0.08203044
92	0x3ea16156	0.31519574
93	0x3c129bc6	0.008948272
94	0xbe255d47	-0.16148864
95	0x3e764fd1	0.24053885
96	0xbd2fbada	-0.042902805
97	0xbe3fff0f	-0.18749641
98	0x3f22db19	0.63615566
99	0x3e398de7	0.18120538
100	0x3cda9695	0.026683131
101	0x3d8e29c1	0.06941558
102	0xbdbb8fc1	-0.09158278
103	0xbe4d1358	-0.2002691
104	0xbee01583	-0.43766412
105	0x3c1d3094	0.009594101
106	0x3ec268fe	0.37970728
107	0x3ee166f2	0.44023854
108	0x3d3496d6	0.04408916
109	0x3f4a0bfc	0.78924537
110	0x3e7c330b	0.24628846
111	0x3e5980c1	0.21240522
112	0xbedd06fb	-0.43169388
113	0xbeae0196	-0.33985585
114	0xbd176dfe	-0.03697013
115	0x3e945fd4	0.2897936
116	0xbf201f32	-0.625476
117	0xbed24104	-0.41065228
118	0x3cf430c5	0.029808411
119	0xbec5bbe0	-0.386199
120	0xbdcb06c2	-0.09913398
121	0xbe04654f	-0.12929271
122	0x3e10136e	0.14069912
123	0x3e1c9e1b	0.15294687
124	0x3ec736da	0.38909036
125	0x3e32f537	0.17476355
126	0xbeb055a3	-0.34440336
127	0x3eeba3a5	0.46023288
128	0xbe833821	-0.2562876
129	0x3e52de2c	0.20592564
130	0x3e87682d	0.26446667
131	0x3e85c57d	0.26127234
132	0x3dc2c517	0.09510248
133	0xbe8a2409	-0.26980618
134	0xbeaea980	-0.34113693
135	0x3ebb1243	0.3653737
136	0xbe8fe814	-0.2810675
137	0xbdb04d13	-0.08608451
138	0xbec802d7	-0.39064667
139	0xbf03330d	-0.5124977
140	0x3e86a417	0.26297066
141	0x3eaee740	0.34160805
142	0x3dde06cc	0.1084114
143	0xbd038250	-0.032106698

sun_influence_1.W_self.bias f4 [12]
0	0x3c2574f3	0.010098684
1	0xbbffb510	-0.0078035668
2	0xbacae4f8	-0.0015479615
3	0xbae11376	-0.0017171938
4	0x3a8654b3	0.0010248631
5	0xbd5d1a90	-0.05398041
6	0xbd9adad5	-0.0756127
7	0x3ae44f5d	0.0017418672
8	0xbbb170f1	-0.005415075
9	0xbc330f22	-0.010928901
10	0x3ab2863e	0.001362033
11	0xbbced173	-0.0063115894

sun_influence_2.W.weight f4 [12, 12]
0	0xbdee1772	-0.116255656
1	0x3e918311	0.28420308
2	0x3d30c9c2	0.04316116
3	0xbbcc3057	-0.0062313485
4	0x3e4cd0cc	0.20001525
5	0xbd9ab6c1	-0.07554389
6	0xbea102c3	-0.3144742
7	0x3e8860ab	0.26636252
8	0xbdc7eb84	-0.09761718
9	0x3e93bb28	0.28853726
10	0xbe0977fe	-0.1342468
11	0x3df1d9df	0.11809134
12	0xbe01eeb2	-0.12688711
13	0x3f3f21ed	0.7466114
14	0x3ecbcceb	0.39804778
15	0x3e6bf083	0.23040967
16	0xbe0a3a90	-0.13498902
17	0x3f04aae6	0.5182327
18	0x3ec25cb7	0.3796136
19	0xbe35c42f	-0.1775062
20	0x3bb96b73	0.005658561
21	0xbe9b610c	-0.30347478
22	0x3ec83a8a	0.39107162
23	0x3d061e16	0.032743536
24	0xbe7f1dcd	-0.24913712
25	0x3e8e71fd	0.2782134
26	0xbe35e165	-0.17761762
27	0x3e8e718c	0.27821004
28	0xbe6c3835	-0.23068316
29	0xbe4e22f4	-0.20130521
30	0xbe1d4766	-0.15359268
31	0x3de85cd3	0.1134583
32	0x3f3a66f2	0.7281333
33	0x3b1d30b6	0.0023985333
34	0x3df3a98e	0.11897574
35	0xbcefadb8	-0.02925764
36	0xbea6c3e6	-0.32571334
37	0xbe91eb31	-0.2849975
38	0x3ea04a12	0.3130651
39	0x3e34f6c2	0.17672256
40	0x3cd1b51d	0.025599057
41	0xbeb5729a	-0.35438997
42	0x3e9a8fac	0.30187738
43	0xbe362407	-0.17787181
44	0x3d91ba94	0.07115665
45	0xbd1a228b	-0.0376306
46	0x3d82c351	0.0638491
47	0xbe9188df	-0.28424737
48	0x3bca3e74	0.006171996
49	0x3f0c8ca1	0.5490208
50	0xbeb3c5a0	-0.35111713
51	0xbe8c9241	-0.27455333
52	0xbe97079f	-0.29498002
53	0xbed4450b	-0.41458926
54	0xbe88d8f2	-0.26728016
55	0xbec6181f	-0.38690278
56	0x3de19577	0.11014836
57	0x3ea11bd4	0.31466544
58	0xbe7445bb	-0.23854725
59	0xbedd21f1	-0.43189958
60	0xbe25f047	-0.1620494
61	0xbe8f7984	-0.28022397
62	0x3cbd8b68	0.023137763
63	0x3d0d437b	0.034488183
64	0x3dcae664	0.09907225
65	0xbf2202bc	-0.6328542
66	0xbe15f7c2	-0.14645293
67	0x3e52e647	0.20595656
68	0x3e27ce62	0.16387323
69	0xbe70e40c	-0.23524493
70	0x3c9757db	0.01847451
71	0x3dbe904b	0.093048654
72	0xbe257d0f	-0.16160987
73	0x3f0f2737	0.5591921
74	0xbea2edbf	-0.3182201
75	0xbe5c97bd	-0.21542259
76	0x3e22c354	0.15894824
77	0xbc5d036f	-0.013489588
78	0x3e3004af	0.17189287
79	0x3dd9faea	0.10643561
80	0x3d42f6d1	0.047598664
81	0xbeadf62b	-0.33976874
82	0xbe9740e0	-0.29541683
83	0x3b9ecef3	0.0048464476
84	0xbe6f38be	-0.23361489
85	0xbce82e18	-0.028342292
86	0x3eaece0e	0.34141582
87	0x3d7a2e58	0.061079353
88	0x3dabd79a	0.08390732
89	0x3e5cee77	0.21575342
90	0x3cfbb4af	0.030725805
91	0x3e3d1208	0.1846391
92	0xbf0abc07	-0.54193157
93	0xbe4a669e	-0.19765708
94	0xbd3cd2b3	-0.046099376
95	0x3dad23e7	0.084541135
96	0xbedc1704	-0.4298631
97	0xbecce5f6	-0.40019196
98	0xbd0e7e17	-0.034788217
99	0x3e6a41c4	0.2287665
100	0x3e0c5915	0.13705857
101	0xbf1b051e	-0.60554683
102	0x3eac26dd	0.336234
103	0xbed52acb	-0.4163421
104	0x3e853b2b	0.26021704
105	0x3e3490c1	0.17633344
106	0xbf04cb26	-0.5187248
107	0xbc851732	-0.016246412
108	0xbf2166c7	-0.6304745
109	0x3def5372	0.11685838
110	0xbe403a23	-0.18772177
111	0xbf0294a5	-0.51008064
112	0xbe57313b	-0.21014874
113	0xbf1efedd	-0.6210764
114	0xbe7e41bf	-0.24829768
115	0xbe9e5a37	-0.30928203
116	0xbca6283c	-0.020282857
117	0xbc15419e	-0.009109883
118	0xbc6c92c5	-0.014439289
119	0xbebcf527	-0.36905786
120	0x3ec3ef37	0.38268444
121	0x3f0db5eb	0.5535571
122	0xbea49f6c	-0.3215288
123	0xbdd1292c	-0.10212931
124	0x3ea1ba60	0.31587505
125	0xbd7bad38	-0.06144449
126	0x3d8963e8	0.06708509
127	0xbf268db0	-0.6505995
128	0xbe9f205c	-0.31079376
129	0xbddb4d71	-0.1070813
130	0xbe9fefea	-0.31237727
131	0x3c9bb3fb	0.01900672
132	0xbe6859d6	-0.2269052
133	0xbd59eef5	-0.053206403
134	0xbd09a165	-0.033601183
135	0xbe83602e	-0.25659317
136	0xbe6bfab5	-0.23044856
137	0x3ede8945	0.43464103
138	0x3dbe9110	0.09305012
139	0xbec260fa	-0.37964612
140	0x3e5d489e	0.21609733
141	0x3df314a0	0.11869168
142	0x3eb1e8db	0.34747967
143	0x3ed05a2f	0.40693805

sun_influence_2.W.bias f4 [12]
0	0xbbaf5630	-0.0053508505
1	0xbc2d11be	-0.010563312
2	0xbbbce9e6	-0.0057651876
3	0x3c284d60	0.010272354
4	0xbcb1b99f	-0.021694956
5	0xbc1feb98	-0.00976076
6	0xbb020060	-0.001983665
7	0x3a95ab39	0.0011418826
8	0xbced88ef	-0.02899596
9	0xbd124417	-0.035709467
10	0xbb97c0df	-0.0046311463
11	0xbd2c462e	-0.042059116

sun_influence_2.W_self.weight f4 [12, 12]
0	0xbdf0ccca	-0.117578104
1	0x3dd1f704	0.102521926
2	0xbe7d1a07	-0.2471696
3	0x3f27c654	0.65537
4	0xbee19654	-0.44060004
5	0xbeb3331f	-0.3499994
6	0xbc8d1c97	-0.017225547
7	0x3e01fe16	0.12694582
8	0xbd7a1117	-0.061051454
9	0x3f073312	0.528123
10	0x3e6f2de1	0.23357345
11	0x3d4759f1	0.04866976
12	0x3d6bc9fb	0.05756567
13	0x3e7934e6	0.24336585
14	0x3ecc2f42	0.39879805
15	0x3ebed22a	0.37269717
16	0x3ecd9022	0.40149027
17	0x3e4930e7	0.19647561
18	0xbce03bcf	-0.027372269
19	0x3e274121	0.16333438
20	0xbe806c89	-0.25082806
21	0x3e401645	0.18758495
22	0x3ea1532e	0.31508774
23	0x3e6ceae1	0.23136474
24	0xbe3103b6	-0.17286572
25	0x3cf5d066	0.030006599
26	0x3d517cc5	0.05114438
27	0xbef058a5	-0.4694263
28	0x3e4b2037	0.19836508
29	0x3d17f775	0.037101228
30	0x3e782186	0.24231538
31	0x3ede6bdf	0.43441674
32	0xbe5a9690	-0.21346498
33	0xbe47ca1e	-0.19510695
34	0xbca239cb	-0.019802948
35	0x3db0bc75	0.08629695
36	0xbf5156c4	-0.8177302
37	0xbe15e706	-0.1463891
38	0x3e4f8fcd	0.202697
39	0x3edbbcc0	0.42917442
40	0x3f02fe19	0.5116897
41	0xbdd32acf	-0.103108995
42	0xbf2ce4b5	-0.6753648
43	0xbec314f0	-0.38101912
44	0x3ee473ae	0.44619507
45	0x3e9adde4	0.30247414
46	0x3f085ca3	0.5326635
47	0xba12e492	-0.00056035176
48	0x3dcaa592	0.09894861
49	0x3f003c2d	0.5009182
50	0xbe0ce7ef	-0.1376035
51	0x3db53a11	0.08848966
52	0x3e9f2c3b	0.31088433
53	0xbdf30f19	-0.11868114
54	0xbda420b5	-0.08014051
55	0xbe8bb2ba	-0.27284795
56	0xbe2af0d7	-0.16693436
57	0xbe0eabd2	-0.13932732
58	0xbe79e2f5	-0.24402983
59	0xbec40776	-0.38286942
60	0x3f14a818	0.5806899
61	0x3f002866	0.50061643
62	0x3d8a5a59	0.06755514
63	0x3ed1e9f2	0.409988
64	0x3ecf870f	0.4053273
65	0x3e6373a4	0.22212082
66	0x3e4f63c8	0.20252907
67	0xbe8fd7f4	-0.28094447
68	0x3e81bdfd	0.25340262
69	0xbd83ad2b	-0.064295135
70	0x3f85729b	1.04256
71	0xbe94191c	-0.28925407
72	0x3e92a589	0.28641918
73	0xbd5f644b	-0.054539006
74	0xbbf90fe2	-0.0076007703
75	0x3e9d0a00	0.30671692
76	0x3ca9c862	0.020725433
77	0xbe54f125	-0.20795114
78	0xbe536e41	-0.20647527
79	0xbc417073	-0.011806595
80	0xbe98bdee	-0.29832405
81	0x3e63eb66	0.22257766
82	0xbeafa3d4	-0.34304678
83	0x3f15cdff	0.5851745
84	0xbe14dd04	-0.14537436
85	0x3ceded80	0.029043913
86	0xbe9abda6	-0.30222815
87	0xbe446570	-0.1917932
88	0x3e1b64c3	0.15175156
89	0x3e95db4f	0.29268882
90	0xbf0992f6	-0.5373987
91	0x3e871429	0.26382568
92	0xbee83200	-0.45350647
93	0xbe46e995	-0.19425042
94	0x3f0934a7	0.53595966
95	0xbf033e40	-0.5126686
96	0xbf54f974	-0.83193135
97	0x3d81e8fc	0.06343266
98	0xbd1563a5	-0.03647198
99	0xbb0c5fae	-0.0021419334
100	0x3dbc4b99	0.091941066
101	0xbd9cec59	-0.07662267
102	0x3e8762f1	0.26442674
103	0x3cb54227	0.02212627
104	0x3e7b3a55	0.2453397
105	0x3e2dcf4a	0.16973606
106	0x3e0c2c69	0.13688816
107	0x3c920cc5	0.017828355
108	0xbea87d82	-0.32908255
109	0xbe6ce06f	-0.2313249
110	0xbe8f545a	-0.27994043
111	0x3e1db0cf	0.15399478
112	0xbdedbb51	-0.116079934
113	0xbed0ba1a	-0.40766984
114	0xbddc10b5	-0.10745374
115	0xbe141026	-0.14459285
116	0x3d7f9e4a	0.062406816
117	0x3eb64c8f	0.35605285
118	0x3e53c8da	0.20682088
119	0xbefcb619	-0.4935768
120	0x3ea0e8b2	0.31427532
121	0xbe2cb178	-0.16864574
122	0xbd10cb45	-0.035350103
123	0xbc8d5ec8	-0.01725711
124	0xbeaef939	-0.34174517
125	0xbe34c4df	-0.17653225
126	0x3eb3b4ec	0.3509897
127	0xbe8a9327	-0.27065393
128	0xbdc040b0	-0.09387338
129	0xbf12cfba	-0.57348216
130	0x3ea3fa03	0.3202668
131	0xbe299a08	-0.16562665
132	0xbca801fa	-0.020508755
133	0xbd22adb0	-0.039716423
134	0x3d1f8e64	0.038954154
135	0xbf4d7d28	-0.802691
136	0x3f0efec4	0.5585749
137	0xbe88059b	-0.26566777
138	0xbe5025b6	-0.20326886
139	0x3f113a1d	0.567293
140	0x3ee923f9	0.45535257
141	0xbcc92822	-0.02455527
142	0x3ea7693c	0.32697475
143	0xbedb0275	-0.42775312

sun_influence_2.W_self.bias f4 [12]
0	0xbbaf5630	-0.0053508505
1	0xbc2d11be	-0.010563312
2	0xbbbce9e6	-0.0057651876
3	0x3c284d60	0.010272354
4	0xbcb1b99f	-0.021694956
5	0xbc1feb98	-0.00976076
6	0xbb020060	-0.001983665
7	0x3a95ab39	0.0011418826
8	0xbced88ef	-0.02899596
9	0xbd124417	-0.035709467
10	0xbb97c0df	-0.0046311463
11	0xbd2c462e	-0.042059116

sun_influence_3.W.weight f4 [12, 12]
0	0xbe4e663e	-0.2015619
1	0x3d36b387	0.044604804
2	0x3d9a51b2	0.075351134
3	0xbe5ffd5a	-0.2187399
4	0xbdf80046	-0.12109427
5	0xbe418223	-0.188973
6	0x3dd51e2b	0.10406145
7	0xbeed4d45	-0.46348014
8	0xbbc03c41	-0.005866558
9	0xbc7ea0f9	-0.015541309
10	0xbe2b8ef7	-0.16753756
11	0xbe2342f5	-0.15943511
12	0x3e397d61	0.18114235
13	0xbdbe8b39	-0.09303898
14	0xbf02b47e	-0.5105666
15	0x3e44530d	0.19172306
16	0xbe227fcf	-0.15869068
17	0x3eae1874	0.3400303
18	0x3ea26d27	0.31723902
19	0x3db779e7	0.08958798
20	0xbe3eff24	-0.18652016
21	0xbe954da8	-0.2916081
22	0xbd0fc88f	-0.035103377
23	0xbcf1e917	-0.029530091
24	0xbebb36bf	-0.36565205
25	0x3c1a6d8e	0.009425534
26	0xbe341578	-0.17586315
27	0xbcef880e	-0.02923968
28	0x3e32c249	0.17456926
29	0x3cc64f06	0.024207603
30	0xbe031bed	-0.12803622
31	0x3e34c6a9	0.17653908
32	0x3d9455c3	0.0724292
33	0xbeacefd2	-0.33776718
34	0xbc7283d4	-0.014801938
35	0xbe4f910e	-0.20270178
36	0x3ded888b	0.11598309
37	0x3e704fe5	0.23467977
38	0xbdfb0a6c	-0.12257847
39	0xbe2470cb	-0.16058652
40	0xbd6343a9	-0.055484448
41	0xbd6b5101	-0.0574503
42	0x3ea2e297	0.318135
43	0xbf069cd0	-0.52583027
44	0x3e0559f0	0.1302259
45	0x3dcbc1f6	0.099491045
46	0x3d21dddc	0.039518222
47	0xbef4989b	-0.4777268
48	0x3e8839cb	0.26606593
49	0xbec3923b	-0.38197502
50	0x3dafef53	0.08590569
51	0xbd96b4c9	-0.07358701
52	0xbecbac79	-0.39780024
53	0x3c64f52b	0.013974468
54	0xbe886152	-0.2663675
55	0x3f009831	0.50232226
56	0xbd69c6d7	-0.057074394
57	0x3ec2405f	0.37939736
58	0x3e871a41	0.26387218
59	0x3e95adff	0.2923431
60	0x3e628af3	0.22123317
61	0xbe87c1d7	-0.26515076
62	0x3ecc730e	0.3993153
63	0xbccf1a08	-0.025280967
64	0x3d52bddf	0.051450606
65	0x3e2dbdfb	0.16967003
66	0x3e532d2d	0.20622702
67	0x3e8e3902	0.27777869
68	0xbe98ae55	-0.29820505
69	0xbd075016	-0.03303536
70	0xbd9cfe29	-0.07665665
71	0xbe3dd3c5	-0.18537815
72	0xbdfba350	-0.12287009
73	0x3ef73b00	0.482872
74	0x3d100d87	0.03516915
75	0x3e88b059	0.26697043
76	0x3ebb7992	0.36616188
77	0x3f174736	0.59093034
78	0x3e860021	0.26171973
79	0x3e951419	0.29116896
80	0xbdb6958d	-0.08915243
81	0xbe5c61e2	-0.21521714
82	0xbc98649e	-0.018602666
83	0xbea1ac87	-0.3157694
84	0x3d805c1a	0.06267567
85	0xbe32e614	-0.1747058
86	0xbecc6cab	-0.39926657
87	0xbe2ba3e6	-0.16761741
88	0xbca1b7ae	-0.019740906
89	0xbea693a6	-0.32534522
90	0x3d7175e5	0.058950324
91	0xbe3fb1e0	-0.18720198
92	0xbe8fadb7	-0.2806222
93	0x3dd56fbd	0.10421703
94	0x3e099380	0.13435173
95	0xbe98a1d9	-0.2981098
96	0x3dfbba2e	0.1229137
97	0xbede0955	-0.43366495
98	0x3dd2c3d9	0.10291261
99	0xbefea518	-0.49735332
100	0xbe19436f	-0.1496713
101	0x3be07b51	0.006850638
102	0xbc90efde	-0.017692503
103	0x3f1005a8	0.5625863
104	0x3ce60f59	0.02808349
105	0xbe19c2b3	-0.15015678
106	0x3e88d7d5	0.26727167
107	0xbd90b3ef	-0.070655696
108	0xbe055b76	-0.13023171
109	0xbe904b3a	-0.28182393
110	0x3d283ba2	0.041072495
111	0xbe4361e5	-0.19080313
112	0x3d44f7e4	0.04808797
113	0xbf0d17ed	-0.5511463
114	0xbeb4281a	-0.35186845
115	0x3d48603f	0.048919912
116	0x3ec43170	0.38318968
117	0x3ea3a90b	0.31964907
118	0xbe0d59c6	-0.13803777
119	0xbe7f590d	-0.24936314
120	0x3ed5c0c8	0.41748643
121	0xbdb2a247	-0.08722358
122	0xbc99f3a6	-0.018792938
123	0x3ecdf587	0.40226385
124	0xbdacc566	-0.08436088
125	0xbe911593	-0.28336772
126	0xbeab149f	-0.3341417
127	0x3ebc95f8	0.36833167
128	0xbda1df67	-0.07903939
129	0xbe2118e7	-0.15732156
130	0xbb355bf1	-0.002767321
131	0x3eb61762	0.35564715
132	0xbd87bad4	-0.066274315
133	0x3e8257c7	0.25457594
134	0x3e95e98a	0.2927974
135	0x3d3ee366	0.046603583
136	0xbdc33f77	-0.09533589
137	0xbdd58770	-0.10426223
138	0x3ea80a7b	0.32820496
139	0xbe8bb0d7	-0.27283356
140	0xbd922286	-0.07135491
141	0xbe087dc3	-0.13329224
142	0xbf13f461	-0.5779477
143	0x3ea8346a	0.3285249

sun_influence_3.W.bias f4 [12]
0	0xbb20b3ef	-0.0024521311
1	0xbc2686b0	-0.010163948
2	0xbce7d068	-0.028297618
3	0xbcc31331	-0.023812862
4	0xbbbd14f1	-0.0057703187
5	0xbbdbf0ec	-0.0067120697
6	0xbbc853ba	-0.0061134966
7	0xbbc4c9da	-0.006005508
8	0xba8f72b6	-0.0010944221
9	0xbc843839	-0.01614009
10	0xbc0fcb9f	-0.008776574
11	0xbc3d09c9	-0.0115379775
