src/Photosynthesis/RL/SavedModels/model_23.pth (torch, 30290 bytes, 34 tensors)

player_tree_1.W.weight f4 [12, 12]
000000 c1 0e 82 bd 51 e7 e5 be ff dc b7 3e d2 59 70 be
       -0.0635047 -0.44903043 0.35910794 -0.23471764
000010 02 cb 1d 3e c0 3e 92 3e 26 48 f3 3d dd 96 95 3d
       0.15409473 0.285635 0.118789956 0.073041655
000020 9b f2 76 3d 4f c0 b7 3e 53 6c 28 3e ae a0 de bd
       0.06028996 0.35888907 0.16447572 -0.10870491
000030 78 17 1c be 35 0d ad 3e 8b 28 73 be db 9b b3 be
       -0.15243328 0.3379914 -0.23745935 -0.35079846
000040 dd 2f a4 3e 49 14 94 3d 34 3b 53 bd 7d 45 02 3e
       0.32067767 0.072304316 -0.051570132 0.1272182
000050 85 a6 a0 be 6b de 2d 3f 45 83 44 3f ce 4b 0e bd
       -0.31377044 0.6791751 0.767628 -0.03474026
000060 9b 28 e7 3c 48 6c 69 be b9 90 8a 3d 22 b9 91 3e
       0.028217604 -0.22795212 0.06765885 0.28461558
000070 a4 b2 8c 3e b7 8b c1 3d ff ab 06 bd 34 bb cc 3e
       0.27480042 0.094504766 -0.032878872 0.39986575
000080 88 25 0d 3f fd 09 c9 3e b8 c2 50 3d 39 aa 60 be
       0.55135393 0.39265433 0.05096695 -0.21939935
000090 e3 05 0b be 32 6d cd be 3c 5f b7 bd bf a0 7d bb
       -0.13576464 -0.40122372 -0.089537114 -0.0038700548
0000a0 19 ee 50 be ca ad a9 3d bd 44 5d 3d 78 d1 08 be
       -0.20403327 0.08285101 0.054020632 -0.13361156
0000b0 50 b2 4f be cb 9e ee bc da cb 5a bf 86 f3 0f 3e
       -0.20282865 -0.029128453 -0.854673 0.1405774
0000c0 5c a7 9e 3d 19 2e dd bd f6 1c 30 bd f3 5f 58 be
       0.07746765 -0.10799808 -0.04299637 -0.21130352
0000d0 e4 07 7f bd b9 6f 1f 3f a1 67 48 3e 27 4c 57 be
       -0.062263384 0.6227985 0.19570781 -0.21025144
0000e0 70 76 d1 3e a1 6a 86 bd 32 8e c4 3d f8 ed 61 bc
       0.40910673 -0.065633066 0.09597434 -0.013789646
0000f0 fc 84 dd 3d a1 cf 16 3e 3a b8 9b be a1 a7 69 3d
       0.108163804 0.14727642 -0.3041399 0.05704463
000100 5d bc bf be af b8 b4 bd b8 62 c0 bd 64 87 28 bd
       -0.37448397 -0.08824288 -0.09393829 -0.041144744
000110 09 b2 63 be f9 38 27 3c 50 69 49 be 34 58 99 3e
       -0.22235884 0.010206454 -0.1966908 0.29950106
000120 7c c9 2e be 47 c7 5a 3e b3 f9 5c be b3 f9 2b 3e
       -0.17069048 0.21365081 -0.21579628 0.16794471
000130 71 55 3d 3f 61 44 86 bd 20 dd 26 3f 1f 36 8d be
       0.739585 -0.06556011 0.6518116 -0.27580354
000140 3f 5e 86 be 76 3a 84 be f8 63 6e be 63 b4 44 bd
       -0.2624378 -0.25825852 -0.23280323 -0.048023593
000150 37 e3 00 3f dc 13 91 3e 4e 67 07 3d 1c ac f6 bd
       0.503467 0.28335464 0.033057503 -0.12044546
000160 86 53 b7 3d 8c 02 a9 be 04 cd f9 be b6 da 08 be
       0.08951478 -0.33009756 -0.48789227 -0.13364682
000170 55 c6 9f be 0d d5 b2 3e 0d ce f2 3e 11 68 1a bd
       -0.31206003 0.3492817 0.4742283 -0.0376969
000180 0e 68 94 3d 20 28 46 be 65 02 cd be 88 12 77 3e
       0.07246409 -0.19351244 -0.4004089 0.24128163
000190 85 a8 3a be aa 9a 9d be 3f b3 a4 3d 66 3a f9 bb
       -0.18228348 -0.30782062 0.08042001 -0.0076058386
0001a0 98 35 fb be ef 76 74 3d fc 63 d7 3e 22 24 67 39
       -0.49064326 0.059683736 0.4206847 0.00022043337
0001b0 fe 6e 90 be 6b 5a ed bd 3c d3 cb be 75 35 75 3d
       -0.2820968 -0.115895115 -0.39809597 0.059865434
0001c0 66 9a 8b bd d7 61 b9 3e 8b 9c 91 3e 94 aa 1c 3f
       -0.068165585 0.36207458 0.28439745 0.6119778
0001d0 b1 13 6e be 5c f9 e8 3e b0 0a a1 bd e6 0e 12 bc
       -0.23249699 0.45502746 -0.078633666 -0.008914685
0001e0 95 59 94 be 7c a8 9c 3e a9 d8 24 bc df 8e 75 bd
       -0.28974596 0.30597293 -0.010061421 -0.059950706
0001f0 17 c1 d5 be cb 1f 90 bf 76 ae af 3e 4c aa 92 bd
       -0.41748878 -1.1259702 0.3431279 -0.07161388
000200 92 41 11 3d 28 ff 9d 3c e2 f3 52 be 64 bd 01 be
       0.035462923 0.019286707 -0.20600846 -0.12669903
000210 bf d2 53 3e 1b fa 93 3e e3 0f 2e be 1d 6c b7 3e
       0.20685862 0.28901753 -0.16998248 0.3582467
000220 14 46 11 be b8 fa b9 be 88 da 5f bd 50 be 2e 3d
       -0.14186889 -0.36324096 -0.054651767 0.042661965
000230 ef 3d 9e 3e 18 19 66 bd 8f 03 8c 3e 34 a2 3e 3f
       0.30906627 -0.056176275 0.27346465 0.7446625

player_tree_1.W.bias f4 [12]
000000 86 f8 e6 ba c1 91 7b ba be 79 04 bb 12 0b 66 bb
       -0.0017621673 -0.0009596609 -0.0020214166 -0.0035101813
000010 1b 3f 38 ba 6f 25 5d ba 6b d0 f3 bb 5b 51 02 bc
       -0.00070284464 -0.0008436059 -0.007440617 -0.007953967
000020 31 d6 4b bb 72 46 f2 bb 8e 6d 50 bc b9 45 87 bb
       -0.003110301 -0.0073936516 -0.012721432 -0.0041281846

player_tree_1.W_self.weight f4 [12, 12]
000000 0b a2 0a be fd 13 14 3e 49 b4 1d 3f 3e 6b 65 be
       -0.13538377 0.1446075 0.6160322 -0.22404191
000010 e6 de 34 3f 73 8a 95 bd 79 e8 34 be b0 c5 48 be
       0.70652616 -0.07301798 -0.17666806 -0.19606662
000020 1d aa cb bb f5 7d f3 3e b8 c5 24 3e fe 69 6f bc
       -0.0062153474 0.47557035 0.16091049 -0.014612673
000030 fb 84 d4 3e 25 19 be bd c5 72 91 bd 79 06 99 bd
       0.41507706 -0.0928214 -0.07101969 -0.07471938
000040 4c 52 3a be 32 89 de be 94 f9 55 3e 34 6a 07 3f
       -0.18195456 -0.43464047 0.20895988 0.5289643
000050 ab 03 0c 3e 62 3c b8 3d 63 e7 78 3e 9c 6c 4f bd
       0.13673274 0.08995892 0.24307017 -0.050640687
000060 4e 12 41 3e ca 16 8a 3e da e6 a0 3d c2 42 16 be
       0.18854639 0.26970512 0.078565314 -0.14673904
000070 58 80 25 3d 02 ae 9f 3d 17 1b e9 be e4 ae 73 3f
       0.0404056 0.07796861 -0.4552848 0.95188737
000080 cf 8f b8 3e e7 41 93 3e b9 d3 28 be ba b5 54 3e
       0.36047217 0.28761217 -0.16487016 0.20772448
000090 a9 5b 66 be d2 70 0c bd 7a 44 c6 be a9 d0 ac 3d
       -0.22495903 -0.03428728 -0.38724118 0.08438236
0000a0 f6 47 f4 3e 26 46 6f 3d 4b 6b 11 bf df cf ef 3d
       0.47711152 0.05841651 -0.5680434 0.1170957
0000b0 52 ff a1 3d 3f 0f 80 be 1f 9e a9 3d a3 25 9b be
       0.079100266 -0.25011632 0.08282112 -0.30302152
0000c0 6d 9b ee 3e 5d 49 7f 3e 1a 10 de 3a eb 3e 13 3f
       0.46602955 0.2493033 0.0016942054 0.5751788
0000d0 c9 c6 6f 3e 70 8c 89 be 6d ce 40 be 3c 0c 85 3e
       0.23415674 -0.26864958 -0.18828745 0.25985897
0000e0 dd 97 31 be b0 ae b9 bd 13 cb bf bd 4c 16 7e bd
       -0.17343087 -0.09066522 -0.09364905 -0.062032983
0000f0 d6 e7 8d be 61 fa ec be d8 c8 8e be d4 60 a6 be
       -0.2771594 -0.46284774 -0.27887607 -0.3249575
000100 7e 2e 9a 3b 23 4f a5 be d2 6d 18 bf a3 2d b2 bd
       0.0047052493 -0.3228694 -0.5954257 -0.08700111
000110 0e 9f a1 be e2 d1 05 3f df 13 e8 be cb 30 1f 3e
       -0.31566662 0.5227338 -0.4532766 0.15545957
000120 af d7 02 3f 22 dc bf bd 2b e0 97 be cf bd d7 bd
       0.5111036 -0.09368159 -0.29663214 -0.1053425
000130 6b de 5f 3e 79 49 fa 3b 2a 40 a0 3e ee 66 04 bd
       0.2186219 0.007638153 0.31298953 -0.032324724
000140 39 61 75 3e 31 5c 3d 3f 5a 4e f8 bd 72 9a 3e 3e
       0.23962869 0.739688 -0.121243194 0.18613604
000150 a6 b8 cb 3c 2c 40 34 3e c1 a9 27 3e db 31 87 be
       0.02486832 0.17602605 0.1637335 -0.26405224
000160 1c b7 bd 3e 52 81 93 3e 2c e2 cf 3d 8f c6 be be
       0.37053764 0.288096 0.10150561 -0.37260863
000170 e6 a1 88 bd b3 30 45 bd 04 92 f1 3e 55 33 1a bf
       -0.06671505 -0.048142146 0.47181714 -0.60234576
000180 64 ef 9f 3e e7 4d 16 3e 95 df 2e bd d1 f7 82 be
       0.31237328 0.14678155 -0.042693693 -0.25579694
000190 ef 15 57 be 16 c5 95 3e 17 a4 c7 3e e2 e6 8d 3d
       -0.21004461 0.29251927 0.38992378 0.06928803
0001a0 78 16 98 3e 13 42 6a be 08 45 8f 3e a1 89 9d 3e
       0.29704642 -0.22876768 0.27982354 0.30769065
0001b0 2e 45 88 bc c5 90 61 3e 5f 78 04 be 4d 6e d0 be
       -0.01663455 0.22027881 -0.12936543 -0.40709153
0001c0 2c f6 25 be d6 b8 30 bd 20 d9 59 3e 79 85 06 be
       -0.16207188 -0.043145023 0.21274233 -0.13136853
0001d0 f7 81 8f be 22 b5 04 be 04 b4 d3 bd 5b 12 00 be
       -0.28028843 -0.12959722 -0.1033707 -0.12507002
0001e0 34 57 dd 3a a6 8f 5c 3e c6 14 00 be 0c 0d 27 3f
       0.001688695 0.21539173 -0.12507924 0.6525428
0001f0 7d 32 2b bd db 3d 0f bf 74 17 0d bf c7 31 1c be
       -0.041796196 -0.5595376 -0.5511391 -0.15253364
000200 ec 14 17 3e 75 bc 81 3e 73 6b 95 be 59 77 bd be
       0.14754075 0.25339094 -0.2918354 -0.37005118
000210 fd 7b df be fd 43 20 bf 10 32 e0 3e bf 87 1f be
       -0.43649283 -0.6260374 0.43788195 -0.15579127
000220 6a 23 0d bf 1e 20 2e be e8 ad 44 3d 8c c4 49 be
       -0.5513216 -0.17004439 0.048017412 -0.19703883
000230 f5 f3 4a 3e 51 c3 30 be e2 93 81 be 52 65 37 bf
       0.19819625 -0.17262007 -0.25308138 -0.7163898

player_tree_1.W_self.bias f4 [12]
000000 86 f8 e6 ba c1 91 7b ba be 79 04 bb 12 0b 66 bb
       -0.0017621673 -0.0009596609 -0.0020214166 -0.0035101813
000010 1b 3f 38 ba 6f 25 5d ba 6b d0 f3 bb 5b 51 02 bc
       -0.00070284464 -0.0008436059 -0.007440617 -0.007953967
000020 31 d6 4b bb 72 46 f2 bb 8e 6d 50 bc b9 45 87 bb
       -0.003110301 -0.0073936516 -0.012721432 -0.0041281846

player_tree_2.W.weight f4 [12, 12]
000000 cc 38 db 3e e5 e2 9b 3e 05 89 3b be de c3 c6 be
       0.4281677 0.30446544 -0.18313988 -0.3882131
000010 17 05 cd be b0 b4 2e 3f fe 83 65 be 5d e1 0e bf
       -0.40042946 0.6824446 -0.22413632 -0.5581263
000020 1a 34 9a be 1d 15 c0 3c aa 22 ea ba 99 d6 b8 3e
       -0.30117875 0.023447568 -0.0017863114 0.36101225
000030 cf 44 6c 3e f7 30 25 3e 74 3d c3 3e ad df 39 be
       0.23073123 0.1613196 0.38132823 -0.18151732
000040 e3 24 a0 be 42 6b b1 be 9d 57 23 3e fc 53 8c 3e
       -0.31278142 -0.34652144 0.1595139 0.27407825
000050 9f 65 f6 3e 85 e0 e1 3e 07 3b 55 be e2 ff 49 bf
       0.48124406 0.44116607 -0.20823298 -0.7890607
000060 3c 8e 06 be 7e be aa 3e 43 8a 18 be 1a 6b 48 3d
       -0.13140196 0.3334846 -0.14896493 0.048930265
000070 fe 5f ff 3e 1d 11 ab 3d 31 04 b1 bd 65 9a 06 3c
       0.49877924 0.083528735 -0.086433776 0.008215521
000080 fa cf 5b 3d 16 c9 53 3e f6 64 3b 3e ce 1a 73 3f
       0.05366514 0.20682177 0.18300232 0.94962776
000090 5a f0 d7 3b c0 95 25 3f 13 54 16 3e d6 b2 2a be
       0.0065899314 0.64681625 0.1468051 -0.16669783
0000a0 fc 47 73 be 25 90 07 be b0 7e 9f be d3 f4 b0 bd
       -0.23757929 -0.1323858 -0.31151342 -0.086404465
0000b0 c3 aa ad 3d b0 de ac bd 71 f8 e7 3d 93 4e 00 3e
       0.08479836 -0.08440912 0.11326683 0.12529974
0000c0 65 55 2a bd bc c4 8a be e4 6e 95 bd d6 1d 97 be
       -0.041585345 -0.2710322 -0.07296541 -0.2951495
0000d0 7e 80 20 be 51 9b 30 3f 7a a5 c7 bc 88 7f 65 3d
       -0.15674016 0.68986994 -0.024370898 0.056029826
0000e0 10 fe 9c 3e d2 6a 22 3f 2e a6 f0 3d cd d2 66 3e
       0.30662584 0.63444245 0.11750446 0.22541352
0000f0 22 fb 99 3e d3 fc 3d be 2a 20 31 be e1 03 90 bd
       0.30074412 -0.18553476 -0.17297426 -0.0703199
000100 2d 93 9d be b7 c4 f5 3e 23 f2 8d 3e 2e 7c 96 3e
       -0.3077635 0.48001644 0.27723798 0.29391617
000110 98 ca 5d bd 87 e8 73 3c ae 60 45 3e ca c0 ae be
       -0.054148287 0.014886982 0.19275162 -0.3413146
000120 a5 e6 6b 3e 31 9d 06 be 1d eb b7 be 5e 4a 16 be
       0.23037203 -0.13145901 -0.35921565 -0.14676806
000130 fb a0 49 be 0e 6f 37 3f ce 56 88 3e 80 ac 86 bd
       -0.19690315 0.7165383 0.26628727 -0.065758705
000140 91 36 7d 3c fa 65 24 3e 87 75 84 3e ee 3a 49 be
       0.015454904 0.16054526 0.25870916 -0.19651386
000150 d0 38 23 3e 0e 76 b5 3d 73 3f 12 3f ad 78 9a be
       0.15939641 0.08860408 0.57128066 -0.30170193
000160 cf 72 88 3e 69 b1 65 3e 20 7c 4b bb d3 75 8f 3e
       0.26650092 0.22430958 -0.0031049326 0.2801958
000170 1a 50 8b 3e 1b e0 d9 bd 42 1c d2 3d b9 81 16 be
       0.2720955 -0.10638448 0.10259296 -0.14697923
000180 5d 33 73 3e a0 bf ac 3e b4 96 a8 3e 73 ad e6 3d
       0.23750062 0.33739948 0.32927477 0.112635516
000190 92 ce a7 be 7b 92 59 3e a5 36 13 3e 99 69 fc 3d
       -0.32774788 0.21247284 0.14376314 0.12324829
0001a0 c1 31 fb 3e ae 28 af 3e fe 35 93 bd ae 0f dd bd
       0.49061397 0.34210724 -0.071880326 -0.10794006
0001b0 d4 d8 7b 3e 9d 48 a5 3e 1f 21 aa 3e 7d fb 8f bd
       0.24594432 0.32281962 0.33228394 -0.070303895
0001c0 20 54 99 be 93 9a 8f be ef af 9b 3e 19 bf 03 bc
       -0.29946995 -0.28047618 0.30407664 -0.008041167
0001d0 54 a7 1d bf 0d d8 06 bf ec 34 47 bb 4d a1 00 be
       -0.6158345 -0.5267342 -0.0030396534 -0.12561531
0001e0 4a 29 87 be ba 96 8f 3e a6 7c 93 3e 48 e4 d8 3e
       -0.2639869 0.28044683 0.28806037 0.42361665
0001f0 25 4d 44 be 8b d1 00 3f 2e 3c c7 be d9 b8 51 3d
       -0.19170053 0.5031974 -0.389131 0.051201675
000200 78 4d b6 be c3 9c 86 be 12 af bd bd 3c 27 dd bd
       -0.3560598 -0.26291475 -0.09261908 -0.10798499
000210 45 1c b9 be 53 38 2d 3e 67 3e b2 3d 4b 85 20 3e
       -0.3615438 0.16916017 0.087033086 0.15675847
000220 22 6c ab 3c 08 0e 82 be b3 ee 91 3e 4a d3 0b 3e
       0.020925585 -0.2540133 0.28502426 0.13654819
000230 cc a7 4d 3e 72 43 c8 be 0a 0b e9 bd 02 94 66 be
       0.2008354 -0.39113957 -0.11379059 -0.22517398

player_tree_2.W.bias f4 [12]
000000 45 3e 38 bd f2 fc 86 3b 48 61 22 39 e1 de aa bb
       -0.04498126 0.004119509 0.00015485764 -0.0052145575
000010 f5 d8 2a bb 84 4b aa bb ea 25 69 bc a5 8a 0b bb
       -0.0026069258 -0.0051969904 -0.014230231 -0.0021292355
000020 be fc b5 bb 06 64 86 bb 9b d1 c2 bb dd d2 be bc
       -0.005553811 -0.004101279 -0.005945397 -0.023293907

player_tree_2.W_self.weight f4 [12, 12]
000000 83 96 35 be f7 98 be ba 85 97 ac 3d d1 62 5a be
       -0.17733197 -0.0014541437 0.084273376 -0.21326758
000010 6c 77 78 3e a0 8a b6 be 78 32 5d be e3 3a ec be
       0.24264306 -0.35652637 -0.21601284 -0.46138677
000020 f3 63 c0 be 02 49 87 3e 7c 7b b4 3d 82 cd 17 be
       -0.37576255 0.26422888 0.08812615 -0.14824489
000030 c8 59 e5 be a1 6e 85 be be 45 d9 3d 88 be 5a 3e
       -0.4479506 -0.26060966 0.106090054 0.21361744
000040 49 cc e0 be 42 d4 ff be 90 ff 92 be 59 cc 34 3f
       -0.43905857 -0.49966627 -0.28710604 0.7062431
000050 3b e1 27 be b1 38 87 bc 1c 4d f3 3d 99 91 06 3d
       -0.16394512 -0.016506525 0.11879942 0.032853696
000060 c9 c0 cf be a7 72 f0 3e a0 d0 d0 be 2d ee 9c bd
       -0.4057677 0.46962473 -0.40784168 -0.07662616
000070 2c 4d b9 3d bd 12 da 3e 50 22 44 3e f4 fb 8a bc
       0.090479225 0.4259242 0.19153714 -0.016965844
000080 92 84 c7 3e 8b 99 83 3e a7 d7 51 be 21 22 a9 be
       0.3896833 0.2570308 -0.20492421 -0.3303385
000090 7c 58 f3 3e 60 ab 16 3e 9c ac 1d 3f 59 98 6e 3e
       0.47528446 0.14713812 0.61591506 0.23300304
0000a0 af 66 48 3d 26 4f 67 3e cf 4f f7 3e 66 ad 62 be
       0.04892605 0.22588786 0.48303077 -0.22136459
0000b0 d2 85 1f 3f 3a 92 14 be 3c bd c5 be b5 10 1a be
       0.6231357 -0.14508906 -0.38620937 -0.15045436
0000c0 71 b8 0b 3f 69 1f 05 3e c2 a0 9a be e4 46 d5 3d
       0.5457831 0.13000263 -0.30200773 0.10413912
0000d0 de e6 cd bd 27 e2 08 3f f0 5d be 3d 5c 26 ad bd
       -0.100538 0.5347008 0.09295261 -0.08454582
0000e0 52 2f a0 3e 75 17 96 3c ea 6d 2b be e2 d9 69 3d
       0.31286103 0.018321732 -0.16741148 0.057092555
0000f0 d2 5c 19 3d c2 e1 86 3e 17 3a da 3d 47 79 3c 3d
       0.037442036 0.26344115 0.10655611 0.046014097
000100 f5 77 bb 3e 10 bd e5 3e 1d f3 11 bf f7 0a 59 3e
       0.36614957 0.44870806 -0.57011586 0.21195589
000110 5a 45 4d 3e bc ae 05 3d 80 fc e3 3e 49 07 0d 3f
       0.20045987 0.032637343 0.4452858 0.5508924
000120 b7 84 a9 bd 3f a7 9d 3e c5 72 10 3e ea a8 2e bf
       -0.082772665 0.3079166 0.14106281 -0.6822649
000130 ee b4 16 3f 7e 5c 90 3d 4e 5d b8 3e ca b9 8b bc
       0.58869827 0.070488915 0.36008686 -0.017056365
000140 e6 7d 05 3e db d2 8f be 97 13 b1 3e f2 0f 19 3e
       0.13036308 -0.28090557 0.34585258 0.14947489
000150 fc 6c e2 bc ba c6 a3 be f8 e2 7b 3e 53 27 51 3e
       -0.027639858 -0.31987554 0.245983 0.20425157
000160 84 b1 39 3e ea 73 70 3b a8 52 5a 3e eb 3d 1c 3f
       0.18134123 0.0036690184 0.21320593 0.6103198
000170 d1 d6 ef be 99 20 ee 3d 1b b8 8c 3d b2 2c 7a 3e
       -0.4684358 0.11627311 0.06871053 0.24431112
000180 72 ef 19 3d e4 8c 84 3e 5c e3 05 bf 6c eb 0b 3f
       0.03758187 0.2588874 -0.5230005 0.546561
000190 bb 92 2d be 70 ec e5 be 33 aa c8 be 41 e5 01 be
       -0.16950504 -0.4490695 -0.39192352 -0.1268511
0001a0 71 3c d1 3e 26 16 ae 3e fe d9 aa bc a6 a4 ac be
       0.40866426 0.34001273 -0.0208559 -0.33719367
0001b0 d0 22 f6 be 1f 3f 94 bc bd 17 d1 be da 3c 01 3d
       -0.48073435 -0.018096505 -0.40838423 0.031552173
0001c0 37 8e 58 bd 18 2c 8c be c2 af f5 be 4e 9f 2e 3e
       -0.05287 -0.2737739 -0.47985655 0.17052957
0001d0 b2 ee 97 be a8 b3 9b 3e 36 c2 65 3e 77 ad 6f bd
       -0.29674298 0.30410504 0.22437367 -0.05851504
0001e0 48 c0 3e bc d7 47 28 be 66 9e be be 31 85 d7 3e
       -0.011642523 -0.16433655 -0.37230223 0.42093804
0001f0 e6 8e 4c 3e 0e d0 c4 bd 11 55 59 be 69 14 45 3e
       0.19976386 -0.09609996 -0.21223857 0.19246067
000200 a1 ce 16 bf 0a 85 db bd 80 c7 4a be 8e b9 1c bd
       -0.5890904 -0.107187346 -0.19802666 -0.038262896
000210 7c b7 c1 3d 85 3a 8a bd 5f 35 d2 be c5 79 8e 3e
       0.09458825 -0.06749443 -0.41056344 0.27827278
000220 21 5c 31 bf 4b d2 7f 3d 0f ff ae 3d 9a 63 90 be
       -0.692812 0.06245641 0.08544742 -0.2820099
000230 89 aa d3 be 14 27 60 be 92 ba 0b 3e 2b 8b ab bc
       -0.41341045 -0.21889907 0.1364539 -0.020940384

player_tree_2.W_self.bias f4 [12]
000000 45 3e 38 bd f2 fc 86 3b 48 61 22 39 e1 de aa bb
       -0.04498126 0.004119509 0.00015485764 -0.0052145575
000010 f5 d8 2a bb 84 4b aa bb ea 25 69 bc a5 8a 0b bb
       -0.0026069258 -0.0051969904 -0.014230231 -0.0021292355
000020 be fc b5 bb 06 64 86 bb 9b d1 c2 bb dd d2 be bc
       -0.005553811 -0.004101279 -0.005945397 -0.023293907

player_tree_3.W.weight f4 [12, 12]
000000 f7 f2 43 3e 5b 9f 43 bf 55 75 a1 bd cf 90 5f 3d
       0.19135652 -0.7641503 -0.078837074 0.05458146
000010 94 ce ed bd 29 02 7e bd 36 60 3a bd 73 7a 37 be
       -0.11611667 -0.06201378 -0.04550191 -0.17917804
000020 48 c2 cf 3d e3 77 79 3c 41 96 81 3e a7 3b 37 bd
       0.10144478 0.015226337 0.25309947 -0.044734623
000030 a4 95 b0 3d 2c 0d 95 3e f0 3b e9 3e 09 aa 48 be
       0.08622292 0.29111612 0.4555354 -0.19596113
000040 d0 7b 9a 3d cc 7a a1 bd 7d 21 5a 3c fd 79 15 be
       0.075431466 -0.0788475 0.013313648 -0.14597316
000050 e3 0d fe 3c 01 21 ec 3e 95 97 35 bd 77 bd d6 3e
       0.031012481 0.4611893 -0.044334013 0.41941425
000060 39 e1 a0 3d a0 5b bc 3e c0 2c b7 3d 35 1b 3b 3e
       0.07855458 0.36788654 0.08944082 0.18272097
000070 cc 01 8a 3e b3 83 96 3e 3d e4 e9 bd 9a 36 0d 3f
       0.26954496 0.29397354 -0.11420486 0.5516144
000080 80 4c 43 3e 07 d9 fc be c6 51 8a bc b5 13 2d 3d
       0.19072151 -0.4938433 -0.016884696 0.042255122
000090 b2 7c 89 be 6d e9 f2 bc 2f 32 7e 3c 11 2d 02 be
       -0.26852947 -0.029652322 0.015514894 -0.12712504
0000a0 6e 4a 07 bb 1c 46 39 3e 8e 83 52 3b f4 53 a3 3e
       -0.0020643729 0.18093151 0.003212187 0.3189999
0000b0 cd ab 4c 3b b1 a5 a1 be 92 b4 16 3f 74 29 59 be
       0.003123033 -0.31571725 0.5886928 -0.2120722
0000c0 c4 cb 37 be dc 39 18 bd 1a 27 80 3e 32 f5 16 be
       -0.17948824 -0.037164554 0.25029832 -0.14741972
0000d0 af 58 84 3e 7d 5d 4a be 19 65 78 3e 06 5d bb 3b
       0.2584891 -0.19762225 0.24257316 0.0057178764
0000e0 13 03 b2 3e 92 93 d1 3c 52 cb 52 bc fb 39 2b 3e
       0.3476797 0.025583062 -0.012865858 0.16721337
0000f0 93 a0 12 be 2b 83 fd 3e 0a d9 73 bd 4d 58 78 be
       -0.14319067 0.49514136 -0.059533156 -0.24252434
000100 e9 eb a3 3e 2c 09 6c be e7 f5 aa be bb bc 1e bf
       0.32015923 -0.23050374 -0.33390734 -0.6200673
000110 46 39 c8 be d2 37 ec 3d 78 0e 6d bd 05 49 ed 3d
       -0.39106196 0.115340844 -0.057875127 0.11586193
000120 af 6d 5a be 69 52 c0 bd 7b dc ce bd 83 20 14 bc
       -0.21330903 -0.093907185 -0.10100647 -0.0090409545
000130 ab 4f 9a be a6 b9 bb 3d 0e 9f 0e 3f c1 2a 68 3d
       -0.30138907 0.09166269 0.5571145 0.0566814
000140 14 34 ca 3e 8e 84 ce be 5d 81 7a 3e 29 d6 0f 3e
       0.39492857 -0.40335506 0.2446341 0.1404654
000150 17 44 54 be 44 b5 e4 3c 0f 38 9a 3d d8 c6 08 bd
       -0.20729099 0.027918465 0.075302236 -0.033392757
000160 d0 ec 85 bd aa 8f 99 3c d0 3a a1 3e 6a fc 54 be
       -0.06539309 0.018745262 0.31490183 -0.20799413
000170 4a 03 a0 be d6 0f 70 3d 00 f3 37 be a1 1d 05 3e
       -0.3125251 0.058608852 -0.17963791 0.12999584
000180 5e 73 d4 3c 81 38 9e 3d bc 49 9c 3d a2 70 a7 3d
       0.025933918 0.07725621 0.07631251 0.0817578
000190 90 8e 3c be f2 f0 51 3e c2 56 3d 3f 74 93 ae 3d
       -0.18413758 0.2050207 0.73960507 0.08524218
0001a0 43 91 9a 3d 19 2c ed bd 16 a6 63 bb 90 67 9c bd
       0.07547238 -0.115806766 -0.0034736446 -0.076369405
0001b0 6f b1 02 bc fe 0e df 3e 6e 9c fb 3e 84 20 92 3e
       -0.007976874 0.43566126 0.49142784 0.28540432
0001c0 b6 25 66 3f 6d 61 97 3e e7 f6 dd 3d 97 66 25 3e
       0.8990129 0.29566517 0.108381085 0.16152416
0001d0 e7 79 57 bd fa 9a 20 3f a1 d4 06 be 8a b3 16 3e
       -0.05260649 0.62736475 -0.13167049 0.14716926
0001e0 4d 78 61 3e e0 b2 ca 3c ae 79 fa be c1 72 92 be
       0.22018547 0.024743497 -0.4892096 -0.28603175
0001f0 e0 92 55 3d 1a 26 12 be 88 a9 0d 3e f7 7c ab be
       0.052142024 -0.14272347 0.13834202 -0.33493778
000200 d8 76 db 3d 8d e6 60 be f4 15 09 3f 32 5d b2 3e
       0.10716027 -0.21962948 0.5354912 0.34836727
000210 b7 9e e7 be d5 02 ce 3d ad fd 9f 3e c2 0a 88 3b
       -0.45238277 0.10059134 0.31248227 0.004151673
000220 05 f0 b1 3e e8 df 65 3e c4 14 11 bf 22 1e 59 3e
       0.34753433 0.22448695 -0.5667231 0.21202901
000230 f8 ac 00 bd be 1b 8d 3e 59 8e fb bb 8a 46 25 bf
       -0.031414956 0.27560228 -0.0076768813 -0.6456076

player_tree_3.W.bias f4 [12]
000000 8a f5 81 3a 56 3f b4 bc 9a 57 51 bb d4 12 f1 ba
       0.0009915095 -0.022002857 -0.0031943084 -0.0018392452
000010 4b 26 a5 bb c1 00 2e bd cb c9 58 bd e4 10 ae bd
       -0.0050399653 -0.042481188 -0.05292682 -0.084993154
000020 97 02 46 bb 25 29 b0 bb 56 93 60 bc 94 c6 96 bb
       -0.0030213946 -0.0053759986 -0.013707003 -0.004601309

player_tree_3.W_self.weight f4 [12, 12]
000000 bc fb 4c be 35 6c 73 be 46 25 cb bd 03 6e 85 bd
       -0.20017904 -0.23771746 -0.09919219 -0.06515124
000010 4c 51 f8 3e ac fc 93 3e 23 58 e3 3e 14 a6 bc 3e
       0.48499525 0.2890371 0.4440318 0.36845458
000020 f0 2c f9 3c b8 2c 1e 3e 66 23 a5 3d bd 26 b3 be
       0.030416936 0.15446746 0.08063392 -0.34990492
000030 4c de b4 be be e6 fa bc 98 dc 35 bd a8 89 7d bd
       -0.3532585 -0.030627605 -0.044399828 -0.061898857
000040 70 e8 81 bd 06 94 0a be 6c 26 14 be 3b 0b 9e bd
       -0.06343162 -0.13533029 -0.14467782 -0.07716986
000050 a8 04 b6 be ab 55 40 bd ff 4d 37 3e 40 c3 c2 be
       -0.35550427 -0.0469567 0.17900847 -0.3803959
000060 48 1f 6b be 54 40 c0 3e 91 6d 92 3e 41 1d 9e 3e
       -0.22961152 0.37549078 0.28599218 0.30881694
000070 1c 2b c5 3e f2 6d 23 bd 3b ef b9 bd e7 79 ab 3e
       0.38509452 -0.039899774 -0.09078833 0.33491442
000080 5b 03 83 3e 3e cb 09 be 65 88 e0 3e 84 1f a6 bd
       0.25588498 -0.13456437 0.4385406 -0.0811148
000090 ad bb 44 bf 03 56 20 3d e5 53 95 3d 5b 71 c4 3e
       -0.7684887 0.039144527 0.07291392 0.38367733
0000a0 44 7d 06 be 5a a7 95 be c0 fe 9d be 1d e1 1a 3f
       -0.13133723 -0.29229242 -0.3085842 0.60499746
0000b0 25 38 4c 3b 84 aa d7 be 5a a9 27 3e 6f 9a 10 bf
       0.0031161394 -0.4212228 0.16373196 -0.56485647
0000c0 cf dc 4c be 11 33 5e be 3d 35 66 be e9 a1 e3 3e
       -0.20006107 -0.21699168 -0.22481246 0.44459465
0000d0 08 9b 35 3f 17 82 d5 3e e5 ce a0 ba 17 b6 2b 3e
       0.70939684 0.41700813 -0.0012268691 0.1676868
0000e0 ff f4 46 be 38 ef 8e be 17 1c 9f 3e 67 6f 25 3e
       -0.19429396 -0.27916884 0.31076118 0.16155778
0000f0 a1 e8 9b 3e 1c 7e ea 3d 00 24 c9 3e c8 e2 b1 3e
       0.3045092 0.11449835 0.39285278 0.34743333
000100 5b e8 a5 bc 35 29 80 be b0 47 ff 3d 09 c1 21 be
       -0.020252397 -0.25031438 0.12464845 -0.15796293
000110 69 c5 7c be f0 2c 16 be 9d 4f 3b bd 2f 24 01 bf
       -0.24684681 -0.1466558 -0.045730222 -0.50445837
000120 92 a4 53 3e 67 7d 51 bf de 25 3a be 28 13 24 be
       0.20668247 -0.81831974 -0.18178508 -0.16022933
000130 bb 7e 2f 3e 68 8b 26 be 8b c2 f4 3d d5 9b 10 3e
       0.17138188 -0.16264117 0.119511686 0.14121945
000140 b1 ab 52 3d 85 72 a2 3b 5c 13 83 3c 26 8f 17 bd
       0.05143327 0.0049574994 0.016000442 -0.03700175
000150 b3 53 e6 3d e1 13 50 be e1 a4 37 3e e0 82 86 3e
       0.11246433 -0.20320083 0.1793399 0.26271725
000160 d7 42 79 3e 16 21 26 3f 8f 65 24 3c db e2 29 bf
       0.24341904 0.64894235 0.010033979 -0.6636178
000170 4c 98 30 bd 58 68 d1 bd b8 1f aa bd 6c 67 bc be
       -0.04311399 -0.1022498 -0.08306831 -0.36797655
000180 84 38 61 bf 67 98 37 3e 90 73 48 be 67 3e c6 3e
       -0.8797686 0.1792923 -0.19575334 0.38719484
000190 56 ad 4c 3e bb 63 1c 3f ae 44 ec be 40 f8 c7 3e
       0.19987997 0.61089677 -0.46146148 0.39056587
0001a0 a3 d8 93 3d 9e 16 3a 3e 60 dc 15 bf 1c 40 b7 3b
       0.072190545 0.1817269 -0.5853939 0.005592359
0001b0 91 9d d7 ba 51 6f 8c 3e a3 9f f1 3e e5 89 c4 bd
       -0.0016450157 0.27428678 0.47192106 -0.09596614
0001c0 7a 1d 86 3e 5b 39 27 bc 41 b0 c2 3e 58 ca ab be
       0.26194364 -0.010206546 0.38025096 -0.33552814
0001d0 07 da 8d 3e 18 e0 d8 bd 6d 78 00 3f fa fa 00 bf
       0.27705404 -0.105896175 0.50183755 -0.5038296
0001e0 6f b4 ef bd fe c4 ae bd 30 9b 34 bd d3 11 1c bb
       -0.11704337 -0.08533667 -0.04409331 -0.0023814335
0001f0 2f 25 be bd 65 9a d7 bd c2 68 f7 be 24 80 b2 3e
       -0.09284436 -0.10527495 -0.4832211 0.3486339
000200 70 8c 34 3c 38 c3 fb 3e d8 0b 9e 3d 71 28 36 be
       0.011019811 0.49172378 0.07717103 -0.17788865
000210 4e 4f 09 3e 02 98 c0 be ef 18 87 3e 4a bb de 3e
       0.13409159 -0.37615973 0.2638621 0.43502265
000220 fc 01 3a 3d be ec e8 3e 9c b6 46 3e e3 d2 10 bc
       0.04541205 0.4549312 0.19405597 -0.008839342
000230 de e3 c9 3d 9c 9f 24 3f 2c c7 79 3c 10 06 89 be
       0.09857915 0.64306045 0.01524524 -0.26762438

player_tree_3.W_self.bias f4 [12]
000000 8a f5 81 3a 56 3f b4 bc 9a 57 51 bb d4 12 f1 ba
       0.0009915095 -0.022002857 -0.0031943084 -0.0018392452
000010 4b 26 a5 bb c1 00 2e bd cb c9 58 bd e4 10 ae bd
       -0.0050399653 -0.042481188 -0.05292682 -0.084993154
000020 97 02 46 bb 25 29 b0 bb 56 93 60 bc 94 c6 96 bb
       -0.0030213946 -0.0053759986 -0.013707003 -0.004601309

player_tree_4.weight f4 [8, 12]
000000 7f 47 9c 3e c1 73 33 be db 0b b9 3d f7 01 35 3e
       0.30523297 -0.17524625 0.090354644 0.17676531
000010 6b 21 02 bc 18 5f 89 be 47 b5 3d bf 3e 40 8c be
       -0.007942538 -0.26830363 -0.7410473 -0.27392763
000020 a2 13 c2 3e f5 0c 02 3e 04 21 e9 bd 74 0e 81 3f
       0.37905604 0.12700255 -0.1138325 1.0082536
000030 a6 73 41 3e a5 ff 76 3e 6a fb 97 3e 96 13 6b 3e
       0.18891773 0.24120958 0.29684 0.2295669
000040 e3 9d e7 3d 76 42 86 3d 95 61 37 bf 71 ff 29 be
       0.113094114 0.06555645 -0.71633273 -0.1660135
000050 c1 38 29 3e f3 de 25 be 96 0a 34 bd 13 1d 1a 3f
       0.16525556 -0.1619833 -0.043955408 0.60200614
000060 f1 91 c5 bc d6 74 4c 3d 90 42 28 bf d5 67 e1 3e
       -0.024117442 0.04991611 -0.65726566 0.4402453
000070 29 ad 06 bf 6c 21 03 3f 22 15 dd 3e 99 92 ca be
       -0.5260797 0.5122287 0.43180186 -0.3956497
000080 a8 09 0b 3f 5a 73 a4 bd 0e 17 06 be 84 f3 8a bb
       0.5431161 -0.08029814 -0.13094732 -0.004240455
000090 6e 8b ab 3d cf 44 83 3c 59 3f 3e be 8d 20 d0 be
       0.083762035 0.016024021 -0.18578853 -0.40649834
0000a0 f9 b6 00 be 6b 13 24 be fd 0e 64 be 39 7e 93 3e
       -0.12569799 -0.16023032 -0.22271343 0.28807238
0000b0 ec e8 86 be 6d 99 c6 be 35 64 cd 3c c0 c4 49 3e
       -0.2634958 -0.3878893 0.025072196 0.1970396
0000c0 a9 4b 4b 3c 0c 59 e0 3d f3 94 d1 3e 3e 12 68 3e
       0.0124081755 0.10954484 0.40933952 0.22663209
0000d0 a9 0b b8 be 41 fe 73 be 88 3e 6b be 62 e8 9f 3e
       -0.35946396 -0.23827459 -0.22973073 0.31231982
0000e0 2e 32 39 3d 79 e5 92 be a1 90 d3 3d 7d ca ca 3d
       0.04521387 -0.286907 0.1033032 0.09901903
0000f0 44 bb 46 3f 3a 72 bc be 0a e9 f0 3e ed b5 f6 be
       0.77629495 -0.36805898 0.47052795 -0.48185673
000100 66 ec 35 3f 54 26 0c be 13 19 90 be cb 2f a7 be
       0.7106384 -0.13686496 -0.2814413 -0.3265365
000110 e5 6c e8 3e a5 e6 26 3f dc 47 3f 3e 0e f7 42 bd
       0.4539558 0.65195686 0.18679756 -0.04759889
000120 bb d6 3e 3d 3e 7c 00 3e 89 16 ee bd ea e1 76 3e
       0.0465915 0.12547395 -0.11625392 0.24109617
000130 df 7d d6 3e 98 3b 55 3e 18 8a 5b 3e 69 46 2b 3e
       0.41892907 0.20823514 0.21439397 0.16726078
000140 fb 3b 55 be e4 38 25 bc 06 19 b5 be da c9 09 3e
       -0.20823662 -0.010084365 -0.35370654 0.13455907
000150 59 85 c4 bd 6e 15 f0 bd d9 67 81 3e 9b ee 8a be
       -0.095957465 -0.117228374 0.25274542 -0.27135167
000160 3c a4 e0 be b0 f4 38 37 b2 07 3a 3e cb e0 dc 3e
       -0.438753 1.1024225e-05 0.18166998 0.43140253
000170 e8 77 f8 bd 5f 13 a0 be 2b 37 e8 be a9 41 3b 3f
       -0.12132245 -0.3126478 -0.4535459 0.73147064

player_tree_4.bias f4 [8]
000000 81 fa 52 ba 2b c6 18 3b 37 25 1a 3b 15 01 9a 38
       -0.0008048192 0.0023311477 0.0023520717 7.343494e-05
000010 22 96 a7 bc a0 eb 3d ba a5 25 b7 bc 48 ef ea ba
       -0.020457331 -0.00072448887 -0.022356817 -0.0017924095

sun_influence_1.W.weight f4 [12, 12]
000000 4b 94 ed be bf 27 32 be c5 bb ab be 57 f2 8d 3e
       -0.464022 -0.17397974 -0.33541694 0.27723953
000010 0c a1 19 be 0d 57 c4 3e c0 86 93 be d8 d7 bc 3c
       -0.15002841 0.38347664 -0.28813744 0.023052141
000020 f8 82 39 3e fd b1 2c be 3b 85 09 3e 2c b5 e7 3e
       0.18116367 -0.16864772 0.1342973 0.4525541
000030 9e ca d0 3e 79 30 e3 3d ce 36 d4 be c4 54 29 3e
       0.40779585 0.1109323 -0.41448063 0.16536242
000040 68 13 37 3e 1a 85 9d bc 85 cc 88 bc 6c 3a 4e 3e
       0.17878497 -0.019228507 -0.016699085 0.20139474
000050 dc 62 02 3f 00 a1 90 bd 33 b5 ca be db de 08 3e
       0.509321 -0.07061958 -0.3959137 0.13366263
000060 05 37 2f bd d1 1e 18 bf 12 df d2 3e 18 ad 50 be
       -0.04277708 -0.5942202 0.41185814 -0.2037853
000070 c1 e4 8e be 62 aa 96 be 36 3a d1 3e 52 1a 36 be
       -0.279089 -0.29426867 0.40864724 -0.17783478
000080 f2 a1 49 be fe 94 4b 3e 0f 16 66 bf 65 97 68 be
       -0.19690683 0.19881055 -0.8987741 -0.22714002
000090 80 b4 3e be a8 33 ca 3e 26 d7 85 bd 16 06 07 bd
       -0.18623543 0.39492536 -0.06535177 -0.03296479
0000a0 83 64 4f 3e d0 49 4a 3d e6 cc 9e bd 14 a5 12 3e
       0.20253186 0.0493868 -0.07753925 0.14320785
0000b0 17 7f 08 be 11 7b 9f be 85 e5 fd 3d ca 16 2c be
       -0.13329731 -0.3114858 0.12397293 -0.16805568
0000c0 83 9f aa be 40 47 2f be 80 31 61 3e d1 fa 90 be
       -0.33324823 -0.17117023 0.21991539 -0.28316358
0000d0 bd 06 71 3e 58 7f ae 3e 22 19 0b be 5f 04 ba 3e
       0.23537727 0.3408153 -0.13583806 0.3633146
0000e0 3a d6 84 be 9a 77 2b 3e 32 74 cc 3c 22 a1 9b be
       -0.25944692 0.16744843 0.02495775 -0.30396372
0000f0 da 1b ad bd ee c8 9c 3e b6 49 49 be 9a 60 26 3e
       -0.08452578 0.30622047 -0.19657025 0.16247788
000100 44 ed fe 3c 74 b8 16 bf 7b bd 8f be 1d be af bd
       0.031118996 -0.58875203 -0.2807425 -0.08581183
000110 1c b6 4b be 49 8c 91 3e 10 93 85 3e 38 83 bb be
       -0.19893688 0.28427342 0.26088762 -0.3662355
000120 0a ce bf be f5 64 26 3d 4e de cf 3d 78 cb 81 be
       -0.37461883 0.040623624 0.10149823 -0.25350547
000130 98 1f 01 be f2 10 1a 3e 3d 16 ee 3d f2 51 92 bb
       -0.12609708 0.15045527 0.11625335 -0.004465335
000140 b6 ac c2 3e da 3e 23 3e df 64 06 bc 33 53 dd 3e
       0.38022393 0.15941945 -0.0082027605 0.43227538
000150 b6 36 3b 3d 4b 1a 2b bf 23 a8 0d 3e ef 11 84 3e
       0.045706473 -0.66836995 0.1383367 0.25794932
000160 91 7f 3d 3f a3 fe af ba 59 52 fc be 95 77 25 be
       0.74022776 -0.0013427328 -0.49281576 -0.16158898
000170 e8 9b 8d 3d f6 fa 93 be 09 ad 8b 3e e8 43 ef be
       0.069145024 -0.28902406 0.27280453 -0.46731496
000180 dc b9 87 bd 6e 6b 93 be 23 e7 bf 3e ae 9a 09 be
       -0.06627247 -0.287929 0.3748103 -0.13437912
000190 9d a6 6e be 58 a0 a0 be ca aa 30 3f ff 7f f2 be
       -0.23305745 -0.31372333 0.69010603 -0.47363278
0001a0 40 d3 4a 3d 34 f4 2e 3e 02 6f 99 3b 39 a8 6f bd
       0.04951787 0.17085344 0.0046824226 -0.05851004
0001b0 00 25 ee 3d 99 c6 df 3d 13 12 32 3e d3 d1 12 3e
       0.11628151 0.10926551 0.17389707 0.14337854
0001c0 04 2d 16 be f7 6f 56 3e 9f ca 7a be 96 d8 a9 3e
       -0.1466561 0.20941149 -0.24491356 0.33173054
0001d0 05 e9 ab be 56 4f f7 3e 65 0e 09 3f f7 bb c6 be
       -0.33576217 0.48302716 0.5353759 -0.3881528
0001e0 a9 9a ce 3e 4a 4c 5c be 6d 0e 33 3d bf ac d8 bd
       0.4035237 -0.21513477 0.04371493 -0.10579824
0001f0 6e 4e 3f 3e 0d 38 a2 3e 98 48 b9 bd 8d 48 f9 3e
       0.18682262 0.31683388 -0.09047049 0.48688164
000200 8c 60 af 3e 2f a1 6e bd f2 fd 7f 3d 08 95 3a bd
       0.34253347 -0.058259185 0.06249804 -0.045552284
000210 08 06 8a bd 93 1c 47 3e 1d b3 29 3e f2 2f 98 3b
       -0.067394316 0.19444494 0.16572233 0.0046443874
000220 cb 89 da 3e e2 b8 81 3d c0 77 d6 be 6d 31 10 3e
       0.42683253 0.06334092 -0.41888237 0.14081354
000230 b4 6d 91 3c 97 b0 72 3e 88 15 b3 be d0 0a 6c be
       0.017752506 0.23700176 -0.34977365 -0.23051

sun_influence_1.W.bias f4 [12]
000000 9c f1 9c 3c 10 83 b9 bb 55 f4 08 3c 28 a1 9c bb
       0.019158177 -0.005661376 0.008359035 -0.0047799535
000010 2a 78 02 bb 68 07 5d bd ab d8 49 bd a2 1b 1f 3c
       -0.001990805 -0.05396214 -0.049278896 0.009711178
000020 61 87 12 3c 17 f6 87 bb 9c e6 6c bb 24 81 cb ba
       0.00894341 -0.0041492092 -0.0036148196 -0.0015526158

sun_influence_1.W_self.weight f4 [12, 12]
000000 87 6c 67 be 95 22 97 be 77 98 80 be b7 f9 1a be
       -0.22599994 -0.29518571 -0.2511632 -0.15134321
000010 c1 8a 84 be 77 60 fb 3d 5f 19 9e 3d 8f fb 92 bd
       -0.2588711 0.122742586 0.07719683 -0.07176887
000020 de e8 7f 3e fe fb 2c 3e c7 46 00 3c bf 3f 60 bd
       0.24991176 0.16893002 0.007829375 -0.054748293
000030 31 f9 d4 be d5 2d 51 be ee de f8 be 6c 03 57 3f
       -0.41596368 -0.2042764 -0.48607582 0.83989596
000040 82 98 67 3e 94 69 29 3e af e1 e5 3e 11 f8 f3 bd
       0.22616771 0.16544181 0.44898745 -0.11912549
000050 20 8d 50 be b1 90 8f be 81 b2 03 3d b6 b2 e4 be
       -0.20366335 -0.28040078 0.032152656 -0.44667596
000060 91 ff 8b 3e 80 44 13 3f 2a ea 9d 3e 0f d2 5c 3c
       0.2734342 0.575264 0.30842716 0.013477816
000070 b7 c0 b1 3e 28 08 1f be 10 14 0c bf 73 f1 fc be
       0.34717342 -0.15530455 -0.5471811 -0.4940296
000080 85 23 9c 3e 9c 42 88 bd 5b 7a 6a 3e b3 73 af 3d
       0.3049585 -0.0665333 0.22898237 0.0856699
000090 7b c9 a9 be a8 34 65 3e cd 3f 1d bd 9e 38 9a 3e
       -0.3316153 0.22383368 -0.038390923 0.3012132
0000a0 c4 8a 8b be e7 cc 0a bd 26 35 ed bc cb 0d 86 3e
       -0.27254307 -0.033886816 -0.028956007 0.26182398
0000b0 50 20 e0 3e 68 db ab bd fb da 01 be ea 5b 1b 3f
       0.43774652 -0.08391458 -0.1268119 0.60687125
0000c0 78 4c 60 be 35 ca 8f 3e 04 95 83 3e e8 d7 34 3e
       -0.2190417 0.2808396 0.25699627 0.17660487
0000d0 7e b3 a6 3d e2 a9 f9 3e da e1 77 bc 28 fe 47 3e
       0.08139704 0.48762423 -0.015129531 0.19530547
0000e0 50 fb 0e 3f 64 4b 7b 3e 88 78 ed be 49 b8 68 3d
       0.5585222 0.24540478 -0.4638102 0.056816373
0000f0 94 d6 b0 3e fb 45 fd bd 1a 02 16 3d 67 9f cc be
       0.3453871 -0.12366863 0.036623098 -0.39965364
000100 58 cc 54 be b3 17 52 3e fc 3c 26 3e c5 ac aa 3e
       -0.20781076 0.20516853 0.16234201 0.33334938
000110 13 2f ef be b3 d1 3a bd c2 5f 5c 3e 26 8c 87 be
       -0.46715602 -0.04561014 0.21520904 -0.26474112
000120 4c 5d 5a be 16 86 c7 3e 17 8c 02 bf b9 80 27 3e
       -0.21324652 0.38969487 -0.5099501 0.16357698
000130 77 ee 9d be 4b 8c 09 3e 8c 70 41 3e 08 a1 8b bd
       -0.30845997 0.13432424 0.1889059 -0.06817824
000140 71 7a a1 3e 08 4b bb 3e 1e a9 85 3e 4e f7 7a bd
       0.31538728 0.36580682 0.2610559 -0.061271004
000150 7e 51 89 be 0c 42 73 3e 9b 30 7c be 8a 39 45 3d
       -0.26819986 0.23755664 -0.24627917 0.048150577
000160 11 42 69 be b2 36 6c 3e 0f 3d b9 3e 30 1f d4 3d
       -0.22779109 0.2306774 0.36179397 0.10357511
000170 e9 b2 b4 3e 66 3a ae bb e5 dd 25 be e3 22 8e 3e
       0.35292748 -0.00531702 -0.16197927 0.2776099
000180 83 4c 87 bc ee 2e 53 be 05 5b 26 3f e0 9d 27 3e
       -0.016515976 -0.20623371 0.64982635 0.16368818
000190 85 17 3f 3d 1a f3 de 3c a3 11 c1 bd 58 13 4d be
       0.04665329 0.02721553 -0.09427192 -0.2002691
0001a0 83 15 e0 be c0 5d 21 bc 2f 8e b4 3e f3 ee c9 3e
       -0.43766412 -0.009849012 0.35264727 0.39440116
0001b0 cb cd 2e 3d d2 26 4b 3f f2 96 63 3e 4a e2 43 3e
       0.04267673 0.7935611 0.2222555 0.19129291
0001c0 fb 06 dd be 1f 5f a8 be 8c 1b 1e bd a0 42 87 3e
       -0.43169388 -0.32885072 -0.03860049 0.26418018
0001d0 32 1f 20 bf 9e cc d3 be fa a1 ac 3c e0 bb c5 be
       -0.625476 -0.41367048 0.02107333 -0.386199
0001e0 6d bf cb bd c6 7a e5 bd ed 0a 19 3e 2e ba fd 3d
       -0.09948621 -0.11205058 0.14945574 0.123890266
0001f0 17 b9 c4 3e 1a 1d 14 3e a3 55 b0 be 03 16 dc 3e
       0.38422462 0.14464226 -0.34440336 0.42985544
000200 05 6c 82 be 32 b8 2c 3e af 15 72 3e a9 e2 5b 3e
       -0.25473037 0.1686714 0.23641084 0.21473183
000210 0b dc bb 3d 3f 3c 8f be 80 a9 ae be 87 93 b2 3e
       0.09172829 -0.27975652 -0.34113693 0.3487818
000220 14 1e 9b be 8a f6 8e bd d7 02 c8 be 0d 33 03 bf
       -0.30296385 -0.06980617 -0.39064667 -0.5124977
000230 ba 9f 90 3e ba ca 92 3e 46 b3 dd 3d 50 82 03 bd
       0.28246862 0.28670293 0.10825209 -0.032106698

sun_influence_1.W_self.bias f4 [12]
000000 9c f1 9c 3c 10 83 b9 bb 55 f4 08 3c 28 a1 9c bb
       0.019158177 -0.005661376 0.008359035 -0.0047799535
000010 2a 78 02 bb 68 07 5d bd ab d8 49 bd a2 1b 1f 3c
       -0.001990805 -0.05396214 -0.049278896 0.009711178
000020 61 87 12 3c 17 f6 87 bb 9c e6 6c bb 24 81 cb ba
       0.00894341 -0.0041492092 -0.0036148196 -0.0015526158

sun_influence_2.W.weight f4 [12, 12]
000000 95 13 fa bd d5 af 89 3e fb 26 50 3d 97 34 09 3c
       -0.12210766 0.26891962 0.050818425 0.008374355
000010 2f e3 48 3e 6b 8c 84 bd 72 b2 98 be 9c 66 84 3e
       0.19617914 -0.06472095 -0.29823643 0.25859535
000020 f5 4f cd bd 92 a4 9b 3e ae f4 18 be 8c 7e 02 3e
       -0.10025016 0.30398995 -0.14937088 0.12743586
000030 95 ca df bd f9 18 40 3f f3 67 c7 3e d5 f6 8b 3e
       -0.10927311 0.75038105 0.38946494 0.27336755
000040 90 27 0c be 70 89 03 3f 50 d8 c5 3e 1c 22 25 be
       -0.13686967 0.5138159 0.38641596 -0.16126293
000050 fb df ee bc e4 f2 96 be f7 75 c6 3e 81 5e 06 3d
       -0.029159537 -0.29482186 0.38761875 0.03280497
000060 0b 3a 81 be 22 ea 89 3e 29 8d 18 be 1e 41 91 3e
       -0.25239596 0.26936442 -0.14897598 0.28369993
000070 89 fc 7b be b8 aa 51 be a2 44 28 be fc 8c e2 3d
       -0.24608053 -0.2047528 -0.16432431 0.11062047
000080 6c d1 40 3f 89 1e 68 3c 60 92 db 3d 51 e2 36 bd
       0.7531955 0.014167436 0.10721278 -0.044649426
000090 5c cb bb be b2 eb 99 be be f9 ab 3e 78 ba 38 3e
       -0.36678588 -0.30062634 0.33588976 0.18039882
0000a0 ab b6 a7 3c f1 e6 b1 be 26 b1 9a 3e 5c 79 51 be
       0.020472845 -0.34746507 0.3021328 -0.20456451
0000b0 7f 08 b7 3d 93 e1 b7 bc ea 19 2c 3d fa b4 90 be
       0.089371674 -0.02244643 0.0420169 -0.28263074
0000c0 c0 64 89 3c 70 5a 0a 3f af aa b7 be 36 02 87 be
       0.016771674 0.54044247 -0.3587241 -0.26368874
0000d0 44 6e 8b be 3e 39 cf be 41 98 8e be 65 44 c1 be
       -0.27232563 -0.4047336 -0.27850536 -0.37747493
0000e0 da 5b ba 3d 43 4b a4 3e 3d 5b 68 be 39 56 da be
       0.090995505 0.3208867 -0.22691055 -0.42643908
0000f0 dc bd 1e be 3f f6 92 be fc 94 30 3d cc 2b e4 3c
       -0.15502113 -0.28703496 0.043110833 0.027852915
000100 cd 26 c4 3d e3 8f 25 bf 3f 82 1d be 8b dc 59 3e
       0.09577713 -0.6467268 -0.15381716 0.21275537
000110 17 d1 2f 3e 76 11 70 be 6f 80 37 3c 1d c5 9a 3d
       0.17169605 -0.23444161 0.011200055 0.075571276
000120 83 7d 1e be 2e f8 0b 3f 18 d8 a5 be 4b 16 5a be
       -0.15477566 0.5467557 -0.3239143 -0.21297567
000130 5e cc 17 3e 79 9f bb bc b1 ca 26 3e e4 95 dd 3d
       0.14824054 -0.02290319 0.16288258 0.10819605
000140 55 4c bf 3c 95 05 ba be d2 4e 9b be e0 be f3 bb
       0.023351828 -0.36332384 -0.30333573 -0.0074385256
000150 e2 73 67 be db df 0d bd 0b f1 ae 3e b6 f3 37 3d
       -0.226028 -0.034637313 0.34168276 0.044910155
000160 1a a0 a7 3d 30 13 50 3e 17 a3 1e 3d 23 39 39 3e
       0.08184834 0.2031982 0.038729753 0.18088202
000170 f9 57 0a bf 49 d1 60 be cb 02 54 bd 22 0f a8 3d
       -0.54040486 -0.21954836 -0.051760476 0.08206011
000180 86 17 ce be 63 1d d0 be be 64 61 bd f7 18 5a 3e
       -0.40252322 -0.4064742 -0.055027716 0.21298586
000190 4d 04 01 3e 4f 18 1c bf 1b 75 ab 3e ea 20 c7 be
       0.12599297 -0.6097459 0.33487782 -0.388923
0001a0 4d 90 70 3e f6 17 21 3e fd fa 02 bf 88 4e 19 bb
       0.23492546 0.15731797 -0.5116423 -0.0023392756
0001b0 85 bb 1c bf a8 c2 f3 3d ab 1b 41 be b6 ca 00 bf
       -0.6122363 0.11902362 -0.1885821 -0.5030931
0001c0 8b 65 43 be 11 08 1c bf 5f b4 7c be 92 d7 9c be
       -0.19081704 -0.6094981 -0.24678181 -0.30633217
0001d0 07 db 93 bc 51 4c ab bb c4 ff dc 3b 1d cf bc be
       -0.018048776 -0.0052276035 0.006744357 -0.36876765
0001e0 27 da b7 3e db 58 0a 3f 9b 17 b7 be 7f 00 fe bd
       0.35908625 0.5404183 -0.35760197 -0.12402438
0001f0 30 d5 96 3e 80 29 59 bd dc f4 2e 3d 6d 4a 2f bf
       0.29459524 -0.053018093 0.042713985 -0.6847294
000200 18 1d 93 be 12 41 c2 bd 11 7d a9 be 9a 24 76 bc
       -0.28733134 -0.094850674 -0.3310323 -0.015023375
000210 bd b3 64 be 2c 69 48 bd 64 ad 8c bc e0 69 8b be
       -0.2233419 -0.048928425 -0.017172523 -0.27229214
000220 8e 12 6a be 3f 4b e1 3e c9 a4 d0 3d 56 97 c0 be
       -0.2285864 0.4400272 0.1018768 -0.3761546
000230 03 48 75 3e 94 a4 0a 3e c9 05 b3 3e cd 7a d5 3e
       0.23953252 0.13539344 0.3496535 0.41695252

sun_influence_2.W.bias f4 [12]
000000 2f 3e aa bb 65 d6 d9 3a 62 19 85 bb 7a 8a 38 3c
       -0.005195401 0.0016619681 -0.0040618638 0.011263484
000010 4e ad e8 bc 96 f3 11 bc cb b4 0a b9 d7 e6 8a bb
       -0.02840295 -0.008908173 -0.00013228056 -0.004238944
000020 b2 f3 1a bd 92 83 e9 bc 01 82 6f bc 8b bb 17 bd
       -0.037830062 -0.02850512 -0.014618398 -0.03704409

sun_influence_2.W_self.weight f4 [12, 12]
000000 45 f6 f7 bd 17 de ac 3d 55 a7 82 be 7a 6c 28 3f
       -0.12107519 0.08440798 -0.2551829 0.6579052
000010 41 86 ea be 98 78 ae be 4f b3 32 bc 31 3c ed 3d
       -0.45805553 -0.3407638 -0.010907008 0.11583746
000020 da 1b c4 bd 6b 82 07 3f 46 04 58 3e 9f e9 5d 3d
       -0.09575625 0.5293338 0.2109538 0.054177877
000030 65 b6 8c 3d a4 91 80 3e 3c cb c0 3e 7b cd c4 3e
       0.068707265 0.25111115 0.37655056 0.3843802
000040 14 73 c6 3e 48 6b 46 3e 0c d4 1f bd 7e 85 28 3e
       0.38759673 0.19376862 -0.039020583 0.16457173
000050 42 7d 91 be a8 c2 33 3e 82 fd a6 3e ff 5d 5a 3e
       -0.28415877 0.17554724 0.32615286 0.21324919
000060 44 bc 3c be 2c ec 92 3b 39 71 a0 3d ea 56 eb be
       -0.18431193 0.0044837203 0.078340955 -0.45964748
000070 f9 59 2c 3e 3d fb 28 3d c1 68 65 3e 6c 46 da 3e
       0.16831197 0.041255224 0.22403242 0.42631853
000080 e2 b7 4c be 98 c1 32 be 4c 80 28 bd 14 af 7f 3d
       -0.1999202 -0.17456663 -0.04113798 0.062422827
000090 b4 9c 62 bf 54 5d 23 be 77 25 5c 3e 7d dc d5 3e
       -0.8852036 -0.1595357 0.21498667 0.41769782
0000a0 ed 94 f5 3e 4e 5e ed bd 32 ad 32 bf c6 54 cd be
       0.47965184 -0.11590253 -0.69795525 -0.4010374
0000b0 04 07 e4 3e f4 2a 9a 3e df 0b 00 3f 73 5d 04 bc
       0.44536602 0.30110896 0.50018114 -0.008078921
0000c0 c0 b6 eb 3d b6 c1 fa 3e bf af 16 be 0c 7f c1 3d
       0.11509466 0.48975915 -0.1471548 0.094480604
0000d0 63 92 aa 3e 8a be 00 be 3c 62 b5 bd 4c e0 8c be
       0.3331481 -0.12572685 -0.08856627 -0.27514875
0000e0 a7 36 3d be 5a 1a 0b be 04 b4 75 be e4 ef bf be
       -0.1847788 -0.13584271 -0.23994452 -0.3748771
0000f0 85 7a 13 3f 6d 32 fa 3e f5 f1 9e 3d 69 93 c7 3e
       0.57608825 0.48866597 0.077609934 0.38979653
000100 3b 66 c5 3e 02 89 4c 3e 35 4e 3b 3e e5 cb 92 be
       0.38554558 0.1997414 0.18291552 -0.28671184
000110 d4 32 70 3e e3 2b 8c bd d0 3e 83 3f ca 60 a2 be
       0.2345689 -0.06844308 1.0253544 -0.3171447
000120 4c d4 91 3e d4 0a a9 bd 0f 6f 68 bc be ea 99 3e
       0.28482282 -0.082540184 -0.014186635 0.30061907
000130 db 56 6a bb 86 40 71 be 6f 16 67 be 4b ad 93 bc
       -0.0035757336 -0.2355977 -0.22567151 -0.018026968
000140 69 e8 a9 be 70 c0 4a 3e 99 ae b9 be f7 ce 0f 3f
       -0.33185127 0.19799972 -0.3626602 0.5617518
000150 1e 3b 18 be a4 7d 85 3c 9f 01 9e be 0f 29 5f be
       -0.14866301 0.016295262 -0.30860612 -0.21793006
000160 5f bd 0b 3e 37 8a 8d 3e 2e e9 09 bf ed ba 81 3e
       0.13646458 0.27644512 -0.5387143 0.25337926
000170 3e 3f f3 be fc 23 5f be c2 67 05 3f d4 e0 04 bf
       -0.47509187 -0.2179107 0.52111447 -0.5190556
000180 e4 04 4f bf da af 94 3d af 3e 5a bd 2c 80 5a bc
       -0.8086684 0.072601035 -0.053282436 -0.013336223
000190 db 86 b9 3d 72 ca 93 bd 62 73 8c 3e be 58 2f 3d
       0.09058925 -0.07216348 0.2743178 0.04280924
0001a0 cc aa 6c 3e d0 4f 20 3e 3c 54 1c 3e 76 54 28 3d
       0.23112029 0.15655446 0.15266508 0.041096173
0001b0 c1 bf b0 be 1b 81 6c be 61 0c 8f be b0 de 26 3e
       -0.34521297 -0.23096125 -0.27939132 0.16295886
0001c0 f1 f3 c1 bd 69 80 c9 be d8 94 db bd 00 03 11 be
       -0.09470356 -0.39355782 -0.10721749 -0.141613
0001d0 0f 9c 80 3d 74 91 b8 3e 58 f8 6e 3e 19 b6 fc be
       0.06279766 0.36048472 0.23336923 -0.4935768
0001e0 4e a8 97 3e 05 92 49 be b5 8d 47 bd 64 a8 80 bc
       0.29620594 -0.19684608 -0.048719127 -0.015705295
0001f0 7e 41 b8 be ce 8c 25 be 25 f7 aa 3e a6 98 96 be
       -0.35987467 -0.16166994 0.3339168 -0.29413337
000200 9a 86 98 bd 89 4c 0d bf d3 ee 97 3e d3 e5 44 be
       -0.07447548 -0.5519491 0.29674396 -0.19228296
000210 0b 0e f5 bc 6d dc 29 bd cd c5 72 3d c8 ff 4f bf
       -0.029913923 -0.04146998 0.05927067 -0.81249666
000220 db 35 0c 3f df fe 8a be 95 fd 43 be 3f aa 11 3f
       0.54769677 -0.27147576 -0.19139703 0.569004
000230 00 7b f1 3e 74 f6 88 bc ee f7 9f 3e 01 3d cd be
       0.47164154 -0.01671908 0.31243843 -0.40085605

sun_influence_2.W_self.bias f4 [12]
000000 2f 3e aa bb 65 d6 d9 3a 62 19 85 bb 7a 8a 38 3c
       -0.005195401 0.0016619681 -0.0040618638 0.011263484
000010 4e ad e8 bc 96 f3 11 bc cb b4 0a b9 d7 e6 8a bb
       -0.02840295 -0.008908173 -0.00013228056 -0.004238944
000020 b2 f3 1a bd 92 83 e9 bc 01 82 6f bc 8b bb 17 bd
       -0.037830062 -0.02850512 -0.014618398 -0.03704409

sun_influence_3.W.weight f4 [12, 12]
000000 63 f8 70 be 4d fd b3 3c 02 1f 67 3d c3 ac 77 be
       -0.23532252 0.02197137 0.056426056 -0.24186997
000010 15 c3 0a be f6 60 6d be e1 93 d2 3d 5e d1 f9 be
       -0.1355098 -0.23181519 0.10282112 -0.48792547
000020 3b 37 df bc b1 3e 78 bd b4 b3 0e be 41 c3 48 be
       -0.027248016 -0.060606662 -0.13935739 -0.19605733
000030 7b 32 45 3e d5 61 a9 bd 0f e1 01 bf 49 6c 4f 3e
       0.19257538 -0.08270613 -0.5073404 0.20256151
000040 c3 06 2c be f3 7f af 3e a0 7a b2 3e e0 18 b2 3d
       -0.16799454 0.34277305 0.3485918 0.08696151
000050 87 92 25 be 65 23 a2 be bc 4c e0 bb 64 50 61 bc
       -0.16169177 -0.3166763 -0.006845085 -0.013752077
000060 46 c0 c6 be 6a f6 d8 3b 09 e0 38 be e0 32 3c bd
       -0.38818568 0.0066211717 -0.18054213 -0.045946956
000070 3c ae 34 3e 0d 58 af 3c d6 12 04 be ae e5 2e 3e
       0.1764459 0.02140429 -0.1289781 0.17079803
000080 8e bc 90 3d 6d 99 b5 be a9 55 2e bc 86 60 51 be
       0.07067214 -0.35468617 -0.01064054 -0.20446977
000090 84 7f 0c 3e 69 12 80 3e ca f9 00 be bd 54 10 be
       0.13720518 0.25014046 -0.12595287 -0.14094825
0000a0 54 c5 6d bd 70 1e 3a bd 5f de ad 3e 83 14 08 bf
       -0.058049515 -0.045439184 0.33958718 -0.531563
0000b0 85 68 1a 3e 4c ac cb 3d c1 84 72 3d 2c cc f4 be
       0.15078934 0.099449724 0.059208635 -0.4781202
0000c0 c5 6b 7c 3e 8d 8a c5 be 17 9f e2 3d ad 5a 81 bd
       0.24650486 -0.38582268 0.110655 -0.06316123
0000d0 07 a6 c9 be 42 df 19 3c 45 63 7b be 81 1a f8 3e
       -0.3938448 0.009391608 -0.24549587 0.4845772
0000e0 e9 5e 24 bd a5 65 b6 3e ee 80 96 3e 85 4e a2 3e
       -0.040129576 0.35624424 0.2939524 0.3170053
0000f0 15 ed 6d 3e dd db 87 be 4d 20 ce 3e 9e 9c 2c bc
       0.23234971 -0.2653493 0.4025902 -0.010535387
000100 69 4e 0e 3d b8 f1 27 3e be 01 55 3e 6e 25 8c 3e
       0.034742747 0.16400802 0.20801446 0.27372307
000110 02 54 8b be c4 d3 45 bd 4c e8 7a bd 8a d5 36 be
       -0.2721253 -0.04829766 -0.06125669 -0.17854896
000120 2e 35 e8 bd 0c b7 f7 3e 7d 57 19 3d 20 18 8f 3e
       -0.11338268 0.4838184 0.03743695 0.27948093
000130 e6 8b b5 3e 38 4b 16 3f d3 28 88 3e f2 e7 93 3e
       0.35458297 0.58708525 0.26593646 0.28887898
000140 63 c5 97 bd d4 5f 5f be bf af 9f bb 56 fc 9f be
       -0.074106954 -0.218139 -0.0048732455 -0.31247205
000150 1a 5c 80 3d 14 e6 32 be ab 6c cc be e6 a3 2b be
       0.06267567 -0.1747058 -0.39926657 -0.16761741
000160 ae b7 a1 bc a6 93 a6 be e5 75 71 3d e0 b1 3f be
       -0.019740906 -0.32534522 0.058950324 -0.18720198
000170 b7 ad 8f be bd 6f d5 3d 80 93 09 3e d9 a1 98 be
       -0.2806222 0.10421703 0.13435173 -0.2981098
000180 bc 7c a3 3d 3f 72 ea be f2 0e 5e 3d 0a db 02 bf
       0.079827756 -0.45790288 0.05421347 -0.5111548
000190 8d ab 07 be cb e8 8e bc ae 45 38 3c 75 c3 0a 3f
       -0.13249035 -0.017444989 0.011247082 0.54204494
0001a0 9c 04 1e 3d ab 64 51 be 26 a2 92 3e 16 9a c9 bd
       0.038578615 -0.20448558 0.28639334 -0.09843843
0001b0 76 5b 05 be 3a 4b 90 be a2 3b 28 3d e5 61 43 be
       -0.13023171 -0.28182393 0.041072495 -0.19080313
0001c0 e4 f7 44 3d ed 17 0d bf 1a 28 b4 be 3f 60 48 3d
       0.04808797 -0.5511463 -0.35186845 0.048919912
0001d0 70 31 c4 3e 0b a9 a3 3e c6 59 0d be 0d 59 7f be
       0.38318968 0.31964907 -0.13803777 -0.24936314
0001e0 d2 1f db 3e 4b ec ab bd ef 81 5f bb 88 87 d7 3e
       0.42797714 -0.08394679 -0.0034104546 0.4209559
0001f0 8b 0c ac bd 32 87 97 be 0e 33 a8 be db 72 b6 3e
       -0.0840083 -0.29595333 -0.32851452 0.35634503
000200 7a 73 4b bd 9e a2 29 be 23 4c 6b bc 57 36 c2 3e
       -0.049670674 -0.1656594 -0.014361414 0.37932083
000210 b2 12 6e bd 44 6d 84 3e fc 36 99 3e 13 9f 38 3d
       -0.058123298 0.25864613 0.29924762 0.04507358
000220 cb f8 d6 bd f4 b0 cb bd b8 61 ae 3e c7 bf 83 be
       -0.10496672 -0.099458605 0.34058928 -0.25732252
000230 58 97 9a bd 17 7f 08 be 44 f5 11 bf 3c b8 a7 3e
       -0.07548398 -0.13329731 -0.5701487 0.32757747

sun_influence_3.W.bias f4 [12]
000000 d3 73 ae ba 64 10 06 bc 83 e2 14 bd e7 cc 01 bc
       -0.0013309665 -0.008182619 -0.03634883 -0.007922388
000010 b8 37 26 b9 01 d9 ac bb f6 1e aa 3a da c9 c4 bb
       -0.0001585175 -0.0052748923 0.0012979198 -0.006005508
000020 81 d2 fd bb 39 38 84 bc 72 58 a2 bb e1 c5 bd bb
       -0.0077460413 -0.01614009 -0.004954391 -0.0057914113
