src/Photosynthesis/RL/SavedModels/model_38.pth (torch, 30290 bytes, 34 tensors)

player_tree_1.W.weight f4 [12, 12]
-0.08277195 -0.45962444 0.35490847 -0.23133783 0.1521745 0.3157498 0.11631442 0.091260694
0.0667052 0.37222418 0.18114543 -0.07225341 -0.16907163 0.3238271 -0.22509313 -0.34637347
0.32043803 0.10419651 -0.03773231 0.18051739 -0.29775727 0.6843717 0.7832066 -0.004150914
0.011233576 -0.23071966 0.06898799 0.29395208 0.27261412 0.08842637 -0.051707756 0.42744213
0.5546641 0.4088218 0.044284523 -0.20671575 -0.12167156 -0.31794548 -0.08409322 -0.006000134
-0.20887527 0.1273732 0.07501456 -0.098339625 -0.16550677 -0.019873125 -0.852718 0.13941929
0.06617891 -0.12758549 -0.050017763 -0.19803198 -0.063165955 0.6336468 0.20698194 -0.16523415
0.39251256 -0.07528855 0.07889089 -0.01829868 0.1060384 0.1356031 -0.2895023 0.046449218
-0.40722448 -0.08228111 -0.117037185 -0.018327674 -0.20601144 0.015264558 -0.1897784 0.33982873
-0.16846077 0.22165614 -0.21447344 0.16925915 0.7262408 -0.051615525 0.6591111 -0.27245346
-0.25868052 -0.2530256 -0.2281647 -0.007856605 0.4860818 0.2736074 0.019255778 -0.11196544
0.08846675 -0.30309898 -0.4887121 -0.09213105 -0.3094785 0.3476211 0.47780994 -0.024828373
0.059207976 -0.1744241 -0.39148256 0.2503235 -0.18181269 -0.26113114 0.10510405 0.026622256
-0.47892368 0.08423916 0.44141906 0.0271558 -0.2948505 -0.11007848 -0.4178136 0.05318669
-0.07654186 0.39807144 0.2995333 0.6407171 -0.23067844 0.45068595 -0.07552748 -0.011602435
-0.3033313 0.2944455 -0.019814407 -0.04672677 -0.41642717 -1.1126232 0.3241896 -0.06556382
0.03611554 0.027115636 -0.1984268 -0.11206548 0.17323235 0.28014877 -0.18052953 0.36010078
-0.12844637 -0.3512918 -0.059312418 0.042070985 0.310161 -0.0468338 0.27019772 0.74765444
00000000: 5784 a9bd e553 ebbe 90b6 b53e d3e3 6cbe
00000010: a2d3 1b3e f5a9 a13e 4136 ee3d e3e6 ba3d
00000020: bc9c 883d 2b94 be3e 307e 393e 99f9 93bd
00000030: 1d21 2dbe aacc a53e d07e 66be dd57 b1be
00000040: 7410 a43e fb64 d53d 328d 1abd 8dd9 383e
00000050: a473 98be fc32 2f3f 3a80 483f 6404 88bb
00000060: 080d 383c c641 6cbe 9349 8d3d e380 963e
00000070: 1494 8b3e e218 b53d 83cb 53bd b2d9 da3e
00000080: 77fe 0d3f 1751 d13e b063 353d 4bad 53be
00000090: f02e f9bd c0c9 a2be 1139 acbd c69c c4bb
000000a0: 66e3 55be 1f6e 023e 3ca1 993d 4966 c9bd
000000b0: 9b7a 29be f7cc a2bc ba4b 5abf eec3 0e3e
000000c0: cf88 873d c5a5 02be 6ddf 4cbd e5c8 4abe
000000d0: 275d 81bd ad36 223f 13f3 533e 2433 29be
000000e0: 68f7 c83e e230 9abd 8c91 a13d 1de7 95bc
000000f0: a92a d93d 8adb 0a3e a539 94be 8941 3e3d
00000100: ba7f d0be 0083 a8bd 31b1 efbd eb23 96bc
00000110: aaf4 52be 3218 7a3c 4555 42be 08fe ad3e
00000120: fb80 2cbe d4f9 623e ed9e 5bbe 4552 2d3e
00000130: ebea 393f cd6a 53bd 81bb 283f 057f 8bbe
00000140: c671 84be 928c 81be 02a4 69be fdb8 00bc
00000150: b7df f83e 4516 8c3e 4bbe 9d3c 234e e5bd
00000160: 0e2e b53d ca2f 9bbe 7938 fabe 34af bcbd
00000170: f773 9ebe 65fb b13e 81a3 f43e df64 cbbc
00000180: 1084 723d 3b9c 32be 6770 c8be 672a 803e
00000190: 1b2d 3abe fbb2 85be cb40 d73d eb16 da3c
000001a0: 7c35 f5be 9585 ac3d ae01 e23e d775 de3c
000001b0: a5f6 96be d370 e1bd aaeb d5be 49da 593d
000001c0: fbc1 9cbd 05d0 cb3e 6e5c 993e 0906 243f
000001d0: f836 6cbe 4fc0 e63e 27ae 9abd 2418 3ebc
000001e0: 3d4e 9bbe 90c1 963e d351 a2bc 9264 3fbd
000001f0: f135 d5be 706a 8ebf 2efc a53e 5346 86bd
00000200: e3ed 133d 9c21 de3c 6530 4bbe 9682 e5bd
00000210: d263 313e a96f 8f3e bcdc 38be 215f b83e
00000220: 7287 03be 85dc b3be 94f1 72bd a052 2c3d
00000230: 6ccd 9e3e ccd4 3fbd 5b57 8a3e 4866 3f3f

player_tree_1.W.bias f4 [12]
-0.007661951 -0.012577427 -0.0020125082 -0.008190804 -0.0068587405 0.0021914302 -0.005677826 -0.014434312
-0.0128502445 -0.013922377 -0.016157383 -0.016266512
00000000: 1a11 fbbb 8d11 4ebc 49e4 03bb b932 06bc
00000010: 49bf e0bb 199e 0f3b 0e0d babb e47d 6cbc
00000020: d589 52bc ae1a 64bc 7d5c 84bc 5941 85bc

player_tree_1.W_self.weight f4 [12, 12]
-0.13538377 0.14345832 0.6156547 -0.22404191 0.7064116 -0.046375625 -0.19688444 -0.19606772
-0.003283145 0.48838124 0.18876573 0.017995832 0.3984346 -0.10358197 -0.054338306 -0.074719384
-0.1831093 -0.43470663 0.24366955 0.57765424 0.13673274 0.092537515 0.27308127 -0.024213988
0.17179775 0.26424855 0.0783037 -0.14673904 0.038339864 0.05353613 -0.4552848 0.99784184
0.3634066 0.30140138 -0.15634736 0.18986197 -0.22495903 -0.03428728 -0.38724118 0.08250173
0.47340605 0.10121758 -0.5680434 0.08600306 0.079100266 -0.25011632 0.08282112 -0.30302152
0.45474997 0.2308478 0.010246223 0.5799773 0.23220108 -0.26308224 -0.1651299 0.30193675
-0.19487663 -0.08866298 -0.105199434 -0.045500092 -0.2771594 -0.46284774 -0.27887607 -0.3249575
0.0047052493 -0.3228694 -0.5954257 -0.08700111 -0.31566662 0.53208166 -0.4532766 0.18847133
0.513441 -0.09154201 -0.27745676 -0.1053425 0.20563102 0.020672238 0.33003414 0.009237489
0.2272878 0.74946415 -0.12022204 0.21107721 0.0084269345 0.16442011 0.15619352 -0.26405224
0.36976552 0.32546443 0.098671734 -0.37260863 -0.06671505 -0.05585856 0.48660406 -0.60234576
0.2992224 0.13145651 -0.042693693 -0.25579694 -0.21004461 0.3433328 0.4197685 0.10025516
0.29704642 -0.20769224 0.30852067 0.34175268 -0.01663455 0.22381818 -0.12936613 -0.40709153
-0.16207188 0.0039917794 0.23408675 -0.15992263 -0.28028843 -0.13544248 -0.116354056 -0.12507002
0.001688695 0.20358893 -0.12507924 0.65958554 -0.041796196 -0.5595376 -0.5511391 -0.15253364
0.14839858 0.26490816 -0.2918354 -0.37005118 -0.43649283 -0.6260374 0.4379702 -0.15579127
-0.5513216 -0.17004439 0.0446708 -0.19703883 0.20052609 -0.17878872 -0.2742498 -0.7163898
00000000: 0ba2 0abe bde6 123e 8c9b 1d3f 3e6b 65be
00000010: 64d7 343f 5ef4 3dbd 139c 49be fac5 48be
00000020: 082a 57bb 1b0d fa3e ce4b 413e ff6b 933c
00000030: 9fff cb3e c922 d4bd d891 5ebd 7a06 99bd
00000040: 0181 3bbe de91 debe 8384 793e 26e1 133f
00000050: ab03 0c3e 4f84 bd3d 4fd1 8b3e 6a5c c6bc
00000060: c0eb 2f3e 964b 873e b15d a03d c242 16be
00000070: 430a 1d3d b348 5b3d 171b e9be 9072 7f3f
00000080: 6e10 ba3e 4851 9a3e 8619 20be 2d6b 423e
00000090: a95b 66be d270 0cbd 7a44 c6be abf6 a83d
000000a0: 4762 f23e 2a4b cf3d 4b6b 11bf 5f22 b03d
000000b0: 52ff a13d 3f0f 80be 1f9e a93d a325 9bbe
000000c0: fdd4 e83e 5e63 6c3e c6df 273c 6479 143f
000000d0: 1fc6 6d3e b7b2 86be d017 29be 7497 9a3e
000000e0: bd8d 47be f094 b5bd cd72 d7bd 4e5e 3abd
000000f0: d6e7 8dbe 61fa ecbe d8c8 8ebe d460 a6be
00000100: 7e2e 9a3b 234f a5be d26d 18bf a32d b2bd
00000110: 0e9f a1be 8136 083f df13 e8be a1fe 403e
00000120: df70 033f 617a bbbd d00e 8ebe cfbd d7bd
00000130: f090 523e d358 a93c 3cfa a83e d658 173c
00000140: 22be 683e e2dc 3f3f f936 f6bd a024 583e
00000150: 2011 0a3c bf5d 283e 32f1 1f3e db31 87be
00000160: e851 bd3e 46a3 a63e 6814 ca3d 8fc6 bebe
00000170: e6a1 88bd f2cb 64bd 2b24 f93e 5533 1abf
00000180: ae33 993e 899c 063e 95df 2ebd d1f7 82be
00000190: ef15 57be 51c9 af3e e6eb d63e 9452 cd3d
000001a0: 7816 983e 46ad 54be 6cf6 9d3e 35fa ae3e
000001b0: 2e45 88bc 9830 653e 8e78 04be 4d6e d0be
000001c0: 2cf6 25be 79cd 823b 70b4 6f3e c2c2 23be
000001d0: f781 8fbe 6fb1 0abe 094b eebd 5b12 00be
000001e0: 3457 dd3a 9e79 503e c614 00be 99da 283f
000001f0: 7d32 2bbd db3d 0fbf 7417 0dbf c731 1cbe
00000200: ccf5 173e 0ba2 873e 736b 95be 5977 bdbe
00000210: fd7b dfbe fd43 20bf a13d e03e bf87 1fbe
00000220: 6a23 0dbf 1e20 2ebe bbf8 363d 8cc4 49be
00000230: b656 4d3e 6414 37be 786a 8cbe 5265 37bf

player_tree_1.W_self.bias f4 [12]
-0.007661951 -0.012577427 -0.0020125082 -0.008190804 -0.0068587405 0.0021914302 -0.005677826 -0.014434312
-0.0128502445 -0.013922377 -0.016157383 -0.016266512
00000000: 1a11 fbbb 8d11 4ebc 49e4 03bb b932 06bc
00000010: 49bf e0bb 199e 0f3b 0e0d babb e47d 6cbc
00000020: d589 52bc ae1a 64bc 7d5c 84bc 5941 85bc

player_tree_2.W.weight f4 [12, 12]
0.43250403 0.30832726 -0.18266942 -0.3890356 -0.40221778 0.6939973 -0.21610554 -0.5595739
-0.30782738 0.028270999 0.0018214444 0.36009768 0.2294994 0.14945675 0.37893027 -0.18316181
-0.3209567 -0.35030153 0.15642503 0.26494813 0.46688554 0.45469138 -0.21790056 -0.80075085
-0.13403304 0.32493338 -0.1451972 0.07593589 0.48921892 0.07742663 -0.09327171 -0.00092754036
0.050056778 0.23198545 0.167557 0.9437598 0.010215922 0.6509045 0.15480617 -0.16401938
-0.24000078 -0.12093717 -0.30872148 -0.087968096 0.08947134 -0.0589297 0.11345227 0.12863192
-0.037433628 -0.26260749 -0.057606444 -0.29344463 -0.14836016 0.7028333 -0.019305423 0.061512846
0.32876542 0.6585077 0.12278018 0.23620167 0.30394486 -0.18169259 -0.16536099 -0.06748801
-0.3135585 0.4906549 0.27964 0.28969643 -0.050635904 0.043742012 0.18903852 -0.34010115
0.23582685 -0.11740252 -0.35261497 -0.1488665 -0.19938964 0.73744136 0.27171955 -0.06250259
0.027634691 0.1831144 0.25698596 -0.20391059 0.16173671 0.08965103 0.57769805 -0.30048275
0.2620153 0.23639244 -0.0011314169 0.27547812 0.27267706 -0.088582255 0.101521194 -0.14415348
0.24088457 0.3425577 0.34306148 0.11118679 -0.33339298 0.23430417 0.14681315 0.12437401
0.49424207 0.37367895 -0.06805716 -0.09702333 0.23980545 0.31725222 0.33136648 -0.061674695
-0.29843974 -0.30058783 0.30258572 -0.014149564 -0.6183681 -0.52808577 -0.01740282 -0.13614137
-0.26421735 0.28044683 0.28808448 0.39603212 -0.19164617 0.5031974 -0.38912973 0.050915252
-0.35617667 -0.26262635 -0.09254874 -0.10798499 -0.3614119 0.1695278 0.08721412 0.15683253
0.020996265 -0.2505305 0.28520766 0.13661432 0.20271432 -0.38970718 -0.11190114 -0.22447094
00000000: 2b71 dd3e 12dd 9d3e b10d 3bbe ad2f c7be
00000010: 7def cdbe cfa9 313f c54a 5dbe 3c40 0fbf
00000020: 8d9b 9dbe 9598 e73c 88bd ee3a b95e b83e
00000030: e401 6b3e 310b 193e 2603 c23e c58e 3bbe
00000040: 7054 a4be b95a b3be e22d 203e 48a7 873e
00000050: 9f0b ef3e 4fcd e83e 5321 5fbe 02fe 4cbf
00000060: f53f 09be ab5d a63e 93ae 14be 4784 9b3d
00000070: e77a fa3e da91 9e3d 3d05 bfbd 2e26 73ba
00000080: 5608 4d3d 988d 6d3e 1094 2b3e 3e9a 713f
00000090: af60 273c ada1 263f 8285 1e3e b2f4 27be
000000a0: c4c2 75be e8ad f7bd be10 9ebe 9e28 b4bd
000000b0: c03c b73d 4560 71bd aa59 e83d 16b8 033e
000000c0: 0154 19bd 7d74 86be bcf4 6bbd 603e 96be
000000d0: baeb 17be e2ec 333f 6826 9ebc e5f4 7b3d
000000e0: f153 a83e f693 283f 2d74 fb3d dade 713e
000000f0: a99e 9b3e 9f0d 3abe 6454 29be 2737 8abd
00000100: bd8a a0be 1e37 fb3e f92c 8f3e 1753 943e
00000110: 9867 4fbd d32a 333d 5093 413e bd21 aebe
00000120: 987c 713e bb70 f0bd f389 b4be 7670 18be
00000130: cc2c 4cbe f5c8 3c3f d31e 8b3e 5c01 80bd
00000140: 2662 e23c 5782 3b3e aa93 833e f0cd 50be
00000150: 4f9e 253e f69a b73d 05e4 133f e0d8 99be
00000160: df26 863e dc10 723e 0d4c 94ba 780b 8d3e
00000170: 549c 8b3e 9d6a b5bd 58ea cf3d f89c 13be
00000180: 72aa 763e b963 af3e c1a5 af3e e6b5 e33d
00000190: 7cb2 aabe 6fed 6f3e 3056 163e cdb7 fe3d
000001a0: 4c0d fd3e d952 bf3e 8d61 8bbd 2bb4 c6bd
000001b0: 8f8f 753e e26e a23e dea8 a93e 9b9e 7cbd
000001c0: 18cd 98be a6e6 99be 84ec 9a3e 93d3 67bc
000001d0: 5f4d 1ebf a130 07bf 5c90 8ebc a568 0bbe
000001e0: 7f47 87be ba96 8f3e cf7f 933e b9c4 ca3e
000001f0: e53e 44be 8bd1 003f 033c c7be 838c 503d
00000200: ca5c b6be f676 86be 328a bdbd 3c27 ddbd
00000210: fb0a b9be b298 2d3e 519d b23d b598 203e
00000220: 5c00 ac3c 8945 80be bd06 923e a0e4 0b3e
00000230: 5894 4f3e b387 c7be 6d2c e5bd b6db 65be

player_tree_2.W.bias f4 [12]
-0.0467297 -0.0072954115 -0.011921718 -0.007881199 -0.006049967 -0.0074878186 -0.0033552588 -0.0053741024
-0.01747915 -0.004991639 -0.031594854 -0.022788279
00000000: a467 3fbd 590e efbb 4f53 43bc 2520 01bc
00000010: cd3e c6bb 605c f5bb e7e3 5bbb 3d19 b0bb
00000020: 6f30 8fbc e790 a3bb 9b69 01bd 7cae babc

player_tree_2.W_self.weight f4 [12, 12]
-0.17386946 -0.0039181733 0.081124224 -0.21540922 0.23928876 -0.35652682 -0.21601315 -0.45025966
-0.36144847 0.27409095 0.087478116 -0.14824489 -0.4490433 -0.27483994 0.10394354 0.21401744
-0.44873407 -0.5005278 -0.29001895 0.69961506 -0.17184474 -0.011208907 0.10974962 0.021706913
-0.40887892 0.46809644 -0.41328862 -0.026153397 0.078113705 0.41865513 0.18589275 -0.011181294
0.41668263 0.28393057 -0.22319968 -0.34560108 0.4837849 0.17027158 0.62969124 0.24102196
0.04539397 0.23690683 0.49153504 -0.20733923 0.66444784 -0.12547797 -0.39179608 -0.14977865
0.55622303 0.14994612 -0.28568962 0.109431595 -0.093451545 0.54746956 0.104398884 -0.06292792
0.36957473 0.044184994 -0.1636954 0.05514434 0.045930266 0.28578869 0.11947971 0.053967472
0.36067927 0.45761356 -0.5638656 0.2234261 0.245888 0.050828647 0.4368526 0.55185986
-0.06708359 0.3473418 0.15541112 -0.6777425 0.5860032 0.08873257 0.37561595 0.00457856
0.17709166 -0.27077067 0.33630845 0.13927773 -0.020425977 -0.3002525 0.2594399 0.21031334
0.18085131 0.014327675 0.21877557 0.6171691 -0.43844974 0.13157614 0.064164475 0.24643219
0.043319322 0.28051463 -0.5151042 0.5494916 -0.18351163 -0.42641798 -0.38539854 -0.10513686
0.4547135 0.3725055 -0.04307456 -0.3351807 -0.49290898 -0.032950744 -0.41329512 0.031327154
-0.055272155 -0.2737739 -0.47299483 0.1590579 -0.30195695 0.29791802 0.21798849 -0.05851504
-0.012289074 -0.16433655 -0.37230223 0.39874777 0.19983512 -0.09609996 -0.21223857 0.19195624
-0.5900247 -0.107187346 -0.19796765 -0.038262896 0.09492606 -0.06665747 -0.40995115 0.27827245
-0.69281226 0.066486485 0.085914545 -0.28201106 -0.41341045 -0.21975367 0.13964316 -0.020940725
00000000: d60a 32be 0564 80bb 7524 a63d 3c94 5cbe
00000010: 1d08 753e af8a b6be 8d32 5dbe 6f88 e6be
00000020: c60f b9be a655 8c3e ba27 b33d 82cd 17be
00000030: 01e9 e5be d2b7 8cbe 5ae0 d43d 6327 5b3e
00000040: 79c0 e5be 9722 00bf 5d7d 94be f919 333f
00000050: 11f8 2fbe 90a5 37bc 69c4 e03d b2d2 b13c
00000060: 9458 d1be 56aa ef3e 919a d3be a63f d6bc
00000070: 14fa 9f3d f759 d63e ab5a 3e3e bf31 37bc
00000080: 6d57 d53e 595f 913e 758e 64be a0f2 b0be
00000090: a8b2 f73e ac5b 2e3e 7233 213f 76ce 763e
000000a0: 07ef 393d b497 723e 7baa fb3e bc50 54be
000000b0: 4119 2a3f 4c7d 00be 7f99 c8be 935f 19be
000000c0: a264 0e3f 7a8b 193e e945 92be ac1d e03d
000000d0: 8663 bfbd f726 0c3f 15cf d53d 5ae0 80bd
000000e0: e638 bd3e 53fb 343d c49f 27be 08df 613d
000000f0: 6021 3c3d e552 923e c7b1 f43d ff0c 5d3d
00000100: f4aa b83e 534c ea3e 7f59 10bf d0c9 643e
00000110: 10ca 7b3e b331 503d 25ab df3e b046 0d3f
00000120: 1f63 89bd c9d6 b13e 1824 1f3e 8880 2dbf
00000130: 4e04 163f 6cb9 b53d bc50 c03e bf07 963b
00000140: 8457 353e 74a2 8abe 9f30 ac3e d29e 0e3e
00000150: 6154 a7bc b2ba 99be 4ed5 843e 615c 573e
00000160: 1631 393e a0be 6a3c b406 603e cbfe 1d3f
00000170: 7c7c e0be e5bb 063e aa68 833d b858 7c3e
00000180: 9a6f 313d 9d9f 8f3e dedd 03bf 7bab 0c3f
00000190: 79ea 3bbe 7553 dabe f552 c5be fe51 d7bd
000001a0: 35d0 e83e 0ab9 be3e f36e 30bd ce9c abbe
000001b0: 915e fcbe 5cf7 06bd 6b9b d3be e750 003d
000001c0: 0e65 62bd 182c 8cbe 612c f2be 13e0 223e
000001d0: 1a9a 9abe b688 983e 6038 5f3e 77ad 6fbd
000001e0: 1d58 49bc d747 28be 669e bebe ab28 cc3e
000001f0: 94a1 4c3e 0ed0 c4bd 1155 59be 2d90 443e
00000200: dc0b 17bf 0a85 dbbd 08b8 4abe 8eb9 1cbd
00000210: 9868 c23d b683 88bd 1ee5 d1be ba79 8e3e
00000220: 255c 31bf 112a 883d f7f3 af3d c163 90be
00000230: 89aa d3be 1b07 61be 9efe 0e3e e28b abbc

player_tree_2.W_self.bias f4 [12]
-0.0467297 -0.0072954115 -0.011921718 -0.007881199 -0.006049967 -0.0074878186 -0.0033552588 -0.0053741024
-0.01747915 -0.004991639 -0.031594854 -0.022788279
00000000: a467 3fbd 590e efbb 4f53 43bc 2520 01bc
00000010: cd3e c6bb 605c f5bb e7e3 5bbb 3d19 b0bb
00000020: 6f30 8fbc e790 a3bb 9b69 01bd 7cae babc

player_tree_3.W.weight f4 [12, 12]
0.19033751 -0.7683573 -0.08816747 0.063360736 -0.105946384 -0.06431504 -0.042519633 -0.17776494
0.10013788 0.011396799 0.22472492 -0.044736203 0.08622292 0.29111612 0.4555354 -0.19596113
0.075431466 -0.0788475 0.013313648 -0.14597316 0.031012481 0.4611893 -0.044334013 0.41941425
0.07799222 0.36240837 0.08120504 0.19181047 0.27926838 0.2915623 -0.11135646 0.55203134
0.18779844 -0.49670845 -0.044784576 0.04225552 -0.26772055 -0.030276546 0.018487565 -0.13965431
-0.019302797 0.17788142 -0.005082524 0.31578806 -0.013295908 -0.31317446 0.5970264 -0.21206614
-0.18073124 -0.041677743 0.24170823 -0.13776226 0.26867637 -0.20022573 0.24578606 0.006384053
0.34851474 0.022196798 -0.027527397 0.16721089 -0.14330491 0.48848215 -0.07354966 -0.24895373
0.3136571 -0.23857503 -0.33450192 -0.62111825 -0.41222 0.11643797 -0.03931181 0.11608206
-0.21447423 -0.07391695 -0.07668129 -0.009319758 -0.29281348 0.105434224 0.56395054 0.058139108
0.41499996 -0.40583354 0.26227024 0.14044344 -0.20784903 0.012432655 0.059109163 -0.054550793
-0.08484404 0.000366027 0.2975828 -0.2258863 -0.33443576 0.052851975 -0.16550307 0.129838
0.025591912 0.07213538 0.068377964 0.09053103 -0.17433272 0.20256089 0.74197465 0.08534292
0.07152398 -0.118450314 -0.03174977 -0.07636623 -0.008738466 0.43066105 0.48342577 0.2897535
0.90919924 0.28956476 0.11162598 0.15463816 -0.05451895 0.6243148 -0.15931311 0.14716876
0.22018547 0.024743497 -0.4892096 -0.28603175 0.052142024 -0.14272347 0.13834202 -0.33493778
0.10716027 -0.21962948 0.5354912 0.34836727 -0.45277718 0.09744553 0.30510694 0.0127971815
0.35812807 0.22174233 -0.56349087 0.2122753 -0.02889485 0.27273086 -0.020292545 -0.6456084
00000000: d6e7 423e 10b3 44bf 2691 b4bd 46c3 813d
00000010: 6bfa d8bd 9bb7 83bd 1129 2ebd 0308 36be
00000020: 1715 cd3d a4b9 3a3c 4a1e 663e 4f3d 37bd
00000030: a495 b03d 2c0d 953e f03b e93e 09aa 48be
00000040: d07b 9a3d cc7a a1bd 7d21 5a3c fd79 15be
00000050: e30d fe3c 0121 ec3e 9597 35bd 77bd d63e
00000060: 63ba 9f3d 978d b93e d44e a63d f769 443e
00000070: 44fc 8e3e a747 953e db0e e4bd ed51 0d3f
00000080: 3c4e 403e 9250 febe 0870 37bd 2014 2d3d
00000090: ab12 89be 8506 f8bc 3c73 973c 8a01 0fbe
000000a0: e620 9ebc 8c26 363e 4d8b a6bb f9ae a13e
000000b0: 15d7 59bc 6758 a0be b9d6 183f de27 59be
000000c0: 9c11 39be 48b6 2abd 5d82 773e 8d11 0dbe
000000d0: f38f 893e f907 4dbe 57af 7b3e 5131 d13b
000000e0: 8670 b23e 0fd6 b53c 2381 e1bc 5539 2b3e
000000f0: 86be 12be 551a fa3e 34a1 96bd baed 7ebe
00000100: aa97 a03e 034d 74be d643 abbe 9b01 1fbf
00000110: 800e d3be 0877 ee3d 6c05 21bd 6ebc ed3d
00000120: 229f 5bbe c561 97bd 150b 9dbd e6b1 18bc
00000130: a6eb 95be e6ed d73d 105f 103f 4623 6e3d
00000140: e07a d43e 6ac9 cfbe 4948 863e 68d0 0f3e
00000150: 60d6 54be 56b2 4b3c 731c 723d a770 5fbd
00000160: b6c2 adbd 50e7 bf39 c65c 983e bd4e 67be
00000170: 2a3b abbe 507b 583d a379 29be 41f4 043e
00000180: 21a6 d13c b7bb 933d bf09 8c3d 5568 b93d
00000190: 4784 32be 1f6c 4f3e 0df2 3d3f 45c8 ae3d
000001a0: 2a7b 923d 1496 f2bd 0c0c 02bd e665 9cbd
000001b0: c82b 0fbc 9b7f dc3e 9583 f73e 925a 943e
000001c0: 48c1 683f d541 943e 299c e43d 7759 1e3e
000001d0: 434f 5fbd 18d3 1f3f fa22 23be 68b3 163e
000001e0: 4d78 613e e0b2 ca3c ae79 fabe c172 92be
000001f0: e092 553d 1a26 12be 88a9 0d3e f77c abbe
00000200: d876 db3d 8de6 60be f415 093f 325d b23e
00000210: 69d2 e7be 8691 c73d fa36 9c3e 45ab 513c
00000220: 905c b73e 6c10 633e f040 10bf b25e 593e
00000230: e4b4 ecbc 61a3 8b3e 8d3c a6bc 9846 25bf

player_tree_3.W.bias f4 [12]
-0.0025126233 -0.022002857 -0.007637658 -0.014792636 -0.005468614 -0.04935104 -0.056038152 -0.114933215
-0.00659566 -0.009820959 -0.013707003 -0.0044326377
00000000: d3aa 24bb 563f b4bc 5245 fabb d05c 72bc
00000010: 0f32 b3bb 5124 4abd 4388 65bd 1b62 ebbd
00000020: 6820 d8bb 16e8 20bc 5693 60bc a93f 91bb

player_tree_3.W_self.weight f4 [12, 12]
-0.2016951 -0.22600883 -0.072045095 -0.044309516 0.50694704 0.29966673 0.45853654 0.37229505
0.05558672 0.14125982 0.05312726 -0.34995443 -0.3532585 -0.030627605 -0.044399828 -0.061898857
-0.06343162 -0.13533029 -0.14467782 -0.07716986 -0.35550427 -0.0469567 0.17900847 -0.3803959
-0.23099793 0.38803956 0.303855 0.32991982 0.4070634 -0.030481867 -0.07928231 0.3383294
0.2837143 -0.14172421 0.41332084 -0.0811659 -0.7664616 0.022414833 0.05181787 0.3602287
-0.15783907 -0.30631432 -0.325045 0.59883916 -0.034080204 -0.41531307 0.16373196 -0.56478435
-0.20178005 -0.20187756 -0.20599227 0.466816 0.73286736 0.4260903 0.010913741 0.17136481
-0.16322507 -0.28717223 0.31115448 0.16151056 0.30449298 0.11449833 0.3774531 0.34423155
-0.022246689 -0.24328981 0.12569399 -0.15377656 -0.26669917 -0.1466558 -0.045730222 -0.50474405
0.20525023 -0.7993504 -0.16112104 -0.1596181 0.18115996 -0.15008442 0.12434828 0.14177597
0.067380436 0.0026060606 0.016000442 -0.036954813 0.11299293 -0.21700507 0.15098469 0.23840213
0.22710615 0.6231968 -0.012296115 -0.6794547 -0.06992057 -0.10306847 -0.08306831 -0.36847663
-0.8814966 0.19114739 -0.1786227 0.40787536 0.22127257 0.62047386 -0.4506132 0.39366645
0.09936375 0.1747136 -0.612603 0.005542558 -0.0032029734 0.2878826 0.49013954 -0.07739862
0.28464496 -0.002195179 0.39273793 -0.33884743 0.30571422 -0.11321672 0.4770529 -0.5038838
-0.11704337 -0.08533667 -0.04409331 -0.0023814335 -0.09284436 -0.10527495 -0.4832211 0.3486339
0.011019811 0.49172378 0.07717103 -0.17788865 0.13285495 -0.3615715 0.28138933 0.4554618
0.06814403 0.4639662 0.20576556 -0.0057481728 0.12973624 0.63590163 0.015423753 -0.26767316
00000000: 2989 4ebe dc6e 67be 618c 93bd e57d 35bd
00000010: 48c7 013f eb6d 993e 4dc5 ea3e 759d be3e
00000020: e7ae 633d 6aa6 103e f89b 593d 3a2d b3be
00000030: 4cde b4be bee6 fabc 98dc 35bd a889 7dbd
00000040: 70e8 81bd 0694 0abe 6c26 14be 3b0b 9ebd
00000050: a804 b6be ab55 40bd ff4d 373e 40c3 c2be
00000060: b98a 6cbe 1fad c63e e292 9b3e 40eb a83e
00000070: 9d6a d03e 1cb5 f9bc c45e a2bd 8339 ad3e
00000080: 0043 913e 2720 11be ca9e d33e 4f3a a6bd
00000090: d436 44bf 509f b73c fa3e 543d e56f b83e
000000a0: 91a0 21be 3bd5 9cbe 4c6c a6be 864d 193f
000000b0: af97 0bbd eaa3 d4be 5aa9 273e b595 10bf
000000c0: 6e9f 4ebe feb8 4ebe a3ef 52be 8202 ef3e
000000d0: 329d 3b3f 8228 da3e 8ccf 323c 427a 2f3e
000000e0: 7924 27be 3d08 93be a44f 9f3e 0663 253e
000000f0: 81e6 9b3e 1a7e ea3d 8841 c13e 1e3f b03e
00000100: b03e b6bc f720 79be edb5 003e 9a77 1dbe
00000110: cb8c 88be f02c 16be 9d4f 3bbd e836 01bf
00000120: 1e2d 523e 3aa2 4cbf eafc 24be ed72 23be
00000130: ff81 393e bbaf 19be 50aa fe3d b82d 113e
00000140: c1fe 893d 71ca 2a3b 5c13 833c ee5d 17bd
00000150: d668 e73d 9436 5ebe bb9b 1a3e b01f 743e
00000160: 848e 683e d389 1f3f a575 49bc bef0 2dbf
00000170: 8432 8fbd 9015 d3bd b81f aabd f8a8 bcbe
00000180: c3a9 61bf 24bc 433e dee8 36be 0ad5 d03e
00000190: 4795 623e 60d7 1e3f c6b6 e6be a68e c93e
000001a0: 397f cb3d 1fe8 323e 8dd3 1cbf 599e b53b
000001b0: fae8 51bb 5965 933e 92f3 fa3e 2b83 9ebd
000001c0: fcbc 913e fedc 0fbb f214 c93e 697d adbe
000001d0: 9386 9c3e 2bde e7bd 4740 f43e 87fe 00bf
000001e0: 6fb4 efbd fec4 aebd 309b 34bd d311 1cbb
000001f0: 2f25 bebd 659a d7bd c268 f7be 2480 b23e
00000200: 708c 343c 38c3 fb3e d80b 9e3d 7128 36be
00000210: 210b 083e e61f b9be 4312 903e 4a32 e93e
00000220: 198f 8b3d fa8c ed3e 35b4 523e 2b5b bcbb
00000230: 94d9 043e 73ca 223f e9b3 7c3c 750c 89be

player_tree_3.W_self.bias f4 [12]
-0.0025126233 -0.022002857 -0.007637658 -0.014792636 -0.005468614 -0.04935104 -0.056038152 -0.114933215
-0.00659566 -0.009820959 -0.013707003 -0.0044326377
00000000: d3aa 24bb 563f b4bc 5245 fabb d05c 72bc
00000010: 0f32 b3bb 5124 4abd 4388 65bd 1b62 ebbd
00000020: 6820 d8bb 16e8 20bc 5693 60bc a93f 91bb

player_tree_4.weight f4 [8, 12]
0.31674796 -0.17524625 0.0989023 0.18192646 0.006255857 -0.25979525 -0.73013985 -0.26485822
0.3870038 0.13751818 -0.1138325 1.0211301 0.1725614 0.24120958 0.28641835 0.22342557
0.0968075 0.06069602 -0.72492677 -0.1732446 0.15572108 -0.17493922 -0.043955408 0.5877694
-0.035760984 0.04991611 -0.6662722 0.4344151 -0.5402321 0.5033716 0.41949895 -0.4048018
0.5349147 -0.09082646 -0.13094732 -0.017355684 0.07299584 0.016024021 -0.19427352 -0.4111506
-0.13956462 -0.16917509 -0.2327703 0.27971995 -0.27132973 -0.398901 0.025072196 0.18428922
0.01234329 0.10954484 0.4063329 0.22413565 -0.3558046 -0.22767738 -0.22579385 0.31638968
0.04316812 -0.291263 0.1033032 0.102644324 0.7880832 -0.36805898 0.479781 -0.4759579
0.72501594 -0.12775733 -0.26884338 -0.31765622 0.46246538 0.6628229 0.18679756 -0.03412019
0.052863188 0.12547395 -0.11166477 0.24467058 0.42765707 0.21904618 0.22106221 0.1776
-0.2046509 -0.0051042424 -0.35370654 0.1417861 -0.08541189 -0.117228374 0.2607506 -0.26734048
-0.42533982 0.006970799 0.19045864 0.43902478 -0.113744624 -0.30107072 -0.4535459 0.74352413
00000000: ca2c a23e c173 33be 4a8d ca3d ee4a 3a3e
00000010: effd cc3b e203 85be 72ea 3abf 7f9b 87be
00000020: 5d25 c63e 91d1 0c3e 0421 e9bd 64b4 823f
00000030: f0b3 303e a5ff 763e 6da5 923e acc9 643e
00000040: 0343 c63d 649c 783d cd94 39bf 0867 31be
00000050: 5975 1f3e 4423 33be 960a 34bd 0e78 163f
00000060: 1c7a 12bd d674 4c3d d190 2abf a86b de3e
00000070: a74c 0abf f6dc 003f 91c8 d63e 2e42 cfbe
00000080: 2bf0 083f 3903 babd 0e17 06be 822d 8ebc
00000090: d87e 953d cf44 833c a3ef 46be 5582 d2be
000000a0: 07ea 0ebe 3c3c 2dbe 565b 6ebe 7437 8f3e
000000b0: bbeb 8abe c03c ccbe 3564 cd3c 50b6 3c3e
000000c0: 833b 4a3c 0c59 e03d de0a d03e d183 653e
000000d0: 052c b6be 4224 69be 8136 67be d4fd a13e
000000e0: 0ed1 303d 6d20 95be a190 d33d 3037 d23d
000000f0: d2bf 493f 3a72 bcbe dba5 f53e c1b0 f3be
00000100: a59a 393f d1d2 02be d7a5 89be d6a3 a2be
00000110: 43c8 ec3e c3ae 293f dc47 3f3e 9dc1 0bbd
00000120: 1287 583d 3e7c 003e 80b0 e4bd ed8a 7a3e
00000130: def5 da3e a44d 603e 225e 623e c6dc 353e
00000140: 0190 51be 7d41 a7bb 0619 b5be 6030 113e
00000150: 6eec aebd 6e15 f0bd 1a81 853e dae0 88be
00000160: 24c6 d9be 4d6b e43b 9707 433e dbc7 e03e
00000170: f1f2 e8bd f125 9abe 2b37 e8be 9957 3e3f

player_tree_4.bias f4 [8]
0.0024354092 0.025595943 0.00039902897 0.0064331186 -0.018722273 -0.0032050838 -0.007121883 -0.010484847
00000000: 639b 1f3b 95ae d13c c334 d139 e9cc d23b
00000010: 745f 99bc 620c 52bb af5e e9bb a3c8 2bbc

sun_influence_1.W.weight f4 [12, 12]
-0.4825304 -0.19487327 -0.34453058 0.26806653 -0.14425395 0.3671411 -0.31209087 0.02002115
0.18197784 -0.14247802 0.13035113 0.41438276 0.40366098 0.09044554 -0.39055932 0.17767282
0.18906793 -0.02051002 0.00079809123 0.21716996 0.49195957 -0.052213997 -0.38681185 0.14093421
-0.056750752 -0.59326506 0.3931692 -0.20053439 -0.28949353 -0.28816593 0.39819068 -0.1727756
-0.21214935 0.21083333 -0.88675195 -0.20621265 -0.1891574 0.382534 -0.063403286 -0.025433913
0.2209746 0.06547217 -0.06184879 0.16055988 -0.12791225 -0.27734485 0.1346981 -0.12679565
-0.34026974 -0.16776052 0.2010233 -0.27596655 0.23043644 0.34814748 -0.12329288 0.38099748
-0.25958106 0.19872129 0.043826405 -0.31275004 -0.065215535 0.31924793 -0.19885069 0.1643549
0.024311451 -0.58875203 -0.28286976 -0.09421271 -0.18137643 0.2710742 0.26185083 -0.32652503
-0.37183794 0.04301289 0.10538163 -0.25532854 -0.12002044 0.14784226 0.10979218 0.013852652
0.3745181 0.11905874 -0.020130405 0.3904112 0.0647667 -0.6757693 0.124969855 0.27136102
0.7474109 -0.012276451 -0.46268442 -0.17771387 0.041394167 -0.25920534 0.2796934 -0.49899307
-0.09985566 -0.2755523 0.35696766 -0.12707448 -0.25642726 -0.28735888 0.68337107 -0.49715233
0.030754171 0.18964966 0.011593386 -0.025442867 0.10294146 0.093645856 0.16408937 0.15191968
-0.123142324 0.22701773 -0.23267305 0.34797382 -0.33632794 0.47283077 0.53720355 -0.3597498
0.3855726 -0.19183469 0.025215348 -0.10192855 0.18329822 0.323385 -0.08567341 0.5038498
0.31658643 -0.010438848 0.07398004 -0.007481083 -0.055620544 0.19420852 0.1571307 0.018228896
0.4475551 0.056990854 -0.4212904 0.13832735 0.005988296 0.27812362 -0.34849614 -0.233706
00000000: 390e f7be dc8c 47be 5066 b0be 0440 893e
00000010: 4fb7 13be ebf9 bb3e 60ca 9fbe 6503 a43c
00000020: 6658 3a3e c2e5 11be c47a 053e fa29 d43e
00000030: a7ac ce3e 833b b93d 64f7 c7be ddef 353e
00000040: 069b 413e a104 a8bc ff36 513a cd61 5e3e
00000050: 20e2 fb3e 58de 55bd 340c c6be 0f51 103e
00000060: 7a73 68bd 38e0 17bf 794d c93e e358 4dbe
00000070: 7f38 94be 7c8a 93be a6df cb3e 16ec 30be
00000080: ae3d 59be b1e4 573e 2d02 63bf 6929 53be
00000090: 7ab2 41be 7fdb c33e 95d9 81bd c85a d0bc
000000a0: 2a47 623e 4616 863d 2855 7dbd cf69 243e
000000b0: 6efb 02be 2500 8ebe 4cee 093e b8d6 01be
000000c0: d637 aebe 6ac9 2bbe 0dd9 4d3e 7d4b 8dbe
000000d0: 88f7 6b3e 6340 b23e fa80 fcbd 1a12 c33e
000000e0: cfe7 84be 987d 4b3e 5183 333d c620 a0be
000000f0: b98f 85bd 7774 a33e 849f 4bbe a74c 283e
00000100: cf28 c73c 74b8 16bf 4ed4 90be 98f2 c0bd
00000110: beba 39be 3dca 8a3e 5011 863e 4a2e a7be
00000120: 8b61 bebe 492e 303d 53d2 d73d 6cba 82be
00000130: 47cd f5bd f663 173e b9da e03d 3cf6 623c
00000140: d6c0 bf3e 12d5 f33d 85e8 a4bc fae3 c73e
00000150: 67a4 843d 38ff 2cbf 32f0 ff3d d5ef 8a3e
00000160: 5256 3f3f 2b23 49bc f9e4 ecbe a0fa 35be
00000170: ee8c 293d 90b6 84be f933 8f3e 057c ffbe
00000180: 2081 ccbd 3115 8dbe 77c4 b63e d01f 02be
00000190: 6f4a 83be b420 93be 68f1 2e3f c08a febe
000001a0: 2cf0 fb3c 8533 423e 2ff2 3d3c 8f6d d0bc
000001b0: f9d2 d23d 66c9 bf3d 0b07 283e d590 1b3e
000001c0: 0b32 fcbd 5677 683e d841 6ebe a029 b23e
000001d0: 2d33 acbe e016 f23e 2c86 093f 2031 b8be
000001e0: c669 c53e 5070 44be 6b90 ce3c eabf d0bd
000001f0: 87b2 3b3e b892 a53e 8a75 afbd 4dfc 003f
00000200: 9e17 a23e b407 2bbc d982 973d df23 f5bb
00000210: 5ed2 63bd 99de 463e dfe6 203e c454 953c
00000220: f125 e53e 3e6f 693d 60b3 d7be afa5 0d3e
00000230: 7839 c43b 3866 8e3e 166e b2be a050 6fbe

sun_influence_1.W.bias f4 [12]
0.0091316635 -0.00448824 0.002784453 -1.520614e-05 -0.0041638007 -0.05700386 -0.06940575 0.0042105624
0.0006186843 -0.011201136 -0.0025071676 0.0031968192
00000000: f99c 153c 1612 93bb 5f7b 363b e01d 7fb7
00000010: 7e70 88bb e17c 69bd 9a24 8ebd c2f8 893b
00000020: 332f 223a f884 37bc 4b4f 24bb ba81 513b

sun_influence_1.W_self.weight f4 [12, 12]
-0.22599994 -0.29518571 -0.2511632 -0.15234137 -0.2588711 0.09774837 0.085646786 -0.0741739
0.2675566 0.20983489 -0.007633969 -0.09953096 -0.4146685 -0.20217654 -0.48607582 0.84721076
0.2417123 0.16831538 0.47345337 -0.11356329 -0.2038023 -0.28040078 0.028057279 -0.44667596
0.25890467 0.576883 0.28614387 0.010164045 0.34030476 -0.15530455 -0.5471811 -0.4940296
0.2938432 -0.04065246 0.22862121 0.107494906 -0.3316153 0.22263496 -0.017379634 0.312236
-0.2775014 -0.018296868 -0.034242153 0.28661254 0.4369304 -0.08391458 -0.14818925 0.65514606
-0.2190417 0.2848201 0.23153356 0.18387416 0.079636335 0.5053411 -0.0071991202 0.2181369
0.5654832 0.28922725 -0.4638102 0.039658546 0.3669949 -0.111850984 0.026204139 -0.39965364
-0.20781076 0.20516853 0.16335745 0.318006 -0.46715602 -0.06664104 0.20527348 -0.26474112
-0.21324652 0.38707083 -0.5099501 0.16355716 -0.30845997 0.12063142 0.2025833 -0.06817824
0.32174394 0.3500873 0.23631346 -0.10657166 -0.2753108 0.23273641 -0.24156436 0.053985782
-0.21614173 0.22355679 0.39427343 0.08717462 0.32898074 0.02049075 -0.16053054 0.24527398
-0.04440291 -0.1989511 0.62715656 0.17153315 0.027852228 0.061376482 -0.094970934 -0.2002691
-0.43766412 0.021244695 0.37389967 0.43885985 0.038031477 0.79003537 0.2169808 0.1958446
-0.43169388 -0.3389901 -0.03713572 0.2888112 -0.625476 -0.42021227 0.028632063 -0.386199
-0.110385776 -0.1300021 0.12753963 0.12926185 0.3814816 0.16046461 -0.34440336 0.4522954
-0.26411378 0.21271461 0.258143 0.2606477 0.10491084 -0.27004123 -0.34113693 0.3540746
-0.28600153 -0.07875475 -0.39064667 -0.5124977 0.27379894 0.3494824 0.114521936 -0.032106698
00000000: 876c 67be 9522 97be 7798 80be 60ff 1bbe
00000010: c18a 84be 4c30 c83d 9567 af3d 7ce8 97bd
00000020: 2efd 883e f5de 563e 6026 fabb e3d6 cbbd
00000030: 6e4f d4be 5e07 4fbe eede f8be cee2 583f
00000040: 6e83 773e de5a 2c3e 7b68 f23e df93 e8bd
00000050: 8db1 50be b190 8fbe 61d8 e53c b6b2 e4be
00000060: 278f 843e 9bae 133f 7381 923e 1887 263c
00000070: 6d3c ae3e 2808 1fbe 1014 0cbf 73f1 fcbe
00000080: 9e72 963e 3283 26bd ae1b 6a3e 4a26 dc3d
00000090: 7bc9 a9be 6bfa 633e bc5f 8ebc 66dd 9f3e
000000a0: aa14 8ebe 50e3 95bc 8041 0cbd e1be 923e
000000b0: 57b5 df3e 68db abbd ecbe 17be a7b7 273f
000000c0: 784c 60be f1d3 913e 2217 6d3e 8249 3c3e
000000d0: 6018 a33d 095e 013f 99e6 ebbb 485f 5f3e
000000e0: 82c3 103f 9815 943e 8878 edbe 0071 223d
000000f0: c1e6 bb3e 2112 e5bd 10aa d63c 679f ccbe
00000100: 58cc 54be b317 523e 2d47 273e afd1 a23e
00000110: 132f efbe 197b 88bd 3633 523e 268c 87be
00000120: 4c5d 5abe 262e c63e 178c 02bf 877b 273e
00000130: 77ee 9dbe 9b0d f73d ff71 4f3e 08a1 8bbd
00000140: 9fbb a43e a53e b33e 28fc 713e 3e42 dabd
00000150: 8af5 8cbe 7452 6e3e a65c 77be 3220 5d3d
00000160: 4254 5dbe 12ec 643e 35de c93e 9b88 b23d
00000170: 2a70 a83e 38dc a73c 1e62 24be 1a29 7b3e
00000180: d3df 35bd d6b9 4bbe 558d 203f 63a6 2f3e
00000190: 5b2a e43c e865 7b3d 1f80 c2bd 5813 4dbe
000001a0: 8315 e0be 5b09 ae3c c76f bf3e 3db2 e03e
000001b0: e5c6 1b3d c23f 4a3f 3730 5e3e 7d8b 483e
000001c0: fb06 ddbe 1c90 adbe a01b 18bd 10df 933e
000001d0: 321f 20bf 1026 d7be ca8d ea3c e0bb c5be
000001e0: f011 e2bd 451f 05be c099 023e 385d 043e
000001f0: 8e51 c33e d650 243e a355 b0be 4393 e73e
00000200: ec39 87be dcd1 593e 522b 843e 9e73 853e
00000210: 7fdb d63d d842 8abe 80a9 aebe 4449 b53e
00000220: cb6e 92be 2c4a a1bd d702 c8be 0d33 03bf
00000230: 602f 8c3e 5bef b23e 7a8a ea3d 5082 03bd

sun_influence_1.W_self.bias f4 [12]
0.0091316635 -0.00448824 0.002784453 -1.520614e-05 -0.0041638007 -0.05700386 -0.06940575 0.0042105624
0.0006186843 -0.011201136 -0.0025071676 0.0031968192
00000000: f99c 153c 1612 93bb 5f7b 363b e01d 7fb7
00000010: 7e70 88bb e17c 69bd 9a24 8ebd c2f8 893b
00000020: 332f 223a f884 37bc 4b4f 24bb ba81 513b

sun_influence_2.W.weight f4 [12, 12]
-0.11639286 0.27858955 0.046282634 -0.0005083033 0.20166145 -0.07524817 -0.3080595 0.26499912
-0.09421541 0.2937656 -0.1396572 0.12399405 -0.11940182 0.7488561 0.39867964 0.24909596
-0.13095279 0.51597494 0.3877483 -0.17059201 -0.0032037008 -0.30167362 0.3929048 0.042789247
-0.24408533 0.27166206 -0.16853961 0.27931163 -0.22636344 -0.20292811 -0.14677493 0.11177904
0.7340248 0.0048050955 0.114696205 -0.020051118 -0.33167362 -0.2999876 0.31330064 0.1780349
0.02088702 -0.3561685 0.30650485 -0.193162 0.06955429 -0.035308376 0.04828314 -0.27610177
0.011278007 0.5435614 -0.3541232 -0.27205637 -0.2876403 -0.41267622 -0.2737564 -0.38136896
0.10025079 0.3157286 -0.2344313 -0.42908853 -0.15656132 -0.2870284 0.027286522 0.035712566
0.10293959 -0.63684696 -0.14037886 0.20637046 0.1616189 -0.23540685 0.015419094 0.10095588
-0.15480502 0.5518822 -0.31385776 -0.21075682 0.1624003 -0.013120932 0.17904392 0.10576854
0.041312657 -0.3453027 -0.29420346 0.015075329 -0.22866827 -0.034005176 0.33665764 0.05026477
0.08287739 0.20310004 0.03340218 0.18186246 -0.5410084 -0.21247244 -0.05026061 0.078711644
-0.43310368 -0.39717153 -0.0422478 0.22257872 0.1229294 -0.60750824 0.32941914 -0.4071797
0.25155434 0.16899405 -0.5198898 -0.022447778 -0.6172927 0.11808108 -0.18875903 -0.5041839
-0.1948777 -0.6096598 -0.24762154 -0.30618247 -0.02242715 -0.0060553513 0.0028393206 -0.3689131
0.3717128 0.54854536 -0.33571926 -0.11420993 0.30420506 -0.055514865 0.05600853 -0.66434646
-0.29817867 -0.10137514 -0.32297027 0.0005634845 -0.23239037 -0.06228302 -0.03526605 -0.27667046
-0.24129565 0.4340474 0.08914582 -0.38710877 0.2187126 0.11822106 0.3346488 0.40150595
00000000: 615f eebd 4aa3 8e3e dc92 3d3d a83f 05ba
00000010: 5780 4e3e b61b 9abd fab9 9dbe f7ad 873e
00000020: 02f4 c0bd 7268 963e 4c02 0fbe 98f0 fd3d
00000030: f188 f4bd 09b5 3f3f bd1f cc3e 0313 7f3e
00000040: 7d18 06be ef16 043f f286 c63e acaf 2ebe
00000050: 2ef5 51bb f774 9abe d12a c93e c743 2f3d
00000060: 81f1 79be 4a17 8b3e a695 2cbe ef01 8f3e
00000070: d1cb 67be 63cc 4fbe 2b4c 16be 69ec e43d
00000080: 0de9 3b3f 1074 9d3b d8e5 ea3d 3e42 a4bc
00000090: 20d1 a9be fa97 99be f168 a03e c84e 363e
000000a0: 411b ab3c b85b b6be 34ee 9c3e 42cc 45be
000000b0: 7b72 8e3d 849f 10bd 8bc4 453d 365d 8dbe
000000c0: 64c7 383c d726 0b3f a34f b5be f94a 8bbe
000000d0: 9745 93be 4c4a d3be cd29 8cbe cb42 c3be
000000e0: 4950 cd3d 2ea7 a13e c20e 70be 7eb1 dbbe
000000f0: 9c51 20be 63f5 92be fc87 df3c 5747 123d
00000100: fed1 d23d 6708 23bf 7abf 0fbe c752 533e
00000110: 6d7f 253e 7e0e 71be 5ea0 7c3c f5c1 ce3d
00000120: 3585 1ebe 2748 0d3f f7b1 a0be a3d0 57be
00000130: 444c 263e 2df9 56bc 4a57 373e 2d9d d83d
00000140: 7637 293d 84cb b0be d6a1 96be 83fe 763c
00000150: 0428 6abe 0349 0bbd 645e ac3e 6ee2 4d3d
00000160: 9fbb a93d 75f9 4f3e b9d0 083d 273a 3a3e
00000170: 877f 0abf 6092 59be 12de 4dbd 9233 a13d
00000180: c4bf ddbe 115a cbbe 070c 2dbd adeb 633e
00000190: 69c2 fb3d a985 1bbf a0a9 a83e dc79 d0be
000001a0: bbcb 803e c70c 2d3e 7f17 05bf 67e4 b7bc
000001b0: e506 1ebf 7ed4 f13d 0c4a 41be 3212 01bf
000001c0: 058e 47be aa12 1cbf 8090 7dbe f3c3 9cbe
000001d0: 24b9 b7bc f86b c6bb e513 3a3b 2ee2 bcbe
000001e0: 2451 be3e 786d 0c3f 65e3 abbe e5e6 e9bd
000001f0: c4c0 9b3e 8e63 63bd 3369 653d 9c12 2abf
00000200: e0aa 98be c59d cfbd 5c5c a5be ceb6 133a
00000210: bef7 6dbe 7b1c 7fbd 2273 10bd c0a7 8dbe
00000220: 3516 77be 763b de3e 1592 b63d 1f33 c6be
00000230: 32f6 5f3e e21d f23d 1657 ab3e 3092 cd3e

sun_influence_2.W.bias f4 [12]
-0.0047691455 -0.0038413897 -0.0053943326 0.009541627 -0.026427783 -0.010167589 -0.0007830611 -0.0027312008
-0.036553413 -0.029826349 -0.009843315 -0.04948729
00000000: 7e46 9cbb d3bf 7bbb f1c2 b0bb 7c54 1c3c
00000010: 147f d8bc f695 26bc 5746 4dba f2fd 32bb
00000020: 08b9 15bd 6356 f4bc db45 21bc 2fb3 4abd

sun_influence_2.W_self.weight f4 [12, 12]
-0.11830586 0.09299666 -0.2532819 0.6585066 -0.44651893 -0.34918875 -0.013440073 0.12464251
-0.07536404 0.5273638 0.22209263 0.051851537 0.06303174 0.24222805 0.39699814 0.38020146
0.40269187 0.19533335 -0.023968782 0.16496179 -0.2589116 0.18235976 0.32277513 0.2370955
-0.17072126 0.016867733 0.054998714 -0.4645643 0.19533798 0.036855444 0.24837528 0.43147486
-0.2193068 -0.19711499 -0.02855696 0.094491266 -0.8385097 -0.16207436 0.1949725 0.42831993
0.48909193 -0.104556106 -0.6759161 -0.4003948 0.4333667 0.29730684 0.5138224 0.0076458803
0.10366015 0.49404284 -0.1383402 0.091088705 0.31772587 -0.1218089 -0.08654661 -0.2756618
-0.1764326 -0.1367375 -0.23966438 -0.3782282 0.58285856 0.49115527 0.06339034 0.41063467
0.40271285 0.21802332 0.2061218 -0.2839709 0.2360499 -0.068620175 1.0353252 -0.28340417
0.29046032 -0.076229356 -0.00075610104 0.30732828 0.020848528 -0.20827845 -0.20128453 -0.015071142
-0.303703 0.21833172 -0.34360462 0.5925656 -0.14674118 0.019314982 -0.3101759 -0.2023517
0.14421293 0.2808135 -0.5353301 0.25829753 -0.45933172 -0.20756508 0.52709925 -0.51689976
-0.83408177 0.06910101 -0.03877419 -0.0070943558 0.085589625 -0.08065725 0.2611578 0.024661673
0.24787167 0.1668994 0.14397158 0.012495098 -0.34521297 -0.23117878 -0.2795765 0.16153574
-0.09883223 -0.39459237 -0.10739424 -0.1450779 0.062407155 0.35963982 0.22776008 -0.4935768
0.30492964 -0.17574507 -0.03781612 -0.020819003 -0.35365668 -0.16503303 0.34329847 -0.27954152
-0.084312916 -0.56025356 0.30582902 -0.18151128 -0.029590448 -0.051957656 0.032965057 -0.81290483
0.54251355 -0.26720962 -0.20572817 0.5577725 0.45155913 -0.029122416 0.31152835 -0.42905873
00000000: 584a f2bd 0875 be3d 2aae 81be e393 283f
00000010: 219e e4be dec8 b2be c033 5cbc 9344 ff3d
00000020: 7658 9abd 5001 073f 406c 633e 4762 543d
00000030: c916 813d a10a 783e 5743 cb3e c4a9 c23e
00000040: a12d ce3e 7705 483e 2e5a c4bc beeb 283e
00000050: 1090 84be 84bc 3a3e c842 a53e 2ac9 723e
00000060: 8ed1 2ebe 332e 8a3c 5546 613d 5fdb edbe
00000070: ae06 483e bcf5 163d 1756 7e3e 46ea dc3e
00000080: f691 60be 83d8 49be 49f0 e9bc a384 c13d
00000090: 92a8 56bf d2f6 25be dfa6 473e c04c db3e
000000a0: 426a fa3e 8321 d6bd d608 2dbf 8c00 cdbe
000000b0: 3de2 dd3e 9a38 983e dd89 033f 4b8a fa3b
000000c0: c64b d43d 2ff3 fc3e 0ea9 0dbe b78c ba3d
000000d0: f7ac a23e f276 f9bd 593f b1bd 8b23 8dbe
000000e0: bfaa 34be ea04 0cbe 946a 75be 20a7 c1be
000000f0: 3836 153f b478 fb3e cbd2 813d b53e d23e
00000100: 6130 ce3e 8141 5f3e 9811 533e a264 91be
00000110: 11b7 713e bc88 8cbd 8985 843f 5a1a 91be
00000120: 37b7 943e 231e 9cbd 1535 46ba 225a 9d3e
00000130: 88ca aa3c f246 55be 881d 4ebe f4ec 76bc
00000140: f67e 9bbe 5a92 5f3e f2ec afbe 61b2 173f
00000150: 5243 16be 743a 9e3c 60cf 9ebe 4935 4fbe
00000160: 8eac 133e c9c6 8f3e 650b 09bf 933f 843e
00000170: 872d ebbe f18b 54be faef 063f 8b53 04bf
00000180: 6286 55bf d584 8d3d afd1 1ebd c577 e8bb
00000190: 9d49 af3d a12f a5bd 7ab6 853e 4707 ca3c
000001a0: 12d2 7d3e ade7 2a3e 496d 133e 3db8 4c3c
000001b0: c1bf b0be 21ba 6cbe a724 8fbe a069 253e
000001c0: 8d68 cabd 0308 cabe 83f1 dbbd 4d8f 14be
000001d0: a59e 7f3d b622 b83e f039 693e 19b6 fcbe
000001e0: bd1f 9c3e 84f6 33be 13e5 1abd 9d8c aabc
000001f0: 7d12 b5be 6bfe 28be d1c4 af3e 1120 8fbe
00000200: 40ac acbd c76c 0fbf 9f95 9c3e 18de 39be
00000210: ab67 f2bc 8dd1 54bd 5e06 073d 881a 50bf
00000220: 2be2 0a3f b3cf 88be 68aa 52be 2eca 0e3f
00000230: c232 e73e 2292 eebc a580 9f3e 96ad dbbe

sun_influence_2.W_self.bias f4 [12]
-0.0047691455 -0.0038413897 -0.0053943326 0.009541627 -0.026427783 -0.010167589 -0.0007830611 -0.0027312008
-0.036553413 -0.029826349 -0.009843315 -0.04948729
00000000: 7e46 9cbb d3bf 7bbb f1c2 b0bb 7c54 1c3c
00000010: 147f d8bc f695 26bc 5746 4dba f2fd 32bb
00000020: 08b9 15bd 6356 f4bc db45 21bc 2fb3 4abd

sun_influence_3.W.weight f4 [12, 12]
-0.23380734 0.040025644 0.061787337 -0.24516508 -0.13002342 -0.19915953 0.117063604 -0.48517847
-0.020264925 -0.05208064 -0.13344163 -0.18061885 0.18354318 -0.09261087 -0.51562995 0.18870938
-0.15664804 0.33769706 0.33144733 0.08529712 -0.18098602 -0.30573547 -0.016874043 -0.03350559
-0.38339528 0.0068668397 -0.18264255 -0.045334175 0.17467414 0.021897148 -0.12911645 0.17171682
0.070312284 -0.3547434 -0.011080815 -0.20487863 0.12290953 0.2422831 -0.1186585 -0.15390487
-0.05284458 -0.049424987 0.3310019 -0.5237523 0.13649927 0.09988849 0.051303018 -0.4761549
0.2553542 -0.39027384 0.088540025 -0.07808794 -0.394802 0.0046386393 -0.26521027 0.49150357
-0.054459862 0.36219767 0.27346483 0.29089662 0.22438425 -0.2638281 0.39876038 -0.026107594
0.045137413 0.16824818 0.21627976 0.27377728 -0.290792 -0.042058162 -0.064182185 -0.18867825
-0.12055362 0.48441392 0.034909766 0.26631203 0.36160427 0.5904285 0.27111328 0.28788623
-0.084623024 -0.21702236 -0.0072149113 -0.31858176 0.06267567 -0.1747058 -0.39926657 -0.16761741
-0.019740906 -0.32534522 0.058950324 -0.18720198 -0.2806222 0.10421703 0.13435173 -0.2981098
0.0918829 -0.4337594 0.06917729 -0.52078176 -0.13551067 0.0074960687 -0.02302879 0.5595627
0.013796403 -0.17185463 0.290707 -0.073709816 -0.13023171 -0.28182393 0.041072495 -0.19080313
0.04808797 -0.5511463 -0.35186845 0.048919912 0.38318968 0.31964907 -0.13803777 -0.24936314
0.41980672 -0.090035826 -0.016517673 0.40203807 -0.08497976 -0.29297796 -0.33001813 0.3610634
-0.072441734 -0.16214062 -0.0017315823 0.35304832 -0.0629818 0.25708356 0.29643705 0.04986769
-0.098032326 -0.102049485 0.3335985 -0.26880503 -0.07030054 -0.13329224 -0.57249665 0.32874918
00000000: 316b 6fbe eef1 233d b814 7d3d 8e0c 7bbe
00000010: dc24 05be 7af0 4bbe 0bbf ef3d 5069 f8be
00000020: a102 a6bc 8252 55bd eca4 08be 26f4 38be
00000030: bef2 3b3e c5aa bdbd 5300 04bf 083d 413e
00000040: 5868 20be a1e6 ac3e 77b3 a93e 42b0 ae3d
00000050: 6654 39be 5c89 9cbe 6f3b 8abc 283d 09bd
00000060: 634c c4be 3a03 e13b a606 3bbe 54b0 39bd
00000070: c7dd 323e a661 b33c 1a37 04be 89d6 2f3e
00000080: e3ff 8f3d eda0 b5be 4f8c 35bc b4cb 51be
00000090: feb7 fb3d 1019 783e 3a03 f3bd 3d99 1dbe
000000a0: 8f73 58bd db71 4abd 1579 a93e a114 06bf
000000b0: 77c6 0b3e 5692 cc3d 1d23 523d 93ca f3be
000000c0: c9bd 823e f9d1 c7be 7954 b53d 92ec 9fbd
000000d0: 7d23 cabe baff 973b a4c9 87be 5ba6 fb3e
000000e0: 4e11 5fbd f971 b93e 9503 8c3e 67f0 943e
000000f0: fcc4 653e 7a14 87be 522a cc3e 98df d5bc
00000100: 02e2 383d 4049 2c3e 7178 5d3e 892c 8c3e
00000110: b0e2 94be 2e45 2cbd f371 83bd df34 41be
00000120: d1e4 f6bd 1a05 f83e 8bfd 0e3d 0d5a 883e
00000130: 3224 b93e 5226 173f 5ccf 8a3e d365 933e
00000140: d64e adbd 1c3b 5ebe 106b ecbb 261d a3be
00000150: 1a5c 803d 14e6 32be ab6c ccbe e6a3 2bbe
00000160: aeb7 a1bc a693 a6be e575 713d e0b1 3fbe
00000170: b7ad 8fbe bd6f d53d 8093 093e d9a1 98be
00000180: 1a2d bc3d b615 debe d3ac 8d3d f451 05bf
00000190: 4fc3 0abe 95a1 f53b dfa6 bcbc 803f 0f3f
000001a0: 4f0a 623c a9fa 2fbe 8cd7 943e 2cf5 96bd
000001b0: 765b 05be 3a4b 90be a23b 283d e561 43be
000001c0: e4f7 443d ed17 0dbf 1a28 b4be 3f60 483d
000001d0: 7031 c43e 0ba9 a33e c659 0dbe 0d59 7fbe
000001e0: e8f0 d63e b464 b8bd 1250 87bc efd7 cd3e
000001f0: de09 aebd 3501 96be 23f8 a8be 4ddd b83e
00000200: 555c 94bd 3108 26be 43f6 e2ba c0c2 b43e
00000210: 9afc 80bd 75a0 833e 99c6 973e 1042 4c3d
00000220: 2cc5 c8bd 52ff d0bd 6ccd aa3e d0a0 89be
00000230: bbf9 8fbd c37d 08be 248f 12bf d051 a83e

sun_influence_3.W.bias f4 [12]
-0.0028139874 -0.010923133 -0.0349327 -0.017721249 -0.009836699 -0.006021499 -0.0023895625 -0.006005508
-0.005215354 -0.01614009 -0.008143994 -0.008466364
00000000: e06a 38bb f1f6 32bc 9715 0fbd 272c 91bc
00000010: 1b2a 21bc ff4f c5bb 359a 1cbb dac9 c4bb
00000020: 8fe5 aabb 3938 84bc 636e 05bc 81b6 0abc

sun_influence_3.W_self.weight f4 [12, 12]
-0.16732205 0.15724163 0.14053394 0.320441 0.489549 0.06633689 0.031658057 0.39735028
-0.13148494 -0.14270636 -0.05029402 0.15593053 0.097537704 0.029619684 0.10114941 0.47041
-0.084015355 -0.22997054 -0.18042223 0.21426 -0.3519755 0.4033228 -0.19124132 0.21095991
0.06941062 -0.10245389 0.17034577 0.13469188 -0.09802613 0.12378162 -0.38464457 0.19979326
-0.76194745 0.28690094 -0.271726 -0.014639881 0.22258976 0.28307828 0.3369022 0.23700464
-0.035272267 -0.65417564 -0.07920199 0.08258073 -0.49189684 -0.05090068 0.56467444 -0.09681589
-0.2031863 -0.11865592 -0.026977856 0.6556723 -0.24723373 0.06468786 0.15126355 -0.34848326
-0.26658306 0.33786452 -0.33084685 0.3453948 0.1812001 0.09212549 -0.16215076 0.65129906
-0.166623 0.5378756 0.38220444 0.06564765 -0.011875709 -0.49660808 -0.64667445 0.13195744
-0.23891687 0.24871452 0.56286854 0.26665065 0.11674637 0.08373218 0.475279 0.23573071
0.07928262 -0.13490424 0.12663996 0.05108813 -0.34510913 -0.13554113 -0.20954554 0.07799584
-0.1735881 -0.07374327 0.33071 -0.052432176 0.025061332 0.18445139 -0.22407408 0.009195081
-0.041101873 -0.7757736 0.20226426 0.20389907 -0.25895756 0.7209775 0.20701124 0.07566603
-0.011182095 0.17066905 -0.20260778 0.057846814 -0.19739673 0.24731396 0.25912604 0.04804425
-0.09447078 -0.04387296 -0.14472806 -0.13490632 -0.2927901 -0.029276617 -0.100387484 -0.20172669
0.5859524 0.06276599 -0.09440173 0.60200286 -0.09617347 0.089633286 0.0927824 -0.091943875
0.40541115 0.32220396 0.5103809 -0.46901983 -0.38601667 -0.25495252 -0.4389212 -0.4213785
-0.018194618 0.31125352 -0.35036498 -0.57500136 0.015296789 0.303899 0.32899183 -0.2275161
00000000: 7956 2bbe f303 213e 21e8 0f3e d810 a43e
00000010: 2ba6 fa3e a3db 873d e1ab 013d 7f71 cb3e
00000020: fda3 06be 9e21 12be 1a01 4ebd 41ac 1f3e
00000030: d9c1 c73d fba4 f23c 6c27 cf3d 94d9 f03e
00000040: 3e10 acbd 667d 6bbe 9bc0 38be f966 5b3e
00000050: 2236 b4be 5380 ce3e c4d4 43be e005 583e
00000060: 2827 8e3d 58d3 d1bd 1f6f 2e3e abec 093e
00000070: ecc1 c8bd 3881 fd3d 22f0 c4be 9b96 4c3e
00000080: fd0e 43bf aee4 923e ac1f 8bbe 1ddc 6fbc
00000090: 92ee 633e a3ef 903e 727e ac3e 58b1 723e
000000a0: a779 10bd 0e78 27bf a734 a2bd 1620 a93d
000000b0: e7d9 fbbe 3b7d 50bd 818e 103f 6947 c6bd
000000c0: 1210 50be e001 f3bd aa00 ddbc 24da 273f
000000d0: d72a 7dbe 127b 843d d5e4 1a3e 666c b2be
000000e0: 937d 88be 94fc ac3e c264 a9be 96d7 b03e
000000f0: 858c 393e 4aac bc3d d90a 26be 89bb 263f
00000100: 389f 2abe 37b2 093f 4db0 c33e 4672 863d
00000110: 5592 42bc 6a43 febe 758c 25bf da1f 073e
00000120: a0a6 74be 05af 7e3e 2718 103f 6f86 883e
00000130: b918 ef3d c77b ab3d c557 f33e 6463 713e
00000140: ed5e a23d 5624 0abe e8ad 013e c941 513d
00000150: 25b2 b0be 4bcb 0abe 1b93 56be 48bc 9f3d
00000160: 14c1 31be b606 97bd d252 a93e 1fc3 56bd
00000170: 6c4d cd3c d3e0 3c3e ad73 65be f7a6 163c
00000180: 705a 28bd 1999 46bf 5d1e 4f3e ebca 503e
00000190: 1696 84be fb91 383f c1fa 533e cbf6 9a3d
000001a0: 1b35 37bc dec3 2e3e 6a78 4fbe c8f0 6c3d
000001b0: 5e22 4abe df3f 7d3e 2bac 843e 0cca 443d
000001c0: e579 c1bd 22b4 33bd 9833 14be e224 0abe
000001d0: 96e8 95be 84d5 efbc f497 cdbd 7191 4ebe
000001e0: fa00 163f 758b 803d b255 c1bd dc1c 1a3f
000001f0: 99f6 c4bd a891 b73d b304 be3d 124d bcbd
00000200: 0d92 cf3e ebf7 a43e 53a8 023f 5e23 f0be
00000210: faa3 c5be 2389 82be 48ba e0be ecbe d7be
00000220: e10c 95bc 9f5c 9f3e 0a63 b3be 4a33 13bf
00000230: 629f 7a3c a698 9b3e 9e71 a83e fbf9 68be

sun_influence_3.W_self.bias f4 [12]
-0.0028139874 -0.010923133 -0.0349327 -0.017721249 -0.009836699 -0.006021499 -0.0023895625 -0.006005508
-0.005215354 -0.01614009 -0.008143994 -0.008466364
00000000: e06a 38bb f1f6 32bc 9715 0fbd 272c 91bc
00000010: 1b2a 21bc ff4f c5bb 359a 1cbb dac9 c4bb
00000020: 8fe5 aabb 3938 84bc 636e 05bc 81b6 0abc

sun_influence_4.weight f4 [8, 12]
0.2868972 -0.2670402 -0.26985717 0.015818447 -0.6206343 -0.7770678 0.04133686 -0.6634054
-0.23932163 -0.47071862 -0.4998576 -0.23437026 -0.38895682 -0.026293749 0.22841218 -0.32710135
-0.39772707 -0.24629462 -0.28681403 -0.1300631 -0.13074605 -0.054436166 -0.16543935 -0.3285509
-0.3994716 -0.7117493 0.24416661 -0.2380604 0.5545614 0.049933784 -0.06615021 0.4137935
0.14301975 -0.14371587 0.52956253 -0.15672818 0.186128 -0.018875744 0.441735 -0.549155
0.14689109 0.47081938 0.0727733 -0.05733023 -0.12588996 0.07378264 -0.19556974 0.4097366
-0.012668658 0.11935166 -0.34213993 -0.41818127 -0.5884609 -0.16723722 -0.24036512 0.055787828
-0.39112738 -0.13655885 -0.118240386 0.63423294 -0.18050176 -0.040133573 0.050357267 -0.15831676
0.76332265 -0.40609527 -0.37005836 -0.16063313 0.15499291 -0.35880122 0.39130086 -0.4588707
0.017796462 -0.36634254 -0.34682184 0.2684181 0.29296997 -0.64744765 -0.06441672 -0.60859936
-0.09767024 0.09424605 -0.21899918 -0.09683491 0.40541303 -0.012499944 -0.4803998 0.06808129
-0.49066204 -0.034214467 -0.14061236 0.3603549 -0.19541214 -0.06708934 0.43782198 -0.2303179
00000000: 31e4 923e 7eb9 88be b82a 8abe b095 813c
00000010: e4e1 1ebf eaed 46bf d750 293d f0d4 29bf
00000020: bb10 75be 0802 f1be 56ed ffbe c2fe 6fbe
00000030: 5925 c7be fd65 d7bc e2e4 693e d479 a7be
00000040: e2a2 cbbe a834 7cbe 4ad9 92be 432f 05be
00000050: 4be2 05be 75f8 5ebd ef68 29be d337 a8be
00000060: 8b87 ccbe 3435 36bf d006 7a3e 1bc6 73be
00000070: bcf7 0d3f 5e87 4c3d c379 87bd bedc d33e
00000080: c573 123e 412a 13be 6991 073f 5a7d 20be
00000090: 5798 3e3e 4ea1 9abc 172b e23e 6c95 0cbf
000000a0: 9e6a 163e 3d0f f13e 2b0a 953d 1ad3 6abd
000000b0: 4ce9 00be 5a1b 973d 6f43 48be ffc8 d13e
000000c0: 3490 4fbc a56e f43d f72c afbe db1b d6be
000000d0: 60a5 16bf 3c40 2bbe 4622 76be c781 643d
000000e0: d941 c8be 15d6 0bbe 0428 f2bd 175d 223f
000000f0: 74d5 38be 1a63 24bd 6c43 4e3d ca1d 22be
00000100: 1d69 433f b8eb cfbe 4a78 bdbe 037d 24be
00000110: 76b6 1e3e cbb4 b7be 9658 c83e 1af1 eabe
00000120: e3c9 913c 4091 bbbe a292 b1be 196e 893e
00000130: 2900 963e 21bf 25bf eaec 83bd 2bcd 1bbf
00000140: 5607 c8bd 1304 c13d 5241 60be 6251 c6bd
00000150: 4c92 cf3e 91cc 4cbc f6f6 f5be 346e 8b3d
00000160: 0e38 fbbe 7824 0cbd b0fc 0fbe 7080 b83e
00000170: 1f1a 48be 2366 89bd 342a e03e 75d8 6bbe
