src/Photosynthesis/RL/SavedModels/model_51.pth (torch, 30290 bytes, 34 tensors)

player_tree_1.W.weight f4 [12, 12]
000000 ab 0b 98 bd c0 7b de be 15 f1 bc 3e de af 56 be
       -0.074241005 -0.4345379 0.3690268 -0.20965526
000010 ff a7 1e 3e 24 51 b9 3e 29 46 0c 3e b5 8b ff 3d
       0.15493773 0.36194718 0.13698639 0.12477819
000020 5d a7 4d 3d d4 6f b7 3e 34 d3 31 3e c8 33 c4 bd
       0.05020844 0.35827506 0.17365724 -0.09580189
000030 cb b8 36 be c0 fd ac 3e 87 10 70 be a5 93 c0 be
       -0.1784393 0.33787346 -0.23443805 -0.37612644
000040 f9 53 a7 3e 67 45 f7 3d 00 b0 c9 bb db 73 4f 3e
       0.32681254 0.12073784 -0.006155014 0.20259039
000050 1d fd 9e be 9e 57 28 3f 29 bb 45 3f 1d ab d8 bc
       -0.31052485 0.65758693 0.7723871 -0.02644878
000060 7d d1 6d 3c ee 2e 73 be 51 83 bf 3d da 0f 9e 3e
       0.014515278 -0.23748371 0.093512185 0.3087147
000070 7c 33 8d 3e 3b 51 82 3d 97 d5 7a bd 0b 5e de 3e
       0.27578342 0.0636315 -0.06123885 0.43431124
000080 42 b7 09 3f a1 ec ca 3e ac d1 91 3d 97 d1 3e be
       0.53795254 0.3963366 0.0712007 -0.1863464
000090 de bf fc bd db 27 96 be 92 cd b8 bd 81 67 97 bc
       -0.12341283 -0.29327282 -0.090235844 -0.018481972
0000a0 3b 62 5d be 21 28 3f 3e 27 f4 e0 3d a2 56 67 bd
       -0.21619503 0.18667652 0.10984068 -0.056479104
0000b0 26 db 38 be e2 a8 ae 3b 0f 8e 50 bf 91 f3 e7 3d
       -0.18052348 0.005330191 -0.81466764 0.113257535
0000c0 db 0d 70 3d 72 34 e9 bd e6 40 fd bc 5a f9 2b be
       0.058606964 -0.11386956 -0.030914735 -0.16794339
0000d0 04 39 84 bd e5 a0 22 3f 1c 12 5d 3e e2 1b 08 be
       -0.06456187 0.63526756 0.2158894 -0.13291886
0000e0 f0 00 c7 3e 79 06 9f bd 57 76 9f 3d 98 6c 3f 3b
       0.38867903 -0.077649064 0.077862434 0.0029209014
0000f0 c6 43 e0 3d a0 f3 1d 3e b1 94 97 be 41 a9 3d 3d
       0.10950427 0.15424967 -0.2960563 0.04630399
000100 e0 b3 d3 be 26 2d a6 bd 4c 28 fc bd 08 72 aa bc
       -0.4134817 -0.0811408 -0.123123735 -0.020806327
000110 a9 16 5f be d6 2c d7 bb fe 13 46 be f4 03 a3 3e
       -0.21785988 -0.006566624 -0.19343564 0.31838953
000120 4d ee 37 be 2b 99 76 3e 6a 9d 50 be 27 23 1f 3e
       -0.17961998 0.24081866 -0.20372549 0.15540753
000130 4a 79 3b 3f 0c 5b 0e bd 05 3e 2d 3f aa 2c 89 be
       0.7323195 -0.034754798 0.6767276 -0.26791888
000140 26 8b 86 be a1 e0 8d be 35 a7 69 be e9 58 c3 bc
       -0.26278037 -0.2771044 -0.2281769 -0.023846107
000150 2b df f6 3e f1 e8 95 3e 83 b6 07 3d 48 45 ca bd
       0.4821714 0.29279283 0.03313304 -0.098764956
000160 d2 91 bb 3d b0 92 83 be 3d 78 ed be a9 d3 6d bd
       0.091586724 -0.2569785 -0.46380797 -0.058063183
000170 58 d5 a4 be cf 37 ab 3e 4b 65 f0 3e 4b dd 66 bd
       -0.32194018 0.33441016 0.4695228 -0.056363385
000180 3d 6a 4d 3d 4d 2a 16 be a1 32 c7 be 2d c6 84 3e
       0.050150145 -0.14664574 -0.38905814 0.25932446
000190 b4 5e 28 be 56 9c 55 be 94 d2 0a 3e 2d 13 80 3d
       -0.16442376 -0.20860419 0.13556892 0.062536575
0001a0 4d 7a fd be 1a 7b d2 3d 57 96 db 3e 51 9f 13 3b
       -0.4950737 0.10277386 0.42888138 0.002252538
0001b0 09 1a 86 be 2d 10 a3 bd 7a 9e ca be 22 21 3f 3d
       -0.26191738 -0.0796207 -0.39574033 0.046662457
0001c0 86 28 6d bd 06 63 e6 3e b7 7f a7 3e 81 46 2c 3f
       -0.057899974 0.44997424 0.32714626 0.6729508
0001d0 5b 31 81 be f7 8a e4 3e 86 d4 c2 bd 6b 12 e8 bc
       -0.25232968 0.44637272 -0.09513192 -0.028329095
0001e0 70 7d 91 be c3 66 9f 3e 59 81 a7 ba d0 a2 a2 bc
       -0.28416014 0.31133088 -0.0012779637 -0.019853026
0001f0 60 0f d3 be fd 23 8a bf f0 10 a5 3e 58 92 57 bd
       -0.41222668 -1.0792233 0.32239485 -0.0526298
000200 08 78 ba 3c 43 93 30 3c 7f 5c 48 be 1f 2e 0e be
       0.022762313 0.010777297 -0.19566534 -0.13884781
000210 60 75 2e 3e 40 94 98 3e 43 df 28 be 8b 11 c0 3e
       0.17036963 0.29800606 -0.16491418 0.37513384
000220 fe 0a f2 bd fa df a9 be 7b 82 73 bd 17 a1 25 3d
       -0.11818503 -0.33178693 -0.059450608 0.04043683
000230 e7 5e 98 3e 5b 94 8a bd 7e 9c 84 3e 97 df 3b 3f
       0.29759905 -0.06766578 0.25900644 0.73388046

player_tree_1.W.bias f4 [12]
000000 72 42 85 bb d7 fb 87 bc 8a 90 d5 bb 52 7d af bb
       -0.004066759 -0.016599579 -0.0065174745 -0.0053555155
000010 d5 f6 53 bb de 8d 7e bc e2 0f 52 bc 57 76 04 bb
       -0.0032343168 -0.015536753 -0.01282117 -0.0020212138
000020 97 29 7d ba e0 0c 9e 3b c4 a9 b1 bc 4e d0 91 bc
       -0.00096573815 0.004823312 -0.021687396 -0.017799523

player_tree_1.W_self.weight f4 [12, 12]
000000 0b a2 0a be 45 2f 2c 3e 99 d8 21 3f 3e 6b 65 be
       -0.13538377 0.16814907 0.63221127 -0.22404191
000010 15 65 35 3f df 21 09 3c 79 f0 4c be fa c5 48 be
       0.70857364 0.008369892 -0.20013608 -0.19606772
000020 d9 d6 9f bc c0 4a f0 3e 75 cf 3e 3e 61 24 f4 3a
       -0.019511627 0.4693203 0.18633826 0.0018626564
000030 be 08 c6 3e 41 7f bd bd f4 02 a6 bd 7a 06 99 bd
       0.38678545 -0.092527874 -0.08106032 -0.074719384
000040 d8 c1 36 be 3f 96 dd be c8 93 90 3e 88 a5 1d 3f
       -0.17847383 -0.4327869 0.28237748 0.61580706
000050 ab 03 0c 3e a4 1e 87 3d 6e 04 8a 3e 79 8d 37 bd
       0.13673274 0.06597641 0.26956505 -0.044812653
000060 dd fc 38 3e 11 92 84 3e 76 2d c8 3d c2 42 16 be
       0.1806521 0.2589269 0.09774296 -0.14673904
000070 f9 d2 28 3d 9f 6b 81 3c 17 1b e9 be 91 40 84 3f
       0.041216824 0.015798388 -0.4552848 1.0332204
000080 89 a3 b1 3e 27 90 91 3e 50 38 15 be c4 f6 5c 3e
       0.3469508 0.28430292 -0.14572263 0.21578509
000090 a9 5b 66 be d2 70 0c bd 7a 44 c6 be ba d8 a4 3d
       -0.22495903 -0.03428728 -0.38724118 0.0804915
0000a0 1f 68 ed 3e c7 07 28 3e 4b 6b 11 bf 14 b8 5c 3d
       0.463685 0.16409217 -0.5680434 0.053886488
0000b0 52 ff a1 3d 3f 0f 80 be 65 83 10 3e a3 25 9b be
       0.079100266 -0.25011632 0.14112623 -0.30302152
0000c0 59 00 e5 3e e1 05 75 3e 4f 89 ce 3c b3 17 1a 3f
       0.44726828 0.23928024 0.025211958 0.6019241
0000d0 f9 ec 6b 3e 36 40 89 be 5d 75 2d be ab 83 aa 3e
       0.23039617 -0.26806802 -0.16939302 0.3330358
0000e0 38 05 4d be 10 84 b8 bd 1a d5 dd bd 43 74 25 bd
       -0.20021522 -0.09009564 -0.108316615 -0.04039408
0000f0 d6 e7 8d be 61 fa ec be d8 c8 8e be d4 60 a6 be
       -0.2771594 -0.46284774 -0.27887607 -0.3249575
000100 7e 2e 9a 3b 23 4f a5 be d2 6d 18 bf a3 2d b2 bd
       0.0047052493 -0.3228694 -0.5954257 -0.08700111
000110 0e 9f a1 be 67 7f 03 3f df 13 e8 be c7 af 30 3e
       -0.31566662 0.51366276 -0.4532766 0.17254554
000120 16 07 00 3f 51 89 c2 bd d0 0e 8e be cf bd d7 bd
       0.5001081 -0.09498847 -0.27745676 -0.1053425
000130 cd 2b 56 3e 65 2a 02 3d 3d 41 b5 3e 2b 48 16 3d
       0.20915146 0.03177871 0.35401335 0.03668992
000140 e2 bd 68 3e d3 ff 3a 3f f9 36 f6 bd 1e 1a 52 3e
       0.22728685 0.73046607 -0.12022204 0.20517775
000150 bb 50 f2 3a 5c f6 3c 3e b1 a7 30 3e db 31 87 be
       0.0018487194 0.18453354 0.17251469 -0.26405224
000160 02 9e be 3e 4b 94 c0 3e 44 aa 01 3e 8f c6 be be
       0.37229925 0.3761314 0.12662607 -0.37260863
000170 e6 a1 88 bd 1d 7f 9f bd c6 3a f7 3e 55 33 1a bf
       -0.06671505 -0.07787917 0.48287028 -0.60234576
000180 9d a1 93 3e c6 86 1c 3e 95 df 2e bd d1 f7 82 be
       0.2883424 0.15285787 -0.042693693 -0.25579694
000190 ef 15 57 be 73 3e cc 3e be 8b e9 3e f5 29 15 3e
       -0.21004461 0.39891395 0.45614427 0.14566787
0001a0 78 16 98 3e a0 bc 6c be 55 47 9c 3e af ba a4 3e
       0.29704642 -0.2311883 0.30523172 0.32173678
0001b0 2e 45 88 bc 37 1a 82 3e 8e 78 04 be 4d 6e d0 be
       -0.01663455 0.25410625 -0.12936613 -0.40709153
0001c0 2c f6 25 be 66 d1 86 3d f7 dd 8a 3e 9c 3a 1c be
       -0.16207188 0.06582908 0.2712247 -0.15256733
0001d0 f7 81 8f be 1f 2b 17 be c6 75 10 be b3 e2 e6 bd
       -0.28028843 -0.14762543 -0.14107427 -0.11273708
0001e0 34 57 dd 3a 42 9d 61 3e c6 14 00 be ff 1d 2e 3f
       0.001688695 0.22032645 -0.12507924 0.6801452
0001f0 7d 32 2b bd db 3d 0f bf 74 17 0d bf c7 31 1c be
       -0.041796196 -0.5595376 -0.5511391 -0.15253364
000200 fa 39 0a 3e 7d b8 7b 3e 73 6b 95 be 59 77 bd be
       0.13498679 0.24582095 -0.2918354 -0.37005118
000210 fd 7b df be fd 43 20 bf fa 65 e8 3e bf 87 1f be
       -0.43649283 -0.6260374 0.45390302 -0.15579127
000220 6a 23 0d bf 52 6c 46 be 6a fc 0a 3d 8c c4 49 be
       -0.5513216 -0.19377258 0.033932127 -0.19703883
000230 f8 2c 40 3e 3b 78 41 be 78 6a 8c be 52 65 37 bf
       0.18767154 -0.1889352 -0.2742498 -0.7163898

player_tree_1.W_self.bias f4 [12]
000000 72 42 85 bb d7 fb 87 bc 8a 90 d5 bb 52 7d af bb
       -0.004066759 -0.016599579 -0.0065174745 -0.0053555155
000010 d5 f6 53 bb de 8d 7e bc e2 0f 52 bc 57 76 04 bb
       -0.0032343168 -0.015536753 -0.01282117 -0.0020212138
000020 97 29 7d ba e0 0c 9e 3b c4 a9 b1 bc 4e d0 91 bc
       -0.00096573815 0.004823312 -0.021687396 -0.017799523

player_tree_2.W.weight f4 [12, 12]
000000 1b 32 da 3e 83 95 9a 3e 70 2e 3d be 87 3b cc be
       0.42616352 0.30192193 -0.18474746 -0.39889166
000010 1e 37 d1 be a4 ac 30 3f f1 ca 63 be b9 b6 11 bf
       -0.40862364 0.6901343 -0.22245385 -0.5691944
000020 10 78 a4 be 50 c3 92 3c ab 7c 7a bb d4 e2 b7 3e
       -0.3212285 0.017915398 -0.003822128 0.35915244
000030 1b fa 6b 3e 6e dd 1a 3e 7e 34 c4 3e 5f 71 38 be
       0.23044626 0.15123531 0.38321298 -0.18011998
000040 ab ab a1 be 6f 6e ad be 71 90 21 3e 26 5b 89 3e
       -0.31576285 -0.33873317 0.15777756 0.26827353
000050 79 95 f1 3e 34 24 f6 3e 24 77 55 be d6 2e 4e bf
       0.4718435 0.48074496 -0.2084623 -0.80540216
000060 e8 43 06 be 1f d7 a2 3e 68 14 11 be dc 06 04 3e
       -0.13111842 0.3180475 -0.1416794 0.12893242
000070 79 bf fc 3e 0c c2 7b 3d 55 28 b9 bd f9 b7 04 3b
       0.49364832 0.061464354 -0.09040896 0.0020251258
000080 6c ed 6d 3d 1f 66 8d 3e fc df 27 3e 19 b7 70 3f
       0.05808775 0.27616975 0.16394037 0.94029385
000090 51 81 3f 3c fe 46 25 3f 9b 2a 14 3e 6a fa 17 be
       0.011688546 0.6456145 0.14469378 -0.14841619
0000a0 54 09 79 be 8c d1 0a be 5a 7c 9d be 97 e1 b2 bd
       -0.24319965 -0.13556498 -0.30758935 -0.08734434
0000b0 82 cd c9 3d e9 3a 59 bc ae 5f ca 3d 71 c0 ec 3d
       0.09853651 -0.013258674 0.09881531 0.11560143
0000c0 6f 5f 12 bd 6b 33 89 be 3a 93 73 bd ef bf 8e be
       -0.035735544 -0.2679704 -0.059466578 -0.2788081
0000d0 08 8a 14 be 20 4a 30 3f 46 ee 92 bc 0f 1c 82 3d
       -0.1450578 0.68863106 -0.017935883 0.06353008
0000e0 a9 db ad 3e 79 31 34 3f eb b4 e5 3d 59 e4 69 3e
       0.3395665 0.7038799 0.11216148 0.22841014
0000f0 8a d2 9c 3e e7 15 3f be 36 9e 32 be 4e 26 50 bd
       0.3062938 -0.18660699 -0.17443165 -0.05081778
000100 cb 3a a0 be 89 95 f3 3e cc f2 8f 3e 20 d1 96 3e
       -0.31294855 0.47575024 0.28114927 0.29456425
000110 e1 d2 22 bd 7c af ca 3d c2 f0 37 3e 0e 1f b4 be
       -0.03975189 0.09896752 0.17962936 -0.35179943
000120 2d 02 76 3e c7 3b 03 be 98 da b6 be 2d d1 02 be
       0.24024267 -0.12815772 -0.3571365 -0.12775107
000130 4d 2b 4f be d7 b5 37 3f 1e dc 8a 3e ee 79 83 bd
       -0.20231362 0.7176184 0.2712106 -0.064197406
000140 14 c8 d8 3c 84 e5 6a 3e 3e 3a 82 3e 21 32 4f be
       0.026462592 0.22939116 0.2543506 -0.20233966
000150 0b c7 29 3e c5 34 b4 3d 8e 82 11 3f 8c 4a 91 be
       0.16579835 0.087991275 0.56839836 -0.28377187
000160 21 cb 85 3e 58 38 66 3e 31 91 05 3b 84 28 90 3e
       0.26131538 0.22482431 0.002038073 0.2815591
000170 30 34 91 3e 12 db 28 bd c2 10 bb 3d df 76 20 be
       0.28360128 -0.041224547 0.09134056 -0.15670346
000180 84 a8 7c 3e a1 d6 ae 3e 73 db b3 3e 27 64 08 3e
       0.24673659 0.34148124 0.35128364 0.13319455
000190 a6 75 a9 be 24 77 71 3e 33 c1 1c 3e 1b 50 00 3e
       -0.3309757 0.23580605 0.15308075 0.12530558
0001a0 8e 34 01 3f cd 57 db 3e 90 39 9b bd 96 45 f5 bd
       0.5047082 0.42840424 -0.075793386 -0.11976163
0001b0 8c cc 7b 3e 4d a8 a5 3e 03 c6 ac 3e 1d ef 76 bd
       0.24589747 0.32354966 0.3374482 -0.06028663
0001c0 de 1f 92 be 2e f4 96 be b2 5b 9d 3e 63 a9 a3 bb
       -0.28539938 -0.2948317 0.3073402 -0.0049945577
0001d0 8e c2 1a bf 30 d5 04 bf 1e 9c 19 bc 63 37 03 be
       -0.60453117 -0.518878 -0.0093756 -0.12814097
0001e0 7f 47 87 be ba 96 8f 3e cf 7f 93 3e 98 c4 ca 3e
       -0.26421735 0.28044683 0.28808448 0.39603114
0001f0 e5 3e 44 be 8b d1 00 3f 03 3c c7 be 83 8c 50 3d
       -0.19164617 0.5031974 -0.38912973 0.050915252
000200 ca 5c b6 be f6 76 86 be 32 8a bd bd 3c 27 dd bd
       -0.35617667 -0.26262635 -0.09254874 -0.10798499
000210 da f2 b8 be 7e 3a 2e 3e 32 8e b2 3d 47 91 20 3e
       -0.3612278 0.170145 0.08718528 0.15680419
000220 18 5c ad 3c ea 54 79 be ac 35 92 3e c5 85 0b 3e
       0.021162078 -0.24348798 0.28556573 0.13625248
000230 e5 61 59 3e a4 79 c8 be 40 70 f0 bd 47 a4 63 be
       0.2122875 -0.39155304 -0.1174016 -0.22230636

player_tree_2.W.bias f4 [12]
000000 0f 6c 60 bd 38 af a9 bb 82 5c 10 bc 8f 4f 6a bb
       -0.054790553 -0.0051783584 -0.008811118 -0.0035752987
000010 76 de c6 bb ac c5 9a bb be 50 9a bb b1 5f b0 ba
       -0.006069 -0.0047232714 -0.0047093323 -0.0013456253
000020 91 f2 3d bc 3a 73 35 bb b1 6a 01 bd 74 fb b1 bc
       -0.011593477 -0.0027687089 -0.03159589 -0.021726348

player_tree_2.W_self.weight f4 [12, 12]
000000 4c f4 31 be 6e 23 28 bc 5a 2d 9d 3d 4d c3 63 be
       -0.17378348 -0.010262353 0.07674666 -0.2224247
000010 4f 63 6a 3e af 8a b6 be f6 ac 5d be 07 45 e6 be
       0.22889446 -0.35652682 -0.2164801 -0.4497454
000020 c5 8e be be ce 5b 8c 3e 6e 74 9f 3d 82 cd 17 be
       -0.372183 0.2741379 0.07785879 -0.14824489
000030 81 82 e5 be 4e c4 8e be f6 43 df 3d 3d f6 61 3e
       -0.4482613 -0.27884144 0.109016344 0.22066589
000040 20 4d e3 be c5 b6 fe be c9 7e 94 be b1 99 34 3f
       -0.4439478 -0.49748817 -0.2900298 0.70547014
000050 cf fd 26 be 5b 0a 90 3c 13 27 fc 3d 7e d4 32 3c
       -0.16307758 0.017583063 0.1231214 0.01091492
000060 89 ab d4 be f2 c5 e9 3e be 27 d6 be b1 fc 2c 3d
       -0.4153712 0.45658833 -0.41827196 0.042233173
000070 2f 75 a8 3d 52 da ca 3e 88 a9 39 3e a9 0d b7 ba
       0.08225476 0.3961969 0.18131077 -0.0013965863
000080 c2 9c e1 3e 60 08 ad 3e 1a cd 60 be 60 ab b5 be
       0.4406491 0.33795452 -0.2195324 -0.3548231
000090 9e 75 f5 3e 92 44 29 3e a7 11 1f 3f d5 61 89 3e
       0.47941297 0.16530064 0.6213631 0.26832452
0000a0 18 20 3a 3d 91 c7 5b 3e 25 47 f8 3e e3 38 4a be
       0.045440763 0.21462847 0.4849178 -0.19748263
0000b0 12 f2 31 3f 87 4c 93 bd 18 82 d2 be 9f 75 21 be
       0.69509995 -0.07192331 -0.4111488 -0.15767525
0000c0 a7 d6 0d 3f 5f 3a 0e 3e 43 4e 96 be 79 fd 09 3e
       0.5540566 0.13889454 -0.29356584 0.13475598
0000d0 c8 bc bc bd 22 c6 06 3f 17 a4 cb 3d e9 bd 53 bd
       -0.09215695 0.52646077 0.09943407 -0.051694784
0000e0 2b 0a cd 3e 2d d3 cf 3d 99 ad 38 be 05 e5 8b 3d
       0.4004682 0.101477005 -0.18034972 0.068307914
0000f0 31 7d 29 3d ab 8a 8e 3e 89 72 e6 3d 0e dc a9 3d
       0.041379157 0.2784017 0.112523146 0.08293925
000100 8c 2a bc 3e 1a 00 de 3e 39 fa 12 bf db 77 72 3e
       0.3675121 0.43359452 -0.5741306 0.23678534
000110 f4 b3 8c 3e 0e c4 de 3d ba 20 db 3e de 59 0b 3f
       0.27481043 0.10877238 0.42798406 0.54434
000120 00 d3 97 bd 68 72 b0 3e bf 0f 20 3e 0d 7a 24 bf
       -0.07413292 0.34462285 0.15631007 -0.64248735
000130 b4 ee 17 3f 1f d8 70 3d 04 ba b9 3e 71 b4 24 3c
       0.5934861 0.05879986 0.3627473 0.010052786
000140 73 e0 44 3e 74 84 67 be ab 04 aa 3e e1 f2 1b 3e
       0.19226246 -0.2260912 0.33206686 0.1522937
000150 06 d7 b5 bc 8b fa 99 be 3b e5 80 3e 39 8d 72 3e
       -0.022197258 -0.30073962 0.2517489 0.23686685
000160 cd 76 3d 3e 77 20 9d bb c9 f6 5b 3e 9b 20 21 3f
       0.1850235 -0.00479513 0.2148086 0.62940377
000170 7e 8c d1 be 04 85 41 3e 1b df 5b 3d 3f 76 72 3e
       -0.409275 0.18898398 0.053679567 0.2367792
000180 05 55 41 3d 1b ae 8d 3e 56 e6 02 bf db 45 16 3f
       0.04720022 0.27671894 -0.51132715 0.5870034
000190 4c 47 3e be 9e c7 ef be 6d 93 c2 be fd e6 bd bd
       -0.18581885 -0.46831983 -0.38003102 -0.09272573
0001a0 73 39 f9 3e 2f 71 e0 3e 65 6d 3f bd 1f 7b bb be
       0.48676643 0.43836352 -0.046735186 -0.3661737
0001b0 51 47 fb be 5f 5f 08 bd bc a1 d1 be f6 94 2e 3d
       -0.49077848 -0.033294078 -0.40943706 0.04262253
0001c0 26 d5 33 bd 18 2c 8c be 0c 4f f3 be f0 33 29 3e
       -0.043904446 -0.2737739 -0.47521245 0.16523719
0001d0 53 9e 98 be da 34 9b 3e 98 02 6a 3e 77 ad 6f bd
       -0.29808292 0.3031376 0.22852552 -0.05851504
0001e0 33 58 49 bc d7 47 28 be 66 9e be be 8e 28 cc 3e
       -0.012289095 -0.16433655 -0.37230223 0.3987469
0001f0 94 a1 4c 3e 0e d0 c4 bd 11 55 59 be 2d 90 44 3e
       0.19983512 -0.09609996 -0.21223857 0.19195624
000200 dc 0b 17 bf 0a 85 db bd 08 b8 4a be 8e b9 1c bd
       -0.5900247 -0.107187346 -0.19796765 -0.038262896
000210 20 bb c4 3d af 47 89 bd 99 ef d0 be ba 79 8e 3e
       0.09606004 -0.06703126 -0.40807799 0.27827245
000220 25 5c 31 bf 22 08 99 3d dd 86 b1 3d 87 64 90 be
       -0.69281226 0.07472254 0.08668301 -0.28201696
000230 89 aa d3 be 54 37 61 be ef f2 12 3e e2 8b ab bc
       -0.41341045 -0.21993762 0.14350484 -0.020940725

player_tree_2.W_self.bias f4 [12]
000000 0f 6c 60 bd 38 af a9 bb 82 5c 10 bc 8f 4f 6a bb
       -0.054790553 -0.0051783584 -0.008811118 -0.0035752987
000010 76 de c6 bb ac c5 9a bb be 50 9a bb b1 5f b0 ba
       -0.006069 -0.0047232714 -0.0047093323 -0.0013456253
000020 91 f2 3d bc 3a 73 35 bb b1 6a 01 bd 74 fb b1 bc
       -0.011593477 -0.0027687089 -0.03159589 -0.021726348

player_tree_3.W.weight f4 [12, 12]
000000 20 9f 43 3e c6 83 42 bf a0 a4 aa bd d4 d8 70 3d
       0.1910367 -0.7598232 -0.08332181 0.058800533
000010 aa 90 cf bd 1b 02 84 bd b3 ab 33 bd 4b 02 3c be
       -0.10135014 -0.06445714 -0.043864917 -0.1836025
000020 3c 93 fa 3d c1 34 7b 3c 01 1e 66 3e 4f 6a 33 bd
       0.12235114 0.015332402 0.22472383 -0.043802556
000030 a4 95 b0 3d 2c 0d 95 3e f0 3b e9 3e 09 aa 48 be
       0.08622292 0.29111612 0.4555354 -0.19596113
000040 d0 7b 9a 3d cc 7a a1 bd 7d 21 5a 3c fd 79 15 be
       0.075431466 -0.0788475 0.013313648 -0.14597316
000050 e3 0d fe 3c 01 21 ec 3e 95 97 35 bd 77 bd d6 3e
       0.031012481 0.4611893 -0.044334013 0.41941425
000060 2a 95 a0 3d 6d 97 be 3e ac fe b1 3d 41 45 40 3e
       0.07840951 0.37224904 0.08691153 0.18776418
000070 b7 79 91 3e 42 19 96 3e 08 04 e4 bd ce 45 0c 3f
       0.28413174 0.29316145 -0.111335814 0.54794014
000080 7c 60 56 3e 70 89 fc be 34 71 37 bd 7f c1 31 3d
       0.20935243 -0.49323606 -0.044785693 0.043397423
000090 79 1d 89 be 2a 53 22 bd 86 cb 68 3c c0 26 0b be
       -0.26780298 -0.039630093 0.01420868 -0.13589
0000a0 1e a3 c2 bc 1d 00 35 3e eb 30 91 bb 8c a9 a3 3e
       -0.023759421 0.17675824 -0.0044308803 0.31965292
0000b0 e8 51 0a bd d0 83 a0 be bc d6 18 3f c2 6a 5a be
       -0.033769518 -0.31350565 0.5970266 -0.21329787
0000c0 e0 79 38 be 51 ec fc bc 18 85 7d 3e f6 f4 10 be
       -0.18015242 -0.030874403 0.24757802 -0.14155945
0000d0 ae 62 8c 3e 2f 0b 4b be 31 d0 7b 3e 58 7b 19 3b
       0.27419037 -0.19828485 0.24591137 0.0023419466
0000e0 d4 1b be 3e 24 e8 d5 3c 9c 82 e1 bc ae 7b 2c 3e
       0.37130606 0.02611167 -0.0275281 0.16844055
0000f0 6b cf 12 be 0e 7a f9 3e 37 35 b9 bd 9f 06 76 be
       -0.14336936 0.48725933 -0.09043353 -0.24025963
000100 fe 99 aa 3e f3 6d 6c be e3 55 a3 be 76 e4 1d bf
       0.33320612 -0.23088817 -0.31901464 -0.6167673
000110 64 5d da be bb 84 ed 3d 8e 04 21 bd cc ac fa 3d
       -0.42649376 0.11597582 -0.039310984 0.1223999
000120 6b d0 5b be 6e 56 90 bd 73 e7 a1 bd b2 74 5a 3a
       -0.21466224 -0.07047735 -0.079054736 0.0008333429
000130 3d 6e 8e be ca 93 e9 3d 3a a5 11 3f 14 9d 80 3d
       -0.2781848 0.11405142 0.5689274 0.0627996
000140 05 a3 d9 3e 9b 05 d1 be 60 48 86 3e 85 cb 0f 3e
       0.42507187 -0.4082459 0.26227093 0.1404248
000150 71 44 55 be 77 d5 30 3b c8 a2 3f 3d f0 f9 60 bd
       -0.2082689 0.0026982704 0.0467861 -0.05492586
000160 49 30 aa bd 39 58 d0 ba ee 5b 98 3e a2 6b 66 be
       -0.08309991 -0.0015895433 0.29757637 -0.22501996
000170 73 2f b3 be 92 67 5d 3d 7d 79 29 be 6a b1 05 3e
       -0.34997138 0.05405385 -0.1655025 0.1305596
000180 0e 9e d4 3c 45 77 a7 3d f4 40 98 3d a1 91 b0 3d
       0.025954273 0.08177046 0.07434264 0.086215265
000190 ae a4 2e be 6b 52 50 3e 95 bc 3d 3f 7f 44 a6 3d
       -0.17055008 0.2034394 0.7411588 0.08118533
0001a0 b5 f7 be 3d bb 7f eb bd 3b 0d 02 bd 17 33 9a bd
       0.0932459 -0.11498972 -0.0317509 -0.07529276
0001b0 03 ba 05 bc f8 bb e1 3e 67 75 fa 3e f8 1c 93 3e
       -0.008162024 0.4408872 0.48917696 0.2873304
0001c0 89 fa 69 3f 98 9a 95 3e 1b 38 e4 3d 2d 1e 1c 3e
       0.9139791 0.29219508 0.11143514 0.15245886
0001d0 89 dc 04 bd 01 c7 20 3f 41 23 23 be 86 ef 17 3e
       -0.03243688 0.62803656 -0.15931417 0.14837465
0001e0 4d 78 61 3e e0 b2 ca 3c ae 79 fa be c1 72 92 be
       0.22018547 0.024743497 -0.4892096 -0.28603175
0001f0 e0 92 55 3d 1a 26 12 be 88 a9 0d 3e f7 7c ab be
       0.052142024 -0.14272347 0.13834202 -0.33493778
000200 d8 76 db 3d 8d e6 60 be f4 15 09 3f 32 5d b2 3e
       0.10716027 -0.21962948 0.5354912 0.34836727
000210 0f b3 e7 be 8c c3 db 3d cc 04 9f 3e 4f 42 11 3c
       -0.45253798 0.10730657 0.31058347 0.008865907
000220 77 bc b9 3e 9a 71 64 3e ea 4f 10 bf c9 48 55 3e
       0.362766 0.2230896 -0.5637194 0.20828547
000230 fb 5f d9 bb b9 5a 8d 3e ca 3d a6 bc df f9 24 bf
       -0.006633756 0.27608278 -0.020293135 -0.64443773

player_tree_3.W.bias f4 [12]
000000 f4 4c 11 bb 56 3f b4 bc 93 1e 79 bb 96 a3 a6 bc
       -0.0022171112 -0.022002857 -0.0038012608 -0.020341676
000010 46 cf a5 bb 9d 86 39 bd 69 7b 4d bd b9 3c f5 bd
       -0.0050601093 -0.045294393 -0.05016652 -0.119744726
000020 b1 18 81 bb cf eb 01 bc 56 93 60 bc ff fb 63 bb
       -0.003939711 -0.007929756 -0.013707003 -0.0034787653

player_tree_3.W_self.weight f4 [12, 12]
000000 ce a1 4b be 4e 63 4a be 7f e5 65 bd 43 b7 4c bd
       -0.19885942 -0.19764444 -0.056127068 -0.04997946
000010 3f 13 01 3f 6d f8 9c 3e d5 80 e6 3e 91 ac bc 3e
       0.5041999 0.30658284 0.45020166 0.36850408
000020 e3 39 bf 3d 67 0e 23 3e ce 9a 59 3d 29 20 b3 be
       0.09337213 0.15923463 0.05312615 -0.34985474
000030 4c de b4 be be e6 fa bc 98 dc 35 bd a8 89 7d bd
       -0.3532585 -0.030627605 -0.044399828 -0.061898857
000040 70 e8 81 bd 06 94 0a be 6c 26 14 be 3b 0b 9e bd
       -0.06343162 -0.13533029 -0.14467782 -0.07716986
000050 a8 04 b6 be ab 55 40 bd ff 4d 37 3e 40 c3 c2 be
       -0.35550427 -0.0469567 0.17900847 -0.3803959
000060 84 cb 69 be 4b 8d d4 3e 3c 02 a3 3e f8 0b a6 3e
       -0.22831541 0.41514048 0.31837642 0.32431006
000070 35 02 cf 3e 64 95 b9 bc ba 48 b2 bd fb 02 ac 3e
       0.4043137 -0.022654243 -0.08705278 0.33596024
000080 88 34 a4 3e a8 52 03 be aa 9e d3 3e ec 03 a6 bd
       0.32071328 -0.128245 0.4133199 -0.08106217
000090 94 80 44 bf 8c 4b 62 bb 0d f8 2c 3d 6a 13 bb 3e
       -0.76758695 -0.0034529893 0.042228747 0.3653825
0000a0 82 37 1f be a4 04 a0 be ca 97 a1 be 77 c0 19 3f
       -0.15548518 -0.3125354 -0.31561118 0.60059303
0000b0 7a 55 88 bd a4 19 d6 be 5a a9 27 3e af a4 10 bf
       -0.06656928 -0.41816437 0.16373196 -0.5650129
0000c0 e4 5d 4b be 42 1a 31 be 28 dc 43 be 10 39 ec 3e
       -0.19860035 -0.17295173 -0.19126952 0.46137285
0000d0 77 0a 3b 3f 86 74 de 3e 00 9a 38 3b d8 53 2d 3e
       0.73062843 0.43448275 0.0028167963 0.16926515
0000e0 37 32 00 be 03 4a 8b be a4 4f 9f 3e e5 7b 25 3e
       -0.12519155 -0.27204904 0.31115448 0.16160543
0000f0 78 e3 9b 3e 1a 7e ea 3d a5 23 b7 3e 68 e7 b4 3e
       0.30446982 0.11449833 0.35769382 0.353328
000100 24 45 fe ba 6c 39 6d be ff 9b 0f 3e 68 e6 09 be
       -0.0019399268 -0.23166436 0.14024352 -0.134668
000110 21 d7 93 be f0 2c 16 be 9d 4f 3b bd 63 59 fc be
       -0.28875068 -0.1466558 -0.045730222 -0.49286947
000120 53 b8 51 3e 5e 2c 4c bf 86 b2 25 be 05 7b 15 be
       0.2048047 -0.797552 -0.16181383 -0.1459771
000130 7d 1a 4d 3e 51 2e 15 be af 4a 07 3e ee f1 17 3e
       0.20029636 -0.1456845 0.13212083 0.14838383
000140 fd 08 9a 3d 4b a9 8a bc 5c 13 83 3c df d2 17 bd
       0.07521246 -0.016926428 0.016000442 -0.037066337
000150 ed a5 e5 3d 9c e0 6a be a2 21 08 3e 5b 15 74 3e
       0.112132885 -0.22937244 0.1329408 0.23836271
000160 a9 6b 6c 3e da d6 1e 3f 3c fb 34 bc ba 15 2d bf
       0.23087944 0.6204659 -0.011046227 -0.6761128
000170 7c 67 b9 bd 90 15 d3 bd b8 1f aa bd 1b cb bb be
       -0.09052941 -0.10306847 -0.08306831 -0.36678395
000180 17 c3 60 bf 76 fb 5e 3e 6f 88 27 be 04 d6 cd 3e
       -0.87797683 0.21775612 -0.16360639 0.40202343
000190 65 f2 5e 3e 31 ad 20 3f 12 f3 ea be 84 3b c8 3e
       0.21772154 0.6276427 -0.45888573 0.39107907
0001a0 b2 34 0c 3e f2 b6 40 3e 9c d3 1c bf 43 df b8 3b
       0.13691977 0.18819788 -0.6126039 0.0056418492
0001b0 80 1c 2b b9 41 a7 a1 3e b0 37 01 3f b5 bc a7 bd
       -0.00016318448 0.31572917 0.504756 -0.0819029
0001c0 84 5b 90 3e 8b 5d e0 3b 54 fa c4 3e 3c 94 ad be
       0.2819482 0.0068470887 0.38472235 -0.33902156
0001d0 ed bf af 3e cf 76 cb bd 28 40 f4 3e 83 f6 00 bf
       0.34326115 -0.0993477 0.47705197 -0.5037615
0001e0 6f b4 ef bd fe c4 ae bd 30 9b 34 bd d3 11 1c bb
       -0.11704337 -0.08533667 -0.04409331 -0.0023814335
0001f0 2f 25 be bd 65 9a d7 bd c2 68 f7 be 24 80 b2 3e
       -0.09284436 -0.10527495 -0.4832211 0.3486339
000200 70 8c 34 3c 38 c3 fb 3e d8 0b 9e 3d 71 28 36 be
       0.011019811 0.49172378 0.07717103 -0.17788865
000210 d7 71 0a 3e a6 31 ab be 2c 47 97 3e 7c 5d e6 3e
       0.13519989 -0.33436316 0.29546487 0.44993198
000220 ae bc 85 3d 18 71 f1 3e dd 86 4a 3e 58 fc 03 bc
       0.065301284 0.47156596 0.19778009 -0.008055769
000230 7a 40 2b 3e ac 34 26 3f e9 b3 7c 3c 0a 02 89 be
       0.16723815 0.6492412 0.015423753 -0.26759368

player_tree_3.W_self.bias f4 [12]
000000 f4 4c 11 bb 56 3f b4 bc 93 1e 79 bb 96 a3 a6 bc
       -0.0022171112 -0.022002857 -0.0038012608 -0.020341676
000010 46 cf a5 bb 9d 86 39 bd 69 7b 4d bd b9 3c f5 bd
       -0.0050601093 -0.045294393 -0.05016652 -0.119744726
000020 b1 18 81 bb cf eb 01 bc 56 93 60 bc ff fb 63 bb
       -0.003939711 -0.007929756 -0.013707003 -0.0034787653

player_tree_4.weight f4 [8, 12]
000000 d4 e2 9e 3e c1 73 33 be 9e 84 ce 3d 16 80 36 3e
       0.3103243 -0.17524625 0.100838885 0.17822298
000010 31 30 1e 3b 43 39 85 be b5 6d 3b bf e2 b9 85 be
       0.002413761 -0.2602025 -0.73214275 -0.2611838
000020 d7 eb c6 3e 48 9c 14 3e 04 21 e9 bd 31 8a 82 3f
       0.38851807 0.14512742 -0.1138325 1.0198423
000030 c4 e2 32 3e a5 ff 76 3e ff b7 90 3e d0 b6 66 3e
       0.17469317 0.24120958 0.28265378 0.22530675
000040 a0 79 c6 3d 77 5d 78 3d aa 66 39 bf e8 bc 35 be
       0.09691167 0.06063601 -0.7242228 -0.17747843
000050 83 80 1b 3e 96 8e 3c be 96 0a 34 bd 46 20 16 3f
       0.15185742 -0.18413767 -0.043955408 0.58642995
000060 fa 57 ed bc d6 74 4c 3d 87 11 2b bf 70 95 e0 3e
       -0.028972615 0.04991611 -0.6682362 0.43864012
000070 0c 42 09 bf 63 ff 00 3f 5c 13 d8 3e 90 0f d1 be
       -0.53616405 0.5038969 0.4220227 -0.40832186
000080 de 8e 08 3f 17 f7 c9 bd 0e 17 06 be 1f 45 82 bc
       0.53343 -0.09861582 -0.13094732 -0.0159021
000090 df 6d a4 3d cf 44 83 3c fb 2b 48 be 68 9d d0 be
       0.08028769 0.016024021 -0.19548027 -0.4074509
0000a0 e6 fc 09 be 67 bb 2c be 63 22 6c be e5 78 8d 3e
       -0.1347538 -0.16868363 -0.23059992 0.27631298
0000b0 0d 46 8b be 38 9c cf be 35 64 cd 3c 00 ab 3e 3e
       -0.27201882 -0.40548873 0.025072196 0.18619919
0000c0 da 21 b1 3a 0c 59 e0 3d 74 a6 cd 3e c5 85 5f 3e
       0.0013514117 0.10954484 0.40166056 0.21828373
0000d0 f9 16 bb be c2 92 69 be 8f ed 68 be 82 55 a2 3e
       -0.36540964 -0.2280989 -0.22746871 0.31705862
0000e0 eb 2d 19 3d 36 f6 95 be a1 90 d3 3d fb c2 c4 3d
       0.037397306 -0.29289407 0.1033032 0.09607502
0000f0 4e fa 47 3f 3a 72 bc be a0 8c f6 3e fa d0 f5 be
       0.7811631 -0.36805898 0.48154163 -0.48011
000100 8d 80 38 3f e9 5e 03 be 6f ff 8a be fc d3 a0 be
       0.7207115 -0.12829174 -0.27148005 -0.3141173
000110 d9 6c ed 3e a5 93 2b 3f dc 47 3f 3e 95 27 12 bd
       0.46372107 0.6702216 0.18679756 -0.03568228
000120 2d fc 47 3d 3e 7c 00 3e b4 cb dc bd c8 19 76 3e
       0.048824478 0.12547395 -0.10781041 0.24033272
000130 3b a3 da 3e 16 4b 5e 3e d9 6f 61 3e df 7c 37 3e
       0.4270266 0.2170833 0.22015323 0.17918728
000140 a4 e1 4d be da bf c3 3b 06 19 b5 be a6 2f 11 3e
       -0.20105606 0.005973798 -0.35370654 0.14178333
000150 19 5e be bd 6e 15 f0 bd f2 ae 85 3e 04 88 8a be
       -0.092952915 -0.117228374 0.26110035 -0.27056897
000160 b6 79 dc be 3a 94 e2 3b 19 73 41 3e c0 4c e2 3e
       -0.43061608 0.0069146426 0.18891563 0.4419918
000170 79 4d e9 bd d1 7b 97 be 2b 37 e8 be 40 b7 3d 3f
       -0.1139173 -0.29586652 -0.4535459 0.7410774

player_tree_4.bias f4 [8]
000000 9a 4e 72 3b 4c 07 c9 3c 18 8d 12 b9 d4 66 a7 3b
       0.003697312 0.024539612 -0.00013976207 0.0051086936
000010 e3 2e 83 bc 16 43 0b bb 55 13 0d bc ae 63 20 bc
       -0.016013568 -0.0021249703 -0.008610566 -0.0097893905

sun_influence_1.W.weight f4 [12, 12]
000000 3e 2e f0 be 48 0f 4d be 14 d8 b8 be 78 f9 8e 3e
       -0.4691028 -0.2002536 -0.36102355 0.27924705
000010 24 29 52 be 2c b6 a9 3e ed dd a6 be cf 06 26 3c
       -0.20523506 0.331468 -0.3259119 0.010133459
000020 95 9b 3b 3e 2c 3b 11 be 8c 8a 05 3e 19 2f da 3e
       0.18321069 -0.14182729 0.13041133 0.42614058
000030 83 a1 d0 3e 9e 78 95 3d 38 c9 c2 be 3c d6 2f 3e
       0.40748224 0.072983965 -0.38044143 0.17171568
000040 cf d6 3d 3e ee 9a 10 bb 35 42 c7 3c bb 2f 5a 3e
       0.18538974 -0.0022065002 0.024323562 0.2130727
000050 94 dc f0 3e 6f 60 a1 bd 0c d0 bb be e0 96 e7 3d
       0.47043288 -0.078797214 -0.36682165 0.11308074
000060 71 11 26 bd d6 59 16 bf c1 d4 c5 3e fa 77 38 be
       -0.040543977 -0.5873083 0.3863888 -0.18014517
000070 a8 ba 8c be 6d 06 87 be a2 c8 cc 3e 63 e5 23 be
       -0.27486157 -0.2637209 0.3999682 -0.16005473
000080 55 0e 69 be fa d5 4c 3e 48 f4 5f bf c4 c4 5c be
       -0.22759373 0.200035 -0.8748212 -0.21559435
000090 f4 fc 2b be ee e1 c2 3e 45 e2 48 bd 91 78 43 bc
       -0.16795713 0.38062996 -0.049043912 -0.011930601
0000a0 fe c0 71 3e d2 9d c8 3d 80 ac 62 bd fc 13 35 3e
       0.23608777 0.09795727 -0.05534029 0.17683405
0000b0 e4 e2 05 be 81 7b 94 be 23 b3 0f 3e 18 6b 17 be
       -0.13074833 -0.29000476 0.14033179 -0.14786947
0000c0 f3 07 9f be b1 31 1b be cf 10 4b 3e b7 45 80 be
       -0.31060752 -0.15155675 0.1983063 -0.25053188
0000d0 80 59 7f 3e 5b a9 c3 3e 97 ff d4 bd 2a 04 ce 3e
       0.24936485 0.38215145 -0.104003124 0.40237552
0000e0 d9 08 8c be 60 36 3c 3e a6 4d 47 3d ac ce b5 be
       -0.273505 0.18380117 0.048658036 -0.3550924
0000f0 0c d8 9a bd 80 26 a1 3e 1b 0f 3e be a4 3d 30 3e
       -0.07560739 0.31474686 -0.1856045 0.17211014
000100 d8 2e da 3c 74 b8 16 bf cc 3d 98 be 1e aa c6 bd
       0.026633665 -0.58875203 -0.29734647 -0.09700416
000110 ab ba 63 be c1 25 8e 3e 77 0e 88 3e a7 93 b4 be
       -0.22239177 0.2776318 0.26573536 -0.352689
000120 65 af c9 be 17 f8 fe 3c e5 47 d4 3d 23 34 7e be
       -0.39391628 0.031124158 0.10365275 -0.24824576
000130 cb 83 e7 bd e0 1c 01 3e 2d f9 bc 3d 3b 52 a8 3b
       -0.113044344 0.12608671 0.09227214 0.0051367558
000140 45 33 c1 3e af e9 e0 3d fa 0a d8 bc 39 c7 c7 3e
       0.37734428 0.109820716 -0.026372422 0.39019182
000150 eb 00 a2 3d d7 cc 2c bf ad d2 03 3e c1 c3 85 3e
       0.07910331 -0.6750006 0.12873335 0.2612591
000160 8c a2 3b 3f 3e 39 ad bc f2 e0 e1 be 8a 8f 46 be
       0.732949 -0.02114546 -0.44116932 -0.19390693
000170 9f d2 6a 3c 53 17 89 be 8e b4 8e 3e 17 98 00 bf
       0.014332443 -0.26775607 0.27872127 -0.5023207
000180 74 16 a6 bd 44 89 8c be 4b 98 b2 3e 1b 53 e5 bd
       -0.08109751 -0.27448475 0.34881815 -0.11197492
000190 cf cf 84 be 47 b6 95 be ec a4 31 3f e7 20 fd be
       -0.25939795 -0.2924063 0.69392276 -0.49439165
0001a0 e8 6e d6 3c f9 98 30 3e 86 ed 41 3c a3 90 0c bd
       0.026175931 0.17245854 0.011836415 -0.034317624
0001b0 16 c9 f8 3d 9d 3d bf 3d 27 09 31 3e 0f cc 26 3e
       0.12147729 0.09337924 0.17288648 0.1628878
0001c0 f6 a4 ef bd cf c8 86 3e 9a 77 5f be e7 f1 b6 3e
       -0.11701386 0.2632508 -0.21822968 0.35731432
0001d0 83 10 ae be 12 c5 f5 3e 45 46 0b 3f b9 b3 ac be
       -0.33996972 0.48001915 0.544041 -0.33730868
0001e0 c7 f6 cc 3e c5 2e 34 be 53 9e 98 3c 64 23 9a bd
       0.40032026 -0.17595966 0.018630182 -0.075262815
0001f0 ad 23 4f 3e bc 25 b4 3e ed e2 88 bd 1e 3a 06 3f
       0.20228453 0.3518504 -0.06683908 0.5243243
000200 47 73 9b 3e b5 21 9c bc 96 a5 a2 3d d7 c3 a6 bc
       0.30361387 -0.019059042 0.07941739 -0.020357056
000210 c9 e1 9b bd ef 45 4a 3e 43 24 2c 3e da e0 ac 3c
       -0.076114245 0.1975324 0.16810708 0.021103311
000220 be 23 e0 3e ac e9 4e 3d 2a d5 d7 be 40 99 f0 3d
       0.4377727 0.050515816 -0.4215482 0.1174798
000230 18 c8 38 bc a3 88 87 3e ba 79 b4 be ac 72 87 be
       -0.011278175 0.26471433 -0.3524912 -0.26454675

sun_influence_1.W.bias f4 [12]
000000 92 51 3f 3c c1 02 16 bc 99 47 62 ba ef 5e 86 bb
       0.011677163 -0.00915593 -0.00086318847 -0.0041006724
000010 a5 47 41 bb 1a 4c 73 bd 7b ba ca bd 3a db 69 b9
       -0.0029492166 -0.059398748 -0.098988496 -0.0002230228
000020 76 6c 1b bc 29 56 af ba 96 13 34 3a a9 86 30 bc
       -0.009486308 -0.0013377118 0.00068693736 -0.010774293

sun_influence_1.W_self.weight f4 [12, 12]
000000 87 6c 67 be 95 22 97 be 77 98 80 be d3 23 16 be
       -0.22599994 -0.29518571 -0.2511632 -0.14662103
000010 c1 8a 84 be 12 a1 2e 3d 70 37 bf 3d 46 da 8f bd
       -0.2588711 0.042634077 0.09336746 -0.07024054
000020 b9 c7 8b 3e 1c d3 66 3e 80 41 a1 bc c2 e4 ac bd
       0.27300814 0.2254147 -0.019684553 -0.084420696
000030 6e 4f d4 be f9 e1 53 be ee de f8 be f3 cc 58 3f
       -0.4146685 -0.2069167 -0.48607582 0.8468773
000040 98 67 6a 3e aa c3 32 3e 71 37 00 3f da 40 e7 bd
       0.2289108 0.17457452 0.50084597 -0.11291666
000050 04 42 62 be b1 90 8f be cb 02 27 3d b6 b2 e4 be
       -0.22095495 -0.28040078 0.040774148 -0.44667596
000060 8b 8f 87 3e 32 32 15 3f 9a ff 93 3e cd 60 f2 3c
       0.26476702 0.58279717 0.28905946 0.029587174
000070 70 f6 b5 3e 28 08 1f be 10 14 0c bf 73 f1 fc be
       0.3553958 -0.15530455 -0.5471811 -0.4940296
000080 b4 bc 8b 3e 6c ac 48 bd ae 1b 6a 3e 43 1a d4 3d
       0.27292407 -0.04899256 0.22862121 0.103565715
000090 7b c9 a9 be ef 01 6d 3e 16 28 51 bb fd 18 aa 3e
       -0.3316153 0.23145269 -0.0031914762 0.3322219
0000a0 95 1c 8c be 82 40 f0 3c b2 06 87 bd 55 1c 99 3e
       -0.27365556 0.029327635 -0.06593074 0.29904428
0000b0 30 7b dc 3e 68 db ab bd 61 55 1c be 47 11 24 3f
       0.43062735 -0.08391458 -0.15266944 0.64088863
0000c0 78 4c 60 be 1d 5d 98 3e c6 56 77 3e 4c 71 53 3e
       -0.2190417 0.2975854 0.24154195 0.20648688
0000d0 bb b6 bf 3d e0 d6 0d 3f de 7c 6c 3b ea f6 6b 3e
       0.09361025 0.55406 0.0036085169 0.23043409
0000e0 21 30 0e 3f 33 6f 8d 3e 88 78 ed be 99 1e 05 3d
       0.5554219 0.276239 -0.4638102 0.032499883
0000f0 ec bc b6 3e 8e 99 eb bd f4 75 d6 3c 67 9f cc be
       0.3569101 -0.115038976 0.026179291 -0.39965364
000100 58 cc 54 be b3 17 52 3e 87 99 1f 3e 08 45 9f 3e
       -0.20781076 0.20516853 0.1558591 0.31107354
000110 13 2f ef be d8 e3 77 bd 19 46 4d 3e 26 8c 87 be
       -0.46715602 -0.060520023 0.20046271 -0.26474112
000120 4c 5d 5a be 54 87 bf 3e 17 8c 02 bf 87 7b 27 3e
       -0.21324652 0.37407935 -0.5099501 0.16355716
000130 77 ee 9d be d4 a6 ad 3d ee bc 48 3e 08 a1 8b bd
       -0.30845997 0.084790856 0.19603321 -0.06817824
000140 2d fb a2 3e 62 f6 b3 3e fb a0 65 3e d7 e2 dd bd
       0.31832257 0.35148913 0.2242469 -0.10834282
000150 07 11 8d be eb dd 6e 3e 55 80 82 be f0 ef 40 3d
       -0.27552053 0.23326842 -0.25488535 0.047103822
000160 98 27 6a be 9f cc 5a 3e 32 99 d5 3e fc 5e a6 3d
       -0.22866666 0.21367119 0.4171844 0.081235856
000170 6c 24 9e 3e de f4 e2 3b a0 a2 28 be dd 45 7c 3e
       0.30887163 0.006926163 -0.16468287 0.24636026
000180 26 2d 3a bd ce c2 36 be 7f bb 21 3f 4e c1 39 3e
       -0.045453213 -0.1784775 0.6317672 0.18140146
000190 b8 e3 a5 3c 76 32 88 3d 4f 65 ad bd 58 13 4d be
       0.020250186 0.0665025 -0.08466589 -0.2002691
0001a0 83 15 e0 be d8 49 68 3b 0c e2 c5 3e d5 52 d8 3e
       -0.43766412 0.0035444405 0.38649023 0.42250696
0001b0 21 49 45 3d 22 1f 4d 3f 86 ee 80 3e 75 30 5a 3e
       0.048165444 0.8012563 0.2518198 0.21307547
0001c0 fb 06 dd be f6 a0 ac be 32 6a 17 bd 9b ee 94 3e
       -0.43169388 -0.33716553 -0.03696651 0.29088292
0001d0 32 1f 20 bf f8 2a ca be 72 50 1e 3d e0 bb c5 be
       -0.625476 -0.39485908 0.038650937 -0.386199
0001e0 cf 8e c6 bd 9f aa 02 be e4 79 0b 3e 37 0c 1c 3e
       -0.09695207 -0.127604 0.13620716 0.15239035
0001f0 cd c6 cb 3e 76 60 4f 3e a3 55 b0 be 88 20 ee 3e
       0.3980011 0.2025164 -0.34440336 0.46509194
000200 36 3b 85 be c7 7d 50 3e 03 e2 8c 3e fa bf 7a 3e
       -0.26021737 0.2036048 0.27516183 0.24487296
000210 5a f3 b4 3d 5f 91 88 be 80 a9 ae be ce 03 bb 3e
       0.08835478 -0.2667341 -0.34113693 0.3652634
000220 eb 5a 90 be 2e 2f e3 bd d7 02 c8 be 0d 33 03 bf
       -0.28194365 -0.11092983 -0.39064667 -0.5124977
000230 85 66 85 3e d1 21 ad 3e 6a 7e cf 3d 3e d3 16 bd
       0.2605478 0.33814862 0.101315334 -0.03682255

sun_influence_1.W_self.bias f4 [12]
000000 92 51 3f 3c c1 02 16 bc 99 47 62 ba ef 5e 86 bb
       0.011677163 -0.00915593 -0.00086318847 -0.0041006724
000010 a5 47 41 bb 1a 4c 73 bd 7b ba ca bd 3a db 69 b9
       -0.0029492166 -0.059398748 -0.098988496 -0.0002230228
000020 76 6c 1b bc 29 56 af ba 96 13 34 3a a9 86 30 bc
       -0.009486308 -0.0013377118 0.00068693736 -0.010774293

sun_influence_2.W.weight f4 [12, 12]
000000 da b5 e0 bd 76 c1 94 3e 56 40 3a 3d 43 14 97 b9
       -0.109721854 0.2905385 0.04547151 -0.0002881606
000010 ac cb 5c 3e c4 0d 92 bd d3 17 9e be 2c a8 8a 3e
       0.2156207 -0.07131532 -0.3087755 0.2708143
000020 cb a1 d0 bd 03 67 96 3e bd ed 00 be 94 a7 f9 3d
       -0.101871096 0.29375467 -0.1259069 0.12190166
000030 e5 1f 05 be 53 f7 3d 3f 50 cc cb 3e 3c 70 6b 3e
       -0.13000448 0.7420551 0.39804316 0.22992033
000040 c7 e0 0f be f9 e9 04 3f ba 92 c1 3e bd ad 32 be
       -0.1405059 0.51919514 0.37807256 -0.17449088
000050 d0 6c 64 3c 01 58 98 be d9 c8 c6 3e 90 44 f4 3c
       0.013941959 -0.29754642 0.3882511 0.02981785
000060 53 37 74 be a6 0f 94 3e fb 50 3b be b2 1e 90 3e
       -0.2384923 0.2891819 -0.1829261 0.2814842
000070 af f1 56 be 73 b3 52 be 8f 0a 1b be a7 0a f8 3d
       -0.20990632 -0.20576267 -0.15140747 0.12111407
000080 7e cf 38 3f b5 90 19 bc 18 22 05 3e b4 3e e3 bc
       0.7219161 -0.00937288 0.13001287 -0.02773986
000090 88 6b a0 be df e7 88 be 25 a0 9d 3e 5e 0d 3b 3e
       -0.3133204 -0.26739404 0.30786243 0.18266818
0000a0 10 bf 3f 3d 25 dd af be 29 fa 9d 3e 2c 0b 24 be
       0.04681307 -0.34348407 0.3085492 -0.16019887
0000b0 42 07 85 3d 8a a4 0a bd 2e 40 a4 3d 5a 90 8f be
       0.06495525 -0.033848323 0.08020054 -0.2803982
0000c0 12 ea af b7 73 7b 0d 3f 98 b5 b4 be a5 77 90 be
       -2.0970623e-05 0.55266494 -0.35294795 -0.28216282
0000d0 dd 6c 9b be 09 2c d6 be 96 c0 87 be 72 f5 c4 be
       -0.30356494 -0.4183047 -0.2651412 -0.3846851
0000e0 83 80 e8 3d 07 e3 9e 3e 19 02 7a be e0 7a df be
       0.11352637 0.31032583 -0.24414863 -0.43648434
0000f0 ab 07 22 be 22 49 89 be 6d 72 86 3c 9a 25 18 3d
       -0.15823238 -0.26813608 0.016411984 0.037145235
000100 ff 02 e4 3d 06 44 21 bf 70 62 16 be 87 7e 5a 3e
       0.11133384 -0.6299442 -0.14685988 0.21337329
000110 2f 28 1f 3e 2e cd 6f be a7 81 e4 3c 37 59 bd 3d
       0.15542673 -0.23418114 0.027893854 0.09245532
000120 08 6d 1d be bf 44 12 3f 26 af a2 be a1 83 5a be
       -0.15373623 0.5713615 -0.31774253 -0.21339275
000130 3e f3 33 3e 13 96 b6 bb 84 96 2f 3e c6 7e ea 3d
       0.17573258 -0.0055720895 0.17147261 0.11449961
000140 83 b6 73 3d 1e 93 ac be b0 4e 90 be 10 83 9e 3b
       0.05950023 -0.33705992 -0.28185034 0.004837401
000150 04 89 68 be 65 0b a8 bc bb 47 b2 3e 49 a0 7b 3d
       -0.22708517 -0.020513246 0.3482035 0.061432157
000160 c0 f1 cf 3d 6a f0 60 3e 57 21 03 3d 55 45 43 3e
       0.10153532 0.2196671 0.032014217 0.19069417
000170 ab 17 05 bf ac 03 40 be 7e 5d 0d bd b5 99 b2 3d
       -0.5198924 -0.187514 -0.03451299 0.087207235
000180 85 5e e3 be a0 03 d7 be 1a 83 ec bc 5f 6d 64 3e
       -0.4440805 -0.41994953 -0.028871108 0.22307347
000190 30 a9 08 3e dd 55 1f bf a5 a6 a6 3e a3 dc dc be
       0.1334579 -0.6224039 0.32549015 -0.43137082
0001a0 84 b9 86 3e 28 b1 30 3e ed 49 06 bf 6f 32 c9 bc
       0.26313412 0.1725508 -0.5245655 -0.024560181
0001b0 2e 85 21 bf 6b 1e e4 3d 18 1e 41 be 2b 3f 04 bf
       -0.6309384 0.11138614 -0.18859136 -0.51658887
0001c0 14 11 64 be d6 2a 20 bf 67 6b 7f be 45 61 9e be
       -0.2227214 -0.6256536 -0.24943314 -0.30933586
0001d0 52 14 bf bc 0e 89 44 bc 21 90 dd bc 2e f5 bc be
       -0.02332512 -0.011995567 -0.027046265 -0.36905807
0001e0 a6 88 c2 3e 17 96 0b 3f fa 43 a5 be bf 0f c2 bd
       0.3799488 0.54525894 -0.32278425 -0.094756596
0001f0 db cc 9b 3e 04 2b b4 bd 7e 73 8b 3d 16 35 27 bf
       0.3042973 -0.08797267 0.06809138 -0.6531538
000200 db c3 a2 be 27 44 ea bd 32 da a4 be ef 49 8d 3c
       -0.3179005 -0.1143878 -0.3219772 0.017247168
000210 4b 24 63 be b0 a0 1a bd 6b 75 37 bd 37 99 7b be
       -0.22181813 -0.0377509 -0.044789713 -0.24570166
000220 51 a0 63 be c8 c6 de 3e aa 91 ad 3d 2b 51 bb be
       -0.22229125 0.43511033 0.08475049 -0.36585364
000230 a9 0b 52 3e 2e 60 e0 3d cc 2f b9 3e bd 55 c9 3e
       0.2051226 0.10955845 0.3616928 0.39323226

sun_influence_2.W.bias f4 [12]
000000 70 44 87 ba 22 70 70 bc 75 be ba 39 63 95 34 3c
       -0.0010320079 -0.014675172 0.00035618586 0.011021945
000010 9a 13 96 bc 82 78 0b bc 63 a4 85 ba 82 84 47 ba
       -0.018319894 -0.008512618 -0.0010196086 -0.0007610993
000020 3a 60 1e bd a6 63 29 bd 98 19 28 bc 7b ae 14 bd
       -0.038665988 -0.041354798 -0.010260008 -0.03629921

sun_influence_2.W_self.weight f4 [12, 12]
000000 c4 52 db bd 62 2d dc 3d eb 00 79 be 45 07 2a 3f
       -0.10709146 0.107508436 -0.24316756 0.6641734
000010 13 98 d7 be f9 7a ae be 42 f0 e4 bb 81 1d 08 3e
       -0.4210821 -0.34078196 -0.006986649 0.13292505
000020 66 4a 7f bd 90 14 0a 3f d5 a1 79 3e 34 b4 5c 3d
       -0.06232681 0.53937626 0.2437814 0.053882793
000030 44 25 5c 3d a1 c5 6c 3e 23 61 cc 3e be 49 c3 3e
       0.053746477 0.23122264 0.3991786 0.38142198
000040 b0 dc c8 3e f0 95 4b 3e f2 40 c8 bc b2 65 27 3e
       0.3923087 0.19881415 -0.02444503 0.16347387
000050 01 09 79 be 32 f4 4a 3e 7f ae 9b 3e 78 e9 6e 3e
       -0.24319841 0.19819716 0.30406567 0.23331249
000060 e2 cb 23 be e3 b7 36 3d 44 4e 44 3d 94 43 ed be
       -0.15995744 0.04460896 0.047926202 -0.4634062
000070 f5 0c 63 3e 70 2e 05 3d 9d 8a 7a 3e c3 a8 e4 3e
       0.22172911 0.03251499 0.2446694 0.44660005
000080 49 51 60 be e5 e9 51 be 3c 01 a2 bb bd 58 b2 3d
       -0.21906008 -0.2049938 -0.004943995 0.08708332
000090 57 06 4b bf c3 57 03 be 65 79 4a 3e a7 74 e0 3e
       -0.7930655 -0.12826447 0.19772871 0.43839
0000a0 57 89 0a 3f 08 85 b6 bd fd d8 29 bf d2 2f b5 be
       0.54115814 -0.089120924 -0.6634672 -0.35388047
0000b0 e6 9b e3 3e 42 27 a0 3e be 66 0d 3f 0e de 94 3b
       0.4445488 0.3127995 0.552349 0.0045430725
0000c0 1d f9 bc 3d fe 02 02 3f ac 05 0f be c3 36 a7 3d
       0.09227202 0.50785816 -0.13967007 0.08164742
0000d0 49 a2 9b 3e 42 4c f2 bd a2 a0 9a bd bc 3f 89 be
       0.3039725 -0.11830951 -0.075501695 -0.26806438
0000e0 22 c7 23 be 8c b1 11 be 2f 50 7d be 72 1f c7 be
       -0.15993932 -0.14227885 -0.24737619 -0.38891178
0000f0 3d 72 16 3f d8 90 03 3f 69 03 7b 3d 18 78 d3 3e
       0.58768064 0.5139289 0.06128255 0.41302562
000100 bf 56 d7 3e 0e 53 6d 3e 46 bb 4f 3e 1b 4e 8a be
       0.4205837 0.23176214 0.20286283 -0.27012715
000110 6a b5 81 3e 23 8e 6d bd 32 29 87 3f af 94 94 be
       0.2533372 -0.05799688 1.0559447 -0.29019687
000120 f6 d7 97 3e 58 37 23 bd cb 0f e5 bb a0 a1 9f 3e
       0.29656953 -0.0398477 -0.006990408 0.31177998
000130 27 1a 14 3d 18 a3 4f be 78 f9 53 be 37 51 49 bb
       0.036157753 -0.20277059 -0.20700634 -0.0030718574
000140 4b 65 92 be 83 24 68 3e bf 2c a7 be c7 8c 15 3f
       -0.28592905 0.22670178 -0.32651326 0.58417934
000150 10 7a 04 be 16 e5 29 3d 07 8f 98 be 0e f0 39 be
       -0.12937188 0.04147824 -0.2979662 -0.1815798
000160 14 1e 33 3e a3 6a 98 3e ac a7 07 bf e2 bd 8d 3e
       0.17491943 0.29768857 -0.5299022 0.27683932
000170 01 71 e9 be ee 32 3f be ed 60 0d 3f 58 9a 01 bf
       -0.45594028 -0.18671772 0.5522602 -0.50626135
000180 4a 3b 58 bf de 83 41 3d 20 52 fd bc 34 f5 13 bc
       -0.8446547 0.0472449 -0.03092295 -0.009030629
000190 7a 72 b5 3d 14 ac c0 bd d6 52 82 3e bd f5 66 3c
       0.08859725 -0.09407821 0.25453824 0.0140966745
0001a0 67 28 7e 3e 80 45 28 3e 3c b3 07 3e b6 56 2f 3c
       0.248201 0.16432762 0.13251966 0.010701826
0001b0 82 7d a8 be 71 d6 6b be 41 c1 8f be 1d c4 16 3e
       -0.32908255 -0.23031022 -0.2807713 0.14723249
0001c0 d1 12 04 be a3 03 d1 be 53 4f dc bd e3 f5 13 be
       -0.12897803 -0.40823087 -0.107573174 -0.14449267
0001d0 94 db 7f 3d 1a a0 b4 3e b1 70 45 3e 19 b6 fc be
       0.062465265 0.35278398 0.1928127 -0.4935768
0001e0 52 50 a0 3e 81 fa 35 be f4 20 03 bd 3d a5 35 bc
       0.3131128 -0.17771341 -0.03201385 -0.011086759
0001f0 e5 df b3 be 2d da 57 be fb f5 b5 3e 36 31 8b be
       -0.35131755 -0.21079321 0.3553923 -0.27185982
000200 85 62 d4 bd 9f 32 15 bf fe cc 9e 3e 61 1b 25 be
       -0.103703536 -0.58280367 0.31015772 -0.16123725
000210 9f 37 1f bc 75 db bc bc 5b 98 01 3d 94 67 49 bf
       -0.009717851 -0.023053864 0.031639438 -0.7867367
000220 ac 9c 12 3f 5d 75 84 be 16 5c 55 be 12 62 16 3f
       0.5727031 -0.2587079 -0.20835909 0.58743393
000230 10 e3 e7 3e 18 ec df bc 9b 39 b1 3e 7f e6 df be
       0.45290422 -0.027334258 0.34614262 -0.43730542

sun_influence_2.W_self.bias f4 [12]
000000 70 44 87 ba 22 70 70 bc 75 be ba 39 63 95 34 3c
       -0.0010320079 -0.014675172 0.00035618586 0.011021945
000010 9a 13 96 bc 82 78 0b bc 63 a4 85 ba 82 84 47 ba
       -0.018319894 -0.008512618 -0.0010196086 -0.0007610993
000020 3a 60 1e bd a6 63 29 bd 98 19 28 bc 7b ae 14 bd
       -0.038665988 -0.041354798 -0.010260008 -0.03629921

sun_influence_3.W.weight f4 [12, 12]
000000 27 ab 48 be ae a4 66 3d d2 ba b6 3d ae 90 5a be
       -0.1959654 0.056309395 0.08922352 -0.21344253
000010 31 37 d5 bd df 12 30 be 23 23 d6 3d aa 6a e2 be
       -0.104109176 -0.17194699 0.104559205 -0.44222003
000020 db 41 9b bc ba d8 c0 3a 8d 98 37 be 04 75 09 be
       -0.0189523 0.0014713027 -0.17929287 -0.13423544
000030 ad c5 40 3e 1d a5 a7 bd c9 77 01 bf 39 23 46 3e
       0.18825407 -0.0818579 -0.505734 0.19349374
000040 a4 d2 10 be 4f d7 b4 3e 42 f9 a4 3e 9f 38 da 3d
       -0.14142853 0.35320517 0.3222142 0.10655331
000050 b6 05 44 be c3 e6 8a be ec b4 0a bd db da 92 bc
       -0.19142804 -0.27129182 -0.033863947 -0.017926624
000060 44 47 b9 be 82 c4 bf 3c 8c 87 20 be 02 18 9d bb
       -0.36187184 0.023409132 -0.15676707 -0.0047941217
000070 5d 45 39 3e 48 ed 1a 3d 8d a0 f3 bd a9 dd 48 3e
       0.18092866 0.037823945 -0.11895857 0.19615807
000080 64 aa 9b 3d 4b 30 a4 be 35 61 68 bc 1e b6 3e be
       0.07600859 -0.32068095 -0.014183332 -0.1862416
000090 04 23 f9 3d 97 3e 71 3e e9 17 f4 bd e6 5a 1e be
       0.12164882 0.23559032 -0.11918623 -0.15464363
0000a0 e0 db 54 bd ba 76 70 bd e3 c9 a1 3e 3f 43 06 bf
       -0.0519675 -0.058706976 0.3159934 -0.5244636
0000b0 8d 2c 0a 3e 09 e6 cb 3d 3f 3a fe 3c 66 4a f2 be
       0.13493557 0.09955985 0.031033633 -0.47322387
0000c0 11 54 88 3e b2 df bd be ea 5d b1 3d 0f dc 98 bd
       0.26626638 -0.37084728 0.08660491 -0.07463848
0000d0 d5 2e c5 be bd 8f d6 3c 50 68 88 be b6 9d 05 3f
       -0.38512293 0.026191587 -0.26642084 0.5219377
0000e0 ad f6 8b bd a3 4b cc 3e 10 dd 89 3e ef c5 98 3e
       -0.06834159 0.39901456 0.2692647 0.2983851
0000f0 3d b7 6a 3e 17 64 83 be 73 ed ce 3e ce 20 b1 bc
       0.22921462 -0.256623 0.40415534 -0.021622088
000100 d0 a1 83 3d 4b c6 38 3e 35 ec 53 3e 52 f3 95 3e
       0.06427348 0.18044393 0.20695575 0.292872
000110 8f 29 9a be 07 e9 80 bc 0f 30 a2 bd e6 4c 32 be
       -0.30109832 -0.015736116 -0.07919323 -0.17412147
000120 c2 19 f3 bd 66 05 fa 3e d2 6c 21 3d cd 60 89 3e
       -0.11870147 0.48832244 0.03941042 0.26831666
000130 45 6e c0 3e f2 85 19 3f e2 2a 86 3e c4 2a 9c 3e
       0.3758413 0.5997001 0.26204592 0.30501378
000140 1a e0 bc bd 92 69 57 be da 57 bf bc 41 5e 9d be
       -0.092224315 -0.21036366 -0.02335732 -0.30735973
000150 1a 5c 80 3d 14 e6 32 be ab 6c cc be e6 a3 2b be
       0.06267567 -0.1747058 -0.39926657 -0.16761741
000160 ae b7 a1 bc a6 93 a6 be e5 75 71 3d e0 b1 3f be
       -0.019740906 -0.32534522 0.058950324 -0.18720198
000170 b7 ad 8f be bd 6f d5 3d 80 93 09 3e d9 a1 98 be
       -0.2806222 0.10421703 0.13435173 -0.2981098
000180 f0 99 b0 3d 8a 15 d9 be b9 2f db 3d 86 6f f7 be
       0.08623111 -0.42399246 0.10702462 -0.48327273
000190 5f 6e 2a be 23 da 92 3c 6a 3f 5f bd 54 a0 13 3f
       -0.16643666 0.017926281 -0.054503836 0.57666516
0001a0 51 aa ff 3c 53 37 18 be 02 00 89 3e fd 9d 41 bd
       0.031209143 -0.14864855 0.26757818 -0.04726981
0001b0 76 5b 05 be 3a 4b 90 be a2 3b 28 3d e5 61 43 be
       -0.13023171 -0.28182393 0.041072495 -0.19080313
0001c0 e4 f7 44 3d ed 17 0d bf 1a 28 b4 be 3f 60 48 3d
       0.04808797 -0.5511463 -0.35186845 0.048919912
0001d0 70 31 c4 3e 0b a9 a3 3e c6 59 0d be 0d 59 7f be
       0.38318968 0.31964907 -0.13803777 -0.24936314
0001e0 df bc d7 3e 63 04 9f bd 12 c3 90 bc d7 72 ce 3e
       0.42136285 -0.077645086 -0.017671142 0.4032199
0001f0 df 0d a3 bd cf 80 89 be 6e fd a8 be 44 d4 c4 3e
       -0.0796163 -0.26856086 -0.33005852 0.38443196
000200 52 e2 aa bd 20 5d 15 be 25 6b 60 3b 16 f6 ba 3e
       -0.083439484 -0.14586306 0.003424355 0.36515874
000210 da 83 8c bd 7f e5 82 3e 37 74 98 3e 1a 12 3f 3d
       -0.06861086 0.25565717 0.29776165 0.046648122
000220 a7 bc c1 bd e1 1a cf bd 92 5e a8 3e 89 c5 85 be
       -0.09459811 -0.101125486 0.3288465 -0.2612727
000230 bf a9 91 bd c3 7d 08 be 9c 2a 14 bf c8 51 a9 3e
       -0.071124546 -0.13329224 -0.57877517 0.33070207

sun_influence_3.W.bias f4 [12]
000000 00 45 6d b7 c0 68 2a bc e5 ec 4b bc e4 59 c0 bc
       -1.4142366e-05 -0.010400951 -0.012446617 -0.023480363
000010 d3 55 12 bc 7c f2 a1 bb fe 3a fd bb da c9 c4 bb
       -0.008931595 -0.0049422365 -0.0077279797 -0.006005508
000020 07 58 e3 bb 39 38 84 bc 3d 7f 2c bc 83 36 47 bc
       -0.006937984 -0.01614009 -0.010528383 -0.012158993
