src/Photosynthesis/RL/SavedModels/model_45.pth (torch, 30290 bytes, 34 tensors)

player_tree_1.W.weight f4 [12, 12]
-0.0731339 -0.4443354 0.3663862 -0.2098379 0.159303 0.3527361 0.12593421 0.106680654
0.052931316 0.35521036 0.17396861 -0.08296348 -0.1762413 0.32092047 -0.229192 -0.37034687
0.33080345 0.12340985 -0.01623176 0.20403278 -0.3069888 0.6574989 0.7737016 -0.017042577
0.015892738 -0.22382995 0.09312073 0.3051601 0.27976668 0.072731294 -0.05455137 0.4413828
0.5395881 0.39025223 0.059152354 -0.19139878 -0.12311633 -0.30830374 -0.105943576 -0.020266576
-0.21184795 0.16697864 0.09007869 -0.08071978 -0.17952386 -0.0032038903 -0.852718 0.14035852
0.0577521 -0.12550923 -0.034382023 -0.16907197 -0.06992598 0.6328223 0.20325395 -0.14319162
0.3866132 -0.08168864 0.079459324 0.003309876 0.11271594 0.14537147 -0.29124498 0.046467464
-0.4025379 -0.071605064 -0.12367327 -0.019919015 -0.2136802 -0.008154779 -0.19403258 0.33129036
-0.18071951 0.22843166 -0.19949053 0.15528372 0.72987723 -0.032567717 0.6797567 -0.2585602
-0.2612742 -0.27987343 -0.22862169 -0.014698993 0.4814112 0.27499434 0.026785247 -0.09872802
0.095766366 -0.26781237 -0.47329313 -0.07395133 -0.31902257 0.32603163 0.46957755 -0.04571572
0.052791703 -0.16396904 -0.39183155 0.26549774 -0.17358781 -0.22062959 0.12310261 0.046940308
-0.49011752 0.094245665 0.43064854 0.011320912 -0.2840181 -0.10231709 -0.41373456 0.05786847
-0.06841228 0.4383599 0.3156948 0.65954924 -0.2449568 0.43768612 -0.08438034 -0.005277683
-0.29923984 0.29513246 -0.009069187 -0.022649273 -0.4073617 -1.0903189 0.3245097 -0.05275741
0.024483709 0.003897612 -0.19701236 -0.13005264 0.17426099 0.2896302 -0.16895632 0.37332517
-0.12280816 -0.33907112 -0.059490282 0.04387452 0.29918304 -0.06491419 0.26183176 0.7360322
00000000: 3ac7 95bd ee7f e3be f996 bb3e bfdf 56be
00000010: 5320 233e d399 b43e e6f4 003e 637b da3d
00000020: 82ce 583d 22de b53e d424 323e c2e8 a9bd
00000030: 9978 34be b04f a43e 4fb1 6abe 1b9e bdbe
00000040: 125f a93e 4ebe fc3d 78f8 84bc f8ed 503e
00000050: a32d 9dbe d951 283f 4f11 463f e09c 8bbc
00000060: 7d31 823c ae33 65be 15b6 be3d f23d 9c3e
00000070: 943d 8f3e 25f4 943d 4271 5fbd edfc e13e
00000080: 7222 0a3f 24cf c73e bd49 723d 0bfe 43be
00000090: 6a24 fcbd fdd9 9dbe f2f8 d8bd 1706 a6bc
000000a0: abee 58be 73fc 2a3e 2d7b b83d 6950 a5bd
000000b0: 1ad5 37be 5cf8 51bb ba4b 5abf 25ba 0f3e
000000c0: 778d 6c3d 7e85 00be 2ad4 0cbd 3421 2dbe
000000d0: 5a35 8fbd a400 223f ce21 503e d3a0 12be
000000e0: 2af2 c53e 604c a7bd 92bb a23d 81ea 583b
000000f0: 9dd7 e63d 42dc 143e 101e 95be ab54 3e3d
00000100: 7319 cebe ada5 92bd 6948 fdbd 342d a3bc
00000110: fbce 5abe 9f9b 05bc 7ab0 46be e49e a93e
00000120: 890e 39be fde9 693e 3f47 4cbe b202 1f3e
00000130: 3cd9 3a3f ba65 05bd 8904 2e3f 0162 84be
00000140: bbc5 85be 924b 8fbe ce1b 6abe 0cd4 70bc
00000150: 877b f63e 0fcc 8c3e bc6c db3c eb31 cabd
00000160: 2821 c43d b41e 89be 7a53 f2be cb73 97bd
00000170: ed56 a3be 9eed a63e 786c f03e 6840 3bbd
00000180: 1d3c 583d 80e7 27be 259e c8be 52ef 873e
00000190: 01c1 31be b9ec 61be 391d fc3d 7b44 403d
000001a0: aff0 fabe df03 c13d f77d dc3e 597b 393c
000001b0: d26a 91be 9f8b d1bd 04d5 d3be 7d07 6d3d
000001c0: bd1b 8cbd b570 e03e c0a2 a13e 38d8 283f
000001d0: f5d5 7abe 6518 e03e 9acf acbd 6af0 acbb
000001e0: f735 99be 9a1b 973e ed96 14bc f88a b9bc
000001f0: b691 d0be 928f 8bbf 2326 a63e 2718 58bd
00000200: 0f92 c83c 146f 7f3b 9cbd 49be 852c 05be
00000210: 7971 323e 694a 943e e302 2dbe 7a24 bf3e
00000220: d882 fbbd bb9a adbe 15ac 73bd c5b5 333d
00000230: 852e 993e bbf1 84bd d00e 863e 9b6c 3c3f

player_tree_1.W.bias f4 [12]
-0.006112378 -0.016696448 -0.005088125 0.0015559639 -0.009172929 -0.014740631 -0.013273957 -0.009061539
-0.0066391877 -0.0005586953 -0.02626857 -0.01887762
00000000: 584a c8bb fdc6 88bc 49ba a6bb 7cf1 cb3a
00000010: 0e4a 16bc b082 71bc 037b 59bc d976 14bc
00000020: 8b8d d9bb 6875 12ba 2f31 d7bc 3da5 9abc

player_tree_1.W_self.weight f4 [12, 12]
-0.13538377 0.16177084 0.6269658 -0.22404191 0.7134995 -0.008066594 -0.19688542 -0.19606772
-0.01773959 0.4703707 0.18445326 0.009016187 0.39077112 -0.111974925 -0.07436717 -0.074719384
-0.17380305 -0.43470663 0.27059695 0.6005448 0.13673274 0.07177195 0.26795772 -0.03573692
0.17715114 0.27023286 0.09325926 -0.14673904 0.04543828 0.033527292 -0.4552848 1.0191044
0.3485136 0.28281847 -0.15247647 0.20127395 -0.22495903 -0.03428728 -0.38724118 0.07846912
0.46968082 0.13940847 -0.5680434 0.064689085 0.079100266 -0.25011632 0.08282112 -0.30302152
0.44702917 0.23284462 0.02374156 0.601229 0.22516344 -0.26859957 -0.16996962 0.32255998
-0.20300211 -0.08786264 -0.10552016 -0.045204688 -0.2771594 -0.46284774 -0.27887607 -0.3249575
0.0047052493 -0.3228694 -0.5954257 -0.08700111 -0.31566662 0.514117 -0.4532766 0.18031327
0.49916714 -0.09870376 -0.27745676 -0.1053425 0.2069027 0.038810007 0.35420087 0.030181047
0.22728685 0.72951066 -0.12022204 0.20751068 0.003534534 0.16722536 0.16728738 -0.26405224
0.37701017 0.36257178 0.116412565 -0.37260863 -0.06671505 -0.08474718 0.48063862 -0.60234576
0.2922373 0.13846311 -0.042693693 -0.25579694 -0.21004461 0.382527 0.44502652 0.12727237
0.29704642 -0.22720869 0.3032633 0.3303209 -0.01663455 0.23265903 -0.12936613 -0.40709153
-0.16207188 0.049912438 0.25783193 -0.15992343 -0.28028843 -0.1540421 -0.11651235 -0.12507002
0.001688695 0.20692167 -0.12507924 0.67942226 -0.041796196 -0.5595376 -0.5511391 -0.15253364
0.13665009 0.24335602 -0.2918354 -0.37005118 -0.43649283 -0.6260374 0.44892144 -0.15579127
-0.5513216 -0.17004439 0.034963027 -0.19703883 0.18927129 -0.18891455 -0.2742498 -0.7163898
00000000: 0ba2 0abe 41a7 253e d580 203f 3e6b 65be
00000010: e7a7 363f bf29 04bc 559c 49be fac5 48be
00000020: 9e52 91bc 6ed4 f03e 51e1 3c3e a1b8 133c
00000030: 2713 c83e 1c53 e5bd d14d 98bd 7a06 99bd
00000040: 6df9 31be de91 debe af8b 8a3e 4ebd 193f
00000050: ab03 0c3e 2cfd 923d c131 893e e060 12bd
00000060: 1c67 353e f65b 8a3e b6fe be3d c242 16be
00000070: 7d1d 3a3d ea53 093d 171b e9be 0372 823f
00000080: 6070 b23e 95cd 903e cb22 1cbe c21a 4e3e
00000090: a95b 66be d270 0cbd 7a44 c6be 6bb4 a03d
000000a0: 017a f03e 18c1 0e3e 4b6b 11bf b67b 843d
000000b0: 52ff a13d 3f0f 80be 1f9e a93d a325 9bbe
000000c0: 02e1 e43e d26e 6e3e a97d c23c 25ea 193f
000000d0: 3f91 663e e285 89be 840c 2ebe 9526 a53e
000000e0: c9df 4fbe 54f1 b3bd f41a d8bd 8d28 39bd
000000f0: d6e7 8dbe 61fa ecbe d8c8 8ebe d460 a6be
00000100: 7e2e 9a3b 234f a5be d26d 18bf a32d b2bd
00000110: 0e9f a1be 2c9d 033f df13 e8be 0ba4 383e
00000120: d692 ff3e 3225 cabd d00e 8ebe cfbd d7bd
00000130: 4dde 533e 3ef7 1e3d d159 b53e 3e3e f73c
00000140: e2bd 683e 36c1 3a3f f936 f6bd ae7d 543e
00000150: a4a3 673b 203d 2b3e 624d 2b3e db31 87be
00000160: 7a07 c13e 02a3 b93e b669 ee3d 8fc6 bebe
00000170: e6a1 88bd ee8f adbd 4416 f63e 5533 1abf
00000180: 21a0 953e 46c9 0d3e 95df 2ebd d1f7 82be
00000190: ef15 57be 94da c33e 84da e33e b053 023e
000001a0: 7816 983e 65a9 68be 5445 9b3e d21f a93e
000001b0: 2e45 88bc 2b3e 6e3e 8e78 04be 4d6e d0be
000001c0: 2cf6 25be fc70 4c3d 8c02 843e f8c2 23be
000001d0: f781 8fbe 36bd 1dbe 079e eebd 5b12 00be
000001e0: 3457 dd3a 46e3 533e c614 00be 9eee 2d3f
000001f0: 7d32 2bbd db3d 0fbf 7417 0dbf c731 1cbe
00000200: 00ee 0b3e 5232 793e 736b 95be 5977 bdbe
00000210: fd7b dfbe fd43 20bf 08d9 e53e bf87 1fbe
00000220: 6a23 0dbf 1e20 2ebe 6435 0f3d 8cc4 49be
00000230: 55d0 413e d172 41be 786a 8cbe 5265 37bf

player_tree_1.W_self.bias f4 [12]
-0.006112378 -0.016696448 -0.005088125 0.0015559639 -0.009172929 -0.014740631 -0.013273957 -0.009061539
-0.0066391877 -0.0005586953 -0.02626857 -0.01887762
00000000: 584a c8bb fdc6 88bc 49ba a6bb 7cf1 cb3a
00000010: 0e4a 16bc b082 71bc 037b 59bc d976 14bc
00000020: 8b8d d9bb 6875 12ba 2f31 d7bc 3da5 9abc

player_tree_2.W.weight f4 [12, 12]
0.43024802 0.3057009 -0.18347535 -0.39081696 -0.40684184 0.6918738 -0.21931225 -0.5651942
-0.31593442 0.02377046 -0.0025672668 0.35954434 0.2355041 0.1510368 0.38449433 -0.17553906
-0.31674087 -0.34984758 0.16225597 0.26939636 0.46867067 0.46893537 -0.22143075 -0.80638903
-0.13453203 0.31456122 -0.14695454 0.11572438 0.49026072 0.06133544 -0.09609036 -0.003773648
0.05360277 0.26396015 0.15382445 0.9404728 0.013179333 0.64224476 0.1452453 -0.14922132
-0.24064443 -0.13804148 -0.30605978 -0.0845605 0.09545474 -0.028051553 0.09645025 0.11730139
-0.034154303 -0.2718077 -0.06009071 -0.27895832 -0.14354588 0.6851759 -0.016430065 0.06522
0.3357333 0.6914098 0.10486848 0.2309803 0.30691516 -0.19214341 -0.17524548 -0.05235873
-0.3143335 0.47250894 0.28137103 0.29261476 -0.04636812 0.07794229 0.17366639 -0.3509405
0.23696995 -0.13139553 -0.3580841 -0.1320843 -0.20359555 0.71401626 0.26743358 -0.068715066
0.023721678 0.21275857 0.24526583 -0.2031155 0.16512872 0.08203783 0.5678557 -0.28498706
0.2603008 0.21960026 0.0015896726 0.279215 0.2785518 -0.05696445 0.08609672 -0.15540238
0.2491619 0.33711728 0.3478315 0.13062586 -0.33312017 0.23181075 0.15385309 0.12412135
0.4970339 0.4119958 -0.0879034 -0.11490179 0.24124712 0.31785423 0.33263123 -0.059301194
-0.2941608 -0.30439606 0.30300376 -0.01399627 -0.6132931 -0.5305282 -0.020936519 -0.1341964
-0.26421735 0.28044683 0.28808448 0.39603114 -0.19164617 0.5031974 -0.38912973 0.050915252
-0.35617667 -0.26262635 -0.09254874 -0.10798499 -0.36110833 0.17137127 0.08794181 0.15683253
0.021662746 -0.23303081 0.2857939 0.13703834 0.21422072 -0.3827905 -0.09995112 -0.22235365
00000000: 7849 dc3e d484 9c3e f6e0 3bbe 2919 c8be
00000010: 934d d0be a41e 313f 6493 60be 91b0 10bf
00000020: 28c2 a1be 45ba c23c 973f 28bb 3216 b83e
00000030: fd27 713e 64a9 1a3e 71dc c43e 83c0 33be
00000040: dc2b a2be 391f b3be 6e26 263e 52ee 893e
00000050: 9af5 ef3e 4c18 f03e bebe 62be 836f 4ebf
00000060: c4c2 09be 2b0e a13e 407b 16be e700 ed3d
00000070: 7403 fb3e df3a 7b3d 06cb c4bd 4f4f 77bb
00000080: 948e 5b3d c925 873e 2884 1d3e d3c2 703f
00000090: 21ee 573c 276a 243f 2fbb 143e 79cd 18be
000000a0: 7e6b 76be bf5a 0dbe deb3 9cbe 0e2e adbd
000000b0: c67d c33d 5fcc e5bc b587 c53d b63b f03d
000000c0: 62e5 0bbd 612a 8bbe ad21 76bd a0d3 8ebe
000000d0: b1fd 12be b067 2f3f 5898 86bc 1092 853d
000000e0: 3ce5 ab3e 3c00 313f 49c5 d63d 1a86 6c3e
000000f0: fc23 9d3e 3ec1 44be 8d73 33be 1c76 56bd
00000100: 52f0 a0be b1ec f13e dd0f 903e 9ad1 953e
00000110: 7fec 3dbd 35a0 9f3d 9ad5 313e 79ae b3be
00000120: 40a8 723e 8d8c 06be cd56 b7be 1b41 07be
00000130: 5a7b 50be c5c9 363f 0eed 883e 7cba 8cbd
00000140: f753 c23c 62dd 593e f726 7b3e 82fd 4fbe
00000150: 8117 293e 7303 a83d fe5e 113f d3e9 91be
00000160: 2546 853e e4de 603e 905c d03a 45f5 8e3e
00000170: 579e 8e3e 8e53 69bd 7a53 b03d cd21 1fbe
00000180: 4c24 7f3e a39a ac3e f816 b23e c9c2 053e
00000190: ba8e aabe cc5f 6d3e aa8b 1d3e 5633 fe3d
000001a0: 3a7b fe3e 1df1 d23e b306 b4bd a151 ebbd
000001b0: 7c09 773e cabd a23e a44e aa3e cfe5 72bd
000001c0: 3f9c 96be cdd9 9bbe 4f23 9b3e 9c50 65bc
000001d0: c700 1dbf b2d0 07bf 1083 abbc c86a 09be
000001e0: 7f47 87be ba96 8f3e cf7f 933e 98c4 ca3e
000001f0: e53e 44be 8bd1 003f 033c c7be 838c 503d
00000200: ca5c b6be f676 86be 328a bdbd 3c27 ddbd
00000210: 31e3 b8be f37b 2f3e d61a b43d b598 203e
00000220: 1276 b13c a19f 6ebe 9453 923e c753 0c3e
00000230: ad5c 5b3e 1efd c3be 2cb3 ccbd adb0 63be

player_tree_2.W.bias f4 [12]
-0.051787734 -0.005007329 -0.008618955 -0.005934646 -0.005389057 -0.00984027 -0.009139577 -0.004143871
-0.011334971 -0.004739869 -0.03159589 -0.020369861
00000000: 601f 54bd 8514 a4bb 8436 0dbc 6b77 c2bb
00000010: b096 b0bb 1539 21bc 2abe 15bc 4fc9 87bb
00000020: 50b6 39bc e750 9bbb b16a 01bd b2de a6bc

player_tree_2.W_self.weight f4 [12, 12]
-0.17378348 -0.0054074954 0.0802528 -0.21872048 0.23220606 -0.35652682 -0.21615434 -0.4497454
-0.36643934 0.27463967 0.07945348 -0.14824489 -0.4432393 -0.27568826 0.110124655 0.22339416
-0.44422677 -0.5005278 -0.2841133 0.7039396 -0.16805473 0.0047131767 0.107496865 0.013631568
-0.41563904 0.45671982 -0.42047855 0.023638252 0.080949225 0.4020015 0.18077698 -0.01163933
0.43025625 0.31977537 -0.23003796 -0.35304663 0.4814126 0.16211538 0.6204511 0.26229006
0.045904405 0.21798849 0.48905635 -0.20005567 0.683576 -0.09005128 -0.4127031 -0.15827203
0.5553181 0.13785104 -0.2927665 0.12979259 -0.089257054 0.52851665 0.10278773 -0.055868674
0.38814873 0.08297725 -0.1858312 0.06390108 0.043508124 0.27454647 0.110430695 0.075986095
0.36456504 0.4380157 -0.5697957 0.22964971 0.260217 0.08343599 0.42183557 0.54347146
-0.07395073 0.3409578 0.15202348 -0.6524102 0.58821374 0.066021204 0.3666124 0.00169179
0.18455315 -0.24397285 0.3248874 0.14595374 -0.022923062 -0.30601594 0.25002804 0.23161648
0.18329565 -0.00518168 0.21622731 0.6227306 -0.41959226 0.17043613 0.047487512 0.236932
0.05002265 0.27621385 -0.51079565 0.5784434 -0.18531466 -0.452442 -0.37730798 -0.10028625
0.47267783 0.41762486 -0.060857903 -0.36300293 -0.49386963 -0.0358986 -0.4165467 0.03878908
-0.048970465 -0.2737739 -0.47254857 0.15550414 -0.30184615 0.29263145 0.22110139 -0.05851504
-0.012289095 -0.16433655 -0.37230223 0.3987469 0.19983512 -0.09609996 -0.21223857 0.19195624
-0.5900247 -0.107187346 -0.19796765 -0.038262896 0.09646286 -0.06333214 -0.40718657 0.27827245
-0.69281226 0.08514543 0.08779371 -0.2817503 -0.41341045 -0.22032215 0.15470561 -0.020940725
00000000: 4cf4 31be 5c31 b1bb 945b a43d 43f8 5fbe
00000010: 6dc7 6d3e af8a b6be 9057 5dbe 0745 e6be
00000020: f09d bbbe 929d 8c3e 82b8 a23d 82cd 17be
00000030: 43f0 e2be 0327 8dbe 0989 e13d 70c1 643e
00000040: b171 e3be 9722 00bf 4c77 91be 6335 343f
00000050: 8a16 2cbe fe70 9a3b 5127 dc3d f156 5f3c
00000060: a4ce d4be 2ed7 e93e f748 d7be 02a5 c13c
00000070: b5c8 a53d 24d3 cd3e 9a1d 393e e3b2 3ebc
00000080: 8c4a dc3e 99b9 a33e 128f 6bbe 87c2 b4be
00000090: b67b f63e 9301 263e e2d5 1e3f e24a 863e
000000a0: 4206 3c3d 6038 5f3e 9865 fa3e 65db 4cbe
000000b0: d6fe 2e3f ce6c b8bd d24d d3be 1012 22be
000000c0: 5429 0e3f d328 0d3e 7ee5 95be 59e8 043e
000000d0: 67cc b6bd de4c 073f 6082 d23d 8dd6 64bd
000000e0: 6ebb c63e faef a93d 894a 3ebe 92de 823d
000000f0: 9335 323d 5b91 8c3e 7d29 e23d 999e 9b3d
00000100: 45a8 ba3e 9843 e03e 22de 11bf 4b29 6b3e
00000110: 2a3b 853e 7de0 aa3d d5fa d73e f220 0b3f
00000120: 7b73 97bd 0592 ae3e 0bac 1b3e 5b04 27bf
00000130: 2d95 163f 2036 873d 9fb4 bb3e 0dbf dd3a
00000140: 80fb 3c3e 05d4 79be a457 a63e e674 153e
00000150: 25c9 bbbc 1fae 9cbe ad03 803e df2c 6d3e
00000160: dbb1 3b3e 15cb a9bb b16a 5d3e 466b 1f3f
00000170: ccd4 d6be cf86 2e3e 4482 423d 4d9e 723e
00000180: 8de4 4c3d e76b 8d3e 81c3 02bf de14 143f
00000190: 20c3 3dbe 7aa6 e7be 832e c1be e162 cdbd
000001a0: d402 f23e edd2 d53e 2346 79bd 85db b9be
000001b0: 7bdc fcbe 690a 13bd 9c45 d5be 4ce1 1e3d
000001c0: 4195 48bd 182c 8cbe e3f1 f1be 7a3c 1f3e
000001d0: 948b 9abe cad3 953e 6768 623e 77ad 6fbd
000001e0: 3358 49bc d747 28be 669e bebe 8e28 cc3e
000001f0: 94a1 4c3e 0ed0 c4bd 1155 59be 2d90 443e
00000200: dc0b 17bf 0a85 dbbd 08b8 4abe 8eb9 1cbd
00000210: 528e c53d 48b4 81bd c27a d0be ba79 8e3e
00000220: 255c 31bf ba60 ae3d 30cd b33d 9341 90be
00000230: 89aa d3be 219c 61be 266b 1e3e e28b abbc

player_tree_2.W_self.bias f4 [12]
-0.051787734 -0.005007329 -0.008618955 -0.005934646 -0.005389057 -0.00984027 -0.009139577 -0.004143871
-0.011334971 -0.004739869 -0.03159589 -0.020369861
00000000: 601f 54bd 8514 a4bb 8436 0dbc 6b77 c2bb
00000010: b096 b0bb 1539 21bc 2abe 15bc 4fc9 87bb
00000020: 50b6 39bc e750 9bbb b16a 01bd b2de a6bc

player_tree_3.W.weight f4 [12, 12]
0.18991439 -0.7619915 -0.08700051 0.05764795 -0.10513671 -0.0683955 -0.04651252 -0.18232739
0.115949474 0.012140995 0.22472383 -0.044885673 0.08622292 0.29111612 0.4555354 -0.19596113
0.075431466 -0.0788475 0.013313648 -0.14597316 0.031012481 0.4611893 -0.044334013 0.41941425
0.07766818 0.36650687 0.08122398 0.18632165 0.28015155 0.28749034 -0.11499869 0.5474931
0.2026527 -0.49583903 -0.044785693 0.0421069 -0.26727894 -0.033111136 0.02013073 -0.13424675
-0.019259956 0.18299304 -0.00058914034 0.32038155 -0.026173191 -0.31205058 0.5970266 -0.21195705
-0.18141963 -0.037045807 0.24180804 -0.14302419 0.270137 -0.20410214 0.24226165 0.0018457815
0.36446774 0.023347955 -0.0275281 0.16706644 -0.14336936 0.47705668 -0.0879959 -0.24703607
0.32226473 -0.24508464 -0.32743776 -0.6249074 -0.43302113 0.115628384 -0.039310984 0.122491986
-0.214489 -0.078468196 -0.08262725 -0.0042684944 -0.28357378 0.109791666 0.56533605 0.05660331
0.4146868 -0.40588102 0.26227093 0.14056835 -0.20813772 0.011217348 0.0558121 -0.04459477
-0.07230002 0.01002559 0.30838707 -0.21732868 -0.33692747 0.054493926 -0.1655025 0.13053857
0.02538058 0.07605786 0.06847972 0.08478634 -0.17476214 0.19787286 0.73752373 0.08077286
0.08620143 -0.117651716 -0.0317509 -0.07651913 -0.009196263 0.43483123 0.48328695 0.2853409
0.9098474 0.28593543 0.10763582 0.15150107 -0.039350957 0.62524265 -0.15931417 0.14701913
0.22018547 0.024743497 -0.4892096 -0.28603175 0.052142024 -0.14272347 0.13834202 -0.33493778
0.10716027 -0.21962948 0.5354912 0.34836727 -0.45300058 0.1016193 0.3051023 0.007460956
0.35878652 0.21748422 -0.5672919 0.20784518 -0.013366653 0.2736054 -0.020293135 -0.6457601
00000000: eb78 423e e011 43bf 532d b2bd 4220 6c3d
00000010: ea51 d7bd f112 8cbd ea83 3ebd 08b4 3abe
00000020: eb76 ed3d 06eb 463c 011e 663e 0ada 37bd
00000030: a495 b03d 2c0d 953e f03b e93e 09aa 48be
00000040: d07b 9a3d cc7a a1bd 7d21 5a3c fd79 15be
00000050: e30d fe3c 0121 ec3e 9597 35bd 77bd d63e
00000060: 7f10 9f3d caa6 bb3e c258 a63d 1acb 3e3e
00000070: 0670 8f3e ef31 933e 6f84 ebbd 8228 0c3f
00000080: 3084 4f3e 9dde fdbe 3471 37bd 4978 2c3d
00000090: c9d8 88be 8b9f 07bd 33e9 a43c fb77 09be
000000a0: 0ec7 9dbc 8762 3b3e 8a70 1aba 0d09 a43e
000000b0: 2969 d6bc 18c5 9fbe bcd6 183f 450b 59be
000000c0: 11c6 39be 58bd 17bd 879c 773e ef74 12be
000000d0: 664f 8a3e 2700 51be 7013 783e 26ee f13a
000000e0: 849b ba3e 3644 bf3c 9c82 e1bc 7713 2b3e
000000f0: 6bcf 12be c640 f43e 3237 b4bd 06f7 7cbe
00000100: e2ff a43e 78f7 7abe eca5 a7be eef9 1fbf
00000110: f2b4 ddbe 93ce ec3d 8e04 21bd 14dd fa3d
00000120: 01a3 5bbe efb3 a0bd 7a38 a9bd bade 8bbb
00000130: 9530 91be 74da e03d ddb9 103f dfd8 673d
00000140: d451 d43e a3cf cfbe 6048 863e 26f1 0f3e
00000150: 0e22 55be f8c8 373c 3b9b 643d 01a9 36bd
00000160: 0812 94bd 5f42 243c e9e4 9d3e 698b 5ebe
00000170: c281 acbe 0635 5f3d 7d79 29be e7ab 053e
00000180: efea cf3c 39c4 9b3d 183f 8c3d 76a4 ad3d
00000190: d9f4 32be 2f9f 4a3e 5bce 3c3f 3e6c a53d
000001a0: 608a b03d 62f3 f0bd 3b0d 02bd 10b6 9cbd
000001b0: ecab 16bc 33a2 de3e 6371 f73e 3418 923e
000001c0: c2eb 683f 2166 923e 2b70 dc3d 1923 1b3e
000001d0: 782e 21bd e70f 203f 4123 23be 2f8c 163e
000001e0: 4d78 613e e0b2 ca3c ae79 fabe c172 92be
000001f0: e092 553d 1a26 12be 88a9 0d3e f77c abbe
00000200: d876 db3d 8de6 60be f415 093f 325d b23e
00000210: b1ef e7be c81d d03d 5e36 9c3e 097b f43b
00000220: deb2 b73e 2fb4 5e3e 0b3a 11bf 5ed5 543e
00000230: ceff 5abc 0216 8c3e ca3d a6bc 8950 25bf

player_tree_3.W.bias f4 [12]
-0.0032889917 -0.022002857 -0.0054085404 -0.01620683 -0.0065186587 -0.049828302 -0.05439476 -0.11116105
-0.0071502733 -0.01001482 -0.013707003 -0.0049260124
00000000: 208c 57bb 563f b4bc 203a b1bb 30c4 84bc
00000010: 799a d5bb c318 4cbd 0acd 5ebd 68a8 e3bd
00000020: d74c eabb 3315 24bc 5693 60bc 636a a1bb

player_tree_3.W_self.weight f4 [12, 12]
-0.2001154 -0.21252872 -0.063298814 -0.050982054 0.50223416 0.2979684 0.44943756 0.36758375
0.07838187 0.15032412 0.05312615 -0.35077432 -0.3532585 -0.030627605 -0.044399828 -0.061898857
-0.06343162 -0.13533029 -0.14467782 -0.07716986 -0.35550427 -0.0469567 0.17900847 -0.3803959
-0.2295196 0.39876866 0.31104887 0.32337475 0.40255 -0.032752212 -0.08823213 0.33347282
0.30588332 -0.13456373 0.4133199 -0.08200711 -0.76709425 0.0136744315 0.049476784 0.3665223
-0.15327162 -0.30189532 -0.3145749 0.60344166 -0.051089425 -0.4138565 0.16373196 -0.5640714
-0.20000978 -0.19011234 -0.19884396 0.4603906 0.72864556 0.42423365 0.0017331401 0.16665131
-0.14020139 -0.27917337 0.31115448 0.1607013 0.3044698 0.11449833 0.3612685 0.3466704
-0.011368712 -0.23681009 0.13343248 -0.14394051 -0.28192934 -0.1466558 -0.045730222 -0.49155346
0.20505843 -0.8054264 -0.16923207 -0.15037288 0.19311461 -0.14355145 0.13006885 0.14266089
0.062203962 -0.013252277 0.016000442 -0.036309198 0.11244231 -0.21796055 0.14255333 0.24731575
0.23989874 0.6321434 -0.00205355 -0.66718245 -0.07535468 -0.10306847 -0.08306831 -0.36679813
-0.8795569 0.20157138 -0.17099014 0.4011414 0.21598683 0.6175995 -0.460064 0.38866174
0.12185738 0.18200679 -0.6126039 0.0046777264 -0.00155275 0.29877526 0.4971387 -0.08322472
0.28005004 -0.0039986125 0.38347787 -0.34231642 0.3280845 -0.1059889 0.47705197 -0.5047309
-0.11704337 -0.08533667 -0.04409331 -0.0023814335 -0.09284436 -0.10527495 -0.4832211 0.3486339
0.011019811 0.49172378 0.07717103 -0.17788865 0.13416809 -0.35062242 0.28834322 0.44899857
0.06347039 0.46160796 0.19664378 -0.010456505 0.152467 0.64302397 0.015423753 -0.26851183
00000000: 0deb 4cbe 21a1 59be cfa2 81bd 8fd2 50bd
00000010: 6b92 003f 508f 983e ae1c e63e f033 bc3e
00000020: ad86 a03d 91ee 193e ce9a 593d b198 b3be
00000030: 4cde b4be bee6 fabc 98dc 35bd a889 7dbd
00000040: 70e8 81bd 0694 0abe 6c26 14be 3b0b 9ebd
00000050: a804 b6be ab55 40bd ff4d 373e 40c3 c2be
00000060: 3007 6bbe 682b cc3e cc41 9f3e 6091 a53e
00000070: 091b ce3e 2f27 06bd 0cb3 b4bd f3bc aa3e
00000080: bd9c 9c3e 13cb 09be aa9e d33e 58f3 a7bd
00000090: 4a60 44bf b90a 603c 2ba8 4a3d d0a8 bb3e
000000a0: 3cf3 1cbe 0692 9abe f60f a1be 277b 1a3f
000000b0: 2543 51bd 00e5 d3be 5aa9 273e fc66 10bf
000000c0: 5dcf 4cbe cfac 42be c09d 4bbe 51b8 eb3e
000000d0: 8488 3a3f 2735 d93e 882a e33a a4a6 2a3e
000000e0: f490 0fbe d0ef 8ebe a44f 9f3e e28e 243e
000000f0: 77e3 9b3e 1a7e ea3d 2ff8 b83e c87e b13e
00000100: d643 3abc 587e 72be 86a2 083e 2465 13be
00000110: 0b59 90be f02c 16be 9d4f 3bbd e5ac fbbe
00000120: d6fa 513e 6d30 4ebf 2c4b 2dbe 59fb 19be
00000130: d6bf 453e 27ff 12be c530 053e b215 123e
00000140: 95c9 7e3d 1420 59bc 5c13 833c f4b8 14bd
00000150: 2748 e63d 0d31 5fbe 80f9 113e 5740 7d3e
00000160: 04a8 753e 26d4 213f da94 06bb 78cc 2abf
00000170: 8e53 9abd 9015 d3bd b81f aabd f7cc bbbe
00000180: a42a 61bf ba68 4e3e 0a18 2fbe 6862 cd3e
00000190: a72b 5d3e 001b 1e3f 828d ebbe acfe c63e
000001a0: 5d90 f93d fd5f 3a3e 9cd3 1cbf 9d47 993b
000001b0: a585 cbba 12f9 983e f788 fe3e b971 aabd
000001c0: b862 8f3e cb06 83bb 3657 c43e 1944 afbe
000001d0: b1fa a73e b510 d9bd 2840 f43e 0b36 01bf
000001e0: 6fb4 efbd fec4 aebd 309b 34bd d311 1cbb
000001f0: 2f25 bebd 659a d7bd c268 f7be 2480 b23e
00000200: 708c 343c 38c3 fb3e d80b 9e3d 7128 36be
00000210: 5c63 093e c884 b3be b9a1 933e 24e3 e53e
00000220: c4fc 813d e157 ec3e fd5c 493e c351 2bbc
00000230: 4f20 1c3e 389d 243f e9b3 7c3c 627a 89be

player_tree_3.W_self.bias f4 [12]
-0.0032889917 -0.022002857 -0.0054085404 -0.01620683 -0.0065186587 -0.049828302 -0.05439476 -0.11116105
-0.0071502733 -0.01001482 -0.013707003 -0.0049260124
00000000: 208c 57bb 563f b4bc 203a b1bb 30c4 84bc
00000010: 799a d5bb c318 4cbd 0acd 5ebd 68a8 e3bd
00000020: d74c eabb 3315 24bc 5693 60bc 636a a1bb

player_tree_4.weight f4 [8, 12]
0.3082333 -0.17524625 0.096955866 0.17812222 0.00036473977 -0.2589524 -0.72887117 -0.27028516
0.38368982 0.1386833 -0.1138325 1.0167288 0.17780916 0.24120958 0.28712392 0.22571085
0.09989557 0.060058087 -0.7261165 -0.171123 0.15728131 -0.17667158 -0.043955408 0.5903076
-0.026946517 0.04991611 -0.6642746 0.4387231 -0.5341716 0.50255907 0.41779396 -0.39892772
0.5383269 -0.09218007 -0.13094732 -0.012806259 0.082208104 0.016024021 -0.19185977 -0.4074368
-0.13290268 -0.17004232 -0.23337017 0.28538734 -0.26740482 -0.3993157 0.025072196 0.18913281
0.0010874565 0.10954484 0.40145874 0.21945056 -0.36537668 -0.22664359 -0.22700013 0.3107383
0.036305375 -0.29445416 0.1033032 0.09558269 0.77914363 -0.36805898 0.47762915 -0.4801775
0.7187394 -0.12692814 -0.26750338 -0.3234161 0.45884386 0.6638258 0.18679756 -0.038767453
0.047041245 0.12547395 -0.111766495 0.24015498 0.42510927 0.21817583 0.22483404 0.1708179
-0.20553859 -0.00014911957 -0.35370654 0.13900445 -0.09480991 -0.117228374 0.25796857 -0.27056852
-0.43236357 0.007873997 0.19060646 0.43408972 -0.11803083 -0.30158174 -0.4535459 0.73840404
00000000: c1d0 9d3e c173 33be cc90 c63d ac65 363e
00000010: 8b3a bf39 6995 84be 4d97 3abf d162 8abe
00000020: fe72 c43e ff02 0e3e 0421 e9bd 2b24 823f
00000030: 9b13 363e a5ff 763e e801 933e bf20 673e
00000040: 0c96 cc3d 78ff 753d c5e2 39bf de3a 2fbe
00000050: 5a0e 213e 65e9 34be 960a 34bd 661e 173f
00000060: f1be dcbc d674 4c3d e60d 2abf 50a0 e03e
00000070: 78bf 08bf b6a7 003f 17e9 d53e 4140 ccbe
00000080: cbcf 093f e8c8 bcbd 0e17 06be 58d1 51bc
00000090: b95c a83d cf44 833c e376 44be 8e9b d0be
000000a0: a417 08be 931f 2ebe 97f8 6ebe 4a1e 923e
000000b0: 49e9 88be 1c73 ccbe 3564 cd3c 08ac 413e
000000c0: fc88 8e3a 0c59 e03d 008c cd3e a6b7 603e
000000d0: a712 bbbe 4215 68be b972 68be 1719 9f3e
000000e0: f2b4 143d b2c2 96be a190 d33d dbc0 c33d
000000f0: f575 473f 3a72 bcbe cf8b f43e d3d9 f5be
00000100: 4eff 373f 73f9 01be 34f6 88be cc96 a5be
00000110: 95ed ea3e 7df0 293f dc47 3f3e 9fca 1ebd
00000120: 52ae 403d 3e7c 003e d5e5 e4bd 30eb 753e
00000130: eca7 d93e 7c69 5f3e e53a 663e e3ea 2e3e
00000140: b578 52be fb5c 1cb9 0619 b5be 2f57 0e3e
00000150: b32b c2bd 6e15 f0bd 7514 843e f587 8abe
00000160: c25e ddbe f001 013c 572e 433e 0241 de3e
00000170: 26ba f1bd ec68 9abe 2b37 e8be 0c08 3d3f

player_tree_4.bias f4 [8]
0.0021042493 0.026863331 0.0017571449 0.0057841223 -0.015579461 -0.0037390722 -0.010316685 -0.009493167
00000000: 72e7 093b 7d10 dc3c 0050 e63a bc88 bd3b
00000010: ff40 7fbc 390b 75bb 5007 29bc 3a89 1bbc

sun_influence_1.W.weight f4 [12, 12]
-0.47252437 -0.1992137 -0.34052336 0.27520514 -0.17408057 0.34197462 -0.32449648 0.015906725
0.18210872 -0.13243498 0.13317318 0.41629198 0.41040933 0.074708536 -0.37845513 0.1763837
0.18615738 -0.013130985 0.010964059 0.21387993 0.4729943 -0.07910866 -0.37021047 0.11914472
-0.043224134 -0.5899641 0.3930036 -0.18013237 -0.28591198 -0.28438967 0.39570138 -0.1544017
-0.2183298 0.19377658 -0.8778696 -0.20884441 -0.18179035 0.37461644 -0.05228134 -0.010874116
0.22650123 0.082709365 -0.06953385 0.16670063 -0.13618036 -0.28485093 0.13979788 -0.13810372
-0.31910506 -0.16353112 0.20411976 -0.25158313 0.23738238 0.3653172 -0.11222152 0.3929647
-0.2695734 0.18313196 0.060233284 -0.3442874 -0.075363636 0.32226926 -0.18918341 0.17197224
0.02434773 -0.58875203 -0.2913512 -0.09747583 -0.22262406 0.28230956 0.2676285 -0.35035032
-0.37776035 0.042743012 0.10891752 -0.2483742 -0.11841961 0.1341949 0.099155836 0.0032449528
0.37884286 0.12445514 -0.018118938 0.3900478 0.07504011 -0.67439955 0.118712425 0.26559597
0.7391114 -0.024207648 -0.45106238 -0.19118665 0.017342284 -0.26614356 0.2747198 -0.50470215
-0.08084585 -0.2681951 0.35556436 -0.109832056 -0.2560314 -0.28261778 0.6882151 -0.49438813
0.022379912 0.1725503 0.008670587 -0.02492895 0.114747375 0.087173894 0.17601992 0.1631563
-0.11992427 0.25727054 -0.2273566 0.34867534 -0.33837622 0.47063926 0.53640646 -0.3396303
0.40086985 -0.17631505 0.026184926 -0.07331717 0.1898877 0.33852476 -0.07510619 0.5151889
0.30309018 -0.020087486 0.07493611 -0.010796856 -0.06768787 0.19368674 0.16395526 0.021976901
0.44989106 0.053068697 -0.4229703 0.12853359 -0.010934388 0.2642478 -0.3463198 -0.25643122
00000000: b7ee f1be adfe 4bbe 1459 aebe b0e7 8c3e
00000010: 2d42 32be 4c17 af3e 6724 a6be d24e 823c
00000020: b57a 3a3e 099d 07be 8d5e 083e 3924 d53e
00000030: 2c21 d23e ca00 993d dfc4 c1be ee9d 343e
00000040: 0aa0 3e3e 5823 57bc 99a2 333c 5703 5b3e
00000050: 4f2c f23e b903 a2bd 3a8c bdbe 2602 f43d
00000060: ca0b 31bd e307 17bf c537 c93e 9f74 38be
00000070: 0e63 92be 869b 91be 5f99 ca3e 7b1b 1ebe
00000080: d991 5fbe 5e6d 463e 10bc 60bf 4fdb 55be
00000090: 4027 3abe bacd bf3e f524 56bd 5929 32bc
000000a0: f0ef 673e 8763 a93d c367 8ebd 92b3 2a3e
000000b0: dd72 0bbe fbd7 91be 2d27 0f3e 106b 0dbe
000000c0: bd61 a3be b474 27be c504 513e 81cf 80be
000000d0: 5e14 733e db0a bb3e 65d4 e5bd ab32 c93e
000000e0: 8605 8abe f286 3b3e 2db7 763d 7046 b0be
000000f0: 4058 9abd 7a00 a53e 4cb9 41be 7e19 303e
00000100: e474 c73c 74b8 16bf fc2b 95be 68a1 c7bd
00000110: 90f7 63be e18a 903e 9a06 893e 1e61 b3be
00000120: ce69 c1be 4c13 2f3d 2610 df3d ce55 7ebe
00000130: fb85 f2bd 636a 093e 3712 cb3d 46a9 543b
00000140: b1f7 c13e 56e2 fe3d 2b6e 94bc 58b4 c73e
00000150: a1ae 993d 73a5 2cbf 801f f33d 32fc 873e
00000160: 6836 3d3f 1e4f c6bc a6f1 e6be 6fc6 43be
00000170: 6811 8e3c f843 88be 13a8 8c3e 2934 01bf
00000180: 8292 a5bd de50 89be 880c b63e a1ef e0bd
00000190: 8c16 83be 47b3 90be dd2e 303f 7120 fdbe
000001a0: 1456 b73c 07b1 303e 140f 0e3c cc37 ccbc
000001b0: ac00 eb3d 3a88 b23d 913e 343e 7212 273e
000001c0: db9a f5bd f7b8 833e 2bd0 68be 9385 b23e
000001d0: a63f adbe a1f7 f03e ef51 093f 06e4 adbe
000001e0: d03e cd3e ef8b 34be c581 d63c 5027 96bd
000001f0: ec71 423e 1e53 ad3e 46d1 99bd 6be3 033f
00000200: a32e 9b3e 838e a4bc 1a78 993d 4ce5 30bc
00000210: f09f 8abd d155 463e e3e3 273e e708 b43c
00000220: 1f58 e63e 905e 593d 908f d8be 4f9e 033e
00000230: 2626 33bc 7d4b 873e d450 b1be f44a 83be

sun_influence_1.W.bias f4 [12]
0.008402871 -0.010562184 -0.0033622696 -0.0006075026 0.001847753 -0.05196221 -0.08106074 -0.0022749393
-0.009620244 -0.011220432 0.0019099932 -0.007863319
00000000: 32ac 093c 030d 2dbc 8659 5cbb cf40 1fba
00000010: 4d30 f23a 54d6 54bd 2c03 a6bd 2617 15bb
00000020: 3a9e 1dbc e7d5 37bc bd58 fa3a 26d5 00bc

sun_influence_1.W_self.weight f4 [12, 12]
-0.22599994 -0.29518571 -0.2511632 -0.14861153 -0.2588711 0.061786164 0.08276666 -0.07496431
0.267753 0.23261833 -0.0113838455 -0.09142312 -0.4146685 -0.20292471 -0.48607582 0.851161
0.23650299 0.17061846 0.48602557 -0.115141645 -0.21811356 -0.28040078 0.04111273 -0.44667596
0.2662399 0.57878864 0.29286718 0.02780186 0.34534734 -0.15530455 -0.5471811 -0.4940296
0.2819345 -0.05772263 0.22862121 0.110339746 -0.3316153 0.22209883 -0.0021296588 0.3336314
-0.27367932 0.0080686165 -0.052340277 0.29349142 0.42714697 -0.08391458 -0.14876406 0.64849466
-0.2190417 0.28749248 0.24271958 0.20391925 0.08619291 0.5346777 0.002958596 0.22521444
0.55597633 0.27487284 -0.4638102 0.03984482 0.3567914 -0.10650571 0.026179291 -0.39965364
-0.20781076 0.20516853 0.1662974 0.3118466 -0.46715602 -0.06173394 0.20795098 -0.26474112
-0.21324652 0.384195 -0.5099501 0.16355716 -0.30845997 0.09458201 0.20005006 -0.06817824
0.31211844 0.36158642 0.23547441 -0.1050123 -0.27524105 0.23388098 -0.24767973 0.05033614
-0.22857815 0.21011136 0.40662602 0.08167866 0.3106407 0.005340109 -0.16560179 0.24332617
-0.04230394 -0.18606666 0.63416225 0.18050107 0.026486814 0.06479967 -0.091457345 -0.2002691
-0.43766412 0.0035425117 0.37717903 0.4306121 0.045175534 0.79039335 0.24775954 0.21265969
-0.43169388 -0.34017062 -0.036979925 0.28945795 -0.625476 -0.40832943 0.028206678 -0.386199
-0.098108925 -0.13010706 0.1386618 0.1537545 0.3891368 0.18533391 -0.34440336 0.4597016
-0.25680956 0.20180805 0.263265 0.253145 0.09398995 -0.26980618 -0.34113693 0.36639604
-0.2787622 -0.096633136 -0.39064667 -0.5124977 0.25964352 0.3383624 0.11266314 -0.032106698
00000000: 876c 67be 9522 97be 7798 80be 9f2d 18be
00000010: c18a 84be 7d13 7d3d 9181 a93d e386 99bd
00000020: ec16 893e 8033 6e3e 4f83 3abc 0b3c bbbd
00000030: 6e4f d4be 7fcb 4fbe eede f8be b0e5 593f
00000040: d72d 723e 9bb6 2e3e 58d8 f83e 62cf ebbd
00000050: 2959 5fbe b190 8fbe d265 283d b6b2 e4be
00000060: 9950 883e 7e2b 143f b0f2 953e bac0 e33c
00000070: 5ed1 b03e 2808 1fbe 1014 0cbf 73f1 fcbe
00000080: b859 903e 916e 6cbd ae1b 6a3e cef9 e13d
00000090: 7bc9 a9be e06d 633e bf91 0bbb bcd1 aa3e
000000a0: b21f 8cbe 3b32 043c c262 56bd 8244 963e
000000b0: 02b3 da3e 68db abbd 9b55 18be bf03 263f
000000c0: 784c 60be 3732 933e 7b8b 783e 35d0 503e
000000d0: e985 b03d a3e0 083f 01e5 413b 9d9e 663e
000000e0: 7754 0e3f 22bc 8c3e 8878 edbe 5234 233d
000000f0: 5dad b63e aa1f dabd f475 d63c 679f ccbe
00000100: 58cc 54be b317 523e de49 2a3e 5caa 9f3e
00000110: 132f efbe badc 7cbd 1af1 543e 268c 87be
00000120: 4c5d 5abe 35b5 c43e 178c 02bf 877b 273e
00000130: 77ee 9dbe 36b4 c13d ecd9 4c3e 08a1 8bbd
00000140: fdcd 9f3e db21 b93e 3420 713e b010 d7bd
00000150: 65ec 8cbe 7f7e 6f3e c19f 7dbe 452d 4e3d
00000160: 6410 6abe 6f27 573e 4931 d03e 2447 a73d
00000170: 4c0c 9f3e 15fc ae3b 8493 29be 7f2a 793e
00000180: e546 2dbd 4288 3ebe 7558 223f 46d5 383e
00000190: e0fa d83c b0b5 843d fd4d bbbd 5813 4dbe
000001a0: 8315 e0be 7c29 683b 9c1d c13e 3079 dc3e
000001b0: fb09 393d 3857 4a3f adb4 7d3e 76c3 593e
000001c0: fb06 ddbe d82a aebe 4378 17bd d533 943e
000001d0: 321f 20bf 8e10 d1be b111 e73c e0bb c5be
000001e0: 55ed c8bd c93a 05be 5cfd 0d3e d271 1d3e
000001f0: f03c c73e 2cc8 3d3e a355 b0be 025e eb3e
00000200: 8b7c 83be c5a6 4e3e acca 863e 399c 813e
00000210: ce7d c03d 0924 8abe 80a9 aebe 4398 bb3e
00000220: ebb9 8ebe 98e7 c5bd d702 c8be 0d33 03bf
00000230: ffef 843e d63d ad3e efbb e63d 5082 03bd

sun_influence_1.W_self.bias f4 [12]
0.008402871 -0.010562184 -0.0033622696 -0.0006075026 0.001847753 -0.05196221 -0.08106074 -0.0022749393
-0.009620244 -0.011220432 0.0019099932 -0.007863319
00000000: 32ac 093c 030d 2dbc 8659 5cbb cf40 1fba
00000010: 4d30 f23a 54d6 54bd 2c03 a6bd 2617 15bb
00000020: 3a9e 1dbc e7d5 37bc bd58 fa3a 26d5 00bc

sun_influence_2.W.weight f4 [12, 12]
-0.115914136 0.28293347 0.042822756 -0.0076873214 0.20182851 -0.07748167 -0.31583023 0.26416788
-0.10107685 0.2874816 -0.1350885 0.11455922 -0.13074869 0.74405706 0.3974396 0.22919853
-0.13997209 0.5176165 0.3765544 -0.17874102 0.0075047696 -0.3022528 0.3887312 0.028460013
-0.24966653 0.2781765 -0.1802084 0.2747078 -0.2295292 -0.20431153 -0.15536283 0.11178596
0.72244495 -0.0028855857 0.11704985 -0.03176062 -0.32171485 -0.28303623 0.31044152 0.17549354
0.029893361 -0.35510343 0.30120128 -0.17531267 0.06673116 -0.039197154 0.06510144 -0.28800935
0.0067915954 0.55071825 -0.350273 -0.27341413 -0.29465342 -0.41428936 -0.26590645 -0.3864818
0.112026915 0.31584927 -0.23829806 -0.43140143 -0.16194513 -0.27968392 0.020022552 0.029959371
0.1013847 -0.6342479 -0.14906077 0.20509134 0.15703782 -0.23702578 0.019094976 0.08902193
-0.16175628 0.55912566 -0.32043415 -0.2191411 0.16095042 -0.015450524 0.16894753 0.10495929
0.045753516 -0.3405874 -0.29399267 0.0011123125 -0.22887158 -0.028166099 0.34176505 0.057668857
0.09141343 0.21708676 0.033716947 0.18395767 -0.53461605 -0.19725972 -0.04263485 0.08491075
-0.42748663 -0.40016508 -0.031481028 0.22857739 0.14096735 -0.6041058 0.33771217 -0.41790098
0.26419616 0.1780014 -0.5146049 -0.013340457 -0.6308331 0.11685821 -0.18772458 -0.5103958
-0.2111008 -0.621635 -0.24829802 -0.30937377 -0.020283084 -0.009278731 -0.0153283095 -0.36905807
0.3830268 0.5541507 -0.31611192 -0.09589887 0.31363946 -0.058832604 0.07116372 -0.649662
-0.30864206 -0.10980747 -0.31415072 0.027152665 -0.2243456 -0.051573727 -0.035927936 -0.25653312
-0.22754665 0.434488 0.09297868 -0.37726244 0.21273273 0.11582454 0.3500211 0.4063252
00000000: 6464 edbd a8dc 903e ea66 2f3d ede5 fbbb
00000010: 22ac 4e3e b6ae 9ebd 80b4 a1be 0341 873e
00000020: 6101 cfbd ca30 933e a454 0abe 069e ea3d
00000030: fce2 05be 867a 3e3f 347d cb3e 05b3 6a3e
00000040: d854 0fbe 8482 043f bdcb c03e e307 37be
00000050: 92ea f53b e1c0 9abe c707 c73e f924 e93c
00000060: 95a8 7fbe 266d 8e3e 8d88 38be 80a6 8c3e
00000070: b409 6bbe 0b37 51be 6f17 1fbe 0af0 e43d
00000080: 27f2 383f 181c 3dbb d5b7 ef3d 6d17 02bd
00000090: cfb7 a4be 20ea 90be 31f2 9e3e 94b4 333e
000000a0: ece2 f43c 1ed0 b5be 0e37 9a3e 2a85 33be
000000b0: 59aa 883d 328d 20bd e753 853d f675 93be
000000c0: 088c de3b dffb 0c3f fc56 b3be f0fc 8bbe
000000d0: d0dc 96be bc1d d4be e424 88be f1e0 c5be
000000e0: 5e6e e53d ffb6 a13e 6804 74be a6e0 dcbe
000000f0: f2d4 25be bb32 8fbe 5606 a43c 5b6d f53c
00000100: c8a2 cf3d 125e 22bf 63a3 18be 7703 523e
00000110: 86ce 203e e3b6 72be 116d 9c3c 2151 b63d
00000120: 70a3 25be dc22 0f3f f20f a4be 8666 60be
00000130: 30d0 243e 3224 7dbc 9500 2d3e e5f4 d63d
00000140: 0a68 3b3d 7961 aebe 3586 96be 04cb 913a
00000150: 505d 6abe 97bc e6bc d4fb ae3e 2e36 6c3d
00000160: f736 bb3d fe4b 5e3e c81a 0a3d 665f 3c3e
00000170: 99dc 08bf 74fe 49be e1a1 2ebd b0e5 ad3d
00000180: 87df dabe 70e2 ccbe 40f2 00bd 3110 6a3e
00000190: bf59 103e ada6 1abf 9ce8 ac3e 1ef7 d5be
000001a0: b844 873e 0046 363e 26bd 03bf ef91 5abc
000001b0: 477e 21bf 5b53 ef3d df3a 40be 4da9 02bf
000001c0: cf2a 58be 7923 1fbf d641 7ebe 3d66 9ebe
000001d0: b628 a6bc d205 18bc 9723 7bbc 2ef5 bcbe
000001e0: 171c c43e d2dc 0d3f 6cd9 a1be a066 c4bd
000001f0: 5a95 a03e 75fa 70bd 49be 913d 4050 26bf
00000200: 5506 9ebe bde2 e0bd 5dd8 a0be 446f de3c
00000210: daba 65be f93e 53bd 2c29 13bd 4f58 83be
00000220: fd01 69be 3675 de3e 9b6b be3d 8b28 c1be
00000230: 9cd6 593e 6b35 ed3d f735 b33e db09 d03e

sun_influence_2.W.bias f4 [12]
-0.006060927 -0.013003342 -0.006575644 0.01016073 -0.020275736 -0.010148027 -0.0029306945 0.002510219
-0.026006347 -0.036018047 -0.0027506093 -0.040366683
00000000: be9a c6bb f80b 55bc 8078 d7bb 3179 263c
00000010: 4d19 a6bc e943 26bc e510 40bb 7d82 243b
00000020: 430b d5bc a987 13bd 9143 34bb 8957 25bd

sun_influence_2.W_self.weight f4 [12, 12]
-0.11746743 0.1007952 -0.24692756 0.6536271 -0.43918344 -0.35100123 -0.017282952 0.12489244
-0.06469873 0.5281529 0.23253982 0.046659634 0.05345673 0.23874074 0.39822027 0.37503672
0.39540565 0.19625908 -0.028571108 0.16131346 -0.2482405 0.18961105 0.31098074 0.22990674
-0.17291345 0.031349186 0.047970112 -0.47466257 0.20061268 0.03422764 0.24010694 0.43414456
-0.22073989 -0.19981247 -0.020142242 0.08308617 -0.8091513 -0.14277814 0.19998468 0.4280708
0.5198418 -0.103848316 -0.67444456 -0.37352458 0.44186562 0.30174595 0.5356465 -0.0048969304
0.09937061 0.5022616 -0.13709508 0.08895115 0.31106168 -0.118324004 -0.07905692 -0.27217078
-0.16520174 -0.13920517 -0.24383758 -0.38279736 0.5814519 0.5016425 0.063832045 0.40610886
0.40813226 0.2212217 0.19982424 -0.28020865 0.24716762 -0.06459164 1.0443659 -0.2931989
0.2863667 -0.054154575 -0.010299558 0.30498153 0.02144317 -0.21007587 -0.2093806 -0.0124981
-0.29952604 0.22261523 -0.34073403 0.58176214 -0.13718207 0.031102125 -0.30211782 -0.19104117
0.16084169 0.29289582 -0.53083605 0.26614285 -0.44881344 -0.19362974 0.5407429 -0.5143204
-0.83027023 0.06397731 -0.033208713 -0.0024293563 0.09521015 -0.0748786 0.26528257 0.020243082
0.24963844 0.17150979 0.14157058 0.020154713 -0.32908255 -0.23132597 -0.27994257 0.15359274
-0.11706176 -0.40849796 -0.10745407 -0.14529131 0.062406816 0.3558574 0.20572197 -0.4935768
0.31472847 -0.16771485 -0.027308581 -0.013884278 -0.34227064 -0.17652401 0.35646263 -0.27148914
-0.092764765 -0.58136344 0.31911907 -0.15584143 -0.015318004 -0.036408637 0.036779255 -0.8006105
0.5635235 -0.26524946 -0.2019668 0.5719704 0.4529386 -0.02698405 0.3310709 -0.42688075
00000000: c492 f0bd b76d ce3d 94da 7cbe 1b54 273f
00000010: a7dc e0be 6fb6 b3be fa94 8dbc 9cc7 ff3d
00000020: c580 84bd 0735 073f eb1e 6e3e 2c1e 3f3d
00000030: 72f5 5a3d 7478 743e 87e3 cb3e d004 c03e
00000040: 9c72 ca3e 24f8 483e f50d eabc 5b2f 253e
00000050: c232 7ebe 6629 423e de38 9f3e ac6c 6b3e
00000060: 3910 31be 0168 003d 4f7c 443d f906 f3be
00000070: 696d 4d3e 4832 0c3d 98de 753e 3248 de3e
00000080: a309 62be a49b 4cbe 5801 a5bc 1529 aa3d
00000090: 8a24 4fbf 6f34 12be c9c8 4c3e 192c db3e
000000a0: 5a14 053f 6dae d4bd 66a8 2cbf 9d3e bfbe
000000b0: 363c e23e 727e 9a3e 2120 093f 6e76 a0bb
000000c0: d282 cb3d 3794 003f a762 0cbe 052c b63d
000000d0: 7a43 9f3e db53 f2bd 98e8 a1bd f859 8bbe
000000e0: a52a 29be cd8b 0ebe 8fb0 79be 04fe c3be
000000f0: 08da 143f a56b 003f 60ba 823d 80ed cf3e
00000100: b6f6 d03e f187 623e ba9e 4c3e 8277 8fbe
00000110: 8219 7d3e 9f48 84bd c8ad 853f 2b1e 96be
00000120: a89e 923e 30d1 5dbd 7abf 28bc 8a26 9c3e
00000130: 96a9 af3c 211e 57be de67 56be d5c4 4cbc
00000140: 7a5b 99be 3ff5 633e b174 aebe 5dee 143f
00000150: 7579 0cbe e2c9 fe3c 30af 9abe 4ca0 43be
00000160: afb3 243e 71f6 953e dfe4 07bf e043 883e
00000170: e0ca e5be e046 46be 206e 0a3f 80aa 03bf
00000180: 978c 54bf 8906 833d dc05 08bd d635 1fbb
00000190: 8afd c23d f459 99bd 1ed3 873e d2d4 a53c
000001a0: 38a1 7f3e 43a0 2f3e e1f7 103e 7f1b a53c
000001b0: 827d a8be b7e0 6cbe a254 8fbe 6a47 1d3e
000001c0: 13be efbd a526 d1be e110 dcbd 3fc7 14be
000001d0: 4a9e 7f3d f132 b63e c8a8 523e 19b6 fcbe
000001e0: 1724 a13e 71bd 2bbe 3fb6 dfbc e27a 63bc
000001f0: 193e afbe b6c2 34be 4582 b63e a000 8bbe
00000200: 74fb bdbd 3cd4 14bf 9363 a33e e594 1fbe
00000210: 5ef8 7abc 3921 15bd d8a5 163d cff4 4cbf
00000220: 1343 103f c7ce 87be 63d0 4ebe a76c 123f
00000230: 91e7 e73e a80d ddbc 2082 a93e 1d90 dabe

sun_influence_2.W_self.bias f4 [12]
-0.006060927 -0.013003342 -0.006575644 0.01016073 -0.020275736 -0.010148027 -0.0029306945 0.002510219
-0.026006347 -0.036018047 -0.0027506093 -0.040366683
00000000: be9a c6bb f80b 55bc 8078 d7bb 3179 263c
00000010: 4d19 a6bc e943 26bc e510 40bb 7d82 243b
00000020: 430b d5bc a987 13bd 9143 34bb 8957 25bd

sun_influence_3.W.weight f4 [12, 12]
-0.20332368 0.04269919 0.07361652 -0.22181442 -0.11982831 -0.18946658 0.09974406 -0.45797274
-0.011438406 -0.014441318 -0.17498225 -0.15883854 0.17825218 -0.09354224 -0.51411384 0.18874054
-0.15919238 0.34140438 0.31224743 0.09347321 -0.18939583 -0.29095775 -0.03317328 -0.028515818
-0.36697015 0.0129883075 -0.1718243 -0.022196895 0.17469284 0.028861867 -0.12750527 0.18205202
0.073460065 -0.33685002 -0.013152121 -0.19739483 0.11592172 0.23322624 -0.12367513 -0.16076751
-0.055661745 -0.059523765 0.31564122 -0.52713054 0.13065791 0.099491425 0.035651267 -0.4783474
0.26226094 -0.3807743 0.082895316 -0.075967744 -0.3990731 0.015963828 -0.26702845 0.5067492
-0.060683988 0.38006544 0.26858577 0.2924787 0.21872456 -0.26606423 0.3967576 -0.027487537
0.05174313 0.17000018 0.2017396 0.28078216 -0.30020526 -0.032592308 -0.07677025 -0.18461429
-0.12533963 0.48194748 0.032767333 0.26446727 0.3664341 0.59103245 0.25762582 0.29392487
-0.09068933 -0.21513042 -0.019243507 -0.31535766 0.06267567 -0.1747058 -0.39926657 -0.16761741
-0.019740906 -0.32534522 0.058950324 -0.18720198 -0.2806222 0.10421703 0.13435173 -0.2981098
0.10410102 -0.42831764 0.10090678 -0.49542087 -0.14131363 0.0122879855 -0.039681643 0.5713458
0.021768078 -0.14880969 0.2704557 -0.060530588 -0.13023171 -0.28182393 0.041072495 -0.19080313
0.04808797 -0.5511463 -0.35186845 0.048919912 0.38318968 0.31964907 -0.13803777 -0.24936314
0.41516253 -0.087145574 -0.021576418 0.4000065 -0.08558937 -0.28114173 -0.3379558 0.3721235
-0.08091547 -0.15709127 0.0027205087 0.3565977 -0.07010472 0.25362614 0.29236272 0.045067817
-0.09530214 -0.1049895 0.32612047 -0.2716839 -0.071338795 -0.13329224 -0.57853603 0.32817712
00000000: 1534 50be 59e5 2e3d 42c4 963d 5223 63be
00000010: 8c68 f5bd 8703 42be 9d46 cc3d 677b eabe
00000020: 2768 3bbc 479b 6cbc 8c2e 33be 92a6 22be
00000030: bd87 363e 1393 bfbd f79c 03bf 3345 413e
00000040: 5403 23be 8ecc ae3e e5de 9f3e e26e bf3d
00000050: fbf0 41be 6af8 94be b5e0 07bd 019a e9bc
00000060: 83e3 bbbe e9cc 543c b6f2 2fbe 43d6 b5bc
00000070: aee2 323e b96f ec3c be90 02be d86b 3a3e
00000080: 3b72 963d 9b77 acbe fe7b 57bc df21 4abe
00000090: 5e68 ed3d dcd2 6e3e 6349 fdbd 3da0 24be
000000a0: 92fd 63bd 31cf 73bd ba9b a13e 07f2 06bf
000000b0: 30cb 053e 29c2 cb3d 1007 123d f3e9 f4be
000000c0: 1147 863e d9f4 c2be 05c5 a93d fa94 9bbd
000000d0: 4f53 ccbe 93c6 823c f4b7 88be 51ba 013f
000000e0: c68f 78bd f097 c23e 1384 893e c5bf 953e
000000f0: 55f9 5f3e 9239 88be d023 cb3e 8b2d e1bc
00000100: 9bf0 533d 8714 2e3e d394 4e3e aec2 8f3e
00000110: 81b4 99be 837f 05bd b939 9dbd 870b 3dbe
00000120: 0859 00be d2c1 f63e 0a37 063d 4168 873e
00000130: 409d bb3e e74d 173f 88e7 833e 527d 963e
00000140: 54bb b9bd 264b 5cbe 8fa4 9dbc 8f76 a1be
00000150: 1a5c 803d 14e6 32be ab6c ccbe e6a3 2bbe
00000160: aeb7 a1bc a693 a6be e575 713d e0b1 3fbe
00000170: b7ad 8fbe bd6f d53d 8093 093e d9a1 98be
00000180: ea32 d53d 734c dbbe 37a8 ce3d cea7 fdbe
00000190: 85b4 10be 8c53 493c 3889 22bd b843 123f
000001a0: f852 b23c 9161 18be 2b79 8a3e ecee 77bd
000001b0: 765b 05be 3a4b 90be a23b 283d e561 43be
000001c0: e4f7 443d ed17 0dbf 1a28 b4be 3f60 483d
000001d0: 7031 c43e 0ba9 a33e c659 0dbe 0d59 7fbe
000001e0: 2f90 d43e 6179 b2bd 07c1 b0bc a7cd cc3e
000001f0: 7b49 afbd cff1 8fbe 8b08 adbe f986 be3e
00000200: 03b7 a5bd 89dc 20be 904a 323b f993 b63e
00000210: 1093 8fbd 49db 813e 91b0 953e 0899 383d
00000220: c52d c3bd bc04 d7bd 43f9 a63e 271a 8bbe
00000230: 131a 92bd c37d 08be f01a 14bf d506 a83e

sun_influence_3.W.bias f4 [12]
-0.0036366552 -0.01160574 -0.02311351 -0.025004918 -0.0054098484 -0.007509045 -0.007253615 -0.006005508
-0.005536702 -0.01614009 -0.009596755 -0.01247262
00000000: f354 6ebb 0026 3ebc 8b58 bdbc 1dd7 ccbc
00000010: 1945 b1bb 6f0e f6bb bcaf edbb dac9 c4bb
00000020: 396d b5bb 3938 84bc b53b 1dbc f659 4cbc

sun_influence_3.W_self.weight f4 [12, 12]
-0.14386785 0.16875757 0.1601935 0.35356078 0.5044607 0.08942986 0.023407586 0.42629305
-0.113167234 -0.12038337 -0.0905543 0.19601929 0.096714675 0.035189096 0.108466774 0.47968668
-0.09155864 -0.21636851 -0.18842381 0.22585316 -0.35215706 0.41575095 -0.20563266 0.22847064
0.081879154 -0.092320286 0.18645361 0.15675256 -0.097903326 0.13587955 -0.3750954 0.21505366
-0.7624611 0.29878706 -0.2715132 -0.0038289127 0.22184235 0.27898595 0.3379684 0.23480442
-0.03604434 -0.6594143 -0.08289929 0.07482776 -0.49349096 -0.051126886 0.54910225 -0.098594435
-0.19907999 -0.103746116 -0.022589548 0.66657144 -0.24357012 0.08526677 0.14781828 -0.32944876
-0.2647586 0.35159153 -0.338046 0.36370158 0.1818207 0.09515078 -0.15439545 0.66077304
-0.15646988 0.54686016 0.37531984 0.076415695 -0.010801399 -0.48954058 -0.65979105 0.14952289
-0.23817423 0.25063598 0.5698553 0.27581513 0.12523586 0.09098983 0.4689729 0.24487159
0.08026928 -0.13349283 0.11506799 0.06570407 -0.34510913 -0.13554113 -0.20954554 0.07799584
-0.1735881 -0.07374327 0.33071 -0.052432176 0.025061332 0.18445139 -0.22407408 0.009195081
-0.032967493 -0.75547403 0.24955933 0.2300272 -0.25617808 0.74080503 0.20014852 0.10540949
0.00080463453 0.19371401 -0.21814488 0.084034525 -0.19739673 0.24731396 0.25912604 0.04804425
-0.09447078 -0.04387296 -0.14472806 -0.13490632 -0.2927901 -0.029276617 -0.100387484 -0.20172669
0.5868456 0.0727397 -0.09115018 0.61000824 -0.09286099 0.11469344 0.09500097 -0.07688209
0.40524793 0.32553732 0.5202491 -0.45191926 -0.38993287 -0.25730053 -0.43913722 -0.4193175
-0.016396374 0.30889714 -0.35053906 -0.5835531 0.015680838 0.303899 0.32089576 -0.22684133
00000000: 1852 13be c9ce 2c3e c409 243e eb05 b53e
00000010: 5624 013f 0127 b73d 44c1 bf3c 1543 da3e
00000020: 39c4 e7bd 8e8b f6bd 8874 b9bd 48b9 483e
00000030: 5812 c63d 7122 103d d423 de3d 7e99 f53e
00000040: 1983 bbbd b58f 5dbe 2cf2 40be 0d46 673e
00000050: ee4d b4be 4fdd d43e 5e91 52be 35f4 693e
00000060: 42b0 a73d 6b12 bdbd b2ed 3e3e be83 203e
00000070: 8a81 c8bd 0224 0b3e 810c c0be 0737 5c3e
00000080: a730 43bf 9efa 983e c703 8bbe 7fee 7abb
00000090: a42a 633e 3fd7 8e3e 320a ad3e 9270 703e
000000a0: 3ba3 13bd 60cf 28bf 1ac7 a9bd 4c3f 993d
000000b0: d9aa fcbe 6d6a 51bd f791 0c3f e1eb c9bd
000000c0: a0db 4bbe d878 d4bd b70d b9bc 6da4 2a3f
000000d0: 726a 79be 58a0 ae3d ad5d 173e 82ad a8be
000000e0: 708e 87be ce03 b43e 5e14 adbe 1837 ba3e
000000f0: 352f 3a3e 6ade c23d d719 1ebe 6c28 293f
00000100: a439 20be 07ff 0b3f ec29 c03e d57f 9c3d
00000110: 5af8 30bc 10a5 fabe 11e8 28bf 871c 193e
00000120: f2e3 73be 5c53 803e 09e2 113f a437 8d3e
00000130: d43d 003e e058 ba3d 371d f03e 9ebf 7a3e
00000140: 3864 a43d 58b2 08be c4a8 eb3d db8f 863d
00000150: 25b2 b0be 4bcb 0abe 1b93 56be 48bc 9f3d
00000160: 14c1 31be b606 97bd d252 a93e 1fc3 56bd
00000170: 6c4d cd3c d3e0 3c3e ad73 65be f7a6 163c
00000180: ec08 07bd bf66 41bf 7b8c 7f3e 408c 6b3e
00000190: c629 83be 66a5 3d3f bcf3 4c3e eee0 d73d
000001a0: 1cee 523a f75c 463e 5f61 5fbe 4b1a ac3d
000001b0: 5e22 4abe df3f 7d3e 2bac 843e 0cca 443d
000001c0: e579 c1bd 22b4 33bd 9833 14be e224 0abe
000001d0: 96e8 95be 84d5 efbc f497 cdbd 7191 4ebe
000001e0: 833b 163f 8df8 943d f2ac babd 8029 1c3f
000001f0: e72d bebd 65e4 ea3d de8f c23d 5b74 9dbd
00000200: a87c cf3e d4ac a63e 0c2f 053f f661 e7be
00000210: 48a5 c7be e5bc 83be 98d6 e0be c9b0 d6be
00000220: b051 86bc c427 9e3e db79 b3be bc63 15bf
00000230: 1a75 803c a698 9b3e 734c a43e 1849 68be

sun_influence_3.W_self.bias f4 [12]
-0.0036366552 -0.01160574 -0.02311351 -0.025004918 -0.0054098484 -0.007509045 -0.007253615 -0.006005508
-0.005536702 -0.01614009 -0.009596755 -0.01247262
00000000: f354 6ebb 0026 3ebc 8b58 bdbc 1dd7 ccbc
00000010: 1945 b1bb 6f0e f6bb bcaf edbb dac9 c4bb
00000020: 396d b5bb 3938 84bc b53b 1dbc f659 4cbc

sun_influence_4.weight f4 [8, 12]
0.2502706 -0.2760206 -0.28087786 0.020493142 -0.6307552 -0.78887117 0.040049173 -0.6634054
-0.27374852 -0.47071862 -0.50034493 -0.23175846 -0.42436868 -0.03520831 0.21889974 -0.3205137
-0.40793958 -0.2573425 -0.28782183 -0.1300631 -0.16434833 -0.054436166 -0.16606705 -0.3261771
-0.36436996 -0.7047293 0.25680172 -0.23980403 0.56083196 0.06121623 -0.06175167 0.4137935
0.17562295 -0.14371587 0.5297154 -0.15606496 0.21809064 -0.009842959 0.4498527 -0.5521116
0.15837009 0.48059854 0.072742425 -0.05733023 -0.0943669 0.07378264 -0.19523497 0.4073998
-0.047045633 0.11078446 -0.3528673 -0.411763 -0.5986165 -0.17814156 -0.24097182 0.055787828
-0.42518806 -0.13655885 -0.11855026 0.6376677 -0.21644326 -0.049413364 0.040515196 -0.15338027
0.7528221 -0.41743436 -0.37099138 -0.16063313 0.12060415 -0.35880122 0.39067602 -0.4564099
-0.028020943 -0.3760373 -0.3657431 0.27280664 0.2829879 -0.66263324 -0.069416456 -0.60859936
-0.13909768 0.09424605 -0.219106 -0.09501597 0.443155 -0.003698457 -0.46950135 0.062261935
-0.4811341 -0.022236114 -0.13837557 0.3603549 -0.16193913 -0.06708934 0.43850914 -0.23232865
00000000: 7823 803e 9252 8dbe 39cf 8fbe 3ce1 a73c
00000010: 2c79 21bf 76f3 49bf 9a0a 243d f0d4 29bf
00000020: c428 8cbe 0802 f1be 9b16 00bf 1752 6dbe
00000030: da46 d9be 9736 10bd 4127 603e 5f1a a4be
00000040: 75dd d0be 65c2 83be 625d 93be 432f 05be
00000050: ee4a 28be 75f8 5ebd 7b0d 2abe af00 a7be
00000060: b38e babe 2469 34bf 847b 833e 308f 75be
00000070: af92 0f3f dfbd 7a3d 52ef 7cbd bedc d33e
00000080: 81d6 333e 412a 13be 6e9b 073f 7ecf 1fbe
00000090: 2753 5f3e 5d44 21bc 1853 e63e 3057 0dbf
000000a0: c52b 223e 0311 f63e fbf9 943d 1ad3 6abd
000000b0: 6f43 c1bd 5a1b 973d adeb 47be b596 d03e
000000c0: ecb2 40bd f7e2 e23d 06ab b4be 9ad2 d2be
000000d0: ee3e 19bf be6a 36be 51c1 76be c781 643d
000000e0: 40b2 d9be 15d6 0bbe 7bca f2bd 313e 233f
000000f0: 4da3 5dbe ab65 4abd 43f3 253d b80f 1dbe
00000100: f3b8 403f f5b9 d5be 95f2 bdbe 037d 24be
00000110: 4fff f63d cbb4 b7be b006 c83e 8fae e9be
00000120: 2d8c e5bc f687 c0be ae42 bbbe 50ad 8b3e
00000130: cae3 903e 55a2 29bf 372a 8ebd 2bcd 1bbf
00000140: 9f6f 0ebe 1304 c13d 535d 60be bc97 c2bd
00000150: 36e5 e23e d061 72bb 7b62 f0be 5f06 7f3d
00000160: 3557 f6be 8328 b6bc 53b2 0dbe 7080 b83e
00000170: 5fd3 25be 2366 89bd 4584 e03e 90e7 6dbe
