src/Photosynthesis/RL/SavedModels/model_74.pth (torch, 30290 bytes, 34 tensors)

player_tree_1.W.weight f4 [12, 12]
000000 90 ca 63 3e 30 bb fd be 5b a3 7a 3e 61 d8 0b be
       0.2224524 -0.49556875 0.24476378 -0.13656761
000010 ce e8 a6 3e 6c f0 e2 bd 63 46 a1 be e6 e4 b1 bc
       0.3259949 -0.11081013 -0.31499013 -0.021715593
000020 db d9 0a 3f 0e c8 80 bd aa dd b1 be fc ca ff bd
       0.5423867 -0.062881574 -0.3473943 -0.12489888
000030 dc 32 5a 3e 1a f2 41 3e 3d e6 cb 3e 20 fe 12 3d
       0.21308464 0.1894001 0.39824095 0.035886884
000040 29 f8 3c 3e 02 35 9a be 36 f7 73 3b 2f 5b 70 be
       0.1845404 -0.30118567 0.0037226207 -0.23472284
000050 68 f6 f4 3d 64 e8 bd 3e c1 84 1b 3f e8 02 bd 3e
       0.11961061 0.37091362 0.6074944 0.3691628
000060 ee 5e b7 3b d2 91 90 3e 50 60 42 bf 2a 77 47 3e
       0.0055960333 0.28236252 -0.7592821 0.19479051
000070 89 4a b5 3e c5 b4 92 3e 75 61 22 be 2a 3c 10 bf
       0.35408428 0.2865354 -0.1585749 -0.56341803
000080 85 f7 08 3f 52 36 6e 3e 83 11 bb be 92 f8 56 be
       0.53502685 0.23262909 -0.36536798 -0.2099326
000090 3b 2d 5d be 76 a0 50 3c 85 9a 0d be 2e 48 8a be
       -0.21599285 0.012733569 -0.13828476 -0.27008194
0000a0 d6 a6 9b 3d 38 b8 cf be 82 0c 4f ba 5c 03 13 bf
       0.07600181 -0.40570235 -0.0007898287 -0.57427
0000b0 c4 c3 03 bf f2 5f db 3d 03 0c f0 be b3 b4 5d 3d
       -0.5147059 0.107116595 -0.46884164 0.054127406
0000c0 8e de 01 bf 63 0c 1c bd 41 9c 25 3d cf 3a 10 3c
       -0.50730217 -0.03809775 0.04043222 0.008803084
0000d0 82 e9 26 3d 25 c9 6d 3d d5 32 c9 be ad ea e5 3e
       0.040750034 0.058053154 -0.39296594 0.44905606
0000e0 98 60 f1 be 47 5b 05 3e 5d 6e f6 bd 3c fe 1b 3f
       -0.47144008 0.13023101 -0.12032769 0.60934806
0000f0 27 ca 70 3e 92 4e 06 3f c8 0c 2b 3f c1 78 bf bd
       0.23514615 0.5246364 0.6681638 -0.09349204
000100 3f 57 80 3e 81 7a 31 3f 34 a0 cb 3e 53 be d2 3e
       0.25066563 0.6932755 0.39770663 0.4116083
000110 54 51 6a 3e 5d c7 b1 3f fa 9b b6 3d 5c 38 d6 3e
       0.22882587 1.3888966 0.08916469 0.41839874
000120 60 7f cb bd 68 86 7c 3e 63 6b 08 3f 13 2d 78 3e
       -0.09936404 0.24660647 0.5328886 0.24235944
000130 38 14 cd bd 73 57 c1 bc b8 4a e1 bb 4c f7 be 3e
       -0.10013622 -0.02360127 -0.0068753622 0.37298048
000140 30 91 e7 bd e2 23 c1 bd 65 ef 4f be 14 e8 4d bd
       -0.11306989 -0.09430672 -0.20306166 -0.050270155
000150 aa e3 43 3e 2d ec 3d 3d 10 16 3e be 4f b9 43 bc
       0.19129816 0.046367813 -0.18563104 -0.0119460365
000160 46 e5 d6 3d cd c1 e0 bd 15 cb 18 bf cf d3 e0 bd
       0.10492949 -0.109744646 -0.5968488 -0.10977899
000170 6c ab 3f be 9d f2 81 3e 98 18 ba be fc 5d ce 3e
       -0.18717736 0.25380412 -0.3634689 0.4030608
000180 e1 27 05 3e eb bf 5b be 1b 60 7a bf 6a a4 c2 bd
       0.13003494 -0.2145993 -0.97802895 -0.09504016
000190 c7 7f 9e be e7 50 42 bd 3f 10 08 bf 97 2e 02 be
       -0.3095686 -0.047440436 -0.5314979 -0.12713085
0001a0 10 34 93 3e 13 06 21 3e 1f e3 cf be 2a c0 4a be
       0.28750658 0.15724973 -0.40602967 -0.19799867
0001b0 2d 1f be be c9 19 87 3e d4 c0 6e be 68 18 00 be
       -0.3713316 0.2638686 -0.23315746 -0.1250931
0001c0 4e 2e 19 3d ce 2f 94 3d 1a ed f6 be 0d 20 51 3d
       0.037397675 0.072356805 -0.4822777 0.051055957
0001d0 d8 53 18 bf 33 d5 a6 bd 22 01 c2 be 0a 3c d3 3d
       -0.59502935 -0.08146133 -0.3789149 0.10314186
0001e0 ad d5 2d 3f 02 04 bd bd aa 7d 3c be 02 a0 55 3d
       0.6790417 -0.0922928 -0.18407312 0.05215455
0001f0 b9 1e 05 3f 65 c7 ba 3e 88 11 03 bf 07 36 22 bd
       0.52000004 0.3648025 -0.51198626 -0.039602306
000200 23 1b 99 3d 5f 20 d7 be 1f 21 10 bf cc 70 53 bd
       0.07475879 -0.42016885 -0.5630054 -0.051621243
000210 ba 03 07 3e 28 63 ca be 77 bb c3 bd 2f dd 89 be
       0.13185015 -0.39528775 -0.095572405 -0.26926562
000220 5d 42 8f 3e 1e c3 53 be 30 d2 9c bb 5b 09 39 be
       0.2798032 -0.206799 -0.0047857985 -0.18069975
000230 13 de 36 bf cc f1 df be ae ca 29 be df 5a ac bd
       -0.7143261 -0.43739164 -0.16581222 -0.0841577

player_tree_1.W.bias f4 [12]
000000 fd e0 87 3c 85 1f 35 bb 4f 60 9c 3b 79 62 ba bd
       0.016586775 -0.0027637195 0.004772223 -0.091008134
000010 d0 f6 27 bd e3 09 c9 3c ad 6b 8a 3a 2f a5 03 3d
       -0.041006863 0.024540847 0.0010560654 0.032139953
000020 1c 54 99 bd 6e 07 41 bd 04 7c 0c 3d 20 aa 39 bd
       -0.07486746 -0.047126226 0.034297958 -0.04532826

player_tree_1.W_self.weight f4 [12, 12]
000000 0a 2b ef bd 74 61 08 3f a9 23 3f 3e 63 bc bc be
       -0.11678131 0.532737 0.18665947 -0.36862478
000010 09 9e 58 3d 2f a2 fb bd 80 b8 7a 3e bf f7 1b 3e
       0.05288509 -0.122867934 0.24484444 0.15231226
000020 24 7d 06 3f e0 82 17 3e 22 43 c6 be 7f 53 3b be
       0.525347 0.14796019 -0.38723093 -0.1829357
000030 1e c3 7d be f3 ef 07 3f aa b1 97 3e 45 95 99 be
       -0.24781463 0.5310051 0.29627734 -0.29996696
000040 f3 6d 78 3d 91 91 9d be 32 86 f4 3e 73 0d 76 3e
       0.06065173 -0.3077512 0.47758633 0.24028568
000050 57 58 20 be ae d9 6a 3f cc 40 f1 3e 9c 54 ad 3e
       -0.15658699 0.917384 0.4711975 0.33853614
000060 55 c8 91 bd a6 14 dd 3e cc a1 2e be b4 19 29 3e
       -0.071182884 0.43179816 -0.17053908 0.16513711
000070 95 c9 e3 3d ee 39 c9 3d 4d a4 b0 3d f8 b3 dc be
       0.11122433 0.09825502 0.08625088 -0.43106055
000080 bc 6e 09 bf 5b 2a 06 3f 93 27 fc 3e 1c 6e d7 3e
       -0.5368459 0.5240838 0.49248943 0.42076194
000090 f8 d6 03 bf 72 81 49 3d 22 34 9c 3e 20 04 04 bf
       -0.5149989 0.049195714 0.30508524 -0.51568794
0000a0 59 4e a8 3e 3e 70 f7 3d 54 51 9b 3e 96 56 5f bf
       0.32872275 0.120819554 0.30335486 -0.87241495
0000b0 4a 0a c6 3d 80 07 1b be b3 d5 24 3e 2c 9b 34 bd
       0.09669931 -0.1513958 0.16097145 -0.044093296
0000c0 b9 0d 13 be 9b 5d 6c be e2 96 c7 3e ae 21 85 bd
       -0.14360704 -0.23082583 0.38982302 -0.065005645
0000d0 e3 b5 19 3e 74 eb 83 3e d0 a5 a1 3e c6 c9 a7 be
       0.1501079 0.25765574 0.31571817 -0.32771128
0000e0 ae c6 b4 3d a3 ac 12 bd 4d 10 d5 be c0 3a 0b bd
       0.08826958 -0.03580917 -0.41614 -0.033991575
0000f0 ab 2f a8 bd fe df 36 3f 24 62 f2 3e cb a9 76 3e
       -0.08212217 0.71435535 0.473405 0.24088208
000100 6d 02 aa be ca f9 c0 3e e2 ad 22 3e 96 08 8c 3e
       -0.33204976 0.37690574 0.15886644 0.273503
000110 60 0f cc be e5 2e 2a 3d 58 92 13 3f c8 a2 cd 3d
       -0.3985548 0.04154863 0.5764518 0.10040814
000120 f9 f1 8c 3d da fb 7b 3e e9 a6 43 3f 2c b9 e7 3e
       0.0688209 0.24607792 0.7642656 0.45258462
000130 9d da ec 3c 9f 74 ed 3e ac a1 31 be 08 41 1a bf
       0.028912837 0.46378037 -0.17346829 -0.6025548
000140 83 c2 fd bb 0e a5 84 3e dc e6 19 bf fa fd e5 bd
       -0.007744135 0.25907177 -0.6011789 -0.11230083
000150 02 0b 38 bd 68 f6 cc 3d e7 40 68 3e 61 d1 7a 3e
       -0.044932373 0.10007936 0.22681008 0.24493934
000160 bf c2 ac be c3 a2 fa 3e 72 63 0c bf ef f0 58 3e
       -0.3374233 0.48952302 -0.5483924 0.21185659
000170 f8 6b 20 3d 1c 4d ac 3e 37 b2 68 3e eb 7c e1 3e
       0.039165467 0.3365258 0.22724234 0.44040617
000180 31 32 8d 3e d3 93 f4 be 2c 99 3c bf 90 37 99 3e
       0.27577356 -0.4776903 -0.7367122 0.29925203
000190 61 c3 d3 3e e9 bb be be 16 2a b9 bd d8 1f af 3e
       0.4136 -0.3725274 -0.090412304 0.34203982
0001a0 09 f6 4d be 8b f6 1d 3f 6b 94 ce 3e f3 d8 66 bd
       -0.20113386 0.6170432 0.4034761 -0.056359243
0001b0 01 8f de be 18 c3 50 be ef 38 5f 3e 56 f9 ca 3e
       -0.43468478 -0.20386922 0.21799062 0.39643353
0001c0 a3 04 db 3c ef 90 bd 3e c7 e6 13 3f 21 83 aa 3e
       0.02673561 0.37024638 0.57774013 0.33303168
0001d0 65 18 80 3e ab fe a0 3d 97 69 77 be 38 15 b4 be
       0.25018612 0.07861074 -0.24161373 -0.3517244
0001e0 4f c0 b3 3d 5b 2f cf bd 6d 9b ab 3e 20 76 66 3c
       0.08776914 -0.10116454 0.33517018 0.014066249
0001f0 34 03 cc be 45 22 cd 3e 06 55 6a be fc e1 dc 3d
       -0.39846194 0.40065208 -0.22883996 0.107852906
000200 8a e7 af be ea 0a f0 3e 52 67 94 3e 23 dc ac be
       -0.34356338 0.46883327 0.28985077 -0.337617
000210 c7 0c f0 3d 2c 46 11 3f 9d f5 c6 be fc 19 92 3e
       0.11721187 0.567477 -0.38859263 0.2853545
000220 10 b1 9e be 52 35 f8 3e 50 c9 a5 be 62 1c f9 bd
       -0.30994463 0.4847818 -0.32380152 -0.12163617
000230 d5 32 74 3e 22 f1 cc bd 14 f0 1f be f2 4d 08 bf
       0.23847516 -0.1000693 -0.15618926 -0.53243935

player_tree_1.W_self.bias f4 [12]
000000 fd e0 87 3c 85 1f 35 bb 4f 60 9c 3b 79 62 ba bd
       0.016586775 -0.0027637195 0.004772223 -0.091008134
000010 d0 f6 27 bd e3 09 c9 3c ad 6b 8a 3a 2f a5 03 3d
       -0.041006863 0.024540847 0.0010560654 0.032139953
000020 1c 54 99 bd 6e 07 41 bd 04 7c 0c 3d 20 aa 39 bd
       -0.07486746 -0.047126226 0.034297958 -0.04532826

player_tree_2.W.weight f4 [12, 12]
000000 11 71 9d 3e 92 5b 7e be 58 eb 5a bf 19 cb a2 bd
       0.30750325 -0.24839619 -0.85515356 -0.07948894
000010 73 a0 19 be aa 7b d6 be 94 a2 64 3e 91 b3 15 bd
       -0.15002613 -0.41891223 0.22327644 -0.0365482
000020 49 c0 c2 3e 21 3d 54 be f7 d8 46 be 8d 3d 36 bf
       0.38037327 -0.20726444 -0.19418703 -0.7118767
000030 27 9e 10 bf f9 c7 b3 be d1 ed 1b bd 49 08 c9 3e
       -0.5649132 -0.35113505 -0.038068596 0.39264134
000040 ac f5 83 3e 5f 84 36 3e 68 e9 85 3e 97 84 bd 3d
       0.2577337 0.17823933 0.26154637 0.09253805
000050 84 63 04 bf fb 23 13 3e 35 9b da be 7d 67 f4 bc
       -0.5171435 0.14369194 -0.4269654 -0.029834503
000060 98 a5 64 3f 16 d3 d1 be 7b b8 00 3f 26 e0 19 be
       0.89315176 -0.40981358 0.50281495 -0.15026912
000070 59 60 98 3e d5 46 c6 bd 3e fa c3 be 91 1b 15 be
       0.29761007 -0.09681479 -0.38276857 -0.14561297
000080 d5 72 5a be 4d 0f 47 3e b5 79 40 bf 42 54 c4 be
       -0.21332867 0.1943943 -0.7518571 -0.38345534
000090 92 c4 d0 bd e9 24 6e be 2d 72 51 bd ed fe d0 be
       -0.10193743 -0.23256268 -0.051134277 -0.40819493
0000a0 00 f1 4b 3e 5f f4 11 be b0 52 13 bd 22 9f 93 be
       0.19916153 -0.14253376 -0.03596753 -0.28832346
0000b0 60 ee 03 3d c8 ff 9e bd e5 2d 3c be a4 e9 ff 3c
       0.032209754 -0.0776363 -0.18376882 0.031239338
0000c0 1f bf 10 be d0 22 c5 bd 5c 77 fa be 25 c2 bf be
       -0.14135407 -0.096257806 -0.4891919 -0.37452808
0000d0 63 74 7c bd 46 74 b1 bd 03 28 88 3d 89 c1 44 3e
       -0.061634433 -0.086647555 0.06648257 0.19214453
0000e0 9d 97 42 3d 89 06 7e 3d ab db ec 3d 46 6d 10 3e
       0.04750787 0.06201795 0.11565336 0.14104185
0000f0 48 fe 9a 3e 05 2f b9 3e ce 45 da 3e 05 16 44 3e
       0.30272126 0.36168686 0.42631382 0.19149025
000100 df a9 6f 3e 80 70 3d 3e 02 54 4e 3e 6c de 5d bd
       0.23404644 0.18499947 0.20149234 -0.054167196
000110 11 2d 06 3f 3a 1c 0a 3d 71 38 e6 be 25 6c 8e bd
       0.52412516 0.033718325 -0.44964936 -0.06954221
000120 3f 8c 5d bd 21 d3 db bd cc ef e0 be f1 89 be 3e
       -0.054088827 -0.10733629 -0.4393295 0.37214616
000130 f9 4e 4a 3d 2a 62 76 3e 3b cb 83 3e 17 61 8a 3e
       0.04939172 0.24060884 0.2574099 0.270272
000140 48 64 4c 3e be 13 f6 3b 65 61 d5 be fb 7e 39 3e
       0.1996013 0.0075096777 -0.4167587 0.18114845
000150 1b 72 84 3e cf 02 a3 be b0 4c 53 be 1b 95 e8 3d
       0.25868306 -0.3183808 -0.20634723 0.113565646
000160 99 ad 8e 3e db ae a4 be b5 3d e3 ba f5 c1 02 bf
       0.2786682 -0.32164654 -0.0017337116 -0.51077205
000170 88 c8 9b 3e 39 16 3c be 62 bb 52 bd 8b 4f 50 bf
       0.3042643 -0.18367852 -0.051448233 -0.8137137
000180 9b 11 00 bf d7 15 c7 3c 1e aa 26 3e 66 63 76 3e
       -0.50026864 0.024302406 0.16275832 0.24061355
000190 29 f9 09 3f 84 03 c7 3e 1f 5c e6 3e 4c 0c 65 3e
       0.53895813 0.3886987 0.44992158 0.22367972
0001a0 8c ec 9b 3e 6f b4 87 bd fa 49 15 bd 70 27 89 bd
       0.30453908 -0.06626212 -0.036447503 -0.06696975
0001b0 79 03 e0 be 38 9f cf 3e bc d0 e1 bd 64 e6 66 3e
       -0.4375265 0.40551162 -0.11026141 0.22548825
0001c0 cd 93 88 3e 1c 44 17 bf f8 e0 0a bf 3e f0 0c be
       0.26675263 -0.590883 -0.54249525 -0.1376352
0001d0 0d 07 35 3c a7 0a a9 3e ba 37 58 ba 60 16 0c 3f
       0.011049044 0.3301594 -0.000824805 0.5472164
0001e0 a2 06 ef bd b1 21 28 3e 0b 71 57 be f3 71 90 be
       -0.11671187 0.16419102 -0.21039216 -0.28211936
0001f0 40 58 dc be 49 02 c1 be bd cb 32 bf 5f 66 11 3e
       -0.4303608 -0.37697056 -0.6984213 0.14199208
000200 1d b0 cf 3c 5c e0 ab be 10 e8 85 be 28 41 e5 3c
       0.025352532 -0.3356961 -0.26153612 0.02798517
000210 cb 56 e0 3d 78 27 24 3e 28 9b ab be 71 d3 15 be
       0.109540544 0.16030681 -0.33516812 -0.1463144
000220 2a 7b bc be 86 60 e0 be 89 69 19 3e 91 9d cc 3e
       -0.36812717 -0.43823642 0.14981665 0.39963964
000230 8f ff 6f 3e e9 65 96 bd 3d 8e ae be 9c 20 8a 3b
       0.23437332 -0.073436566 -0.34092894 0.004215313

player_tree_2.W.bias f4 [12]
000000 57 ba 17 3c 90 69 8c bd 6e 60 1b bd 8c 71 7b bd
       0.0092607355 -0.06856072 -0.03793376 -0.061387584
000010 a7 c6 9c bd ac b4 6c 3b 75 6a f2 bc 0c 26 79 3d
       -0.076550774 0.003611843 -0.029591778 0.0608273
000020 ed 2d c5 bd 1d 25 97 bc 40 a8 e7 ba 84 98 86 bd
       -0.096279 -0.018450314 -0.0017674044 -0.06572059

player_tree_2.W_self.weight f4 [12, 12]
000000 00 e8 66 3e d4 3e 91 be db 18 c0 3d ec 99 e1 3e
       0.22549438 -0.28368247 0.09379741 0.44062746
000010 15 f0 14 bf ba 99 6b bf 0e 72 94 bd 73 97 67 be
       -0.58178836 -0.92031443 -0.07248317 -0.22616367
000020 09 73 45 bd d4 27 04 bf a6 10 a6 3e 6e 34 5d 3e
       -0.04820541 -0.5162327 0.32434577 0.21602032
000030 b6 8f c0 3e 2e ee 01 be e6 5d 3e be 55 05 b0 bc
       0.37609643 -0.12688515 -0.18590507 -0.021486918
000040 82 5a 15 be 94 05 ef be a4 36 ab be fe 4c 19 be
       -0.14585307 -0.46683943 -0.33440125 -0.14970776
000050 4c 18 25 3f 1c 58 6d 3e 43 0f 5a 3d 5f b7 ec bc
       0.644902 0.23178142 0.05323721 -0.028896032
000060 ed cc bb bd 51 3e 95 be 73 f8 9d be 9c 1d e5 be
       -0.09169946 -0.29149106 -0.30853614 -0.44749153
000070 ef d5 3a 3e a0 36 ae be 3e 18 bf be 54 32 6a 3e
       0.18245672 -0.3402605 -0.37323183 0.22870761
000080 83 9d f0 bd 06 f2 fa bd a3 85 85 be 4f 7c dc bc
       -0.11748793 -0.122531936 -0.2607852 -0.026914744
000090 c3 62 2c be bb 58 87 bd 81 0a 87 bf 78 f9 95 3d
       -0.1683455 -0.06608721 -1.055008 0.07322973
0000a0 c6 f6 45 3e 9e 78 b8 be ae a3 1d 3f f3 64 bb be
       0.19332418 -0.36029524 0.6157788 -0.36600456
0000b0 65 56 3c 3d 4b 1d b0 bd 60 cd bb bd 56 10 3a be
       0.04598083 -0.08599337 -0.091700315 -0.18170294
0000c0 20 79 00 bf 12 16 eb bd e9 33 b5 be ef fc 4b 3e
       -0.5018482 -0.11478819 -0.35391167 0.19920705
0000d0 93 55 8c 3e c9 d0 4b be b5 65 fd bd 6e da d1 3d
       0.27409038 -0.19903864 -0.12372915 0.1024674
0000e0 be e0 7f 3d 98 1c 90 3e 51 44 83 be 66 de 76 3e
       0.06247019 0.28146815 -0.2563806 0.24108276
0000f0 31 0c d9 be 8f ac 87 bd 53 83 43 be ed ae 1c bf
       -0.42392114 -0.0662471 -0.19093065 -0.61204416
000100 75 4d 89 be 42 30 0b 3f 2c c1 3f bd b7 82 4f be
       -0.26816908 0.5437051 -0.046815082 -0.20264708
000110 8e f0 27 3e 69 0c 3d be 34 f6 1c be 05 5b 94 be
       0.16400358 -0.18461765 -0.15328294 -0.28975692
000120 16 28 ee 3e ee 89 5a 3e f9 22 dc 3e 98 77 cc 3d
       0.46514958 0.21341679 0.42995432 0.09983748
000130 fe 7e f7 3e b0 bd 24 3f 0f 37 0b 3f b2 46 b1 be
       0.48339075 0.6435194 0.5438089 -0.3462425
000140 56 73 f2 3d 97 ba b2 3e d7 75 0b 3e e1 58 0a be
       0.11838405 0.34907982 0.13619171 -0.13510467
000150 01 d1 04 3f aa eb 19 be 5a a7 e7 3e 37 aa 93 3c
       0.51881415 -0.15031305 0.45244867 0.0180255
000160 3b 26 e7 bd 8d a4 d9 bd 34 e2 b8 be ba b5 86 3e
       -0.11286589 -0.10627089 -0.3611008 0.2631052
000170 0b 41 94 3e 30 b0 33 be 13 8b b3 3e e1 d4 69 3d
       0.28955874 -0.17547679 0.35067043 0.057087783
000180 3a a6 61 3e c4 54 ed 3e 38 f1 3f be bd a5 a2 be
       0.22036067 0.46353734 -0.18744361 -0.31767073
000190 4a eb 37 be 43 ad a7 be 79 35 3d bf d6 65 90 bd
       -0.1796085 -0.32749376 -0.7390972 -0.07050674
0001a0 c2 77 5a bd 88 74 98 be 52 13 3e 3e 69 0d de be
       -0.053336866 -0.29776406 0.18562058 -0.43369606
0001b0 e5 e5 b6 3e 5c d2 46 3f 58 2c 24 3f be 91 bc bc
       0.3572227 0.7766473 0.64130163 -0.023018714
0001c0 f4 04 44 3f 4c 6b 25 3f 6b 6e 08 3f 8e d1 0c 3f
       0.7657006 0.6461685 0.53293484 0.55007255
0001d0 cf 8c c9 3e 56 67 00 3f 8e ec fd 3e 79 d9 2b 3f
       0.3936524 0.5015768 0.4959454 0.6712871
0001e0 88 ad 16 3f 38 04 26 3e 10 09 91 be 06 47 13 bf
       0.5885854 0.16212547 -0.28327227 -0.5753025
0001f0 c5 69 c8 3e 46 7c ba be 48 63 cd 3e 29 02 a4 bb
       0.39143196 -0.36422938 0.40114808 -0.0050051403
000200 9e 5e 26 3e ec d5 2d be 12 50 97 be 67 72 98 be
       0.16247031 -0.16976136 -0.29553276 -0.29774782
000210 2f 09 01 bd d3 6e 97 3d d8 63 0d bd 8b e5 34 bd
       -0.0315029 0.07394185 -0.034519047 -0.04416422
000220 3b 5a 20 bd 4b ce 2b be a9 a8 dd bd d1 d5 ee be
       -0.03914855 -0.16777913 -0.10823185 -0.46647504
000230 29 2a 69 bd 99 60 44 bd 90 9e 1c be b6 13 a2 3e
       -0.056924973 -0.047943685 -0.15294862 0.31655663

player_tree_2.W_self.bias f4 [12]
000000 57 ba 17 3c 90 69 8c bd 6e 60 1b bd 8c 71 7b bd
       0.0092607355 -0.06856072 -0.03793376 -0.061387584
000010 a7 c6 9c bd ac b4 6c 3b 75 6a f2 bc 0c 26 79 3d
       -0.076550774 0.003611843 -0.029591778 0.0608273
000020 ed 2d c5 bd 1d 25 97 bc 40 a8 e7 ba 84 98 86 bd
       -0.096279 -0.018450314 -0.0017674044 -0.06572059

player_tree_3.W.weight f4 [12, 12]
000000 89 eb a8 be 26 07 35 be f1 95 fd 3b b7 b5 0c bf
       -0.329922 -0.17678508 0.0077388217 -0.54964775
000010 a6 93 df 3e f0 c6 00 be 9e f5 7a be a4 d2 e0 3e
       0.43667334 -0.12575889 -0.24507758 0.43910706
000020 10 36 7e 3d b3 a7 0c be 08 a4 8d be d3 4d 65 3d
       0.062063277 -0.13735847 -0.27664208 0.055982422
000030 65 e7 cd be fa 65 c3 be 93 78 34 bf 8c 9a 09 3d
       -0.40215603 -0.3816374 -0.7049648 0.033594653
000040 65 c6 5c 3e bb 6c ab 3e 05 b9 32 be 74 e7 74 3e
       0.21560057 0.33481392 -0.17453392 0.23916417
000050 35 23 34 3e af 31 9a 3e 98 e2 22 be b6 1e b7 be
       0.17591555 0.3011603 -0.15906751 -0.35765618
000060 b1 c7 a5 be a3 08 e0 3e 44 62 c2 bd a3 1f 25 3d
       -0.32378915 0.4375659 -0.09491399 0.040313374
000070 5e 5c 34 3e 03 ae d3 be b5 0d ae be ee 28 ae be
       0.1761336 -0.41343698 -0.33994833 -0.34015602
000080 78 36 74 be 50 5f 07 3c 1e e7 02 3f bc 95 27 3d
       -0.23848903 0.00826247 0.51133907 0.040914282
000090 a7 98 10 be 75 70 77 3e 31 c6 d3 be 43 1e ee 3e
       -0.14120732 0.24163993 -0.41362146 0.46507463
0000a0 c5 c4 0c be 99 5a c4 be a9 12 5e be 9f e4 b5 bd
       -0.13746937 -0.3835037 -0.21686806 -0.08881497
0000b0 b2 7b c6 bd ca 9f 0e be 86 10 39 be 38 cf 02 bf
       -0.09691562 -0.13928142 -0.1807271 -0.5109744
0000c0 09 c5 3a 3e 44 14 b2 3e cd bb 82 be 80 64 3a bf
       0.18239225 0.34781086 -0.25533906 -0.728096
0000d0 eb 6d 8d 3e 24 c3 1e 3e 9d d9 12 3e 9a 0c 52 bc
       0.27622923 0.15504128 0.14340825 -0.012820387
0000e0 26 18 8a 3d d5 3c 2e be 69 be 04 3f a6 30 9e 3d
       0.06742887 -0.17015393 0.5185304 0.07724123
0000f0 c0 f8 6c 3d ff e9 9e 3d 75 8b c5 3e 26 c6 34 3e
       0.057854414 0.07759475 0.3858296 0.17653713
000100 32 1c 0f 3f 78 23 4a 3d d5 27 2f 3f 3e 99 f1 be
       0.559024 0.049350232 0.68420154 -0.47187227
000110 92 3b 88 3d b0 2d 9b 3d ab 72 43 be 15 50 88 3e
       0.06651987 0.075770736 -0.19086711 0.26623598
000120 19 20 ff bd 92 00 04 bd f0 ce b1 be 5e 51 68 be
       -0.12457294 -0.032227106 -0.34728193 -0.22687289
000130 d5 7f e8 bd 34 c3 d9 3e 20 a9 51 be 3d f6 d1 3c
       -0.11352507 0.4253174 -0.20474672 0.02563011
000140 a2 90 5d be aa b2 5d 3d 8c 2f 03 3e 3c 1e 9e 3e
       -0.21637204 0.054125465 0.12811106 0.30882442
000150 8a 7b 3c 3f 32 0a ac 3e 92 d9 52 3f 4a 87 27 bf
       0.73626006 0.33601528 0.82363236 -0.6544081
000160 06 c1 01 be 4c ae ae bd c4 52 da 3e af 9c 97 be
       -0.12671289 -0.08529338 0.4264127 -0.29611728
000170 d8 5e 6c be 34 ec 0e 3f 4c 98 1b 3e 1d 1d ba 3e
       -0.23083055 0.5582917 0.15194815 0.36350337
000180 86 0b 03 be 62 26 f0 be 6a f3 68 3e 3d c0 6a bd
       -0.12797365 -0.46904284 0.22749105 -0.05731224
000190 54 21 7c 3d d8 b9 35 bc 23 0d 93 3e 39 71 a6 be
       0.06155522 -0.011091672 0.2872096 -0.32508257
0001a0 81 ca 88 3e f3 ff 8e 3d ba 95 0f bd 2c 6f 14 3f
       0.26716998 0.06982412 -0.0350549 0.57982135
0001b0 d0 be 05 3e 51 e9 bb be 4d 2d e6 bd 9d 38 75 3d
       0.1306107 -0.36701444 -0.11239109 0.059868444
0001c0 d1 39 32 3e 95 0c 5b be ae a0 04 3e dd 50 e4 3e
       0.17404868 -0.21391518 0.1295192 0.44592944
0001d0 33 f3 d0 bd d8 78 be be a3 85 f9 3e a2 7c 86 bc
       -0.102026366 -0.3720157 0.4873477 -0.016416851
0001e0 8b c9 cb 3e 51 ec 1b bf 69 15 52 3d c3 62 e0 3d
       0.39802203 -0.60907465 0.05128995 0.10956337
0001f0 51 26 3e be 1e e0 94 3d f8 17 d0 be f9 54 9a 3e
       -0.18569304 0.072693095 -0.40643287 0.30142954
000200 82 80 eb bd 61 a4 05 bf 91 5e cc bc ba 96 6f be
       -0.1149912 -0.5220395 -0.024947437 -0.23397341
000210 6a 52 15 be 0c 49 a3 3d 1a 21 11 3e 58 1e ce 3e
       -0.1458222 0.07972917 0.14172783 0.40257525
000220 86 d5 21 3d b4 af d8 bc 98 12 25 be 08 34 af bd
       0.039510272 -0.02645097 -0.16120374 -0.08554846
000230 6a d1 82 be f8 4e 0d bf 33 95 58 be cc 86 82 3e
       -0.25550395 -0.5519862 -0.21150665 0.25493467

player_tree_3.W.bias f4 [12]
000000 58 7e 9a 3d 42 a4 94 3d 20 e9 12 be c0 14 39 bd
       0.075436294 0.07257892 -0.14346743 -0.045185804
000010 ae a9 f3 bc cb fa 64 be 6b 42 fb bb 0a a4 16 bd
       -0.029743996 -0.22361295 -0.0076678297 -0.036777534
000020 e8 43 15 be ae ab 92 3d be 42 26 3d e9 ac f7 3c
       -0.14576685 0.071616516 0.040590994 0.030233817

player_tree_3.W_self.weight f4 [12, 12]
000000 c1 aa 06 3e 4a 4f 3c be 16 06 3a 3f e2 1c 26 bf
       0.13151075 -0.18389621 0.72665536 -0.6488782
000010 6d 6a fd be 98 25 6f be a0 ae 85 3e 7f 2e 67 be
       -0.4949526 -0.23354185 0.2610979 -0.2257633
000020 5d a7 06 bd 72 26 f4 3d 6c aa b4 3e cc 50 8b be
       -0.032874454 0.11921395 0.35286272 -0.2721008
000030 5e 5a 1b bc 6c 70 af 3e 12 22 ae be f0 38 90 3e
       -0.009481994 0.3426546 -0.3401037 0.2816844
000040 1a 44 31 be 5b a6 85 3e 63 f6 e8 bd 5d 74 6d bd
       -0.17311135 0.26103482 -0.113751195 -0.0579723
000050 7a a4 4d 3f 18 94 fe bd b8 e4 1d bf b5 d9 73 bd
       0.80329096 -0.124305904 -0.6167712 -0.059533793
000060 24 63 69 bb 51 cb 99 bc da 73 44 be 21 14 15 be
       -0.003561207 -0.018773707 -0.19184819 -0.1455846
000070 19 de f8 be 44 60 70 be 52 97 d1 be a6 48 04 bf
       -0.48606947 -0.23474222 -0.4093576 -0.5167335
000080 ca 38 26 bf 90 db 60 3e 32 cb a0 be f3 d1 40 3e
       -0.64930403 0.21958756 -0.31405026 0.1883009
000090 70 a3 05 be 4a 03 90 3e 03 60 eb 3d f3 ec 5e 3e
       -0.13050628 0.2812751 0.11492922 0.21770076
0000a0 4e b7 15 bf a0 4e 86 be 19 ac b8 3c 5a 91 d8 be
       -0.58482826 -0.2623186 0.022543 -0.42298394
0000b0 3e ad 1b be fa 3e f7 be cd b7 53 3e 62 29 8c 3e
       -0.15202805 -0.48290235 0.20675583 0.27375323
0000c0 d2 3f e9 be 38 0f df 3e 7d 32 81 be 82 09 f3 be
       -0.45556504 0.43566298 -0.25233832 -0.4746819
0000d0 db 8b 85 bd 65 b0 f7 bc 37 35 97 bc 66 ac 8e bd
       -0.06520816 -0.030235479 -0.018457992 -0.06966476
0000e0 af 1b 89 be ee e3 1e be f1 64 b5 bd 38 a8 d0 3d
       -0.26778933 -0.15516636 -0.08857144 0.10188335
0000f0 cb 46 82 3e 51 e9 a6 3b 9b 29 67 be e3 22 e3 3e
       0.25444636 0.0050937315 -0.22574465 0.44362554
000100 52 97 f1 3e a3 7e 0b be 0c 9d 69 3e f7 3b bb 3c
       0.4718576 -0.13622527 0.22813815 0.022855742
000110 31 30 86 3e e4 61 8f 3d 36 c6 9b 3b 32 0d 22 bf
       0.26208642 0.07001093 0.004753853 -0.63301384
000120 e1 44 dd 3e e1 8a 56 be 34 43 5b 3e 32 cd ea bb
       0.43216613 -0.20951416 0.21412355 -0.0071655745
000130 b2 e3 96 3e d6 26 41 be aa 81 00 3f 14 fd 9b 3d
       0.29470593 -0.18862471 0.5019785 0.0761663
000140 2b e9 b8 bd aa bf 4c 3f 64 ed d5 3e 06 37 e0 3e
       -0.09028848 0.79979956 0.41782677 0.4379198
000150 86 44 6e 3e 23 73 91 3e b9 8d c2 3e 39 f3 5d 3d
       0.23268327 0.28408155 0.3799875 0.054187033
000160 ed 58 1b 3f a7 14 d5 3d 20 18 b4 3d 66 3e 00 bf
       0.60682565 0.1040433 0.08793664 -0.5009521
000170 db 9e ce 3e 4a 7f 74 be 72 55 dd 3e 3a c4 6c bc
       0.40355572 -0.23876682 0.43229252 -0.014451081
000180 92 6d 24 3f a1 39 8b be 36 dd 52 be 44 68 11 3e
       0.6422969 -0.27192405 -0.20592198 0.1419993
000190 6e 9c 3c bd 70 ff ff 3e e5 d2 0e 3d 54 30 ee bd
       -0.04604762 0.4999957 0.034869093 -0.116303116
0001a0 18 62 f6 be 78 9e 4e 3e f5 ce 8d be 2c e6 ac 3e
       -0.48121715 0.20177639 -0.27696958 0.33769357
0001b0 e3 3e 78 3e 9c c4 ec 3e cf 04 07 3c a9 c7 15 bf
       0.2424274 0.4624375 0.008240893 -0.5850778
0001c0 ed 91 0e be 75 c7 a3 be 6d 98 19 bf cd 29 98 3e
       -0.13922854 -0.3198811 -0.5999821 0.2971939
0001d0 1f f0 ff bd a1 70 cc bd 32 54 b4 3e 4a 83 1d bd
       -0.12496971 -0.0998242 0.35220486 -0.038455285
0001e0 58 09 db be e5 e7 11 bf 87 a8 88 be 5f 99 b2 3e
       -0.42780566 -0.5699447 -0.26691076 0.34882638
0001f0 2f 8d 45 be 8f d7 30 be 36 c6 fd 3d 75 86 70 be
       -0.19292139 -0.17269729 0.12391321 -0.23488791
000200 02 ef 4f 3e 7b e9 eb 3e ec cf c7 be 54 86 c2 be
       0.20306018 0.4607657 -0.3902582 -0.3799311
000210 56 df fd be 04 4d ed bd f6 17 48 3e d4 b9 cd 3b
       -0.49584454 -0.11586955 0.1954039 0.006278256
000220 5e a8 c2 3d e6 d5 05 bf 74 7b 5d 3e c9 fc d1 3e
       0.0950477 -0.5227951 0.21629125 0.41013172
000230 c8 cd 7d 3c 77 a6 d7 3e d7 00 35 3e cc 3f fa 3d
       0.015490957 0.4211919 0.17676102 0.122191995

player_tree_3.W_self.bias f4 [12]
000000 58 7e 9a 3d 42 a4 94 3d 20 e9 12 be c0 14 39 bd
       0.075436294 0.07257892 -0.14346743 -0.045185804
000010 ae a9 f3 bc cb fa 64 be 6b 42 fb bb 0a a4 16 bd
       -0.029743996 -0.22361295 -0.0076678297 -0.036777534
000020 e8 43 15 be ae ab 92 3d be 42 26 3d e9 ac f7 3c
       -0.14576685 0.071616516 0.040590994 0.030233817

player_tree_4.weight f4 [8, 12]
000000 aa 26 8a be 07 da 1d bf 58 e4 e7 3e a0 43 aa 3b
       -0.26982623 -0.6166081 0.452914 0.00519605
000010 1e 44 ba be b6 1a 19 3d db 9a 5c be 1f cb 61 3f
       -0.36380094 0.03737899 -0.21543448 0.88200563
000020 05 91 b4 bd b5 b9 ad be d6 c6 a5 bd 1b cf 1e bf
       -0.08816723 -0.33930746 -0.080945656 -0.6203477
000030 09 29 17 be 60 14 39 bc f1 87 4c be 82 52 a1 3e
       -0.14761747 -0.011296362 -0.19973733 0.3150826
000040 27 cd d7 3d 68 af 18 bf 76 7c 50 bf f6 ad 0c be
       0.105371766 -0.5964265 -0.8143991 -0.13738236
000050 63 07 91 be b8 28 63 3e 5f 0c 8f be 3e 40 3e be
       -0.28325948 0.22183502 -0.27939126 -0.18579194
000060 3f a2 8c be 64 37 ae be c2 fd 11 3e a8 f1 94 bc
       -0.27467534 -0.34026635 0.14256957 -0.018181637
000070 60 c3 a1 3e ea 24 20 bf 89 ee e2 bd 13 85 32 bf
       0.31594372 -0.62556326 -0.11080653 -0.69734305
000080 22 3d d3 3e 97 88 1d bf 29 23 2a 3f 4c a4 05 3e
       0.41257578 -0.61536545 0.664599 0.13050956
000090 7a 3b e0 ba 0b 26 41 3d 1b 01 47 3e c9 3c fb 3d
       -0.0017107569 0.04715542 0.19434015 0.12267453
0000a0 e4 cc ad be c8 21 73 be dd b6 fe 3e 36 3b 7b 3e
       -0.33945382 -0.23743355 0.4974889 0.24534306
0000b0 f8 76 3d be 0c 78 d9 3e 76 2e 22 be 48 e4 39 bd
       -0.18502414 0.424744 -0.15838036 -0.04538372
0000c0 76 44 b1 be 0a f0 84 3e 84 10 14 be f2 6d f9 3d
       -0.34622544 0.25964385 -0.14459425 0.121791735
0000d0 e7 82 0c 3f 26 6f 19 3d f3 19 e5 bc 15 d6 92 3e
       0.5488724 0.037459515 -0.027966475 0.28678957
0000e0 29 3d b2 3e 63 02 5a 3e f8 ed 71 bf 2a 70 f7 be
       0.34812286 0.21289973 -0.94503736 -0.48327762
0000f0 84 3a d3 be 8c 73 39 be 46 57 c6 be f1 38 06 be
       -0.4125558 -0.18110484 -0.3873846 -0.13107659
000100 7f 4c c2 3e 65 31 15 be 3a ad e5 be 7e 32 9a 3e
       0.37948987 -0.14569624 -0.44858724 0.30116647
000110 29 56 82 3d d1 e3 fe 3d 3c 65 66 3e 49 13 23 3d
       0.0636409 0.12445796 0.22499555 0.039813314
000120 48 a8 b4 be d1 14 a9 bd 6c 61 ed 3e 07 40 fd bd
       -0.35284638 -0.082559235 0.4636339 -0.12365728
000130 e8 f9 ee bd 85 48 6a bf 91 34 1f 3f 09 1b 56 3e
       -0.116687596 -0.91516906 0.62189585 0.2090875
000140 78 34 50 3e e8 59 d5 be ad 38 05 3e 2c e7 11 bd
       0.20332515 -0.41670156 0.13009901 -0.035620853
000150 0e dc f0 3d 4c 57 2d bf c2 64 b3 bd 05 10 9e 3d
       0.11760722 -0.6771133 -0.087594524 0.07717899
000160 e8 20 fb 3e 2b 40 4b be a4 93 5a bb 31 85 af bd
       0.49048543 -0.19848697 -0.003335216 -0.08570326
000170 3b 12 db bc a7 75 06 3e 47 6c c9 3e d3 3b 0e 3f
       -0.026742091 0.13130818 0.39340422 0.55560035

player_tree_4.bias f4 [8]
000000 57 a3 1a 3d e6 5b 15 3e 72 a1 da bb 9f bd 4b be
       0.03775343 0.14585838 -0.006672078 -0.19896553
000010 5a f7 19 3d 43 3e 2b 3d c4 58 2b bc 1b 9c bf bd
       0.03758941 0.041807424 -0.010458175 -0.09355947

sun_influence_1.W.weight f4 [12, 12]
000000 46 6c e0 3e 8e 71 ff bc 96 d3 3a 3d d3 ed 82 3f
       0.43832606 -0.031182077 0.04561194 1.0228828
000010 0d ac 66 bd 32 c0 e6 3e 6e 46 b0 3e 28 42 79 3f
       -0.056316424 0.45068508 0.34428734 0.9736657
000020 bf 90 c1 be 2c cf c9 3d 61 42 8c 3d 5f 45 3a 3e
       -0.37805745 0.09853968 0.06848598 0.18190525
000030 a1 d0 85 be 57 71 c7 3e 25 dd 85 3e 44 93 22 3e
       -0.26135734 0.3895366 0.26145282 0.1587649
000040 77 76 35 bc 2d 18 c9 3c 23 b4 67 bd 9b d5 79 3d
       -0.0110756075 0.02454766 -0.056568276 0.060994726
000050 38 63 b6 3e 37 08 ad bd 98 54 83 3e 9f ab f3 3e
       0.35622573 -0.084488325 0.25650477 0.47591874
000060 22 e5 bb be 0d e3 57 be 6d 01 33 3c 7c 4f 4c 3d
       -0.36698252 -0.21082707 0.010925633 0.04988049
000070 16 49 12 bf 67 51 9e 3e ff 8b 91 be 16 ff a5 be
       -0.5714277 0.3092148 -0.2842712 -0.32421178
000080 b6 e3 94 be fd 47 cc be 0e f6 91 be d7 e7 82 be
       -0.2907998 -0.39898673 -0.28508037 -0.25567505
000090 5a 29 40 be 79 a3 a2 bc 1a da 6c bd b7 c7 63 3e
       -0.18765774 -0.01985334 -0.057825185 0.22244154
0000a0 64 c6 a4 3e 99 30 dc be 5f ec d0 3e 8b 96 5e 3f
       0.3218261 -0.43005827 0.40805337 0.8694846
0000b0 67 16 b8 3e a3 20 de be c3 65 90 be b9 f2 81 3e
       0.35954592 -0.43384275 -0.28202638 0.25380495
0000c0 f8 6c 75 3e 5b 60 23 3c 18 57 30 3e aa 56 0a bf
       0.2396735 0.009971703 0.17220724 -0.5403849
0000d0 e5 6c c9 be b1 a8 06 be a8 a7 03 3e 44 c1 8c bd
       -0.39340892 -0.13150288 0.12856925 -0.068728
0000e0 9d a9 4c 3e 1c f5 18 3e 1a 0c 16 3f cf 2e 0d 3f
       0.19986577 0.14937252 0.58612216 0.5514955
0000f0 47 73 7e be e1 63 54 3e fe 29 b7 3e 26 97 08 bf
       -0.24848662 0.20741226 0.35774225 -0.53355634
000100 3a 09 01 be c9 9e cb 3d fb 95 8c 3e 00 9e a5 3e
       -0.12601176 0.09942395 0.27458176 0.32347107
000110 ca 76 a4 3e 57 09 fe 3c b2 49 ea bd c5 d5 3f 3e
       0.3212188 0.031010313 -0.114398375 0.1873389
000120 e2 f6 90 3e e5 80 e6 be b9 e4 fd be 55 b4 ee be
       0.28313357 -0.45020214 -0.49588564 -0.46621957
000130 89 2d 83 3e 15 ba e2 be 8e 25 a7 3e 60 0a 92 be
       0.25620678 -0.44282594 0.3264584 -0.2852354
000140 21 ad 13 bf 85 a4 56 bc 07 7a bf 3e ca c4 b5 3e
       -0.5768605 -0.013100748 0.37397787 0.355017
000150 0a 66 f9 3c 1a bc ab 3e c1 18 4a 3e e9 b8 93 bd
       0.030444164 0.33541948 0.19736005 -0.07213003
000160 a5 be 03 bd b3 59 a7 3e b8 c0 36 be e0 4d 3d be
       -0.032164235 0.32685623 -0.17846954 -0.18486738
000170 c7 32 7a be 1f c1 89 3e e4 39 5c be db bc b6 be
       -0.24433433 0.26905152 -0.21506459 -0.3569096
000180 f2 7d 49 3d a5 d5 3b bf 62 27 41 3e f7 4a a1 bc
       0.049192376 -0.7337287 0.1886268 -0.019689066
000190 86 08 cc 3e 64 42 bd 3d 2c 06 9e be 68 77 39 bd
       0.39850253 0.09241179 -0.30864084 -0.04527989
0001a0 1e d0 ab 3e a8 95 5a 3e 1e f6 b8 3e 01 cd 10 3d
       0.33557218 0.21346152 0.36125273 0.035351757
0001b0 27 4b ca be ce 1b af 3e f7 f6 ea bd 54 77 ee 3d
       -0.39510462 0.342009 -0.11472886 0.11643854
0001c0 cd b5 76 3d 1b b5 3b be ee fb ab be ce ac 6d be
       0.060231972 -0.18330805 -0.33590645 -0.23210451
0001d0 9f 95 17 3f b3 8b a2 3d c7 e7 e4 be 57 b2 36 3e
       0.5921268 0.07936802 -0.44708082 0.17841469
0001e0 e7 98 f5 be c1 35 ac bd 7a b6 cc be d6 45 06 3e
       -0.47968218 -0.0840869 -0.3998297 0.13112578
0001f0 db ba dd be c8 53 af bc 87 ab 4c be 86 db 28 3f
       -0.43306622 -0.021402255 -0.19987307 0.65959966
000200 76 f5 13 bf 68 10 18 bf ff ac 03 3f 4b 60 30 be
       -0.5779642 -0.59400034 0.51435846 -0.17224233
000210 c7 2f 9d be 24 2f 8c be 8c 3b 0b be 4e a8 77 3e
       -0.30700514 -0.27379715 -0.13596934 0.24185297
000220 f2 e0 09 bf 81 58 8a be 21 0a 4c be a9 69 53 bf
       -0.53858864 -0.27020648 -0.19925739 -0.825831
000230 8b 01 16 bd ad bb fd 3b 07 60 09 3f 97 65 30 3f
       -0.036622565 0.00774332 0.5366215 0.68905014

sun_influence_1.W.bias f4 [12]
000000 84 06 6e bd e4 f2 2c bd 24 05 14 3e ed 40 82 bd
       -0.058111683 -0.042223826 0.14455086 -0.0636004
000010 ad a4 6e bb 82 e2 f1 3b 0a 96 e6 bd 00 f4 cd bd
       -0.0036414072 0.007381738 -0.112590864 -0.10056305
000020 03 83 53 be 39 45 f5 bd be fd 13 bc 24 15 4d 3d
       -0.20655446 -0.11976094 -0.009032665 0.05006899

sun_influence_1.W_self.weight f4 [12, 12]
000000 35 e5 c7 be 56 1b 72 3b 60 f4 25 3f 31 b1 ba 3b
       -0.3904206 0.0036942563 0.6482601 0.0056973924
000010 f0 fd 13 3e 01 bd 92 3e 6b d8 14 3f 9c 5d f2 be
       0.14452338 0.28659824 0.5814273 -0.47337043
000020 b1 4f fa 3e ea a0 12 3e c8 6d 58 3f e8 1f 09 3f
       0.48888925 0.14319196 0.8454251 0.5356431
000030 f8 4e db 3e 49 fe 05 bf 11 fb b3 be ff 38 5d 3e
       0.42833686 -0.52341133 -0.35152486 0.21603774
000040 fe 08 fe 3e b6 10 31 3d a4 52 00 be ac 29 5e 3d
       0.49616235 0.043228827 -0.12531525 0.05423896
000050 69 2e 16 3f 64 82 c7 3d 94 1e a0 be 89 c5 df be
       0.58664566 0.09741667 -0.3127333 -0.43705395
000060 70 90 b6 be 32 4b 4f be c3 1b 91 be 47 d2 82 3d
       -0.35657072 -0.20243528 -0.28341493 0.063877635
000070 a1 37 82 be 65 ed 27 bf 97 92 a7 3e b8 e4 72 3e
       -0.25433066 -0.6559661 0.32729027 0.23720062
000080 88 32 bb be 44 e7 1c 3f ab 9b 1e 3f 58 19 f5 3d
       -0.3656199 0.61290383 0.6195628 0.119677246
000090 6b 8d a6 3e 47 70 ee 3d 95 4a 9c be 39 48 eb 3e
       0.32529768 0.11642509 -0.30525652 0.4595354
0000a0 67 7b 6c be 24 c5 b0 be ee 4e b6 be 53 c4 b9 3d
       -0.2309395 -0.34525406 -0.35607094 0.09070649
0000b0 b1 8e 80 be fc a7 cc be 49 59 fc be 3b 97 0d be
       -0.25108865 -0.39971912 -0.4928687 -0.13827221
0000c0 e6 9d 85 be 62 8b 9f be 7b 43 10 bf 35 4d 3d be
       -0.2609703 -0.31161028 -0.5635297 -0.18486483
0000d0 c6 2e 02 3f 82 6a 25 be 11 cc b3 be a7 8c 7f 3e
       0.5085262 -0.16153911 -0.35116628 0.24955998
0000e0 00 97 2a bf a2 2b b7 be 43 08 1c 3e 67 00 8d bd
       -0.6663666 -0.35775477 0.15237527 -0.06884842
0000f0 48 e2 68 3e 53 f1 10 3f cc f4 18 3f f5 7e 10 bf
       0.2274257 0.5661823 0.5974853 -0.5644372
000100 b9 49 3b 3e c5 f1 30 3f 23 b3 37 3e 3c 99 ab be
       0.18289842 0.6911891 0.17939429 -0.33515346
000110 2a 32 e4 bd 49 2d 83 3f 45 24 d1 be eb b4 74 bd
       -0.111423805 1.0248195 -0.40847984 -0.05974285
000120 b2 96 2c 3e 77 37 bb be 88 43 aa be 53 b1 01 bd
       0.1685436 -0.36565754 -0.33254647 -0.03166325
000130 29 25 bd 3e ac 1e 20 bb 6b d2 15 3f ba fc 54 3f
       0.36942413 -0.0024432344 0.585242 0.8319813
000140 07 bc 87 3b f8 05 a9 bd d9 93 a2 3e 52 0b e9 3d
       0.0041422877 -0.082530916 0.31753424 0.11379112
000150 85 fb fc 3e 31 96 58 3e 81 ef f2 be 12 48 05 3f
       0.49410644 0.21151043 -0.47448352 0.52063096
000160 ea 78 cd 3e 07 fd 8d 3e 57 f4 ed 3e ab 34 80 bd
       0.40131313 0.27732107 0.4647548 -0.062600456
000170 5f d3 f0 3e 48 2e 6f 3d 32 ea af 3e f8 d0 08 3d
       0.47036263 0.058393747 0.34358364 0.033402413
000180 60 ae ed 3e 7f 1a 50 be 3c c1 c5 3e 68 cb fa 3d
       0.464221 -0.20322607 0.3862399 0.12245828
000190 86 a1 93 bc 5b 17 cc bc 30 65 20 be b1 84 cd 3e
       -0.018021356 -0.02491348 -0.156636 0.40140298
0001a0 96 e3 8e be 0b de 97 bd 51 70 9a be 44 3f 6e 3d
       -0.2790801 -0.07415398 -0.30163816 0.058165804
0001b0 57 d9 0a 3f 82 a8 82 3e b7 c7 01 3f b8 8f 31 be
       0.54237884 0.25519186 0.50695366 -0.1733998
0001c0 e8 06 ed 3d 6c 25 48 be 17 b8 64 be 65 f9 6e be
       0.11573583 -0.19545525 -0.2233585 -0.23337324
0001d0 5d a1 1c bf 59 9d 51 be 55 2b 36 be 64 a0 b7 3e
       -0.6118372 -0.2047018 -0.17789967 0.35864556
0001e0 b8 01 ba be 11 44 98 be e3 bf 21 be 18 c0 41 3e
       -0.36329436 -0.2973943 -0.15795855 0.18920934
0001f0 99 be 6a be 26 46 fe bd 04 94 d3 bd 56 7c 9a 3e
       -0.2292427 -0.124157235 -0.10330966 0.30172986
000200 ac cf 05 bf 0f dd da be 71 69 f6 bd 50 93 0b bf
       -0.5227001 -0.4274678 -0.1203183 -0.54521656
000210 d6 60 24 3e a5 67 d1 be 2a 65 ec bd d3 f6 05 bf
       0.16052565 -0.40899387 -0.11542733 -0.5232975
000220 f1 79 ca 3e ee 09 e0 bd 81 5a b0 3d a7 83 26 3e
       0.3954616 -0.10939394 0.08611012 0.16261159
000230 77 63 e5 bd 31 f1 ca be a7 9f a8 be 72 ac 81 be
       -0.11200612 -0.3963714 -0.32934305 -0.25326878

sun_influence_1.W_self.bias f4 [12]
000000 84 06 6e bd e4 f2 2c bd 24 05 14 3e ed 40 82 bd
       -0.058111683 -0.042223826 0.14455086 -0.0636004
000010 ad a4 6e bb 82 e2 f1 3b 0a 96 e6 bd 00 f4 cd bd
       -0.0036414072 0.007381738 -0.112590864 -0.10056305
000020 03 83 53 be 39 45 f5 bd be fd 13 bc 24 15 4d 3d
       -0.20655446 -0.11976094 -0.009032665 0.05006899

sun_influence_2.W.weight f4 [12, 12]
000000 1c be 0c be cb bd a2 be 40 71 e8 3e 1e 21 99 bf
       -0.13744396 -0.31785426 0.45398903 -1.1963232
000010 10 34 ec be 05 87 29 bf 12 7b 2a 3e 75 44 9e 3d
       -0.4613347 -0.6622165 0.1664851 0.07727901
000020 1c 23 aa 3e 45 92 de 3b 1e 75 6b bf 6c 7e 09 bf
       0.3322991 0.006792339 -0.9197558 -0.5370853
000030 c6 f1 2e be d9 e2 4b bf 45 5e 0e 3e 26 f2 0a be
       -0.17084417 -0.7964302 0.13903148 -0.13568935
000040 39 31 9f 3d 51 62 ff bd 2e bf 0c 3e fc dd 67 3d
       0.0777306 -0.12469924 0.13744804 0.056608185
000050 89 b6 af be 7c 29 9e 3d 66 5e 68 3d af ed 3a be
       -0.3431895 0.07722756 0.05673065 -0.18254732
000060 fc f0 a5 be b4 94 4a bc 35 fa 40 be 1a 6b 11 3e
       -0.3241042 -0.012364555 -0.18845446 0.14201012
000070 9d 80 a3 3e fd b9 39 bf d3 0b ac be 66 29 46 be
       0.31934062 -0.7254942 -0.3360277 -0.1935173
000080 01 b5 85 3e 3b 61 1a 3e 26 1e 21 bf 9a ae cb 3e
       0.26114658 0.15076153 -0.6293663 0.39781648
000090 24 91 6b 3e 78 43 94 be a2 a7 e2 3e d8 a0 0e 3f
       0.23004586 -0.28957725 0.4426852 0.5571418
0000a0 ba 99 1d 3f d2 26 fd 3c 49 52 ec be 1d b8 da 3e
       0.61562693 0.0309023 -0.4615653 0.42718592
0000b0 60 b9 f2 3e 70 89 3a 3e 01 00 90 3e 0b 75 21 3f
       0.47407055 0.18216491 0.28125003 0.6306922
0000c0 c5 d5 97 be 23 93 51 bf 40 38 fe 3e c2 35 82 bf
       -0.2965528 -0.8186514 0.4965229 -1.0172656
0000d0 c3 82 8d be 84 0a 97 3e 6d f2 03 3c 13 9b 04 3f
       -0.27638826 0.2950021 0.008053404 0.51799124
0000e0 36 42 b2 3c 7f cc d7 3c 55 e7 58 3e 15 c2 13 3d
       0.021760087 0.026342629 0.21181996 0.036073763
0000f0 dc 5a 60 3d 8e 2d 15 bf 1b a3 88 3e f2 27 c1 3e
       0.05477415 -0.58272636 0.2668694 0.37725788
000100 c1 5d 1b bf c9 07 fd be 5c 21 12 3e c8 b8 b0 3e
       -0.6068993 -0.49420002 0.14270538 0.34515977
000110 ca f3 aa 3e 60 3f 8a bf 68 c8 c3 3e 5e 86 f5 be
       0.3338912 -1.080059 0.38238835 -0.47954077
000120 f7 fa 07 3f 46 42 f0 be 6c 90 d1 be a3 7b 21 bf
       0.53117317 -0.46925563 -0.40930498 -0.6307928
000130 27 a4 ee 3e 33 d1 dd 3e 36 3b b1 3d cf 06 08 3e
       0.46609613 0.4332367 0.08653872 0.13283847
000140 d8 ac c8 be 26 5f 14 3f f1 77 fb bc 57 e4 55 3e
       -0.3919437 0.57957685 -0.030696841 0.20887886
000150 e9 78 64 be 86 f8 a1 be cd 3b 4a 3e 9d 8c ed 3e
       -0.22311749 -0.3163492 0.19749375 0.46396342
000160 ee 4d bb be b1 3c 9e be 1e f9 84 bd 69 36 92 be
       -0.36582893 -0.3090568 -0.06492828 -0.28557137
000170 55 3c 57 be b1 dd 4d be 85 a6 b6 3d 2d cd 39 bf
       -0.21019109 -0.201041 0.0891848 -0.725787
000180 a6 28 1f bf c2 21 ca be 37 2c 7f 3e b3 80 9d bc
       -0.621714 -0.3947888 0.2491921 -0.019226408
000190 1a 24 73 3b 13 88 1b bf ee 7f ca be 8e a9 c4 be
       0.0037100376 -0.6075451 -0.39550728 -0.3841061
0001a0 e9 d4 4a be 11 8b 9e bc 4f 78 f6 3e 7c e5 1a 3e
       -0.19807781 -0.019353421 0.48138663 0.15126604
0001b0 20 9c 0a 3e ad 94 66 bc 3b bc 72 be a0 02 cb 3d
       0.1353612 -0.014073533 -0.23704617 0.0991261
0001c0 88 ed d9 3d a4 51 d6 be dd 4e 92 be cf 9e d4 3c
       0.106410086 -0.41859162 -0.28575793 0.025954632
0001d0 39 f3 5f 3e 53 e2 43 bf f2 a4 cd be e0 b9 a9 3e
       0.21870126 -0.7651722 -0.40164906 0.33149624
0001e0 ef 73 83 3e 56 17 a0 bc a7 2f e3 3e 1c 1b 06 bf
       0.25674388 -0.019542377 0.44372293 -0.52385116
0001f0 0b 64 c4 be 0d de cd 3d 4a e3 0a bf e3 0a 0b bf
       -0.38357577 0.100521185 -0.54253066 -0.54313487
000200 b4 0b 1c be eb 3d ae 3e 44 32 2f 3d 2b 01 94 bd
       -0.1523884 0.34031615 0.042772546 -0.07226785
000210 ec 81 52 3f 13 b5 d0 bd 58 60 b5 ba f6 e6 86 3e
       0.82229495 -0.10190787 -0.0013837917 0.26348084
000220 be a9 59 3e e7 81 ad 3e 50 ea 6f be 0c 60 a5 3d
       0.21256158 0.3388817 -0.23429227 0.0807496
000230 ea 8b 05 3e 3a 52 93 3e 26 76 d3 3e 77 d2 1f 3f
       0.13041654 0.2877367 0.41301078 0.6243052

sun_influence_2.W.bias f4 [12]
000000 8d 0d 25 3d ee 22 1f be da 55 dd 3d 66 d9 63 3d
       0.040296126 -0.15540668 0.108073905 0.05562725
000010 97 93 32 3d 08 b5 1b be 9c d9 ea bd dc be e5 bd
       0.043597784 -0.15205777 -0.11467287 -0.11218044
000020 4c 97 9e 3d e8 32 03 be eb e5 28 be f4 a5 a7 bd
       0.07743701 -0.12812388 -0.16493957 -0.0818595

sun_influence_2.W_self.weight f4 [12, 12]
000000 37 2c 43 3d 0f 32 5e bd bf 63 f2 3d d5 25 18 3d
       0.04764959 -0.05424696 0.11835431 0.037145454
000010 19 5e a9 be a5 81 32 bf 1b d7 80 3e cd b7 8f 3d
       -0.33079603 -0.6972907 0.25164112 0.07017479
000020 ce 5b d6 bd 65 94 96 be 5a 27 19 be 8a a6 d8 3e
       -0.10466729 -0.2941009 -0.14956418 0.4231456
000030 d6 d3 d8 3e 4b d8 e3 be 47 4f e8 3e 2d 91 37 bf
       0.42349118 -0.44500956 0.45372984 -0.71705896
000040 03 06 59 3f 80 57 1a be d9 e9 bd 3e cd 9f a6 bd
       0.847748 -0.15072441 0.37092474 -0.08135948
000050 78 3d a5 bc b5 bc 96 3e 4b b2 a3 be 6f d9 6a 3e
       -0.020170912 0.29440847 -0.31971964 0.22934507
000060 e0 ae 0e 3f 3f c0 c1 3e 89 c2 6c 3e ae 9e 8d 3e
       0.5573559 0.37841985 0.23121084 0.27660125
000070 ca 67 1f 3e 6e cd b2 3e 12 cc d2 3e 19 6a 32 3f
       0.15566936 0.34922355 0.41171318 0.6969314
000080 2a e1 21 3e 92 17 43 3f 30 6c 6b bd 60 82 61 3d
       0.1580855 0.7620784 -0.057476223 0.055055976
000090 47 86 ed 3c 28 52 8f 3e 6f a1 98 be f2 f7 9b 3d
       0.028994692 0.27992368 -0.29810664 0.07615651
0000a0 39 a9 03 3f d8 2d 27 bf 43 b5 13 3e 11 51 05 3e
       0.5143009 -0.65304327 0.14424615 0.13019206
0000b0 f1 ad 4b 3e 5b 74 86 3c 8f 9d 47 be cd 50 4b 3d
       0.19890572 0.016412904 -0.19493698 0.049637605
0000c0 4a cb 07 bf 70 4e 6c be 65 ca 77 3c f8 44 22 be
       -0.5304457 -0.23076797 0.015123938 -0.15846622
0000d0 f8 fc e8 3d 93 3b a7 3d c4 62 a8 bc 57 8d 90 3e
       0.11376375 0.0816566 -0.020554908 0.28232834
0000e0 56 79 30 3e a1 e3 ca bd 23 43 7e be b7 ae 88 be
       0.17233786 -0.09906698 -0.24830298 -0.26695797
0000f0 aa 8f 02 be df 14 fc be e5 82 e9 bd fb 74 d9 bd
       -0.12750116 -0.49234673 -0.11401919 -0.106180154
000100 5d ca c9 be 00 f2 fa be 89 73 22 3e ab ce 9a 3d
       -0.39412203 -0.49012756 0.15864386 0.0755895
000110 5f 33 67 3c 8e 40 14 bf 01 c8 8c bd 0d d9 9c bd
       0.014111369 -0.57911 -0.06874085 -0.07658587
000120 67 4c c0 bd 72 26 40 3e 7d c7 f0 be f5 1e 44 3e
       -0.093895726 0.18764666 -0.47027197 0.19152434
000130 f0 2e cb 3e 4a 30 0c be db b2 52 be b5 e2 00 3f
       0.39684248 -0.13690296 -0.2057604 0.5034593
000140 cd 3f c3 3e 01 85 40 3e 23 ea 64 bd bd 90 fd bd
       0.38134614 0.18800737 -0.055887353 -0.12381122
000150 b5 a9 9a be cc 60 16 be 5c 52 7d 3d 33 7a 90 3e
       -0.302076 -0.14685363 0.061846122 0.2821823
000160 7f f3 07 3e ea dd 07 be fb 90 76 3e 04 e2 48 be
       0.1327648 -0.13268247 0.24078743 -0.19617468
000170 0c 26 23 be b0 b5 99 3e df df 89 3e b2 b1 14 3e
       -0.15932482 0.3002143 0.26928613 0.1452091
000180 eb 81 30 bd cc 34 38 3c 62 5b 9d 3e e1 dd 32 3d
       -0.04309265 0.0112430565 0.30733782 0.04366863
000190 34 1e ce 3c 7b 8a 31 bf ca 7f 06 bf 84 29 a9 be
       0.025160886 -0.6935193 -0.5253874 -0.33039486
0001a0 9d 3a 66 be 3b 15 09 bf a5 94 20 3e 64 03 a5 3e
       -0.22483297 -0.5354802 0.15681703 0.3222915
0001b0 9e 23 fd 3d 3d de d8 be e4 a7 3c bd bd 2f 0b 3f
       0.12360309 -0.42357054 -0.04605855 0.5436972
0001c0 af 15 95 3e 62 7d 2c 3e c5 24 08 be 8d 53 56 be
       0.29118106 0.16844705 -0.13295276 -0.2093031
0001d0 8f 6b 01 3f 5f 2f 9f bc 9b 03 0b 3e 23 42 ee 3d
       0.50554746 -0.019431768 0.13575594 0.11633708
0001e0 62 af 2b bf 3e 3e a5 3d 14 c7 4b 3d a2 f8 54 be
       -0.6706449 0.080685124 0.049750403 -0.20797971
0001f0 c9 4b a7 3e 3e 8e 81 be c2 5c e7 bd ce 78 42 be
       0.32675007 -0.25303835 -0.11296989 -0.18991396
000200 28 9a 07 bd 72 b9 c2 be 2b 11 9c bd da b6 61 be
       -0.033106 -0.3803211 -0.07620462 -0.22042409
000210 08 64 9e 3e c1 06 7c 3e 7d 9e c0 be a7 98 bc 3e
       0.30935693 0.24611951 -0.37620917 0.36835214
000220 69 d7 a3 3d ca dc 94 be fd 4f d2 3e 20 17 ae 3e
       0.080000706 -0.290747 0.4107665 0.34002018
000230 9a e6 87 be e6 f5 ed 3e 43 38 e7 3e 82 6b 82 be
       -0.26543123 0.46476668 0.45160112 -0.25472647

sun_influence_2.W_self.bias f4 [12]
000000 8d 0d 25 3d ee 22 1f be da 55 dd 3d 66 d9 63 3d
       0.040296126 -0.15540668 0.108073905 0.05562725
000010 97 93 32 3d 08 b5 1b be 9c d9 ea bd dc be e5 bd
       0.043597784 -0.15205777 -0.11467287 -0.11218044
000020 4c 97 9e 3d e8 32 03 be eb e5 28 be f4 a5 a7 bd
       0.07743701 -0.12812388 -0.16493957 -0.0818595

sun_influence_3.W.weight f4 [12, 12]
000000 ba fd 86 be df 61 be 3e 25 75 3e 3d 5e 6e 26 be
       -0.26365453 0.37184045 0.046498436 -0.16253039
000010 a4 89 57 bd 0d 3a 41 be f3 0f 0b 3f ac 2b b8 3e
       -0.0526215 -0.18869801 0.5432121 0.3597082
000020 14 e9 90 3e 82 26 86 be 71 0a 8a 3e f4 20 1a 3f
       0.28302824 -0.26201254 0.2696109 0.6020653
000030 27 f2 e6 3e e6 13 c1 be 48 16 0c 3f c2 a9 7d be
       0.45106623 -0.37710494 0.547215 -0.24771789
000040 4a 70 5c bf f5 37 be 3e 68 b0 45 bf 27 70 2b bb
       -0.8610884 0.37152067 -0.772223 -0.0026159377
000050 16 61 39 be 0e 7b 75 be e7 36 35 3e e9 f8 1d 3e
       -0.18103442 -0.23972723 0.17696725 0.15426983
000060 55 b6 71 bf 76 8a c2 be 7d 89 af be d4 e8 69 3e
       -0.9441884 -0.37996262 -0.34284583 0.22842723
000070 66 5f 01 bd a6 de 09 3f 43 e9 f9 be b9 fb b3 3e
       -0.03158512 0.5385536 -0.48810777 0.35152987
000080 63 83 f8 3e 20 60 e7 bd 20 60 69 3e de 60 fb 3e
       0.4853774 -0.11297631 0.22790575 0.4909734
000090 2b ea 3e be 3b f7 41 bf 7b 1a 82 bd c1 d4 a2 3c
       -0.18644015 -0.7576787 -0.06352707 0.01987684
0000a0 4a de aa be 38 d1 6f be ac 21 94 be 47 0e 50 3e
       -0.33372718 -0.23419654 -0.2893194 0.20317946
0000b0 75 96 e5 bd 53 5c 1c 3d 4a 04 a4 be f6 74 d8 be
       -0.11210338 0.038173985 -0.32034522 -0.42276734
0000c0 30 6b 2a be 46 6a de 3e 93 31 3d 3e d2 7b 5f be
       -0.16642451 0.43440455 0.18475942 -0.21824577
0000d0 75 4d 2c be ad 47 96 3e ce a2 e4 3d ff 76 b9 3e
       -0.16826423 0.2935156 0.11163865 0.362236
0000e0 df d7 a3 3d 1f ea 09 3e a2 da 88 3e f9 4f 08 3e
       0.080001585 0.13468216 0.26729304 0.13311757
0000f0 8f 1c 8f 3e 0a 27 a2 be 49 e0 d9 bc 47 80 49 3e
       0.27951476 -0.3167041 -0.026596205 0.1967784
000100 0b 7a 2a 3f 53 d9 9b 3e f5 24 a2 3d cb e2 85 be
       0.6659247 0.30439243 0.07917205 -0.26149592
000110 c5 f2 95 3e b0 9c 6d 3e f1 4f ac 3e 18 2e b6 be
       0.2928678 0.23204303 0.3365474 -0.35582042
000120 6e b3 bf 3e 26 41 b1 be c1 f4 35 be 1d b5 94 be
       0.3744158 -0.34620017 -0.17769147 -0.29044428
000130 97 64 72 3c d7 2f eb bd d4 06 07 3f 65 a0 f4 bc
       0.01479449 -0.11483734 0.52744794 -0.029861638
000140 69 56 40 3f 5e b0 4a 3e 2c f7 9b be c7 95 bc 3e
       0.7513185 0.19793841 -0.30462015 0.3683302
000150 2c 03 98 be 41 c1 fd 3d 49 14 81 3e aa 56 a0 be
       -0.2968992 0.12390376 0.2521079 -0.3131612
000160 d1 48 59 3d d8 99 10 bf 9b 3a 5b 3e 7d b2 c7 3e
       0.05304796 -0.56484747 0.21409075 0.39003363
000170 43 a3 2f bf 47 66 7a be 4c 02 9a be f6 a8 15 3f
       -0.6860849 -0.24453078 -0.30079877 0.5846094
000180 35 c4 a9 be e1 e4 a1 3e 1d 20 ce bd 86 98 69 bd
       -0.33157507 0.31619933 -0.10064719 -0.057030223
000190 0a ee 88 3d 22 9f 9b 3e 4f 2f 48 be 56 02 7d be
       0.06686027 0.30394846 -0.19549297 -0.24707922
0001a0 14 c6 5f be fe 92 a3 3e 31 86 67 3e e5 fc f3 be
       -0.21852905 0.31948084 0.22609784 -0.4765388
0001b0 cd fc c2 3e 59 a0 82 bd 71 d4 ed be 26 d1 9c bf
       0.38083497 -0.0637824 -0.46451142 -1.2251327
0001c0 8b a7 1d 3e eb 48 21 3e a9 5b 75 3d b1 e4 05 3f
       0.15395944 0.15750472 0.059901867 0.5230208
0001d0 62 ed ff 3e 36 ed 56 be 38 97 6d 3f 79 48 22 bf
       0.49985796 -0.20988926 0.92808867 -0.63391834
0001e0 39 9d 3c 3f 52 85 99 3e 67 4e 01 3e d8 1a c6 be
       0.736774 0.29984528 0.12627564 -0.38692355
0001f0 ff 26 1c 3e d3 37 c6 be 02 71 24 3e b3 d0 c9 3e
       0.15249251 -0.38714465 0.16058734 0.39417037
000200 22 39 bb 3e 89 60 aa 3e e8 dd 9e be f1 9a 16 3e
       0.36567026 0.33276775 -0.31028676 0.14707543
000210 8a ac 63 bd 21 28 46 3d b3 c5 b5 bc 22 f6 1b be
       -0.055584468 0.048378114 -0.022188997 -0.15230611
000220 3a cf b9 3d ab ad 18 bf 2d 91 cd 3e 8f e1 ef bd
       0.090727285 -0.59639996 0.40149823 -0.11712944
000230 6b 9c 5a bf dc 7b 0a be d7 79 8d 3e 15 9b 4d 3f
       -0.85394925 -0.13523811 0.2763202 0.8031476

sun_influence_3.W.bias f4 [12]
000000 e6 83 a2 bd cb a0 f1 bc 63 09 be bb 1a fe e3 bd
       -0.07935314 -0.029495617 -0.005799459 -0.111324504
000010 38 0b 0c bd 66 49 ae bd 18 44 00 be bf 49 ba bd
       -0.034190387 -0.085100934 -0.12525976 -0.09096097
000020 ed 9a c7 3d e7 68 f4 3d dd 75 f5 bc eb 7b ed ba
       0.097463466 0.11934071 -0.029963428 -0.0018118595
