src/Photosynthesis/RL/SavedModels/model_34.pth (torch, 30290 bytes, 34 tensors)

player_tree_1.W.weight f4 [12, 12]
-0.06669408 -0.45529142 0.36184692 -0.22481883 0.149856 0.3000767 0.11153302 0.08504
0.061172042 0.35387942 0.17280199 -0.09233337 -0.15879816 0.32080117 -0.2309632 -0.33518887
0.31776798 0.08388391 -0.04902483 0.16762376 -0.2999023 0.6702813 0.7771554 -0.024822367
0.011140959 -0.22384343 0.06993037 0.2913521 0.27095935 0.084639296 -0.049525145 0.42242566
0.5498321 0.388816 0.047824215 -0.20828012 -0.123058885 -0.33184332 -0.08378056 -0.006724703
-0.20697339 0.12360759 0.067510106 -0.11071402 -0.17745084 -0.023374379 -0.852718 0.14791413
0.05452597 -0.11613312 -0.049133815 -0.199046 -0.05922957 0.641016 0.2130628 -0.1723919
0.39680934 -0.07677268 0.082714275 -0.01652649 0.110243805 0.12592533 -0.29465073 0.060773227
-0.4027606 -0.09812487 -0.117716484 -0.021345245 -0.21051387 -0.0012790989 -0.19091143 0.31641647
-0.16826172 0.20804691 -0.2139478 0.17126499 0.7312421 -0.061250836 0.65358555 -0.27353474
-0.2559926 -0.2656834 -0.22838292 -0.030716978 0.49918148 0.2787552 0.022217488 -0.11456791
0.08626678 -0.31018803 -0.4942954 -0.100565575 -0.30993637 0.33849436 0.4723562 -0.043054122
0.07191454 -0.17487729 -0.38980916 0.25323886 -0.18244043 -0.27304986 0.09525852 0.015723128
-0.48484397 0.073121235 0.42888257 0.014956956 -0.2893794 -0.11845435 -0.41389197 0.059771758
-0.078357615 0.38388258 0.2862308 0.628003 -0.23856492 0.44146693 -0.08630948 -0.02432099
-0.29523814 0.3004924 -0.018974043 -0.048624545 -0.41913143 -1.1233473 0.32366148 -0.06577781
0.032981597 0.015847407 -0.20189264 -0.11382181 0.19067672 0.29357326 -0.17031893 0.36705592
-0.12856911 -0.35079226 -0.05583553 0.042096656 0.30882484 -0.046510234 0.27064013 0.7496629
00000000: e896 88bd f51b e9be 0044 b93e e836 66be
00000010: da73 193e a7a3 993e 6d6b e43d 7429 ae3d
00000020: 898f 7a3d af2f b53e 01f3 303e 4719 bdbd
00000030: fc9b 22be 0d40 a43e 9e81 6cbe e09d abbe
00000040: 7cb2 a23e 54cb ab3d 43ce 48bd 90a5 2b3e
00000050: cb8c 99be 8e97 2b3f a8f3 463f 4758 cbbc
00000060: 9288 363c 3637 65be a737 8f3d 1a2c 953e
00000070: 2fbb 8a3e 5e57 ad3d e1da 4abd 2d48 d83e
00000080: ccc1 0c3f e412 c73e 53e3 433d 6247 55be
00000090: 4c06 fcbd 5ee7 a9be 2495 abbd e65a dcbb
000000a0: d5f0 53be fa25 fd3d bd42 8a3d 08be e2bd
000000b0: acb5 35be a07b bfbc ba4b 5abf cd76 173e
000000c0: a056 5f3d 34d7 edbd 8a40 49bd b7d2 4bbe
000000d0: b59a 72bd a019 243f 222d 5a3e 8187 30be
000000e0: 982a cb3e ff3a 9dbd 1a66 a93d 9062 87bc
000000f0: 81c7 e13d 92f2 003e 76dc 96be 59ed 783d
00000100: a336 cebe b1f5 c8bd 5715 f1bd 39dc aebc
00000110: f390 57be 70a7 a7ba 497e 43be 5701 a23e
00000120: cd4c 2cbe 400a 553e 2215 5bbe 1760 2f3e
00000130: af32 3b3f 28e2 7abd 6251 273f bf0c 8cbe
00000140: 7611 83be a807 88be 36dd 69be 2ca2 fbbc
00000150: b794 ff3e 00b9 8e3e 7301 b63c 95a2 eabd
00000160: a3ac b03d f7d0 9ebe 4914 fdbe 53f5 cdbd
00000170: fbaf 9ebe 224f ad3e acd8 f13e 8559 30bd
00000180: ee47 933d 0813 33be 1195 c7be 86a8 813e
00000190: aad1 3abe 31cd 8bbe e616 c33d cacd 803c
000001a0: 783d f8be 96c0 953d 7f96 db3e 050e 753c
000001b0: 8929 94be 3298 f2bd a6e9 d3be 3bd3 743d
000001c0: f579 a0bd 428c c43e d88c 923e cec4 203f
000001d0: 5d4a 74be f407 e23e 06c3 b0bd d03c c7bc
000001e0: 7429 97be 24da 993e 746f 9bbc 882a 47bd
000001f0: 6598 d6be d8c9 8fbf f5b6 a53e 84b6 86bd
00000200: b617 073d 6cd2 813c f2bc 4ebe 691b e9bd
00000210: c240 433e 3c4f 963e 1668 2ebe c1ee bb3e
00000220: 9fa7 03be 0b9b b3be ccb3 64bd 8b6d 2c3d
00000230: 4a1e 9e3e 8481 3ebd 5891 8a3e e8e9 3f3f

player_tree_1.W.bias f4 [12]
-0.013541558 -0.014177053 -0.0045967377 -0.0027251868 -0.0028462373 -0.007048044 -0.0111863585 -0.012868827
-0.012145247 -0.016948298 -0.017411834 -0.015519618
00000000: 69dd 5dbc df46 68bc 3ba0 96bb 0c99 32bb
00000010: f087 3abb 47f3 e6bb fd46 37bc c6d7 52bc
00000020: dcfc 46bc 28d7 8abc 43a3 8ebc ff45 7ebc

player_tree_1.W_self.weight f4 [12, 12]
-0.13538377 0.1449587 0.6184648 -0.22404191 0.70372224 -0.05608261 -0.19259125 -0.19606772
-0.007716012 0.4703623 0.1756553 0.0046649883 0.40866104 -0.1046478 -0.06422737 -0.074719384
-0.18516126 -0.43470305 0.23545301 0.5653939 0.13673274 0.07949522 0.2588983 -0.037785076
0.17030886 0.27214557 0.08164641 -0.14673904 0.036813665 0.0552449 -0.4552848 0.9854658
0.35890603 0.2810135 -0.15875061 0.20513336 -0.22495903 -0.03428728 -0.38724118 0.08175454
0.47508237 0.102712885 -0.5680434 0.09400214 0.079100266 -0.25011632 0.08282112 -0.30302152
0.441749 0.24202512 0.009730531 0.5830738 0.23638819 -0.25301152 -0.16015184 0.29001695
-0.18866006 -0.092828825 -0.10053257 -0.044237543 -0.2771594 -0.46284774 -0.27887607 -0.3249575
0.0047052493 -0.3228694 -0.5954257 -0.08700111 -0.31566662 0.51588243 -0.4532766 0.1739933
0.5134246 -0.09435827 -0.27745676 -0.1053425 0.2110292 0.014087933 0.32609683 0.0005277588
0.23148453 0.7389781 -0.12023435 0.2026423 0.021404652 0.1737376 0.16010448 -0.26405224
0.36749431 0.31769502 0.097710714 -0.37260863 -0.06671505 -0.06656798 0.47757322 -0.60234576
0.3117924 0.14532687 -0.042693693 -0.25579694 -0.21004461 0.3356465 0.41195357 0.09403113
0.29704642 -0.21438746 0.29441902 0.32674044 -0.01663455 0.21885942 -0.12936613 -0.40709153
-0.16207188 -0.009165898 0.22421773 -0.15635556 -0.28028843 -0.14436439 -0.11549012 -0.12507002
0.001688695 0.2123836 -0.12507924 0.66256356 -0.041796196 -0.5595376 -0.5511391 -0.15253364
0.14533135 0.25331023 -0.2918354 -0.37005118 -0.43649283 -0.6260374 0.44162557 -0.15579127
-0.5513216 -0.17004439 0.044775046 -0.19703883 0.19876997 -0.17409925 -0.2742498 -0.7163898
00000000: 0ba2 0abe 0e70 143e b653 1e3f 3e6b 65be
00000010: 2427 343f e1b6 65bd a436 45be fac5 48be
00000020: 9ad6 fcbb 54d3 f03e fcde 333e c2dc 983b
00000030: 053c d13e 9651 d6bd a489 83bd 7a06 99bd
00000040: ea9a 3dbe 6691 debe 981a 713e a8bd 103f
00000050: ab03 0c3e 64ce a23d 518e 843e 86c4 1abd
00000060: 7265 2e3e aa56 8b3e 3c36 a73d c242 16be
00000070: edc9 163d 7a48 623d 171b e9be 7d47 7c3f
00000080: 88c2 b73e 00e1 8f3e 858f 22be 7b0e 523e
00000090: a95b 66be d270 0cbd 7a44 c6be ed6e a73d
000000a0: ff3d f33e 225b d23d 4b6b 11bf 3284 c03d
000000b0: 52ff a13d 3f0f 80be 1f9e a93d a325 9bbe
000000c0: ed2c e23e 6fd5 773e ce6c 1f3c 5344 153f
000000d0: bf0f 723e ba8a 81be d8fe 23be 1a7d 943e
000000e0: 1a30 41be 0a1d bebd 05e4 cdbd 6d32 35bd
000000f0: d6e7 8dbe 61fa ecbe d8c8 8ebe d460 a6be
00000100: 7e2e 9a3b 234f a5be d26d 18bf a32d b2bd
00000110: 0e9f a1be df10 043f df13 e8be 4d2b 323e
00000120: cb6f 033f e93e c1bd d00e 8ebe cfbd d7bd
00000130: 0a18 583e 13d1 663c 2af6 a63e 4b59 0a3a
00000140: 480a 6d3e ab2d 3d3f 6d3d f6bd 7781 4f3e
00000150: cf58 af3c 45e8 313e 6ef2 233e db31 87be
00000160: 3728 bc3e eca8 a23e 8e1c c83d 8fc6 bebe
00000170: e6a1 88bd cb54 88bd 7a84 f43e 5533 1abf
00000180: 41a3 9f3e 91d0 143e 95df 2ebd d1f7 82be
00000190: ef15 57be dcd9 ab3e 94eb d23e 6593 c03d
000001a0: 7816 983e 6388 5bbe 17be 963e 864a a73e
000001b0: 2e45 88bc af1c 603e 8e78 04be 4d6e d0be
000001c0: 2cf6 25be 902c 16bc 5599 653e ac1b 20be
000001d0: f781 8fbe 42d4 13be 1686 ecbd 5b12 00be
000001e0: 3457 dd3a 167b 593e c614 00be c49d 293f
000001f0: 7d32 2bbd db3d 0fbf 7417 0dbf c731 1cbe
00000200: bed1 143e e1b1 813e 736b 95be 5977 bdbe
00000210: fd7b dfbe fd43 20bf bf1c e23e bf87 1fbe
00000220: 6a23 0dbf 1e20 2ebe 0a66 373d 8cc4 49be
00000230: 5b8a 4b3e 1347 32be 786a 8cbe 5265 37bf

player_tree_1.W_self.bias f4 [12]
-0.013541558 -0.014177053 -0.0045967377 -0.0027251868 -0.0028462373 -0.007048044 -0.0111863585 -0.012868827
-0.012145247 -0.016948298 -0.017411834 -0.015519618
00000000: 69dd 5dbc df46 68bc 3ba0 96bb 0c99 32bb
00000010: f087 3abb 47f3 e6bb fd46 37bc c6d7 52bc
00000020: dcfc 46bc 28d7 8abc 43a3 8ebc ff45 7ebc

player_tree_2.W.weight f4 [12, 12]
0.42645502 0.3011489 -0.1843235 -0.38851446 -0.4029086 0.6836932 -0.22410822 -0.56453663
-0.30956212 0.021501083 -0.0038492333 0.3601374 0.22687656 0.1549244 0.3791119 -0.18574871
-0.31510246 -0.34477296 0.15594545 0.26911202 0.4760083 0.4443497 -0.21758255 -0.8041625
-0.13967958 0.32598543 -0.14564946 0.06723691 0.49726087 0.069069184 -0.0919397 0.0070641157
0.054815922 0.21772856 0.16798255 0.94546854 0.0027674958 0.6440995 0.14683235 -0.1677567
-0.23803313 -0.13969491 -0.31449774 -0.08586578 0.09109654 -0.072131045 0.10644019 0.12461729
-0.044520646 -0.26842132 -0.06676575 -0.29696745 -0.1429053 0.6844628 -0.024662469 0.063740216
0.33141455 0.6443664 0.11306312 0.23414895 0.29655817 -0.18779823 -0.17272827 -0.07056733
-0.30948272 0.47192731 0.2742907 0.29285842 -0.04675753 0.034812134 0.18386544 -0.34366453
0.23123333 -0.124661855 -0.355023 -0.14661554 -0.19801372 0.7226955 0.26849326 -0.06362165
0.022678053 0.18098754 0.2554544 -0.20355241 0.15506773 0.08378651 0.5713036 -0.3033168
0.26442683 0.21870606 -0.0062296228 0.27808794 0.27450126 -0.099702574 0.09611945 -0.14769481
0.23715954 0.34022322 0.33828726 0.109299846 -0.3302265 0.22246613 0.14513437 0.12548383
0.49503854 0.36193064 -0.07192549 -0.10306895 0.24154104 0.31970263 0.3330112 -0.06136683
-0.29764104 -0.2952742 0.30448356 -0.012262507 -0.61724937 -0.5252703 -0.013849905 -0.13550323
-0.2641815 0.28044683 0.28808448 0.40051547 -0.19164617 0.5031974 -0.38912973 0.050974697
-0.35614708 -0.26262635 -0.09254874 -0.10798499 -0.3614211 0.16950315 0.08720017 0.15682805
0.020992143 -0.25079885 0.2851968 0.13660972 0.20262226 -0.38976556 -0.11204529 -0.22447094
00000000: 5058 da3e 3030 9a3e 4dbf 3cbe 5eeb c6be
00000010: 094a cebe 8406 2f3f a07c 65be 7985 10bf
00000020: ed7e 9ebe 0a23 b03c 6b43 7cbb ee63 b83e
00000030: 5452 683e 80a4 1e3e f41a c23e e934 3ebe
00000040: 1c55 a1be 1586 b0be 2ab0 1f3e 0dc9 893e
00000050: 5cb7 f33e ce81 e33e f6cd 5ebe 98dd 4dbf
00000060: 2a08 0fbe 90e7 a63e 2225 15be 81b3 893d
00000070: fa98 fe3e 2574 8d3d e24a bcbd 197a e73b
00000080: a986 603d 3cf4 5e3e 9e03 2c3e 3a0a 723f
00000090: e05e 353b b4e3 243f 385b 163e 6ac8 2bbe
000000a0: f5be 73be 2f0c 0fbe d905 a1be 66da afbd
000000b0: d390 ba3d 71b9 93bd 50fd d93d 5a37 ff3d
000000c0: 485b 36bd 856e 89be 7bbc 88bd 1e0c 98be
000000d0: c455 12be f438 2f3f f208 cabc 3b8a 823d
000000e0: 2baf a93e 32f5 243f a38d e73d bec4 6f3e
000000f0: 79d6 973e 2e4e 40be aedf 30be 9b85 90bd
00000100: 8574 9ebe 75a0 f13e d56f 8c3e 8af1 953e
00000110: d384 3fbd 2b97 0e3d 3947 3c3e ccf4 afbe
00000120: 6ec8 6c3e b74e ffbd 93c5 b5be 6222 16be
00000130: 1cc4 4abe 9302 393f f377 893e 114c 82bd
00000140: 53c7 b93c cc54 393e ebca 823e 0b70 50be
00000150: 13ca 1e3e 4398 ab3d f440 123f 574c 9bbe
00000160: f462 873e 7bf4 5f3e dd21 ccbb 8b61 8e3e
00000170: 6e8b 8c3e dd30 ccbd 46da c43d 4f3d 17be
00000180: f3d9 723e bd31 ae3e fd33 ad3e 99d8 df3d
00000190: 7313 a9be 29ce 633e 1b9e 143e d57e 003e
000001a0: b175 fd3e f94e b93e ac4d 93bd d015 d3bd
000001b0: 8956 773e 10b0 a33e 7280 aa3e c95b 7bbd
000001c0: 6864 98be 2e2e 97be 45e5 9b3e afe8 48bc
000001d0: 0e04 1ebf 1d78 06bf b6ea 62bc 5cc1 0abe
000001e0: cc42 87be ba96 8f3e cf7f 933e 5d10 cd3e
000001f0: e53e 44be 8bd1 003f 033c c7be d8ca 503d
00000200: e958 b6be f676 86be 328a bdbd 3c27 ddbd
00000210: 300c b9be 3c92 2d3e 0196 b23d 8897 203e
00000220: b7f7 ab3c b568 80be 5105 923e 6be3 0b3e
00000230: 367c 4f3e 5a8f c7be 0078 e5bd b6db 65be

player_tree_2.W.bias f4 [12]
-0.04941076 -0.005835127 -0.011867486 -0.01248092 -0.010771189 -0.011682229 -0.007048886 -0.0079921475
-0.017168926 -0.0044269855 -0.02719328 -0.022817364
00000000: f062 4abd 9834 bfbb d86f 42bc c67c 4cbc
00000010: a479 30bc d266 3fbc 57fa e6bb 7ff1 02bc
00000020: d9a5 8cbc 3f10 91bb 71c4 debc 7beb babc

player_tree_2.W_self.weight f4 [12, 12]
-0.1774508 -0.0062336647 0.07970186 -0.2151141 0.23848271 -0.35652682 -0.21601315 -0.46182752
-0.37699437 0.26483452 0.085502915 -0.14824489 -0.45191363 -0.26881665 0.1045425 0.21097113
-0.44209924 -0.5005278 -0.29055288 0.7031287 -0.16400349 -0.015582213 0.10944948 0.021681888
-0.41440025 0.464525 -0.41161266 -0.030535644 0.08668503 0.4126229 0.1856051 -0.008039788
0.41382775 0.27323943 -0.22121356 -0.34307426 0.47153014 0.1546032 0.618197 0.23763122
0.04678231 0.21863349 0.48055363 -0.20956877 0.6579351 -0.1321315 -0.40123406 -0.1519133
0.5441716 0.13683866 -0.29859316 0.106278315 -0.08838887 0.52950114 0.09427645 -0.065775156
0.36310172 0.033885676 -0.17691736 0.058681354 0.03360333 0.2703872 0.10870695 0.051540542
0.36459428 0.43973744 -0.5747393 0.22250707 0.24147207 0.05079436 0.4321019 0.55012316
-0.07739473 0.3318613 0.14917465 -0.67513126 0.5881294 0.07503756 0.36778536 -0.0027792326
0.16543625 -0.26438382 0.337359 0.14028805 -0.031606566 -0.3142009 0.24980044 0.2073392
0.18317372 -0.0027798763 0.20887138 0.61649656 -0.44409353 0.12673973 0.058791928 0.24362935
0.03786473 0.2728847 -0.5185038 0.5481703 -0.1792559 -0.44108346 -0.3868262 -0.109956555
0.44598547 0.36354506 -0.0412372 -0.33627576 -0.49066913 -0.030420342 -0.4104106 0.034489166
-0.054268673 -0.2737739 -0.47264007 0.16189708 -0.29942945 0.302709 0.22039208 -0.05851504
-0.0121900495 -0.16433655 -0.37230223 0.40271991 0.19983512 -0.09609996 -0.21223857 0.19205137
-0.58988166 -0.107187346 -0.19796765 -0.038262896 0.09490647 -0.06671341 -0.40998927 0.27827245
-0.69281226 0.066254415 0.085889034 -0.28201106 -0.41341045 -0.21966165 0.13946421 -0.020940725
00000000: aab5 35be c543 ccbb bb3a a33d df46 5cbe
00000010: d034 743e af8a b6be 8d32 5dbe a874 ecbe
00000020: 6805 c1be 6498 873e 271c af3d 82cd 17be
00000030: 3961 e7be 56a2 89be 611a d63d d108 583e
00000040: d55a e2be 9722 00bf 59c3 94be 3e00 343f
00000050: 88f0 27be 8a4c 7fbc 0d27 e03d 379e b13c
00000060: 452c d4be 39d6 ed3e e5be d2be e325 fabc
00000070: ec87 b13d 4f43 d33e 430f 3e3e 51b9 03bc
00000080: 3be1 d33e 0ae6 8b3e cf85 62be 6ea7 afbe
00000090: 666c f13e 4d50 1e3e 2942 1e3f 9955 733e
000000a0: cf9e 3f3d 75e1 5f3e 200b f63e 3299 56be
000000b0: 6f6e 283f 7b4d 07be 8d6e cdbe 298f 1bbe
000000c0: d44e 0b3f 6f1f 0c3e 34e1 98be 72a8 d93d
000000d0: 3905 b5bd 638d 073f 0314 c13d 20b5 86bd
000000e0: 78e8 b93e b5cb 0a3d d329 35be dc5b 703d
000000f0: a5a3 093d 3170 8a3e c0a1 de3d 2d1c 533d
00000100: 1aac ba3e 4425 e13e 1d22 13bf e5d8 633e
00000110: 7444 773e bf0d 503d 763c dd3e dfd4 0c3f
00000120: 2181 9ebd b9e9 a93e 3dc1 183e 67d5 2cbf
00000130: a68f 163f 4bad 993d 5d4e bc3e c923 36bb
00000140: 1f68 293e 515d 87be 52ba ac3e aca7 0f3e
00000150: e375 01bd f1de a0be b0cb 7f3e ba50 543e
00000160: e491 3b3e 962e 36bb 61e2 553e b8d2 1d3f
00000170: 3a60 e3be 0fc8 013e cecf 703d f979 793e
00000180: 0c18 1b3d 8bb7 8b3e aabc 04bf e454 0c3f
00000190: dc8e 37be b1d5 e1be 150e c6be e730 e1bd
000001a0: 3558 e43e 9422 ba3e 57e8 28bd 562c acbe
000001b0: fc38 fbbe 1534 f9bc 5721 d2be 8344 0d3d
000001c0: d448 5ebd 182c 8cbe e1fd f1be 59c8 253e
000001d0: d14e 99be adfc 9a3e 76ae 613e 77ad 6fbd
000001e0: c6b8 47bc d747 28be 669e bebe 4e31 ce3e
000001f0: 94a1 4c3e 0ed0 c4bd 1155 59be 1da9 443e
00000200: 7c02 17bf 0a85 dbbd 08b8 4abe 8eb9 1cbd
00000210: 535e c23d 0aa1 88bd 1dea d1be ba79 8e3e
00000220: 255c 31bf 65b0 873d 97e6 af3d c163 90be
00000230: 89aa d3be fcee 60be b5cf 0e3e e28b abbc

player_tree_2.W_self.bias f4 [12]
-0.04941076 -0.005835127 -0.011867486 -0.01248092 -0.010771189 -0.011682229 -0.007048886 -0.0079921475
-0.017168926 -0.0044269855 -0.02719328 -0.022817364
00000000: f062 4abd 9834 bfbb d86f 42bc c67c 4cbc
00000010: a479 30bc d266 3fbc 57fa e6bb 7ff1 02bc
00000020: d9a5 8cbc 3f10 91bb 71c4 debc 7beb babc

player_tree_3.W.weight f4 [12, 12]
0.18983445 -0.7650933 -0.0827849 0.05376636 -0.120879695 -0.06773068 -0.04989901 -0.18130657
0.09601713 0.009846452 0.22947785 -0.044743992 0.08622292 0.29111612 0.4555354 -0.19596113
0.075431466 -0.0788475 0.013313648 -0.14597316 0.031012481 0.4611893 -0.044334013 0.41941425
0.0776267 0.3653086 0.085854165 0.18236999 0.26449543 0.2884053 -0.11861225 0.5488824
0.1835374 -0.4974509 -0.040058617 0.0422479 -0.26741642 -0.032448515 0.014561961 -0.12966171
-0.0035966588 0.1820705 0.0031254783 0.31969127 -0.00668069 -0.31222966 0.59536827 -0.2120597
-0.18120681 -0.03858388 0.24659334 -0.14702429 0.25439942 -0.20283951 0.23917761 0.0033489827
0.3439362 0.021731641 -0.02455684 0.16720325 -0.14330491 0.49349135 -0.067242436 -0.24260662
0.32219687 -0.22734 -0.326756 -0.61730117 -0.40514335 0.11447766 -0.042863913 0.11605014
-0.21415293 -0.08007354 -0.087566204 0.0032396556 -0.27777296 0.10914983 0.57155144 0.06387769
0.41782233 -0.4016571 0.2589332 0.14044996 -0.20707987 0.01827306 0.06743631 -0.038450155
-0.06576874 0.015332481 0.31568623 -0.21462986 -0.32524285 0.06222469 -0.16804928 0.12986681
0.02526972 0.07491848 0.072810285 0.080887415 -0.18956946 0.19901918 0.73433816 0.082165554
0.06741832 -0.11942211 -0.026982052 -0.07637377 -0.009204614 0.43350992 0.48814854 0.281402
0.89443225 0.2870892 0.10431268 0.15357584 -0.058948297 0.6236268 -0.15460289 0.1471612
0.22018547 0.024743497 -0.4892096 -0.28603175 0.052142024 -0.14272347 0.13834202 -0.33493778
0.10716027 -0.21962948 0.5354912 0.34836727 -0.45299417 0.100261524 0.30964005 0.0037186549
0.34352005 0.2187461 -0.57045805 0.20927815 -0.033541996 0.27209923 -0.017768756 -0.6456162
00000000: f663 423e 28dd 43bf 218b a9bd 1d3a 5c3d
00000010: c68f f7bd 62b6 8abd e862 4cbd 6ea8 39be
00000020: a1a4 c43d 0353 213c 3efc 6a3e 7a45 37bd
00000030: a495 b03d 2c0d 953e f03b e93e 09aa 48be
00000040: d07b 9a3d cc7a a1bd 7d21 5a3c fd79 15be
00000050: e30d fe3c 0121 ec3e 9597 35bd 77bd d63e
00000060: bffa 9e3d bb09 bb3e 4fd4 af3d 33bf 3a3e
00000070: f26b 873e dca9 933e fbea f2bd 8f83 0c3f
00000080: 3af1 3b3e e2b1 febe 8114 24bd 220c 2d3d
00000090: ceea 88be bce8 04bd 4b95 6e3c 0ac6 04be
000000a0: ecb5 6bbb b070 3a3e d3d4 4c3b 93ae a33e
000000b0: b1e9 dabb 91dc 9fbe 0e6a 183f 2e26 59be
000000c0: 478e 39be 210a 1ebd f782 7c3e 898d 16be
000000d0: a440 823e 29b5 4fbe faea 743e 9b7a 5b3b
000000e0: 6818 b03e 8e06 b23c 6d2b c9bc 5437 2b3e
000000f0: 86be 12be e6aa fc3e 67b6 89bd df6d 78be
00000100: fdf6 a43e d1cb 68be 904c a7be 7307 1ebf
00000110: f36e cfbe 4373 ea3d 1292 2fbd b2ab ed3d
00000120: e84a 5bbe 99fd a3bd e955 b3bd 6750 543b
00000130: 4238 8ebe f289 df3d 3251 123f 4ed2 823d
00000140: cfec d53e 00a6 cdbe e492 843e 1dd2 0f3e
00000150: bf0c 54be 62b1 953c 0c1c 8a3d e97d 1dbd
00000160: c3b1 86bd 1635 7b3c a0a1 a13e eec7 5bbe
00000170: 3b86 a6be 51df 7e3d 1c15 2cbe cefb 043e
00000180: 7202 cf3c dc6e 993d 8f1d 953d 4da8 a53d
00000190: 7f1e 42be afcb 4b3e 96fd 3b3f 6a46 a83d
000001a0: 9e12 8a3d 9493 f4bd 7709 ddbc da69 9cbd
000001b0: f3ce 16bc 03f5 dd3e 9bee f93e ec13 903e
000001c0: 83f9 643f 5bfd 923e e3a1 d53d fc42 1d3e
000001d0: c573 71bd 02a6 1f3f 3850 1ebe 6db1 163e
000001e0: 4d78 613e e0b2 ca3c ae79 fabe c172 92be
000001f0: e092 553d 1a26 12be 88a9 0d3e f77c abbe
00000200: d876 db3d 8de6 60be f415 093f 325d b23e
00000210: daee e7be ea55 cd3d 2489 9e3e adb4 733b
00000220: dce1 af3e fafe 5f3e 8a09 12bf 034d 563e
00000230: 5563 09bd 9750 8b3e c88f 91bc 1a47 25bf

player_tree_3.W.bias f4 [12]
-0.006182362 -0.022002857 -0.010916231 -0.008977977 -0.010603349 -0.043917228 -0.041572824 -0.09773961
-0.009245184 -0.013557964 -0.013707003 -0.0081683295
00000000: 6995 cabb 563f b4bc fed9 32bc 5d18 13bc
00000010: abb9 2dbc 8de2 33bd 4448 2abd b42b c8bd
00000020: 1d79 17bc 3922 5ebc 5693 60bc 75d4 05bc

player_tree_3.W_self.weight f4 [12, 12]
-0.20086573 -0.2258528 -0.07569215 -0.059418056 0.48852673 0.29084468 0.4433496 0.36708745
0.047427673 0.14841521 0.057804402 -0.34996158 -0.3532585 -0.030627605 -0.044399828 -0.061898857
-0.06343162 -0.13533029 -0.14467782 -0.07716986 -0.35550427 -0.0469567 0.17900847 -0.3803959
-0.2302382 0.3880712 0.30074245 0.3148917 0.38877058 -0.03905286 -0.09406415 0.33346266
0.275275 -0.13659799 0.4177066 -0.08117333 -0.7672557 0.022879003 0.055569816 0.3756663
-0.13882719 -0.2963851 -0.30883536 0.6043839 -0.02401828 -0.41802296 0.16373196 -0.56477886
-0.2007999 -0.20199576 -0.2090437 0.45200092 0.7147389 0.41837102 -0.0033032235 0.16675955
-0.17206386 -0.2815791 0.31115448 0.1615036 0.30449298 0.11449833 0.37984747 0.35023874
-0.015202787 -0.23776187 0.13190617 -0.14841834 -0.2653286 -0.1466558 -0.045730222 -0.5048268
0.20449673 -0.8072013 -0.16660325 -0.14249757 0.19875124 -0.14306034 0.13955295 0.1501127
0.06916131 -0.0047703874 0.016000442 -0.03694907 0.112994656 -0.21311705 0.15818024 0.25740975
0.2457502 0.64197904 0.008912792 -0.6639257 -0.064666845 -0.103065796 -0.08306831 -0.36841825
-0.88059306 0.19126411 -0.18173638 0.39259553 0.20282646 0.6112615 -0.4657479 0.38864833
0.09112751 0.17982371 -0.60797423 0.0055347774 -0.0023266133 0.28746685 0.48701838 -0.09203302
0.2662651 -0.011135998 0.37739873 -0.34210125 0.29707536 -0.10802788 0.48138243 -0.50389093
-0.11704337 -0.08533667 -0.04409331 -0.0023814335 -0.09284436 -0.10527495 -0.4832211 0.3486339
0.011019811 0.49172378 0.07717103 -0.17788865 0.13354519 -0.36164367 0.27836332 0.4408478
0.049906924 0.45566776 0.19135831 -0.010340596 0.120922714 0.6410014 0.015423753 -0.26768038
00000000: bfaf 4dbe f545 67be 7c04 9bbd 5960 73bd
00000010: 2d20 fa3e 98e9 943e b8fe e23e e3f2 bb3e
00000020: 8543 423d 28fa 173e 4fc4 6c3d 2a2e b3be
00000030: 4cde b4be bee6 fabc 98dc 35bd a889 7dbd
00000040: 70e8 81bd 0694 0abe 6c26 14be 3b0b 9ebd
00000050: a804 b6be ab55 40bd ff4d 373e 40c3 c2be
00000060: 90c3 6bbe 45b1 c63e eafa 993e 7c39 a13e
00000070: f00c c73e e4f5 1fbd b4a4 c0bd 9ebb aa3e
00000080: d8f0 8c3e 58e0 0bbe a4dd d53e 343e a6bd
00000090: df6a 44bf bf6c bb3c 2d9d 633d 5557 c03e
000000a0: b728 0ebe cabf 97be ab1f 9ebe e7b8 1a3f
000000b0: fcc1 c4bc 1b07 d6be 5aa9 273e 5995 10bf
000000c0: 7d9e 4dbe fad7 4ebe 8d0f 56be aa6c e73e
000000d0: 21f9 363f ba34 d63e e57a 58bb 04c3 2a3e
000000e0: 8231 30be 232b 90be a44f 9f3e 3361 253e
000000f0: 81e6 9b3e 1a7e ea3d 5e7b c23e 7e52 b33e
00000100: 1c15 79bc d977 73be 6912 073e fafa 17be
00000110: 26d9 87be f02c 16be 9d4f 3bbd 543c 01bf
00000120: 9767 513e bfa4 4ebf 0b9a 2abe e2ea 11be
00000130: 7285 4b3e 697e 12be f8e6 0e3e 25b7 193e
00000140: 72a4 8d3d e950 9cbb 5c13 833c e857 17bd
00000150: be69 e73d 5b3b 5abe 00fa 213e 36cb 833e
00000160: f1a5 7b3e bd58 243f f606 123c 09f7 29bf
00000170: 0d70 84bd 2914 d3bd b81f aabd 51a1 bcbe
00000180: 8c6e 61bf bdda 433e 1a19 3abe 4802 c93e
00000190: bdb1 4f3e a27b 1c3f 8276 eebe eafc c63e
000001a0: 0fa1 ba3d b523 383e 33a4 1bbf 145d b53b
000001b0: 187a 18bb db2e 933e 795a f93e cf7b bcbd
000001c0: e653 883e c373 36bc 683a c13e e527 afbe
000001d0: 431a 983e b93d ddbd c277 f63e fffe 00bf
000001e0: 6fb4 efbd fec4 aebd 309b 34bd d311 1cbb
000001f0: 2f25 bebd 659a d7bd c268 f7be 2480 b23e
00000200: 708c 343c 38c3 fb3e d80b 9e3d 7128 36be
00000210: 12c0 083e 5c29 b9be a385 8e3e ceb6 e13e
00000220: 346b 4c3d 494d e93e 6ff3 433e 9a6b 29bc
00000230: 54a6 f73d ab18 243f e9b3 7c3c 670d 89be

player_tree_3.W_self.bias f4 [12]
-0.006182362 -0.022002857 -0.010916231 -0.008977977 -0.010603349 -0.043917228 -0.041572824 -0.09773961
-0.009245184 -0.013557964 -0.013707003 -0.0081683295
00000000: 6995 cabb 563f b4bc fed9 32bc 5d18 13bc
00000010: abb9 2dbc 8de2 33bd 4448 2abd b42b c8bd
00000020: 1d79 17bc 3922 5ebc 5693 60bc 75d4 05bc

player_tree_4.weight f4 [8, 12]
0.3012147 -0.17524625 0.091774106 0.1779207 -0.007799028 -0.26458806 -0.7440056 -0.28065416
0.3797327 0.12858647 -0.1138325 1.0103631 0.18913066 0.24120958 0.29346773 0.22729784
0.110648595 0.063573055 -0.7155775 -0.16355546 0.1627779 -0.16614473 -0.043955408 0.59823537
-0.020363385 0.04991611 -0.65909845 0.4386699 -0.52638334 0.5083009 0.43641004 -0.3886459
0.5421358 -0.08212136 -0.13094732 -0.0066944375 0.08912255 0.016024021 -0.18674017 -0.40715614
-0.12485656 -0.1639799 -0.21943124 0.29604444 -0.26348028 -0.38911903 0.025072196 0.1956709
-0.0014640394 0.10954484 0.39952317 0.22072817 -0.36949798 -0.23345801 -0.23534006 0.30144283
0.035430353 -0.30023006 0.1033032 0.09167651 0.7721545 -0.36805898 0.47218356 -0.4804194
0.7106133 -0.13293032 -0.28634784 -0.3340393 0.4547357 0.6535322 0.18679756 -0.045334686
0.04618969 0.12547395 -0.1145887 0.24263158 0.42158392 0.21574637 0.21380027 0.16782264
-0.20677325 -0.008053279 -0.35370654 0.1374996 -0.10176453 -0.117228374 0.25318885 -0.27105594
-0.44027758 0.0028675061 0.17912665 0.42397958 -0.12177603 -0.31159663 -0.4535459 0.7320194
00000000: d038 9a3e c173 33be 10f4 bb3d d830 363e
00000010: fd8e ffbb 1678 87be 2777 3ebf e7b1 8fbe
00000020: 536c c23e 2cac 033e 0421 e9bd 9453 813f
00000030: 78ab 413e a5ff 763e 6741 963e c4c0 683e
00000040: bb9b e23d 9732 823d 1630 37bf 157b 27be
00000050: 40af 263e d821 2abe 960a 34bd f425 193f
00000060: 1dd1 a6bc d674 4c3d adba 28bf 5799 e03e
00000070: 0fc1 06bf 0220 023f 2371 df3e 98fc c6be
00000080: 69c9 0a3f 3e2f a8bd 0e17 06be 035d dbbb
00000090: e285 b63d cf44 833c d138 3fbe c576 d0be
000000a0: ccb4 ffbd 59ea 27be 95b2 60be 2393 973e
000000b0: e3e6 86be 9c3a c7be 3564 cd3c f45d 483e
000000c0: 03e5 bfba 0c59 e03d 4d8e cc3e 9106 623e
000000d0: d72e bdbe 9e0f 6fbe fcfc 70be b756 9a3e
000000e0: 6b1f 113d c1b7 99be a190 d33d e5c0 bb3d
000000f0: ebab 453f 3a72 bcbe 0bc2 f13e 88f9 f5be
00000100: c1ea 353f e31e 08be 2f9c 92be 3307 abbe
00000110: 1ed3 e83e e34d 273f dc47 3f3e ddb0 39bd
00000120: 6631 3d3d 3e7c 003e 7bad eabd 6a74 783e
00000130: d9d9 d73e 9eec 5c3e 75ee 5a3e b3d9 2b3e
00000140: 5ebc 53be e6f1 03bc 0619 b5be b2cc 0c3e
00000150: ec69 d0bd 6e15 f0bd f8a1 813e d8c7 8abe
00000160: 106c e1be c5ec 3b3b fa6c 373e da13 d93e
00000170: b665 f9bd 9889 9fbe 2b37 e8be a065 3b3f

player_tree_4.bias f4 [8]
-0.006644893 0.0048327595 0.00980799 0.004853908 -0.028420711 -0.008580977 -0.025816754 -0.005417102
00000000: 67bd d9bb 205c 9e3b b1b1 203c 880d 9f3b
00000010: 8dd2 e8bc 3a97 0cbc a87d d3bc f281 b1bb

sun_influence_1.W.weight f4 [12, 12]
-0.48308787 -0.18946211 -0.34388858 0.26927593 -0.1453158 0.36846867 -0.3100316 0.020920012
0.17751262 -0.14671002 0.14748766 0.4236666 0.39868334 0.09835386 -0.3993018 0.17500186
0.1864821 -0.014886909 -0.00784412 0.2110599 0.49165413 -0.049921133 -0.38357776 0.13157752
-0.04908382 -0.5930983 0.40276256 -0.20159717 -0.28614372 -0.28754562 0.40133524 -0.1721343
-0.21214935 0.20016442 -0.89057916 -0.22271474 -0.18730044 0.3863688 -0.066729665 -0.026088698
0.2183582 0.05482835 -0.068685 0.15590945 -0.13222983 -0.29319087 0.124364376 -0.1396351
-0.33322793 -0.16646299 0.21215591 -0.2755558 0.23158745 0.34238875 -0.12249525 0.37806836
-0.26182076 0.18683775 0.050236084 -0.31145233 -0.07051572 0.32057053 -0.19839256 0.16327138
0.025399098 -0.58875203 -0.28180537 -0.09317929 -0.17996165 0.27967098 0.26736867 -0.33607084
-0.3740248 0.041722864 0.10700159 -0.25249243 -0.119588554 0.15387385 0.11301541 0.00963093
0.3706308 0.12228937 -0.002491794 0.40452036 0.055777 -0.6735841 0.13593173 0.269311
0.74436516 -0.017635716 -0.4702937 -0.17830181 0.047719795 -0.2586406 0.2762853 -0.49506605
-0.08592841 -0.28077462 0.36741483 -0.12823752 -0.24924624 -0.28849083 0.68613786 -0.48695767
0.031723518 0.18611145 0.0023951032 -0.035680227 0.10880005 0.096786715 0.16931331 0.15239878
-0.12389756 0.22133201 -0.22823614 0.34464285 -0.3360822 0.4605862 0.5211747 -0.36166438
0.3938951 -0.19853164 0.03758837 -0.10102265 0.1851582 0.3152875 -0.083153196 0.50080717
0.3206941 -0.024292909 0.061327517 -0.019700568 -0.06349293 0.20160872 0.16234387 0.0173429
0.44356707 0.056511153 -0.42052603 0.14032571 0.0060732537 0.25874126 -0.348164 -0.23286511
00000000: 4b57 f7be 5b02 42be 2a12 b0be 89de 893e
00000010: aacd 14be eda7 bc3e 76bc 9ebe 7260 ab3c
00000020: dec5 353e 273b 16be 0107 173e d4ea d83e
00000030: 3920 cc3e c06d c93d 4971 ccbe b033 333e
00000040: 2af5 3e3e 39e8 73bc a084 00bc 1620 583e
00000050: 17ba fb3e 1a7a 4cbd 4e64 c4be 42bc 063e
00000060: 1e0c 49bd 4ad5 17bf e536 ce3e 7d6f 4ebe
00000070: 6e81 92be 2e39 93be d07b cd3e f943 30be
00000080: ae3d 59be e7f7 4c3e fffc 63bf 550f 64be
00000090: b0cb 3fbe 22d2 c53e 90a9 88bd f7b7 d5bc
000000a0: 4b99 5f3e b193 603d b9aa 8cbd baa6 1f3e
000000b0: 4267 07be 1d1d 96be c0b2 fe3d 81fc 0ebe
000000c0: da9c aabe 4675 2abe 663f 593e a615 8dbe
000000d0: 4325 6d3e 944d af3e cade fabd 2d92 c13e
000000e0: 5f0d 86be 6552 3f3e 5ac4 4d3d ae76 9fbe
000000f0: 8c6a 90bd d221 a43e 6b27 4bbe 9d30 273e
00000100: c511 d03c 74b8 16bf cb48 90be c9d4 bebd
00000110: de47 38be 0931 8f3e 8ce4 883e 7a11 acbe
00000120: 2e80 bfbe 98e5 2a3d a623 db3d b046 81be
00000130: d8ea f4bd 1b91 1d3e a074 e73d 0ccb 1d3c
00000140: 52c3 bd3e d972 fa3d 5e4d 23bb 4b1d cf3e
00000150: 6c76 643d 0270 2cbf b031 0b3e 22e3 893e
00000160: b78e 3e3f c778 90bc 56ca f0be c094 36be
00000170: d575 433d 8a6c 84be 4475 8d3e 4c79 fdbe
00000180: 3cfb afbd b1c1 8fbe cc1d bc3e b250 03be
00000190: 683a 7fbe 12b5 93be bba6 2f3f 8452 f9be
000001a0: 85f0 013d 0094 3e3e 2af7 1c3b 6e25 12bd
000001b0: 90d2 de3d 1d38 c63d 7860 2d3e 6d0e 1c3e
000001c0: 01be fdbd dca4 623e bcb6 69be 0775 b03e
000001d0: f712 acbe f4d1 eb3e b56b 053f 132c b9be
000001e0: 9eac c93e e14b 4bbe 43f6 193d f7e4 cebd
000001f0: 1c9a 3d3e 5d6d a13e 394c aabd e634 003f
00000200: 0432 a43e ec01 c7bc 9032 7b3d 1663 a1bc
00000210: 9508 82bd 8472 4e3e 793d 263e b312 8e3c
00000220: 391b e33e 3d78 673d 304f d7be 8bb1 0f3e
00000230: 2502 c73b bc79 843e 8d42 b2be 3174 6ebe

sun_influence_1.W.bias f4 [12]
0.01236338 -0.006922233 0.005063003 -0.002106322 -0.007070977 -0.048197087 -0.061884698 0.0020028322
0.0014551063 -0.016588919 -0.004550199 -0.0038462938
00000000: c68f 4a3c e6d3 e2bb 8ce7 a53b 380a 0abb
00000010: a7b3 e7bb 4f6a 45bd cf7a 7dbd f341 033b
00000020: 44b9 be3a 7ce5 87bc d619 95bb 1a12 7cbb

sun_influence_1.W_self.weight f4 [12, 12]
-0.22599994 -0.29518571 -0.2511632 -0.1527988 -0.2588711 0.10001271 0.08500783 -0.073881306
0.25741822 0.19519465 0.016222969 -0.08781276 -0.4146685 -0.20252593 -0.48607582 0.847002
0.23879227 0.1718675 0.46268967 -0.11560626 -0.2078515 -0.28040078 0.031946253 -0.44667596
0.26913112 0.57831264 0.29883656 0.016420377 0.3427558 -0.15530455 -0.5471811 -0.4940296
0.2937585 -0.050290972 0.22862121 0.0901243 -0.3316153 0.22603598 -0.026442852 0.3138289
-0.27042997 -0.027995437 -0.049412087 0.28065243 0.43333948 -0.08391458 -0.14623615 0.6409525
-0.2190417 0.28772607 0.24800242 0.18741456 0.08049924 0.4996441 -0.013453734 0.21364276
0.55877966 0.27482265 -0.4638102 0.03999741 0.35914612 -0.11376833 0.030673435 -0.39965364
-0.20781076 0.20516853 0.16460474 0.32106093 -0.46715602 -0.060752254 0.21796532 -0.26474112
-0.21324652 0.38504905 -0.5099501 0.16355716 -0.30845997 0.12598148 0.20423193 -0.06817824
0.31268448 0.33922315 0.26131487 -0.09106578 -0.28798676 0.23371615 -0.24114911 0.053338677
-0.2185476 0.21768309 0.3862482 0.08758272 0.3336144 0.021356886 -0.16103587 0.24878731
-0.031075502 -0.18739578 0.64095265 0.17004581 0.032207113 0.058107186 -0.0917466 -0.2002691
-0.43766412 0.022243263 0.35351628 0.42582163 0.04144265 0.79328084 0.2233177 0.19781047
-0.43169388 -0.33919892 -0.0372666 0.28471306 -0.625476 -0.42508867 0.010475876 -0.386199
-0.0984758 -0.1300021 0.1419299 0.13080685 0.38273802 0.15185663 -0.34440336 0.44768548
-0.26126933 0.20123607 0.23561163 0.24632165 0.094430774 -0.2670471 -0.34113693 0.35498345
-0.28961906 -0.07770152 -0.39064667 -0.5124977 0.27204168 0.3266143 0.11562418 -0.032106698
00000000: 876c 67be 9522 97be 7798 80be 4a77 1cbe
00000010: c18a 84be 77d3 cc3d 9618 ae3d 154f 97bd
00000020: 52cc 833e 1be1 473e 08e6 843c 2dd7 b3bd
00000030: 6e4f d4be f562 4fbe eede f8be 20d5 583f
00000040: f685 743e 09fe 2f3e a9e5 ec3e fac2 ecbd
00000050: 06d7 54be b190 8fbe 13da 023d b6b2 e4be
00000060: 8ecb 893e 4c0c 143f 1b01 993e 0784 863c
00000070: b07d af3e 2808 1fbe 1014 0cbf 73f1 fcbe
00000080: 8467 963e e8fd 4dbd ae1b 6a3e 1793 b83d
00000090: 7bc9 a9be fa75 673e ae9e d8bc 2eae a03e
000000a0: cc75 8abe b056 e5bc 5464 4abd adb1 8f3e
000000b0: acde dd3e 68db abbd eebe 15be 7715 243f
000000c0: 784c 60be d550 933e 59f4 7d3e 9ae9 3f3e
000000d0: c9dc a43d 5ad1 ff3e 0d6d 5cbc 2bc5 5a3e
000000e0: 2f0c 0f3f 8eb5 8c3e 8878 edbe 53d4 233d
000000f0: 00e2 b73e 5fff e8bd db46 fb3c 679f ccbe
00000100: 58cc 54be b317 523e 258e 283e 1962 a43e
00000110: 132f efbe 5bd7 78bd 4d32 5f3e 268c 87be
00000120: 4c5d 5abe 2625 c53e 178c 02bf 877b 273e
00000130: 77ee 9dbe 4a01 013e 2d22 513e 08a1 8bbd
00000140: 2e18 a03e a8ae ad3e 10cb 853e b280 babd
00000150: 0073 93be 4953 6f3e cbef 76be a879 5a3d
00000160: f1ca 5fbe 51e8 5e3e 53c2 c53e 925e b33d
00000170: 82cf aa3e a3f4 ae3c 96e6 24be 1ac2 7e3e
00000180: 0d92 febc aee4 3fbe 7915 243f 7d20 2e3e
00000190: 9beb 033d cd01 6e3d a4e5 bbbd 5813 4dbe
000001a0: 8315 e0be 8137 b63c 1600 b53e 4b05 da3e
000001b0: c5bf 293d 7414 4b3f 65ad 643e d48e 4a3e
000001c0: fb06 ddbe 7bab adbe dda4 18bd e9c5 913e
000001d0: 321f 20bf 39a5 d9be 02a3 2b3c e0bb c5be
000001e0: aead c9bd 451f 05be 1256 113e 3bf2 053e
000001f0: 3df6 c33e 4e80 1b3e a355 b0be 0837 e53e
00000200: 18c5 85be d410 4e3e 2d44 713e be3b 7c3e
00000210: ec64 c13d 66ba 88be 80a9 aebe 64c0 b53e
00000220: f348 94be f921 9fbd d702 c8be 0d33 03bf
00000230: 0c49 8b3e fd39 a73e 5fcc ec3d 5082 03bd

sun_influence_1.W_self.bias f4 [12]
0.01236338 -0.006922233 0.005063003 -0.002106322 -0.007070977 -0.048197087 -0.061884698 0.0020028322
0.0014551063 -0.016588919 -0.004550199 -0.0038462938
00000000: c68f 4a3c e6d3 e2bb 8ce7 a53b 380a 0abb
00000010: a7b3 e7bb 4f6a 45bd cf7a 7dbd f341 033b
00000020: 44b9 be3a 7ce5 87bc d619 95bb 1a12 7cbb

sun_influence_2.W.weight f4 [12, 12]
-0.1208286 0.27726415 0.047932334 -0.0006466431 0.19827318 -0.07979713 -0.3114217 0.26289886
-0.10051879 0.29343918 -0.14325534 0.11413348 -0.12234127 0.746223 0.39021242 0.2537994
-0.13851236 0.5139922 0.38476822 -0.17222428 -0.01719651 -0.30390653 0.38505757 0.033856254
-0.24949192 0.2699222 -0.16284135 0.2760917 -0.23140693 -0.20336415 -0.15372695 0.10843106
0.7394199 0.006790475 0.111696444 -0.031120338 -0.34468618 -0.2984597 0.3241071 0.17769124
0.022412702 -0.36107504 0.30029756 -0.19459681 0.0770272 -0.031567965 0.046544004 -0.2875447
0.010929765 0.54259664 -0.3550367 -0.27016968 -0.28431633 -0.40748748 -0.27603254 -0.37968737
0.096730515 0.3170045 -0.23062481 -0.4293392 -0.16294955 -0.28985837 0.03598037 0.030827433
0.096549764 -0.6410077 -0.14681539 0.20374817 0.16793555 -0.23251185 0.009847096 0.09128949
-0.15860699 0.5488749 -0.32015184 -0.21149729 0.15605488 -0.01626935 0.17200176 0.10365297
0.029409053 -0.34970027 -0.2986719 0.002343059 -0.23126106 -0.034826864 0.33857766 0.050694272
0.08084379 0.20548129 0.031006409 0.18039563 -0.5401264 -0.21337305 -0.05137321 0.07987222
-0.4214243 -0.3977031 -0.049881574 0.22411564 0.12379974 -0.60176384 0.33490372 -0.40279877
0.2446774 0.16693991 -0.5185013 -0.011087578 -0.6156741 0.11823323 -0.189032 -0.5041805
-0.19420624 -0.609962 -0.24756889 -0.30579057 -0.022293257 -0.0061753895 0.0031694835 -0.3689337
0.37452403 0.5488918 -0.34234488 -0.11752693 0.3088927 -0.05553987 0.054260224 -0.6639109
-0.29768592 -0.10087218 -0.31850588 -0.0058049154 -0.22573252 -0.05490807 -0.026677687 -0.27385637
-0.23158607 0.435273 0.095183425 -0.3801705 0.22628535 0.12682386 0.34422728 0.41196606
00000000: fc74 f7bd 91f5 8d3e b254 443d 7c83 29ba
00000010: 2008 4b3e ad6c a3bd aa72 9fbe ae9a 863e
00000020: ccdc cdbd a93d 963e 87b1 12be d0be e93d
00000030: 0f8e fabd 7808 3f3f ecc9 c73e fff1 813e
00000040: 2fd6 0dbe fe94 033f 5700 c53e 905b 30be
00000050: b2df 8cbc a399 9bbe 4426 c53e dbac 0a3d
00000060: cf7a 7fbe 3e33 8a3e e2bf 26be e45b 8d3e
00000070: f0f5 6cbe b13e 50be 996a 1dbe 1b11 de3d
00000080: 9f4a 3d3f a282 de3b 1bc1 e43d 14f0 febc
00000090: b57a b0be b6cf 98be 5ef1 a53e b1f4 353e
000000a0: d89a b73c d4de b8be 9ac0 993e 6344 47be
000000b0: 70c0 9d3d 694d 01bd eda4 3e3d 0f39 93be
000000c0: c212 333c 9de7 0a3f 5fc7 b5be ae53 8abe
000000d0: e991 91be 33a2 d0be 2354 8dbe 6266 c2be
000000e0: a61a c63d 6a4e a23e e928 6cbe 59d2 dbbe
000000f0: 3fdc 26be 5168 94be 2760 133d d089 fc3c
00000100: e2bb c53d 1519 24bf c656 16be 5ca3 503e
00000110: 4cf7 2b3e 9617 6ebe b755 213c fcf5 ba3d
00000120: df69 22be 1183 0c3f f1ea a3be bf92 58be
00000130: dacc 1f3e 4d47 85bc 3b21 303e 0248 d43d
00000140: 41eb f03c ea0b b3be 86eb 98be 028e 193b
00000150: b3cf 6cbe 9da6 0ebd 0d5a ad3e cca4 4f3d
00000160: 6e91 a53d b069 523e 2701 fe3c a2b9 383e
00000170: b945 0abf 777e 5abe b76c 52bd 0c94 a33d
00000180: edc4 d7be be9f cbbe 9f50 4cbd 927e 653e
00000190: b88a fd3d 320d 1abf 8078 ab3e a43b cebe
000001a0: b68c 7a3e 4cf2 2a3e 80bc 04bf aca8 35bc
000001b0: d19c 1dbf 4424 f23d 9b91 41be f911 01bf
000001c0: 00de 46be 7826 1cbf b382 7dbe 9590 9cbe
000001d0: 59a0 b6bc ec5a cabb 1cb7 4f3b e1e4 bcbe
000001e0: 9dc1 bf3e 2c84 0c3f d447 afbe f6b1 f0bd
000001f0: 2f27 9e3e c67d 63bd f83f 5e3d 11f6 29bf
00000200: 4a6a 98be 1396 cebd 3413 a3be 2937 bebb
00000210: 6d26 67be 49e7 60bd 2a8b dabc e736 8cbe
00000220: e624 6dbe 1adc de3e 87ef c23d b5a5 c2be
00000230: 59b7 673e 1dde 013e 8f3e b03e 37ed d23e

sun_influence_2.W.bias f4 [12]
-0.007872944 -0.0072380016 -0.009738249 0.008419413 -0.026690753 -0.01390771 -0.007064228 -0.0031057391
-0.0337502 -0.029817495 -0.0091996 -0.038621668
00000000: 85fd 00bc c22c edbb 2d8d 1fbc 94f1 093c
00000010: 91a6 dabc 2add 63bc 0a7b e7bb a889 4bbb
00000020: a63d 0abd d243 f4bc ebb9 16bc c131 1ebd

sun_influence_2.W_self.weight f4 [12, 12]
-0.12144308 0.090311326 -0.25361928 0.65841687 -0.44864637 -0.35500112 -0.013748415 0.12215382
-0.08832704 0.5255299 0.2190247 0.04911078 0.059420925 0.23994738 0.3864708 0.37984315
0.3940822 0.19679877 -0.028878309 0.16047429 -0.2720411 0.17581183 0.32068983 0.2267392
-0.17911442 0.0134619 0.062404513 -0.46833366 0.18711868 0.038280923 0.23819923 0.42704538
-0.21052888 -0.19112156 -0.03190021 0.07965617 -0.8537232 -0.16022754 0.20850296 0.42697775
0.49530298 -0.11540485 -0.68168765 -0.39939103 0.43940946 0.2989734 0.5110249 0.0011956543
0.1041742 0.49389943 -0.13952647 0.09090276 0.31983447 -0.121905886 -0.08735689 -0.2746113
-0.17936711 -0.13657112 -0.23979837 -0.37787938 0.57311875 0.48808685 0.07390657 0.40302515
0.39377218 0.20976238 0.19598603 -0.28858462 0.23869814 -0.06580841 1.0277678 -0.2963322
0.28503615 -0.07945191 -0.008909654 0.30478603 0.012222445 -0.21587443 -0.21032281 -0.018028526
-0.32091513 0.21291633 -0.35015565 0.57789314 -0.15018763 0.017095147 -0.30686975 -0.20569369
0.14108802 0.28467727 -0.53977716 0.2565195 -0.4689971 -0.20956846 0.525218 -0.515885
-0.82854116 0.0716229 -0.047782812 -0.0069173807 0.08134524 -0.07332047 0.2634492 0.02981495
0.24009813 0.16325746 0.14180988 0.020927599 -0.34521297 -0.23129709 -0.27978224 0.16153982
-0.09827084 -0.39449462 -0.10743233 -0.14507759 0.062441353 0.3595228 0.2286701 -0.4935768
0.30903256 -0.17735207 -0.04333577 -0.019376263 -0.34809744 -0.165783 0.3422974 -0.27627456
-0.08373753 -0.55865586 0.30951512 -0.18646652 -0.024765814 -0.043845095 0.046153087 -0.80784637
0.55314887 -0.2726522 -0.19858241 0.5653288 0.45964172 -0.020699166 0.3165662 -0.41444087
00000000: 26b7 f8bd 25f5 b83d 63da 81be 028e 283f
00000010: fab4 e5be b5c2 b5be 0841 61bc c82b fa3d
00000020: cfe4 b4bd 2189 063f 0348 603e 6328 493d
00000030: 5b63 733d c4b4 753e 80df c53e cd7a c23e
00000040: 24c5 c93e 9e85 493e 3492 ecbc 5f53 243e
00000050: f948 8bbe 0408 343e 7531 a43e 522e 683e
00000060: c569 37be 4d8f 5c3c e09b 7f3d 6ec9 efbe
00000070: 0a9c 3f3e 75cc 1c3d 80ea 733e b1a5 da3e
00000080: e294 57be 5fb5 43be cba9 02bd c622 a33d
00000090: 9b8d 5abf b012 24be cd81 553e d49c da3e
000000a0: 5a98 fd3e 6159 ecbd 1583 2ebf fb7c ccbe
000000b0: 47fa e03e 0b13 993e 87d2 023f 80b7 9c3a
000000c0: 4859 d53d 63e0 fc3e 07e0 0ebe 3a2b ba3d
000000d0: 58c1 a33e cba9 f9bd 2be8 b2bd da99 8cbe
000000e0: 03ac 37be 4dd9 0bbe b48d 75be 6879 c1be
000000f0: e9b7 123f 85e6 f93e 545c 973d 5059 ce3e
00000100: 829c c93e f3cb 563e 90b0 483e 5dc1 93be
00000110: 496d 743e 8fc6 86bd e58d 833f dbb8 97be
00000120: 42f0 913e afb7 a2bd ccf9 11bc ea0c 9c3e
00000130: a640 483c 300e 5dbe dd5e 57be 8fb0 93bc
00000140: fd4e a4be bd06 5a3e 9a47 b3be cef0 133f
00000150: c9ca 19be 1f0b 8c3c 081e 9dbe 5ea1 52be
00000160: 6179 103e 38c1 913e d62e 0abf 8656 833e
00000170: 6320 f0be 1d99 56be b074 063f 0a11 04bf
00000180: 461b 54bf 07af 923d e9b7 43bd 32ab e2bb
00000190: 5598 a63d 0b29 96bd d0e2 863e 7b3e f43c
000001a0: 49dc 753e f72c 273e 9c36 113e 5b70 ab3c
000001b0: c1bf b0be 25d9 6cbe 9e3f 8fbe b26a 253e
000001c0: 3942 c9bd 33fb c9be 7b05 dcbd 388f 14be
000001d0: 81c2 7f3d 5f13 b83e 7f28 6a3e 19b6 fcbe
000001e0: 8439 9e3e c89b 35be d980 31bd f8ba 9ebc
000001f0: d439 b2be 05c3 29be 9b41 af3e dc73 8dbe
00000200: 957e abbd 1204 0fbf c478 9e3e 14f1 3ebe
00000210: ade1 cabc ea96 33bd 050b 3d3d 05cf 4ebf
00000220: 2a9b 0d3f 1299 8bbe 3059 4bbe 63b9 103f
00000230: 2956 eb3e 4c91 a9bc f714 a23e 9831 d4be

sun_influence_2.W_self.bias f4 [12]
-0.007872944 -0.0072380016 -0.009738249 0.008419413 -0.026690753 -0.01390771 -0.007064228 -0.0031057391
-0.0337502 -0.029817495 -0.0091996 -0.038621668
00000000: 85fd 00bc c22c edbb 2d8d 1fbc 94f1 093c
00000010: 91a6 dabc 2add 63bc 0a7b e7bb a889 4bbb
00000020: a63d 0abd d243 f4bc ebb9 16bc c131 1ebd

sun_influence_3.W.weight f4 [12, 12]
-0.23698379 0.03303147 0.05659171 -0.24696353 -0.13173449 -0.20891204 0.106565416 -0.48495412
-0.025290199 -0.051205978 -0.1292279 -0.18631598 0.18495314 -0.09301142 -0.5107595 0.19539638
-0.15736488 0.33483675 0.33163315 0.084320985 -0.1743105 -0.3061077 -0.02213903 -0.029155372
-0.38421905 0.007250768 -0.18201298 -0.045668636 0.17504776 0.022338796 -0.12849586 0.17206895
0.07039501 -0.35457364 -0.010632059 -0.2044818 0.12491777 0.24135362 -0.12185358 -0.1520921
-0.053795904 -0.05200552 0.32897887 -0.52693295 0.13965683 0.0998936 0.053751796 -0.48008752
0.25320855 -0.38807914 0.09478753 -0.06953809 -0.39212045 0.008141773 -0.26532707 0.4911687
-0.047445863 0.362552 0.27497044 0.30124715 0.2249218 -0.26751423 0.39916274 -0.01827893
0.042705152 0.16261856 0.20805097 0.27127215 -0.28343138 -0.042315613 -0.068120666 -0.18653764
-0.1208774 0.4806687 0.033916727 0.27188417 0.36004275 0.5842049 0.26390928 0.28515008
-0.08065986 -0.2170683 -0.012138927 -0.31872573 0.06267567 -0.1747058 -0.39926657 -0.16761741
-0.019740906 -0.32534522 0.058950324 -0.18720198 -0.2806222 0.10421703 0.13435173 -0.2981098
0.0906514 -0.44855615 0.07221512 -0.50522316 -0.13560793 -0.0074698543 -0.01799927 0.5476513
0.03880429 -0.17234895 0.2734252 -0.08330688 -0.13023171 -0.28182393 0.041072495 -0.19080313
0.04808797 -0.5511463 -0.35186845 0.048919912 0.38318968 0.31964907 -0.13803777 -0.24936314
0.420081 -0.08990541 -0.013472343 0.41006604 -0.08357414 -0.29322183 -0.3338165 0.3601902
-0.0653004 -0.16227901 -0.0036558148 0.36075065 -0.06504784 0.255372 0.29388884 0.047231123
-0.09988714 -0.105577044 0.33506748 -0.27384555 -0.07116768 -0.13329224 -0.5763969 0.32554474
00000000: e1ab 72be 024c 073d b5cc 673d 02e4 7cbe
00000010: 68e5 06be 0aed 55be f83e da3d e84b f8be
00000020: 642d cfbc 5cbd 51bd 5254 04be 9ec9 3ebe
00000030: 5b64 3d3e c57c bebd 22c1 02bf fd15 483e
00000040: 4224 21be b96f ab3e d2cb a93e 7bb0 ac3d
00000050: 747e 32be 26ba 9cbe e95c b5bc 3fd7 eebc
00000060: 5cb8 c4be da97 ed3b 9c61 3abe 090f 3bbd
00000070: b83f 333e daff b63c 6b94 03be d832 303e
00000080: 422b 903d ad8a b5be 1632 2ebc ad63 51be
00000090: e3d4 ff3d 6725 773e 5f8e f9bd 08be 1bbe
000000a0: 1859 5cbd bd03 55bd eb6f a83e 14e5 06bf
000000b0: 3302 0f3e 0495 cc3d d82a 5c3d 08ce f5be
000000c0: 8da4 813e 4fb2 c6be f71f c23d fc69 8ebd
000000d0: 03c4 c8be 1265 053c f3d8 87be 777a fb3e
000000e0: 9856 42bd 6aa0 b93e edc8 8c3e 113d 9a3e
000000f0: e651 663e a0f7 88be 0f5f cc3e b2bd 95bc
00000100: 99eb 2e3d 7b85 263e 500b 553e 2fe4 8a3e
00000110: eb1d 91be 2353 2dbd d982 8bbd b903 3fbe
00000120: 928e f7bd 351a f63e 44ec 0a3d 6734 8b3e
00000130: 8657 b83e 748e 153f 1e1f 873e 31ff 913e
00000140: ff30 a5bd 2747 5ebe 5ae2 46bc 0530 a3be
00000150: 1a5c 803d 14e6 32be ab6c ccbe e6a3 2bbe
00000160: aeb7 a1bc a693 a6be e575 713d e0b1 3fbe
00000170: b7ad 8fbe bd6f d53d 8093 093e d9a1 98be
00000180: 71a7 b93d 27a9 e5be 85e5 933d 4e56 01bf
00000190: cedc 0abe aec5 f4bb 3573 93bc e032 0c3f
000001a0: 3ff1 1e3d 3e7c 30be 63fe 8b3e cc9c aabd
000001b0: 765b 05be 3a4b 90be a23b 283d e561 43be
000001c0: e4f7 443d ed17 0dbf 1a28 b4be 3f60 483d
000001d0: 7031 c43e 0ba9 a33e c659 0dbe 0d59 7fbe
000001e0: db14 d73e 5420 b8bd 1abb 5cbc 2df4 d13e
000001f0: eb28 abbd 2c21 96be ffe9 aabe da6a b83e
00000200: 37bc 85bd 782c 26be 6596 6fbb 4fb4 b83e
00000210: cd37 85bd 1ec0 823e 9978 963e 6c75 413d
00000220: a191 ccbd c738 d8bd f78d ab3e 7c35 8cbe
00000230: 5cc0 91bd c37d 08be bf8e 13bf cdad a63e

sun_influence_3.W.bias f4 [12]
-0.011014846 -0.014121786 -0.034978073 -0.018671816 -0.010605145 -0.01068869 -0.0064659063 -0.006005508
-0.011287642 -0.01614009 -0.009981421 -0.010774036
00000000: 9d77 34bc 105f 67bc 2b45 0fbd a3f5 98bc
00000010: 34c1 2dbc 9d1f 2fbc f4df d3bb dac9 c4bb
00000020: cdef 38bc 3938 84bc 1d89 23bc 9585 30bc

sun_influence_3.W_self.weight f4 [12, 12]
-0.17349668 0.14648934 0.1341652 0.32072464 0.48585913 0.05231484 0.0149392 0.39720607
-0.13326962 -0.14197563 -0.04334398 0.1502137 0.09832806 0.029134877 0.105231404 0.47918826
-0.08784274 -0.23205958 -0.180233 0.21355364 -0.34285593 0.4038359 -0.19763678 0.21649046
0.06812253 -0.10233081 0.17077923 0.13355027 -0.09802613 0.12391574 -0.38455036 0.199942
-0.7619505 0.28707078 -0.27125216 -0.014449785 0.22333461 0.28232518 0.33307108 0.23869362
-0.03739313 -0.65295625 -0.0813216 0.083346546 -0.48987755 -0.050895095 0.567111 -0.10200758
-0.20371185 -0.117214665 -0.019865977 0.6662319 -0.25112596 0.0652862 0.1542936 -0.34987155
-0.25556573 0.33847603 -0.32798278 0.35616383 0.18120351 0.086878076 -0.16310464 0.66087836
-0.17236531 0.5305634 0.3702646 0.06411947 -0.0023323747 -0.49630788 -0.651349 0.1342528
-0.24002852 0.2437028 0.5606109 0.2752557 0.1127057 0.07663274 0.46416548 0.23414712
0.085490614 -0.13484721 0.122370325 0.051574036 -0.34510913 -0.13554113 -0.20954554 0.07799584
-0.1735881 -0.07374327 0.33071 -0.052432176 0.025061332 0.18445139 -0.22407408 0.009195081
-0.042624068 -0.79009366 0.2045828 0.21932101 -0.25917476 0.7071046 0.21297678 0.06482587
0.013661196 0.17017455 -0.22133729 0.051668026 -0.19739673 0.24731396 0.25912604 0.04804425
-0.09447078 -0.04387296 -0.14472806 -0.13490632 -0.2927901 -0.029276617 -0.100387484 -0.20172669
0.5852897 0.064063296 -0.091020234 0.61259675 -0.09949328 0.09285179 0.09152189 -0.091575034
0.41506895 0.32235643 0.5062538 -0.4562469 -0.3856453 -0.2569162 -0.43919876 -0.42196104
-0.019496609 0.30708054 -0.35178047 -0.57941455 0.015091045 0.303899 0.3249935 -0.23110507
00000000: 1da9 31be 4d01 163e 9a62 093e 0536 a43e
00000010: 87c2 f83e 1648 563d 8cc3 743c 985e cb3e
00000020: d577 08be 0f62 11be 7589 31bd 9fd1 193e
00000030: 3960 c93d 44ac ee3c 9083 d73d 2a58 f53e
00000040: e5e6 b3bd 07a1 6dbe 008f 38be cead 5a3e
00000050: d08a afbe 94c3 ce3e 4c61 4abe adaf 5d3e
00000060: d383 8b3d d192 d1bd c0e0 2e3e 67c1 083e
00000070: ecc1 c8bd 89c7 fd3d c9e3 c4be 98bd 4c3e
00000080: 300f 43bf f1fa 923e 90e1 8abe cbbe 6cbc
00000090: d4b1 643e ed8c 903e 4b88 aa3e 1a6c 743e
000000a0: 8a29 19bd 2428 27bf f08b a6bd 98b1 aa3d
000000b0: 3bd1 fabe 6077 50bd 302e 113f 5ae9 d0bd
000000c0: d799 50be 3e0e f0bd f9bd a2bc 2c8e 2a3f
000000d0: 9593 80be c5b4 853d 24ff 1d3e 5d22 b3be
000000e0: 83d9 82be bb4c ad3e 5ced a7be 1b5b b63e
000000f0: 6a8d 393e 22ed b13d e704 27be 532f 293f
00000100: 8880 30be 01d3 073f 5293 bd3e 1251 833d
00000110: c1da 18bb 111c febe cfbe 26bf 9179 093e
00000120: 09ca 75be 3a8d 793e 3284 0f3f 51ee 8c3e
00000130: 3fd2 e63d a0f1 9c3d 19a7 ed3e 43c4 6f3e
00000140: b415 af3d 6315 0abe 4b9d fa3d 4c3f 533d
00000150: 25b2 b0be 4bcb 0abe 1b93 56be 48bc 9f3d
00000160: 14c1 31be b606 97bd d252 a93e 1fc3 56bd
00000170: 6c4d cd3c d3e0 3c3e ad73 65be f7a6 163c
00000180: 9396 2ebd 9443 4abf 277e 513e b095 603e
00000190: 8eb2 84be cf04 353f 9616 5a3e 6dc3 843d
000001a0: 36d3 5f3c 3d42 2e3e 3ea6 62be daa1 533d
000001b0: 5e22 4abe df3f 7d3e 2bac 843e 0cca 443d
000001c0: e579 c1bd 22b4 33bd 9833 14be e224 0abe
000001d0: 96e8 95be 84d5 efbc f497 cdbd 7191 4ebe
000001e0: 8cd5 153f 9e33 833d d168 babd 24d3 1c3f
000001f0: 22c3 cbbd 1429 be3d d46f bb3d b18b bbbd
00000200: eb83 d43e e70b a53e d999 013f 3299 e9be
00000210: 4d73 c5be 858a 83be a9de e0be 470b d8be
00000220: 5ab7 9fbc a939 9d3e 921c b4be 8354 14bf
00000230: 6e40 773c a698 9b3e 8c65 a63e cfa6 6cbe

sun_influence_3.W_self.bias f4 [12]
-0.011014846 -0.014121786 -0.034978073 -0.018671816 -0.010605145 -0.01068869 -0.0064659063 -0.006005508
-0.011287642 -0.01614009 -0.009981421 -0.010774036
00000000: 9d77 34bc 105f 67bc 2b45 0fbd a3f5 98bc
00000010: 34c1 2dbc 9d1f 2fbc f4df d3bb dac9 c4bb
00000020: cdef 38bc 3938 84bc 1d89 23bc 9585 30bc

sun_influence_4.weight f4 [8, 12]
0.2905346 -0.27311563 -0.26793805 0.014860208 -0.6330307 -0.775016 0.044998676 -0.6634054
-0.23482086 -0.47071862 -0.505521 -0.23429267 -0.38459787 -0.031928018 0.23004858 -0.32816103
-0.41004175 -0.2435965 -0.28272963 -0.1300631 -0.12616637 -0.054436166 -0.17148393 -0.3283121
-0.3951681 -0.70368296 0.24113981 -0.23573063 0.56384087 0.054528415 -0.0637476 0.4137935
0.1403671 -0.14371587 0.53498244 -0.15756384 0.17991917 -0.014700513 0.4406104 -0.5490491
0.15998228 0.46591318 0.068153135 -0.05733023 -0.13004707 0.07378264 -0.19215736 0.40888366
-0.008013275 0.11400736 -0.3404974 -0.4191683 -0.60067904 -0.1640479 -0.2360274 0.055787828
-0.38607016 -0.13655885 -0.12439815 0.63321775 -0.17611016 -0.04572281 0.051979337 -0.15904617
0.75119275 -0.4032654 -0.36611578 -0.16063313 0.15968388 -0.35880122 0.38585988 -0.45878857
0.012221544 -0.37553313 -0.34336233 0.2644475 0.28037086 -0.65298617 -0.06853002 -0.60859936
-0.093633056 0.09424605 -0.22696312 -0.10061104 0.40322632 -0.005761732 -0.4825784 0.069939084
-0.47853482 -0.03479001 -0.14355524 0.3603549 -0.19968317 -0.06708934 0.44435218 -0.23068772
00000000: f3c0 943e d0d5 8bbe 2d2f 89be 3b78 733c
00000010: 4d0e 22bf 7367 46bf 8850 383d f0d4 29bf
00000020: e174 70be 0802 f1be d369 01bf 6bea 6fbe
00000030: 03ea c4be f4c6 02bd db91 6b3e b904 a8be
00000040: fef0 d1be 5c71 79be f0c1 90be 432f 05be
00000050: c231 01be 75f8 5ebd 7c99 2fbe 8618 a8be
00000060: 7953 cabe 9124 34bf 5bed 763e 5f63 71be
00000070: e057 103f 3059 5f3d 1a8e 82bd bedc d33e
00000080: 65bc 0f3e 412a 13be 9cf4 083f 6a58 21be
00000090: bb3c 383e 6cda 70bc b097 e13e 7b8e 0cbf
000000a0: 65d2 233e 2c8c ee3e df93 8b3d 1ad3 6abd
000000b0: 0f2b 05be 5a1b 973d e6c4 44be 3359 d13e
000000c0: 1d4a 03bc b17c e93d ad55 aebe 3a9d d6be
000000d0: 1ac6 19bf 2cfc 27be 2bb1 71be c781 643d
000000e0: fdaa c5be 15d6 0bbe 75c4 febd 8f1a 223f
000000f0: 3956 34be d747 3bbd 49e8 543d 00dd 22be
00000100: 2b4e 403f cd78 cebe 8773 bbbe 037d 24be
00000110: 2c84 233e cbb4 b7be 6d8f c53e 56e6 eabe
00000120: df3c 483c e145 c0be 30cd afbe aa65 873e
00000130: c58c 8f3e 1a2a 27bf 7859 8cbd 2bcd 1bbf
00000140: b0c2 bfbd 1304 c13d 0569 68be 290d cebd
00000150: ae73 ce3e e9cc bcbb 8414 f7be 393c 8f3d
00000160: 8402 f5be f87f 0ebd 2500 13be 7080 b83e
00000170: bf79 4cbe 2366 89bd 2182 e33e 6739 6cbe
