src/Photosynthesis/RL/SavedModels/model_76.pth (torch, 30290 bytes, 34 tensors)

player_tree_1.W.weight f4 [12, 12]
-0.33485082 -0.33885548 -0.36188594 0.662059 0.12157828 -0.31506485 -0.045965783 -0.016231775
-0.057013433 -0.20527756 -0.48415297 -0.12207384 -0.052366074 0.4059837 0.095451094 0.26583305
-0.5184461 0.31441662 -0.28058854 0.0012402384 -0.17111592 -0.07029979 0.24111272 0.24407396
0.09374833 -0.15084332 -0.09798816 0.5105764 -0.0338535 -0.42685884 0.006510732 0.0926671
-0.6104599 0.030849287 -0.122748874 0.06386187 -0.37419012 0.12976252 0.20692717 -0.055046495
0.52190334 0.1603697 0.04811598 -0.23052078 0.3005869 -0.38237792 -0.32923964 -0.1964339
-0.54870576 0.15565193 0.23827022 0.03945017 -0.2192687 -0.084566295 -0.020490488 -0.5306854
-0.08526437 0.15575823 0.12903184 -0.34840503 -0.29872778 0.626621 0.13039374 0.26496384
-0.0114313355 -0.32531324 -0.17050204 -0.08785679 0.05202389 0.4935681 -0.47854155 0.39414638
0.48411304 -0.4386441 0.7450545 0.25045106 0.07529019 0.082713485 0.42481142 0.22071552
-0.2125931 0.079790525 0.1489254 0.15822957 0.13358335 -0.39163297 -0.20440291 0.28090414
0.12012038 0.42788547 0.36654994 -0.3106129 -0.36403745 -0.22795215 0.31674087 -0.525839
0.0027126782 -0.53102577 -0.7658146 -0.046177372 0.010572635 0.2779117 0.013718003 -0.12585898
0.29293722 -0.38440326 -0.1218803 -0.73705125 0.13272056 -0.025914645 -0.20077446 -0.23075126
0.13054574 -0.04188004 0.16657142 -0.41783243 -0.07030524 -0.26683795 0.17294034 -0.09967749
-0.09449606 0.0788568 -0.22565307 0.06861592 0.26173785 -0.30178127 0.13917807 0.07438479
-0.31375054 0.24319375 0.3489737 -0.19361183 -0.04418816 -0.49613607 0.10047857 -0.35370007
0.23336169 0.09088345 -0.4452722 -0.3502486 0.46460095 0.12282202 -0.628922 -0.3446794
00000000: 9171 abbe 777e adbe 1d49 b9be b37c 293f
00000010: 09fe f83d 2e50 a1be 9e46 3cbd 80f8 84bc
00000020: eb86 69bd 4834 52be e6e2 f7be d901 fabd
00000030: cf7d 56bd 18dd cf3e dd7b c33d 451b 883e
00000040: e2b8 04bf 37fb a03e 4da9 8fbe 7f8f a23a
00000050: 0339 2fbe 56f9 8fbd 41e6 763e 86ee 793e
00000060: 20ff bf3d ac76 1abe 04ae c8bd 23b5 023f
00000070: f8a9 0abd 3e8d dabe fb57 d53b 40c8 bd3d
00000080: 1a47 1cbf a5b7 fc3c c363 fbbd 03ca 823d
00000090: d995 bfbe 77e0 043e b7e4 533e 6f78 61bd
000000a0: 759b 053f f437 243e 4315 453d a40d 6cbe
000000b0: 87e6 993e 0ac7 c3be 1992 a8be f825 49be
000000c0: fb77 0cbf 3863 1f3e 1cfd 733e 8096 213d
000000d0: f987 60be 1831 adbd abdb a7bc 00db 07bf
000000e0: 169f aebd 167f 1f3e ec20 043e 2562 b2be
000000f0: d9f2 98be 3c6a 203f f085 053e 57a9 873e
00000100: 7f4a 3bbc 758f a6be 1698 2ebe 43ee b3bd
00000110: 0117 553d f5b4 fc3e 6603 f5be 8ecd c93e
00000120: aadd f73e f695 e0be e4bb 3e3f 1f3b 803e
00000130: be31 9a3d b065 a93d e280 d93e 4003 623e
00000140: 01b2 59be 3769 a33d e67f 183e ef06 223e
00000150: 13ca 083e 1e84 c8be ff4e 51be abd2 8f3e
00000160: ac01 f63d ce13 db3e 6fac bb3e a708 9fbe
00000170: 1e63 babe 4a6c 69be dc2b a23e 629d 06bf
00000180: 30c7 313b 4ef1 07bf 6d0c 44bf 7c24 3dbd
00000190: d838 2d3c 714a 8e3e 7ac1 603c 2de1 00be
000001a0: defb 953e 81d0 c4be 619c f9bd 64af 3cbf
000001b0: e6e7 073e f34a d4bc d297 4dbe 0f4a 6cbe
000001c0: c8ad 053e 688a 2bbd b391 2a3e 22ee d5be
000001d0: 32fc 8fbd fc9e 88be 4617 313e b623 ccbd
000001e0: 2687 c1bd ad7f a13d 9911 67be 8186 8c3d
000001f0: 8102 863e 1383 9abe b284 0e3e 0e57 983d
00000200: e9a3 a0be c807 793e aeac b23e 2e42 46be
00000210: a5fe 34bd 8c05 febe b5c7 cd3d 2d18 b5be
00000220: 5ef6 6e3e 1a21 ba3d b8fa e3be c953 b3be
00000230: 2de0 ed3e 1c8a fb3d 0801 21bf d179 b0be

player_tree_1.W.bias f4 [12]
0.044504352 -0.009773548 0.0066684475 0.05941427 0.011290664 0.016843293 0.03388125 -0.009606038
-0.0086522745 0.025929946 -0.0032894667 3.563662e-05
00000000: 324a 363d 3b21 20bc fe82 da3b 615c 733d
00000010: 7afc 383c f2fa 893c 11c7 0a3d a562 1dbc
00000020: 45c2 0dbc 0a6b d43c 1894 57bb 8878 1538

player_tree_1.W_self.weight f4 [12, 12]
0.3391962 0.09664468 -0.20459186 -0.006766633 0.024702797 0.34512952 -0.09508693 -0.13333802
-0.089837894 -1.0273237 0.010871764 -0.27420276 -0.13393587 0.5804352 -0.19966352 -0.06695665
-0.34423628 0.13417517 -0.36706775 -0.553566 0.28359827 -0.15218906 0.34435248 -0.21324134
0.54373395 0.21677236 -0.47535878 0.33747676 -0.4474804 -0.15117583 0.24989279 -0.49270114
-0.1860616 -0.045784675 -0.08517979 0.097704425 -0.32068512 -0.09795474 0.056796696 -0.1628696
-0.020154335 0.48628658 0.36203015 0.5947207 0.011911411 0.30775216 -0.27969086 -0.007976218
0.27934083 -0.21180955 0.12620465 -0.07119106 -0.30440173 -0.054827712 -0.0020696386 -0.0389864
0.37220943 -0.308289 0.16925406 -0.014069697 -0.64124775 -0.07539177 -0.035829905 0.42956477
-0.23245426 -0.101980984 0.115690105 0.44251662 0.62596273 -0.293387 0.0042742924 0.14096227
0.22102907 0.27165866 0.26726592 -0.3583475 -0.18783322 0.17213863 0.15531366 -0.1729318
-0.043237027 0.14088082 -0.23019917 0.07691493 -0.39918658 0.015618368 0.43918988 0.0897269
0.42551947 -0.18378362 0.35367495 0.3771289 -0.3105689 0.11595488 0.045334626 0.07082145
-0.15946235 -0.498493 -0.01878083 -0.19928676 -0.16855943 0.36852354 0.5604694 0.3152717
0.18576856 0.63470346 -0.40506086 -0.3891109 -0.02536802 0.6724047 -0.0757181 -0.17211525
-0.29987043 -0.46268094 -0.27684462 -0.07952132 -0.006083716 -0.2157252 0.058443617 -0.6304895
-0.22615795 -0.324918 0.2491389 -0.18197975 0.29581913 0.23643018 -0.14854334 0.32247385
-0.06709736 -0.09630288 -0.3392233 0.07719946 0.03584849 -0.26990545 -0.179519 0.19301605
0.35213646 0.025819408 -0.2513944 0.2147152 0.23354967 -0.117419355 0.2124626 -0.3427386
00000000: 20ab ad3e a5ed c53d 8780 51be a2ba ddbb
00000010: 855d ca3c d1b4 b03e f0bc c2bd c389 08be
00000020: eefc b7bd 587f 83bf 7c1f 323c 4e64 8cbe
00000030: 7c26 09be 6797 143f 9874 4cbe 9120 89bd
00000040: bd3f b0be 3765 093e 4ef0 bbbe 80b6 0dbf
00000050: cb33 913e 73d7 1bbe f84e b03e f05b 5abe
00000060: 2632 0b3f 93f9 5d3e 3a62 f3be c1c9 ac3e
00000070: 271c e5be d6cd 1abe e5e3 7f3e 5343 fcbe
00000080: ef86 3ebe b688 3bbd be72 aebd 4219 c83d
00000090: d730 a4be 7f9c c8bd a7a3 683d 4ac7 26be
000000a0: b41a a5bc 8efa f83e 045c b93e 9e3f 183f
000000b0: 1428 433c b191 9d3e a433 8fbe afae 02bc
000000c0: c305 8f3e 9ae4 58be cb3b 013e 9ecc 91bd
000000d0: 8bda 9bbe 0693 60bd c6a2 07bb 34b0 1fbd
000000e0: 3c92 be3e 0ed8 9dbe f050 2d3e 9684 66bc
000000f0: d028 24bf 0067 9abd 61c2 12bd eaef db3e
00000100: 7d08 6ebe 68db d0bd efee ec3d 8a91 e23e
00000110: 183f 203f d236 96be 5d0f 8c3b 6a58 103e
00000120: 7255 623e d816 8b3e 14d7 883e 5379 b7be
00000130: 5a57 40be 1c45 303e 8b0a 1f3e 0915 31be
00000140: 4f19 31bd 1043 103e 55b9 6bbe 9385 9d3d
00000150: 2f62 ccbe 2fe4 7f3c 7fdd e03e bdc2 b73d
00000160: b0dd d93e c631 3cbe e214 b53e 0a17 c13e
00000170: e302 9fbe c179 ed3d cdb0 393d d60a 913d
00000180: 194a 23be 793a ffbe 41da 99bc d411 4cbe
00000190: d89a 2cbe 1eaf bc3e ec7a 0f3f 4b6b a13e
000001a0: 1d3a 3e3e ed7b 223f 2364 cfbe 8b39 c7be
000001b0: 98d0 cfbc b722 2c3f 1712 9bbd fb3e 30be
000001c0: 9e88 99be 84e4 ecbe 94be 8dbe 13dc a2bd
000001d0: e959 c7bb 11e7 5cbe 9362 6f3d c367 21bf
000001e0: f395 67be a75b a6be 451e 7f3e e658 3abe
000001f0: 9b75 973e c11a 723e bf1b 18be 4b1b a53e
00000200: 576a 89bd 723a c5bd adae adbe c01a 9e3d
00000210: ded5 123d 0c31 8abe d4d3 37be 00a6 453e
00000220: 3b4b b43e 3983 d33c c4b6 80be 4dde 5b3e
00000230: a527 6f3e 8f79 f0bd cc8f 593e 6f7b afbe

player_tree_1.W_self.bias f4 [12]
0.044504352 -0.009773548 0.0066684475 0.05941427 0.011290664 0.016843293 0.03388125 -0.009606038
-0.0086522745 0.025929946 -0.0032894667 3.563662e-05
00000000: 324a 363d 3b21 20bc fe82 da3b 615c 733d
00000010: 7afc 383c f2fa 893c 11c7 0a3d a562 1dbc
00000020: 45c2 0dbc 0a6b d43c 1894 57bb 8878 1538

player_tree_2.W.weight f4 [12, 12]
0.19414559 -0.11164523 -0.23292074 -0.024501944 0.4597834 -0.1327493 -0.4592726 -0.2493328
-0.09922705 -0.3690703 0.13749622 0.061617024 -0.31053555 -0.3480045 0.25199547 0.028010242
-0.7554359 0.21199566 -0.12847327 -0.21521638 0.53590137 -0.027674146 0.054059796 0.22948661
-0.16937374 -0.13331975 0.42327517 -0.08051949 0.49927375 0.44568107 -0.1298144 -0.09531215
0.04390239 -0.4178109 -0.052275367 -0.14529744 0.20097318 0.24930748 -0.24075323 0.1257925
-0.13676044 0.20505412 -0.53993917 -0.4250854 -0.07825787 -0.12869371 0.13060518 -0.078402534
-0.25105706 -0.32544035 0.006818942 0.4542425 -0.41927296 -0.33961204 0.1315701 -0.28171426
-0.08790436 0.035409927 0.60548306 0.31342557 0.44632298 0.21606609 -0.19512925 0.27366287
0.42972898 -0.2637766 -0.32921174 0.29291004 -0.008067505 0.32439503 0.24712291 0.27606764
0.19656162 0.050210223 -0.17164336 0.008292875 -0.0036010945 0.21685475 -0.053000428 0.6714023
0.09352202 -0.13589182 0.13810048 0.5485374 0.09367177 0.08703635 0.3989743 -0.66079247
0.15647839 0.46036643 0.20898232 0.02014766 -0.08608209 0.2662626 0.054585453 0.33347893
0.31075698 -0.3886315 -0.07773106 0.15251991 0.17207871 -0.31105113 0.17749941 -0.44734642
-0.00965743 -0.4940251 -0.42462036 -0.17924498 -0.2153178 0.3911654 -0.08698797 -0.13373798
0.120077394 -0.07669542 0.37817907 -0.22130099 -0.17276603 -0.23558682 -0.09852 0.19035785
-0.3270044 0.5854824 -0.15067407 0.27015555 -0.04618717 0.10539968 -0.067113005 -0.05667694
0.15620472 0.19145457 0.07864297 -0.27365854 -0.29470366 0.5128741 -0.10562903 -0.21732108
0.15259849 -0.2060504 -0.24729347 -0.21712825 0.29672432 -0.28017855 0.36478704 0.21557935
00000000: 1ace 463e 41a6 e4bd c682 6ebe 4db8 c8bc
00000010: bb68 eb3e 6fef 07be c725 ebbe 1951 7fbe
00000020: 8d37 cbbd c8f6 bcbe cfcb 0c3e 2262 7c3d
00000030: 84fe 9ebe a52d b2be 8d05 813e bc75 e53c
00000040: 3f64 41bf 6415 593e 7f8e 03be af61 5cbe
00000050: d530 093f e4b4 e2bc ce6d 5d3d 8afe 6a3e
00000060: 4f70 2dbe f984 08be 86b7 d83e 67e7 a4bd
00000070: cfa0 ff3e 4f30 e43e 11ee 04be 0433 c3bd
00000080: fed2 333d 4feb d5be b21e 56bd dac8 14be
00000090: eacb 4d3e 764a 7f3e 0488 76be c0cf 003e
000000a0: ee0a 0cbe b5f9 513e 7439 0abf cba4 d9be
000000b0: aa45 a0bd 49c8 03be 5dbd 053e 8291 a0bd
000000c0: 8d8a 80be 1ea0 a6be 6e71 df3b 7992 e83e
000000d0: f2aa d6be a1e1 adbe 50ba 063e da3c 90be
000000e0: 3307 b4bd 000a 113d f000 1b3f 5179 a03e
000000f0: 7284 e43e 6e40 5d3e f6cf 47be 8a1d 8c3e
00000100: 7005 dc3e ba0d 87be 718e a8be 4ef8 953e
00000110: 922d 04bc 1b17 a63e ca0d 7d3e bd58 8d3e
00000120: 7347 493e 3ca9 4d3d 47c3 2fbe d7de 073c
00000130: 5700 6cbb 2c0f 5e3e fa16 59bd 05e1 2b3f
00000140: 7988 bf3d 3a27 0bbe 366a 0d3e f26c 0c3f
00000150: fcd6 bf3d 1d40 b23d 5c46 cc3e b229 29bf
00000160: df3b 203e 26b5 eb3e 76ff 553e b50c a53c
00000170: cf4b b0bd 9253 883e ff94 5f3d c0bd aa3e
00000180: 8a1b 9f3e b5fa c6be 7631 9fbd 2e2e 1c3e
00000190: 6735 303e 1842 9fbe 68c2 353e 970a e5be
000001a0: 333a 1ebc dcf0 fcbe d767 d9be ff8b 37be
000001b0: 457c 5cbe d546 c83e c026 b2bd 9cf2 08be
000001c0: 23eb f53d 7d12 9dbd b0a0 c13e ba9c 62be
000001d0: 94e9 30be ac3d 71be dbc4 c9bd 2bed 423e
000001e0: 1f6d a7be 2de2 153f 4e4a 1abe d451 8a3e
000001f0: c22e 3dbd cadb d73d 8b72 89bd 1426 68bd
00000200: 21f4 1f3e ab0c 443e 910f a13d f91c 8cbe
00000210: 66e3 96be b84b 033f 0854 d8bd 6b89 5ebe
00000220: c742 1c3e e0fe 52be 803a 7dbe de56 5ebe
00000230: 40ec 973e 9073 8fbe 5ec5 ba3e d5c0 5c3e

player_tree_2.W.bias f4 [12]
0.02278492 0.015919171 0.014176446 0.012386266 -0.014996 0.001923152 -0.013378153 0.009930081
0.02071318 -0.07086167 0.005701133 -0.009053074
00000000: 71a7 ba3c ec68 823c 5344 683c c4ef 4a3c
00000010: c8b1 75bc 4612 fc3a 0a30 5bbc c7b1 223c
00000020: b0ae a93c ec1f 91bd 92d0 ba3b 5853 14bc

player_tree_2.W_self.weight f4 [12, 12]
-0.1766456 -0.23260696 -0.1913343 0.42613482 -0.13162738 0.31184864 -0.1426615 0.19070977
-0.0015527201 0.3275826 -0.30451095 0.006635354 -0.17652903 0.37603658 0.09495763 -0.27572384
-0.16933838 -0.26993158 -0.034143627 0.12241902 -0.22811526 0.15070556 0.09963067 -0.06059749
0.07505809 -0.3351749 0.3006006 0.26715007 0.16290072 0.08055846 -0.22718126 0.4949595
-0.121381715 0.3024824 0.36606228 0.44621488 -0.078635186 0.2505563 0.48785594 0.04403649
0.03893127 0.14044851 0.066379316 -0.67707705 0.38971093 -0.24738044 -0.13458183 -0.035282884
0.29074436 -0.4505303 -0.114326224 0.077716686 -0.18966195 -0.09964513 -0.6585286 0.17784514
-0.3538551 0.08005372 -0.39979103 -0.18126363 -0.13825098 0.17350091 0.34905684 0.49198565
-0.08110114 0.12183989 0.36042958 -0.6956728 -0.15431067 -0.26913637 0.32475019 0.60594124
0.14677487 0.021291742 0.2935668 0.17719771 0.2501691 -0.0030569565 -0.49956253 -0.20942736
-0.18509232 -0.23404145 0.14500727 0.31463394 -0.029668711 0.0013668394 0.03365341 0.070359185
-0.13412985 -0.19680873 0.14389423 -0.3599604 0.08978278 0.22198069 -0.22117297 -0.003896325
-0.16610369 0.26490352 0.5476761 0.016452977 -0.22424221 -0.5400998 0.21466321 -0.14360352
0.45092043 0.4614766 -0.11614417 -0.3705791 -0.015708614 0.13080107 -0.04424624 0.16381398
0.17237738 -0.1862453 -0.18966137 -0.012292461 -0.34106442 -0.27267277 -0.23171787 -0.025676124
-0.53089577 -0.8595901 0.27999705 -0.24561122 -0.17162049 0.041567344 0.033718236 0.5489335
0.08782917 -0.7192697 -0.02747528 -0.1984369 -0.35210794 -0.2801513 0.13885324 0.4480187
0.32137868 0.2785614 -0.4866148 -0.2941463 0.38372684 -0.13047877 -0.055467468 -0.020367904
00000000: 96e2 34be 8530 6ebe 24ed 43be 582e da3e
00000010: 54c9 06be a0aa 9f3e db15 12be 6c49 433e
00000020: a484 cbba e8b8 a73e dce8 9bbe 626d d93b
00000030: 07c4 34be de87 c03e 2579 c23d ad2b 8dbe
00000040: 0a67 2dbe 7934 8abe 30da 0bbd d3b6 fa3d
00000050: 0c97 69be 8f52 1a3e 2a0b cc3d 1335 78bd
00000060: 0eb8 993d 0b9c abbe 52e8 993e e5c7 883e
00000070: 72cf 263e d5fb a43d 34a2 68be 556b fd3e
00000080: fa96 f8bd f9de 9a3e 846c bb3e 4776 e43e
00000090: 7c0b a1bd ea48 803e 41c8 f93e 9b5f 343d
000000a0: 6576 1f3d bcd1 0f3e e1f1 873d ec54 2dbf
000000b0: 3188 c73e 4c51 7dbe d2cf 09be c984 10bd
000000c0: 72dc 943e e8ab e6be de23 eabd ed29 9f3d
000000d0: be36 42be bf12 ccbd 5595 28bf 091d 363e
000000e0: 7f2c b5be 34f3 a33d 69b1 ccbe 2c9d 39be
000000f0: aa91 0dbe 39aa 313e 94b7 b23e 8be5 fb3e
00000100: 5b18 a6bd 3187 f93d 3a8a b83e 9d17 32bf
00000110: 9e03 1ebe 3ecc 89be a845 a63e f71e 1b3f
00000120: 274c 163e 056c ae3c 634e 963e 5173 353e
00000130: 2a16 803e 3857 48bb a9c6 ffbe 2074 56be
00000140: d788 3dbe 90a8 6fbe c97c 143e b317 a13e
00000150: cc0b f3bc 8527 b33a 28d8 093d 7a18 903d
00000160: 5659 09be 3a88 49be 0259 133e bb4c b8be
00000170: 09e0 b73d e84e 633e 2b7b 62be 7c59 7fbb
00000180: 1617 2abe 6fa1 873e 8034 0c3f 65c8 863c
00000190: c09f 65be fb43 0abf acd0 5b3e cd0c 13be
000001a0: 0bdf e63e a946 ec3e ffdc edbd 8bbc bdbe
000001b0: 5aaf 80bc b7f0 053e 8c3b 35bd dabe 273e
000001c0: b283 303e 17b7 3ebe 9736 42be 5166 49bc
000001d0: ff9f aebe c49b 8bbe 7347 6dbe bc56 d2bc
000001e0: c9e8 07bf 190e 5cbf c65b 8f3e 8281 7bbe
000001f0: 48bd 2fbe 8542 2a3d 221c 0a3d e886 0c3f
00000200: c8df b33d 0f22 38bf d713 e1bc 0b33 4bbe
00000210: 7e47 b4be fe6f 8fbe 8b2f 0e3e b562 e53e
00000220: bf8b a43e 9a9f 8e3e 9325 f9be 589a 96be
00000230: d877 c43e 3a9c 05be db31 63bd 97da a6bc

player_tree_2.W_self.bias f4 [12]
0.02278492 0.015919171 0.014176446 0.012386266 -0.014996 0.001923152 -0.013378153 0.009930081
0.02071318 -0.07086167 0.005701133 -0.009053074
00000000: 71a7 ba3c ec68 823c 5344 683c c4ef 4a3c
00000010: c8b1 75bc 4612 fc3a 0a30 5bbc c7b1 223c
00000020: b0ae a93c ec1f 91bd 92d0 ba3b 5853 14bc

player_tree_3.W.weight f4 [12, 12]
0.084163204 0.121968284 0.39872125 0.46249005 0.46394786 -0.14244859 0.48896387 0.28126127
-0.34682512 0.47418076 -0.3315184 0.5730764 0.26260024 -0.26496416 0.0033521913 0.58173877
0.23276281 0.27785477 0.20580661 -0.10892843 -0.49452084 0.146015 -0.10729352 0.088844106
-0.01744386 -0.45671687 0.09465579 0.072988294 0.18647103 -0.34938797 -0.5083425 0.23981494
0.34306464 -0.020530242 -0.6120237 -0.39778575 -0.54188615 0.47383815 -0.23649524 0.5302684
0.16747053 0.25698403 0.08898802 0.46662068 -0.20297725 0.35827935 0.3526245 0.037144504
-0.04361718 0.08334511 -0.58495253 -0.06375242 0.105048954 0.2531135 0.09079903 -0.52587
-0.00982167 0.24054974 0.20726013 0.33291557 -0.121508256 0.38936067 0.049689036 -0.009839473
-0.03883324 -0.019308243 0.032611348 -0.13160653 0.020453298 -0.106880784 -0.4059025 -0.42787343
0.16530094 -0.2590891 0.33752778 0.28107756 -0.016225666 -0.050628588 0.1492739 0.15434308
0.6340872 -0.010038811 -0.5230528 -0.26560077 0.41256604 0.038768545 -0.2884814 0.005499288
-0.45111912 0.2788312 -0.047787007 -0.24978071 0.6049742 -0.013406443 0.33764333 -0.303516
0.22252758 -0.06333155 -0.06992785 -0.070583284 -0.009705783 -0.21389179 -0.19458875 0.08732648
0.04395104 -0.36765686 -0.08223655 -0.1043018 0.0667104 0.016771004 0.24883507 -0.23753099
0.14583722 -0.38227168 -0.37354088 0.10892837 0.03845809 -0.5431079 -0.39788687 0.204055
0.32710755 -0.21440652 0.22161135 -0.56642246 -0.12178803 0.005437508 0.07349987 -0.3500898
0.17053792 -0.3347863 -0.36176473 -0.21764803 0.0769361 -0.06824364 0.3551211 0.02207496
-0.036474064 0.11502513 0.04559118 0.06616955 -0.40108037 -0.3504736 -0.48149985 0.29508796
00000000: c25d ac3d 82ca f93d 3125 cc3e 7fcb ec3e
00000010: 938a ed3e 0bde 11be 7959 fa3e 7a01 903e
00000020: 1093 b1be d2c7 f23e c8bc a9be 23b5 123f
00000030: 8a73 863e 62a9 87be 70b0 5b3b d5ec 143f
00000040: 6059 6e3e fb42 8e3e f8be 523e de15 dfbd
00000050: d631 fdbe f584 153e b4bc dbbd e6f3 b53d
00000060: 6de6 8ebc cbd6 e9be e5da c13d e37a 953d
00000070: 43f2 3e3e fbe2 b2be bc22 02bf 0c92 753e
00000080: 2ba6 af3e 0a2f a8bc 96ad 1cbf 93aa cbbe
00000090: 0db9 0abf ea9a f23e cf2b 72be abbf 073f
000000a0: 657d 2b3e 6993 833e 5a3f b63d e8e8 ee3e
000000b0: 45d9 4fbe 6470 b73e 338b b43e d624 183d
000000c0: eea7 32bd d7b0 aa3d 73bf 15bf a190 82bd
000000d0: e823 d73d 1898 813e d8f4 b93d 6b9f 06bf
000000e0: 12eb 20bc ac52 763e 003c 543e e973 aa3e
000000f0: 52d9 f8bd 485a c73e bb86 4b3d be35 21bc
00000100: 9a0f 1fbd 522c 9ebc 7a93 053d ddc3 06be
00000110: ad8d a73c 50e4 dabd 74d2 cfbe 3a12 dbbe
00000120: a644 293e 54a7 84be 71d0 ac3e 66e9 8f3e
00000130: b0eb 84bc ec5f 4fbd 42db 183e 1d0c 1e3e
00000140: 8a53 223f d379 24bc cae6 05bf d3fc 87be
00000150: db3b d33e c4cb 1e3d d6b3 93be 5f33 b43b
00000160: 16f9 e6be f7c2 8e3e 4fbc 43bd 84c6 7fbe
00000170: 97df 1a3f b3a6 5bbc 96df ac3e 7366 9bbe
00000180: 45de 633e f9b3 81bd 5536 8fbd f88d 90bd
00000190: 0105 1fbc 7306 5bbe 4642 47be 3ad8 b23d
000001a0: 0106 343d 853d bcbe a36b a8bd 2f9c d5bd
000001b0: 769f 883d 5863 893c 9fce 7e3e 533b 73be
000001c0: 5a56 153e 1db9 c3be c040 bfbe d615 df3d
000001d0: 3b86 1d3d 1f09 0bbf d4b7 cbbe cbf3 503e
000001e0: a47a a73e 628d 5bbe 16ee 623e 1001 11bf
000001f0: 016c f9bd 202d b23b 1a87 963d f83e b3be
00000200: 7ea1 2e3e 1c69 abbe 3a39 b9be 20df 5ebe
00000210: ad90 9d3d 52c3 8bbd 6fd2 b53e 8cd6 b43c
00000220: d465 15bd 4c92 eb3d d1bd 3a3d e783 873d
00000230: 685a cdbe 4771 b3be 2687 f6be c515 973e

player_tree_3.W.bias f4 [12]
0.020790892 -0.02063263 -0.01594395 0.04195443 -0.10438965 -0.029545689 -0.01136524 0.03366893
0.067346185 -0.015038717 0.0011592717 0.009027515
00000000: a951 aa3c c305 a9bc e39c 82bc 69d8 2b3d
00000010: 3eca d5bd cd09 f2bc 4635 3abc 6fe8 093d
00000020: ccec 893d f364 76bc b4f2 973a 24e8 133c

player_tree_3.W_self.weight f4 [12, 12]
0.18784824 -0.117643245 0.02121335 0.23020342 0.20829181 0.26165214 0.38853592 -0.35293037
-0.023928562 -0.08217333 -0.3503601 0.22425532 -0.56151897 -0.30437636 0.5408137 -0.18006243
0.45495996 0.10584587 -0.14427586 -0.016155628 -0.4644557 0.46945217 -0.32880512 -0.18258737
0.25172058 0.11797854 0.36956984 0.00730035 0.10959127 -0.38795683 -0.3465713 0.5367124
0.7421119 0.28370377 -0.1639774 0.035896238 0.23720817 -0.26166382 -0.25860155 0.44362196
-0.1350955 -0.42309323 -0.10397675 0.30296326 -0.59014916 -0.059307996 -0.29862368 -0.3855163
-0.3027487 -0.18366355 -0.31301793 -0.32660526 0.4328993 -0.00582084 0.2207094 -0.53100276
0.4481108 -0.3744469 -0.09525823 0.3794167 -0.27852982 0.11344938 0.5350886 -0.21738252
-0.05526494 0.21156073 -0.32677853 0.12495191 0.13930725 0.1635488 -0.29659054 -0.7440294
0.13042991 0.49784985 -0.05722991 0.12665354 0.095067695 0.16235915 -0.08036894 0.049131244
0.29551983 0.016994353 -0.21196993 0.24725154 0.33165836 -0.04338128 0.55015314 -0.2304074
-0.28897807 0.090508305 0.029818933 -0.09347496 -0.20004405 -0.07812686 0.4956287 -0.29465106
0.09669245 0.1330578 0.50183696 -0.06678226 -0.02117536 -0.06604095 -0.42513874 -0.2325898
-0.017762134 -0.4113859 -0.28451928 -0.08071001 0.2709553 0.11730399 0.30044198 -0.081288256
0.19808179 -0.6025735 0.0037565832 -0.40119615 -0.0370685 0.17527743 0.52396685 0.049357727
-0.07428078 -0.066849224 -0.0033868176 -0.066389546 0.35190547 0.2793601 -0.04852258 0.37362272
-0.03430332 0.04231301 0.057035755 -0.7212489 0.69198287 -0.37040734 0.09298677 0.48997274
0.4069417 -0.5538871 -0.07340367 -0.05134275 -0.40037915 0.18130727 -0.29206952 -0.03274429
00000000: 4a5b 403e f1ee f0bd 9fc7 ad3c 72ba 6b3e
00000010: 734a 553e 45f7 853e 2eee c63e 4ab3 b4be
00000020: d505 c4bc 7e4a a8bd 6662 b3be 30a3 653e
00000030: b5bf 0fbf 38d7 9bbe c472 0a3f 4962 38be
00000040: 83f0 e83e b8c5 d83d 0dbd 13be cf58 84bc
00000050: 23cd edbe 095c f03e 2559 a8be 2ff8 3abe
00000060: 85e1 803e bc9e f13d 4238 bd3e c637 ef3b
00000070: 6371 e03d 47a2 c6be cb71 b1be fc65 093f
00000080: 0cfb 3d3f 9f41 913e b1e9 27be ef07 133d
00000090: b3e6 723e cdf8 85be 6c67 84be 6b22 e33e
000000a0: 7a56 0abe ad9f d8be c3f1 d4bd 001e 9b3e
000000b0: 0414 17bf f1ec 72bd 34e5 98be 6462 c5be
000000c0: e101 9bbe 4c12 3cbe e343 a0be ce38 a7be
000000d0: faa4 dd3e bfbc bebb a501 623e ccef 07bf
000000e0: c76e e53e 81b7 bfbe bf16 c3bd e842 c23e
000000f0: 769b 8ebe 2658 e83d 91fb 083f 8699 5ebe
00000100: 7d5d 62bd 60a3 583e 844f a7be c9e6 ff3d
00000110: 8fa6 0e3e 5679 273e b7da 97be b678 3ebf
00000120: 6b8f 053e 2de6 fe3e e969 6abd 77b1 013e
00000130: dab2 c23d 7a41 263e 7998 a4bd d83d 493d
00000140: 604e 973e be37 8b3c a50e 59be 822f 7d3e
00000150: 20cf a93e 92b0 31bd d6d6 0c3f ebef 6bbe
00000160: eff4 93be 6b5c b93d d646 f43c cd6f bfbd
00000170: 59d8 4cbe fa00 a0bd 0cc3 fd3e 81dc 96be
00000180: b106 c63d 4e40 083e 6378 003f 23c5 88bd
00000190: f377 adbc 7a40 87bd c9ab d9be 052c 6ebe
000001a0: e581 91bc 2ca1 d2be 83ac 91be 4a4b a5bd
000001b0: a7ba 8a3e 133d f03d 88d3 993e 757a a6bd
000001c0: f4d5 4a3e 4242 1abf 0231 763b 9569 cdbe
000001d0: 24d5 17bd ed7b 333e b122 063f 542b 4a3d
000001e0: 8620 98bd 3fe8 88bd 5ff5 5dbb 3ef7 87bd
000001f0: f42c b43e 4908 8f3e 9dbf 46bd 7a4b bf3e
00000200: a381 0cbd 6850 2d3d 539e 693d c5a3 38bf
00000210: ca25 313f 08a6 bdbe d96f be3d b5dd fa3e
00000220: aa5a d03e 8ccb 0dbf aa54 96bd c74c 52bd
00000230: 7ffe ccbe 9da8 393e 238a 95be e01e 06bd

player_tree_3.W_self.bias f4 [12]
0.020790892 -0.02063263 -0.01594395 0.04195443 -0.10438965 -0.029545689 -0.01136524 0.03366893
0.067346185 -0.015038717 0.0011592717 0.009027515
00000000: a951 aa3c c305 a9bc e39c 82bc 69d8 2b3d
00000010: 3eca d5bd cd09 f2bc 4635 3abc 6fe8 093d
00000020: ccec 893d f364 76bc b4f2 973a 24e8 133c

player_tree_4.weight f4 [8, 12]
-0.05265269 -0.6845509 0.3398206 -0.4237714 -0.7118913 -0.33090293 0.18654832 -0.23346795
0.14855066 0.32326245 0.002943298 -0.37258163 0.2698776 0.09305658 -0.27808416 0.18517487
-0.0076770415 -0.24651976 -0.38185424 0.21408494 0.40606338 -0.38759622 -0.37954414 0.6836879
0.07010457 0.028457 -0.08878502 0.014504105 -0.2334415 0.018629082 0.017206715 -0.57042605
0.7765252 -0.09477923 -0.051993318 0.05681602 0.3259171 -0.08348826 0.22140218 -0.026735814
-0.00036016625 -0.61399287 0.09303697 0.23252662 -0.037994683 0.4169549 0.24095774 0.22298722
0.41979247 0.64890075 -0.55015224 -0.14345394 -0.179477 0.39593378 -0.3700779 0.24939428
0.064254396 -0.057841934 0.5068664 -0.84988594 0.24521291 0.11158712 0.31798548 0.53826606
0.022834197 0.101801105 0.06133959 0.36603433 -0.124270774 0.12449828 0.13961707 -0.28675947
-0.17344107 0.20728987 -0.21261811 0.8117795 0.52074283 -0.62801576 0.18500303 0.057401344
0.22624105 -0.526652 0.05044103 -0.24260029 0.12820947 0.53245753 0.027342144 -0.95290315
-0.14963661 0.7863474 0.05836827 -0.50241464 -0.105321445 -0.032023594 0.22325863 0.3867257
00000000: 59aa 57bd ba3e 2fbf f7fc ad3e 91f8 d8be
00000010: 823e 36bf 1c6c a9be 8606 3f3e 3912 6fbe
00000020: aa1d 183e a882 a53e 59e4 403b 05c3 bebe
00000030: 662d 8a3e 7394 be3d 0c61 8ebe 7b9e 3d3e
00000040: b18f fbbb ad6f 7cbe 6682 c3be 1539 5b3e
00000050: 8ae7 cf3e 0373 c6be 9c53 c2be 2c06 2f3f
00000060: fc92 8f3d a81e e93c ecd4 b5bd a0a2 6d3c
00000070: 4a0b 6fbe 049c 983c 19f5 8c3c 7107 12bf
00000080: 5bca 463f 9d1b c2bd f2f6 54bd eab7 683d
00000090: 9bde a63e e5fb aabd 41b7 623e 1105 dbbc
000000a0: b2d4 bcb9 a32e 1dbf 2b8a be3d 751b 6e3e
000000b0: 50a0 1bbd 1d7b d53e a0bd 763e c356 643e
000000c0: 0aef d63e 5c1e 263f c7d6 0cbf 97e5 12be
000000d0: d2c8 37be d5b7 ca3e da7a bdbe 3761 7f3e
000000e0: cf97 833d aaeb 6cbd ffc1 013f 2092 59bf
000000f0: 1819 7b3e ca87 e43d fece a23e cecb 093f
00000100: c80e bb3c 197d d03d 393f 7b3d da68 bb3e
00000110: ad81 febd f4f8 fe3d c7f7 0e3e 23d2 92be
00000120: 899a 31be cc43 543e 90b8 59be c8d0 4f3f
00000130: 674f 053f a4c5 20bf 6f71 3d3e ac1d 6b3d
00000140: bcab 673e aad2 06bf 419b 4e3d 366c 78be
00000150: 5849 033e 234f 083f a2fc df3c 76f1 73bf
00000160: 573a 19be 104e 493f 9113 6f3d 3f9e 00bf
00000170: c5b2 d7bd 2c2b 03bd e99d 643e e900 c63e

player_tree_4.bias f4 [8]
0.01795153 0.07842035 -0.04309231 0.021921221 -0.024599679 0.02113444 0.029154764 0.0012271927
00000000: 160f 933c d99a a03d 9081 30bd 2294 b33c
00000010: 4485 c9bc 2222 ad3c f9d5 ee3c c1d9 a03a

sun_influence_1.W.weight f4 [12, 12]
-0.22474448 -0.5846115 -0.7160484 0.46875384 0.18339555 -0.15807803 0.028664228 0.10500782
0.6406231 0.14335023 0.6178442 0.24463008 0.21094543 -0.6155653 -0.3182153 -0.19166195
-0.34397537 -0.2812906 -0.571666 -0.5838999 -0.100449495 -0.22753067 0.0029508746 -0.21637537
-0.45316476 0.40989578 0.19041476 0.1479566 -0.587376 -0.053540315 0.08271481 0.19048704
0.07291879 0.09401082 -0.33481178 0.07622703 -0.16833577 -0.21311203 0.39662153 0.4321496
-0.10731232 -0.4115755 0.24628416 -0.18157537 -0.11642372 0.19820799 0.2835177 0.14149794
0.11970745 -0.16311099 -0.23445629 0.24593583 0.1374695 0.19711001 -0.22427224 -0.40667352
0.45405456 -0.16992535 -0.4243518 -0.068032175 0.3530137 -0.28396094 0.27572766 -0.12684123
-0.017051 -0.29713646 0.15540095 -0.0666681 -0.08418455 0.20480204 0.45534295 -0.068835855
0.23761556 0.0037565536 0.1619099 -0.56564057 0.30420452 -0.06923909 0.26007435 0.10671864
-0.7923851 0.087631315 -0.11513828 0.36653534 -0.028579976 -0.47135675 -0.082602546 0.333156
-0.032421883 1.0088335 -0.25729153 0.10146151 0.2364149 -0.06963553 0.62880355 -0.031808123
0.54012203 -0.09566403 0.298459 0.12059145 -0.36668047 0.04628231 0.2207929 0.09891464
-0.050924126 0.077196665 -0.18064365 -0.06109783 -0.10108584 -0.056423426 0.6540301 -0.6749523
-0.3010238 0.12763019 -0.50921077 -0.19474967 -0.29786918 -0.5388119 0.16545522 0.11186562
-0.27409664 -0.19860947 0.27648318 -0.57178646 -0.3815851 -0.067519896 -0.26437342 0.05722776
0.107173204 -0.03515427 0.29942933 -0.036124066 0.223168 -0.21227773 -0.5165197 -0.117095664
-0.38605335 0.17877169 -0.020922344 0.39230436 0.073875725 0.3733119 -0.02100925 -0.021439321
00000000: 6b23 66be 19a9 15bf f34e 37bf 8100 f03e
00000010: 0bcc 3b3e 35df 21be 3ed1 ea3c 570e d73d
00000020: e0ff 233f 67ca 123e 0a2b 1e3f 4f80 7a3e
00000030: 1402 583e b095 1dbf 1eed a2be 0843 44be
00000040: 8a1d b0be 5205 90be b458 12bf 777a 15bf
00000050: 77b8 cdbd cdfd 68be 7663 413b 8191 5dbe
00000060: 3605 e8be dcdd d13e 16fc 423e ef81 173e
00000070: 465e 16bf 174d 5bbd 6266 a93d 090f 433e
00000080: 7256 953d bf88 c03d 736c abbe eb1c 9c3d
00000090: 3660 2cbe 0a3a 5abe fa11 cb3e b642 dd3e
000000a0: 90c6 dbbd 06ba d2be ea31 7c3e e5ee 39be
000000b0: 8f6f eebd 09f7 4a3e 3b29 913e d6e4 103e
000000c0: 2e29 f53d 9106 27be 4f15 70be 9ad6 7b3e
000000d0: cec4 0c3e 35d7 493e 9fa7 65be 8337 d0be
000000e0: d779 e83e e900 2ebe a444 d9be 7454 8bbd
000000f0: 36be b43e 5463 91be 2d2c 8d3e abe2 01be
00000100: 8aae 8bbc 4522 98be 6d21 1f3e 4989 88bd
00000110: f368 acbd a0b7 513e b622 e93e d0f9 8cbd
00000120: 7e51 733e 8330 763b b5cb 253e d2cd 10bf
00000130: b2c0 9b3e 39cd 8dbd 7728 853e 4d8f da3d
00000140: c0d9 4abf 0c78 b33d 9ecd ebbd 85aa bb3e
00000150: 8e20 eabc ac55 f1be 862b a9bd 6c93 aa3e
00000160: cfcc 04bd 7521 813f b7bb 83be 0dcb cf3d
00000170: bf16 723e 139d 8ebd 45f9 203f 3c49 02bd
00000180: 7045 0a3f 81eb c3bd 9ecf 983e a6f8 f63d
00000190: 8bbd bbbe 8592 3d3d 8917 623e c293 ca3d
000001a0: d195 50bd 4919 9e3d a6fa 38be b841 7abd
000001b0: 1806 cfbd 401c 67bd 846e 273f adc9 2cbf
000001c0: cb1f 9abe 7db1 023e a35b 02bf 756c 47be
000001d0: 4f82 98be 94ef 09bf 186d 293e cd19 e53d
000001e0: 6556 8cbe 4860 4bbe 348f 8d3e 9960 12bf
000001f0: 1f5f c3be df47 8abd f45b 87be a867 6a3d
00000200: a07d db3d ecfd 0fbd cd4e 993e d4f6 13bd
00000210: 2786 643e 555f 59be a33a 04bf dacf efbd
00000220: c9a8 c5be ed0f 373e 5665 abbc 1edc c83e
00000230: 284c 973d bd22 bf3e 971b acbc 84a1 afbc

sun_influence_1.W.bias f4 [12]
0.07360279 0.04801424 -0.013236165 0.06381696 -0.0506277 0.04525152 -0.036858134 -0.020786863
-0.09171088 -0.06619599 -0.052572783 0.10512365
00000000: 0fbd 963d 94aa 443d 80dc 58bc 77b2 823d
00000010: fe5e 4fbd a859 393d 8ef8 16bd 3649 aabc
00000020: ead2 bbbd c391 87bd 8f56 57bd 114b d73d

sun_influence_1.W_self.weight f4 [12, 12]
0.007170751 0.17167741 0.05966698 -0.4172019 0.45982885 -0.30822113 -0.23903388 0.038632147
0.2687464 -0.33139262 -0.28426123 -0.24357817 0.26445276 0.054693397 -0.079913326 -0.11091651
0.16249664 0.15063961 -0.1014609 0.15925123 -0.07484363 0.022180105 -0.03424106 -0.0772953
-0.102876075 -0.07603646 0.5818385 -0.1615005 0.18391047 -0.010654328 0.39424002 0.12364588
0.42635968 0.24297881 -0.05598626 0.20487157 -0.18490943 0.017914739 0.27482694 -0.014542443
-0.26828685 0.27739924 0.23072077 0.15970398 -0.029018855 -0.40224326 0.2523624 0.040440507
-0.19068626 0.23667559 -0.32213986 -0.33467194 -0.20053883 0.2961849 0.13464493 -0.33171433
0.15126391 -0.18622375 0.19148329 0.19309995 -0.3251368 -0.008249078 0.5807677 -0.1302728
-0.2899301 -0.49982744 0.6574705 -0.17507072 0.049614474 -0.021242397 0.6007582 0.17398608
-0.4200377 -0.082517475 -0.5543377 -0.049352754 0.029564394 0.14229776 0.043146778 0.04633249
-0.11097932 -0.1664113 0.48760998 0.097124256 -0.53785306 -0.090910085 -0.071860366 0.7384319
-0.1133531 0.73411435 -0.4534936 -0.61181885 0.16799892 0.008140566 -0.60682756 0.24861802
-0.29232523 0.15806508 -0.2844922 0.044648588 -0.09257639 -0.13393308 -0.1724208 0.368702
-0.43012282 -0.091494694 -0.22334102 -0.011644854 0.18442918 -0.6805883 0.033753425 0.31424457
0.0222702 0.16518934 -0.28267083 -0.5921256 0.23557697 0.33403212 0.8349146 -0.33783147
-0.5412304 0.01679342 -0.1930283 -0.3387088 -0.16240595 0.5517754 -0.14670281 -0.41607162
-0.002522821 0.50776637 0.0019060735 -0.30242997 -0.3031284 0.37962937 -0.0664883 -0.4635663
-0.45409566 -0.23669878 0.06796868 -0.16374499 -0.26197565 0.3564714 -0.29713172 -0.34105185
00000000: 9ff8 ea3b 34cc 2f3e 5d65 743d 7d9b d5be
00000010: b06e eb3e 29cf 9dbe 4cc5 74be be3c 1e3d
00000020: 2199 893e 4bac a9be b08a 91be 8e6c 79be
00000030: 5a66 873e 2f06 603d 99a9 a3bd 3228 e3bd
00000040: 8565 263e 4541 1a3e bbca cfbd c112 233e
00000050: 9e47 99bd 0db3 b53c 5b40 0cbd 004d 9ebd
00000060: b1b0 d2bd 01b9 9bbd 5ef3 143f 6360 25be
00000070: 0753 3c3e 7e8f 2ebc d4d9 c93e 0d3a fd3d
00000080: d14b da3e 70cf 783e d951 65bd dac9 513e
00000090: e658 3dbe eec1 923c 1eb6 8c3e 6d43 6ebc
000000a0: e55c 89be 4607 8e3e 1142 6c3e 7189 233e
000000b0: f3b8 edbc d4f2 cdbe a535 813e f2a4 253d
000000c0: 4243 43be 165b 723e 84ef a4be 1f5a abbe
000000d0: 0d5a 4dbe 8ca5 973e 5ce0 093e 76d6 a9be
000000e0: ede4 1a3e 70b1 3ebe 3214 443e febb 453e
000000f0: 5578 a6be 2427 07bc 31ad 143f 3c66 05be
00000100: b871 94be 62e9 ffbe fd4f 283f bd45 33be
00000110: 8c38 4b3d 8904 aebc 4acb 193f 6829 323e
00000120: 2e0f d7be ecfe a8bd 13e9 0dbf 1d26 4abd
00000130: 0731 f23c 81b6 113e adba 303d 23c7 3d3d
00000140: 2049 e3bd b967 2abe 04a8 f93e 15e9 c63d
00000150: bdb0 09bf 112f babd 872b 93bd df09 3d3f
00000160: ac25 e8bd ebee 3b3f 5030 e8be 29a0 1cbf
00000170: e907 2c3e 0260 053c 0d59 1bbf b995 7e3e
00000180: a7ab 95be d0db 213e f6a8 91be 70e1 363d
00000190: b198 bdbd c125 09be 148f 30be 82c6 bc3e
000001a0: 0f39 dcbe 9261 bbbd 82b3 64be 0fca 3ebc
000001b0: 01db 3c3e 093b 2ebf 0841 0a3d aae4 a03e
000001c0: ff6f b63c 6527 293e 3bba 90be 8b95 17bf
000001d0: 173b 713e 4206 ab3e f7bc 553f 3ff8 acbe
000001e0: 138e 0abf 5b92 893c 36a9 45be 3d6b adbe
000001f0: bf4d 26be 2741 0d3f 4339 16be 5707 d5be
00000200: ea55 25bb fafc 013f 37d5 f93a 1ad8 9abe
00000210: a533 9bbe c85e c23e 052b 88bd 9058 edbe
00000220: 3a7f e8be 2a61 72be 2a33 8b3d c4ac 27be
00000230: ac21 86be 6b83 b63e a621 98be 599e aebe

sun_influence_1.W_self.bias f4 [12]
0.07360279 0.04801424 -0.013236165 0.06381696 -0.0506277 0.04525152 -0.036858134 -0.020786863
-0.09171088 -0.06619599 -0.052572783 0.10512365
00000000: 0fbd 963d 94aa 443d 80dc 58bc 77b2 823d
00000010: fe5e 4fbd a859 393d 8ef8 16bd 3649 aabc
00000020: ead2 bbbd c391 87bd 8f56 57bd 114b d73d

sun_influence_2.W.weight f4 [12, 12]
-0.12030205 0.06967131 -0.29627633 0.015646083 -0.18741335 0.14840972 -0.35533646 -0.2945937
0.027059712 0.024879232 -0.42883185 -0.052875604 0.5009965 0.20553458 -0.24715461 0.17484596
0.31388658 0.19985296 0.4691812 -0.40695098 0.00015244345 -0.01442938 -0.05268741 -0.20889501
-0.071045965 -0.22919779 0.13293472 -0.111912526 0.2396171 0.097539835 0.30083323 0.34409213
-0.014808169 0.36228037 -0.40083724 -0.22328228 0.11336166 -0.1818012 0.15730922 0.20237449
0.033555567 0.26386604 -0.22703043 0.06597869 -0.06653365 0.077616744 -0.044556826 -0.12430461
0.1727769 0.11234847 0.46818334 0.3743365 0.002779045 -0.36391607 -0.19683473 0.1980245
-0.2010173 0.36669156 0.15597196 -0.19348022 0.3192338 0.19944254 0.24472989 0.0532939
0.23825282 -0.06824958 -0.054238338 -0.2721509 0.20305571 0.1035313 -0.18963087 0.03746234
-0.17915861 -0.74703646 0.6062906 -0.7047074 0.19609416 0.01423224 -0.086976774 0.27298242
0.09351097 0.057742126 -0.1290398 -0.09170716 0.23563159 0.07603388 -0.24186127 0.24793129
0.5690896 -0.06726668 -0.0049714968 -0.32665688 0.026149781 -0.1770384 -0.873879 -0.1323237
-0.12354044 -0.09946449 0.28746355 0.6073213 -0.2075425 0.0022697535 0.22433735 -0.1589709
-0.5399776 -0.046918012 -0.11932693 0.24175535 0.4227166 -0.12193552 0.15107982 -0.25782177
-0.15124144 -0.15893935 0.06291611 0.008798984 -0.063651875 0.17529653 0.35393456 0.11410362
-0.23616298 -0.037885472 0.21610872 0.269272 0.09212819 0.20003325 -0.24731328 -0.0358484
-0.04203903 0.19449648 -0.023003187 0.47549948 -0.124671206 -0.31538638 0.16701089 0.5177102
-0.039953373 0.46648186 -0.37711006 0.4401924 -0.6003739 -0.5535152 0.121255316 0.051789705
00000000: ec60 f6bd d5af 8e3d 88b1 97be 372c 803c
00000010: 49e9 3fbe b8f8 173e a9ee b5be fcd4 96be
00000020: 54ac dd3c 88cf cb3c d98f dbbe 1794 58bd
00000030: 4e41 003f a877 523e 1916 7dbe d20a 333e
00000040: beb5 a03e 41a6 4c3e 8538 f03e e15b d0be
00000050: 3ad9 1f39 3569 6cbc c1ce 57bd 93e8 55be
00000060: 8c80 91bd d3b2 6abe 0a20 083e 6532 e5bd
00000070: 2f5e 753e f7c2 c73d d006 9a3e d82c b03e
00000080: f69d 72bc d07c b93e 8a3a cdbe 1ca4 64be
00000090: 282a e83d 182a 3abe ab15 213e 423b 4f3e
000000a0: 9071 093d 7319 873e aa7a 68be d61f 873d
000000b0: cb42 88bd 87f5 9e3d 3881 36bd 6a93 febd
000000c0: 6dec 303e f416 e63d bab5 ef3e 09a9 bf3e
000000d0: a320 363b 3553 babe 0b8f 49be efc6 4a3e
000000e0: 7bd7 4dbe ffbe bb3e 1db7 1f3e ae1f 46be
000000f0: 9d72 a33e aa3a 4c3e 799a 7a3e b44a 5a3d
00000100: 8cf8 733e 70c6 8bbd 0529 5ebd 5d57 8bbe
00000110: d6ed 4f3e 3808 d43d 982e 42be 1c72 193d
00000120: 5b75 37be c83d 3fbf dc35 1b3f b467 34bf
00000130: e8cc 483e 572e 693c e120 b2bd 5ac4 8b3e
00000140: ae82 bf3d 0283 6c3d 0223 04be f7d0 bbbd
00000150: 6849 713e a7b7 9b3d 7baa 77be b3e1 7d3e
00000160: dbaf 113f 1dc3 89bd f0e7 a2bb 923f a7be
00000170: 1138 d63c 8e49 35be 89b6 5fbf dd7f 07be
00000180: c502 fdbd 0ab4 cbbd 6c2e 933e 6979 1b3f
00000190: 0586 54be 25c0 143b b1b8 653e 45c9 22be
000001a0: f93b 0abf 1a2d 40bd ad61 f4bd b78e 773e
000001b0: 4f6e d83e 54b9 f9bd abb4 1a3e 3701 84be
000001c0: 09df 1abe ffc0 22be 29da 803d 9d29 103c
000001d0: ea5b 82bd ef80 333e e936 b53e 29af e93d
000001e0: b5d4 71be cc2d 1bbd 9b4b 5d3e 05de 893e
000001f0: b4ad bc3d 84d5 4c3e b13f 7dbe c6d5 12bd
00000200: 1e31 2cbd 162a 473e 2e71 bcbc ab74 f33e
00000210: 9e53 ffbd 537a a1be e704 2b3e a888 043f
00000220: 26a6 23bd b6d6 ee3e 9214 c1be e660 e13e
00000230: 1bb2 19bf 2cb3 0dbf b554 f83d 7121 543d

sun_influence_2.W.bias f4 [12]
0.053910498 -0.028636908 0.009292581 -0.06156283 -0.052462723 -0.0040597236 -0.005087364 -0.027345255
0.0029752986 0.080430426 0.0017176938 -0.029619044
00000000: 41d1 5c3d f397 eabc e93f 183c 4e29 7cbd
00000010: 27e3 56bd 6e07 85bb e7b3 a6bb 2803 e0bc
00000020: 3afd 423b b5b8 a43d 3d24 e13a a3a3 f2bc

sun_influence_2.W_self.weight f4 [12, 12]
-0.13621086 0.34472463 -0.13236673 -0.50176585 0.27718577 0.19809905 -0.41269177 0.25676316
0.009649884 -0.155147 0.5283159 0.10262608 0.036448088 -0.123222515 0.27593562 0.11132982
0.39910096 -0.21616974 0.34434384 0.16109057 0.13433652 -0.35133147 0.117259175 -0.4643303
-0.2703904 -0.038331054 0.52290946 0.38331732 -0.48563176 0.40827122 0.19981578 -0.5439006
-0.41587505 0.05702675 -0.1693488 -0.18316825 -0.44107473 -0.20083408 0.2545153 -0.08597332
0.1509974 -0.010755798 -0.13552465 -0.1498308 0.24771312 0.36389706 0.51285565 -0.24722216
-0.5570208 0.080243394 -0.11934223 0.022470305 0.11752207 -0.24006204 -0.11462973 0.09564617
0.024955278 0.337316 0.044019807 0.17344965 1.229738 -0.61356294 0.27996606 -0.347292
-0.00090837316 -0.04400784 -0.0068410784 0.02650581 0.27620146 -0.1383419 -0.15169536 -0.5508588
0.08644857 0.121037215 0.0049236272 -0.21515213 -0.035831418 -0.44112578 0.18715236 -0.036609665
0.4292815 0.10481454 -0.029265013 0.05458163 -0.30342102 0.1937092 0.48206273 0.15102442
0.026643163 -0.2600072 0.30990815 0.46851602 -0.08576315 -0.37787676 0.23189846 0.1092045
0.36661676 0.04037127 -0.24336484 -0.21992281 -0.3212245 -1.1161754 -0.115869775 0.561648
0.3766957 -0.012973276 -0.018532438 -0.38467133 0.4389348 0.22062446 0.2094942 0.0031261302
0.1628669 0.4269579 -0.07258339 -0.84890616 -0.08139409 0.35551775 0.034742195 0.4267367
0.33679166 -0.22006366 0.068365306 0.0440686 -0.058690038 0.24702546 -0.38996506 0.08066919
0.17092949 0.16329055 -0.053937145 0.18623157 0.13726585 -0.13050984 -0.31118754 0.11626764
0.09989656 0.2931465 0.53253484 -0.07235767 -0.048121292 -0.009392813 0.275815 -0.15178813
00000000: dc7a 0bbe bf7f b03e 258b 07be ba73 00bf
00000010: 4beb 8d3e 7ada 4a3e 564c d3be 7676 833e
00000020: 8c1a 1e3c dbde 1ebe b63f 073f 9f2d d23d
00000030: 974a 153d 165c fcbd 6f47 8d3e e300 e43d
00000040: f656 cc3e 9a5b 5dbe d64d b03e edf4 243e
00000050: 838f 093e b8e1 b3be 9425 f03d b3bc edbe
00000060: 9c70 8abe 0601 1dbd 65dd 053f 2b42 c43e
00000070: baa4 f8be ed08 d13e 829c 4c3e 123d 0bbf
00000080: 93ed d4be e294 693d c669 2dbe 7590 3bbe
00000090: 8cd4 e1be 73a7 4dbe d44f 823e c812 b0bd
000000a0: 109f 1a3e 1639 30bc f9c6 0abe 3f6d 19be
000000b0: 82a8 7d3e b750 ba3e 824a 033f ce27 7dbe
000000c0: ea98 0ebf a656 a43d b369 f4bd a513 b83c
000000d0: 69af f03d d3d2 75be fec2 eabd 24e2 c33d
000000e0: 036f cc3c afb4 ac3e 1d4e 343d c99c 313e
000000f0: 0e68 9d3f 7612 1dbf b657 8f3e 42d0 b1be
00000100: e41f 6eba 9141 34bd 202b e0bb b622 d93c
00000110: 476a 8d3e 80a9 0dbe 0756 1bbe 1505 0dbf
00000120: f30b b13d 5ce2 f73d 6156 a13b d750 5cbe
00000130: f7c3 12bd 3ddb e1be dea4 3f3e 04f4 15bd
00000140: c9ca db3e 01a9 d63d 2ebd efbc fd90 5f3d
00000150: 005a 9bbe b45b 463e edd0 f63e 25a6 1a3e
00000160: c342 da3c aa1f 85be 48ac 9e3e 55e1 ef3e
00000170: 97a4 afbd 1079 c1be ca76 6d3e 9ca6 df3d
00000180: 31b5 bb3e 585c 253d a234 79be 7233 61be
00000190: 8a77 a4be d6de 8ebf 224d edbd 2ac8 0f3f
000001a0: 42de c03e dd8d 54bc 57d1 97bc a4f3 c4be
000001b0: 10bc e03e 61eb 613e a685 563e c3df 4c3b
000001c0: 95c6 263e 3a9a da3e 9aa6 94bd ea51 59bf
000001d0: f2b1 a6bd 6c06 b63e d54d 0e3d 3c7d da3e
000001e0: f56f ac3e 5e58 61be 1c03 8c3d 4781 343d
000001f0: f764 70bd 3ef4 7c3e 80a9 c7be e335 a53d
00000200: 2408 2f3e a335 273e 32ed 5cbd 7db3 3e3e
00000210: 6b8f 0c3e 5fa4 05be f953 9fbe ba1d ee3d
00000220: 9196 cc3d 4c17 963e 3454 083f 4230 94bd
00000230: d51a 45bd 50e4 19bc a037 8d3e 596e 1bbe

sun_influence_2.W_self.bias f4 [12]
0.053910498 -0.028636908 0.009292581 -0.06156283 -0.052462723 -0.0040597236 -0.005087364 -0.027345255
0.0029752986 0.080430426 0.0017176938 -0.029619044
00000000: 41d1 5c3d f397 eabc e93f 183c 4e29 7cbd
00000010: 27e3 56bd 6e07 85bb e7b3 a6bb 2803 e0bc
00000020: 3afd 423b b5b8 a43d 3d24 e13a a3a3 f2bc

sun_influence_3.W.weight f4 [12, 12]
-0.10435581 -0.13308248 0.24559376 0.1511774 0.2851469 -0.5346139 -0.2295342 0.14912394
0.06281206 0.05806182 0.2193823 -0.073788874 0.12793092 -0.0715486 0.28381866 -0.4342415
-0.07989055 -0.21888502 -0.38096753 -0.16994195 0.0545303 -0.48309693 0.21139716 -0.08288804
0.6116414 0.1305819 -0.10001754 0.0556372 -0.02300302 0.28949305 0.19866106 0.12007023
0.107200496 0.15384437 0.1683139 -0.6820342 0.44207126 0.4414816 0.34023044 0.1608428
0.026002152 0.31459305 -0.4542013 -0.04854426 0.20338145 0.062040232 -0.43544373 -0.1777175
-0.40656424 -0.33087903 0.49291003 -0.28224003 0.07415027 0.10912608 0.6044985 0.021051196
-0.7531505 0.3734223 -0.043621518 0.069748126 -0.47033834 -0.40784293 0.2051359 0.20477872
-0.009588454 0.060714666 0.004587495 0.14048995 -0.12847349 -0.0015369655 -0.2249085 -0.11778865
0.11831165 0.038935404 0.081130356 -0.25759828 0.100347474 0.5123941 -0.33239055 0.16457842
0.20957248 0.123316675 -0.11319473 0.06285197 -0.23471755 0.39706916 0.18993202 0.06329717
0.2995638 -0.012422649 0.0023067778 -0.6361768 -0.24173637 -0.29484552 0.1481455 -0.18999164
0.17384718 0.26110297 0.10443777 -0.21449298 0.12302936 0.15743247 0.37378222 -0.27915907
-0.10847149 0.05598221 0.034508463 -0.36567694 0.21251547 -0.13353446 0.5002935 0.039739832
-0.025430463 0.07893059 -0.35145935 0.6019112 0.3668008 -0.17600268 0.086442776 -0.13850342
0.13063689 -0.13551642 -0.09109502 -0.10662589 0.040116996 -0.23049213 0.3494625 -0.25567475
0.32633555 -0.05500998 -0.085868545 -0.4282016 -0.11783387 -0.104628906 -0.5711249 -0.24578309
-0.12929101 0.10797829 -0.38937292 0.09476568 -0.26506776 0.48706114 -0.070142515 -0.2644933
00000000: 80b8 d5bd c646 08be ee7c 7b3e 40ce 1a3e
00000010: c6fe 913e 75dc 08bf 030b 6bbe f2b3 183e
00000020: 9ca3 803d 3bd2 6d3d c1a5 603e 9f1e 97bd
00000030: 5300 033e 1388 92bd ae50 913e e754 debe
00000040: a89d a3bd 6523 60be 2d0e c3be 4305 2ebe
00000050: 2a5b 5f3d 7b58 f7be 7f78 583e 34c1 a9bd
00000060: 8894 1c3f 43b7 053e ffd5 ccbd d5e3 633d
00000070: d470 bcbc 6f38 943e ce6d 4b3e 61e7 f53d
00000080: ef8b db3d 6189 1d3e 7b5a 2c3e cb99 2ebf
00000090: 2a57 e23e e009 e23e af32 ae3e fab3 243e
000000a0: 7702 d53c 5712 a13e 138d e8be 59d6 46bd
000000b0: 3a43 503e e61d 7e3d 7bf2 debe 94fb 35be
000000c0: 3029 d0be fa68 a9be b45e fc3e c481 90be
000000d0: 19dc 973d 7f7d df3d 6ac0 1a3f 8f73 ac3c
000000e0: 79ce 40bf 3531 bf3e 7aac 32bd 1bd8 8e3d
000000f0: 30d0 f0be cad0 d0be 250f 523e 83b1 513e
00000100: e418 1dbc f1af 783d b252 963b 99dc 0f3e
00000110: 8e8e 03be 0174 c9ba 6a4e 66be 2d3b f1bd
00000120: 614d f23d bb7a 1f3d ac27 a63d ece3 83be
00000130: fa82 cd3d 422c 033f 182f aabe 3f87 283e
00000140: 2b9a 563e 748d fc3d a3d2 e7bd 89b8 803d
00000150: cc59 70be a64c cb3e 8a7d 423e f2a1 813d
00000160: 6d60 993e 5e88 4bbc 4f2d 173b 7cdc 22bf
00000170: bd89 77be fef5 96be 74b3 173e 2b8d 42be
00000180: ff04 323e 4aaf 853e 78e3 d53d 0ca4 5bbe
00000190: d1f6 fb3d fa35 213e 6260 bf3e f0ed 8ebe
000001a0: 4d26 debd 9a4d 653d bf58 0d3d 023a bbbe
000001b0: a89d 593e 42bd 08be 3c13 003f 3cc6 223d
000001c0: 8c53 d0bc 5ca6 a13d 7bf2 b3be da16 1a3f
000001d0: 51cd bb3e 0c3a 34be e908 b13d d7d3 0dbe
000001e0: adc5 053e d1c4 0abe 0790 babd ad5e dabd
000001f0: b851 243d 2106 6cbe c0ec b23e cde7 82be
00000200: 7415 a73e 2552 61bd d9db afbd 3d3d dbbe
00000210: e252 f1bd ae47 d6bd 3e35 12bf 90ae 7bbe
00000220: dd64 04be b923 dd3d e35b c7be 8214 c23d
00000230: f6b6 87be 1460 f93e e1a6 8fbd aa6b 87be

sun_influence_3.W.bias f4 [12]
-0.004313473 -0.004895334 0.032012146 -0.0139415525 0.0108507 -0.057766188 -0.0489615 -0.024588678
-0.019119678 0.055330273 0.000924358 0.10193967
00000000: 0958 8dbb 0a69 a0bb 2b1f 033d 1c6b 64bc
00000010: 22c7 313c 3d9c 6cbd db8b 48bd 326e c9bc
00000020: dfa0 9cbc ffa1 623d 9e50 723a bfc5 d03d

sun_influence_3.W_self.weight f4 [12, 12]
0.3814128 0.07725251 0.016906528 -0.14289142 -0.16009356 0.50903386 0.6262319 -0.08519688
0.07160619 -0.46699697 -0.060301714 -0.05472146 -0.041835796 -0.07400298 0.24234207 -0.005448027
0.2991431 0.0985073 0.2567744 0.22632444 0.01347228 -0.06327925 -0.56531584 0.065970235
-0.17833808 -0.20519394 0.3248276 -0.21271403 0.013756494 0.34685048 0.04666488 -0.5121517
0.09640475 0.51069045 0.55199707 0.19298682 0.17443232 0.08404816 -0.04964426 0.35603887
-0.11087349 0.2220233 -0.46287882 0.38199225 0.30415666 -0.30088615 -0.112013035 -0.030872827
-0.20795053 -0.094035305 0.23968683 0.0496656 -0.011990581 -0.36314762 -0.39325625 -0.35821784
-0.4610692 0.07227125 0.46933556 0.07633005 -0.0582499 -0.26171088 -0.14667965 -0.019471275
-0.20978825 0.20413668 0.43191698 -0.23687603 0.179504 -0.008325722 0.29166645 -0.3065669
-0.3545167 0.42980337 -0.16128261 -0.54138845 -0.33622766 0.47373834 0.55620265 -0.44122484
0.28980556 0.24786113 -0.32370657 -0.25079846 0.05537367 -0.15341792 0.50581336 0.07253785
0.3796579 -0.10428276 -0.5456807 -0.08475275 0.7383748 -0.057108667 0.26929656 0.35647213
0.07241179 0.22069861 -0.03151887 -0.0038330182 0.50867605 -0.46171057 -0.14872307 0.30679306
-0.30296016 0.5354563 -0.14090766 0.55203056 -0.29268026 -0.12247296 0.35339686 0.3034687
-0.32952017 -0.22566868 -0.23306964 0.040982347 0.14891016 0.16056222 0.13065627 0.29775724
-0.05265854 -0.15038013 0.36041433 -0.5165163 -0.23834057 -0.13314174 -0.08496016 0.3072517
0.3666953 -0.15642458 0.083524846 0.2956992 0.44351038 0.19763216 -0.24790695 0.40391198
-0.097971946 -0.62967837 0.08843833 0.21954046 0.08070693 0.0750179 0.100756 -0.29436898
00000000: 8a48 c33e 9036 9e3d 8f7f 8a3c 2152 12be
00000010: 91ef 23be 0b50 023f bc50 203f b47b aebd
00000020: 44a6 923d 3a1a efbe eefe 76bd 9c23 60bd
00000030: 035c 2bbd e08e 97bd 8528 783e 5d85 b2bb
00000040: 4929 993e 32be c93d ef77 833e 98c1 673e
00000050: d7ba 5c3c 8d98 81bd 8ab8 10bf 671b 873d
00000060: 429e 36be 5c1e 52be ce4f a63e b5d1 59be
00000070: eb62 613c 6396 b13e ac23 3f3d 601c 03bf
00000080: db6f c53d 9cbc 023f ae4f 0d3f 569e 453e
00000090: 639e 323e 7121 ac3d c857 4bbd ba4a b63e
000000a0: a411 e3bd 135a 633e 74fe ecbe 7d94 c33e
000000b0: 6cba 9b3e c00d 9abe 1767 e5bd 03e9 fcbc
000000c0: fcf0 54be 9595 c0bd 7770 753e 286e 4b3d
000000d0: 2474 44bc 7cee b9be e258 c9be 5468 b7be
000000e0: 4311 ecbe f302 943d c04c f03e ee52 9c3d
000000f0: 7297 6ebd f8fe 85be 3133 16be 3982 9fbc
00000100: bbd2 56be 3509 513e 3924 dd3e a18f 72be
00000110: e6cf 373e 9c68 08bc 4e55 953e 56f6 9cbe
00000120: 3783 b5be 300f dc3e 4527 25be 6f98 0abf
00000130: 0826 acbe d58d f23e 4c63 0e3f 39e8 e1be
00000140: 6561 943e 4fcf 7d3e debc a5be a868 80be
00000150: 80cf 623d 9619 1dbe fc7c 013f b98e 943d
00000160: 8562 c23e 3392 d5bd bbb1 0bbf da92 adbd
00000170: 2206 3d3f c7ea 69bd 3de1 893e 8483 b63e
00000180: a24c 943d d1fe 613e ee19 01bd 6033 7bbb
00000190: 9838 023f 5465 ecbe dc4a 18be fb13 9d3e
000001a0: 981d 9bbe aa13 093f 194a 10be e051 0d3f
000001b0: 30da 95be 1ad3 fabd 6ff0 b43e 4060 9b3e
000001c0: deb6 a8be b115 67be cfa9 6ebe 1bdd 273d
000001d0: e87b 183e 6c6a 243e c2ca 053e a373 983e
000001e0: 7bb0 57bd 40fd 19be 3a88 b83e 6a3a 04bf
000001f0: 8d0f 74be 4f56 08be 98ff adbd 1850 9d3e
00000200: 7dbf bb3e c42d 20be 130f ab3d e365 973e
00000210: cb13 e33e 1660 4a3e 52db 7dbe 8dcd ce3e
00000220: 84a5 c8bd 9a32 21bf 281f b53d 37cf 603e
00000230: ad49 a53d fca2 993d 2959 ce3d 88b7 96be

sun_influence_3.W_self.bias f4 [12]
-0.004313473 -0.004895334 0.032012146 -0.0139415525 0.0108507 -0.057766188 -0.0489615 -0.024588678
-0.019119678 0.055330273 0.000924358 0.10193967
00000000: 0958 8dbb 0a69 a0bb 2b1f 033d 1c6b 64bc
00000010: 22c7 313c 3d9c 6cbd db8b 48bd 326e c9bc
00000020: dfa0 9cbc ffa1 623d 9e50 723a bfc5 d03d

sun_influence_4.weight f4 [8, 12]
-0.078649074 -0.5892087 0.16768515 0.52264595 -0.7475659 -0.07002974 0.009974238 -0.0582464
0.43867102 0.28877354 0.19767474 0.57859975 0.27077633 -0.09913456 -0.12391631 0.17609535
0.29774585 -0.18913473 0.03603672 -0.5271354 0.029715758 0.46062058 -0.31824255 0.02104337
0.50934005 0.23911025 -0.05060249 -0.122850835 0.11514061 -0.08144793 -0.2579371 -0.090110004
0.0017520336 0.31436664 0.33166602 -0.6310132 0.58562416 0.036252975 -0.41851515 0.46563858
0.076493524 -0.1691066 0.48409846 0.27072433 0.12239067 -0.15799099 -0.13938673 -0.30349186
-0.15183067 0.2940079 0.7022143 -0.11349468 -0.007883843 -0.012282062 0.22299673 0.13863812
-0.39616773 0.2901268 0.82867366 -0.5369247 0.65230954 0.47164848 -0.115137905 -0.036917973
-0.19382103 0.3096048 -0.051439952 -0.18172456 -0.17470917 -0.43943524 -0.8556705 -0.10907076
0.56242406 0.21175781 0.22125469 0.6332625 0.09712198 0.030011972 0.3671495 -0.5257376
-0.24469298 -0.77653193 0.30151215 0.4638849 -0.12602927 0.14428562 -0.040486913 -0.06186639
-0.81049114 -0.23379315 -0.06923428 -0.46407992 -0.15145268 -0.3760438 0.16590628 0.39878067
00000000: c412 a1bd 62d6 16bf a8b5 2b3e 20cc 053f
00000010: 7b60 3fbf c16b 8fbd fd6a 233c c793 6ebd
00000020: 7d99 e03e 20da 933e 3f6b 4a3e 1d1f 143f
00000030: 32a3 8a3e 0f07 cbbd d6c7 fdbd 5752 343e
00000040: 2572 983e 89ac 41be 3d9b 133d 58f2 06bf
00000050: 766e f33c 76d6 eb3e b0f0 a2be 2563 ac3c
00000060: 1c64 023f 51d9 743e 8e44 4fbd 3899 fbbd
00000070: d7ce eb3d 2cce a6bd 5510 84be 988b b8bd
00000080: 7ea4 e53a aaf4 a03e 21d0 a93e 158a 21bf
00000090: 77eb 153f 007e 143d 9e47 d6be 2e68 ee3e
000000a0: a3a8 9c3d 482a 2dbe c1db f73e 619c 8a3e
000000b0: f6a7 fa3d 64c8 21be 65bb 0ebe 4963 9bbe
000000c0: 8079 1bbe 3488 963e 51c4 333f e66f e8bd
000000d0: 3c2b 01bc b43a 49bc 4159 643e 27f7 0d3e
000000e0: 7fd6 cabe 808b 943e f523 543f e673 09bf
000000f0: c2fd 263f e97b f13e 6ccd ebbd 4d37 17bd
00000100: 0579 46be 8584 9e3e b3b2 52bd 0116 3abe
00000110: f6e6 32be a8fd e0be 390d 5bbf 7e60 dfbd
00000120: 06fb 0f3f 0ad7 583e 9790 623e 7e1d 223f
00000130: e3e7 c63d abdb f53c 05fb bb3e bd96 06bf
00000140: cc90 7abe ccca 46bf cd5f 9a3e 5282 ed3e
00000150: d10d 01be 9cbf 133e 9bd5 25bd 9d67 7dbd
00000160: 597c 4fbf 7967 6fbe b4ca 8dbd e29b edbe
00000170: 6916 1bbe d088 c0be 56e3 293e fb2c cc3e

sun_influence_4.bias f4 [8]
0.008673524 -0.011245528 -0.029744154 0.0012340918 0.013475747 0.018477792 0.0003359139 -0.017005552
00000000: 651b 0e3c 2a3f 38bc 03aa f3bc 40c1 a13a
00000010: 61c9 5c3c bd5e 973c 9a1d b039 3a4f 8bbc
