src/Photosynthesis/RL/SavedModels/model_50.pth (torch, 30290 bytes, 34 tensors)

player_tree_1.W.weight f4 [12, 12]
00000000: 91ef 653e b77b c9be 154f ad3e bf80 95be
00000010: ea38 a33e 8f42 96bd 5bf6 63be 2c25 b13d
00000020: 0508 0f3f b8ac 33bd a271 57be f9c6 6ebd
00000030: 4938 b3bc 2e0f c93d b373 843e b733 25be
00000040: 56d8 433e a8c2 fdbe e89e 1abe d6cc 22be
00000050: 5bf1 293e b4f0 783e a6f8 043f b38a 7e3e
00000060: 5654 11be bfed 833e cb65 21bf 715e bd3d
00000070: ff00 a53e 6f43 a43e 575a a9bd 9181 efbe
00000080: 91a5 1b3f 13c2 5b3e 40f0 d3be 1f96 89be
00000090: 10c2 bdbd 2a69 d73d 1fe1 b3bd a975 21be
000000a0: 07a5 823d 9541 abbe 5c47 afbd 58bd 09bf
000000b0: b2aa bebe 2603 693e b076 9fbe 9e49 073e
000000c0: c33f b0be a86e 4dbd c9f1 3ebd 6964 9f3b
000000d0: ac89 943c e212 223e 91b0 dcbe 7ad6 a43e
000000e0: 2e80 91be a056 183e 9ac3 bfbc f675 2a3f
000000f0: f559 703e 9b69 8f3e 72c4 e13e cfd2 46be
00000100: 515f d33d 4ecc fb3e 5783 0b3e d01c 723e
00000110: 82bd 523e 4ba3 973f 0f28 28bd b14c 863e
00000120: 46d7 7dbe ca41 343e 2920 ff3e d4d3 d93d
00000130: 2b9e 75be af68 12be f120 debc 94a5 8f3e
00000140: 7d06 2dbe 6e45 69be 9a43 39be 819a 99bd
00000150: d656 313e d862 cc3d d2fc 36be b415 87bd
00000160: ed7f 353e 6024 e6bb 5d87 ecbe 22c8 6cbc
00000170: 0b82 22be 86b3 973e 9cbd c6be 37ed b73e
00000180: 8f84 243e 20cd 84be b8fa 71bf 5181 3dbc
00000190: 6bf3 8abe 1d99 0fbe 5503 febe 1c76 d6bd
000001a0: 3db5 713e d7ff 353e d8ed dabe 3697 23be
000001b0: 9220 0cbe e9a4 5f3e c25f 76be 9fc0 c1bd
000001c0: 3fe7 2c3d 9641 403e fb87 f7be a664 bfbd
000001d0: 33b9 e6be 0a5b aebd 1390 a3be da68 033e
000001e0: f2e4 3b3f 6673 9b3c 5ab1 febd 3fd6 a7bb
000001f0: addb 093f 7c1e fa3e e214 90be bfee 1b3d
00000200: c63a 213e 6418 afbe bce8 02bf 140d 823c
00000210: f159 b83d 4282 d5be fb40 2d3d 8184 babe
00000220: 6d24 303e 4b0a 9ebd a849 143e 6f31 53be
00000230: ece7 0dbf 2c23 eebe fda5 2bbe c3cd 2cbd
0.22454669 -0.393522 0.33849397 -0.29199788 0.3187936 -0.07336914 -0.22261946 0.08649668
0.5587161 -0.04386589 -0.21039441 -0.058295224 -0.021877425 0.098173484 0.25869521 -0.16133009
0.19125494 -0.49562573 -0.1509968 -0.15898451 0.16595976 0.24310571 0.5194191 0.24857597
-0.14192328 0.25767323 -0.6304595 0.09246529 0.32227322 0.32082698 -0.08269184 -0.4677854
0.6079951 0.21460752 -0.41394234 -0.26872346 -0.0926553 0.10518105 -0.08783173 -0.1576754
0.06379133 -0.33448473 -0.085585326 -0.5380454 -0.37239605 0.22755107 -0.3114524 0.13211676
-0.34423646 -0.05015436 -0.046617303 0.0048642647 0.018132053 0.15827516 -0.4310346 0.32194883
-0.28418106 0.14876795 -0.0234087 0.66586244 0.23471816 0.28010258 0.44095188 -0.19416355
0.103209145 0.4917931 0.13624321 0.23643804 0.20580104 1.1846708 -0.041053828 0.26230386
-0.24789152 0.17603222 0.49829224 0.10636106 -0.23986118 -0.14297746 -0.027115317 0.28056014
-0.16897006 -0.22780392 -0.18092194 -0.075001724 0.17318282 0.099797904 -0.17869881 -0.065959364
0.17724581 -0.007023379 -0.46197024 -0.014452012 -0.1586992 0.29629153 -0.38816535 0.35923168
0.16066192 -0.25937748 -0.9452319 -0.011566476 -0.27138838 -0.14023252 -0.49611917 -0.10471746
0.23604293 0.17773376 -0.42759585 -0.15975651 -0.136843 0.21840252 -0.24059966 -0.09460568
0.04221272 0.18775019 -0.48345932 -0.09345369 -0.4506317 -0.08513458 -0.31945857 0.12832966
0.7339622 0.018975925 -0.12436171 -0.0051219757 0.53850824 0.48851383 -0.28140932 0.038069483
0.15745077 -0.34198296 -0.51136374 0.015875377 0.0900153 -0.4170094 0.0422983 -0.36429217
0.17201395 -0.07716807 0.14481223 -0.20624326 -0.5543201 -0.4651121 -0.16762538 -0.042188417

player_tree_1.W.bias f4 [12]
00000000: 4726 1bbd 1b44 cfbc 0333 a83c e808 9fbd
00000010: 287a 44bd 0454 df3d 58f2 26bd 8cdf 243d
00000020: 3e40 eabd b436 6fbc 08ca 3d3c 2f82 ebbb
-0.0378783 -0.02530103 0.020532137 -0.077653706 -0.04796806 0.109046966 -0.04075846 0.040252253
-0.114380345 -0.014600445 0.011583813 -0.00718715

player_tree_1.W_self.weight f4 [12, 12]
00000000: 739e 90bd 4d9d 1a3f 8d21 233e 63bc bcbe
00000010: d6e0 fa3c 29dc 05be e066 6d3e ab51 4c3d
00000020: 32d1 053f 8164 b13d 92ff b5be 7ae7 17be
00000030: 7f37 64be be28 df3e ceba 1a3e 4595 99be
00000040: 262b 5a3d bb05 92be c696 b83e aee6 053e
00000050: 9a9c 0fbd b109 4d3f df58 853e b07a 303e
00000060: 55c8 91bd 87b6 d43e 0773 97bd c095 7a3e
00000070: 433f d23d c388 c83d e092 6b3d f8b3 dcbe
00000080: fdb3 e2be dea0 e13e 6631 973e cbe7 763e
00000090: f8d6 03bf 41cc 033e f101 be3e 2004 04bf
000000a0: 928b 993e 0e94 2c3e 8166 533e 9656 5fbf
000000b0: 4a0a c63d 8007 1bbe 4661 283e 2c9b 34bd
000000c0: b90d 13be e967 55be d662 903e ae21 85bd
000000d0: b886 323e b9ad 883e 89e7 6d3e c6c9 a7be
000000e0: aec6 b43d 35b0 4bbe 4d10 d5be 4727 acbc
000000f0: f3ad 383d 8609 113f e825 743e a2c3 d13e
00000100: 5504 98be 4a5f 983e 80eb 123a 76be ef3d
00000110: f1a4 9cbe 449b 7cbd 34e0 e53e cb2d 06be
00000120: 262e 243e bc95 393e d2e5 1a3f 42bc 0f3f
00000130: 312f ea3d fec0 e23e aca1 31be 0841 1abf
00000140: c0c5 7b3d f11c f33d dce6 19bf fafd e5bd
00000150: 14e8 fcbc 63d3 d73d 58c9 2c3e 2f63 903e
00000160: bfc2 acbe f86e 123f 7263 0cbf cd92 2d3e
00000170: 6b68 093e c93c 8f3e 0de8 9e3d e4ba 9b3e
00000180: 31ff 903e d393 f4be 2c99 3cbf b7c6 c13e
00000190: 7eb7 de3e e9bb bebe 162a b9bd 6381 973e
000001a0: 2e5d 22be ec5d 113f 6516 9f3e f3d8 66bd
000001b0: 018f debe 8461 7cbe 431a 0a3e c912 f33e
000001c0: 7f41 c53d f1a2 cc3e 7c8d fe3e 1631 5e3e
000001d0: 6518 803e f1b8 be3d 9769 77be 3815 b4be
000001e0: d6fc 433e 96ae bcbd 7327 933e d39d 953d
000001f0: 12b7 d1be e5ef f03e 7d96 89bd 1ed8 7b3d
00000200: 6059 7dbe e9b9 dd3e b6cd d93d ef83 88be
00000210: a211 e63d ecb7 003f 9df5 c6be c23c ae3e
00000220: 10b1 9ebe 982d 063f 50c9 a5be 621c f9bd
00000230: d532 743e 22f1 ccbd 14f0 1fbe f24d 08bf
-0.07061472 0.6039627 0.15930767 -0.36862478 0.030624788 -0.13072266 0.23183775 0.049882572
0.5227233 0.08661748 -0.35546547 -0.14834395 -0.22286795 0.4358577 0.15110323 -0.29996696
0.053263806 -0.28519997 0.3605253 0.13076279 -0.035061456 0.8009291 0.26044366 0.17234302
-0.071182884 0.41545507 -0.073949866 0.24471188 0.102659725 0.0979171 0.057513118 -0.43106055
-0.44277945 0.44068044 0.29529876 0.2411186 -0.5149989 0.12870885 0.37110856 -0.51568794
0.29989296 0.16853353 0.20644571 -0.87241495 0.09669931 -0.1513958 0.16443357 -0.044093296
-0.14360704 -0.2084042 0.28200406 -0.065005645 0.17434204 0.2669504 0.23232855 -0.32771128
0.08826958 -0.19891436 -0.41614 -0.021014823 0.045087766 0.56655157 0.23842585 0.40969568
-0.29690805 0.297602 0.000560455 0.117062494 -0.3059459 -0.06167151 0.44897616 -0.13103406
0.16033229 0.18123525 0.6050693 0.56146634 0.11434782 0.44287866 -0.17346829 -0.6025548
0.061467886 0.118707545 -0.6011789 -0.11230083 -0.030872382 0.10538366 0.16873682 0.2820067
-0.3374233 0.57200575 -0.5483924 0.16950531 0.13418739 0.27976063 0.07759104 0.30416024
0.28319696 -0.4776903 -0.7367122 0.3784692 0.43499368 -0.3725274 -0.090412304 0.29590902
-0.15855858 0.5678394 0.31071773 -0.056359243 -0.43468478 -0.24646574 0.1348658 0.4747527
0.09631633 0.39968064 0.4971732 0.21698412 0.25018612 0.093126185 -0.24161373 -0.3517244
0.19139418 -0.09212987 0.28741035 0.07305493 -0.40959984 0.47058025 -0.067181565 0.061485402
-0.24741125 0.433059 0.106349394 -0.26663157 0.11233832 0.5028064 -0.38859263 0.3403073
-0.30994463 0.5241332 -0.32380152 -0.12163617 0.23847516 -0.1000693 -0.15618926 -0.53243935

player_tree_1.W_self.bias f4 [12]
00000000: 4726 1bbd 1b44 cfbc 0333 a83c e808 9fbd
00000010: 287a 44bd 0454 df3d 58f2 26bd 8cdf 243d
00000020: 3e40 eabd b436 6fbc 08ca 3d3c 2f82 ebbb
-0.0378783 -0.02530103 0.020532137 -0.077653706 -0.04796806 0.109046966 -0.04075846 0.040252253
-0.114380345 -0.014600445 0.011583813 -0.00718715

player_tree_2.W.weight f4 [12, 12]
00000000: fed9 583e 6d03 a4be 3ee2 63bf ed4c 90bc
00000010: 227b b2bd c0cb ecbe 677f 9d3e 0863 f6ba
00000020: 85ad ab3e e0d2 33be b2cc 52be b539 3bbf
00000030: 279e 10bf f9c7 b3be d1ed 1bbd 4908 c93e
00000040: acf5 833e 5f84 363e 68e9 853e 9784 bd3d
00000050: 8463 04bf fb23 133e 359b dabe 7d67 f4bc
00000060: 4fca 5f3f 0acb c0be ab14 063f 136e 06be
00000070: c5b2 aa3e f4d8 eebd a35e cfbe 845e 0abe
00000080: 80ea 2cbe 3130 763e d47f 3bbf 1431 c4be
00000090: 72ed ccbd ed4e 6dbe 2d72 51bd c65f d0be
000000a0: e161 4e3e d6bd 10be 80c3 0abd 3547 93be
000000b0: 60ee 033d e2e6 9ebd 9b4f 3abe a4e9 ff3c
000000c0: 1fbf 10be d022 c5bd 5c77 fabe 25c2 bfbe
000000d0: 6374 7cbd 4674 b1bd 0328 883d 89c1 443e
000000e0: 9d97 423d 8906 7e3d abdb ec3d 466d 103e
000000f0: 608e 733e f072 423e fc1f 823e 84e5 533d
00000100: 0a32 333d 37eb e23b 63d1 b3bd 8031 50be
00000110: b895 db3e 4a3c 01be cc55 20bf 8397 87be
00000120: c456 3bbe 41d4 3ebe 0e38 13bf 43d7 a93e
00000130: 19d5 7dbd adfe 203e f34a 983d ea00 3a3e
00000140: 9ea7 d33d cfa8 cebd 5150 0dbf 6ca7 0a3d
00000150: e767 aa3e db9e 58be 0735 d7bd 3854 913d
00000160: 40f1 993e 2aed 79be bf93 463e 2c37 e1be
00000170: 981f ac3e 651e 0fbe 0a41 99bd 0352 51bf
00000180: f447 08bf e1e3 1fbd 7195 173e 2523 9c3e
00000190: e2a9 173f 3102 9d3e ff2e be3e fbec d43d
000001a0: 0ffb 243e 1c1c c5bc 61fd b8bd 4cb7 a3bd
000001b0: 5f32 0ebf d3d6 cb3e ee47 22be 289b 3f3e
000001c0: 1563 833e 23c6 0cbf a812 0ebf f451 b3bd
000001d0: 3d50 9dbd c347 bc3e a948 14bd 91c0 e33e
000001e0: 6fbb 63be a402 3e3d e9cd 71be e5e6 43be
000001f0: 48b7 b7be 89e4 a6be b12e 21bf 728b 463d
00000200: 3c6a 4fbb b3fe 58be 7943 6dbe 886c 833d
00000210: ea48 023e 98e1 2c3e b349 a2be 71d3 15be
00000220: 2a7b bcbe fee2 dfbe 8969 193e 919d cc3e
00000230: 8fff 6f3e e965 96bd 3d8e aebe 9c20 8a3b
0.21176907 -0.32033864 -0.89017093 -0.017614806 -0.08714892 -0.462492 0.30761263 -0.0018797824
0.33530822 -0.17560911 -0.20585898 -0.7313493 -0.5649132 -0.35113505 -0.038068596 0.39264134
0.2577337 0.17823933 0.26154637 0.09253805 -0.5171435 0.14369194 -0.4269654 -0.029834503
0.87418073 -0.37654907 0.52375287 -0.13127927 0.33339515 -0.11662474 -0.4050189 -0.13512617
-0.1688633 0.24041821 -0.73241925 -0.38318694 -0.100062266 -0.23174639 -0.051134277 -0.4069807
0.20154525 -0.14134917 -0.03387785 -0.28765264 0.032209754 -0.07758881 -0.1819443 0.031239338
-0.14135407 -0.096257806 -0.4891919 -0.37452808 -0.061634433 -0.086647555 0.06648257 0.19214453
0.04750787 0.06201795 0.11565336 0.14104185 0.2378478 0.18989158 0.25415027 0.051732555
0.043748893 0.0069250125 -0.08780172 -0.20331383 0.42887664 -0.12620655 -0.62630916 -0.26482782
-0.18294817 -0.18635656 -0.5750741 0.33172044 -0.061970804 0.15722151 0.074361704 0.18164411
0.10334705 -0.100907914 -0.5520068 0.033851072 0.33282396 -0.21154349 -0.10508161 0.070961416
0.30066872 -0.24406877 0.19392298 -0.43987405 0.33617854 -0.13976438 -0.07483108 -0.81765765
-0.5323479 -0.03903568 0.14803101 0.30495563 0.59243596 0.30665734 0.3714523 0.10396763
0.16111396 -0.024061255 -0.09032703 -0.079939455 -0.5554561 0.39812335 -0.15847751 0.18711531
0.2566153 -0.5498983 -0.5549722 -0.08755866 -0.0768132 0.367735 -0.036202107 0.44482854
-0.22239469 0.046389237 -0.23613705 -0.19131048 -0.3588202 -0.32596233 -0.6296187 0.04847283
-0.0031649014 -0.2119091 -0.2317027 0.06417185 0.12723127 0.16882932 -0.31696853 -0.1463144
-0.36812717 -0.4372787 0.14981665 0.39963964 0.23437332 -0.073436566 -0.34092894 0.004215313

player_tree_2.W.bias f4 [12]
00000000: a0ac 8bbd 9069 8cbd 42d7 e0bc f9a1 76bd
00000010: a7c6 9cbd f9f1 bd3d e5a2 40bd 3e96 61bd
00000020: 0bbb 73bd 0f10 193c caa3 d2bd ad6a 53bd
-0.06820035 -0.06856072 -0.027446393 -0.060213063 -0.076550774 0.09274668 -0.04703035 -0.055074923
-0.05950455 0.009342208 -0.102851465 -0.051615406

player_tree_2.W_self.weight f4 [12, 12]
00000000: fdb8 043e dc47 b0be d3da 8c3d a2f5 003f
00000010: 737a 04bf 78fa 74bf 746d ad3b 3fa6 40be
00000020: 47e1 abbd c2b1 fabe 4a20 a23e 4791 4a3e
00000030: b68f c03e 2eee 01be e65d 3ebe 5505 b0bc
00000040: 825a 15be 9405 efbe a436 abbe fe4c 19be
00000050: 4c18 253f 1c58 6d3e 430f 5a3d 5fb7 ecbc
00000060: 6936 e9bd ff7f 7abe ece9 8fbe b155 ddbe
00000070: 31c7 5b3e 0294 b5be e22b c2be 417c 733e
00000080: 16f2 4ebd aecb 94bd 0bc8 6bbe 7c13 4cbc
00000090: 3a5e 27be 1cd4 7dbd 810a 87bf 3fad 993d
000000a0: 82e5 4a3e aad7 b6be 1176 1e3f fd6d babe
000000b0: 6556 3c3d b4d0 afbd 39b0 b4bd 5610 3abe
000000c0: 2079 00bf 1216 ebbd e933 b5be effc 4b3e
000000d0: 9355 8c3e c9d0 4bbe b565 fdbd 6eda d13d
000000e0: bee0 7f3d 981c 903e 5144 83be 66de 763e
000000f0: 7a9b 05bf 5e60 d7bd e028 63be 3b8d 19bf
00000100: 89e4 bbbe 473f de3e fd52 a6be f15c 8cbe
00000110: e1f3 603e ead2 4cbe a5e8 58be e2c4 f3be
00000120: c9b7 bd3e e8d8 9f3d d87e 883e e96c 963d
00000130: 34ae 983e 80e0 f93e 6cd9 da3e 06d6 fabe
00000140: 9dd5 4a3d 9da1 7b3e c54e 53bc c934 73be
00000150: 05a6 123f 882a aebd 8570 043f e63e 6abd
00000160: fd35 07be 6f17 2cbd 0c3b 83be a080 8a3e
00000170: 0308 983e 0177 33be 60ae a03e deaf f13c
00000180: 9abe 6b3e 58e9 d53e 506f 48be 48b0 74be
00000190: e3a0 fcbd 1247 d3be 3e36 2bbf 515a 13be
000001a0: d407 04be 6793 89be 8aa2 2f3e 68dd 9bbe
000001b0: 0115 663e 893f 1b3f 8725 ee3e bce0 d3bd
000001c0: c708 253f 5eb7 083f bd9f 003f 901d f43e
000001d0: fb9d 8a3e f141 fd3e 922c e23e 7947 1a3f
000001e0: bde5 f73e 02ce 6c3d c610 9dbe 7566 dbbe
000001f0: b477 ef3e 5dad 9fbe 9190 ec3e c519 68bd
00000200: 95c5 003e 5e29 c3bd 40ad 84be 6772 98be
00000210: 09a7 61bc 21f9 a63d c790 9dbc 8be5 34bd
00000220: 3b5a 20bd 2525 2bbe a9a8 ddbd d1d5 eebe
00000230: 292a 69bd 9960 44bd 909e 1cbe b613 a23e
0.12961192 -0.34429824 0.06877675 0.50374806 -0.5174934 -0.95694685 0.005292589 -0.18813418
-0.083925776 -0.48963743 0.3166526 0.19781981 0.37609643 -0.12688515 -0.18590507 -0.021486918
-0.14585307 -0.46683943 -0.33440125 -0.14970776 0.644902 0.23178142 0.05323721 -0.028896032
-0.11387331 -0.24462889 -0.28108156 -0.4322944 0.21462704 -0.35464483 -0.37924105 0.23777868
-0.05052384 -0.07265411 -0.23025529 -0.012455817 -0.16344538 -0.06196986 -1.055008 0.07503747
0.19814113 -0.35711414 0.61898905 -0.3641204 0.04598083 -0.08584729 -0.08822674 -0.18170294
-0.5018482 -0.11478819 -0.35391167 0.19920705 0.27409038 -0.19903864 -0.12372915 0.1024674
0.06247019 0.28146815 -0.2563806 0.24108276 -0.52190363 -0.105164275 -0.22183561 -0.59981126
-0.36697796 0.43407652 -0.3248519 -0.2741466 0.21968032 -0.20002332 -0.21182497 -0.47611147
0.3705428 0.078050435 0.26659274 0.07344992 0.29820406 0.48804092 0.42744005 -0.48991412
0.049520124 0.2457337 -0.012897198 -0.23750605 0.57284576 -0.08504206 0.5173419 -0.05718889
-0.13204189 -0.042014536 -0.25630987 0.27051258 0.29693612 -0.17525865 0.31383038 0.029502805
0.23021927 0.4177959 -0.19573712 -0.23895371 -0.12335374 -0.4126516 -0.6687964 -0.14389922
-0.12893611 -0.26870272 0.17151847 -0.30442357 0.2246895 0.6064382 0.46513006 -0.10345599
0.6446652 0.53404796 0.5024374 0.47678804 0.27073655 0.49464372 0.4417463 0.6026531
0.48417464 0.05781365 -0.3067686 -0.42851606 0.46771014 -0.31186953 0.46204045 -0.0566652
0.12575372 -0.095293745 -0.2591343 -0.29774782 -0.013772734 0.08152986 -0.019234074 -0.04416422
-0.03914855 -0.16713388 -0.10823185 -0.46647504 -0.056924973 -0.047943685 -0.15294862 0.31655663

player_tree_2.W_self.bias f4 [12]
00000000: a0ac 8bbd 9069 8cbd 42d7 e0bc f9a1 76bd
00000010: a7c6 9cbd f9f1 bd3d e5a2 40bd 3e96 61bd
00000020: 0bbb 73bd 0f10 193c caa3 d2bd ad6a 53bd
-0.06820035 -0.06856072 -0.027446393 -0.060213063 -0.076550774 0.09274668 -0.04703035 -0.055074923
-0.05950455 0.009342208 -0.102851465 -0.051615406

player_tree_3.W.weight f4 [12, 12]
00000000: 5351 adbe 2607 35be 37bd 8c3c 28d3 0cbf
00000010: a693 df3e 10bd 2c3d dcf1 10be a89a ec3e
00000020: 81fe 2e3e bd17 42bd ccc8 92be de89 693d
00000030: e689 e4be fa65 c3be f93e 42bf f309 0b3d
00000040: 65c6 5c3e d70a df3e a4ef 60be 55ce 733e
00000050: ab8f d73d 75fd 853e 58ce 7abe 5746 b7be
00000060: b1c7 a5be a308 e03e 431a 98bd a31f 253d
00000070: 5e5c 343e 8b5e a9be 4ad6 9fbe aaf9 92be
00000080: e7c8 11be e054 693d 1ee7 023f bc95 273d
00000090: a798 10be 7570 773e 31c6 d3be 431e ee3e
000000a0: c5c4 0cbe 995a c4be a912 5ebe 9fe4 b5bd
000000b0: b27b c6bd ca9f 0ebe 8610 39be 38cf 02bf
000000c0: 09c5 3a3e 4414 b23e cdbb 82be 8064 3abf
000000d0: eb6d 8d3e 24c3 1e3e 9dd9 123e 9a0c 52bc
000000e0: 2618 8a3d d53c 2ebe 69be 043f a630 9e3d
000000f0: caa9 d03d ffe9 9e3d 2aac c63e 94e1 343e
00000100: 321c 0f3f e2de 8c3d a417 213f 3085 f4be
00000110: b9e0 7c3d b322 023d 65bc 26be 083e 883e
00000120: 4e18 07be 9200 04bd 3be5 adbe 2461 68be
00000130: d57f e8bd bf08 de3e 8d38 0ebe e22a 5dbc
00000140: 4e8e dfbd e0d9 023e 95c8 073e 4173 9e3e
00000150: 2dc7 153f 320a ac3e 222f 3a3f b279 27bf
00000160: 06c1 01be 5211 13be 3a42 543e f231 c5be
00000170: c1eb a5be 166b e43e 847d 23bc 3f50 b93e
00000180: 9a35 95be 6226 f0be 1917 303e 3dc0 6abd
00000190: 5421 7c3d e796 913c 6cd0 433e 5d61 afbe
000001a0: 1220 7b3e c831 ac3d 2cd2 21be 1570 143f
000001b0: d045 903d 51e9 bbbe 3793 5dbe 9d38 753d
000001c0: d139 323e 9758 86be 645d 6d38 d95b cb3e
000001d0: 07af 03be 588a c1be 5c10 c13e 97b6 8bbc
000001e0: 0a19 a43e 51ec 1bbf 1096 be3d f6fc df3d
000001f0: 5126 3ebe 7ee9 1e3e 78c8 7fbe 2734 ab3e
00000200: 50e9 5bbc 6791 d5be 4dae 48bd 3f54 6fbe
00000210: 24ee c5bd 0c49 a33d 4b07 3a3e 780a ce3e
00000220: 86d5 213d 1eba b23d 1347 49bd e7e1 41bd
00000230: f220 1ebe 1286 f9be af7c 14be 093d 833e
-0.33851108 -0.17678508 0.017180068 -0.550097 0.43667334 0.04217249 -0.14154762 0.46211743
0.17089273 -0.04738592 -0.2866882 0.057016246 -0.44636458 -0.3816374 -0.7587734 0.033945035
0.21560057 0.43562958 -0.21966416 0.23809178 0.10525449 0.26169935 -0.24492776 -0.35795853
-0.32378915 0.4375659 -0.07426884 0.040313374 0.1761336 -0.33079943 -0.31218177 -0.28706104
-0.14236794 0.05696571 0.51133907 0.040914282 -0.14120732 0.24163993 -0.41362146 0.46507463
-0.13746937 -0.3835037 -0.21686806 -0.08881497 -0.09691562 -0.13928142 -0.1807271 -0.5109744
0.18239225 0.34781086 -0.25533906 -0.728096 0.27622923 0.15504128 0.14340825 -0.012820387
0.06742887 -0.17015393 0.5185304 0.07724123 0.10188635 0.07759475 0.38803226 0.17664176
0.559024 0.06878449 0.629267 -0.47757864 0.06173775 0.031771373 -0.16282804 0.26609826
-0.13192865 -0.032227106 -0.3396395 -0.22693306 -0.11352507 0.43366048 -0.1388876 -0.013498994
-0.10915814 0.12778425 0.1326011 0.30947307 0.58507043 0.33601528 0.7272817 -0.6542007
-0.12671289 -0.14362076 0.20728388 -0.38514668 -0.32406428 0.4461295 -0.009978656 0.36194035
-0.29142457 -0.46904284 0.17196311 -0.05731224 0.06155522 0.017772151 0.19122475 -0.3425397
0.24523953 0.084079325 -0.1580283 0.57983524 0.07044566 -0.36701444 -0.2163819 0.059868444
0.17404868 -0.26239464 5.659218e-05 0.39718512 -0.12859736 -0.3780086 0.37707794 -0.017054839
0.32050353 -0.60907465 0.09305966 0.1093692 -0.18569304 0.15518758 -0.24978817 0.33438227
-0.013422325 -0.41712496 -0.04899435 -0.23371981 -0.09664562 0.07972917 0.18166845 0.40242362
0.039510272 0.08726905 -0.049140047 -0.047334578 -0.15442255 -0.487351 -0.14500688 0.25632504

player_tree_3.W.bias f4 [12]
00000000: 33eb 083e 4a49 f73d 9cc8 dbbd c014 39bd
00000010: aea9 f3bc 0cfb 24be 0b80 1abd ddb4 793d
00000020: 1c63 d7bd f720 4dbd 05b8 0c3c bf2d 273d
0.13370971 0.12074526 -0.107316226 -0.045185804 -0.029743996 -0.16111392 -0.037719768 0.0609635
-0.105169505 -0.050080266 0.008588796 0.04081511

player_tree_3.W_self.weight f4 [12, 12]
00000000: f847 0e3e 4a4f 3cbe 375e 343f 424b 26bf
00000010: 6d6a fdbe 209d f3bd 9646 773e b6bf 89be
00000020: 1a5a 14bd 6c93 a23d b360 b13e aac8 8abe
00000030: 19ce b9bc 6c70 af3e 0dfc 9abe e07f 903e
00000040: 1a44 31be 1474 c83e a5a5 c9bc b2fc adbc
00000050: f7aa 4b3f 0527 78bd 3066 d9be b5d9 73bd
00000060: 2463 69bb 51cb 99bc da73 44be 2114 15be
00000070: 19de f8be 0394 26be 0dc7 cabe 60ba f9be
00000080: 1c51 1abf ea1f 8d3e 32cb a0be f3d1 403e
00000090: 70a3 05be 4a03 903e 0360 eb3d f3ec 5e3e
000000a0: 4eb7 15bf a04e 86be 19ac b83c 5a91 d8be
000000b0: 3ead 1bbe fa3e f7be cdb7 533e 6229 8c3e
000000c0: d23f e9be 380f df3e 7d32 81be 8209 f3be
000000d0: db8b 85bd 65b0 f7bc 3735 97bc 66ac 8ebd
000000e0: af1b 89be eee3 1ebe f164 b5bd 38a8 d03d
000000f0: 4cf2 a03e 51e9 a63b b9ff f0bd 5f53 e33e
00000100: 5297 f13e 3853 f5bc b7c8 733e 0a5b f43d
00000110: fe00 af3e 18ae 953d 452e 6d3d 320d 22bf
00000120: 24b0 e63e e18a 56be 636c 5b3e 122d efbb
00000130: b2e3 963e 35a7 51be 14cc 003f 8b26 bd3a
00000140: 2769 debc 7a30 483f 56f9 e13e 6f8e e03e
00000150: 80f8 403e 2373 913e 0b6f d03e 1376 5f3d
00000160: ed58 1b3f 6abb c03d 04d8 203d 4c3c f9be
00000170: e80d d43e 85fc 85be 4efa d73e 4c1c 83bc
00000180: 926d 243f a139 8bbe 68b4 54be 4468 113e
00000190: 6e9c 3cbd 0962 0e3f 602f 63bc 53a4 e1bd
000001a0: 4e67 f7be e688 763e 0884 89be 2ce6 ac3e
000001b0: 8469 253e 9cc4 ec3e a626 eabd a9c7 15bf
000001c0: ed91 0ebe eaf1 babe efd5 32bf 553a 853e
000001d0: bb98 1ebe 6650 e1bb 0b72 643e aa35 20bd
000001e0: e333 dfbe e5e7 11bf 5e91 89be c95f b23e
000001f0: 2f8d 45be c875 26be f0a0 e13d 0cde 9bbe
00000200: a8c0 3e3e e6c5 d33e 39c1 ccbe 5486 c2be
00000210: 878d ccbe 044d edbd 046d 673e 5fd8 c13b
00000220: 5ea8 c23d b36c eebe 11a7 363e f8dd c23e
00000230: 4b9b 043d b367 af3e 72fb 8f3e c21c fd3d
0.13894641 -0.18389621 0.7045626 -0.64958584 -0.4949526 -0.118952036 0.2414802 -0.26904076
-0.03621874 0.07938275 0.34644088 -0.2710622 -0.022681283 0.3426546 -0.30270424 0.2822256
-0.17311135 0.3915106 -0.024615118 -0.021238659 0.79557747 -0.060584087 -0.42460775 -0.059533793
-0.003561207 -0.018773707 -0.19184819 -0.1455846 -0.48606947 -0.162674 -0.3960499 -0.48775005
-0.60280013 0.2756341 -0.31405026 0.1883009 -0.13050628 0.2812751 0.11492922 0.21770076
-0.58482826 -0.2623186 0.022543 -0.42298394 -0.15202805 -0.48290235 0.20675583 0.27375323
-0.45556504 0.43566298 -0.25233832 -0.4746819 -0.06520816 -0.030235479 -0.018457992 -0.06966476
-0.26778933 -0.15516636 -0.08857144 0.10188335 0.31434858 0.0050937315 -0.11767525 0.44399545
0.4718576 -0.029946908 0.23807035 0.11931427 0.34180444 0.073085964 0.057905454 -0.63301384
0.4505626 -0.20951416 0.21428065 -0.007299074 0.29470593 -0.2047394 0.503114 0.0014431042
-0.02714975 0.7819897 0.4413554 0.43858668 0.18844795 0.28408155 0.4070972 0.054555964
0.60682565 0.094107464 0.03926851 -0.48678815 0.4141686 -0.2616922 0.42183155 -0.016004704
0.6422969 -0.27192405 -0.20771945 0.1419993 -0.04604762 0.5561834 -0.013866276 -0.110176705
-0.48321003 0.2407566 -0.26858544 0.33769357 0.16153532 0.4624375 -0.11433153 -0.5850778
-0.13922854 -0.3651269 -0.69857687 0.26021066 -0.1548795 -0.0068760393 0.22309129 -0.039113678
-0.43594274 -0.5699447 -0.2686872 0.34838703 -0.19292139 -0.16255867 0.110170245 -0.30442846
0.1862818 0.41361922 -0.39991167 -0.3799311 -0.39951727 -0.11586955 0.2260018 0.005915686
0.0950477 -0.46567306 0.17837168 0.38059974 0.03237466 0.34258804 0.28121525 0.12359001

player_tree_3.W_self.bias f4 [12]
00000000: 33eb 083e 4a49 f73d 9cc8 dbbd c014 39bd
00000010: aea9 f3bc 0cfb 24be 0b80 1abd ddb4 793d
00000020: 1c63 d7bd f720 4dbd 05b8 0c3c bf2d 273d
0.13370971 0.12074526 -0.107316226 -0.045185804 -0.029743996 -0.16111392 -0.037719768 0.0609635
-0.105169505 -0.050080266 0.008588796 0.04081511

player_tree_4.weight f4 [8, 12]
00000000: b573 a5be 0d83 1cbf cdd5 e13e a043 aa3b
00000010: 1e44 babe 6e79 f6bd 0183 2cbe 7a86 2f3f
00000020: 773f f2bd 685e b7be c65d 333d 243d 03bf
00000030: b7e4 35be 5d99 dbbd ed73 60be 8252 a13e
00000040: 27cd d73d 384a 21bf 9bd3 4cbf 8b2b 54be
00000050: 1845 8dbe d149 6e3e cc88 8fbe dd89 0ebe
00000060: 5a47 4fbe b8e5 cbbe 0398 253e a8f1 94bc
00000070: 60c3 a13e 1f3e 0dbf c609 25be c9f0 05bf
00000080: ea29 cc3e 254b 09bf c708 063f 0c0e 963d
00000090: a900 3b3d f613 d03c 4e64 493e c93c fb3d
000000a0: e4cc adbe 4a23 cabd a6bc 1d3f f458 bd3e
000000b0: af69 56bd feef 033f 287b f8bd 6f6a 863c
000000c0: 77ec e2be ab00 743e 7f8f 1bbe f26d f93d
000000d0: e782 0c3f 7ca9 a5bd 56cb fd3b 6b74 043e
000000e0: 9979 b63e a24c 463e 1e3a 57bf 2d86 cebe
000000f0: cf68 e5be a19a 89be 8650 cfbe f138 06be
00000100: 7f4c c23e be74 5cbe 6503 c4be 7570 813e
00000110: d9f8 d23d 2261 2d3e 16b1 aa3e 9697 133e
00000120: 8f5b 48be dda0 5dbd 12cc f53e 0740 fdbd
00000130: e8f9 eebd 0944 75bf 0fb4 1e3f 1899 bc3e
00000140: 348c fc3d 46c3 aabe 5093 a43c 3659 c43c
00000150: f107 3b3e b260 34bf 887b 9ebd 0510 9e3d
00000160: e820 fb3e ad13 b2bd 0524 58bd 17e9 853d
00000170: 91bc 23bc 47d5 463e ac1a 7d3e 5a56 f83e
-0.3231484 -0.6113747 0.4410843 0.00519605 -0.36380094 -0.120348796 -0.16846849 0.6856457
-0.11828511 -0.35814214 0.0437906 -0.5126517 -0.17763029 -0.10722611 -0.21919222 0.3150826
0.105371766 -0.63003874 -0.80010384 -0.20719735 -0.27591777 0.23270346 -0.28034055 -0.13919778
-0.20242062 -0.398237 0.16171269 -0.018181637 0.31594372 -0.55172914 -0.1611701 -0.52320534
0.39875728 -0.53630286 0.52357143 0.07326898 0.045654926 0.025400143 0.1966717 0.12267453
-0.33945382 -0.09870012 0.6161598 0.36981928 -0.05234688 0.51538074 -0.12132865 0.016408173
-0.44321033 0.2382838 -0.15191458 0.121791735 0.5488724 -0.08088967 0.007745187 0.12935035
0.35639647 0.1936517 -0.84073055 -0.40336743 -0.44806525 -0.26875785 -0.40491122 -0.13107659
0.37948987 -0.21528909 -0.3828384 0.2528111 0.1030137 0.16931584 0.3333823 0.14413294
-0.19566177 -0.05410849 0.48007256 -0.12365728 -0.116687596 -0.9580694 0.619935 0.3683555
0.12331429 -0.33352107 0.020089775 0.02396832 0.18264748 -0.70460045 -0.077384055 0.07717899
0.49048543 -0.08695159 -0.052768726 0.06538599 -0.009993688 0.19417296 0.24717206 0.4850338

player_tree_4.bias f4 [8]
00000000: f3a2 4f3d 915b c73c bcad 723c 038a 35be
00000010: 2bcf 783c 6fb3 a2bc fbc2 ac3d 096d 87bd
0.05069251 0.024335654 0.014811929 -0.17728429 0.015186111 -0.019860951 0.08435627 -0.06612594

sun_influence_1.W.weight f4 [12, 12]
00000000: 2101 d63e 9cec 82bd 3a78 0bbd b06d 723f
00000010: 177c 3abd e470 f43e fade b63e 2a14 663f
00000020: 0e65 b2be 4fb5 0a3d e6ac b43d bc2e 333e
00000030: 8d6e 8abe 7d3c da3e 49ab 8d3e 1e33 9e3d
00000040: 0693 5dbd 33c3 3c3d afe8 c4bd 2577 833c
00000050: 1c4b 8c3e 8488 c0bd a592 b03e 9027 003f
00000060: f152 8bbe 5351 8bbe 8a8c 083e e128 cc3d
00000070: 83dd 01bf 2b8d a23e a489 87be 09d5 8dbe
00000080: 0f14 92be 80ec a7be 59e3 82be c748 88be
00000090: c65d 06be dd74 d33c 720a 8fbd e325 cc3d
000000a0: 5a38 9f3e d889 0bbf 7203 ed3e 73f5 383f
000000b0: 1716 833e 2d94 e3be 4901 71be a7a6 7c3e
000000c0: a074 6d3e 01b8 9fbd 68a0 8e3e 2b93 f9be
000000d0: 29ad c5be f08c 34be 51e8 813e 97bf c0bd
000000e0: 0fa9 5c3d 780a 483d 9b80 213f 71c6 083f
000000f0: 6ad6 41be 9c4a 013e 0bdd a73e 83da 9dbe
00000100: 3003 05be 25a2 1d3d 667a 3f3e d8dd de3e
00000110: 4734 943e c75d 0e3d 8ee1 14be c725 713e
00000120: 8b19 a13e a13b f1be 917c ffbe 701f a7be
00000130: 4ad3 393e e89e f4be 691e 933e cd72 8cbe
00000140: 1d29 f7be 527a 07bc e279 c13e 9be6 9a3e
00000150: abd6 ba3d 8b71 993e 9b7b 883e 6cb9 10be
00000160: 70e1 26bd 2ffc 903e a671 42be db6c 9cbe
00000170: fd74 48be dbcf 593e 68b9 3fbe 5f47 dfbe
00000180: 3afa 393e 54d1 3cbf 9fb9 a23e 7cc5 76be
00000190: 1c0f 753e 218a 5ebb a897 d2be 5063 f6bd
000001a0: 85bb 5c3e 2e7a d03d 7ac2 ab3e 092b da3c
000001b0: c44b b0be 98b3 bb3e 68d0 5abe 3486 253e
000001c0: 15eb a03d f340 26be 0177 aebe 4df0 3ebe
000001d0: 3859 033f fd59 05be e81b f3be c98c 1a3e
000001e0: d91a a4be ea1a 64bd f327 debe 892a c13c
000001f0: b73f a3be 5e9c 87bd 2cdb 3cbe 1dd6 263f
00000200: 7051 09bf eafd 07bf 9878 e23e 9bb6 05be
00000210: ab36 8ebe 18ed 67be a955 63bd 3216 473e
00000220: 1ae4 debe 555b 92be 3576 22bd 7f9f 56bf
00000230: 429e dcbd 390c 87bd 1600 403f ca13 193f
0.41797736 -0.06392786 -0.034050204 0.9469862 -0.045528498 0.4774238 0.35716993 0.8987452
-0.34842724 0.033864316 0.0882204 0.17498296 -0.2703747 0.42624274 0.27669743 0.077245936
-0.05409529 0.046084594 -0.096146934 0.016048023 0.27401054 -0.09401038 0.3448688 0.5006037
-0.27211717 -0.27210483 0.13334861 0.099687345 -0.50728625 0.31748328 -0.264722 -0.27701595
-0.28530928 -0.32797623 -0.25564077 -0.26618025 -0.13121709 0.02581256 -0.06984414 0.09968164
0.3109768 -0.5450721 0.4629169 0.72249526 0.2560279 -0.44448987 -0.23535646 0.24672948
0.2318902 -0.07798768 0.27856755 -0.48745093 -0.38608673 -0.17631888 0.25372556 -0.09411543
0.053872164 0.04883811 0.6308686 0.534278 -0.18929449 0.12626117 0.3278583 -0.30830774
-0.12989497 0.03848471 0.18699035 0.43528628 0.28946134 0.0347574 -0.14539167 0.23549567
0.314648 -0.47115806 -0.49899724 -0.32641172 0.18147007 -0.47777486 0.2873414 -0.27431336
-0.48273554 -0.0082689095 0.37788302 0.30254063 0.09122976 0.2996944 0.26656803 -0.14133233
-0.040742338 0.283174 -0.18988666 -0.305518 -0.19575877 0.21270697 -0.1872307 -0.4360914
0.1816186 -0.7375691 0.31782243 -0.24098772 0.23931545 -0.0033956843 -0.4113133 -0.12030661
0.21555908 0.10179554 0.3354681 0.026631849 -0.34432805 0.36660457 -0.21368563 0.16164476
0.07857338 -0.16235714 -0.34075168 -0.18646355 0.5130801 -0.13022609 -0.47482228 0.15092768
-0.32051733 -0.05568973 -0.43389854 0.023579853 -0.31884548 -0.066216215 -0.18442982 0.6517046
-0.5363989 -0.5312182 0.4423263 -0.1305794 -0.27776083 -0.22649038 -0.055501614 0.1944206
-0.43533403 -0.28585306 -0.039663512 -0.8383712 -0.10772373 -0.06594128 0.7500013 0.5979582

sun_influence_1.W.bias f4 [12]
00000000: 1dad 27bd 24b9 94bd a282 d83d 988d aebd
00000010: db87 88bc 5059 04bc 983b 70bd 378d d2bd
00000020: d2e8 06be 6be0 b7bd d555 b6bc 3ed8 613d
-0.040936578 -0.07261875 0.10571791 -0.085231006 -0.016666343 -0.008077934 -0.058650583 -0.10280841
-0.13174751 -0.08978351 -0.022257725 0.055137865

sun_influence_1.W_self.weight f4 [12, 12]
00000000: c7d8 acbe f245 943d 1b10 1a3f 27a3 76bd
00000010: de11 f23d 9bc2 9e3e b6f5 0b3f 1143 0dbf
00000020: 62fb d53e d1c1 3c3d cfd6 5d3f 1cc5 133f
00000030: d279 aa3e 49fe 05bf 6edb adbe 58dd 233e
00000040: cff4 f73e 922d 363d da6d 1cbd 5e7d 883c
00000050: 05a8 0d3f 9288 533e 32ab 87be cdc7 cabe
00000060: 7090 b6be 747f 00be 3213 1abe 067a 74bb
00000070: 6461 5ebe 9698 12bf 8ae1 d93e de86 8b3e
00000080: d26e a9be 15f3 223f 65af 213f 8ebe a63d
00000090: b0bc 8e3e 8644 193e 6b96 4cbe 5f21 c63e
000000a0: 6d7c 1dbe 24c5 b0be 7c70 adbe 5c32 c93c
000000b0: cf2a 4cbe fca7 ccbe 4959 fcbe 9dbe 01be
000000c0: 0dba 6ebe 5db1 76be 7b43 10bf 354d 3dbe
000000d0: 93c7 e43e 1e17 a4bd 9a05 9fbe 6723 7f3e
000000e0: 0097 2abf 28cd 77be 16a0 1a3e f4a2 dcbc
000000f0: 0c24 5f3e 2ebf 1e3f 0907 233f f57e 10bf
00000100: ee88 913d 49fc 1c3f e045 803d c1e3 8dbe
00000110: 7dd4 05be 6c4c 833f 4524 d1be bef2 813d
00000120: 6db7 483e 7737 bbbe 8843 aabe 53b1 01bd
00000130: 7514 c63e ac1e 20bb 2505 133f 1611 3e3f
00000140: 07bc 873b a4fa 89bd 1eff 953e dcd0 403d
00000150: 421b 0e3f 3b31 5a3e 81ef f2be 4498 ff3e
00000160: e57b be3e 711e 843e d81f 023f ab34 80bd
00000170: 68ff e33e a676 ad3c 6d7c a13e f8d0 083d
00000180: 6b1b fd3e 7f1a 50be a23e f83e 68cb fa3d
00000190: 3cd0 a6bc 5b17 ccbc 3065 20be 5436 ad3e
000001a0: 96e3 8ebe 0bde 97bd 5170 9abe 79f4 6e3d
000001b0: 004c 063f 4b7a 843e 983c dd3e 384d 0ebe
000001c0: 1249 cb3d 6c25 48be 17b8 64be 65f9 6ebe
000001d0: 5da1 1cbf 599d 51be 552b 36be 28bd d03e
000001e0: b801 babe 54df 83be 2b2f 06be 5e4b 193e
000001f0: 99be 6abe c51d a7bd 2776 15be 6cbc 9d3e
00000200: accf 05bf 0fdd dabe 62b3 3bbe 5093 0bbf
00000210: b9ae 093e 48f2 d5be 23a0 c6bd 7f4f f9be
00000220: c366 a93e cabb 48bd 5185 603e 6b89 183e
00000230: 0b74 80bd a81e 78be 5475 73be 3fa4 97be
-0.33759138 0.072399035 0.60180825 -0.060214188 0.11819814 0.31007847 0.546718 -0.5518046
0.41793352 0.046083275 0.86655897 0.5772264 0.33296067 -0.52341133 -0.33956474 0.16002405
0.48428962 0.044477053 -0.0381907 0.016661342 0.553345 0.20657566 -0.264978 -0.3960556
-0.35657072 -0.1254862 -0.15046385 -0.0037304177 -0.21716839 -0.5726408 0.42554885 0.27251333
-0.33092362 0.63652164 0.63158256 0.08141814 0.27878332 0.14967546 -0.19979255 0.38697335
-0.15379496 -0.34525406 -0.3387488 0.024560146 -0.19938205 -0.39971912 -0.4928687 -0.1267037
-0.2331316 -0.24091096 -0.5635297 -0.18486483 0.44683513 -0.08012222 -0.3105896 0.24915849
-0.6663666 -0.24199355 0.1510013 -0.02693317 0.21791095 0.6201047 0.6368261 -0.5644372
0.071061954 0.61322457 0.062633276 -0.27712825 -0.13069339 1.0257697 -0.40847984 0.063451275
0.19601221 -0.36565754 -0.33254647 -0.03166325 0.38687482 -0.0024432344 0.57429725 0.7424482
0.0041422877 -0.06737259 0.292962 0.047074184 0.5551034 0.21307842 -0.47448352 0.49920857
0.372039 0.25804475 0.5082984 -0.062600456 0.44530797 0.02117474 0.31540242 0.033402413
0.4943498 -0.20322607 0.48485285 0.12245828 -0.020362966 -0.02491348 -0.156636 0.33830512
-0.2790801 -0.07415398 -0.30163816 0.058338616 0.52459717 0.25874552 0.43210292 -0.13896644
0.099260464 -0.19545525 -0.2233585 -0.23337324 -0.6118372 -0.2047018 -0.17789967 0.40769315
-0.36329436 -0.25756323 -0.1310393 0.14970157 -0.2292427 -0.08159975 -0.14595853 0.30807817
-0.5227001 -0.4274678 -0.18330148 -0.54521656 0.13445558 -0.41786408 -0.096985124 -0.48693463
0.33086213 -0.049007215 0.21925856 0.14896171 -0.062721334 -0.24230444 -0.23775226 -0.29617497

sun_influence_1.W_self.bias f4 [12]
00000000: 1dad 27bd 24b9 94bd a282 d83d 988d aebd
00000010: db87 88bc 5059 04bc 983b 70bd 378d d2bd
00000020: d2e8 06be 6be0 b7bd d555 b6bc 3ed8 613d
-0.040936578 -0.07261875 0.10571791 -0.085231006 -0.016666343 -0.008077934 -0.058650583 -0.10280841
-0.13174751 -0.08978351 -0.022257725 0.055137865

sun_influence_2.W.weight f4 [12, 12]
00000000: ae4a d8bd f355 b6be 2d9e fc3e c243 8dbf
00000010: f626 9cbe 4fc6 1fbf 461e 2e3e d75a d63d
00000020: f31f ba3e 94c9 fd3d 1368 47bf 365a debe
00000030: c6cf 12be ef0f 0ebf 1229 e43d 08b7 a2bd
00000040: 0132 453d da62 eebd 67fa e73d 3f13 143e
00000050: a046 82be 56df 2b3e 4ab6 8cbc e47f 5ebe
00000060: 8f99 b6be 8996 98bd 6491 f5bd 5ea3 b9bd
00000070: e1a1 723e cda1 36bf bb56 33be 2c58 37be
00000080: c618 953e 2413 af3d 1db3 06bf cbe9 cb3e
00000090: 77b3 ed3d 65f8 75be 5597 b03e 288c ca3e
000000a0: 262f fb3e 6f37 223d e8fc d8be 985d d73e
000000b0: 7e79 df3e aadc c83d cfda 813e 8801 f53e
000000c0: 0201 b1be 1d32 28bf f869 bc3e 8cd9 59bf
000000d0: c2c8 ccbe 62e7 783e 9639 ffbc 9481 053f
000000e0: 3b9f 593d 5e09 ba3d e19e c53c 1249 8cbd
000000f0: 5f35 e63d 8f74 d8be e78c a03e db91 dd3e
00000100: 3f5d 14bf eae9 ccbe 41bf 223e 0f0a bd3e
00000110: 2b9f b13e bfb2 71bf 2ce8 d33e 46bf d0be
00000120: 940d 063f 0a9f c5be 2617 bcbe d430 debe
00000130: 3a2e e53e 4daf bf3e 7f04 d43d 2a99 dd3d
00000140: 1d00 dbbe 9c4f 173f 9982 f1bc 7e02 463e
00000150: edf5 5bbe 1d87 91be d1b4 143e 7629 e43e
00000160: 11db d3be 52e5 4abe e9bc 9dbd 9cca 5fbe
00000170: 48e6 82be cf4f abbd d98a 773d c382 33bf
00000180: fa35 0dbf 4e77 d0be 2d43 503e 0ac3 523d
00000190: 73fd 33bd 7944 febe b96d bdbe 3c36 b2be
000001a0: 4386 37be f05b 583d 6c9d 033f 0538 5abc
000001b0: eada 553e 2358 46bc ac93 0ebe 3d46 183e
000001c0: 46db 113e c15c c8be b615 6cbe 47af b23d
000001d0: a859 9d3e 20bb 34bf da02 c6be 89a1 be3e
000001e0: d3d9 8e3e 3b3a 63bc 2a31 ee3e 1c1b 06bf
000001f0: 7f0a c2be 9535 fa3d 4ae3 0abf e30a 0bbf
00000200: b40b 1cbe eb3d ae3e 4432 2f3d e6e1 78bd
00000210: 205f 4a3f c505 08be 59bc ce3c 483b 263e
00000220: dce3 053e 6af4 a53e 0ec1 16be a73b b73d
00000230: 0357 fb3d 4576 7e3e 02ab c43e 3b69 103f
-0.10561119 -0.3561245 0.4933943 -1.1036303 -0.30498475 -0.6241197 0.17003736 0.10466545
0.363525 0.123919636 -0.7789318 -0.434282 -0.14337072 -0.5549306 0.11140646 -0.07945067
0.04814339 -0.11639948 0.11327057 0.14460467 -0.25444508 0.16784415 -0.017176766 -0.21728474
-0.3566403 -0.07450587 -0.11990622 -0.09064363 0.23694564 -0.7134064 -0.17513554 -0.17904729
0.29120463 0.08548573 -0.52617055 0.39826807 0.11606496 -0.24020536 0.34490457 0.39560056
0.4905941 0.039603647 -0.42380452 0.42063594 0.4364738 0.09807713 0.2536225 0.4785273
-0.3457108 -0.65701467 0.36799598 -0.85097575 -0.39996916 0.24307016 -0.031155389 0.52150846
0.05313037 0.09083818 0.02412361 -0.068498746 0.112406485 -0.42276427 0.313575 0.4327534
-0.5795478 -0.40022212 0.1589327 0.36921737 0.34691748 -0.9441337 0.4138807 -0.4077093
0.5236447 -0.385979 -0.3673641 -0.43396628 0.4476183 0.3743843 0.1035242 0.10820229
-0.42773524 0.5910585 -0.02948122 0.19336888 -0.21480532 -0.28423396 0.14522101 0.44562882
-0.41378072 -0.19814041 -0.077020474 -0.21854633 -0.25566316 -0.08364832 0.06043515 -0.701214
-0.55160487 -0.40716022 0.20338126 0.051455535 -0.04394288 -0.49661615 -0.36997774 -0.34807003
-0.1792231 0.052822053 0.5141208 -0.01331902 0.2088429 -0.012105974 -0.1392352 0.14870544
0.14243802 -0.39133266 -0.23055157 0.08724838 0.30732465 -0.7059803 -0.3867405 0.37232617
0.27900562 -0.013868864 0.46521884 -0.52385116 -0.37898633 0.12217251 -0.54253066 -0.54313487
-0.1523884 0.34031615 0.042772546 -0.06076231 0.790514 -0.13283451 0.025236296 0.16233552
0.13075203 0.32413036 -0.14722082 0.08946925 0.122724555 0.24849804 0.3841172 0.5641057

sun_influence_2.W.bias f4 [12]
00000000: a44f c53d ecd2 bfbd 6e40 f03d 23ca 283c
00000010: 8bbc 3abd 842f e2bd b872 e7bd 1df1 fcbd
00000020: aa60 483d c9fe 3fbd 7d6f 14be 4291 5dbd
0.09634331 -0.09366402 0.11731039 0.010302099 -0.045589965 -0.11044219 -0.11301178 -0.12350676
0.04892031 -0.04687384 -0.14495654 -0.054093607

sun_influence_2.W_self.weight f4 [12, 12]
00000000: 1e09 183d b124 12be 5d4e 2c3e 9707 6e3c
00000010: 87bf 99be bca8 14bf 8baf a43e 670d fd3d
00000020: 91ab 22bd aa29 7ebe 088e 9abd 60e8 003f
00000030: b40a d83e a091 dabe 46d0 ea3e 3a6b 36bf
00000040: 992e 503f 57ac dabd 5bc5 b53e 8157 d0bd
00000050: a4c2 983d d55e db3e d8c7 c7be e3e2 533e
00000060: d1cd ff3e afbf a33e 18d6 843e 0ac7 1b3d
00000070: ccf3 823d b2f8 bc3e fa73 e73e 4e7f 343f
00000080: ce4d 0d3e aec6 373f b737 07be d8bc c03c
00000090: dfe5 c2bb 3b59 9a3e 66d0 9ebe b991 323d
000000a0: 4c07 113f 3f9c 29bf a363 eb3d 0c92 c03d
000000b0: 7ec7 e93d 982f e2bd fbbf 4bbe bd20 bebb
000000c0: b8e8 32bf 03f8 73be 0608 febd d893 23be
000000d0: 8995 dc3d aba5 c8bb e6b5 573d 67b6 9f3e
000000e0: 0519 713e d3b2 e2bd 30ea 91be c620 cebe
000000f0: 25ce 97bd 5a65 eabe 4e25 9abd 5112 84bd
00000100: 2fc6 c7be 0bb2 edbe 5873 443e 894b c83d
00000110: e9f8 f93c e9e9 10bf 5d47 28bd 0d7c 8abd
00000120: 7ecd bdbd d57f 183e b6a5 ebbe 6d74 a93e
00000130: 37ef ca3e 0c48 3cbe c4ba 3bbe 5940 fe3e
00000140: d895 ca3e 045b 793e 01d9 8fbd d5f6 eebd
00000150: a3b9 9dbe a7c1 43bd 3c50 143d 2691 863e
00000160: f58a b63c 6d3b debd 14b4 603e 1cc3 f0bd
00000170: b07b 45be 523c ac3e 02e3 743e 391b f53d
00000180: b281 5dbb 7dbd 3fbd e4b5 813e 286c 673d
00000190: 5568 36bc ea5b 31bf 31a4 fbbe 822f cbbe
000001a0: 549d 72be fa7b 15bf 6792 5d3e 6f64 8d3e
000001b0: c014 483e 3eb1 d4be fb9a 753d aef6 023f
000001c0: 0ca3 b63e 2f69 573e 441e 60bd 6631 52be
000001d0: e446 113f 1e7b 59bc b677 ef3d 3b20 0f3e
000001e0: 62af 2bbf 3e3e a53d 57aa 6f3d a2f8 54be
000001f0: 57f9 aa3e 892f 80be c25c e7bd ce78 42be
00000200: 289a 07bd 72b9 c2be 2b11 9cbd 3a63 54be
00000210: 0fb3 943e 66c5 3a3e 020d b2be db6c a33e
00000220: 6d10 b03d 7930 a7be d5fc ca3e 3df2 a93e
00000230: a818 a6be 9cfc f93e 0459 da3e 5fde 84be
0.03711807 -0.14271809 0.16826768 0.014528177 -0.30028936 -0.5806997 0.3216518 0.12356072
-0.0397144 -0.24820581 -0.075466216 0.50354576 0.42195666 -0.42689228 0.45862025 -0.71257365
0.813211 -0.106774025 0.35502133 -0.1017294 0.07459 0.4284579 -0.39019656 0.20692019
0.49961713 0.3198218 0.2594459 0.038031615 0.06394157 0.3690849 0.4520567 0.7050675
0.13799211 0.71787536 -0.13204847 0.023527548 -0.005947813 0.30146202 -0.3101837 0.043596003
0.5665176 -0.6625404 0.114936136 0.09402856 0.11415003 -0.11044234 -0.19897453 -0.0058022426
-0.6988635 -0.23825078 -0.12403874 -0.15974367 0.10770709 -0.006123265 0.052663706 0.3119385
0.235447 -0.11069264 -0.28498983 -0.4025938 -0.07412366 -0.4578045 -0.075266466 -0.06448806
-0.3901839 -0.46424899 0.19184625 0.09780032 0.030514197 -0.5660692 -0.041083682 -0.06761942
-0.0926771 0.14892514 -0.46024865 0.33096638 0.3963563 -0.18386859 -0.18332964 0.49658468
0.39567447 0.24351126 -0.07023812 -0.11668173 -0.30805692 -0.047792103 0.03620933 0.26282614
0.022283057 -0.10851178 0.21943694 -0.11755964 -0.19285464 0.3363977 0.23914722 0.11968083
-0.0033799228 -0.04681157 0.25334084 0.05649963 -0.011133273 -0.69280875 -0.49148706 -0.39684683
-0.23692828 -0.583923 0.2163788 0.27615687 0.19539165 -0.41541475 0.059962254 0.51157653
0.3567127 0.21036218 -0.054716364 -0.20526657 0.56748796 -0.013273982 0.11692755 0.13977139
-0.6706449 0.080685124 0.058512058 -0.20797971 0.33393356 -0.25036266 -0.11296989 -0.18991396
-0.033106 -0.3803211 -0.07620462 -0.20740977 0.2904286 0.18239364 -0.3477555 0.31918988
0.08596883 -0.3265417 0.3964602 0.33192626 -0.32440686 0.48825538 0.4264604 -0.25950906

sun_influence_2.W_self.bias f4 [12]
00000000: a44f c53d ecd2 bfbd 6e40 f03d 23ca 283c
00000010: 8bbc 3abd 842f e2bd b872 e7bd 1df1 fcbd
00000020: aa60 483d c9fe 3fbd 7d6f 14be 4291 5dbd
0.09634331 -0.09366402 0.11731039 0.010302099 -0.045589965 -0.11044219 -0.11301178 -0.12350676
0.04892031 -0.04687384 -0.14495654 -0.054093607

sun_influence_3.W.weight f4 [12, 12]
00000000: 39dd 71be 6420 a73e 1bc7 d23d 7adf 3fbe
00000010: 6d73 26bd 4bf8 50be 617b 0f3f bafb a73e
00000020: eb76 5f3e 965b 90be 710a 8a3e cc52 183f
00000030: aa25 093f d858 97be 2ef2 083f c06e 7ebe
00000040: d934 38bf 3596 d03e 5dba 16bf 2a72 e7bc
00000050: 7996 96bd dec4 96be 3aab 363e 3d43 e43d
00000060: 675c 56bf ca1a ccbe b74c c0be d5af 343e
00000070: e347 9d3d 4bc4 0a3f 0128 d1be 04da a23e
00000080: 089b 043f 1296 59be 2060 693e 701d e93e
00000090: 50d5 36be ef06 3cbf bf02 44bd d7a1 253d
000000a0: 6044 a6be 3feb 6fbe 5994 93be 470e 503e
000000b0: c7a2 e6bd 5f3a 2c3d 4a04 a4be 8e74 d0be
000000c0: 4bbc 2bbe 8ac5 8b3e 92b2 293e 7e2a b5be
000000d0: c375 25be a970 9a3e 163a 253d c43a ae3e
000000e0: 4bc1 ec3d 7503 aa3d a2da 883e f6ac 913d
000000f0: 3772 553e 7cae a0be f7c8 ae3c 24be 343e
00000100: 04cb 1e3f 0716 843e 343b f13d e9f2 abbe
00000110: baa0 e03d 752d 9c3e f14f ac3e f26b acbe
00000120: 0e39 973e 1d41 90be 49aa 34be 93b3 66be
00000130: 9d88 89bb 49d7 79bd e703 053f 940a 89bd
00000140: 1a4e 243f 9b79 6c3e d315 9ebe 7dd0 bd3e
00000150: 1de9 60be 351e 1b3e a7f0 873e 7192 a3be
00000160: 2767 ef3d 8c30 06bf 043a 7f3e 83ff b03e
00000170: 5168 0cbf 2ce8 8bbe 8268 9cbe 166f 133f
00000180: 2282 85be d2f3 213e d3a8 1dbd 5fd3 dcbd
00000190: fb7d e63d 83e4 c93e fe89 9d3d 9a44 aebe
000001a0: 9d8b 26be 3702 943e 1d51 5a3e 8c4e c8be
000001b0: 3dc2 e53e 42e8 3cbd 8608 dabe c4b1 8abf
000001c0: 1da1 233e f1e1 f13d 4336 b4bc e500 0c3f
000001d0: 02e5 163f 3b6b 22be 1e3b 6f3f e105 18bf
000001e0: 1b43 1f3f f480 943e be43 823d a4a9 edbe
000001f0: c275 9d3d fcea b8be 9d69 6d3e c56b d53e
00000200: 6dd9 813e 50dd 823e 20ad a1be 1ec5 3b3e
00000210: 8a9c 123d 0549 5fbc 9009 5b3c 6b5a 38be
00000220: c880 8e3d 7b4b 10bf 0079 dd3e d60a 17be
00000230: 66f5 37bf ae68 39be 74b6 8b3e 6c24 4b3f
-0.23619546 0.326419 0.102918826 -0.18737593 -0.040637422 -0.20407216 0.56047636 0.3280924
0.21822707 -0.28194875 0.2696109 0.5950134 0.53573096 -0.2955997 0.53494537 -0.24846935
-0.7195564 0.407396 -0.5887812 -0.02825268 -0.07352919 -0.29447073 0.17838755 0.11145637
-0.83734745 -0.39864188 -0.3755853 0.176452 0.07679727 0.5420577 -0.40850833 0.31806958
0.5179906 -0.21248654 0.22790575 0.45530272 -0.1785481 -0.7344808 -0.04785418 0.040437546
-0.3247404 -0.23429583 -0.28824118 0.20317946 -0.11261516 0.042047855 -0.32034522 -0.40713924
-0.16771047 0.27299148 0.16572025 -0.3538398 -0.16158204 0.30164078 0.0403386 0.3402921
0.11560305 0.083014406 0.26729304 0.07113068 0.20844351 -0.3138312 0.021336062 0.17650658
0.6202853 0.25798056 0.1177887 -0.33583763 0.10968156 0.3050343 0.3365474 -0.33676106
0.29535717 -0.28174677 -0.17643084 -0.2252944 -0.004197194 -0.060996328 0.5195908 -0.06691471
0.64181674 0.23093264 -0.30876026 0.37073126 -0.21963926 0.15148242 0.2655079 -0.31947663
0.116895966 -0.52417827 0.24924475 0.3456994 -0.54846674 -0.2732557 -0.30548483 0.5759138
-0.26075846 0.15815666 -0.03849108 -0.10782503 0.112544976 0.39432153 0.076923355 -0.34036714
-0.16264196 0.2890794 0.21320005 -0.39122427 0.44874755 -0.046119936 -0.42584628 -1.08355
0.15979429 0.11810673 -0.02199853 0.54688865 0.5894319 -0.15861218 0.9344958 -0.5938397
0.6221177 0.29004633 0.06360577 -0.46418488 0.07688476 -0.3611678 0.2318482 0.41683784
0.25361195 0.25559473 -0.31577396 0.18336913 0.03579382 -0.013628249 0.013368979 -0.18003242
0.06958157 -0.56365174 0.43256378 -0.14750227 -0.71858823 -0.18106338 0.27287638 0.7935245

sun_influence_3.W.bias f4 [12]
00000000: 92a5 4abd 0194 b33c 42e6 48bc 3f39 c4bd
00000010: ca64 4cbd 3efc d8bd 5c5c ebbd 55e1 06bd
00000020: 42ef f63d b1c7 df3d 77d6 46bd 958a c93b
-0.049474306 0.02192116 -0.012261929 -0.09581231 -0.049900807 -0.105949864 -0.114922255 -0.032929737
0.120573536 0.1092676 -0.048544373 0.0061505535

sun_influence_3.W_self.weight f4 [12, 12]
00000000: 04b9 11bf 3e44 a13e 146d 35be 62ed 9f3c
00000010: bb65 ee3d f2bc 37be 5f89 42bd ac2d 69be
00000020: ffc5 afbe 5b77 ab3e e4da 44bd 8ef2 2bbe
00000030: cac7 0d3e 355c b33d 0d89 153e 0875 b73e
00000040: f04c f9be 28f6 5b3c 3ff9 b03e 1276 983e
00000050: be4d a0be 75a5 1fbd cf79 bcbc ceb2 18bf
00000060: b58c a7be e5ad fa3e b49e dbbe ea50 77be
00000070: 2c0f 1cbe 38ea b63e 5319 5d3c 0185 a7bc
00000080: 65bf a73d 31ee 61be 249f b0be 4a22 86be
00000090: fc5e 0a3e 42d1 f93e 6b7f 1c3e 72fe 1a3d
000000a0: 3594 08be 6a36 693d 0f45 293e bdc5 e7be
000000b0: e2ff f23d a5e9 00bf b705 c73e e2d7 8a3e
000000c0: 2a5a 023e 8878 d3bd 4074 ddbd c8a4 14bf
000000d0: 6b38 303e 5a3a 9539 b1fb 943e 70d7 2e3d
000000e0: 920f 0ebf 444e c7be 0b39 20bf a376 b13e
000000f0: fd53 bcbe 23b6 843e e7d4 b63d 96f1 a53e
00000100: c7b2 b2bd 1dd4 703e 9f83 76bd b58a 553e
00000110: e27d 2bbe fba6 203f c36a 04bd c3b0 383e
00000120: a64f c73e 3c26 753e a4bb ef3d 8da3 ff3d
00000130: 1b71 e83d 0335 b43d e717 403e f39c 09bf
00000140: 1314 183e 48c0 c1be 86ac e43d 0333 db3d
00000150: efdc 3a3e 8a2b df3e 2c2e 5bbd 6ad4 e03d
00000160: 8218 a93c 0563 0f3e 54dc 67bd be2d 913c
00000170: e8f5 d93c 23ff 5f3e c827 3fbd 0f0d 283e
00000180: 2d5f 41bf 50df c03a fdc0 25bf e562 fabd
00000190: d009 a33e 9298 56bd b837 a23e 2af5 6bbc
000001a0: db47 23be c338 d23c ec9d 703c 7e2b 90bd
000001b0: 85c1 303f 332d af3e 5a76 323f 8c5e 163d
000001c0: e37f 9dbd 40d0 9bbd 3b9b 86be 687b c63e
000001d0: dfbb 4bbe b442 f23e 38c0 35bf 3f78 283e
000001e0: 4d3f 463e 1ebb 9739 11ba 86be fa6e 083d
000001f0: 2185 bebe dc2b ed3e 0973 f5be 2c26 d53d
00000200: da67 623e 0974 6fbd 6dbf e3bd 28fd 99be
00000210: 8c3d 28be 80bc abbe 7356 183d b5ba a03e
00000220: b45b 0b3e 060c 18be e709 9b3d 9596 2dbf
00000230: a425 64be 52c9 a7be 4054 bbbe ad22 6e3d
-0.56922936 0.31497377 -0.17717391 0.019522373 0.11640497 -0.1794317 -0.04749429 -0.22771329
-0.34330747 0.33489498 -0.048060313 -0.16791746 0.13845745 0.087578215 0.14603062 0.35831475
-0.4869151 0.013425387 0.3456516 0.2977758 -0.31309313 -0.03897615 -0.023007302 -0.59647834
-0.32724538 0.48960796 -0.42894518 -0.2415196 -0.15240163 0.3572557 0.013494807 -0.020449163
0.081908025 -0.22063519 -0.34496415 -0.26198035 0.13512796 0.48792464 0.15282981 0.037840314
-0.13337786 0.05693666 0.1653025 -0.4526805 0.11865212 -0.50356513 0.38871548 0.2711783
0.12729707 -0.10325724 -0.108131886 -0.58063936 0.17209022 0.0002846297 0.29098275 0.042685926
-0.5549251 -0.389269 -0.6258704 0.34660825 -0.36782828 0.2592021 0.08927327 0.32410878
-0.08725505 0.23518415 -0.060184117 0.20853694 -0.16747239 0.6275479 -0.03232838 0.18036179
0.38927954 0.23940367 0.117057115 0.12482367 0.11349698 0.08799174 0.18759118 -0.5375511
0.14851408 -0.3784201 0.11165719 0.10703089 0.18248342 0.43587905 -0.05351083 0.10978015
0.020641569 0.14002617 -0.056606606 0.017722007 0.026606515 0.2187467 -0.046668798 0.16411231
-0.7553585 0.001471499 -0.647476 -0.12225894 0.31843424 -0.052391596 0.31683135 -0.014401713
-0.1594538 0.025661832 0.014686089 -0.070395455 0.6904529 0.34214172 0.6971184 0.03671126
-0.07690408 -0.0760808 -0.26290306 0.38766026 -0.19895886 0.47316515 -0.7099643 0.1645212
0.19360085 0.00028940378 -0.26313832 0.03330896 -0.37210944 0.46322525 -0.47939327 0.10407671
0.22109929 -0.05846027 -0.11120496 -0.30075955 -0.16429728 -0.33542252 0.03719182 0.31392446
0.136092 -0.14848337 0.07570248 -0.67807895 -0.22279984 -0.32770783 -0.36587715 0.05813854

sun_influence_3.W_self.bias f4 [12]
00000000: 92a5 4abd 0194 b33c 42e6 48bc 3f39 c4bd
00000010: ca64 4cbd 3efc d8bd 5c5c ebbd 55e1 06bd
00000020: 42ef f63d b1c7 df3d 77d6 46bd 958a c93b
-0.049474306 0.02192116 -0.012261929 -0.09581231 -0.049900807 -0.105949864 -0.114922255 -0.032929737
0.120573536 0.1092676 -0.048544373 0.0061505535

sun_influence_4.weight f4 [8, 12]
00000000: 78bd ecbe f0c6 c0be 7806 dbbb 2e47 a53e
00000010: 2a89 ee3d 4c67 72bf b358 5b3e a9d7 443d
00000020: 7819 9f3e 4bcd 6bbf 597d 8f3e 40f0 5d3f
00000030: 3a7f 913e 4955 e13e 0d82 7f3d 04e9 923e
00000040: 9849 ddbd 78fd 5bbe 5940 9abd adaf 0fbe
00000050: 3603 c83b c76b 60bf 2228 7cbd c034 dd3a
00000060: c889 f8bd d878 c53e 8bb5 563e 76c9 3d3e
00000070: d720 59be 4575 6fbe 8098 bc3c 1a97 0ebe
00000080: 33de bb3e a8a3 92bd d260 523d b7e2 2c3d
00000090: 5b88 66be b2c6 123f e329 7cbe 66a8 3a3e
000000a0: 579f d23d 146e 2abe 64d1 043e 9dae 893e
000000b0: 68bd a33e bdfa aabe 9a7b 6e3e 411c f2be
000000c0: a0de 1b3e 17d9 513c ac4b 373f 89a3 e6bd
000000d0: cd54 083f 0c4f 2f3e 894c 0c3f d2f2 e93e
000000e0: 2437 113f bea6 c9be d121 b33e 04d1 db3e
000000f0: 5eb4 b5bd ecf6 6f3e 9ca6 14be 12be 173d
00000100: 0049 fdbd 2b40 15bc be0d 17bf cb93 fb3e
00000110: a3e2 4d3d 36d3 c8be 7849 f83e c416 4ebe
00000120: c23b d2be 5c72 f8bd 41eb 4dbf 11fd 9ebd
00000130: 3ce9 c83c 7302 433e 3158 4bbe 5785 0bbe
00000140: aff0 a2be 9816 60be a685 06be 21f4 c73c
00000150: de70 91be c91c 0bbe b5f9 9abd 3d41 723e
00000160: d95a 673e d380 97bb 5983 76bd 3473 c23e
00000170: 103d 5d3d 4063 dbbd 9313 853c 7766 ddbe
-0.46238303 -0.37651777 -0.0066841207 0.32280868 0.11647256 -0.9468887 0.21420555 0.048057232
0.3107412 -0.9211013 0.2802532 0.8669472 0.2841738 0.4401038 0.062379885 0.28693402
-0.108050525 -0.2148341 -0.075318046 -0.14031859 0.0061038984 -0.87664455 -0.06156171 0.0016876683
-0.12135655 0.3856876 0.2096769 0.18533882 -0.21203934 -0.23384579 0.023021936 -0.13924828
0.36692962 -0.07160121 0.051361866 0.0422084 -0.22512953 0.57334435 -0.24625354 0.18228301
0.10284298 -0.16643554 0.12970501 0.26891032 0.31980443 -0.33394423 0.23289338 -0.4728718
0.15221643 0.012808106 0.7159984 -0.112616606 0.53254396 0.17119998 0.54804283 0.4569307
0.5672476 -0.39385027 0.34986737 0.42932904 -0.08872293 0.23434037 -0.14516681 0.0370465
-0.12367439 -0.009109537 -0.59005344 0.49136195 0.050264966 -0.3922364 0.48493552 -0.20125872
-0.41061217 -0.12131187 -0.80437094 -0.07763112 0.024525277 0.19043903 -0.19857861 -0.13625084
-0.31824252 -0.21883619 -0.1313692 0.024408402 -0.28406423 -0.135852 -0.07567159 0.23657699
0.2259325 -0.0046235113 -0.060183857 0.37978518 0.054013312 -0.1071229 0.016244685 -0.43242237

sun_influence_4.bias f4 [8]
00000000: 3933 92bd 3cb8 9a3d 24c3 153e d645 4a3e
00000010: d667 e2bd ede8 833d a7e7 bd3d 46c1 fd3d
-0.07138676 0.07554671 0.14625221 0.19753203 -0.110549614 0.064409114 0.092727 0.123903796
