src/Photosynthesis/RL/SavedModels/model_4.pth (torch, 29994 bytes, 34 tensors)

player_tree_1.W.weight f4 [12, 12]
0.29408666 -0.47163796 0.26169106 -0.09908806 0.26200512 -0.08181961 -0.049253706 0.28824827
0.50037384 -0.12137537 0.20333982 0.12527397 0.097604446 0.19962524 0.34864748 0.025977392
0.18039139 -0.5446099 -0.041955527 -0.026048252 0.35897863 0.17089498 0.5315186 0.3308716
-0.32899743 0.19165243 -0.42416215 0.12778889 0.24661893 0.25589374 -0.014080498 -0.30116877
0.3431296 0.17083296 -0.41688088 -0.124444075 0.09593306 0.27325508 0.03462723 0.061734263
0.16476788 -0.14778805 -0.022995874 -0.38174918 -0.24710396 0.3313189 -0.13947685 0.38139373
-0.22392711 0.14809339 -0.02748823 0.11488523 0.083071716 0.3006711 -0.32320002 0.44248328
-0.18246086 0.3199114 0.23723696 0.7303158 -0.034645244 0.17154199 0.23106274 -0.10844875
0.104144566 0.37392342 0.1753992 0.10553196 0.027155645 0.72392267 -0.10799399 0.24380437
-0.04687885 0.07632364 0.43617734 0.24783413 -0.3188916 -0.3036944 0.02316573 0.3361516
-0.18131177 -0.28654703 0.10715706 -0.0015720562 0.15472196 0.18026897 0.062461153 -0.038317047
0.13866334 -0.089250185 -0.453279 0.13974792 -0.35714462 0.3976694 -0.23081477 0.49237108
0.23960492 -0.22087559 -0.6795996 0.05900847 -0.36898682 0.041683 -0.2860812 -0.01773316
0.25957862 0.33159593 -0.44381452 -0.022862565 -0.004193792 0.3129857 -0.21112679 -0.033514813
0.14121175 0.28982863 -0.390851 -0.0070057204 -0.51879317 0.04442312 -0.04768687 0.26594555
0.7698591 0.042758692 -0.059811972 0.06368504 0.40560552 0.43128273 -0.12472993 0.15153539
-0.05749363 -0.37542242 -0.40380272 0.13194123 0.118774414 -0.4283731 0.20880169 -0.28568146
-0.0037004512 -0.23251839 0.20665364 -0.15706857 -0.58186823 -0.4879165 0.09816477 -0.07324182
00000000: 8792 963e 887a f1be 5ffc 853e aeee cabd
00000010: 8925 863e 0a91 a7bd 41be 49bd 4795 933e
00000020: 8018 003f a693 f8bd 5038 503e d247 003e
00000030: d7e4 c73d 8f6a 4c3e ec81 b23e 8ace d43c
00000040: 85b8 383e 8e6b 0bbf 8fd9 2bbd 2563 d5bc
00000050: 0ccc b73e 18ff 2e3e 9a11 083f 0168 a93e
00000060: 5a72 a8be 8940 443e c82b d9be 17db 023e
00000070: ac89 7c3e 8104 833e e4b1 66bc cb32 9abe
00000080: afae af3e d6ee 2e3e 6971 d5be 89dc febd
00000090: 8d78 c43d 17e8 8b3e 48d5 0d3d 11dd 7c3d
000000a0: e9b8 283e c055 17be d861 bcbc a174 c3be
000000b0: d208 7dbe a2a2 a93e 05d3 0ebe 0a46 c33e
000000c0: 264d 65be cba5 173e ff2e e1bc f348 eb3d
000000d0: 8121 aa3d 90f1 993e 797a a5be 2b8d e23e
000000e0: 05d7 3abe 6dcb a33e 3fee 723e faf5 3a3f
000000f0: 2ce8 0dbd b4a8 2f3e b69b 6c3e 611a debd
00000100: bf49 d53d e472 bf3e d99b 333e 2421 d83d
00000110: 8475 de3c ff52 393f f42b ddbd daa7 793e
00000120: 0904 40bd 924f 9c3d a352 df3e 3bc8 7d3e
00000130: c345 a3be d57d 9bbe 0fc6 bd3c 101c ac3e
00000140: cba9 39be 4bb6 92be 2975 db3d 740d ceba
00000150: 6f6f 1e3e 6e98 383e 44d7 7f3d 56f2 1cbd
00000160: c3fd 0d3e cdc8 b6bd 2f14 e8be 141a 0f3e
00000170: a9db b6be 539b cb3e b55a 6cbe 1018 fc3e
00000180: fe5a 753e 362d 62be 3dfa 2dbf deb2 713d
00000190: d7eb bcbe cbbb 2a3d 3c79 92be 2245 91bc
000001a0: 7de7 843e f1c6 a93e a83b e3be 464a bbbc
000001b0: 146c 89bb a93f a03e 9f31 58be d446 09bd
000001c0: d099 103e 6b64 943e 9f1d c8be 3e90 e5bb
000001d0: a1cf 04bf 04f5 353d 4f53 43bd 042a 883e
000001e0: 7c15 453f bd23 2f3d 66fd 74bd 4d6d 823d
000001f0: 87ab cf3e 17d1 dc3e 6872 ffbd 182c 1b3e
00000200: 717e 6bbd 5e37 c0be 3bbf cebe 9a1b 073e
00000210: 0040 f33d b853 dbbe 1cd0 553e d744 92be
00000220: 4583 72bb 4d19 6ebe 039d 533e 95d6 20be
00000230: 51f5 14bf 31d0 f9be 9c0a c93d cfff 95bd

player_tree_1.W.bias f4 [12]
0.0106377965 -0.010391088 -0.00085939345 -0.0044002365 0.0012588665 0.0040929327 0.035759214 0.003716958
-0.01915657 -0.004288032 0.04553661 -0.00780477
00000000: 274a 2e3c 623f 2abc eb48 61ba dc2f 90bb
00000010: 8d00 a53a 021e 863b 4178 123d 3598 733b
00000020: 3dee 9cbc 9f82 8cbb 9984 3a3d 28bf ffbb

player_tree_1.W_self.weight f4 [12, 12]
0.03135257 0.38243976 0.03921309 -0.36862478 -0.034113936 -0.22518167 0.1842565 0.13045093
0.4771867 -0.15790577 -0.34683844 -0.012866242 -0.08681408 0.33861032 0.09167066 -0.26913217
0.056856412 -0.19606899 0.3579365 0.08696127 0.23435055 0.59207857 0.1000819 0.09717863
-0.019834809 0.17951372 -0.007990837 0.11145596 0.07354101 -0.04919724 -0.059127633 -0.43106055
-0.5177669 0.24262653 0.024377137 0.23001319 -0.5149989 0.1879901 0.4549895 -0.51568794
0.3516791 0.3081567 0.24148393 -0.87241495 0.09669931 -0.011774421 0.15723829 0.032009702
-0.14360704 -0.08434615 0.20549205 -0.058527365 0.23973823 0.18490246 0.17873557 -0.32771128
0.17098877 -0.032212365 -0.41614 -0.024075316 -0.124708846 0.38066247 0.0053276997 0.41696534
-0.19443314 0.16007078 -0.070673294 -0.030486 -0.26597795 -0.6174134 0.2384067 -0.19475959
0.24729018 -0.03706005 0.5275981 0.50851125 0.14310151 0.286636 -0.08803803 -0.6025548
0.117944725 0.053160783 -0.6011789 -0.14381117 -0.038308766 -0.048085056 0.24824485 0.22801708
-0.29491857 0.39685643 -0.5483924 0.23632227 0.09817398 0.21734503 0.043111008 0.33806726
0.36638165 -0.4776903 -0.7367122 0.5075075 0.36096308 -0.3725274 -0.08685013 0.37062013
-0.112175874 0.51187974 0.20854057 -0.100923285 -0.43468478 -0.11389374 0.00050593197 0.45053002
0.19784877 0.3111222 0.5057276 0.28100517 0.25018612 0.21083593 -0.21012963 -0.3517244
0.26407993 -0.29988176 0.26140216 -0.06749582 -0.42266622 0.29761338 0.0102155395 0.14025724
-0.24741125 0.24552803 -0.14265732 -0.20952283 0.15289639 0.36789298 -0.38859263 0.2796381
-0.27733162 0.28079185 -0.32380152 -0.12468758 0.23847516 -0.10673209 -0.18127546 -0.53243935
00000000: 8d6b 003d 25cf c33e e89d 203d 63bc bcbe
00000010: 0ebb 0bbd 0696 66be bcad 3c3e ee94 053e
00000020: d151 f43e 0db2 21be cf94 b1be eecc 52bc
00000030: 95cb b1bd 555e ad3e d4bd bb3d b1cb 89be
00000040: 45e2 683d 4fc6 48be 7443 b73e c018 b23d
00000050: 97f9 6f3e 7692 173f bdf7 cc3d 9705 c73d
00000060: 9c7c a2bc 72d2 373e 00ec 02bc 0643 e43d
00000070: ab9c 963d 0c83 49bd d12f 72bd f8b3 dcbe
00000080: 5f8c 04bf 1773 783e 90b2 c73c 9488 6b3e
00000090: f8d6 03bf 7a80 403e 62f4 e83e 2004 04bf
000000a0: 480f b43e b7c6 9d3e 9047 773e 9656 5fbf
000000b0: 4a0a c63d 80e9 40bc 1303 213e 9b1c 033d
000000c0: b90d 13be adbd acbd 826c 523e 64ba 6fbd
000000d0: f07d 753e 1257 3d3e 7506 373e c6c9 a7be
000000e0: ae17 2f3e 1df1 03bd 4d10 d5be 9939 c5bc
000000f0: 5a67 ffbd 31e6 c23e fc93 ae3b 7b7c d53e
00000100: 7b19 47be 98e9 233e 29bd 90bd c7bd f9bc
00000110: 432e 88be ce0e 1ebf e320 743e 0f6f 47be
00000120: a339 7d3e 47cc 17bd ab10 073f cb2d 023f
00000130: 3489 123e f4c1 923e 484d b4bd 0841 1abf
00000140: 018d f13d 1fbf 593d dce6 19bf 3c43 13be
00000150: a7e9 1cbd d6f4 44bd e633 7e3e 4f7d 693e
00000160: 91ff 96be c430 cb3e 7263 0cbf 77fe 713e
00000170: 710f c93d b28f 5e3e 2b95 303d 2717 ad3e
00000180: 6096 bb3e d393 f4be 2c99 3cbf 03ec 013f
00000190: 27d0 b83e e9bb bebe 7bde b1bd ecc1 bd3e
000001a0: 77bc e5bd 8d0a 033f a98b 553e deb0 cebd
000001b0: 018f debe 1f41 e9bd 85a0 043a dfab e63e
000001c0: de98 4a3e 694b 9f3e 5d77 013f e9df 8f3e
000001d0: 6518 803e 60e5 573e 392c 57be 3815 b4be
000001e0: 7c35 873e 1a8a 99be 81d6 853e 403b 8abd
000001f0: b567 d8be c860 983e 145f 273c 989f 0f3e
00000200: 6059 7dbe b36b 7b3e c314 12be 278d 56be
00000210: df90 1c3e 785c bc3e 9df5 c6be ba2c 8f3e
00000220: 69fe 8dbe f3c3 8f3e 50c9 a5be 345c ffbd
00000230: d532 743e 5b96 dabd 46a0 39be f24d 08bf

player_tree_1.W_self.bias f4 [12]
0.0106377965 -0.010391088 -0.00085939345 -0.0044002365 0.0012588665 0.0040929327 0.035759214 0.003716958
-0.01915657 -0.004288032 0.04553661 -0.00780477
00000000: 274a 2e3c 623f 2abc eb48 61ba dc2f 90bb
00000010: 8d00 a53a 021e 863b 4178 123d 3598 733b
00000020: 3dee 9cbc 9f82 8cbb 9984 3a3d 28bf ffbb

player_tree_2.W.weight f4 [12, 12]
0.2630121 -0.2843628 -0.61193305 -0.0015778637 -0.06486956 -0.22716479 0.4047406 0.09684785
0.34724838 -0.15382302 -0.17423932 -0.6770058 -0.5323013 -0.31936157 -0.0022263005 0.40872893
0.30293933 0.1360497 0.25365472 0.13810554 -0.48497197 0.18961276 -0.41831884 0.046319406
0.7247119 -0.419311 0.573485 -0.047882482 0.40600526 0.10428733 -0.1726425 -0.052187312
-0.11952276 0.34194055 -0.50590575 -0.38244706 0.024044884 -0.11803772 0.028881297 -0.30888712
0.24197643 0.03723109 0.10005819 -0.14088169 0.17058127 -0.05243717 -0.044483334 0.15091638
-0.09393348 -0.014612993 -0.40028012 -0.3094043 0.014930759 0.04321461 0.11590871 0.26219422
0.10009701 0.15004924 0.16383623 0.14962742 0.3856213 0.20024507 0.23855928 0.067409754
0.06283509 -0.12546298 -0.15295592 -0.37108654 0.39971715 -0.053118076 -0.63751906 -0.20816436
-0.11802644 -0.16140626 -0.47825128 0.4539746 0.08393775 0.276881 0.06497831 0.27278897
0.10768036 0.070203975 -0.46013355 0.0095136985 0.31325147 -0.1609293 0.04642994 0.11152971
0.4340267 -0.07816844 0.23872958 -0.1165867 0.4359327 -0.03321393 -0.024119804 -0.77832353
-0.41593358 0.011777188 0.108210444 0.26303232 0.5484734 0.2863444 0.31573543 0.15419711
0.25398332 -0.06150236 -0.026212733 -0.06577071 -0.5114696 0.45542932 -0.110536754 0.26711375
0.42216712 -0.4710884 -0.59454 0.03215819 -0.02092215 0.5237376 0.01311124 0.46150985
-0.14698742 0.11499021 -0.09931761 -0.13622259 -0.23169999 -0.20872599 -0.6128822 0.19338503
0.09731443 -0.23902746 -0.1266102 0.17764074 0.11180082 0.1653826 -0.23453061 -0.0847319
-0.24258699 -0.47802466 0.12490448 0.5176564 0.24441053 -0.08300749 -0.39912498 0.10990326
00000000: 86a9 863e 0098 91be a5a7 1cbf 52d0 ceba
00000010: 55da 84bd e39d 68be 293a cf3e 2a58 c63d
00000020: 8aca b13e c883 1dbe cb6b 32be 4150 2dbf
00000030: e644 08bf 5c83 a3be 20e7 11bb eb44 d13e
00000040: dd1a 9b3e 9d50 0b3e 08df 813e 8a6b 0d3e
00000050: 3f4e f8be d929 423e e32d d6be 6bb9 3d3d
00000060: b886 393f eeaf d6be eacf 123f 6c20 44bd
00000070: ecdf cf3e 9894 d53d 32c9 30be 5dc2 55bd
00000080: 59c8 f4bd d512 af3e 0a83 01bf 1ad0 c3be
00000090: c7f9 c43c c3bd f1bd 7898 ec3c 7426 9ebe
000000a0: abc8 773e a17f 183d 4feb cc3d 4a43 10be
000000b0: dbac 2e3e 5cc8 56bd 2834 36bd d389 1a3e
000000c0: 3260 c0bd 566b 6fbc 84f1 ccbe 3e6a 9ebe
000000d0: 24a0 743c ce01 313d 8c61 ed3d 523e 863e
000000e0: a9ff cc3d 82a6 193e afc4 273e ee37 193e
000000f0: 2870 c53e 0b0d 4d3e e248 743e 200e 8a3d
00000100: afaf 803d 5e79 00be 7aa0 1cbe 0eff bdbe
00000110: baa7 cc3e 5792 59bd 7334 23bf 0a29 55be
00000120: d9b7 f1bd af47 25be 5add f4be 5c6f e83e
00000130: 8ee7 ab3d 59c3 8d3e 5913 853d ffaa 8b3e
00000140: 8587 dc3d 1ac7 8f3d a096 ebbe 58df 1b3c
00000150: 7f62 a03e a7ca 24be 522d 3e3d b069 e43d
00000160: bf38 de3e c616 a0bd 8775 743e 02c5 eebd
00000170: 9232 df3e 540b 08bd e596 c5bc 3640 47bf
00000180: 3ff5 d4be 1bf5 403c 709d dd3d 2cac 863e
00000190: c168 0c3f bc9b 923e 13a8 a13e d9e5 1d3e
000001a0: 1a0a 823e e6e9 7bbd 16bc d6bc cbb2 86bd
000001b0: acef 02bf 082e e93e 1861 e2bd 22c3 883e
000001c0: 4a26 d83e 8032 f1be c633 18bf 4eb8 033d
000001d0: ee64 abbc ab13 063f 87d0 563c 054b ec3e
000001e0: df83 16be fd7f eb3d 0867 cbbd ef7d 0bbe
000001f0: c342 6dbe 44bc 55be d9e5 1cbf ba06 463e
00000200: ca4c c73d 9dc3 74be 1ba6 01be 74e7 353e
00000210: d4f7 e43d 0e5a 293e cb28 70be eb87 adbd
00000220: b968 78be a6bf f4be eccd ff3d 2185 043f
00000230: c146 7a3e d5ff a9bd 1c5a ccbe f614 e13d

player_tree_2.W.bias f4 [12]
0.018519126 -0.024191415 -0.003612736 0.04432234 0.0058410014 -0.023281565 0.00837998 0.034251876
-0.0039325855 -0.003178883 -0.0025266658 -0.02009402
00000000: 6cb5 973c 132d c6bc a7c3 6cbb 588b 353d
00000010: df65 bf3b fbb8 bebc 2f4c 093c b24b 0c3d
00000020: ebdc 80bb cf54 50bb 6b96 25bb 379c a4bc

player_tree_2.W_self.weight f4 [12, 12]
0.1748588 -0.3038423 0.3430548 0.5475707 -0.46801263 -0.7003683 0.13348891 -0.05589486
-0.08256333 -0.47312772 0.3546609 0.24170843 0.41429892 -0.11385888 -0.15996355 -0.0020304415
-0.11509298 -0.43822837 -0.29400706 -0.11363015 0.6777479 0.2692225 0.07776927 0.0026074594
-0.26712015 -0.31853443 -0.25619334 -0.38413182 0.26409623 -0.17874709 -0.32415566 0.32065022
-0.106362 0.0025164231 -0.21485339 -0.11070786 -0.028649218 0.048801206 -0.9878368 0.1725853
0.26445112 -0.16274668 0.74774814 -0.2597048 0.13552232 -0.066244714 0.07024004 -0.08946222
-0.47760072 -0.05011374 -0.3035353 0.26795003 0.3489658 -0.12847103 -0.10467843 0.15091456
0.062645175 0.33600694 -0.21480276 0.22101709 -0.38538602 -0.07867223 -0.13290995 -0.43291867
-0.18269204 0.43997145 -0.12582082 -0.40449643 0.27046716 0.051944572 -0.1669868 -0.39611998
0.40372196 -0.066853195 0.20056729 0.10943331 0.394524 0.40133268 0.29586324 -0.5816618
-0.09176787 0.31216085 -0.002659122 -0.38716763 0.54588443 -0.17820558 0.56043 -0.08661239
-0.021950465 -0.037799355 -0.32473147 0.414969 0.35688218 -0.14187309 0.33419278 -0.05211675
0.39480796 0.43979922 -0.24008346 -0.23765562 -0.11953353 -0.36380592 -0.63171417 -0.107466996
-0.048032258 -0.23309901 0.25368166 -0.2647742 0.3091294 0.43944362 0.26412463 -0.13861555
0.70754576 0.3461867 0.34357047 0.37322772 0.18898162 0.50982517 0.37047127 0.4203403
0.55966175 0.11715044 -0.2185101 -0.4647426 0.46793264 -0.2842782 0.43394077 0.015580143
0.2040456 -0.18629657 -0.19626616 -0.20842172 -0.019290825 0.03691107 -0.021429138 -0.005826103
0.06720213 -0.3565899 -0.15264608 -0.42413402 -0.09723025 -0.11030704 -0.31965056 0.34669635
00000000: 2f0e 333e 3891 9bbe e1a4 af3e 982d 0c3f
00000010: 5a9f efbe 564b 33bf 51b1 083e 02f2 64bd
00000020: f716 a9bd cc3d f2be 1d96 b53e 6a82 773e
00000030: fd1e d43e d82e e9bd 7ccd 23be 2811 05bb
00000040: deb5 ebbd 785f e0be 1888 96be edb6 e8bd
00000050: e380 2d3f 88d7 893e 7f45 9f3d e9e1 2a3b
00000060: f9c3 88be f216 a3be c62b 83be edac c4be
00000070: 9f37 873e 7a09 37be bbf7 a5be 442c a43e
00000080: 52d4 d9bd 93ea 243b 8702 5cbe cdba e2bd
00000090: c4b1 eabc c6e3 473d dfe2 7cbf 33ba 303e
000000a0: 2366 873e 11a7 26be 6c6c 3f3f 07f8 84be
000000b0: 5dc6 0a3e 4fab 87bd 03da 8f3d f837 b7bd
000000c0: 1588 f4be 1144 4dbd fb68 9bbe bf30 893e
000000d0: a5ab b23e e98d 03be a561 d6bd 5989 1a3e
000000e0: 1d4c 803d 1a09 ac3e 41f5 5bbe 4e52 623e
000000f0: 5151 c5be e81e a1bd 8c19 08be 84a7 ddbe
00000100: 9f13 3bbe f043 e13e 2cd7 00be 281a cfbe
00000110: ac7a 8a3e d5c3 543d 96fe 2abe 3dd0 cabe
00000120: a5b4 ce3e 54ea 88bd 8361 4d3e 921e e03d
00000130: 0dff c93e 7a7b cd3e 637b 973e cae7 14bf
00000140: cbf0 bbbd 8cd3 9f3e aa44 2ebb d63a c6be
00000150: 15bf 0b3f 867b 36be 5778 0f3f d661 b1bd
00000160: 76d1 b3bc 7fd3 1abd 3443 a6be d176 d43e
00000170: 43b9 b63e 2e47 11be 511b ab3e 6078 55bd
00000180: 4524 ca3e 5d2d e13e 70d8 75be ff5b 73be
00000190: ffcd f4bd c544 babe 05b8 21bf a817 dcbd
000001a0: 79bd 44bd 82b1 6ebe 90e2 813e 7c90 87be
000001b0: 3546 9e3e c1fe e03e 583b 873e 3cf1 0dbe
000001c0: b821 353f 623f b13e 78e8 af3e b417 bf3e
000001d0: 6684 413e e783 023f 69ae bd3e d836 d73e
000001e0: fe45 0f3f 92ec ef3d 1dc1 5fbe bef2 edbe
000001f0: de94 ef3e ea8c 91be 7c2d de3e db43 7f3c
00000200: 54f1 503e 87c4 3ebe fff9 48be 816c 55be
00000210: cb07 9ebc 1030 173d 298c afbc e5e8 bebb
00000220: 45a1 893d f492 b6be 414f 1cbe 1828 d9be
00000230: a720 c7bd a8e8 e1bd 3da9 a3be 2f82 b13e

player_tree_2.W_self.bias f4 [12]
0.018519126 -0.024191415 -0.003612736 0.04432234 0.0058410014 -0.023281565 0.00837998 0.034251876
-0.0039325855 -0.003178883 -0.0025266658 -0.02009402
00000000: 6cb5 973c 132d c6bc a7c3 6cbb 588b 353d
00000010: df65 bf3b fbb8 bebc 2f4c 093c b24b 0c3d
00000020: ebdc 80bb cf54 50bb 6b96 25bb 379c a4bc

player_tree_3.W.weight f4 [12, 12]
-0.2965384 -0.167026 -0.13672726 -0.8145533 0.43720993 0.0026962154 -0.2842531 0.3908803
0.2565892 -0.14783593 -0.39809686 -0.025781682 -0.48878512 -0.32984543 -0.69375914 -0.0535542
0.24571313 0.12683366 -0.23997967 0.21979858 0.15250576 0.1681683 -0.18273653 -0.10851883
-0.24124753 0.45614934 0.029016433 0.08033695 0.2711523 -0.2699002 -0.14640301 -0.12821597
0.023722261 0.30575657 0.5768127 0.050052032 -0.14120732 0.24163993 -0.41362146 0.46507463
-0.13746937 -0.3835037 -0.21686806 -0.08881497 -0.09691562 -0.13928142 -0.1807271 -0.5109744
0.18962403 0.33171102 -0.26620388 -0.72558504 0.27652717 0.16225636 0.14770517 0.0019252422
0.08015886 -0.15760502 0.53264904 0.08010496 0.10449019 0.08278185 0.47176164 0.22700587
0.6045403 0.17261621 0.7929935 -0.3851703 0.20880689 0.22463934 -0.12892035 0.42323658
-0.16001822 -0.040241003 -0.26154506 -0.2613496 -0.055470962 0.24546684 -0.0561858 0.014317079
-0.08437419 0.27920002 0.08906888 0.34175348 0.4411903 0.33209544 0.6836603 -0.6045371
-0.09122255 -0.18883362 0.10991445 -0.47036985 -0.4380595 0.2700303 -0.010358902 0.2803941
-0.31528836 -0.47220796 0.10632636 -0.043169215 0.08187506 -0.0646884 0.2876939 -0.36911315
0.22053614 -0.04886239 -0.16922507 0.5842609 0.09071442 -0.3262238 -0.11484342 -0.013113369
0.17287777 -0.23758486 0.10140069 0.44968668 -0.11175791 -0.31306782 0.42834076 0.03129571
0.30482107 -0.60835636 0.07077061 0.10136374 -0.1435144 0.013419378 -0.18977326 0.4741877
0.08434599 -0.28628263 -0.08949463 -0.2220861 -0.21903288 0.0567435 0.068219334 0.33239007
0.07849661 0.02403943 -0.03789852 -0.06718351 -0.09573975 -0.3870704 -0.22289301 0.29494506
00000000: e2d3 97be dd08 2bbe 3b02 0cbe 9186 50bf
00000010: fbd9 df3e fdb2 303b 9f89 91be 7621 c83e
00000020: a95f 833e 4d62 17be 5ad3 cbbe 1b34 d3bc
00000030: 0b42 fabe 80e1 a8be 339a 31bf a65b 5bbd
00000040: 399c 7b3e afe0 013e 3bbd 75be e112 613e
00000050: 782a 1c3e 5034 2c3e 491f 3bbe 1f3f debd
00000060: 9809 77be 688c e93e dfb3 ed3c b387 a43d
00000070: 79d4 8a3e 5c30 8abe acea 15be 0c4b 03be
00000080: 3055 c23c 208c 9c3e ffa9 133f 5c03 4d3d
00000090: a798 10be 7570 773e 31c6 d3be 431e ee3e
000000a0: c5c4 0cbe 995a c4be a912 5ebe 9fe4 b5bd
000000b0: b27b c6bd ca9f 0ebe 8610 39be 38cf 02bf
000000c0: cd2c 423e 07d6 a93e e04b 88be f1bf 39bf
000000d0: f894 8d3e 8826 263e 0640 173e 6958 fc3a
000000e0: 542a a43d 3663 21be b05b 083f 120e a43d
000000f0: f4fe d53d 8889 a93d be8a f13e 3a74 683e
00000100: 27c3 1a3f 4ec2 303e 9f01 4b3f 0b35 c5be
00000110: 79d1 553e db07 663e b203 04be 77b2 d83e
00000120: d1db 23be c0d3 24bd 3ce9 85be 9dcf 85be
00000130: 8535 63bd a95b 7b3e 1523 66bd 2f92 6a3c
00000140: 60cc acbd 4ef3 8e3e bf69 b63d 50fa ae3e
00000150: b2e3 e13e 6a08 aa3e 5d04 2f3f f2c2 1abf
00000160: e3d2 babd 9a5d 41be d41a e13d 51d4 f0be
00000170: 5649 e0be 6941 8a3e 62b8 29bc d18f 8f3e
00000180: 7a6d a1be 3ec5 f1be a2c1 d93d 34d2 30bd
00000190: 1dae a73d 5a7b 84bd 9d4c 933e 66fc bcbe
000001a0: 3ad4 613e ee23 48bd 5649 2dbe 1f92 153f
000001b0: 7bc8 b93d ce06 a7be 0733 ebbd 75d9 56bc
000001c0: df06 313e 7249 73be 2aab cf3d 553d e63e
000001d0: 55e1 e4bd 6d4a a0be 7b4f db3e ee2f 003d
000001e0: 8211 9c3e 3ebd 1bbf 2ef0 903d cb97 cf3d
000001f0: 70f5 12be f3dc 5b3c ec53 42be bbc8 f23e
00000200: 97bd ac3d a393 92be f648 b7bd 8a6a 63be
00000210: 284a 60be df6b 683d 94b6 8b3d 082f aa3e
00000220: d5c2 a03d 57ee c43c 7a3b 1bbd 8297 89bd
00000230: 3413 c4bd 172e c6be 113e 64be 0a03 973e

player_tree_3.W.bias f4 [12]
-0.0054377466 -0.010408335 -0.022909459 -0.045185804 -0.0207837 0.0034397831 -0.020079432 -0.016126622
-0.018099552 0.0014639748 0.019549096 -0.0005985026
00000000: 202f b2bb b987 2abc 9eac bbbc c014 39bd
00000010: 9442 aabc fc6d 613b 9f7d a4bc fa1b 84bc
00000020: 8345 94bc d8e2 bf3a 6d25 a03c d4e4 1cba

player_tree_3.W_self.weight f4 [12, 12]
0.11867805 -0.1791289 0.577699 -0.8380973 -0.49446732 -0.14334819 0.081080325 -0.3536585
0.17060785 -0.19770125 0.26846346 -0.33734006 -0.06410589 0.34228376 -0.42054012 0.12060081
-0.12225943 0.18229729 0.041056726 -0.01866977 0.8609918 -0.03847331 -0.39687195 0.064035885
0.026145287 0.039126195 -0.20036559 -0.16480002 -0.41690508 -0.15662853 -0.317381 -0.34884003
-0.38274693 0.5309665 -0.23404126 0.15989543 -0.13050628 0.2812751 0.11492922 0.21770076
-0.58482826 -0.2623186 0.022543013 -0.42298394 -0.15202805 -0.48290235 0.20675583 0.27375323
-0.44817758 0.38383338 -0.24883707 -0.47058192 -0.06520816 -0.024340032 -0.0071812575 -0.059605695
-0.25402465 -0.15199985 -0.073197626 0.101251595 0.33186433 -0.029835764 0.010199776 0.43919867
0.4935429 0.09494958 0.36964193 0.18784401 0.42891905 0.18271235 0.11194765 -0.42944837
0.46907714 -0.22972219 0.3948096 -0.07360586 0.32670748 -0.3397878 0.5021701 0.0031749741
-0.013188005 0.7316932 0.46207336 0.54061484 0.022932038 0.30717587 0.35737813 0.185376
0.57753766 -0.066689484 -0.050357126 -0.5237859 0.31785452 -0.36817265 0.41658592 -0.1528359
0.71093565 -0.2855403 -0.20247786 0.107904725 -0.02539071 0.37515557 0.054976944 -0.12728277
-0.46487558 0.13267212 -0.25047642 0.37896082 0.18961382 0.4053994 0.0039550224 -0.63195777
-0.1805258 -0.33788848 -0.6360819 0.30476022 -0.1700574 0.015399036 0.27416885 0.013608752
-0.38332102 -0.59082115 -0.21453248 0.29685357 -0.18108782 -0.17820075 0.115997635 -0.21873963
0.26345727 0.33446607 -0.29975122 -0.18487968 -0.42612928 -0.12499448 0.20273688 -0.12536386
0.111673065 -0.49352044 0.13391483 0.34801888 0.087762564 0.22572039 0.26066056 0.23854676
00000000: 7a0d f33d 916d 37be 15e4 133f 8b8d 56bf
00000010: d22a fdbe dec9 12be 710d a63d ba12 b5be
00000020: d3b3 2e3e 3272 4abe 0b74 893e d6b7 acbe
00000030: f349 83bd d13f af3e 0951 d7be 8ffd f63d
00000040: 2763 fabd 24ac 3a3e 192b 283d 58f1 98bc
00000050: f569 5c3f 3196 1dbd cd32 cbbe 3f25 833d
00000060: a42e d63c ca42 203d a32c 4dbe 56c1 28be
00000070: 9574 d5be 3b63 20be c37f a2be 299b b2be
00000080: 68f7 c3be 6ced 073f 83a8 6fbe a1bb 233e
00000090: 70a3 05be 4a03 903e 0360 eb3d f3ec 5e3e
000000a0: 4eb7 15bf a04e 86be 20ac b83c 5a91 d8be
000000b0: 3ead 1bbe fa3e f7be cdb7 533e 6229 8c3e
000000c0: 8877 e5be cf85 c43e 25cf 7ebe 1df0 f0be
000000d0: db8b 85bd bf64 c7bc c150 ebbb 1a25 74bd
000000e0: 850f 82be d9a5 1bbe a3e8 95bd ff5c cf3d
000000f0: 1fea a93e 226a f4bc f61c 273c a6de e03e
00000100: a8b1 fc3e ed74 c23d b541 bd3e 2e5a 403e
00000110: 479b db3e f218 3b3e cf44 e53d a8e0 dbbe
00000120: e12a f03e 4b3c 6bbe 7c24 ca3e abbe 96bd
00000130: 3446 a73e abf8 adbe 388e 003f 3a13 503b
00000140: 8112 58bc 3f50 3b3f e194 ec3e bc65 0a3f
00000150: f8db bb3c 2846 9d3e 44fa b63e 35d3 3d3e
00000160: 82d9 133f 7f94 88bd 4643 4ebd d516 06bf
00000170: d4bd a23e 2081 bcbe c04a d53e 0481 1cbe
00000180: e1ff 353f 5732 92be 5b56 4fbe 27fd dc3d
00000190: 2e00 d0bc 6414 c03e 812f 613d 6a56 02be
000001a0: 2c04 eebe 33db 073e 723e 80be 2707 c23e
000001b0: 202a 423e 8390 cf3e 2299 813b fcc7 21bf
000001c0: c1db 38be b8ff acbe 43d6 22bf 8809 9c3e
000001d0: 8723 2ebe 3d4c 7c3c dc5f 8c3e 3ef7 5e3c
000001e0: a742 c4be 0e40 17bf 67ae 5bbe 31fd 973e
000001f0: 166f 39be 427a 36be 2b90 ed3d 48fd 5fbe
00000200: dfe3 863e 233f ab3e fe78 99be 1951 3dbe
00000210: 9e2d dabe 1bfd ffbd 429a 4f3e 625f 00be
00000220: d9b4 e43d b6ae fcbe f820 093e 882f b23e
00000230: dcbc b33d 3f23 673e 4d75 853e 9a45 743e

player_tree_3.W_self.bias f4 [12]
-0.0054377466 -0.010408335 -0.022909459 -0.045185804 -0.0207837 0.0034397831 -0.020079432 -0.016126622
-0.018099552 0.0014639748 0.019549096 -0.0005985026
00000000: 202f b2bb b987 2abc 9eac bbbc c014 39bd
00000010: 9442 aabc fc6d 613b 9f7d a4bc fa1b 84bc
00000020: 8345 94bc d8e2 bf3a 6d25 a03c d4e4 1cba

player_tree_4.weight f4 [8, 12]
-0.1844225 -0.67276067 0.48510548 0.00519605 -0.36160928 -0.23232982 -0.20817366 0.58568674
-0.2341114 -0.32157102 0.12658788 -0.5282127 -0.04189806 -0.13707346 -0.18217558 0.3150826
0.11327934 -0.6574357 -0.7954721 -0.20397852 -0.38581696 0.27910432 -0.112317644 -0.09594912
-0.32509783 -0.28625086 0.08838551 -0.018181637 0.3131051 -0.50383115 -0.21367468 -0.5889466
0.30822414 -0.6648095 0.36842975 -0.014801324 0.18913737 0.2324604 0.32592475 0.12267453
-0.34514818 -0.063289516 0.6947556 0.42631787 0.0041993377 0.519429 -0.1343433 0.029045673
-0.30273363 0.12942642 -0.13085419 0.121791735 0.5457656 -0.23688862 -0.08560651 0.15067944
0.23342717 0.14379075 -0.8622959 -0.52570456 -0.30711 -0.26410338 -0.3378145 -0.13107659
0.37562573 -0.3388952 -0.44950265 0.22094351 -0.073514454 0.22816731 0.4096611 0.15388462
-0.280934 0.083203144 0.5322884 -0.12365728 -0.120183624 -0.90712667 0.7123836 0.29118
0.20155345 -0.36784887 -0.060081992 -0.055928115 0.13852689 -0.58489066 -0.08654517 0.07717899
0.49473566 -0.021409683 -0.015064199 0.074092925 0.04508234 0.109550186 0.15851428 0.45808
00000000: 40d9 3cbe 0b3a 2cbf bf5f f83e a043 aa3b
00000010: da24 b9be dee7 6dbe 7a2b 55be 91ef 153f
00000020: e6ba 6fbe f5a4 a4be 41a0 013e f338 07bf
00000030: 4d9d 2bbd fc5c 0cbe 3c8c 3abe 8252 a13e
00000040: 00ff e73d b54d 28bf 0fa4 4bbf bfdf 50be
00000050: cd89 c5be c3e6 8e3e cb06 e6bd f980 c4bd
00000060: 3973 a6be 798f 92be 7603 b53d a8f1 94bc
00000070: 504f a03e 14fb 00bf 89cd 5abe 34c5 16bf
00000080: 8ecf 9d3e f530 2abf d3a2 bc3e 4181 72bc
00000090: 3aad 413e 190a 6e3e 9cdf a63e c93c fb3d
000000a0: 43b7 b0be ef9d 81bd 81db 313f 5646 da3e
000000b0: 999a 893b 4df9 043f 4a91 09be 31f1 ed3c
000000c0: e7ff 9abe 5c88 043e a4fe 05be f26d f93d
000000d0: 4bb7 0b3f ee92 72be 7752 afbd b64b 1a3e
000000e0: 8807 6f3e e23d 133e 6dbf 5cbf 9394 06bf
000000f0: 863d 9dbe 8f38 87be 06f6 acbe f138 06be
00000100: 0452 c03e ac83 adbe 3625 e6be 043f 623e
00000110: bf8e 96bd b1a4 693e 1abf d13e ee93 1d3e
00000120: 95d6 8fbe 6966 aa3d 0d44 083f 0740 fdbd
00000130: d522 f6bd 7439 68bf c65e 363f 8c15 953e
00000140: 0764 4e3e b056 bcbe 8918 76bd e114 65bd
00000150: fed9 0d3e 65bb 15bf 983e b1bd 0510 9e3d
00000160: fe4d fd3e 5c63 afbc d5cf 76bc 08be 973d
00000170: 42a8 383d d95b e03d 9151 223e 7689 ea3e

player_tree_4.bias f4 [8]
0.033832315 0.08120285 -0.04147607 -0.07078577 -0.046565518 0.038271125 -0.02174538 -0.04481426
00000000: c193 0a3d ae4d a63d d0e2 29bd 21f8 90bd
00000010: 7cbb 3ebd 2fc2 1c3d 5e23 b2bc 288f 37bd

sun_influence_1.W.weight f4 [12, 12]
0.3574446 -0.3913865 -0.045432772 0.90639377 -0.19526699 0.5025735 0.22776681 0.08115195
-0.317949 -0.12686239 0.02467626 -0.1104311 -0.09711354 0.53488195 0.078944474 -0.05181516
-0.081419796 0.24458738 -0.28397682 -0.13180034 -0.01654095 0.13627796 0.5159049 0.117722295
-0.108456664 -0.28923646 0.22278175 0.23059644 -0.40832713 0.0929403 -0.32160553 -0.15051204
-0.46898454 -0.32461956 -0.21167709 -0.02545697 0.1571186 0.025872847 -0.12072758 -0.08476791
0.10776628 -0.36352855 0.5348853 0.48408312 0.020611085 -0.3263453 -0.18270074 -0.004405933
-0.008724748 -0.08710348 0.19253342 -0.30629906 -0.55175966 -0.05330454 0.11235124 -0.3695515
-0.053378664 0.2402644 0.6766477 0.19803742 -0.1340557 -0.041459896 0.085963935 -0.35249627
-0.25066414 -0.21833147 0.15855506 0.15574126 0.33812407 0.06842526 0.12166949 -0.06439317
0.23938511 -0.42171225 -0.5160896 -0.19350393 0.16079983 -0.31619695 0.16297956 -0.2389106
-0.2757033 0.110255495 0.27786112 0.44580787 0.1000731 0.26956916 0.42267853 -0.43120357
-0.0005452776 0.21990858 -0.49266583 -0.5500143 -0.22453786 0.3469366 -0.20438099 -0.5980946
0.06301021 -0.6085727 0.22770993 -0.34611532 0.38633662 0.15185358 -0.37013024 -0.10058063
0.067909196 0.12245171 0.21778898 0.1323879 -0.4831088 0.40894252 -0.23560315 0.12508403
0.050387647 -0.052227344 -0.32988805 -0.2275325 0.51306623 -0.1465448 -0.17209578 -0.022827633
-0.2734817 0.017965257 -0.3534211 0.057306476 -0.18800962 -0.1049278 -0.20393455 0.51986533
-0.37027448 -0.5628387 0.3326623 -0.11842323 -0.0015444264 0.0074971775 0.087585166 -0.10581874
-0.2065904 -0.30733946 -0.17017637 -0.761394 0.20567499 -0.03210439 0.7962002 0.3948309
00000000: fb02 b73e d063 c8be b717 3abd 6c09 683f
00000010: 12f4 47be a8a8 003f b43b 693e fe32 a63d
00000020: 36ca a2be 37e8 01be de25 ca3c b329 e2bd
00000030: 77e3 c6bd 06ee 083f a4ad a13d 223c 54bd
00000040: 6cbf a6bd 1d75 7a3e 6965 91be abf6 06be
00000050: e380 87bc 738c 0b3e 5812 043f 6318 f13d
00000060: 871e debd cd16 94be e620 643e 7921 6c3e
00000070: 4110 d1be 7c57 be3d 7ba9 a4be d41f 1abe
00000080: be1e f0be 8934 a6be e1c1 58be 238b d0bc
00000090: b3e3 203e 4bf3 d33c 0540 f7bd cc9a adbd
000000a0: 91b4 dc3d 6a20 babe 3eee 083f bed9 f73e
000000b0: 94d8 a83c bb16 a7be e715 3bbe a55f 90bb
000000c0: 3ff2 0ebc 4f63 b2bd 7b27 453e 3bd3 9cbe
000000d0: 1f40 0dbf dd55 5abd 6818 e63d db35 bdbe
000000e0: 96a3 5abd df07 763e c938 2d3f 52ca 4a3e
000000f0: e645 09be dad1 29bd dc0d b03d 647a b4be
00000100: 0d57 80be 4992 5fbe 425c 223e a37a 1f3e
00000110: 991e ad3e 8b22 8c3d db2d f93d 91e0 83bd
00000120: 5f21 753e abea d7be 731e 04bf e525 46be
00000130: b6a8 243e 91e4 a1be 1de4 263e fba4 74be
00000140: fc28 8dbe a2cd e13d d043 8e3e ee40 e43e
00000150: 20f3 cc3d f804 8a3e 5269 d83e b7c6 dcbe
00000160: f6f0 0eba b72f 613e b23e fcbe bdcd 0cbf
00000170: 41ed 65be ada1 b13e 4049 51be ba1c 19bf
00000180: 7f0b 813d 6ccb 1bbf cb2c 693e 0736 b1be
00000190: eacd c53e 817f 1b3e b681 bdbe 38fd cdbd
000001a0: fa13 8b3d f6c7 fa3d 1304 5f3e b290 073e
000001b0: 095a f7be ea60 d13e f441 71be 0716 003e
000001c0: 4763 4e3d 57ec 55bd 16e7 a8be 48fe 68be
000001d0: 4f58 033f d70f 16be e039 30be 0401 bbbc
000001e0: cb05 8cbe e02b 933c 9cf3 b4be 32ba 6a3d
000001f0: 9885 40be 63e4 d6bd 38d4 50be e515 053f
00000200: 9e94 bdbe 3216 10bf b752 aa3e e187 f2bd
00000210: 5a6e caba e2aa f53b da5f b33d 7fb7 d8bd
00000220: 6f8c 53be 995b 9dbe b742 2ebe b8ea 42bf
00000230: 779c 523e e57f 03bd c7d3 4b3f 4727 ca3e

sun_influence_1.W.bias f4 [12]
-0.0417548 -0.041289937 0.05552971 -0.02748207 -0.017792655 0.03572764 0.02222761 0.051090494
0.020840876 -0.030733956 0.0640576 -0.0006924479
00000000: 1507 2bbd a31f 29bd 1f73 633d 1422 e1bc
00000010: e7c1 91bc 2557 123d ad16 b63c 4444 513d
00000020: 7cba aa3c c7c5 fbbc a230 833d 6485 35ba

sun_influence_1.W_self.weight f4 [12, 12]
-0.32679644 0.018923001 0.48233014 0.010463649 -0.06094197 0.30754963 0.3446709 -0.6086565
0.23454359 -0.1370491 0.8216968 0.32005623 0.41024962 -0.36935458 -0.2860828 0.07651295
0.3875753 -0.07960406 0.11045443 -0.07022467 0.2582139 0.30770624 -0.045124415 -0.23589309
-0.35657072 -0.12681001 -0.17708692 0.05700886 -0.21716839 -0.32218668 0.34348854 0.3745921
-0.33092362 0.7134834 0.4684332 0.2878534 0.36066294 0.07083917 -0.15101898 0.26231176
-0.16437148 -0.34525406 -0.19456571 -0.017850367 -0.15751275 -0.39971912 -0.4928687 -0.029662121
-0.12657481 -0.0031512273 -0.45365593 -0.17461208 0.14692175 0.05108377 -0.20848626 0.021981813
-0.6663666 -0.043307506 0.20471333 -0.16894026 -0.058375668 0.3719792 0.1913961 -0.5644372
-0.010331029 0.3078327 0.023155266 -0.24729656 0.05283709 0.6249631 -0.40847984 -0.07874307
0.00915853 -0.36565754 -0.33254647 0.005159948 0.47737652 0.06339607 0.40482864 0.6909812
0.06314539 0.021466875 0.045595907 0.2471247 0.3970828 0.06812523 -0.37810352 0.26332265
0.27970028 0.18767445 0.23998171 -0.04439106 0.246263 0.10533842 0.3113484 0.0018258404
0.47312704 -0.20322607 0.24112944 0.16104673 0.08123099 0.08818228 -0.156636 0.3250535
-0.2835785 -0.059891514 -0.3058567 0.20068173 0.24504517 0.23725997 0.33497265 -0.10346135
0.18505092 -0.16603933 -0.2233585 -0.23337324 -0.57863426 -0.17499706 -0.15232015 0.32238963
-0.36329436 -0.25433677 -0.11541844 0.21988456 -0.21421373 -0.07657222 -0.064783126 0.24832307
-0.5227001 -0.4274678 -0.22382696 -0.54521656 0.19077645 -0.34245762 -0.097308636 -0.5063484
0.1611717 0.0026471927 0.11098761 0.25232548 0.19669153 -0.38300225 -0.22299062 -0.29690507
00000000: dd51 a7be 6904 9b3c faf3 f63e ba6f 2b3c
00000010: 4a9e 79bd 2577 9d3e b478 b03e ead0 1bbf
00000020: 322c 703e 9956 0cbe b95a 523f 69de a33e
00000030: 3d0c d23e 0b1c bdbe 7279 92be d2b2 9c3d
00000040: 4570 c63e 7407 a3bd ef35 e23d f4d1 8fbd
00000050: 9d34 843e ac8b 9d3e 61d4 38bd f58d 71be
00000060: 7090 b6be 7cda 01be 4656 35be 1f82 693d
00000070: 6461 5ebe a7f5 a4be bbdd af3e 89ca bf3e
00000080: d26e a9be d9a6 363f 7ad6 ef3e 8561 933e
00000090: d0a8 b83e 2014 913d b8a4 1abe ba4d 863e
000000a0: ff50 28be 24c5 b0be 3c3c 47be ef3a 92bc
000000b0: 064b 21be fca7 ccbe 4959 fcbe fafd f2bc
000000c0: d49c 01be d284 4ebb 9745 e8be 82cd 32be
000000d0: a872 163e 373d 513d 6c7d 55be 3413 b43c
000000e0: 0097 2abf 3663 31bd 5fa0 513e adfe 2cbe
000000f0: 531b 6fbd 0f74 be3e 57fd 433e f57e 10bf
00000100: 7a43 29bc 3f9c 9d3e 1db0 bd3c 4f3b 7dbe
00000110: b46b 583d 95fd 1f3f 4524 d1be 0c44 a1bd
00000120: a90d 163c 7737 bbbe 8843 aabe c814 a93b
00000130: b26a f43e ccd5 813d b345 cf3e 25e4 303f
00000140: 5f52 813d 4ddb af3c c6c2 3a3d 420e 7d3e
00000150: 704e cb3e 3e85 8b3d c996 c1be 3ad2 863e
00000160: e034 8f3e bb2d 403e c4bd 753e 66d3 35bd
00000170: 5e2c 7c3e abbb d73d 0f69 9f3e 0a51 ef3a
00000180: b53d f23e 7f1a 50be a3ea 763e 6fe9 243e
00000190: 6f5c a63d e998 b43d 3065 20be 6a6d a63e
000001a0: 3331 91be ce50 75bd 4099 9cbe 837f 4d3e
000001b0: 1fed 7a3e 47f4 723e 8981 ab3e 8be3 d3bd
000001c0: fd7d 3d3e 3706 2abe 17b8 64be 65f9 6ebe
000001d0: 6021 14bf 6e32 33be d0f9 1bbe 4110 a53e
000001e0: b801 babe 6e38 82be 8160 ecbd 6b29 613e
000001f0: d85a 5bbe e5d1 9cbd 04ad 84bd 6748 7e3e
00000200: accf 05bf 0fdd dabe e532 65be 5093 0bbf
00000210: e75a 433e 9b56 afbe c049 c7bd 0ca0 01bf
00000220: 320a 253e 867c 2d3b 794d e33d ce30 813e
00000230: 8169 493e df18 c4be a757 64be f103 98be

sun_influence_1.W_self.bias f4 [12]
-0.0417548 -0.041289937 0.05552971 -0.02748207 -0.017792655 0.03572764 0.02222761 0.051090494
0.020840876 -0.030733956 0.0640576 -0.0006924479
00000000: 1507 2bbd a31f 29bd 1f73 633d 1422 e1bc
00000010: e7c1 91bc 2557 123d ad16 b63c 4444 513d
00000020: 7cba aa3c c7c5 fbbc a230 833d 6485 35ba

sun_influence_2.W.weight f4 [12, 12]
-0.019938618 -0.33369112 0.55710375 -0.94790614 -0.04622164 -0.5771718 0.12493355 0.025895586
0.3558614 0.38678294 -0.74697727 -0.2865863 -0.14809148 -0.36367545 0.037030686 0.15564846
0.031064617 -0.13072881 0.02739079 0.24087542 -0.10477478 0.07504028 -0.040463038 -0.28063637
-0.51198566 -0.12878226 -0.042882565 -0.27236006 0.1261933 -0.42972982 -0.12686291 0.012114387
0.22927411 0.31219417 -0.4828171 0.21248674 -0.0026045586 -0.35267293 0.27795523 0.11013267
0.2800486 0.138084 -0.4471759 0.46302444 0.3956282 -0.20671836 0.050963845 0.37479183
-0.15955892 -0.54382306 0.2806622 -0.7470536 -0.09521504 0.103248 0.12530044 0.44018504
0.19326605 0.188974 0.18821523 0.080129765 0.21813306 -0.24159673 0.4525254 0.41416836
-0.36714026 -0.03234085 0.13020381 0.41815227 0.32761425 -0.36918297 0.41143927 -0.18552071
0.23685339 -0.322817 -0.25432983 -0.32374105 0.31963462 0.15535039 0.11291714 0.056992386
-0.30670077 0.4648476 -0.16528587 0.19681258 -0.022655236 -0.22203544 0.21526039 0.40953815
-0.35126847 -0.089973435 -0.015179552 -0.06155041 -0.123120666 -0.043576375 0.05820817 -0.578769
-0.42536584 -0.41835567 0.29690236 0.14767575 -0.14778471 -0.42694998 -0.06491186 -0.37422717
0.15919189 0.09694918 0.56750804 -0.08837036 0.15779175 0.04377894 -0.31514835 0.026000485
0.056387145 -0.31852078 -0.14861484 0.100209504 0.18657535 -0.40980986 -0.4807831 0.26176995
0.36749223 0.06305831 0.5835951 -0.49331814 -0.34326488 0.25008035 -0.46499166 -0.47556144
-0.10982125 0.44726452 0.058376167 0.011495191 0.623878 -0.058826275 0.11889211 -0.23878308
0.00478444 0.32042307 -0.19146565 0.08269982 0.016724035 -0.023400987 -0.05349402 0.59513056
00000000: 5056 a3bc 90d9 aabe 5a9e 0e3f faa9 72bf
00000010: e752 3dbd 88c1 13bf 29dd ff3d fb22 d43c
00000020: 7733 b63e 6a08 c63e e739 3fbf 71bb 92be
00000030: 4ba5 17be ab33 babe 7dad 173d 4f62 1f3e
00000040: 397b fe3c c6dd 05be a662 e03c 0ca8 763e
00000050: 2994 d6bd b8ae 993d 92bc 25bd 92af 8fbe
00000060: 7e11 03bf 7fdf 03be a1a5 2fbd c772 8bbe
00000070: d138 013e 8c05 dcbe 5ae8 01be 6c7b 463c
00000080: d5c6 6a3e ead7 9f3e ce33 f7be 2096 593e
00000090: 3eb1 2abb 8c91 b4be 2650 8e3e 3d8d e13d
000000a0: 8862 8f3e e465 0d3e 3df4 e4be 8a11 ed3e
000000b0: c88f ca3e faad 53be 77bf 503d b7e4 bf3e
000000c0: 6a63 23be fd37 0bbf f5b2 8f3e e83e 3fbf
000000d0: 1a00 c3bd b073 d33d c24e 003e ef5f e13e
000000e0: 89e7 453e 6682 413e 7ebb 403e 131b a43d
000000f0: 465e 5f3e 2265 77be 69b1 e73e e00d d43e
00000100: cff9 bbbe d777 04bd 2654 053e 0e18 d63e
00000110: 0ebd a73e 8d05 bdbe 2ba8 d23e 24f9 3dbe
00000120: b289 723e 4548 a5be 8537 82be 63c1 a5be
00000130: 26a7 a33e 2c14 1f3e 1a41 e73d d970 693d
00000140: e207 9dbe 8100 ee3e b340 29be 3d89 493e
00000150: 7997 b9bc 425d 63be 386d 5c3e fcae d13e
00000160: 76d9 b3be fe43 b8bd a8b3 78bc 481c 7cbd
00000170: b026 fcbd 247d 32bd b16b 6e3d 352a 14bf
00000180: 8dc9 d9be b732 d6be 9603 983e 5038 173e
00000190: e054 17be 3099 dabe 82f0 84bd b49a bfbe
000001a0: 3303 233e 4b8d c63d 3548 113f 85fb b4bd
000001b0: 2994 213e 8c51 333d 205b a1be f8fe d43c
000001c0: 35f6 663d 2815 a3be 7d2e 18be a43a cd3d
000001d0: 9c0d 3f3e 99d2 d1be 3429 f6be b606 863e
000001e0: f127 bc3e b724 813d 7d66 153f 3294 fcbe
000001f0: 6ac0 afbe 880a 803e 6313 eebe ca7c f3be
00000200: f7e9 e0bd dbff e43e d91b 6f3d 5356 3c3c
00000210: 78b6 1f3f d2f3 70bd b57d f33d 8d83 74be
00000220: cbc6 9c3b 7e0e a43e 920f 44be 865e a93d
00000230: d800 893c 6db3 bfbc 8c1c 5bbd 7a5a 183f

sun_influence_2.W.bias f4 [12]
0.0424001 -0.043773677 -0.007513001 -2.4414534e-05 0.08361165 0.053339787 -0.038502634 -0.03660707
0.061413065 -0.052974146 -0.03006095 -0.042002015
00000000: baab 2d3d 074c 33bd 9f2f f6bb d0cd ccb7
00000010: 963c ab3d d27a 5a3d f0b4 1dbd 4cf1 15bd
00000020: 448c 7b3d 6bfb 58bd 6242 f6bc 4e0a 2cbd

sun_influence_2.W_self.weight f4 [12, 12]
0.03893247 -0.13212588 0.10204968 -0.049617883 -0.27346388 -0.5905494 0.3224193 0.04103247
-0.086396754 -0.11146286 -0.12007786 0.3992884 0.3421477 -0.32318535 0.24063821 -0.5781053
0.7173201 -0.0011001173 0.22614908 -0.018040057 0.0044362973 0.3971125 -0.37494665 0.078287855
0.09020516 0.11085289 0.2489695 -0.3703964 -0.13591002 0.2673805 0.42347926 0.5594087
-0.20296426 0.74515074 -0.38853323 -0.30496308 -0.027663438 0.004846773 -0.08385335 -0.09271036
0.47701472 -0.4400964 -0.0034287611 0.006139583 0.09259631 -0.3651655 -0.35090306 -0.07005243
-0.46209478 -0.37261733 -0.08238065 -0.20878074 0.20224808 -0.043473125 0.11274513 0.1501607
0.23277712 -0.09204102 -0.21286818 -0.47319365 0.03416136 -0.5095247 -0.010631119 -0.12165229
-0.2289683 -0.25419465 0.15383713 0.15640505 0.023472548 -0.53320646 -0.083665766 0.01819023
-0.23575619 0.17052548 -0.5482057 0.5746098 0.35192746 -0.24192962 -0.21228391 0.53164923
0.47690418 0.27315056 -0.18878116 -0.07112029 -0.19253676 0.058866218 0.12146544 0.24727805
0.13225308 -0.068672486 0.28697464 -0.071421094 -0.13290644 0.34392357 0.26355067 0.10507896
0.21677566 0.040971097 0.23383902 0.07674516 -0.07049209 -0.368737 -0.39614016 -0.35910392
-0.19349393 -0.5637892 0.25422683 0.20690283 -0.006522124 -0.5181504 -0.047398333 0.2522248
0.075635925 0.26887932 -0.12619497 -0.28931838 0.27531245 -0.12854242 -0.069451004 -0.29030183
-0.6758954 0.17766197 0.15415683 -0.18523544 0.38654804 -0.1561508 0.00707091 -0.11779218
-0.0029723737 -0.36140242 -0.056221757 -0.10975243 0.26803613 0.11464576 -0.09631683 0.072272
0.05904351 -0.2800124 0.2477382 0.18922696 -0.5215165 0.29714027 0.12983878 -0.26495433
00000000: a777 1f3d 024c 07be 6cff d03d 1f3c 4bbd
00000010: 7503 8cbe 3f2e 17bf 2414 a53e aa11 283d
00000020: c8f0 b0bd a446 e4bd 62eb f5bd 876f cc3e
00000030: fc2d af3e 8d78 a5be dd69 763e b5fe 13bf
00000040: 4aa2 373f d031 90ba a093 673e bec8 93bc
00000050: 5c5e 913b 5452 cb3e 02f9 bfbe 6255 a03d
00000060: 7cbd b83d d706 e33d dcf1 7e3e 99a4 bdbe
00000070: ff2b 0bbe 19e6 883e 46d2 d83e 6935 0f3f
00000080: ddd5 4fbe 33c2 3e3f d4ed c6be 1f24 9cbe
00000090: 6f9e e2bc aed1 9e3b 4ebb abbd eede bdbd
000000a0: 463b f43e 5154 e1be 11b5 60bb 8e2e c93b
000000b0: 22a3 bd3d f9f6 babe 91a9 b3be a677 8fbd
000000c0: b097 ecbe b3c7 bebe 30b7 a8bd 9eca 55be
000000d0: 1f1a 4f3e e010 32bd ebe6 e63d bac3 193e
000000e0: 205d 6e3e 0180 bcbd 1efa 59be 7046 f2be
000000f0: c8ec 0b3d 3670 02bf 252e 2ebc d624 f9bd
00000100: ab76 6abe cd25 82be 7b87 1d3e a528 203e
00000110: 8049 c03c 3880 08bf f558 abbd ad03 953c
00000120: 126a 71be 3b9e 2e3e 3557 0cbf a119 133f
00000130: d62f b43e 66bc 77be f460 59be 2a1a 083f
00000140: c92c f43e 64da 8b3e d94f 41be 84a7 91bd
00000150: 5b28 45be b41d 713d dfc2 f83d 7536 7d3e
00000160: 5a6d 073e 29a4 8cbd 57ee 923e 3945 92bd
00000170: a018 08be c016 b03e 1df0 863e a333 d73d
00000180: 70fa 5d3e 4fd1 273d 7f73 6f3e 912c 9d3d
00000190: 285e 90bd 19cb bcbe e2d2 cabe 78dc b7be
000001a0: 4623 46be 7d54 10bf 052a 823e 56de 533e
000001b0: 8bb7 d5bb 81a5 04bf c124 42bd 9c23 813e
000001c0: 02e7 9a3d 8daa 893e 4139 01be 8a21 94be
000001d0: c1f5 8c3e a0a0 03be 543c 8ebd 71a2 94be
000001e0: 7b07 2dbf 05ed 353e 4adb 1d3e 5cae 3dbe
000001f0: a0e9 c53e ffe5 1fbe 18b3 e73b 073d f1bd
00000200: 28cc 42bb bd09 b9be c948 66bd e2c5 e0bd
00000210: 083c 893e 65cb ea3d c241 c5bd 5803 943d
00000220: 9cd7 713d c95d 8fbe 15af 7d3e b6c4 413e
00000230: 1b82 05bf c522 983e 75f4 043e 18a8 87be

sun_influence_2.W_self.bias f4 [12]
0.0424001 -0.043773677 -0.007513001 -2.4414534e-05 0.08361165 0.053339787 -0.038502634 -0.03660707
0.061413065 -0.052974146 -0.03006095 -0.042002015
00000000: baab 2d3d 074c 33bd 9f2f f6bb d0cd ccb7
00000010: 963c ab3d d27a 5a3d f0b4 1dbd 4cf1 15bd
00000020: 448c 7b3d 6bfb 58bd 6242 f6bc 4e0a 2cbd

sun_influence_3.W.weight f4 [12, 12]
-0.20705464 0.25902608 0.18435328 -0.14652888 -0.12422898 -0.21534659 0.5589464 0.15312563
0.09096351 -0.3075388 0.24397258 0.46511525 0.6935809 -0.2992023 0.5418351 -0.33189803
-0.33005643 0.4443402 -0.40281525 -0.15771823 0.026211858 -0.32647493 0.18799664 0.08223652
-0.69854033 -0.44373167 -0.28722325 0.26373008 0.11728351 0.51129615 -0.27496788 0.18689592
0.4814274 -0.13813455 0.24876858 0.45428258 0.06366104 -0.56635267 0.037262477 0.26245737
-0.010321855 -0.027911339 -0.23018734 0.1902568 -0.07861603 0.1843057 -0.33238462 -0.41688132
-0.10206286 0.2094014 0.05522382 -0.20794596 -0.19895327 0.33902454 -0.19475897 0.2482012
0.29711637 0.10835783 0.23991473 -0.13289557 0.16901694 -0.37306133 0.08564759 0.03928688
0.5381473 -0.057074886 0.08056413 -0.2979462 -0.17310551 0.2910759 0.36550343 -0.29450178
0.15569554 -0.36715314 -0.21435407 -0.14444442 -0.28049976 -0.0768827 0.39763945 -0.19514912
0.6556167 0.17518604 -0.300568 0.24305281 -0.039890535 0.15189753 0.043765515 -0.29299355
-0.028378248 -0.32576936 0.08836513 0.22221862 -0.26890147 -0.25400287 -0.32344702 0.54508466
0.033109535 0.091244705 -0.11757551 -0.23714341 0.13057455 0.49095395 0.018199714 -0.3471353
-0.071126305 0.19801693 0.22746386 -0.40949488 0.46842498 -0.06062965 -0.30624625 -1.0006049
0.04845382 -0.22879475 0.12157969 0.5327801 0.49789682 -0.16997065 0.95156354 -0.43992063
0.3477426 0.13256556 -0.07648839 -0.45758167 -0.2855135 -0.42184368 0.0939838 0.2895851
0.14947249 0.20875135 -0.34419012 0.24087958 0.26553088 -0.06097432 -0.15194522 -0.22290131
0.16585319 -0.24120034 0.15636255 -0.15803558 -0.34242535 -0.16706567 0.24001345 0.57477576
00000000: 2206 54be 119f 843e 1bc7 3c3e ab0b 16be
00000010: c36b febd d183 5cbe 1c17 0f3f f7cc 1c3e
00000020: 144b ba3d ba75 9dbe f3d3 793e 9623 ee3e
00000030: 858e 313f 0b31 99be b5b5 0a3f 8aee a9be
00000040: 28fd a8be 8f80 e33e cd3d cebe e380 21be
00000050: 40ba d63c b927 a7be 3182 403e 9f6b a83d
00000060: 8ad3 32bf cc30 e3be ed0e 93be a107 873e
00000070: 5632 f03d 4ee4 023f 97c8 8cbe a561 3f3e
00000080: a77d f63e 2573 0dbe 31bd 7e3e ba97 e83e
00000090: b860 823d 7dfc 10bf 8aa0 183d d060 863e
000000a0: ff1c 29bc 52a6 e4bc 3bb6 6bbe aed2 423e
000000b0: 7101 a1bd a2ba 3c3e 512e aabe 7871 d5be
000000c0: 5506 d1bd 526d 563e 5f32 623d c9ef 54be
000000d0: 68ba 4bbe a094 ad3e e56e 47be 7528 7e3e
000000e0: a31f 983e b6ea dd3d 35ac 753e c715 08be
000000f0: c712 2d3e e501 bfbe 0168 af3d 48eb 203d
00000100: 05c4 093f 5bc7 69bd cefe a43d 688c 98be
00000110: 9242 31be e607 953e 4423 bb3e f0c8 96be
00000120: a76e 1f3e 7ffb bbbe a27f 5bbe 3de9 13be
00000130: aa9d 8fbe ad74 9dbd 6697 cb3e 2cd5 47be
00000140: 7fd6 273f f863 333e 0de4 99be d6e2 783e
00000150: 4264 23bd 078b 1b3e 7843 333d 4003 96be
00000160: 8079 e8bc 3ecb a6be c7f8 b43d 478d 633e
00000170: 74ad 89be aa0c 82be d99a a5be ab8a 0b3f
00000180: dd9d 073d 81de ba3d 6ecb f0bd b9d5 72be
00000190: 56b5 053e 515e fb3e 9117 953c b8bb b1be
000001a0: abaa 91bd f3c4 4a3e 49ec 683e 50a9 d1be
000001b0: 66d5 ef3e cc56 78bd 4fcc 9cbe d213 80bf
000001c0: 8377 463d 2c49 6abe c6fe f83d 4764 083f
000001d0: 55ec fe3e c90c 2ebe ab99 733f 473d e1be
000001e0: 510b b23e 44bf 073e f2a5 9cbd 2548 eabe
000001f0: d32e 92be e5fb d7be 947a c03d 8044 943e
00000200: 510f 193e eac2 553e b039 b0be 23a9 763e
00000210: aaf3 873e 35c0 79bd 8797 1bbe 3e40 64be
00000220: 6bd5 293e 39fd 76be 811d 203e 14d4 21be
00000230: 6052 afbe 4313 2bbe 16c6 753e 8124 133f

sun_influence_3.W.bias f4 [12]
-0.024787398 -0.010112822 0.055500954 -0.034641825 -0.021160882 -0.013954756 -0.013840914 -0.05489821
0.015942546 -0.0039358833 0.050112676 0.032309495
00000000: f10e cbbc 40b0 25bc f854 633d 96e4 0dbd
00000010: 9659 adbc 7da2 64bc 00c5 62bc f2dc 60bd
00000020: f199 823c 95f8 80bb f342 4d3d f656 043d

sun_influence_3.W_self.weight f4 [12, 12]
-0.5985324 0.17900391 -0.1825015 0.035014644 0.033253953 -0.06801915 0.014447987 -0.19821231
-0.2632256 0.3295456 -0.060006514 -0.23065378 0.35420257 0.01876109 0.2033557 0.3399009
-0.23955521 -0.06952511 0.49459627 0.20166028 -0.14921036 0.049063604 -0.010628731 -0.7332858
-0.2656291 0.4108156 -0.6142093 -0.19435692 -0.07079872 0.38289994 0.11983215 -0.13197799
0.1370782 -0.18830357 -0.3308722 -0.29806203 0.2492989 0.57924116 0.26865917 0.21615355
0.054840036 0.19152217 0.16334777 -0.45770836 0.0018234582 -0.29843932 0.396278 0.18444698
-0.0829242 -0.23528884 -0.16468503 -0.4816637 0.10021491 0.0395687 0.1952206 -0.035702337
-0.54658717 -0.30854183 -0.6125867 0.23463519 -0.32645425 0.08097068 -0.018917894 0.19618891
0.024138287 0.13305019 -0.14471832 0.32391953 -0.25827998 0.43522006 -0.022463027 0.2523575
0.18712609 0.08808841 0.032930844 0.19083582 -0.1313735 0.05773431 0.12903915 -0.6180287
0.20520385 -0.43980274 0.12661557 0.02044636 0.24463478 0.44237837 -0.17358682 0.1343551
-0.23592454 0.08318689 -0.06769193 -0.069651976 0.30934948 0.3616682 -0.05044023 0.15517752
-0.65192926 0.038638204 -0.5916141 -0.35964775 0.29743895 0.0038577851 0.22143419 0.03686938
-0.12428667 0.010514917 0.03313767 -0.13446817 0.75199246 0.10813233 0.53838557 -0.026770772
0.018806582 -0.25622728 -0.3024197 0.38482943 -0.25305453 0.25833213 -0.73011214 0.1785397
-0.0034910536 -0.16459963 -0.26600373 -0.05342828 -0.5579625 0.3836106 -0.4672686 -0.016996127
0.23025672 0.005615401 -0.13178574 -0.31341872 -0.03665559 -0.24321634 -0.06015392 0.33606526
0.13887611 0.010083362 -0.045911875 -0.6431991 0.043108042 -0.16445518 -0.36601055 -0.00028548617
00000000: 6b39 19bf cd4c 373e ace1 3abe 846b 0f3d
00000010: 4c35 083d a04d 8bbd 40b7 6c3c 2bf8 4abe
00000020: 81c5 86be 33ba a83e 64c9 75bd 8130 6cbe
00000030: 0a5a b53e dbb0 993c 7a3c 503e 7e07 ae3e
00000040: f64d 75be 2e63 8ebd b93b fd3e 0880 4e3e
00000050: 9aca 18be ebf6 483d 2124 2ebc 9eb8 3bbf
00000060: 8a00 88be 6c56 d23e d23c 1dbf 8005 47be
00000070: ebfe 90bd 760b c43e 8f6a f53d 3d25 07be
00000080: 3a5e 0c3e a7d2 40be 1568 a9be 969b 98be
00000090: 3648 7f3e 2649 143f b28d 893e 5b57 5d3e
000000a0: f29f 603d 631e 443e a344 273e c058 eabe
000000b0: 1b01 ef3a 0acd 98be f3e4 ca3e abdf 3c3e
000000c0: 2ad4 a9bd 8fef 70be 31a3 28be a09c f6be
000000d0: 7a3d cd3d ca12 223d e9e7 473e 9d3c 12bd
000000e0: 23ed 0bbf 32f9 9dbe 7bd2 1cbf 3544 703e
000000f0: 0325 a7be f5d3 a53d b3f9 9abc bfe5 483e
00000100: a8bd c53c 4f3e 083e 0a31 14be c8d8 a53e
00000110: 463d 84be 2ad5 de3e 6204 b8bc 0135 813e
00000120: fb9d 3f3e b267 b43d 7ee2 063d 776a 433e
00000130: c686 06be d07a 6c3d d722 043e 2137 1ebf
00000140: f520 523e d32d e1be 83a7 013e 207f a73c
00000150: 8a81 7a3e 6b7f e23e bec0 31be 6294 093e
00000160: 3496 71be e35d aa3d 11a2 8abd b2a5 8ebd
00000170: 0e63 9e3e 932c b93e 6a9a 4ebd dbe6 1e3e
00000180: d6e4 26bf 1843 1e3d 0674 17bf c023 b8be
00000190: eb49 983e e5d2 7c3b a5bf 623e 5904 173d
000001a0: 028a febd c246 2c3c 5ebb 073d 06b2 09be
000001b0: 9482 403f 7c74 dd3d a3d3 093f 614e dbbc
000001c0: 4310 9a3c 3930 83be c1d6 9abe 5d08 c53e
000001d0: 5d90 81be 1c44 843e a1e8 3abf 1cd3 363e
000001e0: 29ca 64bb ce8c 28be a431 88be 9dd7 5abd
000001f0: a1d6 0ebf 9c68 c43e d43d efbe 763b 8bbc
00000200: 6bc8 6b3e 6601 b83b d7f2 06be 6b78 a0be
00000210: 2c24 16bd b40d 79be f563 76bd bf10 ac3e
00000220: 8a35 0e3e b034 253c 170e 3cbd b2a8 24bf
00000230: 0f92 303d f066 28be bc65 bbbe 4ead 95b9

sun_influence_3.W_self.bias f4 [12]
-0.024787398 -0.010112822 0.055500954 -0.034641825 -0.021160882 -0.013954756 -0.013840914 -0.05489821
0.015942546 -0.0039358833 0.050112676 0.032309495
00000000: f10e cbbc 40b0 25bc f854 633d 96e4 0dbd
00000010: 9659 adbc 7da2 64bc 00c5 62bc f2dc 60bd
00000020: f199 823c 95f8 80bb f342 4d3d f656 043d

sun_influence_4.weight f4 [8, 12]
-0.38517022 -0.47688857 -0.012709765 0.40356103 0.307818 -0.8784381 0.13402924 0.004945912
0.13192323 -0.8670124 0.2354197 0.7287088 0.404086 0.42601672 -0.06359741 0.4200904
-0.058907382 -0.0656411 -0.011248468 -0.16418773 -0.2775405 -0.6259294 -0.18164541 -0.020317368
0.045989685 0.46354288 0.23771338 0.20606972 -0.1799591 -0.22541402 0.20299853 0.106034204
0.4495587 -0.084103756 -0.0145355165 0.18780631 -0.19542651 0.6493735 -0.42615694 0.10151627
-0.023577122 -0.21339051 0.13025354 0.22745356 0.073774055 -0.34769276 0.09901749 -0.4670482
0.010270365 0.08301579 0.7367021 -0.020122807 0.5366195 0.22546645 0.4535207 0.2562789
0.499963 -0.32269916 0.38654312 0.31258425 0.025776185 0.20941903 -0.2793765 0.15169993
-0.046313886 0.10922097 -0.65725756 0.3623455 -0.16539514 -0.26006052 0.35852265 -0.34087068
-0.3714989 -0.14084616 -0.77436686 0.016588088 0.08159821 0.16893965 -0.123548396 0.02238963
-0.21278398 -0.14204104 -0.18156715 0.029102873 -0.23192823 -0.050871033 -0.06098012 0.19546907
0.18544716 -0.13626136 0.057056606 0.6260045 0.14882962 -0.14087903 -0.017176852 -0.30749393
00000000: 0835 c5be bd2a f4be 9e3c 50bc 8d9f ce3e
00000010: 529a 9d3e 52e1 60bf f63e 093e 5111 a23b
00000020: e216 073e 86f4 5dbf dd11 713e a98c 3a3f
00000030: 5ce4 ce3e dd1e da3e 5c3f 82bd 1716 d73e
00000040: de48 71bd d76e 86bd 7f4b 38bc d420 28be
00000050: ca19 8ebe e93c 20bf 4101 3abe 9c70 a6bc
00000060: ae5f 3c3d 7e55 ed3e 236b 733e f103 533e
00000070: 3347 38be efd2 66be d9de 4f3e 7628 d93d
00000080: 8f2c e63e 973e acbd 6026 6ebc 4c50 403e
00000090: e31d 48be 573d 263f 3e31 dabe c3e7 cf3d
000000a0: cf24 c1bc 0b83 5abe 2f61 053e 96e9 683e
000000b0: da16 973d c904 b2be afc9 ca3d f120 efbe
000000c0: 0845 283c 2f04 aa3d 8298 3c3f 96d8 a4bc
000000d0: e55f 093f ade0 663e dd33 e83e fd36 833e
000000e0: 26fb ff3e d338 a5be fbe8 c53e 0b0b a03e
000000f0: 9428 d33c f171 563e 700a 8fbe 3a57 1b3e
00000100: a1b3 3dbd 3eaf df3d 0842 28bf 5985 b93e
00000110: 585d 29be a726 85be 4890 b73e 9a86 aebe
00000120: 1b35 bebe fa39 10be e83c 46bf bee3 873c
00000130: f61c a73d 84fe 2c3e f106 fdbd 756a b73c
00000140: 0be4 59be 3573 11be bdec 39be 2669 ee3c
00000150: 987e 6dbe 255e 50bd 4ac6 79bd 0b29 483e
00000160: dce5 3d3e 1988 0bbe 30b4 693d d541 203f
00000170: cb66 183e 9842 10be 78b6 8cbc d86f 9dbe

sun_influence_4.bias f4 [8]
0.004328925 -0.010042716 -0.014176165 0.02981828 0.037918188 0.022160081 -0.025315138 -0.010242813
00000000: a8d9 8d3b 348a 24bc 2543 68bc 7745 f43c
00000010: 1a50 1b3d 0f89 b53c b161 cfbc 79d1 27bc
