src/Photosynthesis/RL/SavedModels/model_6.pth (torch, 29994 bytes, 34 tensors)

player_tree_1.W.weight f4 [12, 12]
0.309557 -0.48804194 0.26848984 -0.1360795 0.23278515 -0.13688885 -0.09135102 0.25361708
0.48580295 -0.15127483 0.18316315 0.106440224 0.0988195 0.19718312 0.33840635 0.0029374373
0.17187019 -0.57561374 -0.07182582 -0.024305236 0.35306883 0.15335564 0.5203549 0.3319918
-0.3067198 0.18924978 -0.41801327 0.09607342 0.22688492 0.23737928 -0.0762844 -0.3578156
0.35368335 0.15880014 -0.39987642 -0.123958975 0.088744596 0.26973274 0.025142258 0.06942365
0.15419132 -0.18614125 -0.059651077 -0.37265465 -0.26635963 0.29661474 -0.1936852 0.3510389
-0.24780867 0.13967878 -0.032673668 0.07583872 0.06873352 0.27239838 -0.3536751 0.43785882
-0.19421826 0.2899707 0.1921054 0.7224639 -0.016546281 0.17011267 0.2757373 -0.10861734
0.08128739 0.3657852 0.14018735 0.12512894 0.02294651 0.72339743 -0.13838229 0.23052128
-0.08445099 0.07621927 0.45430133 0.25858828 -0.31495154 -0.32354277 0.0024908027 0.34063902
-0.19724005 -0.31718764 0.0575357 -0.012150576 0.18613565 0.17329243 0.020979038 -0.08080951
0.09451094 -0.1356128 -0.47540358 0.104798175 -0.3846501 0.35493585 -0.24235794 0.4940496
0.24412504 -0.2124859 -0.693312 0.024628034 -0.37988055 0.0156092085 -0.29826996 -0.033718385
0.23983924 0.28187197 -0.4744831 -0.0247917 -0.020314313 0.32643807 -0.22161122 -0.04236297
0.13547559 0.26239038 -0.41616642 -0.0067676143 -0.53854334 -0.0066635218 -0.09128405 0.24298956
0.7777806 0.049724717 -0.07822594 0.012066045 0.38866284 0.3781958 -0.17028797 0.12045789
-0.09008255 -0.41658387 -0.41605356 0.15223238 0.11883604 -0.41068557 0.1902515 -0.28579223
0.010065991 -0.26136026 0.22119226 -0.13677761 -0.60800135 -0.50246483 0.06860914 -0.0920419
00000000: 417e 9e3e a2e0 f9be 8077 893e 6d58 0bbe
00000010: 3b5f 6e3e 972c 0cbe 3e16 bbbd 19da 813e
00000020: 2abb f83e cae7 1abe 1f8f 3b3e 55fd d93d
00000030: e161 ca3d 5fea 493e 9943 ad3e 0582 403b
00000040: bdfe 2f3e 6c5b 13bf 6a19 93bd c61b c7bc
00000050: 70c5 b43e 4309 1d3e fb35 053f d4fa a93e
00000060: 610a 9dbe b2ca 413e d605 d6be 24c2 c43d
00000070: 8554 683e 8e13 733e ff3a 9cbd 9b33 b7be
00000080: fc15 b53e 819c 223e 9abc ccbe 34de fdbd
00000090: babf b53d 691a 8a3e 23f7 cd3c fd2d 8e3d
000000a0: 54e4 1d3e d09b 3ebe b054 74bd 97cc bebe
000000b0: 4a60 88be e3dd 973e 6a55 46be 5fbb b33e
000000c0: 8ec1 7dbe f407 0f3e d3d4 05bd 5551 9b3d
000000d0: 29c4 8c3d cd77 8b3e e714 b5be 082f e03e
000000e0: 27e1 46be 0a77 943e 47b7 443e 65f3 383f
000000f0: 118c 87bc 0432 2e3e 702d 8d3e c572 debd
00000100: 017a a63d 3348 bb3e 468d 0f3e cd21 003e
00000110: 52fa bb3c 9330 393f 16b4 0dbe c50d 6c3e
00000120: a4f4 acbd d918 9c3d 2f9a e83e af65 843e
00000130: 5441 a1be 66a7 a5be bc3c 233b 3d68 ae3e
00000140: 4cf9 49be 6b66 a2be 8eaa 6b3d 3613 47bc
00000150: 589a 3e3e 9273 313e 3bdc ab3c 757f a5bd
00000160: f48e c13d 15de 0abe 1968 f3be 6da0 d63d
00000170: dcf0 c4be 27ba b53e ae2c 78be 12f4 fc3e
00000180: eafb 793e e795 59be e57c 31bf bbc0 c93c
00000190: b47f c2be c4bd 7f3c d7b6 98be 4a1c 0abd
000001a0: 6b98 753e 8651 903e 73ef f2be f717 cbbc
000001b0: 346a a6bc e422 a73e 0dee 62be cb84 2dbd
000001c0: 1dba 0a3e 0858 863e c413 d5be ddc2 ddbb
000001d0: fadd 09bf ac59 dabb 22f3 babd 41d2 783e
000001e0: a11c 473f 25ac 4b3d ec34 a0bd a9b0 453c
000001f0: d1fe c63e e1a2 c13e f85f 2ebe a0b2 f63d
00000200: 337d b8bd 7b4a d5be f904 d5be cee2 1b3e
00000210: 4f60 f33d 6145 d2be 4ad1 423e 5c53 92be
00000220: d4eb 243c 03d1 85be 3980 623e 6e0f 0cbe
00000230: faa5 1bbf 89a1 00bf f382 8c3d 7780 bcbd

player_tree_1.W.bias f4 [12]
0.018096315 -0.023796963 0.097709015 -0.011430247 -0.016717251 0.05024597 0.00572463 -0.022108624
-0.03763506 -0.020055719 0.022557931 -0.011721573
00000000: b93e 943c d9f1 c2bc aa1b c83d ee45 3bbc
00000010: 9ef2 88bc b8ce 4d3d ad95 bb3b 251d b5bc
00000020: 3827 1abd e44b a4bc 69cb b83c d70b 40bc

player_tree_1.W_self.weight f4 [12, 12]
0.05067872 0.37715125 0.05303305 -0.36862478 -0.060013607 -0.20926842 0.15310192 0.09428954
0.46672854 -0.18176088 -0.3707423 -0.015097233 -0.08681408 0.3421028 0.094721094 -0.26913217
0.05090003 -0.19606899 0.33695194 0.07530614 0.2330328 0.56520295 0.08145575 0.092066616
-0.019834809 0.1839785 0.02267719 0.15538362 0.062173318 -0.057462115 -0.08547695 -0.43106055
-0.47672752 0.2243354 0.026590098 0.22155248 -0.5149989 0.18685707 0.44245735 -0.51568794
0.34312782 0.2663426 0.21851538 -0.87241495 0.09669931 -0.020491619 0.12504788 0.036854368
-0.14360704 -0.09264304 0.21630111 -0.06795793 0.22880866 0.15581499 0.15461127 -0.32771128
0.16103818 -0.06294145 -0.41614 -0.035795234 -0.124708846 0.3786415 0.04494415 0.4586934
-0.22354989 0.1378949 -0.09688315 -0.015306205 -0.26597795 -0.56634337 0.22483341 -0.16575743
0.2067454 -0.031769656 0.5351319 0.5434338 0.14310148 0.26391622 -0.081622615 -0.6025548
0.10217006 0.03001367 -0.6011789 -0.14380892 -0.005058346 -0.027719919 0.23750295 0.23465352
-0.29491857 0.37850863 -0.5483924 0.19597633 0.09817398 0.17759304 0.029635634 0.3196404
0.37017992 -0.4776903 -0.7367122 0.48413733 0.36096308 -0.3725274 -0.08685013 0.36128542
-0.12956329 0.4793762 0.20369561 -0.100923285 -0.43468478 -0.09974167 -0.015572034 0.48789948
0.19467169 0.28017932 0.48712772 0.27904293 0.25018612 0.15209238 -0.21012963 -0.3517244
0.2722609 -0.2744874 0.25450265 -0.006994758 -0.43416753 0.25993896 -0.020319426 0.09824296
-0.24741125 0.21341617 -0.11631221 -0.23770255 0.15299702 0.37605944 -0.38859263 0.31763896
-0.27733162 0.24977423 -0.32380152 -0.12468758 0.23847516 -0.10673209 -0.18127546 -0.53243935
00000000: 7d94 4f3d f819 c13e 2f39 593d 63bc bcbe
00000010: d4d0 75bd 764a 56be c0c6 1c3e e01a c13d
00000020: 0bf7 ee3e 861f 3abe efd1 bdbe 625a 77bc
00000030: 95cb b1bd 1928 af3e 22fd c13d b1cb 89be
00000040: 8d7c 503d 4fc6 48be f784 ac3e 1b3a 9a3d
00000050: 26a0 6e3e 24b1 103f 46d2 a63d 6c8d bc3d
00000060: 9c7c a2bc dc64 3c3e 84c5 b93c e21c 1f3e
00000070: 73a9 7e3d 655d 6bbd 8a0e afbd f8b3 dcbe
00000080: a115 f4be 2eb8 653e 7ad3 d93c a7de 623e
00000090: f8d6 03bf 7657 3f3e c589 e23e 2004 04bf
000000a0: 73ae af3e 0f5e 883e 7fc2 5f3e 9656 5fbf
000000b0: 4a0a c63d 0ade a7bc 8d0c 003e 9bf4 163d
000000c0: b90d 13be a2bb bdbd 0a7e 5d3e 872d 8bbd
000000d0: d14c 6a3e f78d 1f3e 6b52 1e3e c6c9 a7be
000000e0: 31e7 243e 72e7 80bd 4d10 d5be 069e 12bd
000000f0: 5a67 ffbd 4cdd c13e 5b17 383d dcd9 ea3e
00000100: 43ea 64be 5234 0d3e ac6a c6bd e0c6 7abc
00000110: 432e 88be e1fb 10bf bb3a 663e 51bc 29be
00000120: 11b5 533e e620 02bd 67fe 083f 7a1e 0b3f
00000130: 3289 123e 0720 873e c229 a7bd 0841 1abf
00000140: 893e d13d 3adf f53c dce6 19bf a542 13be
00000150: 7bc0 a5bb e214 e3bc f933 733e 0349 703e
00000160: 91ff 96be e2cb c13e 7263 0cbf 05ae 483e
00000170: 710f c93d f3da 353e 6ec6 f23c e8a7 a33e
00000180: 3988 bd3e d393 f4be 2c99 3cbf d9e0 f73e
00000190: 27d0 b83e e9bb bebe 7bde b1bd 67fa b83e
000001a0: 3dac 04be cc70 f53e 9595 503e deb0 cebd
000001b0: 018f debe 5c45 ccbd d821 7fbc f6cd f93e
000001c0: 0458 473e aa73 8f3e ce68 f93e b7de 8e3e
000001d0: 6518 803e 1bbe 1b3e 392c 57be 3815 b4be
000001e0: c865 8b3e 9d89 8cbe 2c4e 823e 4834 e5bb
000001f0: 354b debe b816 853e ed74 a6bc 9b33 c93d
00000200: 6059 7dbe c589 5a3e 1935 eebd 4c68 73be
00000210: 40ab 1c3e dd8a c03e 9df5 c6be 93a1 a23e
00000220: 69fe 8dbe d1c4 7f3e 50c9 a5be 345c ffbd
00000230: d532 743e 5b96 dabd 46a0 39be f24d 08bf

player_tree_1.W_self.bias f4 [12]
0.018096315 -0.023796963 0.097709015 -0.011430247 -0.016717251 0.05024597 0.00572463 -0.022108624
-0.03763506 -0.020055719 0.022557931 -0.011721573
00000000: b93e 943c d9f1 c2bc aa1b c83d ee45 3bbc
00000010: 9ef2 88bc b8ce 4d3d ad95 bb3b 251d b5bc
00000020: 3827 1abd e44b a4bc 69cb b83c d70b 40bc

player_tree_2.W.weight f4 [12, 12]
0.26116323 -0.28794432 -0.6592894 -0.0063784835 -0.07688588 -0.28419608 0.3843059 0.10023794
0.36402267 -0.1588852 -0.18017583 -0.6618952 -0.51890117 -0.3192863 0.013994464 0.42383873
0.31766906 0.14236145 0.26760513 0.12836193 -0.49572548 0.20629224 -0.4019322 0.04990197
0.7082198 -0.43538198 0.59433395 -0.051745314 0.39988676 0.15831967 -0.17736839 -0.03325589
-0.12696354 0.3408058 -0.4669579 -0.37571025 -0.010280871 -0.13491412 0.015374065 -0.31340456
0.22700283 0.0125499405 0.07651064 -0.18140751 0.12586327 -0.068206586 -0.084094964 0.11611986
-0.10248378 -0.030596236 -0.44411436 -0.33393657 -0.017349636 0.0014401467 0.08620503 0.2343723
0.08401347 0.11621841 0.1360207 0.13475958 0.39621738 0.21652538 0.25603312 0.08881623
0.10369326 -0.11498846 -0.13316889 -0.34662303 0.41750145 -0.037762914 -0.61250687 -0.19037849
-0.15084083 -0.19318525 -0.5261486 0.4379829 0.061774928 0.22490147 0.057695664 0.25507316
0.0905243 0.04613777 -0.47754946 -0.009215256 0.2893484 -0.19590212 0.06411798 0.0460147
0.36265776 -0.06191624 0.25203484 -0.15149102 0.42675805 -0.107273266 0.014947069 -0.768331
-0.43896043 -0.009401066 0.08133086 0.25300145 0.5336844 0.2632176 0.29156914 0.13737094
0.2343047 -0.07845332 -0.04710523 -0.079411544 -0.52434236 0.42887795 -0.16471113 0.24872872
0.39591983 -0.5167932 -0.60756904 0.0012720383 -0.028199444 0.4965609 0.0060625947 0.45727277
-0.15202072 0.104296066 -0.14028558 -0.14861469 -0.2499551 -0.2249565 -0.6201031 0.16279826
0.07681262 -0.25294578 -0.1397488 0.1734755 0.09581334 0.15110664 -0.23474313 -0.08493683
-0.26242948 -0.478002 0.11069685 0.5180106 0.23503588 -0.083098635 -0.39605516 0.10990326
00000000: 30b7 853e 706d 93be 31c7 28bf 9902 d1bb
00000010: 5876 9dbd 2682 91be bec3 c43e 8d49 cd3d
00000020: 2e61 ba3e cdb2 22be 0380 38be f771 29bf
00000030: b5d6 04bf 7e79 a3be 0949 653c 6401 d93e
00000040: 85a5 a23e 33c7 113e 8a03 893e 4f71 033e
00000050: bbcf fdbe 463e 533e 0fca cdbe 0266 4c3d
00000060: e54d 353f 63ea debe 4526 183f e5f2 53bd
00000070: f5bd cc3e 8d1e 223e 0fa0 35be 5437 08bd
00000080: bb02 02be 197e ae3e 1b15 efbe 185d c0be
00000090: 1971 28bc ed26 0abe 81e3 7b3c 9076 a0be
000000a0: 6e73 683e 449e 4d3c 9cb1 9c3d e4c2 39be
000000b0: 4de2 003e e5af 8bbd fb39 acbd 40d0 ed3d
000000c0: 04e3 d1bd f5a4 fabc f562 e3be bcf9 aabe
000000d0: d320 8ebc 4ec3 bc3a 438c b03d 4bff 6f3e
000000e0: 410f ac3d eb03 ee3d 0349 0b3e 6afe 093e
000000f0: 01dd ca3e d4b8 5d3e c616 833e 49e5 b53d
00000100: 225d d43d 127f ebbd 6d5d 08be 9378 b1be
00000110: c0c2 d53e 49ad 1abd 40cd 1cbf 94f2 42be
00000120: 0576 1abe 5bd2 45be adb1 06bf 4b3f e03e
00000130: b507 7d3d 924c 663e 4a52 6c3d f398 823e
00000140: ce64 b93d f5fa 3c3d 5d81 f4be 96fb 16bc
00000150: 7925 943e 919a 48be 4a50 833d e979 3c3d
00000160: 47ae b93e e29b 7dbd b60a 813e 7620 1bbe
00000170: 0880 da3e 16b2 dbbd 8de4 743c 57b1 44bf
00000180: 6cbf e0be ee06 1abc cb90 a63d 6889 813e
00000190: 8a9f 083f 75c4 863e 8d48 953e f8aa 0c3e
000001a0: 92ed 6f3e 22ac a0bd 6af1 40bd 85a2 a2bd
000001b0: 4d3b 06bf e495 db3e 09aa 28be beb2 7e3e
000001c0: 01b6 ca3e 8f4c 04bf a589 1bbf 86ba a63a
000001d0: 8502 e7bc 3b3d fe3e bba8 c63b a81f ea3e
000001e0: 52ab 1bbe 2d99 d53d 06a7 0fbe 732e 18be
000001f0: 3bf4 7fbe ff5a 66be 14bf 1ebf 96b4 263e
00000200: ef4f 9d3d 1c82 81be 4f1a 0fbe 90a3 313e
00000210: c939 c43d b3bb 1a3e 8160 70be 5cf3 adbd
00000220: 285d 86be aebc f4be 08b5 e23d 589c 043f
00000230: 3fad 703e 9e2f aabd bec7 cabe f614 e13d

player_tree_2.W.bias f4 [12]
-0.014563281 -0.016453028 0.0007749253 0.0289801 -0.025599496 -0.01341315 -0.01673062 0.06748938
-0.024740057 -0.027279893 -0.012517201 -0.034373973
00000000: d49a 6ebc 80c8 86bc 5b24 4b3a ad67 ed3c
00000010: 09b6 d1bc d4c2 5bbc a70e 89bc df37 8a3d
00000020: a9ab cabc 157a dfbc f214 4dbc b9cb 0cbd

player_tree_2.W_self.weight f4 [12, 12]
0.17298165 -0.30907232 0.30652624 0.53730506 -0.48348224 -0.7512544 0.110437565 -0.060531195
-0.063770935 -0.47329637 0.34709263 0.26016262 0.43290266 -0.10617329 -0.14452219 0.011400094
-0.10488464 -0.44288766 -0.29646218 -0.11815981 0.6741075 0.28634807 0.09434504 -0.00030456085
-0.2856115 -0.33837685 -0.24136347 -0.38587064 0.2622598 -0.13232978 -0.3107614 0.32751667
-0.121006005 0.0074418606 -0.16930227 -0.11146756 -0.06363007 0.03216437 -1.0008183 0.16617177
0.24294403 -0.20536008 0.72299016 -0.29063487 0.09241447 -0.090873346 0.029682484 -0.12912521
-0.49123687 -0.06692189 -0.34392762 0.23572701 0.31176007 -0.16160008 -0.13269448 0.116440676
0.051000744 0.302564 -0.24748434 0.2016418 -0.37845835 -0.06663776 -0.1289949 -0.43929264
-0.16997144 0.42543676 -0.15026826 -0.3887882 0.28546894 0.043588087 -0.13751318 -0.42914593
0.37028047 -0.09853032 0.14982443 0.09093519 0.36893576 0.36775127 0.29973102 -0.5946135
-0.09312085 0.29042688 -0.024634909 -0.399789 0.5223669 -0.20590428 0.5666531 -0.12698591
-0.081932545 -0.052481018 -0.30800322 0.3847742 0.34799248 -0.20111534 0.3659861 -0.043569036
0.3704231 0.4179463 -0.26908508 -0.2458686 -0.13240458 -0.3824539 -0.65162283 -0.12542506
-0.07133983 -0.25363767 0.2306119 -0.27804422 0.30192846 0.40973166 0.20811097 -0.15412293
0.68057096 0.3260549 0.34688318 0.3403206 0.17484419 0.48527554 0.358061 0.42248827
0.55806196 0.10255479 -0.25487807 -0.45366022 0.46578476 -0.28835654 0.4408348 -0.009321529
0.17625405 -0.19851243 -0.21419202 -0.20818383 -0.035702202 0.0231804 -0.020147672 -0.0058850423
0.050932515 -0.35651404 -0.16786353 -0.42331338 -0.10330941 -0.110296525 -0.31665277 0.34669635
00000000: 1a22 313e ba3e 9ebe 02f1 9c3e d38c 093f
00000010: fc8a f7be 3552 40bf 172d e23d 8fef 77bd
00000020: 569a 82bd e753 f2be 20b6 b13e 0934 853e
00000030: 6ba5 dd3e 6271 d9bd a0fd 13be 76c7 3a3c
00000040: c2cd d6bd 2cc2 e2be e4c9 97be c5fd f1bd
00000050: 4f92 2c3f 379c 923e f937 c13d 77ad 9fb9
00000060: ac3b 92be bb3f adbe fc27 77be d690 c5be
00000070: eb46 863e 7581 07be 1e1c 9fbe 44b0 a73e
00000080: ffd1 f7bd dada f33b 935d 2dbe 1b49 e4bd
00000090: 7b50 82bd c9be 033d d01a 80bf ef28 2a3e
000000a0: 52c6 783e ea49 52be e215 393f 18ce 94be
000000b0: cc43 bd3d ce1b babd ae28 f33c 6639 04be
000000c0: 6683 fbbe 580e 89bd 4817 b0be 6c62 713e
000000d0: 049f 9f3e 7e7a 25be 10e1 07be 7378 ee3d
000000e0: 28e6 503d abe9 9a3e 896c 7dbe 307b 4e3e
000000f0: 4bc5 c1be 6179 88bd 3d17 04be f7ea e0be
00000100: fe0c 2ebe d9d2 d93e ecdf 19be 3f0f c7be
00000110: fc28 923e 6c89 323d 41d0 0cbe 04b9 dbbe
00000120: 6795 bd3e 44ca c9bd 936b 193e 3b3c ba3d
00000130: 26e5 bc3e e549 bc3e 5876 993e 9738 18bf
00000140: 25b6 bebd d5b2 943e 26cf c9bc 25b1 ccbe
00000150: d6b9 053f 92d8 52be 2d10 113f 9808 02be
00000160: 40cc a7bd 56f6 56bd 99b2 9dbe 2001 c53e
00000170: 122c b23e 2ef1 4dbe 8862 bb3e 7275 32bd
00000180: 19a8 bd3e 0ffd d53e 85c5 89be fac4 7bbe
00000190: 1195 07be ffd0 c3be c1d0 26bf 6d6f 00be
000001a0: 9e1a 92bd ccdc 81be 8725 6c3e d05b 8ebe
000001b0: 5e96 9a3e 59c8 d13e 0b1b 553e 67d2 1dbe
000001c0: e639 2e3f abf0 a63e ac9a b13e 803e ae3e
000001d0: 5b0a 333e 0976 f83e c553 b73e 6250 d83e
000001e0: 26dd 0e3f 3f08 d23d 617f 82be 2746 e8be
000001f0: 577b ee3e 78a3 93be 19b5 e13e 54b9 18bc
00000200: f17b 343e d846 4bbe 2755 5bbe 242e 55be
00000210: 793c 12bd d2e4 bd3c bb0c a5bc 50d7 c0bb
00000220: 9d9e 503d 0289 b6be 6be4 2bbe 88bc d8be
00000230: e293 d3bd 25e3 e1bd 5020 a2be 2f82 b13e

player_tree_2.W_self.bias f4 [12]
-0.014563281 -0.016453028 0.0007749253 0.0289801 -0.025599496 -0.01341315 -0.01673062 0.06748938
-0.024740057 -0.027279893 -0.012517201 -0.034373973
00000000: d49a 6ebc 80c8 86bc 5b24 4b3a ad67 ed3c
00000010: 09b6 d1bc d4c2 5bbc a70e 89bc df37 8a3d
00000020: a9ab cabc 157a dfbc f214 4dbc b9cb 0cbd

player_tree_3.W.weight f4 [12, 12]
-0.31377998 -0.16804147 -0.14240272 -0.8148757 0.43720993 0.025054712 -0.28403643 0.36466148
0.25655055 -0.14772259 -0.3981085 -0.025781682 -0.48292595 -0.3785258 -0.7502528 0.0016139835
0.2308378 0.124165036 -0.22958095 0.24344195 0.1325565 0.13080896 -0.1892464 -0.11639313
-0.22901289 0.4685659 0.045558028 0.08629287 0.2562664 -0.2615642 -0.13548195 -0.102629125
0.034525655 0.323118 0.5852249 0.053450737 -0.14120732 0.24163993 -0.41362146 0.46507463
-0.13746937 -0.3835037 -0.21686806 -0.08881497 -0.09691562 -0.13928142 -0.1807271 -0.5109744
0.18191516 0.33171237 -0.26637632 -0.72891766 0.27652717 0.1548706 0.14207724 -0.010035006
0.07561684 -0.16611864 0.52423686 0.075007804 0.08505443 0.06548705 0.452003 0.20911337
0.586883 0.15307598 0.7676126 -0.44129378 0.18630643 0.18947159 -0.15438172 0.404552
-0.1541701 -0.057962056 -0.2839685 -0.25834325 -0.07793951 0.23577957 -0.07273085 -0.011736816
-0.09117225 0.25063348 0.071301006 0.32513458 0.4411903 0.33209544 0.6836603 -0.6045371
-0.09122247 -0.18883362 0.10991454 -0.47036985 -0.4380595 0.2700303 -0.010358902 0.2803941
-0.3158248 -0.47346467 0.10535896 -0.044692162 0.07279823 -0.06424662 0.28633708 -0.3724869
0.2196725 -0.053278677 -0.16771758 0.5855531 0.10981915 -0.35226616 -0.13611922 0.0025320437
0.20277391 -0.24512659 0.11454796 0.48846424 -0.1203864 -0.30695823 0.42468908 0.029358516
0.29970157 -0.6200489 0.054173082 0.08605524 -0.1641983 0.0026536754 -0.22419852 0.41172895
0.069635056 -0.31806627 -0.10851593 -0.23976256 -0.19814605 0.013118148 0.022321176 0.35289505
0.04569495 0.0004631633 -0.068169765 -0.07703316 -0.13380049 -0.4400583 -0.24705042 0.2732209
00000000: c5a7 a0be 1013 2cbe 05d2 11be b29b 50bf
00000010: fbd9 df3e 8a3f cd3c 396d 91be e9b4 ba3e
00000020: 985a 833e 9744 17be e1d4 cbbe 1b34 d3bc
00000030: 1242 f7be 22ce c1be 9110 40bf 4d8c d33a
00000040: bf60 6c3e 3d4a fe3d 4517 6bbe d948 793e
00000050: e4bc 073e c9f2 053e cfc9 41be 855f eebd
00000060: 5b82 6abe dfe7 ef3e 0e9b 3a3d 51ba b03d
00000070: 5935 833e beeb 85be c8bb 0abe 382f d2bd
00000080: c66a 0d3d b96f a53e 4dd1 153f 29ef 5a3d
00000090: a798 10be 7570 773e 31c6 d3be 431e ee3e
000000a0: c5c4 0cbe 995a c4be a912 5ebe 9fe4 b5bd
000000b0: b27b c6bd ca9f 0ebe 8610 39be 38cf 02bf
000000c0: f847 3a3e 34d6 a93e 7a62 88be 599a 3abf
000000d0: f894 8d3e 6696 1e3e b27c 113e de69 24bc
000000e0: 00dd 9a3d 011b 2abe 6334 063f b19d 993d
000000f0: 0431 ae3d 131e 863d f06c e73e d121 563e
00000100: f73d 163f f3bf 1c3e 4282 443f 42f1 e1be
00000110: 1dc7 3e3e d704 423e 3e16 1ebe 7121 cf3e
00000120: c4de 1dbe 9f69 6dbd 5264 91be 9145 84be
00000130: c09e 9fbd 3370 713e e9f3 94bd c64b 40bc
00000140: 84b8 babd 0853 803e 4306 923d 0a78 a63e
00000150: b2e3 e13e 6a08 aa3e 5d04 2f3f f2c2 1abf
00000160: d9d2 babd 9a5d 41be e01a e13d 51d4 f0be
00000170: 5649 e0be 6941 8a3e 62b8 29bc d18f 8f3e
00000180: cab3 a1be f669 f2be 70c6 d73d 210f 37bd
00000190: 3d17 953d bb93 83bd c69a 923e 9ab6 bebe
000001a0: d4f1 603e be3a 5abd 28be 2bbe cfe6 153f
000001b0: dde8 e03d 3b5c b4be d662 0bbe a5f0 253b
000001c0: f7a3 4f3e 7702 7bbe 1f98 ea3d fc17 fa3e
000001d0: 258d f6bd a129 9dbe d970 d93e 4581 f03c
000001e0: 7c72 993e 86bb 1ebf 98e4 5d3d bb3d b03d
000001f0: 9923 28be 49e9 2d3b 4c94 65be 23ce d23e
00000200: d39c 8e3d 95d9 a2be 9a3d debd 5184 75be
00000210: cce6 4abe 80ed 563c e6da b63c a9ae b43e
00000220: a12a 3b3d bad4 f239 979c 8bbd 90c3 9dbd
00000230: ff02 09be 524f e1be c9fa 7cbe 9ce3 8b3e

player_tree_3.W.bias f4 [12]
-0.012696215 0.054960407 -0.0048054014 -0.045185804 -0.027794862 -0.024082836 -0.032966927 -0.016126616
-0.019448368 0.05711179 -0.01084272 0.0164619
00000000: c903 50bc 2a1e 613d a176 9dbb c014 39bd
00000010: 0db2 e3bc 5e49 c5bc 5408 07bd f71b 84bc
00000020: 2f52 9fbc 0dee 693d aaa5 31bc 1bdb 863c

player_tree_3.W_self.weight f4 [12, 12]
0.11867805 -0.1791289 0.57205844 -0.8380973 -0.49446732 -0.083479285 0.08229053 -0.38393554
0.17060785 -0.1959647 0.26846346 -0.33734006 -0.058058687 0.31033218 -0.46784222 0.17357478
-0.13311413 0.19415255 0.04719336 0.0023092143 0.84445345 -0.06913646 -0.400145 0.058052264
0.022912882 0.03329106 -0.19018118 -0.17150337 -0.429471 -0.15547995 -0.29619408 -0.3311438
-0.38594794 0.54029185 -0.24601652 0.1598229 -0.13050628 0.2812751 0.11492922 0.21770076
-0.58482826 -0.2623186 0.022543 -0.42298394 -0.15202805 -0.48290235 0.20675583 0.27375323
-0.45450366 0.38383338 -0.24911536 -0.4746819 -0.06520816 -0.033164278 -0.012855308 -0.071227044
-0.25758722 -0.16072385 -0.07966018 0.09719328 0.31326553 -0.04749501 -0.0026550936 0.42161402
0.47245628 0.08480219 0.33736587 0.12884405 0.40569288 0.1419457 0.08792044 -0.44753408
0.475485 -0.24874453 0.37578294 -0.068795554 0.30316043 -0.34443507 0.48919964 -0.030452851
-0.02409526 0.7035646 0.45036915 0.53086615 0.022932038 0.30717587 0.35737813 0.18537608
0.57753766 -0.066689484 -0.050357055 -0.5237859 0.31785452 -0.36817265 0.41658592 -0.1528359
0.7100218 -0.2855408 -0.20247932 0.104508616 -0.039153922 0.37565076 0.05276305 -0.13058767
-0.46492547 0.12551232 -0.25010753 0.37896082 0.2048028 0.4150268 -0.011247156 -0.6211722
-0.13562004 -0.33960077 -0.62119544 0.34414294 -0.17877726 0.040513724 0.27197856 0.01164769
-0.38620868 -0.6042405 -0.22630383 0.28289637 -0.20456624 -0.18446276 0.08207648 -0.28309613
0.24906102 0.30191076 -0.31483325 -0.1988156 -0.40983173 -0.16872723 0.1585743 -0.10203936
0.08232293 -0.49686822 0.09793334 0.32548794 0.04616979 0.18140279 0.24134402 0.22182202
00000000: 7a0d f33d 916d 37be 6c72 123f 8b8d 56bf
00000010: d22a fdbe 30f7 aabd f087 a83d 3393 c4be
00000020: d3b3 2e3e f8aa 48be 0b74 893e d6b7 acbe
00000030: f2ce 6dbd dce3 9e3e 0489 efbe 96bd 313e
00000040: 124f 08be edcf 463e d34d 413d 3056 173b
00000050: 1a2e 583f 6b97 8dbd cedf ccbe 36c8 6d3d
00000060: ccb3 bb3c 355c 083d dbbe 42be 949e 2fbe
00000070: 9fe3 dbbe 2336 1fbe c0a6 97be ae8b a9be
00000080: f89a c5be 9150 0a3f c1eb 7bbe 9da8 233e
00000090: 70a3 05be 4a03 903e 0360 eb3d f3ec 5e3e
000000a0: 4eb7 15bf a04e 86be 19ac b83c 5a91 d8be
000000b0: 3ead 1bbe fa3e f7be cdb7 533e 6229 8c3e
000000c0: b4b4 e8be cf85 c43e 1918 7fbe 8209 f3be
000000d0: db8b 85bd 44d7 07bd 129f 52bc 7cdf 91bd
000000e0: 79e2 83be cb94 24be e024 a3bd 450d c73d
000000f0: 5764 a03e 218a 42bd 1401 2ebb cbdd d73e
00000100: cae5 f13e c5ac ad3d 38bb ac3e b2ef 033e
00000110: fab6 cf3e 375a 113e a20f b43d 3023 e5be
00000120: c572 f33e e3b6 7ebe 9f66 c03e afe4 8cbd
00000130: d837 9b3e cb59 b0be 6078 fa3e 4278 f9bc
00000140: 6c63 c5bc cf1c 343f c996 e63e d8e6 073f
00000150: f8db bb3c 2846 9d3e 44fa b63e 3ad3 3d3e
00000160: 82d9 133f 7f94 88bd 3343 4ebd d516 06bf
00000170: d4bd a23e 2081 bcbe c04a d53e 0481 1cbe
00000180: fdc3 353f 6732 92be bd56 4fbe 9d08 d63d
00000190: dd5f 20bd 4c55 c03e 111e 583d c6b8 05be
000001a0: b60a eebe 4d86 003e 180e 80be 2707 c23e
000001b0: d3b7 513e 657e d43e fe45 38bc 2405 1fbf
000001c0: fbdf 0abe 27e0 adbe aa06 1fbf 8133 b03e
000001d0: 6311 37be b8f1 253d c640 8b3e f4d5 3e3c
000001e0: 25bd c5be 81af 1abf 31bc 67be cbd7 903e
000001f0: d079 51be cee3 3cbe b717 a83d faf1 90be
00000200: da09 7f3e 0c94 9a3e d331 a1be 5196 4bbe
00000210: 77d5 d1be d5c6 2cbe 4d61 223e 03fa d0bd
00000220: ed98 a83d 8365 febe 4691 c83d 5ba6 a63e
00000230: 891c 3d3d a7c1 393e e322 773e 5025 633e

player_tree_3.W_self.bias f4 [12]
-0.012696215 0.054960407 -0.0048054014 -0.045185804 -0.027794862 -0.024082836 -0.032966927 -0.016126616
-0.019448368 0.05711179 -0.01084272 0.0164619
00000000: c903 50bc 2a1e 613d a176 9dbb c014 39bd
00000010: 0db2 e3bc 5e49 c5bc 5408 07bd f71b 84bc
00000020: 2f52 9fbc 0dee 693d aaa5 31bc 1bdb 863c

player_tree_4.weight f4 [8, 12]
-0.18023652 -0.6257805 0.5042127 0.00519605 -0.3594989 -0.22091004 -0.17869456 0.58568674
-0.23324266 -0.28978896 0.12531787 -0.5191989 -0.032154154 -0.10638476 -0.15139276 0.3150826
0.11352398 -0.65928143 -0.76063424 -0.20397852 -0.38485938 0.27341598 -0.13487133 -0.11865088
-0.32495043 -0.3418841 0.06556297 -0.018181637 0.31780863 -0.5094971 -0.24177472 -0.5889466
0.3071628 -0.7058304 0.3765509 -0.012824736 0.17694275 0.21838981 0.29977733 0.12267453
-0.34732813 -0.07008201 0.66923594 0.42631787 0.0030327614 0.54575235 -0.121093966 0.03380604
-0.3088857 0.17106801 -0.1141015 0.121791735 0.5453115 -0.21720575 -0.056033324 0.15067944
0.23407029 0.22009118 -0.8158333 -0.41717663 -0.30915508 -0.22484714 -0.3171883 -0.13107659
0.3793695 -0.33274838 -0.41760907 0.22094351 -0.072689705 0.28729272 0.39986974 0.14755188
-0.2698778 0.025104232 0.5154071 -0.12365728 -0.1181314 -0.89471847 0.71320516 0.29118
0.20025995 -0.39184946 -0.039143357 -0.04608306 0.13422953 -0.6274136 -0.10350149 0.07717899
0.49126118 -0.027016139 -0.038720332 0.074092925 0.044081684 0.09127638 0.16835523 0.46259278
00000000: ec8f 38be 2733 20bf 1514 013f a043 aa3b
00000010: 3d10 b8be 3e36 62be b5fb 36be 91ef 153f
00000020: 2ad7 6ebe 385f 94be 5453 003e 38ea 04bf
00000030: 13b4 03bd 41e0 d9bd b406 1bbe 8252 a13e
00000040: 437f e83d abc6 28bf edb8 42bf bfdf 50be
00000050: 4a0c c5be 2efd 8b3e b61b 0abe 3cff f2bd
00000060: e75f a6be 6f0b afbe e145 863d a8f1 94bc
00000070: d0b7 a23e 676e 02bf cb93 77be 34c5 16bf
00000080: 7144 9d3e 4db1 34bf 48cb c03e d71e 52bc
00000090: 7b30 353e 94a1 5f3e 6a7c 993e c93c fb3d
000000a0: fed4 b1be 2887 8fbd 0c53 2b3f 5646 da3e
000000b0: 4bc1 463b 6db6 0b3f 1d00 f8bd 3478 0a3d
000000c0: 4426 9ebe 742c 2f3e 0cae e9bd f26d f93d
000000d0: 8999 0b3f 2f6b 5ebe 3383 65bd b64b 1a3e
000000e0: 1fb0 6f3e 955f 613e 73da 50bf 2d98 d5be
000000f0: 9349 9ebe 543e 66be 8166 a2be f138 06be
00000100: b83c c23e ff5d aabe dbd0 d5be 043f 623e
00000110: 57de 94bd 0818 933e babb cc3e d717 173e
00000120: 6c2d 8abe 64a7 cd3c b8f1 033f 0740 fdbd
00000130: e0ee f1bd 450c 65bf 9d94 363f 8c15 953e
00000140: f210 4d3e 7ea0 c8be c954 20bd 97c1 3cbd
00000150: 7773 093e 2d9e 20bf 97f8 d3bd 0510 9e3d
00000160: 9686 fb3e f350 ddbc 3699 1ebd 08be 973d
00000170: ff8e 343d 1cef ba3d 5065 2c3e f6d8 ec3e

player_tree_4.bias f4 [8]
0.032983135 0.06424792 -0.036826592 -0.055280466 -0.014339022 0.033198524 -0.012313641 -0.036691748
00000000: 5319 073d 6a94 833d 7bd7 16bd c56d 62bd
00000010: 38ee 6abc 2dfb 073d 27bf 49bc 164a 16bd

sun_influence_1.W.weight f4 [12, 12]
0.37887982 -0.36922976 -0.025560316 0.8959086 -0.1968478 0.48206547 0.2103587 0.11400696
-0.28758082 -0.13260947 0.027005127 -0.0780754 -0.084941156 0.55663705 0.063074514 -0.0461686
-0.06867401 0.3051469 -0.2742269 -0.16197121 -0.010805978 0.19260398 0.50102895 0.14384738
-0.12190953 -0.28337866 0.19383949 0.2315358 -0.4775208 0.10906254 -0.3187426 -0.14467065
-0.52154386 -0.3341764 -0.2471357 -0.046615798 0.165074 0.036395065 -0.13749237 -0.11005031
0.12534937 -0.37245062 0.49633414 0.49636436 0.026207538 -0.324729 -0.16246408 -0.01472444
-0.0056068148 -0.058213152 0.22761641 -0.31582287 -0.48732567 -0.059057817 0.16389401 -0.32459795
-0.03377045 0.21140473 0.755695 0.20748642 -0.17735988 -0.034670386 0.11133579 -0.3591003
-0.21239428 -0.16401957 0.15772481 0.17294306 0.3505588 0.09501908 0.09583315 -0.013913768
0.21136196 -0.4412133 -0.559793 -0.1741325 0.1581318 -0.3508273 0.16094813 -0.26607448
-0.31775483 0.15465742 0.24381064 0.42097923 0.1442491 0.2886005 0.42462465 -0.3841971
-0.01729692 0.24546579 -0.48932984 -0.5365916 -0.25417772 0.327137 -0.15460306 -0.6268807
0.08529427 -0.6367866 0.24245527 -0.37219638 0.37481067 0.12986174 -0.3954116 -0.073354274
0.04644603 0.08968791 0.2817461 0.09571912 -0.49640447 0.4081043 -0.25728598 0.12782247
0.06490357 -0.06733881 -0.3290138 -0.2663457 0.49977878 -0.11953051 -0.17482235 -0.035779975
-0.27982682 -0.0028350116 -0.37230402 0.02330897 -0.200921 -0.14444412 -0.19614439 0.5179534
-0.37843922 -0.5743087 0.32813454 -0.11060346 0.018854028 0.024867585 0.10423447 -0.07250358
-0.22029805 -0.28574574 -0.18085657 -0.72498995 0.23279908 0.0069886385 0.77430373 0.39529824
00000000: 89fc c13e af0b bdbe de63 d1bc 445a 653f
00000010: 7892 49be 49d1 f63e 4568 573e 7b7c e93d
00000020: cb3d 93be c7ca 07be db39 dd3c ffe5 9fbd
00000030: a1f5 adbd c47f 0e3f 362d 813d 491b 3dbd
00000040: f6a4 8cbd 373c 9c3e 7867 8cbe c8db 25be
00000050: 8f0b 31bc fa39 453e 6f43 003f ba4c 133e
00000060: b4ab f9bd 0217 91be dc7d 463e b917 6d3e
00000070: 9b7d f4be 2e5c df3d 3b32 a3be 8b24 14be
00000080: e683 05bf 2b19 abbe 2411 7dbe 35f0 3ebd
00000090: 2909 293e fe12 153d cdca 0cbe 0f62 e1bd
000000a0: 965b 003e d9b1 bebe 821f fe3e 7823 fe3e
000000b0: 31b1 d63c e142 a6be fc5c 26be c73e 71bc
000000c0: 5fb9 b7bb ea70 6ebd 4714 693e 89b3 a1be
000000d0: c082 f9be 9ce6 71bd d5d3 273e b431 a6be
000000e0: e252 0abd 7b7a 583e 3a75 413f 5277 543e
000000f0: d49d 35be 8902 0ebd 0504 e43d ffdb b7be
00000100: e37d 59be bff4 27be 9d82 213e fc17 313e
00000110: 717c b33e 5d99 c23d 2c44 c43d 93f6 63bc
00000120: 456f 583e b6e6 e1be 984e 0fbf ca4f 32be
00000130: 4ded 213e a39f b3be 96cf 243e ea3a 88be
00000140: c3b0 a2be 845e 1e3e 7fa9 793e 978a d73e
00000150: 09b6 133e 72c3 933e 6768 d93e 7bb5 c4be
00000160: 45b2 8dbc 625b 7b3e 7189 fabe 115e 09bf
00000170: 9523 82be 807e a73e 4450 1ebe 417b 20bf
00000180: c3ae ae3d 7204 23bf 3246 783e 8690 bebe
00000190: 2fe7 bf3e 7afa 043e 6473 cabe c43a 96bd
000001a0: 313e 3e3d 4cae b73d 0641 903e 6308 c43d
000001b0: ba28 febe 0cf3 d03e fdba 83be e5e3 023e
000001c0: 2aec 843d eee8 89bd 7f74 a8be 775e 88be
000001d0: 01e3 ff3e 69cc f4bd a104 33be 068e 12bd
000001e0: 7645 8fbe 9acb 39bb a29e bebe 74f2 be3c
000001f0: 3cbe 4dbe 29e9 13be 13da 48be 9898 043f
00000200: c9c2 c1be e505 13bf 4001 a83e 1184 e2bd
00000210: c373 9a3c 1bb7 cb3c e278 d53d c27c 94bd
00000220: d095 61be 444d 92be 7732 39be f198 39bf
00000230: e262 6e3e f300 e53b c538 463f 8864 ca3e

sun_influence_1.W.bias f4 [12]
-0.04431659 0.0056021875 0.06582072 -0.036663964 -0.004889924 -0.0046731266 0.05252569 0.03323011
-0.01772455 -0.038072478 0.011887574 0.026156984
00000000: 5085 35bd 8e92 b73b 03cd 863d f42c 16bd
00000010: a83b a0bb 0721 99bb 2e25 573d 4c1c 083d
00000020: 1333 91bc e3f1 1bbd 19c4 423c 2c47 d63c

sun_influence_1.W_self.weight f4 [12, 12]
-0.3257223 0.034590077 0.50673085 -0.005087346 -0.076784916 0.28399497 0.34675708 -0.6086565
0.27727273 -0.1375898 0.834124 0.36785114 0.41237226 -0.36132067 -0.2815683 0.089312054
0.41873989 -0.0064934324 0.10772443 -0.12561381 0.2596826 0.35303783 -0.065639675 -0.26046467
-0.35657072 -0.15266667 -0.20624165 0.06853018 -0.21716839 -0.32247835 0.32533652 0.38074508
-0.33092362 0.6803708 0.43041778 0.2586523 0.36893126 0.082117595 -0.15099564 0.22789966
-0.112120576 -0.34525406 -0.23591246 -0.021958368 -0.1665344 -0.39971912 -0.4928687 -0.030479033
-0.12851937 0.023161879 -0.47037658 -0.19463983 0.124943174 0.03567437 -0.20885833 0.009354373
-0.6663666 -0.083761536 0.30340588 -0.16962674 -0.053515583 0.39998883 0.21371755 -0.5644372
0.020195678 0.37093914 0.029239062 -0.25419074 0.03101042 0.6638695 -0.40847984 -0.028925523
-0.011856212 -0.36565754 -0.33254647 0.046213858 0.4660966 0.03498833 0.385423 0.68933666
0.046725098 0.039898343 0.0056698024 0.2296787 0.45217696 0.08461094 -0.38683754 0.30917484
0.2641766 0.20585734 0.23448299 -0.062600456 0.23897612 0.09245198 0.36629257 0.050189342
0.49665016 -0.20322607 0.24847423 0.14468351 0.049647003 0.07686577 -0.156636 0.33321515
-0.2790801 -0.074642226 -0.24090303 0.14452538 0.23802367 0.23988251 0.3105179 -0.1289194
0.18532741 -0.18293944 -0.2233585 -0.23337324 -0.57863426 -0.17499706 -0.15232015 0.30449125
-0.36329436 -0.2657208 -0.093307465 0.17554872 -0.20395166 -0.08227349 -0.06632612 0.23938106
-0.5227001 -0.4274678 -0.22504777 -0.54521656 0.23139293 -0.3336907 -0.06883145 -0.5063484
0.1600468 0.045734487 0.09762391 0.2780208 0.23284778 -0.32771337 -0.2717207 -0.30759898
00000000: 13c5 a6be 53ae 0d3d 1db9 013f c0b3 a6bb
00000010: 6941 9dbd ca67 913e 258a b13e ead0 1bbf
00000020: b1f6 8d3e 57e4 0cbe 2789 553f fc56 bc3e
00000030: 7522 d33e 06ff b8be b829 90be 3de9 b63d
00000040: 1365 d63e dcc6 d4bb a09e dc3d e8a0 00be
00000050: 1ef5 843e 60c1 b43e 186e 86bd a05b 85be
00000060: 7090 b6be a754 1cbe 0331 53be 8d59 8c3d
00000070: 6461 5ebe e21b a5be 8292 a63e 05f1 c23e
00000080: d26e a9be c82c 2e3f b85f dc3e 136e 843e
00000090: 8fe4 bc3e 452d a83d 9a9e 1abe 875e 693e
000000a0: 799f e5bd 24c5 b0be 0993 71be 09e2 b3bc
000000b0: fe87 2abe fca7 ccbe 4959 fcbe 2aaf f9bc
000000c0: 959a 03be fbbd bd3c 33d5 f0be aa4f 47be
000000d0: 35e2 ff3d 4a1f 123d f5de 55be 1643 193c
000000e0: 0097 2abf 2b8b abbd 0458 9b3e a2b2 2dbe
000000f0: 2833 5bbd 56cb cc3e c6d8 5a3e f57e 10bf
00000100: 6871 a53c bceb bd3e c286 ef3c 4a25 82be
00000110: 9009 fe3c 5af3 293f 4524 d1be 38f5 ecbc
00000120: 8f40 42bc 7737 bbbe 8843 aabe be4a 3d3d
00000130: 37a4 ee3e ec4f 0f3d 2a56 c53e 5e78 303f
00000140: d162 3f3d 726c 233d c0c9 b93b e530 6b3e
00000150: bd83 e73e 8048 ad3d 920f c6be 2a4c 9e3e
00000160: 2842 873e 44cc 523e 4f1c 703e ab34 80bd
00000170: 28b6 743e 7757 bd3d b38a bb3e 5793 4d3d
00000180: ee48 fe3e 7f1a 50be 0770 7e3e ea27 143e
00000190: a85a 4b3d cd6b 9d3d 3065 20be 2d9b aa3e
000001a0: 96e3 8ebe 06de 98bd 49af 76be 76fe 133e
000001b0: 7abc 733e c3a3 753e 34fc 9e3e 7203 04be
000001c0: 78c6 3d3e 7a54 3bbe 17b8 64be 65f9 6ebe
000001d0: 6021 14bf 6e32 33be d0f9 1bbe 47e6 9b3e
000001e0: b801 babe 8f0c 88be fc17 bfbd 0bc3 333e
000001f0: b4d8 50be 017f a8bd fdd5 87bd 4f20 753e
00000200: accf 05bf 0fdd dabe ec72 66be 5093 0bbf
00000210: 45f2 6c3e 82d9 aabe 81f7 8cbd 0ca0 01bf
00000220: 4fe3 233e 1654 3b3d 0bef c73d be58 8e3e
00000230: a66f 6e3e 0cca a7be fa1e 8bbe 9d7d 9dbe

sun_influence_1.W_self.bias f4 [12]
-0.04431659 0.0056021875 0.06582072 -0.036663964 -0.004889924 -0.0046731266 0.05252569 0.03323011
-0.01772455 -0.038072478 0.011887574 0.026156984
00000000: 5085 35bd 8e92 b73b 03cd 863d f42c 16bd
00000010: a83b a0bb 0721 99bb 2e25 573d 4c1c 083d
00000020: 1333 91bc e3f1 1bbd 19c4 423c 2c47 d63c

sun_influence_2.W.weight f4 [12, 12]
-0.04375441 -0.35409418 0.5907935 -0.95694685 -0.064163886 -0.5494102 0.1314296 0.023027197
0.352989 0.35736966 -0.6654508 -0.30621213 -0.10642861 -0.3283215 0.07804066 0.17054203
0.040547673 -0.09219915 0.07149005 0.29245657 -0.08011117 0.10839428 -0.0033219452 -0.27453992
-0.47068357 -0.07901868 0.019568123 -0.25390756 0.15366125 -0.37207323 -0.087516025 0.074931175
0.2586304 0.30867448 -0.44792393 0.20633171 0.029571198 -0.3486972 0.25022712 0.14837512
0.27969795 0.093428254 -0.4516299 0.46353438 0.4181842 -0.18447372 0.052944146 0.3807147
-0.17508087 -0.5865939 0.2638271 -0.778895 -0.104839146 0.068013065 0.07610804 0.3833942
0.1340655 0.13352166 0.17451388 0.060789835 0.1908052 -0.27385777 0.4013132 0.4119287
-0.37855658 -0.119325146 0.10600961 0.3608015 0.31428516 -0.37222704 0.38458535 -0.21714789
0.2801839 -0.3280757 -0.24133126 -0.33527443 0.3748977 0.13796009 0.07139373 0.023674056
-0.35023582 0.43903404 -0.16890103 0.22526443 -0.024900777 -0.24443994 0.1897692 0.40346226
-0.3577974 -0.0955152 -0.05251482 -0.0764489 -0.14958239 -0.049675424 0.03549376 -0.5981179
-0.44112757 -0.42367217 0.29538274 0.15560202 -0.15378633 -0.42471385 -0.062579885 -0.36861655
0.14804637 0.09585996 0.5634098 -0.07631186 0.15899777 0.043128084 -0.30962634 0.028067488
0.048271228 -0.30717045 -0.14461358 0.101841986 0.1988342 -0.40766904 -0.4823681 0.25990576
0.35662082 0.04330474 0.5609396 -0.5005314 -0.3392113 0.23112975 -0.4517202 -0.50167865
-0.096687295 0.41793156 0.0545518 -0.0013486576 0.63020974 -0.050934132 0.09087189 -0.20541355
-0.023922456 0.304588 -0.1621106 0.09609945 0.046999007 0.011531895 -0.045143526 0.6033495
00000000: d337 33bd d54b b5be 3e3e 173f 78fa 74bf
00000010: 5b68 83bd 26a6 0cbf 7b95 063e 88a3 bc3c
00000020: f9ba b43e 28f9 b63e fc5a 2abf d6c7 9cbe
00000030: 3ef7 d9bd c119 a8be c8d3 9f3d 92a2 2e3e
00000040: 5115 263d e8d2 bcbd 6069 923d debc 953e
00000050: 5311 a4bd d2fd dd3d feb4 59bb 7f90 8cbe
00000060: 70fd f0be 8cd4 a1bd 544d a03c 2c00 82be
00000070: 6059 1d3e 6280 bebe 9a3b b3bd 8475 993d
00000080: 346b 843e 950a 9e3e 4956 e5be 9f48 533e
00000090: 4c3f f23c 7088 b2be c51d 803e a6ef 173e
000000a0: 9234 8f3e 5057 bf3d 093c e7be 6154 ed3e
000000b0: 3d1c d63e aee6 3cbe f6db 583d 0aed c23e
000000c0: 6648 33be 052b 16bf 5814 873e aa65 47bf
000000d0: e8b5 d6bd 6f4a 8b3d 88de 9b3d 3f4c c43e
000000e0: 7748 093e e7b9 083e c4b3 323e c3fe 783d
000000f0: 7062 433e 1637 8cbe ec78 cd3e 52e8 d23e
00000100: 2bd2 c1be be60 f4bd 911b d93d f9ba b83e
00000110: fce9 a03e 8b94 bebe 5fe8 c43e 045c 5ebe
00000120: 4474 8f3e 8af9 a7be 8b1f 77be 17a9 abbe
00000130: 97f2 bf3e 6945 0d3e e036 923d 18f0 c13c
00000140: 1c52 b3be 12c9 e03e 64f4 2cbe b8ab 663e
00000150: b7fc cbbc 774e 7abe db52 423e 9b92 ce3e
00000160: 3931 b7be 799d c3bd c819 57bd 3e91 9cbd
00000170: 202c 19be 7578 4bbd e861 113d 411e 19bf
00000180: 79db e1be 8feb d8be 683c 973e 2356 1f3e
00000190: 2a7a 1dbe 1874 d9be e229 80bd 4fbb bcbe
000001a0: 7899 173e 3a52 c43d a03b 103f 6449 9cbd
000001b0: 50d0 223e 13a7 303d 5887 9ebe caed e53c
000001c0: 0db8 453d 7245 9dbe 9515 14be 8892 d03d
000001d0: 319b 4b3e ffb9 d0be f4f8 f6be 5e12 853e
000001e0: 0197 b63e 5060 313d bd99 0f3f d322 00bf
000001f0: 1aad adbe 47ad 6c3e df47 e7be 036e 00bf
00000200: fd03 c6bd 20fb d53e b571 5f3d 71c5 b0ba
00000210: 6d55 213f 4fa0 50bd 0b1b ba3d ee57 52be
00000220: 07f9 c3bc f5f2 9b3e 5200 26be cacf c43d
00000230: 0882 403d 46f0 3c3c 6be8 38bd 1d75 1a3f

sun_influence_2.W.bias f4 [12]
0.07682962 0.012207035 0.04802894 -0.013533104 0.044133753 -0.007768091 -0.06675004 -0.060130034
0.063619114 -0.050827734 -0.05712959 -0.030322613
00000000: d958 9d3d 0400 483c feb9 443d f4b9 5dbc
00000010: 98c5 343d 788b febb 3fb4 88bd e94a 76bd
00000020: bd4a 823d be30 50bd b800 6abd 2167 f8bc

sun_influence_2.W_self.weight f4 [12, 12]
-0.007773511 -0.16376898 0.1154493 -0.042564478 -0.31372094 -0.590258 0.31471953 0.024244618
-0.09616986 -0.15548511 -0.03169196 0.38986647 0.3999853 -0.31127402 0.27245447 -0.5591939
0.7414673 0.003881881 0.277131 0.016212363 0.015681926 0.43165907 -0.34142718 0.08560244
0.12728311 0.15772685 0.29555017 -0.3423851 -0.11732998 0.31465006 0.44578072 0.6237148
-0.16866109 0.74365973 -0.34549817 -0.3090263 0.015837273 0.008745826 -0.10267205 -0.06894481
0.50643283 -0.50192785 -0.008496958 0.0048445403 0.10631534 -0.37427127 -0.35450777 -0.055306286
-0.5003204 -0.38911757 -0.09498034 -0.23193654 0.18081482 -0.08677178 0.08339017 0.10269164
0.18919654 -0.14740531 -0.22865401 -0.48398906 0.016652554 -0.54802793 -0.0477411 -0.13941257
-0.22744891 -0.33734518 0.14528424 0.09439936 -0.001887093 -0.53501207 -0.11717044 -0.011018605
-0.20245327 0.15487911 -0.52497494 0.5538963 0.40264368 -0.25682867 -0.2643292 0.48885244
0.42456007 0.2515085 -0.16182968 -0.034442853 -0.2012825 0.03214881 0.09513232 0.24354964
0.12032814 -0.08031204 0.24838045 -0.090266176 -0.15747094 0.33480388 0.25822517 0.09143759
0.19366516 0.038680054 0.23132445 0.07710303 -0.07768798 -0.36905932 -0.38013172 -0.3550027
-0.19984823 -0.5647801 0.24747077 0.22030668 -0.0059434506 -0.51844746 -0.034250148 0.25223854
0.07564141 0.2722072 -0.12651372 -0.28770506 0.28276727 -0.1320918 -0.06945201 -0.29563394
-0.65722996 0.13174246 0.109262675 -0.17422165 0.39370796 -0.19468462 -0.0092711905 -0.15541457
-0.0054351524 -0.37683052 -0.059832714 -0.12267625 0.26811874 0.13633145 -0.12685643 0.09508728
0.043332413 -0.31613332 0.29946005 0.20194396 -0.4909002 0.33814743 0.12939522 -0.2408296
00000000: f0b8 febb 0eb3 27be af70 ec3d 1758 2ebd
00000010: 08a0 a0be 261b 17bf eb22 a13e a69c c63c
00000020: b4f4 c4bd 7d37 1fbe 6ecf 01bd 949c c73e
00000030: e0ca cc3e 4f5f 9fbe 277f 8b3e 5527 0fbf
00000040: cdd0 3d3f 2867 7e3b 1de4 8d3e cacf 843c
00000050: 6277 803c 6b02 dd3e 8bcf aebe 5550 af3d
00000060: 8156 023e 2683 213e 5a52 973e 1a4d afbe
00000070: b34a f0bd d019 a13e 5f3d e43e c6ab 1f3f
00000080: 7eb5 2cbe 7c60 3e3f 23e5 b0be b238 9ebe
00000090: 2bbd 813c a74a 0f3c b945 d2bd f032 8dbd
000000a0: 95a5 013f 587e 00bf d336 0bbc f3be 9e3b
000000b0: dbbb d93d 7ca0 bfbe 0b82 b5be d888 62bd
000000c0: ff14 00bf 6b3a c7be 0d85 c2bd c680 6dbe
000000d0: 8527 393e 67b5 b1bd 77c8 aa3d ff4f d23d
000000e0: bdbc 413e 6bf1 16be 4724 6abe 6acd f7be
000000f0: f06a 883c 8f4b 0cbf 2c8c 43bd 2bc2 0ebe
00000100: 5ee8 68be 82b8 acbe 64c5 143e 7454 c13d
00000110: 5558 f7ba 8df6 08bf 0ef7 efbd 6187 34bc
00000120: e94f 4fbe a198 1e3e c264 06bf 26cc 0d3f
00000130: 5027 ce3e 0c7f 83be 2856 87be de4a fa3e
00000140: f05f d93e b9c5 803e aeb6 25be f313 0dbd
00000150: 001d 4ebe 78ae 033d bcd4 c23d 1465 793e
00000160: 9a6e f63d a47a a4bd 7257 7e3e 79dd b8bd
00000170: 1040 21be 6a6b ab3e 1736 843e a243 bb3d
00000180: 2950 463e fa6e 1e3d 51e0 6c3e 32e8 9d3d
00000190: e01a 9fbd 58f5 bcbe a0a0 c2be eac2 b5be
000001a0: 04a5 4cbe 6e95 10bf fa68 7d3e 1398 613e
000001b0: 47c1 c2bb f9b8 04bf e249 0cbd 6925 813e
000001c0: e2e9 9a3d be5e 8b3e d08c 01be 144e 93be
000001d0: dfc6 903e 1343 07be db3c 8ebd 555d 97be
000001e0: 3940 28bf 7fe7 063e 1cc5 df3d 2967 32be
000001f0: 1794 c93e 685b 47be 31e6 17bc ff24 1fbe
00000200: 5d19 b2bb eeef c0be 2613 75bd b03d fbbd
00000210: dc46 893e 799a 0b3e a7e6 01be 1fbd c23d
00000220: 547d 313d 3adc a1be d452 993e 66ca 4e3e
00000230: 4557 fbbe a921 ad3e 2e80 043e 099c 76be

sun_influence_2.W_self.bias f4 [12]
0.07682962 0.012207035 0.04802894 -0.013533104 0.044133753 -0.007768091 -0.06675004 -0.060130034
0.063619114 -0.050827734 -0.05712959 -0.030322613
00000000: d958 9d3d 0400 483c feb9 443d f4b9 5dbc
00000010: 98c5 343d 788b febb 3fb4 88bd e94a 76bd
00000020: bd4a 823d be30 50bd b800 6abd 2167 f8bc

sun_influence_3.W.weight f4 [12, 12]
-0.24731982 0.24821143 0.16723473 -0.1175157 -0.13043042 -0.21487035 0.55815184 0.13321236
0.09224571 -0.28631037 0.2694051 0.4970769 0.7109583 -0.2603985 0.56744385 -0.34955275
-0.33989605 0.4369638 -0.3982115 -0.17693916 0.023119269 -0.34622222 0.17973942 0.08545547
-0.7343855 -0.48317137 -0.35068458 0.22857033 0.048936408 0.47288492 -0.2987487 0.19144861
0.47310147 -0.13817318 0.22550333 0.41462988 0.062254373 -0.565512 0.010871662 0.22819771
-0.029582419 -0.02334835 -0.22699924 0.20122954 -0.06366885 0.19921009 -0.33235967 -0.4043792
-0.007232707 0.26564842 0.13784595 -0.1421791 -0.14963602 0.3913694 -0.1806111 0.28443745
0.3078378 0.12124968 0.2341114 -0.07873646 0.16106498 -0.38472354 0.071350455 -0.016253797
0.5128516 -0.09264679 0.05066112 -0.29802808 -0.19534943 0.28333953 0.3538142 -0.3340866
0.12412418 -0.3827813 -0.24389055 -0.17377077 -0.35820708 -0.102227286 0.37156135 -0.19382513
0.6492318 0.17474747 -0.30641702 0.21945079 -0.012296549 0.17614877 0.088677555 -0.3177771
0.04054818 -0.31170458 0.10769807 0.23062007 -0.2745438 -0.2570683 -0.34036174 0.5471764
-0.035559822 0.064463936 -0.15940048 -0.28543422 0.06237825 0.4318552 -0.0038052043 -0.37553626
-0.113876864 0.19733739 0.21320005 -0.46558335 0.47378996 -0.08949767 -0.3048201 -1.0524932
0.099101186 -0.23307244 0.10192309 0.5096279 0.5115898 -0.19349581 0.9768441 -0.48947594
0.3316825 0.11241445 -0.08027315 -0.47540912 -0.33185595 -0.42717376 0.09181903 0.3169549
0.15563253 0.20793349 -0.3470849 0.22711562 0.22171307 -0.090556175 -0.19198115 -0.25530693
0.099712744 -0.26630223 0.15778053 -0.15343457 -0.34232226 -0.15857267 0.24108976 0.5773677
00000000: 6841 7dbe 232b 7e3e 953f 2b3e 12ac f0bd
00000010: 8d8f 05be f906 5cbe 0ae3 0e3f d268 083e
00000020: 52eb bc3d 4697 92be 77ef 893e dd80 fe3e
00000030: 5d01 363f f452 85be 0044 113f 94f8 b2be
00000040: db06 aebe b8b9 df3e 61e2 cbbe 8a2f 35be
00000050: 9f64 bd3c 0a44 b1be 9c0d 383e 4703 af3d
00000060: b000 3cbf 3d62 f7be ee8c b3be 570e 6a3e
00000070: 8b71 483d f91d f23e 97f5 98be 1b0b 443e
00000080: 5b3a f23e 457d 0dbe 58ea 663e 5e4a d43e
00000090: 71fe 7e3d 65c5 10bf 0e1f 323c a9ac 693e
000000a0: d456 f2bc 0a45 bfbc 7d72 68be 1e0f 4e3e
000000b0: d064 82bd bbfd 4b3e 0c2b aabe ca0a cfbe
000000c0: 5800 edbb 1203 883e 7d27 0d3e 6697 11be
000000d0: 2f3a 19be 9261 c83e 1ef2 38be c9a1 913e
000000e0: eb9c 9d3e c151 f83d e6ba 6f3e 9540 a1bd
000000f0: 38ee 243e 7cfa c4be 3020 923d af26 85bc
00000100: 3e4a 033f 9abd bdbd 0982 4f3d 2397 98be
00000110: ae09 48be e111 913e 2327 b53e 660d abbe
00000120: d134 fe3d e9fb c3be 72be 79be f7f0 31be
00000130: eb66 b7be 8a5c d1bd 4a3d be3e 187a 46be
00000140: 0e34 263f 00f1 323e b1e2 9cbe b5b7 603e
00000150: 7777 49bc 5860 343e 949c b53d aeb3 a2be
00000160: d915 263d be97 9fbe ce90 dc3d ab27 6c3e
00000170: 0191 8cbe 759e 83be e543 aebe c113 0c3f
00000180: 2da7 11bd ab05 843d e139 23be 6f24 92be
00000190: 5680 7f3d 201c dd3e bc60 79bb 4a46 c0be
000001a0: 4638 e9bd d012 4a3e 1d51 5a3e f160 eebe
000001b0: 9994 f23e 8e4a b7bd 6111 9cbe 19b8 86bf
000001c0: 90f5 ca3d 8baa 6ebe 0ebd d03d f976 023f
000001d0: 8df7 023f c423 46be 7412 7a3f 979c fabe
000001e0: 4ad2 a93e 8c39 e63d 4066 a4bd d368 f3be
000001f0: 06e9 a9be 85b6 dabe 9e0b bc3d ea47 a23e
00000200: 225e 1f3e 84ec 543e 1db5 b1be ff90 683e
00000210: c008 633e 8475 b9bd b596 44be 97b7 82be
00000220: 3236 cc3d c458 88be 3891 213e f41d 1dbe
00000230: dd44 afbe e060 22be 3ce0 763e 5fce 133f

sun_influence_3.W.bias f4 [12]
-0.022860272 -0.00052837987 0.006441687 -0.04389976 0.02756535 -0.052752532 -0.03914087 -0.025158603
-0.036336146 0.010133491 0.038917653 -0.006465087
00000000: 7745 bbbc f982 0aba c914 d33b 3cd0 33bd
00000010: bbd0 e13c 0a13 58bd 2d52 20bd 6a19 cebc
00000020: 36d5 14bd f106 263c 1e68 1f3d 15d9 d3bb

sun_influence_3.W_self.weight f4 [12, 12]
-0.6216375 0.16774581 -0.19743611 0.05790774 0.04110179 -0.05927241 0.003998813 -0.2200459
-0.26381996 0.35735205 -0.048711892 -0.21168092 0.35258853 0.06548632 0.21595752 0.31498957
-0.25783798 -0.059198353 0.49075493 0.19556664 -0.14776035 0.031495515 -0.016382154 -0.6985728
-0.2823963 0.3757491 -0.6561142 -0.23616512 -0.13868919 0.3431235 0.10259322 -0.12395708
0.12498255 -0.1899771 -0.3496954 -0.331642 0.26973543 0.61705536 0.24093193 0.2038584
0.04095011 0.20521659 0.16645657 -0.45034507 0.022987187 -0.2877445 0.38150662 0.20564678
0.054488197 -0.13828379 -0.092067316 -0.42450404 0.1483411 0.10836092 0.20550904 0.012892095
-0.53192353 -0.29119647 -0.62606984 0.3002738 -0.33900294 0.06265832 -0.037889134 0.14562732
-0.0021282898 0.09653665 -0.167842 0.32249886 -0.2773119 0.42566285 -0.02815736 0.21922986
0.15095164 0.07379717 0.0036193598 0.14965525 -0.1987719 0.028965399 0.09877177 -0.616553
0.19857873 -0.43908563 0.120578505 -0.002162064 0.2684063 0.5025733 -0.1265353 0.1222666
-0.16918163 0.09756725 -0.0453837 -0.0599846 0.30791482 0.36011344 -0.06534601 0.17555238
-0.7137908 0.04247079 -0.6149048 -0.3972609 0.23151667 -0.05386514 0.2165057 0.00791037
-0.17300664 0.008062703 0.014686089 -0.15779312 0.7253246 0.045766156 0.543094 -0.08713538
0.057414442 -0.27164888 -0.3135964 0.36940143 -0.24278398 0.25835836 -0.69122446 0.12680961
-0.0060869996 -0.1641455 -0.27270237 -0.05530814 -0.58564335 0.3759075 -0.46870944 0.0029188076
0.23199451 0.004217217 -0.13559374 -0.3294418 -0.06921623 -0.2670721 -0.0842116 0.30467612
0.07737375 -0.020037662 -0.03879 -0.6416465 0.026464224 -0.1539967 -0.3668433 -0.011932078
00000000: a323 1fbf 8fc5 2b3e b12c 4abe ab30 6d3d
00000010: 5a5a 283d a0c7 72bd 7a08 833b b653 61be
00000020: 6913 87be d9f6 b63e 1f86 47bd e2c2 58be
00000030: 7c86 b43e b11d 863d f823 5d3e 5046 a13e
00000040: 5703 84be f979 72bd 3b44 fb3e 9f42 483e
00000050: 7d4e 17be 7101 013d de33 86bc abd5 32bf
00000060: 3f96 90be 3062 c03e 1af7 27bf 45d5 71be
00000070: 8a04 0ebe e2ad af3e 651c d23d 36dd fdbd
00000080: daf6 ff3d 5b89 42be 470b b3be fbcc a9be
00000090: c31a 8a3e 57f7 1d3f dcb6 763e 42c0 503e
000000a0: 4dbb 273d 4c24 523e 9773 2a3e a193 e6be
000000b0: a04f bc3c 3f53 93be d654 c33e 1295 523e
000000c0: 042f 5f3d 449a 0dbe ca8d bcbd 9858 d9be
000000d0: bbe6 173e 54ec dd3d f670 523e 5e39 533c
000000e0: 242c 08bf b417 95be 1d46 20bf 7dbd 993e
000000f0: cb91 adbe 0153 803d a331 1bbd 541f 153e
00000100: c77a 0bbb 02b5 c53d c6de 2bbe 921e a53e
00000110: d3fb 8dbe 7bf0 d93e 44aa e6bc cb7d 603e
00000120: 1193 1a3e f822 973d c832 6d3b 3a3f 193e
00000130: dc8a 4bbe d848 ed3c db48 ca3d 6bd6 1dbf
00000140: 3958 4b3e d5cf e0be ddf1 f63d 6ab1 0dbb
00000150: 8d6c 893e a5a8 003f 7892 01be e966 fa3d
00000160: f33d 2dbe 57d1 c73d 42e4 39bd 69b2 75bd
00000170: 03a7 9d3e ca60 b83e 21d4 85bd 01c4 333e
00000180: feba 36bf daf5 2d3d 676a 1dbf c865 cbbe
00000190: b512 6d3e b1a1 5cbd acb3 5d3e 7f9a 013c
000001a0: a728 31be 6d19 043c ec9d 703c 8594 21be
000001b0: dfae 393f 4b75 3b3d 3508 0b3f 0974 b2bd
000001c0: 682b 6b3d 9015 8bbe b58f a0be 2f22 bd3e
000001d0: 5d9c 78be 8c47 843e 16f4 30bf 61da 013e
000001e0: 7475 c7bb c215 28be a59f 8bbe ca8a 62bd
000001f0: b9ec 15bf f376 c03e affa efbe 7749 3f3b
00000200: f88f 6d3e 9530 8a3b 16d9 0abe 98ac a8be
00000210: 3dc1 8dbd adbd 88be 2277 acbd 82fe 9b3e
00000220: 2176 9e3d 0626 a4bc 43e2 1ebd f242 24bf
00000230: 80cb d83c 50b1 1dbe e3d2 bbbe c37e 43bc

sun_influence_3.W_self.bias f4 [12]
-0.022860272 -0.00052837987 0.006441687 -0.04389976 0.02756535 -0.052752532 -0.03914087 -0.025158603
-0.036336146 0.010133491 0.038917653 -0.006465087
00000000: 7745 bbbc f982 0aba c914 d33b 3cd0 33bd
00000010: bbd0 e13c 0a13 58bd 2d52 20bd 6a19 cebc
00000020: 36d5 14bd f106 263c 1e68 1f3d 15d9 d3bb

sun_influence_4.weight f4 [8, 12]
-0.38278276 -0.47311857 0.03733117 0.39120966 0.3430302 -0.8703207 0.14135335 0.071164906
0.15314992 -0.8738421 0.23991112 0.73906565 0.40098757 0.42743438 -0.007820996 0.39906588
-0.006286491 -0.051926244 -0.00017987743 -0.0735306 -0.2391671 -0.64653146 -0.18166408 -0.008049327
0.028143262 0.4585912 0.22931457 0.247462 -0.20432323 -0.22400458 0.20076168 0.06568172
0.4322355 -0.06489976 -0.012612821 0.19969699 -0.19531615 0.668122 -0.44186673 0.15776153
0.0053905244 -0.23124902 0.1293262 0.246124 0.037051205 -0.29694185 0.10987084 -0.47948143
0.022545671 0.08036933 0.69601053 0.0062266486 0.5551039 0.19249453 0.4477876 0.30683464
0.4565689 -0.31560397 0.39090082 0.27176198 0.025486115 0.22073527 -0.23261668 0.1453451
0.024204139 0.10821061 -0.6470144 0.46473202 -0.170668 -0.25436047 0.37060034 -0.340509
-0.38536844 -0.14924808 -0.7649794 0.023104902 0.06635795 0.19800131 -0.12372941 0.013244866
-0.19295444 -0.14533553 -0.18193866 0.06609491 -0.24237184 -0.046293456 -0.07451008 0.24208006
0.15806305 -0.12294518 0.05204485 0.5748306 0.13992023 -0.11700775 -0.015195679 -0.29742444
00000000: 1afc c3be 993c f2be 92e8 183d a24c c83e
00000010: a8a1 af3e 56cd 5ebf efbe 103e e8be 913d
00000020: 55d3 1c3e 1eb4 5fbf 43ab 753e 6833 3d3f
00000030: 3e4e cd3e aed8 da3e a323 00bc 5d52 cc3e
00000040: e9fe cdbb 9db0 54bd 7b9d 3cb9 3697 96bd
00000050: 38e8 74be 1683 25bf 2606 3abe 53e1 03bc
00000060: b38c e63c 77cc ea3e 70d1 6a3e ae66 7d3e
00000070: 1c3a 51be 7561 65be 7894 4d3e 2384 863d
00000080: f94d dd3e 2aea 84bd 01a6 4ebc 5e7d 4c3e
00000090: f500 48be 0b0a 2b3f 5b3c e2be 3d8c 213e
000000a0: ffa2 b03b 8bcc 6cbe 166e 043e ee07 7c3e
000000b0: 01c3 173d c308 98be f703 e13d 977e f5be
000000c0: b3b1 b83c ad98 a43d bf2d 323f ea08 cc3b
000000d0: 4a1b 0e3f 491d 453e 6b44 e53e 6e19 9d3e
000000e0: 66c3 e93e d896 a1be 2724 c83e 6324 8b3e
000000f0: 42c8 d03c 6d08 623e 1133 6ebe 59d5 143e
00000100: c247 c63c 869d dd3d bca2 25bf 5bf1 ed3e
00000110: 98c3 2ebe 893b 82be 54bf bd3e 3257 aebe
00000120: 034f c5be 7dd4 18be b1d5 43bf 7e46 bd3c
00000130: ade6 873d dbc0 4a3e d865 fdbd ff00 593c
00000140: d995 45be d6d2 14be 214e 3abe c55c 873d
00000150: 5330 78be 359e 3dbd be98 98bd d6e3 773e
00000160: 48db 213e afca fbbd fb2c 553d 1928 133f
00000170: 4047 0f3e c2a1 efbd 4cf7 78bc 0448 98be

sun_influence_4.bias f4 [8]
-0.009654708 -0.009262331 0.04363773 0.049799375 0.005843095 0.012182383 0.024794154 0.05027451
00000000: c82e 1ebc 08c1 17bc 7abd 323d 6efa 4b3d
00000010: 6f77 bf3b 9e98 473c 1c1d cb3c a5ec 4d3d
