src/Photosynthesis/RL/SavedModels/model_43.pth (torch, 30290 bytes, 34 tensors)

player_tree_1.W.weight f4 [12, 12]
-0.06932652 -0.44776833 0.3707233 -0.20986222 0.15621099 0.3315388 0.1280868 0.10803453
0.061947405 0.36334726 0.1867986 -0.071613766 -0.16309917 0.31868884 -0.21319656 -0.3607841
0.32679722 0.1169755 -0.016097058 0.20089057 -0.29762876 0.6719583 0.7875875 -0.0046754642
0.012666043 -0.22072178 0.09027137 0.30907848 0.276847 0.087953225 -0.050995115 0.43914738
0.5480446 0.39759442 0.05019922 -0.19406196 -0.12668459 -0.31338617 -0.10313495 -0.016888147
-0.21094501 0.14402182 0.08910907 -0.079765335 -0.17373961 -0.02490365 -0.852718 0.14035302
0.05695225 -0.12538497 -0.03585537 -0.16961277 -0.06687366 0.63608664 0.2055856 -0.1471393
0.39005908 -0.08100562 0.08012513 0.0006430051 0.11425224 0.14043799 -0.28087264 0.052726563
-0.40698105 -0.08331439 -0.11804859 -0.01900043 -0.20689875 0.0029039255 -0.18362993 0.33986554
-0.16320506 0.22770275 -0.19564326 0.16225685 0.72924244 -0.037513386 0.67865914 -0.26177043
-0.2583607 -0.26863223 -0.22062807 -0.004642558 0.49279296 0.2756628 0.030707933 -0.09662471
0.092758946 -0.2889387 -0.47328132 -0.073699355 -0.31132397 0.33618328 0.48293707 -0.029981025
0.06645135 -0.16669282 -0.37826142 0.26557267 -0.17388235 -0.24211003 0.1220851 0.046445075
-0.4781097 0.09003546 0.44547793 0.024847137 -0.2795223 -0.10827768 -0.41138726 0.057161365
-0.06866629 0.41530073 0.31528446 0.66026735 -0.24085434 0.4377538 -0.072043 -0.0064991964
-0.2983685 0.29535323 -0.009398167 -0.022221416 -0.4086593 -1.1012902 0.3247391 -0.052799024
0.031924438 0.013638689 -0.19090739 -0.12021773 0.18091281 0.2893588 -0.16829114 0.37594274
-0.1225713 -0.34170672 -0.053018462 0.046325255 0.30642954 -0.05229043 0.2690366 0.74074215
00000000: 10fb 8dbd e441 e5be 72cf bd3e 1fe6 56be
00000010: c6f5 1f3e 74bf a93e 3029 033e 3541 dd3d
00000020: 90bc 7d3d a708 ba3e 2248 3f3e 3daa 92bd
00000030: 7803 27be 2f2b a33e 3350 5abe b2b8 b8be
00000040: f751 a73e da90 ef3d fadd 83bc 42b6 4d3e
00000050: cc62 98be 7605 2c3f 569f 493f a334 99bb
00000060: 3c85 4f3c e404 62be 32e0 b83d 893f 9e3e
00000070: e4be 8d3e d220 b43d 41e0 50bd edd7 e03e
00000080: a74c 0c3f 7f91 cb3e b39d 4d3d 2eb8 46be
00000090: 9bb9 01be 2774 a0be 6b38 d3bd 0359 8abc
000000a0: f801 58be 757a 133e d17e b63d 025c a3bd
000000b0: cce8 31be bd02 ccbc ba4b 5abf b4b8 0f3e
000000c0: c346 693d eb64 00be 15dd 12bd f8ae 2dbe
000000d0: 0ff5 88bd 93d6 223f 0885 523e afab 16be
000000e0: d3b5 c73e 46e6 a5bd a518 a43d 588f 283a
000000f0: 14fd e93d face 0f3e 8ace 8fbe cff7 573d
00000100: d25f d0be bca0 aabd 76c3 f1bd caa6 9bbc
00000110: 44dd 53be c94f 3e3b 7c09 3cbe db02 ae3e
00000120: 3a1f 27be e92a 693e b556 48be a926 263e
00000130: a2af 3a3f a3a7 19bd 9bbc 2d3f c606 86be
00000140: db47 84be 2a8a 89be 53ec 61be 9920 98bb
00000150: 5c4f fc3e ad23 8d3e 348f fb3c 2de3 c5bd
00000160: 67f8 bd3d c6ef 93be ee51 f2be b0ef 96bd
00000170: db65 9fbe 3720 ac3e 8743 f73e c49a f5bc
00000180: a517 883d 86b1 2abe 7bab c1be 24f9 873e
00000190: 370e 32be b1eb 77be c107 fa3d 313d 3e3d
000001a0: cbca f4be 8364 b83d af15 e43e 398c cb3c
000001b0: 8c1d 8fbe b0c0 ddbd 5aa1 d2be 0922 6a3d
000001c0: e9a0 8cbd 4ca2 d43e f76c a13e 4807 293f
000001d0: 85a2 76be 4421 e03e 488b 93bd 36f7 d4bb
000001e0: c2c3 98be 8a38 973e c5fa 19bc b009 b6bc
000001f0: cb3b d1be 14f7 8cbf 3444 a63e ca43 58bd
00000200: 33c3 023d cf74 5f3c 3a7d 43be b734 f6bd
00000210: 3541 393e d626 943e 8354 2cbe 917b c03e
00000220: a906 fbbd 2ff4 aebe e329 59bd 8dbf 3d3d
00000230: 55e4 9c3e 7d2e 56bd 2abf 893e 47a1 3d3f

player_tree_1.W.bias f4 [12]
-0.00515429 -0.010895851 -0.0024272536 -0.0043344544 -0.007287677 -0.010036162 -0.0064864536 -0.006824763
-0.005992715 -0.008272625 -0.018546658 -0.014988602
00000000: 51e5 a8bb 8384 32bc 8f12 1fbb 0a08 8ebb
00000010: 77cd eebb b76e 24bc 518c d4bb 43a2 dfbb
00000020: 895e c4bb e789 07bc 29ef 97bc c192 75bc

player_tree_1.W_self.weight f4 [12, 12]
-0.13538377 0.15768403 0.62829465 -0.22404191 0.7102933 -0.026238695 -0.19688542 -0.19606772
-0.00911386 0.4785141 0.19307552 0.01913799 0.404089 -0.11250539 -0.059138402 -0.074719384
-0.17760685 -0.43470663 0.26762325 0.5969108 0.13673274 0.08112609 0.2776108 -0.024089955
0.17296708 0.2730347 0.09335246 -0.14673904 0.042471673 0.046931043 -0.4552848 1.0151567
0.35690814 0.28895184 -0.16016117 0.19437344 -0.22495903 -0.03428728 -0.38724118 0.07738939
0.47063965 0.11987692 -0.5680434 0.064831644 0.079100266 -0.25011632 0.08282112 -0.30302152
0.4456328 0.23281282 0.020913135 0.6021448 0.22831868 -0.26351607 -0.16946684 0.31714565
-0.20031576 -0.087140925 -0.10570161 -0.041441362 -0.2771594 -0.46284774 -0.27887607 -0.3249575
0.0047052493 -0.3228694 -0.5954257 -0.08700111 -0.31566662 0.5221214 -0.4532766 0.19044398
0.5168182 -0.09636047 -0.27745676 -0.1053425 0.20674217 0.038875755 0.35061434 0.0278195
0.22728685 0.73705214 -0.12022204 0.2153631 0.01525337 0.16831197 0.17150731 -0.26405224
0.37390718 0.3436622 0.114639394 -0.37260863 -0.06671505 -0.07186195 0.49220654 -0.60234576
0.3061044 0.13728637 -0.042693693 -0.25579694 -0.21004461 0.3639452 0.4422809 0.12342674
0.29704642 -0.20769067 0.3132311 0.3421098 -0.01663455 0.2295775 -0.12936613 -0.40709153
-0.16207188 0.027768683 0.25653127 -0.15992343 -0.28028843 -0.15044303 -0.116354235 -0.12507002
0.001688695 0.20760773 -0.12507924 0.6812348 -0.041796196 -0.5595376 -0.5511391 -0.15253364
0.14410834 0.25136787 -0.2918354 -0.37005118 -0.43649283 -0.6260374 0.45032212 -0.15579127
-0.5513216 -0.17004439 0.039834023 -0.19703883 0.1967629 -0.18637736 -0.2742498 -0.7163898
00000000: 0ba2 0abe ec77 213e ebd7 203f 3e6b 65be
00000010: c8d5 353f 88f2 d6bc 559c 49be fac5 48be
00000020: 4d52 15bc cdff f43e 97b5 453e 46c7 9c3c
00000030: c1e4 ce3e 3a69 e6bd 1c3b 72bd 7a06 99bd
00000040: 92de 35be de91 debe ea05 893e 25cf 183f
00000050: ab03 0c3e 6f25 a63d 0123 8e3e 4c58 c5bc
00000060: 481e 313e 34cb 8b3e 932f bf3d c242 16be
00000070: c7f6 2d3d c43a 403d 171b e9be a8f0 813f
00000080: aabc b63e 7ff1 933e 4a01 24be d509 473e
00000090: a95b 66be d270 0cbd 7a44 c6be 547e 9e3d
000000a0: aef7 f03e 0882 f53d 4b6b 11bf 74c6 843d
000000b0: 52ff a13d 3f0f 80be 1f9e a93d a325 9bbe
000000c0: fb29 e43e 7c66 6e3e 0652 ab3c 2926 1a3f
000000d0: 5fcc 693e 94eb 86be b788 2dbe ea60 a23e
000000e0: 931f 4dbe f176 b2bd 167a d8bd 6bbe 29bd
000000f0: d6e7 8dbe 61fa ecbe d8c8 8ebe d460 a6be
00000100: 7e2e 9a3b 234f a5be d26d 18bf a32d b2bd
00000110: 0e9f a1be c0a9 053f df13 e8be bf03 433e
00000120: 334e 043f a358 c5bd d00e 8ebe cfbd d7bd
00000130: 38b4 533e 2f3c 1f3d b983 b33e b8e5 e33c
00000140: e2bd 683e 73af 3c3f f936 f6bd 2588 5c3e
00000150: 45e9 793c f959 2c3e 9d9f 2f3e db31 87be
00000160: c370 bf3e 7ef4 af3e 0fc8 ea3d 8fc6 bebe
00000170: e6a1 88bd 5c2c 93bd 7f02 fc3e 5533 1abf
00000180: b7b9 9c3e cc94 0c3e 95df 2ebd d1f7 82be
00000190: ef15 57be 0657 ba3e a472 e23e 29c7 fc3d
000001a0: 7816 983e ddac 54be d45f a03e 0429 af3e
000001b0: 2e45 88bc 5d16 6b3e 8e78 04be 4d6e d0be
000001c0: 2cf6 25be 267b e33c 1158 833e f8c2 23be
000001d0: f781 8fbe bd0d 1abe 214b eebd 5b12 00be
000001e0: 3457 dd3a 1f97 543e c614 00be 6765 2e3f
000001f0: 7d32 2bbd db3d 0fbf 7417 0dbf c731 1cbe
00000200: 2391 133e 4ab3 803e 736b 95be 5977 bdbe
00000210: fd7b dfbe fd43 20bf 9f90 e63e bf87 1fbe
00000220: 6a23 0dbf 1e20 2ebe 0029 233d 8cc4 49be
00000230: 377c 493e b5d9 3ebe 786a 8cbe 5265 37bf

player_tree_1.W_self.bias f4 [12]
-0.00515429 -0.010895851 -0.0024272536 -0.0043344544 -0.007287677 -0.010036162 -0.0064864536 -0.006824763
-0.005992715 -0.008272625 -0.018546658 -0.014988602
00000000: 51e5 a8bb 8384 32bc 8f12 1fbb 0a08 8ebb
00000010: 77cd eebb b76e 24bc 518c d4bb 43a2 dfbb
00000020: 895e c4bb e789 07bc 29ef 97bc c192 75bc

player_tree_2.W.weight f4 [12, 12]
0.43023902 0.30569592 -0.1834796 -0.39083037 -0.40685418 0.6918684 -0.21931405 -0.5652096
-0.31594 0.023769952 -0.0025810841 0.35954365 0.23289724 0.1550644 0.38399285 -0.17972453
-0.3147249 -0.3495906 0.1606876 0.27049193 0.47288886 0.45906663 -0.21784689 -0.7988375
-0.1316814 0.33055368 -0.13966909 0.093939975 0.49732745 0.06741744 -0.08626477 0.007725277
0.06242776 0.24626435 0.16323012 0.94907916 0.013548098 0.65610546 0.15296079 -0.1576492
-0.23365036 -0.13031016 -0.30468136 -0.07830055 0.10472243 -0.043359295 0.106738366 0.12567301
-0.03433151 -0.25736067 -0.054449826 -0.28754026 -0.13764293 0.6928299 -0.0150697185 0.07152837
0.34557658 0.67411095 0.11624944 0.2404912 0.30731893 -0.17719781 -0.16730405 -0.061299488
-0.30707052 0.4801929 0.28308174 0.2991206 -0.036331024 0.06046446 0.18374908 -0.342661
0.2416976 -0.11384363 -0.35053974 -0.14002503 -0.1939157 0.7244412 0.27480918 -0.054379463
0.039495457 0.20205392 0.2545221 -0.19818264 0.16546834 0.09503797 0.5756827 -0.29361778
0.26786464 0.22717273 0.0033666962 0.28529102 0.28735045 -0.07289227 0.09568978 -0.14715973
0.24720685 0.35304773 0.35209483 0.11911313 -0.32540104 0.23437028 0.15466294 0.13353689
0.50814414 0.39161345 -0.0740443 -0.098144665 0.2436277 0.3194226 0.33451656 -0.057626657
-0.2917927 -0.30249304 0.30575445 -0.011496269 -0.6107087 -0.52798915 -0.018308977 -0.13338502
-0.26421735 0.28044683 0.28808448 0.39603114 -0.19164617 0.5031974 -0.38912973 0.050915252
-0.35617667 -0.26262635 -0.09254874 -0.10798499 -0.36129177 0.17026202 0.08751044 0.15683253
0.021157647 -0.24330638 0.28543022 0.13677983 0.20677026 -0.38653398 -0.1057569 -0.22344601
00000000: 4a48 dc3e 2d84 9c3e 14e2 3bbe eb1a c8be
00000010: 314f d0be 4a1e 313f dd93 60be 94b1 10bf
00000020: e3c2 a1be 34b9 c23c 6827 29bb 1b16 b83e
00000030: 9d7c 6e3e 34c9 1e3e b69a c43e b509 38be
00000040: 9f23 a1be 8afd b2be 4a8b 243e eb7d 8a3e
00000050: 7d1e f23e c80a eb3e 4113 5fbe 9d80 4cbf
00000060: 7dd7 06be 553e a93e 6a05 0fbe 9a63 c03d
00000070: b4a1 fe3e 2812 8a3d 95ab b0bd 5224 fd3b
00000080: 40b4 7f3d b92c 7c3e cc25 273e daf6 723f
00000090: d7f8 5d3c 87f6 273f c1a1 1c3e cb6e 21be
000000a0: 0a42 6fbe 0770 05be 32ff 9bbe 0a5c a0bd
000000b0: b778 d63d 8499 31bd a599 da3d 6db0 003e
000000c0: 339f 0cbd c7c4 83be c806 5fbd 7a38 93be
000000d0: 45f2 0cbe 4d5d 313f fbe6 76bc 777d 923d
000000e0: 6aef b03e 8992 2c3f 3014 ee3d 5343 763e
000000f0: e858 9d3e 5873 35be c151 2bbe 2c15 7bbd
00000100: 5938 9dbe d8db f53e 17f0 903e 5626 993e
00000110: d7cf 14bd 95a9 773d b828 3c3e 4371 afbe
00000120: 937f 773e d926 e9bd f279 b3be b962 0fbe
00000130: d691 46be fa74 393f cab3 8c3e 00bd 5ebd
00000140: fdc5 213d 39e7 4e3e b850 823e 64f0 4abe
00000150: 8870 293e 44a3 c23d f15f 133f 1255 96be
00000160: 8e25 893e f89f 683e caa3 5c3b aa11 923e
00000170: 991f 933e 8b48 95bd 01f9 c33d 0ab1 16be
00000180: cb23 7d3e acc2 b43e c645 b43e 96f1 f33d
00000190: f79a a6be c3fe 6f3e f65f 1e3e e5bd 083e
000001a0: bc15 023f 8f81 c83e 8aa4 97bd 1200 c9bd
000001b0: 8a79 793e 5c8b a33e c145 ab3e ee09 6cbd
000001c0: da65 95be 5ee0 9abe d98b 9c3e d95a 3cbc
000001d0: 6857 1cbf 4c2a 07bf b5fc 95bc 1596 08be
000001e0: 7f47 87be ba96 8f3e cf7f 933e 98c4 ca3e
000001f0: e53e 44be 8bd1 003f 033c c7be 838c 503d
00000200: ca5c b6be f676 86be 328a bdbd 3c27 ddbd
00000210: 3cfb b8be 2b59 2e3e ac38 b33d b598 203e
00000220: cd52 ad3c 4f25 79be e923 923e 0310 0c3e
00000230: 95bb 533e c8e7 c5be 1397 d8bd 08cf 64be

player_tree_2.W.bias f4 [12]
-0.05181026 -0.0050738933 -0.0074545587 -0.003722443 -0.0043787956 -0.0068522342 -0.005020112 -0.002305566
-0.01122567 -0.004056035 -0.03159589 -0.021799793
00000000: ff36 54bd e742 a6bb 5f45 f4bb 3bf4 73bb
00000010: 007c 8fbb b588 e0bb c07f a4bb fb18 17bb
00000020: dfeb 37bc 7de8 84bb b16a 01bd 7b95 b2bc

player_tree_2.W_self.weight f4 [12, 12]
-0.17378348 -0.005426609 0.080237255 -0.21874021 0.23217921 -0.35652682 -0.21615434 -0.4497454
-0.36646363 0.27463967 0.079428315 -0.14824489 -0.4454058 -0.26984522 0.10885656 0.21805853
-0.4425498 -0.5005278 -0.28580418 0.70584446 -0.16415156 -0.00577375 0.10925367 0.024177577
-0.41199324 0.4710089 -0.41392082 0.0005063599 0.0867136 0.40959218 0.19089104 -0.0014312713
0.43659854 0.3020033 -0.22292088 -0.3495441 0.48424175 0.17374326 0.6277667 0.25037032
0.051781215 0.22643994 0.49264896 -0.19476011 0.6879119 -0.10570739 -0.40262616 -0.15094574
0.55727804 0.15088458 -0.28732577 0.1179579 -0.08465656 0.5366722 0.10602012 -0.050379146
0.39319766 0.064766295 -0.17659667 0.06595682 0.046354134 0.28688344 0.1176559 0.06367667
0.3704505 0.44646952 -0.5652295 0.23503762 0.2667402 0.06651249 0.43187267 0.55069244
-0.06807296 0.3518065 0.1577141 -0.6620734 0.59513336 0.07471268 0.37404737 0.013439486
0.19565968 -0.25382683 0.33273116 0.14641002 -0.020420024 -0.29580647 0.25720355 0.21984212
0.1894704 0.0025609217 0.21972233 0.62854964 -0.41504046 0.15324621 0.057608083 0.24443093
0.04958469 0.29099384 -0.5079805 0.56153286 -0.17810671 -0.4333418 -0.37571245 -0.092544615
0.47753823 0.39662135 -0.052966256 -0.34398976 -0.4921694 -0.035475224 -0.41405103 0.040200446
-0.04655876 -0.2737739 -0.47029752 0.15796599 -0.3000006 0.2960074 0.22392 -0.05851504
-0.012289095 -0.16433655 -0.37230223 0.3987469 0.19983512 -0.09609996 -0.21223857 0.19195624
-0.5900247 -0.107187346 -0.19796765 -0.038262896 0.09553818 -0.06513952 -0.4088483 0.27827245
-0.69281226 0.07433081 0.08670607 -0.28192264 -0.41341045 -0.220321 0.14668414 -0.020940725
00000000: 4cf4 31be b2d1 b1bb 6e53 a43d 6ffd 5fbe
00000010: 63c0 6d3e af8a b6be 9057 5dbe 0745 e6be
00000020: 1fa1 bbbe 929d 8c3e 50ab a23d 82cd 17be
00000030: 3b0c e4be 2729 8abe 30f0 de3d bc4a 5f3e
00000040: e395 e2be 9722 00bf ed54 92be 39b2 343f
00000050: 5917 28be ba31 bdbb 63c0 df3d 0e10 c63c
00000060: c7f0 d2be 1428 f13e 6eed d3be 3dbd 043a
00000070: e696 b13d 11b6 d13e f178 433e 7f99 bbba
00000080: d889 df3e 2da0 9a3e 5f45 64be 72f7 b2be
00000090: 89ee f73e c1e9 313e 52b5 203f 8a30 803e
000000a0: 8a18 543d dfdf 673e 7c3c fc3e 326f 47be
000000b0: ff1a 303f 1e7d d8bd 0425 cebe 8591 1abe
000000c0: c6a9 0e3f 7d81 1a3e 5d1c 93be e993 f13d
000000d0: 6b60 adbd 5963 093f 1421 d93d 5d5a 4ebd
000000e0: 3451 c93e 31a4 843d c2d5 34be 5f14 873d
000000f0: d5dd 3d3d 63e2 923e 94f5 f03d ea68 823d
00000100: b0ab bd3e a797 e43e e1b2 10bf b4ad 703e
00000110: 2c92 883e b337 883d 6a1e dd3e 2efa 0c3f
00000120: d669 8bbd fb1f b43e ce7f 213e a47d 29bf
00000130: a95a 183f f602 993d 2383 bf3e 4a31 5c3c
00000140: 035b 483e 97f5 81be bd5b aa3e 82ec 153e
00000150: e547 a7bc f273 97be 2fb0 833e 4b1e 613e
00000160: 8704 423e 23d5 273b e4fe 603e a1e8 203f
00000170: 2f80 d4be 93ec 1c3e 74f6 6b3d 1a4c 7a3e
00000180: 5119 4b3d 25fd 943e 030b 02bf 9ec0 0f3f
00000190: 9b61 36be fade ddbe 625d c0be 0888 bdbd
000001a0: e47f f43e f411 cb3e 25f3 58bd 6d1f b0be
000001b0: a1fd fbbe 784e 11bd 7ffe d3be 39a9 243d
000001c0: 66b4 3ebd 182c 8cbe d6ca f0be d6c1 213e
000001d0: ae99 99be 488e 973e 494b 653e 77ad 6fbd
000001e0: 3358 49bc d747 28be 669e bebe 8e28 cc3e
000001f0: 94a1 4c3e 0ed0 c4bd 1155 59be 2d90 443e
00000200: dc0b 17bf 0a85 dbbd 08b8 4abe 8eb9 1cbd
00000210: 85a9 c33d de67 85bd 9054 d1be ba79 8e3e
00000220: 255c 31bf c03a 983d f492 b13d 2a58 90be
00000230: 89aa d3be d49b 61be 5e34 163e e28b abbc

player_tree_2.W_self.bias f4 [12]
-0.05181026 -0.0050738933 -0.0074545587 -0.003722443 -0.0043787956 -0.0068522342 -0.005020112 -0.002305566
-0.01122567 -0.004056035 -0.03159589 -0.021799793
00000000: ff36 54bd e742 a6bb 5f45 f4bb 3bf4 73bb
00000010: 007c 8fbb b588 e0bb c07f a4bb fb18 17bb
00000020: dfeb 37bc 7de8 84bb b16a 01bd 7b95 b2bc

player_tree_3.W.weight f4 [12, 12]
0.18992628 -0.7593023 -0.07500712 0.0648194 -0.10265029 -0.059444886 -0.038251184 -0.1755412
0.114295326 0.015894094 0.22472383 -0.044772744 0.08622292 0.29111612 0.4555354 -0.19596113
0.075431466 -0.0788475 0.013313648 -0.14597316 0.031012481 0.4611893 -0.044334013 0.41941425
0.07767573 0.369328 0.09193747 0.19331124 0.2829301 0.2964471 -0.10686975 0.55411047
0.20151946 -0.49349323 -0.044785693 0.042218495 -0.2672849 -0.035561718 0.01044102 -0.14047782
-0.021576978 0.17466526 -0.008086519 0.31441048 -0.02481591 -0.3139092 0.5970266 -0.21205562
-0.18140557 -0.03409867 0.25283682 -0.1359339 0.27240595 -0.19523309 0.25037014 0.008689854
0.3629265 0.02588095 -0.0275281 0.16717613 -0.14337076 0.48140797 -0.08398312 -0.24678743
0.31963924 -0.24256529 -0.32827702 -0.62316793 -0.42587662 0.11574629 -0.039310984 0.120168194
-0.21448927 -0.079742566 -0.08627707 -0.008747927 -0.2903826 0.10267539 0.56179893 0.054904804
0.41014048 -0.40801412 0.26227093 0.14047763 -0.20813815 0.011593894 0.055959754 -0.04902136
-0.07782689 0.0054016574 0.3039109 -0.22094907 -0.33750764 0.05466443 -0.1655025 0.13026807
0.025386078 0.07888927 0.079082176 0.091920406 -0.17154248 0.20707774 0.74579 0.087384805
0.08534288 -0.11530111 -0.0317509 -0.07640502 -0.009185915 0.43773878 0.49420455 0.29176185
0.9124999 0.29466087 0.115886346 0.15728885 -0.040611826 0.6276925 -0.15931417 0.14713186
0.22018547 0.024743497 -0.4892096 -0.28603175 0.052142024 -0.14272347 0.13834202 -0.33493778
0.10716027 -0.21962948 0.5354912 0.34836727 -0.4529956 0.1044085 0.3155625 0.014274963
0.36140662 0.22637898 -0.5593202 0.21426061 -0.014640416 0.27589846 -0.020293135 -0.64564604
00000000: 097c 423e a361 42bf 559d 99bd 09c0 843d
00000010: 513a d2bd 7b7c 73bd 46ad 1cbd 13c1 33be
00000020: ab13 ea3d 5534 823c 011e 663e a063 37bd
00000030: a495 b03d 2c0d 953e f03b e93e 09aa 48be
00000040: d07b 9a3d cc7a a1bd 7d21 5a3c fd79 15be
00000050: e30d fe3c 0121 ec3e 9597 35bd 77bd d63e
00000060: 7414 9f3d 8f18 bd3e b649 bc3d 62f3 453e
00000070: 37dc 903e eac7 973e 87de dabd 2fda 0d3f
00000080: 1e5b 4e3e 25ab fcbe 3471 37bd 4ded 2c3d
00000090: 91d9 88be 2aa9 11bd d010 2b3c 6bd9 0fbe
000000a0: 34c2 b0bc 73db 323e 527d 04bc 69fa a03e
000000b0: bc4a cbbc b5b8 a0be bcd6 183f 1c25 59be
000000c0: 62c2 39be 0cab 0bbd d473 813e 4232 0bbe
000000d0: cb78 8b3e 2feb 47be 8430 803e e45f 0e3c
000000e0: 81d1 b93e 4904 d43c 9c82 e1bc 3830 2b3e
000000f0: c9cf 12be 1b7b f63e 58ff abbd d8b5 7cbe
00000100: c1a7 a33e 0963 78be ed13 a8be ef87 1fbf
00000110: 800c dabe 640c ed3d 8e04 21bd be1a f63d
00000120: 13a3 5bbe 1250 a3bd 08b2 b0bd 7753 0fbc
00000130: 07ad 94be 7a47 d23d 0ed2 0f3f dce3 603d
00000140: effd d13e 3ae7 d0be 6048 863e 5ed9 0f3e
00000150: 2b22 55be 51f4 3d3c 0e36 653d 9fca 48bd
00000160: b463 9fbd 6300 b13b 369a 9b3e 7940 62be
00000170: cdcd acbe cfe7 5f3d 7d79 29be fe64 053e
00000180: 77f6 cf3c b390 a13d d6f5 a13d c440 bc3d
00000190: d5a8 2fbe 300c 543e 18ec 3e3f cef6 b23d
000001a0: 3fc8 ae3d fd22 ecbd 3b0d 02bd 3c7a 9cbd
000001b0: 8580 16bc 4c1f e03e 6108 fd3e cf61 953e
000001c0: 9899 693f cadd 963e d255 ed3d 5410 213e
000001d0: 9658 26bd 75b0 203f 4123 23be bca9 163e
000001e0: 4d78 613e e0b2 ca3c ae79 fabe c172 92be
000001f0: e092 553d 1a26 12be 88a9 0d3e f77c abbe
00000200: d876 db3d 8de6 60be f415 093f 325d b23e
00000210: 0aef e7be 20d4 d53d 6891 a13e 89e1 693c
00000220: 4a0a b93e e4cf 673e 9c2f 0fbf 2267 5b3e
00000230: 5bde 6fbc 9042 8d3e ca3d a6bc 0f49 25bf

player_tree_3.W.bias f4 [12]
-0.0017887796 -0.022002857 -0.0038852629 -0.017650932 -0.004613955 -0.047213875 -0.058569737 -0.11223872
-0.005807592 -0.008763859 -0.013707003 -0.0035163604
00000000: 7c75 eaba 563f b4bc e59f 7ebb b098 90bc
00000010: a930 97bb 5663 41bd d2e6 6fbd 6add e5bd
00000020: 9d4d bebb 4a96 0fbc 5693 60bc bd72 66bb

player_tree_3.W_self.weight f4 [12, 12]
-0.2001096 -0.21425955 -0.054237485 -0.04381838 0.50666565 0.304485 0.45889154 0.37406614
0.073791094 0.15325055 0.05312615 -0.35021815 -0.3532585 -0.030627605 -0.044399828 -0.061898857
-0.06343162 -0.13533029 -0.14467782 -0.07716986 -0.35550427 -0.0469567 0.17900847 -0.3803959
-0.22951405 0.3978879 0.31900507 0.33041495 0.4069528 -0.025765896 -0.07886048 0.33999786
0.30146164 -0.13250433 0.4133199 -0.081437364 -0.767097 0.014405523 0.041601144 0.36007708
-0.15727521 -0.30835184 -0.32331464 0.59760886 -0.047249 -0.41542348 0.16373196 -0.5645531
-0.20000327 -0.19108522 -0.1903964 0.4676182 0.73288774 0.4311719 0.011448045 0.1733626
-0.144815 -0.27684635 0.31115448 0.16125016 0.30446 0.11449833 0.36832017 0.34829625
-0.013281186 -0.23531446 0.13356897 -0.14607978 -0.27435225 -0.1466558 -0.045730222 -0.49829772
0.20505843 -0.8041304 -0.17074308 -0.15613413 0.18576574 -0.15161373 0.12520304 0.13961083
0.06151284 -0.013181088 0.016000442 -0.03674594 0.112440415 -0.21798906 0.14651398 0.24427113
0.23543341 0.62825584 -0.005607974 -0.6721317 -0.073179215 -0.10306847 -0.08306831 -0.36771217
-0.8795497 0.20073326 -0.16324693 0.4082325 0.22060426 0.62477964 -0.45074552 0.3952101
0.11744902 0.18402511 -0.6126039 0.005263377 -0.0015465631 0.29786733 0.5053246 -0.07653676
0.28442118 0.0028112256 0.39305398 -0.33659014 0.32356182 -0.10386607 0.47705197 -0.50415736
-0.11704337 -0.08533667 -0.04409331 -0.0023814335 -0.09284436 -0.10527495 -0.4832211 0.3486339
0.011019811 0.49172378 0.07717103 -0.17788865 0.13417305 -0.35150662 0.2962321 0.45595476
0.06782451 0.46855125 0.2059581 -0.0041375663 0.14796665 0.64509314 0.015423753 -0.26794314
00000000: 88e9 4cbe db66 5bbe 2028 5ebd e77a 33bd
00000010: d7b4 013f 75e5 9b3e d5f3 ea3e 9985 bf3e
00000020: c91f 973d b6ed 1c3e ce9a 593d cb4f b3be
00000030: 4cde b4be bee6 fabc 98dc 35bd a889 7dbd
00000040: 70e8 81bd 0694 0abe 6c26 14be 3b0b 9ebd
00000050: a804 b6be ab55 40bd ff4d 373e 40c3 c2be
00000060: bb05 6bbe f6b7 cb3e a254 a33e 262c a93e
00000070: 1e5c d03e 0013 d3bc 9a81 a1bd 3314 ae3e
00000080: 2e59 9a3e 37af 07be aa9e d33e a2c8 a6bd
00000090: 7860 44bf 2505 6c3c f665 2a3d 065c b83e
000000a0: c10c 21be 4be0 9dbe 7f89 a5be e5fc 183f
000000b0: 2b88 41bd 63b2 d4be 5aa9 273e 8d86 10bf
000000c0: a8cd 4cbe d8ab 43be 46f7 42be a76b ef3e
000000d0: 889e 3b3f 90c2 dc3e 9590 3b3c f785 313e
000000e0: 624a 14be cebe 8dbe a44f 9f3e c31e 253e
000000f0: 2ee2 9b3e 1a7e ea3d 7694 bc3e e353 b23e
00000100: 5599 59bc 46f6 70be 4ec6 083e f095 15be
00000110: e677 8cbe f02c 16be 9d4f 3bbd e120 ffbe
00000120: d6fa 513e 7ddb 4dbf 46d7 2ebe a0e1 1fbe
00000130: 6039 3e3e a140 1bbe 3a35 003e 24f6 0e3e
00000140: e3f4 7b3d 7df5 57bc 5c13 833c e982 16bd
00000150: 2947 e63d 8638 5fbe c307 163e 3622 7a3e
00000160: 7515 713e 60d5 203f 18c3 b7bb d310 2cbf
00000170: fcde 95bd 9015 d3bd b81f aabd c544 bcbe
00000180: 2b2a 61bf 058d 4d3e 342a 27be da03 d13e
00000190: 15e6 613e 8ff1 1f3f 1ec8 e6be fa58 ca3e
000001a0: 1d89 f03d 1471 3c3e 9cd3 1cbf 6878 ac3b
000001b0: 0cb6 caba 1182 983e f45c 013f 4ebf 9cbd
000001c0: a79f 913e 8a3c 383b 5f3e c93e 8b55 acbe
000001d0: e5a9 a53e bcb7 d4bd 2840 f43e 7510 01bf
000001e0: 6fb4 efbd fec4 aebd 309b 34bd d311 1cbb
000001f0: 2f25 bebd 659a d7bd c268 f7be 2480 b23e
00000200: 708c 343c 38c3 fb3e d80b 9e3d 7128 36be
00000210: a964 093e adf8 b3be bcab 973e e772 e93e
00000220: 94e7 8a3d f3e5 ef3e aee6 523e 6c94 87bb
00000230: 9284 173e d324 253f e9b3 7c3c d82f 89be

player_tree_3.W_self.bias f4 [12]
-0.0017887796 -0.022002857 -0.0038852629 -0.017650932 -0.004613955 -0.047213875 -0.058569737 -0.11223872
-0.005807592 -0.008763859 -0.013707003 -0.0035163604
00000000: 7c75 eaba 563f b4bc e59f 7ebb b098 90bc
00000010: a930 97bb 5663 41bd d2e6 6fbd 6add e5bd
00000020: 9d4d bebb 4a96 0fbc 5693 60bc bd72 66bb

player_tree_4.weight f4 [8, 12]
0.31529024 -0.17524625 0.10254216 0.18293749 0.006896037 -0.26264432 -0.72793394 -0.26811182
0.38994965 0.14487262 -0.1138325 1.0242323 0.17229041 0.24120958 0.28319672 0.22243491
0.09515316 0.061736885 -0.72640944 -0.17217161 0.15283416 -0.18118273 -0.043955408 0.58467007
-0.034234863 0.04991611 -0.6701866 0.43329018 -0.54091 0.50651103 0.4167161 -0.40124226
0.5317552 -0.09853421 -0.13094732 -0.020622239 0.07494234 0.016024021 -0.19765767 -0.41209617
-0.13971782 -0.16605404 -0.23461658 0.28312135 -0.27392858 -0.4059466 0.025072196 0.18148802
0.007974353 0.10954484 0.40765005 0.2242171 -0.35832807 -0.23111376 -0.22519368 0.31274292
0.043256693 -0.28744698 0.1033032 0.1030072 0.7864134 -0.36805898 0.48358044 -0.47481713
0.725504 -0.13094857 -0.26620427 -0.3211248 0.46547106 0.67028934 0.18679756 -0.030984176
0.05344994 0.12547395 -0.10670577 0.24567378 0.43070686 0.21344055 0.22393954 0.17290348
-0.20002691 0.004643287 -0.35370654 0.14646545 -0.0878163 -0.117228374 0.26336727 -0.26670507
-0.42577088 0.0048457272 0.1918149 0.4360701 -0.11190776 -0.2949714 -0.4535459 0.7455598
00000000: b96d a13e c173 33be a001 d23d f753 3b3e
00000010: 27f8 e13b 5179 86be e159 3abf f445 89be
00000020: 7ba7 c73e 7d59 143e 0421 e9bd 0b1a 833f
00000030: e66c 303e a5ff 763e 29ff 903e fac5 633e
00000040: a9df c23d d1df 7c3d f8f5 39bf c14d 30be
00000050: 8f80 1c3e f787 39be 960a 34bd f0ac 153f
00000060: db39 0cbd d674 4c3d 5991 2bbf 36d8 dd3e
00000070: 1479 0abf b5aa 013f d05b d53e a06f cdbe
00000080: 1c21 083f 4ecc c9bd 0e17 06be f8ef a8bc
00000090: 5f7b 993d cf44 833c c666 4abe 45fe d2be
000000a0: 3012 0fbe 120a 2abe 543f 70be 48f5 903e
000000b0: 5e40 8cbe 3cd8 cfbe 3564 cd3c ffd7 393e
000000c0: dca6 023c 0c59 e03d 82b7 d03e 2b99 653e
000000d0: c776 b7be 16a9 6cbe 2c99 66be d71f a03e
000000e0: ee2d 313d 402c 93be a190 d33d 70f5 d23d
000000f0: 6352 493f 3a72 bcbe db97 f73e 3b1b f3be
00000100: a1ba 393f 6217 06be ed4b 88be 786a a4be
00000110: 3952 ee3e 1598 2b3f dc47 3f3e 87d2 fdbc
00000120: 53ee 5a3d 3e7c 003e 8e88 dabd e891 7b3e
00000130: 9c85 dc3e 2990 5a3e 6850 653e 9c0d 313e
00000140: dbd3 4cbe b726 983b 0619 b5be 0afb 153e
00000150: 08d9 b3bd 6e15 f0bd 13d8 863e 918d 88be
00000160: a4fe d9be e8c8 9e3b 206b 443e 9544 df3e
00000170: e52f e5bd 7e06 97be 2b37 e8be 02dd 3e3f

player_tree_4.bias f4 [8]
0.003159179 0.026287058 0.0002464311 0.0049051703 -0.015523225 -0.0022786015 -0.009436511 -0.008927468
00000000: 3a0a 4f3b f557 d73c 6c33 8139 8dbb a03b
00000010: 2055 7ebc 9754 15bb 999b 1abc 8444 12bc

sun_influence_1.W.weight f4 [12, 12]
-0.4772727 -0.2026398 -0.33755797 0.26927775 -0.17054163 0.34725678 -0.32571527 0.014504533
0.18213952 -0.13522944 0.12704736 0.41041934 0.40932018 0.07515471 -0.37687054 0.17592071
0.18788588 -0.014420027 0.003949865 0.21389104 0.48213816 -0.062355388 -0.37199545 0.13671462
-0.04337991 -0.59021527 0.39593187 -0.18084884 -0.28780347 -0.2862278 0.39636675 -0.16437677
-0.21133816 0.1999095 -0.88256454 -0.2032299 -0.1814492 0.37630957 -0.05413018 -0.012287841
0.22616878 0.07406398 -0.060865615 0.16567855 -0.13008426 -0.28061178 0.14817756 -0.12757607
-0.3163823 -0.1670514 0.20687611 -0.2502596 0.23566863 0.35662386 -0.11175056 0.3888121
-0.2624932 0.1901167 0.057787217 -0.32367963 -0.07538736 0.32199016 -0.19775708 0.17208134
0.024342505 -0.58875203 -0.29219556 -0.09558527 -0.2172622 0.28025222 0.2627017 -0.34309
-0.37848982 0.043490723 0.10768693 -0.2508268 -0.11835651 0.1445043 0.10476643 0.0037151156
0.3711275 0.117195286 -0.02170724 0.38879618 0.07066205 -0.6749161 0.11911626 0.26758435
0.74533266 -0.023142776 -0.45143488 -0.1854333 0.028073069 -0.27007288 0.2798326 -0.5042853
-0.08056179 -0.26942265 0.35887268 -0.10803448 -0.2568447 -0.27447554 0.6865453 -0.4941569
0.025820522 0.18218713 0.0136983525 -0.01866221 0.11546125 0.08876801 0.1751081 0.16476586
-0.123456046 0.24986006 -0.22805382 0.34894472 -0.3343607 0.47159648 0.5399169 -0.34431064
0.40108398 -0.1774292 0.029461486 -0.0748079 0.18759559 0.33075386 -0.073838964 0.5113526
0.31035554 -0.01253415 0.07863317 -0.0040837363 -0.06724987 0.18718123 0.16250981 0.020585459
0.44854242 0.05188313 -0.4225453 0.12572132 -0.003865689 0.27154452 -0.34993514 -0.24116458
00000000: 165d f4be cf80 4fbe 66d4 acbe c6de 893e
00000010: 77a2 2ebe a4cb b13e 27c4 a6be 6ca4 6d3c
00000020: c882 3a3e 9679 0abe b418 023e 7c22 d23e
00000030: 6a92 d13e b6ea 993d 2df5 c0be 8f24 343e
00000040: 2865 403e fa41 6cbc de6d 813b 4106 5b3e
00000050: d0da f63e 5d68 7fbd 3076 bebe ebfe 0b3e
00000060: 22af 31bd 5918 17bf 95b7 ca3e 7030 39be
00000070: fa5a 93be 738c 92be 95f0 ca3e 6252 28be
00000080: 0869 58be 13b5 4c3e c0ef 61bf 801b 50be
00000090: d2cd 39be a6ab c03e 9cb7 5dbd f152 49bc
000000a0: ca98 673e dbae 973d 394e 79bd a3a7 293e
000000b0: cf34 05be 59ac 8fbe dcbb 173e 4da3 02be
000000c0: dcfc a1be 860f 2bbe 55d7 533e 0722 80be
000000d0: 1e53 713e 6797 b63e 7add e4bd 6112 c73e
000000e0: 8265 86be f4ad 423e 4ab2 6c3d 56b9 a5be
000000f0: b064 9abd e5db a43e d580 4abe 1736 303e
00000100: ef69 c73c 74b8 16bf a89a 95be 36c2 c3bd
00000110: fb79 5ebe 387d 8f3e d680 863e 7ea9 afbe
00000120: 6bc9 c1be 5423 323d f78a dc3d 5f6c 80be
00000130: e664 f2bd eff8 133e c88f d63d 4c79 733b
00000140: 6c04 be3e 1504 f03d 62d3 b1bc 4b10 c73e
00000150: 44b7 903d 4dc7 2cbf 3af3 f33d d100 893e
00000160: 1fce 3e3f eb95 bdbc 7922 e7be 3ae2 3dbe
00000170: 7ef9 e53c fe46 8abe 3846 8f3e d718 01bf
00000180: 94fd a4bd c4f1 89be 29be b73e 2e41 ddbd
00000190: 2681 83be 0f88 8cbe 6fc1 2f3f 2202 fdbe
000001a0: 8f85 d33c 438f 3a3e 0e6f 603c 7ee1 98bc
000001b0: f376 ec3d 01cc b53d 8a4f 333e 62b8 283e
000001c0: 86d6 fcbd 51db 7f3e f186 69be e2a8 b23e
000001d0: 5331 abbe 1875 f13e fe37 0a3f 7c49 b0be
000001e0: e15a cd3e 00b0 35be 3759 f13c e234 99bd
000001f0: 0f19 403e 9258 a93e e238 97bd 01e8 023f
00000200: ece6 9e3e 095c 4dbc 6d0a a13d ddd0 85bb
00000210: 4dba 89bd 70ac 3f3e f968 263e d6a2 a83c
00000220: 5aa7 e53e 6883 543d dc57 d8be 17bd 003e
00000230: 8057 7dbb e207 8b3e b32a b3be d9f3 76be

sun_influence_1.W.bias f4 [12]
0.00929707 -0.0075572343 -0.0012974131 0.00015567213 0.001329453 -0.05508774 -0.075994395 0.003660004
-0.0042566797 -0.00908116 0.001960646 -0.00562259
00000000: bd52 183c ada2 f7bb f60d aaba eb3b 2339
00000010: 0a41 ae3a afa3 61bd f3a2 9bbd addc 6f3b
00000020: 9e7b 8bbb 25c9 14bc 2e7e 003b b43d b8bb

sun_influence_1.W_self.weight f4 [12, 12]
-0.22599994 -0.29518571 -0.2511632 -0.15177475 -0.2588711 0.07312688 0.082506284 -0.07575932
0.2707095 0.22220878 -0.012864721 -0.10081311 -0.4146685 -0.2034328 -0.48607582 0.85056174
0.23945054 0.17238541 0.47886583 -0.11530187 -0.2100628 -0.28040078 0.038885895 -0.44667596
0.26645526 0.57923466 0.29494822 0.027807392 0.3430767 -0.15530455 -0.5471811 -0.4940296
0.29092303 -0.04978135 0.22862121 0.11127446 -0.3316153 0.22095825 -0.0071353856 0.33247563
-0.27367827 -0.0039138542 -0.04039374 0.29030424 0.43389764 -0.08391458 -0.14673747 0.65635234
-0.2190417 0.28477475 0.24426347 0.20488699 0.08369321 0.52290446 -0.0011297651 0.22174293
0.5645485 0.28272906 -0.4638102 0.03984482 0.35645238 -0.10560638 0.026179291 -0.39965364
-0.20781076 0.20516853 0.16542616 0.31472525 -0.46715602 -0.06303343 0.20295587 -0.26474112
-0.21324652 0.3857292 -0.5099501 0.16355716 -0.30845997 0.106781155 0.20381644 -0.06817824
0.31389496 0.35424492 0.23177974 -0.106055655 -0.27524105 0.23335579 -0.24079183 0.050472744
-0.22152235 0.2112852 0.4059746 0.084870845 0.31891805 0.011162136 -0.16076957 0.24049506
-0.042219684 -0.19053878 0.6360557 0.18207563 0.026819173 0.0717207 -0.09452096 -0.2002691
-0.43766412 0.014705414 0.38002712 0.44074067 0.045363113 0.7894112 0.24439093 0.21197611
-0.43169388 -0.33843833 -0.036891058 0.28826967 -0.625476 -0.4102272 0.03177757 -0.386199
-0.09884344 -0.12919039 0.1403936 0.1523034 0.3858196 0.17457862 -0.34440336 0.4563074
-0.2560859 0.20943394 0.26495492 0.26192215 0.09401688 -0.2698067 -0.34113693 0.36465663
-0.28179964 -0.08762505 -0.39064667 -0.5124977 0.2669025 0.34498337 0.10842436 -0.032106698
00000000: 876c 67be 9522 97be 7798 80be d76a 1bbe
00000010: c18a 84be 8cc3 953d 0ef9 a83d b427 9bbd
00000020: 709a 8a3e b38a 633e 8dc6 52bc 1b77 cebd
00000030: 6e4f d4be b050 50be eede f8be 6abe 593f
00000040: 8632 753e cd85 303e e72d f53e 6323 ecbd
00000050: b41a 57be b190 8fbe d146 1f3d b6b2 e4be
00000060: d36c 883e b948 143f 7403 973e 54cc e33c
00000070: c0a7 af3e 2808 1fbe 1014 0cbf 73f1 fcbe
00000080: ddf3 943e 87e7 4bbd ae1b 6a3e dde3 e33d
00000090: 7bc9 a9be e142 623e f4cf e9bb 3f3a aa3e
000000a0: 8f1f 8cbe ca3f 80bb e873 25bd c2a2 943e
000000b0: d527 de3e 68db abbd 5942 16be b506 283f
000000c0: 784c 60be ffcd 913e 3420 7a3e e5cd 513e
000000d0: 5867 ab3d 11dd 053f a014 94ba 9410 633e
000000e0: 4086 103f ddc1 903e 8878 edbe 5234 233d
000000f0: ed80 b63e 2848 d8bd f475 d63c 679f ccbe
00000100: 58cc 54be b317 523e 7a65 293e ab23 a13e
00000110: 132f efbe ac17 81bd aad3 4f3e 268c 87be
00000120: 4c5d 5abe 4c7e c53e 178c 02bf 877b 273e
00000130: 77ee 9dbe 14b0 da3d 42b5 503e 08a1 8bbd
00000140: d7b6 a03e 975f b53e ab57 6d3e b533 d9bd
00000150: 65ec 8cbe d2f4 6e3e 2292 76be 82bc 4e3d
00000160: c1d6 62be 265b 583e e7db cf3e c4d0 ad3d
00000170: 3a49 a33e 64e1 363c c7a0 24be 5644 763e
00000180: 8cee 2cbd 991c 43be 8cd4 223f 0972 3a3e
00000190: e2b3 db3c 4de2 923d 3494 c1bd 5813 4dbe
000001a0: 8315 e0be faee 703c ea92 c23e c3a8 e13e
000001b0: acce 393d da16 4a3f 9e41 7a3e 4410 593e
000001c0: fb06 ddbe ca47 adbe 141b 17bd 1598 933e
000001d0: 321f 20bf 4d09 d2be 3229 023d e0bb c5be
000001e0: 6e6e cabd 7c4a 04be 57c3 0f3e 6cf5 1b3e
000001f0: 268a c53e bdc4 323e a355 b0be 20a1 e93e
00000200: b11d 83be da75 563e 2ca8 873e a91a 863e
00000210: ec8b c03d 1b24 8abe 80a9 aebe 46b4 ba3e
00000220: 0b48 90be c374 b3bd d702 c8be 0d33 03bf
00000230: 72a7 883e a9a1 b03e 970d de3d 5082 03bd

sun_influence_1.W_self.bias f4 [12]
0.00929707 -0.0075572343 -0.0012974131 0.00015567213 0.001329453 -0.05508774 -0.075994395 0.003660004
-0.0042566797 -0.00908116 0.001960646 -0.00562259
00000000: bd52 183c ada2 f7bb f60d aaba eb3b 2339
00000010: 0a41 ae3a afa3 61bd f3a2 9bbd addc 6f3b
00000020: 9e7b 8bbb 25c9 14bc 2e7e 003b b43d b8bb

sun_influence_2.W.weight f4 [12, 12]
-0.11546395 0.28412184 0.044569124 -0.003836011 0.20040001 -0.07447681 -0.31292394 0.26646996
-0.096649475 0.29075482 -0.13452742 0.11864578 -0.12430194 0.7453992 0.3986996 0.23320247
-0.13316673 0.5171896 0.38095564 -0.17587918 0.003136214 -0.30430984 0.3923689 0.034466695
-0.24669538 0.27643743 -0.17513096 0.28104904 -0.22815606 -0.20142898 -0.15152878 0.11421402
0.72897524 0.00468836 0.11914987 -0.02635213 -0.32331324 -0.28717378 0.31425425 0.17805348
0.026594646 -0.35391542 0.30317092 -0.17923462 0.07190163 -0.036104456 0.062467806 -0.28240022
0.00529399 0.54387367 -0.3524338 -0.27805558 -0.2969883 -0.4159113 -0.27251005 -0.38739324
0.10388233 0.31113175 -0.239377 -0.43203875 -0.16032079 -0.28202415 0.025415247 0.035993855
0.100624256 -0.6331923 -0.14466758 0.20665559 0.16412924 -0.23443358 0.018419642 0.09590413
-0.15925565 0.55662674 -0.31674924 -0.21269451 0.1608125 -0.014344597 0.17348975 0.10751558
0.044161655 -0.34079373 -0.29418486 0.007286664 -0.23251647 -0.029275283 0.3420944 0.059879743
0.08365755 0.21392813 0.031363383 0.18459442 -0.5400549 -0.19956209 -0.047158856 0.08478836
-0.43098095 -0.40020317 -0.036868785 0.22500846 0.13415517 -0.6073672 0.33459136 -0.41623855
0.2584876 0.1728712 -0.5209489 -0.017141372 -0.6275789 0.11685975 -0.187699 -0.50753593
-0.20246133 -0.61656606 -0.24829493 -0.30854192 -0.020281006 -0.0077465074 -0.0072608795 -0.36905578
0.3807663 0.5564575 -0.32563415 -0.10532561 0.3139805 -0.06144145 0.06534756 -0.6530392
-0.3036031 -0.10752282 -0.3138883 0.01393573 -0.22625604 -0.053105216 -0.032679327 -0.261059
-0.22998093 0.4359138 0.095136516 -0.38009575 0.2184052 0.11947541 0.34618968 0.41062212
00000000: 5d78 ecbd 6b78 913e 1d8e 363d 9665 7bbb
00000010: a935 4d3e 4c87 98bd 9137 a0be c06e 883e
00000020: 29f0 c5bd d1dd 943e 8ec1 09be 8ffc f23d
00000030: 0492 febd 7bd2 3e3f 5b22 cc3e a1cc 6e3e
00000040: dc5c 08be 8a66 043f 9e0c c33e ac19 34be
00000050: f188 4d3b 80ce 9bbe 94e4 c83e f32c 0d3d
00000060: b79d 7cbe 3589 8d3e 8855 33be a9e5 8f3e
00000070: bea1 69be 6643 4ebe 5c2a 1bbe 0ae9 e93d
00000080: 1f9e 3a3f d0a0 993b d904 f43d 6ce0 d7bc
00000090: 5089 a5be 7108 93be efe5 a03e a753 363e
000000a0: 04dd d93c 6734 b5be 3839 9b3e 4889 37be
000000b0: 2941 933d 44e2 13bd 3ede 7f3d c396 90be
000000c0: 3579 ad3b 4e3b 0b3f 3472 b4be 4d5d 8ebe
000000d0: da0e 98be 53f2 d4be 7086 8bbe 6858 c6be
000000e0: 42c0 d43d a94c 9f3e 3f1f 75be 2f34 ddbe
000000f0: 222b 24be 7865 90be a333 d03c 4b6e 133d
00000100: 1714 ce3d e418 22bf bd23 14be 869d 533e
00000110: 7f11 283e 5b0f 70be cae4 963c 6269 c43d
00000120: ea13 23be 177f 0e3f f52c a2be 97cc 59be
00000130: 08ac 243e 9a05 6bbc 4ca7 313e 2131 dc3d
00000140: dae2 343d 847c aebe 669f 96be f8c4 ee3b
00000150: cc18 6ebe b8d2 efbc ff26 af3e 7644 753d
00000160: a654 ab3d fa0f 5b3e e476 003d 5206 3d3e
00000170: 0a41 0abf 015a 4cbe a529 41bd 85a5 ad3d
00000180: 89a9 dcbe 6ee7 ccbe b903 17bd 9e68 663e
00000190: f95f 093e 6b7c 1bbf 8f4f ab3e 381d d5be
000001a0: 7d58 843e 2605 313e e85c 05bf 106c 8cbc
000001b0: 03a9 20bf 2a54 ef3d 2b34 40be e0ed 01bf
000001c0: 0652 4fbe 46d7 1dbf 0741 7ebe 35f9 9dbe
000001d0: 5a24 a6bc 6ad6 fdbb acec edbb e1f4 bcbe
000001e0: cdf3 c23e 0074 0e3f 85b9 a6be f4b4 d7bd
000001f0: 0dc2 a03e 08aa 7bbd f1d4 853d 942d 27bf
00000200: de71 9bbe ed34 dcbd f8b5 a0be b052 643c
00000210: aaaf 67be db84 59bd c2da 05bd 86a9 85be
00000220: 1f80 6bbe 1830 df3e efd6 c23d e99b c2be
00000230: 9da5 5f3e 86af f43d c63f b13e 103d d23e

sun_influence_2.W.bias f4 [12]
-0.004616522 -0.009616084 -0.005417347 0.010610456 -0.02605793 -0.00943367 -0.0016639574 0.0011219163
-0.03183971 -0.033217803 -0.005292384 -0.041047405
00000000: 3246 97bb c88c 1dbc 0084 b1bb 7ad7 2d3c
00000010: 7177 d5bc ae8f 1abc 2519 daba 440d 933a
00000020: 5b6a 02bd 640f 08bd bc6b adbb 5321 28bd

sun_influence_2.W_self.weight f4 [12, 12]
-0.11639661 0.10143951 -0.24670358 0.6568999 -0.4412052 -0.3487559 -0.016185325 0.12678471
-0.061220996 0.5289422 0.23206124 0.04991586 0.060658753 0.24254356 0.39874443 0.37447026
0.4038168 0.1959719 -0.026183983 0.16481924 -0.25319538 0.1853376 0.3185484 0.23313719
-0.17034036 0.026848575 0.05325313 -0.46545836 0.20038871 0.037258014 0.2444916 0.43517086
-0.21426384 -0.19329184 -0.020389393 0.08928382 -0.8156712 -0.1493221 0.20251362 0.4293148
0.51032615 -0.1026741 -0.6746941 -0.38380614 0.4459184 0.301909 0.5303394 0.0030918405
0.098074555 0.4958248 -0.1376754 0.08670183 0.30921102 -0.11999096 -0.08472575 -0.27466545
-0.17298195 -0.13931404 -0.24498226 -0.3828229 0.5822269 0.4978289 0.06876013 0.41114822
0.4059803 0.22200404 0.20423225 -0.2811407 0.25207 -0.06442463 1.0416538 -0.28630465
0.28908446 -0.060082655 -0.005678736 0.30901584 0.022799436 -0.20809416 -0.20437716 -0.011026621
-0.3021015 0.22133973 -0.3413176 0.58806884 -0.14498535 0.026875837 -0.30305505 -0.19438148
0.15023755 0.2903346 -0.5372801 0.2631702 -0.45309862 -0.19746783 0.5335252 -0.51246816
-0.83303356 0.064804174 -0.038100407 -0.0047995984 0.08942472 -0.0785488 0.2637666 0.022535997
0.2446675 0.16781273 0.13475324 0.016834322 -0.32908314 -0.23131628 -0.27992293 0.15724112
-0.108152114 -0.40098277 -0.107451156 -0.13895303 0.062406816 0.35763127 0.21569376 -0.4935768
0.31275946 -0.16559796 -0.036093373 -0.018264864 -0.34314033 -0.17638768 0.34983376 -0.27147987
-0.08757773 -0.5735755 0.318068 -0.16992342 -0.020461176 -0.040972974 0.03939862 -0.8061064
0.5581903 -0.26493698 -0.20111941 0.5660849 0.4569641 -0.023910537 0.3249995 -0.42427647
00000000: 5961 eebd 85bf cf3d dd9f 7cbe 982a 283f
00000010: a6e5 e1be 2290 b2be 1697 84bc dad3 013e
00000020: dec2 7abd c268 073f 76a1 6d3e 9374 4c3d
00000030: 5075 783d 575d 783e 3b28 cc3e 91ba bf3e
00000040: 13c1 ce3e dcac 483e cb7f d6bc 60c6 283e
00000050: d3a2 81be 24c9 3d3e c718 a33e 84bb 6e3e
00000060: b46d 2ebe 8bf1 db3c f41f 5a3d 8f50 eebe
00000070: b332 4d3e dc9b 183d 025c 7a3e b7ce de3e
00000080: fb67 5bbe 4cee 45be a807 a7bc 6fda b63d
00000090: d4cf 50bf e5e7 18be bb5f 4f3e 26cf db3e
000000a0: bca4 023f cc46 d2bd c1b8 2cbf 3d82 c4be
000000b0: 6b4f e43e d193 9a3e 53c4 073f 7aa0 4a3b
000000c0: 50db c83d c0dc fd3e c8fa 0cbe bb90 b13d
000000d0: e850 9e3e d2bd f5bd b284 adbd f3a0 8cbe
000000e0: 2e22 31be 57a8 0ebe a1dc 7abe 5d01 c4be
000000f0: d20c 153f 6ee3 fe3e 1cd2 8c3d 0582 d23e
00000100: a6dc cf3e 0755 633e 4222 513e adf1 8fbe
00000110: 520f 813e 0ff1 83bd e954 853f 8696 92be
00000120: e102 943e 3b19 76bd b114 babb 5337 9e3e
00000130: e2c5 ba3c a316 55be 3f48 51be 00a9 34bc
00000140: 0cad 9abe e2a6 623e 2ec1 aebe ae8b 163f
00000150: 0a77 14be b72a dc3c 082a 9bbe f00b 47be
00000160: dfd7 193e bda6 943e 308b 09bf 3fbe 863e
00000170: 8bfc e7be 0235 4abe 1c95 083f 1d31 03bf
00000180: b041 55bf 0db8 843d 2c0f 1cbd f345 9dbb
00000190: 4f24 b73d 31de a0bd 6a0c 873e 699d b83c
000001a0: 1e8a 7a3e 1ad7 2b3e c1fc 093e 22e8 893c
000001b0: 967d a8be 2dde 6cbe 0f52 8fbe d103 213e
000001c0: db7e ddbd 9d4d cdbe 5a0f dcbd b449 0ebe
000001d0: 4a9e 7f3d 721b b73e d3de 5c3e 19b6 fcbe
000001e0: 0222 a03e 8392 29be a5d6 13bd 32a0 95bc
000001f0: 17b0 afbe f99e 34be 691d b33e 69ff 8abe
00000200: f45b b3bd d8d5 12bf cfd9 a23e 6800 2ebe
00000210: 329e a7bc 47d3 27bd 7360 213d fd5c 4ebf
00000220: 8fe5 0e3f d2a5 87be 3ff2 4dbe f1ea 103f
00000230: 33f7 e93e 08e0 c3bc 5666 a63e c43a d9be

sun_influence_2.W_self.bias f4 [12]
-0.004616522 -0.009616084 -0.005417347 0.010610456 -0.02605793 -0.00943367 -0.0016639574 0.0011219163
-0.03183971 -0.033217803 -0.005292384 -0.041047405
00000000: 3246 97bb c88c 1dbc 0084 b1bb 7ad7 2d3c
00000010: 7177 d5bc ae8f 1abc 2519 daba 440d 933a
00000020: 5b6a 02bd 640f 08bd bc6b adbb 5321 28bd

sun_influence_3.W.weight f4 [12, 12]
-0.2090345 0.044740353 0.07284097 -0.22187509 -0.12614197 -0.18890661 0.10775872 -0.46827233
-0.0076647885 -0.024423232 -0.16171762 -0.16154215 0.18325795 -0.091738544 -0.5100831 0.19284233
-0.1571049 0.340669 0.32120517 0.08853856 -0.18417478 -0.2968597 -0.030942693 -0.029240234
-0.37186006 0.007646121 -0.17762409 -0.035943434 0.17480753 0.022229167 -0.12778477 0.17365071
0.072219074 -0.34517306 -0.0146365315 -0.20408699 0.117552176 0.2359228 -0.12258008 -0.15913357
-0.055340327 -0.05579492 0.3202263 -0.5254959 0.1314849 0.09948796 0.041293353 -0.47812086
0.2671936 -0.3814092 0.08788705 -0.073063165 -0.39554846 0.013321302 -0.26076046 0.49997365
-0.054924462 0.37400287 0.26502824 0.29354557 0.22279978 -0.26405483 0.39928064 -0.024151256
0.048446346 0.17022918 0.20959912 0.27673578 -0.29619747 -0.036612872 -0.07456814 -0.1853665
-0.121477656 0.48386303 0.035090502 0.26818067 0.36387902 0.5916336 0.26482588 0.2904008
-0.08786491 -0.2159173 -0.016213544 -0.31567794 0.06267567 -0.1747058 -0.39926657 -0.16761741
-0.019740906 -0.32534522 0.058950324 -0.18720198 -0.2806222 0.10421703 0.13435173 -0.2981098
0.11709314 -0.43696323 0.0975349 -0.5060393 -0.14670216 0.0037863983 -0.012311056 0.55849034
0.024160452 -0.16103415 0.2695031 -0.07372315 -0.13023171 -0.28182393 0.041072495 -0.19080313
0.04808797 -0.5511463 -0.35186845 0.048919912 0.38318968 0.31964907 -0.13803777 -0.24936314
0.4188529 -0.08682941 -0.017605416 0.40340966 -0.08282496 -0.28380123 -0.332822 0.3668755
-0.07702243 -0.15918103 -0.00038197436 0.35635522 -0.06467847 0.25559834 0.2936674 0.047229424
-0.09525322 -0.10323041 0.33092147 -0.27180016 -0.0712726 -0.13329224 -0.5767894 0.3288535
00000000: 240d 56be a941 373d a52d 953d 3933 63be
00000010: 5c2b 01be bc70 41be 9bb0 dc3d 64c1 efbe
00000020: e828 fbbb 3b13 c8bc 4e99 25be 4e6b 25be
00000030: f9a7 3b3e 6be1 bbbd ce94 02bf 7678 453e
00000040: 1be0 20be 2b6c ae3e 0175 a43e b453 b53d
00000050: 5098 3cbe fffd 97be 887b fdbc 3789 efbc
00000060: 7164 bebe 508c fa3b 17e3 35be 6c39 13bd
00000070: bf00 333e f119 b63c 03da 02be 7ed1 313e
00000080: 98e7 933d 86ba b0be 10ce 6fbc 2efc 50be
00000090: 32bf f03d bf95 713e 440b fbbd e9f3 22be
000000a0: 8aac 62bd 3789 64bd b4f4 a33e e686 06bf
000000b0: faa3 063e 58c0 cb3d 3823 293d 42cc f4be
000000c0: 99cd 883e 1148 c3be 20fe b33d 24a2 95bd
000000d0: 5485 cabe 9741 5a3c 6582 85be 8cfc ff3e
000000e0: 79f8 60bd 4e7d bf3e c8b1 873e 9b4b 963e
000000f0: a025 643e 3232 87be 836e cc3e dbd8 c5bc
00000100: ad6f 463d 8f50 2e3e 27a1 563e 50b0 8d3e
00000110: 32a7 97be 61f7 15bd 2eb7 98bd b7d0 3dbe
00000120: 47c9 f8bd e5bc f73e 0fbb 0f3d fa4e 893e
00000130: 5a4e ba3e 4d75 173f 4297 873e 6aaf 943e
00000140: 85f2 b3bd 6d19 5dbe 44d2 84bc 8aa0 a1be
00000150: 1a5c 803d 14e6 32be ab6c ccbe e6a3 2bbe
00000160: aeb7 a1bc a693 a6be e575 713d e0b1 3fbe
00000170: b7ad 8fbe bd6f d53d 8093 093e d9a1 98be
00000180: 87ce ef3d a5b9 dfbe 61c0 c73d cb8b 01bf
00000190: 1739 16be 3925 783b 50b4 49bc 39f9 0e3f
000001a0: 24ec c53c 23e6 24be 4ffc 893e 2afc 96bd
000001b0: 765b 05be 3a4b 90be a23b 283d e561 43be
000001c0: e4f7 443d ed17 0dbf 1a28 b4be 3f60 483d
000001d0: 7031 c43e 0ba9 a33e c659 0dbe 0d59 7fbe
000001e0: e373 d63e 9ed3 b1bd 3c39 90bc b68b ce3e
000001f0: 22a0 a9bd 654e 91be a567 aabe 1bd7 bb3e
00000200: f0bd 9dbd 5a00 23be bb43 c8b9 3174 b63e
00000210: 2576 84bd c9dd 823e 935b 963e a473 413d
00000220: 1f14 c3bd 776a d3bd 8a6e a93e 6429 8bbe
00000230: 5ef7 91bd c37d 08be 78a8 13bf 7c5f a83e

sun_influence_3.W.bias f4 [12]
-0.0027002783 -0.008187361 -0.03092044 -0.023099193 -0.0052286377 -0.0061326344 -0.0051607206 -0.006005508
0.0016025818 -0.01614009 -0.008204856 -0.010586315
00000000: 27f7 30bb 4824 06bc dd4c fdbc 853a bdbc
00000010: fe54 abbb 44f4 c8bb 431b a9bb dac9 c4bb
00000020: b90d d23a 3938 84bc a96d 06bc 3972 2dbc

sun_influence_3.W_self.weight f4 [12, 12]
-0.15040441 0.16806968 0.15635502 0.35157374 0.49646702 0.0858078 0.029061317 0.41511407
-0.11153273 -0.12782745 -0.08235862 0.18846163 0.09756159 0.034673605 0.11035008 0.48022133
-0.08818009 -0.21987562 -0.18332724 0.21998133 -0.35045573 0.41061932 -0.20509957 0.2249195
0.077985115 -0.099476464 0.17809273 0.14507438 -0.09802475 0.12709564 -0.38270634 0.20463899
-0.76194745 0.29365167 -0.27511227 -0.011495974 0.22177833 0.2808111 0.3383799 0.23399116
-0.034718357 -0.6564464 -0.08131597 0.07853943 -0.4940754 -0.0511287 0.5553749 -0.09887901
-0.19705977 -0.107130595 -0.020986145 0.66746324 -0.24119791 0.0796271 0.1533728 -0.33818284
-0.26195914 0.34627247 -0.34469667 0.360455 0.18248305 0.09586558 -0.1538841 0.6614851
-0.16103484 0.5453768 0.38115624 0.070955925 -0.009611128 -0.49251345 -0.65802187 0.14596668
-0.23748055 0.25140545 0.57016945 0.2764886 0.121260285 0.08998934 0.47420123 0.24025287
0.081010796 -0.13409054 0.11762013 0.062854595 -0.34510913 -0.13554113 -0.20954554 0.07799584
-0.1735881 -0.07374327 0.33071 -0.052432176 0.025061332 0.18445139 -0.22407408 0.009195081
-0.029077087 -0.76861864 0.23438773 0.21969903 -0.261368 0.72796804 0.21864544 0.086248145
-0.005196584 0.18148954 -0.22304577 0.06799719 -0.19739673 0.24731396 0.25912604 0.04804425
-0.09447078 -0.04387296 -0.14472806 -0.13490632 -0.2927901 -0.029276617 -0.100387484 -0.20172669
0.5873814 0.070668474 -0.089018166 0.6105397 -0.09161201 0.10830201 0.09651794 -0.08432501
0.40662974 0.3241325 0.51716614 -0.4556596 -0.38777438 -0.25543588 -0.43724248 -0.41891584
-0.016398575 0.31088695 -0.34720436 -0.58214396 0.015898246 0.303899 0.32392225 -0.22630227
00000000: 9d03 1abe 751a 2c3e 881b 203e 7901 b43e
00000010: ed30 fe3e 00bc af3d 0012 ee3c d589 d43e
00000020: 466b e4bd 33e5 02be a3ab a8bd 16fc 403e
00000030: 5fce c73d e905 0e3d 39ff e13d 92df f53e
00000040: c397 b4bd 1327 61be 23ba 3bbe c942 613e
00000050: ef6e b3be b23c d23e 9f05 52be 4c51 663e
00000060: a9b6 9f3d 51ba cbbd f15d 363e 618e 143e
00000070: 33c1 c8bd 5c25 023e 16f2 c3be e28c 513e
00000080: fd0e 43bf 8359 963e 84db 8cbe 9c59 3cbc
00000090: dc19 633e 79c6 8f3e 2140 ad3e 619b 6f3e
000000a0: d634 0ebd df0c 28bf fd88 a6bd 48d9 a03d
000000b0: 73f7 fcbe 546c 51bd 0d2d 0e3f 1481 cabd
000000c0: 09ca 49be 4967 dbbd 23eb abbc dfde 2a3f
000000d0: 96fc 76be 8813 a33d c20d 1d3e 4d26 adbe
000000e0: 821f 86be a04a b13e 157c b0be 8f8d b83e
000000f0: d6dc 3a3e 2c55 c43d cb93 1dbe 1657 293f
00000100: 51e6 24be d09d 0b3f e926 c33e 5751 913d
00000110: fe77 1dbc b92a fcbe 1f74 28bf 4a78 153e
00000120: 1a2e 73be 37b8 803e a0f6 113f ea8f 8d3e
00000130: 5057 f83d 554c b83d 81ca f23e d904 763e
00000140: fde8 a53d 084f 09be d3e2 f03d e9b9 803d
00000150: 25b2 b0be 4bcb 0abe 1b93 56be 48bc 9f3d
00000160: 14c1 31be b606 97bd d252 a93e 1fc3 56bd
00000170: 6c4d cd3c d3e0 3c3e ad73 65be f7a6 163c
00000180: 1233 eebc 31c4 44bf 5603 703e c8f8 603e
00000190: 07d2 85be 1d5c 3a3f 97e4 5f3e dea2 b03d
000001a0: 1b48 aabb 65d8 393e 1c66 64be 1c42 8b3d
000001b0: 5e22 4abe df3f 7d3e 2bac 843e 0cca 443d
000001c0: e579 c1bd 22b4 33bd 9833 14be e224 0abe
000001d0: 96e8 95be 84d5 efbc f497 cdbd 7191 4ebe
000001e0: a15e 163f a2ba 903d 284f b6bd 544c 1c3f
000001f0: 149f bbbd 72cd dd3d 33ab c53d 97b2 acbd
00000200: c631 d03e b2f4 a53e 0065 043f 374c e9be
00000210: 5d8a c6be 7ec8 82be 3fde dfbe 237c d6be
00000220: 4e56 86bc 932c 9f3e c5c4 b1be 6307 15bf
00000230: 0a3d 823c a698 9b3e 23d9 a53e c8bb 67be

sun_influence_3.W_self.bias f4 [12]
-0.0027002783 -0.008187361 -0.03092044 -0.023099193 -0.0052286377 -0.0061326344 -0.0051607206 -0.006005508
0.0016025818 -0.01614009 -0.008204856 -0.010586315
00000000: 27f7 30bb 4824 06bc dd4c fdbc 853a bdbc
00000010: fe54 abbb 44f4 c8bb 431b a9bb dac9 c4bb
00000020: b90d d23a 3938 84bc a96d 06bc 3972 2dbc

sun_influence_4.weight f4 [8, 12]
0.25697464 -0.27540493 -0.27372968 0.019326596 -0.6308644 -0.78810424 0.03903848 -0.6634054
-0.25828385 -0.47071862 -0.502045 -0.23290198 -0.41800633 -0.03464013 0.22510584 -0.32219082
-0.40806243 -0.2567215 -0.2888715 -0.1300631 -0.14928672 -0.054436166 -0.1678974 -0.32724625
-0.37193564 -0.7054673 0.2488641 -0.23976056 0.5608131 0.05961777 -0.062154807 0.4137935
0.16039364 -0.14371587 0.53088605 -0.15650776 0.21253802 -0.010260632 0.44447657 -0.55125964
0.15858902 0.48039696 0.07392542 -0.05733023 -0.10823405 0.07378264 -0.19387002 0.40857196
-0.04092727 0.1113131 -0.3458604 -0.41351545 -0.59875005 -0.1776689 -0.24225684 0.055787828
-0.4092911 -0.13655885 -0.120402396 0.63619167 -0.21002941 -0.048820928 0.046922237 -0.15464476
0.75271255 -0.4168141 -0.37205014 -0.16063313 0.13583855 -0.35880122 0.38895902 -0.45750424
-0.01820908 -0.3749952 -0.35408863 0.2721209 0.2830219 -0.6606367 -0.06956955 -0.60859936
-0.120634906 0.09424605 -0.22128004 -0.09516171 0.43598673 -0.0043541947 -0.4765412 0.06353071
-0.48105583 -0.023251265 -0.13762665 0.3603549 -0.17665039 -0.06708934 0.4402706 -0.23150237
00000000: 2e92 833e e001 8dbe 4c26 8cbe cf52 9e3c
00000010: 5480 21bf 33c1 49bf d0e6 1f3d f0d4 29bf
00000020: c83d 84be 0802 f1be 0586 00bf db7d 6ebe
00000030: ed04 d6be cfe2 0dbd 2582 663e 32f6 a4be
00000040: 8fed d0be 0071 83be f7e6 93be 432f 05be
00000050: 9ede 18be 75f8 5ebd 4ced 2bbe d28c a7be
00000060: 596e bebe 8199 34bf 3bd6 7e3e cb83 75be
00000070: 7391 0f3f c331 743d 0a96 7ebd bedc d33e
00000080: 3b3e 243e 412a 13be 26e8 073f 9243 20be
00000090: 91a3 593e 361c 28bc 6f92 e33e 5a1f 0dbf
000000a0: 2965 223e 97f6 f53e 3666 973d 1ad3 6abd
000000b0: d0a9 ddbd 5a1b 973d dd85 46be 5830 d13e
000000c0: 5aa3 27bd 1ff8 e33d 9d14 b1be 4cb8 d3be
000000d0: af47 19bf d6ee 35be 2d12 78be c781 643d
000000e0: 9a8e d1be 15d6 0bbe 8895 f6bd 75dd 223f
000000f0: f311 57be 74f8 47bd 8831 403d 325b 1ebe
00000100: c5b1 403f a868 d5be 5b7d bebe 037d 24be
00000110: 4319 0b3e cbb4 b7be a325 c73e ff3d eabe
00000120: 352b 95bc 5fff bfbe 1b4b b5be 6e53 8b3e
00000130: 3fe8 903e 7d1f 29bf 7b7a 8ebd 2bcd 1bbf
00000140: 6f0f f7bd 1304 c13d 3c97 62be 25e4 c2bd
00000150: a739 df3e a2ad 8ebb 35fd f3be 641c 823d
00000160: f34c f6be 7079 bebc 00ee 0cbe 7080 b83e
00000170: d7e3 34be 2366 89bd 266b e13e f50e 6dbe
