src/Photosynthesis/RL/SavedModels/model_16.pth (torch, 30290 bytes, 34 tensors)

player_tree_1.W.weight f4 [12, 12]
00000000: c2b7 b2bd 9274 f4be db5a ac3e 25df 7bbe
00000010: 1ffc 1a3e 5bdd 8f3e a0c5 083e 6bfe 8f3d
00000020: 5fd0 4a3d 3f18 b13e f729 bf3d 0007 07be
00000030: 5da1 0abe 889a 973e 7363 84be a7ea b9be
00000040: c009 a43e 7189 693d 8b27 2cbd b7a1 083e
00000050: 7267 abbe bf01 263f 8cdd 303f f3b9 79bd
00000060: e9a1 063d fc2d 78be 4367 4a3d aace 8b3e
00000070: 9c2c 8b3e 24fa c63d 56ce fcbc 7406 c93e
00000080: 226d 0b3f 7f13 c93e 3701 a93c 638d 5fbe
00000090: d6a5 eebd 26de cabe 4406 a3bd 06a1 633b
000000a0: a673 48be 21c8 953d 0610 443d cc77 15be
000000b0: 5387 49be 2aff d9bc 86c5 5abf 6f5f 093e
000000c0: a1f1 973d d313 06be 7871 79bd 6e99 6dbe
000000d0: 2d85 87bd 8df1 183f 5961 473e ed5b 55be
000000e0: fc8c cd3e 9f57 9cbd 0cdf 9a3d 67f7 a5bb
000000f0: bb77 b03d ab7c 0a3e 03a3 a3be dd3b 4a3d
00000100: 25ed c9be 5212 afbd 5f91 b0bd 95f4 15bd
00000110: 63ef 6ebe df7b 88ba 2722 82be 3f69 903e
00000120: 00f3 22be ac18 553e 7b15 61be 0758 203e
00000130: 2fd4 403f cc3c 69bd a6d2 273f 043b 8bbe
00000140: 344c 8bbe 6850 88be 8d5f 89be df28 52bd
00000150: ebc1 053f 7cff 873e be7d 2b3c a164 0bbe
00000160: b9a0 b13d 8643 aebe dfec f6be f27d 0fbe
00000170: f6e2 9fbe f30e aa3e 41ff d33e 9d64 6ebd
00000180: 1ed0 c63d bf5a 63be d055 ccbe 09b7 603e
00000190: edc7 2cbe 186c a2be 4c73 b73d 178d 60bc
000001a0: 0d3c 01bf e638 db3c be86 b53e 983b e5bc
000001b0: 44fc 93be 309f 09be 987b c4be 12fc 263d
000001c0: dbf2 65bd f85d b73e 6845 993e 6fae 1b3f
000001d0: ea39 79be b90c e63e 29f3 f3bd dd0e d4bc
000001e0: 0118 94be f42d 903e 5bb2 f2bc 9eb9 adbd
000001f0: 757a d9be 9d22 94bf 1c72 aa3e 054a 93bd
00000200: 02c6 d53c 6041 713c 3ee6 86be a619 08be
00000210: 2397 3f3e 962c 863e e9ca 48be 9477 b13e
00000220: 4fe6 0dbe ca23 bdbe 3451 36bd bbc7 543d
00000230: 52e0 963e c90a 5cbd db5a 703e 05ab 393f
-0.08726455 -0.47745186 0.33663067 -0.24596842 0.15135239 0.28098568 0.13356638 0.07030948
0.049515124 0.3458881 0.09334176 -0.13186264 -0.13538118 0.29610085 -0.25857124 -0.36311838
0.3203869 0.05701584 -0.0420299 0.1334294 -0.3347736 0.64846414 0.69088054 -0.06096835
0.032869253 -0.24236292 0.049414884 0.2730611 0.27182472 0.09715679 -0.030860107 0.39262736
0.544634 0.39272687 0.020630462 -0.21831279 -0.116527244 -0.3962261 -0.079601794 0.0034733429
-0.19575366 0.07313562 0.047866844 -0.1459648 -0.19680528 -0.02661093 -0.85457647 0.13415311
0.07419134 -0.130935 -0.060899228 -0.2320306 -0.06617198 0.5974358 0.19470729 -0.20835848
0.40146625 -0.076339 0.07562074 -0.005064893 0.08616587 0.1352412 -0.31960306 0.049373496
-0.3943874 -0.08548416 -0.08621477 -0.036610205 -0.23333506 -0.0010412893 -0.2541668 0.28205296
-0.1591301 0.20810193 -0.2198085 0.1565858 0.75323766 -0.056942746 0.655558 -0.27193463
-0.27206576 -0.26623845 -0.26830712 -0.05130851 0.5224902 0.26562107 0.010466991 -0.13612606
0.086732335 -0.3403589 -0.48227593 -0.14012888 -0.31227845 0.3321453 0.4140568 -0.05820142
0.09707664 -0.22202586 -0.3990922 0.21944822 -0.1687314 -0.31723094 0.08957538 -0.013705513
-0.50482255 0.02676053 0.35454363 -0.027982518 -0.289034 -0.13439631 -0.38375545 0.040767737
-0.05613981 0.3581388 0.29935765 0.6081304 -0.24338499 0.44931582 -0.119116135 -0.025885994
-0.28924564 0.2816006 -0.029626062 -0.08482669 -0.4247624 -1.1573063 0.33290184 -0.071918525
0.026095394 0.014725059 -0.26347536 -0.13291034 0.18709998 0.2620589 -0.19608654 0.34661543
-0.13857387 -0.36941367 -0.044511035 0.05194829 0.29468018 -0.053721223 0.23472159 0.7252658

player_tree_1.W.bias f4 [12]
00000000: d501 d23a d473 4fb9 9af1 0f3c 4a6d 4fbb
00000010: 3dff 07bb 0054 66bb 9ddb 453b 5801 08bb
00000020: ba12 d0ba bf84 10bb 1178 dbbc e035 dbbb
0.0016022275 -0.00019784208 0.00878563 -0.0031650835 -0.00207515 -0.0035145283 0.0030190714 -0.0020752754
-0.0015874722 -0.002205178 -0.02679065 -0.006689772

player_tree_1.W_self.weight f4 [12, 12]
00000000: 0ba2 0abe 8c93 023e 0945 183f 3e6b 65be
00000010: 2325 343f 726d 8cbd 1fd3 1ebe bfb8 38be
00000020: e631 96bc 31e6 ec3e 77ba f93d f625 c5bc
00000030: 36c2 dd3e 0ea3 0ebe ffe3 d8bd d23b 86bd
00000040: 247b 3abe 7c40 d6be 9d52 5d3e 5d4c 063f
00000050: ab03 0c3e 72dc 793d 6404 503e 4535 64bd
00000060: 0092 463e 466f 813e 187f 393d c242 16be
00000070: 4745 183d 9b65 b93d 171b e9be 9a16 733f
00000080: 8595 b43e b3a7 923e fc71 26be f120 5f3e
00000090: a95b 66be d270 0cbd 7a44 c6be 9d27 b93d
000000a0: 455c f83e 4393 263d 4b6b 11bf 5aac e43d
000000b0: 52ff a13d 3f0f 80be d39f a93d a325 9bbe
000000c0: 33d7 ec3e 347f 673e 8739 0dbd cf43 0e3f
000000d0: ae25 6c3e f1e1 8cbe 0619 43be dec0 873e
000000e0: d9be 3ebe 6343 f4bd 449d a8bd cbc8 7abd
000000f0: d6e7 8dbe 61fa ecbe d8c8 8ebe d460 a6be
00000100: 7e2e 9a3b 234f a5be d26d 18bf a32d b2bd
00000110: 0e9f a1be 578e 013f df13 e8be d235 0d3e
00000120: 4626 063f 196d bbbd 2be0 97be cfbd d7bd
00000130: fa54 6d3e 292c a13b 30a3 9f3e 8f18 27bd
00000140: 3961 753e cbe1 3a3f b3aa d8bd c8de 3c3e
00000150: 4fb1 363d f466 223e 3aec 113e db31 87be
00000160: 9649 bc3e c994 8c3e 59b2 d53d 8fc6 bebe
00000170: e6a1 88bd 53d5 74bd 90f2 d63e 5533 1abf
00000180: 56df ac3e 1c29 f63d 95df 2ebd d1f7 82be
00000190: ef15 57be 360a 8e3e f980 cb3e 3f89 843d
000001a0: 7816 983e 1342 6abe 82f2 733e 1393 963e
000001b0: 2e45 88bc 1113 513e f909 e9bd 4d6e d0be
000001c0: 2cf6 25be 9c86 7cbd 182a 683e 4886 0fbe
000001d0: f781 8fbe 64a1 06be 86ea f1bd 3112 00be
000001e0: 3457 dd3a 65f5 3b3e c614 00be c68b 213f
000001f0: 7d32 2bbd db3d 0fbf 7417 0dbf c731 1cbe
00000200: eefd 0b3e 9357 803e 736b 95be 5977 bdbe
00000210: fd7b dfbe fd43 20bf 98c3 d23e 9e7a 1fbe
00000220: 6a23 0dbf 1e20 2ebe 5c53 693d 8cc4 49be
00000230: 7932 3d3e b12c 33be 70e7 73be 5265 37bf
-0.13538377 0.12751597 0.5948034 -0.22404191 0.70369166 -0.068568125 -0.15510224 -0.18039225
-0.01833434 0.46269372 0.121937685 -0.024065953 0.43312234 -0.13929388 -0.10590362 -0.065543786
-0.18211037 -0.41846073 0.21613546 0.5246027 0.13673274 0.06100125 0.20314175 -0.055714864
0.19391632 0.25280207 0.04528722 -0.14673904 0.037175443 0.09052583 -0.4552848 0.9495636
0.35270324 0.2864357 -0.16254419 0.2178991 -0.22495903 -0.03428728 -0.38724118 0.09040759
0.48507896 0.040667783 -0.5680434 0.11165686 0.079100266 -0.25011632 0.08282437 -0.30302152
0.46257934 0.22607118 -0.03447869 0.5557222 0.23061249 -0.2751613 -0.19052514 0.26514333
-0.1862749 -0.119269155 -0.08233121 -0.061226647 -0.2771594 -0.46284774 -0.27887607 -0.3249575
0.0047052493 -0.3228694 -0.5954257 -0.08700111 -0.31566662 0.5060782 -0.4532766 0.13790062
0.5240215 -0.09151668 -0.29663214 -0.1053425 0.23176947 0.0049185944 0.3117919 -0.040794905
0.23962869 0.7300078 -0.10579433 0.1844436 0.04460269 0.15859586 0.1425027 -0.26405224
0.36774892 0.27457264 0.10434408 -0.37260863 -0.06671505 -0.059773754 0.41981936 -0.60234576
0.33764142 0.1201956 -0.042693693 -0.25579694 -0.21004461 0.27742165 0.39746836 0.0647149
0.29704642 -0.22876768 0.23822978 0.29409084 -0.01663455 0.2041743 -0.11378855 -0.40709153
-0.16207188 -0.06165181 0.22672307 -0.14016068 -0.28028843 -0.13147503 -0.1181231 -0.1250694
0.001688695 0.1835533 -0.12507924 0.631039 -0.041796196 -0.5595376 -0.5511391 -0.15253364
0.13671085 0.25066814 -0.2918354 -0.37005118 -0.43649283 -0.6260374 0.4116485 -0.15574118
-0.5513216 -0.17004439 0.056964263 -0.19703883 0.18476285 -0.17497517 -0.23818755 -0.7163898

player_tree_1.W_self.bias f4 [12]
00000000: d501 d23a d473 4fb9 9af1 0f3c 4a6d 4fbb
00000010: 3dff 07bb 0054 66bb 9ddb 453b 5801 08bb
00000020: ba12 d0ba bf84 10bb 1178 dbbc e035 dbbb
0.0016022275 -0.00019784208 0.00878563 -0.0031650835 -0.00207515 -0.0035145283 0.0030190714 -0.0020752754
-0.0015874722 -0.002205178 -0.02679065 -0.006689772

player_tree_2.W.weight f4 [12, 12]
00000000: 774a de3e 88c6 9f3e 4d7e 3abe aeeb c3be
00000010: 0102 cdbe a015 303f 3bb1 5fbe 36c1 0dbf
00000020: 864d 98be 4f59 013d 564c 43bb 1069 b83e
00000030: ae11 6a3e f884 2f3e cae7 c43e ed7a 3dbe
00000040: 5cb3 9abe 9b5b b4be 367c 253e ff8a 903e
00000050: 9454 fe3e 1093 e33e 8bef 5bbe 56fa 48bf
00000060: db2a 23be 78d8 a33e d3e0 1fbe 5f3b 353d
00000070: 03b6 013f a267 673d 5bc1 a7bd 3aae 283b
00000080: 1240 653d 785f 4b3e 7818 153e 6fd9 6c3f
00000090: fccd 9abb f46d 203f b598 0f3e bd24 2fbe
000000a0: ae46 72be da5b 15be 2cc6 a0be db09 cfbd
000000b0: 0738 a33d 8037 aebd dff7 c03d fd78 e83d
000000c0: 82aa 5abd 84d7 96be 1fd4 a7bd b40c 99be
000000d0: af3f 23be 3e53 2d3f 81c8 e6bc 1cb2 0d3d
000000e0: 807b 953e 0642 233f 29c3 c43d de34 4f3e
000000f0: 0718 923e 31e6 58be 9399 3ebe 7ea2 9abd
00000100: 14b5 9fbe 2eda ee3e 5ac3 8b3e 0584 8b3e
00000110: 9ca3 80bd 6d13 143c bf6d 2c3e e33b babe
00000120: a130 643e 053d 19be 5020 b8be 1422 14be
00000130: c30e 45be 1022 353f 9543 8a3e fe84 9dbd
00000140: 4033 2f3c ca62 1d3e 1ef0 7e3e de0d 51be
00000150: 44f5 163e c848 893d 8a64 103f 1e20 9cbe
00000160: e96e 883e a5ac 583e 9848 89bb c60f 873e
00000170: 4b47 883e 8f58 d7bd 4ae7 ae3d 363e 23be
00000180: 9026 653e 9978 a13e c832 a43e f799 df3d
00000190: 785c a1be 46cf 333e 2f8e 123e 74f6 e53d
000001a0: 9783 fc3e 50a5 ac3e 0c06 e2bd 3586 00be
000001b0: 1614 7a3e 0cf3 9b3e 9833 a83e 7cef 8bbd
000001c0: 734d 99be 1771 94be a822 9b3e 1433 65bc
000001d0: 657e 21bf fab6 08bf 43c1 54bc 3a83 f4bd
000001e0: f77c 87be 854d 8f3e c8ab 923e abbd d83e
000001f0: 9a87 45be a0c4 003f 9250 c7be 105e 4e3d
00000200: 24b4 b6be d7db 86be 7e9e c0bd 171d e3bd
00000210: c2ea b3be 354e 393e da9e c63d f955 2b3e
00000220: 3aee 0c3d db88 89be d819 973e bdcd 183e
00000230: b28e 4f3e 39f4 cabe ba74 f6bd 41fa 5dbe
0.43416187 0.31206155 -0.18212242 -0.38265747 -0.4004059 0.68783 -0.21844952 -0.5537294
-0.29746646 0.031579312 -0.0029800138 0.36017656 0.22858307 0.17140567 0.3845809 -0.18503924
-0.30214965 -0.3522614 0.16160664 0.28231046 0.49673903 0.44448137 -0.21478097 -0.7850698
-0.15934317 0.3200109 -0.15613107 0.044246074 0.5066835 0.056495316 -0.081911765 0.0025738613
0.055969305 0.19860637 0.14560115 0.9251928 -0.0047242623 0.62667775 0.14023097 -0.17103858
-0.23659775 -0.1458582 -0.31401193 -0.10109302 0.07969671 -0.085066795 0.09422278 0.11351202
-0.053385265 -0.294613 -0.08194756 -0.29892504 -0.15942262 0.6770514 -0.02817178 0.034593686
0.29195786 0.6377262 0.09607536 0.20235011 0.28533956 -0.21181561 -0.18613271 -0.07550524
-0.3119284 0.46650833 0.2729748 0.2724916 -0.06281206 0.009037835 0.1683874 -0.36373815
0.22284175 -0.14964683 -0.35962152 -0.14466125 -0.19243912 0.707551 0.27004686 -0.07691382
0.010693371 0.15369716 0.24896285 -0.20415446 0.14741999 0.06703335 0.5640341 -0.30493253
0.26647118 0.21159609 -0.004189562 0.26379222 0.26616892 -0.10514938 0.08540209 -0.159417
0.22377992 0.3153732 0.32069993 0.10918038 -0.3151586 0.17559537 0.14312051 0.11228648
0.49319145 0.33719873 -0.110363096 -0.12551196 0.24421725 0.30458868 0.32851863 -0.068327874
-0.29941902 -0.2899253 0.30299878 -0.013989229 -0.6308349 -0.534042 -0.01298553 -0.11939092
-0.26462528 0.2798883 0.28646684 0.42332205 -0.19290009 0.50300026 -0.38928658 0.050382674
-0.3568431 -0.263396 -0.0940523 -0.11089533 -0.35140043 0.1809624 0.09698267 0.16732015
0.034406878 -0.26862225 0.29511905 0.14922233 0.20269278 -0.39639452 -0.120339826 -0.21677496

player_tree_2.W.bias f4 [12]
00000000: 6544 2dbd 427c 803b f4ba 723b b054 ddba
00000010: 8039 6abb 7d8a 103b 64db 89bc 69e9 093c
00000020: 3047 7dbb 2c5a 20ba 7792 d7bb 2c78 32bc
-0.042301554 0.0039210627 0.0037037702 -0.0016886201 -0.003573984 0.0022055202 -0.016828246 0.008417466
-0.0038647167 -0.0006116952 -0.0065787393 -0.010892909

player_tree_2.W_self.weight f4 [12, 12]
00000000: 6e2b 2fbe ca21 ce3b 6657 b53d c295 55be
00000010: 7795 7a3e ffa3 b1be 4693 55be 3a7c edbe
00000020: 4402 c1be 9d78 883e 74aa b13d 82cd 17be
00000030: dad2 e7be ea06 82be 8e52 dc3d b308 553e
00000040: 2ac7 dabe 1513 ffbe b567 91be ec8e 353f
00000050: 6dbc 1cbe 4038 00bc e00e fb3d d43e cb3c
00000060: a995 e4be ab95 e33e 96d8 d5be ff1e e3bd
00000070: a1ce c73d 45c5 cc3e 5056 463e 80ae 17bd
00000080: 1104 c33e 74d0 833e ca8d 6cbe 1ca9 adbe
00000090: 8502 e93e 39eb f83d 975d 1b3f 2692 683e
000000a0: 6d23 493d 5038 5a3e 5471 f53e b1bc 7ebe
000000b0: 126a 1c3f 182d 1abe 882c cebe 6e96 2ebe
000000c0: cad7 063f 4292 ca3d 6ef0 9ebe b59d ca3d
000000d0: bab3 c5bd a905 063f b510 b43d b65e f2bd
000000e0: eb45 983e 2b12 d23c b860 30be f149 0c3d
000000f0: 09f1 453c 2b61 6e3e e579 ba3d 6c7c 233d
00000100: ca27 b73e e60f de3e 389c 13bf 5654 343e
00000110: de14 393e 37e9 b33c 534c d83e 2adb 053f
00000120: 31b2 c7bd 1b9f 923e 2fcd 0b3e 7424 2ebf
00000130: ff67 153f 5587 843d 900f b93e 5139 13bd
00000140: d2e9 fb3d f155 96be fa29 a83e 0f3f 0c3e
00000150: 868a 37bd 3047 b1be 0cb4 733e d3ce 4b3e
00000160: 6973 343e b676 39bb b8b4 593e 536d 143f
00000170: 7f1e f8be 4177 e63d 495f 583d 5e26 693e
00000180: f68c 913c d316 693e 33ab 08bf 10a3 0a3f
00000190: 13eb 22be 35ec f6be 25ee c5be 864f 24be
000001a0: 2726 c93e 0e7c ac3e 8290 5dbd 77cd a6be
000001b0: 1106 fbbe 01e3 1abd 04ba d1be c36e 003d
000001c0: 793a 80bd 182c 8cbe 70bd f0be a678 233e
000001d0: 4b68 a1be e131 983e 8c0f 5c3e 3ca8 6fbd
000001e0: 2fc1 3ebc cf47 28be 429e bebe 3185 d73e
000001f0: c688 4b3e 0ed0 c4bd ae55 59be e314 453e
00000200: b8ce 16bf 1e7c dbbd 05c6 4bbe 8eb9 1cbd
00000210: 5022 d93d 172b 6dbd cb6a cdbe 1514 943e
00000220: 028c 2ebf d2b5 5b3d 85c2 c33d 5020 8abe
00000230: 89aa d3be 3c5e 6cbe 9ee3 023e c7bd 15bc
-0.17106411 0.006290649 0.088545606 -0.2085791 0.24471079 -0.34695432 -0.20856962 -0.4638384
-0.3769704 0.2665452 0.086750895 -0.14824489 -0.45278054 -0.253959 0.107579336 0.208041
-0.42730075 -0.49819246 -0.28399435 0.70921206 -0.15306254 -0.007825911 0.122586966 0.024810232
-0.44645432 0.44450125 -0.41766804 -0.110898964 0.09756208 0.39994255 0.19368863 -0.03703165
0.3808904 0.25744975 -0.23100963 -0.33918083 0.45509735 0.1215424 0.6068968 0.22712001
0.04910605 0.21310544 0.47938025 -0.24876668 0.6109935 -0.15056264 -0.4026835 -0.17049572
0.5267302 0.09891178 -0.31042808 0.098933615 -0.09653421 0.52352387 0.08792249 -0.11834471
0.29740843 0.025643429 -0.17224395 0.034250204 0.012081393 0.23279254 0.09105281 0.03991358
0.35772544 0.43371505 -0.57660246 0.17610297 0.18074366 0.021961791 0.4224573 0.5228754
-0.09750784 0.28637013 0.1365249 -0.68024373 0.5836181 0.06471125 0.36144686 -0.035943333
0.12300457 -0.29362443 0.32844526 0.1369593 -0.04480984 -0.34624624 0.23799151 0.19903116
0.1762215 -0.0028299517 0.21260345 0.57979316 -0.48460767 0.11253215 0.052825246 0.22768542
0.01776741 0.22762613 -0.5338623 0.54155064 -0.15909986 -0.48227087 -0.38658252 -0.16045961
0.3928692 0.33688396 -0.05409289 -0.32578632 -0.49028066 -0.037814144 -0.4096223 0.03135563
-0.06261153 -0.2737739 -0.4701953 0.15963992 -0.31524882 0.29725555 0.21490306 -0.05851005
-0.011642738 -0.16433643 -0.37230116 0.42093804 0.19876394 -0.09609996 -0.2122409 0.19246249
-0.5890918 -0.10717033 -0.19899757 -0.038262896 0.10602248 -0.05790242 -0.4012054 0.2892157
-0.68182385 0.053640194 0.09558586 -0.26977777 -0.41341045 -0.23082823 0.12782142 -0.009139485

player_tree_2.W_self.bias f4 [12]
00000000: 6544 2dbd 427c 803b f4ba 723b b054 ddba
00000010: 8039 6abb 7d8a 103b 64db 89bc 69e9 093c
00000020: 3047 7dbb 2c5a 20ba 7792 d7bb 2c78 32bc
-0.042301554 0.0039210627 0.0037037702 -0.0016886201 -0.003573984 0.0022055202 -0.016828246 0.008417466
-0.0038647167 -0.0006116952 -0.0065787393 -0.010892909

player_tree_3.W.weight f4 [12, 12]
00000000: 54f5 3e3e 6ba7 4bbf 2c73 e5bd a41d 1e3d
00000010: a6fe 0fbe c657 debd 92b7 86bd 0495 48be
00000020: e22e 7a3d 38d1 bebb 4361 813e 477d 78bd
00000030: a495 b03d 4a0d 953e 0d3c e93e c8a9 48be
00000040: d07b 9a3d cc7a a1bd 2d24 5a3c c179 15be
00000050: ee0d fe3c 0121 ec3e 9597 35bd 77bd d63e
00000060: a197 973d 64b7 b83e 3296 b93d 325c 313e
00000070: 2492 803e 93fd 873e 9cba fcbd aa90 0b3f
00000080: 18fd 2d3e e9ab 01bf 3867 8bbc 6fbd b63c
00000090: 91d0 86be b420 97bc e1c1 803c f969 efbd
000000a0: 28b1 663c 4aa5 563e 475a 583c 0a5d a83e
000000b0: d88f a23c 1589 9cbe b6b5 163f 4bda 42be
000000c0: 7681 3fbe 6746 3dbd 77a1 803e 9223 22be
000000d0: 247d 753e 00a2 67be 1cf1 6d3e 1446 31bb
000000e0: 9627 a73e a8f4 053c c997 55bc 9f6e 153e
000000f0: 319b 12be 2e37 003f 5af5 7cbd e5b3 7abe
00000100: 5db2 a13e 328a 68be 5dce adbe 7a76 1ebf
00000110: 57a1 c4be 1cfd f73d 960e 6dbd de0d fe3d
00000120: 36ea 56be 8255 abbd a332 c8bd 03c9 b63a
00000130: 83db 94be a27c e53d 8dc7 103f 11e0 893d
00000140: c081 ce3e 9737 c7be 6c81 7a3e d92f 1e3e
00000150: 6f37 52be 4f24 5e3d 5d3e bc3d 43a9 a1bc
00000160: fa5d 43bd 89fd 443d e609 a73e b3ba 47be
00000170: bc96 90be 3dcb 743d edf2 37be 885f 043e
00000180: 378e bb3c d422 943d a3af 9e3d 181e 963d
00000190: 9a05 50be ab34 353e 665b 3b3f 3661 a53d
000001a0: 2c26 583d d49c 02be bcee 6cbb 4027 c1bd
000001b0: 6ff1 6abc 85d5 da3e 4a4d fc3e 792c 8f3e
000001c0: b956 613f 24a4 893e b368 c93d ccf4 233e
000001d0: 7c0f 98bd 2e3a 1d3f 8ffc 06be b0d1 003e
000001e0: 4d78 613e 34b3 ca3c ae79 fabe c172 92be
000001f0: f592 553d 1526 12be 88a9 0d3e f77c abbe
00000200: d876 db3d 8de6 60be f415 093f 325d b23e
00000210: bf19 e9be 3122 c33d 14ea a03e 3599 80bb
00000220: 707e a83e 7b0a 4a3e 2d36 13bf 4073 543e
00000230: a7a6 54bd 57f7 883e a795 ffbb 8502 2bbf
0.18648273 -0.79552335 -0.11203608 0.038602486 -0.14061984 -0.10856585 -0.06577982 -0.19588095
0.061079867 -0.0058232807 0.25269517 -0.06066635 0.08622292 0.291117 0.45553628 -0.19596016
0.075431466 -0.0788475 0.013314289 -0.14597227 0.031012502 0.4611893 -0.044334013 0.41941425
0.07401968 0.36077416 0.090618506 0.17320326 0.25111496 0.2656065 -0.123402804 0.54517615
0.16991079 -0.5065294 -0.017016992 0.022307126 -0.26331 -0.018448211 0.015717449 -0.116901346
0.014080323 0.2096149 0.013205118 0.32883483 0.01984398 -0.30573335 0.5887102 -0.19028585
-0.18701729 -0.04620972 0.25123188 -0.15833881 0.23973519 -0.22620392 0.23236507 -0.0027049826
0.3264739 0.008176006 -0.013036677 0.1459298 -0.14317013 0.500842 -0.061757423 -0.24482687
0.31581393 -0.22708967 -0.33946505 -0.6189953 -0.38404343 0.12108824 -0.05787524 0.12404989
-0.20987782 -0.08365919 -0.09775283 0.0013945404 -0.29073724 0.112054124 0.5655449 0.067321904
0.40333366 -0.389096 0.24463433 0.1544794 -0.20528959 0.054233845 0.09191582 -0.01973403
-0.047697045 0.048093352 0.3262474 -0.19504814 -0.2824 0.059764136 -0.17963763 0.12927067
0.022894962 0.072332054 0.07748344 0.07329959 -0.20314637 0.17695872 0.7318634 0.08075182
0.05277078 -0.12755138 -0.003615304 -0.094313145 -0.014339789 0.42741027 0.49277717 0.27963617
0.88022953 0.26883042 0.09834423 0.16011351 -0.074248284 0.614169 -0.13182281 0.1257999
0.22018547 0.024743654 -0.4892096 -0.28603175 0.052142102 -0.1427234 0.13834202 -0.33493778
0.10716027 -0.21962948 0.5354912 0.34836727 -0.45527455 0.09528006 0.31428587 -0.0039245137
0.32908964 0.1973056 -0.5750454 0.2074709 -0.051916745 0.26751205 -0.0077998224 -0.6680072

player_tree_3.W.bias f4 [12]
00000000: 4310 c73b 963d b4bc 9496 2e3b 1555 d33b
00000010: 75bd 26ba aed0 4fbd 20cd 38bd f153 9dbd
00000020: bcf2 bf3a 4d3b 3ebb d292 60bc c2c9 de39
0.0060749366 -0.022002023 0.0026640045 0.0064493516 -0.0006360629 -0.05073612 -0.045117497 -0.07682026
0.0014644484 -0.0029027045 -0.01370688 0.0004249346

player_tree_3.W_self.weight f4 [12, 12]
00000000: 8c04 4ebe 2fc6 89be 13f4 ecbd 5af3 a8bd
00000010: 722d ed3e 4f99 7c3e c036 d83e 6d0a b23e
00000020: 4036 263c 0e8e 183e e8f0 a33d 90e7 bcbe
00000030: 4cde b4be d0e4 fabc a0db 35bd 9688 7dbd
00000040: 70e8 81bd 0694 0abe 4426 14be c00a 9ebd
00000050: a804 b6be ab55 40bd ff4d 373e 40c3 c2be
00000060: da21 6cbe 5872 b93e 66fe 913e 6615 973e
00000070: eec8 ba3e 727e 98bd e94a d3bd 18c1 a53e
00000080: c107 733e bc2b 0bbe a560 e03e 23ac ccbd
00000090: 4586 44bf c6dd 613d f711 993d 7b31 cb3e
000000a0: 5e60 eabd c33d 85be b961 98be 587e 1e3f
000000b0: ee3c a03c a146 d8be 53a9 273e 9836 0bbf
000000c0: 5cf9 4dbe 3c4b 6fbe b2eb 66be bece db3e
000000d0: 551e 303f 70fc c23e 0e6e 72bc cf5a 1d3e
000000e0: bca3 5abe 5da0 90be 40cf 9e3e e7d3 103e
000000f0: 71eb 9b3e 191e ee3d cc72 c53e 38ca ad3e
00000100: 918d 02bd 00f0 85be e087 e73d 8fc5 29be
00000110: 00b5 80be f02c 16be 9d4f 3bbd 1a61 03bf
00000120: c8e8 543e cc31 51bf 82f6 3fbe 07fb 18be
00000130: 7b69 393e b806 19be 6ec4 013e a604 1c3e
00000140: 9671 333d b8a9 d93b 5c13 833c b79a b3bc
00000150: 6b1f e93d 3d25 31be 2877 473e 9773 893e
00000160: a51e 7c3e e063 2b3f d1dd 633c 6c94 27bf
00000170: 366a 9cbc 9f5a cdbd b81f aabd 22a2 bebe
00000180: 2e89 61bf 36fe 2c3e 43b3 49be 259a bf3e
00000190: b18d 373e bb6b 133f 4e3c f2be a77b c33e
000001a0: f5b9 583d 7101 393e 05ef 15bf 826c 31bc
000001b0: 5895 34bb a10a 853e 044a f13e 2b34 dbbd
000001c0: 35d6 763e 94f0 39bd 25ba bb3e cc8f afbe
000001d0: 2a36 843e e6f6 dabd 2461 003f 7f52 06bf
000001e0: 6fb4 efbd f6c4 aebd 309b 34bd 8510 1cbb
000001f0: 2f25 bebd 5b9a d7bd c268 f7be 2480 b23e
00000200: 708c 343c 38c3 fb3e d80b 9e3d 7128 36be
00000210: 2f70 083e 81b2 c6be 1ce0 863e eb86 d83e
00000220: 69c9 cc3c cac4 d73e 564a 3b3e fa79 90bc
00000230: 63bf a33d 8ab3 243f abb1 753c 9c19 93be
-0.20118922 -0.26909015 -0.11569991 -0.082495406 0.46323735 0.24667858 0.4222927 0.3477358
0.01014477 0.1489794 0.080049336 -0.36895418 -0.3532585 -0.030626684 -0.044398904 -0.061897837
-0.06343162 -0.13533029 -0.14467722 -0.07716894 -0.35550427 -0.0469567 0.17900847 -0.3803959
-0.23059788 0.3622005 0.28514403 0.29508513 0.36481422 -0.074459925 -0.10317022 0.3237388
0.23733427 -0.13590902 0.43823734 -0.0999377 -0.7676738 0.05514314 0.0747413 0.39686188
-0.11444162 -0.26023683 -0.29762056 0.61911535 0.019560304 -0.42241386 0.16373186 -0.5438018
-0.20114654 -0.23368543 -0.22550848 0.4293117 0.68796283 0.3808322 -0.014796747 0.15366672
-0.21351522 -0.28247347 0.31017494 0.14143334 0.30453065 0.116268344 0.38564146 0.33943343
-0.03187329 -0.26159668 0.11305213 -0.16579269 -0.25138092 -0.1466558 -0.045730222 -0.5132004
0.20791924 -0.8171661 -0.18746379 -0.1493951 0.18106644 -0.14943969 0.12672588 0.15236148
0.043809496 0.0066425465 0.016000442 -0.02192436 0.113829456 -0.17299362 0.19479048 0.26846
0.24621065 0.6694927 0.013907866 -0.6546085 -0.019093614 -0.1002705 -0.08306831 -0.37233073
-0.88099945 0.16893849 -0.19697289 0.3742229 0.17925145 0.5758626 -0.47311634 0.38180277
0.052911717 0.18066956 -0.5856784 -0.010829093 -0.0027554836 0.25984672 0.47126782 -0.107033096
0.24105151 -0.04539545 0.36665455 -0.34289396 0.25822574 -0.106916234 0.50148225 -0.5246963
-0.11704337 -0.08533661 -0.04409331 -0.0023813557 -0.09284436 -0.10527488 -0.4832211 0.3486339
0.011019811 0.49172378 0.07717103 -0.17788865 0.13324045 -0.38808063 0.26342857 0.42290434
0.024998384 0.42142326 0.18290076 -0.017636288 0.079954885 0.64336455 0.014995973 -0.28730476

player_tree_3.W_self.bias f4 [12]
00000000: 4310 c73b 963d b4bc 9496 2e3b 1555 d33b
00000010: 75bd 26ba aed0 4fbd 20cd 38bd f153 9dbd
00000020: bcf2 bf3a 4d3b 3ebb d292 60bc c2c9 de39
0.0060749366 -0.022002023 0.0026640045 0.0064493516 -0.0006360629 -0.05073612 -0.045117497 -0.07682026
0.0014644484 -0.0029027045 -0.01370688 0.0004249346

player_tree_4.weight f4 [8, 12]
00000000: cdc0 943e c973 33be 5ab3 a53d acc9 2e3e
00000010: 2661 cfbc 995b 84be ab8c 3fbf c65b 91be
00000020: bc30 bb3e b938 eb3d 1921 e9bd 89be 7e3f
00000030: cebe 503e a5ff 763e 514d 9d3e d900 733e
00000040: 83c2 033e ae91 753d bd38 36bf 3ef7 23be
00000050: a525 373e 2df8 1abe 640a 34bd 6a5a 1d3f
00000060: d856 fabb 6775 4c3d e32a 25bf f7fb e53e
00000070: f5d5 01bf 6d86 003f 2498 e33e 4036 c5be
00000080: eb3d 0f3f 9f6b 89bd 0717 06be 5648 333c
00000090: 9453 c73d 4e45 833c 8874 36be fc00 cebe
000000a0: e0e2 dfbd 6014 2fbe 72fa 5dbe 0f12 983e
000000b0: 5416 81be 8a87 c0be 9364 cd3c dde1 553e
000000c0: 0da7 d23b 0c59 e03d 531f d03e 7576 683e
000000d0: 887a bfbe 6505 66be 234d 6ebe 3564 9e3e
000000e0: da2c 1b3d 5d46 96be 8390 d33d 7269 b53d
000000f0: 728d 423f 4172 bcbe 3fd9 ea3e 4418 fbbe
00000100: f818 313f 6b21 01be d15f 96be 7d4c acbe
00000110: f828 e03e 7d7e 233f d447 3f3e 9ea4 80bd
00000120: 6b7a fb3c 3a7c 003e 3491 02be fbd2 6e3e
00000130: ae80 cc3e 5b1d 5f3e c28e 553e d118 1d3e
00000140: 3db1 66be 7963 afbc 0619 b5be e3ff f63d
00000150: 7b69 dabd 7815 f0bd 0d4a 7c3e 34a9 8cbe
00000160: 53a8 e7be 494c fc3b e48c 353e cf42 d93e
00000170: dece 05be 09db a5be 2c37 e8be 89bc 383f
0.29053345 -0.17524637 0.08090849 0.17069119 -0.025314879 -0.25851133 -0.7482402 -0.2839033
0.3656062 0.11485428 -0.11383266 0.99509484 0.20385286 0.24120958 0.3072305 0.23730792
0.12867169 0.059953384 -0.71180326 -0.16012284 0.17885454 -0.15133734 -0.04395522 0.61466086
-0.007639747 0.04991665 -0.64518565 0.44918796 -0.507171 0.5020512 0.44452012 -0.38517952
0.55953854 -0.0670998 -0.13094722 0.010942539 0.09732738 0.016024258 -0.1781789 -0.40235126
-0.10931945 -0.17097616 -0.21677569 0.29701278 -0.25212348 -0.37603408 0.025072372 0.20886941
0.0064286054 0.10954484 0.40648898 0.22701438 -0.3739817 -0.22462995 -0.23271613 0.30935827
0.03788457 -0.29350558 0.10330298 0.08858003 0.7599708 -0.3680592 0.4586887 -0.4904195
0.69178724 -0.12610404 -0.29369977 -0.33652106 0.43781257 0.6386488 0.18679744 -0.06281398
0.030698022 0.12547389 -0.12750703 0.2332267 0.39941925 0.21788542 0.20855239 0.15341498
-0.22528549 -0.021409737 -0.35370654 0.12060525 -0.1066465 -0.11722845 0.24637623 -0.27472842
-0.4524561 0.0076995236 0.17729527 0.42433783 -0.13067195 -0.32393673 -0.45354593 0.7216268

player_tree_4.bias f4 [8]
00000000: 0166 933b 5d49 d23b dfdd 5dba 3e01 bfbb
00000010: 63b8 41bc 0af3 283b 79ca 38bc d553 613b
0.004498244 0.006417437 -0.00084635423 -0.0058290055 -0.011823746 0.0025779628 -0.011278742 0.0034382243

sun_influence_1.W.weight f4 [12, 12]
00000000: efa4 fabe c270 49be 650d abbe 48f9 913e
00000010: 2ddd 22be 20aa ba3e 47c4 81be 22c7 cc3c
00000020: f50b 3a3e bc8a 43be d843 203e 427e f83e
00000030: b4da d13e d996 e03d c751 d8be 0277 253e
00000040: 96f3 3b3e 24ce 07bd 8d61 90bc d6ea 4b3e
00000050: 1998 fc3e d6e4 83bd cfee cbbe a4e6 0d3e
00000060: 3de3 18bd bd80 1abf 9f25 d73e 41d5 4ebe
00000070: 1956 93be 3f2e 8ebe 46f2 c73e 36c6 31be
00000080: 21dd 56be 9c1f 523e 2461 6ebf 3671 6dbe
00000090: c2cc 4bbe f56c c93e a59c bbbd beaf 14bd
000000a0: e495 503e 2127 793d b3db 96bd 23d7 0f3e
000000b0: 5a01 21be df0f a5be d70f c63d bd75 57be
000000c0: 67d4 a8be e7e8 3fbe 66a7 643e 0c64 93be
000000d0: 2c1c 6f3e 8528 b63e 6e92 28be ebdc b83e
000000e0: cc5d 8fbe 0e12 253e ce5c 5dbc fd64 9ebe
000000f0: 0aa2 c8bd 8fff 923e 5329 52be b6c0 283e
00000100: 45f1 283d 3eca 17bf 669f 88be 67d7 aebd
00000110: 1a11 4abe bdc9 973e 6190 993e 4dbd c0be
00000120: 402a bdbe 472a 463d dabd e33d 39a5 7fbe
00000130: cfdc 16be 19f8 0a3e 2384 ec3d 0c37 cdbc
00000140: 6aaa ce3e 13de 243e 7281 8e3c a50d ef3e
00000150: 2886 023d 718c 25bf 0548 043e 5703 803e
00000160: b336 3e3f 7c06 563c bcb2 05bf 665c 22be
00000170: a25e 163d 733a 92be 608b 803e 8793 e4be
00000180: b359 43bd 8315 9ebe 2676 c53e b5d4 0fbe
00000190: 32fb 7abe 47ff a8be 77ac 2b3f 10e1 e7be
000001a0: 0d76 c93c 68d2 253e 78c3 edbc 1407 cbbd
000001b0: a68e f23d ccea e03d 3f11 2c3e 0518 113e
000001c0: 5c4b 14be 0c05 6c3e bd6d 78be 70c2 a73e
000001d0: bc93 bbbe e0dc ef3e a524 053f d6c9 c5be
000001e0: 8a9b d43e eae1 6abe 8c67 4e3d d42f e6bd
000001f0: 12f1 3c3e 2413 aa3e 3aaa f1bd e402 f83e
00000200: 2963 a33e 69b9 77bd f6f9 f33c 5b64 a9bd
00000210: 966d 9abd 99ff 273e d2ef 0d3e c4db a73b
00000220: a951 df3e 36cc 5e3d 0039 d5be 0d1e 173e
00000230: 18fe f8ba 9178 6b3e 827d aebe 5862 59be
-0.4895396 -0.1967192 -0.33408657 0.285105 -0.15904684 0.3645792 -0.2534506 0.024997298
0.18168624 -0.19095892 0.1565088 0.48533827 0.4098717 0.10966272 -0.4224989 0.16158679
0.1835464 -0.033155575 -0.01762464 0.19913802 0.4933479 -0.06440131 -0.39830634 0.13857514
-0.037326086 -0.6035269 0.4202089 -0.20198537 -0.28776625 -0.27769658 0.39052027 -0.17360768
-0.20982791 0.2051987 -0.93116975 -0.23187718 -0.19902328 0.3934094 -0.09160737 -0.036300413
0.20369679 0.06082833 -0.07366123 0.14046912 -0.15723172 -0.3223867 0.0967099 -0.21041007
-0.3297455 -0.18741189 0.22329482 -0.28787267 0.2335059 0.3557779 -0.16462108 0.36106047
-0.2800125 0.16120169 -0.013510896 -0.30936423 -0.097965315 0.287106 -0.20523576 0.16479763
0.041245718 -0.5929297 -0.2668411 -0.085371785 -0.19733086 0.29646102 0.29992965 -0.37644425
-0.36946297 0.048380163 0.11120196 -0.24965371 -0.1473267 0.13571204 0.115486406 -0.025050662
0.4036439 0.1610034 0.017395709 0.46690097 0.031866223 -0.6466742 0.12918098 0.25002548
0.74302214 0.013063069 -0.5222585 -0.1585556 0.036711343 -0.28560218 0.25106335 -0.44643804
-0.047692966 -0.30875787 0.38566703 -0.14045985 -0.24509886 -0.3300726 0.67060035 -0.45288897
0.024592424 0.16193545 -0.02902387 -0.099134594 0.11843614 0.10982284 0.16803454 0.14169319
-0.14481872 0.230488 -0.24260612 0.32765532 -0.3663615 0.46848202 0.5200904 -0.3863055
0.41524917 -0.22937742 0.05039172 -0.11239591 0.18451336 0.33217728 -0.11800046 0.48439705
0.3191159 -0.060479555 0.029782277 -0.082710944 -0.07540433 0.16406097 0.13861015 0.0051226337
0.4361699 0.05439397 -0.4164505 0.14757557 -0.0018996624 0.22995211 -0.3408013 -0.21228921

sun_influence_1.W.bias f4 [12]
00000000: 66d0 993c d428 2fbc 39b8 3d3c 647c 8c38
00000010: ff81 3aba 2edd 30bd a862 15bd 8475 1d3c
00000020: d56c d93b 46cf 19bc e798 3dba 9af4 cabb
0.01877613 -0.0106908865 0.011579567 6.69889e-05 -0.0007114708 -0.043179683 -0.03647104 0.009610537
0.0066352882 -0.009387797 -0.0007232562 -0.0061937096

sun_influence_1.W_self.weight f4 [12, 12]
00000000: 876c 67be 9522 97be 7798 80be dd36 1abe
00000010: c18a 84be e643 c33d 25fa bc3d 8886 92bd
00000020: 7319 803e ea7a 1a3e 89e8 dd3c 3268 00bd
00000030: cae3 d4be 0422 4bbe eede f8be 3fd4 553f
00000040: 14e7 6e3e 2bc0 163e b285 e53e b9f6 f8bd
00000050: 0021 60be b190 8fbe 1c4b f23c b6b2 e4be
00000060: b7ef 8d3e 3708 103f d8c4 9b3e 59f7 073c
00000070: 2d16 ae3e 2808 1fbe 1014 0cbf 73f1 fcbe
00000080: 4a0c 983e 2f63 61bd 5212 763e 554b a23d
00000090: 7bc9 a9be e1d6 563e ea5b 73bd 27be 963e
000000a0: 6c6d 8ebe cd28 bdbc 6ea0 84bc 6e04 853e
000000b0: e7b1 d33e 68db abbd 893b fcbd 4b87 113f
000000c0: 784c 60be 8617 853e 0756 7c3e 9873 293e
000000d0: 3a08 a13d 6c1c fb3e dc00 20bc 3bc1 443e
000000e0: cb29 0c3f 7f50 713e 8878 edbe ca66 6b3d
000000f0: 0687 ab3e b45b 13be db4d 293d 679f ccbe
00000100: 58cc 54be c617 523e 783b 363e fb15 ac3e
00000110: 132f efbe cf2a 1ebd 7c8c 823e 268c 87be
00000120: 4c5d 5abe 690b d03e 178c 02bf 561e 2c3e
00000130: 77ee 9dbe 436b fe3d 7e75 323e 08a1 8bbd
00000140: 1ac9 ab3e c255 b73e 4a07 973e 4f34 babc
00000150: b323 83be ead5 883e 83e5 7ebe 20b8 333d
00000160: df1b 67be 47df 743e 9434 ab3e 9d89 da3d
00000170: 6065 a33e 32e8 d8ba b644 35be 7675 983e
00000180: 526b 2ebb ddeb 5ebe 6146 253f acc6 223e
00000190: 9c51 0f3d 1f31 2fbc 276b e2bd 5813 4dbe
000001a0: 8315 e0be 30ea b1bb e8f0 a03e 9387 b63e
000001b0: 71c7 3b3d 5bd2 473f b386 4a3e d874 3f3e
000001c0: fb06 ddbe 6ed0 a8be ace5 02bd 6484 853e
000001d0: 321f 20bf 5404 d6be db09 de3b e0bb c5be
000001e0: 2ddb c5bd 29af 02be 733a 103e cb18 de3d
000001f0: 12cc c33e e2a6 183e a355 b0be 64cb da3e
00000200: a196 82be 94dd 283e d9c5 4d3e 19ed 393e
00000210: b72d ae3d bf03 91be 80a9 aebe 0f5d b13e
00000220: 64c9 98be 8845 b3bd d702 c8be 0d33 03bf
00000230: e2b5 863e f9ad 883e d8fb 043e 5082 03bd
-0.22599994 -0.29518571 -0.2511632 -0.15059991 -0.2588711 0.09534435 0.09227399 -0.07154566
0.25019416 0.1508595 0.02708842 -0.03134937 -0.4158004 -0.19837195 -0.48607582 0.83526987
0.23330337 0.14721744 0.44828564 -0.121564336 -0.21887589 -0.28040078 0.02957683 -0.44667596
0.2772195 0.56262535 0.30423617 0.008298718 0.34001294 -0.15530455 -0.5471811 -0.4940296
0.29696876 -0.05502623 0.24030426 0.07924525 -0.3316153 0.20980407 -0.059413828 0.2944195
-0.27817857 -0.023090744 -0.01618978 0.25979942 0.41346666 -0.08391458 -0.12316043 0.56847066
-0.2190417 0.2599451 0.24642192 0.16548002 0.07862897 0.49045122 -0.00976583 0.19214337
0.5475127 0.23565863 -0.4638102 0.057471074 0.33501452 -0.1439045 0.041334014 -0.39965364
-0.20781076 0.20516881 0.17796123 0.3361052 -0.46715602 -0.038615044 0.25497806 -0.26474112
-0.21324652 0.40633705 -0.5099501 0.16808447 -0.30845997 0.12422802 0.17427632 -0.06817824
0.33551866 0.35807616 0.2949775 -0.02273002 -0.25613174 0.26725703 -0.2489224 0.043876767
-0.22569226 0.23913299 0.3343855 0.10670779 0.3191328 -0.0016548692 -0.17701992 0.29777116
-0.002661426 -0.21769662 0.64560515 0.158961 0.03498994 -0.010692864 -0.11055594 -0.2002691
-0.43766412 -0.0054295287 0.31433797 0.3565031 0.0458445 0.7805535 0.19777946 0.18696916
-0.43169388 -0.3297152 -0.031957313 0.2607757 -0.625476 -0.41800177 0.006776077 -0.386199
-0.09660945 -0.12762131 0.14084797 0.10844573 0.3824163 0.1490741 -0.34440336 0.427333
-0.25505546 0.16490775 0.20095004 0.18156852 0.08504813 -0.2832317 -0.34113693 0.3464131
-0.2984115 -0.087534964 -0.39064667 -0.5124977 0.2631064 0.2669523 0.12986696 -0.032106698

sun_influence_1.W_self.bias f4 [12]
00000000: 66d0 993c d428 2fbc 39b8 3d3c 647c 8c38
00000010: ff81 3aba 2edd 30bd a862 15bd 8475 1d3c
00000020: d56c d93b 46cf 19bc e798 3dba 9af4 cabb
0.01877613 -0.0106908865 0.011579567 6.69889e-05 -0.0007114708 -0.043179683 -0.03647104 0.009610537
0.0066352882 -0.009387797 -0.0007232562 -0.0061937096

sun_influence_2.W.weight f4 [12, 12]
00000000: bd70 04be 561a 883e e517 343d b00e 1d3c
00000010: d145 4a3e 9064 a2bd c0c6 a1be a608 833e
00000020: b94e 00be b3a6 983e e025 18be 80ef f63d
00000030: ec68 f2bd 9e42 3e3f 0b7a c23e f5da 863e
00000040: ba05 16be 841e 053f 9917 c33e d618 34be
00000050: 8f42 1bbd 4f8a 99be ab71 c33e db63 0d3d
00000060: 6f53 8bbe 9034 843e 8f37 0fbe ed19 893e
00000070: 5683 7cbe 4d4b 5cbe 9768 40be 346a d13d
00000080: 7c53 413f 9560 8e3b 2bee d53d 05ae 47bd
00000090: 5ad7 c2be 5518 9ebe 70d6 ad3e cc13 3a3e
000000a0: e0c4 ee3c a484 b2be e378 953e 5869 54be
000000b0: fd21 bb3d 7ed4 c9bc 1b06 3f3d 7230 91be
000000c0: 8e4a bd3c 6358 0c3f 0626 b0be 0c9d 88be
000000d0: d509 86be 530c cfbe 7c22 8bbe 1cda b9be
000000e0: ee0d c73d 204c a13e b82a 59be cde7 d6be
000000f0: d0cb 1dbe 327c 97be b60b 433d 06f1 333c
00000100: 4dfb cf3d b674 2bbf d7fb 30be 0c3c 583e
00000110: c740 273e b5d2 7ebe 900b 723c 3562 843d
00000120: 2abe 27be 8b74 0a3f e826 a9be 3464 68be
00000130: ff51 143e d773 cfbc 93a8 153e 8448 d03d
00000140: 72a5 3a3c 7e45 bdbe 1afa 9bbe 92aa 94bc
00000150: c031 53be 4a44 efbc 7f64 b23e f318 4d3d
00000160: 124c c83d e084 503e 8921 4e3d 618a 433e
00000170: 01d2 09bf d5cb 5abe 733a 26bd b4d2 b03d
00000180: 081f c8be 6b12 d1be ac71 75bd 2f25 533e
00000190: 83a0 f43d 920e 1dbf 0137 ac3e 6141 c6be
000001a0: 6d9f 663e 2b3b 1b3e a899 04bf c837 e9ba
000001b0: ebc7 19bf c58c f33d 59a4 3ebe d5b6 00bf
000001c0: ea65 40be f951 1bbf b923 7cbe 804b 9dbe
000001d0: f617 35bc 26d2 6fbb 1291 0e3c d3d4 bcbe
000001e0: 3e61 b83e 9d1e 0d3f 95df b1be c5b9 d0bd
000001f0: 97ad 943e 06bb 4fbd 43eb 6b3d b321 2ebf
00000200: 74e8 8cbe a89d bbbd b0e5 abbe 33ba 72ba
00000210: 8509 65be b46c 33bd 9715 f639 2900 8ebe
00000220: feff 5ebe 77a5 da3e f6bb c33d cf8e bdbe
00000230: fc39 7f3e f14d 093e cdb6 b53e dac2 d53e
-0.12933631 0.26582593 0.0439681 0.009586021 0.19753195 -0.07929337 -0.31596947 0.25592536
-0.1253003 0.2981468 -0.14858198 0.120574 -0.118364185 0.743204 0.37983736 0.26338926
-0.14650622 0.5199969 0.3810394 -0.17587599 -0.037905272 -0.29988334 0.3817266 0.034519058
-0.27212092 0.25821352 -0.13986038 0.26777592 -0.24659476 -0.215131 -0.18789898 0.10225335
0.7551801 0.0043450096 0.104458176 -0.048749942 -0.38054925 -0.3087794 0.33952665 0.18171614
0.029146612 -0.34866822 0.29193792 -0.2074331 0.09137342 -0.024637457 0.046636682 -0.28357273
0.02310684 0.5482237 -0.3440401 -0.26682317 -0.26179376 -0.4043909 -0.27174747 -0.36299217
0.09719454 0.3150339 -0.21207702 -0.41973725 -0.1540978 -0.2958694 0.04761859 0.010982757
0.10155354 -0.6697496 -0.1728357 0.21116656 0.16333304 -0.24885066 0.0147732645 0.06464044
-0.16381136 0.5408408 -0.33037496 -0.22694474 0.14484404 -0.025323791 0.14615087 0.10170081
0.011391984 -0.3696708 -0.3046425 -0.01814774 -0.20624447 -0.029207367 0.34842297 0.05007262
0.09780134 0.20363188 0.05032495 0.19095756 -0.53836066 -0.21366818 -0.040583085 0.086339384
-0.39086175 -0.40834364 -0.05992286 0.20619653 0.11944678 -0.6135036 0.33635715 -0.38721755
0.22521754 0.1515929 -0.5179696 -0.0017793113 -0.60070676 0.11892084 -0.18617381 -0.5027898
-0.18788877 -0.60671955 -0.24623002 -0.30721664 -0.011053076 -0.0036593764 0.00870158 -0.36881122
0.3601169 0.5512484 -0.34740892 -0.10191683 0.2903869 -0.05071547 0.05759741 -0.6802017
-0.27521098 -0.0916093 -0.33573675 -0.0009259313 -0.22366913 -0.04380484 0.00046936862 -0.27734497
-0.21777341 0.42704365 0.09557335 -0.37023017 0.24924463 0.13408639 0.35491028 0.41750222

sun_influence_2.W.bias f4 [12]
00000000: accc 263b ca88 843b 0c1c cfba 8476 433c
00000010: b5d8 97bc 671c c1ba 9bd1 b4ba 758a 813b
00000020: 7536 26bd b9bc ddbc 1953 3fbc e67a 11bd
0.0025451584 0.004044627 -0.0015801205 0.011930112 -0.018535951 -0.0014733196 -0.0013795377 0.003953273
-0.040579278 -0.027067529 -0.011677527 -0.035517596

sun_influence_2.W_self.weight f4 [12, 12]
00000000: 01e5 05be 0a21 9f3d d4c0 89be 49a2 253f
00000010: ada5 f0be 9e74 b6be 2edf 1dbd 14a5 dc3d
00000020: 94a6 06be fb49 033f f39a 593e ad7a 2b3d
00000030: 434b 743d a909 793e c825 bc3e c019 bd3e
00000040: d0b1 c03e f7cb 4e3e 1ef4 45bd 7c7c 1c3e
00000050: 4586 93be b1d0 2c3e 22ac a33e e03f 563e
00000060: c54d 50be cec5 b5bb 2397 a33d 4262 f8be
00000070: 1905 1f3e 6cb7 203d 8674 4b3e a0e9 d43e
00000080: 356c 54be ad8a 42be fd68 41bd a83d 503d
00000090: c91b 62bf f7ec 1fbe b528 523e 8a40 d13e
000000a0: 2ecf f33e f9c6 fcbd f2fd 35bf 08a5 c5be
000000b0: bb32 dd3e 7fa2 903e 4469 ff3e 3060 0c3b
000000c0: 21ec ee3d 8b7a ff3e 8482 06be adfe b83d
000000d0: 5917 ae3e f1dd 02be 29b3 a4bd b1db 87be
000000e0: 95cb 34be 1c86 0bbe 3cbc 65be 6e12 c0be
000000f0: 68f2 123f a6c3 f43e 01f6 973d 1792 be3e
00000100: 3d2e c43e 3f7a 323e e49e 253e f7d6 93be
00000110: ade0 553e 1868 b8bd 8bd5 823f e53b a8be
00000120: 734e 8c3e ef77 b3bd 18e1 a6bc 6eff 923e
00000130: 78e1 5fbc 4b2a 76be c496 79be 9b1a dcbc
00000140: 95ec aebe afc8 4c3e 0d87 bcbe aaed 0b3f
00000150: fd02 08be 260d b83c b3ee 99be 21c9 5ebe
00000160: b9b0 153e 0ffd 8c3e 6f8d 07bf efb4 833e
00000170: b308 e2be 4c0f 5dbe dd8b 073f f174 05bf
00000180: d4f7 4cbf 6992 943d fb3e 5dbd bbbb 3ebc
00000190: 7b90 bc3d 60b4 97bd 5d23 913e 9821 163d
000001a0: a5fb 673e 4541 243e 9917 1c3e c161 2e3d
000001b0: c1bf b0be d75f 6bbe c03b 8ebe 4646 273e
000001c0: 64a1 bbbd 21c7 c9be a73f dbbd e468 18be
000001d0: 70f8 8b3d 874e b93e b89e 6f3e 19b6 fcbe
000001e0: c81e 983e 4e4f 3dbe aba9 36bd 4c0a 39bb
000001f0: c57e b9be 1745 23be ccfb b13e 3b8e 96be
00000200: 421f 7bbd 36ed 0fbf 72ac 973e ee22 3bbe
00000210: cc53 11bd 467c f8bc ec02 843d 1e2c 50bf
00000220: cdc8 0b3f cc41 96be 5ac6 49be c347 133f
00000230: e1ec ee3e 6868 e6bc af67 9e3e ced2 cbbe
-0.1307564 0.077699736 -0.2690493 0.6470075 -0.470014 -0.35635847 -0.03854292 0.10773674
-0.13149482 0.5128476 0.21250515 0.04186504 0.059642088 0.24320091 0.36747575 0.36933708
0.3763566 0.20194994 -0.04832851 0.15281862 -0.28813377 0.16876484 0.31967264 0.20922804
-0.20342167 -0.005547262 0.079878114 -0.48512465 0.15529288 0.039237425 0.19868669 0.41584492
-0.20744403 -0.18998213 -0.047219265 0.05084005 -0.88323647 -0.15617739 0.20523341 0.40869552
0.47619003 -0.123426385 -0.71090615 -0.3860247 0.43202767 0.28248975 0.49885 0.0021419637
0.11666132 0.4989818 -0.13135725 0.090329506 0.34002188 -0.12779976 -0.080419846 -0.265348
-0.17655785 -0.13625377 -0.22435087 -0.3751406 0.5740113 0.47805518 0.074199684 0.37220833
0.38316527 0.17429446 0.16173893 -0.28874943 0.20886488 -0.09004229 1.0221418 -0.32858196
0.27403602 -0.0876311 -0.020371005 0.28710502 -0.013664596 -0.24039571 -0.24373919 -0.026868155
-0.34164873 0.1999843 -0.36821786 0.5465952 -0.1328239 0.022467207 -0.30064926 -0.21756412
0.14618196 0.27536818 -0.52950186 0.2572398 -0.44147262 -0.21587867 0.5294779 -0.52131563
-0.80065656 0.07254488 -0.05401514 -0.011641438 0.09207245 -0.07407451 0.28347293 0.03665313
0.22654589 0.16040523 0.15243377 0.042573694 -0.34521297 -0.22985779 -0.2777996 0.16335401
-0.09161642 -0.39409736 -0.107055 -0.14883763 0.06834495 0.36192724 0.2340039 -0.4935768
0.29710984 -0.18487284 -0.0445954 -0.0028234897 -0.3622953 -0.15944324 0.34762418 -0.29405388
-0.061309107 -0.5622133 0.29623753 -0.18275043 -0.035480306 -0.030332696 0.0644587 -0.8131732
0.5460327 -0.29347074 -0.19704571 0.57531375 0.466651 -0.028125957 0.3093848 -0.3980927

sun_influence_2.W_self.bias f4 [12]
00000000: accc 263b ca88 843b 0c1c cfba 8476 433c
00000010: b5d8 97bc 671c c1ba 9bd1 b4ba 758a 813b
00000020: 7536 26bd b9bc ddbc 1953 3fbc e67a 11bd
0.0025451584 0.004044627 -0.0015801205 0.011930112 -0.018535951 -0.0014733196 -0.0013795377 0.003953273
-0.040579278 -0.027067529 -0.011677527 -0.035517596

sun_influence_3.W.weight f4 [12, 12]
00000000: d023 77be 9146 163c e5ca 4c3d a67d 90be
00000010: c351 0cbe 9f0c 83be 4c86 ca3d 8ee9 fabe
00000020: 47f6 04bd 9bbc 8dbd 7b6b 1fbe 4174 64be
00000030: 6fa5 433e 0060 afbd 52c6 febe 8778 563e
00000040: 092e 30be 48d8 b23e 5fdb af3e dd03 c93d
00000050: 643c 22be f24a a4be 1fe7 8fbc e33e babb
00000060: c9c4 c6be 7d47 233c b870 37be 7896 2ebd
00000070: 5c35 353e da24 d53c 67b3 04be 276f 343e
00000080: 4276 913d 80e9 b3be bd57 2abc 7ea8 4dbe
00000090: 2e09 103e 41b3 763e ee65 0abe 8c8b 12be
000000a0: 6b8e 79bd b8ff 6ebd f681 a83e e71b 07bf
000000b0: 6525 1e3e f963 ca3d dd87 433d d29d f8be
000000c0: 222b 833e d39b c6be a258 033e cd7a 5bbd
000000d0: 918f cbbe cfd7 883c 6269 8cbe 7923 fc3e
000000e0: 1dab f5bc 3404 b43e 36a7 903e 0835 a63e
000000f0: 6367 6b3e 7ff1 8abe 7e10 cf3e 197f a7bb
00000100: c4ea ee3c b7cb 283e 3775 473e 632b 903e
00000110: fe82 89be bc80 4ebd f1f0 8fbd 14ca 33be
00000120: cae1 ecbd 8e21 f63e 7468 1f3d 6c11 923e
00000130: 6586 b33e aa69 163f 2966 833e c25f 973e
00000140: 2670 92bd ddb8 5fbe f80c 47bc 0a18 9ebe
00000150: 1a5c 803d 14e6 32be ab6c ccbe e6a3 2bbe
00000160: aeb7 a1bc a693 a6be e575 713d e0b1 3fbe
00000170: b7ad 8fbe bd6f d53d 8093 093e d9a1 98be
00000180: 2af0 a93d fbf4 ebbe 46a0 0a3d 9359 0ebf
00000190: aad5 07be f23d b7bc 201a d43b 04cc 0a3f
000001a0: ad98 3fbb ab64 51be 1fcc 883e 9367 f4bd
000001b0: 765b 05be 3a4b 90be 5a3b 283d e961 43be
000001c0: e4f7 443d ed17 0dbf 1a28 b4be 6e60 483d
000001d0: 7031 c43e 0ba9 a33e c659 0dbe 0d59 7fbe
000001e0: 720e db3e b708 afbd aae9 ad3b 4ec6 db3e
000001f0: db3c b1bd 9910 96be 5a7c aebe f00d bb3e
00000200: f105 35bd 2d06 2bbe ebde 28bd 45e8 c63e
00000210: 7977 73bd 1f5c 833e f89d 983e 2e88 4a3d
00000220: 1d29 e2bd 180e ccbd 325d ab3e c2f5 7dbe
00000230: 3412 97bd 4981 08be 312f 13bf c998 a73e
-0.24134755 0.009172098 0.049998183 -0.28220862 -0.13703065 -0.25595567 0.09888896 -0.49006313
-0.03246143 -0.06920739 -0.15568344 -0.22309972 0.19106077 -0.085632324 -0.4976068 0.20944415
-0.17205061 0.34930634 0.34347054 0.0981519 -0.1584335 -0.3208843 -0.017566262 -0.005683766
-0.3882201 0.009965775 -0.17914093 -0.042623967 0.17696136 0.026018549 -0.12959062 0.17620526
0.07102634 -0.35139084 -0.010396895 -0.20083806 0.14066002 0.24091817 -0.13515446 -0.14311045
-0.060926836 -0.05834934 0.32911652 -0.5277695 0.15443952 0.098823495 0.04773699 -0.48557907
0.25618845 -0.3879076 0.1282678 -0.05358391 -0.3975797 0.016704468 -0.2742415 0.49245813
-0.02998882 0.35159457 0.28252572 0.32462335 0.22988658 -0.27137372 0.4044227 -0.005111587
0.02916468 0.16483961 0.19478308 0.281581 -0.26857752 -0.05041574 -0.07028378 -0.17557555
-0.11566503 0.48072475 0.038917974 0.28528917 0.35063472 0.5875498 0.2566388 0.29565245
-0.07150297 -0.21847863 -0.012149088 -0.30877715 0.06267567 -0.1747058 -0.39926657 -0.16761741
-0.019740906 -0.32534522 0.058950324 -0.18720198 -0.2806222 0.10421703 0.13435173 -0.2981098
0.08297761 -0.46085343 0.033844255 -0.5560543 -0.132651 -0.022368405 0.006472841 0.54217553
-0.002923529 -0.20448558 0.26718232 -0.11933818 -0.13023171 -0.28182393 0.041072227 -0.19080319
0.04808797 -0.5511463 -0.35186845 0.048920088 0.38318968 0.31964907 -0.13803777 -0.24936314
0.42784458 -0.08546584 0.005307396 0.42924732 -0.086541854 -0.29309538 -0.34079248 0.3653407
-0.04419512 -0.16701575 -0.041228216 0.38849083 -0.05944011 0.2565622 0.2980802 0.049446277
-0.11042998 -0.09963626 0.3346954 -0.2480078 -0.07376519 -0.13330568 -0.57493883 0.32733753

sun_influence_3.W.bias f4 [12]
00000000: 6fbf 9d3a 816f 11bc 6c08 0dbd a3be 1cbc
00000010: 20c2 533b 7c4a 6a3a c701 e93b dac9 c4bb
00000020: 1fa4 8c3b 5038 84bc 9425 5d3b 28d3 8aba
0.0012035201 -0.008876682 -0.03443186 -0.009566936 0.0032311752 0.00089374906 0.0071108076 -0.006005508
0.0042920257 -0.016140133 0.0033744322 -0.0010591494

sun_influence_3.W_self.weight f4 [12, 12]
00000000: e930 37be 72c5 d93d 0ed5 e13d 1396 913e
00000010: db3c f13e f2e0 a7bb 41fd 19bc 0251 c53e
00000020: 667e 24be 990f 30be 3aa5 60bd 5a9a c53d
00000030: cf1c a93d ffb3 a63c 4a5c e53d 6577 f03e
00000040: 24f5 c4bd ccde 74be 69c9 37be 52ff 5c3e
00000050: e489 b2be 6d02 c83e 52d8 43be c2aa 5a3e
00000060: 9708 813d e71e cebd 74f7 313e de27 093e
00000070: 91c0 c8bd 5688 003e ccf6 c3be c3f1 4e3e
00000080: 879e 42bf 039c 943e 17d0 8abe d175 4dbc
00000090: ac2a 5e3e cf5a 8a3e c139 a03e 5dac 693e
000000a0: 0ec7 20bd 679f 2abf 56ce c0bd 8cb0 ae3d
000000b0: bcda fbbe 21ee 52bd 9497 0e3f aa72 e6bd
000000c0: e35a 66be 6a97 0abe a418 7d3b d47d 283f
000000d0: c2f4 92be 259d 3b3d 4833 3a3e 6d0a b9be
000000e0: 60c4 84be 5e75 a43e 57d0 84be 9fdc b23e
000000f0: 570c 2b3e 5688 913d 5db8 2fbe a048 273f
00000100: 2249 42be ee4b 043f 1466 b13e fb2b 883d
00000110: 747e 2ebc 03a0 00bf 6f18 27bf d3d9 013e
00000120: a5d2 7fbe 1f5d 6f3e c2ee 0d3f 2ba2 893e
00000130: 9335 cb3d 3603 873d 08a4 e43e 8297 723e
00000140: 931f a73d b042 0bbe 8bd3 f83d 65a7 3d3d
00000150: 25b2 b0be 4bcb 0abe 1b93 56be 48bc 9f3d
00000160: 14c1 31be b606 97bd d252 a93e 1fc3 56bd
00000170: 6c4d cd3c d3e0 3c3e ad73 65be f7a6 163c
00000180: b316 04bd db37 53bf a886 0c3e a28e 303e
00000190: a4c7 84be d4d6 2a3f 0b6b 983e e3da 183d
000001a0: 1f6e e0bc cc57 0d3e 1350 66be 6a0b d8bb
000001b0: 5e22 4abe df3f 7d3e 24ac 843e 0cca 443d
000001c0: e579 c1bd 22b4 33bd 9833 14be d124 0abe
000001d0: 96e8 95be 84d5 efbc f497 cdbd 7191 4ebe
000001e0: 2d78 123f 40cb 5f3d c5d0 9dbd 3a84 1b3f
000001f0: 8e16 d7bd 64ff 9b3d 5a5c 8c3d e068 b5bd
00000200: 3f97 d43e 355c a33e b8d5 f43e 8037 e3be
00000210: 6c3f c1be 213c 85be ce71 e3be 66ac dabe
00000220: 35e7 ccbc 28f6 9d3e 9206 b9be b333 0fbf
00000230: f44c 163c a698 9b3e 6689 a63e ae01 71be
-0.17889751 0.10633363 0.11026965 0.2843481 0.47116742 -0.005123251 -0.009398759 0.38538367
-0.16063842 -0.1719345 -0.054845072 0.09648581 0.08257448 0.0203495 0.11199243 0.4696609
-0.09617069 -0.23913115 -0.17947926 0.21581772 -0.34870827 0.3906435 -0.19125488 0.21354201
0.063004665 -0.10064488 0.17379552 0.13394114 -0.09802354 0.12552008 -0.3827423 0.20209412
-0.76023144 0.29025277 -0.27111885 -0.012540297 0.21695966 0.27022406 0.31294063 0.22819658
-0.039252333 -0.6664948 -0.094143555 0.085297674 -0.4919032 -0.05149663 0.5570004 -0.11252339
-0.22495608 -0.13534322 0.0038619423 0.65817 -0.2870236 0.04580416 0.18183625 -0.36140767
-0.25931072 0.32120794 -0.259402 0.34933946 0.16703926 0.07106082 -0.17160173 0.6534519
-0.1897321 0.5167836 0.34648192 0.066490136 -0.010650266 -0.5024416 -0.6527166 0.1268075
-0.24982698 0.23375367 0.5544244 0.26881537 0.09922328 0.06592409 0.44656396 0.23690608
0.08160319 -0.13599658 0.121497236 0.046302218 -0.34510913 -0.13554113 -0.20954554 0.07799584
-0.1735881 -0.07374327 0.33071 -0.052432176 0.025061332 0.18445139 -0.22407408 0.009195081
-0.03224821 -0.82507104 0.13723242 0.1724191 -0.25933564 0.6673405 0.29769167 0.03731812
-0.02739626 0.13803023 -0.22491483 -0.0065931575 -0.19739673 0.24731396 0.25912583 0.04804425
-0.09447078 -0.04387296 -0.14472806 -0.13490607 -0.2927901 -0.029276617 -0.100387484 -0.20172669
0.57214624 0.054637194 -0.07705835 0.60748637 -0.10502349 0.07617071 0.06853552 -0.08857894
0.41521642 0.31906286 0.47819304 -0.4437828 -0.377437 -0.26022437 -0.44422764 -0.42709655
-0.025012592 0.30851865 -0.36137825 -0.5593826 0.0091736205 0.303899 0.32526702 -0.23535797

sun_influence_3.W_self.bias f4 [12]
00000000: 6fbf 9d3a 816f 11bc 6c08 0dbd a3be 1cbc
00000010: 20c2 533b 7c4a 6a3a c701 e93b dac9 c4bb
00000020: 1fa4 8c3b 5038 84bc 9425 5d3b 28d3 8aba
0.0012035201 -0.008876682 -0.03443186 -0.009566936 0.0032311752 0.00089374906 0.0071108076 -0.006005508
0.0042920257 -0.016140133 0.0033744322 -0.0010591494

sun_influence_4.weight f4 [8, 12]
00000000: da7f a63e 7616 90be 1575 88be 2370 7f3c
00000010: 8f79 23bf d3d5 42bf 2ea1 3f3d f0d4 29bf
00000020: bdec 57be 0802 f1be db9f 01bf 4d8d 73be
00000030: d386 b4be 6a8c 27bd 6ff7 6c3e f5ac a7be
00000040: 94aa d4be 098f 6cbe 20e5 8fbe 432f 05be
00000050: 21dd d5bd 72f8 5ebd e0aa 30be b584 a9be
00000060: 6a9d d6be 01e5 32bf 291c 753e b014 71be
00000070: 00e8 113f abf9 183d ae63 86bd bedc d33e
00000080: f213 e03d 412a 13be 059a 093f f510 1bbe
00000090: be8b 213e 4f45 b6bb c8ff e03e b700 0dbf
000000a0: f976 293e 298d e93e 4082 883d 1ad3 6abd
000000b0: b246 0fbe 5a1b 973d 204c 45be 311c d23e
000000c0: a14c 013d ff97 d43d a6bb adbe 65bc d5be
000000d0: 3c39 1bbf 627a 1abe 5598 6fbe c781 643d
000000e0: bf9e b7be 15d6 0bbe 1c7c 00be 565b 213f
000000f0: 1ee3 15be 4a2f 5fbd c724 5a3d 571e 22be
00000100: 47ff 3e3f 7442 c8be 5ebc babe 037d 24be
00000110: cf78 3a3e cbb4 b7be 774a c53e 5052 ecbe
00000120: e547 623d f8cb c2be 44bb afbe d382 843e
00000130: 517d 8c3e f031 22bf 2ee2 8fbd 2bcd 1bbf
00000140: a66a 40bd 1304 c13d d06f 6abe 492e e4bd
00000150: 08f1 bb3e 8672 233b 9dd0 f7be 2854 943d
00000160: 1a53 f2be d177 4abd 0ea9 14be 7080 b83e
00000170: e34b 67be 2366 89bd 28b4 e43e db86 67be
0.32519418 -0.28142136 -0.26651827 0.0155907 -0.6385736 -0.7610752 0.046784572 -0.6634054
-0.21086402 -0.47071862 -0.50634545 -0.2378437 -0.35259113 -0.040905394 0.23141263 -0.32749143
-0.4153639 -0.23101439 -0.28104496 -0.1300631 -0.104425676 -0.054436155 -0.17252684 -0.3310906
-0.41916972 -0.6988068 0.23936523 -0.23543048 0.5699463 0.037347477 -0.06561981 0.4137935
0.10941304 -0.14371587 0.5375064 -0.15143187 0.15775964 -0.0055624614 0.43945146 -0.55079216
0.1654929 0.4561551 0.06665468 -0.05733023 -0.13991812 0.07378264 -0.1926732 0.41037133
0.03156722 0.103805535 -0.33932227 -0.41745296 -0.6063421 -0.15085748 -0.23397954 0.055787828
-0.358633 -0.13655885 -0.12547344 0.6302999 -0.1463742 -0.054488458 0.05325773 -0.15831886
0.7460827 -0.391132 -0.36471838 -0.16063313 0.18210147 -0.35880122 0.38533375 -0.4615655
0.055244345 -0.3804624 -0.3432256 0.2588106 0.2743936 -0.6335745 -0.07025562 -0.60859936
-0.046976708 0.09424605 -0.22894216 -0.11141641 0.3670733 0.0024940087 -0.48401347 0.07242614
-0.47329026 -0.049430672 -0.14517614 0.3603549 -0.22587542 -0.06708934 0.44668698 -0.22610037
