src/Photosynthesis/RL/SavedModels/model_63.pth (torch, 30290 bytes, 34 tensors)

player_tree_1.W.weight f4 [12, 12]
000000 ca d7 7b 3e f0 06 f8 be d6 40 8f 3e b9 45 1a be
       0.24594036 -0.48442793 0.27979153 -0.1506566
000010 dd 6e a4 3e 57 af e0 bd a7 79 96 be c4 b4 27 3c
       0.32115832 -0.109709434 -0.29389688 0.010235969
000020 bb a5 05 3f 20 6d b1 bc 5e 2a a9 be a8 53 ed bd
       0.5220601 -0.02165848 -0.33040136 -0.11588222
000030 3f f4 c8 3d 6c d8 2a 3e 14 5b b5 3e 76 58 0d bd
       0.09812211 0.16684121 0.3542105 -0.03450819
000040 fa a5 78 3e 7a 9d a7 be 34 36 8c bd b8 6b 46 be
       0.24282065 -0.32737333 -0.06846276 -0.19377029
000050 25 35 00 3e 39 83 8a 3e c1 b5 13 3f ee f3 90 3e
       0.12520273 0.2705324 0.5769921 0.28311104
000060 79 f0 c9 bd 60 3d 84 3e 9e e3 34 bf 6e f7 2d 3e
       -0.0986032 0.25828075 -0.70659816 0.16988918
000070 83 18 ba 3e bb f5 9a 3e b0 42 f8 bd a9 69 17 bf
       0.36346826 0.30265602 -0.12122095 -0.591456
000080 29 6d 07 3f cb 46 71 3e e8 6d c9 be 7f 68 8b be
       0.5290094 0.23562162 -0.39341664 -0.27228162
000090 1d 70 46 be 8f 53 7b 3c c9 dc 15 be c3 55 68 be
       -0.19378705 0.015339746 -0.14635004 -0.22688965
0000a0 c8 ea c6 3d 1d bb d3 be 32 9a ab bc 5d b8 0f bf
       0.0971275 -0.41353694 -0.02094755 -0.5614069
0000b0 04 a1 ee be 66 15 1c 3e f4 84 b4 be 01 78 27 3d
       -0.4660722 0.15242538 -0.35257685 0.04088593
0000c0 4b 73 d5 be a2 ee 8b bd 64 26 c4 3c 4b 59 ee 3c
       -0.41689524 -0.06832625 0.023944087 0.029095313
0000d0 fe 8e 7f 3d af ec a0 3d a8 9f ba be d7 3d a2 3e
       0.062392227 0.07857644 -0.36449933 0.31687805
0000e0 30 f9 bd be 20 b0 d9 3d 93 1a 95 bd 96 3b 1a 3f
       -0.37104177 0.10629296 -0.07280459 0.6024717
0000f0 2e 0b 83 3e 35 9c ec 3e db 24 1f 3f c8 c1 24 be
       0.25594467 0.46212927 0.6216561 -0.16089547
000100 af e4 19 3e 82 25 12 3f cc b3 8d 3e 42 77 b4 3e
       0.15028642 0.5708848 0.27676237 0.35247236
000110 95 4d 2a 3e 38 cf 9a 3f 83 0f e0 bc e8 30 95 3e
       0.16631158 1.2094488 -0.027351147 0.29138875
000120 c1 e8 2c be d6 d4 4a 3e 8d 89 0c 3f 51 c6 37 3e
       -0.16885664 0.19807753 0.54897386 0.17946745
000130 b7 1f 38 be e2 58 d0 bd 85 e0 9c bd e4 ed 92 3e
       -0.17980848 -0.10173203 -0.07660011 0.2869712
000140 bf cb 36 be 52 3e 55 be 0d dc 8b be 50 75 80 bd
       -0.1785116 -0.20824555 -0.27316323 -0.062723756
000150 ee 73 52 3e a2 7f 14 3d f9 5e 42 be 81 8c 82 bc
       0.20552036 0.036254533 -0.18981542 -0.015936138
000160 cd 92 45 3d 25 46 5d bd 0e da 11 bf 8f a0 0d be
       0.048235703 -0.054021973 -0.5697335 -0.1383078
000170 42 88 32 be 27 37 8c 3e cb 5e c3 be 08 57 c4 3e
       -0.1743479 0.27385828 -0.3815826 0.3834765
000180 3d c0 37 3e 72 aa 30 be 20 9c 6f bf be 73 8b bd
       0.17944427 -0.1725252 -0.935976 -0.068091854
000190 c4 3e 9c be ca 0c 7d bd cd 88 08 bf 59 19 10 be
       -0.30516636 -0.061779775 -0.5333374 -0.1407217
0001a0 27 66 74 3e ec 03 23 3e 4a d2 cc be 6f e7 47 be
       0.23867093 0.15919465 -0.40004188 -0.19521879
0001b0 4f 1b 8b be 8c 10 6c 3e 40 28 86 be b5 8e f8 bd
       -0.27169272 0.23053187 -0.26202583 -0.12136594
0001c0 c4 f0 b5 bb be 8c db 3d fc 13 ed be f8 10 8b bd
       -0.005552383 0.10720204 -0.4630431 -0.06790346
0001d0 c0 87 07 bf 25 90 b5 bd 83 4c c6 be 97 79 dd 3d
       -0.52941513 -0.08865384 -0.3873025 0.10814207
0001e0 c7 95 37 3f c0 cc 4f bd 84 3b 2b be 02 b6 40 3d
       0.7171292 -0.050732374 -0.16721922 0.047048576
0001f0 be 9a 07 3f de 8c da 3e be 7b e5 be 62 47 50 bd
       0.5297049 0.42685598 -0.4482097 -0.050849326
000200 87 f8 d8 3d b5 26 bb be de a3 08 bf 64 6b d4 bb
       0.10594278 -0.3655297 -0.5337504 -0.0064825285
000210 3a 8e ff 3d 59 ed de be 52 37 6d bd 46 8b 9e be
       0.124782994 -0.43540457 -0.057914086 -0.30965632
000220 b3 b5 37 3e 1a af 11 be d3 49 82 3d 11 8c 7e be
       0.17940407 -0.14226952 0.06361737 -0.24858119
000230 ac 7c 32 bf 5a 68 f6 be 19 05 77 be 09 57 99 bd
       -0.69721484 -0.4812649 -0.24123038 -0.07487304

player_tree_1.W.bias f4 [12]
000000 f3 ad 24 3c 03 8e 3f 3d b0 8d d7 bc 04 f6 a5 bd
       0.010051238 0.046766292 -0.026312679 -0.081035644
000010 b3 d7 59 bc a6 b4 a9 3c 47 35 e8 bc ef 9a 84 3d
       -0.013296056 0.020716023 -0.028345717 0.06474864
000020 97 2d aa bd e5 8f 3a bd b0 7c 93 3d 02 5b 66 bc
       -0.08309477 -0.045547385 0.07201517 -0.014059784

player_tree_1.W_self.weight f4 [12, 12]
000000 31 70 44 bd 16 0c 0e 3f d4 a4 24 3e 63 bc bc be
       -0.047958557 0.5548719 0.16078502 -0.36862478
000010 32 83 65 3d 7e f0 23 be ab cf 8c 3e c6 cf f8 3d
       0.05603332 -0.16009709 0.27502188 0.12149005
000020 d4 d4 fe 3e c7 46 15 3e 22 43 c6 be 85 31 66 be
       0.4977175 0.1457778 -0.38723093 -0.22479828
000030 7f 37 64 be b3 01 05 3f 6b 5c 78 3e 45 95 99 be
       -0.22286795 0.5195572 0.24254005 -0.29996696
000040 76 67 ee 3d bb 05 92 be a2 e8 e3 3e e8 89 4f 3e
       0.11640827 -0.28519997 0.44513422 0.20267451
000050 39 9b c4 bd e1 63 56 3f fc 69 d0 3e 20 1f 4b 3e
       -0.09599919 0.83746153 0.4070586 0.19836092
000060 55 c8 91 bd 81 ac db 3e fe 43 08 be de aa 24 3e
       -0.071182884 0.42905048 -0.13307187 0.16080806
000070 fd 38 39 3e ad 4b bc 3d 3b e0 d7 3d f8 b3 dc be
       0.18088146 0.091941215 0.105408154 -0.43106055
000080 44 03 04 bf 58 e5 fd 3e bb 24 e8 3e de 3d 8a 3e
       -0.5156748 0.49589038 0.45340523 0.27000326
000090 f8 d6 03 bf ec 3d a4 3d 24 e7 93 3e 20 04 04 bf
       -0.5149989 0.08019623 0.28887284 -0.51568794
0000a0 3b b7 b1 3e 51 d9 f3 3d 06 c4 8c 3e 96 56 5f bf
       0.34710106 0.11906684 0.27493304 -0.87241495
0000b0 4a 0a c6 3d 80 07 1b be 66 ef 2b 3e 2c 9b 34 bd
       0.09669931 -0.1513958 0.16790542 -0.044093296
0000c0 b9 0d 13 be 9b 5d 6c be 23 fe af 3e ae 21 85 bd
       -0.14360704 -0.23082583 0.34373578 -0.065005645
0000d0 0d 0a 5f 3e 0d 66 7a 3e 1b 76 9e 3e c6 c9 a7 be
       0.21781178 0.24452992 0.30949482 -0.32771128
0000e0 ae c6 b4 3d a2 d1 e9 bd 4d 10 d5 be e5 32 9f bd
       0.08826958 -0.114169374 -0.41614 -0.07773379
0000f0 8c f4 4d bc 58 2a 34 3f df a2 c3 3e 0e 74 89 3e
       -0.012570512 0.7037711 0.38210198 0.26846355
000100 28 bf a5 be 96 89 9e 3e 30 48 ef 3d ac d8 87 3e
       -0.32372403 0.30964345 0.116836905 0.26532495
000110 8c cf b4 be 85 27 6f bd d6 d2 07 3f 89 4a a4 bd
       -0.35314596 -0.058387298 0.53056085 -0.08022029
000120 5f 52 01 3e 13 4d 76 3e 57 5b 35 3f cb 38 ed 3e
       0.12629078 0.24052839 0.708425 0.46332392
000130 31 2f ea 3d ee 08 d2 3e ac a1 31 be 08 41 1a bf
       0.11434782 0.41022438 -0.17346829 -0.6025548
000140 c0 c5 7b 3d aa 97 4f 3e dc e6 19 bf fa fd e5 bd
       0.061467886 0.20272699 -0.6011789 -0.11230083
000150 71 3a 0e bc d9 55 b2 3d 60 bc 46 3e cf d7 6a 3e
       -0.008680926 0.087077804 0.19407797 0.22933887
000160 bf c2 ac be 00 b4 08 3f 72 63 0c bf 4d d8 1f 3e
       -0.3374233 0.5339966 -0.5483924 0.15609856
000170 67 5f d9 3d 50 0b a6 3e f7 b2 3b 3e 00 e0 ad 3e
       0.106139 0.32430506 0.18329988 0.3395996
000180 e2 3e a4 3e d3 93 f4 be 2c 99 3c bf 00 60 96 3e
       0.32079226 -0.4776903 -0.7367122 0.29370117
000190 71 c3 d3 3e e9 bb be be 16 2a b9 bd ee d7 aa 3e
       0.41360047 -0.3725274 -0.090412304 0.33367866
0001a0 09 f6 4d be 4f 4c 15 3f 29 20 cc 3e f3 d8 66 bd
       -0.20113386 0.5831956 0.39868286 -0.056359243
0001b0 01 8f de be 84 61 7c be 66 87 ee 3d 56 9b ca 3e
       -0.43468478 -0.24646574 0.11646919 0.39571637
0001c0 f0 b5 1b 3d dd 2b bc 3e 58 5f 10 3f 54 8b 91 3e
       0.038015306 0.36752215 0.56395483 0.2842661
0001d0 65 18 80 3e a0 f3 d8 3d 97 69 77 be 38 15 b4 be
       0.25018612 0.10593343 -0.24161373 -0.3517244
0001e0 66 98 37 3e 1f d6 bb bd 1d e2 99 3e f2 0e 2e 3c
       0.17929229 -0.091717 0.30055323 0.01062368
0001f0 7e b1 be be 66 49 dc 3e 74 d6 2d be 4a f9 9b 3d
       -0.3724479 0.4302475 -0.16976339 0.076159075
000200 8a e7 af be ee c2 f2 3e 16 dc 82 3e 6d 96 a9 be
       -0.34356338 0.47414345 0.25558537 -0.33122578
000210 db 5d 05 3e a9 39 0b 3f 9d f5 c6 be d3 4b 8c 3e
       0.13024084 0.5438486 -0.38859263 0.274016
000220 10 b1 9e be 18 af 00 3f 50 c9 a5 be 62 1c f9 bd
       -0.30994463 0.5026717 -0.32380152 -0.12163617
000230 d5 32 74 3e 22 f1 cc bd 14 f0 1f be f2 4d 08 bf
       0.23847516 -0.1000693 -0.15618926 -0.53243935

player_tree_1.W_self.bias f4 [12]
000000 f3 ad 24 3c 03 8e 3f 3d b0 8d d7 bc 04 f6 a5 bd
       0.010051238 0.046766292 -0.026312679 -0.081035644
000010 b3 d7 59 bc a6 b4 a9 3c 47 35 e8 bc ef 9a 84 3d
       -0.013296056 0.020716023 -0.028345717 0.06474864
000020 97 2d aa bd e5 8f 3a bd b0 7c 93 3d 02 5b 66 bc
       -0.08309477 -0.045547385 0.07201517 -0.014059784

player_tree_2.W.weight f4 [12, 12]
000000 8d 48 8f 3e be a8 86 be 0b 64 5e bf 19 cb a2 bd
       0.2798504 -0.26300615 -0.86871403 -0.07948894
000010 73 a0 19 be eb 69 d2 be 67 5c 7e 3e c0 eb 9d ba
       -0.15002613 -0.41096434 0.24839936 -0.0012048408
000020 49 c0 c2 3e 21 3d 54 be d5 2a 41 be 8d 3d 36 bf
       0.38037327 -0.20726444 -0.18863995 -0.7118767
000030 27 9e 10 bf f9 c7 b3 be d1 ed 1b bd 49 08 c9 3e
       -0.5649132 -0.35113505 -0.038068596 0.39264134
000040 ac f5 83 3e 5f 84 36 3e 68 e9 85 3e 97 84 bd 3d
       0.2577337 0.17823933 0.26154637 0.09253805
000050 84 63 04 bf fb 23 13 3e 35 9b da be 7d 67 f4 bc
       -0.5171435 0.14369194 -0.4269654 -0.029834503
000060 83 81 56 3f 46 32 c8 be 9c d7 04 3f 31 51 01 be
       0.8379137 -0.39100856 0.51891494 -0.12628628
000070 17 53 a1 3e 6b 5f c7 bd a8 fb c4 be e9 cc 1f be
       0.31508705 -0.097349964 -0.38473248 -0.15605511
000080 d5 72 5a be 4f 83 77 3e 95 2b 3d bf f7 52 c4 be
       -0.21332867 0.24171184 -0.73894626 -0.38344547
000090 92 c4 d0 bd e9 24 6e be 2d 72 51 bd ed fe d0 be
       -0.10193743 -0.23256268 -0.051134277 -0.40819493
0000a0 00 f1 4b 3e 5f f4 11 be b0 52 13 bd 22 9f 93 be
       0.19916153 -0.14253376 -0.03596753 -0.28832346
0000b0 60 ee 03 3d c8 ff 9e bd e5 2d 3c be a4 e9 ff 3c
       0.032209754 -0.0776363 -0.18376882 0.031239338
0000c0 1f bf 10 be d0 22 c5 bd 5c 77 fa be 25 c2 bf be
       -0.14135407 -0.096257806 -0.4891919 -0.37452808
0000d0 63 74 7c bd 46 74 b1 bd 03 28 88 3d 89 c1 44 3e
       -0.061634433 -0.086647555 0.06648257 0.19214453
0000e0 9d 97 42 3d 89 06 7e 3d ab db ec 3d 46 6d 10 3e
       0.04750787 0.06201795 0.11565336 0.14104185
0000f0 89 38 73 3e 7e 68 8c 3e a6 87 a7 3e 9f b9 1e 3e
       0.23752035 0.2742347 0.3272068 0.15500496
000100 3a 27 29 3e e0 c6 b9 3d f8 d1 c5 3d cd d7 16 be
       0.1651887 0.090711355 0.09659189 -0.14730759
000110 56 3c e2 3e 7c 45 68 bd b6 9f 0c bf fe ec 1e be
       0.44186658 -0.05670689 -0.549312 -0.15520093
000120 5f e7 a9 bd 6a eb 23 be 49 75 04 bf 61 54 c5 3e
       -0.08296084 -0.16007772 -0.5174146 0.38540938
000130 49 ed 58 3c 50 94 2f 3e 47 d5 0c 3e 21 2b 48 3e
       0.013240167 0.1714642 0.13753234 0.19547702
000140 84 97 11 3e 96 6a ae bd 75 20 e9 be 23 ac 10 3e
       0.14217955 -0.085164234 -0.45532575 0.14128165
000150 1c d9 8c 3e ea 40 8b be 6c de 2d be 3d ae bd 3d
       0.2750939 -0.27197963 -0.16979378 0.09261749
000160 9a 14 8b 3e e3 96 8c be 0a f1 24 3d bb 68 f9 be
       0.27164155 -0.27458867 0.040268935 -0.48712716
000170 21 56 b6 3e d8 ab 3f be 90 72 51 bd ec ef 53 bf
       0.35612586 -0.18717897 -0.051134646 -0.82787967
000180 41 10 00 bf ff fe 64 3c 2b a6 3f 3e 15 f1 a0 3e
       -0.500248 0.013976811 0.18715732 0.3143393
000190 da 12 17 3f 95 66 ac 3e 4c 27 cd 3e a9 a7 2d 3e
       0.5901314 0.33672014 0.40069044 0.16958489
0001a0 62 10 63 3e 5d 59 f0 bc 9f 6d 4d bd f4 65 a2 bd
       0.22174218 -0.029339487 -0.05015337 -0.07929602
0001b0 f7 1d f1 be bf 4b d5 3e a5 e0 0a be 41 11 6f 3e
       -0.47093174 0.41659352 -0.13562258 0.23346426
0001c0 46 12 91 3e 99 ae 13 bf b7 e5 0a bf 32 0f c9 bd
       0.28334254 -0.5768829 -0.5425677 -0.098173514
0001d0 54 af ce bc e2 a3 ad 3e ad 24 7d bc 9d 75 01 3f
       -0.025230087 0.33914095 -0.015450639 0.5057009
0001e0 b4 10 24 be 7e 14 65 3d 38 d2 56 be 16 e1 7b be
       -0.16021997 0.055927746 -0.2097863 -0.24597582
0001f0 f7 59 d4 be 0c 5a c2 be 81 26 30 bf 99 cd ee 3c
       -0.41474888 -0.37959325 -0.6880875 0.029150771
000200 a4 c4 11 3d d8 f6 7a be 90 8c 80 be 08 f2 90 3d
       0.03558792 -0.24508226 -0.2510724 0.07077414
000210 cb 56 e0 3d 78 27 24 3e 28 9b ab be 71 d3 15 be
       0.109540544 0.16030681 -0.33516812 -0.1463144
000220 2a 7b bc be 86 60 e0 be 89 69 19 3e 91 9d cc 3e
       -0.36812717 -0.43823642 0.14981665 0.39963964
000230 8f ff 6f 3e e9 65 96 bd 3d 8e ae be 9c 20 8a 3b
       0.23437332 -0.073436566 -0.34092894 0.004215313

player_tree_2.W.bias f4 [12]
000000 b4 6d 00 bc 90 69 8c bd 46 d7 98 bd 8c 71 7b bd
       -0.007838655 -0.06856072 -0.07462935 -0.061387584
000010 a7 c6 9c bd 67 5a 7b 3c c9 f2 1d bd f6 64 3b 3d
       -0.076550774 0.015341378 -0.038561616 0.04575058
000020 56 15 91 bd d8 46 53 3c 8e 23 4f bd 84 98 86 bd
       -0.07084148 0.012895308 -0.050571017 -0.06572059

player_tree_2.W_self.weight f4 [12, 12]
000000 af 96 4a 3e 0c 68 99 be bd a6 a3 3d ec 99 e1 3e
       0.19784044 -0.29962194 0.07990787 0.44062746
000010 15 f0 14 bf d5 93 69 bf b1 89 70 bd 65 70 44 be
       -0.58178836 -0.912412 -0.058725063 -0.191835
000020 09 73 45 bd d4 27 04 bf 1a e6 a8 3e 6e 34 5d 3e
       -0.04820541 -0.5162327 0.32988054 0.21602032
000030 b6 8f c0 3e 2e ee 01 be e6 5d 3e be 55 05 b0 bc
       0.37609643 -0.12688515 -0.18590507 -0.021486918
000040 82 5a 15 be 94 05 ef be a4 36 ab be fe 4c 19 be
       -0.14585307 -0.46683943 -0.33440125 -0.14970776
000050 4c 18 25 3f 1c 58 6d 3e 43 0f 5a 3d 5f b7 ec bc
       0.644902 0.23178142 0.05323721 -0.028896032
000060 73 ae 16 be 23 ae 8b be 3e c2 95 be e1 d2 d8 be
       -0.14714985 -0.27281293 -0.29249758 -0.42348388
000070 54 be 4c 3e 42 76 ae be 98 bd bf be 1e 89 65 3e
       0.1999448 -0.340746 -0.37449336 0.22415587
000080 83 9d f0 bd f8 34 9f bd d8 e8 7d be 4f 7c dc bc
       -0.11748793 -0.07773775 -0.24795854 -0.026914744
000090 c3 62 2c be bb 58 87 bd 81 0a 87 bf 78 f9 95 3d
       -0.1683455 -0.06608721 -1.055008 0.07322973
0000a0 c6 f6 45 3e 9e 78 b8 be ae a3 1d 3f f3 64 bb be
       0.19332418 -0.36029524 0.6157788 -0.36600456
0000b0 65 56 3c 3d 4b 1d b0 bd 60 cd bb bd 56 10 3a be
       0.04598083 -0.08599337 -0.091700315 -0.18170294
0000c0 20 79 00 bf 12 16 eb bd e9 33 b5 be ef fc 4b 3e
       -0.5018482 -0.11478819 -0.35391167 0.19920705
0000d0 93 55 8c 3e c9 d0 4b be b5 65 fd bd 6e da d1 3d
       0.27409038 -0.19903864 -0.12372915 0.1024674
0000e0 be e0 7f 3d 98 1c 90 3e 51 44 83 be 66 de 76 3e
       0.06247019 0.28146815 -0.2563806 0.24108276
0000f0 e7 dc fd be a0 e8 f2 bd 6a a5 73 be 99 0c 15 bf
       -0.49582598 -0.11860776 -0.23793569 -0.5822235
000100 81 98 aa be 48 dc f7 3e d7 56 18 be 6b 06 87 be
       -0.33319476 0.4841025 -0.14876877 -0.26372084
000110 f2 ca 02 3e 4a 0f 4f be 15 31 6a be d1 52 bb be
       0.1277273 -0.20220676 -0.22870286 -0.3658662
000120 33 2e f7 3e 44 9e 18 3e 35 b9 ab 3e 5b 8a 08 3e
       0.48277435 0.14904124 0.3353974 0.13334028
000130 3d 1d cd 3e 31 56 0e 3f d1 01 f1 3e c8 58 ed be
       0.4006137 0.5560027 0.47071698 -0.46356797
000140 d8 1b 84 3d 20 a3 8a 3e 03 98 9e 3d 5c 3e 0d be
       0.06450623 0.2707758 0.07743838 -0.1379332
000150 d4 77 05 3f 8d 75 ec bd a1 11 f8 3e 29 51 90 bc
       0.5213597 -0.115458585 0.4845095 -0.017616825
000160 26 8e fc bd 2b 46 89 bd 86 c7 ae be a0 a3 8f 3e
       -0.123318 -0.067028366 -0.341366 0.28054523
000170 ce 81 af 3e 47 9e 35 be 41 aa b5 3e 73 a8 68 3d
       0.3427872 -0.1773616 0.35481456 0.05680127
000180 44 e9 82 3e 65 e6 e2 3e c4 f9 31 be 3c 5e 74 be
       0.25568593 0.44316402 -0.17380434 -0.23864073
000190 85 88 05 be 48 d9 bf be 64 4d 40 bf 31 51 e9 bd
       -0.1304036 -0.3747046 -0.7511809 -0.11392439
0001a0 7b 6d e6 bd cb c4 84 be 24 ef 31 3e 80 0e bd be
       -0.112513505 -0.2593139 0.17376381 -0.36925125
0001b0 2e 8c b6 3e 7a af 34 3f f5 36 0f 3f c4 c4 9e bc
       0.35653824 0.70580256 0.5594323 -0.019380935
0001c0 49 11 37 3f 8c 99 15 3f 65 f7 01 3f f3 d3 f5 3e
       0.7151075 0.5843742 0.5076812 0.48013267
0001d0 38 95 b2 3e 04 6b f7 3e f5 a9 ee 3e b9 94 29 3f
       0.3487947 0.48323834 0.46614042 0.6624256
0001e0 dc 98 0b 3f 8f fb 72 3d 62 fe 8e be 5d 02 fc be
       0.5453012 0.059321936 -0.27928454 -0.49220553
0001f0 ce 1c d1 3e 40 ba bc be a3 b5 cc 3e 79 73 f3 bd
       0.4084229 -0.36860847 0.39982328 -0.11887259
000200 9e 5e 26 3e 8e 75 e6 bd b4 7d 9a be 67 72 98 be
       0.16247031 -0.112528905 -0.3017403 -0.29774782
000210 2f 09 01 bd d3 6e 97 3d d8 63 0d bd 8b e5 34 bd
       -0.0315029 0.07394185 -0.034519047 -0.04416422
000220 3b 5a 20 bd 4b ce 2b be a9 a8 dd bd d1 d5 ee be
       -0.03914855 -0.16777913 -0.10823185 -0.46647504
000230 29 2a 69 bd 99 60 44 bd 90 9e 1c be b6 13 a2 3e
       -0.056924973 -0.047943685 -0.15294862 0.31655663

player_tree_2.W_self.bias f4 [12]
000000 b4 6d 00 bc 90 69 8c bd 46 d7 98 bd 8c 71 7b bd
       -0.007838655 -0.06856072 -0.07462935 -0.061387584
000010 a7 c6 9c bd 67 5a 7b 3c c9 f2 1d bd f6 64 3b 3d
       -0.076550774 0.015341378 -0.038561616 0.04575058
000020 56 15 91 bd d8 46 53 3c 8e 23 4f bd 84 98 86 bd
       -0.07084148 0.012895308 -0.050571017 -0.06572059

player_tree_3.W.weight f4 [12, 12]
000000 35 02 c7 be 26 07 35 be 80 7f 1a bd b7 b5 0c bf
       -0.3886887 -0.17678508 -0.03771925 -0.54964775
000010 a6 93 df 3e a4 75 27 bd 55 46 7a be 95 80 c7 3e
       0.43667334 -0.040883675 -0.24440892 0.38965288
000020 0f 35 ac 3d ae c8 f4 bd 31 6c a8 be d3 4d 65 3d
       0.084085576 -0.11952339 -0.32895043 0.055982422
000030 f0 f1 de be fa 65 c3 be 5b 7b 3c bf 8c 9a 09 3d
       -0.4354396 -0.3816374 -0.73625726 0.033594653
000040 65 c6 5c 3e 79 22 a6 3e 62 d3 41 be 7c 6d 8c 3e
       0.21560057 0.32448176 -0.18928292 0.2742728
000050 47 b9 3e 3e 64 1f a7 3e 2c 10 50 be b6 1e b7 be
       0.18625365 0.32641137 -0.20318669 -0.35765618
000060 b1 c7 a5 be a3 08 e0 3e 44 62 c2 bd a3 1f 25 3d
       -0.32378915 0.4375659 -0.09491399 0.040313374
000070 5e 5c 34 3e 0e cf d3 be 63 bb ac be df 90 ad be
       0.1761336 -0.41368908 -0.33736715 -0.3389959
000080 dc 4b 6f be 45 e7 1f 3c 1e e7 02 3f bc 95 27 3d
       -0.23368782 0.009759729 0.51133907 0.040914282
000090 a7 98 10 be 75 70 77 3e 31 c6 d3 be 43 1e ee 3e
       -0.14120732 0.24163993 -0.41362146 0.46507463
0000a0 c5 c4 0c be 99 5a c4 be a9 12 5e be 9f e4 b5 bd
       -0.13746937 -0.3835037 -0.21686806 -0.08881497
0000b0 b2 7b c6 bd ca 9f 0e be 86 10 39 be 38 cf 02 bf
       -0.09691562 -0.13928142 -0.1807271 -0.5109744
0000c0 09 c5 3a 3e 44 14 b2 3e cd bb 82 be 80 64 3a bf
       0.18239225 0.34781086 -0.25533906 -0.728096
0000d0 eb 6d 8d 3e 24 c3 1e 3e 9d d9 12 3e 9a 0c 52 bc
       0.27622923 0.15504128 0.14340825 -0.012820387
0000e0 26 18 8a 3d d5 3c 2e be 69 be 04 3f a6 30 9e 3d
       0.06742887 -0.17015393 0.5185304 0.07724123
0000f0 45 5b 25 3d ff e9 9e 3d 3c c5 bd 3e 26 c6 34 3e
       0.040370245 0.07759475 0.3706454 0.17653713
000100 32 1c 0f 3f 44 bb 8e bc 4b f5 29 3f bf 1a f6 be
       0.559024 -0.01742328 0.6638991 -0.4806728
000110 33 77 b2 3c f0 32 6b 3d b0 b9 49 be 15 50 88 3e
       0.021785354 0.057421625 -0.1969974 0.26623598
000120 63 55 24 be 92 00 04 bd c2 7b c3 be 5e 51 68 be
       -0.16048197 -0.032227106 -0.38180357 -0.22687289
000130 d5 7f e8 bd fc 6c e6 3e cd e6 4f be 8c 0d 2f bd
       -0.11352507 0.45005023 -0.20302887 -0.04273753
000140 f7 bd 4b be db 53 93 3d f6 3f 8e 3d 3c 1e 9e 3e
       -0.19896685 0.071937285 0.06945793 0.30882442
000150 62 c8 27 3f 32 0a ac 3e 75 be 42 3f 4a 87 27 bf
       0.65540135 0.33601528 0.76071864 -0.6544081
000160 06 c1 01 be b9 d3 3a be b8 97 b8 3e 20 8d b1 be
       -0.12671289 -0.18244828 0.36053252 -0.34677982
000170 bc 50 89 be 37 7a 02 3f 2f 34 8f 3d 1d 1d ba 3e
       -0.26819408 0.50967735 0.06992375 0.36350337
000180 8b 1d 5b be 62 26 f0 be 86 62 33 3e 3d c0 6a bd
       -0.21397988 -0.46904284 0.17518052 -0.05731224
000190 54 21 7c 3d fa 63 a0 bc d5 96 7e 3e 07 20 b6 be
       0.06155522 -0.019578923 0.24862225 -0.3557131
0001a0 0a e4 87 3e 7e 81 7d 3d f5 03 ef bd 2c 6f 14 3f
       0.26541167 0.06189107 -0.116706766 0.57982135
0001b0 26 bb be 3d 51 e9 bb be 65 7f 15 be 9d 38 75 3d
       0.093130395 -0.36701444 -0.14599378 0.059868444
0001c0 d1 39 32 3e bd 29 4f be 92 74 cc 3d 7e fc de 3e
       0.17404868 -0.20230766 0.099831715 0.4355201
0001d0 55 56 c3 bd 15 f5 ab be 4b e2 ea 3e a2 7c 86 bc
       -0.09537951 -0.3358542 0.45875773 -0.016416851
0001e0 f8 d9 ca 3e 51 ec 1b bf 51 96 5b 3d c3 62 e0 3d
       0.39619422 -0.60907465 0.05361015 0.10956337
0001f0 51 26 3e be c0 a7 4d 3e 77 78 ae be 7c 35 96 3e
       -0.18569304 0.20083523 -0.34076282 0.2933768
000200 c9 12 df bd e4 8e fc be 07 6d dd bc ba 96 6f be
       -0.10892255 -0.49327767 -0.027029527 -0.23397341
000210 1d c7 0d be 0c 49 a3 3d d5 ce 1f 3e 58 1e ce 3e
       -0.13845487 0.07972917 0.15606244 0.40257525
000220 86 d5 21 3d 9e b5 97 3d da f8 00 be af 17 c6 bd
       0.039510272 0.074076876 -0.1259493 -0.09672486
000230 88 78 86 be 1d ad 0b bf 96 03 50 be cc 86 82 3e
       -0.26263833 -0.54561025 -0.20313868 0.25493467

player_tree_3.W.bias f4 [12]
000000 11 9a 67 3d 70 12 8e 3d bd 2c 12 be c0 14 39 bd
       0.056543414 0.069371104 -0.14274879 -0.045185804
000010 ae a9 f3 bc 5f 10 4d be 22 4d 7a 3a d0 61 d1 bc
       -0.029743996 -0.20025776 0.0009548237 -0.025559336
000020 f1 5f 24 be 92 ef 2f 3d 65 86 86 3d 00 03 67 3d
       -0.16052224 0.04295308 0.065686025 0.056399345

player_tree_3.W_self.weight f4 [12, 12]
000000 a7 04 8d 3d 4a 4f 3c be 4a 30 2d 3f e2 1c 26 bf
       0.06885653 -0.18389621 0.6765181 -0.6488782
000010 6d 6a fd be 4d 70 47 be 06 b4 71 3e ad dc 94 be
       -0.4949526 -0.19476433 0.2360383 -0.29074612
000020 34 ec fe bc 09 4c bb 3d 23 57 97 3e cc 50 8b be
       -0.03111849 0.09145362 0.29558668 -0.2721008
000030 fd f5 1a bc 6c 70 af 3e d4 0c ac be f0 38 90 3e
       -0.009458062 0.3426546 -0.33603537 0.2816844
000040 1a 44 31 be 45 48 91 3e bb b4 a5 bd 4d 65 8d bc
       -0.17311135 0.2837545 -0.08091112 -0.017260218
000050 d0 a5 4f 3f d4 1b 89 bd f1 b4 ec be b5 d9 73 bd
       0.81112385 -0.06694761 -0.46231797 -0.059533793
000060 24 63 69 bb 51 cb 99 bc da 73 44 be 21 14 15 be
       -0.003561207 -0.018773707 -0.19184819 -0.1455846
000070 19 de f8 be 44 60 70 be 7b 86 d0 be 04 f1 03 bf
       -0.48606947 -0.23474222 -0.407276 -0.51539636
000080 ca 38 26 bf eb 66 62 3e 32 cb a0 be f3 d1 40 3e
       -0.64930403 0.22109573 -0.31405026 0.1883009
000090 70 a3 05 be 4a 03 90 3e 03 60 eb 3d f3 ec 5e 3e
       -0.13050628 0.2812751 0.11492922 0.21770076
0000a0 4e b7 15 bf a0 4e 86 be 19 ac b8 3c 5a 91 d8 be
       -0.58482826 -0.2623186 0.022543 -0.42298394
0000b0 3e ad 1b be fa 3e f7 be cd b7 53 3e 62 29 8c 3e
       -0.15202805 -0.48290235 0.20675583 0.27375323
0000c0 d2 3f e9 be 38 0f df 3e 7d 32 81 be 82 09 f3 be
       -0.45556504 0.43566298 -0.25233832 -0.4746819
0000d0 db 8b 85 bd 65 b0 f7 bc 37 35 97 bc 66 ac 8e bd
       -0.06520816 -0.030235479 -0.018457992 -0.06966476
0000e0 af 1b 89 be ee e3 1e be f1 64 b5 bd 38 a8 d0 3d
       -0.26778933 -0.15516636 -0.08857144 0.10188335
0000f0 76 d9 93 3e 51 e9 a6 3b f3 a1 46 be e3 22 e3 3e
       0.28876847 0.0050937315 -0.19397716 0.44362554
000100 52 97 f1 3e 52 6d 02 be b4 0d 81 3e 37 55 62 3d
       0.4718576 -0.12737015 0.25205767 0.05525705
000110 0e 08 6c 3e 1f 2e a9 3d 2d 87 14 3d 32 0d 22 bf
       0.23049948 0.0826075 0.036261726 -0.63301384
000120 3c d9 cd 3e e1 8a 56 be 52 80 38 3e 32 cd ea bb
       0.402048 -0.20951416 0.180177 -0.0071655745
000130 b2 e3 96 3e cf 05 42 be e7 a0 f7 3e 3b a6 21 bc
       0.29470593 -0.18947528 0.48364946 -0.009866293
000140 5e 89 a5 bd 52 5e 45 3f 2d b7 b6 3e 06 37 e0 3e
       -0.08082841 0.77097046 0.35686627 0.4379198
000150 d1 e3 7c 3e 23 73 91 3e c2 f4 c2 3e 39 f3 5d 3d
       0.2469628 0.28408155 0.3807736 0.054187033
000160 ed 58 1b 3f bc 9d 84 3d f2 d4 b0 3d 3d 34 04 bf
       0.60682565 0.06475398 0.08634366 -0.5164221
000170 52 4c c6 3e 85 84 81 be a8 9d ed 3e 3a c4 6c bc
       0.38730103 -0.25296417 0.46409345 -0.014451081
000180 92 6d 24 3f a1 39 8b be 36 dd 52 be 44 68 11 3e
       0.6422969 -0.27192405 -0.20592198 0.1419993
000190 6e 9c 3c bd 04 2b 00 3f d7 eb 3c 3c 0e 6e 12 be
       -0.04604762 0.50065637 0.011530838 -0.14299795
0001a0 e0 a9 f0 be c7 1d 4a 3e 10 84 89 be 2c e6 ac 3e
       -0.47004604 0.19737922 -0.26858568 0.33769357
0001b0 7d e9 49 3e 9c c4 ec 3e 14 f2 08 bd a9 c7 15 bf
       0.19717975 0.4624375 -0.03343399 -0.5850778
0001c0 ed 91 0e be 27 78 a0 be 1b 7e 21 bf 04 da 92 3e
       -0.13922854 -0.3134167 -0.63083047 0.28681958
0001d0 be 09 ee bd d5 56 29 bd b9 ce a1 3e 4a 83 1d bd
       -0.11622952 -0.041342575 0.3160303 -0.038455285
0001e0 e5 0d db be e5 e7 11 bf d8 a2 89 be 5f 99 b2 3e
       -0.42784038 -0.5699447 -0.26882052 0.34882638
0001f0 2f 8d 45 be 1c d9 db bd 9f 07 06 3e 37 94 8d be
       -0.19292139 -0.1073477 0.13088845 -0.2765214
000200 ad e0 4c 3e 43 4f df 3e 22 94 d2 be 54 86 c2 be
       0.20007582 0.4361516 -0.4112864 -0.3799311
000210 18 7c ef be 04 4d ed bd a8 c2 61 3e d4 b9 cd 3b
       -0.46774364 -0.11586955 0.22046912 0.006278256
000220 5e a8 c2 3d 71 6c f7 be a8 61 52 3e 41 08 c0 3e
       0.0950477 -0.48324922 0.20545065 0.37506297
000230 c9 2a 44 3c 0b ce c2 3e 3f b2 57 3e cc 3f fa 3d
       0.011973091 0.38047823 0.21064089 0.122191995

player_tree_3.W_self.bias f4 [12]
000000 11 9a 67 3d 70 12 8e 3d bd 2c 12 be c0 14 39 bd
       0.056543414 0.069371104 -0.14274879 -0.045185804
000010 ae a9 f3 bc 5f 10 4d be 22 4d 7a 3a d0 61 d1 bc
       -0.029743996 -0.20025776 0.0009548237 -0.025559336
000020 f1 5f 24 be 92 ef 2f 3d 65 86 86 3d 00 03 67 3d
       -0.16052224 0.04295308 0.065686025 0.056399345

player_tree_4.weight f4 [8, 12]
000000 29 53 8c be d6 93 18 bf 34 f3 e7 3e a0 43 aa 3b
       -0.27407196 -0.5960058 0.45302737 0.00519605
000010 1e 44 ba be 63 1f 6d 3b 2d 57 39 be 11 5e 54 3f
       -0.36380094 0.0036182038 -0.18099661 0.82956034
000020 d1 db cd bd a5 13 a8 be 8a c0 d6 bc 9d f4 0f bf
       -0.10051692 -0.32827488 -0.026214857 -0.56232625
000030 3a 4e 0c be 69 1d bf bc 5e 79 4c be 82 52 a1 3e
       -0.13701716 -0.023329454 -0.19968173 0.3150826
000040 27 cd d7 3d db 7f 1a bf be 56 47 bf 54 0e a6 bd
       0.105371766 -0.6035134 -0.77866733 -0.081082016
000050 ea 99 8d be ef cd 8c 3e 1f 60 99 be 0c 28 24 be
       -0.2765649 0.27500865 -0.29956147 -0.16030902
000060 3d 9e 61 be c8 5b be be 30 df 11 3e a8 f1 94 bc
       -0.2203302 -0.371794 0.14245296 -0.018181637
000070 60 c3 a1 3e 8b 29 1e bf db f2 0e be 7e 01 1f bf
       0.31594372 -0.6178214 -0.1395983 -0.6211165
000080 73 09 cf 3e 4d 9f 0f bf b1 c8 1f 3f 2d 2a 05 3e
       0.40436897 -0.5610245 0.62415606 0.1300437
000090 ab 4d ad 3d 44 02 45 3d 00 0c 47 3e c9 3c fb 3d
       0.084620796 0.048097864 0.19438171 0.12267453
0000a0 e4 cc ad be e1 48 13 be 3c fc 12 3f b7 03 ba 3e
       -0.33945382 -0.1438327 0.5741613 0.3633096
0000b0 2a 46 ce bd 7c 34 03 3f 55 6f d1 bd b4 d2 6f 3d
       -0.100719765 0.5125196 -0.10226313 0.05855055
0000c0 31 50 b9 be d5 c4 94 3e 74 f4 13 be f2 6d f9 3d
       -0.36193994 0.2905642 -0.1444872 0.121791735
0000d0 e7 82 0c 3f 61 8c 89 3c 2c 03 89 b9 8d a9 5a 3e
       0.5488724 0.01679057 -0.0002613304 0.21353741
0000e0 da 7f b2 3e 39 b2 4c 3e 2e f1 64 bf e9 e2 de be
       0.34863168 0.19989862 -0.8943051 -0.43532494
0000f0 75 9d ae be b0 60 2a be 4a 4a c6 be f1 38 06 be
       -0.34104505 -0.16638446 -0.38728553 -0.13107659
000100 7f 4c c2 3e 7f ee f9 bd 3c 26 c4 be 15 a3 c1 3e
       0.37948987 -0.12203693 -0.3831042 0.37819734
000110 3d 21 d0 3d 2b 9d 4c 3e c2 59 8c 3e 79 ba 0e 3e
       0.1016259 0.1998183 0.2741223 0.13938321
000120 79 da 95 be af c3 ef bd d8 59 ed 3e 07 40 fd bd
       -0.29268244 -0.117072456 0.46357608 -0.12365728
000130 e8 f9 ee bd 94 53 6e bf 3f c8 1e 3f c6 18 88 3e
       -0.116687596 -0.9309628 0.620243 0.265814
000140 5b 91 2d 3e a4 5c bb be 57 40 ed 3d 88 07 95 3b
       0.1694998 -0.36594117 0.115845375 0.004548017
000150 f6 ce 27 3e 7f 24 30 bf 0c 9c b3 bd 05 10 9e 3d
       0.16387543 -0.6880569 -0.08769998 0.07717899
000160 e8 20 fb 3e da 14 34 be ce 81 1e bd 84 27 02 bd
       0.49048543 -0.17586079 -0.03869801 -0.031775966
000170 06 7a f0 bc ca 13 10 3e b4 73 b8 3e 3e bc 07 3f
       -0.02935506 0.14070049 0.36025774 0.5302161

player_tree_4.bias f4 [8]
000000 6d 32 4a 3d d8 36 f1 3d d1 8a 37 3d ae da 17 be
       0.049364496 0.11778039 0.04481012 -0.14829513
000010 e1 71 4c 3d 4d 59 95 3d d7 22 08 3d 03 18 7d bd
       0.04991329 0.072924234 0.03323635 -0.061790477

sun_influence_1.W.weight f4 [12, 12]
000000 c2 4f c9 3e b9 e5 4d bd 01 8d 2d 3d b3 8d 71 3f
       0.39318663 -0.05026791 0.0423708 0.9435684
000010 35 56 6e bd 30 14 ee 3e e4 fa b4 3e 0e 2e 71 3f
       -0.058187682 0.46499777 0.35347664 0.942109
000020 af 80 b0 be 07 50 25 3d d1 45 cb 3d 95 36 24 3e
       -0.34473178 0.040359523 0.09925426 0.16036446
000030 74 95 89 be a6 5d d3 3e ba a7 94 3e d9 ff 03 3e
       -0.26871836 0.41282386 0.29034215 0.12890567
000040 b6 2f 00 bc 1e a9 c2 3c 7c 7a a1 bd 50 83 8c 3d
       -0.007823875 0.023762282 -0.0788469 0.06860983
000050 64 f8 af 3e 15 68 ee bd eb b5 99 3e b3 de f8 3e
       0.34369195 -0.11640946 0.30021605 0.48607406
000060 96 bd ac be ba da 38 be a7 87 f7 3c d9 1c 91 3d
       -0.33738393 -0.18052188 0.030216051 0.070855804
000070 49 73 fd be 41 13 96 3e 9f 24 7f be 79 b3 8d be
       -0.49502018 0.29311565 -0.24916314 -0.2767599
000080 c0 df 88 be 28 f9 cd be 30 b8 9f be 5f 13 77 be
       -0.26733208 -0.40229154 -0.3119521 -0.24128483
000090 22 79 1c be 28 c0 c7 3b 1f 6b c0 bc 30 81 15 3e
       -0.15280584 0.006095905 -0.02348858 0.14600062
0000a0 b9 3a 9a 3e 8f 1c e5 be f9 27 e7 3e 7e 7b 50 3f
       0.30122927 -0.4474835 0.45147684 0.81438434
0000b0 92 6a ae 3e 22 70 ee be a1 a5 86 be ee 1a 7e 3e
       0.34065682 -0.46569926 -0.2629824 0.2481496
0000c0 68 3e 81 3e 22 e7 49 3d f6 8d 85 3e 87 91 fd be
       0.25242925 0.04929269 0.2608487 -0.4952509
0000d0 98 aa dd be c2 43 3a be 95 35 35 3e 06 13 90 bd
       -0.43294215 -0.1818991 0.17696221 -0.070348784
0000e0 9b 83 1a 3e 7e f8 99 3d 26 e6 1f 3f 1e fa 06 3f
       0.15089266 0.07518099 0.62460554 0.527254
0000f0 6b 8f 30 be 4f 5b 44 3e 94 2c b3 3e b7 04 ef be
       -0.1724221 0.19175456 0.34994948 -0.46683285
000100 87 8a 06 be 39 f5 40 3d e5 3d 53 3e d6 c5 d5 3e
       -0.13138781 0.047108863 0.2062908 0.417525
000110 21 d8 8b 3e 3e 45 53 3d 11 89 01 be 43 1d 34 3e
       0.2731333 0.051579706 -0.12649943 0.17589287
000120 c5 8d 91 3e dc 83 d9 be 5b b0 ff be 10 5b ec be
       0.28428474 -0.42483413 -0.49939236 -0.46163225
000130 90 75 57 3e 7d e8 d6 be 11 42 a0 3e 6c a8 a1 be
       0.2104094 -0.4197425 0.31300405 -0.31573808
000140 60 d6 fc be 77 18 87 bd c0 88 b5 3e 84 97 a8 3e
       -0.49382305 -0.06596463 0.35455894 0.32928097
000150 f9 37 57 3d 24 84 b5 3e ba 07 52 3e b1 46 e4 bd
       0.052543614 0.35452378 0.2051076 -0.11146296
000160 d7 37 24 bd 6f e3 97 3e 6f 7c 31 be db 83 8a be
       -0.040092316 0.29665706 -0.17332624 -0.27053723
000170 d4 d7 4b be d6 71 6e 3e 79 1f 1d be 57 2c e5 be
       -0.1990655 0.23285612 -0.15344037 -0.4476039
000180 ec cf c6 3d a5 d5 3b bf 67 a3 8a 3e 91 17 0e be
       0.09707627 -0.7337287 0.2707779 -0.13876177
000190 86 3c 8c 3e b2 66 f1 3c 22 41 a9 be 66 2c 18 bd
       0.27389926 0.029467914 -0.33057505 -0.037151717
0001a0 a8 67 87 3e 9e ac 0d 3e 53 b9 9a 3e e6 f0 41 3d
       0.2644627 0.1383538 0.30219516 0.04734888
0001b0 b9 9a b5 be 3d bc c5 3e a3 a6 ec bd ec a7 0e 3e
       -0.35469607 0.38620177 -0.11555221 0.13931245
0001c0 ea 5c a0 3d c3 b4 5a be 4b ee 8f be 82 f7 31 be
       0.07830222 -0.21358018 -0.2811149 -0.17379573
0001d0 06 89 0e 3f 2d 68 54 3c b4 88 df be 51 40 0c 3e
       0.5567783 0.012964291 -0.43658984 0.1369641
0001e0 a6 b1 b8 be 7a b0 8c bd 3c f2 df be 84 43 39 3d
       -0.36073035 -0.06869598 -0.43739498 0.045230404
0001f0 a9 e5 b1 be 8a 83 53 bc 00 73 4f be 20 05 29 3f
       -0.3474553 -0.012909779 -0.20258713 0.66023445
000200 a4 93 11 bf 5a e6 04 bf f6 31 05 3f 44 52 9d bd
       -0.56865907 -0.5191399 0.5202936 -0.076817065
000210 48 4e 9e be f3 dc 89 be 6b f2 99 bd ff 42 45 3e
       -0.309191 -0.26926383 -0.07516941 0.19263838
000220 9a 78 02 bf 76 dc 8e be c5 37 c5 bd 27 26 52 bf
       -0.50965273 -0.27902573 -0.09629778 -0.82089466
000230 7a 11 b8 bd d7 2b 80 bc b3 f9 24 3f 60 86 27 3f
       -0.089877084 -0.015645904 0.6444351 0.65439415

sun_influence_1.W.bias f4 [12]
000000 b2 de 6b bd cd 95 7d bd 45 17 03 3e 87 a7 9f bd
       -0.057585426 -0.06191044 0.12801845 -0.07795625
000010 e8 32 b5 bc 69 08 1a bc af 0b c6 bd 26 11 c1 bd
       -0.022119 -0.009401419 -0.09670197 -0.09427099
000020 45 69 3d be ac 40 aa bd 3e b9 06 bc a7 f6 8d 3d
       -0.18497188 -0.083131164 -0.008222876 0.06931811

sun_influence_1.W_self.weight f4 [12, 12]
000000 a7 3b be be de e0 b8 ba 01 0b 2b 3f bb 65 36 bd
       -0.37154886 -0.0014105102 0.66813666 -0.04453061
000010 92 0d c7 3d ee 58 9c 3e bd 46 11 3f 7d 2c 03 bf
       0.09719385 0.30536598 0.56748563 -0.5123976
000020 4b 83 eb 3e 87 bf 92 3d 5a 14 61 3f 60 fb 07 3f
       0.45998606 0.07165437 0.8792168 0.5311794
000030 35 0e bc 3e 49 fe 05 bf 11 fb b3 be e5 21 4d 3e
       0.3672959 -0.52341133 -0.35152486 0.20032461
000040 f7 ac 01 3f 13 6f a8 3d 80 6e 01 be 28 33 1a 3d
       0.5065455 0.08224311 -0.12639809 0.037646443
000050 49 3e 0e 3f 4b 68 23 3e 94 1e a0 be 89 c5 df be
       0.5556379 0.15957753 -0.3127333 -0.43705395
000060 70 90 b6 be 5a 8d 15 be a5 bd 79 be 32 20 ad bc
       -0.35657072 -0.14604703 -0.2438875 -0.021133516
000070 64 61 5e be ae 2f 1d bf 6b ee d6 3e 0a 42 9e 3e
       -0.21716839 -0.6140088 0.41978773 0.3090976
000080 d2 6e a9 be 29 f7 15 3f 43 93 12 3f 37 77 f8 3d
       -0.33092362 0.5858026 0.57255954 0.121321134
000090 bb 89 97 3e 06 99 1a 3e c9 53 77 be 72 c9 de 3e
       0.29597268 0.15097436 -0.24153055 0.43513066
0000a0 83 88 3d be 24 c5 b0 be 73 b0 a8 be c1 99 8b 3d
       -0.18509106 -0.34525406 -0.3294712 0.068164356
0000b0 16 71 86 be fc a7 cc be 49 59 fc be b4 9c 2d be
       -0.26258153 -0.39971912 -0.4928687 -0.16954309
0000c0 c7 38 88 be 8b c3 8a be 7b 43 10 bf 35 4d 3d be
       -0.26605818 -0.27102312 -0.5635297 -0.18486483
0000d0 19 f5 e1 3e 65 16 ce bd 3c 04 a8 be 4f 18 88 3e
       0.44132307 -0.10062865 -0.3281573 0.26581046
0000e0 00 97 2a bf da e9 9e be 39 c5 42 3e 0b d5 82 bd
       -0.6663666 -0.3103779 0.19020547 -0.06388291
0000f0 44 0f 86 3e dd 84 1a 3f 53 28 23 3f f5 7e 10 bf
       0.26183522 0.60358983 0.63733405 -0.5644372
000100 c0 95 91 3d eb 08 23 3f b7 12 ce 3d 84 9c 8e be
       0.07108641 0.6368548 0.10062163 -0.27853787
000110 00 f9 18 be f6 86 84 3f 45 24 d1 be 08 30 90 bc
       -0.14938736 1.0353687 -0.40847984 -0.017601028
000120 ef a4 46 3e 77 37 bb be 88 43 aa be 53 b1 01 bd
       0.19398855 -0.36565754 -0.33254647 -0.03166325
000130 bc d9 b7 3e ac 1e 20 bb 63 a9 17 3f 91 27 3e 3f
       0.35908306 -0.0024432344 0.5924284 0.74279124
000140 07 bc 87 3b 9a f1 88 bd 1b 46 96 3e 7c bd 73 3d
       0.0041422877 -0.06686707 0.2935036 0.05950688
000150 b9 a9 ff 3e 65 f6 7a 3e 81 ef f2 be c4 5e 06 3f
       0.49934176 0.24508055 -0.47448352 0.5248835
000160 83 d0 c1 3e 1f a7 8c 3e ec a3 f6 3e ab 34 80 bd
       0.37854394 0.27471253 0.48171937 -0.062600456
000170 74 e8 ee 3e e8 f3 80 3c 2e 96 be 3e f8 d0 08 3d
       0.46661723 0.015741304 0.37223953 0.033402413
000180 36 ae e6 3e 7f 1a 50 be 7b 44 e3 3e 68 cb fa 3d
       0.45054787 -0.20322607 0.44388184 0.12245828
000190 86 a1 93 bc 5b 17 cc bc 30 65 20 be 1c 5b d5 3e
       -0.018021356 -0.02491348 -0.156636 0.41671073
0001a0 96 e3 8e be 0b de 97 bd 51 70 9a be 44 3f 6e 3d
       -0.2790801 -0.07415398 -0.30163816 0.058165804
0001b0 8f 4d 0a 3f c4 78 93 3e a5 54 07 3f 05 2c 21 be
       0.54024595 0.28803074 0.5286353 -0.15739448
0001c0 6f 32 04 3e 6c 25 48 be 17 b8 64 be 65 f9 6e be
       0.12909864 -0.19545525 -0.2233585 -0.23337324
0001d0 5d a1 1c bf 59 9d 51 be 55 2b 36 be c3 44 b9 3e
       -0.6118372 -0.2047018 -0.17789967 0.36185274
0001e0 b8 01 ba be 11 44 98 be e3 bf 21 be dc 3f 2c 3e
       -0.36329436 -0.2973943 -0.15795855 0.16821235
0001f0 99 be 6a be 5c e9 a2 bd 1d f7 04 be 31 a2 9c 3e
       -0.2292427 -0.07954666 -0.12984891 0.30592492
000200 ac cf 05 bf 0f dd da be c4 d1 e5 bd 50 93 0b bf
       -0.5227001 -0.4274678 -0.1122165 -0.54521656
000210 e1 2d 02 3e a5 67 d1 be bc be d6 bd d0 8d ef be
       0.12712814 -0.40899387 -0.104855984 -0.46787882
000220 47 a9 b8 3e ad b5 d4 bd 96 17 43 3e e4 82 2b 3e
       0.36066648 -0.103862144 0.19051966 0.1674915
000230 30 17 75 bd c3 fb 8a be d3 a9 9e be 97 67 84 be
       -0.059836566 -0.27145204 -0.3098894 -0.25860283

sun_influence_1.W_self.bias f4 [12]
000000 b2 de 6b bd cd 95 7d bd 45 17 03 3e 87 a7 9f bd
       -0.057585426 -0.06191044 0.12801845 -0.07795625
000010 e8 32 b5 bc 69 08 1a bc af 0b c6 bd 26 11 c1 bd
       -0.022119 -0.009401419 -0.09670197 -0.09427099
000020 45 69 3d be ac 40 aa bd 3e b9 06 bc a7 f6 8d 3d
       -0.18497188 -0.083131164 -0.008222876 0.06931811

sun_influence_2.W.weight f4 [12, 12]
000000 ae d7 ec bd 35 46 a3 be bd ed ee 3e 87 6e 92 bf
       -0.11564575 -0.318895 0.46665755 -1.143998
000010 70 16 d2 be 4b d6 23 bf 5d 41 14 3e 25 2e b1 3d
       -0.41032743 -0.6399886 0.14478059 0.086513795
000020 9d 9e a8 3e 36 78 fc 3d a4 44 5e bf 79 1d ed be
       0.32933512 0.12327616 -0.8682349 -0.46311548
000030 d0 02 22 be 45 e4 35 bf 82 6c fd 3d 93 fe fd bd
       -0.15821385 -0.71051437 0.12374212 -0.12402072
000040 cc cc a9 3c 51 58 aa bd fe 28 ee 3d 34 59 b9 3d
       0.020727538 -0.08317626 0.116289124 0.09050217
000050 0c 82 a7 be 4b 4a 00 3e f1 83 75 bc d1 7b 70 be
       -0.32716405 0.1252834 -0.014985071 -0.23484732
000060 d8 88 9f be a0 62 76 bc 4d 30 1d be 2a 00 31 bc
       -0.3115909 -0.0150381625 -0.15350457 -0.010803262
000070 c3 5a 87 3e c6 cd 36 bf 20 50 92 be 7e b3 38 be
       0.26436433 -0.71407735 -0.28576756 -0.18037221
000080 41 e7 82 3e bf 8b 1d 3e f6 50 22 bf 9c 7a e6 3e
       0.25567058 0.1538534 -0.63404787 0.4501542
000090 12 4b 5f 3e 3d a3 84 be 27 8c e1 3e a8 dd fd 3e
       0.21805981 -0.2590579 0.4405224 0.49583173
0000a0 bf 37 14 3f bb c7 0a 3d 2c b1 df be 6f aa d8 3e
       0.5789756 0.033881884 -0.4368986 0.4231753
0000b0 35 80 ee 3e 70 a2 a9 3d 28 ea a1 3e 17 5f 10 3f
       0.4658219 0.082829356 0.3162396 0.56395096
0000c0 64 ae c4 be 75 b5 46 bf 6c 0c c2 3e fb 8b 70 bf
       -0.384143 -0.7762063 0.37900102 -0.93963593
0000d0 a5 f6 d2 be 15 90 8e 3e 7c f9 b7 bc ab 13 06 3f
       -0.412038 0.278443 -0.02245783 0.5237376
0000e0 de 87 85 3c 45 34 d3 3d 0c 99 a9 3d ae 3f 9a bd
       0.016300138 0.10312704 0.082811445 -0.07531677
0000f0 90 b0 77 3d 51 65 16 bf 41 75 8c 3e 64 24 c7 3e
       0.060471117 -0.58748347 0.27433208 0.3889495
000100 9f 62 17 bf 21 be fa be 75 d0 1d 3e a1 30 b3 3e
       -0.5913486 -0.48973182 0.15411551 0.34998038
000110 2f 4d ac 3e 60 3f 8a bf ba 62 ca 3e 0b 69 f5 be
       0.33652636 -1.080059 0.39528447 -0.47931704
000120 75 91 07 3f 42 e4 ed be 1d 36 c0 be 57 2f 09 bf
       0.52956325 -0.4646321 -0.37541285 -0.5358786
000130 67 dd e7 3e ba dd d9 3e 78 98 b2 3d 88 f1 08 3e
       0.45286104 0.42551976 0.08720487 0.13373387
000140 85 8b c5 be 21 58 1d 3f ea 07 df bc 67 42 3f 3e
       -0.38583007 0.614626 -0.027225453 0.18677674
000150 0f 87 2b be 7e 8c a4 be 75 84 61 3e 6c be 00 3f
       -0.1675074 -0.32138437 0.22023185 0.5029056
000160 e9 f9 ab be 9c 1d 64 be 92 f6 32 bd 2d ab 82 be
       -0.33589104 -0.2227692 -0.04369218 -0.25521222
000170 46 08 53 be 28 e1 f1 bd 9a 93 ec 3d 2d e9 30 bf
       -0.20608625 -0.11810523 0.1155159 -0.691058
000180 06 ad 20 bf 6a 87 d0 be 4e 4b 32 3e e2 2d 80 3c
       -0.6276401 -0.40728313 0.17411539 0.015646879
000190 1a 6d 8b ba 89 29 12 bf 29 91 cb be a8 fc bf be
       -0.0010637373 -0.5709463 -0.39759186 -0.3749745
0001a0 d4 cb 4e be 29 57 ed bb 80 ef f9 3e 5a b2 7f 3d
       -0.20194942 -0.0072430563 0.48815536 0.06242595
0001b0 9b f5 2d 3e 94 11 6b bc e2 78 5f be 76 3b 0a 3e
       0.16988222 -0.014347453 -0.21823457 0.13499245
0001c0 3f af e1 3d 49 51 cd be e6 af 8d be 4b 00 25 3d
       0.11019754 -0.40101078 -0.27673262 0.040283483
0001d0 34 6e 6e 3e ac bb 41 bf 10 b1 bf be 92 59 ac 3e
       0.23284227 -0.7567699 -0.37439775 0.33662087
0001e0 ef 73 83 3e 56 17 a0 bc a7 2f e3 3e 1c 1b 06 bf
       0.25674388 -0.019542377 0.44372293 -0.52385116
0001f0 0b 64 c4 be 0d de cd 3d 4a e3 0a bf e3 0a 0b bf
       -0.38357577 0.100521185 -0.54253066 -0.54313487
000200 b4 0b 1c be eb 3d ae 3e 44 32 2f 3d 2b 01 94 bd
       -0.1523884 0.34031615 0.042772546 -0.07226785
000210 d1 1d 4d 3f c2 88 bb bd 37 e2 4c 3c f4 53 33 3e
       0.8012362 -0.09156944 0.012505106 0.17512494
000220 09 a3 38 3e 1d 0d b3 3e 74 7a 45 be 50 6c a7 3d
       0.18030943 0.34970942 -0.19284993 0.08174956
000230 e9 36 08 3e 76 34 90 3e 78 50 c8 3e 92 a9 12 3f
       0.13302197 0.28165025 0.39123893 0.57289994

sun_influence_2.W.bias f4 [12]
000000 9c d6 9a 3d 04 12 10 be 67 bc 11 3e 72 17 da 3c
       0.07560465 -0.14069372 0.14232026 0.026622508
000010 56 13 ee bc bf f6 0f be b1 42 dc bd 4c 29 a9 bd
       -0.029061954 -0.1405897 -0.10754908 -0.0825983
000020 08 86 e6 3c e3 16 db bd eb e5 28 be 66 7e 94 bd
       0.028140083 -0.10697725 -0.16493957 -0.07250671

sun_influence_2.W_self.weight f4 [12, 12]
000000 4e e8 08 3d 7d 09 ab bd f7 05 02 3e 65 b3 fd 3c
       0.033424668 -0.08351419 0.12697588 0.030969331
000010 68 df b7 be 39 22 14 bf 84 ff 85 3e ab 04 bd 3d
       -0.35912633 -0.5786472 0.26171505 0.09229406
000020 d9 6b ac bd 1e ea 5f be c0 5d e2 bd 71 67 00 3f
       -0.08419008 -0.21866652 -0.11053038 0.5015784
000030 96 a6 dc 3e 27 04 f8 be 85 b9 f1 3e 4e 1a 3c bf
       0.43095845 -0.48440668 0.47211853 -0.7347764
000040 06 a2 49 3f 19 43 c1 bd fc ee b6 3e 6f c7 a5 bd
       0.78762853 -0.09436626 0.35729206 -0.080946796
000050 75 1a 0a 3c cd aa b0 3e 9a 00 cb be 67 49 45 3e
       0.008429159 0.3450531 -0.39648896 0.19266282
000060 b6 54 07 3f 05 72 ab 3e 02 14 7e 3e df 9d 3e 3e
       0.52863634 0.33485427 0.2481232 0.1861491
000070 c2 ee ba 3d 68 5f bd 3e f1 87 d6 3e d0 eb 31 3f
       0.09127571 0.36986852 0.4190059 0.69500446
000080 2d 9e 25 3e d8 76 4e 3f 51 e1 c6 bd 3c 61 c6 3d
       0.1617362 0.8065009 -0.097109444 0.09686515
000090 d2 06 45 3d 9e de 9b 3e fd 6f 8f be d3 81 e3 3d
       0.048102207 0.3044328 -0.28015128 0.111087464
0000a0 b0 44 11 3f 9e b6 25 bf e8 58 0e 3e 7d 47 e5 3d
       0.56745434 -0.64731777 0.13901103 0.11195276
0000b0 18 15 28 3e bd 18 99 bd 4b 35 1d be 37 1c 0a bc
       0.16414297 -0.074754216 -0.15352361 -0.0084295785
0000c0 c8 d8 28 bf 3f 2f 5b be b8 64 d6 bd 81 0c 16 be
       -0.6595578 -0.21404742 -0.10468429 -0.14653207
0000d0 16 e4 c9 3d 02 cf 4c 3d 5d f0 9b 3c 7b 34 9f 3e
       0.09857957 0.050002106 0.019035513 0.31094727
0000e0 01 5f 3b 3e d3 c9 7c bd 7b 13 8c be 2c 2a b7 be
       0.1829796 -0.061715912 -0.27358612 -0.35774362
0000f0 fb 2f ff bd 3b f6 01 bf cb c7 dd bd 1e e9 c4 bd
       -0.124603234 -0.5076634 -0.10829123 -0.09614776
000100 ca 8a c1 be cd 9e f6 be 4a 24 2e 3e ba 91 a2 3d
       -0.378012 -0.4816803 0.1700603 0.079379514
000110 6f 76 89 3c 8e 40 14 bf 61 89 62 bd 99 dd 9b bd
       0.016780106 -0.57911 -0.055306796 -0.07610626
000120 67 7e 9b bd d8 9f 1e 3e 1d 10 df be 82 ae 81 3e
       -0.07592469 0.15490663 -0.4356698 0.2532845
000130 27 61 c7 3e 43 c9 0e be 07 1f 50 be 74 11 02 3f
       0.3894131 -0.13943963 -0.20324336 0.5080788
000140 7a 51 cc 3e ab 3e 63 3e 1c 3b 86 bd 83 40 0a be
       0.39905912 0.22191875 -0.06554243 -0.13501172
000150 49 7c 8b be 72 e0 24 be 23 f6 b3 3d ea 29 9f 3e
       -0.2724326 -0.16101244 0.08787181 0.31086665
000160 ff bb 0d 3e 08 fe 87 bd 7b 8b 85 3e 8a 73 11 be
       0.13841246 -0.066402495 0.26082978 -0.14204231
000170 dd 96 20 be 73 33 ac 3e 60 e7 93 3e bb 20 0e 3e
       -0.1568255 0.33633003 0.28887463 0.13879673
000180 da 48 99 bd ab 3f 81 bd 8c 22 70 3e 78 19 04 3d
       -0.074845985 -0.06310972 0.23450679 0.03225085
000190 42 fa e1 bc c1 f6 3f bf 0f 5a f8 be 05 88 d0 be
       -0.027585153 -0.7498589 -0.4850621 -0.40728775
0001a0 a5 39 58 be f1 74 15 bf b9 5e 3d 3e f2 ea 8d 3e
       -0.2111574 -0.58381563 0.18493165 0.27718312
0001b0 5c ad 1d 3e 60 9b d5 be c8 d0 ee bc 5c 0a 0f 3f
       0.15398163 -0.41720104 -0.029152289 0.5587518
0001c0 5d 2c 98 3e 19 08 41 3e ea d9 00 be 08 ee 53 be
       0.29721346 0.18850745 -0.12583128 -0.2069627
0001d0 f2 a4 05 3f 8d 76 7e bc 74 de 1e 3e 95 73 f7 3d
       0.5220481 -0.015531194 0.15514547 0.120825924
0001e0 62 af 2b bf 3e 3e a5 3d 14 c7 4b 3d a2 f8 54 be
       -0.6706449 0.080685124 0.049750403 -0.20797971
0001f0 c9 4b a7 3e 3e 8e 81 be c2 5c e7 bd ce 78 42 be
       0.32675007 -0.25303835 -0.11296989 -0.18991396
000200 28 9a 07 bd 72 b9 c2 be 2b 11 9c bd da b6 61 be
       -0.033106 -0.3803211 -0.07620462 -0.22042409
000210 12 16 9d 3e bd b0 6c 3e 08 c8 ad be eb 57 a4 3e
       0.306809 0.23114295 -0.33941674 0.32098326
000220 ab 27 ad 3d 2a 42 91 be 12 70 c7 3e 41 63 ac 3e
       0.08454832 -0.28370792 0.3895269 0.33669475
000230 0c 7c 93 be 0a 71 f3 3e 9d ae da 3e b4 35 97 be
       -0.28805578 0.4754718 0.42711344 -0.2953316

sun_influence_2.W_self.bias f4 [12]
000000 9c d6 9a 3d 04 12 10 be 67 bc 11 3e 72 17 da 3c
       0.07560465 -0.14069372 0.14232026 0.026622508
000010 56 13 ee bc bf f6 0f be b1 42 dc bd 4c 29 a9 bd
       -0.029061954 -0.1405897 -0.10754908 -0.0825983
000020 08 86 e6 3c e3 16 db bd eb e5 28 be 66 7e 94 bd
       0.028140083 -0.10697725 -0.16493957 -0.07250671

sun_influence_3.W.weight f4 [12, 12]
000000 55 e7 89 be a1 51 b1 3e fa 86 bb 3d 43 70 5a be
       -0.26934305 0.3463259 0.09156604 -0.21331887
000010 de 6f f5 bb 0b fc 57 be 5a 77 13 3f 96 f4 ab 3e
       -0.0074901422 -0.2109224 0.5760399 0.33585042
000020 0b 1b 65 3e 36 35 8a be 71 0a 8a 3e c1 77 17 3f
       0.22373597 -0.26993722 0.2696109 0.59167105
000030 c9 0e 04 3f 05 7e 8f be 72 a1 11 3f c4 19 64 be
       0.5158506 -0.28025833 0.5688697 -0.22275454
000040 84 fd 4a bf dd 37 c6 3e b1 75 31 bf 84 92 2f bd
       -0.79293084 0.38714495 -0.6932021 -0.042864338
000050 12 e4 05 be 81 19 82 be e7 36 35 3e 1e 65 28 3e
       -0.13075283 -0.25410083 0.17696725 0.16444823
000060 cc 1d 5d bf 8a 41 c7 be 53 61 b3 be 61 e9 40 3e
       -0.8637359 -0.3891719 -0.3503519 0.18839027
000070 1e 1e 5f 3d bc 8a 06 3f 71 0d d5 be b0 0d a3 3e
       0.05447208 0.5255544 -0.41611817 0.3184638
000080 9d 43 04 3f e1 18 31 be 20 60 69 3e b4 45 eb 3e
       0.5166567 -0.17294647 0.22790575 0.45951617
000090 e9 e2 3e be 45 f3 41 bf 4c 07 82 bd 54 14 a3 3c
       -0.18641247 -0.75761825 -0.06349048 0.019907154
0000a0 4a de aa be 38 d1 6f be ac 21 94 be 47 0e 50 3e
       -0.33372718 -0.23419654 -0.2893194 0.20317946
0000b0 75 96 e5 bd 53 5c 1c 3d 4a 04 a4 be 38 72 d8 be
       -0.11210338 0.038173985 -0.32034522 -0.42274642
0000c0 9f 76 1a be d3 5c ac 3e 45 6d 55 3e eb 80 a2 be
       -0.15084313 0.3366457 0.20842464 -0.31738982
0000d0 d0 f9 25 be c2 1e 93 3e 3d 6a a4 3d d6 3a b3 3e
       -0.16208577 0.28734404 0.08028076 0.35005826
0000e0 80 df 0d 3e f7 07 05 3e a2 da 88 3e 33 50 c2 3d
       0.1385479 0.1299132 0.26729304 0.09487953
0000f0 b4 09 7c 3e 9d 11 c5 be da 88 80 bb ba eb 1d 3e
       0.24613076 -0.3849 -0.003922564 0.15421954
000100 fc 9e 25 3f 12 a5 9d 3e 3b 89 0c 3e 20 93 4d be
       0.64695716 0.3079 0.13724224 -0.20075655
000110 85 8d 91 3e 93 fa 78 3e f1 4f ac 3e 9d f6 b9 be
       0.28428283 0.24314336 0.3365474 -0.36320964
000120 26 a2 9f 3e fb 49 9c be 3d 69 33 be 04 6c 86 be
       0.31178397 -0.30525193 -0.17520614 -0.26254284
000130 74 54 39 3c 62 5c 05 be 9e 5f 0b 3f e0 0b 86 bd
       0.011311639 -0.13023522 0.54442775 -0.06545234
000140 be 7e 2f 3f 31 00 48 3e 2c f7 9b be 71 15 c0 3e
       0.6855277 0.19531323 -0.30462015 0.37516358
000150 6d 37 4b be 38 cf 46 3e 28 5b 94 3e 2a e6 98 be
       -0.19845362 0.19414985 0.28975797 -0.298631
000160 d1 b0 b8 3d fd cb 0f bf d8 76 68 3e 3e 53 ac 3e
       0.090181 -0.56170636 0.22701585 0.3365726
000170 ca 75 17 bf 41 cb 7a be 4c 02 9a be 34 bf 15 3f
       -0.59164107 -0.24491598 -0.30079877 0.5849488
000180 9e e8 91 be da 19 c1 3e da 19 a6 bc e4 f5 ce bc
       -0.28497785 0.37715036 -0.020275999 -0.025263734
000190 f1 d4 82 3d 63 92 9b 3e ec 4f e9 bd 95 b6 70 be
       0.063882716 0.30385122 -0.11392197 -0.2350715
0001a0 20 d9 12 be b8 13 a2 3e 31 86 67 3e e5 35 d7 be
       -0.14340639 0.3165567 0.22609784 -0.42033306
0001b0 31 7c c7 3e 0b d6 c7 bd b0 f4 ef be d4 ab 95 bf
       0.38961938 -0.09757622 -0.4686637 -1.1693063
0001c0 65 e8 2c 3e 0a 7a 21 3e 0a 46 a4 3d 84 9f 11 3f
       0.16885526 0.1576921 0.080211714 0.56884027
0001d0 6d ed 07 3f a4 62 4d be 38 97 6d 3f 9a d9 16 bf
       0.5309666 -0.2005716 0.92808867 -0.58925784
0001e0 96 42 2f 3f bb 38 b4 3e cb f3 cd 3d d1 cc c8 be
       0.6846098 0.35199532 0.100562654 -0.39218763
0001f0 2d 50 e2 3d 55 2d c7 be f0 a0 56 3e c0 d9 c0 3e
       0.110504486 -0.38901773 0.2095983 0.3766613
000200 ad 74 9f 3e 95 be a8 3e e8 dd 9e be fd 2f 3c 3e
       0.31143704 0.32957903 -0.31028676 0.18377681
000210 50 fd be bb d7 03 f7 3c a2 ac c5 bb 99 14 42 be
       -0.005828537 0.030153198 -0.0060325423 -0.1895317
000220 98 06 ba 3d f8 87 1c bf 01 50 de 3e 3b 4c 22 be
       0.09083289 -0.6114497 0.43420413 -0.15849392
000230 c9 4c 57 bf 8f c1 12 be d7 79 8d 3e 3f 0c 4b 3f
       -0.8410154 -0.14331649 0.2763202 0.7931556

sun_influence_3.W.bias f4 [12]
000000 8e 83 70 bd ce a7 8f 3c 55 9a ec ba f1 ec e3 bd
       -0.05871921 0.01753607 -0.0018051366 -0.11129177
000010 82 5b 4a bc cd 19 cd bd 49 2b 08 be 35 5a 0c bd
       -0.012350919 -0.10014687 -0.13297762 -0.034265716
000020 ac fd 11 3e 51 35 ed 3d 3e d5 72 bd 28 12 df 3b
       0.14256924 0.11582435 -0.059285395 0.0068075843
