src/Photosynthesis/RL/SavedModels/model_36.pth (torch, 30290 bytes, 34 tensors)

player_tree_1.W.weight f4 [12, 12]
00000000: f982 a6bd 18e2 eebe 9217 b43e 258f 6bbe
00000010: 34ae 193e a43e 993e 7f87 df3d c925 ac3d
00000020: 9e14 7a3d 3692 b53e 706d 323e 29f1 b7bd
00000030: f602 2ebe abd2 a13e de33 6ebe faf6 abbe
00000040: c0af a23e 166b aa3d 5adf 44bd 2337 303e
00000050: 6314 9abe 7e61 2b3f 673f 473f af39 b4bc
00000060: 4257 383c 611b 6cbe 86bd 833d a6c1 933e
00000070: 81a3 8a3e 6ccb aa3d 0257 50bd 4a86 d83e
00000080: ddc2 0c3f 8bf3 c73e 7fcc 393d 1994 56be
00000090: cb77 fabd 9b5c abbe 417c adbd ee57 dcbb
000000a0: 2eff 54be 8074 f93d ef4d 8b3d e5d3 e0bd
000000b0: abc5 32be cdff 8dbc ba4b 5abf b77f 173e
000000c0: a5b5 893d b8f2 fbbd 6dec 52bd 383a 4dbe
000000d0: 7d72 77bd 7031 243f e624 5d3e e0e5 2cbe
000000e0: 6299 c93e 53d2 a1bd b5b4 a13d 62b7 8dbc
000000f0: ed47 dd3d ca09 f63d 86e0 96be d7f7 783d
00000100: dc63 cdbe a97e c9bd 103b efbd 2784 96bc
00000110: 0cb7 57be 7df1 03bb 0ac2 44be d9df a23e
00000120: c6a4 2dbe 3c48 543e 8c74 5ebe 88da 2f3e
00000130: 046f 3a3f 247a 7ebd 2e0b 273f 7458 8bbe
00000140: 8fc6 84be 20b1 88be 735a 6bbe e52f ecbc
00000150: 095c f83e f701 8b3e 5b2d 763c 6d56 f2bd
00000160: 8fbc b03d bcc0 9fbe 878f fdbe 57bb cdbd
00000170: 25e2 9fbe 8713 ac3e d626 f23e 73ee 21bd
00000180: 2c35 6e3d f837 3bbe a2b9 c9be af0e 803e
00000190: 2c7b 3bbe 844d 8cbe b6b6 c23d 3e32 8b3c
000001a0: 9920 f8be 476c 9b3d 8d74 dd3e 795c 963c
000001b0: 2196 98be 5acb fdbd ef15 d6be ce22 5e3d
000001c0: 6fac a4bd d7ca c33e 9328 923e 8aff 203f
000001d0: 34c0 74be 02f1 e03e 19f2 aebd 499b d2bc
000001e0: d76e 9cbe 5e9a 963e 1e4f b9bc c485 4bbd
000001f0: daa0 d4be d5bf 8fbf 2f53 a53e 0748 86bd
00000200: 011c 043d d56d 7e3c cb14 4ebe f8ea e4bd
00000210: 412a 323e 823e 903e 0b40 3abe 3899 b83e
00000220: 2a43 04be f4c2 b3be 525d 72bd 0853 2c3d
00000230: f28e 9d3e bcaa 3dbd 8dec 893e 6221 403f
-0.0813045 -0.4665687 0.35174233 -0.23003824 0.1500786 0.29930604 0.10914516 0.084056444
0.06105482 0.35463113 0.1742456 -0.089815445 -0.16993317 0.3160604 -0.23261973 -0.33586866
0.31774712 0.08321206 -0.048064567 0.17208533 -0.3009368 0.66945636 0.7783112 -0.022000162
0.011251273 -0.23057319 0.06432633 0.2885868 0.2707787 0.08339581 -0.050864227 0.42289954
0.5498484 0.39052996 0.04536104 -0.20954932 -0.1222988 -0.3346909 -0.08470965 -0.006724349
-0.20800468 0.12180424 0.06801974 -0.10977916 -0.17458217 -0.01733389 -0.852718 0.14794813
0.06724099 -0.12302154 -0.051495004 -0.2004174 -0.06041192 0.64137936 0.21596107 -0.16884565
0.39374834 -0.07901444 0.07895795 -0.017299358 0.108047344 0.12013586 -0.29468173 0.060783233
-0.4011525 -0.09838612 -0.11681187 -0.018373562 -0.2106592 -0.0020132952 -0.19214645 0.31811407
-0.16957387 0.2073068 -0.21724147 0.17173207 0.72825646 -0.0621282 0.65251434 -0.27215922
-0.25932738 -0.26697636 -0.22983722 -0.028831432 0.48507717 0.27149937 0.015025462 -0.11832891
0.08629715 -0.31201732 -0.49523565 -0.10045498 -0.31227222 0.33608648 0.47295254 -0.039534044
0.058156177 -0.18283069 -0.3939944 0.25011203 -0.18308705 -0.2740289 0.095075056 0.01699173
-0.4846237 0.07589012 0.43252984 0.018354641 -0.2980204 -0.12392302 -0.4181361 0.05423241
-0.080407016 0.38240692 0.2854658 0.6288992 -0.23901445 0.43933874 -0.0854227 -0.025708811
-0.30553314 0.29414648 -0.022620734 -0.049688116 -0.4152897 -1.1230417 0.32290027 -0.06556707
0.03225327 0.015529116 -0.2012512 -0.11177629 0.17398931 0.2817269 -0.18188493 0.36054397
-0.12916246 -0.35109675 -0.05917103 0.042071372 0.3077312 -0.046305403 0.26938286 0.7505094

player_tree_1.W.bias f4 [12]
00000000: 3ac1 7bbc 5132 8fbc c7cf a0bb 47c7 01bc
00000010: 4167 80bb 04e6 e6bb 949d 52bc 4aee a6bc
00000020: bbda 83bc 83e8 9fbc 1408 abbc e985 8fbc
-0.015365893 -0.017480047 -0.0049075815 -0.007921047 -0.003918559 -0.007046463 -0.012854952 -0.020377297
-0.01609551 -0.01952005 -0.020877875 -0.017519908

player_tree_1.W_self.weight f4 [12, 12]
00000000: 0ba2 0abe 68de 113e 4cdd 1c3f 3e6b 65be
00000010: 7743 343f 21fe 68bd fa8a 49be fac5 48be
00000020: dcb7 03bc e9fe f03e f5a6 373e 62a4 f43b
00000030: 2d8f cb3e 6cc8 d8bd c85c 86bd 7a06 99bd
00000040: 45f6 3dbe de91 debe d692 733e 8174 113f
00000050: ab03 0c3e 5b49 9f3d f295 863e 970f 0ebd
00000060: 70ba 2f3e 15c1 883e 6d13 9c3d c242 16be
00000070: 2f9b 153d a76e 5c3d 171b e9be 414a 7d3f
00000080: bcbe b73e 4aeb 903e 004b 20be 5ba9 503e
00000090: a95b 66be d270 0cbd 7a44 c6be 4e6e a73d
000000a0: 28e0 f23e 0c8e cd3d 4b6b 11bf 0ee3 bb3d
000000b0: 52ff a13d 3f0f 80be 1f9e a93d a325 9bbe
000000c0: 0f43 e93e c877 713e 2f41 1a3c abfc 143f
000000d0: 73a8 703e f718 81be 3fca 1fbe 4902 973e
000000e0: 1df0 43be 45d9 c5bd 8bdb d4bd 7b93 38bd
000000f0: d6e7 8dbe 61fa ecbe d8c8 8ebe d460 a6be
00000100: 7e2e 9a3b 234f a5be d26d 18bf a32d b2bd
00000110: 0e9f a1be e6ec 033f df13 e8be 51c3 343e
00000120: 9635 033f 07b0 bcbd d00e 8ebe cfbd d7bd
00000130: 7a8b 543e 9a82 6e3c de65 a73e 53c5 903b
00000140: dcce 683e c5d5 3c3f 1037 f6bd 5bfb 513e
00000150: 6da3 f53b 6801 293e abcb 1c3e db31 87be
00000160: 5433 bc3e 13fc a13e 6bc4 c83d 8fc6 bebe
00000170: e6a1 88bd af71 8ebd f28e f53e 5533 1abf
00000180: 85a9 983e b96a 0c3e 95df 2ebd d1f7 82be
00000190: ef15 57be 0f5c ab3e eedc d33e b00f c93d
000001a0: 7816 983e f6c7 54be fec4 983e 85e5 a83e
000001b0: 2e45 88bc f8fe 583e 8e78 04be 4d6e d0be
000001c0: 2cf6 25be edf9 2abc 8a7e 653e 8bb4 23be
000001d0: f781 8fbe d47a 15be 2544 eebd 5b12 00be
000001e0: 3457 dd3a 1667 513e c614 00be 663d 293f
000001f0: 7d32 2bbd db3d 0fbf 7417 0dbf c731 1cbe
00000200: f613 143e 0e21 823e 736b 95be 5977 bdbe
00000210: fd7b dfbe fd43 20bf 4d33 df3e bf87 1fbe
00000220: 6a23 0dbf 1e20 2ebe 6924 383d 8cc4 49be
00000230: 34a5 4a3e ae52 34be 786a 8cbe 5265 37bf
-0.13538377 0.14244998 0.6127517 -0.22404191 0.70415443 -0.05688298 -0.19681922 -0.19606772
-0.008039441 0.4706948 0.17934783 0.007465885 0.39757672 -0.105851024 -0.06560665 -0.074719384
-0.18550976 -0.43470663 0.23786482 0.56818396 0.13673274 0.07777663 0.26286274 -0.034682836
0.17160964 0.2670981 0.07620893 -0.14673904 0.036524948 0.053816464 -0.4552848 0.9894143
0.35887706 0.2830451 -0.1565361 0.20377104 -0.22495903 -0.03428728 -0.38724118 0.08175336
0.47436643 0.10036859 -0.5680434 0.091741666 0.079100266 -0.25011632 0.08282112 -0.30302152
0.45558974 0.23580849 0.009414955 0.5819804 0.23501758 -0.2521436 -0.15604495 0.2949393
-0.19134565 -0.096605815 -0.10393437 -0.045062523 -0.2771594 -0.46284774 -0.27887607 -0.3249575
0.0047052493 -0.3228694 -0.5954257 -0.08700111 -0.31566662 0.51533353 -0.4532766 0.17652632
0.5125364 -0.09213262 -0.27745676 -0.1053425 0.20756331 0.014557505 0.32694906 0.004418054
0.2273516 0.73763686 -0.12022221 0.20506041 0.0074962885 0.16504443 0.15312068 -0.26405224
0.3675791 0.3163763 0.09803089 -0.37260863 -0.06671505 -0.06955277 0.4796062 -0.60234576
0.29816833 0.13712586 -0.042693693 -0.25579694 -0.21004461 0.33468673 0.41379493 0.09817445
0.29704642 -0.20779404 0.29837793 0.3298761 -0.01663455 0.21191013 -0.12936613 -0.40709153
-0.16207188 -0.0104355635 0.22411552 -0.1598684 -0.28028843 -0.14597636 -0.11634091 -0.12507002
0.001688695 0.2044948 -0.12507924 0.6610931 -0.041796196 -0.5595376 -0.5511391 -0.15253364
0.1446074 0.25415844 -0.2918354 -0.37005118 -0.43649283 -0.6260374 0.43593827 -0.15579127
-0.5513216 -0.17004439 0.0449566 -0.19703883 0.19789582 -0.17609665 -0.2742498 -0.7163898

player_tree_1.W_self.bias f4 [12]
00000000: 3ac1 7bbc 5132 8fbc c7cf a0bb 47c7 01bc
00000010: 4167 80bb 04e6 e6bb 949d 52bc 4aee a6bc
00000020: bbda 83bc 83e8 9fbc 1408 abbc e985 8fbc
-0.015365893 -0.017480047 -0.0049075815 -0.007921047 -0.003918559 -0.007046463 -0.012854952 -0.020377297
-0.01609551 -0.01952005 -0.020877875 -0.017519908

player_tree_2.W.weight f4 [12, 12]
00000000: 4a45 da3e f51a 9a3e 5ad0 3cbe 621c c7be
00000010: 8357 cebe c201 2f3f 17a1 65be fe91 10bf
00000020: b79b 9ebe 3153 af3c 10ba 80bb b661 b83e
00000030: 1378 683e 8dd9 163e b660 c03e 5383 3ebe
00000040: b61f a6be f22a b0be ab87 1d3e 3161 863e
00000050: be8d ed3e ed4c e23e 2408 60be f871 4ebf
00000060: 45e3 11be aba3 a23e 66a0 1bbe b38b 853d
00000070: c984 f83e 35fb 893d f9ea d0bd dca0 93bb
00000080: 9ec9 313d 4061 5c3e 3bbf 263e 0138 713f
00000090: 1c58 1b3b 118b 233f cd08 153e 19b9 2bbe
000000a0: e125 7cbe dd62 0ebe dadb a1be 8521 bebd
000000b0: 4574 a53d 446a 98bd 086d d53d 96a8 fc3d
000000c0: f938 37bd 6c70 8cbe 4f76 8dbd 99f1 97be
000000d0: c0dc 1dbe d358 2f3f 9f3c d8bc 0c51 673d
000000e0: 4476 a33e 4981 243f af54 e13d 71d2 6b3e
000000f0: 7d7e 973e 9364 46be 3388 32be 1e9a 90bd
00000100: f025 a3be 59fb f13e 8c77 8b3e d4d6 913e
00000110: 0dd7 6dbd 1aa7 033d 78fb 383e 28bf b0be
00000120: 0135 6b3e 0d03 00be ffff b6be c1ac 18be
00000130: 0684 4dbe b077 393f 71a9 883e 678a 86bd
00000140: 3289 b83c a97f 373e a804 813e 8dfa 52be
00000150: 34c7 1d3e 1fbe a03d cee8 113f 3783 9bbe
00000160: b878 833e 4199 5f3e 512e 0cbc feb5 8a3e
00000170: f68d 873e 8e6c d2bd 0559 bf3d 1620 18be
00000180: 0cae 723e 0e13 ac3e 8e15 ac3e 4f00 dd3d
00000190: 5c09 adbe 6fc6 663e 7e88 123e aea0 f63d
000001a0: d6b1 f93e 1ff2 b83e 5833 94bd 0d2d d3bd
000001b0: 3939 763e 842d a33e e9ed a93e b72c 7bbd
000001c0: ff82 99be dda3 97be 11ac 9b3e 14bb 72bc
000001d0: 4684 1ebf c3d7 06bf a2df 8abc 7293 0cbe
000001e0: 7047 87be ba96 8f3e cf7f 933e a7cd ca3e
000001f0: e53e 44be 8bd1 003f 033c c7be 778d 503d
00000200: be5c b6be f676 86be 328a bdbd 3c27 ddbd
00000210: ff0a b9be 8298 2d3e 269d b23d b598 203e
00000220: 3e00 ac3c ae46 80be b606 923e a0e4 0b3e
00000230: 6093 4f3e 1588 c7be 482f e5bd b6db 65be
0.42630988 0.30098692 -0.18438855 -0.38888842 -0.4030114 0.6836206 -0.22424732 -0.56472766
-0.30978176 0.021401973 -0.0039284304 0.36012048 0.22702055 0.14731427 0.37573785 -0.18604784
-0.3244607 -0.34407765 0.15383784 0.26246026 0.46397203 0.44199315 -0.21878105 -0.8064265
-0.14246853 0.31765494 -0.15197906 0.06520786 0.48538807 0.06737367 -0.102010675 -0.00450526
0.043405168 0.21521473 0.16283886 0.9422608 0.002370364 0.63884073 0.14554138 -0.16769828
-0.24623825 -0.13904901 -0.31613046 -0.09283737 0.08078817 -0.074421436 0.10421187 0.12336843
-0.044732068 -0.2742952 -0.06907331 -0.29676512 -0.1541624 0.6849491 -0.026396094 0.056473777
0.31926167 0.64259773 0.1100248 0.23029496 0.2958869 -0.19374304 -0.17434768 -0.070606455
-0.31864882 0.47262076 0.27239645 0.28484213 -0.058066417 0.032141782 0.18064678 -0.3452084
0.22969438 -0.12501164 -0.35742185 -0.1490965 -0.20069894 0.72448254 0.26691774 -0.06569367
0.022526357 0.17919792 0.25198865 -0.2060339 0.15408021 0.07848763 0.56995857 -0.30373546
0.2567804 0.21835805 -0.008555965 0.27091974 0.26475495 -0.102746114 0.09343151 -0.1485599
0.23699206 0.33608288 0.33610195 0.107910745 -0.33796203 0.22536634 0.1430988 0.12042366
0.4876849 0.36122224 -0.072363555 -0.10311327 0.24045266 0.31870663 0.33189324 -0.06132194
-0.29982755 -0.29617205 0.30404714 -0.014815111 -0.61920583 -0.52672976 -0.01695234 -0.13728121
-0.2642169 0.28044683 0.28808448 0.39610025 -0.19164617 0.5031974 -0.38912973 0.05091616
-0.35617632 -0.26262635 -0.09254874 -0.10798499 -0.36141202 0.16952708 0.0872138 0.15683253
0.02099621 -0.25053924 0.28520745 0.13661432 0.20271063 -0.3897101 -0.11190659 -0.22447094

player_tree_2.W.bias f4 [12]
00000000: ca2d 4bbd 7130 14bc bcd2 7ebc 20b1 72bc
00000010: 5111 5cbc 0741 7fbc b375 06bc 897f 28bc
00000020: 7b05 acbc 1915 a4bb 6d23 01bd 5ab0 babc
-0.049604215 -0.009044752 -0.015553173 -0.014812738 -0.013431863 -0.015579469 -0.008206773 -0.010284313
-0.020998707 -0.005007398 -0.031527925 -0.02278917

player_tree_2.W_self.weight f4 [12, 12]
00000000: aab5 35be f3d9 d4bb 0fd0 a23d 937e 5cbe
00000010: edfb 733e af8a b6be 8d32 5dbe a874 ecbe
00000020: 4e0e c1be 6498 873e 7de2 ae3d 82cd 17be
00000030: 7534 e7be 3053 8dbe 562c cf3d d398 573e
00000040: b838 e7be 9722 00bf 71d4 95be 2a4f 323f
00000050: 4bf4 33be 00e7 91bc 91fe dc3d 195f ad3c
00000060: 625e d5be 7071 eb3e f019 d7be d1a4 07bd
00000070: 7564 993d 6460 d13e 2ef0 343e f83d 8dbc
00000080: 4c51 d03e cbc9 8b3e eeac 69be 6927 b0be
00000090: 2407 f13e 0f7a 1d3e 6e07 1e3f 2e46 733e
000000a0: d8f0 203d b468 5f3e bb57 f53e e1f1 5bbe
000000b0: a75e 273f ec06 08be 3f7f cebe 6730 1ebe
000000c0: a637 0b3f 1318 0a3e 98f3 99be b8e9 d93d
000000d0: 54c1 cabd 2b74 073f 8c0b be3d d8c2 90bd
000000e0: d864 b73e 15ea 0d3d 98e7 35be 8aef 573d
000000f0: 94e4 053d 34ea 893e 62a9 db3d 07cb 523d
00000100: fc4c b63e 3bc8 e03e e397 13bf 658f 5d3e
00000110: 4bda 713e d880 473d 8de3 da3e 882b 0c3f
00000120: c7f6 9dbd bc89 ab3e 742d 173e 424f 2dbf
00000130: 7001 163f b676 983d b780 bb3e 1698 dcba
00000140: 9199 2d3e 49a4 87be ad3a aa3e c4cf 0e3e
00000150: 9fe6 05bd 7c8d a1be 53c5 7e3e a70c 543e
00000160: ce06 343e da71 7abb 1282 533e 9a5a 1c3f
00000170: cbd5 e5be de4a fd3d 7716 5f3d 5134 783e
00000180: 1367 1c3d a477 8b3e d659 05bf dae9 0b3f
00000190: f49d 3fbe 6260 e0be 17fa c6be 3726 e7bd
000001a0: 6015 e33e f282 ba3e 089e 29bd 2cc8 adbe
000001b0: 609c fbbe efc1 00bd 0215 d3be 0f0d 093d
000001c0: 7efc 64bd 182c 8cbe 8605 f2be ad18 233e
000001d0: f5d0 99be 310e 9a3e b1ba 5e3e 77ad 6fbd
000001e0: ca51 49bc d747 28be 669e bebe 9830 cc3e
000001f0: 94a1 4c3e 0ed0 c4bd 1155 59be 8c90 443e
00000200: ba0b 17bf 0a85 dbbd 08b8 4abe 8eb9 1cbd
00000210: 4b68 c23d 8084 88bd 40e5 d1be ba79 8e3e
00000220: 255c 31bf 1f26 883d 94f3 af3d c163 90be
00000230: 89aa d3be be06 61be d7fc 0e3e e28b abbc
-0.1774508 -0.006495708 0.0794984 -0.21532659 0.23826571 -0.35652682 -0.21601315 -0.46182752
-0.37706226 0.26483452 0.08539293 -0.14824489 -0.4515721 -0.2760253 0.10115878 0.21054392
-0.4516046 -0.5005278 -0.29263642 0.69652045 -0.17573659 -0.017810345 0.10790742 0.02116351
-0.4167357 0.45984983 -0.42011976 -0.033116166 0.07489864 0.40893853 0.17669746 -0.017241463
0.40687025 0.27302393 -0.22819874 -0.34405068 0.4707576 0.15378593 0.61730087 0.2375724
0.039292186 0.21817285 0.47918496 -0.21478988 0.65378803 -0.1328389 -0.40331456 -0.15448152
0.5438179 0.13485746 -0.3006866 0.106402814 -0.09900156 0.52911633 0.09279546 -0.070684135
0.35819125 0.034647066 -0.17764127 0.052718677 0.032688692 0.26936495 0.107256666 0.051463153
0.3560561 0.43902764 -0.57653636 0.21636732 0.23618428 0.04870686 0.42751732 0.54753923
-0.07713085 0.3350352 0.14763433 -0.6769906 0.58595943 0.07444517 0.3662164 -0.0016829993
0.16953112 -0.26492527 0.3324789 0.13946444 -0.03269064 -0.31553257 0.2487996 0.20707951
0.17580721 -0.0038214833 0.20655087 0.61075747 -0.44889674 0.123677954 0.054464784 0.24238707
0.038184237 0.27239716 -0.52090204 0.54653704 -0.18712598 -0.43823534 -0.38862678 -0.11286586
0.44352245 0.36428028 -0.041410476 -0.33941782 -0.49142742 -0.03143495 -0.41226965 0.03345972
-0.055904858 -0.2737739 -0.4726984 0.15927382 -0.30042234 0.30088952 0.21750905 -0.05851504
-0.012287566 -0.16433655 -0.37230223 0.39880824 0.19983512 -0.09609996 -0.21223857 0.19195765
-0.5900227 -0.107187346 -0.19796765 -0.038262896 0.094925486 -0.06665897 -0.40995216 0.27827245
-0.69281226 0.06647896 0.08591381 -0.28201106 -0.41341045 -0.21975228 0.13963638 -0.020940725

player_tree_2.W_self.bias f4 [12]
00000000: ca2d 4bbd 7130 14bc bcd2 7ebc 20b1 72bc
00000010: 5111 5cbc 0741 7fbc b375 06bc 897f 28bc
00000020: 7b05 acbc 1915 a4bb 6d23 01bd 5ab0 babc
-0.049604215 -0.009044752 -0.015553173 -0.014812738 -0.013431863 -0.015579469 -0.008206773 -0.010284313
-0.020998707 -0.005007398 -0.031527925 -0.02278917

player_tree_3.W.weight f4 [12, 12]
00000000: 1862 423e 830a 46bf 6d88 c2bd 7538 553d
00000010: b6a8 fbbd cadc 98bd 97ca 61bd d6c8 3dbe
00000020: b1e9 ba3d b99a d73b 3d31 663e 673d 37bd
00000030: a495 b03d 2c0d 953e f03b e93e 09aa 48be
00000040: d07b 9a3d cc7a a1bd 7d21 5a3c fd79 15be
00000050: e30d fe3c 0121 ec3e 9597 35bd 77bd d63e
00000060: aef8 9e3d 5a57 b73e ddda 9a3d 070f 393e
00000070: f45f 863e bc16 903e 3a41 fdbd d579 0b3f
00000080: 5b17 373e a9d8 ffbe ab24 37bd 0814 2d3d
00000090: 4de8 88be 25a0 d3bc e984 c53c a7ba 03be
000000a0: 0607 20bb 20fa 403e 37c1 f53b 0c82 a53e
000000b0: e6f6 57bb d8eb 9ebe 10d5 183f dd27 59be
000000c0: f890 39be 894c 3dbd 43b2 713e 2453 18be
000000d0: 682b 813e a1f6 56be 709d 6f3e d596 6bba
000000e0: acc0 ad3e 4c3f 9e3c 6522 e1bc 5139 2b3e
000000f0: 86be 12be d55f fe3e 7e51 87bd 9b7c 75be
00000100: 63f4 a63e 0948 64be df5c a5be de3c 1dbf
00000110: 4aac cdbe 11b6 ee3d 123e 21bd d8bb ed3d
00000120: 6948 5bbe fbc0 8cbd 2ed4 8fbd 2cbb c63b
00000130: be47 8cbe 4f71 f43d 85c1 133f 7c81 8d3d
00000140: e5ca d93e 8cb1 ccbe a541 863e 6ad0 0f3e
00000150: e90c 54be 7a78 943c e86a 873d 4a16 1ebd
00000160: 5ffb 85bd 2490 803c 08f0 a13e c58c 5bbe
00000170: 3c18 a7be 6bdd 813d c683 29be 56f4 043e
00000180: a8fe ce3c 6912 8b3d 5acd 803d 043a a23d
00000190: 8042 44be f9a4 443e 3cb7 3a3f 621d a03d
000001a0: 9e14 803d 5b20 f9bd 04c0 01bd f065 9cbd
000001b0: c7e8 16bc 4338 da3e bba2 f43e cee6 8e3e
000001c0: f173 643f ac2b 8f3e 4d5e cb3d 4d14 183e
000001d0: 3d5d 82bd 740c 1f3f 3210 23be 65b3 163e
000001e0: 4d78 613e e0b2 ca3c ae79 fabe c172 92be
000001f0: e092 553d 1a26 12be 88a9 0d3e f77c abbe
00000200: d876 db3d 8de6 60be f415 093f 325d b23e
00000210: 39ef e7be 86c9 be3d f26f 993e 41fb 0a3b
00000220: 72d4 ae3e 02d3 583e b250 13bf d44d 523e
00000230: d648 1cbd 9231 8a3e 0bec a5bc 9846 25bf
0.18982732 -0.7735979 -0.094986774 0.052055795 -0.122880384 -0.07463987 -0.055124845 -0.18533644
0.09126604 0.0065797237 0.2247972 -0.044736292 0.08622292 0.29111612 0.4555354 -0.19596113
0.075431466 -0.0788475 0.013313648 -0.14597316 0.031012481 0.4611893 -0.044334013 0.41941425
0.07762276 0.3580883 0.07561276 0.18072139 0.2624508 0.28142345 -0.123659566 0.54482776
0.17880003 -0.49969986 -0.044712704 0.04225543 -0.2673973 -0.025833199 0.024111228 -0.12864171
-0.0024418249 0.18845415 0.0074998396 0.3232578 -0.003295356 -0.3103931 0.5970011 -0.21206613
-0.18121707 -0.046215568 0.23603158 -0.14875466 0.2522843 -0.20992519 0.23399901 -0.00089870143
0.3393606 0.019317292 -0.02748222 0.16721083 -0.14330491 0.4968249 -0.0660734 -0.23973314
0.32608327 -0.22293104 -0.32297418 -0.61421 -0.4017051 0.1165582 -0.039365835 0.11608094
-0.21414341 -0.068727456 -0.07022892 0.006064793 -0.27398485 0.119356744 0.5771716 0.06909463
0.4253761 -0.39979208 0.26221958 0.14044347 -0.2070805 0.018123854 0.066121876 -0.038595475
-0.06542086 0.015693732 0.31628442 -0.21440418 -0.32635677 0.0634106 -0.16554174 0.12983832
0.025267914 0.06790621 0.06289168 0.07921222 -0.19165993 0.19203557 0.72935843 0.07818104
0.062539324 -0.121643744 -0.03167726 -0.076366305 -0.009210772 0.4262105 0.47780403 0.27910465
0.8923941 0.27963006 0.09930096 0.14851494 -0.0636544 0.62128377 -0.15924147 0.14716871
0.22018547 0.024743497 -0.4892096 -0.28603175 0.052142024 -0.14272347 0.13834202 -0.33493778
0.10716027 -0.21962948 0.5354912 0.34836727 -0.452997 0.09315781 0.2996822 0.0021206888
0.34146458 0.21174243 -0.57545006 0.20537502 -0.0381554 0.26990944 -0.020254156 -0.6456084

player_tree_3.W.bias f4 [12]
00000000: ae18 14bc 563f b4bc af85 5fbc 5b36 05bc
00000010: 340e 57bc 58d3 28bd 1b7e 14bd d0c1 cabd
00000020: d441 41bc fc9d 85bc 5693 60bc de91 23bc
-0.009039087 -0.022002857 -0.0136427125 -0.008130635 -0.013125945 -0.041217178 -0.036253076 -0.09900248
-0.01179548 -0.016310684 -0.013707003 -0.009983508

player_tree_3.W_self.weight f4 [12, 12]
00000000: dda1 4dbe 69cf 6bbe 2141 a6bd 6761 75bd
00000010: 0ba0 f93e f8f5 923e 2d54 e13e b4cf b93e
00000020: 0cb6 433d b3b7 153e 8ee6 593d 3a2d b3be
00000030: 4cde b4be bee6 fabc 98dc 35bd a889 7dbd
00000040: 70e8 81bd 0694 0abe 6c26 14be 3b0b 9ebd
00000050: a804 b6be ab55 40bd ff4d 373e 40c3 c2be
00000060: 20b6 6bbe 054a c43e a788 973e 81f3 a03e
00000070: ad7c c63e 1a69 31bd e22e c7bd b68c a83e
00000080: b602 8d3e c78f 0dbe 84a7 d33e 4f3a a6bd
00000090: ff6a 44bf c74b dd3c ded7 743d f956 c03e
000000a0: e0a3 0dbe 9802 96be 8dfc 9cbe eeb0 1b3f
000000b0: 0e43 cfbc 3ee9 d5be 5aa9 273e b595 10bf
000000c0: 588f 4dbe 4ddc 53be f028 5bbe bf1f e73e
000000d0: 3dad 363f 3fe1 d33e 4f5f dbbb e924 263e
000000e0: 2de9 2fbe be1d 91be a44f 9f3e 0663 253e
000000f0: 81e6 9b3e 1a7e ea3d c2a8 c23e 79ec b43e
00000100: 5058 3bbc fa75 71be da8a 0a3e 71c3 14be
00000110: 66e9 87be f02c 16be 9d4f 3bbd 1637 01bf
00000120: 195b 513e ab43 4cbf 2dc6 1bbe 9d35 0fbe
00000130: fa08 503e 7e97 08be 4907 133e 0c66 1f3e
00000140: ce01 943d 8947 92bb 5c13 833c ec5d 17bd
00000150: 1569 e73d ac7f 5cbe ab2c 203e 66b4 833e
00000160: f91b 7d3e d8d5 233f 6ba9 143c f0d5 29bf
00000170: d703 8abd 8e15 d3bd b81f aabd e5a8 bcbe
00000180: 2a6a 61bf e724 3f3e c6e4 3ebe e7b8 c83e
00000190: d88a 4e3e a06b 1b3f 2611 f0be b4db c43e
000001a0: 6cb1 ba3d 667d 363e efce 1cbf 0b9e b53b
000001b0: edba 14bb 4ce0 903e a1e1 f63e de7c bebd
000001c0: e4c4 873e 3f63 7bbc b7be bf3e bbca b1be
000001d0: 1a36 983e e0ad e0bd e848 f43e 87fe 00bf
000001e0: 6fb4 efbd fec4 aebd 309b 34bd d311 1cbb
000001f0: 2f25 bebd 659a d7bd c268 f7be 2480 b23e
00000200: 708c 343c 38c3 fb3e d80b 9e3d 7128 36be
00000210: c6cb 083e c28a bbbe c41f 8c3e 1972 e13e
00000220: f8db 473d 6115 e73e a2b4 403e bbb6 6cbc
00000230: 3d40 f83d afac 233f e9b3 7c3c 750c 89be
-0.20081277 -0.2302834 -0.08117891 -0.059907343 0.48754916 0.28703284 0.44009534 0.36291277
0.047781035 0.14620857 0.05319839 -0.34995443 -0.3532585 -0.030627605 -0.044399828 -0.061898857
-0.06343162 -0.13533029 -0.14467782 -0.07716986 -0.35550427 -0.0469567 0.17900847 -0.3803959
-0.23018694 0.38337722 0.29596445 0.3143578 0.38766995 -0.043313123 -0.09725739 0.32919854
0.2754113 -0.13824378 0.41338742 -0.0811659 -0.76725763 0.027013673 0.05977618 0.37566355
-0.13832045 -0.29298854 -0.3066143 0.6081685 -0.025300529 -0.41779512 0.16373196 -0.56478435
-0.20074213 -0.20689507 -0.21402335 0.45141408 0.7135809 0.41382787 -0.0066947113 0.16225018
-0.17178793 -0.28343004 0.31115448 0.16151056 0.30449298 0.11449833 0.38019377 0.35336664
-0.01143463 -0.2358016 0.1352953 -0.1452768 -0.26545256 -0.1466558 -0.045730222 -0.5047468
0.20444907 -0.79790753 -0.15212317 -0.13985296 0.20315924 -0.1333904 0.14358248 0.15566272
0.07226907 -0.004464094 0.016000442 -0.036954805 0.1129934 -0.21533078 0.1564204 0.2572357
0.24717702 0.63998175 0.0090735955 -0.6634207 -0.06739014 -0.103068456 -0.08306831 -0.36847606
-0.8805262 0.18666421 -0.18641958 0.3920357 0.20170152 0.607111 -0.46888083 0.3844887
0.09115872 0.17821273 -0.61253256 0.005542522 -0.0022694424 0.28296125 0.48219016 -0.0930116
0.26517403 -0.015343486 0.3745019 -0.34724984 0.29728776 -0.10970664 0.47711873 -0.5038838
-0.11704337 -0.08533667 -0.04409331 -0.0023814335 -0.09284436 -0.10527495 -0.4832211 0.3486339
0.011019811 0.49172378 0.07717103 -0.17788865 0.13358983 -0.366293 0.27367985 0.44032362
0.048793763 0.45133498 0.18818906 -0.014447863 0.121216275 0.6393537 0.015423753 -0.26767316

player_tree_3.W_self.bias f4 [12]
00000000: ae18 14bc 563f b4bc af85 5fbc 5b36 05bc
00000010: 340e 57bc 58d3 28bd 1b7e 14bd d0c1 cabd
00000020: d441 41bc fc9d 85bc 5693 60bc de91 23bc
-0.009039087 -0.022002857 -0.0136427125 -0.008130635 -0.013125945 -0.041217178 -0.036253076 -0.09900248
-0.01179548 -0.016310684 -0.013707003 -0.009983508

player_tree_4.weight f4 [8, 12]
00000000: 1892 993e c173 33be 4e0f b53d 2d67 333e
00000010: a472 27bc 3831 88be cb61 3ebf be83 8fbe
00000020: cc97 c03e e8f4 fd3d 0421 e9bd 46fa 803f
00000030: 361a 423e a5ff 763e b099 973e dce0 6a3e
00000040: 8e4c e63d c1f9 833d de5f 37bf 3dc2 27be
00000050: efa3 293e 472c 26be 960a 34bd 0db0 193f
00000060: b1bb 9bbc d674 4c3d 09cf 27bf 812e e23e
00000070: bb18 06bf 637f 023f 364d df3e 742b c7be
00000080: ecc2 0b3f 887e 9ebd 0e17 06be 247b 78bb
00000090: 3ff5 b83d cf44 833c 62e9 3bbe d12e cfbe
000000a0: 3a00 fbbd 9359 26be fcd0 60be 7e69 973e
000000b0: 6828 85be b1e7 c4be 3564 cd3c e0fe 4a3e
000000c0: 27c5 5abb 0c59 e03d 8e89 ca3e 11b6 5e3e
000000d0: e288 bebe adb5 70be f04b 72be 175b 9a3e
000000e0: 4c5b 013d 3728 9cbe a190 d33d 19ac b53d
000000f0: f159 453f 3a72 bcbe d2f3 ef3e 0385 f7be
00000100: 8e49 353f f7af 09be 7280 92be 5cd9 aabe
00000110: 1dec e63e e01b 263f dc47 3f3e 2b25 45bd
00000120: 715d 333d 3e7c 003e d002 f3bd eadf 743e
00000130: 3c0c d63e 1ee8 5b3e cc95 5b3e 8945 2c3e
00000140: cf52 58be ba46 57bc 0619 b5be 45e6 083e
00000150: 1f55 d2bd 6e15 f0bd 1c3a 803e f5ca 8bbe
00000160: b069 e2be 2cea dd3a 2b8a 373e 4c35 d93e
00000170: 014a ffbd f2ad a1be 2b37 e8be 65d9 3a3f
0.29994273 -0.17524625 0.0884081 0.17519827 -0.010220204 -0.2660005 -0.7436797 -0.280302
0.37615812 0.12400228 -0.1138325 1.0076377 0.18955311 0.24120958 0.29609442 0.2293734
0.112450704 0.06444121 -0.71630657 -0.1638269 0.16566442 -0.16227828 -0.043955408 0.6003426
-0.019010397 0.04991611 -0.65550286 0.44176105 -0.52381486 0.50975627 0.43613595 -0.3890034
0.545943 -0.07738978 -0.13094732 -0.0037915194 0.09031152 0.016024021 -0.18350747 -0.40465406
-0.122559026 -0.16245107 -0.21954721 0.29572672 -0.2600739 -0.38458017 0.025072196 0.1982379
-0.0033381672 0.10954484 0.3955807 0.2174914 -0.37213808 -0.23506804 -0.2366178 0.3014762
0.031581208 -0.30499431 0.1033032 0.08870716 0.77090365 -0.36805898 0.46865708 -0.48343667
0.7081536 -0.13446032 -0.2861362 -0.33368957 0.45102015 0.64886284 0.18679756 -0.04813115
0.043790285 0.12547395 -0.11865771 0.23913541 0.4180621 0.21475264 0.21443862 0.168234
-0.21125339 -0.013139421 -0.35370654 0.13369091 -0.10270142 -0.117228374 0.25044334 -0.2730328
-0.44221258 0.001693075 0.179238 0.42423475 -0.12465287 -0.31578022 -0.4535459 0.7298797

player_tree_4.bias f4 [8]
00000000: 5cf2 b9bb 1c72 833c 410e 143c 73b4 153c
00000010: 1951 d6bc 14a1 26bc 76e0 87bc 54c1 2bbc
-0.0056746434 0.016045623 0.0090366015 0.009137261 -0.026161717 -0.01017024 -0.016586524 -0.010483105

sun_influence_1.W.weight f4 [12, 12]
00000000: e211 f7be d4ce 41be 4853 b0be 6cc1 893e
00000010: ece6 13be 3f93 bc3e 94a4 9ebe 2839 ab3c
00000020: c80e 343e 787b 16be 3186 143e 3788 d73e
00000030: 0d2c cc3e 907f cd3d a289 ccbe 0428 323e
00000040: 19ae 3d3e a976 79bc bc7e bfb9 86d6 5c3e
00000050: 09fb fa3e 618e 54bd 4a8c c4be ddd1 043e
00000060: 85c8 74bd 1f56 18bf 71c3 ca3e 3a22 4cbe
00000070: bf1b 94be 029c 93be c90e cc3e 2fbd 30be
00000080: 2e33 5abe ab7a 4d3e c9ab 63bf 865a 64be
00000090: 94db 41be 6b90 c33e 2278 89bd e847 d3bc
000000a0: 8af6 5e3e 0045 713d f115 91bd 3ff4 213e
000000b0: b721 06be b149 96be e741 003e 14ec 0bbe
000000c0: fb9a adbe 7de2 2dbe 8dc1 513e 9c4f 8dbe
000000d0: 6bb7 6a3e 0a46 b03e 84d3 00be 725e c23e
000000e0: 9bb2 86be 62c4 3f3e 6366 423d a48e 9fbe
000000f0: b573 7abd 425d a53e 925b 48be 2bd5 283e
00000100: 759f ca3c 74b8 16bf b747 90be 8479 bfbd
00000110: ec09 38be 9584 8f3e d5c0 883e e45c aabe
00000120: 726a bebe 600d 353d b59f dc3d 1539 82be
00000130: 0074 f2bd a576 1c3e dd49 e23d 3cec 4f3c
00000140: 8d87 bc3e 28c5 f53d 0a58 c9bb 0c71 cd3e
00000150: a3f9 8a3d 74b8 2cbf bca5 033e 2767 893e
00000160: c443 3e3f 16e3 83bc 96d7 efbe ed60 36be
00000170: 3b62 383d 156f 85be 3b34 8d3e 0eb6 febe
00000180: 393e c8bd 2604 90be 3766 b83e a79c 02be
00000190: cba9 81be b2ba 93be 4325 2f3f 9b7d fdbe
000001a0: 3651 033d d694 3e3e 0020 843b 487b 08bd
000001b0: 977f d33d 13ab be3d 95c5 283e 337f 1b3e
000001c0: ca27 fcbd d014 673e 5890 6bbe a269 b13e
000001d0: 7caa adbe 161d ec3e e108 063f fffd b7be
000001e0: ba47 c33e 6501 4bbe cc68 f03c 103f d0bd
000001f0: 0e72 3b3e bf9c a23e 244a b1bd fd9a 003f
00000200: ebc8 a33e c74a b4bc 9aa1 823d 0ada 8abc
00000210: cc4a 54bd 5348 523e 327b 233e d3ac 753c
00000220: f6c5 e33e e372 6e3d 1faa d7be bf36 103e
00000230: c0a0 913b 951d 853e 2a28 b2be 3957 6ebe
-0.4825583 -0.18926555 -0.3443854 0.26905382 -0.14443558 0.3683109 -0.30984938 0.020901278
0.17583764 -0.14695537 0.14504315 0.4209611 0.39877358 0.10034096 -0.39948756 0.17398077
0.18523444 -0.015226045 -0.00036524783 0.21566209 0.4901965 -0.051893596 -0.38388282 0.12970681
-0.059761543 -0.5950641 0.39602235 -0.19934931 -0.2892742 -0.28829962 0.3985503 -0.17259668
-0.21308586 0.20066325 -0.88934 -0.22300157 -0.18931419 0.3819612 -0.06712367 -0.025791124
0.21773735 0.058903694 -0.07084263 0.15815829 -0.13098799 -0.29353097 0.1252514 -0.13664275
-0.33907303 -0.1698093 0.2048399 -0.275998 0.22921531 0.34428436 -0.12580687 0.3796268
-0.2630814 0.18727258 0.047460925 -0.31163514 -0.061145503 0.32297713 -0.19566181 0.16487567
0.024734238 -0.58875203 -0.28179714 -0.09349349 -0.17972535 0.2803084 0.2670962 -0.33273995
-0.37190586 0.04420221 0.10772649 -0.25434175 -0.118385315 0.15279634 0.110492446 0.0126906
0.36822167 0.12000495 -0.0061445283 0.4012531 0.06785896 -0.67468953 0.12856191 0.26836511
0.7432215 -0.016099494 -0.46844167 -0.17810412 0.045015555 -0.2606131 0.2757891 -0.49748272
-0.09777493 -0.28128165 0.36015484 -0.1275507 -0.25324854 -0.28853375 0.6841623 -0.49509892
0.03205987 0.18611464 0.004032135 -0.033320695 0.1032707 0.093099736 0.16481622 0.15185241
-0.12312277 0.22566533 -0.23004282 0.34650904 -0.33919132 0.4611594 0.523573 -0.3593597
0.3814066 -0.1982475 0.029346846 -0.10168278 0.18305227 0.31760213 -0.08656719 0.50236493
0.31989226 -0.022008313 0.06378479 -0.016949672 -0.051829144 0.20535402 0.15964964 0.014994818
0.4448697 0.058215033 -0.4212198 0.14083384 0.0044442117 0.25999132 -0.34796268 -0.2327546

sun_influence_1.W.bias f4 [12]
00000000: 6bca 3e3c 6c5a d1bb 55f5 593a c9c5 3fbb
00000010: 23a1 1cbc b2f7 38bd cd2f 80bd d986 af3a
00000020: 4922 d4ba 9fca a5bc f7bc f6bb b08d beba
0.01164494 -0.006388953 0.00083144504 -0.0029262176 -0.009559902 -0.045158096 -0.06259117 0.0013391628
-0.0016184534 -0.020238219 -0.0075298506 -0.0014538076

sun_influence_1.W_self.weight f4 [12, 12]
00000000: 876c 67be 9522 97be 7798 80be 36e7 1bbe
00000010: c18a 84be 49dc cb3d 3937 ad3d 86e2 97bd
00000020: 000f 843e d8c5 493e 9c5a 363c fa2a babd
00000030: 6e4f d4be 9816 4fbe eede f8be 593e 583f
00000040: 3af7 733e d0fb 303e 27de f03e 2356 e9bd
00000050: 2c51 55be b190 8fbe c1a2 013d b6b2 e4be
00000060: 783e 833e 325c 133f 2c56 943e c4bb 863c
00000070: be1d ae3e 2808 1fbe 1014 0cbf 73f1 fcbe
00000080: a231 963e 400c 45bd ae1b 6a3e 0cbd b73d
00000090: 7bc9 a9be 26a1 633e c8ac d1bc 3a12 a03e
000000a0: 9372 8abe 69a9 d3bc 7ab3 4dbd e2e9 913e
000000b0: 86c4 dd3e 68db abbd 9c14 18be 1bf5 243f
000000c0: 784c 60be d54d 913e 6d33 723e fb5c 3d3e
000000d0: dbf2 a03d be5a 003f b417 69bc 7e5c 5e3e
000000e0: 3d0c 0f3f 196c 8d3e 8878 edbe 98d6 203d
000000f0: b66d bd3e b974 e7bd 79ab e33c 679f ccbe
00000100: 58cc 54be b317 523e 1373 283e 077b a33e
00000110: 132f efbe d606 76bd b0d2 5c3e 268c 87be
00000120: 4c5d 5abe f1b2 c63e 178c 02bf 877b 273e
00000130: 77ee 9dbe cbf6 ff3d 68ac 4f3e 08a1 8bbd
00000140: 8892 a03e 8266 ad3e 4cc7 823e 6983 c1bd
00000150: df3e 8fbe b4a0 6e3e 2457 77be bab7 523d
00000160: 6a4f 60be 623c 613e 66bf c63e 3b89 b23d
00000170: 1fe0 a93e f4df a23c b829 25be ce2c 7c3e
00000180: 25e9 2fbd 6841 48be 8896 213f 4820 2f3e
00000190: 9819 e73c 1172 703d a751 bbbd 5813 4dbe
000001a0: 8315 e0be 6934 b43c ce92 b73e dda1 db3e
000001b0: 97d9 1d3d 7630 4a3f 4682 5d3e 8736 4a3e
000001c0: fb06 ddbe 5d9d adbe ed24 18bd 0ba1 933e
000001d0: 321f 20bf 07d6 d8be b048 573c e0bb c5be
000001e0: bf0e e5bd 451f 05be dc9b 063e 6847 053e
000001f0: 710d c33e a15a 1e3e a355 b0be 9a10 e73e
00000200: 3504 86be ac81 4f3e 4a4e 773e 42a0 7f3e
00000210: 1a72 db3d a68c 89be 80a9 aebe ddf3 b43e
00000220: f70c 93be 8bb6 9ebd d702 c8be 0d33 03bf
00000230: d9a5 8a3e e524 a93e 28dd ea3d 5082 03bd
-0.22599994 -0.29518571 -0.2511632 -0.15224919 -0.2588711 0.099541254 0.084577985 -0.07416253
0.25792694 0.19704378 0.011130001 -0.090902284 -0.4146685 -0.20223463 -0.48607582 0.84470135
0.23824778 0.17283559 0.4704449 -0.113933824 -0.20831746 -0.28040078 0.031649355 -0.44667596
0.25633597 0.57562554 0.28971994 0.016446956 0.34007066 -0.15530455 -0.5471811 -0.4940296
0.29334742 -0.048107386 0.22862121 0.08971605 -0.3316153 0.22229442 -0.025595084 0.31263906
-0.27040538 -0.025837617 -0.05021999 0.2849875 0.43313998 -0.08391458 -0.14851612 0.644365
-0.2190417 0.28379694 0.2365243 0.184925 0.07858821 0.5013846 -0.014226843 0.2171497
0.5587805 0.27621534 -0.4638102 0.039267153 0.36997765 -0.1130156 0.027791725 -0.39965364
-0.20781076 0.20516853 0.16450147 0.319298 -0.46715602 -0.060065113 0.21564746 -0.26474112
-0.21324652 0.38808396 -0.5099501 0.16355716 -0.30845997 0.12498244 0.20280612 -0.06817824
0.31361794 0.3386727 0.25542676 -0.094488926 -0.27977654 0.23303491 -0.24154335 0.051444747
-0.21905294 0.2199569 0.388179 0.08717581 0.33178803 0.01988218 -0.16129196 0.24626467
-0.042946953 -0.195562 0.6312032 0.17102158 0.028210446 0.058702532 -0.09146433 -0.2002691
-0.43766412 0.021997647 0.3585419 0.4289693 0.038537588 0.78980196 0.21631727 0.19747363
-0.43169388 -0.3390912 -0.03714459 0.28833804 -0.625476 -0.4235079 0.013139889 -0.386199
-0.11184453 -0.1300021 0.13145393 0.1301552 0.38096192 0.1546426 -0.34440336 0.45129853
-0.26175085 0.2026431 0.24150959 0.24963477 0.107151225 -0.2686512 -0.34113693 0.35342303
-0.2872083 -0.07749661 -0.39064667 -0.5124977 0.27079657 0.3303596 0.114679635 -0.032106698

sun_influence_1.W_self.bias f4 [12]
00000000: 6bca 3e3c 6c5a d1bb 55f5 593a c9c5 3fbb
00000010: 23a1 1cbc b2f7 38bd cd2f 80bd d986 af3a
00000020: 4922 d4ba 9fca a5bc f7bc f6bb b08d beba
0.01164494 -0.006388953 0.00083144504 -0.0029262176 -0.009559902 -0.045158096 -0.06259117 0.0013391628
-0.0016184534 -0.020238219 -0.0075298506 -0.0014538076

sun_influence_2.W.weight f4 [12, 12]
00000000: be0a f7bd a0b2 8c3e 3d54 353d f2d2 6ebb
00000010: fda6 493e 9cad a6bd f079 a0be 0613 863e
00000020: 529f cebd 939c 943e 5b11 14be 1015 e63d
00000030: d63c fabd b841 3f3f 9570 c83e f4b6 803e
00000040: 3ab7 0bbe ce2d 033f fcec c43e 86a9 31be
00000050: 24dc 32bc becc 9bbe 12fe c53e dca3 093d
00000060: 97bf 7fbe 17af 893e d663 2cbe 7a8c 8c3e
00000070: 5c9f 6ebe 1a2e 52be 4cd3 1dbe fcb6 db3d
00000080: e09b 3b3f 510b 0e3b c4c3 df3d 42a6 00bd
00000090: 0825 afbe 192a 9abe 2209 a13e d564 333e
000000a0: 2290 883c 0061 bbbe b862 993e 831f 47be
000000b0: dfb1 8d3d 4674 16bd 679d 2d3d 35cd 93be
000000c0: 6e09 363c 7783 0b3f ff66 b5be f796 8bbe
000000d0: 646c 92be 15bc d2be 35b1 8bbe 9a98 c2be
000000e0: 364a d03d 2052 a13e 9f5e 6ebe f1f0 dbbe
000000f0: 39af 25be df85 94be 64c5 e23c ae49 f23c
00000100: 40ad c53d 768e 24bf b20a 16be ae50 503e
00000110: daf5 233e e53e 73be f16c 183c eba7 ba3d
00000120: 77d8 22be 2981 0c3f 5b9f a4be 92dc 5abe
00000130: fd67 1f3e 5c5c 8abc 15f8 2f3e b2a0 d03d
00000140: 9ff6 043d f3ec b4be 7759 99be 6ed4 0a3b
00000150: e443 6cbe 09ae 19bd daff aa3e f09b 483d
00000160: 0f3b a53d 3a19 4a3e 1d76 003d 13a1 373e
00000170: 31dc 0abf 832f 5cbe d463 59bd 3098 9b3d
00000180: 41b6 d7be 35a1 cbbe df4c 31bd 23a1 683e
00000190: 164a 033e fbd3 19bf 850e ac3e 0535 cfbe
000001a0: 9f89 803e d4b7 2f3e 9c6f 03bf c243 38bc
000001b0: 909f 1dbf 2129 f23d 3f4b 41be 1509 01bf
000001c0: 26d7 46be 620f 1cbf a779 7dbe f790 9cbe
000001d0: 9bbd b6bc 9181 c4bb 9783 5e3b 38e2 bcbe
000001e0: 3057 bf3e 6a9d 0c3f 63c5 adbe ccd8 efbd
000001f0: 1b90 9d3e aa33 64bd 9853 603d 71f9 29bf
00000200: 3018 99be 8c98 cfbd 199d a3be cc75 72bb
00000210: c4c0 67be 5eb6 6ebd c215 02bd 6ea4 8dbe
00000220: 61e7 6fbe e817 df3e 96b5 c13d 793c c3be
00000230: 457d 613e 590a fa3d 8712 af3e 3b20 d33e
-0.12062596 0.2748003 0.04426979 -0.0036441651 0.19692607 -0.08138582 -0.3134303 0.2618639
-0.10088982 0.29025707 -0.14459746 0.11234486 -0.12218635 0.74709654 0.39148393 0.25139582
-0.13644114 0.5124177 0.38462055 -0.17349824 -0.010916743 -0.30429643 0.38670403 0.033603534
-0.2497543 0.26891395 -0.1683496 0.27450925 -0.23302978 -0.20525399 -0.15412635 0.10728261
0.7328472 0.0021674226 0.10926011 -0.031408556 -0.3420794 -0.30110243 0.3145228 0.17518933
0.01667029 -0.36597443 0.2995813 -0.19445615 0.06918692 -0.03673198 0.04238644 -0.28867498
0.011110647 0.54497474 -0.35430142 -0.27263615 -0.2859832 -0.4115912 -0.27283636 -0.3800705
0.101704046 0.3150797 -0.23278283 -0.4295726 -0.16180123 -0.29008386 0.027682014 0.029576149
0.096521854 -0.6427988 -0.14652517 0.20343277 0.16011754 -0.23754461 0.009303317 0.09114059
-0.15902887 0.5488458 -0.3215283 -0.21373203 0.15567012 -0.016889744 0.1718448 0.101869
0.03246176 -0.35337028 -0.2995107 0.0021183747 -0.23072773 -0.03751949 0.33398324 0.04897684
0.08067905 0.19736186 0.03136264 0.17932539 -0.54242235 -0.215025 -0.05307372 0.07597387
-0.42131236 -0.3977143 -0.0432862 0.22717719 0.1282123 -0.6008908 0.33604828 -0.40470138
0.25104997 0.17159969 -0.5134218 -0.0112466235 -0.615716 0.11824251 -0.1887636 -0.50404483
-0.1941801 -0.6096097 -0.24753438 -0.3057935 -0.022307208 -0.005996891 0.0033952945 -0.3689134
0.37371206 0.54927695 -0.33939657 -0.117112726 0.30774006 -0.055713333 0.05476722 -0.6639624
-0.29901266 -0.10136518 -0.31955793 -0.0036996482 -0.22632128 -0.058279388 -0.03175903 -0.27664512
-0.23428108 0.43572927 0.09458463 -0.38132074 0.22020443 0.12209005 0.34193823 0.41235527

sun_influence_2.W.bias f4 [12]
00000000: 7d36 1fbc 2bc1 00bc b926 32bc f97d 883b
00000010: 8bb5 cfbc a2be 77bc 3330 ffbb ac7a 93bb
00000020: 696b ebbc 5209 f3bc cf44 18bc 3224 25bd
-0.009717581 -0.007858555 -0.01087349 0.0041654077 -0.025355121 -0.015121134 -0.007787728 -0.0045007076
-0.02873774 -0.02966753 -0.009293749 -0.04031772

sun_influence_2.W_self.weight f4 [12, 12]
00000000: 63ad f8bd a5b0 b53d 9e7a 83be f2d8 273f
00000010: 7c43 e6be ef53 b6be b4ba 79bc b93c f83d
00000020: 9ec2 b3bd 4fdd 053f e656 5f3e 6d82 3f3d
00000030: 422e 723d 86ad 763e 3510 c73e 8fbd c13e
00000040: dbae ca3e 6c39 453e cce5 eabc f326 233e
00000050: f5af 87be e9df 343e 091a a43e 3a40 683e
00000060: 3bc4 36be 35ea 683c af7d 5f3d ce62 f0be
00000070: 5dc3 3e3e b3d3 0f3d c9a6 743e 436f da3e
00000080: 93cc 60be 9f45 4abe 87e5 0bbd ccee a33d
00000090: c181 59bf e41d 27be ce23 493e 3fcd d93e
000000a0: 1b03 fa3e a59e f0bd 4c5e 2ebf 4c50 cdbe
000000b0: 523e dc3e 608d 963e 2118 023f 490a acb9
000000c0: 98a7 d53d a066 fd3e c87e 0dbe 0790 b83d
000000d0: 73be a33e 45a7 f9bd ff6e aebd cd2c 8dbe
000000e0: 3920 33be 6d33 0cbe 5065 74be 85fa c1be
000000f0: 3b2b 133f d706 fa3e 9bd4 803d 833a ce3e
00000100: 449a c93e cec0 563e 7dd1 493e 2fad 93be
00000110: 6dfa 6a3e 8600 92bd 9a88 833f 1671 97be
00000120: 1fe1 913e c2bd a0bd c915 2ebc 5afc 9a3e
00000130: 3495 463c babb 5ebe 0326 57be d610 9ebc
00000140: ab05 a2be d3c9 553e 5b49 b3be 3619 143f
00000150: 745d 18be 1fcf 773c d2f1 9fbe 2a42 51be
00000160: ab9b 113e 8317 8e3e 55d3 09bf f0fc 823e
00000170: 26b6 f0be 3912 57be ce43 063f a9c2 04bf
00000180: 7121 54bf bc68 8d3d c8d6 22bd 2841 58bb
00000190: 30f5 b23d 25f3 94bd 254e 873e 68c9 db3c
000001a0: 7133 7e3e f57c 2c3e 2806 183e b973 aa3c
000001b0: c1bf b0be b4ba 6cbe 0925 8fbe 2199 253e
000001c0: cd33 c9bd 50fb c9be d0f1 dbbd 388f 14be
000001d0: 25b6 7f3d 6a2b b83e d425 6a3e 19b6 fcbe
000001e0: 29ae 9d3e 5e8e 34be f838 21bd 7bdb adbc
000001f0: 6fbd b2be e2c5 29be 2782 af3e 1687 8dbe
00000200: 1850 aebd 029a 0fbf ad32 9e3e 17e1 3cbe
00000210: 3595 c6bc 2c9e 40bd 5627 1d3d b72a 4fbf
00000220: d4ef 0c3f 8931 8abe 9f40 4bbe 8782 103f
00000230: 1e1f e83e 4c81 c6bc abce a13e b75d d4be
-0.12142446 0.08871583 -0.25679487 0.6556541 -0.44973361 -0.3561091 -0.015242267 0.12120957
-0.08777355 0.52290815 0.21810493 0.046755243 0.059126146 0.24089631 0.38879552 0.37839934
0.3958653 0.19260186 -0.028674029 0.15932827 -0.26501432 0.1766354 0.32051113 0.2268075
-0.17848293 0.014215996 0.05456322 -0.46950382 0.18629213 0.035114 0.23891748 0.4266301
-0.21953039 -0.19753121 -0.03415444 0.08004531 -0.84963614 -0.16319996 0.19642565 0.42539403
0.48830494 -0.11749009 -0.68112636 -0.40100324 0.43016297 0.29404736 0.5081807 -0.0003281406
0.104323566 0.4949236 -0.13817894 0.09011846 0.3198124 -0.12190107 -0.085172646 -0.27573243
-0.1749276 -0.13691492 -0.23866773 -0.37886444 0.5748784 0.48833343 0.06290551 0.40279016
0.39375508 0.20971987 0.1970882 -0.28843066 0.22947092 -0.07129006 1.0276062 -0.29578465
0.28492066 -0.078486934 -0.010625311 0.30270654 0.012120534 -0.217513 -0.21010594 -0.019295137
-0.3164495 0.20877771 -0.35016903 0.5785097 -0.148794 0.015125065 -0.31239182 -0.20435396
0.14219539 0.27752313 -0.5383809 0.255836 -0.47013968 -0.21003045 0.5244721 -0.5185953
-0.8286353 0.06904742 -0.039755613 -0.003299782 0.08738172 -0.07272939 0.26426807 0.026829436
0.24824311 0.16844542 0.14846098 0.020807134 -0.34521297 -0.23118097 -0.27957943 0.16171695
-0.09824333 -0.3944955 -0.107394814 -0.14507759 0.062429566 0.35970622 0.22865993 -0.4935768
0.30796936 -0.17632434 -0.03936097 -0.02122282 -0.3491015 -0.16579393 0.34278986 -0.27642125
-0.085113704 -0.5609437 0.30898038 -0.1844524 -0.02424107 -0.047025844 0.03836759 -0.8092455
0.5505345 -0.26990917 -0.1984887 0.5644917 0.4533624 -0.024231575 0.31602988 -0.4147775

sun_influence_2.W_self.bias f4 [12]
00000000: 7d36 1fbc 2bc1 00bc b926 32bc f97d 883b
00000010: 8bb5 cfbc a2be 77bc 3330 ffbb ac7a 93bb
00000020: 696b ebbc 5209 f3bc cf44 18bc 3224 25bd
-0.009717581 -0.007858555 -0.01087349 0.0041654077 -0.025355121 -0.015121134 -0.007787728 -0.0045007076
-0.02873774 -0.02966753 -0.009293749 -0.04031772

sun_influence_3.W.weight f4 [12, 12]
00000000: 1b6a 74be 8324 f73c e2a5 613d 5b04 83be
00000010: daa5 04be 23e3 57be 505a d93d e98d f9be
00000020: f581 f3bc 64a9 51bd 4c2a 06be dab5 45be
00000030: d8e2 393e d851 c5bd d8ef 03bf 4dc2 403e
00000040: 4c75 21be cb8c aa3e 102d a83e 5ed2 aa3d
00000050: d078 38be 20bf 9cbe 3c7f acbc 2112 0ebd
00000060: 926f c4be e63e ed3b ee07 3bbe 9416 3bbd
00000070: 30e2 323e 6f96 b73c c1d4 03be d83b 303e
00000080: 8a00 903d 268a b5be f68d 2dbc 2189 51be
00000090: 785b f83d 3c8d 743e 1ad1 fcbd c25d 1fbe
000000a0: bd56 5abd 8c72 5abd ec14 a73e d715 07bf
000000b0: 416e 0c3e 5b92 cc3d bb0a 5a3d 094d f6be
000000c0: 2fbc 803e 56d4 c8be ebb3 b43d ddd0 9dbd
000000d0: 2f8d cabe 8fc1 5f3b f0a3 89be 914d fb3e
000000e0: 7980 5dbd 3e9c b93e 39dd 8b3e 2df3 953e
000000f0: 6ec5 623e c627 8abe 6fa3 ca3e cd51 d8bc
00000100: 2169 383d 6a77 253e 4f8b 533e eb8b 8a3e
00000110: a452 94be 666c 2dbd 364b 89bd d85e 44be
00000120: aa8f fdbd 6b5e f53e b111 ff3c 2b7a 873e
00000130: 6c21 b93e f770 153f 5786 863e 54b9 913e
00000140: 195c adbd 4248 5ebe 62ab 2abc e9f9 a4be
00000150: 1a5c 803d 14e6 32be ab6c ccbe e6a3 2bbe
00000160: aeb7 a1bc a693 a6be e575 713d e0b1 3fbe
00000170: b7ad 8fbe bd6f d53d 8093 093e d9a1 98be
00000180: adb4 ba3d 99ac e4be d43a 903d b3e9 04bf
00000190: c7ec 0abe 2697 b9bb 547f aebc e3e4 0c3f
000001a0: fc9d a73c 984f 30be bc09 8c3e 76a9 acbd
000001b0: 765b 05be 3a4b 90be a23b 283d e561 43be
000001c0: e4f7 443d ed17 0dbf 1a28 b4be 3f60 483d
000001d0: 7031 c43e 0ba9 a33e c659 0dbe 0d59 7fbe
000001e0: 2443 d53e a2cc c0bd 0f25 99bc 72be cd3e
000001f0: 57cf afbd ec37 98be f0e8 abbe c79a b73e
00000200: bf2a 93bd 0630 26be e589 26bb e778 b43e
00000210: 4fe5 85bd d4ce 823e b9f9 953e 18ec 443d
00000220: 2d49 ccbd 0188 d6bd 4dc8 aa3e c6c3 8bbe
00000230: 4056 91bd c37d 08be b23e 13bf 4aea a63e
-0.23868601 0.030168777 0.05508984 -0.2558926 -0.12953892 -0.2108274 0.10612929 -0.4874108
-0.029725054 -0.051186934 -0.13102072 -0.19307652 0.1815294 -0.09634751 -0.5153785 0.1882412
-0.15767401 0.33310542 0.3284688 0.083409056 -0.18014836 -0.30614567 -0.021056764 -0.034685258
-0.3836637 0.007240164 -0.18264744 -0.04567583 0.17469096 0.0224106 -0.12874128 0.17210329
0.07031353 -0.3545696 -0.010592928 -0.20462467 0.12126821 0.23882002 -0.123445705 -0.1556311
-0.053305376 -0.053331897 0.3263315 -0.527677 0.13713934 0.099888526 0.05323289 -0.48105648
0.25143573 -0.392245 0.08823379 -0.07705853 -0.3956084 0.003414247 -0.26882887 0.49082616
-0.0540776 0.36252016 0.27317217 0.2928709 0.22145626 -0.2698347 0.39577815 -0.026406193
0.045022134 0.16158834 0.20658611 0.27059874 -0.289693 -0.042339705 -0.067037985 -0.19176805
-0.12380917 0.47923598 0.031136366 0.26460394 0.3615831 0.58375496 0.26274368 0.28461707
-0.08464832 -0.21707252 -0.010416837 -0.32221916 0.06267567 -0.1747058 -0.39926657 -0.16761741
-0.019740906 -0.32534522 0.058950324 -0.18720198 -0.2806222 0.10421703 0.13435173 -0.2981098
0.091164924 -0.44662932 0.070424706 -0.51919097 -0.13566886 -0.0056637703 -0.02130095 0.55036753
0.020461075 -0.17217863 0.27351177 -0.084307596 -0.13023171 -0.28182393 0.041072495 -0.19080313
0.04808797 -0.5511463 -0.35186845 0.048919912 0.38318968 0.31964907 -0.13803777 -0.24936314
0.41652787 -0.094140306 -0.018694429 0.4018436 -0.08584469 -0.29730165 -0.33576155 0.35860273
-0.071858875 -0.16229257 -0.0025411781 0.3524849 -0.06537878 0.25548422 0.29292086 0.04807672
-0.09974895 -0.104751594 0.33355942 -0.272978 -0.07096529 -0.13329224 -0.5751754 0.32600623

sun_influence_3.W.bias f4 [12]
00000000: 22b8 56bc d11a 88bc a94d 0ebd e183 aebc
00000010: ef4e 5abc 6456 4cbc e413 f3bb dac9 c4bb
00000020: a00c 39bc 3938 84bc f61b 51bc 229f 2dbc
-0.013105424 -0.01661435 -0.03474203 -0.02130312 -0.013324483 -0.012471769 -0.0074181426 -0.006005508
-0.011294514 -0.01614009 -0.012763014 -0.010597022

sun_influence_3.W_self.weight f4 [12, 12]
00000000: 208c 31be 1464 143e d368 083e 98b8 9e3e
00000010: c989 fa3e 55b6 553d dd8f 843c f382 ca3e
00000020: 5ffd 0ebe e45d 11be 2afd 40bd 5c58 133e
00000030: 12dd c33d 2038 d33c bbfc ce3d 9fc9 f03e
00000040: 066f adbd adac 6fbe 5cd4 3abe 0b7c 593e
00000050: 6c3c b3be 23bd ce3e 53da 48be 04cc 553e
00000060: 2747 8d3d 3c4b d1bd bc5d 2e3e 4f5e 093e
00000070: ecc1 c8bd 8c48 fe3d 88dc c4be 95d1 4c3e
00000080: fd0e 43bf 78fb 923e d0de 8abe 16ca 6cbc
00000090: b7bc 613e e321 8f3e 3557 aa3e 581e 703e
000000a0: 6f68 14bd e2a2 27bf 273c aabd 059d a43d
000000b0: 30d1 fbbe 307d 50bd c205 113f a1c1 d2bd
000000c0: fc18 52be ddec f6bd 035f d8bc 2629 283f
000000d0: bf67 80be db62 7d3d e098 183e e2db b2be
000000e0: 5411 87be 4145 ad3e bc97 a9be 8c80 b13e
000000f0: 63d1 363e 0be7 ad3d 3bc6 29be 619c 263f
00000100: 4b51 2bbe 83a7 073f 868a bd3e 175c 813d
00000110: d0bf 21bc 941f febe 7268 26bf 4558 023e
00000120: 07d4 77be 1d2b 783e 85fc 0e3f 662c 883e
00000130: 8a28 ee3d 40f7 9b3d eca1 ed3e 67db 6e3e
00000140: b1e0 a43d b116 0abe 8931 fd3d a0b8 3d3d
00000150: 25b2 b0be 4bcb 0abe 1b93 56be 48bc 9f3d
00000160: 14c1 31be b606 97bd d252 a93e 1fc3 56bd
00000170: 6c4d cd3c d3e0 3c3e ad73 65be f7a6 163c
00000180: 274f 2fbd 0776 49bf 5a53 503e 557e 523e
00000190: 8eb2 84be 10b1 353f 7871 563e 8c60 8c3d
000001a0: 82dc 94bb e76e 2e3e aefb 60be f7b9 4d3d
000001b0: 5e22 4abe df3f 7d3e 2bac 843e 0cca 443d
000001c0: e579 c1bd 22b4 33bd 9833 14be e224 0abe
000001d0: 96e8 95be 84d5 efbc f497 cdbd 7191 4ebe
000001e0: 8d34 153f 0ea3 723d 56d5 c4bd ba49 1a3f
000001f0: e233 c8bd b41d b23d 41d5 b73d c2f1 bfbd
00000200: 94ba d03e 0a0a a53e 2d14 023f 83cb efbe
00000210: 1f2c c5be 117c 83be 9a5d e1be 29ab d7be
00000220: 0707 a0bc 379d 9d3e d67a b4be f33b 14bf
00000230: ab5e 773c a698 9b3e 7a11 a73e 2155 6cbe
-0.1733861 0.14491302 0.13321237 0.3100021 0.48933247 0.05217584 0.01618188 0.3955303
-0.13963841 -0.14195973 -0.047116436 0.14389175 0.0956365 0.025783598 0.10106798 0.47028825
-0.08468442 -0.23405714 -0.18245071 0.21238725 -0.35007036 0.40378675 -0.19614534 0.20878607
0.06898337 -0.10219428 0.17027944 0.13414882 -0.09802613 0.12416181 -0.38449502 0.20001824
-0.76194745 0.2870748 -0.27123117 -0.014452478 0.22044645 0.2795554 0.3326966 0.23449075
-0.036232408 -0.65482914 -0.083122544 0.080377616 -0.49183035 -0.050900638 0.5664941 -0.10290838
-0.20517343 -0.12056897 -0.026412493 0.6568779 -0.25079152 0.061861854 0.14902067 -0.34933382
-0.26380408 0.338419 -0.33123577 0.34668386 0.17853312 0.084913336 -0.16579525 0.65082365
-0.1673023 0.5298998 0.37019747 0.06316393 -0.009872392 -0.49633467 -0.6500312 0.12728985
-0.24201976 0.24235196 0.55854064 0.26596373 0.11628826 0.076155186 0.464126 0.23325883
0.08050669 -0.13485219 0.12362964 0.04631865 -0.34510913 -0.13554113 -0.20954554 0.07799584
-0.1735881 -0.07374327 0.33071 -0.052432176 0.025061332 0.18445139 -0.22407408 0.009195081
-0.042800095 -0.7869572 0.20344296 0.20556004 -0.25917476 0.709733 0.20941722 0.06854352
-0.004542888 0.17034493 -0.21971008 0.050226178 -0.19739673 0.24731396 0.25912604 0.04804425
-0.09447078 -0.04387296 -0.14472806 -0.13490632 -0.2927901 -0.029276617 -0.100387484 -0.20172669
0.5828331 0.059237532 -0.09611003 0.6026875 -0.09775521 0.08697072 0.08976222 -0.093722835
0.40767348 0.32234222 0.50812036 -0.46834955 -0.38510224 -0.25680593 -0.44016725 -0.42122772
-0.0195346 0.30784008 -0.35249966 -0.57903975 0.015098254 0.303899 0.3263052 -0.23079349

sun_influence_3.W_self.bias f4 [12]
00000000: 22b8 56bc d11a 88bc a94d 0ebd e183 aebc
00000010: ef4e 5abc 6456 4cbc e413 f3bb dac9 c4bb
00000020: a00c 39bc 3938 84bc f61b 51bc 229f 2dbc
-0.013105424 -0.01661435 -0.03474203 -0.02130312 -0.013324483 -0.012471769 -0.0074181426 -0.006005508
-0.011294514 -0.01614009 -0.012763014 -0.010597022

sun_influence_4.weight f4 [8, 12]
00000000: 777e 963e 7cd2 87be d2e5 89be 0193 8e3c
00000010: 5ba3 1fbf 8038 45bf 3497 403d f0d4 29bf
00000020: 20c6 71be 0802 f1be 43e8 ffbe d597 6fbe
00000030: fe56 c3be a5e8 c6bc 5557 6a3e e747 a6be
00000040: 1d25 cdbe 141a 75be 5bdc 8fbe 432f 05be
00000050: d37e 02be 75f8 5ebd 884e 29be 55fa a7be
00000060: 2026 cdbe 4f1d 36bf 7c04 793e 7a16 74be
00000070: 5388 0e3f 6bba 483d 5ad3 8abd bedc d33e
00000080: 0b07 103e 412a 13be 479c 073f a045 21be
00000090: 8020 363e eb55 b4bc 0509 e23e 4bdb 0cbf
000000a0: b88d 193e 54c5 ec3e 05bc 893d 1ad3 6abd
000000b0: df5d 04be 5a1b 973d 8989 48be 1655 d13e
000000c0: 7a80 a7bb 9c04 f93d f8f5 aebe 92fa d4be
000000d0: 635d 17bf 388d 23be 24cc 6fbe c781 643d
000000e0: bba6 c6be 15d6 0bbe 1e3b f2bd ed47 223f
000000f0: 4830 31be 96c4 1bbd 0d05 503d 475e 20be
00000100: 45ac 423f 9b4c ccbe 1896 babe 037d 24be
00000110: 7918 223e cbb4 b7be d066 c83e 20c2 eabe
00000120: e063 993c 94c5 bbbe 7eff b0be efab 893e
00000130: 4686 943e 4283 25bf 9c95 81bd 2bcd 1bbf
00000140: 6216 c3bd 1304 c13d b8b2 60be 542f cbbd
00000150: 8861 cc3e 0892 60bc 7649 f6be a95f 873d
00000160: 24b7 f9be 028f 22bd 64b1 15be 7080 b83e
00000170: bd5c 4bbe 2366 89bd 0d2c e03e 9a6e 6cbe
0.2939336 -0.26527774 -0.2693315 0.017404081 -0.62358636 -0.7703934 0.0470192 -0.6634054
-0.23610735 -0.47071862 -0.4998189 -0.23397763 -0.38152307 -0.024280855 0.22884877 -0.32476732
-0.40067378 -0.2393573 -0.28097805 -0.1300631 -0.12743692 -0.054436166 -0.16533864 -0.32808176
-0.4006815 -0.7113847 0.24318117 -0.23836699 0.55676764 0.049005907 -0.06778593 0.4137935
0.14065187 -0.14371587 0.52972835 -0.15749216 0.17785835 -0.022013625 0.44147506 -0.55022115
0.14995468 0.462443 0.06725315 -0.05733023 -0.12926434 0.07378264 -0.19583715 0.40885228
-0.005111751 0.12159082 -0.34172034 -0.4159742 -0.5912687 -0.1597184 -0.23417717 0.055787828
-0.3879908 -0.13655885 -0.11827682 0.63391 -0.17303574 -0.038029276 0.050786067 -0.15660964
0.7604411 -0.39902195 -0.36442637 -0.16063313 0.15829648 -0.35880122 0.3914094 -0.4585123
0.018724382 -0.36674178 -0.34569925 0.26888987 0.29008693 -0.6465341 -0.06327364 -0.60859936
-0.095257536 0.09424605 -0.21943176 -0.099211365 0.3991816 -0.013706692 -0.4810292 0.066100426
-0.48772538 -0.039687164 -0.1461845 0.3603549 -0.19859596 -0.06708934 0.43783608 -0.23089066
