src/Photosynthesis/RL/SavedModels/model_9.pth (torch, 29994 bytes, 34 tensors)

player_tree_1.W.weight f4 [12, 12]
000000 89 82 fd bd dd 3d 0a bf 35 60 97 3e 63 7a 92 be
       -0.12378413 -0.54000646 0.29565588 -0.28609
000010 18 57 14 3e d8 6c 7d 3e db cd af 3d d9 ee 88 3d
       0.14486349 0.24748552 0.08584186 0.066861816
000020 b2 4e 09 3d c6 b5 9e 3e 1c fb c9 3b 98 54 02 be
       0.033522315 0.30998057 0.006163968 -0.12727582
000030 74 43 38 be 00 51 7a 3e f0 df 8f be 57 07 c1 be
       -0.17994481 0.24444962 -0.28100538 -0.37700912
000040 9f a2 a8 3e 02 f4 a8 3c e8 17 c5 bd c1 ba bd 3d
       0.3293657 0.020624164 -0.096237004 0.09264136
000050 29 3b a8 be c3 de 1c 3f 75 33 27 3f 95 59 8e bd
       -0.32857636 0.6127741 0.6531289 -0.0695068
000060 8f a8 12 bb d0 9a 8e be 2f c5 8b 3c 5e 30 80 3e
       -0.00223783 -0.27852488 0.017061798 0.250369
000070 0c 35 8a 3e 0b 80 b2 3d fb 04 1c bd 0d 0b bd 3e
       0.26993597 0.087158285 -0.038090687 0.36922494
000080 6e 5a 08 3f 69 e8 bd 3e a8 ca 98 bc f3 b9 54 be
       0.53262985 0.37091377 -0.018651322 -0.20774059
000090 e1 fa f4 bd 9f 54 c7 be 39 08 92 bd 54 2e 24 3c
       -0.11961914 -0.38931748 -0.071304746 0.010020811
0000a0 e9 c5 4a be 6d 75 8d 3d a2 24 fc 3c a8 fa 2a be
       -0.19802059 0.06907163 0.030779187 -0.1669718
0000b0 93 4a 47 be d0 f8 18 bd a6 f7 5c bf 8c 2c 0b 3e
       -0.19462042 -0.03734666 -0.8631538 0.13591212
0000c0 cb bc bb 3d ca 20 15 be 6c c6 b1 bd 70 40 73 be
       0.09166869 -0.1456329 -0.08680424 -0.2375505
0000d0 8b be 73 bd 7e 07 1c 3f f9 e2 4b 3e ec f4 5e be
       -0.059507888 0.6094893 0.19910802 -0.21773118
0000e0 86 e3 c9 3e ad e2 a6 bd 70 0d 93 3d be 99 20 3b
       0.394314 -0.08148704 0.071802974 0.00245057
0000f0 a4 1f a4 3d 01 ea a3 3d bc 06 a5 be 1f f0 b9 3c
       0.080138475 0.08003617 -0.322317 0.022697506
000100 95 40 c6 be 7a 71 c1 bd 2c a5 da bd 7f ce 11 bd
       -0.38721147 -0.09445472 -0.10676035 -0.03559732
000110 64 8d 7e be 44 f0 de bc 9e e2 b6 be 22 73 90 3e
       -0.24858624 -0.027214177 -0.3571977 0.2821284
000120 64 9b 15 be 8d bd 3a 3e 78 4b 7b be db 2c 1f 3e
       -0.14610058 0.1823637 -0.24540508 0.15544455
000130 9e a9 40 3f 4c 27 b0 bd ff de 1e 3f 77 eb 9c be
       0.75258815 -0.08601245 0.62059015 -0.30648395
000140 69 11 96 be fc ed 96 be ba 09 aa be 9f a5 56 bd
       -0.29310158 -0.29478443 -0.33210546 -0.052404042
000150 8e 8f f1 3e 3c c8 71 3e 4a aa af 39 bc c0 28 be
       0.47179836 0.2361154 0.00033505476 -0.16479772
000160 1c 5e a5 3d 41 f1 b6 be fb c5 f9 be 76 70 2c be
       0.080745906 -0.35730937 -0.4878386 -0.16839775
000170 73 d3 a4 be 95 60 9f 3e a0 ad c1 3e da 0e 90 bd
       -0.32192573 0.31128374 0.37827778 -0.07034083
000180 97 38 3e 3d 33 aa 88 be 7a f7 da be fb 42 49 3e
       0.046440687 -0.26692352 -0.42766935 0.19654457
000190 b2 41 3e be 25 74 b3 be 5b f3 05 3d 04 90 8c bd
       -0.18579748 -0.3504955 0.032702785 -0.06863406
0001a0 49 f0 f8 be e7 ca fa bc 88 05 9c 3e 22 71 19 bd
       -0.48620823 -0.03061433 0.3047297 -0.037461407
0001b0 10 42 a5 be b4 86 2b be bf 59 cd be d2 85 d8 3c
       -0.32276964 -0.16750604 -0.40107533 0.026430998
0001c0 8a 3c c4 bd d5 41 9d 3e 57 27 7c 3e 40 fe 0f 3f
       -0.095818594 0.30714288 0.24624382 0.5624733
0001d0 92 e1 75 be 0e 77 dd 3e d3 1e 22 be 9c 11 48 bc
       -0.2401183 0.43254894 -0.15832071 -0.01221123
0001e0 8e b0 a0 be ad e2 87 3e 37 36 49 bd 4e df bb bd
       -0.313847 0.26540127 -0.04912397 -0.09173451
0001f0 48 f7 d3 be 7a 12 94 bf 49 63 a5 3e fd ed ac bd
       -0.41399598 -1.1568139 0.3230231 -0.0844383
000200 24 f5 fb 3c 0b 88 56 3c d4 9a 62 be 61 ba 07 be
       0.03075654 0.013093959 -0.22129375 -0.13254692
000210 1d 34 1e 3e c3 33 5f 3e 95 ec 6d be f4 2c 9d 3e
       0.15449567 0.2179709 -0.2323478 0.3069836
000220 38 d1 22 be 22 09 c2 be d2 06 4b bd 1b ce 56 3d
       -0.15900123 -0.37897593 -0.04956705 0.05244265
000230 bb 3e 94 3e ec 79 aa bd 3c 96 4c 3e a8 61 3c 3f
       0.2895411 -0.08324036 0.19979185 0.7358651

player_tree_1.W.bias f4 [12]
000000 4e e3 db 3b cc db 11 bc fd 1f a9 3c 8f 7c 5e ba
       0.0067104464 -0.008902501 0.020645136 -0.00084871886
000010 32 ba 01 3c d4 0a cb 3a 0f f1 8c bc 7f c7 b1 3b
       0.007917928 0.0015490898 -0.01720479 0.005425393
000020 b1 96 00 3b 8e 8b a6 ba 73 51 00 bd d2 fe 7c bc
       0.001962107 -0.0012706385 -0.031327676 -0.015441613

player_tree_1.W_self.weight f4 [12, 12]
000000 0b a2 0a be d3 35 dd 3d ff 80 10 3f 3e 6b 65 be
       -0.13538377 0.10801282 0.5644683 -0.22404191
000010 63 83 32 3f 93 e3 b7 bd d9 d9 0c be bf b8 38 be
       0.6973173 -0.08978953 -0.13754977 -0.18039225
000020 98 9a 08 bd ca 45 d3 3e 8c 36 fa 3d c7 65 53 bc
       -0.033350557 0.41264182 0.12217435 -0.012902684
000030 70 14 c7 3e 1f c1 57 be cd 52 13 be 4f 45 86 bd
       0.3888278 -0.21069764 -0.14387055 -0.06556188
000040 75 ec 28 be ae 6b cf be a3 a2 29 3e 71 88 02 3f
       -0.16496451 -0.4051184 0.16565947 0.50989443
000050 ab 03 0c 3e 86 7d 13 3d c9 38 5e 3e b3 9c 00 bd
       0.13673274 0.03600838 0.2170135 -0.03139944
000060 a1 9a 23 3e e0 12 65 3e 37 c6 50 3d 85 18 12 be
       0.15976955 0.22370481 0.050970282 -0.14267166
000070 08 79 07 3d 59 50 c5 3d 17 1b e9 be f7 29 6a 3f
       0.03307441 0.09634466 -0.4552848 0.91470283
000080 32 15 ae 3e 6b 49 90 3e 0b 34 18 be 3e c5 5f 3e
       0.34000546 0.28181013 -0.14863603 0.21852586
000090 a9 5b 66 be d2 70 0c bd 7a 44 c6 be b0 c7 c1 3d
       -0.22495903 -0.03428728 -0.38724118 0.094619155
0000a0 7b dc f6 3e 36 63 39 3d 4b 6b 11 bf 2d 7e db 3d
       0.48215088 0.04526063 -0.5680434 0.107174255
0000b0 52 ff a1 3d 3f 0f 80 be 08 f7 c1 3d a3 25 9b be
       0.079100266 -0.25011632 0.094709456 -0.30302152
0000c0 5d e8 f6 3e 9f c9 5a 3e 80 2c 1a bd b3 7a 0f 3f
       0.48224154 0.21365975 -0.037640095 0.560466
0000d0 ff d7 72 3e a6 42 87 be d5 69 3d be 66 de 76 3e
       0.23715208 -0.26418036 -0.18497403 0.24108276
0000e0 27 6a 49 be 37 cf e3 bd e9 14 a0 bd 8c d0 84 bd
       -0.196694 -0.111235075 -0.07816488 -0.0648509
0000f0 d6 e7 8d be 61 fa ec be d8 c8 8e be d4 60 a6 be
       -0.2771594 -0.46284774 -0.27887607 -0.3249575
000100 7e 2e 9a 3b 23 4f a5 be d2 6d 18 bf a3 2d b2 bd
       0.0047052493 -0.3228694 -0.5954257 -0.08700111
000110 0e 9f a1 be 6e 18 e7 3e df 13 e8 be d8 6b 10 3e
       -0.31566662 0.45135826 -0.4532766 0.14103639
000120 03 a1 09 3f 2d 19 ab bd 2b e0 97 be 9b 31 d6 bd
       0.5376131 -0.08354411 -0.29663214 -0.1045868
000130 42 c8 72 3e c5 02 6e bc d1 5e 8a 3e 8f 5f 76 bd
       0.23709205 -0.0145270275 0.27025464 -0.060149726
000140 39 61 75 3e 83 dd 2e 3f b7 3b e9 bd f1 4c 39 3e
       0.23962869 0.6830675 -0.11388343 0.18095757
000150 4c 49 ba bb be 48 02 3e 7b b2 20 3e db 31 87 be
       -0.005685007 0.12723061 0.15693085 -0.26405224
000160 96 29 b8 3e 97 24 85 3e 1c 49 e6 3d 8f c6 be be
       0.35969228 0.26004478 0.11244413 -0.37260863
000170 e6 a1 88 bd 4d 8b 97 bd 96 d0 c0 3e 55 33 1a bf
       -0.06671505 -0.073996164 0.37659138 -0.60234576
000180 ba b1 93 3e 90 b0 a1 3d 95 df 2e bd d1 f7 82 be
       0.28846532 0.07895005 -0.042693693 -0.25579694
000190 ef 15 57 be 62 0d 87 3e 7c 17 b2 3e b7 16 34 3d
       -0.21004461 0.26377398 0.34783542 0.043966975
0001a0 78 16 98 3e 13 42 6a be e1 81 6d 3e 7e f3 97 3e
       0.29704642 -0.22876768 0.23194076 0.29677957
0001b0 2e 45 88 bc 8f 0d 39 3e f9 09 e9 bd 4d 6e d0 be
       -0.01663455 0.18071578 -0.11378855 -0.40709153
0001c0 2c f6 25 be 7a 97 f2 bd f7 e4 29 3e b3 fb 01 be
       -0.16207188 -0.11845298 0.1659125 -0.12693672
0001d0 f7 81 8f be b1 15 0e be a8 24 0e be 7a f3 e8 bd
       -0.28028843 -0.13875462 -0.13881171 -0.113745645
0001e0 34 57 dd 3a 1d 75 1d 3e c6 14 00 be 49 d5 1c 3f
       0.001688695 0.15376706 -0.12507924 0.6126295
0001f0 7d 32 2b bd db 3d 0f bf 74 17 0d bf c7 31 1c be
       -0.041796196 -0.5595376 -0.5511391 -0.15253364
000200 73 e9 0d 3e d2 21 88 3e 73 6b 95 be 59 77 bd be
       0.13858585 0.26588303 -0.2918354 -0.37005118
000210 fd 7b df be fd 43 20 bf 9e a5 c4 3e 06 6e 12 be
       -0.43649283 -0.6260374 0.38407606 -0.14299783
000220 6a 23 0d bf 1e 20 2e be 84 ec 8e 3d 8c c4 49 be
       -0.5513216 -0.17004439 0.069787055 -0.19703883
000230 9b 9a 39 3e 9f 17 29 be 70 e7 73 be 52 65 37 bf
       0.18125384 -0.16512917 -0.23818755 -0.7163898

player_tree_1.W_self.bias f4 [12]
000000 4e e3 db 3b cc db 11 bc fd 1f a9 3c 8f 7c 5e ba
       0.0067104464 -0.008902501 0.020645136 -0.00084871886
000010 32 ba 01 3c d4 0a cb 3a 0f f1 8c bc 7f c7 b1 3b
       0.007917928 0.0015490898 -0.01720479 0.005425393
000020 b1 96 00 3b 8e 8b a6 ba 73 51 00 bd d2 fe 7c bc
       0.001962107 -0.0012706385 -0.031327676 -0.015441613

player_tree_2.W.weight f4 [12, 12]
000000 f4 53 e2 3e dd 5f a8 3e cf 0b 36 be 08 f1 ba be
       0.44204676 0.32885638 -0.17777942 -0.36512017
000010 cd a8 ca be 0f 3f 30 3f 22 fa 54 be 93 83 0b bf
       -0.3958191 0.6884622 -0.20798543 -0.5449764
000020 4e 78 8d be 7d 45 4b 3d e4 d8 05 bb e6 ab b8 3e
       -0.27630848 0.049626816 -0.0020423466 0.36068648
000030 82 02 63 3e 4f 23 0c 3e 7c 5c b8 3e 59 2b 46 be
       0.22168925 0.13685344 0.3600806 -0.19352473
000040 59 85 af be 98 d4 bf be 34 90 0b 3e a2 f9 79 3e
       -0.34281424 -0.37466884 0.13629228 0.24411634
000050 66 1f e6 3e d3 1b d4 3e 1d 3a 6c be cb b9 4b bf
       0.4494583 0.41427478 -0.23069043 -0.7958037
000060 79 d2 41 be ab 11 87 3e a2 fa 37 be f2 2e 7f bb
       -0.18927945 0.26380667 -0.17966703 -0.0038937894
000070 3b 2e ef 3e 99 3c 41 3d 73 a6 0d be 09 37 4a bd
       0.4671496 0.04717693 -0.13833027 -0.049368892
000080 c4 bd a5 3b 8b 20 09 3e f6 d8 d8 3d e0 22 65 3f
       0.005058022 0.1339132 0.10588257 0.8950634
000090 0c b0 8e bc 9c d1 13 3f 72 57 01 3e 58 59 35 be
       -0.01741793 0.57741714 0.12631014 -0.17709863
0000a0 f1 48 8d be bf 8b 33 be ed 49 af be cf 43 19 be
       -0.27594712 -0.17533778 -0.34236088 -0.14967273
0000b0 b3 f0 d7 3c af 9c 18 be 22 82 71 3d 20 cb be 3d
       0.026359892 -0.1490352 0.058961995 0.09316087
0000c0 35 13 a0 bd 74 93 ab be a7 f8 cf bd 9f 3f a2 be
       -0.078161635 -0.33510935 -0.101548485 -0.31689164
0000d0 c2 3c 58 be 7c c1 24 3f 8d 3d 7f bd 46 3e a6 bc
       -0.21116927 0.64357734 -0.06231456 -0.020293366
0000e0 f0 4a 66 3e 2c 35 14 3f cf cb 54 3d 4b 7d 27 3e
       0.22489524 0.57893634 0.05195218 0.16356389
0000f0 8e 2c 83 3e 8b 62 92 be 1d b9 5b be 8b e0 95 bd
       0.2561993 -0.28590807 -0.21457334 -0.07318219
000100 7c db bd be 43 7a db 3e f5 a1 78 3e 01 8f 59 3e
       -0.37081516 0.42866716 0.24280532 0.21245958
000110 28 6e 13 be c6 2b 49 bd f4 12 f5 3d ad 81 d2 be
       -0.1439749 -0.04911401 0.11966506 -0.4111456
000120 87 a9 64 3e 66 f0 23 be 96 15 ba be 6b fe 0b be
       0.22330295 -0.16009673 -0.36344594 -0.13671272
000130 98 9d 39 be 6b 02 2f 3f fc 4b 8d 3e 30 e3 90 bd
       -0.18126523 0.68363065 0.27597034 -0.070745826
000140 0d 0a 85 3c 62 0e 07 3e 42 b0 70 3e c6 15 58 be
       0.016240144 0.1318908 0.23504737 -0.21102056
000150 9b 63 06 3e ef 71 67 3c b5 1b 0c 3f d6 ee a0 be
       0.13123934 0.014126285 0.5472978 -0.31432217
000160 de c3 6a 3e d5 86 37 3e a3 45 11 bd 24 89 59 3e
       0.2292628 0.17922528 -0.0354668 0.21243721
000170 f0 e3 5a 3e a1 e8 29 be e2 8d 3e 3d 2a f4 36 be
       0.21376014 -0.16592647 0.04652203 -0.17866579
000180 39 6e 65 3e 01 5e 84 3e 54 cc 9b 3e 5b 0c ef 3d
       0.22405328 0.2585297 0.30429327 0.116722785
000190 67 d1 b7 be 95 bb ce 3d f7 1c f9 3d 2d 37 a2 3d
       -0.3590195 0.10094372 0.12163728 0.0792068
0001a0 60 7d de 3e 7a 4c 87 3e 5b 59 46 be 18 cd 10 be
       0.4345503 0.26425534 -0.19370024 -0.14140737
0001b0 0e 56 7f 3e 60 d4 95 3e e8 b2 a6 3e 9d 99 3e bd
       0.24935171 0.29263592 0.3255837 -0.046533216
0001c0 2b 3c 9e be cf 19 a2 be 15 ab 9d 3e 3e af 81 bc
       -0.3090528 -0.31660315 0.30794588 -0.015830632
0001d0 65 0e 25 bf fa de 0d bf 3a 65 15 bd 39 d9 03 be
       -0.6447509 -0.5541836 -0.03647349 -0.12875833
0001e0 4d 34 85 be cd 6e 8f 3e 50 78 95 3e d6 0b da 3e
       -0.26016465 0.28014222 0.29193354 0.42587155
0001f0 f7 36 41 be e3 28 01 3f a4 ac c6 be 10 d5 61 3d
       -0.18868624 0.50453013 -0.3880359 0.055134833
000200 cc 98 b5 be 00 05 86 be 43 e4 b8 bd 7c a6 db bd
       -0.35468137 -0.2617569 -0.090279125 -0.10725114
000210 1c 78 b6 be 33 f2 35 3e 39 56 bc 3d c9 47 26 3e
       -0.3563851 0.17768173 0.09196133 0.16238321
000220 1c c9 07 3d 8a 9b 89 be 8b 9a 94 3e 8f f5 14 3e
       0.033150777 -0.2687648 0.29024157 0.14546798
000230 80 4e 5a 3e d7 5a ca be f4 62 e9 bd da f6 55 be
       0.21319008 -0.3952243 -0.11395827 -0.20894948

player_tree_2.W.bias f4 [12]
000000 9f 44 f6 bc cc 7b 02 3c 7d da 94 3c 91 4d 71 3c
       -0.030062018 0.007964086 0.01817059 0.014727966
000010 1b 24 0a 3a 01 c7 20 bb 6f 85 ea bc 43 22 c1 3c
       0.00052696624 -0.0024532678 -0.02862808 0.023575908
000020 ec 2f 73 bb 3d ac ad 3b bc 34 9a 3a 7c 83 5c bc
       -0.003710742 0.0053000734 0.0011764984 -0.013459083

player_tree_2.W_self.weight f4 [12, 12]
000000 d6 87 31 be e8 22 e7 3c a9 56 d5 3d 7f cd 42 be
       -0.17336974 0.028214887 0.1041692 -0.19023703
000010 20 c3 82 3e e6 ec b2 be 17 fd 55 be 55 71 ee be
       0.25539494 -0.34946364 -0.20897327 -0.4657084
000020 b6 53 b9 be 5a 85 88 3e 59 c0 b6 3d 29 98 17 be
       -0.3619668 0.2666424 0.08923406 -0.14804138
000030 1d 61 eb be 23 a2 8f be c7 9b a8 3d 8c ac 49 3e
       -0.4597253 -0.28053388 0.08232837 0.19694728
000040 6f f9 ee be 5d 13 f5 be 49 e9 9e be b2 c8 2b 3f
       -0.46674678 -0.47866336 -0.31037357 0.6710311
000050 4f e6 4c be ba 9a 44 bd b8 ed d7 3d 7a 48 a8 3c
       -0.20009731 -0.04799912 0.10543388 0.020542372
000060 0c e9 ee be b4 f7 c5 3e 0f 0e e0 be d7 f4 c9 bd
       -0.46662176 0.38665545 -0.43760726 -0.098611526
000070 0d bc 71 3d ec 69 c5 3e f5 a2 08 3e 87 2c b8 bd
       0.05901723 0.38557374 0.13343413 -0.08992868
000080 22 c8 a5 3e 67 fe 46 3e ff aa 89 be 5d 71 b5 be
       0.32379252 0.19432984 -0.26888272 -0.35438052
000090 40 89 dd 3e c8 02 94 3d cf c6 15 3f d1 f0 5f 3e
       0.43268776 0.07227093 0.5850648 0.21869208
0000a0 97 a4 1e 3c ed 4a 38 3e cd b7 e2 3e 50 f1 95 be
       0.009682796 0.17997332 0.44280854 -0.2928567
0000b0 4b 27 10 3f 16 84 52 be 88 ea e0 be 61 22 49 be
       0.56309956 -0.205582 -0.43928933 -0.19642021
0000c0 47 e7 fb 3e 23 7c 6e 3d 20 8c ac be c1 77 af 3d
       0.49199888 0.058223855 -0.33700657 0.08567763
0000d0 0c 38 f8 bd 16 4d f3 3e ad 19 1d 3d 0b ee 16 be
       -0.12120065 0.4751975 0.038354564 -0.14739244
0000e0 3e a7 84 3e 29 c1 ab bc e9 e8 5f be 58 c0 48 3b
       0.25908846 -0.02096613 -0.21866192 0.0030632224
0000f0 db 55 d1 bc 85 57 3a 3e 38 7b 27 3d 6e f4 2a 3d
       -0.025553634 0.18197449 0.040888995 0.041737013
000100 a6 8e 9d 3e 85 10 cb 3e 75 02 1b bf e3 b7 05 3e
       0.30772895 0.3966104 -0.60550624 0.13058428
000110 8f c3 23 3e 4e 7e 7e bc 16 93 c4 3e 16 61 fa 3e
       0.15992568 -0.015533043 0.38393468 0.48902196
000120 e4 99 d8 bd ae 54 86 3e dc 6f ef 3d 1a e4 2c bf
       -0.10576227 0.2623648 0.11691257 -0.67535555
000130 9a f5 16 3f 6b d5 03 3d c2 65 b7 3e a8 f7 eb bc
       0.5896851 0.032185953 0.35819823 -0.028804615
000140 16 49 05 3e 01 fb a1 be 85 e2 9b 3e 28 fa 0b 3e
       0.13016161 -0.31636813 0.30446258 0.13669646
000150 20 05 94 bd f6 d2 d5 be 4a eb 58 3e 3c 5a 40 3e
       -0.0722754 -0.41762513 0.21183506 0.18784422
000160 40 af 0f 3e 18 96 53 bd f9 29 2c 3e ab 79 06 3f
       0.14031696 -0.051656812 0.16812886 0.525294
000170 31 e6 0a bf 5b fe 83 3d 0b cd 73 3c 54 fa 54 3e
       -0.54257494 0.06444999 0.014880429 0.20798618
000180 c9 73 f1 3c fa b1 39 3e 66 63 0a bf a1 6f 0e 3f
       0.029474156 0.18134299 -0.5405792 0.5563908
000190 8a 45 55 be 6d 69 f6 be 4f 68 cf be 2b d3 49 be
       -0.20827308 -0.48127308 -0.4050927 -0.1970946
0001a0 6d 1d af 3e 23 ef 87 3e 64 3d 20 be a9 21 ae be
       0.34202138 0.26549634 -0.15648419 -0.34010056
0001b0 b0 df fc be 15 85 4e bd 8c 4a d3 be 71 c8 e3 3c
       -0.4938941 -0.050419886 -0.41267812 0.027805539
0001c0 c3 de a3 bd 79 43 8a be 82 51 e1 be 71 28 13 3e
       -0.08001473 -0.27004603 -0.44007498 0.14370896
0001d0 eb 26 a4 be d1 8d 8c 3e b3 a6 49 3e 9a 1e 4d bd
       -0.32060942 0.27451947 0.19692497 -0.050078012
0001e0 2a 7f 5f bb af 71 22 be cc df ba be 31 d9 d8 3e
       -0.0034102895 -0.1586368 -0.36498868 0.42353204
0001f0 f3 57 4e 3e 32 b4 b7 bd 93 54 61 be 77 cf 4c 3e
       0.20150737 -0.089699164 -0.22004919 0.20001017
000200 6b e4 14 bf c7 b5 c8 bd 6e c5 48 be 51 b3 1c bd
       -0.5816104 -0.09800296 -0.19606563 -0.038256947
000210 1b 81 d1 3d da 4f 82 bd d2 2f d0 be 77 1a 92 3e
       0.10229703 -0.06362887 -0.40661484 0.28535816
000220 b2 5d 2f bf 13 2d 5e 3d 18 d8 b9 3d 1c 54 8b be
       -0.6850234 0.054242205 0.0907442 -0.27212608
000230 29 ac d3 be b6 11 6e be 75 84 07 3e 4f 7d f1 ba
       -0.41342285 -0.23248944 0.13234122 -0.0018424186

player_tree_2.W_self.bias f4 [12]
000000 9f 44 f6 bc cc 7b 02 3c 7d da 94 3c 91 4d 71 3c
       -0.030062018 0.007964086 0.01817059 0.014727966
000010 1b 24 0a 3a 01 c7 20 bb 6f 85 ea bc 43 22 c1 3c
       0.00052696624 -0.0024532678 -0.02862808 0.023575908
000020 ec 2f 73 bb 3d ac ad 3b bc 34 9a 3a 7c 83 5c bc
       -0.003710742 0.0053000734 0.0011764984 -0.013459083

player_tree_3.W.weight f4 [12, 12]
000000 1b 9c 2f 3e 02 61 50 bf 61 f5 05 be d9 36 e9 3c
       0.17149393 -0.8139802 -0.13081886 0.028468536
000010 23 61 30 be d5 ec 2d be 7e fd b9 bd 6a ca 55 be
       -0.17224555 -0.16984876 -0.09081553 -0.20877996
000020 d9 20 1b 3d 10 9d ba bc 32 6b 72 3e c7 ab 79 bd
       0.037873123 -0.022779971 0.23673704 -0.060954835
000030 41 97 b0 3d eb e0 9f 3e c8 2b f2 3e c1 7d 30 be
       0.086225994 0.31226286 0.47299027 -0.17235471
000040 33 ca ab 3d 86 db a9 bd 6c 98 c3 3c f7 ad 03 be
       0.08388176 -0.08293824 0.023876391 -0.12859331
000050 ae 1b 32 3d 69 23 ec 3e f3 fb 3a bd 0d be d6 3e
       0.04348343 0.46120766 -0.045650434 0.41941872
000060 3a 8e 65 3d 39 9c ab 3e e4 e4 1e 3d 74 f8 22 3e
       0.05604384 0.33517626 0.038792506 0.1591509
000070 53 f8 56 3e ad f3 3e 3e 85 87 28 be d9 eb 06 3f
       0.20993166 0.18647642 -0.16457947 0.52703625
000080 3e 36 fa 3d f6 37 05 bf 5f e2 95 bc 0a 63 b3 3c
       0.12217377 -0.52038515 -0.018296419 0.021897811
000090 fa 33 6f be 89 06 41 3c 8b 09 ad 3d 90 b7 cc bd
       -0.23359671 0.011781343 0.08449086 -0.09995949
0000a0 7e 3a 5b 3d 9c 37 92 3e 2b 5e 78 3d c4 a9 b2 3e
       0.05352258 0.28558052 0.06063668 0.34895146
0000b0 7e a3 7b 3d 74 4a 98 be 46 8d 16 3f 19 3b 42 be
       0.061435215 -0.29744303 0.58809316 -0.18967856
0000c0 6d 06 5f be e9 f9 98 bd a1 80 3f 3e 5b ca 31 be
       -0.21779795 -0.074695416 0.18701412 -0.17362349
0000d0 20 6a 4a 3e 18 b6 9d be 93 26 3d 3e 27 b4 b8 bc
       0.19767046 -0.3080299 0.18471746 -0.02254684
0000e0 e0 8b 8c 3e 7c b3 a5 ba 3b 9c 50 bc 3e eb 14 3e
       0.27450466 -0.0012641991 -0.012732561 0.14542863
0000f0 1a 29 09 be 12 02 0b 3f ca b9 a6 bc c2 03 5a be
       -0.13394585 0.54300034 -0.020352263 -0.21290496
000100 01 05 b5 3e 13 2c 2f be f5 5c a0 be 07 1f 17 bf
       0.3535538 -0.17106657 -0.3132092 -0.5903172
000110 2f d3 ae be 81 2d 06 3e 76 f7 70 bd 65 5e ff 3d
       -0.34145495 0.13103296 -0.058829747 0.12469176
000120 0a 6b 55 be 75 dc 78 bd 38 0a a3 bd 67 5f 5b 3c
       -0.20841613 -0.06075712 -0.079609334 0.013389445
000130 fc 20 90 be 85 f7 fa 3d 05 54 13 3f e1 42 ad 3d
       -0.28150165 0.12254242 0.5755008 0.08460022
000140 fe 20 d2 3e 0c 23 c6 be 59 2c 7e 3e 79 2d 1e 3e
       0.41040796 -0.38698614 0.24821605 0.15447034
000150 1b 34 47 be e4 19 dc 3d 90 64 fe 3d 8d cd b3 3c
       -0.1945347 0.10747126 0.124215245 0.0219486
000160 40 cb da 3a 34 50 c8 3d 6e 2f b2 3e 8c 5a 25 be
       0.0016692653 0.097809225 0.3480181 -0.16147822
000170 25 0d 61 be 03 ed 8c 3d cd 54 32 be 00 60 04 3e
       -0.2197767 0.06881144 -0.17415161 0.12927246
000180 77 d9 38 3c 82 15 4d 3d 64 22 1a 3d 9a 51 78 3d
       0.011282316 0.05006934 0.037630454 0.060624696
000190 56 18 7c be 13 e3 c6 3d 80 b0 32 3f c2 41 82 3d
       -0.24618658 0.0971128 0.6980057 0.063601986
0001a0 9e 28 52 3b a8 65 13 be ba 30 bd bb d7 d8 c1 bd
       0.0032067667 -0.14394248 -0.005773631 -0.09465187
0001b0 82 f2 23 bd df 1e cc 3e e9 0a e0 3e 90 9f 86 3e
       -0.040026195 0.39867303 0.43758324 0.26293612
0001c0 14 61 56 3f bd 17 3c 3e cc b6 52 3d c9 fb 0d 3e
       0.8374188 0.1836843 0.05144386 0.1386558
0001d0 4e 5b 01 be e0 9f 19 3f 9c a3 08 be 0b 30 00 3e
       -0.12632486 0.60009575 -0.13343662 0.12518327
0001e0 66 cb 60 3e c1 82 20 3d ff 6f f5 be 79 fe 8c be
       0.2195259 0.039187197 -0.4793701 -0.27537897
0001f0 03 d1 63 3d 57 b4 08 be 9e aa 0e 3e 93 12 a5 be
       0.05561925 -0.13350044 0.13932273 -0.32240734
000200 74 ff d9 3d 07 e9 61 be af 0a 09 3f b3 5d b2 3e
       0.10644427 -0.22061549 0.53531927 0.34837112
000210 d6 60 ee be 9e 36 9c 3d 9d 18 8c 3e a1 84 79 bc
       -0.46558255 0.07627605 0.27362528 -0.015229375
000220 cb 13 94 3e 59 49 fa 3d 29 e1 1c bf 34 12 45 3e
       0.2892135 0.12221021 -0.6128107 0.19245225
000230 ec d9 c8 bd c5 1e 84 3e af 57 18 bc dd 3a 2b bf
       -0.0980719 0.25804725 -0.009298249 -0.66886693

player_tree_3.W.bias f4 [12]
000000 5c c8 56 3c 14 b9 cd bb 7a 02 66 3c 51 4b 8f 3b
       0.013109293 -0.0062781665 0.014038676 0.004372992
000010 6d 75 17 3c 66 d7 73 bc 0e 45 ff bc 8d 07 15 bd
       0.009244305 -0.014882898 -0.031160858 -0.036384154
000020 cf 1b 82 3c a6 f3 9d 3b 68 f7 fb b9 8e 3c 66 3c
       0.0158824 0.004820305 -0.00048058783 0.014052523

player_tree_3.W_self.weight f4 [12, 12]
000000 c4 68 5c be 9c 37 87 be cb f9 e6 bd d5 cf dd bd
       -0.2152434 -0.26409614 -0.11278113 -0.108306564
000010 06 a8 d9 3e 30 72 59 3e d4 ab c6 3e 94 77 a9 3e
       0.42511004 0.21234965 0.3880297 0.33099043
000020 bc 49 d3 3b 6a a7 09 3e ba 91 99 3d 71 cb bc be
       0.006447999 0.1344277 0.07498498 -0.36873963
000030 4c de b4 be a9 0c 0a bc a3 03 e2 bc 1f 12 2d bd
       -0.3532585 -0.00842587 -0.027589625 -0.04225361
000040 51 ea 81 bd 53 21 0e be 0b 3b 09 be 07 e6 77 bd
       -0.063435204 -0.138799 -0.1340143 -0.060522106
000050 11 1c b1 be 83 53 40 bd 8a 4e 37 3e e8 c2 c2 be
       -0.34591725 -0.046954643 0.17901054 -0.38039327
000060 ee 6a 79 be 52 7e b3 3e 96 7c 7d 3e a5 2c 89 3e
       -0.24357197 0.35057312 0.24754557 0.26791874
000070 e6 e1 a5 3e 4a a9 f3 bd cf 0a 16 be ed 73 9a 3e
       0.3239891 -0.11897524 -0.1465256 0.3016657
000080 18 24 51 3e 47 6c 0f be b2 e5 df 3e f6 39 cc bd
       0.20423925 -0.14006148 0.4372993 -0.09971993
000090 23 57 40 bf 13 41 84 3d fa b3 f0 3d 7b d3 da 3e
       -0.7513296 0.064577244 0.11753078 0.42739472
0000a0 e1 37 9b bd 18 9f 5b be 7e 2d 7e be 0e bb 24 3f
       -0.075790174 -0.21447408 -0.24822041 0.6434792
0000b0 f0 3a 4e 3d 7d 90 d5 be 21 66 29 3e 58 5c 0b bf
       0.050349176 -0.41711798 0.16542865 -0.5443778
0000c0 cb d6 5d be c0 61 77 be fd 3a 89 be ef bf cb 3e
       -0.21663968 -0.24158382 -0.26802817 0.3979487
0000d0 c7 45 25 3f a5 90 aa 3e fc 19 87 bd 96 90 04 3e
       0.64559597 0.3331348 -0.06596753 0.1294578
0000e0 7a 59 7d be b5 92 8f be 3c da 9f 3e 28 34 11 3e
       -0.24741164 -0.28041616 0.31221187 0.14180052
0000f0 85 4f a2 3e 06 fb f2 3d ea 44 c9 3e bc 37 c0 3e
       0.31701294 0.11864285 0.3931039 0.37542522
000100 73 1c ed 3a c6 fa 6b be d6 66 14 3e ab 73 06 be
       0.0018090144 -0.23044881 0.14492354 -0.13130061
000110 e8 6d 75 be f0 2c 16 be 9d 4f 3b bd be 85 03 bf
       -0.23967707 -0.1466558 -0.045730222 -0.5137595
000120 d4 19 57 3e 10 1d 4e bf 69 fc 30 be 4a c5 0f be
       0.21005946 -0.80513096 -0.17283787 -0.14040104
000130 32 fd 3d 3e bb c3 0f be cf fb 08 3e 2b 76 2d 3e
       0.18553618 -0.14039509 0.13377307 0.16939609
000140 9c 7b 40 3d da 6e ee 3b 2f bb b6 3c 03 be b4 bc
       0.046992883 0.007276398 0.022306053 -0.02206326
000150 e1 fe fd 3d 49 2d 1e be 5f 8a 6c 3e e2 aa a1 3e
       0.1240213 -0.15446962 0.2309966 0.31575686
000160 da 63 92 3e e8 15 30 3f 7b f7 27 3d 13 83 1f bf
       0.28591806 0.68783426 0.0410075 -0.6230938
000170 cf 8b b1 3c 57 5b c7 bd ca 85 9f bd bb 9a be be
       0.021673111 -0.097342186 -0.0778919 -0.37227425
000180 fb 45 65 bf de 46 20 3e 10 83 6a be c3 20 b3 3e
       -0.89559907 0.15652034 -0.22901559 0.34985933
000190 5b 85 0c 3e b8 98 06 3f c6 4a 03 bf 79 d5 b8 3e
       0.13722746 0.5257678 -0.5128597 0.36100367
0001a0 7a 07 a1 3c 3e 47 35 3e 49 2b 16 bf cf f1 2f bc
       0.019656885 0.17702958 -0.586598 -0.010738804
0001b0 95 28 8c bc 33 d1 7a 3e 43 ff dc 3e 39 df 0d be
       -0.017109195 0.24493866 0.431635 -0.13854684
0001c0 04 70 4b 3e 54 19 ca bd d2 96 a1 3e 1b 63 bd be
       0.1986695 -0.09868112 0.3156038 -0.36989674
0001d0 93 22 65 3e ff 22 e3 bd 36 29 00 3f 72 3a 06 bf
       0.2237647 -0.11090659 0.5006288 -0.5243293
0001e0 92 5f f0 bd 18 68 a8 bd a9 9b 34 bd b6 0d 17 3c
       -0.117369786 -0.08222979 -0.04409376 0.009219578
0001f0 f1 26 be bd 10 c7 be bd f7 e4 f2 be ab 64 b9 3e
       -0.09284771 -0.09315312 -0.4744031 0.36209616
000200 99 ee 2d 3c f0 96 fb 3e 86 f6 9d 3d b9 29 36 be
       0.010615968 0.49138594 0.07713036 -0.17789353
000210 29 76 f9 3d 39 c6 c8 be de 71 6d 3e e3 96 cc 3e
       0.121807404 -0.39213732 0.23187968 0.39958867
000220 fb 53 7c bc eb e6 c0 3e a3 60 13 3e 1a b5 13 bd
       -0.015400882 0.37676176 0.14392333 -0.036061384
000230 66 1c 46 3d 68 f3 24 3f a5 a5 60 3c d5 f6 92 be
       0.048366927 0.6443391 0.013711368 -0.28703943

player_tree_3.W_self.bias f4 [12]
000000 5c c8 56 3c 14 b9 cd bb 7a 02 66 3c 51 4b 8f 3b
       0.013109293 -0.0062781665 0.014038676 0.004372992
000010 6d 75 17 3c 66 d7 73 bc 0e 45 ff bc 8d 07 15 bd
       0.009244305 -0.014882898 -0.031160858 -0.036384154
000020 cf 1b 82 3c a6 f3 9d 3b 68 f7 fb b9 8e 3c 66 3c
       0.0158824 0.004820305 -0.00048058783 0.014052523

player_tree_4.weight f4 [8, 12]
000000 27 21 8b 3e 09 fa 37 be fa a1 7b 3d 7c 9b 1a 3e
       0.2717373 -0.17966475 0.06143377 0.15098375
000010 28 a1 5e bd 97 73 8e be 72 5d 41 bf c2 b6 a1 be
       -0.05435291 -0.27822563 -0.7553321 -0.31584746
000020 84 17 b1 3e 5e 30 9d 3d 16 d4 03 be a2 1f 79 3f
       0.34588253 0.07675241 -0.12873873 0.9731389
000030 47 b8 64 3e 1b a7 77 3e 88 e8 a9 3e 31 ba 86 3e
       0.22335921 0.2418484 0.3318522 0.26313928
000040 40 31 24 3e a7 c1 9d 3d bb 1b 35 bf b3 29 12 be
       0.16034412 0.07702952 -0.7074544 -0.1427372
000050 7d f7 4f 3e 89 38 e7 bd ee 7a 06 bd 69 58 24 3f
       0.20309253 -0.1129008 -0.03283208 0.64197403
000060 90 da 51 3c ef 11 7f 3d 94 87 1f bf 15 af f1 3e
       0.012808457 0.062272962 -0.6231625 0.4720389
000070 57 a6 f3 be dd 94 05 3f 5b 31 e7 3e a7 fd b3 be
       -0.47587845 0.5218027 0.45154843 -0.3515446
000080 d5 e1 14 3f 57 e8 d3 bc 37 2f ef bd 6d d3 17 3d
       0.5815709 -0.025867624 -0.116789274 0.037066866
000090 f5 14 eb 3d 9d d6 c3 3c d9 d2 25 be 88 a9 c5 be
       0.114786066 0.023906047 -0.16193713 -0.38605905
0000a0 59 c5 a9 bd 22 23 1b be 5d de 55 be d1 a9 a8 3e
       -0.08289594 -0.15150121 -0.20885606 0.3294206
0000b0 38 00 71 be c9 d0 ae be 63 0a 24 3d 17 f8 67 3e
       -0.2353524 -0.34143665 0.040048968 0.22653233
0000c0 12 4e 43 3c 8d 5f dd 3d 9d a0 ce 3e 4b 93 62 3e
       0.011920469 0.108092405 0.40356913 0.221265
0000d0 32 f2 b9 be 7b 4e 62 be b0 ef 74 be 5a 94 a0 3e
       -0.36317593 -0.2210025 -0.23919559 0.31363183
0000e0 60 00 0f 3d ea 02 98 be b0 0b b4 3d 83 ac d1 3d
       0.034912467 -0.29689723 0.08791292 0.10237982
0000f0 93 43 3d 3f a5 c5 bf be 8d a9 df 3e 8e 58 03 bf
       0.73931235 -0.37455478 0.43684044 -0.51307
000100 d9 0e 29 3f 46 f3 15 be 4a 6d 9a be 0a 18 be be
       0.6603828 -0.14643583 -0.30161506 -0.37127715
000110 18 ee d4 3e c4 f9 18 3f 9e 0f 30 3e 23 2d b5 bd
       0.415879 0.5975611 0.17193457 -0.088465
000120 0a dc 45 3c 4d a2 fd 3d 4f 1d 13 be 49 25 60 3e
       0.012076387 0.12384472 -0.14366649 0.21889223
000130 20 bb bd 3e 46 c0 45 3e 5c 3d 55 3e 3d 24 09 3e
       0.37056828 0.19311628 0.20824188 0.1339273
000140 d3 b9 77 be d4 43 56 bd 46 13 b9 be a5 8c c6 3d
       -0.2419198 -0.05231078 -0.36147517 0.096947946
000150 09 e5 f8 bd 77 2d f6 bd 06 2c 6e 3e f1 dc 93 be
       -0.1215306 -0.120203905 0.23258981 -0.28879502
000160 e6 90 f3 be 87 cd 05 bc d5 11 2e 3e 16 3f cc 3e
       -0.47571486 -0.008166677 0.1699899 0.3989188
000170 88 72 14 be e7 b1 b5 be 9a 87 ef be 56 e1 34 3f
       -0.14496815 -0.3548729 -0.46783143 0.70656335

player_tree_4.bias f4 [8]
000000 87 78 84 3c 54 d0 51 3a 41 89 1b bc c9 0a 9e bc
       0.016170753 0.00080037606 -0.009493173 -0.019292252
000010 42 5a a5 3b c5 1c 45 3c 1f 9f ab 3b 66 cf 74 3c
       0.00504616 0.012030785 0.0052374746 0.014942026

sun_influence_1.W.weight f4 [12, 12]
000000 63 4c 01 bf 60 9c 46 be eb 7e a5 be bf b1 91 3e
       -0.5050718 -0.1939559 -0.32323393 0.28455922
000010 0f 7c 22 be fd eb c1 3e 07 f9 84 be a9 32 92 3d
       -0.15867637 0.37875357 -0.25971243 0.07138569
000020 e6 49 4b 3e ee 42 46 be a2 d5 18 3e c3 53 f8 3e
       0.19852409 -0.19361469 0.14925244 0.48501405
000030 24 78 db 3e af 6a 0d 3e a5 06 da be 48 99 12 3e
       0.42865098 0.13810228 -0.42583194 0.14316285
000040 52 64 23 3e 8e 9f 13 bd fa 5f ac ba d4 fd 62 3e
       0.15956238 -0.036040835 -0.0013151162 0.2216714
000050 0d 56 01 3f 64 06 59 bd 3c 6c cd be 14 0d 0c 3e
       0.5052193 -0.05298461 -0.4012164 0.13676864
000060 bc a3 9a bd 56 7a 27 bf 15 5b c2 3e 3e cf 64 be
       -0.07550761 -0.65421045 0.37960115 -0.22344682
000070 02 eb 9b be a9 f8 9c be 67 0d b3 3e 1b 22 47 be
       -0.30452734 -0.30658463 0.34971163 -0.19446604
000080 23 44 55 be aa 5a 80 3e bd 35 6e bf bf 61 6d be
       -0.20826773 0.2506917 -0.9305075 -0.23181818
000090 86 90 7f be f6 fe af 3e 23 b8 04 be 68 2d 8a bd
       -0.24957475 0.34374207 -0.12960868 -0.06746942
0000a0 b4 c8 38 3e 4d 03 36 3d c2 b6 b2 bd cb ab c0 3d
       0.18045312 0.04443674 -0.087262645 0.09407767
0000b0 63 02 14 be 46 28 a3 be 5d 97 d1 3d a4 1b 6b be
       -0.14454035 -0.31866664 0.102339484 -0.22959763
0000c0 20 e2 b4 be af a8 7f be 22 86 31 3e 69 c8 9e be
       -0.3532877 -0.24966691 0.17336324 -0.31012276
0000d0 6b 1f 5b 3e 90 89 ad 3e b0 88 3f be a8 14 a2 3e
       0.21398704 0.33894014 -0.18704486 0.31656384
0000e0 95 ec 89 be 50 e9 4d 3e 55 0c 05 bd aa 71 9e be
       -0.2693831 0.20108533 -0.032482464 -0.30946094
0000f0 26 8b 96 bd 61 f7 a7 3e 7e 38 43 be b6 ee 26 3e
       -0.07350759 0.32805923 -0.19064519 0.16301998
000100 57 ea 56 3d a6 1f 16 bf aa a0 85 be 53 4d 29 bd
       0.052469578 -0.5864204 -0.2609914 -0.041333508
000110 cb ef 4f be c7 da 82 3e 3b 39 86 3e 33 11 c1 be
       -0.20306318 0.2555754 0.26215538 -0.37708434
000120 ac a7 ae be 0b 64 fb 3d 8a 91 ce 3d 4e e3 74 be
       -0.34112298 0.12274941 0.10086353 -0.23914835
000130 4c f4 14 be 01 30 18 3e 2f 44 b0 3d ff 1b ee bc
       -0.14546317 0.14862062 0.08606755 -0.029066084
000140 86 25 cc 3e 63 3f 01 3e 0d 1e 6d bb ee a4 f3 3e
       0.39872378 0.12621836 -0.0036181242 0.4758677
000150 4c 72 15 3d 82 58 2e bf 6f bc 02 3e 42 b4 6b 3e
       0.036485955 -0.681038 0.12767194 0.23017982
000160 20 92 38 3f af de 6d 3b e2 90 0a bf 3b 14 02 be
       0.7209797 0.003629606 -0.54127324 -0.1270303
000170 38 5b 26 3d 2f 01 93 be 59 5c 91 3e ca 75 e4 be
       0.040614337 -0.2871184 0.28390768 -0.44621116
000180 99 25 94 bd 91 9e a9 be 13 a4 b1 3e 22 fe 15 be
       -0.07233734 -0.3312879 0.3469549 -0.14647725
000190 58 55 6f be 9c 6d b5 be 63 d5 22 3f 64 11 f0 be
       -0.233724 -0.35435188 0.6360685 -0.46888268
0001a0 20 56 30 3d 1b 1b 3e 3e 30 b0 49 3c f1 1d f2 bd
       0.043050885 0.18565027 0.012310073 -0.11822117
0001b0 f7 39 02 3e f6 10 8e 3d 30 f0 2a 3e 87 fe 1b 3e
       0.12717424 0.06936829 0.16693187 0.15233813
0001c0 be a6 1b be 85 10 6b 3e 9d 73 62 be 1a 83 9c 3e
       -0.15200326 0.2295552 -0.22114415 0.30568773
0001d0 c0 eb bd be ca 7d ec 3e 39 3f 05 3f 23 6f c5 be
       -0.37093925 0.4618972 0.52049595 -0.38561353
0001e0 a2 e9 c6 3e 19 7f 8e be b8 4b 19 3c 6a b9 04 be
       0.38850123 -0.27831343 0.009356432 -0.12961355
0001f0 f4 4a 27 3e d4 79 a0 3e 29 37 ee bd cf c4 e0 3e
       0.16337186 0.31342947 -0.11631615 0.43900153
000200 20 02 aa 3e c8 cc d5 bc db e2 6e 3d f7 21 d2 bd
       0.33204746 -0.026098624 0.058321815 -0.102603845
000210 1d de 4a bd eb 23 32 3e 78 d9 07 3e 49 38 85 bc
       -0.04952823 0.17396514 0.13266551 -0.01626219
000220 54 82 e2 3e 3d 4b 75 3d 66 71 e1 be 31 0e 23 3e
       0.44240057 0.059886206 -0.4403183 0.15923382
000230 9f 56 02 3b 58 23 77 3e f2 b3 ad be 4d 31 59 be
       0.0019888056 0.24134576 -0.3392635 -0.21210213

sun_influence_1.W.bias f4 [12]
000000 20 53 a0 3c a4 d8 81 3b 90 c2 37 3c 88 97 03 ba
       0.019570887 0.003962593 0.011215821 -0.00050198333
000010 e7 a9 a0 3b f7 bd df bc e2 1b 8d bc db af 29 bc
       0.0049030664 -0.027312262 -0.01722521 -0.010356869
000020 3a 22 83 bb 91 08 c1 bc 08 76 31 3c d8 10 d7 3b
       -0.004001883 -0.023563655 0.0108313635 0.006563287

sun_influence_1.W_self.weight f4 [12, 12]
000000 87 6c 67 be 95 22 97 be 77 98 80 be 84 5c 26 be
       -0.22599994 -0.29518571 -0.2511632 -0.1624623
000010 c1 8a 84 be 52 a1 e5 3d 6a 3f b2 3d e1 11 ed bc
       -0.2588711 0.1121241 0.087035015 -0.02893919
000020 91 50 8c 3e d5 38 13 3e ed d7 ad 3c 52 b9 0b bd
       0.27405217 0.14377148 0.021221125 -0.034112282
000030 56 18 ca be ba 2e 34 be ee de f8 be ed 3c 50 3f
       -0.39471692 -0.1759595 -0.48607582 0.81342965
000040 22 c5 56 3e 9c dd 17 3e c1 56 ef 3e bf e0 b5 bd
       0.20973638 0.14830631 0.46745875 -0.088807575
000050 2c 52 51 be b1 90 8f be ef f4 ce 3c b6 b2 e4 be
       -0.20441502 -0.28040078 0.025263278 -0.44667596
000060 c2 78 7d 3e dd 65 03 3f 06 66 7b 3e d5 dc 6d bc
       0.24753097 0.51327306 0.24550638 -0.0145179825
000070 8b 67 a6 3e 28 08 1f be 10 14 0c bf 73 f1 fc be
       0.32500872 -0.15530455 -0.5471811 -0.4940296
000080 63 1e 9c 3e b2 27 2f 3a 8e d7 83 3e f1 0c a3 3d
       0.30491933 0.0006681635 0.25750393 0.07961453
000090 7b c9 a9 be cb 0f 14 3e 2d 93 a8 bd 80 f2 83 3e
       -0.3316153 0.1445915 -0.082311966 0.2577095
0000a0 e8 d9 8b be 34 ed 1d bd e9 26 cc bc 95 47 62 3e
       -0.27314687 -0.038556293 -0.024920898 0.22097619
0000b0 a2 63 dc 3e 68 db ab bd 34 9e de bd e0 ba 0c 3f
       0.43044764 -0.08391458 -0.108700186 0.5497265
0000c0 78 4c 60 be f7 99 56 3e 41 01 3c 3e ba b0 18 3e
       -0.2190417 0.2095717 0.18359853 0.14911166
0000d0 da 8d 7f 3d 65 3a f2 3e 59 c6 da bc 9b 25 1e 3e
       0.06239114 0.47310176 -0.026705908 0.15444033
0000e0 5b fc 0f 3f c3 9c 8a 3e 88 78 ed be a3 e0 6b 3d
       0.5624444 0.27072725 -0.4638102 0.057587277
0000f0 7b 58 b7 3e cd 16 de bd 0a 3c 6e 3d 67 9f cc be
       0.35809693 -0.10844193 0.058162726 -0.39965364
000100 58 cc 54 be 2a 87 59 3e 10 41 42 3e 15 b4 c1 3e
       -0.20781076 0.21242967 0.18970132 0.37832704
000110 13 2f ef be ea 56 a3 bd f8 b3 6c 3e 26 8c 87 be
       -0.46715602 -0.07975562 0.23115528 -0.26474112
000120 4c 5d 5a be d9 8d f7 3e 17 8c 02 bf 2e e4 3c 3e
       -0.21324652 0.4835041 -0.5099501 0.18446419
000130 77 ee 9d be d9 cc 13 3e fa 3d 02 3e f1 b3 8b bd
       -0.30845997 0.14433612 0.12718955 -0.068214305
000140 f1 ea aa 3e a5 1e ab 3e f0 82 88 3e 01 57 51 bc
       0.3338237 0.33421817 0.26662397 -0.012777091
000150 d0 45 83 be 7f 10 6c 3e 07 89 67 be a8 4e c0 3c
       -0.256392 0.23053168 -0.22610866 0.023475006
000160 01 3d 70 be 49 01 6a 3e 9a 16 a5 3e 16 1b 0a 3e
       -0.23460771 0.22852053 0.32243806 0.13486895
000170 13 9d a2 3e 7b 3e 3c 3c 64 01 1e be 16 57 98 3e
       0.31760463 0.011489506 -0.15430218 0.2975394
000180 3b 4f e8 bb dd eb 5e be 74 9c 16 3f fb 37 26 3e
       -0.007089523 -0.21769662 0.5883248 0.16232292
000190 80 bc 27 3d 0a d7 f8 bc 57 25 01 be 58 13 4d be
       0.040951252 -0.030375976 -0.126119 -0.2002691
0001a0 83 15 e0 be 43 30 ea 3c d9 1f b7 3e 70 c0 ad 3e
       -0.43766412 0.028587466 0.35766485 0.3393588
0001b0 89 f4 82 3d 61 5d 3a 3f 26 c9 4c 3e 2c da 4a 3e
       0.06394298 0.72798735 0.19998607 0.19809788
0001c0 fb 06 dd be c4 7c a7 be 30 24 64 bc ee 2c 6d 3e
       -0.43169388 -0.32712376 -0.013924643 0.2316167
0001d0 32 1f 20 bf 98 44 d9 be fa d9 f7 3b e0 bb c5 be
       -0.625476 -0.42435145 0.0075638266 -0.386199
0001e0 a0 28 06 be d0 8f e2 bd 01 e1 a7 3d bc 72 c1 3d
       -0.13101435 -0.11062586 0.08197213 0.09445712
0001f0 5a ac ba 3e 65 35 07 3e a3 55 b0 be e1 75 c7 3e
       0.3645962 0.13203962 -0.34440336 0.38957122
000200 45 4c 87 be f7 c0 47 3e 62 00 6c 3e ff cd 26 3e
       -0.26425377 0.19507204 0.23047021 0.16289519
000210 7a 99 f4 3d a7 40 94 be 80 a9 ae be b7 32 a1 3e
       0.11943336 -0.28955576 -0.34113693 0.31484005
000220 a7 90 8f be 63 43 a7 bd d7 02 c8 be 0d 33 03 bf
       -0.28040048 -0.0816715 -0.39064667 -0.5124977
000230 31 a8 8b 3e d9 f1 87 3e 96 ad f0 3d 5c 51 04 bd
       0.27276757 0.26551703 0.11751859 -0.032304153

sun_influence_1.W_self.bias f4 [12]
000000 20 53 a0 3c a4 d8 81 3b 90 c2 37 3c 88 97 03 ba
       0.019570887 0.003962593 0.011215821 -0.00050198333
000010 e7 a9 a0 3b f7 bd df bc e2 1b 8d bc db af 29 bc
       0.0049030664 -0.027312262 -0.01722521 -0.010356869
000020 3a 22 83 bb 91 08 c1 bc 08 76 31 3c d8 10 d7 3b
       -0.004001883 -0.023563655 0.0108313635 0.006563287

sun_influence_2.W.weight f4 [12, 12]
000000 91 f9 0e be ec 41 69 3e d4 be 77 3c 53 0e fe bc
       -0.1396239 0.22779053 0.015121181 -0.03101269
000010 fd 04 10 3e 7b 1f c0 bd a3 cc b5 be 59 d8 66 3e
       0.14064403 -0.093810044 -0.35507688 0.22543468
000020 e7 1a 09 be 68 8a 81 3e 17 ed 4c be bc ee d7 3d
       -0.13389169 0.25300908 -0.20012318 0.10543582
000030 5b d0 f0 bd 1c 4d 3c 3f 1d 9e ca 3e 0e d4 89 3e
       -0.11758491 0.7355516 0.39573756 0.26919597
000040 de 30 0a be 59 1f 0a 3f d4 aa c8 3e 54 f8 3b be
       -0.13495204 0.5395408 0.39192832 -0.18356448
000050 08 7b 0d bc 80 44 9a be f6 21 c5 3e 94 61 64 3d
       -0.00863529 -0.30130386 0.38502473 0.05575712
000060 97 e6 84 be a7 8f 73 3e 66 61 12 be 67 7e 89 3e
       -0.25957176 0.23785268 -0.14294967 0.2685425
000070 bf 94 7c be ba 83 49 be 23 af 2c be 07 00 aa 3d
       -0.24666117 -0.19679156 -0.16863684 0.083007865
000080 61 5d 3e 3f 1c d8 2a bc 83 0b c5 3d 28 5d 12 bd
       0.74361235 -0.010427501 0.09621336 -0.035733372
000090 ab 52 cd be e2 e9 b1 be c0 fb 9d 3e b8 ce 02 3e
       -0.40102133 -0.3474875 0.30856133 0.1277417
0000a0 0e 33 d0 bb fe 7e bf be 01 75 8b 3e 69 8d 71 be
       -0.0063537424 -0.37401575 0.27237704 -0.235891
0000b0 0b 7c 4f 3d 18 ec bd bd 93 39 5e 3b 6b 5a 81 be
       0.050655406 -0.09273547 0.0033908829 -0.25264296
0000c0 bd ff b9 3c 47 04 12 3f 0c d0 a0 be fd 4f 81 be
       0.022704953 0.57037777 -0.31408727 -0.2525634
0000d0 0a 7e 82 be c3 5b ca be 76 8b 77 be d3 d5 ae be
       -0.25486785 -0.39523134 -0.24174294 -0.3414751
0000e0 54 4d fc 3d 2c 96 a8 3e cd 99 4c be 81 6c d0 be
       0.12319437 0.32927072 -0.19980545 -0.40707782
0000f0 a8 3e 1b be 43 04 a0 be 87 0c 3f 3d b0 13 35 bb
       -0.1516062 -0.3125325 0.046642806 -0.0027630143
000100 0c bd bf 3d 48 b5 29 bf 98 d2 2a be 2b c0 52 3e
       0.0936223 -0.6629224 -0.16681898 0.20581119
000110 a6 60 16 3e 3d 08 91 be f8 76 e2 38 cc 80 a1 3d
       0.14685306 -0.28326598 0.000107986794 0.07885894
000120 84 5f 22 be bb 18 07 3f ca c4 9f be 98 ba 6b be
       -0.15856749 0.5277211 -0.31204826 -0.23020399
000130 d5 3b 1d 3e 4e 92 81 3b 7c c3 26 3e 71 a6 bd 3d
       0.15354855 0.0039542085 0.16285509 0.09260262
000140 a0 b0 0f 3d ef 2b c3 be 82 02 9c be d9 1c 81 bb
       0.035080552 -0.38119456 -0.30470663 -0.0039402065
000150 2c 71 50 be ab fe 7c bd e9 1e b4 3e e9 c1 94 3c
       -0.20355672 -0.061766308 0.35179833 0.01815887
000160 94 1e 9b 3d 3a ff 2c 3e f3 77 3a 3d a1 9d 2c 3e
       0.07574192 0.16894236 0.04552455 0.16857006
000170 7e c2 05 bf dd a4 85 be 86 58 9d bd b3 d0 80 3d
       -0.52249897 -0.26102343 -0.076829 0.06289806
000180 fe dc c6 be 56 5b cd be 87 d3 26 bd 4d 92 76 3e
       -0.3884048 -0.40108746 -0.040729072 0.24079247
000190 9e 44 fc 3d 8e 62 1b bf a3 48 ad 3e 54 c9 c2 be
       0.12317775 -0.6069726 0.3384448 -0.38044226
0001a0 7f cf 77 3e f9 a2 3f 3e 7f bf 01 bf 0b f0 82 bc
       0.24200247 0.18714513 -0.50682825 -0.015983602
0001b0 cc bb 16 bf 99 aa 05 3e fa 16 1d be 31 43 f6 be
       -0.58880305 0.13053359 -0.15340796 -0.48098138
0001c0 eb 73 38 be 22 4c 15 bf 95 4a 65 be 1e f8 97 be
       -0.18012969 -0.58319294 -0.22391732 -0.29681486
0001d0 15 30 6d bb 98 2a b0 3c 4e 80 dd 3c b2 fa b6 be
       -0.003619199 0.021504685 0.02703872 -0.3573814
0001e0 b8 7d bc 3e 27 88 0a 3f b9 8f b2 be be 72 c4 bd
       0.36814666 0.54114 -0.34875277 -0.09592198
0001f0 da e1 99 3e ec da 23 bd a0 5c 76 3d be 47 2c bf
       0.30055124 -0.040003702 0.060146928 -0.6729697
000200 89 c7 9e be 89 75 ad bd ff 06 a7 be 9a 07 6b ba
       -0.31011608 -0.08469684 -0.32622525 -0.00089656713
000210 11 b2 56 be 3b bd 09 bd af 48 63 bc fc 06 8c be
       -0.20966364 -0.03362773 -0.01387231 -0.2734908
000220 c9 c3 66 be a9 a9 e5 3e b8 c6 ac 3d ba 01 b0 be
       -0.22535624 0.44856003 0.0843634 -0.34376317
000230 9d 5b 70 3e e6 a3 1f 3e 42 de bc 3e a1 2e cd 3e
       0.23472448 0.15589866 0.3688832 0.40074638

sun_influence_2.W.bias f4 [12]
000000 23 d3 d4 bb 54 1b 7b 3c b1 3d 1b 3c f3 44 80 3b
       -0.006494896 0.01532634 0.009475158 0.0039144694
000010 9b ca 90 3b 56 29 3d 3c a1 80 f0 3b 2a b2 0b 3c
       0.0044186837 0.0115455 0.0073395525 0.008526364
000020 eb 9a b4 bc 22 30 3f bb 03 e0 f6 bb d0 ee 0c bd
       -0.022046527 -0.0029172977 -0.0075340285 -0.034407437

sun_influence_2.W_self.weight f4 [12, 12]
000000 77 50 f7 bd 65 cd c9 3c ca 6f 9b be 7c bf 16 3f
       -0.12075894 0.024634073 -0.30358726 0.5888593
000010 f5 6b 08 bf 5e 25 c4 be f5 ba bb bd 9e 88 a7 3d
       -0.5328973 -0.3830976 -0.091665186 0.081803545
000020 df 3e 1b be f6 06 e7 3e 14 d4 24 3e 64 67 3f 3c
       -0.15160702 0.45122498 0.16096526 0.011682365
000030 18 81 82 3d a6 7b 72 3e 8b a2 c3 3e 2a 64 b6 3e
       0.06372279 0.2367998 0.38209948 0.35623294
000040 1b 20 c8 3e 28 bb 60 3e 7c 4f 43 bd 4c 5f 15 3e
       0.39086995 0.21946394 -0.047683224 0.14587134
000050 ab 45 80 be dc d3 1a 3e cd 98 a8 3e 7f 04 69 3e
       -0.25053152 0.1511988 0.32929078 0.22755621
000060 0a ed 44 be 91 15 cd bc c5 f1 8e 3d e6 53 fd be
       -0.19231048 -0.025034698 0.06979708 -0.49478072
000070 30 8b 1c 3e a8 a0 61 3d 0d c0 61 3e f4 d0 cb 3e
       0.15287471 0.055084854 0.22045918 0.39807856
000080 d4 ee 6b be 4c a7 5e be 76 3c 5e bd 8d ae 70 3d
       -0.23040324 -0.21743506 -0.05425688 0.058760215
000090 6a 21 63 bf 03 b8 3b be 89 a9 25 3e 33 5e ae 3e
       -0.8872286 -0.18331914 0.16177954 0.34056243
0000a0 b1 d1 d8 3e 0d 0f 18 be a5 38 3e bf 0a bf cd be
       0.42347482 -0.14849491 -0.7430518 -0.40184814
0000b0 f1 e7 c0 3e 2e c9 4e 3e 7b 7f e8 3e f0 ea 15 3d
       0.37676957 0.20193931 0.4540976 0.036601007
0000c0 11 97 eb 3d ab e6 05 3f b3 4d f1 bd 25 5a da 3d
       0.11503423 0.52305096 -0.11782398 0.10661725
0000d0 84 fc ad 3e 9d ad fd bd ac 21 4c bd d6 28 84 be
       0.33981717 -0.1238663 -0.0498368 -0.25812405
0000e0 40 b9 19 be 94 5c 00 be 4e e5 64 be a8 ca bc be
       -0.15012074 -0.12535316 -0.22353098 -0.36873364
0000f0 63 03 14 3f 76 f7 ec 3e a1 ef 85 3d b0 b7 b7 3e
       0.5781767 0.46282548 0.06539846 0.3588233
000100 9c 1e bf 3e 9b 6a 39 3e 6f 6d 2d 3e 7d dd 94 be
       0.3732804 0.18107073 0.16936277 -0.29075232
000110 e5 e1 32 3e 6d a5 0e be 28 ae 80 3f 3a 94 a1 be
       0.17468984 -0.13930292 1.0053148 -0.315584
000120 8d 4b 91 3e ab 7d ce bd 5e a3 3f 3a d0 5f 94 3e
       0.28377953 -0.10082563 0.00073104154 0.2897935
000130 a0 5c a5 b9 cc d6 5f be 9f 38 66 be 31 bf d9 bc
       -0.00031540263 -0.21859282 -0.22482537 -0.026580425
000140 32 5b 9f be 85 6e 3e 3e 1f 6d ba be 2c 24 0f 3f
       -0.31124264 0.18596847 -0.36411378 0.5591457
000150 2f 11 05 be c5 b8 c1 bb 14 c6 9b be b3 c4 84 be
       -0.12994836 -0.005911919 -0.3042456 -0.2593132
000160 4d 10 ff 3d 5f 34 6e 3e 5a 36 08 bf 97 e6 6d 3e
       0.12454281 0.23262165 -0.53207934 0.23232494
000170 10 f3 d7 be 78 a3 89 be 61 23 fd 3e 62 3f 0d bf
       -0.4217763 -0.2688253 0.49441054 -0.5517484
000180 5c 3b 4c bf 9f 1d 9b 3d 73 94 ca bc 29 c8 99 3c
       -0.79778075 0.07574009 -0.02472899 0.018772202
000190 85 d1 dc 3d d7 b1 9a bd e9 55 93 3e 65 d4 ff 3c
       0.1078215 -0.075534515 0.28776482 0.031229207
0001a0 9b db 83 3e 1b 86 44 3e a3 1b 31 3e 21 91 f5 3c
       0.25753483 0.19191782 0.17295699 0.02997643
0001b0 af c0 b0 be 30 4a 59 be 6d e8 80 be da ba 40 3e
       -0.34522006 -0.21219707 -0.25177327 0.18821278
0001c0 b0 f1 aa bd 30 65 c6 be 08 e9 ab bd 34 c3 10 be
       -0.083468795 -0.38749075 -0.083940566 -0.14136964
0001d0 09 6e 91 3d 4f c4 c6 3e ba 80 6e 3e d4 c6 fc be
       0.07101066 0.38821647 0.23291293 -0.49370444
0001e0 75 5f 9e 3e 74 db 50 be 2d 86 0d bd 98 05 28 3c
       0.30932203 -0.20396215 -0.034551788 0.01025524
0001f0 5b 3e b2 be 6d 76 22 be 09 33 b5 3e a9 1b 8f be
       -0.34813198 -0.15865488 0.353905 -0.2795079
000200 7e 9e c5 bd 54 3e 11 bf 95 c0 9c 3e cc 5f 37 be
       -0.096493706 -0.5673573 0.30615678 -0.17907637
000210 5a 86 9b bc c4 67 35 bc 5e ae 18 3d 62 c8 50 bf
       -0.018984962 -0.011072103 0.037275665 -0.8155576
000220 d4 89 09 3f 59 8f 8c be 91 61 50 be 14 e5 1a 3f
       0.53725934 -0.27453116 -0.20349719 0.60505795
000230 d2 5c e3 3e bb 4c c0 bc 53 02 a5 3e 26 c0 d2 be
       0.44406754 -0.023474088 0.32228336 -0.41162223

sun_influence_2.W_self.bias f4 [12]
000000 23 d3 d4 bb 54 1b 7b 3c b1 3d 1b 3c f3 44 80 3b
       -0.006494896 0.01532634 0.009475158 0.0039144694
000010 9b ca 90 3b 56 29 3d 3c a1 80 f0 3b 2a b2 0b 3c
       0.0044186837 0.0115455 0.0073395525 0.008526364
000020 eb 9a b4 bc 22 30 3f bb 03 e0 f6 bb d0 ee 0c bd
       -0.022046527 -0.0029172977 -0.0075340285 -0.034407437

sun_influence_3.W.weight f4 [12, 12]
000000 1d 7d 84 be e8 a7 ca 3b f5 d6 85 3d 74 09 98 be
       -0.25876704 0.0061845668 0.065351404 -0.29694712
000010 b4 4b 02 be 04 b9 83 be c2 32 bf 3d 49 63 00 bf
       -0.12724191 -0.25727093 0.09335853 -0.501515
000020 78 96 db bb ad 9e 7c bd 98 86 1f be 48 90 5f be
       -0.006701287 -0.061674763 -0.15578687 -0.21832383
000030 04 9e 22 3e b9 a7 d3 bd 45 db 06 bf 5f de 29 3e
       0.1588059 -0.10334725 -0.5267833 0.16588734
000040 dd 34 53 be 8e 1f a1 3e 30 04 b5 3e 57 14 a4 3d
       -0.20625634 0.31469387 0.35354757 0.08011692
000050 e1 58 3d be 80 21 ab be 1e 99 01 bd a8 84 0d bd
       -0.18490936 -0.33423996 -0.031640165 -0.03455034
000060 a3 77 bc be b3 8e d8 3c bc 00 2d be b8 be c4 bc
       -0.36810026 0.026435232 -0.16894811 -0.024016723
000070 a0 a2 34 3e 69 05 2d 3d 29 85 01 be ab ff 4a 3e
       0.17640162 0.042241488 -0.12648453 0.19824092
000080 e0 68 96 3d 16 21 b5 be 4b 35 f0 38 fe ae 41 be
       0.07344222 -0.35376805 0.000114540184 -0.1891441
000090 38 be f3 3d 66 97 70 3e 1e fd 23 be 5d e1 27 be
       0.11901516 0.23495254 -0.16014525 -0.16394563
0000a0 07 82 a6 bd 08 08 78 bd f6 4a a6 3e c8 fb 0a bf
       -0.081302695 -0.060554534 0.32479066 -0.5429044
0000b0 3d 74 12 3e f7 4b cc 3d e5 8f 2e 3d c7 de fb be
       0.14302154 0.09975427 0.042617697 -0.49193403
0000c0 51 2b 6a 3e 0d b7 d2 be c7 02 c6 3d 47 3c d8 bd
       0.22868086 -0.41155282 0.096684985 -0.10558372
0000d0 de 28 d8 be 55 ed 19 bd 37 24 96 be 14 5f f6 3e
       -0.4221868 -0.037579853 -0.29324505 0.48119414
0000e0 0c 6f 87 bd 0b d5 b0 3e 43 2a 8a 3e f9 cc 96 3e
       -0.066129774 0.3453754 0.26985368 0.29453257
0000f0 f5 ce 26 3e 3b 0e 92 be 4d ed c6 3e 3d 05 4c bd
       0.16289885 -0.28526482 0.3885292 -0.049809683
000100 c9 38 6c 3c 18 80 1b 3e d7 0e 44 3e d5 17 88 3e
       0.0144178355 0.15185583 0.19146286 0.26580682
000110 80 49 9e be 5a 37 86 bd ab c2 a3 bd 50 ee 4e be
       -0.3091545 -0.06553526 -0.07996114 -0.20208097
000120 a7 50 14 be 11 8d f4 3e 80 30 d2 3c b4 36 81 3e
       -0.14483891 0.47763875 0.025657892 0.25237048
000130 24 13 af 3e 4d ca 13 3f 2d 3e 82 3e 78 d2 8f 3e
       0.3419429 0.5773056 0.2543806 0.28090262
000140 07 66 a9 bd b8 1e 68 be 69 ad c5 bc 9d 65 a3 be
       -0.08271413 -0.22667968 -0.02413054 -0.31913462
000150 1a 5c 80 3d 14 e6 32 be ab 6c cc be e6 a3 2b be
       0.06267567 -0.1747058 -0.39926657 -0.16761741
000160 ae b7 a1 bc a6 93 a6 be e5 75 71 3d e0 b1 3f be
       -0.019740906 -0.32534522 0.058950324 -0.18720198
000170 b7 ad 8f be bd 6f d5 3d fd 93 09 3e 9b a1 98 be
       -0.2806222 0.10421703 0.1343536 -0.29810795
000180 ee a6 8a 3d ce 42 ec be 67 be 42 3d b4 bf 0c bf
       0.067701206 -0.46144718 0.047544863 -0.54980016
000190 c9 88 f0 bd d6 9c f7 bc 0a 5b 40 bb 01 16 0f 3f
       -0.1174484 -0.030226152 -0.0029351139 0.5589295
0001a0 6d 30 40 bb ab 64 51 be 0e e6 81 3e 84 05 cd bd
       -0.002932574 -0.20448558 0.2537083 -0.10010818
0001b0 b3 0f 03 be 38 2a 8f be 58 05 e5 3c 4e 5b 44 be
       -0.12798958 -0.27961898 0.02795665 -0.19175455
0001c0 ae 5a 48 3d b1 dc 0d bf 3c 29 b6 be 03 af 64 3d
       0.048914604 -0.55414873 -0.35578334 0.055830967
0001d0 d0 21 c5 3e ee 32 a3 3e 3c 30 0d be 67 58 7f be
       0.3850236 0.31874794 -0.13787931 -0.24936067
0001e0 7a 41 c1 3e 11 a3 d1 bd de 36 a5 bc 81 bd c4 3e
       0.37745267 -0.102361806 -0.020167764 0.3842583
0001f0 b2 07 06 be 45 82 a9 be 94 e2 b8 be 74 35 b2 3e
       -0.13088873 -0.331072 -0.36110365 0.34806406
000200 80 63 96 bd 3f b1 36 be 44 78 bd bd 95 e6 b7 3e
       -0.07343197 -0.17841052 -0.092514545 0.35918108
000210 37 5a 86 bd 53 a8 88 3e 2f 54 9a 3e 6e 74 86 3d
       -0.06560176 0.2669092 0.30142352 0.06565176
000220 56 94 05 be 06 e9 ca bd 00 02 ae 3e 17 b6 84 be
       -0.13044867 -0.09907727 0.339859 -0.25920174
000230 c9 fa 5d bd 74 9a 0b be a0 0f 16 bf 44 4e ac 3e
       -0.054194245 -0.13633138 -0.5861759 0.33653462

sun_influence_3.W.bias f4 [12]
000000 ac d6 fb b9 a3 aa 43 bb a2 75 a7 bc 5e e6 98 bb
       -0.00048034394 -0.0029856346 -0.020441834 -0.004666134
000010 84 f1 b5 3b 73 41 25 3c a2 6c 94 3c c6 b9 c4 bb
       0.0055524725 0.010086405 0.018118206 -0.006003591
000020 22 62 f7 3b 76 31 64 bc c5 78 8a 3c 7e 26 47 3c
       0.00754954 -0.013927808 0.01690329 0.012155173
