src/Photosynthesis/RL/SavedModels/model_15.pth (torch, 30290 bytes, 34 tensors)

player_tree_1.W.weight f4 [12, 12]
00000000: 98c2 b8bd 811b f8be cd4e ab3e 52ac 7cbe
00000010: 4470 1d3e 708d 8c3e 1852 083e fbd8 923d
00000020: 5a7f 413d 8ae9 ad3e a5da ac3d e3cd 07be
00000030: dd0a 11be 5d15 8f3e 6d5a 89be 2f20 bbbe
00000040: d1b4 a23e 102a 443d c65b 4abd 8d22 023e
00000050: 9924 acbe 6282 213f f979 2c3f f433 78bd
00000060: e1c8 f63c b50c 7dbe d09f 253d 1389 8b3e
00000070: 0f17 8c3e 946b bb3d a1fd f5bc 0e9a c63e
00000080: 5202 0b3f 0a82 c63e b42b 963c 059d 65be
00000090: f291 f6bd 7db6 cabe 249c a4bd 6b1d 603b
000000a0: a9fe 4abe f3dc 883d 8437 453d e2f2 19be
000000b0: 05cc 48be 1e30 06bd 06c1 5abf eb69 023e
000000c0: 28ac 943d 6dda 0dbe 56fc 8fbd 76a3 6ebe
000000d0: 555f 89bd 53e8 193f c132 493e 00f3 55be
000000e0: 0207 cd3e 6825 a4bd 9aa0 963d d19a 98bb
000000f0: 0c51 ac3d c3cf 023e eafe a3be cee5 493d
00000100: 9387 c9be f63b a5bd dd90 acbd 821b 0fbd
00000110: b516 70be a10c e4bb e581 86be 7408 903e
00000120: c88c 23be 646b 4f3e 7308 6bbe 6274 1f3e
00000130: eb49 403f 538a 7dbd a314 263f 8bc4 8dbe
00000140: 3192 8bbe a0bc 8bbe 3000 8cbe 3621 3fbd
00000150: fd73 043f 7d3e 863e 6c78 0d3c 3735 0cbe
00000160: 91ec b43d c915 b1be 052f f8be 90bf 15be
00000170: f257 a0be aff0 a63e 29e0 d03e 6733 86bd
00000180: a784 b93d 09b9 6cbe 7970 d1be 78c8 5e3e
00000190: a92b 2fbe 1db3 a5be 5d5b ab3d 008c aabc
000001a0: 0c4c 01bf adce 553c 1cab ae3e 1ff7 f5bc
000001b0: cee8 93be 4ebd 0fbe d1d2 c2be 78da 1e3d
000001c0: 80d2 7ebd 197e b23e 2b53 953e 3e0e 1a3f
000001d0: c31a 7abe 8334 e23e c34c ffbd 9c1d edbc
000001e0: 65c5 94be ebdb 8b3e ed1e 1fbd 8e05 afbd
000001f0: 3d1e d6be 3230 94bf c923 a93e e47a 9bbd
00000200: 3cf0 c73c bb73 2d3c 4419 87be ae93 08be
00000210: e9b8 3d3e b7ea 843e 388e 47be 8470 b03e
00000220: a494 0dbe 971b bcbe 23b5 42bd 7418 4c3d
00000230: 7602 963e 348e 55bd 9750 703e 5431 3a3f
-0.09021491 -0.48458484 0.33458558 -0.2467511 0.15374857 0.27451658 0.13312566 0.07170292
0.047240593 0.3396724 0.08440141 -0.13262133 -0.141643 0.27945986 -0.26826802 -0.36547992
0.31778577 0.047891676 -0.04940393 0.12708493 -0.33621672 0.63089573 0.67373616 -0.06059642
0.030125083 -0.24711879 0.040435612 0.27253017 0.27361342 0.09151378 -0.030028166 0.3878941
0.54300416 0.38771087 0.018331386 -0.2242318 -0.120395556 -0.39592353 -0.08037594 0.0034197222
-0.19823708 0.06682768 0.048148647 -0.15034059 -0.19609077 -0.032760732 -0.8545078 0.12735717
0.07259399 -0.13852854 -0.07030551 -0.23304543 -0.06707636 0.60120124 0.19648267 -0.20893478
0.4004441 -0.08014947 0.07354851 -0.0046571274 0.08413896 0.12774567 -0.32030421 0.049291424
-0.39361247 -0.08068077 -0.08426068 -0.034938343 -0.23446162 -0.0069595133 -0.26270977 0.2813145
-0.15971673 0.2025581 -0.22952442 0.1557174 0.7511279 -0.061899494 0.6487524 -0.27689013
-0.27259973 -0.27292347 -0.27343893 -0.04666253 0.51739484 0.2621955 0.008634668 -0.13692175
0.08834184 -0.34586933 -0.48473373 -0.14623857 -0.31317097 0.32605502 0.4079602 -0.06552773
0.090585046 -0.2311746 -0.40906122 0.2175616 -0.17106499 -0.32363215 0.083670355 -0.02081871
-0.50506663 0.013049764 0.3411492 -0.030025063 -0.28888553 -0.14037058 -0.38051465 0.038782567
-0.062212467 0.3486183 0.29165015 0.6017798 -0.24424271 0.44180688 -0.12465813 -0.028944783
-0.2905685 0.27316222 -0.038847852 -0.08545981 -0.41819945 -1.1577208 0.33035114 -0.07591799
0.024406545 0.010586674 -0.26386464 -0.13337585 0.18527569 0.25960323 -0.19487846 0.34460843
-0.13826233 -0.367398 -0.047536027 0.049828008 0.29298753 -0.05213757 0.23468243 0.7273152

player_tree_1.W.bias f4 [12]
00000000: ffa3 4539 082a c93b d5c7 4d3c 80b3 9cbb
00000010: d5ce 64bb a4f6 96ba ceb6 ec3b bfe9 8bbb
00000020: 6cf5 803a 8873 b2bb 2f96 0fbd b878 d2bb
0.00018848477 0.0061390437 0.012559851 -0.0047821403 -0.003491332 -0.0011517596 0.0072239405 -0.004269808
0.0009838766 -0.0054459013 -0.035055336 -0.006423082

player_tree_1.W_self.weight f4 [12, 12]
00000000: 0ba2 0abe d002 003e 2265 183f 3e6b 65be
00000010: 63b1 343f aa35 99bd 851e 22be bfb8 38be
00000020: cc17 b0bc cdf6 e93e 083f e73d 41fa bbbc
00000030: e594 da3e 166f 1fbe 115f dcbd db3b 86bd
00000040: aea1 3abe 5b3d d6be 1d51 563e 0c9a 043f
00000050: ab03 0c3e da74 4b3d 738b 443e 42a6 54bd
00000060: 7400 443e be2b 7f3e e40f 4b3d c242 16be
00000070: 209b 1c3d 0c5a b03d 171b e9be 54a2 713f
00000080: 02b7 b33e 63c2 923e f14a 26be 3519 5e3e
00000090: a95b 66be d270 0cbd 7a44 c6be 2418 b93d
000000a0: 4a82 f73e 22d7 193d 4b6b 11bf c07b e73d
000000b0: 52ff a13d 3f0f 80be 8eab a93d a325 9bbe
000000c0: a737 ec3e a073 603e 6193 f8bc faf3 0d3f
000000d0: b41a 6b3e b3a5 8abe af7e 44be e246 853e
000000e0: 69c0 40be caa5 ecbd fcd8 a8bd 621c 80bd
000000f0: d6e7 8dbe 61fa ecbe d8c8 8ebe d460 a6be
00000100: 7e2e 9a3b 234f a5be d26d 18bf a32d b2bd
00000110: 0e9f a1be 24bc fe3e df13 e8be 7282 0e3e
00000120: e328 063f 8a41 b8bd 2be0 97be cfbd d7bd
00000130: 07aa 6c3e b12a 4b3a 71d0 9b3e 0046 56bd
00000140: 3961 753e 70f3 393f 30a2 d8bd 77e6 3b3e
00000150: 7e88 203d 7a00 1e3e 0630 103e db31 87be
00000160: 5d38 bd3e 1b68 8a3e 9b76 d53d 8fc6 bebe
00000170: e6a1 88bd f895 88bd 4ac1 d43e 5533 1abf
00000180: b774 a93e 40d6 e43d 95df 2ebd d1f7 82be
00000190: ef15 57be 305c 8d3e 153b c83e 5b1f 773d
000001a0: 7816 983e 1342 6abe 83de 683e 5d91 973e
000001b0: 2e45 88bc 8322 4e3e f909 e9bd 4d6e d0be
000001c0: 2cf6 25be 3ec2 93bd 49f5 613e cef9 09be
000001d0: f781 8fbe 53c8 0dbe f4bc f4bd fc10 00be
000001e0: 3457 dd3a 53cf 303e c614 00be c035 213f
000001f0: 7d32 2bbd db3d 0fbf 7417 0dbf c731 1cbe
00000200: e2f2 093e 4e23 7e3e 736b 95be 5977 bdbe
00000210: fd7b dfbe fd43 20bf 22a2 d33e 0021 1fbe
00000220: 6a23 0dbf 1e20 2ebe a62b 6c3d 8cc4 49be
00000230: b273 3b3e aa3c 32be 70e7 73be 5265 37bf
-0.13538377 0.12501073 0.59529316 -0.22404191 0.7058317 -0.07480939 -0.15831955 -0.18039225
-0.021495722 0.45696107 0.11291319 -0.022946479 0.42691723 -0.1556972 -0.1076032 -0.06554385
-0.18225738 -0.41843686 0.2092938 0.51797557 0.13673274 0.049671985 0.1919382 -0.05191637
0.19140798 0.2491903 0.0495757 -0.14673904 0.038233876 0.08610925 -0.4552848 0.9438832
0.3510056 0.2866393 -0.16239525 0.21689303 -0.22495903 -0.03428728 -0.38724118 0.090378076
0.4834159 0.037558682 -0.5680434 0.113029 0.079100266 -0.25011632 0.082846746 -0.30302152
0.4613621 0.21919107 -0.030343713 0.55450404 0.22959405 -0.27079543 -0.19188951 0.26030642
-0.18823399 -0.11555059 -0.082445115 -0.062554136 -0.2771594 -0.46284774 -0.27887607 -0.3249575
0.0047052493 -0.3228694 -0.5954257 -0.08700111 -0.31566662 0.49752915 -0.4532766 0.13916948
0.5240614 -0.089968756 -0.29663214 -0.1053425 0.23111735 0.0007750197 0.30432466 -0.05231285
0.23962869 0.7263708 -0.1057781 0.18349634 0.03919267 0.1542987 0.1408082 -0.26405224
0.36957064 0.2703255 0.10423013 -0.37260863 -0.06671505 -0.06669229 0.41553718 -0.60234576
0.3309686 0.111736774 -0.042693693 -0.25579694 -0.21004461 0.27609396 0.39107576 0.060332637
0.29704642 -0.22876768 0.22741131 0.2960309 -0.01663455 0.20130353 -0.11378855 -0.40709153
-0.16207188 -0.07214783 0.22066225 -0.13474199 -0.28028843 -0.13845949 -0.119501024 -0.12506479
0.001688695 0.17266588 -0.12507924 0.6297264 -0.041796196 -0.5595376 -0.5511391 -0.15253364
0.13471559 0.24818155 -0.2918354 -0.37005118 -0.43649283 -0.6260374 0.41334635 -0.15539932
-0.5513216 -0.17004439 0.057658814 -0.19703883 0.18305853 -0.17405954 -0.23818755 -0.7163898

player_tree_1.W_self.bias f4 [12]
00000000: ffa3 4539 082a c93b d5c7 4d3c 80b3 9cbb
00000010: d5ce 64bb a4f6 96ba ceb6 ec3b bfe9 8bbb
00000020: 6cf5 803a 8873 b2bb 2f96 0fbd b878 d2bb
0.00018848477 0.0061390437 0.012559851 -0.0047821403 -0.003491332 -0.0011517596 0.0072239405 -0.004269808
0.0009838766 -0.0054459013 -0.035055336 -0.006423082

player_tree_2.W.weight f4 [12, 12]
00000000: 4d8d df3e 1ff6 a13e c291 39be e6fe c1be
00000010: 70ad ccbe a26c 303f d192 5cbe ed48 0dbf
00000020: 96f9 96be f149 103d 85d5 3dbb 9063 b83e
00000030: f791 6a3e 2a9e 2c3e 8497 c43e e2de 3cbe
00000040: ed3f 9cbe 5530 b6be 025b 253e ec2c 8f3e
00000050: 28fb fb3e 0e16 e03e 8b63 5cbe 1cec 48bf
00000060: fa74 2ebe d42d a03e 2446 22be 6adf 0e3d
00000070: cf76 003f 64b0 433d 5fde b5bd 80fe a1bb
00000080: 2c0b 4b3d 814b 3f3e 7f59 0c3e d4d0 6b3f
00000090: 425a ddbb 59b7 1e3f 8e18 0d3e ed5d 2ebe
000000a0: f102 77be f123 1ebe 84a8 a1be c5e6 dabd
000000b0: 0022 953d 6b35 c5bd 48c5 b23d 6375 e23d
000000c0: 6b34 61bd e89b 99be ae06 adbd 1de7 98be
000000d0: b123 26be dbb1 2b3f 4298 f6bc 8884 013d
000000e0: aa27 923e 2303 213f 42f7 b63d fa72 4d3e
000000f0: 6ae5 903e 7354 63be dde0 44be 48b3 96bd
00000100: 8593 a3be 6470 e93e f4b3 8a3e 7acc 873e
00000110: 04e2 92bd 61d9 15bb 7566 213e af80 bebe
00000120: 3107 623e b4ca 1fbe a0ea b9be 04c7 13be
00000130: 142b 47be ae6a 333f 3c5c 893e 8705 a5bd
00000140: 1b66 f33b e584 153e 67d2 783e e3ff 53be
00000150: a5cd 143e c73f 7b3d 9ce0 0f3f 24f5 9bbe
00000160: fb39 863e 0c92 503e 2dbf d2bb e750 843e
00000170: 8b15 853e 97a6 eebd 5635 a23d 925a 25be
00000180: 8411 623e 3258 993e 12e7 9f3e 94b4 de3d
00000190: d70f a8be fd34 233e 00be 0c3e 2251 cf3d
000001a0: d9bc f43e 2f71 a53e ad2e 06be 0b59 06be
000001b0: 0dd3 763e a0ad 9a3e b766 a73e 2428 89bd
000001c0: a6f9 9abe e75c 99be 5f6a 9a3e 0846 9cbc
000001d0: bf9c 22bf 2e77 0bbf b456 aebc 2b67 fbbd
000001e0: b17c 87be 0b4e 8f3e 33ac 923e c6bd d83e
000001f0: 7e86 45be c2c4 003f 4e50 c7be e369 4e3d
00000200: b2b3 b6be 88d9 86be 179c c0bd d31c e3bd
00000210: fdaa b6be b36f 333e eb02 ba3d 6834 263e
00000220: dfff fa3c 261d 8cbe 3b56 943e 4f70 133e
00000230: f5b7 4d3e 436e ccbe d02d f6bd 3f2f 5dbe
0.4366249 0.31633088 -0.18122008 -0.37889785 -0.39976072 0.6891576 -0.21540381 -0.551894
-0.29487294 0.035226766 -0.002896638 0.3601346 0.22907244 0.1685721 0.38396847 -0.18444398
-0.30517522 -0.3558375 0.16147998 0.2796396 0.49215055 0.43766826 -0.21522348 -0.78485274
-0.1703681 0.31284964 -0.15847069 0.034881033 0.5018129 0.04777564 -0.088803045 -0.004943669
0.0495712 0.18681146 0.13706015 0.9211552 -0.0067551443 0.61998516 0.13778898 -0.17028017
-0.24122216 -0.15443398 -0.3157388 -0.10688547 0.072818756 -0.09629329 0.08729035 0.11057546
-0.05498163 -0.3000176 -0.0844854 -0.29863825 -0.16224553 0.6706826 -0.030101899 0.031620532
0.28545886 0.6289541 0.089338794 0.20063391 0.2830003 -0.22200184 -0.19226404 -0.07358414
-0.31948486 0.4559356 0.27090418 0.2652319 -0.07172015 -0.0022865164 0.1576174 -0.37207553
0.22073056 -0.15604669 -0.36311817 -0.14431387 -0.19450027 0.70084655 0.26828182 -0.08057695
0.0074279434 0.14601476 0.24299012 -0.20703082 0.14531572 0.06134012 0.562021 -0.30460465
0.2621611 0.20368212 -0.0064314813 0.25842974 0.25992998 -0.11652868 0.07920329 -0.16147831
0.22076994 0.299501 0.3123098 0.10874286 -0.32824585 0.15938182 0.13744354 0.10122897
0.4780033 0.32312915 -0.13103743 -0.13119905 0.24103947 0.3021059 0.32695553 -0.06697109
-0.30268592 -0.2995369 0.3015928 -0.019076362 -0.63520426 -0.5447873 -0.021281578 -0.12275537
-0.2646232 0.2798923 0.28647003 0.42332286 -0.19289586 0.5030023 -0.38928455 0.05039395
-0.35683972 -0.26337838 -0.09404772 -0.11089482 -0.3567733 0.17523079 0.09082588 0.16230929
0.030639587 -0.27365988 0.2897204 0.14398311 0.20089705 -0.39927873 -0.12020457 -0.21600054

player_tree_2.W.bias f4 [12]
00000000: 48df 25bd 7d35 233c 05a8 163c bbb6 a43a
00000010: c056 75bb c2e9 5f3b 5f79 c6bc 087d 3f3c
00000020: c2c8 f0bb a882 f13a 5a7f d7bb 2e81 85bc
-0.04049614 0.009961483 0.009195332 0.0012566665 -0.003743574 0.003416643 -0.024227796 0.011687525
-0.007348151 0.0018425779 -0.006576461 -0.01629695

player_tree_2.W_self.weight f4 [12, 12]
00000000: 1a5d 2ebe e808 253c 78cd ba3d 95c7 52be
00000010: b8d4 7b3e 5820 b1be 7a98 54be 0274 edbe
00000020: b5ff bebe 01e6 883e 43a5 b13d 82cd 17be
00000030: 838a e7be f8ef 83be e7ac dc3d 70ef 553e
00000040: f166 dcbe 7ec2 febe 676a 91be 13a4 343f
00000050: cd0b 23be 25b3 86bc 5ed6 fa3d 26b5 cc3c
00000060: 1866 ebbe 6bca dd3e a4cb d6be 4ee6 d2bd
00000070: 66bd bd3d e202 c63e 5931 3d3e bcd5 3cbd
00000080: e7b4 be3e b469 7e3e b859 73be 550d aebe
00000090: e23e e83e e32e e23d 4f6f 1a3f 48de 683e
000000a0: f3ef 303d 81bf 543e 0215 f43e f77b 83be
000000b0: b539 1a3f d4c9 25be 9742 d2be 0772 2fbe
000000c0: d56d 063f 3386 b73d f93e a0be 7a04 cd3d
000000d0: 591c c7bd 0566 043f c690 ac3d 3ffd fabd
000000e0: 21df 943e 29a0 903c 9f13 37be cf24 0e3d
000000f0: 5258 113c 27a2 5f3e 57cc a63d 6a4d 263d
00000100: 1c9b b23e 7cea d83e 2894 14bf a6f8 283e
00000110: f6ad 2c3e 4a78 563c 6131 d33e 6c92 053f
00000120: e87e ccbd e227 8e3e df5c 053e f640 2ebf
00000130: 795f 143f 1caf 793d 77ea b73e 84c5 2abd
00000140: a86b f13d ab71 9cbe f04d a43e 23c0 0b3e
00000150: 2ce7 41bd a7d8 b5be 5f18 703e 53fa 4b3e
00000160: 89df 2f3e e0a7 2ebc 2879 553e 87ba 123f
00000170: cdb5 fcbe c9cc ce3d 4cdb 3b3d 8709 683e
00000180: 0da4 7c3c fd18 583e 847c 0abf 28b8 0a3f
00000190: 583e 31be ef14 f7be a183 c8be 29be 33be
000001a0: ba72 c33e 691c a63e 7bc6 a3bd 094c a6be
000001b0: fb61 fdbe 2269 23bd 1bae d4be a9ff f53c
000001c0: e7de 8abd 182c 8cbe 0801 eebe 92ef 1a3e
000001d0: 39cc a2be 31ac 913e c1a4 563e 7684 6fbd
000001e0: 69c7 3ebc 8447 28be 379d bebe 4885 d73e
000001f0: 4c89 4b3e 0ed0 c4bd f759 59be 3b18 453e
00000200: 6acf 16bf 233f dbbd bfc5 4bbe 8eb9 1cbd
00000210: dddd cd3d 3f91 85bd 16ff d0be 66f1 913e
00000220: a571 2fbf 282a 443d 64e3 b73d ab35 8cbe
00000230: 89aa d3be c8eb 6dbe c14a 023e a410 03bc
-0.17027703 0.010072924 0.09121221 -0.20583947 0.24592865 -0.3459499 -0.2076129 -0.4637757
-0.37304464 0.2673798 0.08674099 -0.14824489 -0.45222864 -0.2576902 0.10775166 0.2089212
-0.43047288 -0.4975776 -0.2840149 0.7056286 -0.1592247 -0.016442845 0.122479185 0.024988722
-0.4597633 0.43318495 -0.4195224 -0.102978334 0.092646405 0.38674074 0.18475856 -0.04610227
0.37247393 0.2484501 -0.23764694 -0.33994547 0.45360476 0.11044099 0.60326093 0.22741044
0.043197583 0.20776178 0.47672278 -0.25680515 0.60244304 -0.16190273 -0.4106643 -0.17133342
0.5251134 0.08961143 -0.31298044 0.100106195 -0.09722204 0.5171817 0.08426051 -0.12255334
0.29076484 0.017654495 -0.17878579 0.034703072 0.008871155 0.218392 0.081444435 0.04060117
0.34883964 0.42366397 -0.5803857 0.16501102 0.16863236 0.013090203 0.4124861 0.5217655
-0.09985143 0.27764803 0.13023709 -0.6806787 0.5795818 0.060958013 0.3592107 -0.04169227
0.11788112 -0.30555472 0.32090712 0.13647513 -0.047339603 -0.35516855 0.23446797 0.1991971
0.17175116 -0.010660142 0.20846999 0.5731587 -0.49357453 0.100976534 0.045863435 0.22659884
0.015419972 0.21103282 -0.54096246 0.5418725 -0.17308939 -0.4825816 -0.39162925 -0.17553009
0.38173467 0.3244355 -0.079968415 -0.32479885 -0.49488816 -0.039895184 -0.41539082 0.030029135
-0.067807965 -0.2737739 -0.46485162 0.15130451 -0.31796435 0.28451684 0.20961286 -0.058475934
-0.011644223 -0.16433531 -0.3722932 0.42093873 0.19876593 -0.09609996 -0.21225725 0.19247524
-0.5891024 -0.10705402 -0.19899653 -0.038262896 0.10052083 -0.06521844 -0.40819615 0.28504485
-0.6853278 0.047891766 0.08978918 -0.27384695 -0.41341045 -0.23234475 0.12723829 -0.007999573

player_tree_2.W_self.bias f4 [12]
00000000: 48df 25bd 7d35 233c 05a8 163c bbb6 a43a
00000010: c056 75bb c2e9 5f3b 5f79 c6bc 087d 3f3c
00000020: c2c8 f0bb a882 f13a 5a7f d7bb 2e81 85bc
-0.04049614 0.009961483 0.009195332 0.0012566665 -0.003743574 0.003416643 -0.024227796 0.011687525
-0.007348151 0.0018425779 -0.006576461 -0.01629695

player_tree_3.W.weight f4 [12, 12]
00000000: cd82 3e3e 4527 4cbf cd3d e9bd a25b 163d
00000010: c2de 13be 9b48 efbd 62fc 8dbd 4886 4abe
00000020: 2943 723d 4be2 2fbc f95f 813e bc31 78bd
00000030: a495 b03d 340e 953e e63c e93e f4a7 48be
00000040: e77b 9a3d e47a a1bd 8e36 5a3c 0c78 15be
00000050: 510e fe3c 0121 ec3e 9597 35bd 77bd d63e
00000060: 6d9b 933d a2f4 b63e 7a73 ad3d 080c 2e3e
00000070: 0cf3 793e 1c67 813e f2dc 04be 0bd8 0a3f
00000080: da5d 243e 0885 02bf 7472 8bbc a796 b53c
00000090: 6d46 85be 0ecc 2bbc 308e c93c efc6 e5bd
000000a0: cebd a53c 5764 643e 36b4 a83c 10cb aa3e
000000b0: f5ba e13c a51b 9bbe f7b5 163f 6ea0 42be
000000c0: 6bb5 42be 6fad 59bd 554f 783e 9ae6 26be
000000d0: 36ce 6d3e 48e2 76be fa48 653e bde1 f8bb
000000e0: 2d9a a13e c287 5c3b f6ae 55bc 793b 153e
000000f0: a976 12be 6665 003f 33e6 79bd 5d75 79be
00000100: 47db a23e 7bf9 65be 5acb acbe 9f4a 1ebf
00000110: 0141 c4be d83e f83d 800f 6dbd 0930 fe3d
00000120: 353d 57be cbf7 adbd dc9b c8bd 3747 073b
00000130: 5986 94be 40f7 e83d 8ad7 103f ea93 8b3d
00000140: e1eb cd3e 1bdb c7be ea81 7a3e 2c22 1e3e
00000150: 17d2 50be bb2f 6c3d e680 c43d a29f 6ebc
00000160: 6008 2cbd 3484 573d 3f5c a93e 31de 43be
00000170: a38c 8dbe e495 753d 53f2 37be 616e 043e
00000180: 74f7 b13c 7663 933d 1c96 973d e416 923d
00000190: 8143 57be 9991 293e 942a 3a3f 2e6e a23d
000001a0: 9cd2 303d e277 05be 6056 6dbb 7060 c1bd
000001b0: 6e9f 8cbc b202 d93e ee2d f93e 837d 8d3e
000001c0: e17a 5f3f 2bfd 823e 462d bb3d ef22 213e
000001d0: 92d5 acbd 9651 1c3f 16fe 06be 1496 003e
000001e0: 4b78 613e 8cb5 ca3c aa79 fabe ac72 92be
000001f0: 9f93 553d e025 12be 88a9 0d3e da7c abbe
00000200: d876 db3d 90e6 60be f415 093f 325d b23e
00000210: eea9 e9be 3734 c03d 33c0 9e3e e878 cbbb
00000220: a9f3 a43e 52db 3d3e a19a 14bf 528f 523e
00000230: 013b 7abd 4877 873e 62c2 ffbb 4e16 2bbf
0.18604584 -0.7974742 -0.11388741 0.03670848 -0.14440444 -0.1168377 -0.06932904 -0.19777787
0.05914608 -0.010735105 0.25268534 -0.060594305 0.08622292 0.291124 0.45554274 -0.19595319
0.07543164 -0.07884768 0.013318671 -0.14596575 0.031012686 0.4611893 -0.044334013 0.41941425
0.072073795 0.35733515 0.08469291 0.16996777 0.24409121 0.2527398 -0.12974909 0.54235905
0.16051427 -0.5098424 -0.017022349 0.022166563 -0.26030293 -0.010485662 0.024603933 -0.11219584
0.020232107 0.22303902 0.020593744 0.3335805 0.027554968 -0.3029453 0.58871406 -0.19006512
-0.19014518 -0.053143915 0.24249013 -0.16298905 0.23223194 -0.24109757 0.2239112 -0.0075952695
0.3156294 0.0033650254 -0.013042202 0.14573468 -0.14303078 0.5015472 -0.06101055 -0.24361177
0.3180792 -0.2245845 -0.33748895 -0.6183261 -0.38330844 0.121213615 -0.05787611 0.12411506
-0.21019442 -0.084945284 -0.09795353 0.0020641813 -0.2900875 0.11375284 0.56578887 0.06815322
0.40219024 -0.39034352 0.24463621 0.15442723 -0.20392643 0.057662707 0.09594898 -0.014564427
-0.042000175 0.052616313 0.3307819 -0.19127728 -0.2764636 0.0599574 -0.17963533 0.12932731
0.02172444 0.07196705 0.07401678 0.07133272 -0.21021844 0.16559447 0.7272122 0.07931171
0.043169603 -0.13034013 -0.0036214814 -0.09442222 -0.017165866 0.4238487 0.48667854 0.2763482
0.87296873 0.25583777 0.091394946 0.15735982 -0.08439173 0.6106199 -0.13182864 0.1255725
0.22018544 0.024744771 -0.48920947 -0.28603113 0.052142736 -0.1427226 0.13834202 -0.33493692
0.10716027 -0.21962953 0.5354912 0.34836727 -0.4563746 0.09384959 0.3100601 -0.0062094815
0.32217148 0.18540695 -0.58048445 0.20562485 -0.061091427 0.26458192 -0.0078051547 -0.6683091

player_tree_3.W.bias f4 [12]
00000000: 52af b73b 8b31 b4bc 9257 8b3b 23d2 173c
00000010: 24da 3aba 5ad0 4abd 5416 37bd 8650 97bd
00000020: a46e a03b 9c32 8cba 368f 60bc c4b5 503b
0.0056056166 -0.02199628 0.0042523826 0.009266409 -0.00071278424 -0.049515106 -0.044699028 -0.073884055
0.004896002 -0.0010696235 -0.013706019 0.0031846622

player_tree_3.W_self.weight f4 [12, 12]
00000000: f345 4fbe fd1b 8cbe 8b4d edbd 5edb aebd
00000010: c935 ec3e 98e6 753e 093e d53e ffb1 b03e
00000020: 1fef e13b 937f 123e 8ef1 a33d 51bd bcbe
00000030: 4cde b4be 8dd7 fabc eed4 35bd 4381 7dbd
00000040: 70e8 81bd 1694 0abe 1a25 14be 5407 9ebd
00000050: a304 b6be ab55 40bd ff4d 373e 40c3 c2be
00000060: 884a 6dbe b01a b73e 1325 8e3e e5e9 943e
00000070: a795 b83e dfb3 aebd 3b2d e3bd e3f7 a33e
00000080: a7c7 683e 82b2 0abe de60 e03e ca0e ccbd
00000090: f535 44bf 9cd5 813d 34cd ac3d 88e0 cd3e
000000a0: 8119 e3bd 425a 7fbe d328 94be dfea 1f3f
000000b0: 6c61 ea3c 1b5a d8be 0fa9 273e f55a 0bbf
000000c0: dd62 4fbe 06a1 78be 98d6 70be 0f14 d93e
000000d0: 7d04 2f3f ba65 bc3e 68b2 c5bc 3b86 173e
000000e0: 21ee 65be 5afc 90be 8ecf 9e3e 9844 113e
000000f0: 69fe 9b3e 531f ee3d e7b2 c33e 78d3 ae3e
00000100: dec2 eebc 4ca5 84be 858d ed3d c9f0 26be
00000110: 1808 82be f02c 16be 9d4f 3bbd 4b62 03bf
00000120: e80c 553e 4d87 51bf 6207 40be b86f 18be
00000130: b179 393e 9946 17be c521 023e 25ca 1c3e
00000140: dcb0 333d 2eac d93b 6a13 833c fded b4bc
00000150: e4d7 ea3d 0d43 2dbe e423 4b3e 03e8 8b3e
00000160: d566 7f3e e709 2c3f a2c0 993c cdbd 26bf
00000170: ed27 66bc a0d1 ccbd b81f aabd 329c bebe
00000180: 9ae0 61bf 0bb8 2b3e e652 4fbe 7af9 bd3e
00000190: acd3 323e aab2 103f a8b4 f5be fc78 c23e
000001a0: 85d9 2f3d 5410 3a3e e1ee 15bf d293 2ebc
000001b0: e3c0 84bb 85a2 823e 9c59 ed3e 0946 e4bd
000001c0: 7d4d 723e 0dc1 6bbd 2d41 b73e 7675 b1be
000001d0: 9de5 7d3e 86a5 d9bd 4461 003f 6133 06bf
000001e0: 6fb4 efbd a6c4 aebd 309b 34bd 9f07 1cbb
000001f0: 2f25 bebd ff99 d7bd c268 f7be 4280 b23e
00000200: 708c 343c 38c3 fb3e d80b 9e3d 7128 36be
00000210: cf69 073e c815 c8be 4ac4 833e afdf d63e
00000220: 16a7 aa3c 6d8b d23e 598c 343e b8bb a3bc
00000230: bb51 8f3d 1cd9 243f 79b8 753c 0de9 92be
-0.20241527 -0.27365103 -0.11587056 -0.08537935 0.46134785 0.24013746 0.41648892 0.345108
0.0068949605 0.14306478 0.08005057 -0.36863187 -0.3532585 -0.03062036 -0.04439252 -0.06189085
-0.06343162 -0.13533053 -0.14467278 -0.077162415 -0.35550413 -0.0469567 0.17900847 -0.3803959
-0.23172963 0.35762548 0.2776266 0.29084697 0.36051676 -0.085304014 -0.110926114 0.3202506
0.22732411 -0.13544658 0.43823904 -0.09963758 -0.7664483 0.06339571 0.08437577 0.40210366
-0.11088849 -0.24936774 -0.28937396 0.6246776 0.028610907 -0.42256245 0.16373084 -0.54435664
-0.20252557 -0.24280176 -0.23519361 0.42398116 0.68366224 0.3679636 -0.024132922 0.14797299
-0.2245412 -0.2831753 0.31017727 0.14186323 0.30467537 0.11627068 0.3822243 0.34145713
-0.029145654 -0.25907362 0.11599258 -0.1630279 -0.253968 -0.1466558 -0.045730222 -0.5132186
0.20805705 -0.8184708 -0.18752816 -0.14886367 0.18112828 -0.14773025 0.12708195 0.15311487
0.043869838 0.00664284 0.016000468 -0.022086138 0.11466959 -0.16920109 0.1983791 0.27325448
0.24941571 0.6720261 0.018768612 -0.65133363 -0.014047605 -0.1000092 -0.08306831 -0.37228543
-0.8823334 0.16769426 -0.20246467 0.37104398 0.17463559 0.5652262 -0.47989392 0.3798293
0.042932052 0.18170291 -0.58567625 -0.01065536 -0.004051314 0.25514618 0.4635743 -0.11146171
0.23662372 -0.057557154 0.35791913 -0.34659928 0.24794622 -0.10627274 0.50148416 -0.5242215
-0.11704337 -0.085336015 -0.04409331 -0.0023808253 -0.09284436 -0.10527419 -0.4832211 0.34863478
0.011019811 0.49172378 0.07717103 -0.17788865 0.13223957 -0.39079118 0.25735694 0.41967532
0.020831626 0.41121998 0.17631663 -0.019986972 0.06998011 0.6439378 0.014997595 -0.2869343

player_tree_3.W_self.bias f4 [12]
00000000: 52af b73b 8b31 b4bc 9257 8b3b 23d2 173c
00000010: 24da 3aba 5ad0 4abd 5416 37bd 8650 97bd
00000020: a46e a03b 9c32 8cba 368f 60bc c4b5 503b
0.0056056166 -0.02199628 0.0042523826 0.009266409 -0.00071278424 -0.049515106 -0.044699028 -0.073884055
0.004896002 -0.0010696235 -0.013706019 0.0031846622

player_tree_4.weight f4 [8, 12]
00000000: ee1a 933e 1174 33be 47ab 9f3d 2402 2d3e
00000010: 041c f0bc 8c79 84be 1db5 3fbf 1e83 93be
00000020: 189d b93e 1a6e dc3d c121 e9bd e19d 7d3f
00000030: 0c7a 533e afff 763e 4a03 9f3e 4264 753e
00000040: 5e7c 073e cdf8 753d cd1d 36bf 1dc2 21be
00000050: 4a8e 3a3e 3321 14be fa08 34bd ee8a 1e3f
00000060: bbe3 86bb 5779 4c3d a7e9 23bf 91dd e73e
00000070: 12a6 00bf 2791 003f ea36 e43e d6f6 c2be
00000080: 5b81 103f 41d8 6cbd c116 06be 5659 8a3c
00000090: f5ff cd3d c948 833c 1d8c 34be f99b cdbe
000000a0: 6b40 d8bd 6d9b 2ebe 4973 5dbe b562 9a3e
000000b0: 5006 80be 5f67 bdbe 2c67 cd3c 6c67 593e
000000c0: 2f77 243b 0c59 e03d cd4b d33e 5309 6e3e
000000d0: 9f77 c0be ae25 67be 237d 6ebe 0e4c 9d3e
000000e0: 846b 313d 6037 93be 9d8f d33d ec56 bc3d
000000f0: 309d 413f 8272 bcbe e98c e83e 13c2 fcbe
00000100: 3fe9 2f3f 8e71 01be 86f8 96be 8da8 aebe
00000110: 73d3 dd3e c63b 213f 8647 3f3e 7b4d 8cbd
00000120: 3c82 ec3c 0a7c 003e 9188 09be 50b7 693e
00000130: f945 ca3e 3aac 613e 6133 553e 7adc 1a3e
00000140: a7b7 6dbe 63ec 06bd 0619 b5be 4356 e83d
00000150: beb4 dfbd d115 f0bd 7587 7a3e f210 8dbe
00000160: 9f42 e9be 39d9 ed3b 7120 353e c981 d73e
00000170: a9b8 07be 15ca a8be 5137 e8be 89fe 373f
0.28731483 -0.17524745 0.077963404 0.16895348 -0.029310234 -0.25873983 -0.7488573 -0.28810972
0.36252666 0.10763188 -0.11383391 0.9906903 0.20652026 0.24120973 0.31057197 0.23964027
0.13231036 0.060051728 -0.7113922 -0.15796705 0.18218341 -0.1446579 -0.043953873 0.6193074
-0.004116503 0.049920406 -0.640284 0.4528623 -0.50253403 0.50221485 0.44573146 -0.38078946
0.5644738 -0.057823423 -0.13094617 0.016888302 0.100585856 0.016025918 -0.17631574 -0.4015806
-0.10559162 -0.17051478 -0.21626009 0.30153432 -0.25004816 -0.36992928 0.02507361 0.21230859
0.0025095453 0.10954484 0.4126877 0.23245744 -0.37591264 -0.22572967 -0.23289923 0.30722088
0.043315426 -0.28753185 0.103301264 0.091962665 0.75630474 -0.36806113 0.45420006 -0.49366817
0.6871528 -0.12640974 -0.29486483 -0.3411297 0.43325385 0.6298183 0.18679628 -0.06850716
0.028870694 0.12547317 -0.13431002 0.22823834 0.3950651 0.22038355 0.20820381 0.15123168
-0.23214589 -0.03294028 -0.35370654 0.11344578 -0.10923146 -0.11722911 0.24465735 -0.2755199
-0.4555864 0.007258561 0.17688157 0.42091206 -0.13254036 -0.32966676 -0.45354703 0.71872765

player_tree_4.bias f4 [8]
00000000: 5afb e33b 5353 b03b fbae 8cba b6fe 15bc
00000010: ca18 97bb e739 5b3b b02a 33bc 54ef c43b
0.0069574537 0.005381027 -0.0010733301 -0.009154966 -0.0046111094 0.003345126 -0.01093547 0.0060099754

sun_influence_1.W.weight f4 [12, 12]
00000000: f0d3 febe 85f7 47be 043f a8be ef39 913e
00000010: 49f3 22be 0ea9 bc3e 6977 84be 5617 f23c
00000020: 2d3d 3a3e 80cf 41be 912f 1a3e 6c39 f93e
00000030: 0f79 d23e 4313 e63d 1550 d8be 5d73 263e
00000040: d700 3d3e f421 0bbd 65ef 90bc 7a8a 4f3e
00000050: 5279 fc3e f509 6fbd a7b0 cbbe acab 0f3e
00000060: 665c 23bd ead5 1bbf 23f8 d13e ba3b 50be
00000070: 1527 96be 6d0f 90be ad0b c53e 45ae 32be
00000080: 4ebd 57be 05ae 5a3e 61ee 6ebf 68ad 6dbe
00000090: c0d7 53be 1a39 c73e f182 c8bd 169e 17bd
000000a0: 6bf2 4e3e a81e 723d 0c3f 93bd c92e 0b3e
000000b0: cc25 21be c4ec a4be 7389 ce3d 823a 5abe
000000c0: af0c a8be 4f84 49be a0e6 593e 9ddb 93be
000000d0: 9189 6b3e 86ee b33e 3d8e 27be ae37 b63e
000000e0: f171 8fbe 2d50 2b3e 2a94 6cbc 6cea 9ebe
000000f0: fb5c c5bd 6326 933e 3811 53be 48f8 293e
00000100: a692 413d c191 17bf 93d3 86be 097b a6bd
00000110: d22f 4abe 3c26 943e 7e61 933e e90c c2be
00000120: c4c3 b9be acb7 643d 8194 e23d eee6 7ebe
00000130: e1e7 18be 58cc 0e3e 15f6 de3d 7128 8dbc
00000140: a743 ce3e bf2a 213e d498 3e3b 373d f03e
00000150: 06f8 023d be65 26bf 1116 083e 2cbc 803e
00000160: 241e 3f3f e16b 433c a9d5 06bf be5b 1cbe
00000170: 802a 183d 1584 93be fe29 883e 43a0 e4be
00000180: 1dd3 3ebd ea97 a2be ef1e c03e 278b 0fbe
00000190: 5860 79be 5d35 acbe 5726 2b3f f293 e8be
000001a0: c136 c23c 6fe2 2f3e a754 aebc e54b d4bd
000001b0: b737 ec3d 9841 d83d 812c 2a3e 58c7 103e
000001c0: 25e4 1cbe c832 693e b3f8 73be dd52 a53e
000001d0: 9cb6 bcbe fd20 ef3e 90a0 073f 65c0 c5be
000001e0: 2f21 d43e 0f04 76be 4b1b 253d 10a9 e8bd
000001f0: 2479 383e a21a a83e bfe7 e9bd f667 f53e
00000200: 9c14 a33e 72a7 60bd 0989 0b3d f740 b0bd
00000210: 428a 9abd bd18 233e 84ba 113e dfe6 b63b
00000220: 62f7 e23e b0cf 5b3d 8d79 d5be e0bf 193e
00000230: 14b1 0bbb d9b0 693e 751b aebe 1d13 59be
-0.4977107 -0.19528015 -0.32860577 0.28364512 -0.15913118 0.36847728 -0.25872353 0.029552143
0.18187399 -0.18926811 0.15057208 0.48676622 0.41107985 0.11234143 -0.42248598 0.16254945
0.18457352 -0.033967927 -0.017692277 0.20267668 0.4931131 -0.058359105 -0.39783213 0.14030331
-0.03988304 -0.6087328 0.41009626 -0.20335284 -0.29326692 -0.2813677 0.3848547 -0.17449291
-0.21068308 0.21355446 -0.9333249 -0.2321068 -0.20687771 0.38910753 -0.097906 -0.037015997
0.20209663 0.059111267 -0.071897596 0.13592066 -0.15737075 -0.32211888 0.1008481 -0.21311381
-0.32822177 -0.19679378 0.21279383 -0.2887849 0.23001696 0.35142916 -0.16362853 0.35589355
-0.28016618 0.16729803 -0.014439622 -0.31038225 -0.09636875 0.28740224 -0.20612037 0.16598618
0.047258995 -0.5920678 -0.26333293 -0.08128936 -0.19744805 0.2893542 0.28785318 -0.37900475
-0.3628217 0.055839226 0.11063481 -0.2489278 -0.14932205 0.13945138 0.1088678 -0.017231198
0.4028599 0.15738963 0.0029082792 0.46921703 0.031974815 -0.64998996 0.13289668 0.25143564
0.74655366 0.011927576 -0.5266977 -0.15269372 0.037149906 -0.28811708 0.26594537 -0.4465352
-0.046588052 -0.31756526 0.375236 -0.14017926 -0.24353158 -0.33634463 0.66855377 -0.45425373
0.02370775 0.17176221 -0.0212806 -0.10366038 0.11534064 0.10559386 0.1661854 0.14138544
-0.15321405 0.22773278 -0.2382534 0.32289782 -0.3685807 0.46704856 0.52979374 -0.38623348
0.41431567 -0.24024986 0.04030923 -0.11360371 0.18014961 0.3283282 -0.11421155 0.47930878
0.3185166 -0.05484719 0.034066234 -0.08606141 -0.07545902 0.15927406 0.14231306 0.005581721
0.44329363 0.053664863 -0.41694298 0.15014601 -0.0021315264 0.22821368 -0.34005323 -0.21198697

sun_influence_1.W.bias f4 [12]
00000000: 3020 683c f81b 24bc 85d2 423c 9d33 dc3b
00000010: 90fc 09b6 826a 38bd 5226 0bbd e90f 403c
00000020: f805 403b 45d9 32bc 7c23 cbb9 1cf5 b7bb
0.01416783 -0.010016434 0.011891012 0.00672002 -2.0561602e-06 -0.04502345 -0.033972092 0.011722543
0.0029300433 -0.010916059 -0.00038745615 -0.005613936

sun_influence_1.W_self.weight f4 [12, 12]
00000000: 876c 67be 9522 97be 7798 80be a05f 1abe
00000010: c18a 84be 4b8b cf3d 856b b03d 0e3e 8abd
00000020: 615a 803e 0d41 1b3e 2499 b03c 860a ffbc
00000030: 0be4 d4be 703f 43be eede f8be 25dc 553f
00000040: 0244 703e 824a 173e c546 e53e fc41 f2bd
00000050: 1bf4 5fbe b190 8fbe 43ee f13c b6b2 e4be
00000060: 5014 8d3e 3b05 0f3f ed89 963e a2d8 073c
00000070: 2def ab3e 2808 1fbe 1014 0cbf 73f1 fcbe
00000080: 7b90 973e a2de 37bd 2813 763e ea4b a23d
00000090: 7bc9 a9be 410f 4f3e 612f 8dbd 6a00 963e
000000a0: 52d8 91be efc6 cbbc dd43 91bc 2f65 823e
000000b0: 3895 d33e 68db abbd cc65 f4bd ee23 113f
000000c0: 784c 60be 890c 823e 6ceb 713e 9b77 293e
000000d0: 731e 9b3d 1097 f83e bf5e 68bc 4b35 3f3e
000000e0: f922 0c3f a839 773e 8878 edbe 622f 6b3d
000000f0: ba9e ac3e 1073 0fbe c029 293d 679f ccbe
00000100: 58cc 54be 6218 523e b525 3a3e bd61 ae3e
00000110: 132f efbe b365 3cbd 692c 793e 268c 87be
00000120: 4c5d 5abe 0c1c d43e 178c 02bf 16ed 2c3e
00000130: 77ee 9dbe 5f36 053e 96fa 2b3e 08a1 8bbd
00000140: 66e2 ab3e 53df b53e 09d6 8f3e 8873 adbc
00000150: ce23 83be 6851 873e 295c 78be 5cf7 343d
00000160: bbbf 62be b98b 723e 7bdd a83e 779f e43d
00000170: 223a a33e d5b3 dcba 5f8b 27be 9172 983e
00000180: a8d0 f8ba ddeb 5ebe 1d85 223f 4d64 243e
00000190: a3fc 103d da44 55bc 31c4 dcbd 5813 4dbe
000001a0: 8315 e0be 67e4 a23b e809 a53e a45d b53e
000001b0: 67ce 373d 6094 453f 5c4d 443e 7bc2 3e3e
000001c0: fb06 ddbe f594 a8be 74e9 e0bc e370 823e
000001d0: 321f 20bf 1bee d7be ea19 5f3c e0bb c5be
000001e0: 650e c8bd 58ad 02be 52a1 053e 4724 dc3d
000001f0: e0e9 c13e a6b2 133e a355 b0be a502 d83e
00000200: 43bc 82be b65a 2e3e 5a71 523e 8d4f 383e
00000210: 30a2 af3d c00e 91be 80a9 aebe 930e b13e
00000220: 4128 95be 40d2 abbd d702 c8be 0d33 03bf
00000230: b472 863e c7dd 863e eece 023e 5082 03bd
-0.22599994 -0.29518571 -0.2511632 -0.1507554 -0.2588711 0.1013399 0.08614258 -0.06750117
0.25068954 0.15161534 0.021557398 -0.031132948 -0.41580233 -0.19067168 -0.48607582 0.8353904
0.23463443 0.14774516 0.44780555 -0.11828992 -0.21870463 -0.28040078 0.029532557 -0.44667596
0.2755456 0.55867356 0.29402104 0.008291395 0.33580914 -0.15530455 -0.5471811 -0.4940296
0.29602417 -0.044890054 0.24030745 0.07924636 -0.3316153 0.20220663 -0.068938024 0.2929719
-0.28485352 -0.024875132 -0.017732555 0.25467822 0.41324782 -0.08391458 -0.11933479 0.5669545
-0.2190417 0.2540019 0.23624963 0.16549532 0.07574167 0.48552752 -0.0141827455 0.18672673
0.54740864 0.24143088 -0.4638102 0.057418235 0.3371485 -0.14008737 0.04129958 -0.39965364
-0.20781076 0.20517114 0.18178447 0.34058943 -0.46715602 -0.045995425 0.24333347 -0.26474112
-0.21324652 0.41427648 -0.5099501 0.16887316 -0.30845997 0.13009022 0.1679481 -0.06817824
0.33571166 0.35521945 0.28092983 -0.021173254 -0.25613254 0.26429296 -0.24253906 0.044181213
-0.22143452 0.23686112 0.32981476 0.11163228 0.3188029 -0.0016838262 -0.1636176 0.29774907
-0.0018983083 -0.21769662 0.63484365 0.16053887 0.035397183 -0.013016904 -0.10779608 -0.2002691
-0.43766412 0.0049710753 0.3223412 0.35423005 0.044874575 0.7717953 0.19170135 0.18628876
-0.43169388 -0.32926145 -0.02745507 0.2547675 -0.625476 -0.42173848 0.013617018 -0.386199
-0.097683705 -0.12761438 0.1304982 0.10749107 0.37873745 0.14423618 -0.34440336 0.42189518
-0.25534257 0.17026791 0.20551053 0.17999096 0.08575857 -0.28331566 -0.34113693 0.34581432
-0.29132274 -0.083897114 -0.39064667 -0.5124977 0.26259387 0.26341078 0.1277425 -0.032106698

sun_influence_1.W_self.bias f4 [12]
00000000: 3020 683c f81b 24bc 85d2 423c 9d33 dc3b
00000010: 90fc 09b6 826a 38bd 5226 0bbd e90f 403c
00000020: f805 403b 45d9 32bc 7c23 cbb9 1cf5 b7bb
0.01416783 -0.010016434 0.011891012 0.00672002 -2.0561602e-06 -0.04502345 -0.033972092 0.011722543
0.0029300433 -0.010916059 -0.00038745615 -0.005613936

sun_influence_2.W.weight f4 [12, 12]
00000000: 2603 f6bd 37a9 863e 9a39 3b3d 1fbb 163c
00000010: 6c2c 473e 74df 96bd dca8 a2be df13 853e
00000020: 9021 f0bd 3298 973e 2450 1bbe ce3e ff3d
00000030: 455c f3bd bb64 3e3f 1594 c53e 9909 873e
00000040: 68dc 11be 7ca9 053f d9b3 c33e 7fbd 33be
00000050: 9a03 f6bc 6c3a 99be 21d9 c43e 18af 1c3d
00000060: e3c4 8bbe 918b 833e 427a 14be 0e39 8a3e
00000070: 35bf 7fbe 2b69 57be 6b03 3ebe a90a cf3d
00000080: b99b 3f3f b385 66b9 8bf3 d13d c162 38bd
00000090: c93e c3be 2c42 a0be 9b0b aa3e e24f 363e
000000a0: 41bc 923c 9aca b2be f143 953e c353 5bbe
000000b0: 4598 a73d fc8d 07bd 8429 1c3d d4eb 8dbe
000000c0: d1eb d83c ff04 0d3f e153 afbe a6b1 87be
000000d0: 6de4 83be a3f6 cebe 8765 89be 9cf6 b6be
000000e0: f62c cc3d 72a7 a13e 3efb 54be a329 d6be
000000f0: c170 1ebe 088f 98be 9305 323d 0371 093c
00000100: 4bd4 c83d 1004 2bbf f692 31be 7929 573e
00000110: ff04 203e 59db 82be f9a9 3e3c 01b3 863d
00000120: fa52 28be b960 0a3f 4d68 a8be 83d9 68be
00000130: 06d5 143e 47ad afbc 99be 163e 90c6 d03d
00000140: 3d30 5e3c e833 bdbe 04ea 9bbe 8c20 87bc
00000150: c6ea 50be fc1a 01bd 3978 b23e 1a23 503d
00000160: 34b4 c23d f850 4d3e 0e77 443d 48c0 443e
00000170: 3e58 0abf 41a8 5ebe 0d2d 34bd b095 af3d
00000180: 0f80 c7be 3796 d0be 7b7e 58bd 6af3 553e
00000190: 185d 003e 9382 1cbf 2b39 ad3e 4ae5 c4be
000001a0: 434b 6e3e 6c82 213e 6b27 03bf 5904 aaba
000001b0: bfc7 19bf 3e00 f43d 6c95 3abe 1742 00bf
000001c0: 7f94 40be 295b 1abf 951f 7bbe 4d4e 9dbe
000001d0: a7d1 34bc a5c9 8fba c7f5 483c 5bcf bcbe
000001e0: cc74 b93e 3fbc 0c3f ecb3 b1be 8e82 cbbd
000001f0: dff0 953e 9082 4bbd da1b 733d 589b 2dbf
00000200: 0c24 8fbe cdbc b7bd 4fe1 aabe b1a5 92b9
00000210: 2e1c 64be 07c3 37bd 8fd2 ecbb fd92 90be
00000220: e26b 64be 74fc dc3e 7ace c03d 5e68 bdbe
00000230: 92d4 773e 2099 073e 0480 b43e 8dd0 d43e
-0.12012319 0.26300976 0.04570923 0.009199887 0.1945054 -0.07366839 -0.31769454 0.25991723
-0.117251515 0.29608303 -0.1516729 0.12463151 -0.118828334 0.7437245 0.3858954 0.2637451
-0.14244235 0.5221174 0.3822315 -0.17552756 -0.030031014 -0.29927385 0.38446906 0.03825292
-0.2729865 0.25692418 -0.14499763 0.26996654 -0.24975283 -0.21036212 -0.18555991 0.10109455
0.7484699 -0.00021984316 0.1025153 -0.045016054 -0.3813384 -0.31300485 0.3321198 0.1780391
0.017912032 -0.34920198 0.29153398 -0.21418671 0.0818334 -0.03309439 0.03812553 -0.27718985
0.026479634 0.5508575 -0.34243682 -0.26502723 -0.25760213 -0.40422544 -0.26835272 -0.35735023
0.09969513 0.31573063 -0.20798966 -0.4182864 -0.154727 -0.29796624 0.043462347 0.0083887605
0.09806117 -0.66803074 -0.17341217 0.21011914 0.15626906 -0.25557974 0.011637204 0.06577111
-0.16437903 0.5405384 -0.32892075 -0.22739224 0.14534387 -0.02144493 0.14721145 0.10194123
0.013561306 -0.36953664 -0.30451977 -0.016495012 -0.20402059 -0.031519875 0.34857348 0.050814725
0.09507027 0.20050418 0.047965102 0.19213974 -0.54040897 -0.21743871 -0.043988276 0.085734725
-0.38964888 -0.40739605 -0.052854996 0.20893636 0.12535512 -0.6113674 0.33832678 -0.38456184
0.23270898 0.15772408 -0.5123202 -0.0012971266 -0.60070413 0.11914109 -0.18221062 -0.50100845
-0.18806647 -0.6029535 -0.24523766 -0.307238 -0.011036313 -0.0010970129 0.012265629 -0.3687695
0.3622192 0.5497474 -0.34707582 -0.09937011 0.29285333 -0.04968506 0.059352733 -0.6781516
-0.2795719 -0.08971558 -0.33375022 -0.0002797074 -0.22276375 -0.044863727 -0.007227249 -0.28237143
-0.22306779 0.43161356 0.09414382 -0.36993688 0.24202183 0.13242006 0.35253918 0.41565362

sun_influence_2.W.bias f4 [12]
00000000: 4604 2e3c 602a cc3b b8a4 0bbb 4f1c 473c
00000010: 9bf2 7fbc 82c4 0739 2c46 a7ba 61c7 dc3b
00000020: d762 11bd 6495 ccbc 59a8 34bc 44bc 1cbd
0.010621136 0.0062306374 -0.0021307897 0.012152745 -0.0156218065 0.00012947808 -0.0012762002 0.006737635
-0.03549465 -0.024973579 -0.011026465 -0.03826548

sun_influence_2.W_self.weight f4 [12, 12]
00000000: 7e7b f4bd b28c 953d 4d69 89be f98e 243f
00000010: bcd7 f3be dc23 b5be 38cd 34bd 69c6 e23d
00000020: 2d46 07be b390 013f 68cd 543e 9eca 333d
00000030: 2588 743d 4afc 783e b7cc be3e e024 bc3e
00000040: 674e c33e 57f8 503e e30c 45bd 25ee 1d3e
00000050: e792 8fbe 753e 2b3e 867a a53e 77e3 593e
00000060: d536 51be 3ffd dbbb ee95 973d 4e56 f8be
00000070: 605f 1b3e 6831 2f3d 54c9 4d3e 9f32 d43e
00000080: f645 5ebe 0be7 47be c577 4dbd f428 5a3d
00000090: 8060 61bf 293b 22be a8c3 493e 1afb cd3e
000000a0: e09a ec3e 2cbc febd e978 36bf 6506 c9be
000000b0: 070d d83e 2620 8b3e 592b fb3e 7221 143c
000000c0: 7797 f23d 09ab 003f 186f 06be 2e8a bb3d
000000d0: bb92 ae3e fbd7 02be dc32 9dbd 21bf 85be
000000e0: a564 32be 8835 0bbe dcfd 64be 73a1 bfbe
000000f0: 41ac 123f ff66 f33e 5486 8e3d dc5c bd3e
00000100: b3f4 c13e 424b 343e 8123 253e 50a7 94be
00000110: 1606 4d3e 9a59 c6bd 674b 823f 7098 a7be
00000120: 272e 8c3e 2f83 b5bd 6001 a0bc c3f3 923e
00000130: 3d03 52bc 863e 72be ddc5 78be 646a d8bc
00000140: 0b07 aebe 3576 4c3e 8b49 bcbe 1b3e 0c3f
00000150: 4cd0 06be 86c9 973c 80a9 99be 6b9e 60be
00000160: ee45 113e bdd1 8a3e a459 08bf 6c17 833e
00000170: e44f debe ba63 61be fc5d 063f 66b2 05bf
00000180: 40c9 4cbf 0e10 943d 1637 3fbd 2587 04bc
00000190: 389e cb3d 0196 95bd 4a97 923e 30b0 1f3d
000001a0: 2294 703e 14cb 2a3e f91a 233e 440f 313d
000001b0: c1bf b0be 93c4 68be d7d3 8cbe e4a6 293e
000001c0: 4c04 bcbd c7d1 c9be db17 d9bd 60b8 17be
000001d0: e1f5 8b3d 959f ba3e 7046 6f3e 19b6 fcbe
000001e0: 7a8a 993e 2a01 3ebe a3bd 34bd 3742 14ba
000001f0: 68ea b7be dff8 22be ea0e b33e 51e2 94be
00000200: 8607 86bd 4f31 10bf 59e6 983e 0c58 3abe
00000210: c9dc 0ebd 8cd3 ecbc 3229 623d 89d2 51bf
00000220: 99ff 093f a1f6 93be 5a02 4bbe 6b51 133f
00000230: 8a1a eb3e 800e f2bc ede0 9c3e ef46 cdbe
-0.11937617 0.07302226 -0.2683815 0.6428066 -0.4762553 -0.3537892 -0.044141024 0.11073
-0.13210364 0.5061142 0.20781481 0.043894403 0.05970015 0.2431499 0.3726556 0.36746883
0.38145754 0.20407234 -0.048107993 0.15422876 -0.28041765 0.16723044 0.3232004 0.21278177
-0.20431073 -0.006713539 0.07401644 -0.48503345 0.15173101 0.042771727 0.20096332 0.4144487
-0.21706375 -0.1952173 -0.05016305 0.053261712 -0.8803787 -0.1584288 0.19703543 0.40230638
0.4621191 -0.12438235 -0.71278244 -0.3926269 0.4219744 0.27172965 0.4905651 0.009041177
0.11845296 0.5026098 -0.13128316 0.09157215 0.3409632 -0.12777703 -0.07675716 -0.26122382
-0.17421205 -0.1359464 -0.22362465 -0.37427863 0.5729409 0.47539517 0.06959215 0.3698491
0.37882003 0.17606834 0.16126825 -0.290339 0.20021853 -0.09685059 1.0179261 -0.32733488
0.2737896 -0.08862912 -0.019531906 0.287016 -0.012818155 -0.23656663 -0.24294229 -0.026417919
-0.33989748 0.19966967 -0.3677486 0.54782265 -0.13165396 0.018528711 -0.3001213 -0.21935432
0.14186832 0.27113143 -0.5326178 0.25603807 -0.43420327 -0.22010699 0.5248716 -0.5222534
-0.79994583 0.07229625 -0.046683393 -0.008088862 0.09942287 -0.073040016 0.2863105 0.038986385
0.23494008 0.1667903 0.15928258 0.04322745 -0.34521297 -0.22731237 -0.2750537 0.1656757
-0.09180507 -0.3941786 -0.10600253 -0.14816427 0.06834007 0.36449876 0.23366714 -0.4935768
0.29988462 -0.18555132 -0.044126164 -0.0005655619 -0.35921025 -0.1591525 0.34972316 -0.29078916
-0.06544404 -0.5632524 0.2986324 -0.1819765 -0.034878526 -0.028909467 0.05521507 -0.81961876
0.53905636 -0.288991 -0.19825116 0.5754611 0.45918685 -0.02954793 0.30640355 -0.4009318

sun_influence_2.W_self.bias f4 [12]
00000000: 4604 2e3c 602a cc3b b8a4 0bbb 4f1c 473c
00000010: 9bf2 7fbc 82c4 0739 2c46 a7ba 61c7 dc3b
00000020: d762 11bd 6495 ccbc 59a8 34bc 44bc 1cbd
0.010621136 0.0062306374 -0.0021307897 0.012152745 -0.0156218065 0.00012947808 -0.0012762002 0.006737635
-0.03549465 -0.024973579 -0.011026465 -0.03826548

sun_influence_3.W.weight f4 [12, 12]
00000000: 58a0 77be a4b2 013c 904a 523d 7c68 93be
00000010: 95ec 0abe 2fc3 83be dc84 ca3d 4477 fbbe
00000020: 7d6e 01bd 9bbc 8dbd 6c2e 22be 60ea 65be
00000030: b512 423e a782 b7bd d81f 02bf 536b 493e
00000040: 4739 35be 91b7 ae3e 0889 ae3e efc3 c13d
00000050: 2649 2bbe 4207 a8be 3f0d b1bc 2030 71bc
00000060: 5da2 c5be 9380 323c 28db 36be d998 26bd
00000070: a62d 353e a4f0 dc3c 59b9 04be 76d5 353e
00000080: 8434 913d 2d07 b4be 90a9 26bc faea 4cbe
00000090: 50ec 0f3e 3e42 763e 222b 0cbe a06b 15be
000000a0: 42c1 7dbd 3657 71bd 468a a83e 4675 06bf
000000b0: 3d7f 1c3e 2cf2 c93d 4cfe 3f3d b9d3 f8be
000000c0: 2650 843e 92aa c9be bdac f13d a90a 88bd
000000d0: 72de ccbe 3419 0c3b a6da 8cbe 3d27 f93e
000000e0: 82f4 18bd 05dd b13e 5e8e 8f3e eb0c a13e
000000f0: d066 683e aa58 8cbe 8549 cc3e 909c 8abc
00000100: 3706 f93c d24d 243e 8f4b 473e f7b0 8e3e
00000110: 8264 8dbe 97f2 5abd e7b6 93bd 1782 3bbe
00000120: 9b8a eebd 00ee f53e 22a2 103d 03d9 8d3e
00000130: 57c0 b33e 09a4 153f 3a60 833e 6f35 963e
00000140: bfce 95bd 3a3c 60be c4eb 62bc 1494 9fbe
00000150: 1a5c 803d 14e6 32be ab6c ccbe e6a3 2bbe
00000160: aeb7 a1bc a693 a6be e575 713d e0b1 3fbe
00000170: b7ad 8fbe bd6f d53d 8093 093e d9a1 98be
00000180: 78e4 af3d ce5f ecbe c279 f83c fd39 10bf
00000190: 25f5 08be 2852 c1bc 6691 f33b d38d 0a3f
000001a0: ad98 3fbb ab64 51be e30e 8c3e 2654 fabd
000001b0: 905b 05be 454b 90be 5839 283d 1d62 43be
000001c0: e3f7 443d ed17 0dbf 1a28 b4be c061 483d
000001d0: 6131 c43e 0ba9 a33e c659 0dbe 0d59 7fbe
000001e0: 0b5c da3e 37ef b0bd e5a9 5ebb 0606 d63e
000001f0: 78c1 b5bd cdb3 9abe 084f aebe fa2d b93e
00000200: 987d 48bd 54c7 2cbe e87e 4dbd a843 c33e
00000210: fbaf 72bd ee6f 833e c82d 983e 58ef 4c3d
00000220: 905a e5bd 601c cfbd ec4b ab3e b2ab 80be
00000230: ea3b 93bd b083 08be 7aa0 13bf d5b3 a73e
-0.2418226 0.007916126 0.05134064 -0.28790653 -0.13566811 -0.2573485 0.09888622 -0.4911443
-0.03159951 -0.06920739 -0.15838021 -0.22452688 0.18952449 -0.08960467 -0.5082984 0.19669847
-0.17697631 0.34124425 0.34088922 0.094611995 -0.16727123 -0.32818037 -0.021612762 -0.014720947
-0.38600436 0.010894912 -0.17857039 -0.04067311 0.17693195 0.026970215 -0.1296133 0.1775721
0.07090095 -0.35161725 -0.010172263 -0.20011511 0.1405499 0.24048707 -0.13688329 -0.14591837
-0.061951883 -0.05892106 0.32917994 -0.52522695 0.15282913 0.09860644 0.046873376 -0.48599032
0.25842398 -0.39387947 0.11800525 -0.06642658 -0.40013462 0.0021377327 -0.27510566 0.4866275
-0.037342556 0.34738937 0.28038305 0.31455168 0.2269547 -0.27411395 0.3989984 -0.016920358
0.030398471 0.16045311 0.19462417 0.27869388 -0.27615744 -0.053454008 -0.0721262 -0.18311344
-0.11647531 0.48033142 0.035310872 0.2770463 0.3510768 0.5845342 0.25659353 0.29337642
-0.07314824 -0.21897975 -0.013850156 -0.31167662 0.06267567 -0.1747058 -0.39926657 -0.16761741
-0.019740906 -0.32534522 0.058950324 -0.18720198 -0.2806222 0.10421703 0.13435173 -0.2981098
0.08588499 -0.46166843 0.030331496 -0.56338483 -0.13374765 -0.023598745 0.0074331043 0.54122657
-0.002923529 -0.20448558 0.27355108 -0.12223081 -0.1302321 -0.28182426 0.041070312 -0.19080396
0.048087966 -0.5511463 -0.35186845 0.048921347 0.38318923 0.31964907 -0.13803777 -0.24936314
0.42648348 -0.086393766 -0.0033975777 0.4180147 -0.08874792 -0.30215302 -0.3404467 0.3616789
-0.0489479 -0.16872913 -0.050169855 0.38137555 -0.05924986 0.25671333 0.29722428 0.050032943
-0.11198914 -0.10112834 0.3345636 -0.25130993 -0.07189162 -0.13331485 -0.5766674 0.32754388

sun_influence_3.W.bias f4 [12]
00000000: 4860 0038 9b32 f1bb 6b1f 09bd 3ae9 c8bb
00000010: a703 dd3b 658a 3f3b 7f0a 1c3c dac9 c4bb
00000020: b8cf 933b 0239 84bc 3f9b 073c 9aca c1b9
3.0607247e-05 -0.007360769 -0.033477228 -0.0061313184 0.00674482 0.0029226777 0.009523987 -0.006005508
0.004510846 -0.016140465 0.00827676 -0.00036962779

sun_influence_3.W_self.weight f4 [12, 12]
00000000: b225 38be e77a d63d ff36 e23d a6af 8d3e
00000010: cbb9 f13e a9af d6bb b257 1cbc ddc4 c43e
00000020: a200 24be 990f 30be c804 66bd 480a c03d
00000030: 2664 9a3d a853 6c3c b973 d03d ad60 e83e
00000040: cd93 ccbd 2237 7fbe bc21 3abe a253 583e
00000050: bc03 b9be 91ee c43e 95db 4abe 7a35 4f3e
00000060: 2ed5 863d e1fe cbbd da7b 323e 4167 0b3e
00000070: bdb4 c8bd 44a2 013e 0b0a c4be 926b 503e
00000080: ac9d 42bf 0c7d 943e 0fb6 8abe 2051 42bc
00000090: 6a51 5a3e 6678 893e a43b 9f3e 4220 623e
000000a0: ff20 23bd abfe 2abf f7a9 c0bd 32b7 b33d
000000b0: 6891 fdbe 4361 54bd be41 0e3f 6048 eabd
000000c0: 5f1d 67be 8dcb 11be ac58 dabb 3cab 243f
000000d0: 36cf 91be 1818 fc3c f634 463e a614 bcbe
000000e0: 1711 89be 9956 a53e eda0 83be f140 ad3e
000000f0: 0f3e 253e a815 8a3d 8e34 36be 46c2 233f
00000100: b714 41be bce3 023f 914b b13e f181 803d
00000110: c281 a3bc a116 01bf dbdc 27bf bb1b f13d
00000120: 8d8a 81be 732e 6e3e dadc 0c3f 96bd 833e
00000130: ebe1 cb3d 0166 7d3d a9a8 e43e 1d7c 6f3e
00000140: 03ab a03d 2397 0bbe f1cd f33d 4c08 2b3d
00000150: 25b2 b0be 4bcb 0abe 1b93 56be 48bc 9f3d
00000160: 14c1 31be b606 97bd d252 a93e 1fc3 56bd
00000170: 6c4d cd3c d3e0 3c3e ad73 65be f7a6 163c
00000180: 9a3a f0bc 95f2 53bf 521e 063e 0c4a 2e3e
00000190: 6157 85be f006 2a3f 0b6b 983e fe23 0c3d
000001a0: 1f6e e0bc cc57 0d3e ceaf 62be 6ecb 2cbc
000001b0: 5e22 4abe c13f 7d3e dcab 843e 0fca 443d
000001c0: e579 c1bd 22b4 33bd 9833 14be 4b24 0abe
000001d0: b8e8 95be 84d5 efbc f497 cdbd 7191 4ebe
000001e0: 043a 113f 2318 553d 813c b1bd e5b6 173f
000001f0: 2997 dbbd 9d66 853d e55b 8d3d ae88 bdbd
00000200: c7ec d03e 07df a23e 9810 f03e 1a3f e8be
00000210: 60f5 c0be c829 85be 40b4 e3be 6ecf d9be
00000220: a374 dabc f924 9d3e b2f6 b8be a819 10bf
00000230: 1e11 563c a698 9b3e 7b4b a53e 18b4 70be
-0.1798313 0.104726605 0.11045646 0.27673072 0.4721206 -0.006551702 -0.009542393 0.38431445
-0.16015866 -0.1719345 -0.056156904 0.09376961 0.07538633 0.014424242 0.10178322 0.45386258
-0.09989128 -0.24923375 -0.18176931 0.21125653 -0.36135662 0.38463262 -0.19810326 0.20235243
0.065836295 -0.09960724 0.17430058 0.13613607 -0.09800098 0.12659556 -0.38288912 0.20353535
-0.7602184 0.29001653 -0.27092025 -0.011860162 0.2132012 0.2684967 0.3110019 0.22082618
-0.03982639 -0.6679484 -0.09407418 0.08775176 -0.49525 -0.05185057 0.55569065 -0.11439586
-0.22569798 -0.14237805 -0.0066634025 0.6432378 -0.28478402 0.030773208 0.1935614 -0.36734504
-0.2677085 0.3229263 -0.25708714 0.3383861 0.16136955 0.06742412 -0.17793486 0.6396831
-0.18855558 0.51128745 0.34627965 0.06274784 -0.019959334 -0.50425154 -0.65571374 0.11772867
-0.25301018 0.23259906 0.5502449 0.2573058 0.099552 0.061864857 0.44659927 0.23387189
0.07845118 -0.13631873 0.119045146 0.04175596 -0.34510913 -0.13554113 -0.20954554 0.07799584
-0.1735881 -0.07374327 0.33071 -0.052432176 0.025061332 0.18445139 -0.22407408 0.009195081
-0.029324818 -0.82792026 0.13097504 0.17020434 -0.26043227 0.66416836 0.29769167 0.034214012
-0.02739626 0.13803023 -0.22137377 -0.010546548 -0.19739673 0.24731351 0.25912368 0.04804426
-0.09447078 -0.04387296 -0.14472806 -0.13490407 -0.29279113 -0.029276617 -0.100387484 -0.20172669
0.5672915 0.05202497 -0.08654118 0.5926345 -0.10722191 0.065137126 0.06902293 -0.09254585
0.40805647 0.3181078 0.4688766 -0.45360643 -0.37687206 -0.2600844 -0.44473457 -0.4254107
-0.026666945 0.3069227 -0.36125714 -0.5628915 0.0130656045 0.303899 0.3228415 -0.235062

sun_influence_3.W_self.bias f4 [12]
00000000: 4860 0038 9b32 f1bb 6b1f 09bd 3ae9 c8bb
00000010: a703 dd3b 658a 3f3b 7f0a 1c3c dac9 c4bb
00000020: b8cf 933b 0239 84bc 3f9b 073c 9aca c1b9
3.0607247e-05 -0.007360769 -0.033477228 -0.0061313184 0.00674482 0.0029226777 0.009523987 -0.006005508
0.004510846 -0.016140465 0.00827676 -0.00036962779

sun_influence_4.weight f4 [8, 12]
00000000: a526 a73e 0db2 89be 45f9 86be c4b6 873c
00000010: a65e 20bf 9077 40bf 9a0a 4a3d f0d4 29bf
00000020: 33ef 53be 0802 f1be ea20 00bf 7b29 73be
00000030: 1cef b3be b925 efbc 0b8d 6f3e f5ee a6be
00000040: 499d cebe 8d17 64be 2eb7 8ebe 432f 05be
00000050: c8af cebd 46f8 5ebd da4f 29be 0f57 a9be
00000060: 9227 d7be 9f1a 37bf 869e 6f3e a523 72be
00000070: 0fcf 0f3f e1c9 c73c 7eb9 91bd bedc d33e
00000080: cca7 d13d 412a 13be 6735 083f 1341 1bbe
00000090: 69f0 203e 4f50 70bc 861e e03e e51e 0dbf
000000a0: 81cf 1d3e 3097 e63e 5a2f 863d 1ad3 6abd
000000b0: 2580 11be 501b 973d 7c17 48be c3f5 d13e
000000c0: 9bd5 053d 1e64 ec3d cb62 acbe 3f21 d5be
000000d0: a6f7 17bf 80f5 11be 445d 6dbe c781 643d
000000e0: b8fc b5be 0dd6 0bbe 4174 f3bd 6976 213f
000000f0: 4cdf 14be 6934 31bd ec13 643d e12a 21be
00000100: 5ec3 413f 8c35 c4be bfad b9be 037d 24be
00000110: f6f8 3d3e cbb4 b7be a41a c83e 3a27 ecbe
00000120: 9bfb 693d 2f2f b8be e062 adbe 0a48 853e
00000130: e1c2 933e 6e45 1ebf ca9a 83bd 2bcd 1bbf
00000140: 8fde 1ebd 0e04 c13d 672f 5fbe 5c1c e4bd
00000150: ee0a bb3e 33c6 36bc 0689 f9be 24c6 903d
00000160: 037a f8be ffe2 75bd 797a 18be 7080 b83e
00000170: d9fb 6bbe 2366 89bd 8347 e03e 09f1 67be
0.3264667 -0.26893654 -0.26362053 0.016566642 -0.6264442 -0.7518244 0.049326517 -0.6634054
-0.20696716 -0.47071862 -0.5005022 -0.23746292 -0.35143363 -0.029192792 0.23393647 -0.32604185
-0.40354374 -0.22274609 -0.2787413 -0.1300631 -0.10092121 -0.05443599 -0.16534367 -0.33074233
-0.42022377 -0.71524996 0.23400316 -0.2364641 0.5617532 0.024388256 -0.07115458 0.4137935
0.10237083 -0.14371587 0.53206486 -0.15161543 0.15716709 -0.014667585 0.43773288 -0.55125266
0.15411188 0.45037222 0.06552 -0.05733023 -0.1420904 0.07378256 -0.19540209 0.41007814
0.032674413 0.11542533 -0.33669123 -0.41626927 -0.59362257 -0.14253807 -0.2318011 0.055787828
-0.35544372 -0.13655873 -0.11887408 0.63071305 -0.14538306 -0.043262873 0.05568306 -0.15739013
0.7568873 -0.38322103 -0.3626537 -0.16063313 0.18552002 -0.35880122 0.39082825 -0.46123677
0.057124715 -0.35973498 -0.33864498 0.26031524 0.28859618 -0.6182469 -0.06426008 -0.60859936
-0.038786467 0.094246015 -0.21795426 -0.111382216 0.36531776 -0.011155653 -0.48737353 0.07069042
-0.48530588 -0.060030933 -0.1489047 0.3603549 -0.23045291 -0.06708934 0.4380456 -0.22650541
