src/Photosynthesis/RL/SavedModels/model_24.pth (torch, 30290 bytes, 34 tensors)

player_tree_1.W.weight f4 [12, 12]
0	0x3eb392bc	0.35072887
1	0xbeed2c6e	-0.4632296
2	0x3e990997	0.2989013
3	0xbe3ff014	-0.18743926
4	0x3e97a613	0.29618892
5	0xbe1ec09d	-0.15503164
6	0xbe146e55	-0.14495213
7	0x3de47c5c	0.11156532
8	0x3f08da7a	0.5345837
9	0xbe4f2a34	-0.20230943
10	0x39ae830e	0.0003328551
11	0x3d6ba6e1	0.057532195
12	0x3dafa035	0.08575479
13	0x3def4c76	0.11684506
14	0x3e8a5627	0.27018854
15	0xbdd63c30	-0.104606986
16	0x3e26596c	0.16245049
17	0xbf1fbf5a	-0.62401354
18	0xbe2eb882	-0.17062572
19	0xbe459f37	-0.19299017
20	0x3eb58f61	0.35460952
21	0x3ddbea5e	0.10738061
22	0x3f0cf619	0.55063015
23	0x3eac9ead	0.3371481
24	0xbddc20bf	-0.10748433
25	0x3e203439	0.15644921
26	0xbf0786af	-0.52939886
27	0x3e0a759b	0.13521425
28	0x3eb07f9e	0.34472364
29	0x3e870fde	0.26379293
30	0xbd693081	-0.056931023
31	0xbef462da	-0.47731668
32	0x3ee8657b	0.45389923
33	0x3dca47e6	0.09876995
34	0xbea08b48	-0.31356263
35	0xbde266cc	-0.11054763
36	0xbdda7cef	-0.106683604
37	0x3e491e46	0.19640455
38	0xbc33af0e	-0.010967029
39	0x3be6f170	0.0070478246
40	0x3d802d67	0.0625866
41	0xbeac0938	-0.33600783
42	0xbe4e6f07	-0.20159541
43	0xbed7065b	-0.41997036
44	0xbeab9647	-0.3351309
45	0x3e4f2e3b	0.2023248
46	0xbe8f6dca	-0.2801345
47	0x3e831930	0.25605154
48	0xbe698493	-0.2280448
49	0xbcb78618	-0.022402808
50	0xbd90b1d0	-0.07065165
51	0x3d6593f6	0.05604931
52	0x3ddb95bd	0.1072192
53	0x3e45ce43	0.19316964
54	0xbed58c52	-0.41708618
55	0x3e9d373d	0.30706206
56	0xbe882eae	-0.26598114
57	0x3da7c7d1	0.08192409
58	0x3d5cc682	0.05390025
59	0x3f2c408d	0.67285997
60	0x3e5a332c	0.21308583
61	0x3e9a3d9d	0.30125132
62	0x3edb8206	0.42872638
63	0xbdedff66	-0.11620979
64	0x3e1d4ddc	0.15361732
65	0x3ef2b01a	0.4739998
66	0x3e1d79f2	0.1537855
67	0x3e0e00c8	0.13867486
68	0x3e1dc46e	0.15406963
69	0x3f6fdbaa	0.93694556
70	0xbe04fe8a	-0.12987724
71	0x3e7ced55	0.2469991
72	0xbe2d9a52	-0.169534
73	0x3e450dca	0.19243541
74	0x3f08ff76	0.535148
75	0x3e4d9f15	0.20080216
76	0xbe6e51b0	-0.23273349
77	0xbe1be15b	-0.15222685
78	0xbb95f452	-0.0045762444
79	0x3e970b54	0.2950083
80	0xbe4fbd76	-0.20287117
81	0xbe9ddc7f	-0.30832288
82	0xbc8010d7	-0.01563303
83	0xbd161c2c	-0.03664796
84	0x3e6ff21f	0.23432206
85	0x3d49907d	0.04921006
86	0xbe428080	-0.18994331
87	0xbd91f1a9	-0.07126171
88	0x3e42f5d3	0.19039087
89	0xbe04b7b8	-0.12960708
90	0xbf0c9709	-0.5491796
91	0xbc81d65f	-0.01584929
92	0xbe4b0e47	-0.19829665
93	0x3e862fed	0.2620844
94	0xbe5e48f0	-0.21707511
95	0x3f03f8ea	0.5155169
96	0x3e99b93b	0.30024132
97	0xbeb286ac	-0.3486837
98	0xbf686a4f	-0.90787214
99	0x3c6c4924	0.014421735
100	0xbe9741ea	-0.29542476
101	0xbe0dfdd3	-0.13866358
102	0xbed82bf6	-0.4222104
103	0xbe1c00da	-0.152347
104	0x3e9eb9b2	0.3100105
105	0x3e05d8e4	0.13071018
106	0xbed110ff	-0.4083328
107	0xbdd3fc7b	-0.10350891
108	0x39d86e34	0.00041280838
109	0x3e238e20	0.15972185
110	0xbe79f30f	-0.24409126
111	0xbd54732b	-0.051867645
112	0x3e1c2846	0.15249738
113	0x3e46f518	0.19429433
114	0xbeedc4d4	-0.4643923
115	0xbdd293cc	-0.10282096
116	0xbef7143d	-0.48257628
117	0xbe1f7da4	-0.15575272
118	0xbe5b47a1	-0.21414043
119	0x3e363858	0.17794931
120	0x3f56ca23	0.83902186
121	0xbd59d6e7	-0.053183462
122	0xbe2e67e5	-0.1703182
123	0x3c64d6ed	0.013967258
124	0x3ee51c36	0.44748086
125	0x3edb5bdf	0.4284353
126	0xbe66646b	-0.22499244
127	0x3cc46f6e	0.023978915
128	0x3de0e7c5	0.109817065
129	0xbed9a1d5	-0.4250628
130	0xbed6d8cf	-0.41962287
131	0x3e2c9c77	0.16856562
132	0x3daffa69	0.08592684
133	0xbedcd129	-0.43128327
134	0x3dfa4e3b	0.122219525
135	0xbe924b77	-0.285732
136	0x3e1c97d7	0.15292297
137	0xbe2cc7d9	-0.16873111
138	0x3df4e235	0.11957208
139	0xbe5763bf	-0.21034144
140	0xbf1a483d	-0.60266477
141	0xbf1904f1	-0.59773165
142	0xbdee58ff	-0.116380684
143	0xbcb0dc0a	-0.021589298

player_tree_1.W.bias f4 [12]
0	0xbb565a02	-0.0032707457
1	0x3d0e7ce7	0.034787085
2	0x3cff5275	0.031167248
3	0xbdb88b34	-0.09010926
4	0x3d089556	0.033345543
5	0xbc063e58	-0.008193575
6	0xbcdd9c9c	-0.027052216
7	0x3d05ff49	0.032714162
8	0xbbc8c342	-0.006126792
9	0x3d95bc9a	0.073113635
10	0xbccb4ad1	-0.024815949
11	0x3d2f9a34	0.04287167

player_tree_1.W_self.weight f4 [12, 12]
0	0x3d7e5633	0.062093925
1	0x3efa7dd2	0.48924118
2	0x3d830b77	0.06398671
3	0xbebcbc63	-0.36862478
4	0x3bd6df18	0.0065573566
5	0xbdeb4eec	-0.114896625
6	0x3e86104a	0.26184303
7	0x3dc3791a	0.09544583
8	0x3f023790	0.5086603
9	0xbda7797b	-0.081774674
10	0xbeb5ff92	-0.35546547
11	0xbd986c5a	-0.074425414
12	0xbe19f5d4	-0.15035182
13	0x3ec999db	0.39375195
14	0x3dfb65e3	0.12275293
15	0xbe999545	-0.29996696
16	0x3d285568	0.041097075
17	0xbe62cf58	-0.22149408
18	0x3eb6b90b	0.35688052
19	0x3d8f7180	0.0700407
20	0x3e40c8a5	0.1882654
21	0x3f24b50d	0.6433876
22	0x3e4bcf2c	0.19903249
23	0x3e04ed7f	0.12981223
24	0xbd6475ca	-0.055776395
25	0x3e9f6aef	0.3113627
26	0xbcdfb637	-0.027308566
27	0x3e356a6a	0.17716375
28	0x3e1dec3f	0.15422152
29	0x3d53cece	0.051710896
30	0x3d50de07	0.05099299
31	0xbedcb3f8	-0.43106055
32	0xbf07aedd	-0.53001195
33	0x3ead3823	0.3383189
34	0x3e6e774b	0.23287694
35	0x3e72c391	0.23707415
36	0xbf03d6f8	-0.5149989
37	0x3de89f9f	0.1135857
38	0x3eca5ba2	0.39523035
39	0xbf040420	-0.51568794
40	0x3e96584b	0.29364237
41	0x3e20d8ab	0.15707652
42	0x3de8ac11	0.11360944
43	0xbf5f5696	-0.87241495
44	0x3dc60a4a	0.09669931
45	0xbdc0dd71	-0.094172366
46	0x3db8ecd3	0.09029546
47	0x3d136394	0.035983637
48	0xbe130db9	-0.14360704
49	0xbe5606b8	-0.20901
50	0x3e84b1ed	0.25916997
51	0xbd86bd51	-0.06579078
52	0x3e8c32da	0.27382547
53	0x3e584f1c	0.21123928
54	0x3e2fa47d	0.17152591
55	0xbea7c9c6	-0.32771128
56	0x3db4c6ae	0.08826958
57	0xbe4c50a2	-0.19952634
58	0xbed5104d	-0.41614
59	0x3be369e0	0.0069401115
60	0xbd748ef1	-0.059706632
61	0x3f06f855	0.52722675
62	0x3e1ab50b	0.15108125
63	0x3ee64126	0.4497158
64	0xbe44fa2e	-0.19236061
65	0x3e82f446	0.2557699
66	0xbd513012	-0.051071234
67	0x3d528359	0.051394794
68	0xbe882e43	-0.26597795
69	0xbe7b1b5c	-0.24522156
70	0x3ea20308	0.31642938
71	0xbe5a665e	-0.21328112
72	0x3dc6491f	0.096819155
73	0x3e09c28b	0.13453119
74	0x3f1c8d29	0.61152893
75	0x3f050cdb	0.5197274
76	0x3e128932	0.14310148
77	0x3eda708b	0.42663988
78	0xbdae06a6	-0.08497362
79	0xbf1a4108	-0.6025548
80	0x3dc3bfb4	0.09558049
81	0xbcf0bafc	-0.029386036
82	0xbf19e6dc	-0.6011789
83	0xbe1342a5	-0.14380892
84	0x3aba1ac9	0.0014198656
85	0x3d2a750e	0.04161554
86	0x3e38620a	0.18006149
87	0x3e882ce2	0.26596743
88	0xbe9d1f2b	-0.30687842
89	0x3efb4078	0.49072623
90	0xbf0c6372	-0.5483924
91	0x3e1810b5	0.14850123
92	0x3dc90f71	0.09817398
93	0x3e7c03c2	0.24610808
94	0x3e12a0d2	0.1431916
95	0x3eae0054	0.33984625
96	0x3ed72b81	0.42025378
97	0xbef493d3	-0.4776903
98	0xbf3c992c	-0.7367122
99	0x3ef27e9f	0.4736223
100	0x3ed5df0e	0.4177174
101	0xbebebbe9	-0.3725274
102	0xbdb92a16	-0.090412304
103	0x3e903f0c	0.281731
104	0xbd9bb1f6	-0.07602303
105	0x3efc8a46	0.49324244
106	0x3ea79bca	0.32736045
107	0xbd1ad998	-0.03780517
108	0xbede8f01	-0.43468478
109	0xbe55cb10	-0.20878243
110	0x3e1e8412	0.15480068
111	0x3ef237ef	0.473083
112	0x3e58117e	0.21100423
113	0x3eb2c855	0.34918466
114	0x3efb356b	0.49064192
115	0x3e3d89ec	0.18509644
116	0x3e801865	0.25018612
117	0x3d75c51f	0.060002442
118	0xbe776997	-0.24161373
119	0xbeb41538	-0.3517244
120	0x3e92d742	0.28679854
121	0xbe00b0f5	-0.12567504
122	0x3e86d462	0.2633391
123	0xbb5fea70	-0.0034166835
124	0xbef5e2f1	-0.48024705
125	0x3ecdd56f	0.402019
126	0x3c6a0503	0.014283421
127	0x3dae9619	0.085247226
128	0xbe7d5960	-0.24741125
129	0x3eb3348d	0.3500103
130	0xbc834b58	-0.016027138
131	0xbe44aec6	-0.19207296
132	0x3ddcdf36	0.107847616
133	0x3eef33bd	0.4671916
134	0xbec6f59d	-0.38859263
135	0x3ea4d0e6	0.32190627
136	0xbe9eb110	-0.30994463
137	0x3edfab29	0.43685272
138	0xbea5c950	-0.32380152
139	0xbdf91c62	-0.12163617
140	0x3e7432d5	0.23847516
141	0xbdccf122	-0.1000693
142	0xbe1ff014	-0.15618926
143	0xbf084df2	-0.53243935

player_tree_1.W_self.bias f4 [12]
0	0xbb565a02	-0.0032707457
1	0x3d0e7ce7	0.034787085
2	0x3cff5275	0.031167248
3	0xbdb88b34	-0.09010926
4	0x3d089556	0.033345543
5	0xbc063e58	-0.008193575
6	0xbcdd9c9c	-0.027052216
7	0x3d05ff49	0.032714162
8	0xbbc8c342	-0.006126792
9	0x3d95bc9a	0.073113635
10	0xbccb4ad1	-0.024815949
11	0x3d2f9a34	0.04287167

player_tree_2.W.weight f4 [12, 12]
0	0x3e49e39f	0.19715737
1	0xbeaa12c6	-0.33217448
2	0xbf3a468f	-0.72763914
3	0xbc74d47c	-0.014943238
4	0xbdab90ed	-0.08377252
5	0xbeb9ec64	-0.36313164
6	0x3ec3be46	0.38231105
7	0x3d68bd29	0.056821022
8	0x3ea8bad9	0.32955053
9	0xbe2c8091	-0.16845919
10	0xbe56ae25	-0.20964868
11	0xbf2f6af8	-0.68522596
12	0xbf0feafb	-0.56217927
13	0xbeb2d842	-0.34930617
14	0xbd08be60	-0.03338468
15	0x3ec9992c	0.39374673
16	0x3e87191a	0.26386338
17	0x3e3f5151	0.18683363
18	0x3e8b7e3a	0.2724474
19	0x3dce5f66	0.100767896
20	0xbf03e9ec	-0.5152881
21	0x3e1b54e6	0.15169105
22	0xbed48bdb	-0.4151295
23	0xbc99bba2	-0.018766228
24	0x3f4a30ba	0.789806
25	0xbebd9bab	-0.37032828
26	0x3f2145e7	0.6299729
27	0xbcfb0210	-0.030640632
28	0x3edce5a4	0.43143952
29	0x3d2ebd36	0.042660914
30	0xbeb56226	-0.35426444
31	0xbdd4d02d	-0.10391269
32	0xbe24b3bf	-0.16084193
33	0x3ec283e5	0.37991253
34	0xbf1b94bd	-0.6077383
35	0xbea589fa	-0.3233183
36	0xbcb80c81	-0.0224669
37	0xbe0d298b	-0.13785379
38	0xbb6ff318	-0.00366134
39	0xbe97d5ff	-0.29655454
40	0x3e81003b	0.25195488
41	0xbbeab0c4	-0.0071621854
42	0x3d93801b	0.072021686
43	0xbe6a9115	-0.22906907
44	0x3dc75a63	0.09734037
45	0xbd69021f	-0.05688679
46	0xbe00a940	-0.12564564
47	0x3dd0d37d	0.10196588
48	0xbe03d0eb	-0.12872665
49	0xbd9c635b	-0.07636138
50	0xbeee3cf7	-0.46530887
51	0xbebc7bab	-0.368131
52	0xbd1bebd4	-0.0380667
53	0xbd82402d	-0.06359897
54	0x3db5437d	0.08850763
55	0x3e63edb0	0.2225864
56	0x3d792e5a	0.06083522
57	0x3dbdbd89	0.092646666
58	0x3e0c1d85	0.13683136
59	0x3e2cfd7c	0.16893572
60	0x3ebaaab6	0.36458367
61	0x3e4915bf	0.19637202
62	0x3e75fab0	0.24021411
63	0x3ddfe280	0.10931873
64	0x3e089055	0.13336308
65	0xbde1e534	-0.11030045
66	0xbdaf9c20	-0.085747
67	0xbe973653	-0.29533634
68	0x3ed78a76	0.42097825
69	0xbbf90b13	-0.007600197
70	0xbf1e8607	-0.6192326
71	0xbe844333	-0.2583252
72	0xbe0e61a2	-0.13904431
73	0xbe598f7a	-0.21246138
74	0xbf0f1bab	-0.5590159
75	0x3ed4c67b	0.4155768
76	0x3c21832b	0.009857933
77	0x3df943f2	0.12171163
78	0x3d5d61a1	0.054048184
79	0x3e148060	0.14502096
80	0x3d00d5dd	0.031453956
81	0xbcf6b17f	-0.030113934
82	0xbf0f3f33	-0.5595581
83	0x3c74efdc	0.014949765
84	0x3eb4fe60	0.35350323
85	0xbe661c54	-0.22471744
86	0xbde32fb5	-0.11093084
87	0x3d89b2ac	0.06723532
88	0x3e9b167d	0.30290595
89	0xbe81fbef	-0.25387523
90	0x3e4640b9	0.19360627
91	0xbeaa6f88	-0.33288217
92	0x3ee06feb	0.43835387
93	0xbe0da321	-0.1383176
94	0x3d5e52b5	0.054278094
95	0xbf3eed34	-0.74580693
96	0xbf05aa0d	-0.522126
97	0xbd458f27	-0.048232224
98	0x3de3c014	0.1112062
99	0x3e78ae7c	0.2428531
100	0x3f0a113e	0.5393256
101	0x3e90e7ca	0.2830184
102	0x3ea3846b	0.31936964
103	0x3df3bd5a	0.1190135
104	0x3e575532	0.21028593
105	0xbda0f354	-0.07858911
106	0xbd82dae8	-0.06389409
107	0xbdb604e4	-0.088876516
108	0xbefb1d79	-0.49045923
109	0x3ec5b83d	0.38617125
110	0xbe1ef869	-0.15524448
111	0x3e79f4c8	0.24409783
112	0x3eaa1bac	0.33224237
113	0xbf22233a	-0.63335
114	0xbf192a30	-0.5983
115	0xbda7e59f	-0.081980936
116	0xbd796e40	-0.06089616
117	0x3ee71dca	0.45139915
118	0x3c72b503	0.014813664
119	0x3ef3b054	0.47595465
120	0xbe1e7443	-0.15474038
121	0x3dcd5fa2	0.10028006
122	0xbe53e784	-0.20693785
123	0xbe519ce3	-0.20470004
124	0xbebe8498	-0.37210536
125	0xbe9ce359	-0.30642202
126	0xbf28f707	-0.66001934
127	0x3d457a3e	0.048212282
128	0x3c3ee9bc	0.011652406
129	0xbe5a238f	-0.21302627
130	0xbe66b36e	-0.22529384
131	0x3d8799b8	0.066211164
132	0x3e480417	0.1953281
133	0x3e65ae49	0.22429766
134	0xbe7ef204	-0.24897009
135	0xbe0d5e12	-0.13805416
136	0xbeaee08b	-0.34155688
137	0xbecbbe07	-0.39793417
138	0x3dfd68a2	0.12373473
139	0x3ed58646	0.41704005
140	0x3e6c4154	0.23071796
141	0xbc0d759d	-0.008633998
142	0xbec30d64	-0.38096154
143	0x3d0aa2b5	0.033846576

player_tree_2.W.bias f4 [12]
0	0xbd486d35	-0.048932273
1	0xbd80e898	-0.06294364
2	0x3dc7db32	0.09758605
3	0x3c7d87ce	0.015474273
4	0xbd213250	-0.039354622
5	0xbd974715	-0.07386605
6	0xbd119294	-0.03554018
7	0xbcd16d77	-0.025564892
8	0xbcd00c87	-0.025396599
9	0x3d02004e	0.03173857
10	0xbd1e2e9a	-0.03861866
11	0x3d834291	0.06409181

player_tree_2.W_self.weight f4 [12, 12]
0	0x3deb7aa5	0.11498002
1	0xbeb4cd29	-0.35312775
2	0x3e735d02	0.23765948
3	0x3f02f0d4	0.51148725
4	0xbf0209b7	-0.50796074
5	0xbf5a199f	-0.85195345
6	0x3db658bc	0.089036435
7	0xbe043edc	-0.12914604
8	0xbdb75c03	-0.08953097
9	0xbef86da9	-0.48521164
10	0x3ea049d4	0.31306326
11	0x3e796384	0.24354368
12	0x3ec38f20	0.38195133
13	0xbe01a9cc	-0.12662429
14	0xbe3db798	-0.18527067
15	0xbcb00555	-0.021486918
16	0xbe162ce8	-0.14665568
17	0xbeea4062	-0.45752245
18	0xbeab36a4	-0.33440125
19	0xbe1354d1	-0.14387824
20	0x3f262f70	0.64916134
21	0x3e751ffc	0.23937982
22	0x3d8215ea	0.06351836
23	0xbcecb75f	-0.028896032
24	0xbe5479ac	-0.20749539
25	0xbe808bd3	-0.25106677
26	0xbe426a18	-0.18985784
27	0xbeb42695	-0.35185686
28	0x3e962ebb	0.29332528
29	0xbe609137	-0.21930395
30	0xbeda0c18	-0.42587352
31	0x3e8b66c3	0.27226838
32	0xbdbabe84	-0.09118369
33	0x3d3f7a30	0.046747386
34	0xbe5b6612	-0.21425655
35	0xba4eade0	-0.0007884186
36	0xbd8b1496	-0.06791036
37	0x3d6fb470	0.058521688
38	0xbf87763b	-1.0582956
39	0x3e6df5f0	0.23238349
40	0x3e9a2216	0.3010413
41	0xbe58d5d6	-0.21175322
42	0x3f4333a5	0.7625068
43	0xbe948cf0	-0.29013777
44	0x3d7f9eec	0.06240742
45	0xbd7d949a	-0.061909296
46	0xbc073ed0	-0.008254722
47	0xbe406511	-0.18788554
48	0xbf001b70	-0.50041866
49	0xbddb5381	-0.107092865
50	0xbea94de2	-0.33067232
51	0x3e533c9e	0.20628592
52	0x3e9e62fd	0.30934897
53	0xbe3136c0	-0.17306042
54	0xbdc6ac8b	-0.09700879
55	0x3e0b0334	0.1357544
56	0x3d599a06	0.053125404
57	0x3ea075c6	0.31339854
58	0xbe677aa5	-0.22605379
59	0x3e8aaf7a	0.27087003
60	0xbecc15b1	-0.398603
61	0xbdd83417	-0.1055681
62	0xbe3c888e	-0.18411466
63	0xbeeaf04f	-0.45886466
64	0xbe24bef7	-0.16088472
65	0x3ecf1c60	0.40451336
66	0xbe2007fd	-0.15628047
67	0xbebb10a1	-0.36536124
68	0x3e7bf36c	0.24604577
69	0x3cb19926	0.021679472
70	0xbe44b5e9	-0.19210018
71	0xbed82a71	-0.4221988
72	0x3ed283c0	0.41116142
73	0xbd6256b2	-0.05525846
74	0x3e24ddae	0.16100189
75	0x3dd77ca5	0.10521821
76	0x3ea8e155	0.32984415
77	0x3eb42110	0.35181475
78	0x3ea5d4b8	0.32388854
79	0xbf207c1f	-0.62689394
80	0xbdfbfe12	-0.123043194
81	0x3e80489b	0.25055394
82	0xbdaaad07	-0.083337836
83	0xbe997d71	-0.29978517
84	0x3f160904	0.58607507
85	0xbdef52b6	-0.11685698
86	0x3ef7adcf	0.48374793
87	0xbd680b4d	-0.056651402
88	0xbe05cc4e	-0.13066217
89	0xbdde25b5	-0.10847036
90	0xbe99a6c0	-0.30010033
91	0x3e965142	0.2935887
92	0x3ecc0aae	0.39851898
93	0xbe37bcd8	-0.17943132
94	0x3edb2d46	0.42807978
95	0x3d037b89	0.032100234
96	0x3e87fc14	0.26559508
97	0x3ee207d6	0.44146603
98	0xbe4e3275	-0.20136435
99	0xbe83e36a	-0.2575944
100	0xbe0651bb	-0.13117115
101	0xbed66cee	-0.41879982
102	0xbf257fc6	-0.6464809
103	0xbdead378	-0.11466116
104	0xbd85734a	-0.0651613
105	0xbe6ce1c9	-0.23133005
106	0x3e5bd36a	0.21467367
107	0xbe9dc5cc	-0.3081497
108	0x3e9d8098	0.30762172
109	0x3f020230	0.5078459
110	0x3eb311a2	0.3497439
111	0xbdbf9b2d	-0.09355769
112	0x3f295035	0.6613801
113	0x3ec7e228	0.3903973
114	0x3ee27fa5	0.4423801
115	0x3ed48fd1	0.41515973
116	0x3e514b79	0.20438947
117	0x3f051778	0.51988935
118	0x3edf122a	0.43568546
119	0x3f10011f	0.5625171
120	0x3f0d388b	0.551644
121	0x3de3e893	0.111283444
122	0xbe908c02	-0.28231817
123	0xbee6d7ef	-0.4508662
124	0x3ee1ce95	0.44102922
125	0xbea56018	-0.32299876
126	0x3ed0a434	0.40750277
127	0xbd74b795	-0.05974539
128	0x3e0e22da	0.13880482
129	0xbdb61e9e	-0.088925585
130	0xbe8a5e61	-0.2702513
131	0xbe987267	-0.29774782
132	0x3d6c80e8	0.057740122
133	0x3dfe11ae	0.12405716
134	0x3c54f3c6	0.012997573
135	0xbd0ddadc	-0.03463255
136	0xbc9e3d0c	-0.019316219
137	0xbe24bf0e	-0.16088507
138	0xbe073bd3	-0.13206415
139	0xbee6a4db	-0.4504765
140	0xbd8f9fb3	-0.07012882
141	0x3c85abf8	0.016317353
142	0xbe37beb8	-0.17943847
143	0x3ead6082	0.33862692

player_tree_2.W_self.bias f4 [12]
0	0xbd486d35	-0.048932273
1	0xbd80e898	-0.06294364
2	0x3dc7db32	0.09758605
3	0x3c7d87ce	0.015474273
4	0xbd213250	-0.039354622
5	0xbd974715	-0.07386605
6	0xbd119294	-0.03554018
7	0xbcd16d77	-0.025564892
8	0xbcd00c87	-0.025396599
9	0x3d02004e	0.03173857
10	0xbd1e2e9a	-0.03861866
11	0x3d834291	0.06409181

player_tree_3.W.weight f4 [12, 12]
0	0xbebc1c6d	-0.36740437
1	0xbe350726	-0.17678508
2	0xbe2dea99	-0.16984023
3	0xbf51a3d0	-0.81890583
4	0x3edf93a6	0.43667334
5	0x3c069ca1	0.008216054
6	0xbe952e02	-0.29136664
7	0x3ea70659	0.3262203
8	0x3e730bec	0.23735017
9	0xbe54efb1	-0.2079456
10	0xbed4bbb8	-0.41549468
11	0xbd3d201b	-0.046173196
12	0xbeeaaf79	-0.45837
13	0xbec350a6	-0.38147467
14	0xbf547127	-0.82985157
15	0x3bbd63d7	0.005779724
16	0x3e68c775	0.22732337
17	0x3e053ac7	0.13010703
18	0xbe464584	-0.19362456
19	0x3e629c2b	0.22129886
20	0x3e19de00	0.15026093
21	0x3e50fe58	0.20409524
22	0xbe5ea4ca	-0.2174255
23	0xbe9ce84c	-0.30645978
24	0xbea56518	-0.3230369
25	0x3ee00c59	0.4375942
26	0xbd124fc6	-0.03572061
27	0x3dc5b29f	0.0965321
28	0x3e3ecc36	0.18632588
29	0xbe84e0ef	-0.2595286
30	0xbe6eeb85	-0.23332031
31	0xbe838fc5	-0.25695625
32	0xbdf5a3ba	-0.11994119
33	0x3e0b710d	0.13617344
34	0x3f0632a6	0.52421033
35	0x3d5ea680	0.054358006
36	0xbe1098a7	-0.14120732
37	0x3e777075	0.24163993
38	0xbed3c631	-0.41362146
39	0x3eee1e43	0.46507463
40	0xbe0cc4c5	-0.13746937
41	0xbec45a99	-0.3835037
42	0xbe5e12a9	-0.21686806
43	0xbdb5e49f	-0.08881497
44	0xbdc67bb2	-0.09691562
45	0xbe0e9fca	-0.13928142
46	0xbe391086	-0.1807271
47	0xbf02cf38	-0.5109744
48	0x3e3ac509	0.18239225
49	0x3eb21444	0.34781086
50	0xbe82bbcd	-0.25533906
51	0xbf3a6480	-0.728096
52	0x3e8d6deb	0.27622923
53	0x3e1ec324	0.15504128
54	0x3e12d99d	0.14340825
55	0xbc520c9a	-0.012820387
56	0x3d8a1826	0.06742887
57	0xbe2e3cd5	-0.17015393
58	0x3f04be69	0.5185304
59	0x3d9e30a6	0.07724123
60	0x3de06382	0.109564796
61	0x3d9e0e63	0.07717588
62	0x3ef56c75	0.4793431
63	0x3e6d07e0	0.23147535
64	0x3f0e0d5a	0.5548912
65	0x3e23b779	0.15987958
66	0x3f2fdc23	0.68695277
67	0xbedd2bfe	-0.43197626
68	0x3de239d9	0.1104619
69	0x3dd9818e	0.10620414
70	0xbe1423a0	-0.14466715
71	0x3e9d7770	0.30755186
72	0xbdea818f	-0.114504926
73	0xbd053098	-0.032517046
74	0xbe7071bb	-0.23480885
75	0xbe704913	-0.23465376
76	0xbdedbc27	-0.11608153
77	0x3e753fa4	0.23950058
78	0xbe0dad82	-0.13835719
79	0x3ce53eee	0.027984109
80	0xbe235026	-0.15948543
81	0x3e42c0cf	0.19018863
82	0x3e1090ad	0.1411769
83	0x3eb36e58	0.35045123
84	0x3ef9cbdb	0.48788342
85	0x3eac47d3	0.33648548
86	0x3f3983d4	0.7246678
87	0xbf4285f0	-0.7598562
88	0xbdda932e	-0.106726035
89	0xbe44c83b	-0.19217007
90	0x3d82aeb6	0.0638098
91	0xbee1db7d	-0.4411277
92	0xbecce55c	-0.40018737
93	0x3ece9f14	0.40355742
94	0xbd9d97bc	-0.07694957
95	0x3e8df85f	0.27728555
96	0xbea22a52	-0.31672913
97	0xbeefa6f4	-0.46807063
98	0x3df6d94b	0.12053164
99	0xbd39bad3	-0.045344185
100	0x3d9b40ac	0.075806946
101	0xbd83bfeb	-0.0643309
102	0x3e8d744d	0.27627793
103	0xbecab182	-0.39588553
104	0x3e5dd86e	0.21664593
105	0xbd2c8dee	-0.042127542
106	0xbe3eb836	-0.18624958
107	0x3f0f96b6	0.5608934
108	0x3e0fa493	0.14027624
109	0xbebbe930	-0.36701345
110	0xbe535800	-0.20639038
111	0x3d4ac302	0.04950238
112	0x3e32e96a	0.17471853
113	0xbe7139bb	-0.23557179
114	0x3d21e21d	0.03952228
115	0x3eda5065	0.4263946
116	0xbe076982	-0.13223842
117	0xbeb0b188	-0.34510446
118	0x3ec82680	0.39091873
119	0x3bce004b	0.006286656
120	0x3eb056b2	0.34441143
121	0xbf1c4c6e	-0.6105412
122	0x3e0a14d4	0.13484508
123	0x3de8863e	0.1135373
124	0xbe44de30	-0.19225383
125	0xbc5d13de	-0.013493506
126	0xbe77ffc1	-0.24218656
127	0x3ed91ba9	0.42403916
128	0xbc7008ec	-0.014650565
129	0xbeb5ba67	-0.35493776
130	0xbdb0533a	-0.08609624
131	0xbe748469	-0.23878635
132	0xbd991513	-0.07474723
133	0x3da2873e	0.07935952
134	0x3e168f20	0.14703035
135	0x3ec2b7bd	0.38030806
136	0x3d090363	0.033450495
137	0xbc033ed3	-0.008010584
138	0xbd6b83dd	-0.0574988
139	0xbcb1d08c	-0.021705888
140	0xbe2910f1	-0.16510369
141	0xbed4975d	-0.4152173
142	0xbe0d662e	-0.1380851
143	0x3e9121a6	0.28345984

player_tree_3.W.bias f4 [12]
0	0xbd1a53cc	-0.03767757
1	0xbcb23788	-0.021754995
2	0xbcf82f65	-0.030296037
3	0xbd3914c0	-0.045185804
4	0xbcf3a9ae	-0.029743996
5	0xbcafd40f	-0.021463422
6	0xbc3ef4f2	-0.011655079
7	0x3d4c18d7	0.049828377
8	0xbd3c0a39	-0.045908187
9	0x39972daa	0.00028834987
10	0x3b698fdc	0.0035638725
11	0x3d2c85eb	0.0421199

player_tree_3.W_self.weight f4 [12, 12]
0	0x3dd14831	0.102188475
1	0xbe3c4f4a	-0.18389621
2	0x3f0b4dcc	0.54415584
3	0xbf569477	-0.8382029
4	0xbefd6a6d	-0.4949526
5	0xbdc37e07	-0.09545522
6	0x3d91e875	0.07124416
7	0xbed7dbb3	-0.42159805
8	0x3e226e89	0.15862478
9	0xbe85567b	-0.26042542
10	0x3e81da90	0.25362062
11	0xbeb57f64	-0.35448754
12	0xbd3f03ac	-0.04663436
13	0x3eaf963d	0.3429431
14	0xbf098df1	-0.5373221
15	0x3e0c40f2	0.1369665
16	0xbe2799fc	-0.16367334
17	0x3e507557	0.20357262
18	0x3d774be2	0.060375102
19	0xbd083bac	-0.033260033
20	0x3f582e92	0.8444606
21	0xbcd53aa5	-0.02602894
22	0xbed592d7	-0.41713592
23	0xbcd22903	-0.025654322
24	0xbb696324	-0.003561207
25	0xbc99fa7c	-0.018796198
26	0xbe3d4783	-0.18484311
27	0xbe09d02f	-0.13458322
28	0xbef42423	-0.4768382
29	0xbe13a71d	-0.14419217
30	0xbeb9d7dd	-0.36297503
31	0xbef90d80	-0.48643112
32	0xbf0de2d0	-0.55424213
33	0x3eb72d10	0.35776567
34	0xbea074bd	-0.31339064
35	0x3e40c46e	0.18824932
36	0xbe05a370	-0.13050628
37	0x3e90034a	0.2812751
38	0x3deb6003	0.11492922
39	0x3e5eecf3	0.21770076
40	0xbf15b74e	-0.58482826
41	0xbe864ea0	-0.2623186
42	0x3cb8ac19	0.022543
43	0xbed8915a	-0.42298394
44	0xbe1bad3e	-0.15202805
45	0xbef73efa	-0.48290235
46	0x3e53b7cd	0.20675583
47	0x3e8c2962	0.27375323
48	0xbee93fd2	-0.45556504
49	0x3edf0f38	0.43566298
50	0xbe81327d	-0.25233832
51	0xbef30982	-0.4746819
52	0xbd858bdb	-0.06520816
53	0xbcf7b065	-0.030235479
54	0xbc973537	-0.018457992
55	0xbd8eac66	-0.06966476
56	0xbe891baf	-0.26778933
57	0xbe1ee3ee	-0.15516636
58	0xbdb564f1	-0.08857144
59	0x3dd0a838	0.10188335
60	0x3ea64c58	0.3248012
61	0x3b76ddfb	0.0037668932
62	0xbd082269	-0.03323594
63	0x3f004ca9	0.50116974
64	0x3eefe76c	0.46856248
65	0x3dc835c6	0.097758815
66	0x3e8b3597	0.27189323
67	0x3e27801d	0.16357465
68	0x3ebb744c	0.36612165
69	0x3e22fbd3	0.15916376
70	0x3d8b2d56	0.067957565
71	0xbf19f465	-0.6013854
72	0x3efba5ac	0.49149835
73	0xbe578cfe	-0.21049878
74	0x3eadccb0	0.33945227
75	0xb94cb766	-0.00019523277
76	0x3e95c8de	0.29254812
77	0xbe9fbfd6	-0.31201047
78	0x3ee45d46	0.44602412
79	0x3d3e9607	0.046529796
80	0xbd90f05e	-0.070770964
81	0x3f414c7d	0.75507337
82	0x3ef391e0	0.4757223
83	0x3efd7379	0.4950216
84	0x3cbbdbf8	0.022932038
85	0x3e93dbad	0.28878537
86	0x3ed09b79	0.40743616
87	0x3d3639ec	0.044488832
88	0x3f1fa78d	0.6236504
89	0xbd37c39e	-0.04486429
90	0xbe0128e6	-0.12613258
91	0xbf03d5b4	-0.5149796
92	0x3eb28320	0.34865665
93	0xbe7059bd	-0.23471732
94	0x3eb508b5	0.35358205
95	0xbdd30c96	-0.10305135
96	0x3f35a283	0.709511
97	0xbe894c89	-0.26816204
98	0xbe4efc8f	-0.20213531
99	0x3dcdaad9	0.10042352
100	0xbd0a2876	-0.033729993
101	0x3ec06196	0.37574452
102	0x3d182d4d	0.037152577
103	0xbe267aa3	-0.1625772
104	0xbef35c77	-0.47531483
105	0x3e19c08e	0.1501486
106	0xbe8ba910	-0.27277422
107	0x3eb8d872	0.36102635
108	0x3e70e03d	0.2352304
109	0x3eecc49c	0.4624375
110	0xbde03e27	-0.109493546
111	0xbf139ed0	-0.57664204
112	0xbe08cd5a	-0.13359585
113	0xbea616a6	-0.32439154
114	0xbf2caef9	-0.6745449
115	0x3e96969d	0.29411784
116	0xbe2d2c27	-0.16911374
117	0x3ccface4	0.025350995
118	0x3e6d9e70	0.2320497
119	0xbc49e475	-0.012322535
120	0xbec64430	-0.38723898
121	0xbf134cf4	-0.57539296
122	0xbe51a133	-0.20471649
123	0x3ec4e09c	0.38452613
124	0xbe4b28f8	-0.19839847
125	0xbe4bce92	-0.19903019
126	0x3d8eb9c7	0.06969028
127	0xbe682c12	-0.22673061
128	0x3e567dfe	0.209465
129	0x3ebef892	0.3729902
130	0xbecb29dd	-0.39680377
131	0xbeb1c8bd	-0.34723464
132	0xbeb9b82f	-0.36273333
133	0xbdf00fd7	-0.11721771
134	0x3e4df867	0.20114289
135	0x3c01a979	0.007913941
136	0x3db7a05d	0.08966134
137	0xbeecbc3e	-0.46237367
138	0x3e080585	0.13283356
139	0x3ecb00cf	0.39649054
140	0x3d00bdcf	0.031431016
141	0x3e9c3702	0.30510718
142	0x3e9b96ba	0.30388433
143	0x3e26ec2c	0.1630103

player_tree_3.W_self.bias f4 [12]
0	0xbd1a53cc	-0.03767757
1	0xbcb23788	-0.021754995
2	0xbcf82f65	-0.030296037
3	0xbd3914c0	-0.045185804
4	0xbcf3a9ae	-0.029743996
5	0xbcafd40f	-0.021463422
6	0xbc3ef4f2	-0.011655079
7	0x3d4c18d7	0.049828377
8	0xbd3c0a39	-0.045908187
9	0x39972daa	0.00028834987
10	0x3b698fdc	0.0035638725
11	0x3d2c85eb	0.0421199

player_tree_4.weight f4 [8, 12]
0	0xbe352fe6	-0.17694053
1	0xbf18c4c6	-0.5967525
2	0x3eff5527	0.49869654
3	0x3baa43a0	0.00519605
4	0xbeba441e	-0.36380094
5	0xbe4e33bf	-0.20136927
6	0xbe31513e	-0.17316148
7	0x3f1ce7da	0.6129128
8	0xbe0b4424	-0.13600212
9	0xbed38d3f	-0.413187
10	0x3d993d4a	0.07482393
11	0xbf048f85	-0.51781493
12	0xbce368a8	-0.027759865
13	0xbda185cf	-0.0788685
14	0xbe279af8	-0.1636771
15	0x3ea15282	0.3150826
16	0x3dd7cd27	0.105371766
17	0xbf2a5e7d	-0.6655043
18	0xbf4997eb	-0.78747433
19	0xbe53ef9d	-0.20696874
20	0xbea3218c	-0.31861532
21	0x3e7c3493	0.2462943
22	0xbe20c7dc	-0.1570124
23	0xbdcb0582	-0.0991316
24	0xbea6fadc	-0.32613266
25	0xbeb5fc3a	-0.35543996
26	0x3db9cbb3	0.09072056
27	0xbc94f1a8	-0.018181637
28	0x3ea1c360	0.31594372
29	0xbf011f28	-0.50438166
30	0xbe5cf780	-0.21578789
31	0xbf1e596b	-0.6185519
32	0x3e6cc012	0.23120144
33	0xbf050f30	-0.519763
34	0x3edd751b	0.43253407
35	0x3afffee1	0.0019530916
36	0x3e2a20e1	0.16614105
37	0x3e3b6937	0.18301855
38	0x3e86f89f	0.26361558
39	0x3dfb3cc9	0.12267453
40	0xbeadcce4	-0.33945382
41	0xbd87a774	-0.06623736
42	0x3f2c113f	0.67213815
43	0x3ef3b642	0.4759999
44	0xbd1b9589	-0.037984405
45	0x3f0ce741	0.55040365
46	0xbddc66a5	-0.107617654
47	0xbc330d92	-0.010928528
48	0xbe98112f	-0.2970061
49	0x3e63beec	0.222408
50	0xbdd5e9c6	-0.10444979
51	0x3df96df2	0.121791735
52	0x3f0c82e7	0.5488724
53	0xbe356ebc	-0.17718023
54	0xbcb4b19d	-0.022057349
55	0x3e1c461d	0.15261121
56	0x3eb10026	0.34570426
57	0x3ded97f4	0.116012484
58	0xbf5a4e21	-0.85275465
59	0xbedcd39e	-0.431302
60	0xbe9eb480	-0.30997086
61	0xbe421ad5	-0.18955548
62	0xbea9e1e0	-0.3318014
63	0xbe0638f1	-0.13107659
64	0x3ec24c7f	0.37948987
65	0xbe96f05a	-0.2948025
66	0xbec9ecc9	-0.39438465
67	0x3e99b1fe	0.3001861
68	0x3d0d20c3	0.034455072
69	0x3e0701f7	0.13184343
70	0x3eb43a60	0.35200787
71	0x3dde4b0c	0.10854158
72	0xbe86bbdf	-0.2631521
73	0x3c441285	0.011967306
74	0x3ef07af6	0.46968812
75	0xbdfd4007	-0.12365728
76	0xbdeef9e8	-0.116687596
77	0xbf671666	-0.9026855
78	0x3f242aac	0.6412761
79	0x3e9d01e5	0.30665508
80	0x3e182949	0.14859499
81	0xbeb307d5	-0.34966913
82	0xbd68bb49	-0.056819234
83	0xbd01861b	-0.031622034
84	0x3e06bb57	0.13157402
85	0xbf28aab1	-0.65885454
86	0xbddc1a79	-0.10747237
87	0x3d9e1005	0.07717899
88	0x3efb20e8	0.49048543
89	0xbcd7dcb9	-0.026350366
90	0xbd14ee62	-0.036360152
91	0x3dd1640f	0.10224163
92	0xbcf3a530	-0.029741853
93	0x3e5db34d	0.21650429
94	0x3e4eaea8	0.20183814
95	0x3ee84c6e	0.4537081

player_tree_4.bias f4 [8]
0	0x3d3f707f	0.046738144
1	0x3d45383a	0.048149325
2	0xbcabd69f	-0.020976363
3	0xbd7d4e53	-0.061842274
4	0x3c9ba1ab	0.018997988
5	0x3cfd74c3	0.030939465
6	0x3d05bdf3	0.032651853
7	0xbcda585c	-0.026653461

sun_influence_1.W.weight f4 [12, 12]
0	0x3ec423b3	0.38308486
1	0xbe2bcde4	-0.1677776
2	0x3db70e91	0.08938325
3	0x3f8032e6	1.0015533
4	0x3d394319	0.045230005
5	0x3eea4227	0.45753595
6	0x3ebda2a5	0.3703815
7	0x3eee4d14	0.4654318
8	0xbe92cfe1	-0.28674224
9	0x3d7558a8	0.059899002
10	0x3d20052f	0.039067443
11	0x3d4b448b	0.049625915
12	0xbe0677ae	-0.13131592
13	0x3f0694d5	0.5257085
14	0x3e1b033d	0.15137954
15	0xbd738d14	-0.059460714
16	0xbd309b2c	-0.043116733
17	0x3e7a1eba	0.24425784
18	0xbe888c99	-0.26669767
19	0xbd432580	-0.047643185
20	0x3e2b00e6	0.16699561
21	0xbccca001	-0.02497864
22	0x3ed6c579	0.41947535
23	0x3e9f5e1a	0.3112648
24	0xbdd9c660	-0.1063354
25	0xbeac53e6	-0.3365776
26	0x3d9ed4e8	0.077554524
27	0x3e434beb	0.19071929
28	0xbed4f619	-0.41594008
29	0x3e2eb57a	0.17061415
30	0xbe9bbcd0	-0.3041749
31	0xbe43cc96	-0.19121012
32	0xbf08d6f6	-0.53453004
33	0xbeb4fbfc	-0.353485
34	0xbe7c66df	-0.24648617
35	0xbe508f28	-0.2036711
36	0x3cfc0b4f	0.030767111
37	0x3ca6d834	0.020366766
38	0xbe0a5691	-0.13509585
39	0xbcf9f3fa	-0.030511845
40	0x3e61643a	0.2201089
41	0xbedd8c48	-0.4327109
42	0x3ee2d1cf	0.44300696
43	0x3f15db46	0.5853771
44	0x3d767bb6	0.060176574
45	0xbe8df3b8	-0.27725005
46	0xbe48e69f	-0.19619225
47	0x3ddff7a2	0.10935904
48	0x3e1bd05d	0.15216203
49	0xbd9687db	-0.07350131
50	0x3eb6e337	0.35720226
51	0xbeb44eaa	-0.35216266
52	0xbeae415b	-0.34034237
53	0xbd72fde7	-0.05932417
54	0x3e29a056	0.1656507
55	0xbe850e44	-0.25987446
56	0x3d6655b6	0.056234084
57	0x3e3526a5	0.17690523
58	0x3f2dbc4a	0.6786543
59	0x3ebd7c4b	0.3700889
60	0xbe1d40e4	-0.15356785
61	0x3cab259f	0.020891963
62	0x3e9b814a	0.30372077
63	0xbe9570c8	-0.29187608
64	0xbe1cc250	-0.153085
65	0xbd5dd27c	-0.05415581
66	0x3e0f8598	0.14015806
67	0x3e9534ad	0.2914175
68	0x3ebef94f	0.37299582
69	0x3da6e035	0.08148233
70	0x3d4e8d07	0.050427463
71	0x3cd8f28e	0.026482847
72	0x3e94d21b	0.29066548
73	0xbf03ecc6	-0.5153316
74	0xbf1a5fe4	-0.6030257
75	0xbe60f2a5	-0.21967562
76	0x3e100b19	0.14066733
77	0xbf004782	-0.5010911
78	0x3e616b5e	0.22013614
79	0xbe99ed89	-0.30064037
80	0xbef08d7d	-0.46982947
81	0x3d9b7453	0.075905465
82	0x3e874748	0.2642157
83	0x3ec4ddbc	0.3845042
84	0x3dd3051d	0.1030371
85	0x3eca04e8	0.39456868
86	0x3ee03795	0.43792406
87	0xbdfbd9fb	-0.12297436
88	0x3d2f292e	0.04276388
89	0x3e4bbe11	0.19896723
90	0xbe973c62	-0.29538256
91	0xbee1830a	-0.44045287
92	0xbe2debe9	-0.16984524
93	0x3e90f3ca	0.28310996
94	0xbe20c2d8	-0.15699327
95	0xbef98dbd	-0.4874095
96	0x3e22b925	0.1589094
97	0xbf1d756d	-0.615073
98	0x3e6b4999	0.22977294
99	0xbe960c4f	-0.29306266
100	0x3e9c3a2f	0.3051314
101	0x3d02ea1b	0.03196154
102	0xbee5e117	-0.44898292
103	0xbe462d41	-0.193532
104	0x3d86dd70	0.065852046
105	0x3d53026f	0.051515993
106	0x3eb4e930	0.35334158
107	0x3d72a657	0.059240665
108	0xbec84e5e	-0.3912229
109	0x3ed65fc5	0.4186994
110	0xbe4edad0	-0.20200658
111	0x3e74037b	0.23829453
112	0x3df5939a	0.119910434
113	0xbe58eefd	-0.21184917
114	0xbeb88c10	-0.3604436
115	0xbe52d499	-0.20588912
116	0x3f09e45d	0.5386408
117	0xbe853aa4	-0.26021302
118	0xbe987728	-0.2977841
119	0x3dd26c5b	0.102745734
120	0xbec45e3d	-0.38353148
121	0xbcbc4324	-0.022981234
122	0xbebd565c	-0.3697995
123	0x3d5c73bb	0.053821307
124	0xbe5d18bc	-0.21591467
125	0xbd99f659	-0.0751769
126	0xbe72fd28	-0.23729384
127	0x3f1606bb	0.5860402
128	0xbec6ddb4	-0.3884102
129	0xbed5ebcc	-0.4178146
130	0x3ec1d488	0.3785746
131	0xbe10682c	-0.14102238
132	0xbdf0cfef	-0.1175841
133	0xbce46314	-0.027879275
134	0x3e615672	0.22005633
135	0x3dd79334	0.10526124
136	0xbe5f54e6	-0.2180973
137	0xbe48839a	-0.19581452
138	0x3cf712f0	0.030160397
139	0xbf4ed778	-0.8079753
140	0x3db122d5	0.08649222
141	0x3da6a7f2	0.08137502
142	0x3f471662	0.7776853
143	0x3eac32d9	0.33632544

sun_influence_1.W.bias f4 [12]
0	0xbb65dace	-0.0035073045
1	0xbc1a2321	-0.009407789
2	0x3d7d0054	0.06176789
3	0xbda4f31b	-0.08054181
4	0xbd48cc68	-0.049023062
5	0xbc9230bf	-0.01784551
6	0xbd16a480	-0.036777973
7	0xbd0ebf99	-0.03485069
8	0xbdfeb231	-0.12436331
9	0xbc9c5fdc	-0.019088678
10	0xbbf7b297	-0.0075591314
11	0x3ce496d6	0.027903955

sun_influence_1.W_self.weight f4 [12, 12]
0	0xbea48a59	-0.321368
1	0x3d84197d	0.06450174
2	0x3f1ecf23	0.62034816
3	0xbbb0e9c5	-0.0053989612
4	0x3dfc036c	0.1230534
5	0x3e76c270	0.2409761
6	0x3efc6954	0.4929911
7	0xbf301d72	-0.6879493
8	0x3eb6aff2	0.3568111
9	0xbd72efce	-0.059310727
10	0x3f59b828	0.85046625
11	0x3f0f8f3b	0.5607793
12	0x3ebddd4b	0.37082896
13	0xbf05fd6c	-0.52339816
14	0xbeaddb16	-0.33956212
15	0x3d6a4f19	0.05720434
16	0x3ee2031b	0.44142994
17	0x3d814804	0.06312564
18	0x3d7537cf	0.059867676
19	0xbdb20fe3	-0.086944364
20	0x3ef14f98	0.47131038
21	0x3e85ec8e	0.2615704
22	0xbe33eff8	-0.1757201
23	0xbe87b6a4	-0.2650653
24	0xbeb69070	-0.35657072
25	0xbe59ae12	-0.21257809
26	0xbe5accf3	-0.21367244
27	0x3d30497f	0.04303884
28	0xbe5e6164	-0.21716839
29	0xbed636ae	-0.41838592
30	0x3eba4893	0.36383495
31	0x3e914bc4	0.28378117
32	0xbea96ed2	-0.33092362
33	0x3f341759	0.70348126
34	0x3efaddb8	0.48997283
35	0x3da083fb	0.07837673
36	0x3e8f6b97	0.28011772
37	0x3d87acd8	0.06624764
38	0xbe01e751	-0.12685896
39	0x3e8bbeac	0.2729391
40	0xbe198798	-0.14993131
41	0xbeb0c524	-0.34525406
42	0xbe914606	-0.28373736
43	0x3ce67447	0.028131617
44	0xbe586c8b	-0.21135156
45	0xbecca7fc	-0.39971912
46	0xbefc5949	-0.4928687
47	0xbcde41db	-0.027131012
48	0xbe3e8224	-0.18604332
49	0xbd4ea326	-0.05044856
50	0xbef2dbba	-0.47433263
51	0xbe3d4d35	-0.18486483
52	0x3eaeadd0	0.34116983
53	0x3cf0d0a7	0.029396368
54	0xbe653903	-0.2238503
55	0x3d230a16	0.03980454
56	0xbf2a9700	-0.6663666
57	0xbe0bf924	-0.13669258
58	0x3e4be7e0	0.19912672
59	0xbd913087	-0.07089334
60	0x3deb2577	0.11481755
61	0x3f0390eb	0.51393
62	0x3ede2d2b	0.43393835
63	0xbf107ef5	-0.5644372
64	0x3dab0423	0.083503984
65	0x3f027660	0.50961876
66	0x3cfa3ee1	0.030547561
67	0xbe89dc89	-0.26926067
68	0xbcf55620	-0.029948294
69	0x3f71e4c6	0.94489706
70	0xbed12445	-0.40847984
71	0xbcb15f90	-0.021652013
72	0x3ddefb77	0.10887807
73	0xbebb3777	-0.36565754
74	0xbeaa4388	-0.33254647
75	0x3c996b53	0.018727934
76	0x3ecebc32	0.40377957
77	0xbb53ab40	-0.0032298118
78	0x3ef0fedf	0.4706945
79	0x3f26b5da	0.65121233
80	0x3a73ec45	0.0009304921
81	0x3c5158c7	0.012777514
82	0x3dc76128	0.09735328
83	0x3e3e5570	0.1858728
84	0x3eeafa79	0.4589422
85	0x3e5f9bca	0.21836773
86	0xbef2ef81	-0.47448352
87	0x3f080726	0.5313591
88	0x3eb7a306	0.35866565
89	0x3e4237b4	0.18966562
90	0x3eb6fbb6	0.35738915
91	0xbd8034ab	-0.062600456
92	0x3ec7709f	0.3895311
93	0x3dda66da	0.10664149
94	0x3ebbe249	0.3669608
95	0x3d08d0f8	0.033402413
96	0x3efed00e	0.49768108
97	0xbe501a7f	-0.20322607
98	0x3e983d88	0.29734445
99	0x3e487407	0.19575511
100	0xbbcfd53d	-0.0063425587
101	0x3c5480c5	0.012970154
102	0xbe206530	-0.156636
103	0x3e682659	0.22670878
104	0xbe8ee396	-0.2790801
105	0xbd7eb484	-0.062183872
106	0xbe7d873b	-0.24758618
107	0x3d90765b	0.070538245
108	0x3ebc8ef3	0.36827812
109	0x3e8c3674	0.27385294
110	0x3eb7fd88	0.35935616
111	0xbdc1670b	-0.09443482
112	0x3e197d10	0.14989114
113	0xbe48256c	-0.19545525
114	0xbe64b817	-0.2233585
115	0xbe6ef965	-0.23337324
116	0xbf1ca15d	-0.6118372
117	0xbe519d59	-0.2047018
118	0xbe362b55	-0.17789967
119	0x3edf5dc3	0.43626222
120	0xbeba01b8	-0.36329436
121	0xbe7dff55	-0.24804433
122	0xbd86a823	-0.06575038
123	0x3e32fd14	0.17479354
124	0xbe73e032	-0.23815992
125	0xbc572a3c	-0.013132628
126	0xbe0c7d46	-0.13719663
127	0x3e956030	0.29174948
128	0xbf05cfac	-0.5227001
129	0xbedadd0f	-0.4274678
130	0xbe319581	-0.17342187
131	0xbf0b9350	-0.54521656
132	0x3e21342b	0.15742557
133	0xbea48141	-0.32129863
134	0x3d0fd9a4	0.035119668
135	0xbf015d23	-0.5053274
136	0x3e9540a8	0.2915089
137	0xbc0e76e9	-0.008695343
138	0x3e6284fa	0.22121039
139	0x3e47935c	0.19489807
140	0x3dbc456a	0.09192927
141	0xbe60f731	-0.21969296
142	0xbea53393	-0.3226591
143	0xbec4555a	-0.38346368

sun_influence_1.W_self.bias f4 [12]
0	0xbb65dace	-0.0035073045
1	0xbc1a2321	-0.009407789
2	0x3d7d0054	0.06176789
3	0xbda4f31b	-0.08054181
4	0xbd48cc68	-0.049023062
5	0xbc9230bf	-0.01784551
6	0xbd16a480	-0.036777973
7	0xbd0ebf99	-0.03485069
8	0xbdfeb231	-0.12436331
9	0xbc9c5fdc	-0.019088678
10	0xbbf7b297	-0.0075591314
11	0x3ce496d6	0.027903955

sun_influence_2.W.weight f4 [12, 12]
0	0xbe0022b8	-0.12513244
1	0xbedc290a	-0.4300006
2	0x3f06dbf6	0.52679384
3	0xbf7250d4	-0.94654584
4	0xbdf7b94b	-0.12095889
5	0xbf15aaf7	-0.58463997
6	0x3e051f48	0.13000214
7	0x3d993c57	0.07482212
8	0x3ec2001c	0.37890708
9	0x3e9b6561	0.30350783
10	0xbf38b47d	-0.72150403
11	0xbec393eb	-0.3819879
12	0xbe06655d	-0.13124605
13	0xbec29b83	-0.3800927
14	0x3d2c44e6	0.042057894
15	0x3d8a73d3	0.06760373
16	0x3d3ab355	0.04558118
17	0xbdd18ff0	-0.10232532
18	0x3dd746e8	0.10511571
19	0x3e636227	0.22205411
20	0xbe1b31fb	-0.15155785
21	0x3e300be8	0.17192042
22	0xbd664d04	-0.05622579
23	0xbe8b7a14	-0.27241576
24	0xbed3393b	-0.412546
25	0xbdfee7e6	-0.12446575
26	0xbcf977e1	-0.03045267
27	0xbe3c666e	-0.18398449
28	0x3e2c59af	0.16831087
29	0xbefb7ada	-0.49117166
30	0xbe0a5135	-0.1350754
31	0x3be84857	0.0070887017
32	0x3e76cdf7	0.24102007
33	0x3e7f853e	0.24953172
34	0xbee0b9e6	-0.4389183
35	0x3e87d197	0.26527092
36	0x3de47df7	0.111568384
37	0xbe5c128d	-0.21491452
38	0x3ea2619d	0.31715098
39	0x3e44f406	0.19233713
40	0x3ea58523	0.32328138
41	0x3e38a30c	0.18030947
42	0xbed52bfe	-0.41635126
43	0x3ef3eb09	0.47640255
44	0x3ee485e1	0.44633391
45	0xbcb86fa6	-0.022514176
46	0x3e375725	0.17904337
47	0x3ed25d0f	0.41086623
48	0xbe8d6987	-0.27619573
49	0xbf142d93	-0.5788204
50	0x3e8b361e	0.27189726
51	0xbf3ed749	-0.7454725
52	0xbe017150	-0.12640882
53	0x3e15cfe8	0.14630091
54	0x3c8f1e24	0.017470427
55	0x3ef13653	0.4711176
56	0x3dc943d5	0.09827391
57	0x3dc1b97b	0.09459206
58	0x3dfbe560	0.12299609
59	0x3da835c8	0.08213383
60	0x3e4dcaed	0.20096941
61	0xbe7ac75b	-0.2449011
62	0x3ebef55b	0.37296566
63	0x3ee42a18	0.44563365
64	0xbec823d2	-0.3908983
65	0xbe0ed371	-0.13947846
66	0x3dc1764b	0.09446391
67	0x3ea589a0	0.32331562
68	0x3e977017	0.29577705
69	0xbed48ad8	-0.4151218
70	0x3ece180d	0.40252724
71	0xbea1f4e7	-0.31632158
72	0x3ee9342c	0.45547616
73	0xbe7ad95f	-0.24496983
74	0xbe908cff	-0.2823257
75	0xbebb6fd3	-0.36608753
76	0x3ecf85eb	0.4053186
77	0x3e8dcce5	0.27695385
78	0x3dfbf78f	0.123030774
79	0x3d95a35b	0.07306548
80	0xbeb8b6f6	-0.36077088
81	0x3f0ab5cd	0.54183656
82	0xbe0e285a	-0.1388258
83	0x3e4bef3a	0.19915476
84	0xbd9bfedd	-0.07616971
85	0xbe803739	-0.25042132
86	0x3e1d3f6f	0.15356229
87	0x3ed38b59	0.4131725
88	0xbeb845e4	-0.35990822
89	0xbe0617d6	-0.1309503
90	0xbd68d292	-0.05684144
91	0xbdb5caf0	-0.08876598
92	0xbe1adde2	-0.15123704
93	0xbd58b469	-0.052906428
94	0x3cac6ae0	0.021047056
95	0xbf1a7d66	-0.6034759
96	0xbee982da	-0.45607644
97	0xbebdbdbc	-0.37058818
98	0x3e9d01da	0.30665475
99	0x3e14ca43	0.14530282
100	0xbd6dffde	-0.058105342
101	0xbee2a05c	-0.4426297
102	0xbe12358b	-0.14278238
103	0xbea9f704	-0.3319627
104	0xbc8c5be1	-0.017133655
105	0x3ba0767f	0.0048969383
106	0x3f1039a2	0.5633794
107	0x3c7f4535	0.015580465
108	0x3e2707a1	0.16311504
109	0xbd127c0a	-0.035762824
110	0xbe74eb97	-0.23917995
111	0x3e0680bb	0.13135044
112	0x3c089ca9	0.008338132
113	0xbea39bbc	-0.31954753
114	0xbe32bad0	-0.17454076
115	0x3df3437f	0.11878108
116	0x3e92588c	0.2858318
117	0xbf02bbba	-0.510677
118	0xbef677f2	-0.48138386
119	0x3e9ce0c3	0.3064023
120	0x3ea7f120	0.3280115
121	0x3c2e7307	0.010647542
122	0x3f061e6d	0.52390176
123	0xbf060b9b	-0.5236146
124	0xbeb74ff8	-0.358032
125	0x3e3d207c	0.18469423
126	0xbf017323	-0.5056631
127	0xbf04b9cf	-0.5184602
128	0xbe1e7aaf	-0.15476488
129	0x3ebe2e85	0.37144867
130	0x3d2b12c8	0.041765958
131	0xbc8a1089	-0.016853588
132	0x3f441657	0.7659659
133	0xbd53d713	-0.051718783
134	0x3db55bb7	0.08855384
135	0xbd88e375	-0.06684009
136	0xbc512ab4	-0.012766529
137	0x3ea0d87f	0.31415173
138	0xbd9e77fc	-0.07737729
139	0x3e043871	0.12912156
140	0x3e0d27fc	0.13784784
141	0x3e2496d4	0.16073161
142	0x3e30a534	0.1725052
143	0x3f0580c2	0.52149594

sun_influence_2.W.bias f4 [12]
0	0x3da5a15d	0.08087418
1	0xbd5618bc	-0.052269682
2	0x3db1bb99	0.086783595
3	0x3cd82b9b	0.02638798
4	0x3ca61f09	0.02027847
5	0xbda1816c	-0.078860134
6	0xbdb77a34	-0.08958855
7	0xbdb81317	-0.08988016
8	0x3e065992	0.13120106
9	0xbcdc8d73	-0.026922917
10	0xbdb23b95	-0.087027706
11	0xbcbcb592	-0.023035798

sun_influence_2.W_self.weight f4 [12, 12]
0	0xbd133e74	-0.03594823
1	0xbe47582c	-0.19467229
2	0x3da882a5	0.082280435
3	0xbc8cb417	-0.017175717
4	0xbe848e74	-0.25889933
5	0xbf1948fd	-0.59876996
6	0x3e93eb17	0.28890297
7	0x3dbb6ef6	0.091520235
8	0xbd8b591e	-0.06804107
9	0xbe476365	-0.1947151
10	0xbdb42f0d	-0.08798037
11	0x3eba3872	0.3637119
12	0x3ebbd81d	0.3668832
13	0xbeb8019d	-0.3593873
14	0x3e996509	0.29959896
15	0xbf22c0eb	-0.6357562
16	0x3f416977	0.7555155
17	0xbdbb495b	-0.09144851
18	0x3eacd028	0.3375256
19	0xbdd41858	-0.10356206
20	0xbd2cf280	-0.042223454
21	0x3ee4409e	0.4458055
22	0xbebd9a3d	-0.37031737
23	0x3e03ef86	0.1288434
24	0x3e96c9fa	0.2945097
25	0x3e833b65	0.25631252
26	0x3ea2055f	0.31644723
27	0xbe707cfd	-0.23485179
28	0xbd9da5c1	-0.07697631
29	0x3ed3844f	0.4131188
30	0x3ed345c2	0.41264158
31	0x3f3723de	0.71539104
32	0xbdb4a8d0	-0.08821261
33	0x3f3e290f	0.742814
34	0xbe9c528c	-0.30531728
35	0xbe6c6fa6	-0.23089465
36	0x3d103b35	0.035212714
37	0x3e4e62e0	0.20154905
38	0xbe33051e	-0.17482421
39	0xbd304a7a	-0.043039776
40	0x3ef44469	0.47708443
41	0xbf0b45de	-0.54403484
42	0x3d901e08	0.07036978
43	0x3cf9383d	0.030422324
44	0x3dead2dc	0.114659995
45	0xbe7eb62d	-0.24874182
46	0xbe7e3710	-0.24825692
47	0x3d1fc089	0.039001975
48	0xbf2558a2	-0.6458837
49	0xbea835a7	-0.32853433
50	0xbe0d300d	-0.13787861
51	0xbe4a4faf	-0.1975696
52	0x3e4c37fe	0.19943234
53	0xbda3998c	-0.07988271
54	0x3d89b807	0.067245536
55	0x3e670adc	0.22562736
56	0x3e558766	0.20852432
57	0xbe25d5d5	-0.16194852
58	0xbe901d7b	-0.28147492
59	0xbedabf0d	-0.42723885
60	0x3b8e2df3	0.0043389737
61	0xbf0eeab3	-0.5582687
62	0xbd8fdd1a	-0.07024594
63	0xbdbfc99f	-0.09364628
64	0xbe7afc91	-0.24510409
65	0xbed2a286	-0.4113962
66	0x3e0bbf9e	0.13647315
67	0x3d3ae4f3	0.0456285
68	0xbcc7f1c0	-0.024407268
69	0xbf1b2502	-0.60603344
70	0xbd8e8a6a	-0.06959994
71	0xbdf850b7	-0.1212477
72	0xbdf39a22	-0.11894633
73	0x3e5a1dad	0.21300383
74	0xbeef2536	-0.46708077
75	0x3ee2eb56	0.44320172
76	0x3ecdca36	0.40193337
77	0xbe78527d	-0.24250217
78	0xbe75ec86	-0.24016008
79	0x3eea6c2f	0.45785663
80	0x3ec30457	0.3808925
81	0x3e8bfca6	0.27341193
82	0xbded3315	-0.11582009
83	0xbda97109	-0.08273513
84	0xbe4a25d9	-0.19741
85	0x3ccac045	0.024749884
86	0x3d340d9e	0.0439583
87	0x3e761e51	0.24035002
88	0x3df5b5dc	0.119975775
89	0xbdcbba13	-0.099476
90	0x3e6e5b2f	0.23276971
91	0xbdbdec51	-0.092735894
92	0xbe264934	-0.16238862
93	0x3ea67e7a	0.3251837
94	0x3e63d85b	0.22250502
95	0x3dbc3153	0.09189095
96	0x3e1ddd75	0.1541651
97	0xbd10cdac	-0.035352394
98	0x3e831f8b	0.25610003
99	0x3d8f36a0	0.06992841
100	0x3c7f6cbe	0.015589891
101	0xbee1ac4f	-0.44076774
102	0xbeddf475	-0.43350568
103	0xbec40112	-0.38282067
104	0xbe828350	-0.25490808
105	0xbf25ab89	-0.64714867
106	0x3e7bfa02	0.24607089
107	0x3e79d248	0.24396622
108	0x3d29043b	0.0412638
109	0xbf07a515	-0.5298627
110	0x3d2571de	0.040391795
111	0x3eb6ee82	0.35728842
112	0x3e1c687e	0.15274236
113	0x3e75587e	0.23959538
114	0xbcfadcad	-0.030622805
115	0xbe8119ff	-0.25215146
116	0x3ecd312d	0.4007658
117	0xbe179882	-0.14804271
118	0x3cdbc6c0	0.02682817
119	0xbde4071c	-0.111341685
120	0xbf29ac41	-0.66278464
121	0x3dc17a68	0.09447175
122	0x3d95aba6	0.0730813
123	0xbe544e41	-0.20732976
124	0x3eb9c32d	0.3628172
125	0xbe705e23	-0.2347341
126	0xbd96efe5	-0.07369975
127	0xbe3aca21	-0.18241169
128	0xbd07dd66	-0.033170126
129	0xbec2b972	-0.3803211
130	0xbd9cbe3e	-0.07653473
131	0xbe1b1b01	-0.1514702
132	0x3e978de7	0.2960045
133	0x3e37253a	0.17885295
134	0xbe2da7cc	-0.1695854
135	0x3e587497	0.21138225
136	0x3d79153a	0.06081126
137	0xbecc5494	-0.39908278
138	0x3ec4c141	0.3842869
139	0x3e80a0a8	0.2512257
140	0xbece9d25	-0.40354267
141	0x3ee0fe7c	0.43944156
142	0x3e99c278	0.3003118
143	0xbe81ebaf	-0.25375125

sun_influence_2.W_self.bias f4 [12]
0	0x3da5a15d	0.08087418
1	0xbd5618bc	-0.052269682
2	0x3db1bb99	0.086783595
3	0x3cd82b9b	0.02638798
4	0x3ca61f09	0.02027847
5	0xbda1816c	-0.078860134
6	0xbdb77a34	-0.08958855
7	0xbdb81317	-0.08988016
8	0x3e065992	0.13120106
9	0xbcdc8d73	-0.026922917
10	0xbdb23b95	-0.087027706
11	0xbcbcb592	-0.023035798

sun_influence_3.W.weight f4 [12, 12]
0	0xbe27860e	-0.16359732
1	0x3eb0fad6	0.34566373
2	0x3e3449b3	0.17606239
3	0xbe095f56	-0.13415274
4	0xbd88d0c3	-0.06680443
5	0xbe7a713a	-0.24457255
6	0x3f043218	0.51638937
7	0x3e37ca22	0.17948201
8	0x3e265eea	0.16247144
9	0xbe48b480	-0.19600105
10	0x3e8c9942	0.27460676
11	0x3f11cde4	0.5695479
12	0x3f29d1bc	0.66335654
13	0xbe93ec0d	-0.2889103
14	0x3f120981	0.5704575
15	0xbe84a04f	-0.25903556
16	0xbef945b0	-0.4868598
17	0x3ed20029	0.41015747
18	0xbed5180c	-0.4161991
19	0xbe4bf5c7	-0.19917975
20	0x3d211ded	0.03933518
21	0xbea9e4a5	-0.33182254
22	0x3e37fce5	0.17967565
23	0x3d888e1d	0.06667731
24	0xbf49554e	-0.7864579
25	0xbeebf885	-0.46088043
26	0xbed0f53f	-0.40812108
27	0x3e35476b	0.17703025
28	0x3c4aaf0d	0.012370837
29	0x3ef8e82b	0.4861463
30	0xbea4f409	-0.32217434
31	0x3e79548f	0.24348663
32	0x3ef16941	0.47150615
33	0xbe1eac0e	-0.15495321
34	0x3e69274b	0.22768895
35	0x3ee104ee	0.43949074
36	0xbe059fe6	-0.13049278
37	0xbf31aeed	-0.6940754
38	0xbc4e3aa7	-0.012587226
39	0x3dca03f0	0.09864032
40	0xbe84183a	-0.25799733
41	0xbe4eb3a5	-0.20185716
42	0xbe8d1338	-0.27553725
43	0x3e4462b1	0.19178273
44	0xbe2d2d5e	-0.16911837
45	0x3df9e8dd	0.12202618
46	0xbea57cfd	-0.3232192
47	0xbeb7b878	-0.35882926
48	0xbd822d23	-0.063562654
49	0x3e8f9689	0.28044537
50	0x3e6277b4	0.22115976
51	0xbe6d0fd2	-0.23150566
52	0xbe3f45d9	-0.18678989
53	0x3ea4fa36	0.32222146
54	0xbd31b66b	-0.043386858
55	0x3eb4be2a	0.35301334
56	0x3e35153a	0.17683879
57	0x3e8fbb30	0.280725
58	0x3e8ad819	0.27117994
59	0x3d3e470d	0.046454478
60	0x3e776799	0.24160613
61	0xbeaab716	-0.33342808
62	0x3de876b4	0.11350766
63	0x3e12db4b	0.14341466
64	0x3f141b1c	0.57853866
65	0x3d4961e5	0.049165625
66	0x3e39518b	0.18097512
67	0xbe97ac05	-0.29623428
68	0x3d626780	0.055274487
69	0x3e917f1c	0.2841729
70	0x3eae55b1	0.34049752
71	0xbe8d788e	-0.27631038
72	0x3e99178a	0.2990077
73	0xbe843e71	-0.2582889
74	0xbe3547b5	-0.17703135
75	0xbe3ce0e0	-0.18445158
76	0xbe087d78	-0.13329113
77	0xbdc5e645	-0.09663061
78	0x3ee1883c	0.4404925
79	0xbe1dd451	-0.15413024
80	0x3f21cafa	0.6320034
81	0x3e8da2a5	0.2766315
82	0xbe9f3cc2	-0.31101042
83	0x3ea86068	0.32886052
84	0xbd586fcc	-0.052840993
85	0x3e2e9744	0.17049891
86	0x3e579a59	0.21054973
87	0xbe9ed9a8	-0.31025434
88	0x3d0e2f08	0.03471282
89	0xbebf3eb3	-0.37352523
90	0x3e4f2923	0.20230536
91	0x3e971551	0.2950845
92	0xbee73e73	-0.45164832
93	0xbe6e8e9c	-0.23296589
94	0xbea5c96d	-0.32380238
95	0x3f1096fe	0.56480396
96	0xbd141313	-0.036151003
97	0x3d80dbcd	0.06291924
98	0xbe235f1d	-0.15954252
99	0xbe92246f	-0.28543422
100	0x3d7f14f6	0.06227585
101	0x3edcf7b0	0.4315772
102	0xbb7960bc	-0.0038052043
103	0xbec05943	-0.375681
104	0xbde9cc21	-0.114158876
105	0x3e4a0961	0.1973014
106	0x3e5a511d	0.21320005
107	0xbeee66c0	-0.46562767
108	0x3ef45ea9	0.4772847
109	0xbc662a5c	-0.014048185
110	0xbeaa7f62	-0.3330031
111	0xbf85a464	-1.0440793
112	0x3e17e7f6	0.1483458
113	0xbdfb2029	-0.122619934
114	0x3dba58d0	0.09098971
115	0x3ef6150f	0.4806294
116	0x3f1d02f2	0.6133262
117	0xbe652122	-0.2237592
118	0x3f7362a5	0.95072395
119	0xbf0b1c03	-0.5433962
120	0x3f07f467	0.53107303
121	0x3e8e10bb	0.2774714
122	0x3c669c4f	0.014075353
123	0xbf049f2c	-0.51805377
124	0xbe009372	-0.12556246
125	0xbec354d2	-0.3815065
126	0x3e79f0ed	0.24408312
127	0x3ebf8cc1	0.37412074
128	0x3e5876d1	0.21139075
129	0x3e55d635	0.20882495
130	0xbeaedf25	-0.3415462
131	0x3e83ac9b	0.25717625
132	0x3e211ed8	0.15734422
133	0xbc1c9276	-0.009556403
134	0xbc02937d	-0.007969734
135	0xbe452f56	-0.19256338
136	0x3d83bf5f	0.064329855
137	0xbed06be0	-0.40707302
138	0x3e9c82ed	0.30568638
139	0xbe31300f	-0.17303489
140	0xbf130326	-0.5742668
141	0xbe05e621	-0.13076068
142	0x3e87c365	0.26516262
143	0x3f4120a7	0.7544045

sun_influence_3.W.bias f4 [12]
0	0x3b8473b1	0.004042112
1	0x3d02fccf	0.03197938
2	0xbcb41440	-0.021982312
3	0xbd29f090	-0.041489184
4	0x3bc11396	0.0058922274
5	0xbd12193d	-0.0356686
6	0xbd731d6f	-0.059354242
7	0xbb6b9ec2	-0.0035952781
8	0xbd15cbf0	-0.036571443
9	0x3d430d5c	0.047620162
10	0x3cc03c4b	0.02346625
11	0x3d546cea	0.05186168
