src/Photosynthesis/RL/SavedModels/model_44.pth (torch, 30290 bytes, 34 tensors)

player_tree_1.W.weight f4 [12, 12]
000000 c6 3f 94 3e 44 8d b8 be d5 e4 d6 3e 31 42 9d be
       0.28954905 -0.36045277 0.4197146 -0.30714563
000010 59 12 a6 3e 54 28 d2 bd ce 16 4b be b9 37 9c 3d
       0.32435873 -0.10261598 -0.19832918 0.07627816
000020 75 a1 11 3f c1 f5 ae bd 3f 18 ed bd 63 f9 1d bd
       0.5688699 -0.085429676 -0.1157689 -0.03856791
000030 e6 cf a8 3d eb 72 e9 3d b0 79 ad 3e f9 3e 3a be
       0.082427785 0.11398872 0.33881903 -0.18188085
000040 de a4 7a 3e cd eb 14 bf af a6 0c be 6a 88 4a be
       0.24476954 -0.58172303 -0.1373546 -0.197786
000050 dc 02 3c 3e 36 72 2b 3e 68 c3 14 3f 31 6a 85 3e
       0.18360466 0.16742787 0.58110666 0.2605758
000060 2a 06 83 3b 0b 22 8e 3e f0 bc 06 bf c5 84 7c 3d
       0.0039985375 0.27760348 -0.52632046 0.061650056
000070 8a 9c ab 3e 2c 3e 89 3e e4 60 58 bd 03 d0 e2 be
       0.33517867 0.26805246 -0.052826777 -0.44299325
000080 4e 76 15 3f 57 ad 0e 3e 1f 50 9f be 6b 46 80 be
       0.58383644 0.13933311 -0.31115815 -0.25053725
000090 9b dc 1d bd d0 4a 29 3e 96 df 92 bc 53 9d 02 be
       -0.038540464 0.16532445 -0.01792888 -0.12755327
0000a0 cb 6f ae 3d ad 22 b2 be d4 c6 b4 bd 48 66 00 bf
       0.085174166 -0.3479208 -0.08826986 -0.5015607
0000b0 f8 70 ad be 40 28 58 3e 68 74 8a be de 0a 07 3e
       -0.3387525 0.21109104 -0.27041936 0.13187739
0000c0 2d d0 81 be e7 6e c9 bb 95 01 80 bc 2f 71 65 3c
       -0.25354138 -0.006147254 -0.015625754 0.014004036
0000d0 73 06 61 3d 0d 6f 0a 3e 34 9b e2 be c7 a7 a6 3e
       0.05493779 0.13518925 -0.44259036 0.3254988
0000e0 1b 57 61 be 34 be 86 3d df 08 ba 3c d7 5b 34 3f
       -0.22005884 0.06579247 0.022709308 0.70452636
0000f0 b2 6b 78 3e 83 70 97 3e c0 33 01 3f 0d ca 68 be
       0.24259833 0.29578027 0.5046959 -0.22733326
000100 e9 70 17 3e b6 da e1 3e f0 3b 21 3e fd eb 4f 3e
       0.14789166 0.44112176 0.1574552 0.20304866
000110 a8 e7 32 3e 78 a9 86 3f 13 c3 52 3c 88 99 94 3e
       0.17471182 1.0520468 0.012863892 0.29023385
000120 8f ca 15 be f2 31 52 3e e8 d8 0c 3f 11 9e 97 3d
       -0.14628051 0.20526865 0.5501847 0.07403196
000130 de df 82 be 12 51 2d be dc ba e3 3c 79 23 8f 3e
       -0.25561422 -0.16925457 0.027799062 0.2795675
000140 e3 5d 07 be 27 a6 93 be ee 16 2d be fb 04 50 bd
       -0.13219409 -0.28837702 -0.16903278 -0.050786
000150 c5 09 44 3e 8e 6f e5 3d e3 c7 f5 bd b4 38 aa bd
       0.19144352 0.11202918 -0.12001016 -0.083115965
000160 bb 83 25 3e f9 57 ad bd c9 af e7 be 20 6c 79 bd
       0.16163532 -0.08464045 -0.452513 -0.06089413
000170 43 03 30 be ff 2d 82 3e 17 dd 99 be 48 9c b8 3e
       -0.17188744 0.25425717 -0.3005149 0.36056733
000180 7f d2 67 3e fc e0 b5 be 7c 61 68 bf f5 5a ae bd
       0.22638892 -0.35523212 -0.9077375 -0.085134424
000190 c2 b8 8c be 34 d7 2f be 21 ee d4 be 8d a2 2a be
       -0.2748471 -0.17171937 -0.41587928 -0.1666357
0001a0 55 68 5b 3e 21 a3 f1 3d 22 8e cf be b6 1b 27 be
       0.21426518 0.117986925 -0.40538126 -0.16319165
0001b0 0a 40 88 bd af 47 3f 3e e3 08 4c be 17 58 ec bd
       -0.066528395 0.18679689 -0.19925265 -0.11540239
0001c0 de ab 9d 3d d5 11 11 3e 9d 38 fb be 40 43 21 be
       0.07698797 0.14166959 -0.4906663 -0.1574831
0001d0 98 f2 cc be 6d 7d 5f be a7 b6 9a be b7 97 1b 3e
       -0.40028834 -0.2182519 -0.30217478 0.15194593
0001e0 ef 9c 48 3f 42 ad 02 3d 7c 60 5d bd eb 44 04 bd
       0.7836446 0.031903513 -0.054047093 -0.032292288
0001f0 ff b0 01 3f aa 56 e3 3e 35 62 6c be 6c e7 0c bc
       0.506607 0.44402057 -0.23084338 -0.008600097
000200 f5 53 2e 3e fd b3 c7 be 1f 6d da be a0 3a 81 3d
       0.17024215 -0.39004508 -0.42661378 0.0631001
000210 33 21 99 3d 7a 46 c9 be 7b 43 bd 3d 21 4b c1 be
       0.074770354 -0.39311582 0.092413865 -0.3775263
000220 2f 7e 05 3e d6 79 14 be b0 30 29 3e 04 cc 6b be
       0.13036416 -0.14499602 0.16522479 -0.23027045
000230 6f 65 fb be 2e bf 12 bf 25 d3 06 be 46 dc fb bc
       -0.49100825 -0.5732297 -0.13166483 -0.030744683

player_tree_1.W.bias f4 [12]
000000 dc 9e 84 bc 2c 45 1d 3d a2 e1 43 3d 4e a1 4b bd
       -0.016189031 0.038396046 0.047822602 -0.04971438
000010 d7 67 17 bd 7b f6 03 3e 62 fc 71 3c 7e 9d f3 bb
       -0.036964264 0.12886994 0.014769645 -0.007434546
000020 30 0a e2 bd 1c 60 41 3d 45 42 09 b9 69 e0 88 bc
       -0.11037099 0.047210798 -0.00013090025 -0.01670857

player_tree_1.W_self.weight f4 [12, 12]
000000 5a f5 8c bc 28 44 1d 3f ea 3b 39 3e 63 bc bc be
       -0.017206836 0.61432123 0.18089262 -0.36862478
000010 37 6c 15 3d a4 32 b9 bd 98 5a 64 3e b2 40 53 bb
       0.036480155 -0.09042862 0.22300184 -0.0032234606
000020 6c 36 08 3f 0c 00 64 3d 92 ff b5 be 49 ac 17 be
       0.5320804 0.055664107 -0.35546547 -0.14811815
000030 7f 37 64 be 27 37 e0 3e d3 3d 3e 3e 45 95 99 be
       -0.22286795 0.43792078 0.18578272 -0.29996696
000040 d7 13 d2 3d a0 8e 92 be 51 09 b2 3e 90 63 1e 3d
       0.102576904 -0.2862444 0.34772733 0.03866917
000050 c7 b8 5b bc 39 c1 39 3f 8c 53 94 3e 4d 39 00 3e
       -0.013410754 0.7256046 0.2896999 0.12521859
000060 d2 93 e3 bb 36 bc d7 3e 08 f4 e6 bc 27 12 57 3e
       -0.006945112 0.4213578 -0.028192535 0.21003018
000070 8c 76 01 3e 96 f4 a3 3d 94 af 2d 3d f8 b3 dc be
       0.12642878 0.080056354 0.042403772 -0.43106055
000080 58 4b f4 be ff 0a c4 3e 58 1b aa 3e d7 05 3d 3e
       -0.47713733 0.3828964 0.33223987 0.18459259
000090 f8 d6 03 bf cb 90 2f 3e a3 aa da 3e 20 04 04 bf
       -0.5149989 0.17145078 0.4270831 -0.51568794
0000a0 58 92 a3 3e ac f1 03 3e c1 be 45 3e 96 56 5f bf
       0.3194759 0.12885159 0.19311048 -0.87241495
0000b0 4a 0a c6 3d 80 07 1b be 41 fd 39 3e 2c 9b 34 bd
       0.09669931 -0.1513958 0.18163015 -0.044093296
0000c0 b9 0d 13 be 10 64 50 be c3 08 a2 3e ae 21 85 bd
       -0.14360704 -0.20350671 0.3164731 -0.065005645
0000d0 9a 84 68 3e bf 68 6a 3e 0d 31 5d 3e c6 c9 a7 be
       0.22706833 0.2289152 0.21600743 -0.32771128
0000e0 ae c6 b4 3d de 65 53 be 4d 10 d5 be 2f 21 dd bc
       0.08826958 -0.20644328 -0.41614 -0.026993362
0000f0 13 d7 0f bd 2c ac 11 3f 37 25 86 3e 61 27 be 3e
       -0.03511722 0.5690334 0.26200268 0.3713942
000100 20 d2 78 be 68 51 90 3e 08 ab 17 bc 9c 06 02 3d
       -0.24298906 0.28187108 -0.009257086 0.031744584
000110 a7 a1 ab be a4 7c 1c be 35 55 ee 3e 98 47 3d be
       -0.33521768 -0.15281922 0.46549383 -0.18484342
000120 95 2a 1e 3e 92 7a 43 3e 78 46 20 3f 3b 4b 0b 3f
       0.15445931 0.19089726 0.62607527 0.5441167
000130 31 2f ea 3d 36 b9 db 3e f0 de 25 be 08 41 1a bf
       0.11434782 0.42914742 -0.16198325 -0.6025548
000140 c0 c5 7b 3d 98 34 ab 3d dc e6 19 bf fa fd e5 bd
       0.061467886 0.08359641 -0.6011789 -0.11230083
000150 de 14 25 bd 9a c0 cc 3d 42 c7 45 3e 52 11 8a 3e
       -0.040303104 0.09997673 0.19314292 0.2696634
000160 2b 1f 9d be 48 f7 08 3f 72 63 0c bf b0 dc 73 3d
       -0.30687842 0.5350232 -0.5483924 0.059536636
000170 71 0f c9 3d 18 24 8a 3e 3b 8b f5 3d b4 53 8a 3e
       0.09817398 0.26980662 0.11989447 0.27016985
000180 f1 1e b2 3e d3 93 f4 be 2c 99 3c bf bc 60 9d 3e
       0.3478923 -0.4776903 -0.7367122 0.30737865
000190 9f 56 de 3e e9 bb be be 16 2a b9 bd 56 1d 89 3e
       0.43425462 -0.3725274 -0.090412304 0.26780194
0001a0 2e 5d 22 be 40 55 f2 3e ba 0f a7 3e f3 d8 66 bd
       -0.15855858 0.47330666 0.32629186 -0.056359243
0001b0 01 8f de be 0a 99 7d be 65 69 33 3e 83 ff e7 3e
       -0.43468478 -0.24765411 0.17520674 0.45312127
0001c0 f4 3b 18 3e 60 02 ba 3e d7 61 fa 3e be 1e f2 3d
       0.1486662 0.36329937 0.4890277 0.1182227
0001d0 65 18 80 3e 8f 72 9c ba 97 69 77 be 38 15 b4 be
       0.25018612 -0.0011935997 -0.24161373 -0.3517244
0001e0 1d 7f 55 3e 62 12 66 bd b0 86 a1 3e 4a 3e 2d 3d
       0.20849271 -0.056169875 0.3154807 0.04229573
0001f0 3d 8a dd be 22 b5 e1 3e 5a b4 67 bd 66 40 cf bc
       -0.4326953 0.44083506 -0.05656848 -0.025299262
000200 60 59 7d be 84 ec cc 3e 88 9e 0d 3e ad 89 78 be
       -0.24741125 0.40024197 0.13830006 -0.24271269
000210 7a 92 ad 3d 85 b7 01 3f 9d f5 c6 be 0f 96 a6 3e
       0.08475204 0.50670654 -0.38859263 0.3253636
000220 10 b1 9e be 58 45 f2 3e 50 c9 a5 be 62 1c f9 bd
       -0.30994463 0.4731853 -0.32380152 -0.12163617
000230 d5 32 74 3e 22 f1 cc bd 14 f0 1f be f2 4d 08 bf
       0.23847516 -0.1000693 -0.15618926 -0.53243935

player_tree_1.W_self.bias f4 [12]
000000 dc 9e 84 bc 2c 45 1d 3d a2 e1 43 3d 4e a1 4b bd
       -0.016189031 0.038396046 0.047822602 -0.04971438
000010 d7 67 17 bd 7b f6 03 3e 62 fc 71 3c 7e 9d f3 bb
       -0.036964264 0.12886994 0.014769645 -0.007434546
000020 30 0a e2 bd 1c 60 41 3d 45 42 09 b9 69 e0 88 bc
       -0.11037099 0.047210798 -0.00013090025 -0.01670857

player_tree_2.W.weight f4 [12, 12]
000000 67 9c 82 3e d4 ec 99 be 91 f4 4d bf ed 4c 90 bc
       0.2550995 -0.30063498 -0.80451304 -0.017614806
000010 22 7b b2 bd 43 11 d1 be 67 7f 9d 3e 6c 5c 84 3d
       -0.08714892 -0.40833482 0.30761263 0.064629406
000020 85 ad ab 3e e0 d2 33 be b2 cc 52 be b5 39 3b bf
       0.33530822 -0.17560911 -0.20585898 -0.7313493
000030 27 9e 10 bf f9 c7 b3 be d1 ed 1b bd 49 08 c9 3e
       -0.5649132 -0.35113505 -0.038068596 0.39264134
000040 ac f5 83 3e 5f 84 36 3e 68 e9 85 3e 97 84 bd 3d
       0.2577337 0.17823933 0.26154637 0.09253805
000050 84 63 04 bf fb 23 13 3e 35 9b da be 7d 67 f4 bc
       -0.5171435 0.14369194 -0.4269654 -0.029834503
000060 f3 03 5b 3f 7d 8b c0 be 5e 98 0c 3f 6a 0e be bd
       0.855529 -0.3760642 0.54919994 -0.09280093
000070 e6 69 ba 3e 08 25 ef bd c2 81 ce be 95 01 3b be
       0.3640892 -0.11676985 -0.40333372 -0.18262322
000080 59 73 29 be 0c a3 8d 3e 78 62 2e bf ac e3 c2 be
       -0.16547908 0.27663457 -0.68119 -0.38064325
000090 72 ed cc bd ed 4e 6d be 2d 72 51 bd c6 5f d0 be
       -0.100062266 -0.23174639 -0.051134277 -0.4069807
0000a0 e1 61 4e 3e d6 bd 10 be 80 c3 0a bd 35 47 93 be
       0.20154525 -0.14134917 -0.03387785 -0.28765264
0000b0 60 ee 03 3d e2 e6 9e bd 9b 4f 3a be a4 e9 ff 3c
       0.032209754 -0.07758881 -0.1819443 0.031239338
0000c0 1f bf 10 be d0 22 c5 bd 5c 77 fa be 25 c2 bf be
       -0.14135407 -0.096257806 -0.4891919 -0.37452808
0000d0 63 74 7c bd 46 74 b1 bd 03 28 88 3d 89 c1 44 3e
       -0.061634433 -0.086647555 0.06648257 0.19214453
0000e0 9d 97 42 3d 89 06 7e 3d ab db ec 3d 46 6d 10 3e
       0.04750787 0.06201795 0.11565336 0.14104185
0000f0 89 8f 64 3e bf 28 1c 3e 99 79 5b 3e 41 1d b3 3c
       0.2232038 0.15249918 0.21433105 0.021864535
000100 e2 c3 16 3d 91 18 33 bd b2 d8 07 be 7a 0c 61 be
       0.036807902 -0.0437246 -0.13266256 -0.21977416
000110 ef cb d6 3e 7c d2 0a be eb e4 2a bf 47 0a 94 be
       0.41952464 -0.13556856 -0.6675555 -0.2891409
000120 23 b0 0a be 0a 4d 3c be 5f 5d 11 bf 03 68 bf 3e
       -0.13543753 -0.18388763 -0.567831 0.37384042
000130 5f dc 30 bd ea 7b 47 3e c4 5d bb 3d c5 81 2e 3e
       -0.043178912 0.19480863 0.09148744 0.1704169
000140 01 d1 ca 3d ec 2e c7 bd c8 fc 02 bf 8b 81 48 3d
       0.099031456 -0.097257465 -0.51166964 0.048951667
000150 1b 27 ba 3e e1 c9 5a be 50 fb cb bd e0 e3 89 3d
       0.3635796 -0.21366073 -0.099600434 0.06732917
000160 69 1e 96 3e 9a 64 57 be 1f 09 52 3e 0c 83 d0 be
       0.29320076 -0.2103447 0.20511292 -0.4072498
000170 e2 c2 c5 3e f9 95 29 be c5 b3 1f bc e7 51 46 bf
       0.38625246 -0.16561116 -0.00974745 -0.77468723
000180 eb c4 07 bf f8 cd 0f bd d9 33 1a 3e db a0 9c 3e
       -0.5303485 -0.035108536 0.15058841 0.30591473
000190 8a 93 17 3f 97 47 a2 3e 5e 3d c3 3e 02 7a e0 3d
       0.592095 0.31695244 0.38132757 0.10960771
0001a0 af a6 2b 3e 71 05 af bc ae 53 a1 bd 88 76 86 bd
       0.16762803 -0.0213649 -0.07877289 -0.06565577
0001b0 a9 66 01 bf 84 8c cf 3e 97 c2 25 be e4 8a 6b 3e
       -0.5054727 0.40536892 -0.16187511 0.23002201
0001c0 9a 3d 8c 3e 2e 12 0a bf 55 d5 0e bf 34 0d 05 be
       0.27390748 -0.5393399 -0.5579427 -0.12993318
0001d0 8c c8 9c bd 2c 7b bc 3e 75 23 84 bc af de de 3e
       -0.07655439 0.36812723 -0.016130188 0.4352927
0001e0 c7 4f 5e be fd 00 49 3d a7 5e 5f be e5 e6 43 be
       -0.2171012 0.049073208 -0.21813451 -0.19131048
0001f0 48 b7 b7 be 04 34 9f be b1 2e 21 bf 72 8b 46 3d
       -0.3588202 -0.31094372 -0.6296187 0.04847283
000200 3c 6a 4f bb b3 fe 58 be 79 43 6d be 88 6c 83 3d
       -0.0031649014 -0.2119091 -0.2317027 0.06417185
000210 90 07 33 3e b8 fe 4b 3e 17 6e 85 be 71 d3 15 be
       0.17483354 0.19921386 -0.26060554 -0.1463144
000220 2a 7b bc be 77 92 c0 be 89 69 19 3e 91 9d cc 3e
       -0.36812717 -0.37611744 0.14981665 0.39963964
000230 8f ff 6f 3e e9 65 96 bd 3d 8e ae be 9c 20 8a 3b
       0.23437332 -0.073436566 -0.34092894 0.004215313

player_tree_2.W.bias f4 [12]
000000 df 4e d3 bc 90 69 8c bd 90 b3 24 bd f9 a1 76 bd
       -0.025794445 -0.06856072 -0.040210307 -0.060213063
000010 a7 c6 9c bd 3d ac 88 3d 29 db 14 3c 2f b1 e5 bc
       -0.076550774 0.06673477 0.009085455 -0.02803859
000020 c7 b3 4d bd d3 ec 34 3d 60 c8 c7 bd 00 58 5b bc
       -0.050220277 0.044171166 -0.097550154 -0.01338768

player_tree_2.W_self.weight f4 [12, 12]
000000 9a 18 31 3e ae 31 a6 be 81 ba 1d 3e a2 f5 00 3f
       0.17294541 -0.32459778 0.15403177 0.50374806
000010 73 7a 04 bf 41 1e 67 bf 74 6d ad 3b 3a 30 f9 bd
       -0.5174934 -0.9028054 0.005292589 -0.121674016
000020 47 e1 ab bd c2 b1 fa be 4a 20 a2 3e 47 91 4a 3e
       -0.083925776 -0.48963743 0.3166526 0.19781981
000030 b6 8f c0 3e 2e ee 01 be e6 5d 3e be 55 05 b0 bc
       0.37609643 -0.12688515 -0.18590507 -0.021486918
000040 82 5a 15 be 94 05 ef be a4 36 ab be fe 4c 19 be
       -0.14585307 -0.46683943 -0.33440125 -0.14970776
000050 4c 18 25 3f 1c 58 6d 3e 43 0f 5a 3d 5f b7 ec bc
       0.644902 0.23178142 0.05323721 -0.028896032
000060 8e 71 08 be 03 36 7a be a5 66 82 be 9b a6 c9 be
       -0.13324568 -0.24434666 -0.25468937 -0.39384922
000070 52 d4 7a 3e 8c ed b4 be e2 2b c2 be 36 ae 58 3e
       0.24495056 -0.35337484 -0.37924105 0.21160206
000080 e2 f8 4e bd 46 71 22 bd 73 83 48 be 7c 13 4c bc
       -0.050530322 -0.039658807 -0.19581394 -0.012455817
000090 3a 5e 27 be 1c d4 7d bd 81 0a 87 bf 3f ad 99 3d
       -0.16344538 -0.06196986 -1.055008 0.07503747
0000a0 82 e5 4a 3e aa d7 b6 be 11 76 1e 3f fd 6d ba be
       0.19814113 -0.35711414 0.61898905 -0.3641204
0000b0 65 56 3c 3d b4 d0 af bd 39 b0 b4 bd 56 10 3a be
       0.04598083 -0.08584729 -0.08822674 -0.18170294
0000c0 20 79 00 bf 12 16 eb bd e9 33 b5 be ef fc 4b 3e
       -0.5018482 -0.11478819 -0.35391167 0.19920705
0000d0 93 55 8c 3e c9 d0 4b be b5 65 fd bd 6e da d1 3d
       0.27409038 -0.19903864 -0.12372915 0.1024674
0000e0 be e0 7f 3d 98 1c 90 3e 51 44 83 be 66 de 76 3e
       0.06247019 0.28146815 -0.2563806 0.24108276
0000f0 83 88 08 bf 20 6a 0c be 1b 41 81 be f9 d3 1c bf
       -0.533333 -0.13712358 -0.25244984 -0.61260945
000100 dd e4 b8 be bf 0c c4 3e 33 fd bc be f0 2e 94 be
       -0.3611211 0.38290974 -0.36911926 -0.2894206
000110 f7 c0 62 3e cd 00 46 be 9c 60 74 be ea 67 02 bf
       0.22143923 -0.19336243 -0.23864979 -0.5093981
000120 7d d4 d7 3e ea fa 5b 3d 5d c4 79 3e fc 84 ef 3d
       0.42154303 0.053706087 0.24391313 0.11695287
000130 71 eb 9e 3e ea 15 01 3f 1e b0 e1 3e 6d e4 07 bf
       0.31039003 0.50424063 0.4407968 -0.53082925
000140 a1 aa 00 bd 67 c1 6e 3e 2c 30 7e bc 00 9f 73 be
       -0.031412724 0.23315965 -0.015514415 -0.23791122
000150 b2 0d 1a 3f e2 46 b8 bd 26 b5 04 3f af 30 78 bd
       0.6017715 -0.08997895 0.5183891 -0.060593303
000160 29 83 11 be 12 11 91 bc 89 4d 81 be 75 2d 8b 3e
       -0.1421019 -0.017708335 -0.25254467 0.27183118
000170 b9 5d a8 3e 2c dd 51 be c2 d1 bb 3e 8a d5 6d 3d
       0.32884005 -0.20494527 0.3668347 0.058064975
000180 73 0e 6e 3e d7 ab db 3e b1 2c 40 be 3e b4 74 be
       0.232477 0.4290454 -0.18767048 -0.23896882
000190 19 ba fb bd 6c dd ce be 79 cf 25 bf a3 84 02 be
       -0.12291355 -0.40403306 -0.64769703 -0.1274591
0001a0 33 26 f2 bd e1 7c 87 be c5 27 42 3e 68 dd 9b be
       -0.11823692 -0.26462463 0.18960483 -0.30442357
0001b0 7d e1 8c 3e f8 d1 17 3f be 13 de 3e 73 70 66 bd
       0.27515784 0.5930476 0.43374437 -0.056259584
0001c0 60 04 27 3f 4b f8 05 3f 78 69 00 3f 00 6a d2 3e
       0.6524105 0.5233199 0.5016093 0.41096497
0001d0 93 07 63 3e 4c e5 f0 3e 30 bd da 3e 55 59 12 3f
       0.22170858 0.4704994 0.42722464 0.5716756
0001e0 af 9b fa 3e b6 c0 77 3d f7 ee 94 be 75 66 db be
       0.48946902 0.060486518 -0.29088566 -0.42851606
0001f0 b4 77 ef 3e da b4 99 be 91 90 ec 3e c5 19 68 bd
       0.46771014 -0.3002079 0.46204045 -0.0566652
000200 95 c5 00 3e 5e 29 c3 bd 40 ad 84 be 67 72 98 be
       0.12575372 -0.095293745 -0.2591343 -0.29774782
000210 9b 76 0b 3d 2e 4c dd 3d 3d f7 b3 3c 8b e5 34 bd
       0.034048658 0.10805546 0.021968478 -0.04416422
000220 3b 5a 20 bd 8d 6c 08 be a9 a8 dd bd d1 d5 ee be
       -0.03914855 -0.13322659 -0.10823185 -0.46647504
000230 29 2a 69 bd 99 60 44 bd 90 9e 1c be b6 13 a2 3e
       -0.056924973 -0.047943685 -0.15294862 0.31655663

player_tree_2.W_self.bias f4 [12]
000000 df 4e d3 bc 90 69 8c bd 90 b3 24 bd f9 a1 76 bd
       -0.025794445 -0.06856072 -0.040210307 -0.060213063
000010 a7 c6 9c bd 3d ac 88 3d 29 db 14 3c 2f b1 e5 bc
       -0.076550774 0.06673477 0.009085455 -0.02803859
000020 c7 b3 4d bd d3 ec 34 3d 60 c8 c7 bd 00 58 5b bc
       -0.050220277 0.044171166 -0.097550154 -0.01338768

player_tree_3.W.weight f4 [12, 12]
000000 d3 b7 b2 be 26 07 35 be d6 0e e6 3c 28 d3 0c bf
       -0.34905872 -0.17678508 0.028083246 -0.550097
000010 a6 93 df 3e e7 8a 3d 3d 48 a3 e7 bd f1 11 01 3f
       0.43667334 0.046275046 -0.1131044 0.50418
000020 e1 4f 2c 3e 92 69 39 bd 46 c8 92 be f8 c2 83 3d
       0.16827346 -0.045266695 -0.28668422 0.06433672
000030 09 c6 ea be fa 65 c3 be a1 ed 42 bf f3 09 0b 3d
       -0.45854214 -0.3816374 -0.7614384 0.033945035
000040 65 c6 5c 3e d0 c1 da 3e 99 0f 4d be 5f 9e 85 3e
       0.21560057 0.42725992 -0.20025481 0.2609739
000050 5f 2e da 3d 4e 5b 83 3e d1 d0 7a be 5c cc b7 be
       0.10653376 0.25655597 -0.2449372 -0.358981
000060 49 25 a6 be a3 08 e0 3e c6 e1 9a bd a3 1f 25 3d
       -0.3245032 0.4375659 -0.07562594 0.040313374
000070 5e 5c 34 3e cb 95 c0 be 95 2b a2 be b1 2a 98 be
       0.1761336 -0.37614283 -0.31673875 -0.2972007
000080 9d 0a 0c be 29 5f 94 3d 1e e7 02 3f 91 0a 1a 3d
       -0.13675924 0.07244713 0.51133907 0.037607733
000090 a7 98 10 be 75 70 77 3e 31 c6 d3 be 43 1e ee 3e
       -0.14120732 0.24163993 -0.41362146 0.46507463
0000a0 c5 c4 0c be 99 5a c4 be a9 12 5e be 9f e4 b5 bd
       -0.13746937 -0.3835037 -0.21686806 -0.08881497
0000b0 b2 7b c6 bd ca 9f 0e be 86 10 39 be 38 cf 02 bf
       -0.09691562 -0.13928142 -0.1807271 -0.5109744
0000c0 09 c5 3a 3e 44 14 b2 3e cd bb 82 be 80 64 3a bf
       0.18239225 0.34781086 -0.25533906 -0.728096
0000d0 eb 6d 8d 3e 24 c3 1e 3e 9d d9 12 3e 9a 0c 52 bc
       0.27622923 0.15504128 0.14340825 -0.012820387
0000e0 26 18 8a 3d d5 3c 2e be 69 be 04 3f a6 30 9e 3d
       0.06742887 -0.17015393 0.5185304 0.07724123
0000f0 13 b4 d0 3d ff e9 9e 3d 7f 80 c6 3e 94 e1 34 3e
       0.101905964 0.07759475 0.3876991 0.17664176
000100 32 1c 0f 3f 51 72 9a 3d 1f 3a 22 3f 7b 88 f5 be
       0.559024 0.075413354 0.63369936 -0.4795569
000110 3f d2 7e 3d 30 bb 17 3d 65 bc 26 be 6a 33 88 3e
       0.062212225 0.03704375 -0.16282804 0.26601726
000120 5a 23 c9 bd 92 00 04 bd cf 0d 8c be 24 61 68 be
       -0.09821196 -0.032227106 -0.27354285 -0.22693306
000130 d5 7f e8 bd fe 53 dc 3e 01 f8 c9 bd c8 27 63 3d
       -0.11352507 0.4303283 -0.09861756 0.05545786
000140 a0 8d e7 bd 85 a9 10 3e d7 d6 07 3e c2 83 a3 3e
       -0.1130631 0.14127167 0.13265549 0.3193646
000150 6f ad 14 3f 32 0a ac 3e 2e 11 33 3f b2 79 27 bf
       0.5807714 0.33601528 0.6994809 -0.6542007
000160 06 c1 01 be e9 f9 0e be ee 90 35 3e 28 06 d6 be
       -0.12671289 -0.1396252 0.17731068 -0.41801572
000170 d7 71 a8 be 7d f0 ed 3e e8 7c 23 bc a3 b3 b5 3e
       -0.32899353 0.4647254 -0.00997851 0.35488614
000180 4f 84 99 be 62 26 f0 be 1c d1 38 3e 3d c0 6a bd
       -0.29983756 -0.46904284 0.18048519 -0.05731224
000190 54 21 7c 3d 21 d0 90 3d 86 80 83 3e d3 5c aa be
       0.06155522 0.070709474 0.25683993 -0.33273944
0001a0 0e 0e 79 3e 1f e7 ce 3d cc d0 21 be 46 23 18 3f
       0.24321768 0.101026766 -0.15802306 0.59428823
0001b0 a1 d1 8c 3d 51 e9 bb be e5 6d 65 be 9d 38 75 3d
       0.06875921 -0.36701444 -0.22405203 0.059868444
0001c0 d1 39 32 3e 73 12 86 be c5 a8 7b 3c 67 f1 c6 3e
       0.17404868 -0.2618595 0.015360062 0.3885605
0001d0 81 ae 03 be 8f ae c0 be fa 12 c1 3e a8 b2 3a bc
       -0.12859537 -0.37633178 0.3770979 -0.011395134
0001e0 6e b5 a7 3e 51 ec 1b bf fa 55 fa 3d f6 fc df 3d
       0.32755607 -0.60907465 0.1222343 0.1093692
0001f0 51 26 3e be 51 01 24 3e 65 2e 69 be b0 63 c0 3e
       -0.18569304 0.16016127 -0.22771604 0.37576056
000200 55 33 9c bc e2 31 ce be 78 54 48 bd e1 6b 67 be
       -0.019067446 -0.40272433 -0.04890868 -0.22599746
000210 65 4d de bd 0c 49 a3 3d 23 67 33 3e 78 0a ce 3e
       -0.108546056 0.07972917 0.17519812 0.40242362
000220 86 d5 21 3d 0b 32 c8 3d 50 c1 b0 bc 67 45 c4 bc
       0.039510272 0.0977517 -0.021576554 -0.023958875
000230 e6 09 24 be 9e 1f ee be 55 77 14 be 91 c7 87 3e
       -0.16019401 -0.46508497 -0.14498647 0.26519445

player_tree_3.W.bias f4 [12]
000000 21 b3 0e 3e 19 91 06 3e 0f e7 dd bd c0 14 39 bd
       0.1393552 0.13141288 -0.108350866 -0.045185804
000010 ae a9 f3 bc a3 2a 1c be 02 eb 00 bc 90 59 8a 3d
       -0.029743996 -0.1525064 -0.00786853 0.06755364
000020 f4 45 19 bd 6e 8c 7a bd c0 b6 99 3c 77 99 5d 3d
       -0.037420228 -0.06116908 0.0187639 0.054101434

player_tree_3.W_self.weight f4 [12, 12]
000000 6b 67 05 3e 4a 4f 3c be ad 94 36 3f 42 4b 26 bf
       0.13027732 -0.18389621 0.7132061 -0.64958584
000010 6d 6a fd be 5f 7c a6 bd d4 97 8a 3e 85 e3 77 be
       -0.4949526 -0.08129191 0.2706896 -0.24207886
000020 7e 14 04 bd 9d da 3f 3d 40 61 b1 3e 72 99 88 be
       -0.032246105 0.046839345 0.34644508 -0.2667957
000030 18 59 32 bd 6c 70 af 3e 51 bc a5 be e0 7f 90 3e
       -0.043541998 0.3426546 -0.32370237 0.2822256
000040 1a 44 31 be fd 61 c7 3e d9 b4 fe bc 63 86 06 3b
       -0.17311135 0.38941947 -0.031092094 0.0020526878
000050 09 27 4d 3f 92 c8 85 bd 30 66 d9 be b5 d9 73 bd
       0.8013769 -0.065323964 -0.42460775 -0.059533793
000060 24 63 69 bb 51 cb 99 bc da 73 44 be 21 14 15 be
       -0.003561207 -0.018773707 -0.19184819 -0.1455846
000070 19 de f8 be 5a fc 42 be c3 03 c8 be 58 8d 01 bf
       -0.48606947 -0.19041577 -0.3906537 -0.506063
000080 14 02 18 bf a6 ff 88 3e 32 cb a0 be f3 d1 40 3e
       -0.5937817 0.26757544 -0.31405026 0.1883009
000090 70 a3 05 be 4a 03 90 3e 03 60 eb 3d f3 ec 5e 3e
       -0.13050628 0.2812751 0.11492922 0.21770076
0000a0 4e b7 15 bf a0 4e 86 be 19 ac b8 3c 5a 91 d8 be
       -0.58482826 -0.2623186 0.022543 -0.42298394
0000b0 3e ad 1b be fa 3e f7 be cd b7 53 3e 62 29 8c 3e
       -0.15202805 -0.48290235 0.20675583 0.27375323
0000c0 d2 3f e9 be 38 0f df 3e 7d 32 81 be 82 09 f3 be
       -0.45556504 0.43566298 -0.25233832 -0.4746819
0000d0 db 8b 85 bd 65 b0 f7 bc 37 35 97 bc 66 ac 8e bd
       -0.06520816 -0.030235479 -0.018457992 -0.06966476
0000e0 af 1b 89 be ee e3 1e be f1 64 b5 bd 38 a8 d0 3d
       -0.26778933 -0.15516636 -0.08857144 0.10188335
0000f0 4c f2 a0 3e 51 e9 a6 3b b9 ff f0 bd 5f 53 e3 3e
       0.31434858 0.0050937315 -0.11767525 0.44399545
000100 52 97 f1 3e b2 d5 ef bc ee 1c 75 3e 97 f2 f4 3d
       0.4718576 -0.029276703 0.23936817 0.11960333
000110 91 3e b0 3e e4 66 af 3d 45 2e 6d 3d 32 0d 22 bf
       0.34422734 0.08564547 0.057905454 -0.63301384
000120 1b 39 fb 3e e1 8a 56 be 3f 1f 93 3e 12 2d ef bb
       0.49067006 -0.20951416 0.28734776 -0.007299074
000130 b2 e3 96 3e 2b b1 53 be c3 2c 0a 3f e9 cf 95 3d
       0.29470593 -0.20673053 0.5397455 0.07315046
000140 d4 d8 d4 bc 79 b0 45 3f f3 00 e2 3e 19 c5 e4 3e
       -0.025982298 0.772224 0.4414135 0.44681624
000150 33 ab 3f 3e 23 73 91 3e f1 59 c8 3e 13 76 5f 3d
       0.18717651 0.28408155 0.3913112 0.054555964
000160 ed 58 1b 3f e7 87 ad 3d 1a 8a e5 3b 9c 6c 00 bf
       0.60682565 0.08473187 0.0070049884 -0.50165725
000170 a0 76 d4 3e f2 51 6c be 4e fa d7 3e e7 c1 a2 bc
       0.41496754 -0.23078135 0.42183155 -0.01986785
000180 92 6d 24 3f a1 39 8b be dc 2e 3e be 44 68 11 3e
       0.6422969 -0.27192405 -0.18572563 0.1419993
000190 6e 9c 3c bd 15 c4 18 3f 01 1e 08 3d d8 50 96 bd
       -0.04604762 0.596742 0.03323174 -0.073396385
0001a0 38 84 f6 be 82 6e 89 3e 08 84 89 be 0f ae b5 3e
       -0.4814775 0.26842123 -0.26858544 0.3548436
0001b0 e8 f8 23 3e 9c c4 ec 3e 21 96 fa bd a9 c7 15 bf
       0.16012919 0.4624375 -0.12235666 -0.5850778
0001c0 ed 91 0e be de 33 bb be 5e cc 2e bf 69 c5 80 3e
       -0.13922854 -0.3656301 -0.6828059 0.25150612
0001d0 74 95 1e be b1 23 9c bb 84 77 64 3e 36 73 09 bd
       -0.154867 -0.004764997 0.22311217 -0.03355714
0001e0 97 1a d8 be e5 e7 11 bf 89 e2 75 be c9 5f b2 3e
       -0.42207786 -0.5699447 -0.24012198 0.34838703
0001f0 2f 8d 45 be 55 17 f9 bd 18 f1 0c 3e bf 06 90 be
       -0.19292139 -0.12162653 0.13763845 -0.28130147
000200 f4 d3 39 3e 6e a6 c6 3e 2f 88 cc be 16 2a c4 be
       0.1814726 0.3879885 -0.3994765 -0.3831336
000210 8a ca d1 be 04 4d ed bd 12 ef 5b 3e 5f d8 c1 3b
       -0.40974838 -0.11586955 0.21477917 0.005915686
000220 5e a8 c2 3d 88 ea cf be 7b 2b 57 3e 31 c5 c6 3e
       0.0950477 -0.4060862 0.2101268 0.3882232
000230 b4 08 c5 3c 8b a8 a5 3e 4f fe 8f 3e 88 55 04 3e
       0.024052002 0.3235515 0.2812371 0.12923253

player_tree_3.W_self.bias f4 [12]
000000 21 b3 0e 3e 19 91 06 3e 0f e7 dd bd c0 14 39 bd
       0.1393552 0.13141288 -0.108350866 -0.045185804
000010 ae a9 f3 bc a3 2a 1c be 02 eb 00 bc 90 59 8a 3d
       -0.029743996 -0.1525064 -0.00786853 0.06755364
000020 f4 45 19 bd 6e 8c 7a bd c0 b6 99 3c 77 99 5d 3d
       -0.037420228 -0.06116908 0.0187639 0.054101434

player_tree_4.weight f4 [8, 12]
000000 f8 ae ac be 77 6e 1e bf 43 e4 f4 3e a0 43 aa 3b
       -0.3372724 -0.61887306 0.478304 0.00519605
000010 1e 44 ba be 34 a2 04 be dd 9a 15 be fb 9f 31 3f
       -0.36380094 -0.129525 -0.14609857 0.69384736
000020 f9 54 a2 bd fa f4 b7 be 38 72 88 3d 04 07 00 bf
       -0.079263635 -0.3592909 0.066624105 -0.50010705
000030 1c c5 33 be 26 49 0b be a3 eb 3b be 82 52 a1 3e
       -0.1755566 -0.13602123 -0.18351607 0.3150826
000040 27 cd d7 3d c8 67 21 bf fa 08 4c bf 8b 93 5b be
       0.105371766 -0.6304898 -0.797012 -0.21443002
000050 90 1c 88 be 96 46 74 3e 9f 93 88 be a6 f7 d9 bd
       -0.2658429 0.23855051 -0.26675126 -0.10642938
000060 0a a8 57 be ef c0 c3 be 41 23 fb 3d a8 f1 94 bc
       -0.21060196 -0.38233134 0.122625835 -0.018181637
000070 60 c3 a1 3e ba d6 0b bf 1e f5 38 be 70 3f 09 bf
       0.31594372 -0.5462452 -0.18062255 -0.5361242
000080 cd 84 b9 3e bd 78 0a bf a4 fc fe 3e 5c b7 30 3d
       0.3623413 -0.5409048 0.49802125 0.043143615
000090 1c 8d 32 3d fb 70 33 3d 97 74 56 3e c9 3c fb 3d
       0.043591604 0.04380892 0.20942913 0.12267453
0000a0 e4 cc ad be 01 1f c7 bd 98 1d 28 3f 2e 6b c3 3e
       -0.33945382 -0.097227104 0.65670156 0.3816771
0000b0 76 7d fb bc 16 ce 02 3f 70 3c c4 bd ad d6 ae 3b
       -0.030699473 0.5109571 -0.0958184 0.00533565
0000c0 d2 ba f3 be eb 7c 61 3e 43 70 ee bd f2 6d f9 3d
       -0.4760347 0.22020309 -0.11642506 0.121791735
0000d0 e7 82 0c 3f 21 13 b7 bd e0 8a f8 3c eb cf 06 3e
       0.5488724 -0.089391954 0.030339658 0.13165252
0000e0 53 ab c8 3e 63 89 3f 3e a1 23 52 bf b1 20 d0 be
       0.3919321 0.18704753 -0.82085615 -0.40649942
0000f0 c9 dc f7 be 22 5d 90 be 8d 51 bc be f1 38 06 be
       -0.48410633 -0.28196055 -0.36780968 -0.13107659
000100 7f 4c c2 3e 45 f8 63 be 9f e8 b6 be f4 03 83 3e
       0.37948987 -0.22262676 -0.3572435 0.25588953
000110 48 16 11 3e 63 0c 29 3e 3f 73 b6 3e 7a 29 0e 3e
       0.14168656 0.16508631 0.356348 0.1388301
000120 33 a2 40 be ab 1e a3 bc 7f 9d e4 3e 07 40 fd bd
       -0.18811874 -0.019912085 0.4465141 -0.12365728
000130 e8 f9 ee bd d2 5c 74 bf a0 55 1e 3f 39 62 c2 3e
       -0.116687596 -0.9545413 0.61849403 0.37965563
000140 50 51 e1 3d 14 17 ac be 0e a4 3d 3c 7e eb 95 3b
       0.11001837 -0.33611357 0.011574758 0.004575192
000150 34 75 34 3e d2 77 32 bf 31 53 d4 bd 05 10 9e 3d
       0.17622834 -0.6971408 -0.1036743 0.07717899
000160 e8 20 fb 3e ed 60 9d bd 1a 00 55 bd 1a 5b 6f 3d
       0.49048543 -0.07684503 -0.05200205 0.05843649
000170 e9 41 ee bc 11 ad 43 3e ee 12 77 3e 90 74 ec 3e
       -0.029084163 0.19108988 0.24128315 0.4618268

player_tree_4.bias f4 [8]
000000 13 05 84 3d f2 a8 65 3c 06 3a 06 3c e4 ff 2a be
       0.0644628 0.0140173305 0.008192545 -0.16699177
000010 99 b4 e5 3b 14 9a 02 bd 27 c3 ce 3d 0a 79 94 bd
       0.0070100543 -0.03188522 0.10095816 -0.07249649

sun_influence_1.W.weight f4 [12, 12]
000000 65 2d dc 3e 4b 61 84 bd e1 bd a1 3c ad 3c 72 3f
       0.43003383 -0.0646387 0.019743862 0.94623834
000010 6a 6d 4c bd 9b 81 ec 3e c9 da 99 3e 24 9e 4a 3f
       -0.049909033 0.4619263 0.30049732 0.79147553
000020 06 2d aa be b5 ff 32 3d 4e 2a 7c 3d 01 0b 0e 3e
       -0.33237475 0.043700892 0.061563782 0.13871385
000030 9f 2a 75 be e9 04 d7 3e ee aa 74 3e 20 c0 4b 3d
       -0.2394204 0.41995934 0.2389333 0.04974377
000040 55 a3 12 bd 8e ef b2 3d 6d 67 04 be de 30 0b bd
       -0.035800297 0.08737098 -0.12930079 -0.03398215
000050 c3 0f 7c 3e 24 e5 a8 bd 63 ad 9e 3e 72 71 f3 3e
       0.24615388 -0.0824683 0.3099166 0.4754749
000060 0e d3 53 be 1e e4 8e be 82 52 9e 3d 2a fc e3 3d
       -0.2068598 -0.27908415 0.07730581 0.11132081
000070 d7 7f 12 bf ac b2 8a 3e 29 46 83 be 51 71 6b be
       -0.5722632 0.2708944 -0.25639465 -0.22992446
000080 cb a6 c3 be 98 ec b0 be 77 36 7f be 1c 33 71 be
       -0.3821319 -0.34555507 -0.2492312 -0.23554653
000090 bc 2a 02 be 41 32 44 3d bb 34 36 bd c7 bf 85 3d
       -0.12711614 0.04789949 -0.04448388 0.06530719
0000a0 31 55 96 3e a4 13 e7 be 44 6e f2 3e 28 f3 2b 3f
       0.2936187 -0.45132172 0.4734975 0.671679
0000b0 e2 04 3f 3e 13 94 c9 be da 88 73 be ef 73 46 3e
       0.18654206 -0.39370784 -0.23782673 0.19380163
0000c0 02 66 3c 3e c4 34 bd bd 26 7c b9 3e df 4d f6 be
       0.18398288 -0.0923858 0.3622753 -0.48106286
0000d0 3a 6e cd be c3 fb 4f be 09 31 8d 3e 1b 45 05 be
       -0.4012316 -0.20310883 0.27576473 -0.13014643
0000e0 28 26 a5 3c a9 05 bd 3d d7 af 21 3f ce 0c fc 3e
       0.020159796 0.09229595 0.63158935 0.4922852
0000f0 69 2b 59 be 98 6f 45 3d 8a 3d c7 3e b0 51 9a be
       -0.21207966 0.048202127 0.38914138 -0.30140448
000100 f5 98 a4 bd 3d df 9f 3c 0e 85 14 3e 4e 8f d1 3e
       -0.08036987 0.019515628 0.14503881 0.40929645
000110 3a e7 9d 3e 58 b6 47 3d 15 c2 ee bd c0 7b 57 3e
       0.30840474 0.04875788 -0.11658112 0.210433
000120 99 a4 b4 3e 8f 59 ea be ee a3 00 bf 49 b6 98 be
       0.35281828 -0.45771453 -0.50250137 -0.29826573
000130 d5 0f 11 3e d7 b3 02 bf 53 eb 5c 3e 95 58 a1 be
       0.14166196 -0.51055664 0.21574144 -0.31512895
000140 4f 32 08 bf 43 11 ec bc 4f 33 a3 3e 50 e8 b1 3e
       -0.53201765 -0.028816825 0.31875083 0.34747553
000150 0a e2 ef 3d 76 92 9b 3e 0c af b3 3e 37 b4 02 be
       0.117130354 0.30385178 0.35094488 -0.12764059
000160 98 06 fd bb fe 5f 7f 3e 10 7b 78 be 08 3b a6 be
       -0.0077217333 0.24938962 -0.24265695 -0.32466912
000170 a1 a3 4b be c1 1d 63 3e ba 3b 35 be 26 c0 e8 be
       -0.19886638 0.22179319 -0.17698565 -0.45459098
000180 a7 4d 32 3e ca 53 37 bf 0a ee a3 3e ea 8b 91 be
       0.17412435 -0.71612227 0.32017547 -0.28427058
000190 eb 1c 7c 3e 13 95 08 bd 38 23 de be 84 53 1e be
       0.24620406 -0.033345293 -0.43386245 -0.15461546
0001a0 09 28 34 3e 11 58 f0 3d 56 51 a8 3e 35 55 f0 3c
       0.17593397 0.11735547 0.32874554 0.029337505
0001b0 32 29 b5 be 1e 0e c1 3e 16 42 18 be 91 36 48 3e
       -0.35382992 0.37706083 -0.1486896 0.19552065
0001c0 5c 47 85 3d 90 d1 3a be 24 cd 8c be fe 60 20 be
       0.06507751 -0.18244004 -0.2750026 -0.15662
0001d0 28 a6 fb 3e 9a 3a 4d be 79 01 d3 be 64 20 04 3e
       0.49150205 -0.20041886 -0.4121206 0.12902981
0001e0 2a f1 a5 be 7a 05 99 bd 31 19 dd be d9 4e d1 3c
       -0.32410556 -0.07471748 -0.43183282 0.025550293
0001f0 68 b1 8c be 51 1c c5 bd 66 be 2d be f7 33 23 3f
       -0.274791 -0.096245416 -0.16967162 0.6375117
000200 ec 0c 03 bf 56 de fa be 34 98 d3 3e bc f4 fc bd
       -0.5119159 -0.48997754 0.4132706 -0.12351367
000210 7d d6 80 be 3d 10 85 be ba 9b 67 3d f9 f8 12 3e
       -0.25163642 -0.2598895 0.056544997 0.14352788
000220 2b fd d5 be a7 ca a6 be 66 f2 0a ba fb f5 53 bf
       -0.41794714 -0.32576486 -0.00053004024 -0.8279721
000230 7e d4 98 bd 43 d7 e5 bc 8a 0a 37 3f dd 94 03 3f
       -0.07462405 -0.028056746 0.71500456 0.5139902

sun_influence_1.W.bias f4 [12]
000000 9c 1f 4f bd 5b 04 9f bd e6 f0 b0 3d 7c f9 ba bd
       -0.050567254 -0.077645026 0.08639698 -0.091296166
000010 df 38 52 bd ad 20 ea 3b 62 53 96 bd 18 41 c4 bd
       -0.051323768 0.0071450085 -0.07340123 -0.09582728
000020 c9 30 08 be d0 da 9c bd fa fb f0 bc 33 8e 14 3d
       -0.1329986 -0.07658923 -0.029417027 0.036268424

sun_influence_1.W_self.weight f4 [12, 12]
000000 54 fc a4 be 71 cc ca 3d 60 44 21 3f 71 78 5e bd
       -0.3222376 0.09902275 0.62994957 -0.05431408
000010 75 c1 c6 3d 06 22 9c 3e 9f 45 f3 3e 86 ef 23 bf
       0.09704868 0.30494708 0.47514054 -0.6403736
000020 83 2c c8 3e df ce a8 3c 39 a5 5a 3f ed 75 13 3f
       0.3909646 0.020606456 0.8540836 0.57601815
000030 28 74 a3 3e 49 fe 05 bf 6e db ad be 07 26 0c 3e
       0.31924558 -0.52341133 -0.33956474 0.13686381
000040 f4 90 fc 3e 6e 60 23 3d 5a cf 39 bd ad b7 4b bd
       0.4932934 0.039886884 -0.04536376 -0.049735714
000050 5a dc 05 3f e7 12 6a 3e 7b d1 61 be f7 ce b2 be
       0.52289355 0.22858773 -0.22052567 -0.34923527
000060 70 90 b6 be 12 ae 59 be b5 4e 4b be 2e a8 35 ba
       -0.35657072 -0.21257809 -0.19854243 -0.0006929663
000070 64 61 5e be 06 6d fe be ef ab de 3e 45 9e 96 3e
       -0.21716839 -0.49692553 0.4349055 0.29417625
000080 d2 6e a9 be 3f fb 2b 3f b1 c2 17 3f ae 00 d3 3d
       -0.33092362 0.67180246 0.5928145 0.10302864
000090 c1 2f 7e 3e 4b 22 56 3e 08 e2 2e be a3 13 b7 3e
       0.24822904 0.20911519 -0.17078412 0.3575717
0000a0 35 8d 1f be 24 c5 b0 be 5f 02 aa be cc 9a 77 3c
       -0.1558121 -0.34525406 -0.33204934 0.01511259
0000b0 92 e4 8b be fc a7 cc be 49 59 fc be e5 37 ce bd
       -0.27322823 -0.39971912 -0.4928687 -0.10069255
0000c0 8c f9 5f be 73 5e 28 be 7b 43 10 bf 35 4d 3d be
       -0.21872538 -0.1644228 -0.5635297 -0.18486483
0000d0 9c 6c cd 3e 61 d9 c6 bd a8 89 93 be 88 16 5d 3e
       0.40121925 -0.097094305 -0.2881596 0.21590626
0000e0 00 97 2a bf 54 73 91 be e0 83 2e 3e c4 d1 65 bd
       -0.6663666 -0.284083 0.17042494 -0.05610825
0000f0 7b 4f 40 3e 0a 1e 15 3f 50 d0 2d 3f f5 7e 10 bf
       0.1878032 0.5824896 0.67895985 -0.5644372
000100 69 ec db 3d 78 39 18 3f 5e 5b 5b 3c fd 63 97 be
       0.10738451 0.5946269 0.013388483 -0.29568473
000110 30 78 02 be 00 39 81 3f 45 24 d1 be 9d e2 be 3c
       -0.1274116 1.009552 -0.40847984 0.023301417
000120 66 d5 3b 3e 77 37 bb be 88 43 aa be 53 b1 01 bd
       0.18343124 -0.36565754 -0.33254647 -0.03166325
000130 30 af b5 3e ac 1e 20 bb 95 3d 01 3f 52 1e 37 3f
       0.3548522 -0.0024432344 0.5048459 0.7153064
000140 07 bc 87 3b ac 90 8b bd c3 9c 75 3e 32 42 ed 3d
       0.0041422877 -0.06814703 0.23985581 0.115848914
000150 15 cb 11 3f 57 56 6a 3e 81 ef f2 be 97 92 00 3f
       0.56950504 0.22884499 -0.47448352 0.5022368
000160 c1 3f c0 3e 0b 38 83 3e b3 7d 00 3f ab 34 80 bd
       0.3754864 0.25628695 0.501918 -0.062600456
000170 c8 03 d8 3e e4 43 40 3d 86 fc ab 3e f8 d0 08 3d
       0.42190385 0.046939746 0.33591098 0.033402413
000180 ee 1c 01 3f 7f 1a 50 be 09 5f e8 3e 68 cb fa 3d
       0.5043477 -0.20322607 0.45385006 0.12245828
000190 a9 37 11 bc 5b 17 cc bc 30 65 20 be fe 8f 9b 3e
       -0.008863368 -0.02491348 -0.156636 0.30383295
0001a0 96 e3 8e be 0b de 97 bd 51 70 9a be 11 dc 95 3d
       -0.2790801 -0.07415398 -0.30163816 0.07317365
0001b0 75 54 fd 3e c0 21 8e 3e 63 6b ef 3e 69 43 15 be
       0.49478498 0.27760124 0.46761617 -0.14576496
0001c0 2f c8 b8 3d 6c 25 48 be 17 b8 64 be 65 f9 6e be
       0.09022557 -0.19545525 -0.2233585 -0.23337324
0001d0 5d a1 1c bf 59 9d 51 be 55 2b 36 be 83 7c d2 3e
       -0.6118372 -0.2047018 -0.17789967 0.4111062
0001e0 b8 01 ba be 21 a5 67 be 2b 2f 06 be 71 ee 0d 3e
       -0.36329436 -0.22621585 -0.1310393 0.1386049
0001f0 99 be 6a be 0e 8a e6 bd 97 90 3d be 2a 02 9d 3e
       -0.2292427 -0.112568006 -0.18512188 0.30665714
000200 ac cf 05 bf 0f dd da be 75 72 30 be 50 93 0b bf
       -0.5227001 -0.4274678 -0.17231162 -0.54521656
000210 25 37 fa 3d 48 f2 d5 be 96 7b 7b bd c4 79 ff be
       0.12217549 -0.41786408 -0.061397158 -0.49897587
000220 64 1c 8e 3e b4 cc 86 bd 4f 75 82 3e 33 6d 24 3e
       0.27756035 -0.06582013 0.25480124 0.16057281
000230 6b 38 e2 bc 93 d9 75 be c4 d2 98 be ac 93 ae be
       -0.027614793 -0.24008779 -0.298483 -0.3409704

sun_influence_1.W_self.bias f4 [12]
000000 9c 1f 4f bd 5b 04 9f bd e6 f0 b0 3d 7c f9 ba bd
       -0.050567254 -0.077645026 0.08639698 -0.091296166
000010 df 38 52 bd ad 20 ea 3b 62 53 96 bd 18 41 c4 bd
       -0.051323768 0.0071450085 -0.07340123 -0.09582728
000020 c9 30 08 be d0 da 9c bd fa fb f0 bc 33 8e 14 3d
       -0.1329986 -0.07658923 -0.029417027 0.036268424

sun_influence_2.W.weight f4 [12, 12]
000000 4a 78 08 be 7a 00 c0 be d9 13 ed 3e 6f ba 84 bf
       -0.13327137 -0.37500364 0.46304205 -1.0369395
000010 7a bd 8b be c4 93 26 bf b8 fe 10 3e be b4 c1 3d
       -0.27292997 -0.6506922 0.14159667 0.09458302
000020 ee dc c3 3e 99 9b 54 3e 65 b6 3c bf 10 2e cf be
       0.38254493 0.20762481 -0.7371581 -0.4046483
000030 21 20 45 be 8a 0a 0d bf ef a5 46 3d 82 e6 f4 bd
       -0.19250537 -0.55094206 0.04849809 -0.119580284
000040 97 c3 22 3d e8 f8 03 be 36 11 53 3d cc 15 1d 3e
       0.03973731 -0.12887919 0.051530086 0.15340346
000050 e4 20 4b be a4 3d 3c 3e 25 3b a3 bd 22 74 8b be
       -0.19836766 0.18382889 -0.07970265 -0.2723704
000060 08 cb d1 be 47 30 bd bd cb 97 a3 bd 3d 6d 45 be
       -0.40975213 -0.09237724 -0.079879366 -0.19279952
000070 69 df 1c 3e 7c 8e 19 bf 6e 60 49 be d4 f1 28 be
       0.15319599 -0.5998304 -0.19665691 -0.164985
000080 b5 79 8c 3e df a1 86 3d 3c 30 00 bf e0 a6 be 3e
       0.27436605 0.06573843 -0.500736 0.3723669
000090 28 97 fa 3d 63 d2 72 be 75 bc be 3e 0d e6 90 3e
       0.12235862 -0.23713069 0.37253156 0.28300515
0000a0 74 d5 de 3e be 8f db 3d 31 17 cb be 50 2d df 3e
       0.43522227 0.10720776 -0.3966613 0.43589258
0000b0 14 0b d5 3e 68 99 07 3d d9 f4 45 3e 65 c3 db 3e
       0.41610014 0.033105284 0.19331683 0.42922512
0000c0 eb a3 99 be c0 46 14 bf 1e 11 9f 3e 24 9c 42 bf
       -0.30007872 -0.57920456 0.31067747 -0.760195
0000d0 01 fc aa be f9 60 5d 3e 50 47 00 bb cc f9 0a 3f
       -0.3339539 0.21619023 -0.0019573756 0.5428741
0000e0 a3 1b dc 3d 9f 41 da 3d 42 db 4e 3c d9 b6 45 bd
       0.10747459 0.106570475 0.012625517 -0.04827008
0000f0 43 fb 07 3e 59 d0 ac be 7b a6 a9 3e 93 82 eb 3e
       0.13279442 -0.33752707 0.33134827 0.45998058
000100 dc 5c 14 bf be c8 a3 be 34 c7 d5 3d ff d8 9f 3e
       -0.5795419 -0.31989092 0.104383856 0.31220242
000110 ca 7d 98 3e c7 21 46 bf 81 d8 da 3e 67 cd bf be
       0.2978347 -0.7739529 0.42743304 -0.37461397
000120 19 bc fe 3e b9 39 b5 be df e0 bf be a4 d7 b9 be
       0.49752882 -0.353956 -0.3747625 -0.36297333
000130 55 70 dc 3e 94 48 af 3e 7e a0 01 3e 92 b1 d4 3d
       0.43054453 0.3423506 0.12658879 0.10385431
000140 a1 e3 b4 be c1 51 15 3f cc fb 4d bd 8f b7 39 3e
       -0.35329917 0.5832787 -0.05028896 0.18136428
000150 51 b6 34 be b9 c6 89 be 16 a7 1f 3e af 3d eb 3e
       -0.17647673 -0.26909426 0.15591082 0.45945498
000160 70 ea a8 be 31 0f 2f be af 09 89 bd 92 84 27 be
       -0.32991362 -0.17095639 -0.066913 -0.16359165
000170 45 84 5e be 57 75 01 bd 09 81 9a 3d b7 a1 26 bf
       -0.21730144 -0.031606045 0.07544143 -0.6509051
000180 a5 ff fe be 23 03 c4 be 70 92 75 3e b8 b2 ce 3d
       -0.49804416 -0.38283643 0.23981643 0.10092682
000190 04 c0 60 bc ce 37 f0 be 77 f0 a2 be f9 b0 a6 be
       -0.013717655 -0.46917576 -0.31824085 -0.32556894
0001a0 e8 d5 23 be e2 b1 a9 3d 27 3b 0d 3f 8c e8 2e 3c
       -0.15999568 0.082858816 0.55168384 0.010675561
0001b0 e0 5d 2d 3e a9 38 43 bd 0d 1a 52 be 9b f7 0a 3e
       0.16930342 -0.047661457 -0.2051775 0.13571016
0001c0 05 a3 c9 3d ce 6a ca be d5 10 7d be 93 cc 9d 3d
       0.09845547 -0.3953461 -0.24713452 0.07705035
0001d0 df 00 99 3e 95 bf 29 bf 13 fc d0 be 3a 64 c3 3e
       0.29883477 -0.66307956 -0.40817317 0.38162404
0001e0 38 6d 90 3e 17 78 5d bc e4 d3 ef 3e 1c 1b 06 bf
       0.28208327 -0.013517401 0.46841347 -0.52385116
0001f0 7f 0a c2 be 15 4c 00 3e 4a e3 0a bf e3 0a 0b bf
       -0.37898633 0.12529023 -0.54253066 -0.54313487
000200 b4 0b 1c be eb 3d ae 3e 44 32 2f 3d 7a 9a 72 bd
       -0.1523884 0.34031615 0.042772546 -0.05922935
000210 b3 48 40 3f 99 97 01 be 1a f3 1b 3c 24 e8 a6 3d
       0.7511093 -0.12655486 0.009518409 0.08149746
000220 b8 d1 a2 3d b3 52 ac 3e 11 c9 f2 bd 67 87 f1 3d
       0.07950157 0.33656844 -0.118547566 0.11793404
000230 5f 02 14 3e e8 b5 64 3e 83 29 9f 3e db ee fb 3e
       0.1445403 0.22335017 0.31086358 0.4920567

sun_influence_2.W.bias f4 [12]
000000 ec 1d c6 3d 9d 6d e2 bd 2d 23 db 3d 24 d1 1b ba
       0.09673676 -0.11056063 0.107000686 -0.0005943945
000010 16 5a 3e bd 1f 67 0f be 67 7e cd bd 8e fa c9 bd
       -0.04647263 -0.14004181 -0.10033875 -0.09862243
000020 a1 6c c6 3d ef d2 86 bd e6 90 11 be 92 ac 2a bd
       0.09688688 -0.06583201 -0.1421543 -0.041668482

sun_influence_2.W_self.weight f4 [12, 12]
000000 b6 58 6a 3c 48 4d 14 be 46 33 e8 3d 39 fa 61 bb
       0.014303377 -0.14482605 0.11337905 -0.003448142
000010 9d 7d a1 be 3f 86 17 bf 5a ae 97 3e 06 52 da 3d
       -0.31541148 -0.5918922 0.29625207 0.10660176
000020 60 ed 25 bd 37 a5 75 be 63 1e 93 bd c8 1c ef 3e
       -0.04050958 -0.23988806 -0.0718353 0.46701646
000030 5f 58 c1 3e b8 be df be 64 14 d3 3e 53 ff 30 bf
       0.37762734 -0.43700194 0.41226494 -0.69139594
000040 94 03 4e 3f e1 8f d4 bd 31 ab 9b 3e f6 bd e3 bd
       0.8047421 -0.10379005 0.30404046 -0.111202165
000050 96 5c b0 3d c1 95 e3 3e 0a 29 d6 be a7 4a 19 3e
       0.08611409 0.4445019 -0.41828185 0.14969884
000060 a1 1d e3 3e 6a 2b 9d 3e 90 aa 94 3e 41 d8 94 bd
       0.44358543 0.30697185 0.2903638 -0.0726781
000070 3a 11 13 bd ec 6d de 3e 46 b6 d1 3e e2 4d 34 3f
       -0.0359051 0.4344324 0.40959376 0.7043134
000080 c0 f7 9d 3d 1b 16 33 3f 2e 94 3d be 48 e0 74 bd
       0.0771327 0.69955605 -0.18513557 -0.059784204
000090 5b 70 cb 3c 72 69 8e 3e 9a f5 6c be 02 9d 70 bc
       0.024833849 0.27814823 -0.23140565 -0.014685871
0000a0 65 cc 11 3f 8b 60 29 bf 34 98 09 3e 34 e8 a8 3d
       0.56952506 -0.6616294 0.13436967 0.08247414
0000b0 9e dd bc 3d 6e 1e 35 be ae a4 83 be 48 2c 23 bb
       0.092219576 -0.17687389 -0.25711578 -0.002489822
0000c0 34 a8 2b bf 0b c3 52 be 3f c4 05 be b3 12 0a be
       -0.6705353 -0.20582215 -0.13063143 -0.13483696
0000d0 82 67 f1 3d 79 59 9e bc 24 24 bd 3d b9 86 ae 3e
       0.11787321 -0.019329773 0.09235409 0.3408716
0000e0 f2 69 8f 3e a7 55 ee bd d1 f3 a3 be 38 8d e6 be
       0.28010517 -0.11637431 -0.32021955 -0.45029616
0000f0 9f a8 85 bd d3 74 eb be 7c e1 98 bd 17 f2 6c bd
       -0.065263025 -0.45987567 -0.07464883 -0.057848062
000100 0d 6c d2 be 7a cb de be 46 d8 1b 3e a0 c0 39 3d
       -0.4109806 -0.43514615 0.1521922 0.045349717
000110 03 15 17 bc d4 9f 13 bf 16 61 1b bd 1a 9e aa bd
       -0.009221318 -0.57665753 -0.037934385 -0.08330937
000120 09 cf e1 bd 83 dc 13 3e 6f bf f1 be cc cc c9 3e
       -0.11025817 0.14439587 -0.47216365 0.3941406
000130 43 51 c8 3e c1 1e 4b be cb 2d 2c be 55 4c 00 3f
       0.39124498 -0.1983595 -0.16814344 0.50116473
000140 27 be e0 3e 41 8e 86 3e c0 ff b7 bd e5 7f e8 bd
       0.43895075 0.26280406 -0.08984327 -0.11352519
000150 df 00 83 be af 15 25 bb 33 ef 94 3d 34 43 8a 3e
       -0.25586602 -0.0025189926 0.07272186 0.27004397
000160 f0 a3 d1 3d a1 5a 8c bd 73 4c 71 3e 5d 1f f4 bd
       0.10236347 -0.068532236 0.2356432 -0.119200446
000170 14 13 4d be b9 00 ab 3e 9d 21 82 3e 62 2c cc 3d
       -0.20026809 0.3339899 0.2541627 0.09969403
000180 b7 df e7 3c 87 b1 be bc 77 80 90 3e 08 c1 b6 3d
       0.028304918 -0.023278011 0.2822301 0.089235365
000190 1c 1f a9 3c 79 d7 26 bf 43 2f ea be 4b f2 bd be
       0.020644717 -0.65172535 -0.45739183 -0.37098917
0001a0 7c 38 7b be 5e ff 13 bf 0b 03 84 3e 83 c8 9c 3e
       -0.24533266 -0.57811534 0.25783572 0.30621728
0001b0 b6 f2 08 3e 38 7f cf be ff 13 98 bc 8d 5f fa 3e
       0.13373837 -0.40526748 -0.018564222 0.48901024
0001c0 d7 70 93 3e b0 9b 4c 3e 8c c0 66 bd 2f 69 51 be
       0.28797027 0.19981265 -0.05633597 -0.2045028
0001d0 11 3d 0f 3f ed f0 29 bb d1 39 eb 3d cc 4f e7 3d
       0.55952555 -0.0025930956 0.11485637 0.11294517
0001e0 62 af 2b bf 3e 3e a5 3d a4 bd 72 3d a2 f8 54 be
       -0.6706449 0.080685124 0.059262887 -0.20797971
0001f0 57 f9 aa 3e a8 2b 80 be c2 5c e7 bd ce 78 42 be
       0.33393356 -0.25033307 -0.11296989 -0.18991396
000200 28 9a 07 bd 72 b9 c2 be 2b 11 9c bd c7 92 52 be
       -0.033106 -0.3803211 -0.07620462 -0.20563804
000210 ea de 8f 3e 2f d3 22 3e 64 9f ac be 89 3c 89 3e
       0.28099757 0.15900873 -0.33715355 0.26803997
000220 d3 02 91 3d 9b 52 a6 be 14 e3 cc 3e 26 3e ae 3e
       0.07080617 -0.32484898 0.40016997 0.3403179
000230 ae 38 ac be 5e f3 f8 3e 7f e8 b8 3e 06 f0 a6 be
       -0.33636993 0.48623174 0.3611488 -0.32604998

sun_influence_2.W_self.bias f4 [12]
000000 ec 1d c6 3d 9d 6d e2 bd 2d 23 db 3d 24 d1 1b ba
       0.09673676 -0.11056063 0.107000686 -0.0005943945
000010 16 5a 3e bd 1f 67 0f be 67 7e cd bd 8e fa c9 bd
       -0.04647263 -0.14004181 -0.10033875 -0.09862243
000020 a1 6c c6 3d ef d2 86 bd e6 90 11 be 92 ac 2a bd
       0.09688688 -0.06583201 -0.1421543 -0.041668482

sun_influence_3.W.weight f4 [12, 12]
000000 28 c7 87 be a2 31 9d 3e 64 b7 ee 3d ed 74 37 be
       -0.26519132 0.3070193 0.11656073 -0.17915697
000010 41 4f c6 bc 0f 22 58 be 24 60 09 3f be cf 9b 3e
       -0.024207713 -0.21106742 0.53662324 0.30431932
000020 b4 64 41 3e 2f 9d 82 be 71 0a 8a 3e 06 4d 10 3f
       0.18886071 -0.25510547 0.2696109 0.5636753
000030 38 1f 0b 3f a4 cb 86 be ee 1d 00 3f 45 5d 8a be
       0.5434451 -0.2632724 0.5004567 -0.27024284
000040 76 0d 2f bf 58 4c e9 3e 4d b3 17 bf 91 8a 4d bd
       -0.68379915 0.45566058 -0.59257966 -0.050180975
000050 09 ad 8d bd 0c 13 9a be ca e0 36 3e 03 d8 c6 3d
       -0.069177695 -0.30092657 0.17859188 0.0970917
000060 2a 18 52 bf 3d dc ee be 0d d2 be be e9 82 3f 3e
       -0.8206812 -0.46652403 -0.3726963 0.18702282
000070 22 01 84 3d c5 ab 07 3f c8 b3 d0 be cf 39 97 3e
       0.064455286 0.52996475 -0.40762162 0.29536292
000080 a0 8d ff 3e 09 29 31 be 20 60 69 3e a1 47 e3 3e
       0.4991274 -0.1730081 0.22790575 0.44390586
000090 73 4d 33 be 95 1e 3c bf 8f 20 41 bd c3 4e 2b 3d
       -0.17510013 -0.73484164 -0.04715019 0.04182316
0000a0 9b d5 a3 be 8a 13 70 be 60 3d 93 be 47 0e 50 3e
       -0.31998906 -0.23444954 -0.28757763 0.20317946
0000b0 ff 79 e4 bd 90 9f 1c 3d 4a 04 a4 be 88 50 cf be
       -0.111560814 0.03823811 -0.32034522 -0.40491128
0000c0 48 c2 5f be 94 d6 60 3e cb 43 22 3e e2 3a af be
       -0.21851456 0.21956855 0.15846173 -0.34224612
0000d0 f7 bf 37 be f6 0f 98 3e a3 39 8b 3c 7e 26 a1 3e
       -0.17944323 0.29699677 0.016995257 0.3147468
0000e0 55 1d bc 3d 84 70 f6 3d a2 da 88 3e e7 2c 24 3d
       0.09185282 0.120331794 0.26729304 0.040081885
0000f0 bf 4a 52 3e 99 13 b6 be 89 4b 0e 3d ed 42 2d 3e
       0.20536326 -0.35561827 0.034740005 0.16920061
000100 4c d6 1e 3f 4f dc 3a 3e bd bf 15 3e 85 a3 9a be
       0.6204574 0.18248104 0.14623924 -0.3020288
000110 33 db e2 3d 26 88 9a 3e e2 4a ac 3e ee 4a ae be
       0.11076965 0.30181998 0.3365088 -0.34041542
000120 3d 04 90 3e e3 b9 94 be 7c 07 3b be 11 6c 5d be
       0.28128234 -0.2904807 -0.18264574 -0.21623255
000130 39 84 02 3c b5 b7 d9 bc 65 df fb 3e b4 df a9 bd
       0.007966095 -0.026576856 0.49193874 -0.08294621
000140 03 56 21 3f 6c 66 86 3e 9c 49 9e be 3b 52 ac 3e
       0.6302187 0.26250017 -0.30915534 0.33656487
000150 0c 8a 4c be 38 e6 1b 3e 24 24 83 3e 7b 36 ac be
       -0.19974536 0.1522454 0.2561351 -0.33635315
000160 7a ff 07 3e 83 5b f2 be 3b ea 70 3e 2b 43 91 3e
       0.1328105 -0.47335443 0.23526852 0.28371558
000170 0b d5 12 bf 22 95 86 be 94 73 9c be 54 3e 0d 3f
       -0.5735633 -0.26285654 -0.3055693 0.5517323
000180 d9 7e 2f bd c6 28 2e 3e b9 73 8d bd 02 8c 50 be
       -0.04284558 0.17007741 -0.06906838 -0.20365909
000190 51 88 0a bd 01 78 d1 3e 20 b5 77 3b ff c4 bf be
       -0.033821408 0.40911868 0.0037797168 -0.37454984
0001a0 5e 45 7e bd 9c df 81 3e 1d 51 5a 3e fd 8b db be
       -0.062077872 0.25365913 0.21320005 -0.4288024
0001b0 cf 6c e7 3e 84 0e b5 bd b0 7c c4 be c7 93 84 bf
       0.45200202 -0.08840659 -0.3837638 -1.0357598
0001c0 0d 7a 3c 3e a3 6a 6f 3d 96 78 a4 3b 54 ba 15 3f
       0.18405934 0.058451306 0.005019258 0.5848744
0001d0 af 59 1b 3f 6d 30 19 be 8e 54 6f 3f a0 ec 12 bf
       0.6068372 -0.14959879 0.93488395 -0.5739231
0001e0 a6 4f 1a 3f 90 0c 91 3e 7a 18 59 3d 1c af 00 bf
       0.60277784 0.28329897 0.05300186 -0.50267196
0001f0 63 cc 8f 3d 22 8c cb be b7 26 8c 3e 86 03 b0 3e
       0.070214055 -0.3975535 0.27373287 0.34377688
000200 fa 60 6f 3e 3a fc 49 3e a6 01 a2 be c4 fa 33 3e
       0.23376837 0.19725123 -0.31641883 0.17576128
000210 ec 5d a8 3d 92 eb b6 bc 15 22 de 3c ae 0f 39 be
       0.08221039 -0.022329126 0.027115861 -0.18072388
000220 b5 3d 63 3d 7c 1f ee be ae b8 cb 3e 03 9a 21 be
       0.05547877 -0.46508396 0.39789337 -0.15781407
000230 f1 61 34 bf 82 91 29 be a0 a8 8b 3e a0 a8 44 3f
       -0.70461947 -0.16559413 0.27277088 0.768198

sun_influence_3.W.bias f4 [12]
000000 8a 71 08 bd df 75 39 3c 9d 17 73 bc 10 43 c2 bd
       -0.033311404 0.011319607 -0.014837173 -0.094854474
000010 fe e8 85 bd b6 72 c0 bd 8a 70 e1 bd a1 ab ff bc
       -0.0653858 -0.093968794 -0.11007793 -0.031209769
000020 6b c1 b7 3c 20 21 10 3e 32 14 18 bd 87 85 79 3b
       0.022431096 0.14075136 -0.037128635 0.0038073973
