src/Photosynthesis/RL/SavedModels/model_28.pth (torch, 30290 bytes, 34 tensors)

player_tree_1.W.weight f4 [12, 12]
000000 62 a1 b2 3e bc a4 cf be f4 df a1 3e 20 94 4f be
       0.3488875 -0.4055537 0.31616175 -0.20271349
000010 7a 2a a7 3e 4e 2e 17 be 75 57 15 be 6a 00 dd 3d
       0.32649595 -0.14763758 -0.14584143 0.107910946
000020 d0 9b 00 3f 74 81 27 be 21 97 0b bd 07 a2 9e 3d
       0.5023775 -0.16357976 -0.034079675 0.07745748
000030 05 1f f4 3d 0d d7 02 3e f9 59 87 3e 62 c6 df bd
       0.11919979 0.12777348 0.2643583 -0.109265104
000040 80 fe 2e 3e 08 75 19 bf b7 c2 2e be 12 d8 46 be
       0.17089272 -0.599442 -0.17066465 -0.19418362
000050 a2 56 9d 3e f6 b9 d9 3d a7 8d 0b 3f 00 b3 97 3e
       0.30730158 0.10631172 0.5451302 0.29628754
000060 a5 fd 9d bd 5e 51 5a 3e 39 4f 04 bf d9 e3 f1 3d
       -0.077143945 0.21320102 -0.51683384 0.118110366
000070 84 34 bb 3e a1 79 88 3e 16 0d db bc 4d f6 e8 be
       0.36563504 0.26655295 -0.026739638 -0.45500413
000080 75 9e e0 3e f3 eb d9 3d 07 b0 ad be 90 e1 04 be
       0.43870893 0.10640707 -0.3392336 -0.1297667
000090 6e 2b 17 be 26 66 41 3e 2a 2c ea bc 41 bb 5d bc
       -0.14762661 0.18886623 -0.028585512 -0.013533414
0000a0 64 ee c4 3d 5d 22 a8 be 0f 90 3e be 52 7c d9 be
       0.09615782 -0.32838717 -0.18609641 -0.4247766
0000b0 c1 88 97 be 32 5c 64 3e 02 39 92 be 5e 96 82 3e
       -0.29596522 0.22300795 -0.28559119 0.25505346
0000c0 4b c9 8f be e5 32 44 bd ae 17 89 bd ff a5 d7 3c
       -0.28083262 -0.0479001 -0.0669397 0.02632427
0000d0 d4 c2 de 3d 16 8a 37 3e 6f 52 ce be 99 10 9e 3e
       0.10877004 0.1792377 -0.40297267 0.30872038
0000e0 68 88 87 be aa f9 b7 3d 98 1a e8 3b 8a 26 2e 3f
       -0.26471257 0.089831665 0.0070832483 0.68027556
0000f0 b9 db 39 3e cd d5 90 3e a7 3d da 3e f8 da 15 be
       0.18150224 0.28288117 0.42625162 -0.14634311
000100 be 4d 2d 3e 6f 72 e5 3e 22 ee 1f 3e 26 ea 15 3e
       0.16924188 0.44813868 0.15618184 0.14640102
000110 9e 9c 1d 3e 40 98 74 3f 04 b7 ca bd cb c8 6b 3e
       0.15391776 0.95544815 -0.09898189 0.23025815
000120 61 39 48 be 35 5f 3a 3e 1c f8 0b 3f 33 d7 17 3e
       -0.19553138 0.18200381 0.5467546 0.14828186
000130 22 ff 49 be 0b 2d 17 be da 56 79 3c 57 a0 a3 3e
       -0.19726232 -0.14763276 0.015218461 0.31958267
000140 18 c8 34 be 4b d8 95 be fb 32 1e bd 77 93 b7 b9
       -0.17654455 -0.2926658 -0.038622838 -0.0003501435
000150 49 90 5f 3e f8 0b aa 3d 58 00 2b be f1 aa c9 bd
       0.21832384 0.08303064 -0.1669935 -0.098470576
000160 eb 0d 61 3e 2c 1a 08 be 10 f2 fb be fe b9 80 bc
       0.21977966 -0.13291234 -0.49208117 -0.015713688
000170 73 8d 53 be 39 cc 85 3e 52 52 71 be eb a7 f9 3e
       -0.20659427 0.26132372 -0.23566559 0.48760924
000180 7e ef 94 3e 06 e8 af be 50 48 62 bf 4b b2 0f 3c
       0.29088968 -0.34356707 -0.8839159 0.008770536
000190 ee 94 7a be ab 6a 09 be 01 1f c2 be c6 47 26 be
       -0.24470875 -0.13419597 -0.3791428 -0.16238317
0001a0 5a ab 6f 3e 00 4a 02 3e 9e 33 d6 be b6 09 10 be
       0.23405209 0.12723541 -0.41836256 -0.14066204
0001b0 10 ee 79 bc 84 e1 15 3e c8 fe 71 be cc 42 8d bd
       -0.015254512 0.14636809 -0.23632348 -0.06897506
0001c0 a4 d6 04 3e 04 fc 3d 3e 44 b5 e0 be 61 ac eb bd
       0.12972504 0.18553168 -0.43888295 -0.11507488
0001d0 ee 8e e2 be ea c6 d8 bd 80 83 74 be 42 7e 45 3e
       -0.44249672 -0.10584815 -0.23878288 0.19286445
0001e0 1a 66 54 3f b5 62 ef bc 27 4c 18 be 79 69 06 bd
       0.82968295 -0.029221872 -0.148728 -0.03281543
0001f0 56 42 08 3f 92 86 da 3e c3 1d 48 be b2 35 fd 3c
       0.5322622 0.42680794 -0.19542603 0.030909393
000200 bb 1b c8 3d 6c 6e da be 87 85 df be ff a6 2d 3e
       0.09770914 -0.4266237 -0.4365656 0.16958235
000210 02 9f 31 3b c6 e3 d3 be ff bf 0f 3e 54 c3 a8 be
       0.0027102833 -0.41384715 0.14038084 -0.32961524
000220 8f 12 1d 3e 28 be 32 be 6e 8c 32 3e c2 f2 41 be
       0.15339111 -0.17455351 0.17436382 -0.18940261
000230 52 8c 11 bf 07 c5 11 bf a1 a3 10 be 0c ba 61 38
       -0.56854737 -0.56941265 -0.1412492 5.381745e-05

player_tree_1.W.bias f4 [12]
000000 2c 80 92 bc 08 fb a6 bc ff 44 74 bc 4e 9a 8b bd
       -0.017883383 -0.020383373 -0.014909028 -0.06816541
000010 60 d1 b3 bc b4 b8 d2 bc fc 17 d6 bc fa 44 9e bc
       -0.021950424 -0.025722839 -0.026134484 -0.01932
000020 31 10 40 bd 76 f2 6b bc a7 60 39 bd d2 d2 a0 bc
       -0.04689044 -0.014401069 -0.04525819 -0.019631777

player_tree_1.W_self.weight f4 [12, 12]
000000 f6 fe 6d 3d cd 55 0f 3f 06 69 6e 3d 63 bc bc be
       0.058104478 0.55990297 0.058205627 -0.36862478
000010 c7 ef 06 3d 6e c8 cd bd 8c 28 82 3e cc 5b 84 3d
       0.032943513 -0.100479946 0.2542156 0.06462821
000020 2a e3 f1 3e 5b 98 58 bd 92 ff b5 be 57 08 ba bd
       0.47243625 -0.052879672 -0.35546547 -0.09083622
000030 8b 85 02 be 4a 9f de 3e 58 fa db 3d 45 95 99 be
       -0.12746255 0.43480903 0.10741109 -0.29996696
000040 8b 92 03 3d 9d 3a 58 be 1d 33 b0 3e 4f 4d 92 3d
       0.032122176 -0.21116109 0.34413996 0.07143652
000050 20 1e 10 3e d9 8c 25 3f b3 e1 54 3e 9e 6d b5 3d
       0.14073992 0.6466804 0.20789222 0.088587984
000060 ca 75 64 bd 3d fd c0 3e 73 d6 50 bd 55 20 1a 3e
       -0.055776395 0.37693205 -0.050985765 0.15051396
000070 f2 06 28 3e 5c c5 52 3d 32 f2 27 3d f8 b3 dc be
       0.164089 0.051457748 0.04100246 -0.43106055
000080 89 98 0d bf a4 05 ae 3e 63 ff 7b 3e 5a ef 50 3e
       -0.55310875 0.33988678 0.24609141 0.20403805
000090 f8 d6 03 bf a9 cc f5 3d 35 be cd 3e 20 04 04 bf
       -0.5149989 0.120019265 0.4018418 -0.51568794
0000a0 eb f0 a6 3e cc e6 1c 3e ca aa ba 3d 96 56 5f bf
       0.3260568 0.15322417 0.09114607 -0.87241495
0000b0 4a 0a c6 3d 0b 73 d3 bd e4 fc c4 3d aa ec 01 3d
       0.09669931 -0.10324677 0.096185476 0.03171984
0000c0 b9 0d 13 be b5 5a 51 be 84 26 80 3e ae 21 85 bd
       -0.14360704 -0.20444758 0.25029385 -0.065005645
0000d0 28 59 8e 3e a4 3e 49 3e cf 1d 2f 3e c6 c9 a7 be
       0.27802396 0.19652802 0.17101215 -0.32771128
0000e0 ae c6 b4 3d 2b 5f 51 be 4d 10 d5 be 86 40 73 bc
       0.08826958 -0.2044646 -0.41614 -0.014846927
0000f0 04 70 a4 bd 5a 9c 0e 3f df 86 03 3e d2 e2 d6 3e
       -0.08029178 0.55707324 0.12844418 0.41969925
000100 2e fa 44 be a2 6b 70 3e fd 30 9e bd 44 62 c8 3c
       -0.19236061 0.23478559 -0.077241875 0.02446092
000110 43 2e 88 be 2a 7e 7b be 3b 7a b5 3e 36 b3 62 be
       -0.26597795 -0.24559847 0.35444817 -0.22138676
000120 1f 49 c6 3d e3 33 36 3e a6 ae 19 3f de b3 fe 3e
       0.096819155 0.1779323 0.6003212 0.49746603
000130 32 89 12 3e 93 f5 cf 3e c2 11 ad bd 08 41 1a bf
       0.14310148 0.40617046 -0.08450653 -0.6025548
000140 b4 bf c3 3d 20 d0 de bb dc e6 19 bf a5 42 13 be
       0.09558049 -0.006799713 -0.6011789 -0.14380892
000150 b7 e3 de bc ed dc d1 3d 4e 48 fe 3d 86 1e 68 3e
       -0.027208192 0.102472164 0.12416135 0.22667894
000160 2b 1f 9d be 5a 98 fb 3e 72 63 0c bf d2 74 e8 3d
       -0.30687842 0.49139673 -0.5483924 0.11350407
000170 71 0f c9 3d d5 23 7f 3e bf 90 19 3e 64 52 9c 3e
       0.09817398 0.24916013 0.14996623 0.3053161
000180 69 a6 d1 3e d3 93 f4 be 2c 99 3c bf 97 af da 3e
       0.40947273 -0.4776903 -0.7367122 0.4271209
000190 af b9 ee 3e e9 bb be be 16 2a b9 bd b6 cc 7c 3e
       0.4662604 -0.3725274 -0.090412304 0.24687466
0001a0 0a 42 1a be 68 7c 00 3f 02 97 ad 3e f3 d8 66 bd
       -0.15064254 0.5018983 0.33904272 -0.056359243
0001b0 01 8f de be ad 3b 48 be a5 3d 0d 3e 88 2f e2 3e
       -0.43468478 -0.19554015 0.13793047 0.44176888
0001c0 5e 6a 3f 3e 31 33 aa 3e 64 52 fa 3e b7 95 1c 3e
       0.1869292 0.3324218 0.48890984 0.15291487
0001d0 65 18 80 3e 7c 4b c8 3d 97 69 77 be 38 15 b4 be
       0.25018612 0.097800225 -0.24161373 -0.3517244
0001e0 f4 db 88 3e 75 f6 ba bd b9 53 74 3e dc 26 88 bd
       0.2673031 -0.09129039 0.23860063 -0.06648037
0001f0 13 7a d0 be 3f a2 cf 3e 72 be d8 bc 9e 3f 53 3d
       -0.40718135 0.4055347 -0.026457999 0.051574342
000200 60 59 7d be f5 5b b7 3e 5f 84 11 3d d3 79 42 be
       -0.24741125 0.35812345 0.03552663 -0.18991785
000210 fd ef af 3c 91 ce fe 3e 9d f5 c6 be ca 93 8f 3e
       0.02147674 0.49766973 -0.38859263 0.28042442
000220 10 b1 9e be 2c 36 dc 3e 50 c9 a5 be 62 1c f9 bd
       -0.30994463 0.4301008 -0.32380152 -0.12163617
000230 d5 32 74 3e 22 f1 cc bd 14 f0 1f be f2 4d 08 bf
       0.23847516 -0.1000693 -0.15618926 -0.53243935

player_tree_1.W_self.bias f4 [12]
000000 2c 80 92 bc 08 fb a6 bc ff 44 74 bc 4e 9a 8b bd
       -0.017883383 -0.020383373 -0.014909028 -0.06816541
000010 60 d1 b3 bc b4 b8 d2 bc fc 17 d6 bc fa 44 9e bc
       -0.021950424 -0.025722839 -0.026134484 -0.01932
000020 31 10 40 bd 76 f2 6b bc a7 60 39 bd d2 d2 a0 bc
       -0.04689044 -0.014401069 -0.04525819 -0.019631777

player_tree_2.W.weight f4 [12, 12]
000000 e3 f2 5b 3e 20 78 b1 be 8f 46 3a bf c2 d6 74 bc
       0.21479373 -0.3466196 -0.72763914 -0.01494378
000010 29 91 ab bd e6 8c b0 be 2b be c3 3e 06 a3 b4 3d
       -0.083772965 -0.34482497 0.38231024 0.08820157
000020 cb 91 bb 3e a3 80 2c be 80 16 31 be f1 09 2d bf
       0.3663467 -0.16845946 -0.1729374 -0.67593294
000030 27 9e 10 bf f9 c7 b3 be d1 ed 1b bd 49 08 c9 3e
       -0.5649132 -0.35113505 -0.038068596 0.39264134
000040 ac f5 83 3e 5f 84 36 3e 68 e9 85 3e 97 84 bd 3d
       0.2577337 0.17823933 0.26154637 0.09253805
000050 84 63 04 bf fb 23 13 3e 35 9b da be 7d 67 f4 bc
       -0.5171435 0.14369194 -0.4269654 -0.029834503
000060 f0 e0 57 3f c0 a0 aa be ca 06 15 3f 58 62 80 bd
       0.843276 -0.33325768 0.58213484 -0.062687576
000070 82 db c6 3e ab 28 ee 3c 8f bf b9 be a8 e2 06 be
       0.38839346 0.029072126 -0.3627896 -0.131724
000080 dc ac 14 be 27 4c a6 3e ff 35 21 bf 42 f8 b6 be
       -0.14519066 0.32479975 -0.62973017 -0.3573628
000090 8e 7e 59 bd 24 f5 2c be 21 00 03 bc b7 f7 9f be
       -0.053099208 -0.16890389 -0.007995636 -0.3124368
0000a0 18 4a 87 3e 02 f3 c8 bc 0c ae 70 3d 7c 1a 70 be
       0.26423717 -0.024529938 0.058759734 -0.23447603
0000b0 05 17 90 3d d7 17 72 bd 94 66 12 be 66 47 9b 3d
       0.070356406 -0.059104767 -0.14296943 0.075819775
0000c0 1f bf 10 be d0 22 c5 bd 5c 77 fa be 25 c2 bf be
       -0.14135407 -0.096257806 -0.4891919 -0.37452808
0000d0 63 74 7c bd 46 74 b1 bd 03 28 88 3d 89 c1 44 3e
       -0.061634433 -0.086647555 0.06648257 0.19214453
0000e0 9d 97 42 3d 89 06 7e 3d ab db ec 3d 46 6d 10 3e
       0.04750787 0.06201795 0.11565336 0.14104185
0000f0 bb 22 a5 3e 41 c2 3f 3e 37 bd 77 3e 34 38 a5 3d
       0.3225306 0.18726446 0.24193273 0.080673605
000100 78 f6 c7 3d b7 0b dc bd ad e7 e5 bd 94 7a 91 be
       0.09763807 -0.10744422 -0.11225829 -0.28413832
000110 0e b0 d9 3e 6f a3 39 bd 68 94 2a bf 12 b7 9c be
       0.42517132 -0.045321878 -0.666327 -0.30608422
000120 14 f1 1a be d1 8a 5d be b2 14 0a bf 1b a2 d5 3e
       -0.15131027 -0.21634986 -0.5393783 0.4172524
000130 98 c6 ac 3c 0f 5a 00 3e cb 4a 3c 3d 6b 76 14 3e
       0.02109079 0.12534355 0.045969766 0.14498298
000140 6c 92 ab 3c 2b 2e a4 bc 27 2f 15 bf ea 0e 26 3c
       0.020943843 -0.020041546 -0.58275074 0.010135392
000150 c4 f7 9d 3e 1b 5a 7f be 30 81 96 bd 78 2f c8 3d
       0.30853093 -0.24936716 -0.07348859 0.09774679
000160 cc cf aa 3e c3 33 5c be f0 ee 53 3e 1a 7b b0 be
       0.3336166 -0.2150412 0.20696616 -0.3446892
000170 88 01 da 3e a6 f0 e3 bd 19 2d 23 3d 9e e4 3f bf
       0.42579293 -0.111298844 0.03983793 -0.7495822
000180 40 b0 08 bf 7f bc 75 bd d9 6a e8 3d 44 8e 83 3e
       -0.53393936 -0.059994217 0.113485046 0.25694478
000190 8f e5 0d 3f 07 3f 94 3e 53 9b a4 3e 59 e9 bd 3d
       0.55428404 0.28954336 0.32149753 0.09273023
0001a0 ce d0 39 3e f7 82 78 bd 00 e9 aa bd d9 30 ab bd
       0.18146059 -0.060671773 -0.083452225 -0.08358926
0001b0 5e 40 02 bf cb 0d c0 3e 9f 64 1c be 54 2a 7b 3e
       -0.50879467 0.37510523 -0.15272759 0.24527866
0001c0 cb 78 a7 3e 6d 7f 1f bf bb 3c 1a bf 93 aa cc bd
       0.32709345 -0.6230381 -0.6024892 -0.09993472
0001d0 78 b6 9c bd 95 c1 db 3e 8e 1c f9 ba 1e f4 df 3e
       -0.07651991 0.4292113 -0.0019005702 0.43740934
0001e0 6b a7 39 be 48 ce a0 3d 06 53 4f be fc cd 4d be
       -0.18130271 0.07851845 -0.20246515 -0.20098108
0001f0 9d 13 bd be 1f 59 9c be 39 b7 27 bf 25 f7 47 3d
       -0.36929026 -0.30536744 -0.6551395 0.04881968
000200 a6 fc 13 bb 52 4f 5a be bd a7 64 be d4 16 89 3d
       -0.002258101 -0.21319321 -0.22329612 0.06693807
000210 98 23 3b 3e 91 17 52 3e 2f 7d 8b be 68 80 12 be
       0.18275297 0.20516802 -0.27243945 -0.14306796
000220 c3 2c bb be 30 46 ca be fa 35 02 3e 40 05 cc 3e
       -0.36557588 -0.39506674 0.12715903 0.39847755
000230 97 44 6c 3e 1c b2 91 bd a2 1a b7 be 92 ac df 3b
       0.2307304 -0.0711405 -0.35762507 0.006825992

player_tree_2.W.bias f4 [12]
000000 07 92 07 bd 90 69 8c bd 13 91 8c 3d 33 12 9f 3d
       -0.033098247 -0.06856072 0.06863608 0.07767143
000010 a7 c6 9c bd 48 cc d0 bd 04 04 d3 bc b4 3a 4d bd
       -0.076550774 -0.101952136 -0.02575875 -0.05010481
000020 ef de 36 bd a9 d0 11 bd 13 a0 82 bd 5e e6 0a bb
       -0.0446462 -0.035599384 -0.06378188 -0.0021194438

player_tree_2.W_self.weight f4 [12, 12]
000000 01 d0 07 3e eb 2a bc be 02 5d 73 3e b5 f0 02 3f
       0.13262941 -0.36751494 0.23765948 0.5114854
000010 d4 09 02 bf 13 96 55 bf cf 56 b6 3d fb f5 c8 bd
       -0.50796247 -0.8343212 0.08903276 -0.09812542
000020 1c 39 58 bd d9 6d f8 be 89 1b b3 3e 16 75 81 3e
       -0.05278884 -0.48521307 0.34981945 0.25284642
000030 b6 8f c0 3e 2e ee 01 be e6 5d 3e be 55 05 b0 bc
       0.37609643 -0.12688515 -0.18590507 -0.021486918
000040 82 5a 15 be 94 05 ef be a4 36 ab be fe 4c 19 be
       -0.14585307 -0.46683943 -0.33440125 -0.14970776
000050 4c 18 25 3f 1c 58 6d 3e 43 0f 5a 3d 5f b7 ec bc
       0.644902 0.23178142 0.05323721 -0.028896032
000060 bf b7 1a be 4c 21 60 be 25 04 72 be 1f 51 c2 be
       -0.15109156 -0.21887702 -0.23634394 -0.37952515
000070 d9 f5 82 3e ab 13 80 be 95 3f db be a1 c7 72 3e
       0.25578192 -0.25015005 -0.42821947 0.23708965
000080 17 f2 9e bd d7 83 02 bb c6 dd 6e be 94 69 14 bd
       -0.07761019 -0.0019915008 -0.23326787 -0.0362335
000090 a6 98 b7 bd 0c 40 e7 3c 49 87 87 bf 82 9d 5a 3e
       -0.08964662 0.028228782 -1.0588161 0.21349147
0000a0 d7 ec 9c 3e 5d e2 58 be 5b 28 41 3f 48 50 95 be
       0.30649444 -0.211801 0.754522 -0.29162812
0000b0 bb 29 42 3d 0d 06 94 bd 32 48 a7 bc 0a 87 3b be
       0.04740308 -0.072277166 -0.020420168 -0.18313232
0000c0 20 79 00 bf 12 16 eb bd e9 33 b5 be ef fc 4b 3e
       -0.5018482 -0.11478819 -0.35391167 0.19920705
0000d0 93 55 8c 3e c9 d0 4b be b5 65 fd bd 6e da d1 3d
       0.27409038 -0.19903864 -0.12372915 0.1024674
0000e0 be e0 7f 3d 98 1c 90 3e 51 44 83 be 66 de 76 3e
       0.06247019 0.28146815 -0.2563806 0.24108276
0000f0 da 50 ed be 33 45 e7 bd 60 5e 44 be 39 c8 f6 be
       -0.46350747 -0.112924956 -0.19176626 -0.48199633
000100 dc 2d 23 be 33 99 be 3e f9 38 79 be 01 ec b6 be
       -0.15935463 0.37226257 -0.2433814 -0.35726932
000110 75 95 81 3e 12 fa 85 bd 1d 51 62 be 6f 8e 00 bf
       0.2530934 -0.06541838 -0.22101255 -0.50217336
000120 23 f0 d0 3e a2 24 43 bd 6e 41 42 3e b8 49 d6 3d
       0.4080821 -0.047642358 0.18970272 0.104632795
000130 d7 e8 aa 3e a0 51 c0 3e ec 82 a3 3e 37 e2 23 bf
       0.33380768 0.37562275 0.31935823 -0.6401705
000140 1a cc 02 be 60 95 80 3e 7f fc e7 bd 87 b3 96 be
       -0.12773171 0.25113964 -0.11327457 -0.29433843
000150 27 a6 0b 3f e8 a9 f6 bd 40 c3 07 3f 85 1e 02 bd
       0.54550403 -0.12044126 0.530323 -0.031767387
000160 9b 26 da bd d7 31 62 bd dd 16 97 be 7d bf 96 3e
       -0.10651895 -0.055223312 -0.2950963 0.2944297
000170 3f 36 c2 3e 54 93 27 be 24 f4 d4 3e 05 1c 3a 3d
       0.3793201 -0.16364795 0.41592515 0.045436878
000180 7d 47 78 3e b2 74 de 3e 8e 2d 4f be ce 68 81 be
       0.2424602 0.43448406 -0.20232221 -0.25275272
000190 cf 14 07 be 4e de e1 be a0 f4 25 bf e8 65 0a be
       -0.13191532 -0.44114918 -0.64826393 -0.13515437
0001a0 b0 4a c0 bd ed ca 73 be 4a 2d 4b 3e 77 86 9b be
       -0.093892455 -0.23807879 0.19841495 -0.30376026
0001b0 54 e8 9e 3e 51 45 04 3f 44 82 bb 3e e6 42 d6 bd
       0.31036627 0.5166827 0.36622822 -0.104619786
0001c0 93 22 24 3f 82 bf d5 3e db d7 d6 3e b7 4f ca 3e
       0.64115256 0.4174767 0.4196156 0.39513943
0001d0 a2 83 35 3e 9b 9e ef 3e ff 2f d4 3e e5 b0 0d 3f
       0.17725995 0.46800694 0.41442868 0.55348045
0001e0 ad 64 06 3f b6 a1 b7 3d 44 9d 8f be d8 57 e1 be
       0.5249737 0.08966391 -0.28049672 -0.44012332
0001f0 df 07 e5 3e 6f 00 a3 be 49 b1 d6 3e 16 6d 6c bd
       0.44732568 -0.31836268 0.41932133 -0.05772122
000200 27 cb 00 3e de f5 c4 bd 79 32 86 be 67 72 98 be
       0.12577496 -0.09617208 -0.26210383 -0.29774782
000210 79 af 40 3d 7e 5e d8 3d ac 1a 15 bc 8a b7 0d bd
       0.047042344 0.10564898 -0.009100597 -0.034598865
000220 42 61 22 bd e2 b5 1c be eb 72 fe bd c5 9d f0 be
       -0.039643534 -0.15303758 -0.124242626 -0.4699537
000230 1a 51 99 bd 99 15 41 bd 74 0e 32 be 0e 59 a1 3e
       -0.07486172 -0.047139738 -0.17388326 0.31513256

player_tree_2.W_self.bias f4 [12]
000000 07 92 07 bd 90 69 8c bd 13 91 8c 3d 33 12 9f 3d
       -0.033098247 -0.06856072 0.06863608 0.07767143
000010 a7 c6 9c bd 48 cc d0 bd 04 04 d3 bc b4 3a 4d bd
       -0.076550774 -0.101952136 -0.02575875 -0.05010481
000020 ef de 36 bd a9 d0 11 bd 13 a0 82 bd 5e e6 0a bb
       -0.0446462 -0.035599384 -0.06378188 -0.0021194438

player_tree_3.W.weight f4 [12, 12]
000000 7d 3c bb be 26 07 35 be c4 91 3a be ee ba 4f bf
       -0.36569586 -0.17678508 -0.18219668 -0.8114461
000010 a6 93 df 3e 68 8b 01 3c 8e f6 94 be 5f 6f a7 3e
       0.43667334 0.007906772 -0.29094356 0.32702157
000020 b2 28 74 3e 05 0b 51 be b7 3f d4 be f1 a5 96 bd
       0.23843649 -0.2041436 -0.4145486 -0.073558696
000030 97 76 ed be fa 65 c3 be 0c 4b 5b bf 43 65 9d 3b
       -0.4637954 -0.3816374 -0.8566139 0.004803331
000040 65 c6 5c 3e 7f fb 0a 3e 93 a1 4c be 7c 62 71 3e
       0.21560057 0.135725 -0.1998351 0.23572725
000050 7c 27 0b 3e 33 6f 43 3e f6 d3 69 be 1e e7 a9 be
       0.13589281 0.19085388 -0.22834763 -0.3318414
000060 a4 1e a7 be a3 08 e0 3e 3b bc 6f bd ff 24 a2 3d
       -0.32640564 0.4375659 -0.05852912 0.07917213
000070 5e 5c 34 3e c2 55 83 be 10 e4 71 be 5a 69 8e be
       0.1761336 -0.25651366 -0.23622155 -0.27814752
000080 6b d7 06 be 8a 33 d8 3d d2 f1 01 3f 0e f8 23 3d
       -0.13168113 0.10556705 0.50759614 0.040031485
000090 a7 98 10 be 75 70 77 3e 31 c6 d3 be 43 1e ee 3e
       -0.14120732 0.24163993 -0.41362146 0.46507463
0000a0 c5 c4 0c be 99 5a c4 be a9 12 5e be 9f e4 b5 bd
       -0.13746937 -0.3835037 -0.21686806 -0.08881497
0000b0 b2 7b c6 bd ca 9f 0e be 86 10 39 be 38 cf 02 bf
       -0.09691562 -0.13928142 -0.1807271 -0.5109744
0000c0 09 c5 3a 3e 44 14 b2 3e cd bb 82 be 80 64 3a bf
       0.18239225 0.34781086 -0.25533906 -0.728096
0000d0 eb 6d 8d 3e 24 c3 1e 3e 9d d9 12 3e 9a 0c 52 bc
       0.27622923 0.15504128 0.14340825 -0.012820387
0000e0 26 18 8a 3d d5 3c 2e be 69 be 04 3f a6 30 9e 3d
       0.06742887 -0.17015393 0.5185304 0.07724123
0000f0 32 9f d2 3d ff e9 9e 3d 19 b8 ec 3e ac b8 6c 3e
       0.1028427 0.07759475 0.46234205 0.23117322
000100 32 1c 0f 3f 41 ff 23 3e 8e 41 2d 3f 6a a2 e2 be
       0.559024 0.1601534 0.67678154 -0.44264537
000110 89 32 ef 3d 92 d8 d1 3d 73 92 21 be 31 82 8c 3e
       0.11679561 0.10246386 -0.15778522 0.27443078
000120 06 90 ea bd 92 00 04 bd f9 c8 8d be 46 1b 75 be
       -0.114532515 -0.032227106 -0.27692392 -0.23936185
000130 d5 7f e8 bd b6 ea 7f 3e 7b 72 15 be a3 1b 9c 3c
       -0.11352507 0.24991879 -0.14594452 0.019056147
000140 32 1b 0d be f4 d3 2e 3e 59 2b e0 3d 75 16 95 3e
       -0.13779905 0.17073041 0.10945768 0.29118696
000150 5a 92 0d 3f 32 0a ac 3e 86 b5 35 3f 6b 90 3e bf
       0.5530144 0.33601528 0.7098011 -0.74439114
000160 06 c1 01 be 88 03 38 be 9e 85 99 3d 87 bc cb be
       -0.12671289 -0.17970097 0.074961886 -0.39792272
000170 69 05 d8 be 35 36 c9 3e ff 7e 7d 3b 4a d0 c1 3e
       -0.42191628 0.3929917 0.0038680432 0.37854224
000180 34 33 9f be 62 26 f0 be bb 95 52 3e ee 7c 35 bd
       -0.31093752 -0.46904284 0.2056493 -0.044308595
000190 54 21 7c 3d 24 8f 9b bd 77 c0 9f 3e bf c0 9b be
       0.06155522 -0.07595661 0.31201527 -0.3042049
0001a0 04 a6 38 3e 68 71 8b 3d 5d 36 00 be 37 b7 22 3f
       0.1803208 0.0680874 -0.12520738 0.63560814
0001b0 f9 ef e5 3d 51 e9 bb be e3 6f 49 be c6 e7 72 3d
       0.11227412 -0.36701444 -0.19671588 0.059303068
0001c0 d1 39 32 3e 7d fe 6f be d4 8e 57 3d dc 0c e1 3e
       0.17404868 -0.23436923 0.052626446 0.43955123
0001d0 24 0b 01 be cb 78 a2 be ee 9f cd 3e 8f fd 94 3c
       -0.12601906 -0.31732783 0.4016108 0.018187312
0001e0 4b df a1 3e 51 ec 1b bf d7 46 22 3e ee 8e 0c 3e
       0.31615672 -0.60907465 0.15847336 0.13726398
0001f0 51 26 3e be 8b ee a8 bc ce 41 76 be 4c df d1 3e
       -0.18569304 -0.020621559 -0.2404854 0.40990674
000200 21 4a 03 bc a9 d3 b3 be 8a d6 86 bd 3c 34 7e be
       -0.008013279 -0.3512242 -0.06583889 -0.24824613
000210 eb a1 ba bd 0c 49 a3 3d bd 76 0f 3e 6f d3 d4 3e
       -0.09112915 0.07972917 0.14010139 0.4156756
000220 86 d5 21 3d 82 da 14 bc d6 38 84 bd 07 2f 0a bd
       0.039510272 -0.009085299 -0.06456153 -0.033736255
000230 f0 0e 1a be 71 28 d8 be 49 72 24 be 82 7a 72 3e
       -0.1504476 -0.42218354 -0.16059221 0.23679546

player_tree_3.W.bias f4 [12]
000000 dc 85 54 bd 90 f6 a0 bc 06 f2 5f bd c0 14 39 bd
       -0.05188547 -0.01964882 -0.05467417 -0.045185804
000010 ae a9 f3 bc 58 79 77 bd 0f 6d 92 bd 4e 17 73 3d
       -0.029743996 -0.060418457 -0.071497075 0.059348397
000020 04 eb fe bc 81 7f 0a bc c1 31 66 bc 98 0a 98 3c
       -0.031117924 -0.008453251 -0.014049948 0.018559739

player_tree_3.W_self.weight f4 [12, 12]
000000 31 48 d1 3d 4a 4f 3c be 46 3e 08 3f 77 94 56 bf
       0.102188475 -0.18389621 0.5322002 -0.8382029
000010 6d 6a fd be 07 7e c3 bd 75 e8 91 3d b3 cd d7 be
       -0.4949526 -0.09545522 0.07124416 -0.42149124
000020 89 6e 22 3e 5a 51 85 be 90 da 81 3e 50 83 c4 be
       0.15862478 -0.2603863 0.25362062 -0.38381433
000030 70 55 39 bd 6c 70 af 3e d0 a5 07 bf 4d 3b 2f 3e
       -0.045247495 0.3426546 -0.52987385 0.17112465
000040 1a 44 31 be d2 da 61 3e 22 af 61 3d 79 84 64 bc
       -0.17311135 0.2205613 0.05509866 -0.0139476
000050 54 3c 51 3f 36 29 34 bd c8 92 d5 be 1d fa f4 bc
       0.8173268 -0.043984614 -0.41713548 -0.02990442
000060 24 63 69 bb 51 cb 99 bc c5 1b 41 be 26 1d 16 be
       -0.003561207 -0.018773707 -0.1885825 -0.14659557
000070 19 de f8 be d3 aa 0e be 11 9e bf be c4 6c fd be
       -0.48606947 -0.13932352 -0.37425283 -0.49497044
000080 55 14 0f bf 31 55 a5 3e 32 cb a0 be 36 06 41 3e
       -0.558904 0.32291558 -0.31405026 0.18850026
000090 70 a3 05 be 4a 03 90 3e 03 60 eb 3d f3 ec 5e 3e
       -0.13050628 0.2812751 0.11492922 0.21770076
0000a0 4e b7 15 bf a0 4e 86 be 19 ac b8 3c 5a 91 d8 be
       -0.58482826 -0.2623186 0.022543 -0.42298394
0000b0 3e ad 1b be fa 3e f7 be cd b7 53 3e 62 29 8c 3e
       -0.15202805 -0.48290235 0.20675583 0.27375323
0000c0 d2 3f e9 be 38 0f df 3e 7d 32 81 be 82 09 f3 be
       -0.45556504 0.43566298 -0.25233832 -0.4746819
0000d0 db 8b 85 bd 65 b0 f7 bc 37 35 97 bc 66 ac 8e bd
       -0.06520816 -0.030235479 -0.018457992 -0.06966476
0000e0 af 1b 89 be ee e3 1e be f1 64 b5 bd 38 a8 d0 3d
       -0.26778933 -0.15516636 -0.08857144 0.10188335
0000f0 e7 97 a3 3e 51 e9 a6 3b c2 fa 51 bd 84 51 fa 3e
       0.3195183 0.0050937315 -0.051264532 0.48890316
000100 52 97 f1 3e 7a 6b c4 3d 3f 5e 8e 3e 71 94 1f 3e
       0.4718576 0.09590812 0.2780628 0.1558397
000110 3c 81 bf 3e 25 73 20 3e 64 14 6b 3d 60 1b 21 bf
       0.37403286 0.15668924 0.057392493 -0.62932396
000120 94 d2 fd 3e e1 8a 56 be ce 5e 97 3e cf d4 95 bc
       0.4957472 -0.20951416 0.29564518 -0.018289952
000130 b2 e3 96 3e 50 3c aa be ce b2 ea 3e 6a 1d 26 3d
       0.29470593 -0.3324914 0.45839542 0.040555395
000140 9c a0 42 bd 91 60 3d 3f be ed e1 3e 92 84 e0 3e
       -0.04751645 0.73975474 0.44126695 0.43851143
000150 5d 22 e1 3d 23 73 91 3e 36 58 d1 3e 7d ae 48 3d
       0.109928824 0.28408155 0.40887612 0.04899453
000160 ed 58 1b 3f a6 1c 12 bd 17 c3 04 be 2a 71 f5 be
       0.60682565 -0.035671853 -0.12965046 -0.479379
000170 2f 28 ae 3e 71 6d 87 be 72 8a dd 3e 68 c4 cd 39
       0.34015033 -0.26450685 0.43269688 0.0003924698
000180 c6 3a 34 3f a1 39 8b be ad 64 04 be a6 48 dd 3d
       0.7040218 -0.27192405 -0.1292903 0.10804872
000190 6e 9c 3c bd bb c3 ca 3e 66 d5 f2 3c a0 0f 99 bd
       -0.04604762 0.39602455 0.029642772 -0.07473683
0001a0 ee cd 01 bf 20 8a 71 3e 29 81 55 be 8d cc d7 3e
       -0.5070485 0.23587847 -0.20850052 0.42148247
0001b0 94 e2 50 3e 9c c4 ec 3e 39 a5 de bd 66 e5 14 bf
       0.20398933 0.4624375 -0.108713575 -0.58162534
0001c0 ed 91 0e be be e1 a6 be 95 a4 27 bf d0 50 9b 3e
       -0.13922854 -0.32594103 -0.6548551 0.30335093
0001d0 5c ef 20 be cc 8f 57 3d 2b d0 6f 3e 34 b2 06 bc
       -0.15716308 0.05262737 0.23419254 -0.008221198
0001e0 71 a1 d7 be e5 e7 11 bf 22 49 42 be b7 4c c7 3e
       -0.42115358 -0.5699447 -0.1897321 0.38925716
0001f0 2f 8d 45 be 51 03 6a be 01 c5 b7 3d 00 b1 7b be
       -0.19292139 -0.22852828 0.089731224 -0.24579239
000200 44 ea 60 3e f6 67 c1 3e 4d 0e cb be d2 be b9 be
       0.21964365 0.37774628 -0.39659348 -0.36278397
000210 d1 a2 c4 be 04 4d ed bd 3e 18 40 3e 8a 02 ad 3c
       -0.3840547 -0.11586955 0.18759248 0.021119375
000220 5e a8 c2 3d 6d 03 01 bf 21 8a 14 3e 61 13 c3 3e
       0.0950477 -0.5039585 0.14505817 0.38100722
000230 1b fe 47 3d eb e9 9a 3e 97 12 8d 3e 7e 8f ea 3d
       0.04882632 0.3025659 0.27553245 0.1145315

player_tree_3.W_self.bias f4 [12]
000000 dc 85 54 bd 90 f6 a0 bc 06 f2 5f bd c0 14 39 bd
       -0.05188547 -0.01964882 -0.05467417 -0.045185804
000010 ae a9 f3 bc 58 79 77 bd 0f 6d 92 bd 4e 17 73 3d
       -0.029743996 -0.060418457 -0.071497075 0.059348397
000020 04 eb fe bc 81 7f 0a bc c1 31 66 bc 98 0a 98 3c
       -0.031117924 -0.008453251 -0.014049948 0.018559739

player_tree_4.weight f4 [8, 12]
000000 32 11 35 be 0e d0 21 bf fb 7e fc 3e a0 43 aa 3b
       -0.1768234 -0.6320809 0.49315628 0.00519605
000010 1e 44 ba be b7 8f 4f be d8 28 26 be 69 ee 2a 3f
       -0.36380094 -0.20269667 -0.16226518 0.66770035
000020 e6 25 95 bc 5e 0d cd be 1a 66 97 3d b6 82 fb be
       -0.018206548 -0.4004926 0.07392521 -0.49123162
000030 9c ae e2 bc 35 0f 0a be c7 c4 26 be 82 52 a1 3e
       -0.02767115 -0.13482364 -0.16286002 0.3150826
000040 27 cd d7 3d 23 2a 2c bf d1 c4 3f bf 83 2d 31 be
       0.105371766 -0.67251796 -0.74909693 -0.17302518
000050 e1 f0 26 be b3 a4 89 3e a2 d5 30 be e3 88 97 bd
       -0.16302826 0.26883468 -0.17268994 -0.07399156
000060 54 f3 a6 be d3 33 a2 be 97 58 cc 3d a8 f1 94 bc
       -0.3260752 -0.31680164 0.09977835 -0.018181637
000070 60 c3 a1 3e e2 01 fe be 21 7a 60 be 53 c7 08 bf
       0.31594372 -0.4961081 -0.21921588 -0.53429145
000080 03 d0 56 3e 96 06 06 bf 87 60 df 3e 3a 2b a8 38
       0.20977788 -0.523538 0.43628332 8.018916e-05
000090 9c 0e 2a 3e 00 c8 47 3e 2d ba 77 3e c9 3c fb 3d
       0.16607136 0.19509888 0.24192114 0.12267453
0000a0 e4 cc ad be 38 81 9f bd 7e 05 22 3f 84 77 d7 3e
       -0.33945382 -0.077883184 0.6328963 0.4208337
0000b0 db e7 d7 bd af 92 07 3f 0d 41 de bd 2c 5e 1e bd
       -0.1054227 0.52958196 -0.10852251 -0.038664028
0000c0 84 4d 98 be 6b ca 5c 3e 7b 2a d9 bd f2 6d f9 3d
       -0.2974664 0.21561591 -0.10603806 0.121791735
0000d0 e7 82 0c 3f a9 a9 31 be ec 83 ec ba 16 37 04 3e
       0.5488724 -0.17349876 -0.0018044687 0.12911639
0000e0 14 16 d0 3e 95 e6 20 3e 62 eb 57 bf 26 77 ca be
       0.40641844 0.1571296 -0.8434354 -0.39544028
0000f0 68 a4 9e be 5b f5 6e be 97 13 b0 be f1 38 06 be
       -0.30984807 -0.23335783 -0.34389946 -0.13107659
000100 7f 4c c2 3e c7 a3 9a be 39 f5 c7 be 9f c9 8d 3e
       0.37948987 -0.30203077 -0.39054278 0.27692887
000110 f7 5c 0a 3e 01 70 12 3e fe 86 b4 3e 54 3a f5 3d
       0.13512026 0.14300539 0.3525924 0.11974016
000120 47 7a 86 be 06 4d 83 3b a2 e2 e8 3e 07 40 fd bd
       -0.26265165 0.0040069846 0.45485407 -0.12365728
000130 e8 f9 ee bd 59 59 67 bf 51 82 22 3f 84 ad c0 3e
       -0.116687596 -0.9037071 0.634801 0.37632382
000140 e3 9a 7c 3d 60 1e b3 be cf ee 6f bd c9 2e 28 3c
       0.06167115 -0.34984112 -0.058577355 0.010265061
000150 44 be 06 3e 29 d4 1c bf 27 67 e1 bd 05 10 9e 3d
       0.13158518 -0.6126123 -0.11006003 0.07717899
000160 e8 20 fb 3e 7f cc e5 bc d8 9c 69 bd e0 53 a1 3d
       0.49048543 -0.028051613 -0.057034343 0.07877326
000170 d6 59 1e be b5 14 59 3e d5 8e 56 3e 9a 60 df 3e
       -0.15463957 0.21199305 0.20952924 0.4362839

player_tree_4.bias f4 [8]
000000 64 dd a6 3d ad af 5d 3d 00 7f ac 3b c6 50 c0 bd
       0.08147696 0.054122616 0.005264163 -0.09390406
000010 6a 30 dc 3c df e1 a4 3c 4e 41 c0 3d f6 de 0e bd
       0.026878554 0.020127235 0.09387456 -0.0348806

sun_influence_1.W.weight f4 [12, 12]
000000 01 a6 be 3e f5 f4 1a be 0b b4 1a 3c 06 96 70 3f
       0.37236026 -0.15132506 0.00944234 0.9397892
000010 91 5c 85 bb c1 8f ef 3e ea fb ab 3e bc db 0a 3f
       -0.0040698727 0.46789363 0.33590633 0.5424154
000020 fb f4 a1 be de cf 73 3d 68 e5 99 3d 6a 40 8e 3d
       -0.31632218 0.05952441 0.07514459 0.0694588
000030 68 cc 27 be 88 57 0b 3f 18 e9 11 3e 2f ee 0f bd
       -0.16386569 0.5443044 0.14249074 -0.03513926
000040 41 0f d9 bd 3b 10 26 3e e3 f0 69 be 47 b2 1a bd
       -0.105986126 0.16217129 -0.22845797 -0.037767675
000050 ed b5 59 3e 27 d2 cc bd 23 ab d1 3e cd f4 b2 3e
       0.21260805 -0.10001021 0.4095088 0.34952393
000060 b9 7b 66 be cf 1c 93 be 2a 74 17 3e bf bb 3d 3e
       -0.22508134 -0.28732917 0.14790407 0.1852865
000070 95 8b d4 be 85 b1 7c 3e eb 48 5f be 02 80 40 be
       -0.41512743 0.24677093 -0.2180516 -0.18798831
000080 aa 8c 09 bf 07 47 8e be e2 f9 7b be fe a4 73 be
       -0.5373026 -0.27788565 -0.24607041 -0.23793408
000090 cc f7 a6 bc 3a 8e bb 3c ed 52 e5 bd c2 17 73 3c
       -0.02038183 0.022894967 -0.111974575 0.014837207
0000a0 c4 fc 7b 3e 48 8c dd be 74 9f e0 3e 7b 83 1e 3f
       0.24608141 -0.4327109 0.43871653 0.61919373
0000b0 d5 d4 c8 3d 16 30 91 be 2b 64 38 be c8 97 1f 3e
       0.098062195 -0.28357 -0.18006961 0.15585244
0000c0 33 7c 4d 3e 25 ad a2 bd 0d 4f b3 3e df 53 b6 be
       0.2006691 -0.07943181 0.35021248 -0.35610864
0000d0 6b 69 b0 be b3 6c 7a bd 32 13 45 3e 07 e2 81 be
       -0.34455428 -0.06113882 0.19245604 -0.25367758
0000e0 9f 45 42 3d 7f 8c 0f 3e 59 8a 33 3f b1 72 d2 3e
       0.047429677 0.14018439 0.70132977 0.41103128
0000f0 23 94 06 be 78 b1 84 bc 6a f4 9f 3e 1f 50 98 be
       -0.13142447 -0.016197905 0.3124116 -0.29748628
000100 45 52 12 be 13 04 2e bd e3 8c b9 3d 8c 72 a5 3e
       -0.14289196 -0.042484354 0.09060075 0.32313955
000110 18 30 c6 3e 42 68 50 3d ec 7b cf 3c b6 e3 c0 3c
       0.38708568 0.050880678 0.025327645 0.023546081
000120 71 fc 8b 3e 35 7c 00 bf 41 4b 0e bf 02 6f ac be
       0.27341035 -0.50189525 -0.5558358 -0.33678442
000130 10 ae 44 3e e9 e2 f8 be 12 4f 68 3e 1d d5 8d be
       0.19207025 -0.4861062 0.22686413 -0.27701655
000140 3b 84 f5 be f4 ca 99 3d ff 6a b0 3e fa 4d c2 3e
       -0.47952446 0.07509413 0.34456632 0.37950116
000150 1b 83 ef 3d 8f fc c4 3e 0a db e6 3e 7f 85 8f bd
       0.11694928 0.38473937 0.4508899 -0.07007884
000160 02 37 30 3c d1 e1 31 3e 5a de 5d be d4 ef d0 be
       0.010755302 0.17371298 -0.21666852 -0.40807974
000170 c0 be 4e be d3 d3 86 3e 7d 08 f3 bd dd 67 f7 be
       -0.20189953 0.26333484 -0.118668534 -0.4832143
000180 ca ab 43 3e ef 4a 1d bf 2d 38 ab 3e b3 07 99 be
       0.19108501 -0.61442465 0.33441296 -0.29888687
000190 f8 27 98 3e 76 ca 1a 3d 1d bc e2 be df a9 0f be
       0.29717994 0.037790738 -0.44284144 -0.14029644
0001a0 b4 de 35 3d f1 e3 ea 3c e8 99 b6 3e 38 d4 82 3d
       0.04440184 0.028673144 0.35664296 0.06388134
0001b0 6b 4e c4 be 55 6f ca 3e 24 8d 6c be ba 56 48 3e
       -0.38341078 0.39538065 -0.23100716 0.19564334
0001c0 52 e9 f9 3d df 55 51 be fb 38 bb be c3 b0 4f be
       0.122027054 -0.20442913 -0.3656691 -0.20282273
0001d0 79 10 08 3f 74 04 89 be 80 2f 9e be 53 b9 cd 3d
       0.53150135 -0.2676121 -0.30895615 0.100451134
0001e0 f5 33 c2 be 14 88 22 bd c0 53 ba be bc e0 1e 3d
       -0.37930265 -0.039680555 -0.3639202 0.038788542
0001f0 d7 ac 86 be 30 23 a3 bd 22 3f 63 be 2a 08 1c 3f
       -0.2630374 -0.07965696 -0.22192052 0.6094996
000200 1d 34 d1 be b5 91 f5 be 32 e0 bf 3e 96 fd c7 bd
       -0.40860072 -0.47962728 0.37475735 -0.097651646
000210 88 d5 11 be fe be 29 bd 8b 0d 57 3e 0e 3c 08 3e
       -0.14241612 -0.04144191 0.2100126 0.13304159
000220 9c 26 8f be 34 84 14 be 16 36 ea 3d 12 0c 4c bf
       -0.27959144 -0.14503556 0.11436097 -0.7970592
000230 63 da 8e 3c b2 93 eb 3d 75 db 4b 3f fa cf cc 3e
       0.01743812 0.1150278 0.7963174 0.40002424

sun_influence_1.W.bias f4 [12]
000000 2c a4 1e bd eb 87 71 bd a4 34 90 3d 56 3b 9e bd
       -0.038730785 -0.058967512 0.070412904 -0.07726161
000010 4a 84 09 bd 6b 8f ff bc 75 11 d5 bc da 15 4a bd
       -0.033573426 -0.031196317 -0.0260093 -0.049337246
000020 c9 16 e4 bd ab 04 0d bd 6a 6a 5c bc a9 a0 df 3c
       -0.111371584 -0.03442828 -0.013453105 0.027298288

sun_influence_1.W_self.weight f4 [12, 12]
000000 f5 02 bc be bf a4 a0 3d 36 5b 07 3f 93 8f 8a bd
       -0.36721006 0.07843923 0.5287355 -0.06765666
000010 1e 1e 9f 3d 42 e4 8a 3e cc 3c ea 3e a1 ee 38 bf
       0.07769416 0.27127272 0.4574951 -0.7223912
000020 92 a5 af 3e 8a 71 55 bd 7d 6b 64 3f 22 e9 11 3f
       0.34306008 -0.052110232 0.89226514 0.5699636
000030 69 34 bf 3e 49 fe 05 bf 6e db ad be d1 b8 34 3d
       0.37344673 -0.52341133 -0.33956474 0.044121567
000040 3e f7 d0 3e 16 d2 95 3c e1 00 9f ba cc 68 96 bd
       0.4081363 0.018288653 -0.0012130999 -0.07344207
000050 fb 3a f5 3e c8 5b 28 3e d3 3d 51 be 1a d1 8c be
       0.4789656 0.16441262 -0.2043374 -0.27503282
000060 70 90 b6 be 12 ae 59 be 50 a2 0d be 0b e7 3c 3d
       -0.35657072 -0.21257809 -0.13831449 0.046118777
000070 64 61 5e be c6 09 ea be da d3 f7 3e d0 0f 96 3e
       -0.21716839 -0.45710582 0.48403817 0.2930894
000080 d2 6e a9 be e1 3b 3b 3f 4e dd 04 3f b4 9d a4 3d
       -0.33092362 0.7313824 0.51900184 0.08037892
000090 9b 90 8a 3e b0 2a ec 3d 51 e7 01 be 33 8f a3 3e
       0.2706345 0.115315795 -0.12685896 0.3194519
0000a0 f1 b0 0b be 24 c5 b0 be b1 3a 9c be e4 56 f8 3c
       -0.13641717 -0.34525406 -0.30513528 0.03031487
0000b0 01 8f 37 be fc a7 cc be 49 59 fc be dc 37 7c bd
       -0.17925645 -0.39971912 -0.4928687 -0.06157671
0000c0 7c cd 5b be b5 02 a4 bd 2b aa 04 bf 35 4d 3d be
       -0.21465105 -0.08008329 -0.51822156 -0.18486483
0000d0 cc 27 b7 3e c0 61 c8 3b 91 9b 63 be 98 3c af 3d
       0.3577255 0.0061151683 -0.22227313 0.08556479
0000e0 00 97 2a bf 40 4e 25 be f7 51 65 3e 76 96 51 bd
       -0.6663666 -0.16143131 0.22394548 -0.05116888
0000f0 c0 62 45 3e cb 13 f9 3e 64 ae ec 3e f5 7e 10 bf
       0.19275951 0.48647913 0.462268 -0.5644372
000100 c5 c4 ae 3d d2 32 03 3f ec ff 22 bd db 30 8d be
       0.085336246 0.5124942 -0.039794847 -0.27576336
000110 9a 4a 2f bd 7f a9 6c 3f 45 24 d1 be eb 1e 33 bd
       -0.042795755 0.9244613 -0.40847984 -0.043730658
000120 be a8 d4 3d 77 37 bb be 88 43 aa be 53 b1 01 bd
       0.103837475 -0.36565754 -0.33254647 -0.03166325
000130 14 86 d5 3e ac 1e 20 bb 9f 8f 06 3f 90 cb 38 3f
       0.41703856 -0.0024432344 0.525629 0.7218561
000140 07 bc 87 3b 40 05 1d 3d 97 bd 47 3e 53 ed 31 3e
       0.0041422877 0.038335085 0.19505917 0.17375688
000150 cf 27 fe 3e ce d3 71 3e 81 ef f2 be a6 83 17 3f
       0.49639747 0.23615953 -0.47448352 0.59185255
000160 98 98 ac 3e ce fd 2e 3e 53 1a e1 3e ab 34 80 bd
       0.3371017 0.17089006 0.43965396 -0.062600456
000170 03 1b c1 3e 2f 69 e4 3d 69 45 d0 3e f8 d0 08 3d
       0.3771592 0.11152875 0.40677956 0.033402413
000180 ca 24 ff 3e 7f 1a 50 be e7 b8 d4 3e 40 7f 4c 3e
       0.49832755 -0.20322607 0.4154732 0.19970417
000190 c9 d4 1f bc 91 77 03 3d 30 65 20 be a9 9f 92 3e
       -0.009755322 0.03209645 -0.156636 0.28637436
0001a0 96 e3 8e be d8 4a 73 bd 6d e7 80 be 0f 76 9a 3d
       -0.2790801 -0.05939755 -0.25176564 0.07542049
0001b0 3f 9a c6 3e 34 35 81 3e 3a 01 ac 3e 23 e8 08 be
       0.38789555 0.25235903 0.33594686 -0.13369803
0001c0 24 4c 12 3e 6c 25 48 be 17 b8 64 be 65 f9 6e be
       0.14286858 -0.19545525 -0.2233585 -0.23337324
0001d0 5d a1 1c bf 59 9d 51 be 55 2b 36 be e6 46 dd 3e
       -0.6118372 -0.2047018 -0.17789967 0.43218154
0001e0 b8 01 ba be a8 10 89 be 1f c9 03 bd a5 7b 28 3e
       -0.36329436 -0.2677052 -0.032174226 0.16453417
0001f0 32 e0 73 be dc f8 ed bb 90 b4 24 be cd 49 96 3e
       -0.23815992 -0.0072623324 -0.16084504 0.2935318
000200 ac cf 05 bf 0f dd da be 9f 9d 44 be 50 93 0b bf
       -0.5227001 -0.4274678 -0.19200753 -0.54521656
000210 10 0d 18 3e 5d d1 a3 be bd a8 bb bc 0e 50 08 bf
       0.14848733 -0.3199567 -0.02290761 -0.53247154
000220 b5 6f 8c 3e 53 e7 84 bd 59 f8 90 3e ec c6 52 3e
       0.27428976 -0.06489434 0.28314474 0.20583695
000230 9b 28 36 3d 61 9f 53 be 3c 32 97 be 04 3d b8 be
       0.04447232 -0.20666267 -0.29530513 -0.3598405

sun_influence_1.W_self.bias f4 [12]
000000 2c a4 1e bd eb 87 71 bd a4 34 90 3d 56 3b 9e bd
       -0.038730785 -0.058967512 0.070412904 -0.07726161
000010 4a 84 09 bd 6b 8f ff bc 75 11 d5 bc da 15 4a bd
       -0.033573426 -0.031196317 -0.0260093 -0.049337246
000020 c9 16 e4 bd ab 04 0d bd 6a 6a 5c bc a9 a0 df 3c
       -0.111371584 -0.03442828 -0.013453105 0.027298288

sun_influence_2.W.weight f4 [12, 12]
000000 52 86 92 bd 24 b9 c7 be 05 b0 09 3f 9b 1f 71 bf
       -0.07154526 -0.3900844 0.5378421 -0.9418885
000010 36 56 11 be 05 ba 0b bf cf a1 2e 3e a1 b2 b1 3d
       -0.14193043 -0.5458072 0.17053913 0.08676649
000020 39 df c2 3e 51 d1 92 3e ab 93 38 bf 1a 54 be be
       0.3806093 0.2867532 -0.72100323 -0.3717354
000030 10 4c 0c be 93 43 bc be cf 9a ca 3d 8c a4 64 3a
       -0.1370089 -0.36770305 0.09892809 0.0008722029
000040 7d 30 9d 3d c4 d4 9d bd f3 6b d8 3d bc dc 54 3e
       0.07675264 -0.077065974 0.10567465 0.20787328
000050 0d 06 3f be 43 f1 2e 3e e4 64 fd bd cc 74 87 be
       -0.18654652 0.17084222 -0.12372759 -0.26456296
000060 4a 75 b2 be 00 4c e0 bd 5f d9 9e bc f6 7c 28 be
       -0.3485511 -0.10951996 -0.01939076 -0.16453919
000070 f4 13 38 3e b5 4a f6 be 58 50 d4 bd 7f e0 8d bc
       0.17976362 -0.48103872 -0.10366887 -0.017318962
000080 ba 06 88 3e 50 e3 55 3e 6f b9 d7 be f6 97 b1 3e
       0.26567632 0.20887494 -0.42133662 0.3468625
000090 a3 25 b9 3d f3 89 8a be 21 3f aa 3e 8a 72 4f 3e
       0.09040382 -0.27058372 0.3325129 0.20258537
0000a0 c7 7d b5 3e 6a be 02 3e 59 52 d5 be ed 91 fb 3e
       0.35447523 0.1276795 -0.4166439 0.4913477
0000b0 46 81 ea 3e 54 32 16 3d 61 3c 56 3e 64 31 d5 3e
       0.45801753 0.03666909 0.2092147 0.41639245
0000c0 3f ff 97 be c2 b1 11 bf ea 73 8f 3e ff aa 32 bf
       -0.29686925 -0.5691186 0.28018123 -0.6979217
0000d0 44 fc 28 be 7b 43 22 3e 43 99 cd 3c 80 f9 f6 3e
       -0.16502482 0.15846054 0.025097495 0.48237228
0000e0 d5 5a eb 3d 59 93 a5 3d e2 c0 cc 3d a7 31 10 3d
       0.11491934 0.08084745 0.09997727 0.035203602
0000f0 a9 c0 63 3e e5 f0 76 be 97 8e c7 3e 84 4f fa 3e
       0.22241463 -0.24115331 0.38975975 0.4888879
000100 92 1a ee be 66 20 2f be 53 ea fc 3d 6c e4 a9 3e
       -0.46504647 -0.17102203 0.12349381 0.33182085
000110 99 9e 9f 3e a5 4a f4 be 5f 79 dc 3e 6b 2e 94 be
       0.31175688 -0.477132 0.4306135 -0.28941664
000120 ac 6a f4 3e 61 75 79 be f9 cd 96 be 10 09 c6 be
       0.47737634 -0.24361183 -0.2945402 -0.3867879
000130 28 8b d6 3e af 49 8c 3e f6 24 f5 3d 37 db 94 3d
       0.41903043 0.27399966 0.1196994 0.072683744
000140 16 ce bf be d1 5d 07 3f 4b 77 0b be bf 28 2b 3e
       -0.3746192 0.5287753 -0.13619725 0.16714762
000150 56 06 b4 bd 56 07 72 be 76 9c 11 3e bb 57 e5 3e
       -0.08790271 -0.23635611 0.14219841 0.44793496
000160 91 71 b2 be ba 75 04 be 56 ce 2c bd 87 11 ab bd
       -0.3485227 -0.12935534 -0.042188965 -0.083529525
000170 a6 03 18 be 74 a4 42 bd 62 f7 3a 3d a3 d7 1e bf
       -0.14845142 -0.047520116 0.04564608 -0.62047786
000180 6d 15 ee be ea 8d b3 be 7b c3 a7 3e 6a 0c 0e 3e
       -0.46500722 -0.3506921 0.32766327 0.13871923
000190 74 ef b8 bd a9 27 b9 be f3 34 4c be d7 12 9c be
       -0.09030047 -0.3616307 -0.19942074 -0.30483124
0001a0 16 e1 ae bd 44 d2 12 3c 45 61 0e 3f 89 d1 85 bc
       -0.085390255 0.008961264 0.5561717 -0.016335266
0001b0 67 62 3c 3e 93 9e 97 bd 9b 46 6d be e9 0f 02 3e
       0.18396913 -0.074032925 -0.23171465 0.12701382
0001c0 6f 22 b7 3c 9a ab 93 be cc 41 26 be 50 76 ea 3d
       0.022355286 -0.2884186 -0.16236037 0.114483476
0001d0 4d 7e 95 3e 48 85 1c bf fb 22 06 bf c3 56 9b 3e
       0.29197922 -0.6114087 -0.52397126 0.3033963
0001e0 db 25 9d 3e 20 d2 28 bc 2f e5 fd 3e 1c 1b 06 bf
       0.30692944 -0.010304004 0.49588916 -0.52385116
0001f0 da 03 c0 be 7a 3d 19 3e 4a e3 0a bf 42 f5 09 bf
       -0.37502939 0.14964858 -0.54253066 -0.5388986
000200 1a 6d 1b be 09 ab ae 3e 44 32 2f 3d 07 32 1c bd
       -0.15178338 0.34114864 0.042772546 -0.038133647
000210 68 37 40 3f 3a 52 88 bd 0d 9a 7c 3d b9 64 b2 bd
       0.75084543 -0.066563085 0.06167035 -0.087106176
000220 4b d7 bc 3c fc 71 a0 3e 72 a2 dc bd 95 2e 01 3e
       0.023051878 0.31336963 -0.107731715 0.12615426
000230 e3 dc eb 3d a2 41 28 3e e9 24 59 3e f8 55 f4 3e
       0.1151674 0.16431287 0.21205486 0.4772184

sun_influence_2.W.bias f4 [12]
000000 c3 3c ba 3d e8 74 27 bd 82 56 c3 3d 71 a7 a3 3c
       0.09093621 -0.040882975 0.095379844 0.019977303
000010 41 b4 5f bc 81 b4 8b bd 1a 89 b9 bd 52 34 c3 bd
       -0.013653816 -0.06821538 -0.09059353 -0.09531464
000020 a6 bb 1a 3e 04 7e 4d bd fd 88 f1 bd 80 85 ee bc
       0.15110645 -0.050169006 -0.117937066 -0.029116392

sun_influence_2.W_self.weight f4 [12, 12]
000000 24 73 4a 3d 55 1e 17 be d2 e4 be 3d 99 69 46 3c
       0.049426213 -0.14757665 0.09320988 0.012110137
000010 1d 9c 76 be 9e 9d 0f bf 18 dd af 3e 80 a6 fb 3d
       -0.2408299 -0.5609988 0.3434837 0.12287617
000020 8d 58 48 bd e8 33 3c be 08 2e b0 bd e8 42 d8 3e
       -0.048912574 -0.18379176 -0.0860253 0.42238545
000030 d9 42 cb 3e 36 6e b0 be c3 4e d3 3e d6 8d 34 bf
       0.39699438 -0.34459084 0.41271028 -0.70528924
000040 f1 9a 52 3f e4 4f 4a bd ad 1c bc 3e 5d 82 b0 bd
       0.8226767 -0.049392596 0.36740628 -0.08618615
000050 16 c9 93 bc af eb e5 3e 26 6f e0 be 69 f7 2e 3e
       -0.018040221 0.44906375 -0.438348 0.17086567
000060 d6 25 ba 3e 0a 1c 9c 3e 3b 42 a9 3e 0a 63 3e be
       0.36356992 0.30490142 0.33058342 -0.18592468
000070 d9 8c 84 bd c6 73 da 3e 2c af e5 3e 85 64 3d 3f
       -0.06472177 0.42666453 0.44860208 0.73981506
000080 f2 88 05 bd 2b 52 3a 3f 83 91 86 be d1 80 06 be
       -0.032601304 0.7278163 -0.26282892 -0.13135077
000090 43 fb 62 bc 56 37 35 3e b8 3a 43 be 7d 57 54 bd
       -0.013853851 0.1769689 -0.19065368 -0.051841248
0000a0 27 ee f6 3e 20 28 1b bf 7b 1c 77 3d 91 91 69 3d
       0.4822857 -0.606081 0.060329895 0.05702359
0000b0 9d bf f8 3d c2 6f 43 be c8 76 87 be 2f 68 a1 3c
       0.12145922 -0.19085601 -0.2645781 0.019702999
0000c0 e5 dc 25 bf 84 54 9d be 8a e2 d8 bd 4d 5e 03 be
       -0.64790183 -0.30728543 -0.10590084 -0.12828942
0000d0 eb bd 1d 3e b0 23 b1 bc 6a 19 a6 3d d9 c7 84 3e
       0.15404479 -0.021623462 0.08110316 0.25933722
0000e0 73 5f 68 3e 26 3c 1d be 72 6a 8d be 35 fa 00 bf
       0.22692661 -0.15354976 -0.27620274 -0.50381786
0000f0 31 6c c4 3c e3 1f 09 bf 77 73 20 bd a8 bc 45 bd
       0.023977371 -0.5356428 -0.039172616 -0.04827562
000100 54 60 ae be 50 f5 cb be 02 99 2b 3e 48 0b 6e 3d
       -0.34057868 -0.39835596 0.16757587 0.058116227
000110 d5 ef 50 39 38 04 21 bf 70 ce 30 bd 40 57 aa bd
       0.0001992577 -0.6289706 -0.043165624 -0.08317423
000120 16 3c b9 bd 93 b3 4f 3e 77 f8 e3 be fd 98 d7 3e
       -0.090446636 0.20283346 -0.445255 0.42108908
000130 1f b0 d4 3e 4a a1 80 be 06 6b 69 be bd 56 e6 3e
       0.4154062 -0.25123054 -0.22794732 0.4498805
000140 fa f6 c4 3e 1e b9 80 3e 58 83 c9 bd 9c 7f db bd
       0.38469678 0.25141233 -0.09839505 -0.10717699
000150 55 ff 59 be 1a a7 cc 3c 10 e3 bf 3c ad 43 89 3e
       -0.21288808 0.024982024 0.023423702 0.26809445
000160 51 ca f5 3d 77 5f c8 bd 42 16 6a 3e 24 14 be bd
       0.120014794 -0.097838335 0.22860053 -0.09281185
000170 d7 a1 20 be 7a 7e a6 3e d6 26 68 3e 3e e5 bb 3d
       -0.15686737 0.3251837 0.22671065 0.09174584
000180 19 c8 12 3e b9 d6 43 bc 19 fa 82 3e 11 da b0 3d
       0.14334144 -0.011953049 0.25581434 0.08635343
000190 22 65 9f 3c c8 ff eb be 4d db e9 be 07 16 b5 be
       0.019457404 -0.46093583 -0.45675126 -0.35368368
0001a0 51 5f 81 be 60 9e 24 bf b4 a1 73 3e 59 b1 85 3e
       -0.25268033 -0.6430416 0.23792154 0.26111868
0001b0 76 bb ce 3d 98 bb ff be 3f 0c 8e 3c 18 0f bc 3e
       0.10094349 -0.4994781 0.017339824 0.36730266
0001c0 dd fb 3f 3e 5a 3d 8a 3e f6 18 3b bc 07 39 65 be
       0.18748422 0.26999933 -0.011419525 -0.22385035
0001d0 9f 9c de 3e ed 27 40 be ab 3c 97 3d b7 6a 6d bd
       0.43478867 -0.1876523 0.07384618 -0.0579631
0001e0 62 af 2b bf e6 45 a4 3d 13 ec 7c 3d a2 f8 54 be
       -0.6706449 0.080211446 0.061748575 -0.20797971
0001f0 d3 16 ae 3e 18 1e 80 be c2 5c e7 bd 2a 2a 42 be
       0.34001788 -0.2502296 -0.11296989 -0.18961397
000200 28 9a 07 bd 72 b9 c2 be 2b 11 9c bd 23 61 3b be
       -0.033106 -0.3803211 -0.07620462 -0.18298773
000210 76 35 8e 3e 8e 03 2e 3e 93 0d 50 be 5e 91 3c 3e
       0.27775162 0.16993544 -0.20317678 0.18414828
000220 de 3f 9d 3d 68 14 cb be 3e c7 b2 3e 7b 4c 82 3e
       0.07678197 -0.39664006 0.34917635 0.25448975
000230 d4 1c d7 be c1 8e e2 3e 18 9d ac 3e 76 d6 97 be
       -0.42014182 0.44249538 0.33713603 -0.29655808

sun_influence_2.W_self.bias f4 [12]
000000 c3 3c ba 3d e8 74 27 bd 82 56 c3 3d 71 a7 a3 3c
       0.09093621 -0.040882975 0.095379844 0.019977303
000010 41 b4 5f bc 81 b4 8b bd 1a 89 b9 bd 52 34 c3 bd
       -0.013653816 -0.06821538 -0.09059353 -0.09531464
000020 a6 bb 1a 3e 04 7e 4d bd fd 88 f1 bd 80 85 ee bc
       0.15110645 -0.050169006 -0.117937066 -0.029116392

sun_influence_3.W.weight f4 [12, 12]
000000 2c 19 4a be b1 cd b4 3e e2 12 15 3e fd 9e 2b be
       -0.19736165 0.3531318 0.14557984 -0.16759868
000010 ee c6 a5 bd 8b 83 89 be fd 28 fe 3e 8b 7a 5b 3e
       -0.080945835 -0.26858172 0.49640647 0.21433465
000020 a6 ea 1b 3e 1c 4f 4f be 00 41 8b 3e cf 36 0e 3f
       0.1522623 -0.20245022 0.2719803 0.5555238
000030 06 f9 2b 3f 6e 72 70 be d5 06 0a 3f 60 ea 51 be
       0.67176855 -0.23481151 0.53916675 -0.20499563
000040 b6 54 fd be a3 ff f9 3e e6 90 d8 be ef 15 1b be
       -0.49478692 0.48827848 -0.4229805 -0.15145086
000050 20 10 4b 3d 1e 82 65 be a0 a9 3b 3e 5c 34 f8 3d
       0.049575925 -0.22412917 0.18326426 0.12119362
000060 94 36 4d bf 2b b5 ee be 01 a2 d7 be 77 f9 23 3e
       -0.80161405 -0.46622595 -0.42115787 0.16013132
000070 cc 7c 51 3c b5 23 04 3f a3 59 a4 be 86 ae 8e 3e
       0.012786102 0.51616985 -0.32099637 0.27867526
000080 e9 06 fa 3e b7 0c 27 be 20 60 69 3e 1c 9f e0 3e
       0.48833397 -0.16313444 0.22790575 0.4387139
000090 58 93 19 be f6 88 45 bf fe a1 22 bd e4 37 63 3d
       -0.14997613 -0.7716211 -0.03970527 0.055473223
0000a0 e1 69 98 be da 78 7b be cf c9 96 be 98 b5 3d 3e
       -0.2976828 -0.2455782 -0.29450843 0.18526304
0000b0 0f 84 b0 bd e4 f4 c2 3d 38 03 a4 be 3d 37 d0 be
       -0.08618938 0.095193654 -0.32033706 -0.40667143
0000c0 ca 37 d6 bd 28 b5 74 3e e5 53 4c 3e e6 86 8f be
       -0.1045986 0.2389723 0.19953878 -0.28032607
0000d0 1c a3 55 be e5 78 92 3e f9 87 1e bd 76 9c b9 3e
       -0.20863003 0.2860786 -0.038703892 0.36252183
0000e0 17 4b 29 3e 87 8a 6f 3e 7a 2f 88 3e ed 09 fd 3c
       0.16532551 0.23392688 0.26598722 0.030888522
0000f0 60 49 5e 3e 74 7d a7 be df 29 aa 3d b1 aa 0c 3e
       0.21707678 -0.327129 0.083087675 0.13736989
000100 5f 46 12 3f 69 35 c3 3d 37 e3 10 3e 11 9b 9b be
       0.5713863 0.095316716 0.14149176 -0.30391744
000110 d2 66 97 3d 1d 5c 99 3e 4f 26 ad 3e e4 98 9d be
       0.07392658 0.2995309 0.3381829 -0.3078071
000120 e4 a9 82 3e c4 d3 77 be c5 70 3d be bc e6 4c be
       0.2552024 -0.24201876 -0.1850005 -0.20009893
000130 fd 92 fd bd 39 f4 ea bd f2 27 e1 3e 8a f6 e4 bd
       -0.123815514 -0.11472363 0.43975788 -0.11179836
000140 1e 98 20 3f 8c 0f 69 3e ae b9 a0 be f3 4c ab 3e
       0.6273211 0.22759837 -0.31391662 0.33457145
000150 f1 11 ba bd fb e8 46 3e 44 84 4f 3e 8b 77 9f be
       -0.09085453 0.19424812 0.20265299 -0.31145892
000160 eb 76 92 3d 20 20 c6 be 75 d4 49 3e e0 40 a3 3e
       0.07151588 -0.38696384 0.19709952 0.31885433
000170 34 08 f8 be 34 77 7e be 3f a9 9e be c2 a2 0f 3f
       -0.48443758 -0.2485016 -0.309885 0.56107724
000180 13 13 14 bd cd db 80 3d 1d 5f 23 be 6f 24 92 be
       -0.036151003 0.06291924 -0.15954252 -0.28543422
000190 f6 14 7f 3d b0 f7 dc 3e bc 60 79 bb 43 59 c0 be
       0.06227585 0.4315772 -0.0038052043 -0.375681
0001a0 21 cc e9 bd 61 09 4a 3e 1d 51 5a 3e c0 66 ee be
       -0.114158876 0.1973014 0.21320005 -0.46562767
0001b0 18 43 ea 3e 78 0a 97 bb 40 a5 a2 be ee 37 85 bf
       0.45754313 -0.0046094023 -0.317667 -1.0407693
0001c0 ed 31 1f 3e 40 2c 96 bd 65 a2 77 3d 37 6a 08 3f
       0.15546389 -0.07332659 0.060457606 0.5328707
0001d0 1f 9b 1a 3f 8a f9 30 be bf 7b 73 3f 25 34 06 bf
       0.60392946 -0.17282692 0.95110697 -0.52423316
0001e0 91 20 04 3f a6 d5 85 3e 4f cd 05 3c 06 82 17 bf
       0.5161219 0.26139563 0.008166625 -0.59182775
0001f0 9b 93 db bd 4d a8 ca be 49 54 75 3e e9 97 cc 3e
       -0.10721513 -0.39581528 0.23957933 0.39959648
000200 96 a3 5f 3e 58 7f 18 3e d2 7c aa be f6 88 82 3e
       0.21839747 0.14892328 -0.33298355 0.25495118
000210 ae ba 03 3e 3c 9a 23 bd 08 4f f7 bc c3 3a 52 be
       0.12864181 -0.03994201 -0.030189052 -0.20530228
000220 88 cc 4d 3d 5b d4 db be 07 71 a6 3e 47 b0 11 be
       0.050243884 -0.42935452 0.32508108 -0.142274
000230 f5 e7 1a bf 77 b8 48 be db 0e 84 3e 38 7f 38 3f
       -0.6051019 -0.19601618 0.25792584 0.7206912

sun_influence_3.W.bias f4 [12]
000000 73 fd a3 bc f0 21 0e 3d 42 f2 8e bc 7e ab 71 bd
       -0.020018315 0.034700334 -0.017449502 -0.05900144
000010 b0 1a 9a bc 79 5f 80 bd 05 63 83 bd 98 66 47 bb
       -0.018811554 -0.0626821 -0.06415371 -0.003042614
000020 f0 cb 15 bd 48 bd a5 3d d7 53 50 3c 74 9d ee 3b
       -0.036571443 0.08092743 0.0127153015 0.0072819535
