src/Photosynthesis/RL/SavedModels/model_6.pth (torch, 29994 bytes, 34 tensors)

player_tree_1.W.weight f4 [12, 12]
00000000: 16e5 0abe debd 0abf 762d 913e d62b 99be
00000010: 4877 003e 0fea 6b3e 8c60 a03d bbdd 6d3d
00000020: c5c0 c43c 038d 933e 1f8f aabb ae10 04be
00000030: 9b33 38be 4834 7a3e 32df 8cbe 8d64 bbbe
00000040: 10ec a63e 2ed9 a13c b1b2 c9bd 64bb b53d
00000050: 882e a7be 8dce 1e3f 3221 253f f708 95bd
00000060: 31bb 41bc 14ed 93be ad7e 3c3c 8c32 723e
00000070: 306a 833e 276a a63d f12a 2ebd ceab b83e
00000080: 0570 033f c98d bc3e 3153 a8bb 9403 55be
00000090: 0557 02be 5396 cdbe 4e75 92bd c74e b0b9
000000a0: 66e0 57be 0c62 853d 5d6c ea3c 731a 2dbe
000000b0: ae2c 42be fdde 30bd cf01 5bbf 279c 133e
000000c0: 7bcf d23d d065 0abe 41d7 abbd edb0 6abe
000000d0: d5ce 76bd 31e5 1d3f 2be4 4f3e c928 5fbe
000000e0: 0fce cb3e 5fd5 97bd c17b 9c3d d973 3b3c
000000f0: 4041 903d 6459 973d 40b6 a9be ec45 d93b
00000100: c5ab c9be 4677 d6bd d2e1 e3bd 2373 25bd
00000110: ab34 87be 324e 49bd 31c4 c0be a27e 903e
00000120: 32a9 09be 3615 433e d862 71be c0dd 253e
00000130: e68e 433f ef38 adbd cb1b 213f 952e 9dbe
00000140: 7817 92be a983 91be dd08 abbe ac0e 42bd
00000150: 4ffc eb3e 4a1c 683e 5cf0 26bb a525 2bbe
00000160: ef49 a13d e0e5 b7be 8d50 febe 3317 35be
00000170: 57cd a2be acc5 a13e 7f14 c13e ccf9 8fbd
00000180: c9e1 423d 4267 8fbe 93f3 d5be f278 423e
00000190: 7ad1 4dbe 1264 bcbe bd19 883c a8a1 9dbd
000001a0: fb67 02bf 9c8a 39bd 05ec 903e d34e 5abd
000001b0: 2f4e a8be cc5b 34be 418e d1be a98b d73c
000001c0: 9985 d1bd e99b 963e 7e81 6c3e 3f29 103f
000001d0: 2112 80be 89b3 d53e 42c7 26be daf0 f0bb
000001e0: 30c2 a0be 70fd 8b3e e4fc 39bd 635b a0bd
000001f0: 6dc9 d4be dc8b 92bf 3965 a63e 69a6 a9bd
00000200: c11d 3b3d 0969 b63c 131a 62be ffb8 0abe
00000210: 8d79 193e 9a99 633e 2411 74be ac41 983e
00000220: 9f35 1dbe 82a3 c2be d6e7 35bd 258b 7c3d
00000230: 5f76 9b3e 7a3c b7bd 1dd3 503e 79a6 3c3f
-0.13563952 -0.54195964 0.28354996 -0.29916257 0.12545502 0.23038505 0.07830915 0.058072787
0.0240177 0.2881852 -0.0052050496 -0.12896988 -0.17988436 0.24434006 -0.27514035 -0.36600152
0.32601976 0.01975688 -0.09848536 0.088736326 -0.32652688 0.6203392 0.6450378 -0.072771005
-0.011824415 -0.28891814 0.011504811 0.23652095 0.25666952 0.08125716 -0.04252142 0.36068577
0.51342803 0.36826923 -0.0051368703 -0.20802146 -0.12728508 -0.4015375 -0.0715128 -0.0003362803
-0.21081695 0.065128416 0.028616125 -0.16904621 -0.18962356 -0.04318141 -0.85549635 0.14415036
0.1029348 -0.13515401 -0.08390666 -0.22919054 -0.060255844 0.61677843 0.20301883 -0.21792902
0.39805648 -0.07413744 0.07640792 0.011441194 0.070436954 0.07390097 -0.33146858 0.00663065
-0.39388862 -0.10471968 -0.11127056 -0.040393006 -0.2640737 -0.04914684 -0.37649682 0.28221613
-0.13443449 0.1905106 -0.23572862 0.16197872 0.7638992 -0.08458125 0.62933034 -0.30699602
-0.2853353 -0.2842076 -0.334052 -0.047377273 0.46090934 0.22667041 -0.0025472855 -0.16713579
0.0787543 -0.35917568 -0.4967083 -0.17684631 -0.31797287 0.31596124 0.3771095 -0.07030067
0.047578607 -0.28008467 -0.41787395 0.1899145 -0.2009944 -0.36795098 0.016613835 -0.07696849
-0.5093991 -0.045298204 0.2830507 -0.05329783 -0.3287215 -0.17613143 -0.40928844 0.026311712
-0.1023056 0.29415825 0.23096272 0.56312937 -0.2501383 0.41738537 -0.16286948 -0.0073529305
-0.31398153 0.27341795 -0.04540719 -0.07829931 -0.41559926 -1.1448932 0.32499102 -0.08283693
0.045682672 0.022266882 -0.22080259 -0.13547133 0.14987774 0.22226563 -0.23834664 0.29737604
-0.15352486 -0.38015372 -0.04441055 0.061656136 0.30363747 -0.08947082 0.20393033 0.7369152

player_tree_1.W.bias f4 [12]
00000000: abae 133c 0381 eabb e97f 4c3c bdec 19bb
00000010: b3a2 923b fdfe ad3a c924 bdba 8c7f 48bb
00000020: 3245 05ba d770 5439 5d8d 66bc d82a 4ebb
0.009013812 -0.0071564927 0.012481668 -0.0023487054 0.0044749617 0.0013274845 -0.0014430518 -0.0030593602
-0.0005083858 0.00020259932 -0.01407179 -0.0031458642

player_tree_1.W_self.weight f4 [12, 12]
00000000: 0ba2 0abe c035 ea3d 14f0 0c3f 3e6b 65be
00000010: d987 2e3f 1e0b bdbd f12d 18be bfb8 38be
00000020: e019 43bd c439 c93e cacf dd3d a419 a5bc
00000030: fbe0 c63e 23a7 58be e2df 15be 5601 7dbd
00000040: a974 2bbe 2e7c d3be e4ca 253e 3599 013f
00000050: ab03 0c3e 1679 413d cdd3 513e 8066 d2bc
00000060: 9bf2 193e 3456 603e 4a9f 383d 0df6 0abe
00000070: 6295 933c ef10 ba3d 171b e9be 4e56 673f
00000080: 563c a43e 08cf 8f3e 9eb0 f9bd 220e 503e
00000090: a95b 66be d270 0cbd 7a44 c6be 9aa2 a73d
000000a0: 349c f03e 8d0d 2f3d 4b6b 11bf bd7c db3d
000000b0: 52ff a13d 3f0f 80be 08f7 c13d a325 9bbe
000000c0: 2717 fe3e 7091 673e 1b84 14bd 6f94 0f3f
000000d0: ecce 6e3e fff6 85be 63f9 35be 0873 7a3e
000000e0: f263 49be 87a0 cdbd f658 9bbd 947c 4ebd
000000f0: d6e7 8dbe 61fa ecbe d8c8 8ebe d460 a6be
00000100: 7e2e 9a3b 234f a5be d26d 18bf a32d b2bd
00000110: 0e9f a1be de6f da3e df13 e8be 9c47 0d3e
00000120: 5872 0c3f 112e 9abd 2be0 97be d072 cabd
00000130: 5859 803e be91 63bc b1ab 8c3e 4ad4 68bd
00000140: 3961 753e 1fdc 313f b73b e9bd 4e59 2a3e
00000150: 2f3b 9bbc 7181 f23d 81b3 2e3e db31 87be
00000160: fded b33e 72da 833e 3f96 d63d 8fc6 bebe
00000170: e6a1 88bd 2e2e 8ebd 200c c33e 5533 1abf
00000180: c005 943e 7673 943d 95df 2ebd d1f7 82be
00000190: ef15 57be 355a 853e e604 ab3e 4aa8 603d
000001a0: 7816 983e 1342 6abe 1046 553e 4148 913e
000001b0: 2e45 88bc 638e 333e f909 e9bd 4d6e d0be
000001c0: 2cf6 25be cd90 05be 7e1a 173e 0d20 01be
000001d0: f781 8fbe 7686 1bbe 6c0a 0dbe 7af3 e8bd
000001e0: 3457 dd3a 5f08 233e c614 00be 16b8 1b3f
000001f0: 7d32 2bbd db3d 0fbf 7417 0dbf c731 1cbe
00000200: 5407 1d3e 5d98 8d3e 736b 95be 5977 bdbe
00000210: fd7b dfbe fd43 20bf 5011 c23e 066e 12be
00000220: 6a23 0dbf 1e20 2ebe 74ed 973d 8cc4 49be
00000230: a071 483e df49 29be 70e7 73be 5265 37bf
-0.13538377 0.11436033 0.5505383 -0.22404191 0.6817604 -0.09230636 -0.14861275 -0.18039225
-0.0476321 0.39301884 0.10830648 -0.020153828 0.3884352 -0.21157508 -0.14636186 -0.061768852
-0.16743721 -0.4130568 0.16190678 0.506244 0.13673274 0.047234617 0.20490952 -0.025683641
0.15033953 0.21907884 0.045073785 -0.13570423 0.018015567 0.09085261 -0.4552848 0.90366066
0.32077283 0.2808764 -0.1219189 0.20317891 -0.22495903 -0.03428728 -0.38724118 0.08185311
0.46994174 0.042737532 -0.5680434 0.10717151 0.079100266 -0.25011632 0.094709456 -0.30302152
0.4962704 0.22614074 -0.036258798 0.56085867 0.23321122 -0.26165006 -0.17770915 0.24457943
-0.19667032 -0.10040384 -0.07585327 -0.050411776 -0.2771594 -0.46284774 -0.27887607 -0.3249575
0.0047052493 -0.3228694 -0.5954257 -0.08700111 -0.31566662 0.42663473 -0.4532766 0.13796848
0.54861975 -0.07528318 -0.29663214 -0.0988518 0.25068164 -0.013889728 0.2747474 -0.05684308
0.23962869 0.69476503 -0.11388343 0.1663563 -0.01894912 0.11841095 0.17060663 -0.26405224
0.35142508 0.25752598 0.10477876 -0.37260863 -0.06671505 -0.06942402 0.38095188 -0.60234576
0.28910637 0.07248585 -0.042693693 -0.25579694 -0.21004461 0.26045385 0.33402175 0.054847993
0.29704642 -0.22876768 0.20827508 0.28375438 -0.01663455 0.17534785 -0.11378855 -0.40709153
-0.16207188 -0.13043518 0.147562 -0.12609883 -0.28028843 -0.15188012 -0.13773507 -0.113745645
0.001688695 0.15921162 -0.12507924 0.6082777 -0.041796196 -0.5595376 -0.5511391 -0.15253364
0.15334827 0.27655306 -0.2918354 -0.37005118 -0.43649283 -0.6260374 0.37903833 -0.14299783
-0.5513216 -0.17004439 0.074183375 -0.19703883 0.19574594 -0.16532086 -0.23818755 -0.7163898

player_tree_1.W_self.bias f4 [12]
00000000: abae 133c 0381 eabb e97f 4c3c bdec 19bb
00000010: b3a2 923b fdfe ad3a c924 bdba 8c7f 48bb
00000020: 3245 05ba d770 5439 5d8d 66bc d82a 4ebb
0.009013812 -0.0071564927 0.012481668 -0.0023487054 0.0044749617 0.0013274845 -0.0014430518 -0.0030593602
-0.0005083858 0.00020259932 -0.01407179 -0.0031458642

player_tree_2.W.weight f4 [12, 12]
00000000: 3c39 e63e d541 ab3e e515 1fbe 3166 b3be
00000010: 21e8 bdbe c130 313f 8ebf 4cbe a540 08bf
00000020: 6a68 83be 6c55 6d3d d478 a33c c1c6 c23e
00000030: 677b 653e 1640 073e d1d8 b53e 7c5b 43be
00000040: cf79 b3be 60f4 bebe 4017 0e3e 8ab1 733e
00000050: b707 df3e a0ea d13e 61be 6fbe d504 4cbf
00000060: 2797 54be 327b 7c3e 4d08 4dbe 5f1a 70bc
00000070: aea7 e93e 0e63 e33c 0026 1dbe 1243 7cbd
00000080: cbcf 0bbc 4a28 f03d c4d0 ba3d 1fc3 613f
00000090: 8933 0bbd 62d2 0d3f a86e d73d d8e0 43be
000000a0: cb14 98be 6b34 43be 4324 babe 9456 2fbe
000000b0: 9be4 693c 290a 2dbe 7b74 173d 77d5 923d
000000c0: 0cf2 d3bd 7e80 bbbe c68a 00be cf31 a8be
000000d0: 932d 75be 18f2 1e3f 82ff b6bd 0a2c 65bd
000000e0: 2518 473e 3b5b 0e3f 7054 f23c 65d5 0d3e
000000f0: bda5 773e 168e 9abe 6ad4 68be 371d a0bd
00000100: 2564 c6be 9142 d63e f194 673e e134 4a3e
00000110: 7e76 24be 049a 75bd 9f22 d83d 2bd4 dbbe
00000120: 986c 753e 15cc 11be 1fac b1be 78ae fbbd
00000130: 21dc 29be f647 323f b565 963e 97be 54bd
00000140: 3454 ec3c b184 183e f0c7 7b3e 507b 50be
00000150: 533d e83d ca05 cfbb 23fb 063f 9884 a7be
00000160: 8abd 583e 3983 273e 592f 68bd 8330 453e
00000170: be50 503e 1ac6 39be 76e4 d73c af7a 4bbe
00000180: cf83 6c3e aa74 803e 036d 9f3e d6a8 f13d
00000190: ac10 b8be 5e4b d93d c52b ee3d da21 923d
000001a0: f212 e03e cc65 843e 000e 45be 04e2 10be
000001b0: 3775 793e 4543 933e 2678 a43e 577e 60bd
000001c0: 0f82 a5be e02b a4be 0c1a 9a3e 5d3b bfbc
000001d0: bd01 28bf 388c 0fbf 78e1 33bd 2b85 0cbe
000001e0: ead9 88be 5bfc 893e 2bc2 913e 6539 d63e
000001f0: b8ae 49be fb38 fe3e a67b cbbe 479d 3e3d
00000200: e14b b9be e707 8bbe 02c6 c9bd d153 f0bd
00000210: 1534 b0be b359 3f3e b645 d43d 3d8a 323e
00000220: 3a35 383d 464f 86be 4ea3 9a3e 23de 203e
00000230: a0a2 5a3e 53a3 c8be 171c dcbd a020 54be
0.4496554 0.33448663 -0.15535696 -0.35038903 -0.37091163 0.6921502 -0.19994947 -0.5322364
-0.256656 0.057942793 0.019955076 0.38042262 0.22410356 0.1320804 0.3551698 -0.19077867
-0.3505387 -0.37295818 0.13876057 0.23798195 0.43560573 0.40999317 -0.23412468 -0.79694873
-0.20760785 0.2465637 -0.20022698 -0.014654725 0.45635742 0.027757194 -0.15346527 -0.0615874
-0.008533428 0.117264345 0.0912185 0.88188356 -0.033984695 0.55399144 0.10519153 -0.1912874
-0.29703364 -0.19062965 -0.3635579 -0.1712287 0.014275695 -0.16898407 0.03697632 0.071696214
-0.10348901 -0.3662147 -0.12552938 -0.328505 -0.23943166 0.62088156 -0.08935453 -0.055950202
0.19442804 0.55607957 0.029581279 0.13850935 0.24184318 -0.30186528 -0.2273728 -0.07818072
-0.3874828 0.4184766 0.2261541 0.19746734 -0.16060826 -0.059961334 0.105534784 -0.4293531
0.23967206 -0.14238007 -0.3470163 -0.12289137 -0.16587879 0.69641054 0.2937447 -0.051939573
0.028848745 0.14894368 0.24587989 -0.2035954 0.11339822 -0.006317829 0.52726954 -0.32718349
0.21166053 0.16358651 -0.05668578 0.19256787 0.203433 -0.18141976 0.026354056 -0.19871019
0.23097156 0.25089008 0.31137857 0.11799781 -0.3595022 0.10610078 0.11629442 0.07135363
0.43764454 0.25858915 -0.19243622 -0.14148718 0.2436112 0.2876226 0.32122916 -0.054807987
-0.3232579 -0.32064724 0.30097997 -0.023343736 -0.6562765 -0.5607333 -0.043916196 -0.13722675
-0.26728755 0.26950344 0.2846845 0.41840664 -0.19695556 0.49652848 -0.39742774 0.04653671
-0.36190704 -0.27154467 -0.0985222 -0.11734737 -0.34414735 0.18686561 0.10364859 0.17435546
0.044972636 -0.26232356 0.30202717 0.15709738 0.21351099 -0.39187106 -0.10747545 -0.2071557

player_tree_2.W.bias f4 [12]
00000000: dcc1 91bb 1c2a 9bbb f798 11bb 7852 2f3c
00000010: 5af3 91bb 8009 cabb 5e3f 20bc 7678 6c3c
00000020: a7d5 893b dfee 27bb baad f1ba 9e76 13bb
-0.0044481587 -0.0047352444 -0.0022216418 0.010700814 -0.0044540586 -0.0061656833 -0.009780733 0.014433017
0.0042063775 -0.0025624556 -0.0018438615 -0.0022501121

player_tree_2.W_self.weight f4 [12, 12]
00000000: 6263 2fbe 0797 093d c727 023e 8dcf 33be
00000010: 37f4 8e3e 611b b2be 7aa1 52be 170b efbe
00000020: 8f5a b4be 504b 893e 59db e43d cd28 05be
00000030: a024 ecbe eaaf 91be 9e00 9c3d b5fa 433e
00000040: 4a2a f5be 1ca5 fbbe 2c60 9ebe efc4 293f
00000050: cb26 5bbe dc30 5cbd e9a8 bc3d 5ba5 dd3c
00000060: 9ef3 f8be 9680 bb3e 5978 e6be 3b00 b9bd
00000070: 0a3d 4c3d 0f8e c13e dc1a f13d f08b d6bd
00000080: c1b7 9c3e 17bc 383e 32b4 90be ee84 b4be
00000090: 18f8 d23e c42c 453d 1f6f 103f ab22 503e
000000a0: ec91 03bc e57b 293e b8f4 d73e 1530 a2be
000000b0: 8bd7 0b3f ccd6 5dbe 56d2 e8be 908f 5abe
000000c0: cc47 ee3e 774e dc3c d366 b6be aff3 b63d
000000d0: 1550 04be 1b03 e93e bfe3 313c d409 35be
000000e0: ec5b 743e 05f3 23bd 1cf7 6dbe 06c6 23bc
000000f0: 8bef 38bd 8892 273e 472b fe3c 988d 003d
00000100: 04a1 963e 0f20 c53e 4cdb 1ebf 9c6d ee3d
00000110: 98a9 193e b059 96bc c90f bc3e 8a43 f43e
00000120: 36f7 b4bd 8ea2 8e3e 804a 093e bebe 28bf
00000130: 3dc8 1a3f 459b 373d ac9d c03e d390 11bc
00000140: e069 143e 05b6 99be 0b8f a13e d754 113e
00000150: 44b8 babd 33ee e0be d323 453e 8570 2f3e
00000160: 0cd5 fb3d ad36 85bd e6fc 153e 0111 013f
00000170: 3221 0ebf 1a4b 563d 78ff afbb 51d1 423e
00000180: 2198 093d 5cf6 293e cfc1 07bf 1f10 103f
00000190: a1f5 50be dcb1 f4be a8f6 d3be d2e4 53be
000001a0: 0587 ac3e 9826 843e 7b61 19be 13c9 a7be
000001b0: 1c4a fabe a09b 53bd d064 d1be e921 1e3c
000001c0: b5de c4bd 7c5f 88be 835a e2be bbbf 133e
000001d0: 4017 a6be 6b0c 8d3e efe4 373e 16ea 45bd
000001e0: 77f0 d839 7073 22be 0a1e babe cfb7 d43e
000001f0: a63a 463e e081 adbd bfa7 67be 1d3e 4c3e
00000200: bce3 13bf 6b24 d9bd 7adc 50be 6e47 18bd
00000210: 0326 ed3d ef44 5ebd 7005 cabe f314 993e
00000220: a2f3 2bbf 48fd 773d c202 d43d 5ab2 84be
00000230: 7814 d5be b33d 70be 4d5a 0e3e f32a acbb
-0.17127755 0.033591297 0.12710486 -0.17559643 0.27920696 -0.34786513 -0.20569411 -0.46688148
-0.3522534 0.2681527 0.1117465 -0.13003846 -0.46121693 -0.28454524 0.07617305 0.19138606
-0.47883826 -0.49149406 -0.30932748 0.6631612 -0.21401517 -0.053757533 0.092119046 0.027056387
-0.48623365 0.3662154 -0.45013693 -0.09033247 0.0498629 0.37803695 0.11772701 -0.1047591
0.30608943 0.180405 -0.28262478 -0.35257667 0.41204906 0.048138395 0.5641956 0.20325725
-0.008030396 0.16551168 0.42178893 -0.3167731 0.5462577 -0.2166397 -0.45472974 -0.21343827
0.46539152 0.026892884 -0.35625324 0.08933198 -0.12921174 0.45510182 0.010857522 -0.1767953
0.2386319 -0.040026683 -0.23238796 -0.009995943 -0.04515032 0.16364491 0.031026496 0.031385034
0.2941972 0.3850102 -0.6205337 0.11642 0.15006101 -0.018353313 0.36730793 0.47707778
-0.08836214 0.27858394 0.13407326 -0.6591605 0.6046179 0.04482581 0.37620294 -0.008884626
0.14493513 -0.30021682 0.31554446 0.1419252 -0.09117177 -0.43931732 0.19251947 0.17132767
0.12296495 -0.06504569 0.14647254 0.5041657 -0.555194 0.052317716 -0.0053710304 0.1902516
0.033592347 0.16597885 -0.53030103 0.562746 -0.204062 -0.47791946 -0.4139912 -0.20692757
0.33696762 0.25810695 -0.14978592 -0.32770595 -0.48884666 -0.051662087 -0.40897226 0.0096516395
-0.096127905 -0.2663535 -0.4420968 0.14428608 -0.32439613 0.27548537 0.17958425 -0.048318945
0.0004137789 -0.15864348 -0.36351043 0.41546485 0.1935831 -0.08472037 -0.22622584 0.1994557
-0.5776937 -0.10602649 -0.20396605 -0.037177496 0.11579516 -0.05426496 -0.39457273 0.29898795
-0.6716863 0.060544282 0.103520885 -0.2591732 -0.4161718 -0.23461036 0.13901635 -0.0052541434

player_tree_2.W_self.bias f4 [12]
00000000: dcc1 91bb 1c2a 9bbb f798 11bb 7852 2f3c
00000010: 5af3 91bb 8009 cabb 5e3f 20bc 7678 6c3c
00000020: a7d5 893b dfee 27bb baad f1ba 9e76 13bb
-0.0044481587 -0.0047352444 -0.0022216418 0.010700814 -0.0044540586 -0.0061656833 -0.009780733 0.014433017
0.0042063775 -0.0025624556 -0.0018438615 -0.0022501121

player_tree_3.W.weight f4 [12, 12]
00000000: c956 193e 0e52 52bf d5b3 14be 9193 7c3c
00000010: b56b 4abe 2eeb 44be 9f8c e4bd a0bb 64be
00000020: b25d 033d 16aa e1bc a75c 6d3e 642b 90bd
00000030: 40b4 b23d 1916 9f3e 5f8c f43e f774 2bbe
00000040: 6239 a93d 45ef a9bd 4881 e93c b0c1 febd
00000050: 402b 3c3d 68cb ec3e 600d 3dbd bd87 d73e
00000060: a668 173d 7ffe a83e 0ee1 b53c e024 133e
00000070: ecdb 3a3e c149 273e 8593 3ebe dbc6 023f
00000080: 2787 ec3d c59c 05bf b366 91bc 1539 7f3c
00000090: f063 63be 5ee4 6b3c 7874 c23d f511 babd
000000a0: 026a a23d beac 9b3e 5943 9d3d a1ab b43e
000000b0: 329e 843d 0c4b 97be a851 153f a863 41be
000000c0: 37d9 74be 5e68 a3bd ef41 303e 1d15 3dbe
000000d0: 5f30 2e3e 7016 a9be 8443 283e 659d 0abd
000000e0: 2b98 8a3e f9b7 bcba fd31 47bc a610 0e3e
000000f0: e051 0cbe 5617 0c3f d7b4 69bc 766f 51be
00000100: 4daf b83e 54c7 30be 07cb 9cbe b5f1 15bf
00000110: 4210 abbe 95d1 023e aaff 6dbd 7088 043e
00000120: 6f2f 42be c742 37bd 0e57 8bbd b131 193d
00000130: aa0f 84be d079 133e f6b6 173f 26fe de3d
00000140: db64 dc3e 27f2 c3be 3f67 813e d352 243e
00000150: 62fb 3fbe 6caf f53d d5e5 093e 300a 333d
00000160: b710 c73c 66ef e63d 645e b93e 02ce 11be
00000170: 4f31 4fbe ccad 9c3d aea6 30be 20f0 043e
00000180: b490 abbb 84f2 3b3d 90d3 cc3c e0fa 313d
00000190: 75a2 8bbe 4e05 993d d51e 2e3f 4440 393d
000001a0: 68e4 23bb ef6e 12be 9f7d 05bb 5195 ccbd
000001b0: 3494 4fbd dfd0 c83e c46c d63e 928f 803e
000001c0: 846c 4f3f b3ad 203e 39e7 e73c 87a5 013e
000001d0: 73d9 07be 092d 193f 5402 07be cda6 f33d
000001e0: 75f6 613e 5fe1 1f3d 9500 f5be 557a 8cbe
000001f0: cea2 683d ea54 08be 8cc5 0f3e c1ca a4be
00000200: a7c9 d83d b60c 63be ee09 093f f209 b33e
00000210: 25f3 f7be a2a8 8f3d 7480 843e 4914 03bd
00000220: 17cc 863e 7a74 cc3d f9c0 22bf d4c8 303e
00000230: 8f69 cfbd 4a96 823e 808b 1bbc 5bfe 2cbf
0.14974512 -0.82156456 -0.14521725 0.015416042 -0.1976765 -0.19230339 -0.11159634 -0.22337198
0.032071777 -0.027546924 0.23179875 -0.07039526 0.08725786 0.31071547 0.47763345 -0.16743837
0.08262898 -0.0829759 0.028504029 -0.12439287 0.045939684 0.46248937 -0.046155334 0.42095748
0.036965035 0.33006665 0.022202041 0.14369535 0.18247956 0.16336729 -0.18610962 0.5108468
0.11549216 -0.52192336 -0.017749166 0.015577574 -0.22206092 0.014397709 0.09494871 -0.09085456
0.07930376 0.3040523 0.07678861 0.35287192 0.06475486 -0.29549444 0.5832772 -0.18885672
-0.23910986 -0.07978891 0.17212652 -0.18465085 0.1701064 -0.3302493 0.16432005 -0.03384151
0.2706922 -0.001439809 -0.012157914 0.13873538 -0.13703108 0.5472311 -0.014264307 -0.20452675
0.36071244 -0.17263538 -0.30623648 -0.5857194 -0.3341084 0.12775262 -0.05810515 0.12942672
-0.18963407 -0.04474142 -0.06803714 0.037400905 -0.257932 0.14401937 0.5926355 0.10888319
0.43045697 -0.38270685 0.25274083 0.1604722 -0.18748239 0.1199635 0.1346658 0.043710887
0.024299962 0.112761304 0.36204827 -0.14238742 -0.20233653 0.076503366 -0.17251083 0.12982225
-0.005235756 0.045885578 0.025003225 0.043452144 -0.27272382 0.07471715 0.68015796 0.045227304
-0.0025007967 -0.1430013 -0.0020369065 -0.09989417 -0.050678447 0.39221856 0.41879857 0.25109535
0.81024957 0.15691261 0.028308498 0.126608 -0.13266544 0.59834343 -0.13184482 0.11897049
0.22066672 0.03903329 -0.47852007 -0.27437082 0.056795888 -0.13313642 0.14040202 -0.3218594
0.10585337 -0.22172818 0.53530777 0.34968525 -0.48427692 0.07014586 0.25879252 -0.032001767
0.26327583 0.09983154 -0.635757 0.1726411 -0.101275556 0.25505286 -0.009493709 -0.67575616

player_tree_3.W.bias f4 [12]
00000000: de3a 173c f53f 25bb 4d77 1a3c af5f 573b
00000010: 5f1c 083c 9205 8ebb 842e b5bb ed7b 54bc
00000020: 51c7 103c 65ea 883b 8dac 7339 65e1 0a3c
0.009230344 -0.0025215123 0.009427858 0.0032863428 0.008307545 -0.00433416 -0.0055292267 -0.012968999
0.008836583 0.0041783326 0.00023238566 0.00847659

player_tree_3.W_self.weight f4 [12, 12]
00000000: efd9 6ebe 8208 81be fbdc 01be 2bf5 fabd
00000010: bdca ce3e abba 483e 30b2 ba3e 0e2a a23e
00000020: 7cd2 963b 974c 033e 0533 813d eb0f c2be
00000030: 4cde b4be 9797 11bc 9386 babc db56 1cbd
00000040: 3d5d 84bd 3fcd 0fbe 5d6b 04be fcd4 66bd
00000050: ace8 afbe 9a82 3dbd f307 383e 784c c2be
00000060: d6ba 87be cf8e b43e 5098 6b3e 82a4 803e
00000070: 9ee8 9a3e 22b1 0dbe 7c21 2ebe 8c9c 923e
00000080: 3bb1 473e 7017 13be bbbe da3e ab12 dcbd
00000090: 1f4c 3cbf ad21 773d 2d04 053e 91bb e03e
000000a0: 986f 67bd da33 49be e87d 67be 8b4b 253f
000000b0: f258 6e3d c653 d2be 2a0a 2c3e 8e3a 0bbf
000000c0: 6737 6dbe b124 70be 518a 91be bf30 c53e
000000d0: 7cbd 1f3f 4c58 a13e 84a9 b6bd d1e2 f33d
000000e0: 7c01 82be 06bd 92be baf5 9a3e 7037 0b3e
000000f0: 96c5 a33e 5545 e63d 8eb3 d03e ea50 c43e
00000100: aa10 273c bea3 6bbe bb44 1c3e 5703 04be
00000110: ee91 66be f02c 16be 9d4f 3bbd d787 03bf
00000120: 6c0d 683e f93e 4ebf 9468 25be 7f66 f1bd
00000130: dafa 523e c551 fdbd f652 1d3e 1db9 463e
00000140: 2a5b 623d de43 2f3c a4f5 073d 5061 7abc
00000150: 7bb4 0a3e 7520 17be b3ac 793e 315b aa3e
00000160: 1c54 9b3e 1f2c 343f 4f32 713d 6f19 1bbf
00000170: 7844 0e3d 2606 b3bd 5730 93bd 31d0 bebe
00000180: 5237 69bf d6a8 1f3e 8ebe 78be c10a aa3e
00000190: f923 ef3d 2f00 023f 4048 08bf 9fc8 af3e
000001a0: d3a8 2d3c 6897 383e 8e48 17bf 1ad6 8bbc
000001b0: f613 04bd eb93 7a3e 4437 d33e dfd4 1cbe
000001c0: 5334 373e a838 f9bd 86a8 933e 2e4f c3be
000001d0: 207f 5b3e fef2 edbd 61ba fb3e ed41 08bf
000001e0: ba21 f3bd 11a1 a4bd b82a 30bd f945 183c
000001f0: 6771 c0bd c36a c0bd 6601 f2be 1ba4 b93e
00000200: 4f63 413c a825 fc3e ef82 9b3d 0cd7 37be
00000210: 3dcd c93d bb11 c9be 583b 603e 2eac c43e
00000220: fef4 17bd 8656 b63e f4b7 fc3d eb3f 63bd
00000230: 5916 1c3d cf7b 223f a270 b43b 83ca 93be
-0.23325323 -0.25201803 -0.12681954 -0.12253793 0.40389052 0.19602458 0.3646407 0.3167271
0.0046027284 0.12822185 0.06308559 -0.3790277 -0.3532585 -0.0088862395 -0.022769248 -0.03816877
-0.06463096 -0.14043139 -0.12931581 -0.05635546 -0.34357202 -0.04626713 0.17971782 -0.37948966
-0.26509732 0.35265204 0.23007321 0.2512551 0.30255598 -0.13837102 -0.17004961 0.2863506
0.19501202 -0.1436441 0.4272364 -0.10745748 -0.7355365 0.06033485 0.12989874 0.43893102
-0.05650291 -0.19648686 -0.22606623 0.64568394 0.058190294 -0.4107954 0.16800752 -0.5438622
-0.23165666 -0.23451497 -0.2842584 0.38513753 0.62398505 0.31512678 -0.08919051 0.11908496
-0.25391757 -0.28659838 0.302656 0.13595366 0.31986684 0.11243693 0.4076199 0.38342983
0.010196844 -0.23011681 0.15260594 -0.12891899 -0.22516605 -0.1466558 -0.045730222 -0.5137915
0.2266137 -0.8056484 -0.16153175 -0.11787128 0.20603505 -0.12369112 0.15363678 0.19406553
0.055262722 0.010697333 0.033193246 -0.01528199 0.1354541 -0.14758475 0.24382286 0.332727
0.30337608 0.70379823 0.05888587 -0.60585684 0.034733266 -0.08741407 -0.071869545 -0.37268212
-0.9110004 0.1559175 -0.24291441 0.3321133 0.11676783 0.5078153 -0.53235245 0.3433275
0.010599333 0.18026507 -0.59095085 -0.017069865 -0.0322456 0.24470489 0.41253102 -0.15315579
0.17891054 -0.121690094 0.2883951 -0.38146347 0.21435213 -0.11618613 0.49165633 -0.53225595
-0.11871667 -0.080385335 -0.04300949 0.0092940265 -0.0939663 -0.09395363 -0.47266692 0.36258015
0.011803462 0.4924748 0.07593333 -0.17953128 0.09853599 -0.3927134 0.21897638 0.38412613
-0.037098877 0.35612887 0.12339774 -0.05548088 0.03810725 0.63470167 0.005506591 -0.28865442

player_tree_3.W_self.bias f4 [12]
00000000: de3a 173c f53f 25bb 4d77 1a3c af5f 573b
00000010: 5f1c 083c 9205 8ebb 842e b5bb ed7b 54bc
00000020: 51c7 103c 65ea 883b 8dac 7339 65e1 0a3c
0.009230344 -0.0025215123 0.009427858 0.0032863428 0.008307545 -0.00433416 -0.0055292267 -0.012968999
0.008836583 0.0041783326 0.00023238566 0.00847659

player_tree_4.weight f4 [8, 12]
00000000: d75e 823e 3ece 3bbe cdc1 3b3d 5649 093e
00000010: 62da 91bd a978 93be ee92 46bf 4979 acbe
00000020: 33ed a93e bf37 6b3d b59a 03be 23b2 753f
00000030: 9b0c 693e ef3e 753e 62a3 ad3e 8d61 8a3e
00000040: a3ad 2b3e 1571 b03d f053 34bf 94f4 0bbe
00000050: 93a9 553e 0e04 ddbd 4a1a 06bd 1aab 263f
00000060: 280b e23c e847 893d 1788 1cbf fb6d f83e
00000070: c634 ecbe 894d 083f f6cb f23e 59d9 a7be
00000080: 1586 173f 7227 b9bb 9022 f0bd 3ad5 453d
00000090: af23 083e ee0c e63c 6719 14be 6c4a bcbe
000000a0: 8267 86bd 23a6 11be 8b37 41be 085a b33e
000000b0: fb0e 61be 89de a4be 099e 223d f3d4 763e
000000c0: a428 c83a ca05 d63d 157d c43e 23ae 4c3e
000000d0: aece bebe 5f96 5cbe eca5 80be c195 a53e
000000e0: 31b8 8d3c f1fe 99be 5710 b43d bb21 c53d
000000f0: 8064 393f 6079 c1be d350 d93e bbe7 06bf
00000100: d447 253f 76e4 20be 2e4c a6be 22c8 cabe
00000110: cd69 cf3e 0f99 133f ed93 303e 32c2 ccbd
00000120: c0e9 fd3b d550 f43d 0973 18be 27bc 583e
00000130: b650 ba3e 6c92 453e d252 4e3e 0471 053e
00000140: c93d 7dbe 9057 76bd 92cb b8be fdb9 c63d
00000150: 15f0 0dbe 27d7 f3bd 18a7 5d3e 60b3 9cbe
00000160: 29f6 fbbe be04 97bc 8c22 1a3e de5f c23e
00000170: 3d3e 23be 69a4 bebe f550 efbe 2848 313f
0.25462982 -0.18340394 0.04583912 0.13406882 -0.07121731 -0.28802994 -0.77567947 -0.33686283
0.3318878 0.05742621 -0.12851985 0.9597494 0.22758715 0.23949789 0.33913714 0.2702755
0.16765456 0.08615319 -0.7044058 -0.13667518 0.20865469 -0.10791789 -0.032739915 0.6510483
0.02759321 0.06703168 -0.61145157 0.48521408 -0.46134013 0.5324331 0.47421235 -0.3278301
0.5918897 -0.005650454 -0.11725342 0.04829905 0.13294862 0.028082337 -0.14462815 -0.3677553
-0.06562711 -0.14223532 -0.18868844 0.35029626 -0.21978371 -0.3220103 0.039701495 0.24104671
0.0015270901 0.10450323 0.3837668 0.19988303 -0.3726706 -0.21541737 -0.25126588 0.32340816
0.017299743 -0.30077317 0.08792179 0.09625574 0.72418976 -0.37787914 0.42444476 -0.5269734
0.64562726 -0.15712151 -0.32479995 -0.39605814 0.40510407 0.57655424 0.17243929 -0.09997977
0.0077488124 0.1192948 -0.14887632 0.21165524 0.36389703 0.19294137 0.20148781 0.13031393
-0.247306 -0.0601421 -0.36092812 0.09703443 -0.13861115 -0.119062714 0.21645772 -0.30605602
-0.49211243 -0.018434878 0.15052241 0.37963766 -0.15941711 -0.3723481 -0.46741453 0.69250727

player_tree_4.bias f4 [8]
00000000: bcbf 253c 9ea9 54b9 d2f2 d1bb 4e14 3abc
00000010: 99df 9cbb e969 0c3c 3882 9f3b cac2 053c
0.010116514 -0.00020281083 -0.0064071203 -0.01135738 -0.004787397 0.008570173 0.004867818 0.008164117

sun_influence_1.W.weight f4 [12, 12]
00000000: 6fe8 00bf 3f2d 54be d9d1 a8be 6da5 923e
00000010: 84a7 2abe 1c0a c33e 82df 83be 9b70 933d
00000020: 84a3 413e 3be3 51be 12b4 083e f5bd f43e
00000030: 3d6b d23e 83a9 073e 35e1 dbbe 153c fc3d
00000040: 277b 133e 1fe9 b7bc e520 82bc e635 613e
00000050: 575c fe3e c9a8 98bd 62ee cebe a20c 013e
00000060: a276 bbbd e2a0 28bf 1cea c03e 78f3 72be
00000070: 560a a5be f4ea a0be 2465 ad3e 9899 42be
00000080: fe98 65be 7683 6a3e a225 6bbf 20cc 6dbe
00000090: a1dc 84be 9e58 a93e 51c9 04be 26a6 b1bd
000000a0: 15c2 2b3e 5d6a 3f3d e145 a5bd f04b bc3d
000000b0: b039 1bbe 7f5a a8be 3a25 db3d 6ead 74be
000000c0: 06af b9be 331e 83be 9eea 323e 2eb7 a5be
000000d0: 204c 483e f10d ac3e 9f4a 4dbe 17e3 a03e
000000e0: c8a0 8ebe 61a5 333e d176 34bd f5b3 9ebe
000000f0: 719d 76bd ac6f a73e 9c8f 40be 4c5a 1c3e
00000100: bca3 673d b8df 14bf bc75 88be 8e28 26bd
00000110: 490a 5abe 2e4b 8b3e 79f6 873e fbf0 c1be
00000120: 517e adbe 0909 fa3d 2fb2 cb3d 2dd7 7abe
00000130: b4db 0ebe 4e12 193e 2af4 b23d bf51 07bd
00000140: da8a cd3e 3ad5 123e 8e9f caba 78f1 f23e
00000150: 0a32 263d be55 30bf 31cd 0b3e 4b4b 613e
00000160: 7a18 383f 8d5d 963b ff75 0abf b20c fbbd
00000170: 763d 263d a4ab 97be cf26 973e 7987 e1be
00000180: f8b1 a0bd c733 a8be c291 b03e 1eee 18be
00000190: 833f 81be 73ac b7be 98d7 203f bdd8 ecbe
000001a0: b241 363d 457b 473e 1661 223c 2632 febd
000001b0: 74c8 163e 6884 a03d 0e39 313e 82b0 2a3e
000001c0: 2325 1bbe a138 723e 3f1e 59be 9c90 9e3e
000001d0: ccc4 bbbe 08e0 f83e 7c74 073f 62f8 bfbe
000001e0: bf20 bc3e 2874 8dbe 4cae ef3b 0e0d 11be
000001f0: 0e36 163e ea89 9d3e 094d febd 092d df3e
00000200: c04b a43e 6c4f 50bd f121 4d3d 433c dfbd
00000210: bc6e 00bd 90e8 2d3e fc76 093e 49cb 04bd
00000220: a6f9 e23e fe87 973d 6a86 e6be 6e82 233e
00000230: f8e9 c5bb a4d7 613e d7df aabe d1cd 61be
-0.50354666 -0.20720385 -0.329726 0.28641835 -0.16665465 0.3809365 -0.2575646 0.07199212
0.18910033 -0.20496838 0.13349941 0.47801176 0.4109744 0.13248257 -0.42945257 0.12316147
0.14402448 -0.022450028 -0.015884826 0.21993217 0.49679825 -0.07454068 -0.40416247 0.12602475
-0.09153487 -0.6587049 0.3767861 -0.23725688 -0.32234448 -0.31429255 0.33866227 -0.19003904
-0.22421643 0.22901711 -0.918543 -0.23222399 -0.25949576 0.33075422 -0.12967421 -0.086742684
0.16773255 0.046732295 -0.08069969 0.091941714 -0.15158725 -0.32881543 0.1070046 -0.23894283
-0.36266345 -0.25608978 0.17472312 -0.32366318 0.1956029 0.33604386 -0.20047997 0.31423256
-0.2785704 0.17543556 -0.044058625 -0.3099667 -0.06020874 0.32702386 -0.18804783 0.1526882
0.056552634 -0.5815387 -0.26652324 -0.04056602 -0.21292986 0.27205795 0.2655523 -0.37879166
-0.33885434 0.122087546 0.09946095 -0.24496146 -0.13950998 0.14948389 0.08737977 -0.033036944
0.40144998 0.14339152 -0.0015458928 0.4744985 0.040575065 -0.6888083 0.13652493 0.22001378
0.7191235 0.004588789 -0.540863 -0.12258281 0.040585957 -0.2962314 0.29521796 -0.4404867
-0.07846445 -0.32852003 0.34486204 -0.14934584 -0.25243768 -0.35873756 0.6282897 -0.46259108
0.044496246 0.19480617 0.009910842 -0.12411909 0.14724904 0.078377545 0.17306921 0.16668895
-0.15150885 0.23654415 -0.21202944 0.30969703 -0.36673582 0.48608422 0.52912116 -0.3749419
0.36743733 -0.27627683 0.007314479 -0.14165136 0.14669058 0.30769283 -0.12417037 0.43589047
0.32089043 -0.050856993 0.050081197 -0.10900166 -0.031355605 0.16983247 0.13424295 -0.03242043
0.44331092 0.07398985 -0.45024425 0.15967724 -0.006039854 0.22054917 -0.333739 -0.22051169

sun_influence_1.W.bias f4 [12]
00000000: 8f98 a53b 64c1 063c 5219 103c 83c9 063c
00000010: 7a20 103c 4691 50bc fe36 25bc 0d48 b7bb
00000020: aec2 de3a 5371 a1bb 6efa 1b3c 7949 0e3c
0.005053587 0.008224819 0.008795099 0.008226755 0.0087968055 -0.012729948 -0.010083912 -0.005593306
0.0016995275 -0.0049268394 0.009520156 0.008684509

sun_influence_1.W_self.weight f4 [12, 12]
00000000: 876c 67be 9522 97be 7798 80be f73b 2abe
00000010: c18a 84be 49c2 e73d 84b1 a53d 0c21 ccbc
00000020: e84d 8a3e f707 0c3e fe59 2e3c 6b1a 2dbd
00000030: 385f ccbe 0b63 3dbe eede f8be 7512 4b3f
00000040: 732e 483e b8f8 213e 2dd3 e73e 2a27 b5bd
00000050: b954 59be b190 8fbe 311f b03c b6b2 e4be
00000060: eaab 6b3e 6d66 013f ea53 7c3e e932 84bc
00000070: 9d8b 9e3e 2808 1fbe 1014 0cbf 73f1 fcbe
00000080: 53bb 953e d2a9 98bc cbf7 893e 3174 aa3d
00000090: 7bc9 a9be 1693 0a3e 2a4a 9fbd b491 753e
000000a0: 1328 86be 78f2 13bd 860f 65bc d18b 5f3e
000000b0: 3caa d83e 68db abbd bc0e cabd 3f52 0a3f
000000c0: 784c 60be 9eb5 4e3e cdd8 3e3e 4cb3 0a3e
000000d0: d710 3c3d ea5d f23e 4c92 18bd b195 1b3e
000000e0: 8b31 0e3f 91cb 7f3e 8878 edbe c0bd 743d
000000f0: fa59 bf3e 50d6 e7bd a335 593d 679f ccbe
00000100: 58cc 54be fc2b 5f3e 13ac 393e d42b c33e
00000110: 132f efbe 1b59 93bd 5465 793e 268c 87be
00000120: 4c5d 5abe 0b3e f63e 178c 02bf c283 353e
00000130: 77ee 9dbe 594d 133e 5d16 0c3e 206a 98bd
00000140: d691 b03e 62bf af3e 2c99 893e f334 8bbc
00000150: 6193 83be 8c1b 643e ad49 58be db70 8b3c
00000160: 4e3c 69be 49a6 6b3e 15e2 a63e 36bf 0e3e
00000170: 7322 9a3e 091f 323c 60df 25be 7521 9b3e
00000180: ec69 79bc ddeb 5ebe 0a7b 173f 47c7 243e
00000190: 9fa3 c43c c0c7 0ebd 571e 05be 5813 4dbe
000001a0: 8315 e0be ea1c 013d 015c b63e 25e0 a83e
000001b0: 65ee a83d 12fb 3c3f 88f4 513e a50d 5c3e
000001c0: fb06 ddbe f2e6 a8be 8b32 b1bb 8310 6d3e
000001d0: 321f 20bf 852b ccbe f1ef 9c3c e0bb c5be
000001e0: 360c 19be d08f e2bd 3eb7 a73d deb3 ab3d
000001f0: 3178 b23e b5e2 023e a355 b0be f2a6 c53e
00000200: 2c2a 89be b1b0 323e 9dfa 643e 8466 1c3e
00000210: 1864 0a3e 8a8a 92be 80a9 aebe 8cbb 9d3e
00000220: 51ef 89be 68ab 89bd d702 c8be 0d33 03bf
00000230: a842 863e 5272 813e 3712 eb3d f3a3 27bd
-0.22599994 -0.29518571 -0.2511632 -0.16624437 -0.2588711 0.11316354 0.08090499 -0.024918102
0.27012563 0.13674913 0.010641573 -0.042261522 -0.39916396 -0.18494813 -0.48607582 0.7932504
0.19548969 0.15817535 0.45278302 -0.088453606 -0.21223725 -0.28040078 0.021499248 -0.44667596
0.23014799 0.50546914 0.24641386 -0.016137557 0.3096589 -0.15530455 -0.5471811 -0.4940296
0.2924448 -0.018635664 0.26946864 0.08322943 -0.3316153 0.13532671 -0.077778175 0.23981363
-0.2620245 -0.036119908 -0.013980752 0.2183068 0.4231738 -0.08391458 -0.098660916 0.5403175
-0.2190417 0.20186469 0.1863739 0.13544959 0.045914497 0.47337276 -0.037248895 0.15193821
0.55544347 0.24979998 -0.4638102 0.059751272 0.37373334 -0.11320174 0.053029668 -0.39965364
-0.20781076 0.21794122 0.18132047 0.38119376 -0.46715602 -0.0719473 0.2435506 -0.26474112
-0.21324652 0.4809421 -0.5099501 0.17726043 -0.30845997 0.14384975 0.13680406 -0.07442117
0.34486264 0.343257 0.26874673 -0.016993022 -0.2569838 0.22276133 -0.21121855 0.017021587
-0.2277691 0.23012652 0.32594362 0.13940129 0.30104408 0.010871657 -0.16198492 0.30298963
-0.015223008 -0.21769662 0.5917212 0.16091643 0.024003802 -0.034858465 -0.12999855 -0.2002691
-0.43766412 0.031521715 0.35617068 0.3298351 0.08248595 0.738206 0.20503438 0.2148958
-0.43169388 -0.32988697 -0.0054076365 0.2315083 -0.625476 -0.39876953 0.019157382 -0.386199
-0.14946064 -0.11062586 0.081892475 0.08383916 0.34857324 0.12781794 -0.34440336 0.38603932
-0.26789987 0.17450215 0.22361226 0.15273482 0.13514745 -0.28621322 -0.34113693 0.3080715
-0.26940396 -0.06722146 -0.39064667 -0.5124977 0.2622273 0.25282532 0.114780836 -0.04092784

sun_influence_1.W_self.bias f4 [12]
00000000: 8f98 a53b 64c1 063c 5219 103c 83c9 063c
00000010: 7a20 103c 4691 50bc fe36 25bc 0d48 b7bb
00000020: aec2 de3a 5371 a1bb 6efa 1b3c 7949 0e3c
0.005053587 0.008224819 0.008795099 0.008226755 0.0087968055 -0.012729948 -0.010083912 -0.005593306
0.0016995275 -0.0049268394 0.009520156 0.008684509

sun_influence_2.W.weight f4 [12, 12]
00000000: 3d83 01be 3527 723e 7660 e53c a083 d8bc
00000010: 173e 193e 2d32 b1bd da28 b3be 9aea 6d3e
00000020: f51d f0bd e86e 843e 3a28 42be 84ff e73d
00000030: 6b92 fbbd f4fe 363f d33e c03e f4f1 823e
00000040: 38f3 19be e940 053f 62db bd3e 612d 48be
00000050: 2921 ffbc 07ae a2be 7ea0 bd3e 1195 0c3d
00000060: ca40 84be 7727 5d3e e1ac 1dbe 0fb8 823e
00000070: 7967 86be dd76 59be 38d5 48be fc53 853d
00000080: 36cb 3a3f 16ac c9bc a8bc a53d c7cb 66bd
00000090: 2125 cebe 419e b5be b1a9 9b3e 6113 053e
000000a0: 30fb 8cbc ac29 cabe 647a 843e 089d 7abe
000000b0: 2442 433d b1e8 c9bd 485d f3bb 0a31 87be
000000c0: 6b95 523c 0c2d 0e3f 5609 a6be 8f4a 87be
000000d0: 234b 85be c34b d1be 2493 84be 2344 b3be
000000e0: fac3 e03d 8d7f a23e 3d2a 52be 25f1 d4be
000000f0: 7caf 1fbe 6f05 a8be bc9a 0e3d c3fc 46bc
00000100: ac67 aa3d 59d1 2fbf 89a8 3cbe a4bd 463e
00000110: 2b91 073e 5a06 99be 4d19 46bc 9210 743d
00000120: f592 21be c573 033f 1a9c a5be 6be6 73be
00000130: 1c9b 153e 92bf 97bc d382 163e 8135 ac3d
00000140: 8a4f 623c d84f cdbe a51d 9fbe 5b1b b6bc
00000150: 009f 4ebe 729d 97bd 70d6 ad3e 10ee c43c
00000160: 5708 933d a325 253e 1e06 523d bd27 203e
00000170: 218e 05bf 6f7c 88be bf94 babd e992 643d
00000180: 209c bbbe c714 c8be 3097 f7bc 5666 753e
00000190: 9d0e 153e 918c 17bf e4ca b33e a616 babe
000001a0: 5647 823e 8623 3d3e 3207 f8be fef3 f63b
000001b0: 061d 17bf 7e98 0a3e 50b3 0fbe d2eb f0be
000001c0: fc70 32be e7a5 14bf d561 59be c6d5 92be
000001d0: a759 953b d4e1 013d 8b8e a63c 60f4 b4be
000001e0: 65d9 bd3e 9452 0c3f 5575 acbe 303a aebd
000001f0: e098 9c3e 18f5 ecbc 68fc 913d 5c1d 2bbf
00000200: e535 9abe 064a 99bd 9110 a5be 0fc0 7f3c
00000210: fd61 49be 6bd5 47bc b47e 183b 4415 85be
00000220: 9089 55be 95fa ed3e 633a d63d afae a7be
00000230: eb01 7d3e 3b8d 2e3e eed3 c63e 6cf0 d83e
-0.1264772 0.23647769 0.028000098 -0.026429951 0.14965092 -0.086521484 -0.34992105 0.23234025
-0.11724464 0.25865865 -0.18960658 0.113280326 -0.122837864 0.7148278 0.3754793 0.2557522
-0.15034187 0.5205217 0.37081438 -0.1954856 -0.031143742 -0.31773397 0.37036508 0.03432185
-0.2583068 0.21597086 -0.1539798 0.2553105 -0.26250818 -0.21236749 -0.19612586 0.065101594
0.72966325 -0.02461819 0.08092624 -0.05634668 -0.40262702 -0.354723 0.30402902 0.12995674
-0.01720962 -0.39484918 0.25874627 -0.24473965 0.0476705 -0.098588355 -0.0074268915 -0.264046
0.012853007 0.55537486 -0.32428998 -0.2642407 -0.26033887 -0.40878114 -0.2589351 -0.35012922
0.109748796 0.3173794 -0.20523925 -0.4159023 -0.15594286 -0.32816646 0.034815535 -0.012145224
0.08320555 -0.68678814 -0.18423666 0.1940828 0.13238971 -0.29887658 -0.012090993 0.059586115
-0.15778716 0.51348525 -0.3234566 -0.23818366 0.14609951 -0.018523965 0.14698343 0.084086426
0.013812909 -0.40099978 -0.31077304 -0.022229841 -0.20177841 -0.07403077 0.33952665 0.024039298
0.07179325 0.16127639 0.051275365 0.15640159 -0.52169997 -0.26657435 -0.09110402 0.055804167
-0.3664255 -0.39078352 -0.030223459 0.2396482 0.14556356 -0.5919886 0.3511573 -0.36345404
0.2544505 0.18470582 -0.4844299 0.0075364104 -0.5902866 0.13534734 -0.14033246 -0.47054917
-0.17425913 -0.58065647 -0.21228726 -0.2867872 0.0045578065 0.031709507 0.020331642 -0.35342693
0.3707992 0.54813504 -0.33683267 -0.08507192 0.30585384 -0.028925464 0.07128221 -0.66841674
-0.30119243 -0.07484822 -0.32239202 0.015609755 -0.19666286 -0.012196879 0.002326888 -0.25992787
-0.20853257 0.4648024 0.10460355 -0.3275046 0.24707763 0.17046063 0.38833565 0.42370927

sun_influence_2.W.bias f4 [12]
00000000: f69c f03a 1d40 0b3c 17ed 2d3c 2b6e 393c
00000010: c8ca 21bb b0f4 133c 44fc 1c3c 6c60 583a
00000020: 08c4 16bc 516f 9e3b d765 01bb 9972 6dbc
0.0018357325 0.0084991725 0.010615609 0.01131777 -0.0024687517 0.009030506 0.009581629 0.0008254114
-0.009202011 0.0048350473 -0.001974454 -0.014492654

sun_influence_2.W_self.weight f4 [12, 12]
00000000: 832f d6bd c355 fa3c 73f1 96be 7fec 183f
00000010: 4a36 06bf b5dd c3be 5475 a0bd d191 b53d
00000020: 29e6 15be 722d ec3e 65fe 2e3e c3ea 423c
00000030: 53be 6a3d b8d5 5d3e 887a b93e 44b7 ae3e
00000040: 2519 c03e 1809 4d3e 597d 90bd 3003 063e
00000050: 449d 8cbe f8b5 073e 159c a03e c4fc 543e
00000060: b13b 48be c58a 3abd 294e 703d f88a 02bf
00000070: 79e3 0d3e 4ae7 033d 0c82 453e 85ba c13e
00000080: 001a 7abe 9b30 6dbe 5224 8bbd f1c1 133d
00000090: 829c 5ebf bf6f 44be f549 213e 5ed5 ad3e
000000a0: a5b0 d53e b827 29be cf8e 41bf df65 d2be
000000b0: b711 c13e d411 443e 64d9 e23e ae1d 003d
000000c0: aefd d83d 515e 023f 94e1 ffbd 4491 c83d
000000d0: d907 ab3e 15fa 06be a7f8 7abd 6e04 89be
000000e0: a9b9 27be ec05 07be 6a49 6dbe c166 c1be
000000f0: 47fa 123f 66cb e43e c788 6f3d 603b b23e
00000100: d34a ba3e 9439 273e 493e 1d3e e698 9abe
00000110: 6705 273e bb31 1dbe b830 7e3f c72e aabe
00000120: 985f 913e d136 e4bd 5426 ebbb 9f6e 8f3e
00000130: 416a e7bb eb27 7abe 6b2b 75be cfe5 15bd
00000140: 3348 a9be 5788 2c3e 23c0 babe 73c7 0a3f
00000150: 4f80 01be 1d11 97bc 95a9 a3be d500 88be
00000160: 70a9 f53d ca9b 673e 3ba5 06bf 68e5 5e3e
00000170: 405a d1be 8ecf 8cbe 6be5 f53e 13d6 10bf
00000180: e9f4 47bf 8240 b63d 1ad8 3bbc 5cf8 753c
00000190: 6208 013e 3bee 81bd ea7a 973e 7dba 333d
000001a0: 5b75 883e 32b2 413e a1fa 423e 4bb2 4f3d
000001b0: 62f9 b1be 450f 5fbe ed58 75be 0900 4a3e
000001c0: 8edf a1bd 8673 c6be 206a 93bd ad41 13be
000001d0: 6865 983d 4c1f cd3e de54 653e 3549 01bf
000001e0: 9545 a03e 6595 4cbe 0d51 abbc e5b7 a43c
000001f0: ea08 afbe c4fe 17be bcec bb3e 4d19 8dbe
00000200: bcca bbbd c485 12bf 0fda 9e3e c27c 25be
00000210: 8b99 eebb a8c5 2f3c 967a 4f3d 3442 4cbf
00000220: 076e 0d3f de55 88be b994 3bbe f1cc 1e3f
00000230: 61e0 e83e 3b6b 80bc 335b ae3e 802c c7be
-0.10458281 0.030558472 -0.29481086 0.59735864 -0.5242659 -0.38255087 -0.078348786 0.08865703
-0.1463858 0.46128422 0.17089231 0.011896792 0.057310414 0.21663558 0.36226296 0.34124196
0.37519184 0.20023 -0.07055158 0.13087153 -0.27463734 0.1325301 0.3136908 0.20799547
-0.1955402 -0.045542497 0.05866829 -0.509933 0.13856305 0.032202996 0.1928789 0.37837616
-0.2442398 -0.23163073 -0.06794037 0.03607363 -0.8695756 -0.19183253 0.15750869 0.3395185
0.41736332 -0.16519058 -0.75608534 -0.41093346 0.37708828 0.19147426 0.4430648 0.031278305
0.105952606 0.50925165 -0.124941975 0.09793332 0.33404425 -0.13181336 -0.06127229 -0.26761192
-0.16379417 -0.13185853 -0.23172536 -0.37773708 0.5741314 0.4468643 0.05848005 0.34810925
0.3638521 0.16330558 0.15355791 -0.30194777 0.16310655 -0.15351002 0.9929309 -0.33238813
0.28393245 -0.11143268 -0.0071762 0.28014085 -0.007062227 -0.2442929 -0.23942344 -0.036596116
-0.33062896 0.16848885 -0.36474714 0.54210585 -0.12646602 -0.018440777 -0.31965318 -0.26563135
0.11995208 0.22618023 -0.5259587 0.21767199 -0.40889168 -0.27502102 0.48026595 -0.5657665
-0.7810808 0.08899023 -0.011465097 0.015012827 0.12600854 -0.06344267 0.29585963 0.04387902
0.26652035 0.18915632 0.1904092 0.050707143 -0.34760576 -0.21783169 -0.23959704 0.19726576
-0.07903968 -0.38760012 -0.07197976 -0.14380522 0.07441217 0.4006294 0.22395656 -0.5050233
0.31303087 -0.19978864 -0.020912671 0.020107219 -0.34186488 -0.14843279 0.36704051 -0.27558365
-0.09169528 -0.5723536 0.3102574 -0.16160873 -0.0072814873 0.010728277 0.050654016 -0.7978852
0.55246013 -0.2662801 -0.18318452 0.62031466 0.45483688 -0.015676131 0.34053954 -0.38901138

sun_influence_2.W_self.bias f4 [12]
00000000: f69c f03a 1d40 0b3c 17ed 2d3c 2b6e 393c
00000010: c8ca 21bb b0f4 133c 44fc 1c3c 6c60 583a
00000020: 08c4 16bc 516f 9e3b d765 01bb 9972 6dbc
0.0018357325 0.0084991725 0.010615609 0.01131777 -0.0024687517 0.009030506 0.009581629 0.0008254114
-0.009202011 0.0048350473 -0.001974454 -0.014492654

sun_influence_3.W.weight f4 [12, 12]
00000000: 2f24 8ebe 2563 fbba 44b0 653d 9557 97be
00000010: 666f 15be c504 86be e16c b83d 5ecd 03bf
00000020: b8f7 86bc 5adf 71bd c67d 23be 8155 70be
00000030: 1ac4 1e3e f6f1 e5bd c491 05bf e139 2f3e
00000040: 0048 59be efcb 9f3e 4ad0 ae3e aa7a 883d
00000050: eba0 37be 3737 a7be ae8e 1bbd f197 00bd
00000060: bd16 babe a4c2 0d3d a221 22be c896 85bc
00000070: cc01 3b3e 8938 473d ea16 eabd c3c7 533e
00000080: 9a9c 9f3d 09fa babe 728c 833b f366 3abe
00000090: f7f8 fe3d ee8c 6f3e 1d64 27be 6bc5 28be
000000a0: 5f31 b0bd b6b4 89bd 61ce a63e e468 0fbf
000000b0: af03 163e 87ff cf3d 8711 063d 7f44 01bf
000000c0: f6d0 6e3e 0924 d5be b69c bc3d 3aa0 d6bd
000000d0: 0c9c d1be f088 20bd 2328 95be 574c f53e
000000e0: 2f5a 82bd 3bcc b33e 6d6f 883e 3ef2 943e
000000f0: 7e9c 173e 1829 98be 6702 c13e 10f0 5cbd
00000100: 7555 ccbb 3d6c 143e d248 3a3e 3b45 803e
00000110: 890c a2be bebb 65bd d0e8 b4bd 7c8f 5cbe
00000120: a563 25be d834 eb3e 3f69 1b3c e6f0 773e
00000130: 59c1 a33e 0803 113f 4906 763e c457 873e
00000140: 99e0 d1bd 8cf2 6cbe 9209 18bd 99e4 acbe
00000150: 1a5c 803d 14e6 32be ab6c ccbe e6a3 2bbe
00000160: aeb7 a1bc a693 a6be e575 713d e0b1 3fbe
00000170: b7ad 8fbe bd6f d53d 123b 0a3e 144e 98be
00000180: 4b3e 873d ac9e ecbe 62a0 3c3d 4731 0bbf
00000190: 8a3b f4bd a370 febc 88d3 81bb 794e 0e3f
000001a0: 27b1 c0bb ab64 51be 9d10 813e a453 cebd
000001b0: 8d7f 00be 0d27 8dbe 5a23 973c 16ef 3dbe
000001c0: e6d7 363d de4c 0fbf 34ff b8be 1164 6b3d
000001d0: 58ae c63e 13cf a33e 785a 0ebe af4b 7ebe
000001e0: 9cd8 ba3e f23b f3bd fb93 e2bc 4516 c23e
000001f0: 0837 18be 784d adbe 99d3 bfbe 478e ab3e
00000200: 3de9 a8bd 02f6 38be 200d cabd 539f b33e
00000210: a123 a4bd d10e 823e b65b 963e 0a2c 673d
00000220: 32b3 0ebe f916 d8bd 037b ab3e e097 88be
00000230: 492e 92bd c52f 18be e787 18bf 7eb9 a33e
-0.2776198 -0.0019179328 0.056076303 -0.29559007 -0.14593276 -0.26175514 0.09005142 -0.5148524
-0.016475543 -0.059050895 -0.15965948 -0.23470117 0.15504494 -0.11227791 -0.52175546 0.17111923
-0.21218872 0.31210276 0.34143287 0.06664021 -0.17932479 -0.32659313 -0.037977867 -0.031394903
-0.36345473 0.034609452 -0.15833142 -0.01630725 0.18262404 0.0486379 -0.11430152 0.20681672
0.07793541 -0.36518887 0.004014545 -0.18203335 0.1244983 0.23393604 -0.16346784 -0.16481559
-0.08603167 -0.06723921 0.3257933 -0.56019425 0.14649843 0.1015616 0.03273156 -0.5049514
0.233219 -0.41629055 0.09209578 -0.104797795 -0.40939367 -0.039193094 -0.29132184 0.47909805
-0.063648574 0.35116753 0.2664751 0.29091066 0.14805791 -0.29718852 0.37697145 -0.05393988
-0.006235773 0.14494415 0.18191841 0.2505282 -0.3165019 -0.056087248 -0.08833468 -0.2153911
-0.16151293 0.45938754 0.009485542 0.24212989 0.3198345 0.5664525 0.24025835 0.26434147
-0.10247917 -0.231394 -0.037118502 -0.33768156 0.06267567 -0.1747058 -0.39926657 -0.16761741
-0.019740906 -0.32534522 0.058950324 -0.18720198 -0.2806222 0.10421703 0.13499096 -0.2974707
0.06603678 -0.46214807 0.04605139 -0.54372066 -0.11925419 -0.031059569 -0.003961984 0.5558849
-0.005880493 -0.20448558 0.25207987 -0.10074547 -0.12548657 -0.27568856 0.018449474 -0.18548235
0.04463949 -0.55976665 -0.36132205 0.057468478 0.3880489 0.31993923 -0.13901699 -0.24833558
0.36493385 -0.11876668 -0.027658453 0.37907615 -0.14864743 -0.33848166 -0.37466124 0.33506986
-0.08247612 -0.18062595 -0.09865785 0.35082492 -0.08014608 0.2540193 0.29366845 0.056438483
-0.13935545 -0.10551257 0.33492288 -0.2667837 -0.071377344 -0.14861973 -0.5958237 0.31977457

sun_influence_3.W.bias f4 [12]
00000000: 734a 9f3b eeb9 cabb 92ae 4abc 2720 383b
00000010: 87b6 303b 2da1 333c 1104 2a3c 02d7 afbb
00000020: 5cf3 d13b e4ec 22bc 44a6 3e3c 2748 283c
0.00486117 -0.0061867153 -0.012370722 0.0028095336 0.0026964264 0.01096372 0.010376946 -0.005366207
0.0064071845 -0.009944174 0.0116363205 0.010271109

sun_influence_3.W_self.weight f4 [12, 12]
00000000: 176e 5bbe 972d b33d c156 e63d c8f6 823e
00000010: 34a4 eb3e 9e81 68bc 911c b7bc 5624 b93e
00000020: fe8c 15be 990f 30be 0df8 90bd 7bf7 a13d
00000030: 9cd7 893c 5bea 73bc 6ff5 9d3d 7deb d43e
00000040: e8e6 e6bd 9476 92be cddf 3cbe 2937 3a3e
00000050: c065 c8be 5900 c53e f2c1 4fbe abbb 333e
00000060: 4bb7 b43d f4ea 9ebd 3f5f 473e 3fda 283e
00000070: a8bc cebd 5581 163e 89cf c2be 0183 6b3e
00000080: 50d8 42bf f5c2 903e c8cd 83be cace 933b
00000090: 4f2c 483e 9e7f 843e 2a55 923e 3f3b 503e
000000a0: b696 8ebd 12bb 2bbf e9b6 d7bd 32f7 993d
000000b0: a628 00bf ca0e 5bbd ce7f 0b3f 6c6e 01be
000000c0: 141b 79be 406a 2ebe 2e1d 13bd c57b 183f
000000d0: 86c2 91be d58e 82bc 16b1 453e 085c bebe
000000e0: c7c9 98be 76ed a23e eadf 83be 197f 9d3e
000000f0: 571e 913d ad68 333d a29e 4fbe 11b4 163f
00000100: 14bd 5dbe 33eb fd3e 1e34 ac3e d4cc 263d
00000110: 1a1b 94bd 0528 04bf b53b 2cbf 3259 a33d
00000120: 34cb a0be 45d3 563e 2c97 053f dc96 573e
00000130: 9cc0 8e3d 954c 3a3d 16a5 de3e b2c2 583e
00000140: bd86 003d 5d93 17be e685 c23d d9c8 513c
00000150: 25b2 b0be 4bcb 0abe 1b93 56be 48bc 9f3d
00000160: 14c1 31be b606 97bd d252 a93e 1fc3 56bd
00000170: 6c4d cd3c d3e0 3c3e ad73 65be f7a6 163c
00000180: ddd4 39bd 61c6 54bf 4c06 1d3e 445b 3c3e
00000190: aefc 79be 53e0 273f d0c7 983e 345b 743d
000001a0: 5ca7 f8bc cc57 0d3e 65f5 79be e2e8 383c
000001b0: a115 3fbe 2cd7 803e a976 633e a6e8 803d
000001c0: df84 c8bd 8aca 2cbd 14c2 1dbe 4bc0 fdbd
000001d0: f6ad 95be 84d5 efbc 869b ccbd b306 4dbe
000001e0: 9a02 fc3e f697 4e3c 9448 f6bd 8f13 0a3f
000001f0: c38c 2bbe cd43 ea3c 93cb 0d3d 3083 cebd
00000200: bc52 b73e 5192 9c3e a2ea da3e 915c fcbe
00000210: 0033 cfbe 418b 85be 82bd e3be 35c8 cfbe
00000220: 5ca4 44bd 47e3 9a3e 5fca b5be ee42 12bf
00000230: 17e8 af3c 35b4 9b3e 3869 993e 9370 75be
-0.21428715 0.0874893 0.11247016 0.25578904 0.46023715 -0.014191059 -0.022352489 0.36160535
-0.14604566 -0.1719345 -0.07078562 0.07908531 0.016826443 -0.014887418 0.07712828 0.41585913
-0.112745106 -0.28606093 -0.18444748 0.18185104 -0.3914013 0.38476828 -0.20288828 0.17552058
0.08824023 -0.077596575 0.19469927 0.16489504 -0.10094577 0.14697774 -0.38048962 0.22999193
-0.76111317 0.2827374 -0.25742936 0.004510735 0.19548152 0.25878614 0.285806 0.203351
-0.069623396 -0.6708232 -0.10532934 0.07517852 -0.50062025 -0.0534809 0.5449189 -0.12639779
-0.24326736 -0.17032719 -0.0359165 0.5956386 -0.28468722 -0.015937248 0.19305834 -0.3717959
-0.29841444 0.31821793 -0.2575677 0.3076103 0.07085865 0.043801 -0.20275357 0.5886851
-0.21654159 0.49593505 0.33633512 0.040722683 -0.07231732 -0.51623565 -0.67278606 0.07975997
-0.31405032 0.2097903 0.52183795 0.21053642 0.06970331 0.04548319 0.43485326 0.2116802
0.031378496 -0.14802308 0.09498195 0.0128042335 -0.34510913 -0.13554113 -0.20954554 0.07799584
-0.1735881 -0.07374327 0.33071 -0.052432176 0.025061332 0.18445139 -0.22407408 0.009195081
-0.045369018 -0.831152 0.15334433 0.1839419 -0.24412796 0.65576667 0.29839945 0.05965729
-0.03035324 0.13803023 -0.24410017 0.011285992 -0.18660595 0.25164163 0.22213234 0.06294374
-0.09790968 -0.042185344 -0.15406066 -0.123901926 -0.29234284 -0.029276617 -0.09990601 -0.20022087
0.49220735 0.0126094725 -0.12025562 0.53936094 -0.16752915 0.028596783 0.03461797 -0.10083616
0.3580531 0.3058038 0.42757136 -0.49289373 -0.40468597 -0.26082805 -0.4448052 -0.40582433
-0.048008308 0.30251524 -0.3550596 -0.57133377 0.021472974 0.30410925 0.29963088 -0.23968725

sun_influence_3.W_self.bias f4 [12]
00000000: 734a 9f3b eeb9 cabb 92ae 4abc 2720 383b
00000010: 87b6 303b 2da1 333c 1104 2a3c 02d7 afbb
00000020: 5cf3 d13b e4ec 22bc 44a6 3e3c 2748 283c
0.00486117 -0.0061867153 -0.012370722 0.0028095336 0.0026964264 0.01096372 0.010376946 -0.005366207
0.0064071845 -0.009944174 0.0116363205 0.010271109

sun_influence_4.weight f4 [8, 12]
00000000: a672 ad3e b6f4 65be 15a4 73be 813d 2a3d
00000010: 95bc 15bf d15f 3bbf 0f18 8f3d c6fe 29bf
00000020: 62b0 3cbe 6f1c f2be b798 eabe f05b 74be
00000030: b934 aebe a8af 773c 8e8e 843e 5157 96be
00000040: 65b9 b9be 1f12 52be 5437 85be b2d6 05be
00000050: d61a a0bd 35f5 63bd 60d2 e4bd 86ed a9be
00000060: b0a8 dabe bb7b 3dbf ca76 743e 1438 80be
00000070: f629 0d3f 605e 97bb 164b b0bd 6c30 d43e
00000080: 7e87 cb3d 9199 0ebe da4e 023f c4e7 1fbe
00000090: fc2c 143e 1c9a 59bd 2bc9 d43e ff2f 12bf
000000a0: 2b34 f93d e2e6 e03e c4c6 433d 1a59 6dbd
000000b0: 718f 27be e596 9c3d a127 66be cb19 d23e
000000c0: fd73 373d a6fa 233e 3223 9fbe 5ebd c6be
000000d0: 61c3 0dbf dff6 02be 9197 5bbe 4619 673d
000000e0: 26db a9be e9d2 0cbe b178 94bd fcf0 203f
000000f0: 57a8 0abe 7c77 9cbb 5f37 a53d dd91 07be
00000100: 2173 4a3f 1434 bbbe 5ffb afbe 7624 25be
00000110: 229e 543e aee8 b8be 9bbb dd3e 00cc ecbe
00000120: 8ef6 403d 9763 a5be f207 b0be dab4 813e
00000130: 3e28 a63e 8ff5 17bf cab7 8cbd b0a3 1bbf
00000140: 5818 0fbd f851 c43d 287c 33be 7556 e9bd
00000150: 3817 bb3e af39 6cbd df98 03bf 19b1 7b3d
00000160: f673 06bf 079a adbd e87a 2bbe 02d4 b83e
00000170: 5eaf 81be e45a 92bd df0f cf3e dea3 66be
0.33876532 -0.22456631 -0.23793061 0.04156256 -0.5849088 -0.7319308 0.06987011 -0.6640438
-0.1842666 -0.47287318 -0.45819637 -0.23863196 -0.340246 0.015117563 0.2589001 -0.29363492
-0.36274257 -0.20514725 -0.26018775 -0.13070181 -0.078176185 -0.05565377 -0.11172938 -0.33189029
-0.42706823 -0.7401692 0.2387344 -0.25042784 0.5514215 -0.0046194047 -0.086080715 0.41443193
0.099379525 -0.13925768 0.5090157 -0.15615755 0.14470285 -0.053125486 0.4155973 -0.57104486
0.121681534 0.4392615 0.04779698 -0.057946302 -0.16363312 0.07645968 -0.22476055 0.41035303
0.04478835 0.16013584 -0.3108154 -0.3881635 -0.5537625 -0.12789486 -0.21444537 0.056420587
-0.3317501 -0.13752331 -0.072495826 0.6286771 -0.13540779 -0.004774986 0.08067202 -0.13239236
0.7908192 -0.3656317 -0.34371468 -0.1612719 0.20763448 -0.3611502 0.43307194 -0.4624939
0.047110133 -0.32302544 -0.34381062 0.2533329 0.32452577 -0.5935907 -0.068709925 -0.6079664
-0.034935325 0.09585947 -0.1752783 -0.113934435 0.36541152 -0.0576722 -0.5140514 0.06144819
-0.5252069 -0.08476644 -0.16746104 0.3609925 -0.25329107 -0.07146242 0.40441796 -0.22523448
