src/Photosynthesis/RL/SavedModels/model_58.pth (torch, 30290 bytes, 34 tensors)

player_tree_1.W.weight f4 [12, 12]
000000 f4 02 b2 be 2b 5a 5c be 5f 34 9d be 31 b6 2e 3f
       -0.34767878 -0.21518771 -0.30704018 0.6824675
000010 65 b6 1b 3e 7a 93 a8 bd 09 f9 98 3d b0 8d a3 3d
       0.15206297 -0.08231254 0.07469375 0.07986009
000020 6e f3 c6 bc 2d 22 d9 bd b6 02 de be f3 08 ab bd
       -0.024285998 -0.10602222 -0.43361443 -0.08351316
000030 5e 83 72 bd e1 cb ce 3e ca 4c b6 3d 77 bc a1 3e
       -0.059207313 0.40389922 0.08901365 0.315891
000040 fd 73 1e bf 10 9f 64 3e 65 d0 9a be bb 9a 99 bd
       -0.61895734 0.22326303 -0.30237117 -0.075002156
000050 9b 35 49 be 56 33 6c be c8 fb 87 3e f7 26 65 3e
       -0.19649355 -0.23066458 0.2655928 0.22378145
000060 ed d6 80 3d b3 63 0a be 16 f5 da bc c4 7d f5 3e
       0.06290994 -0.13514595 -0.026728194 0.47947514
000070 ba b5 ad bb c1 8a ab be b2 f5 01 3e a2 a2 01 3e
       -0.0053012045 -0.33504298 0.12691382 0.12659696
000080 98 50 1e bf 6b b4 df 3d 32 3c 9a bd d8 68 db 3d
       -0.61841726 0.10923084 -0.075310126 0.10713357
000090 e5 5d bd be 22 33 87 3e 7e 35 87 3e 15 12 3f 3c
       -0.36985698 0.264062 0.26408 0.011662026
0000a0 57 8f 01 3f 54 12 82 3e 9e 10 aa 3d 6d 8f 54 be
       0.50609344 0.25404608 0.08303951 -0.20757838
0000b0 56 85 82 3e bf 40 bb be b1 59 86 be 88 67 31 be
       0.25492352 -0.36572835 -0.26240304 -0.1732465
0000c0 a4 c1 f3 be 48 ca 91 3e d3 b7 98 3e ce 4f 96 3d
       -0.47608674 0.2847464 0.29827747 0.0733944
0000d0 c7 c5 03 be 85 85 3b 3d 11 af a1 3c 50 d9 fb be
       -0.12868415 0.04578163 0.019736798 -0.49189234
0000e0 c1 f7 1f be 2c ba 93 3e 52 32 50 3e f9 06 98 be
       -0.15621854 0.28852975 0.20331696 -0.2969282
0000f0 ed e9 4f be 05 36 3d 3f da 4e 13 3e 57 54 98 3e
       -0.2030408 0.7391055 0.14385548 0.29751846
000100 b4 03 55 3d 4b 68 67 be 6c 3c 3b be 2e c8 3f bd
       0.052005485 -0.22598378 -0.18284768 -0.046821766
000110 94 8f 6c 3a a1 b7 0d 3f 51 d8 dc be 1b 2a c3 3e
       0.00090240804 0.5535832 -0.43133786 0.3811806
000120 90 73 b8 3e c6 1b 25 bf c2 6f 3c 3f 6a 2a 23 3e
       0.36025667 -0.64495504 0.7360803 0.15934148
000130 e2 aa 6d 3d b2 af 4b bd 72 94 e1 3e 5e 6f 47 3e
       0.058024295 -0.049728103 0.44058567 0.19476077
000140 1f da 65 be 40 20 87 39 40 31 f0 3d 3c a9 29 3e
       -0.22446488 0.00025773235 0.11728144 0.16568464
000150 8d cb 38 3e 40 bb d3 be d1 ac 35 be 63 cb 9e 3e
       0.18046398 -0.41353798 -0.17741705 0.31014547
000160 36 25 a7 3d ff 6a cd 3e 5e 9b a9 3e cf 29 ab be
       0.08161394 0.40120694 0.33126348 -0.33430335
000170 30 ad b8 be 05 fa 88 be 80 68 99 3e 60 77 0e bf
       -0.36069632 -0.2675325 0.2996254 -0.556509
000180 37 d6 93 3d fa 6b fb be 18 35 26 bf ca 74 ac bd
       0.072185926 -0.49105817 -0.64924765 -0.08420713
000190 2c b8 9e 3b a5 b5 5c 3e 47 f9 3c 3d ba cf 78 bd
       0.0048437323 0.21553667 0.046136167 -0.06074498
0001a0 26 37 6c 3e 3f e2 a8 be e0 b6 b9 bd 4b d5 35 bf
       0.23067912 -0.32985112 -0.09068084 -0.71028584
0001b0 6a 14 90 3d 93 9e 79 be c9 35 6e be 28 e2 8a be
       0.07035144 -0.24376898 -0.23262705 -0.2712567
0001c0 cb 7a ac 3c 52 55 07 be 64 18 37 3e 96 6c e7 be
       0.021054646 -0.13216141 0.17880398 -0.45200032
0001d0 c4 f6 44 bd 93 31 b4 be 60 3d 4f 3d 81 36 cc bd
       -0.048086897 -0.35194072 0.05059564 -0.09971333
0001e0 2c 81 17 be 39 dd 03 3e 4b 3a 80 be ed dc ef 3d
       -0.14795369 0.12877358 -0.25044474 0.1171206
0001f0 49 8f 86 3e ba 04 68 be 56 9f c3 3d 6d 7d a2 3c
       0.26281193 -0.22658053 0.09551875 0.019835198
000200 c6 bf 9c be a4 11 49 3e 05 09 ae 3e 67 9a 23 be
       -0.30615062 0.19635636 0.33991256 -0.15976869
000210 79 a3 3b bd 3d 88 ce be fe 1c da 3d 71 90 ad be
       -0.045810197 -0.40338317 0.10650061 -0.33899263
000220 97 0a 51 3e d3 ac 24 3e c8 97 d6 be c0 c4 a2 be
       0.20414196 0.16081552 -0.41912675 -0.31790733
000230 f8 84 dc 3e aa 3f 35 3e 0b 14 1d bf 17 24 a5 be
       0.43070197 0.17700067 -0.6135871 -0.32254097

player_tree_1.W.bias f4 [12]
000000 15 c8 48 3b 12 c6 0a ba b1 70 d4 3c e4 47 13 3d
       0.0030636836 -0.0005293797 0.025932642 0.035957232
000010 e9 16 ae 3c 0b d5 f3 3c ff fa 1b 3c f6 2f 86 bc
       0.021251159 0.029764673 0.009520291 -0.016380291
000020 88 14 f0 3c 14 b2 a3 3b f7 4b 5b 3b 90 0c 95 b9
       0.029306665 0.004995594 0.0033462027 -0.00028428854

player_tree_1.W_self.weight f4 [12, 12]
000000 9e a9 9a 3e f7 de 6d 3e 87 80 51 be 4a 51 41 bd
       0.30207533 0.23229586 -0.20459186 -0.047196664
000010 3b 17 21 3d 30 6b f2 3e 09 34 53 bc c3 89 08 be
       0.039328795 0.47347403 -0.012890824 -0.13333802
000020 ee fc b7 bd 58 7f 83 bf 21 5a 19 3d 4e 64 8c be
       -0.089837894 -1.0273237 0.03743947 -0.27420276
000030 7c 26 09 be bd 70 10 3f 54 28 27 be 45 1d 5f bd
       -0.13393587 0.56422025 -0.16323978 -0.054471273
000040 bd 3f b0 be 94 18 56 3c 4e f0 bb be 80 b6 0d bf
       -0.34423628 0.013067383 -0.36706775 -0.553566
000050 dd 5d 85 3e 45 10 44 be ce 82 b4 3e f0 5b 5a be
       0.26048175 -0.19146831 0.35256046 -0.21324134
000060 7b da 03 3f 53 6d e4 3d 3a 62 f3 be 3e a6 aa 3e
       0.5150525 0.111536644 -0.47535878 0.33329958
000070 27 1c e5 be 40 e5 25 be 9b 50 c2 3e 53 43 fc be
       -0.4474804 -0.16200733 0.37952122 -0.49270114
000080 ef 86 3e be ab e4 25 bd af d2 c2 bd 4a f7 03 3e
       -0.1860616 -0.040501278 -0.09512841 0.12887302
000090 d7 30 a4 be fa 8e 80 bd ff bf f8 3d b5 9c d2 bd
       -0.32068512 -0.062772706 0.12145995 -0.10283796
0000a0 cb 97 62 bd 24 7b 0c 3f bc bb d3 3e e0 57 1b 3f
       -0.055320542 0.548754 0.41354167 0.6068096
0000b0 39 99 e7 bc fc e5 97 3e 6d e8 94 be 41 c4 0e 3c
       -0.028271304 0.29667652 -0.29083577 0.008713783
0000c0 c3 05 8f 3e c7 fc 02 be 7e fc 58 3e 81 1f 2d bd
       0.27934083 -0.1279174 0.21190068 -0.042266373
0000d0 8b da 9b be 62 c1 72 3d 93 bb e5 3c 33 45 d2 bb
       -0.30440173 0.059266455 0.028043544 -0.0064169406
0000e0 87 c9 96 3e 00 a3 8c be 47 8c 81 3e be 07 31 3d
       0.29450628 -0.2746811 0.25302336 0.043220274
0000f0 d0 28 24 bf 36 a2 c5 3d 57 27 2c bd 1b 4b e5 3e
       -0.64124775 0.0965008 -0.042029705 0.44783863
000100 7d 08 6e be ae 47 e8 bc af be c7 3d 0b f2 ff 3e
       -0.23245426 -0.028354492 0.09753167 0.49989352
000110 12 37 0f 3f dd 4c 8b be a2 75 7e 3d 56 66 30 3e
       0.55943406 -0.2720708 0.062123902 0.17226538
000120 53 67 f0 3d 13 c9 19 bd dd 69 54 3e 53 79 b7 be
       0.117384575 -0.037545275 0.20743509 -0.3583475
000130 8a 93 cb bd f0 60 b4 3c d2 9c 21 3e 26 7b 3f be
       -0.0994025 0.02201888 0.15782478 -0.18699321
000140 4f 19 31 bd 2f 69 ee 3d 06 ae 3d be 21 4d 35 3d
       -0.043237027 0.11641156 -0.18523416 0.04426301
000150 2f 62 cc be 08 a1 5b bd ed 73 fb 3e 8b 44 cb 3d
       -0.39918658 -0.05362037 0.49111882 0.09925183
000160 22 ef c4 3e d2 5a 1b be a6 3f a8 3e 79 a7 be 3e
       0.38463694 -0.15171364 0.3286106 0.37237146
000170 e3 02 9f be 19 6c b6 3d 5c 4c 19 3c cb d2 a6 3d
       -0.3105689 0.08907337 0.009356584 0.08145674
000180 19 4a 23 be 79 3a ff be fa 65 26 bc d4 11 4c be
       -0.15946235 -0.498493 -0.010156149 -0.19928676
000190 d8 9a 2c be 29 cd bb 3e ae f7 16 3f a3 ff 98 3e
       -0.16855943 0.36679962 0.5897168 0.29882535
0001a0 88 67 f6 3d 6c 9c 21 3f 23 64 cf be 8b 39 c7 be
       0.12031466 0.63129306 -0.40506086 -0.3891109
0001b0 84 b3 82 bd 8c 61 d7 3e fb 4c 23 3d fb 3e 30 be
       -0.06381896 0.4206661 0.039868336 -0.17211525
0001c0 9e 88 99 be 84 e4 ec be 94 be 8d be 13 dc a2 bd
       -0.29987043 -0.46268094 -0.27684462 -0.07952132
0001d0 66 96 fa 3c 11 e7 5c be b5 32 9b bd c3 67 21 bf
       0.030589294 -0.2157252 -0.07578031 -0.6304895
0001e0 f3 95 67 be a7 5b a6 be 09 8b 69 3e e6 58 3a be
       -0.22615795 -0.324918 0.22806944 -0.18197975
0001f0 20 1a 96 3e cd c0 91 3e 79 38 04 be b8 40 96 3e
       0.29316807 0.28467408 -0.12912168 0.2934625
000200 57 6a 89 bd f9 08 16 be ad ae ad be 36 63 ad 3d
       -0.06709736 -0.1465186 -0.3392233 0.084661886
000210 b9 00 2c 3d 0c 31 8a be a1 42 45 be 7e 74 46 3e
       0.041992877 -0.26990545 -0.19263698 0.19380376
000220 7b 73 9f 3e 0b 62 2d 3d c4 b6 80 be 58 49 6e 3e
       0.31142792 0.04232983 -0.2513944 0.23270166
000230 9e 92 3b 3e 11 4c 80 bd a3 37 80 3e 6f 7b af be
       0.18317649 -0.062645085 0.25042447 -0.3427386

player_tree_1.W_self.bias f4 [12]
000000 15 c8 48 3b 12 c6 0a ba b1 70 d4 3c e4 47 13 3d
       0.0030636836 -0.0005293797 0.025932642 0.035957232
000010 e9 16 ae 3c 0b d5 f3 3c ff fa 1b 3c f6 2f 86 bc
       0.021251159 0.029764673 0.009520291 -0.016380291
000020 88 14 f0 3c 14 b2 a3 3b f7 4b 5b 3b 90 0c 95 b9
       0.029306665 0.004995594 0.0033462027 -0.00028428854

player_tree_2.W.weight f4 [12, 12]
000000 d0 66 61 3e 17 13 8b bd c4 24 52 be 67 8a 6b bb
       0.22011876 -0.067907505 -0.20521837 -0.0035940649
000010 13 2a f1 3e bc 28 08 be 25 89 d3 be 5e 7b 74 be
       0.47102413 -0.13296789 -0.4131557 -0.23875186
000020 ec 7a af bd 56 76 b5 be ce aa 10 3e 96 81 01 3d
       -0.08568367 -0.35441846 0.14127657 0.031617723
000030 25 82 9f be b1 4f c3 be d3 cc 89 3e 09 3d 04 3b
       -0.3115398 -0.38146737 0.2691408 0.0020177981
000040 ad 55 57 bf 45 7f 2c 3e c7 16 eb bd 7b 4f 3c be
       -0.84115106 0.16845424 -0.11478954 -0.18389694
000050 8b cb f2 3e 94 43 00 bd 7b bd 9a 3d d7 2b 59 3e
       0.47420916 -0.031314448 0.07555672 0.2120813
000060 55 d2 15 be f9 77 4f bd 74 6a dd 3e c4 8e 8a bd
       -0.14631017 -0.050651524 0.4324528 -0.06765512
000070 9c f3 03 3f 82 a6 e5 3e 27 6a e3 bd a5 6d de bd
       0.51543593 0.44853598 -0.11104231 -0.10860757
000080 88 bd c5 3d ae 57 c5 be 20 d0 8f bd bd 07 4c be
       0.09655291 -0.38543457 -0.070221186 -0.19924827
000090 f5 20 83 3e e8 50 94 3e c8 35 4f be a9 77 1c 3e
       0.25611082 0.28967977 -0.2023536 0.15280022
0000a0 7c f3 19 be 91 dc 24 3e ab a9 f0 be 18 a7 a9 be
       -0.15034288 0.16099764 -0.47004446 -0.33135295
0000b0 b5 7d 98 bd 3b 80 02 be 17 66 41 3e a7 e7 0f be
       -0.07445852 -0.12744229 0.188866 -0.14053212
0000c0 2a 7a 61 be 7d a0 64 be ab 8b 0d 3d 3d 11 f4 3e
       -0.22019258 -0.22326846 0.034557026 0.47669402
0000d0 64 4d cd be a1 ee a1 be 2a 01 65 3e 26 2d 94 be
       -0.40098107 -0.31627372 0.22363725 -0.28940696
0000e0 90 5b 21 bc a0 da c1 3d 6a c4 1a 3f 74 93 9f 3e
       -0.00984849 0.094655275 0.60455954 0.31167185
0000f0 d3 df ce 3e a8 9c 7b 3e 49 73 35 be 27 95 83 3e
       0.4040514 0.24571478 -0.17719759 0.25699732
000100 f0 26 d6 3e 38 c2 7e be 61 bd 9e be fe 5d 7a 3e
       0.41826582 -0.24878776 -0.3100386 0.24449918
000110 1a 72 eb bc cb 7c af 3e 4c ca 59 3e 72 8c 9e 3e
       -0.028740931 0.34274897 0.21268576 0.30966526
000120 e5 cc 72 3e 9a 1c 53 3e f4 11 1a be 83 22 22 3d
       0.23710974 0.2061638 -0.15045911 0.039583694
000130 a9 70 5e bd ee d6 45 3e 1b b8 8b 3d dc 04 33 3f
       -0.05430666 0.1932027 0.06822225 0.6992929
000140 f5 af a4 3d 28 9d 04 bc b3 27 34 3e 16 7a fb 3e
       0.08041374 -0.00809411 0.17593269 0.49116582
000150 24 de e9 3d 86 92 54 bd 14 ce bd 3e 59 56 20 bf
       0.11419323 -0.05189755 0.37071288 -0.62631756
000160 01 60 4e 3e d6 88 e6 3e e7 b5 3b 3e a8 cd 0d 3e
       0.2015381 0.45026273 0.18331109 0.13847983
000170 61 c3 01 bd 96 ce 1b 3e 25 99 c2 3d 3e 40 a3 3e
       -0.03168047 0.15215525 0.09501866 0.3188495
000180 0a 56 8a 3e 35 98 00 bf 94 5e ed bd 22 41 2a 3e
       0.27018768 -0.5023225 -0.11590305 0.16626409
000190 b9 ea 66 3e 1b f7 82 be f2 ef 11 3e fb 94 b0 be
       0.22550477 -0.25579152 0.14251688 -0.34488663
0001a0 84 de 5d 3d 1c bf 17 bf a8 d8 d0 be b0 2b 43 be
       0.054167286 -0.59275985 -0.40790296 -0.19059634
0001b0 bb d6 0d be 76 e0 02 3f ae a4 69 bd d6 7f 66 bd
       -0.13851444 0.5112375 -0.057041816 -0.056274258
0001c0 a1 9b 27 3e 8c 7f ca 3b 69 da db 3e 90 c6 3c be
       0.16367961 0.0061797556 0.4294007 -0.1843512
0001d0 07 22 de bd 17 a7 01 be 70 6f 4f bd bc 6a 5c 3e
       -0.10846334 -0.12661396 -0.050643384 0.21525091
0001e0 98 2d bd be 7a 16 f2 3e 5d 79 0a be 34 bb 70 3e
       -0.36948848 0.47282773 -0.13522859 0.23508912
0001f0 b6 37 1d bc 45 74 f4 3d 78 94 19 be c8 38 6d be
       -0.009595802 0.11936239 -0.14998043 -0.23166192
000200 ff 92 db 3d de 2f 2a 3e 63 06 b6 bd 1e 58 3f be
       0.10721397 0.16619822 -0.08887937 -0.18685958
000210 7f e5 7d be 33 3f 12 3f 3b d8 80 bd 48 ee 83 be
       -0.24794577 0.57127684 -0.06291243 -0.25767732
000220 5a 9f ee 3d 64 99 76 be 9e 29 63 be 0c 1a 7c be
       0.11651488 -0.24081951 -0.22183844 -0.24619311
000230 1d ac 72 3e fe 32 13 be cc 13 c3 3e ba 5c 09 3e
       0.23698469 -0.1437492 0.3810104 0.13414279

player_tree_2.W.bias f4 [12]
000000 ec 9b f6 3c 0d 5d 91 bb c2 ae f8 3c 83 f2 c3 3c
       0.030103646 -0.0044361413 0.030356769 0.02391935
000010 05 f5 c9 bb f6 b6 74 bc a8 3b f1 bb 9a 48 d3 3c
       -0.006163242 -0.014936199 -0.007361848 0.025791455
000020 63 90 d5 3c cc b7 f3 ba 28 fa af 3b ea 10 4c 3c
       0.026069826 -0.0018594204 0.005370397 0.0124552045

player_tree_2.W_self.weight f4 [12, 12]
000000 9c 50 24 be 72 64 5a be 77 1a 21 be e4 95 de 3e
       -0.16046375 -0.2132738 -0.15732752 0.43473732
000010 e4 17 e1 bd 19 59 a6 3e 69 d4 e7 bd f7 f3 5c 3e
       -0.10990885 0.3248985 -0.11319811 0.2157744
000020 2b 19 50 bc 9c f3 ab 3e 2b d4 a0 be 48 e7 07 bd
       -0.012701313 0.33584297 -0.3141187 -0.03317955
000030 28 16 2b be 0c 1f 92 3e 1d f5 e6 3d 04 4b 63 be
       -0.1670767 0.28539312 0.112772204 -0.22196585
000040 eb 01 43 be 54 7e 9e be 72 49 ee bc aa 70 31 3e
       -0.190437 -0.30955756 -0.029087756 0.17328134
000050 19 a9 7e be 06 bc 77 3d 0e bb 07 3e 19 c1 d2 bc
       -0.24869193 0.060482047 0.1325495 -0.025726842
000060 4b d2 b4 3d a4 68 a0 be 9f be 9b 3e c9 5b 8e 3e
       0.08829173 -0.31329834 0.3041887 0.27804402
000070 e5 af 45 3e 00 7e b5 3d 2b c0 4c be ec b3 02 3f
       0.1930538 0.08861923 -0.19995181 0.5105579
000080 4f e2 b2 bd 42 45 95 3e e3 c6 b1 3e 3c 80 bf 3e
       -0.08734571 0.29154402 0.3472205 0.37402523
000090 c5 aa 27 bd c2 09 98 3e 1c d9 0a 3f cc ca 28 3d
       -0.040934343 0.29694945 0.5423753 0.041209027
0000a0 a7 38 0a 3d 03 ca d6 3d 83 44 eb 3d 1c bc 11 bf
       0.033745434 0.104877494 0.11487677 -0.5692766
0000b0 b2 72 b7 3e ba 4d 4e be 15 a2 00 be 53 1f dd bd
       0.35829693 -0.20146838 -0.1256183 -0.1079699
0000c0 6a 28 a4 3e cb 94 cf be 70 52 c3 bd 35 73 cf 3d
       0.32062083 -0.40543208 -0.09537208 0.10129396
0000d0 1e ac 31 be f7 14 a4 bd 7a 75 13 bf 19 83 25 3e
       -0.17350814 -0.08011811 -0.5760113 0.16163291
0000e0 f0 d2 92 be c0 11 50 3d df 45 d0 be cd 4c 44 be
       -0.28676558 0.050798178 -0.40678307 -0.19169922
0000f0 e4 50 4a be ce 8f 40 3e 02 65 ba 3e c6 da f0 3e
       -0.1975742 0.18804857 0.36405188 0.4704191
000100 27 4f c3 bd 8b a3 01 3e 87 91 bc 3e a4 1d 45 bf
       -0.095365815 0.12660043 0.3682978 -0.76998353
000110 f9 36 26 be 92 20 89 be 6f 5d 87 3e 37 5e 26 3f
       -0.16231908 -0.26782662 0.26438472 0.6498751
000120 e0 0c 2b 3e 76 a2 fa 3d f0 f8 8e 3e 62 cc 48 3e
       0.1670413 0.12238018 0.279243 0.19609216
000130 e5 6e 5c 3e 96 87 c3 bc 67 d9 dd be 0b 60 58 be
       0.21526678 -0.023868363 -0.43329927 -0.21130387
000140 81 33 4e be 5a 87 2d be 6a 64 23 3e 84 19 75 3e
       -0.20136835 -0.16946164 0.15956274 0.23935515
000150 c0 cb 6e bc d4 eb 4c be df 16 1c 3c c1 7b 96 3d
       -0.014574945 -0.20011836 0.009526937 0.07347823
000160 04 5a 9b bd 04 2d 5b be 68 37 e5 3d ef 89 4c be
       -0.075855285 -0.21403891 0.111922085 -0.19974492
000170 18 66 9f 3d c2 4d b6 3c 9f 9c 66 be f3 ed 12 bc
       0.07783145 0.022253875 -0.22520684 -0.008967864
000180 a5 d0 53 be da f5 dd bd 98 a7 01 3f dc 7f 82 3d
       -0.2068506 -0.10837908 0.5064635 0.063720435
000190 5a ae e1 bd 6d 89 0c bf 9f 04 48 3e 1c b0 29 3d
       -0.11019583 -0.54897195 0.19533013 0.041427717
0001a0 8f 19 fb 3e bd 1e 5a 3e 4c 46 06 bd c9 fa c6 be
       0.49042937 0.21300788 -0.032781884 -0.3886321
0001b0 ad 50 03 3d 81 8a 5c 3e c8 8a e6 bc 4a e3 61 3e
       0.03205936 0.2153721 -0.028142348 0.2205936
0001c0 6d 0a 5c 3e e4 dc ee bd 9a 1e 25 be 7e b4 05 3c
       0.21488352 -0.11663225 -0.16124955 0.0081607085
0001d0 d4 26 9e be 1c a7 5f be 27 9f 49 be 8b 91 42 bc
       -0.30888999 -0.21841091 -0.19689618 -0.01187552
0001e0 06 8c e2 be bb af 34 bf 96 2e 98 3e a7 13 74 be
       -0.44247454 -0.70580643 0.29723042 -0.23835622
0001f0 dd 66 13 be 78 32 8a 3c 8d 5e fa bc 82 4c c5 3e
       -0.14394708 0.016869769 -0.030562663 0.38534933
000200 5c 5d c8 3d 2a 8f 27 bf 4f 68 00 be e9 2b 46 bd
       0.09783432 -0.65452826 -0.1253979 -0.04838172
000210 85 69 84 be 20 0e 6c be 18 64 17 3e a0 07 e4 3e
       -0.25861755 -0.23052263 0.14784276 0.44537067
000220 51 5b 90 3e 44 03 7e 3e fe 47 e6 be c5 74 bd be
       0.2819467 0.24805933 -0.449768 -0.3700315
000230 1a cf b1 3e 1f 8d 28 bd c6 07 ec 3c 3b 05 e5 bd
       0.34728318 -0.04115021 0.0288123 -0.11182638

player_tree_2.W_self.bias f4 [12]
000000 ec 9b f6 3c 0d 5d 91 bb c2 ae f8 3c 83 f2 c3 3c
       0.030103646 -0.0044361413 0.030356769 0.02391935
000010 05 f5 c9 bb f6 b6 74 bc a8 3b f1 bb 9a 48 d3 3c
       -0.006163242 -0.014936199 -0.007361848 0.025791455
000020 63 90 d5 3c cc b7 f3 ba 28 fa af 3b ea 10 4c 3c
       0.026069826 -0.0018594204 0.005370397 0.0124552045

player_tree_3.W.weight f4 [12, 12]
000000 c1 93 8a 3d f0 97 0e 3e 7e 48 bf 3e b6 65 04 3f
       0.06766463 0.13925147 0.37359995 0.517177
000010 9a bb e9 3e 79 e1 1a be de c0 ed 3e b1 00 98 3e
       0.4565094 -0.15125073 0.46436208 0.29688028
000020 18 59 81 be 26 22 0f 3f b1 c3 95 bd 38 f6 11 3f
       -0.25263286 0.5591148 -0.07312716 0.57016325
000030 00 fd 6b 3e cc e9 21 be 90 d5 e9 bc 82 c7 18 3f
       0.2304573 -0.15811843 -0.028544217 0.59679425
000040 3d 9e 5b 3e 60 61 93 3e 1f 84 42 3e 4f 55 9f bd
       0.21447082 0.2878523 0.18995713 -0.07779943
000050 20 d3 db be 0d 1d fd 3d f7 76 87 ba fa 1c ac 3d
       -0.42934513 0.123590566 -0.0010335137 0.08403964
000060 38 e0 35 bb 70 f2 e8 be 6c 42 01 3e ea 55 cf 3d
       -0.0027752053 -0.45497465 0.12622994 0.10123809
000070 e1 0e 4e 3e ee d6 b4 be 0d 6f f9 be aa ce 7d 3e
       0.20122863 -0.35320228 -0.48717538 0.24785867
000080 f4 0b ba 3e 37 b0 db bb 1c f6 f7 be da 6a c7 be
       0.36337245 -0.006704356 -0.48429954 -0.3894871
000090 77 21 06 bf 1e cb a8 3e e5 fc 9b be 64 92 c0 3e
       -0.52394813 0.32967466 -0.3046638 0.37611687
0000a0 93 37 e9 3c 41 50 07 3e 9b cd 12 bd ea 65 b4 3e
       0.028468883 0.13214208 -0.035840612 0.35234004
0000b0 a8 bd 8d be ce 49 40 3e 78 ec 77 3d 97 86 65 bd
       -0.2768376 0.18778154 0.06052825 -0.056036558
0000c0 f2 93 8d bc af 9b 41 3d 3a 29 05 bf 4f 0d e1 bd
       -0.01728246 0.047267612 -0.5201603 -0.109888665
0000d0 01 ec 13 3e 3e d2 8e 3e 3f a1 01 3e aa 78 de be
       0.14445497 0.27894777 0.12659167 -0.43451434
0000e0 7f a4 8d bd b7 9f 42 3e 75 f8 97 3d 31 31 9c 3e
       -0.06916141 0.19006239 0.07420436 0.3050628
0000f0 df 10 03 be 09 ea ca 3e a1 22 92 3d 68 4e 09 3d
       -0.12799405 0.3963168 0.07135511 0.03352204
000100 21 0c 77 bd 7e 11 29 bd 91 02 65 3b 16 3c 14 be
       -0.0603143 -0.041276447 0.0034944157 -0.14476046
000110 8f 23 31 3c 87 3e c1 bd 11 31 86 be 12 64 bd be
       0.0108117005 -0.09435754 -0.2620931 -0.3699041
000120 66 b0 55 3e 45 96 88 be 7b 6d c0 3e 01 ab b3 3e
       0.20868072 -0.26677147 0.37583527 0.35091403
000130 5b 87 e7 3b a6 f7 39 bc e7 28 46 3e 4f ef 1f 3e
       0.007065696 -0.011350548 0.1935154 0.15618633
000140 f2 7f 29 3f f4 43 17 3d 59 6e a7 be 9b 4a 5a be
       0.66210854 0.03693004 -0.32701376 -0.21317522
000150 6d aa d1 3e ce df fd 3c 16 e4 98 be a2 b1 17 bd
       0.40950337 0.030990507 -0.29861516 -0.03703464
000160 5a f0 e2 be 3e 4c 97 3e 01 97 2c bd eb 5e 7e be
       -0.44324 0.29550356 -0.042136196 -0.24840896
000170 a8 06 16 3f 44 a8 48 bd 9c 38 3f 3e 02 31 9f be
       0.58603907 -0.048988596 0.18673939 -0.31092077
000180 a1 75 57 3e 78 7d 3a bd 78 6c 86 bd 89 90 25 bd
       0.21040966 -0.045529813 -0.065636575 -0.040421043
000190 90 91 8d 3c 41 db 59 be 49 01 4c be a8 30 01 3e
       0.017281324 -0.21275045 -0.19922365 0.12616217
0001a0 bc 08 7c 3d ba f8 ac be 53 4d d0 bc 7e 6b 5b bd
       0.061531767 -0.33783513 -0.025427496 -0.05356931
0001b0 25 f5 b2 3d f3 2d 2c 3d c5 53 8c 3e 24 40 57 be
       0.08738164 0.042036008 0.2740766 -0.21020561
0001c0 92 c5 1c 3e 00 f8 ac be df 15 b2 be 1a 38 21 3e
       0.15309742 -0.3378296 -0.3478231 0.15744057
0001d0 3b a6 d3 3d 47 21 09 bf 76 7e ac be e9 bc 5c 3e
       0.1033444 -0.535664 -0.33690232 0.21556439
0001e0 3d 17 b7 3e 50 3c 6d be 22 64 62 3e e7 34 01 bf
       0.35759917 -0.23167539 0.2210851 -0.5047135
0001f0 d9 a8 1e be ed be b9 3a ef 02 5f 3d f4 41 9a be
       -0.15494098 0.001417128 0.054446157 -0.30128443
000200 bd 34 84 3e 6e 1e 79 be 5a 7f ab bd f4 bb d5 bd
       0.25821486 -0.24328014 -0.083739 -0.1043624
000210 47 8f a8 3d b3 72 9d bd c4 e4 b9 3e b1 4e fa 3c
       0.08230453 -0.07687893 0.36307347 0.030555101
000220 d2 17 a5 3b 38 72 d8 3d 26 80 42 3d fe e8 8d 3d
       0.00503824 0.105686605 0.047485493 0.06929205
000230 82 56 ba be 51 c5 a9 be 61 c2 e5 be ae 32 8d 3e
       -0.36394125 -0.33158353 -0.44874862 0.27577728

player_tree_3.W.bias f4 [12]
000000 c4 42 07 3d 1f 14 36 bc 29 38 a0 3c 39 31 64 bc
       0.033022657 -0.011113196 0.01955803 -0.013927751
000010 c6 a2 fc bc 56 6b 32 3b 7d 5d ce 3c f5 6e 41 bb
       -0.030839335 0.0027224622 0.025191063 -0.0029515598
000020 ac 04 08 3d e4 10 de 3c 11 f5 99 3c 0f d3 d2 3c
       0.03320758 0.027107663 0.018793615 0.025735406

player_tree_3.W_self.weight f4 [12, 12]
000000 8e a9 20 3e 0d fd f9 bd fe 8b 06 bc 45 fb 80 3e
       0.1568968 -0.12206469 -0.008212088 0.25191703
000010 59 a1 3b 3e 3c 1a 6a 3e 01 a9 b3 3e 88 70 b8 be
       0.18323268 0.2286157 0.35089877 -0.36023355
000020 8a 3d d1 3c 72 a1 4e bb 1f c4 1a be 30 77 3e 3e
       0.02554204 -0.0031529334 -0.15113877 0.18600154
000030 70 2a 1a bf 7d 6a 4b be 07 3c fd 3e 17 5a 21 be
       -0.60221004 -0.19864841 0.4945986 -0.15757023
000040 81 e3 dc 3e 87 90 e3 3d b6 23 2c be e5 7d 47 3b
       0.43142322 0.11111551 -0.16810498 0.003044003
000050 16 03 d1 be 6c 1a e8 3e c9 61 87 be 1a cf 3e be
       -0.40822667 0.45332658 -0.26441792 -0.1863369
000060 0e ac 8a 3e 01 8f 82 3d 06 40 d6 3e a2 d0 55 3b
       0.27084392 0.06374932 0.4184572 0.0032625576
000070 01 71 e8 3d b1 01 d2 be 7b 75 a2 be c7 81 06 3f
       0.11349679 -0.41016915 -0.31730255 0.52541775
000080 34 e0 38 3f 7f d9 95 3e 4d 67 90 bd 79 1f 2b 3c
       0.72217107 0.292675 -0.07050953 0.010444515
000090 81 38 8d 3e 19 08 8f be a9 87 a3 be 1f bc a9 3e
       0.27582172 -0.27935866 -0.31939438 0.33151338
0000a0 84 07 e4 bd 5d a0 07 bf 72 d5 5a be b0 92 56 3e
       -0.11134246 -0.5297907 -0.21370485 0.20954394
0000b0 87 9d 0a bf e7 a1 68 be e1 0d ce be 4c c3 e7 be
       -0.5414662 -0.22718011 -0.40244964 -0.45266187
0000c0 19 cb 84 be 08 00 63 be 20 dd 78 be 95 c5 98 be
       -0.259362 -0.2216798 -0.24303102 -0.29838243
0000d0 32 5d f6 3e 57 70 33 3d 13 40 86 3e db 21 bf be
       0.48117977 0.043808307 0.2622076 -0.37330517
0000e0 3b 40 00 3f ed 89 d8 be ed 0c dc bd 10 a6 d5 3e
       0.5009801 -0.4229273 -0.10744653 0.41728258
0000f0 07 71 87 be 97 71 8a 3d a0 2b 11 3f 8f 9e 53 be
       -0.2645342 0.06759947 0.5670719 -0.20665954
000100 61 9b 8b bd 7e 5f 4a 3e 7e a4 b0 be 08 5c c8 3d
       -0.068167455 0.1976299 -0.34500498 0.097831786
000110 78 99 ec 3d 13 82 32 3e 2d 30 36 be 29 64 3a bf
       0.11552709 0.17432432 -0.17791815 -0.7280908
000120 7e 45 30 3e 94 51 d9 3e bc b9 50 bc 70 30 26 3e
       0.17214009 0.42445052 -0.012739595 0.16229415
000130 ec 6c d3 3d e3 7d 42 3e ce 6b 2a bd 03 89 d7 3c
       0.103235096 0.18993334 -0.041606717 0.02631045
000140 81 ca 8c 3e 23 02 67 3d 65 c7 c6 bd 53 58 88 3e
       0.27498248 0.056398522 -0.09706 0.26629886
000150 67 7f a9 3e 54 1c 10 bb f5 0b 08 3f c9 90 76 be
       0.33105013 -0.002198954 0.53143245 -0.24078669
000160 86 ba 8a be 86 b6 f3 3d f7 eb 10 3d 7b 1b 94 bd
       -0.2709543 0.11900048 0.035381284 -0.07231804
000170 50 48 37 be 45 4d dd bd f9 0b db 3e f9 6d 8d be
       -0.17898679 -0.108057536 0.42782572 -0.27622965
000180 a3 07 a4 3d bb 4b 1c 3e ec a6 00 3f 86 f3 2e bd
       0.08009269 0.15263264 0.502547 -0.04271271
000190 bc f7 6f bc 8e 1a 95 bd 7b 5d ea be a3 c5 2e be
       -0.014646467 -0.072804555 -0.45774445 -0.1706758
0001a0 9d 9a c6 3c a1 08 cc be 33 c5 61 be 09 a8 1c bd
       0.024243647 -0.39850333 -0.22047882 -0.03824619
0001b0 2f a1 93 3e e7 4a 01 3e 69 36 ab 3e ec 6b 74 bd
       0.2883391 0.12626229 0.3343995 -0.059673235
0001c0 91 74 4c 3e ac 89 12 bf 82 47 b2 3c e7 e9 ba be
       0.19966342 -0.5724132 0.021762613 -0.36506578
0001d0 dd fc 5b 3c 6e 16 39 3e f5 06 28 3f 73 51 81 3d
       0.0134269865 0.18074962 0.65635616 0.06314363
0001e0 8d 1e 5e bd fe 0a 32 be 7e d7 4b bb f2 00 41 bd
       -0.054228354 -0.17387006 -0.0031103785 -0.047120042
0001f0 a9 c7 9d 3e a0 68 7d 3e 20 26 aa bd bc ce cc 3e
       0.3081639 0.24746943 -0.08308053 0.40001476
000200 3c bd e1 3c 9b 28 f0 3d 98 2c a4 3e b1 2e 2f bf
       0.027556054 0.11726495 0.32065272 -0.6843062
000210 24 d0 32 3f 5f 6a d3 be d8 5b d8 3d 06 be fb 3e
       0.6984885 -0.41292092 0.10564393 0.49168414
000220 bc b9 e3 3e 54 bd 0f bf 23 10 89 bd ca b3 6f bd
       0.44477642 -0.56148267 -0.06692531 -0.05852107
000230 4e b2 c8 be aa 13 4b 3e 44 83 8e be 75 44 61 bd
       -0.39198536 0.1983172 -0.27834523 -0.054996926

player_tree_3.W_self.bias f4 [12]
000000 c4 42 07 3d 1f 14 36 bc 29 38 a0 3c 39 31 64 bc
       0.033022657 -0.011113196 0.01955803 -0.013927751
000010 c6 a2 fc bc 56 6b 32 3b 7d 5d ce 3c f5 6e 41 bb
       -0.030839335 0.0027224622 0.025191063 -0.0029515598
000020 ac 04 08 3d e4 10 de 3c 11 f5 99 3c 0f d3 d2 3c
       0.03320758 0.027107663 0.018793615 0.025735406

player_tree_4.weight f4 [8, 12]
000000 9d 86 6c bd 4f 1f 37 bf ee 8d b3 3e 74 6b 9e be
       -0.057745565 -0.7153215 0.3506922 -0.30941355
000010 15 c8 39 bf d7 bf 9f be 1e 20 47 3e 15 fe 7c be
       -0.72570926 -0.3120105 0.19445845 -0.247063
000020 95 4f 59 3e ee 0b af 3e d8 69 96 3c 7b fe bf be
       0.21221764 0.3418879 0.018361017 -0.3749884
000030 43 c5 61 3e 6b f4 ce 3d 40 2d 19 be 5c 52 be 3d
       0.22047906 0.10105213 -0.14958668 0.092930526
000040 0e 7b c0 bc 53 f4 0d be fa c2 d4 be 60 69 1a 3e
       -0.023496177 -0.13862734 -0.41555005 0.1507926
000050 2f b3 c3 3e f8 08 c7 be d9 1c b8 be 00 28 1e 3f
       0.38222644 -0.3887403 -0.3595951 0.61779785
000060 3b 70 10 3e 13 48 c1 3d 03 46 95 bc 20 e2 05 3e
       0.14105313 0.09437575 -0.01822186 0.13074541
000070 5b 54 06 be e3 5e eb 3d 04 56 b1 3d 86 80 05 bf
       -0.13118117 0.114927076 0.08658984 -0.52149236
000080 84 d4 54 3f df ba ac bd 47 9d db bc 27 c9 30 3d
       0.83136773 -0.0843408 -0.026808394 0.043160584
000090 4e fe 9f 3e b1 61 03 be b1 c8 86 3e 18 11 e5 3d
       0.31248707 -0.12830235 0.2632499 0.11184901
0000a0 77 a5 32 3b 2b cc 16 bf 47 6a e3 3d 1f cd 56 3e
       0.002725927 -0.58905286 0.11104255 0.20976685
0000b0 41 ef e1 3c 27 79 e0 3e 34 78 77 3e 07 1a 4d 3e
       0.027579905 0.43842432 0.24166948 0.2002946
0000c0 87 84 c2 3e 6b d1 0f 3f 9d 03 04 bf d3 64 a1 bc
       0.37991735 0.5617892 -0.51568013 -0.019701397
0000d0 23 25 19 be 55 70 b5 3e 47 75 ae be 2b 4b 6e 3e
       -0.14955573 0.35437265 -0.3407385 0.23270862
0000e0 66 cf 82 3d 41 cc 8c bd e5 3e e5 3e 7e 47 67 bf
       0.06387214 -0.06874896 0.44774547 -0.90343463
0000f0 c6 a7 75 3e 96 c2 01 3e fd 19 b5 3e 77 ae 34 3f
       0.23989782 0.12671885 0.3537139 0.7057871
000100 9e c4 9a 3d 3b a3 dd 3d c7 dd 84 3d 2d f7 be 3e
       0.07557033 0.10822149 0.06487613 0.37297955
000110 a7 2d f0 bd 38 ee 21 3e fc 16 27 3e 99 96 a5 be
       -0.117274575 0.1581353 0.16317362 -0.3234146
000120 bb 1d 3e be 6c 59 76 3e d9 31 6b be 65 eb 2e 3f
       -0.18566029 0.24057549 -0.22968234 0.68327934
000130 55 7e fe 3e 0e 7a 2e bf 89 09 27 3e 81 fc fc 3c
       0.4970576 -0.6815499 0.16312231 0.030882122
000140 83 ec 0c 3e d7 a6 0a bf 22 da 22 3c 8f c9 75 be
       0.13762097 -0.5416083 0.009939702 -0.2400267
000150 ef 8b 04 3e f3 7e 01 3f 02 db 23 3d 26 6b 4d bf
       0.12944005 0.50584334 0.040003784 -0.8024162
000160 cf 9a 22 be 56 ad 50 3f c4 55 98 3d 61 52 02 bf
       -0.15879367 0.8151449 0.074382335 -0.5090695
000170 42 45 03 bd 98 a5 72 bc ac ac 7d 3e f5 63 c6 3e
       -0.03204847 -0.014809988 0.247729 0.38748136

player_tree_4.bias f4 [8]
000000 91 86 fa 3c 20 a2 8d 3b 4b eb af 3c 44 8c 06 3d
       0.030581744 0.0043223053 0.021474501 0.03284861
000010 b5 76 91 bc 9c 9e 8f 3b b8 7f e1 bc 6f 4a f8 3c
       -0.0177568 0.0043829214 -0.027526721 0.03030893

sun_influence_1.W.weight f4 [12, 12]
000000 03 2e a8 be 32 36 11 bf b0 f4 2f bf dd da 04 3f
       -0.32847604 -0.5672332 -0.6873274 0.5189646
000010 81 de 43 3d cd 47 b5 bd ce a8 ca 3d 99 7a ec 3d
       0.047819618 -0.088515855 0.09895478 0.11546821
000020 34 f4 08 3f f5 3d 55 3e d8 19 25 3f 3c 5a a4 3e
       0.53497624 0.20824416 0.6449256 0.32100093
000030 fd 34 30 3e cf 5f 10 bf d6 c8 b4 be 00 9e 28 be
       0.17207713 -0.5639619 -0.35309476 -0.16466522
000040 d1 ea 75 be 92 f1 98 be 6a 7f 05 bf f9 5c 1b bf
       -0.24015357 -0.29871804 -0.52147543 -0.6068874
000050 a6 ac 06 be 34 68 8c be a7 b5 b4 bd 44 ba 3f be
       -0.13151798 -0.2742325 -0.0882371 -0.18723398
000060 e0 9b 2e bf d0 31 d2 3e 6b 79 ff 3d 3d ab 0e 3e
       -0.68206596 0.4105363 0.124743305 0.1393251
000070 72 90 32 bf 02 3a 26 bd a0 33 73 be 6a 03 81 3e
       -0.69751656 -0.040582664 -0.23750162 0.25197917
000080 32 97 f6 3d 1f 4f 29 3e 9f 87 a7 be a5 83 a3 3c
       0.12040557 0.16534089 -0.32720658 0.019960234
000090 28 af 31 be 84 6c 93 be a3 65 55 3e 06 79 94 3e
       -0.17351973 -0.28793728 0.20839553 0.28998584
0000a0 56 fe 0d be 3e bd f2 be a9 0a 2a 3d 43 11 28 be
       -0.13866553 -0.47410005 0.041514073 -0.16412835
0000b0 d2 75 31 be ff f8 1a 3d 30 3e 9f 3e 87 56 e1 3d
       -0.17330101 0.037835117 0.31102133 0.11002832
0000c0 34 b9 25 3e 57 ce 02 be e8 e7 76 be 11 25 b8 3e
       0.1618393 -0.12774025 -0.24111903 0.3596578
0000d0 1e ff 1b 3e a3 67 83 3e df 25 0c be 1e 87 ca be
       0.15234038 0.25665006 -0.13686322 -0.3955621
0000e0 c3 3d 82 3e f0 e3 26 be cd ac cd be cc 39 b5 bd
       0.25437745 -0.16297889 -0.401709 -0.088489145
0000f0 0d 88 bb 3e c1 b7 69 be 58 3a 0a bc b2 17 10 be
       0.36627236 -0.22824003 -0.008436762 -0.14071539
000100 ed 3b ff 3c 59 30 b1 be aa bd a7 bd eb 2c 8b bd
       0.031156505 -0.346072 -0.081904724 -0.06795677
000110 7a 59 a2 bc 89 07 8b 3e 6f 24 ee 3e ed e2 c4 bc
       -0.019818056 0.27154186 0.46512172 -0.024033988
000120 32 9e 8d 3e af 2b 9c 3c dd 09 39 3e 93 0e 04 bf
       0.27659756 0.019063799 0.18070169 -0.5158474
000130 3e 21 88 3e 21 da 03 bd d0 a6 6c 3e 81 5c fa 3d
       0.26587862 -0.032190446 0.23110509 0.12224675
000140 63 6d 44 bf 97 6a b9 3c b7 3b bd bd bb d0 a7 3e
       -0.7672941 0.022633834 -0.09239905 0.32776436
000150 a8 b6 9a bc e6 47 f7 be 5a ee 49 bd 1f c9 74 3e
       -0.018885925 -0.48297042 -0.049299575 0.23904847
000160 8c df 39 bd 9f 26 86 3f d0 74 75 be 9e 86 9b 3d
       -0.045379207 1.0480536 -0.23970342 0.075940356
000170 00 24 88 3e d7 71 2b be 73 b9 17 3f 8e ad ef bd
       0.26589966 -0.16742645 0.5926735 -0.11703025
000180 7c 36 0a 3f 30 2a 9d bd 7f 8e f7 3e c7 6a 4b 3e
       0.53989387 -0.07674062 0.48350903 0.19864951
000190 3a ab b5 be 09 22 e0 3d 47 a7 70 3e 5a ed be 3d
       -0.35482198 0.10943992 0.23501311 0.09322615
0001a0 6d 0f 8f bd 4e 90 ef 3d 04 79 21 be 34 60 21 be
       -0.06985364 0.11697446 -0.1576882 -0.15759355
0001b0 a7 75 bb bc c7 37 77 3d 1b 09 06 3f 9f fa 2e bf
       -0.02288325 0.060355928 0.52357644 -0.6835117
0001c0 3f 5e 8f be 2d 9d aa 3d cd d8 05 bf c1 05 0f be
       -0.28001592 0.0833076 -0.52283937 -0.13967039
0001d0 b4 d2 03 be 68 1e ff be 15 28 42 3e 53 ac 15 3e
       -0.12873346 -0.49827886 0.18960603 0.14616518
0001e0 ef 72 6a be 69 f9 41 be 23 43 d9 3e 36 76 09 bf
       -0.22895406 -0.18942799 0.42434034 -0.53696
0001f0 ff 9f df be 38 4b 44 bd bc 8c 9a be cf 03 ed 3d
       -0.43676755 -0.047923297 -0.30185497 0.11572992
000200 ac 8a 4f 3e 21 25 44 3c f9 66 9f 3e 9d c6 ed bc
       0.20267743 0.011971743 0.3113325 -0.02902537
000210 78 4d 3a 3e 78 15 85 be 58 1a c3 be 83 dc 1d 3d
       0.18193614 -0.25992942 -0.38106036 0.038540374
000220 90 6d dd be 01 63 61 3e 58 63 0a 3d 5f 7b bc 3e
       -0.43247652 0.22010423 0.033786148 0.36812875
000230 c3 f1 18 3d d0 6e bf 3e 40 0d e0 bd 56 03 2e 3d
       0.037339937 0.3738923 -0.10940027 0.04248365

sun_influence_1.W.bias f4 [12]
000000 36 55 2b b9 27 c4 a0 bc 73 a5 21 3c 0e 21 c4 3c
       -0.00016339574 -0.019624783 0.009866106 0.023941543
000010 05 70 9e bc 15 ff b4 bc 66 a3 06 bc 75 22 25 3c
       -0.019340524 -0.022094289 -0.008217668 0.010079016
000020 32 ab e2 3b 24 77 31 bb 14 65 2d bc 5f f4 2c 3b
       0.0069173807 -0.002707907 -0.010583181 0.0026390774

sun_influence_1.W_self.weight f4 [12, 12]
000000 25 d3 01 bd 45 de 3e 3e 22 0e 11 3e a1 12 cf be
       -0.031695504 0.18639477 0.14165547 -0.404439
000010 3e 16 ad 3e 28 1e 0e be 9e 3f 3b be d4 2c a0 3c
       0.33806032 -0.13878691 -0.18285987 0.019552626
000020 df ad 99 3d 3f 99 9a be 56 d1 8f be b9 b9 3f be
       0.075038664 -0.30195042 -0.28089398 -0.18723191
000030 54 50 5d 3e 25 5f c5 3d e6 fe ac bc 25 03 7c bd
       0.21612674 0.09637288 -0.021117639 -0.061526436
000040 8b dc 92 3e 6a 07 b6 3d bb ca cf bd ad 77 07 3e
       0.28683886 0.08888133 -0.1014609 0.13229246
000050 1c 2e 1b bd f7 b5 a7 3c 16 6d bb bd eb 64 49 bd
       -0.03788577 0.02047251 -0.09151666 -0.04916851
000060 b1 b0 d2 bd 0c 9f 92 bd 79 9d ec 3e 52 b4 25 be
       -0.102876075 -0.07159242 0.46213892 -0.16182068
000070 0d 54 31 3e e6 45 e4 3c fe f4 b0 3d b5 cd 4c 3e
       0.17317219 0.027865361 0.086404786 0.20000346
000080 50 2f ea 3e dd 96 af 3e 95 0b b7 bd e8 60 42 3e
       0.45739222 0.34294787 -0.08937756 0.1898228
000090 89 f6 50 be 0c 96 0e bd 94 d3 ff 3b f6 9c 0f be
       -0.20406546 -0.034811065 0.0078072045 -0.1402472
0000a0 b3 dc 54 be e6 2f 79 3e 11 a4 67 3d bc 74 55 3e
       -0.20787315 0.24334678 0.05655295 0.20845312
0000b0 35 fb 1a ba c7 21 c1 be 43 7b 94 3e 7b e9 ac 3c
       -0.00059120666 -0.37721083 0.2900029 0.021107426
0000c0 07 a5 1b be 97 8c 6d 3e 84 ef a4 be c4 bd a2 be
       -0.15199672 0.23198162 -0.32213986 -0.31785405
0000d0 01 29 29 be f9 56 a8 3e 4b c3 45 3e 76 d6 a9 be
       -0.16519548 0.32878855 0.1931278 -0.33171433
0000e0 a1 9f 74 bd ec 8b 13 be 5f 77 50 3e 18 32 18 3e
       -0.059722546 -0.14408845 0.20358036 0.14862859
0000f0 a3 31 a4 be ec 36 e6 3d 0f d0 86 3e 01 16 b0 bd
       -0.3206912 0.11240944 0.2633061 -0.08597947
000100 5c 1b 59 be 62 e9 ff be 6f 8c eb 3e cf 3e 3b be
       -0.21201843 -0.49982744 0.4600558 -0.18285678
000110 ab 18 38 3e 92 3a 5e 3d b1 0f 1c 3f e6 fa 6c 3e
       0.1797816 0.054255076 0.60961443 0.23142585
000120 2e 0f d7 be 2d f1 38 bd 13 e9 0d bf 1d 26 4a bd
       -0.4200377 -0.04515188 -0.5543377 -0.049352754
000130 57 e6 a2 bc 2e 6c 0f 3e 44 88 c6 3c fa d0 3f 3d
       -0.019885225 0.14006111 0.024234898 0.046830155
000140 20 49 e3 bd c9 fc d9 bd c8 60 07 3f c5 82 6a 3d
       -0.11097932 -0.10643918 0.5288205 0.057253618
000150 76 09 0a bf 2d 6e d3 bc 19 2f 62 bb 46 4f 24 3f
       -0.53920686 -0.025809372 -0.0034512936 0.6418346
000160 c8 2e 59 be 70 db 39 3f c0 35 f1 be 10 03 23 bf
       -0.21209252 0.7260046 -0.4711132 -0.6367655
000170 e0 68 65 3e 81 cf 17 bd bc 19 1d bf 8e 9f 3a 3e
       0.22403288 -0.037063126 -0.6136739 0.18224928
000180 bd 55 95 be 98 81 31 3e e7 22 0c be 0d cd c3 3d
       -0.29166976 0.17334592 -0.13685189 0.09560595
000190 c4 18 a5 bd 07 8b b9 bd 45 0d 15 be 91 a9 95 3e
       -0.08061364 -0.090597205 -0.14555843 0.2923093
0001a0 0f 39 dc be 4c 19 9b bd 82 b3 64 be 15 1b da bd
       -0.43012282 -0.07573184 -0.22334102 -0.10649697
0001b0 6a 8f 81 3e 09 3b 2e bf 38 2e 17 be 56 68 a4 3e
       0.2530473 -0.6805883 -0.14763725 0.32110852
0001c0 83 c2 9a 3d d0 98 2a 3e 3b ba 90 be 8b 95 17 bf
       0.075566314 0.16659856 -0.28267083 -0.5921256
0001d0 6f 15 cc 3e 06 af c8 3e a6 35 5c 3f ce e9 ac be
       0.39860103 0.39196032 0.8601936 -0.3377213
0001e0 13 8e 0a bf c5 b7 75 3d b1 54 1f bd 3d 6b ad be
       -0.5412304 0.05998971 -0.038899127 -0.3387088
0001f0 bf 4d 26 be 68 4a 05 3f 43 39 16 be 57 07 d5 be
       -0.16240595 0.5206666 -0.14670281 -0.41607162
000200 0c f4 36 3e 23 1a 05 3f d3 5a 68 3c 1a d8 9a be
       0.17866534 0.51993006 0.01418181 -0.30242997
000210 30 69 9c be 13 99 ac 3e 64 d5 70 3d 90 58 ed be
       -0.30549002 0.33710536 0.058797255 -0.4635663
000220 3a 7f e8 be 21 39 38 be fb c0 e7 3d c8 33 27 be
       -0.45409566 -0.17990543 0.11316105 -0.16328347
000230 ee 1f 3e be 9a 36 a3 3e 4e 47 93 be f5 6c 6a be
       -0.18566868 0.31877595 -0.2876534 -0.22893126

sun_influence_1.W_self.bias f4 [12]
000000 36 55 2b b9 27 c4 a0 bc 73 a5 21 3c 0e 21 c4 3c
       -0.00016339574 -0.019624783 0.009866106 0.023941543
000010 05 70 9e bc 15 ff b4 bc 66 a3 06 bc 75 22 25 3c
       -0.019340524 -0.022094289 -0.008217668 0.010079016
000020 32 ab e2 3b 24 77 31 bb 14 65 2d bc 5f f4 2c 3b
       0.0069173807 -0.002707907 -0.010583181 0.0026390774

sun_influence_2.W.weight f4 [12, 12]
000000 83 c8 94 be 71 86 66 bd 75 e1 88 be ec b3 0d bd
       -0.29059228 -0.056280557 -0.2673451 -0.034595415
000010 c3 e2 0e be e0 18 f2 3d 43 cd 81 be 70 1f 83 be
       -0.1395369 0.11821151 -0.25351915 -0.25609922
000020 21 7c 88 ba 22 15 d6 3b e5 4a cd be 26 71 b5 bd
       -0.001041297 0.006533281 -0.40096202 -0.08859472
000030 0b ad cb 3e 81 8e 45 3e 22 93 70 be a3 23 87 3e
       0.3978046 0.19292642 -0.23493627 0.26394376
000040 a1 67 a1 3e 4e 7b 90 3e 0f 58 f8 3e ba bd c5 be
       0.31524375 0.28219074 0.48504683 -0.38621312
000050 1a 4f 13 3d 85 1d 33 3d b0 af 31 bc e1 4d 2c be
       0.03596411 0.043729324 -0.01084511 -0.16826583
000060 1d 5a 1a bb 34 67 1f be e1 81 93 3d 2a 2e 6e be
       -0.0023552247 -0.15566713 0.07202507 -0.23259798
000070 51 a4 42 3e 44 c3 e6 bc 9a 6d 87 3e f7 e1 b2 3e
       0.19007994 -0.028169282 0.26450807 0.34938022
000080 e4 c5 11 bd ec bd ad 3e be 5f d9 be ee 20 75 be
       -0.035589114 0.3393396 -0.42455858 -0.23938343
000090 cb fa 2a 3e 4a 6e 70 be bc f1 4a 3e 90 15 4d 3e
       0.16697232 -0.23479572 0.19818777 0.20027757
0000a0 b2 fd 73 3d 7f 31 7b 3e d3 7b 49 be b4 12 bf 3d
       0.059568115 0.245306 -0.19676141 0.09329739
0000b0 3e 21 4e bd a0 8c 02 3e 25 c8 b5 bc 86 b1 23 be
       -0.05032467 0.12748957 -0.022190163 -0.15985689
0000c0 9b 2c 2e 3e a5 75 2e 3e 82 f2 07 3f de 18 eb 3e
       0.17009203 0.17037065 0.5310441 0.4591741
0000d0 23 d7 c4 3c 25 d7 9e be 6e b4 21 be d0 0a 61 3e
       0.024028366 -0.31023517 -0.15791485 0.21976781
0000e0 6d 41 1d be bd 25 d2 3e a3 ad 46 3e 01 40 e2 bd
       -0.15356989 0.41044417 0.19402175 -0.11047364
0000f0 5e 0b 3c 3e 57 86 1d 3c 4f 37 9c 3e c7 05 f3 3d
       0.18363711 0.009614549 0.30510947 0.11866336
000100 be a4 6d 3e aa 73 d2 3a 5e e5 14 be d3 26 ab be
       0.23207375 0.0016056199 -0.14540622 -0.33428058
000110 28 bd 89 3e 4a a9 08 3e 1b c8 0a be 2b 73 54 3e
       0.26902127 0.13345829 -0.13552897 0.20747058
000120 bd fb 69 be fb fa 41 bf 15 35 1d 3f d1 df 15 bf
       -0.22849937 -0.7577359 0.6140912 -0.5854464
000130 2f d4 52 3e 6e d7 e9 3d ea 81 90 bd 8a ba 84 3e
       0.20588754 0.11418043 -0.07056029 0.25923568
000140 5d 6a 24 3e e0 85 aa 3d 9a de ee bd e2 72 0e bd
       0.160562 0.08326316 -0.11663552 -0.03477753
000150 75 f5 3d 3e cf 78 66 3d 7a 26 7b be d6 8c 86 3e
       0.18550666 0.056267556 -0.24526396 0.26279324
000160 8f f4 17 3f ec 64 eb bd 78 28 7f 3c f1 b3 99 be
       0.5935754 -0.11493859 0.015573613 -0.30020097
000170 44 1e b2 bc 09 2b 30 be 61 6d 60 bf e6 69 2e be
       -0.021742947 -0.17203917 -0.876669 -0.17032585
000180 f5 52 01 be 2c b4 09 be c9 81 98 3e 06 77 0b 3f
       -0.12629302 -0.13447636 0.29786518 0.5447849
000190 da 7d 35 be 09 12 89 bd 3e 5e 4e 3e 40 b1 03 be
       -0.1772379 -0.06692893 0.20153138 -0.12860584
0001a0 a9 0e 0b bf c0 b1 52 bd 93 ec c5 bd 2a 39 6e 3e
       -0.54319245 -0.051439047 -0.096642636 0.23263994
0001b0 b4 7e e9 3e fd 53 6f be ea 06 33 3e 8a 59 72 be
       0.4560448 -0.23371883 0.17483106 -0.23666969
0001c0 dc 5a bf bd c6 3f 02 be 62 5f 05 3e 55 07 ea 3c
       -0.09343502 -0.1271964 0.13024667 0.02856795
0001d0 cf 04 a8 bd d4 ce 48 3e a1 1a b6 3e a6 e2 cb 3d
       -0.08204042 0.19610149 0.3556719 0.09955339
0001e0 0a 10 fe bd 72 97 ad 3d d7 c9 21 3e 74 35 3d 3e
       -0.12405403 0.084761515 0.15799652 0.18477422
0001f0 57 31 b9 3d a2 a9 e0 3d 67 e7 8c be 89 29 2b bd
       0.09042614 0.10969855 -0.27520296 -0.041787658
000200 ad 0a 9d bd 40 53 29 3e da 90 c3 bc ee 54 d2 3e
       -0.07668052 0.16535664 -0.023872782 0.4108042
000210 52 3f 32 bd be 33 97 be 4a 5f 03 3e be 55 ca 3e
       -0.04351742 -0.29531664 0.12829319 0.3951854
000220 9f 00 a7 3c 63 3b d0 3e d0 f1 bc be 85 7b fa 3e
       0.020386038 0.40670308 -0.36903238 0.48922363
000230 09 6b 17 bf d2 fa 1a bf 67 9a 31 3e ec 84 38 3e
       -0.591477 -0.6053897 0.17344056 0.18019456

sun_influence_2.W.bias f4 [12]
000000 a4 7f f2 bb 54 aa 78 bb c9 03 dc 3a 4f d2 18 bc
       -0.00740047 -0.003794332 0.0016785796 -0.009327485
000010 02 43 f8 3b 54 c4 ca 3c f4 eb 86 3b 9a 3e 56 bc
       0.0075763473 0.02475182 0.0041174833 -0.013076449
000020 27 53 35 3b 6f 98 3b 3c 62 98 a9 bb f7 18 2f bc
       0.002766797 0.011449917 -0.005175636 -0.010687104

sun_influence_2.W_self.weight f4 [12, 12]
000000 b3 d9 97 be 52 84 58 3e 56 47 b8 bd 90 4f 18 bf
       -0.2965828 0.21144226 -0.08997981 -0.594964
000010 7a 84 96 3e d8 ba 4e 3e a0 09 c5 be a6 4e 8e 3e
       0.29397947 0.20188463 -0.38483906 0.2779438
000020 5c cb 0b bd 25 38 e7 bd 36 6b 05 3f e2 b9 42 3d
       -0.034129485 -0.112900056 0.52116716 0.047540553
000030 cc 75 eb bd ce 61 f9 bd 15 24 89 3e a6 c7 5e 3e
       -0.11497077 -0.12176858 0.2678534 0.21755847
000040 5d 1c bc 3e 3b b9 e4 bd 23 cd b8 3e 17 62 2b 3e
       0.3674039 -0.111681424 0.36094007 0.16736637
000050 a5 df 2a 3e f7 d8 94 be 66 7d 19 3e 88 d8 c6 be
       0.16686876 -0.2907178 0.14989242 -0.38837075
000060 80 32 10 be 83 99 4c 3d 5c d9 e5 3e 9f 84 69 3e
       -0.14081764 0.049951088 0.44892395 0.22804497
000070 7e 61 c9 be 6f 42 86 3e 99 9b 48 3e 4e d0 bb be
       -0.39332193 0.2622256 0.19590606 -0.3668236
000080 96 dd bf be 23 32 49 3c bc 60 29 be 20 9a 15 be
       -0.37473744 0.01228002 -0.16540807 -0.14609575
000090 53 9e a3 be 8d 8d 5b be 47 2a 9c 3e 7b 24 e5 bd
       -0.3195673 -0.21440716 0.30501005 -0.11188599
0000a0 01 87 3d 3e 30 55 65 bc eb 74 a2 bd b9 c0 f2 bd
       0.18508531 -0.013997361 -0.079324566 -0.11853165
0000b0 e8 41 7f 3e a1 24 e2 3e 32 46 0b 3f a5 49 8c be
       0.24927485 0.4416857 0.54403985 -0.27399936
0000c0 40 bf 0c bf 0b d4 01 3e c9 67 50 bd 01 54 ba 3d
       -0.54979324 0.12678544 -0.050880227 0.09098054
0000d0 07 f9 f3 3d d4 70 3c be b8 81 9a bd 76 3a d3 3d
       0.119127326 -0.18402416 -0.07544273 0.10313885
0000e0 53 fe 95 3d c7 e1 c1 3e ed b3 47 3d 60 63 81 3e
       0.07323899 0.37867567 0.048755575 0.2527113
0000f0 2a f3 7b 3f db 3e 3a bf 66 da a6 3e d3 fa 77 be
       0.98417914 -0.7275216 0.325885 -0.24216776
000100 85 7e 1b bd c4 15 08 3d 30 e9 e4 bd 8b 2e f9 bc
       -0.037962455 0.033223882 -0.111772895 -0.030417701
000110 57 ff 9d 3e 47 2e b8 bd 0a be 93 bd 04 d9 b6 be
       0.3085887 -0.08993202 -0.072139814 -0.35712445
000120 99 1f 22 bd 04 53 f1 3d 44 83 9a 3b c6 dc 92 bd
       -0.039580915 0.11783412 0.004715355 -0.071710154
000130 c2 13 28 bd 81 5a c4 be 7c 05 19 3e d5 18 70 bd
       -0.041034468 -0.383503 0.14943498 -0.05861743
000140 42 8b ed 3e 72 8d dd 3d f9 ef b8 bc 76 18 f3 3d
       0.46395308 0.10817994 -0.022575365 0.118699
000150 1f 81 65 be f5 24 4d 3e d5 c1 00 3f 39 8f fd 3d
       -0.22412537 0.20033629 0.50295764 0.12380833
000160 ab a4 be 3c 3d cb 71 be ca c9 9e 3e 11 ee ea 3e
       0.02327188 -0.23612686 0.31013328 0.45884755
000170 74 60 ba bd 0c f6 c2 be 27 1a 4d 3e 84 4b 1a 3e
       -0.09100428 -0.38078344 0.20029508 0.1506787
000180 ed 41 aa 3e 46 5f 30 3d 2e 7d 62 be 28 c8 94 be
       0.33253422 0.04305961 -0.22118065 -0.29058957
000190 7c c0 98 be ea c9 8f bf 3c 0a 09 be e8 73 13 3f
       -0.29834354 -1.1233494 -0.1338281 0.57598734
0001a0 dc c4 b8 3e b7 31 ce bc 26 42 63 bc 44 ba b9 be
       0.36087692 -0.02517019 -0.0138707515 -0.36274922
0001b0 2f 68 f8 3e 19 0f d9 3d 3b 6e 74 3e d0 51 0e 3d
       0.48516986 0.10598583 0.23870175 0.03474599
0001c0 94 4b 39 3e d9 8c ea 3e c0 fc 2c bd bf 6f 5b bf
       0.18095237 0.45810583 -0.04223323 -0.85717386
0001d0 cb 31 e4 bd c9 ce c3 3e da 57 50 3c ca 7f c4 3e
       -0.1114231 0.38243702 0.012716258 0.38378745
0001e0 64 af fd 3e 67 0b ed bd 93 39 84 ba e5 32 ad bd
       0.49547875 -0.115744404 -0.0010087959 -0.08456973
0001f0 5f ef 9e 3c 08 64 fb 3d b8 5d bc be 63 89 19 3e
       0.01940125 0.12274939 -0.36790252 0.14993815
000200 4c 23 2b 3e 37 a2 00 3e 26 44 c7 bc 6a 94 f6 3d
       0.16712683 0.1256188 -0.024324488 0.120400265
000210 f4 fa 8f 3e 00 07 d5 bd 98 bf 98 be d4 08 04 bd
       0.2812115 -0.10401726 -0.29833674 -0.03223498
000220 f3 ca 0f 3e 03 67 6b 3e e5 8b 10 3f 06 98 5a bd
       0.14042263 0.22988515 0.5646346 -0.053367637
000230 16 47 ba bc c1 77 a5 bd 83 32 a2 3e d1 e4 c1 ba
       -0.022738975 -0.08079482 0.31679162 -0.0014792924

sun_influence_2.W_self.bias f4 [12]
000000 a4 7f f2 bb 54 aa 78 bb c9 03 dc 3a 4f d2 18 bc
       -0.00740047 -0.003794332 0.0016785796 -0.009327485
000010 02 43 f8 3b 54 c4 ca 3c f4 eb 86 3b 9a 3e 56 bc
       0.0075763473 0.02475182 0.0041174833 -0.013076449
000020 27 53 35 3b 6f 98 3b 3c 62 98 a9 bb f7 18 2f bc
       0.002766797 0.011449917 -0.005175636 -0.010687104

sun_influence_3.W.weight f4 [12, 12]
000000 0e 11 58 bd fc 5e 8b bd 6a 58 89 3e 00 f0 06 3e
       -0.05275064 -0.06805226 0.26825267 0.1317749
000010 f8 39 9d 3e 3a ad 01 bf 93 ac 4b be 6e de 57 3e
       0.3070829 -0.5065495 -0.1989005 0.21080944
000020 3c 01 b1 3d cf ee bb 3d fa 03 49 3e 90 d2 83 bd
       0.086428136 0.091764085 0.19630423 -0.06436646
000030 56 ea 24 3e 22 48 bc bd 7d e3 8a 3e 67 d6 df be
       0.16105017 -0.09193446 0.27126685 -0.43718264
000040 c5 7a 89 bd b8 41 45 be df 75 c1 be f4 bc 41 be
       -0.067128696 -0.19263351 -0.3778524 -0.18919736
000050 48 f6 4e 3d e0 b7 e8 be 68 2f 58 3e ec 97 90 bd
       0.05052784 -0.45452785 0.21111834 -0.07060227
000060 18 36 25 3f 99 b6 d1 3d 89 c3 0e be 65 61 ea 3d
       0.64535666 0.10239906 -0.13941778 0.11444358
000070 0e 45 6a bd b2 c5 8a 3e 7f e1 27 3e e5 67 c4 3d
       -0.057194762 0.27103955 0.16394614 0.09590129
000080 48 09 ad 3d ff 83 3a 3e 3e 2a 28 3e 64 c7 39 bf
       0.08449036 0.18214415 0.16422364 -0.7256987
000090 18 35 cb 3e f4 b9 ec 3e e2 08 d1 3e 9b fd 6f 3e
       0.39688945 0.4623562 0.4082709 0.23436587
0000a0 a3 fd e7 3d e1 a0 95 3e 77 32 ad be 85 d2 3e 3a
       0.11327674 0.29224303 -0.33827564 0.00072792947
0000b0 bf 74 6a 3e 38 c4 bf 3d 96 fb d4 be 98 56 04 be
       0.22896098 0.09363598 -0.41598195 -0.12923658
0000c0 fd ff b1 be c2 14 85 be 07 b1 d8 3e 32 57 78 be
       -0.34765616 -0.259924 0.4232256 -0.24252012
0000d0 e1 a1 71 3d 92 37 8b 3e e8 0a 12 3f 00 3f 2f 3d
       0.05899227 0.27190834 0.5704789 0.04278469
0000e0 a7 da 3c bf 77 a7 ce 3e c9 22 b0 bb 2c bb ce 3d
       -0.73771137 0.4036214 -0.0053752405 0.10094294
0000f0 bb aa d7 be 43 35 a8 be 4a 37 93 3e e9 8f 81 3e
       -0.42122445 -0.32853135 0.2875312 0.25305107
000100 92 78 dd 3c 28 24 33 3e ba 1c ee 3c ca 92 3b 3e
       0.027035031 0.17494261 0.029066432 0.18317714
000110 ca 36 b5 bd 62 57 b1 3d ec ff 09 be 94 b3 86 bd
       -0.08848341 0.08659245 -0.13476533 -0.065772206
000120 51 33 b2 3d 9d 7a 96 bc 7f be 00 3e a5 a2 90 be
       0.08701194 -0.018369013 0.12572668 -0.28249088
000130 93 05 fd 3d 07 19 d5 3e 39 41 9f be c6 6c 36 3e
       0.12354579 0.41620657 -0.31104448 0.17814931
000140 2d 84 6c 3e e3 ec 05 3e a3 f5 e6 bd fe 61 78 3d
       0.23097296 0.13078646 -0.1127732 0.060640328
000150 f4 ba 48 be 65 96 bc 3e 80 36 8c 3d 82 24 0a bc
       -0.19602567 0.36833492 0.068463326 -0.008431556
000160 c3 6d 5d 3e d1 7c a9 3c b9 bb 6e bd 17 b4 2a bf
       0.21623902 0.0206894 -0.058284495 -0.66681045
000170 e3 09 8c be 8a a7 bb be b5 b3 ac 3d f1 38 7e be
       -0.27351293 -0.3665126 0.08432714 -0.24826409
000180 39 ea 32 3e 9e ad 97 3e b1 57 86 3d dc 6a 74 be
       0.17472161 0.29624647 0.065596946 -0.23868889
000190 dd 04 1d 3e c4 78 ba 3d d8 a1 d0 3e ba 9c 60 be
       0.15333886 0.091050655 0.40748477 -0.21934786
0001a0 ea 16 8b bd 20 57 67 3c 91 07 57 3d 22 52 af be
       -0.0679148 0.014119893 0.05249745 -0.3424235
0001b0 11 10 8c 3e f9 40 0b be a0 25 b5 3e e0 ae 3e bc
       0.27356008 -0.13599004 0.35380268 -0.011638373
0001c0 02 3d 68 bd 5d 77 ae 3d eb 1c b7 be 90 6b 1d 3f
       -0.056698807 0.085188605 -0.3576425 0.6149225
0001d0 91 27 cc 3e 98 02 80 be 5f ba 38 3d ce 66 0d be
       0.39873937 -0.2500198 0.045099612 -0.13808748
0001e0 09 fe 8f 3d 04 3c 23 bd 7d 4d 2b be f8 66 ee bd
       0.07030875 -0.039852157 -0.16728778 -0.116407335
0001f0 41 fd 6e 3a c9 37 12 be cd 71 af 3e 39 66 79 be
       0.0009116717 -0.14279093 0.3426651 -0.24355401
000200 6c 27 a1 3e 7c b3 ad bb e0 a7 0b be 15 28 eb be
       0.3147539 -0.005300937 -0.13638258 -0.45929018
000210 71 6f 6b be 52 8c eb bd 72 ae 03 bf c6 b4 71 be
       -0.2299173 -0.11501373 -0.5143806 -0.23604116
000220 d0 c3 23 be c2 8d 09 3d ed a3 f4 be 4b 16 ba 3d
       -0.15992665 0.033582456 -0.47781315 0.09086283
000230 36 b5 89 be 90 6c db 3e e0 88 fe bd 46 f5 af be
       -0.26896065 0.42856264 -0.124284506 -0.34366816

sun_influence_3.W.bias f4 [12]
000000 15 70 d0 3c e0 40 57 3c 28 e2 75 3b dc 38 fb 3b
       0.02544407 0.013138026 0.0037518833 0.0076666903
000010 58 53 2b 3c 8b 9b b0 bb 5b 8b 38 3c 0c d6 5d bc
       0.010456882 -0.005389636 0.011263694 -0.013539802
000020 4a 38 cb bb fe c7 a2 bc 07 36 bf bb de 01 e9 bb
       -0.0062017785 -0.019870754 -0.005835298 -0.0071108183
