src/Photosynthesis/RL/SavedModels/model_40.pth (torch, 30290 bytes, 34 tensors)

player_tree_1.W.weight f4 [12, 12]
000000 a2 e4 99 3e c9 83 a8 be ac ee be 3e 89 bb 95 be
       0.30057245 -0.32913044 0.37291467 -0.2924464
000010 26 ae a0 3e 9e cc d1 bd 1c 10 68 be 49 75 e6 3d
       0.31382865 -0.10244106 -0.22662395 0.11252839
000020 c0 9c 0a 3f 19 0c 11 be 71 d7 d0 bd cc 5f 8f bc
       0.5414543 -0.14164771 -0.10197342 -0.017501734
000030 85 ea 11 3e c7 27 08 3e 46 21 8d 3e a1 8b 31 be
       0.14249618 0.13296424 0.27564448 -0.1733842
000040 79 3b 85 3e 17 79 1a bf 5a e8 2f be cc db 2c be
       0.26021937 -0.6034102 -0.17178479 -0.16880721
000050 ce 7e 67 3e 07 26 00 3e 10 b2 07 3f 6b 60 8e 3e
       0.22606966 0.12514506 0.53006077 0.27807936
000060 b5 23 e1 bc 85 87 98 3e 3d b3 04 bf 59 b7 9b 3d
       -0.027482847 0.29790893 -0.51835996 0.0760333
000070 eb ea a5 3e 0a dd 83 3e 08 7d b1 bd cb 1d de be
       0.3240579 0.25754577 -0.08666426 -0.43382105
000080 3c ad de 3e 52 9e ad 3d 52 3d ae be b2 2d 5f be
       0.43491542 0.08477463 -0.3403116 -0.21794775
000090 2a 56 85 bd aa 83 3b 3e cb 37 6b bd 4f d7 9a bd
       -0.06510575 0.18311945 -0.057426255 -0.07560598
0000a0 79 85 bb 3d 1f c0 b7 be 72 8b 41 be 29 a2 e0 be
       0.09156317 -0.35888764 -0.1890085 -0.43873718
0000b0 bd 7a ad be a8 83 7d 3e 90 5b b4 be 15 ed 36 3e
       -0.33882704 0.24757254 -0.35226107 0.17863877
0000c0 ed ef 8b be af 55 83 bd f3 b3 92 bd 2b 6f 18 bc
       -0.27331486 -0.06412827 -0.07163229 -0.009303848
0000d0 a0 21 65 3d 4a 49 19 3e ab ed e2 be 55 83 97 3e
       0.05594027 0.14969364 -0.4432195 0.29592386
0000e0 be 93 85 be 77 a8 6f 3d 0f f1 e2 3c 12 1d 29 3f
       -0.2608928 0.05851027 0.027702836 0.6605998
0000f0 93 52 7a 3e 0f 0a 99 3e 84 07 e8 3e 87 80 4e be
       0.24445562 0.29890487 0.45318234 -0.20166217
000100 2e 48 33 3e 50 15 e8 3e 4c 24 14 3e f9 8b 71 3e
       0.17508003 0.4532876 0.14466971 0.23588552
000110 f6 95 0e 3e c4 f2 80 3f f4 6b 37 bc 5f b8 ab 3e
       0.13924393 1.0074086 -0.011195172 0.335391
000120 f8 5c 05 be 3a 32 57 3e 69 89 04 3f fa 6b de 3d
       -0.13023746 0.21015254 0.5177217 0.10860439
000130 01 f8 7d be e5 12 27 be 99 4d 08 bc 48 d0 a0 3e
       -0.24801637 -0.16315801 -0.008319282 0.31408906
000140 fb 72 3e be 18 87 97 be 2a 10 6b bd 8c 86 31 bd
       -0.18598549 -0.29595256 -0.057388462 -0.043341205
000150 9d a3 50 3e 77 0c f3 3d 7d b8 e2 bd 53 73 90 bd
       0.20374914 0.11867612 -0.110703446 -0.07053246
000160 b5 83 27 3e e8 04 e3 bd 61 45 ea be bf 66 5d bd
       0.16358836 -0.1108492 -0.45756057 -0.054053064
000170 90 56 5b be 35 b7 66 3e 37 20 9a be 95 23 ba 3e
       -0.2141974 0.22530825 -0.30102703 0.36355272
000180 ab 3e 7c 3e 72 59 a1 be d0 b6 5e bf 65 8e 36 bd
       0.24633281 -0.31513554 -0.869977 -0.04456939
000190 0d f5 8c be 3c 38 0c be f6 8a c7 be ff c2 0f be
       -0.2753071 -0.13693327 -0.38973206 -0.14039229
0001a0 ff ed 5f 3e 6d a2 12 3e 8c f4 c8 be 1e 63 df bd
       0.21868132 0.14319773 -0.39249074 -0.10907577
0001b0 2d 90 49 bd 2d 2e 0e 3e 22 7a 82 be d0 8c ce bd
       -0.049209762 0.13884802 -0.25483805 -0.100854516
0001c0 06 fc b6 3d 07 dd 2f 3e ec 54 f6 be 5f f7 02 be
       0.089347884 0.17174159 -0.48111665 -0.12789677
0001d0 9f ca de be 82 15 23 be a1 1e 7e be 9c cb 25 3e
       -0.43513963 -0.15926173 -0.24816372 0.16190952
0001e0 d1 f4 4b 3f d2 85 2e 3d 25 ea 9f bd ac c3 c3 bc
       0.79670435 0.04260809 -0.078083314 -0.023897015
0001f0 a4 fd fe 3e 9a 02 db 3e bc 0c 6e be 99 26 83 3c
       0.49802887 0.42775422 -0.23247045 0.016009616
000200 0a 42 de 3d 09 45 e0 be bb e1 d4 be b5 39 c4 3d
       0.1085244 -0.4380267 -0.4157847 0.09581319
000210 25 f9 b0 3d 9e ab cb be 91 f1 e4 3d bf af c0 be
       0.086412705 -0.3977937 0.11178888 -0.37634084
000220 b9 e9 03 3e c7 a1 13 be 20 03 14 3e f3 38 39 be
       0.12882127 -0.14417182 0.14454317 -0.1808813
000230 73 4b 08 bf 12 53 13 bf 2b 18 f1 bd 78 bd 28 3c
       -0.53240126 -0.5754863 -0.11772188 0.010299079

player_tree_1.W.bias f4 [12]
000000 58 62 60 bd 7b 90 b4 bc d7 be bc bc d2 46 93 bd
       -0.054781288 -0.02204155 -0.023040218 -0.07191242
000010 19 dc 9b bd 17 41 51 3d f0 ef 37 3c 80 a8 1b bd
       -0.0761034 0.051087465 0.011226639 -0.03800249
000020 bb e4 b1 bd b6 e4 22 bd 63 da 42 bd 21 61 bb bc
       -0.08686205 -0.039768897 -0.04757155 -0.022873463

player_tree_1.W_self.weight f4 [12, 12]
000000 0d b3 92 bb 9f 3b 21 3f 45 8b fc 3d 63 bc bc be
       -0.004476911 0.629816 0.12331251 -0.36862478
000010 53 07 e6 3c f8 76 e0 bd 79 5e 5d 3e fc a4 1d 39
       0.028079664 -0.109601915 0.2161807 0.00015034148
000020 e9 3a 03 3f 9b 07 e2 bc 92 ff b5 be 89 2b 13 be
       0.51261765 -0.027591517 -0.35546547 -0.14372076
000030 8b 85 02 be 9a 59 e1 3e a3 95 f8 3d 45 95 99 be
       -0.12746255 0.44013673 0.12137916 -0.29996696
000040 6a 11 f1 3d 94 14 52 be d3 50 ae 3e 9f 10 a4 3d
       0.117708996 -0.20515662 0.3404604 0.08010983
000050 03 2e 56 3d fc 9d 2d 3f 61 f1 46 3e 63 af cc 3d
       0.052289974 0.6781919 0.19428016 0.0999439
000060 ca 75 64 bd 21 47 df 3e 0e 88 45 bd a5 d9 3e 3e
       -0.055776395 0.43608955 -0.048225455 0.18637712
000070 b3 80 fe 3d 77 38 57 3d a8 94 24 bc f8 b3 dc be
       0.12426891 0.052544083 -0.010045208 -0.43106055
000080 89 98 0d bf f3 e5 b3 3e 23 30 72 3e bf 31 24 3e
       -0.55310875 0.35136375 0.23651175 0.16034602
000090 f8 d6 03 bf 91 da 20 3e 67 4f bd 3e 20 04 04 bf
       -0.5149989 0.15708376 0.36974642 -0.51568794
0000a0 63 8d a6 3e f4 80 e9 3d e8 ca 90 3d 96 56 5f bf
       0.32529745 0.11401549 0.07069951 -0.87241495
0000b0 4a 0a c6 3d f0 2b fa bd e3 c9 b3 3d 19 21 05 3d
       0.09669931 -0.12215412 0.08778741 0.032502268
0000c0 b9 0d 13 be 38 80 51 be 70 e7 81 3e ae 21 85 bd
       -0.14360704 -0.20459068 0.25371885 -0.065005645
0000d0 aa 7e 6c 3e 21 06 5a 3e e3 0a 23 3e c6 c9 a7 be
       0.23095194 0.212914 0.15922122 -0.32771128
0000e0 ae c6 b4 3d 14 15 52 be 4d 10 d5 be 2a 55 40 bd
       0.08826958 -0.20515853 -0.41614 -0.04695622
0000f0 ea 0f fc bc 06 45 14 3f 25 31 41 3e 3d cf bb 3e
       -0.030769307 0.5791782 0.18866403 0.36681548
000100 7a 1b 5b be 8e 15 83 3e 11 9a 08 bd 70 e4 7c 3d
       -0.213972 0.25602382 -0.033350054 0.061741292
000110 b9 5d a7 be 06 a2 38 be 50 77 be 3e 79 24 47 be
       -0.32688692 -0.18030557 0.37200403 -0.19447507
000120 0f 95 2d 3e 25 84 48 3e e7 74 10 3f c0 37 03 3f
       0.16951393 0.19581659 0.5642838 0.5125694
000130 31 2f ea 3d 77 74 cf 3e cf 22 04 be 08 41 1a bf
       0.11434782 0.40518543 -0.12903903 -0.6025548
000140 c0 c5 7b 3d cc 7a 91 3d dc e6 19 bf fa fd e5 bd
       0.061467886 0.071035 -0.6011789 -0.11230083
000150 f1 09 f5 bc 0b d2 cb 3d 9c 69 44 3e dd 6b 84 3e
       -0.029911967 0.09952172 0.19180912 0.25863543
000160 2b 1f 9d be 31 6f 06 3f 72 63 0c bf ec 30 87 3d
       -0.30687842 0.52513415 -0.5483924 0.06601128
000170 71 0f c9 3d ca 2f 80 3e aa ff a6 3d 32 9e 83 3e
       0.09817398 0.2503646 0.08154233 0.2570663
000180 ca 12 ba 3e d3 93 f4 be 2c 99 3c bf bb 14 b1 3e
       0.3634246 -0.4776903 -0.7367122 0.3458613
000190 9f 56 de 3e e9 bb be be 16 2a b9 bd 8b 57 8d 3e
       0.43425462 -0.3725274 -0.090412304 0.27605852
0001a0 2e 5d 22 be 67 0a 04 3f 5d 3f a4 3e f3 d8 66 bd
       -0.15855858 0.5157837 0.32079592 -0.056359243
0001b0 01 8f de be ff ea 3e be 7d c4 d1 3d 44 4a df 3e
       -0.43468478 -0.18644331 0.10242555 0.43611348
0001c0 49 b8 22 3e c3 f3 b1 3e a7 08 ef 3e 8e 7f 09 3e
       0.15890612 0.34756288 0.4668629 0.13427565
0001d0 65 18 80 3e eb bb 88 3d 97 69 77 be 38 15 b4 be
       0.25018612 0.066764675 -0.24161373 -0.3517244
0001e0 b5 5f 63 3e 68 3c 57 bd 5e 6b 87 3e d1 74 75 3c
       0.22204478 -0.052547842 0.26449102 0.0149814645
0001f0 8d 3c dd be fe ab d3 3e ae 8d 76 bd ff 18 76 38
       -0.4321026 0.41342157 -0.06019371 5.867425e-05
000200 60 59 7d be 9e 4d b9 3e 13 5d b7 3d ad 22 65 be
       -0.24741125 0.3619203 0.089532994 -0.22376509
000210 ff ef cb 3d e9 ca fd 3e 9d f5 c6 be ba ad 9a 3e
       0.09957885 0.4956887 -0.38859263 0.30210668
000220 10 b1 9e be 05 8d ea 3e 50 c9 a5 be 62 1c f9 bd
       -0.30994463 0.45810714 -0.32380152 -0.12163617
000230 d5 32 74 3e 22 f1 cc bd 14 f0 1f be f2 4d 08 bf
       0.23847516 -0.1000693 -0.15618926 -0.53243935

player_tree_1.W_self.bias f4 [12]
000000 58 62 60 bd 7b 90 b4 bc d7 be bc bc d2 46 93 bd
       -0.054781288 -0.02204155 -0.023040218 -0.07191242
000010 19 dc 9b bd 17 41 51 3d f0 ef 37 3c 80 a8 1b bd
       -0.0761034 0.051087465 0.011226639 -0.03800249
000020 bb e4 b1 bd b6 e4 22 bd 63 da 42 bd 21 61 bb bc
       -0.08686205 -0.039768897 -0.04757155 -0.022873463

player_tree_2.W.weight f4 [12, 12]
000000 2d 84 8d 3e f2 98 8b be 24 55 40 bf ed 4c 90 bc
       0.27639905 -0.27265126 -0.75129914 -0.017614806
000010 22 7b b2 bd 8f ca bf be 67 7f 9d 3e 6c 5c 84 3d
       -0.08714892 -0.37459227 0.30761263 0.064629406
000020 85 ad ab 3e e0 d2 33 be b2 cc 52 be b5 39 3b bf
       0.33530822 -0.17560911 -0.20585898 -0.7313493
000030 27 9e 10 bf f9 c7 b3 be d1 ed 1b bd 49 08 c9 3e
       -0.5649132 -0.35113505 -0.038068596 0.39264134
000040 ac f5 83 3e 5f 84 36 3e 68 e9 85 3e 97 84 bd 3d
       0.2577337 0.17823933 0.26154637 0.09253805
000050 84 63 04 bf fb 23 13 3e 35 9b da be 7d 67 f4 bc
       -0.5171435 0.14369194 -0.4269654 -0.029834503
000060 93 09 5b 3f 09 64 bb be 35 f3 0d 3f cd d4 a5 bd
       0.85561484 -0.36599758 0.5544923 -0.08097229
000070 af 6e c1 3e 13 5b e2 bd d2 66 cd be 3e 5e 38 be
       0.37779757 -0.11052527 -0.40117508 -0.180047
000080 fd 79 28 be 70 39 94 3e 84 e9 2d bf c6 72 c2 be
       -0.16452785 0.2895007 -0.6793444 -0.3797819
000090 39 00 c0 bd 96 e0 5f be 65 3c 3e bd 31 db c1 be
       -0.093750425 -0.21863016 -0.046444315 -0.37862542
0000a0 da fa 5b 3e 16 95 e5 bd 36 f2 18 bc ef 61 8e be
       0.21482411 -0.112100765 -0.009335091 -0.27809092
0000b0 03 0b 10 3d d4 c9 95 bd e0 a2 31 be 7b 9a 18 3d
       0.03516675 -0.07313886 -0.17347288 0.0372567
0000c0 1f bf 10 be d0 22 c5 bd 5c 77 fa be 25 c2 bf be
       -0.14135407 -0.096257806 -0.4891919 -0.37452808
0000d0 63 74 7c bd 46 74 b1 bd 03 28 88 3d 89 c1 44 3e
       -0.061634433 -0.086647555 0.06648257 0.19214453
0000e0 9d 97 42 3d 89 06 7e 3d ab db ec 3d 46 6d 10 3e
       0.04750787 0.06201795 0.11565336 0.14104185
0000f0 51 9b 96 3e ef e0 7a 3e 5d a6 8e 3e d9 fa 62 3d
       0.29415372 0.24499868 0.278613 0.05541501
000100 14 ba 90 3d 90 12 c0 bb 60 f1 da bd 49 d7 32 be
       0.070667416 -0.005861588 -0.1069057 -0.17464937
000110 63 2d f1 3e ca 0f 18 bd 97 ba 1a bf 05 8b 7c be
       0.4710494 -0.037124433 -0.60440964 -0.24662407
000120 a7 7b 19 be 18 02 60 be 33 a1 11 bf b8 68 c0 3e
       -0.14988576 -0.21875799 -0.56886595 0.37579894
000130 1c 89 c1 bc 2c 0c 30 3e d8 35 b2 3d 53 b7 37 3e
       -0.02362495 0.17192143 0.08701676 0.17941026
000140 a1 66 78 3d 5d 45 98 bd df 49 01 bf a2 71 63 3d
       0.06064475 -0.07435105 -0.50503343 0.05552829
000150 d9 de a7 3e 4c 73 81 be 1a 56 dc bd 5f b2 7f 3d
       0.32787207 -0.25283277 -0.1075861 0.062425967
000160 15 6f 96 3e 31 42 45 be 7e 4a 77 3e 64 53 c5 be
       0.29381624 -0.19263531 0.2414951 -0.38540184
000170 86 3f c9 3e 9f 92 26 be 2c 39 b3 3b 06 e8 3f bf
       0.39306277 -0.16266869 0.005469462 -0.74963415
000180 a9 1a 0c bf 43 26 9b bd c4 c5 c3 3d 01 41 80 3e
       -0.5472818 -0.07575657 0.09559205 0.25049594
000190 3a 64 0d 3f 6b b6 87 3e 71 ac 99 3e 8b 29 9d 3d
       0.5523106 0.2650636 0.30014375 0.07673939
0001a0 a3 5b 25 3e ce e9 80 bd 5d 68 d2 bd a9 18 c2 bd
       0.16148238 -0.06294595 -0.10273812 -0.0947736
0001b0 84 81 fc be 12 af bb 3e 5c 2d 3c be d9 6a 58 3e
       -0.49317563 0.36657006 -0.18376678 0.21134509
0001c0 33 65 90 3e 93 9d 14 bf 6b 54 12 bf 2e fe eb bd
       0.2820221 -0.5805294 -0.5716006 -0.1152309
0001d0 f4 e5 a2 bd f1 03 bf 3e 62 6d 82 3b 4f 3d ea 3e
       -0.07954016 0.37307695 0.0039803246 0.457499
0001e0 31 65 49 be 28 29 91 3d 3c b5 50 be e5 e6 43 be
       -0.19667508 0.07087928 -0.20381635 -0.19131048
0001f0 48 b7 b7 be 6c 21 94 be b1 2e 21 bf 72 8b 46 3d
       -0.3588202 -0.2893175 -0.6296187 0.04847283
000200 3c 6a 4f bb b3 fe 58 be 79 43 6d be 88 6c 83 3d
       -0.0031649014 -0.2119091 -0.2317027 0.06417185
000210 22 38 30 3e 2a c2 4e 3e 11 0c 8a be af 6d 1c be
       0.17208913 0.20191255 -0.2696233 -0.15276216
000220 1e 86 bd be 63 b8 be be c9 15 14 3e dd 5b ce 3e
       -0.37016386 -0.3725005 0.14461435 0.4030446
000230 60 93 75 3e 14 85 97 bd c3 2a ad be a9 61 72 3b
       0.23982 -0.073984295 -0.33821687 0.003698448

player_tree_2.W.bias f4 [12]
000000 14 34 5c bb 90 69 8c bd d6 60 16 bd e2 a2 3b bd
       -0.0033600377 -0.06856072 -0.036713444 -0.045809634
000010 a7 c6 9c bd 70 d6 97 3d dc 80 91 bd 3f d1 6c bd
       -0.076550774 0.074139476 -0.07104656 -0.05781674
000020 a2 69 93 bd a1 da fd bc 0e d1 9b bd dc 11 54 bc
       -0.07197882 -0.03098804 -0.076082334 -0.012943711

player_tree_2.W_self.weight f4 [12, 12]
000000 8b e9 46 3e fe e3 97 be 9c 2c 54 3e a2 f5 00 3f
       0.19425027 -0.29666132 0.20720142 0.50374806
000010 73 7a 04 bf b9 7b 5e bf 74 6d ad 3b 3a 30 f9 bd
       -0.5174934 -0.86907536 0.005292589 -0.121674016
000020 47 e1 ab bd c2 b1 fa be 4a 20 a2 3e 47 91 4a 3e
       -0.083925776 -0.48963743 0.3166526 0.19781981
000030 b6 8f c0 3e 2e ee 01 be e6 5d 3e be 55 05 b0 bc
       0.37609643 -0.12688515 -0.18590507 -0.021486918
000040 82 5a 15 be 94 05 ef be a4 36 ab be fe 4c 19 be
       -0.14585307 -0.46683943 -0.33440125 -0.14970776
000050 4c 18 25 3f 1c 58 6d 3e 43 0f 5a 3d 5f b7 ec bc
       0.644902 0.23178142 0.05323721 -0.028896032
000060 46 6e 0a be 4a fb 70 be 87 e3 7d be c2 9f c4 be
       -0.13518628 -0.23533359 -0.24793826 -0.38403136
000070 27 e2 83 3e 97 7a b2 be e2 2b c2 be 9d c5 5d 3e
       0.25758478 -0.34859154 -0.37924105 0.21657415
000080 e2 f8 4e bd 9c f3 ee bc 73 83 48 be 7c 13 4c bc
       -0.050530322 -0.029168896 -0.19581394 -0.012455817
000090 d6 0e 15 be 91 97 ee bc 81 0a 87 bf 9a e1 ee 3d
       -0.1455644 -0.029125007 -1.055008 0.11664124
0000a0 a8 cc 63 3e 08 27 a3 be e5 05 27 3f a9 38 b3 be
       0.22246039 -0.31865716 0.6524337 -0.35004166
0000b0 65 56 3c 3d ee b5 aa bd 90 ae 8c bd 56 10 3a be
       0.04598083 -0.083354816 -0.06869233 -0.18170294
0000c0 20 79 00 bf 12 16 eb bd e9 33 b5 be ef fc 4b 3e
       -0.5018482 -0.11478819 -0.35391167 0.19920705
0000d0 93 55 8c 3e c9 d0 4b be b5 65 fd bd 6e da d1 3d
       0.27409038 -0.19903864 -0.12372915 0.1024674
0000e0 be e0 7f 3d 98 1c 90 3e 51 44 83 be 66 de 76 3e
       0.06247019 0.28146815 -0.2563806 0.24108276
0000f0 52 01 00 bf fb 53 3e bd 30 0c 1f be 5f 54 11 bf
       -0.50002015 -0.04646681 -0.15531993 -0.56769365
000100 d7 b4 ae be 74 83 ec 3e a1 b1 ae be d9 fb 74 be
       -0.34122345 0.4619404 -0.34119895 -0.23924197
000110 21 31 92 3e 45 ae 08 be df a3 2c be e0 49 f2 be
       0.28553107 -0.13347729 -0.16859387 -0.47321987
000120 7d 21 d8 3e 1d 16 5c bc 20 bf 49 3e 54 79 af 3d
       0.4221305 -0.013433007 0.19701815 0.085680634
000130 f3 14 9b 3e d4 3b e6 3e 12 ca ca 3e 7a d2 11 bf
       0.3028942 0.4496752 0.39607292 -0.56961787
000140 e0 82 0e be 7d 61 65 3e 12 ba 51 bd 9a 50 7e be
       -0.13917112 0.2240047 -0.05120284 -0.24835435
000150 42 89 11 3f 0c 24 f2 bd a4 87 02 3f a6 c5 81 bd
       0.56850064 -0.11823282 0.5098822 -0.063365266
000160 66 00 16 be 4f 77 80 bc 1b 7d 73 be 72 8f 89 3e
       -0.1464859 -0.01568189 -0.23778193 0.26867253
000170 4c f6 a8 3e 6d 13 58 be d0 d3 be 3e 2b 15 85 3d
       0.3300041 -0.2110116 0.37270975 0.06498178
000180 08 b4 6d 3e 7d 66 d1 3e be 0f 60 be 91 69 81 be
       0.23213208 0.40898505 -0.21881005 -0.25275853
000190 35 55 07 be ad c7 ea be 4a e2 2a bf f0 0f 24 be
       -0.13216098 -0.45855466 -0.6675154 -0.16021705
0001a0 58 06 ee bd 19 cc 78 be 88 8f 33 3e 68 dd 9b be
       -0.11622304 -0.24296607 0.17535222 -0.30442357
0001b0 71 75 a2 3e b5 1a 08 3f 81 6e bc 3e ff f1 eb bd
       0.31730226 0.5316575 0.36803058 -0.115207665
0001c0 d1 64 20 3f 31 20 e8 3e a5 6a ec 3e ea 39 c7 3e
       0.62653834 0.4533706 0.46175113 0.38911372
0001d0 8c 73 3d 3e 7c 14 e3 3e 18 ad db 3e 12 03 14 3f
       0.18501109 0.44351566 0.42905498 0.57817185
0001e0 c7 88 02 3f d3 48 a8 3d a5 9e 8f be 75 66 db be
       0.50989956 0.08217015 -0.28050724 -0.42851606
0001f0 b4 77 ef 3e f7 59 93 be 91 90 ec 3e c5 19 68 bd
       0.46771014 -0.28779575 0.46204045 -0.0566652
000200 95 c5 00 3e 5e 29 c3 bd 40 ad 84 be 67 72 98 be
       0.12575372 -0.095293745 -0.2591343 -0.29774782
000210 d7 95 f5 3c 4e 9d ec 3d 4e 48 b8 3c 8b e7 2b bd
       0.029978676 0.11553441 0.022495415 -0.041968863
000220 2e eb 25 bd c4 3c 0a be 34 b8 e9 bd bb f4 e9 be
       -0.040507488 -0.13499743 -0.11412087 -0.45694527
000230 91 15 35 bd 06 79 43 bd ec e3 08 be af 11 a1 3e
       -0.04421002 -0.04772284 -0.13368195 0.31458804

player_tree_2.W_self.bias f4 [12]
000000 14 34 5c bb 90 69 8c bd d6 60 16 bd e2 a2 3b bd
       -0.0033600377 -0.06856072 -0.036713444 -0.045809634
000010 a7 c6 9c bd 70 d6 97 3d dc 80 91 bd 3f d1 6c bd
       -0.076550774 0.074139476 -0.07104656 -0.05781674
000020 a2 69 93 bd a1 da fd bc 0e d1 9b bd dc 11 54 bc
       -0.07197882 -0.03098804 -0.076082334 -0.012943711

player_tree_3.W.weight f4 [12, 12]
000000 23 9f b9 be 26 07 35 be 0f 2f 7d 3b 76 de 15 bf
       -0.36254224 -0.17678508 0.0038632785 -0.58542573
000010 a6 93 df 3e 74 38 3c 3c 50 91 9b bd 3b d3 f3 3e
       0.43667334 0.011488069 -0.075960755 0.47622094
000020 0e e6 51 3e 97 a4 d6 bc e8 72 94 be 3b 1e 31 3d
       0.20497915 -0.02620153 -0.28993917 0.04324172
000030 fe 0d e6 be fa 65 c3 be db af 3e bf be 24 28 3d
       -0.4493255 -0.3816374 -0.74487084 0.041050665
000040 65 c6 5c 3e 51 32 b8 3e 01 d0 52 be 03 1f 87 3e
       0.21560057 0.35975888 -0.2058716 0.26390848
000050 32 19 11 3e bd d3 82 3e 87 d9 6b be dd fe a5 be
       0.14169767 0.25552168 -0.23032199 -0.32421008
000060 c4 e3 a8 be a3 08 e0 3e 47 89 8f bd 5e 57 28 3d
       -0.3298627 0.4375659 -0.070086055 0.041098945
000070 5e 5c 34 3e 06 9e aa be 8b fe 8f be 3b 0f 8b be
       0.1761336 -0.33323687 -0.28123888 -0.27160057
000080 51 25 0a be 0b 25 da 3d 9b 02 02 3f c5 b6 2b 3d
       -0.13490798 0.10651597 0.50785226 0.04192235
000090 a7 98 10 be 75 70 77 3e 31 c6 d3 be 43 1e ee 3e
       -0.14120732 0.24163993 -0.41362146 0.46507463
0000a0 c5 c4 0c be 99 5a c4 be a9 12 5e be 9f e4 b5 bd
       -0.13746937 -0.3835037 -0.21686806 -0.08881497
0000b0 b2 7b c6 bd ca 9f 0e be 86 10 39 be 38 cf 02 bf
       -0.09691562 -0.13928142 -0.1807271 -0.5109744
0000c0 09 c5 3a 3e 44 14 b2 3e cd bb 82 be 80 64 3a bf
       0.18239225 0.34781086 -0.25533906 -0.728096
0000d0 eb 6d 8d 3e 24 c3 1e 3e 9d d9 12 3e 9a 0c 52 bc
       0.27622923 0.15504128 0.14340825 -0.012820387
0000e0 26 18 8a 3d d5 3c 2e be 69 be 04 3f a6 30 9e 3d
       0.06742887 -0.17015393 0.5185304 0.07724123
0000f0 4c 6c d9 3d ff e9 9e 3d e3 71 c6 3e 83 68 33 3e
       0.10616359 0.07759475 0.38758764 0.17520337
000100 32 1c 0f 3f f1 94 08 3e e1 b7 28 3f 58 43 f1 be
       0.559024 0.13338067 0.65905577 -0.47121692
000110 ec 19 e4 3d 1f 77 89 3d 4e 83 25 be 8c 51 89 3e
       0.11137757 0.06712174 -0.1616337 0.26820028
000120 54 83 de bd 92 00 04 bd 79 37 93 be ef d9 6a be
       -0.108648926 -0.032227106 -0.2875326 -0.22934698
000130 d5 7f e8 bd 80 64 9f 3e ed 60 04 be c9 0f 40 3d
       -0.11352507 0.31131363 -0.12927599 0.046890054
000140 27 61 14 be 38 3d 10 3e a0 fb 01 3e 7d da 9b 3e
       -0.14490186 0.14085853 0.12693644 0.3044013
000150 b6 b1 19 3f 32 0a ac 3e d7 e9 39 3f f1 07 27 bf
       0.6003679 0.33601528 0.72622436 -0.6524649
000160 06 c1 01 be 52 6a 55 be b6 31 93 3d 96 84 c7 be
       -0.12671289 -0.20841339 0.07187216 -0.38968343
000170 f3 02 cd be 83 f8 cb 3e 2b 08 d7 bb 64 0a c0 3e
       -0.40041313 0.39838037 -0.006562253 0.37507927
000180 24 80 96 be 62 26 f0 be 37 59 47 3e 3a fd 62 bd
       -0.2939464 -0.46904284 0.19467627 -0.055417277
000190 54 21 7c 3d a5 e6 a7 3c cd 25 57 3e e4 9f a7 be
       0.06155522 0.020495722 0.21010514 -0.32739174
0001a0 57 6d 56 3e 64 dd 9f 3d 3e b0 21 be 81 20 1b 3f
       0.20940147 0.07805899 -0.15789887 0.6059647
0001b0 6e 80 97 3d 51 e9 bb be bd eb 5a be 9d 38 75 3d
       0.07397543 -0.36701444 -0.2137899 0.059868444
0001c0 d1 39 32 3e 6c 36 85 be 2c d8 0c 3d 8f 10 d0 3e
       0.17404868 -0.26018083 0.034385845 0.40637633
0001d0 66 4e 04 be 64 50 ae be ed 4a c2 3e e7 8d 8e bb
       -0.12920532 -0.34045708 0.3794779 -0.004350412
0001e0 e4 53 a3 3e 51 ec 1b bf 35 85 d2 3d 9e 50 cf 3d
       0.3189994 -0.60907465 0.102793135 0.101227984
0001f0 51 26 3e be 37 b0 ae 3d be 46 41 be 26 71 b9 3e
       -0.18569304 0.08529704 -0.18874642 0.36219138
000200 95 05 d3 bc f7 e5 c2 be f9 84 93 bd f4 27 87 be
       -0.025759498 -0.38066074 -0.07203097 -0.2639767
000210 3b 16 fb bd 0c 49 a3 3d d0 f9 18 3e 6e 49 ca 3e
       -0.122600995 0.07972917 0.14939046 0.39509147
000220 86 d5 21 3d 09 a9 f8 bc 01 b3 bc bc 47 9c 4a bd
       0.039510272 -0.03035404 -0.023034574 -0.049465444
000230 3a 42 29 be ec 0d e8 be 20 95 18 be 05 c1 77 3e
       -0.1652917 -0.45323122 -0.14900637 0.24194725

player_tree_3.W.bias f4 [12]
000000 48 12 d1 3d 1e 01 aa 3d 83 cb a3 bd c0 14 39 bd
       0.10208565 0.08300994 -0.07997801 -0.045185804
000010 ae a9 f3 bc 32 cf f8 bd 39 6e aa bd 5e 75 77 3d
       -0.029743996 -0.12148894 -0.083218046 0.060414664
000020 13 df 93 bd 51 1b 1e bd 54 25 15 bb c9 4a 55 bc
       -0.072202824 -0.03860027 -0.0022757845 -0.013018318

player_tree_3.W_self.weight f4 [12, 12]
000000 96 ff f4 3d 4a 4f 3c be f6 90 31 3f ff 2a 31 bf
       0.11962812 -0.18389621 0.6936182 -0.6920623
000010 6d 6a fd be 2e 5f b2 bd 6f 08 8d 3e 34 b6 8c be
       -0.4949526 -0.0870956 0.27545497 -0.2748276
000020 81 51 6e 3d c0 f8 02 3d c6 f3 b1 3e 27 17 8e be
       0.058183197 0.031975508 0.34756297 -0.2775204
000030 bd 58 32 bd 6c 70 af 3e 86 70 ac be 30 20 94 3e
       -0.04354166 0.3426546 -0.336796 0.28930807
000040 1a 44 31 be dc 17 b0 3e 90 82 4a 3c ab ec a8 3b
       -0.17311135 0.34393203 0.01236023 0.005155166
000050 cd 7b 4f 3f bf 67 f3 bc 7b 7b d5 be 27 3c 11 bd
       0.8104828 -0.029712556 -0.4169577 -0.035457756
000060 24 63 69 bb 51 cb 99 bc 10 05 46 be 21 14 15 be
       -0.003561207 -0.018773707 -0.19337869 -0.1455846
000070 19 de f8 be ff ef 0c be 01 82 bd be c1 40 ff be
       -0.48606947 -0.13763426 -0.37013248 -0.4985409
000080 2f 16 0f bf b0 7f 98 3e 32 cb a0 be f3 d1 40 3e
       -0.55893224 0.29784918 -0.31405026 0.1883009
000090 70 a3 05 be 4a 03 90 3e 03 60 eb 3d f3 ec 5e 3e
       -0.13050628 0.2812751 0.11492922 0.21770076
0000a0 4e b7 15 bf a0 4e 86 be 19 ac b8 3c 5a 91 d8 be
       -0.58482826 -0.2623186 0.022543 -0.42298394
0000b0 3e ad 1b be fa 3e f7 be cd b7 53 3e 62 29 8c 3e
       -0.15202805 -0.48290235 0.20675583 0.27375323
0000c0 d2 3f e9 be 38 0f df 3e 7d 32 81 be 82 09 f3 be
       -0.45556504 0.43566298 -0.25233832 -0.4746819
0000d0 db 8b 85 bd 65 b0 f7 bc 37 35 97 bc 66 ac 8e bd
       -0.06520816 -0.030235479 -0.018457992 -0.06966476
0000e0 af 1b 89 be ee e3 1e be f1 64 b5 bd 38 a8 d0 3d
       -0.26778933 -0.15516636 -0.08857144 0.10188335
0000f0 4c f2 a0 3e 51 e9 a6 3b 44 87 f7 bd c7 24 e1 3e
       0.31434858 0.0050937315 -0.12086347 0.4397337
000100 52 97 f1 3e b9 44 79 3d 5d d6 8a 3e 77 2b f9 3d
       0.4718576 0.060856555 0.2711667 0.121664934
000110 be 79 c0 3e b2 bc ed 3d 45 2e 6d 3d 2a 3c 22 bf
       0.37592882 0.116082564 0.057905454 -0.63373053
000120 db 35 fb 3e e1 8a 56 be 16 89 90 3e 95 b1 3e bc
       0.49064526 -0.20951416 0.28229588 -0.011639019
000130 b2 e3 96 3e 38 66 a4 be ba 72 ef 3e 5d 70 76 3d
       0.29470593 -0.32109237 0.46767217 0.06016575
000140 73 1e 0d bd 85 6b 39 3f e4 5a e4 3e d6 00 e5 3e
       -0.034452867 0.72429687 0.44600594 0.447272
000150 80 92 56 3e 23 73 91 3e 9c 0b d5 3e 7e a3 6c 3d
       0.20954323 0.28408155 0.4161042 0.057773106
000160 ed 58 1b 3f 00 b0 0b 3d ac ac d9 bd a6 d4 ef be
       0.60682565 0.034103394 -0.10628638 -0.46841925
000170 09 f8 aa 3e 54 cc 92 be 90 d4 d9 3e bf 65 f8 ba
       0.3339236 -0.28671515 0.42544985 -0.0018951221
000180 dc 20 34 3f a1 39 8b be 9e 45 27 be 5b e9 14 3e
       0.7036264 -0.27192405 -0.1633515 0.14542143
000190 6e 9c 3c bd cc a8 06 3f d6 1e 0a bd e2 0b 9d bd
       -0.04604762 0.52601314 -0.033720814 -0.07668282
0001a0 92 04 fc be 67 b1 60 3e fa 09 83 be 46 95 c1 3e
       -0.49222237 0.21942674 -0.2559355 0.378092
0001b0 91 dd 29 3e 9c c4 ec 3e 36 b4 e3 bd a9 c7 15 bf
       0.16588427 0.4624375 -0.11118357 -0.5850778
0001c0 ed 91 0e be e5 b2 bb be 5f ae 29 bf 77 cf 89 3e
       -0.13922854 -0.36659923 -0.66281694 0.26916096
0001d0 73 88 20 be 69 27 d7 3c 73 90 67 3e f8 16 d6 bc
       -0.15677051 0.02626391 0.22613697 -0.026134
0001e0 97 1a d8 be e5 e7 11 bf dd b9 75 be 6d 47 ab 3e
       -0.42207786 -0.5699447 -0.23996682 0.3345293
0001f0 2f 8d 45 be 6a 14 25 be a6 3e 07 3e a4 99 9a be
       -0.19292139 -0.16121069 0.13207492 -0.30195343
000200 57 d9 58 3e fa 66 be 3e 2f 88 cc be 7c 11 bf be
       0.21176659 0.3718794 -0.3994765 -0.37318027
000210 54 43 d7 be 04 4d ed bd 84 15 47 3e ef c8 f0 bb
       -0.42043555 -0.11586955 0.19441801 -0.007348172
000220 5e a8 c2 3d 76 dd 03 bf d0 31 3a 3e 0a 33 b7 3e
       0.0950477 -0.515098 0.18183064 0.35781127
000230 3c 16 30 3d bc fd 9a 3e ed 45 90 3e 98 25 ef 3d
       0.042989954 0.3027171 0.2817835 0.11677092

player_tree_3.W_self.bias f4 [12]
000000 48 12 d1 3d 1e 01 aa 3d 83 cb a3 bd c0 14 39 bd
       0.10208565 0.08300994 -0.07997801 -0.045185804
000010 ae a9 f3 bc 32 cf f8 bd 39 6e aa bd 5e 75 77 3d
       -0.029743996 -0.12148894 -0.083218046 0.060414664
000020 13 df 93 bd 51 1b 1e bd 54 25 15 bb c9 4a 55 bc
       -0.072202824 -0.03860027 -0.0022757845 -0.013018318

player_tree_4.weight f4 [8, 12]
000000 33 ae a4 be 1a de 1f bf ef 83 ef 3e a0 43 aa 3b
       -0.32164153 -0.62448275 0.46780345 0.00519605
000010 1e 44 ba be 43 00 2a be 08 e7 06 be 8c bf 2f 3f
       -0.36380094 -0.16601662 -0.13174069 0.6865165
000020 b8 30 b4 bd a9 e6 b4 be fc 0a cc 3d e5 43 f2 be
       -0.08798355 -0.3533223 0.099630326 -0.47317424
000030 bc 3a 47 be a2 5a 3a be 9e 07 51 be 82 52 a1 3e
       -0.19455999 -0.18198636 -0.20413062 0.3150826
000040 27 cd d7 3d 82 c6 20 bf cf 8e 3c bf de ef 60 be
       0.105371766 -0.628029 -0.7365541 -0.21966502
000050 6c 97 4d be 85 af 75 3e 31 5d 2b be 8b dc ab bd
       -0.20077294 0.23992737 -0.16734768 -0.083916746
000060 ff 76 67 be 9e 81 b4 be 50 e6 08 3e a8 f1 94 bc
       -0.22603987 -0.3525514 0.13369107 -0.018181637
000070 60 c3 a1 3e 3e 9b 08 bf f6 62 6f be b6 44 02 bf
       0.31594372 -0.5336188 -0.23377594 -0.50886095
000080 17 58 90 3e 5f 01 0d bf a1 32 d6 3e ec a1 07 3b
       0.28192207 -0.5508022 0.41835502 0.0020695878
000090 ed c1 91 3d 9f 75 bd 3d 32 78 68 3e c9 3c fb 3d
       0.071170665 0.0925095 0.22702101 0.12267453
0000a0 e4 cc ad be 1a df cf bd f0 e4 1d 3f bc 2b c6 3e
       -0.33945382 -0.10149975 0.61677456 0.38705242
0000b0 94 af ee bd 2a 45 03 3f 99 6e 30 be ab db 19 bc
       -0.116545826 0.5127741 -0.1722969 -0.009390752
0000c0 06 2d e8 be 26 f4 8d 3e aa f0 02 be f2 6d f9 3d
       -0.4534685 0.27725333 -0.12787119 0.121791735
0000d0 e7 82 0c 3f f2 81 0c be 5e cc ca 3c 7d 6d 08 3e
       0.5488724 -0.13721445 0.024755653 0.13323016
0000e0 67 7d b2 3e aa 2d 43 3e 73 af 4e bf 94 9c c5 be
       0.348613 0.19060388 -0.80736464 -0.38596022
0000f0 8a ca ec be a0 c6 7e be 4f 38 c0 be f1 38 06 be
       -0.46248275 -0.24880457 -0.3754296 -0.13107659
000100 7f 4c c2 3e 50 17 88 be 73 00 b7 be f5 e3 82 3e
       0.37948987 -0.26580286 -0.3574253 0.25564542
000110 3b e9 b0 3d 72 5c 2e 3e 54 c0 bc 3e bb 74 22 3e
       0.08638235 0.17027453 0.36865485 0.15864842
000120 ad c2 27 be c2 a7 f6 3c 66 8d ef 3e 07 40 fd bd
       -0.16382857 0.03010929 0.46787566 -0.12365728
000130 e8 f9 ee bd f0 b4 6f bf 7b 57 19 3f aa 31 c7 3e
       -0.116687596 -0.93635464 0.5989911 0.38905078
000140 1a 59 82 3d 44 fe ab be ce 72 16 bd d3 b5 06 bc
       0.06364651 -0.33592427 -0.03673058 -0.008222061
000150 30 ec 43 3e 50 cd 22 bf c8 77 c6 bd 05 10 9e 3d
       0.19133067 -0.6359453 -0.09690815 0.07717899
000160 e8 20 fb 3e d0 ac 81 bd 33 da b0 bd 62 84 90 3d
       0.49048543 -0.063317895 -0.08635368 0.070565
000170 19 67 ca bd 36 fe 3d 3e 2b 76 3c 3e 6b 16 df 3e
       -0.098829456 0.18554005 0.18404453 0.4357179

player_tree_4.bias f4 [8]
000000 38 fc a6 3d 8f 0e 23 bc 5b 94 10 3d fc a9 07 be
       0.08153576 -0.0099522015 0.035297733 -0.13248438
000010 f3 4f 5f 3d 54 08 17 bc 8a b0 07 3e 61 66 d6 bc
       0.054519605 -0.009218294 0.13250938 -0.026171865

sun_influence_1.W.weight f4 [12, 12]
000000 5b 90 ca 3e 07 5d 55 bd 80 60 1e bd 66 59 77 3f
       0.3956326 -0.05209067 -0.03866625 0.96620786
000010 19 de 4e bd 69 be ef 3e e7 62 9c 3e 1f 30 3c 3f
       -0.050504778 0.4682496 0.30544207 0.73510927
000020 16 41 a3 be ad 31 fa 3c ad 79 7f 3d 33 de 26 3e
       -0.31885594 0.030541265 0.0623719 0.162957
000030 5d e8 73 be c4 83 c7 3e 4b cd 67 3e 83 c5 17 3d
       -0.23819108 0.38967717 0.22636907 0.037053596
000040 fc c0 51 bd 0a d8 b9 3d e6 b9 29 be 59 77 00 bd
       -0.051209435 0.09074409 -0.16574821 -0.03136382
000050 37 44 82 3e 19 56 2e bd c2 81 b8 3e e7 97 e9 3e
       0.2544267 -0.042562578 0.36036497 0.45623705
000060 d2 b2 7f be 4e 82 92 be 4c 9b 12 3e de 08 02 3e
       -0.24970558 -0.2861504 0.14317054 0.12698695
000070 10 66 09 bf 10 c4 80 3e bb 77 54 be f0 d1 53 be
       -0.5367136 0.25149584 -0.20748799 -0.20685554
000080 92 13 d6 be 8e 9b bf be fa 4c 7f be f9 8f 6b be
       -0.41811806 -0.37423366 -0.24931708 -0.2300414
000090 7a 82 95 bd c6 3b fb 3c 2d b6 2d bd 8d cc 46 3d
       -0.07300277 0.03066815 -0.042410064 0.04853492
0000a0 2a 8b 95 3e 05 bb db be ca 94 db 3e 3b ac 26 3f
       0.29207736 -0.42916122 0.42886955 0.6510655
0000b0 5f 39 46 3e 17 e5 af be 80 16 70 be 14 d0 3c 3e
       0.19357823 -0.3435447 -0.23446083 0.1843875
0000c0 e9 2d 58 3e 42 02 a2 bd 2c 2c bb 3e 9b f5 f6 be
       0.21111263 -0.07910587 0.36557138 -0.48234257
0000d0 cc d2 cb be 03 0e 42 be 1b 32 72 3e 53 78 06 be
       -0.39809263 -0.18950658 0.23651926 -0.13131838
0000e0 5d fb 33 3d b4 b4 f1 3d 28 83 27 3f 33 02 03 3f
       0.04394089 0.118020445 0.65434504 0.5117523
0000f0 39 70 21 be 5f 1f 0d 3c 3f 2a c2 3e 42 ff 8b be
       -0.15765466 0.0086134365 0.37922856 -0.27343184
000100 01 d8 c2 bd 7e aa 15 3d 03 48 35 3d 6d 96 c3 3e
       -0.09513856 0.036539547 0.04425813 0.38200703
000110 1c 2a 9a 3e b2 5b 4f 3d 0b df 4d bd 20 20 2d 3e
       0.30110252 0.050624557 -0.05026154 0.16906786
000120 91 8a 97 3e e1 b9 f7 be 13 09 e8 be 98 96 a4 be
       0.29597905 -0.48384002 -0.45319423 -0.32146144
000130 dd 60 26 3e 0d e8 07 bf 53 4d 79 3e b8 32 99 be
       0.16247888 -0.53088456 0.24345903 -0.29921508
000140 95 53 08 bf 40 79 4d bd 29 98 a7 3e 35 a2 b9 3e
       -0.53252536 -0.05016446 0.32733276 0.36256567
000150 44 2e e8 3d 27 68 93 3e 1b 4c bf 3e 36 78 d3 bd
       0.113369495 0.287904 0.3736275 -0.10325663
000160 a3 26 d8 bc 3c de 83 3e d0 be 70 be 07 9d ac be
       -0.02638561 0.2575549 -0.23510289 -0.33713552
000170 f0 f6 48 be 84 29 2a 3e e2 b1 2f be 82 92 eb be
       -0.19625449 0.166174 -0.171577 -0.46010214
000180 f0 6d 3b 3e 97 52 29 bf 85 ae b6 3e 2e cf a6 be
       0.18303657 -0.6614165 0.35680023 -0.3257994
000190 ec 59 90 3e 94 ec 20 bc 51 02 d5 be f6 7d 2b be
       0.28193605 -0.00982203 -0.4160333 -0.16747269
0001a0 18 d3 13 3e 61 1a af 3d 05 c7 ad 3e 79 14 2e 3d
       0.14435995 0.08549953 0.33940902 0.042499993
0001b0 2a 79 b3 be 12 0c b8 3e 92 8b 59 be 13 68 54 3e
       -0.35053378 0.3594671 -0.21244648 0.20742826
0001c0 97 88 3b 3d fa f6 27 be 25 37 78 be 0c 5d 50 be
       0.04578456 -0.16402808 -0.24239786 -0.20347995
0001d0 06 af 03 3f 69 ea 76 be 42 6b c0 be 88 95 15 3e
       0.5143894 -0.24112858 -0.3758183 0.14607823
0001e0 e2 f6 aa be 1f fd 31 bd a6 6b eb be 61 e2 0c 3d
       -0.33391482 -0.043454286 -0.45980567 0.03439558
0001f0 e4 4e 90 be 8b 2c ef bd 02 56 4a be c2 12 1f 3f
       -0.2818519 -0.11678418 -0.19759372 0.62138
000200 b4 26 f3 be bf 42 ed be 7a 41 d4 3e 3b a1 02 be
       -0.47490466 -0.46339986 0.41456205 -0.12756817
000210 f1 e5 4f be 15 c0 56 be 1c 24 b8 3d 87 dc 31 3e
       -0.2030256 -0.20971711 0.08991262 0.17369281
000220 85 5e cc be bb 5a 95 be 0c 40 c6 3c 17 f9 55 bf
       -0.39915863 -0.29170784 0.024200462 -0.83583206
000230 05 cf a3 bd 29 1f 7f bc e3 bc 46 3f db e2 03 3f
       -0.0799847 -0.015571394 0.7763197 0.5151803

sun_influence_1.W.bias f4 [12]
000000 be 0e 2e bd 8b d2 94 bd c5 4f a7 3d df e7 9e bd
       -0.042494528 -0.072667204 0.08169512 -0.0775907
000010 55 32 ae bc 88 1d 23 bc 1a 39 9c bd 44 98 e0 bd
       -0.021264235 -0.009955771 -0.07628079 -0.10966542
000020 bc 1c f1 bd 26 50 ad bd 1e 01 aa bc 01 82 54 3d
       -0.11773059 -0.08462553 -0.020752486 0.051881794

sun_influence_1.W_self.weight f4 [12, 12]
000000 bb d4 c6 be 4f 4f ec 3d 25 4e 0b 3f ee 60 38 bd
       -0.38834175 0.115385644 0.54416114 -0.045014314
000010 60 a1 b5 3d 1d 53 9a 3e 21 01 f0 3e 07 6f 27 bf
       0.088686705 0.30141535 0.4687586 -0.6540379
000020 58 5f cd 3e b9 6a e7 3b 85 ae 5c 3f 33 8f 1d 3f
       0.40111804 0.007062283 0.86203796 0.6154663
000030 c0 38 a9 3e 49 fe 05 bf 6e db ad be 9c 50 e0 3d
       0.3305111 -0.52341133 -0.33956474 0.10952875
000040 5a c9 f4 3e b8 da 14 3d 6a e9 48 bd b4 78 ba bc
       0.4780987 0.0363414 -0.049050726 -0.022762634
000050 18 82 06 3f be e4 83 3e 5e df 6a be 1b a2 b0 be
       0.5254226 0.25760454 -0.2293677 -0.34498677
000060 70 90 b6 be 12 ae 59 be d7 01 d8 bd 22 61 2f 3c
       -0.35657072 -0.21257809 -0.10547226 0.010704311
000070 64 61 5e be d9 6c fe be 55 29 f3 3e a5 5d 9a 3e
       -0.21716839 -0.4969242 0.4749247 0.3014957
000080 d2 6e a9 be 9d 0a 22 3f be 21 18 3f 7c 00 e9 3d
       -0.33092362 0.63297445 0.59426486 0.113770455
000090 ca 3d 90 3e 66 a3 47 3e aa a6 12 be 16 26 ad 3e
       0.2817214 0.19495925 -0.1432139 0.3381812
0000a0 5a 9c 2a be 24 c5 b0 be c7 a0 a7 be 58 92 ed 3c
       -0.16661206 -0.34525406 -0.3273985 0.029000446
0000b0 07 f9 7f be fc a7 cc be 49 59 fc be d0 62 e2 bd
       -0.2499734 -0.39971912 -0.4928687 -0.11054003
0000c0 d5 61 63 be 62 c5 29 be 7b 43 10 bf 35 4d 3d be
       -0.22205289 -0.16579202 -0.5635297 -0.18486483
0000d0 b1 b6 cf 3e 9c 1d bc bd f0 54 8b be c1 14 60 3e
       0.4056907 -0.09185335 -0.2721324 0.21882917
0000e0 00 97 2a bf 23 2b 7e be 1c 26 36 3e bf 39 75 bc
       -0.6663666 -0.24821143 0.17787975 -0.014967381
0000f0 7e 3d 64 3e c3 8e 09 3f a9 62 24 3f f5 7e 10 bf
       0.22289082 0.5373346 0.64213043 -0.5644372
000100 dc 62 ba 3d 90 82 19 3f 92 82 8a bd 54 88 9c be
       0.09100887 0.5996485 -0.067631856 -0.3057276
000110 60 4a 0f be 1e 00 82 3f 45 24 d1 be c2 d4 69 bc
       -0.13993216 1.0156286 -0.40847984 -0.014271917
000120 b7 f7 0c 3e 77 37 bb be 88 43 aa be 53 b1 01 bd
       0.1376637 -0.36565754 -0.33254647 -0.03166325
000130 76 85 b7 3e ac 1e 20 bb a4 93 0b 3f 70 ba 3d 3f
       0.3584401 -0.0024432344 0.54522157 0.74112606
000140 07 bc 87 3b ac 90 8b bd cb 4a 6a 3e 6e 1a 03 3e
       0.0041422877 -0.06814703 0.22880094 0.12803051
000150 78 07 11 3f 94 a9 5d 3e 81 ef f2 be 99 30 09 3f
       0.5665202 0.2164672 -0.47448352 0.5358978
000160 ea 23 b0 3e 09 29 86 3e 09 8e fc 3e ab 34 80 bd
       0.344024 0.26203182 0.49327114 -0.062600456
000170 05 eb d9 3e b3 00 f9 3c 19 48 b3 3e f8 d0 08 3d
       0.42562118 0.030395841 0.35015944 0.033402413
000180 49 98 01 3f 7f 1a 50 be b8 a3 f2 3e 68 cb fa 3d
       0.50622994 -0.20322607 0.47390532 0.12245828
000190 09 be b1 3c f3 8b b5 bc 30 65 20 be 8f e4 90 3e
       0.021697061 -0.02216146 -0.156636 0.28299376
0001a0 96 e3 8e be 53 f9 92 bd 51 70 9a be cd 0d 98 3d
       -0.2790801 -0.07176461 -0.30163816 0.07424507
0001b0 8e 81 f6 3e 17 d2 87 3e 5f 2b ca 3e b9 2d 19 be
       0.48145717 0.26527473 0.39486215 -0.14958848
0001c0 c9 f9 9e 3d 6c 25 48 be 17 b8 64 be 65 f9 6e be
       0.077624865 -0.19545525 -0.2233585 -0.23337324
0001d0 5d a1 1c bf 59 9d 51 be 55 2b 36 be 6b 54 e5 3e
       -0.6118372 -0.2047018 -0.17789967 0.44790968
0001e0 b8 01 ba be 4e 8a 76 be 2b 2f 06 be a0 34 19 3e
       -0.36329436 -0.24076197 -0.1310393 0.14961481
0001f0 99 be 6a be 2a 8d f5 bd c4 f9 48 be af 97 98 3e
       -0.2292427 -0.119898155 -0.19626528 0.29803225
000200 ac cf 05 bf 0f dd da be 19 01 33 be 50 93 0b bf
       -0.5227001 -0.4274678 -0.17480887 -0.54521656
000210 b0 46 12 3e 81 97 ce be 33 41 7a bd ae bf 02 bf
       0.14284778 -0.40349963 -0.061097335 -0.5107373
000220 20 ee 8a 3e 53 88 9f bd 32 d0 7a 3e 06 9f 17 3e
       0.271348 -0.07789674 0.24493483 0.14806756
000230 5a 2a f9 bc 30 47 7b be 90 66 8a be 5c 4a 99 be
       -0.030415703 -0.24538875 -0.27031374 -0.29939544

sun_influence_1.W_self.bias f4 [12]
000000 be 0e 2e bd 8b d2 94 bd c5 4f a7 3d df e7 9e bd
       -0.042494528 -0.072667204 0.08169512 -0.0775907
000010 55 32 ae bc 88 1d 23 bc 1a 39 9c bd 44 98 e0 bd
       -0.021264235 -0.009955771 -0.07628079 -0.10966542
000020 bc 1c f1 bd 26 50 ad bd 1e 01 aa bc 01 82 54 3d
       -0.11773059 -0.08462553 -0.020752486 0.051881794

sun_influence_2.W.weight f4 [12, 12]
000000 61 fa d5 bd 0f 6d c4 be f6 00 fe 3e ba 8e 7d bf
       -0.104481466 -0.38364455 0.49610108 -0.9904591
000010 de 81 8f be 15 ea 21 bf b1 4a 25 3e 59 c5 b5 3d
       -0.28028768 -0.63247806 0.16141774 0.08875532
000020 04 5d bd 3e 6c 80 77 3e 33 85 37 bf 3f 4b ca be
       0.36985028 0.24170083 -0.7168762 -0.39510533
000030 c6 4e 24 be 71 ab 07 bf d6 b8 9b 3d ae 87 dc bd
       -0.16045675 -0.52995974 0.07603614 -0.10768066
000040 34 98 2f 3d 2d ee 03 be fa c6 8f 3d 6f 98 2d 3e
       0.04286976 -0.12883826 0.07020374 0.1695268
000050 b9 5a 55 be 1e 59 42 3e da ff ca bd 49 5c 82 be
       -0.20835389 0.18979308 -0.09912081 -0.25461033
000060 68 02 c4 be 54 4a f8 bd dd ca b3 bd 83 39 3a be
       -0.38283086 -0.12123552 -0.087789275 -0.18186001
000070 f6 a7 21 3e 36 d7 25 bf 2d e5 21 be 4d a8 0c be
       0.15786728 -0.6478151 -0.1581008 -0.13736077
000080 69 e0 87 3e 39 a2 5f 3d 14 22 f0 be 95 ca bf 3e
       0.265384 0.054598067 -0.46901 0.37459245
000090 8d 82 f0 3d da a7 6d be 45 e3 b1 3e bb fc 8a 3e
       0.117436506 -0.23208562 0.34743705 0.27145943
0000a0 68 e2 f0 3e 1e f4 a2 3d 76 dd cb be 6f b6 e4 3e
       0.47047734 0.07956718 -0.398174 0.44670436
0000b0 66 ca e2 3e b4 ee 19 3b b1 9d 54 3e 54 45 e3 3e
       0.44295043 0.0023488225 0.2076328 0.4438883
0000c0 7d b5 8e be f4 16 19 bf 36 18 93 3e f8 cb 47 bf
       -0.2787284 -0.5980065 0.2872941 -0.78045607
0000d0 3b 4b b1 be 16 db 4c 3e 8c 46 c3 bc e6 5a 0a 3f
       -0.3462771 0.2000545 -0.02383735 0.5404495
0000e0 39 b2 bd 3d 8d dc f5 3d 7e d2 bf 3b 00 12 31 bd
       0.09262509 0.12004957 0.00585395 -0.043230057
0000f0 6a 32 27 3e 92 62 98 be cf 83 ba 3e c8 a5 f7 3e
       0.16327825 -0.29762703 0.36428687 0.4836867
000100 21 85 14 bf 43 a0 94 be b0 f2 f0 3d 55 b9 9b 3e
       -0.5801564 -0.2902852 0.11765039 0.30414835
000110 54 70 93 3e db 85 33 bf c9 98 e3 3e d3 de b1 be
       0.28796637 -0.7012612 0.44452503 -0.34740314
000120 51 cc 01 3f 56 e5 9b be 53 cb ba be 95 f6 bd be
       0.5070239 -0.30448407 -0.3648325 -0.3710219
000130 87 bc d8 3e 88 18 ac 3e e3 93 da 3d 4d 67 c5 3d
       0.42331335 0.33612466 0.106727384 0.09638844
000140 98 d1 c9 be 77 c6 13 3f d0 d4 9c bd f8 b4 37 3e
       -0.3941772 0.5772471 -0.07657778 0.17940128
000150 06 db 3a be 27 d5 62 be b9 81 0d 3e a1 19 e8 3e
       -0.18247613 -0.22151624 0.13819017 0.45332053
000160 fc a2 ab be e4 9f 32 be 47 96 41 bd 10 cb 05 be
       -0.33522785 -0.17443806 -0.047262456 -0.13065743
000170 1f c2 36 be 8e cc de bb 9e a3 87 3d b2 d6 2d bf
       -0.17847489 -0.006799287 0.066230044 -0.67905724
000180 d7 6d 05 bf bc 4e c7 be a9 e6 57 3e 3a 54 e4 3d
       -0.5212073 -0.38927257 0.21084084 0.111488774
000190 be c5 c7 bd 5c 2d e4 be d0 6d a1 be 20 00 a7 be
       -0.09754513 -0.44565856 -0.31529093 -0.32617283
0001a0 c1 bc 10 be fc c8 cd 3d cb 59 0d 3f 7b 6a 9b bd
       -0.14134504 0.100481 0.5521514 -0.07588669
0001b0 87 eb 32 3e ba 48 89 bd 28 c4 4f be c7 aa 11 3e
       0.17472659 -0.067033246 -0.20289671 0.14225303
0001c0 42 29 b4 3d 98 b9 bc be a7 c1 63 be 19 97 a2 3d
       0.08796932 -0.36860347 -0.22241841 0.07938976
0001d0 fe 28 9e 3e 97 14 25 bf 5b ac dd be 26 ed b7 3e
       0.3089065 -0.6448454 -0.4329556 0.35923117
0001e0 38 6d 90 3e 17 78 5d bc e4 d3 ef 3e 1c 1b 06 bf
       0.28208327 -0.013517401 0.46841347 -0.52385116
0001f0 7f 0a c2 be 15 4c 00 3e 4a e3 0a bf e3 0a 0b bf
       -0.37898633 0.12529023 -0.54253066 -0.54313487
000200 b4 0b 1c be eb 3d ae 3e 44 32 2f 3d 7a 9a 72 bd
       -0.1523884 0.34031615 0.042772546 -0.05922935
000210 49 11 44 3f 39 b4 09 be 5f 5e 9c 3c d6 02 bd 3c
       0.76588875 -0.13447656 0.019087968 0.023072641
000220 79 f4 a3 3d 28 a6 94 3e 8d e1 ec bd a9 2e f4 3d
       0.08005614 0.29033017 -0.11566458 0.11922962
000230 5f 35 02 3e e9 3d 44 3e 91 b1 8c 3e e3 33 00 3f
       0.12715672 0.19164242 0.27479222 0.5007917

sun_influence_2.W.bias f4 [12]
000000 73 ba ca 3d 52 a7 a9 bd 93 b5 bf 3d 2c 53 a1 bb
       0.098988436 -0.08283867 0.093608044 -0.004923245
000010 23 e6 3c bd 88 53 fb bd 51 75 a4 bd 19 76 b4 bd
       -0.046117913 -0.12271792 -0.08030189 -0.08811588
000020 59 4d 97 3d 73 cd 8b bd e6 90 11 be 31 63 30 bd
       0.073878 -0.06826296 -0.1421543 -0.043063346

sun_influence_2.W_self.weight f4 [12, 12]
000000 f9 62 19 3d 18 59 1f be e7 36 09 3e 81 86 ca 3c
       0.037447903 -0.1556133 0.1339985 0.02472234
000010 c3 43 a4 be 3a 21 10 bf c2 d6 a6 3e 68 ba e4 3d
       -0.32082948 -0.563007 0.32585722 0.11168367
000020 8d e9 45 bd c5 2b 7e be 27 37 60 bd 34 52 f0 3e
       -0.048318435 -0.24821384 -0.054740097 0.46937716
000030 e7 74 cf 3e 71 e8 d8 be d3 9c de 3e 3d 80 2d bf
       0.40518877 -0.4236484 0.43479022 -0.677738
000040 a1 7f 4f 3f 8e 46 d3 bd a9 80 ac 3e d9 58 c5 bd
       0.8105412 -0.103161916 0.3369191 -0.09636087
000050 28 e9 ad 3d de 79 eb 3e cc 33 e1 be 83 d3 35 3e
       0.08491737 0.45991415 -0.4398483 0.17756467
000060 6b a7 da 3e 58 c1 8f 3e 4e af 8e 3e c4 16 e9 bd
       0.42705855 0.28077197 0.27868122 -0.11381295
000070 1b 46 81 bd 7a 6b c2 3e c5 f5 d5 3e 91 df 34 3f
       -0.063122 0.37972623 0.4178907 0.70653635
000080 0e c9 84 3d 45 b3 28 3f b4 a8 3d be 1e a8 6e bd
       0.06483661 0.65898544 -0.18521386 -0.058265798
000090 3a 21 0c 3c e1 71 90 3e 8f 92 82 be bf d5 69 bc
       0.008552844 0.28211883 -0.2550244 -0.014272152
0000a0 37 0c 18 3f 46 f2 28 bf ea c2 f1 3d 2e 13 9e 3d
       0.5939364 -0.6599468 0.11804755 0.07718502
0000b0 9d e2 e7 3d 38 e1 3d be 6e bf 75 be 3d a6 92 3c
       0.1132252 -0.18542945 -0.23998806 0.017901534
0000c0 4b ca 23 bf 53 3d 60 be e5 6b 14 be 20 7b 16 be
       -0.6398055 -0.21898393 -0.14494283 -0.14695406
0000d0 a8 11 b1 3d a4 09 c9 bc b7 20 95 3d 28 74 ae 3e
       0.08645946 -0.02454073 0.072816305 0.34072995
0000e0 b3 e3 85 3e 47 d3 d6 bd 87 ee b4 be 66 db ef be
       0.26150283 -0.10489517 -0.35338232 -0.46847075
0000f0 de f8 fc bc 6a 96 ea be d8 57 49 bd dc 14 2a bd
       -0.030880388 -0.45817882 -0.04915604 -0.0415238
000100 60 6a d5 be 27 c0 e3 be a4 3a 2e 3e 9c b9 26 3d
       -0.4168272 -0.44482538 0.17014557 0.040704355
000110 73 12 8a bc 68 0f 21 bf 0e 36 c1 bc db 29 9f bd
       -0.0168545 -0.62914133 -0.023585346 -0.07771655
000120 15 4e b9 bd 32 75 3b 3e 11 f1 f4 be 1f 27 da 3e
       -0.09048096 0.18306425 -0.4784017 0.42607972
000130 07 62 ca 3e e7 0b 48 be bf 38 44 be 74 2d 00 3f
       0.39527914 -0.1953579 -0.19162272 0.50069356
000140 12 a4 cc 3e 2f 68 8c 3e 28 3c d1 bd dc f3 dc bd
       0.39968926 0.27423236 -0.10216552 -0.107887
000150 ee 7a 8f be d0 fe 45 3b 4d 10 88 3d 42 4d 8c 3e
       -0.28023475 0.0030211695 0.06643734 0.27402693
000160 ec d6 cf 3d 69 04 c0 bd 02 0a 82 3e 79 36 f5 bd
       0.10148415 -0.09375841 0.2539826 -0.119732805
000170 0a 7a 28 be b9 00 ab 3e 75 86 81 3e 0c 9c db 3d
       -0.16452804 0.3339899 0.25297895 0.10723123
000180 3c 32 2a 3d 4a 84 d4 bc 70 96 78 3e 82 79 c1 3d
       0.041551813 -0.025941987 0.24276137 0.09447004
000190 3d 0c a6 bc 3d ef 1f bf c2 f9 f1 be 7e 05 bb be
       -0.020269508 -0.62474424 -0.47260863 -0.36527628
0001a0 f2 ef 72 be e6 f5 13 bf 26 98 80 3e 90 a8 76 3e
       -0.23724344 -0.57797086 0.2511608 0.24087739
0001b0 6d 92 08 3e 74 89 ce be 92 f6 3f bc 07 f9 f1 3e
       0.13337107 -0.40339243 -0.011716502 0.47260305
0001c0 59 f8 92 3e 22 2b 57 3e e7 09 06 bd 27 75 57 be
       0.287051 0.21012548 -0.032724287 -0.21040784
0001d0 d6 20 0b 3f fc 36 f4 bc 17 3e fc 3d b7 36 a6 3d
       0.5434698 -0.029811375 0.1231653 0.08115905
0001e0 62 af 2b bf 3e 3e a5 3d a4 bd 72 3d a2 f8 54 be
       -0.6706449 0.080685124 0.059262887 -0.20797971
0001f0 57 f9 aa 3e a8 2b 80 be c2 5c e7 bd ce 78 42 be
       0.33393356 -0.25033307 -0.11296989 -0.18991396
000200 28 9a 07 bd 72 b9 c2 be 2b 11 9c bd c7 92 52 be
       -0.033106 -0.3803211 -0.07620462 -0.20563804
000210 1b 70 8f 3e 4d 30 18 3e d8 a7 9f be 03 07 81 3e
       0.28015217 0.14862175 -0.31182742 0.25200662
000220 cf 50 a8 3d 45 4f bd be 5b f1 c0 3e bc d9 a3 3e
       0.08218538 -0.3697454 0.3768414 0.32002056
000230 17 8e bd be 3f 7e f3 3e 4b a2 b4 3e 37 8e 9d be
       -0.37022468 0.47557256 0.3528007 -0.30772564

sun_influence_2.W_self.bias f4 [12]
000000 73 ba ca 3d 52 a7 a9 bd 93 b5 bf 3d 2c 53 a1 bb
       0.098988436 -0.08283867 0.093608044 -0.004923245
000010 23 e6 3c bd 88 53 fb bd 51 75 a4 bd 19 76 b4 bd
       -0.046117913 -0.12271792 -0.08030189 -0.08811588
000020 59 4d 97 3d 73 cd 8b bd e6 90 11 be 31 63 30 bd
       0.073878 -0.06826296 -0.1421543 -0.043063346

sun_influence_3.W.weight f4 [12, 12]
000000 b5 9e 79 be 2f f8 9e 3e 70 94 e6 3d 95 5d 42 be
       -0.24376948 0.31048724 0.11258781 -0.18981011
000010 3c ba e3 bc 05 f4 60 be c9 02 08 3f ea 1a 92 3e
       -0.027798764 -0.21968086 0.5312925 0.2853616
000020 c2 4a 44 3e 65 3f 86 be 71 0a 8a 3e 33 b0 10 3f
       0.19169143 -0.2622024 0.2696109 0.5651886
000030 e4 7f 14 3f eb e2 7a be c5 f2 04 3f 59 79 78 be
       0.58007646 -0.24500625 0.51932937 -0.2426504
000040 ee 2d 26 bf a6 c6 f1 3e a2 ae 0e bf d8 db 42 bd
       -0.64913833 0.4722187 -0.5573522 -0.04757294
000050 76 af cc bc 06 6d 96 be ca e0 36 3e 3b 0c e1 3d
       -0.02498601 -0.29380053 0.17859188 0.10988661
000060 08 85 53 bf d3 1c f5 be 20 df c3 be 39 df 47 3e
       -0.82624865 -0.47873554 -0.38256168 0.19518746
000070 6a f0 5a 3d d5 e0 08 3f b4 23 c0 be 83 4a 95 3e
       0.053451933 0.53468066 -0.3752724 0.2915841
000080 8c 80 ff 3e ad 47 2c be 20 60 69 3e 40 b7 e2 3e
       0.4990276 -0.16824217 0.22790575 0.44280434
000090 fc eb 09 be 7a 61 37 bf 70 34 e5 bc 85 57 64 3d
       -0.13468927 -0.7163311 -0.027979106 0.055747528
0000a0 42 66 9b be 5c 28 6c be 78 bb 96 be fe 85 53 3e
       -0.30351454 -0.23062271 -0.29439902 0.20656583
0000b0 a5 4b ce bd 52 13 56 3d 4a 04 a4 be c5 96 c8 be
       -0.10073022 0.05226452 -0.32034522 -0.39177528
0000c0 1d e9 4e be 09 04 71 3e c3 6a 19 3e e1 05 a7 be
       -0.20206113 0.23536696 0.14982133 -0.32621673
0000d0 da 23 4b be 38 96 98 3e f2 7e f6 3b ef ad a1 3e
       -0.19837895 0.29802108 0.0075224573 0.31578013
0000e0 aa f3 ca 3d d2 32 f9 3d a2 da 88 3e 10 a1 20 3d
       0.099097565 0.12167896 0.26729304 0.0392161
0000f0 4d 05 43 3e 57 2b b6 be 3f bc 10 3d f6 1d 04 3e
       0.19044991 -0.3557994 0.035335775 0.12902054
000100 01 98 1a 3f da 49 1f 3e d6 b9 21 3e d4 75 ab be
       0.6038819 0.15555516 0.15793547 -0.33488333
000110 e0 03 a4 3d 2f 8b 93 3e e2 4a ac 3e a5 be ad be
       0.080085516 0.28817126 0.3365088 -0.33934513
000120 10 aa 8d 3e 57 57 86 be 64 c1 36 be 47 27 54 be
       0.2766881 -0.2623851 -0.1784721 -0.20718108
000130 bf d8 c9 bc 67 d9 1f bd 63 fd fb 3e ec ac b5 bd
       -0.024639485 -0.03902569 0.49216756 -0.08870873
000140 5d 71 1b 3f c3 37 85 3e 9c 49 9e be ae 1e bc 3e
       0.60719854 0.26019105 -0.30915534 0.36742157
000150 7c 89 31 be 5d dc 43 3e 53 9b 6b 3e 03 d5 ac be
       -0.17337602 0.1912703 0.2300847 -0.33756265
000160 d8 1b ab 3d a2 11 f4 be bd 7d 58 3e bd 2b 76 3e
       0.0835492 -0.47669703 0.21141715 0.24040122
000170 f8 21 0b bf b1 ff 95 be 94 73 9c be 09 29 0a 3f
       -0.5434871 -0.2929664 -0.3055693 0.53968865
000180 ab 4f 38 bd 30 d3 2d 3e 94 ad 40 bd de f9 6b be
       -0.044997852 0.16975093 -0.047040537 -0.23044536
000190 33 84 5d 3d 01 78 d1 3e 3b 76 3e bc ff c4 bf be
       0.054081153 0.40911868 -0.011624868 -0.37454984
0001a0 11 65 81 bd e7 d7 91 3e 1d 51 5a 3e 6f a0 db be
       -0.06318105 0.28485033 0.21320005 -0.4289584
0001b0 8b ad e9 3e 13 a6 a9 bd 50 ff c4 be 5d f0 87 bf
       0.45640215 -0.08283629 -0.38476038 -1.0620228
0001c0 36 97 43 3e 36 55 0a 3d 2c 35 02 3d 13 14 12 3f
       0.19100651 0.03377267 0.03178899 0.5706188
0001d0 05 3e 1f 3f 5c e3 2c be 8e 54 6f 3f 7c de 0c bf
       0.6220401 -0.16883606 0.93488395 -0.55026984
0001e0 7a da 11 3f 8d a8 aa 3e 44 4f c1 3c b8 61 04 bf
       0.56973994 0.3333172 0.023597367 -0.51711607
0001f0 cf e0 0b 3c ea e3 cb be d5 d6 90 3e 64 dc bc 3e
       0.008537485 -0.39822322 0.28288904 0.36886895
000200 a0 2d 4a 3e a7 bb 4c 3e a6 01 a2 be 28 a8 7b 3e
       0.19743967 0.19993459 -0.31641883 0.24575865
000210 38 9d cb 3d f9 81 a9 bc 84 7f 33 3d 36 d0 31 be
       0.099420965 -0.020691859 0.04382278 -0.17364582
000220 a5 ab 3b 3d 90 49 eb be 6d 7d cf 3e a0 02 27 be
       0.04581799 -0.4595456 0.4052538 -0.16309595
000230 dd c2 23 bf a2 cf 34 be a0 a8 8b 3e 5b 61 47 3f
       -0.6396921 -0.1765733 0.27277088 0.7788293

sun_influence_3.W.bias f4 [12]
000000 cf 12 07 bd 20 cb a9 3c 9a 60 48 bc 00 92 94 bd
       -0.03297692 0.02072674 -0.012230063 -0.0725441
000010 56 b6 a1 bd 86 34 ef bd e8 6d b2 bd 33 33 2e bd
       -0.07896106 -0.1167994 -0.08712369 -0.042529296
000020 c2 34 80 3d 7a fa ff 3d da ea 1f bd 01 2f 1c 3d
       0.06260063 0.124989465 -0.03904233 0.038130764
