src/Photosynthesis/RL/SavedModels/model_14.pth (torch, 30290 bytes, 34 tensors)

player_tree_1.W.weight f4 [12, 12]
0	0x3eb9af89	0.36266735
1	0xbed254d6	-0.4108035
2	0x3eac195f	0.33613107
3	0xbe077ae3	-0.13230471
4	0x3e8818e8	0.26581502
5	0xbe03d07a	-0.12872496
6	0xbe164ce9	-0.14677776
7	0x3e4a367a	0.19747344
8	0x3f06ff35	0.52733165
9	0xbe2edc8c	-0.1707632
10	0x3db5c4f7	0.08875459
11	0x3def6924	0.11689976
12	0x3e0f8c1f	0.14018296
13	0x3e495ef1	0.19665124
14	0x3eb2697d	0.34846106
15	0xbda5f362	-0.08103062
16	0x3e403c08	0.187729
17	0xbf0e8b1d	-0.5568102
18	0xbe14a4cd	-0.14515992
19	0xbde7d6e8	-0.11320287
20	0x3ebad0bd	0.3648738
21	0x3e080ab8	0.13285339
22	0x3f06650d	0.5249794
23	0x3ebe9a4f	0.37227103
24	0xbe34b499	-0.17647018
25	0x3e680d53	0.22661333
26	0xbed0cc47	-0.4078085
27	0x3e056511	0.13026835
28	0x3e9933fd	0.29922476
29	0x3e902b1d	0.28157893
30	0xbd69cc72	-0.05707974
31	0xbeea7bb2	-0.45797497
32	0x3ec2a5fc	0.3801726
33	0x3e282fbf	0.16424464
34	0xbebe2ce2	-0.37143618
35	0xbd7a5176	-0.061112843
36	0x3da2476b	0.07923778
37	0x3e914308	0.28371453
38	0x3d026a96	0.03183993
39	0x3cc0fd25	0.023558209
40	0x3db83282	0.089940086
41	0xbe892251	-0.26783994
42	0xbe2a9f82	-0.1666241
43	0xbed45427	-0.41470453
44	0xbea3d0be	-0.31995195
45	0x3e63f0fc	0.22259897
46	0xbe7998f0	-0.24374747
47	0x3e8ea3d3	0.27859363
48	0xbe6159a0	-0.22006845
49	0x3d2ae7c9	0.041724954
50	0xbd52779d	-0.051383603
51	0x3d9ae60d	0.0756341
52	0x3dcad431	0.099037535
53	0x3e807248	0.2508719
54	0xbeca5ecb	-0.39525446
55	0x3eac2c6d	0.33627644
56	0xbe412354	-0.18861133
57	0x3e38b13c	0.1803636
58	0x3dc1cd78	0.09463018
59	0x3f4056aa	0.7513224
60	0x3d45524d	0.04817419
61	0x3e78d7c0	0.24301052
62	0x3eca98c2	0.3956967
63	0xbdb31a88	-0.08745295
64	0x3de26191	0.110537656
65	0x3eb31451	0.34976438
66	0x3dde9245	0.108677424
67	0x3dcb5ec7	0.09930187
68	0x3d7c360e	0.061574988
69	0x3f3b97ed	0.73278695
70	0xbe65d5e0	-0.22444868
71	0x3e5cfdf8	0.21581256
72	0xbe10f61b	-0.14156382
73	0x3e2517c9	0.16122355
74	0x3f00a7e1	0.5025616
75	0x3e8077d7	0.2509143
76	0xbe92ffb4	-0.2871071
77	0xbe880c87	-0.26572058
78	0xbbdec302	-0.006798149
79	0x3e98e62a	0.298631
80	0xbe4e173d	-0.20126052
81	0xbead4f7b	-0.338497
82	0xbb95cc74	-0.004571492
83	0xbc6140f0	-0.013748392
84	0x3e7bf1ec	0.24604005
85	0x3e0f5369	0.13996662
86	0xbd58d9f0	-0.052942216
87	0xbd9e96ae	-0.077435836
88	0x3e3aa563	0.18227153
89	0xbddde903	-0.10835459
90	0xbf05c378	-0.52251387
91	0x3c20d765	0.009816979
92	0xbe9dfdef	-0.30857798
93	0x3ea28642	0.31743056
94	0xbe83f2ec	-0.25771272
95	0x3f0c3493	0.5476772
96	0x3e9f612f	0.31128833
97	0xbea315b3	-0.31852493
98	0xbf40471a	-0.7510849
99	0xbbff0214	-0.00778223
100	0xbec11c00	-0.37716675
101	0xbd280983	-0.041024696
102	0xbec60357	-0.38674423
103	0xbdb9e261	-0.090763815
104	0x3e7fd979	0.24985303
105	0x3e670795	0.22561486
106	0xbeec9366	-0.46206206
107	0xbcece82b	-0.0289193
108	0xbbf7ca36	-0.007561947
109	0x3e9286cf	0.28618476
110	0xbea648fb	-0.32477555
111	0xbd942c4a	-0.0723501
112	0x3e193da0	0.14964914
113	0x3e7c04ee	0.24611256
114	0xbef029d7	-0.4690692
115	0xbdce1f24	-0.10064533
116	0xbf07cd88	-0.5304799
117	0xbdca9682	-0.09891988
118	0xbe30d7a6	-0.17269763
119	0x3e7ecf7e	0.2488384
120	0x3f558d8f	0.83419126
121	0x3d390022	0.045166142
122	0xbd48e7b0	-0.04904908
123	0x3c8b41fb	0.016999235
124	0x3ed97733	0.42473754
125	0x3ef2cd93	0.47422466
126	0xbe433260	-0.19062185
127	0x3d6853f0	0.056720674
128	0xbc370695	-0.011171003
129	0xbec72d17	-0.38901588
130	0xbed5f808	-0.41790795
131	0x3e57008d	0.20996304
132	0x3dfa558d	0.12223349
133	0xbeadeedb	-0.33971295
134	0x3e2de93b	0.16983502
135	0xbe91b175	-0.284557
136	0x3e02a59d	0.12758489
137	0xbe2f6c44	-0.17131144
138	0x3e228702	0.15871814
139	0xbe63a44a	-0.2223064
140	0xbf2559b2	-0.6458999
141	0xbf0dda57	-0.55411285
142	0xbd2a09aa	-0.041513123
143	0xbc809170	-0.01569435

player_tree_1.W.bias f4 [12]
0	0xbc37c276	-0.011215797
1	0x3d1bcaad	0.038035084
2	0x3d54b40b	0.051929515
3	0xbd20ad23	-0.039227616
4	0x3af7c969	0.0018904629
5	0xbc4d9b2d	-0.012549204
6	0x3cba80a4	0.022766419
7	0x3d033bae	0.032039337
8	0xbcac3af7	-0.02102421
9	0xbcfe54ba	-0.03104626
10	0x3bc60131	0.0060426225
11	0x3d316b89	0.043315444

player_tree_1.W_self.weight f4 [12, 12]
0	0x3d9ac3d3	0.07556882
1	0x3ef8600b	0.48510775
2	0x3dacbe2c	0.0843471
3	0xbebcbc63	-0.36862478
4	0xbce28f72	-0.02765629
5	0xbe80867a	-0.25102597
6	0x3e4aeda3	0.19817214
7	0x3de3c8c6	0.11122279
8	0x3f018ec4	0.5060847
9	0xbe0bef50	-0.13665509
10	0xbebdd1ef	-0.3707423
11	0xbda46ecd	-0.08028946
12	0xbdbad80a	-0.091232374
13	0x3ed23f77	0.41064045
14	0x3e0abf42	0.13549522
15	0xbe89cbb1	-0.26913217
16	0x3d7ab899	0.061211202
17	0xbe576573	-0.21034794
18	0x3e9f0005	0.31054702
19	0x3d97c557	0.074106865
20	0x3e6f9e47	0.23400222
21	0x3f19af99	0.60033566
22	0x3de6ee98	0.11275977
23	0x3dfe8c28	0.124290764
24	0xbca27c9c	-0.019834809
25	0x3e96f31d	0.29482356
26	0x3cd24d40	0.025671601
27	0x3e179d1b	0.14806025
28	0x3de14d7a	0.110011056
29	0xbc7cde72	-0.0154338945
30	0xbd15fb98	-0.03661689
31	0xbedcb3f8	-0.43106055
32	0xbeff03a0	-0.49807453
33	0x3e987841	0.29779246
34	0x3df8dd3e	0.121515736
35	0x3e679ab3	0.22617607
36	0xbf03d6f8	-0.5149989
37	0x3e448e3d	0.19194885
38	0x3ee5e8cd	0.44904175
39	0xbf040420	-0.51568794
40	0x3e9cbd64	0.30613244
41	0x3e468c6a	0.19389501
42	0x3df7b9a4	0.12095955
43	0xbf5f5696	-0.87241495
44	0x3dc60a4a	0.09669931
45	0xbdabe8d6	-0.08394019
46	0x3dd0eb22	0.10201098
47	0x3d1e0123	0.038575303
48	0xbe130db9	-0.14360704
49	0xbe3015c2	-0.171958
50	0x3e869c47	0.26291105
51	0xbd8517a4	-0.0649865
52	0x3e83cd0c	0.25742376
53	0x3e3a6064	0.18200833
54	0x3e0d5f44	0.13805872
55	0xbea7c9c6	-0.32771128
56	0x3e24e731	0.16103818
57	0xbdef70af	-0.116914146
58	0xbed5104d	-0.41614
59	0xbc884e37	-0.016638858
60	0xbe0dfaff	-0.13865279
61	0x3efe4f45	0.49669853
62	0x3e084609	0.13307966
63	0x3ee1f9cf	0.441359
64	0xbe57a59c	-0.21059269
65	0x3e141edf	0.14464901
66	0xbde09898	-0.10966605
67	0x3c3fa5c8	0.01169724
68	0xbe882e43	-0.26597795
69	0xbf06f7cc	-0.5272186
70	0x3e6a9818	0.22909582
71	0xbe646001	-0.22302248
72	0x3e0252a3	0.12726836
73	0x3dcd4372	0.1002263
74	0x3f130c96	0.5744108
75	0x3f0594cc	0.5218017
76	0x3e128932	0.14310148
77	0x3e9a8e2c	0.30186594
78	0xbdb69791	-0.08915628
79	0xbf1a4108	-0.6025548
80	0x3dc3bfb4	0.09558049
81	0xbcb0f42e	-0.021600809
82	0xbf19e6dc	-0.6011789
83	0xbe1342a5	-0.14380892
84	0x3d330189	0.043702636
85	0x3ccd3183	0.025048023
86	0x3e50f4cf	0.20405887
87	0x3e633b76	0.22190651
88	0xbe96ff91	-0.29491857
89	0x3ee2d478	0.44302726
90	0xbf0c6372	-0.5483924
91	0x3e2671e4	0.16254383
92	0x3dc90f71	0.09817398
93	0x3e531299	0.20612563
94	0x3d315cf9	0.043301556
95	0x3ea72ddc	0.32652175
96	0x3edecf8c	0.4351772
97	0xbef493d3	-0.4776903
98	0xbf3c992c	-0.7367122
99	0x3ee224a4	0.4416858
100	0x3eb8d027	0.36096308
101	0xbebebbe9	-0.3725274
102	0xbde3cebd	-0.111234166
103	0x3eac5320	0.3365717
104	0xbe0056d5	-0.12533124
105	0x3f00cdb8	0.503139
106	0x3e5ec99a	0.21756592
107	0xbddd48b5	-0.108048834
108	0xbede8f01	-0.43468478
109	0xbdd13003	-0.10214236
110	0xbd1dde4a	-0.03854207
111	0x3ee9588c	0.45575368
112	0x3e506f5d	0.20354982
113	0x3e9d5862	0.30731493
114	0x3eebaccc	0.4603027
115	0x3e6ea6d6	0.2330583
116	0x3e801865	0.25018612
117	0x3dbc829c	0.09204599
118	0xbe572c39	-0.21012963
119	0xbeb41538	-0.3517244
120	0x3e9ca9db	0.3059834
121	0xbe1f806f	-0.15576337
122	0x3e93e607	0.28886434
123	0xbca360a0	-0.019943535
124	0xbee6d583	-0.45084772
125	0x3eaf52cd	0.3424286
126	0x3b3bc2fe	0.002865016
127	0x3dc8ad3d	0.097986676
128	0xbe7d5960	-0.24741125
129	0x3e99421f	0.2993326
130	0xbd9f6967	-0.07783776
131	0xbe77ecfd	-0.24211498
132	0x3e12e3cf	0.14344715
133	0x3eeb0ff5	0.45910612
134	0xbec6f59d	-0.38859263
135	0x3e9095e6	0.28239363
136	0xbe8dfe69	-0.27733162
137	0x3ebcc5d4	0.3686968
138	0xbea5c950	-0.32380152
139	0xbe1f0a15	-0.1553119
140	0x3e7432d5	0.23847516
141	0xbd9bc566	-0.0760601
142	0xbe39a046	-0.18127546
143	0xbf084df2	-0.53243935

player_tree_1.W_self.bias f4 [12]
0	0xbc37c276	-0.011215797
1	0x3d1bcaad	0.038035084
2	0x3d54b40b	0.051929515
3	0xbd20ad23	-0.039227616
4	0x3af7c969	0.0018904629
5	0xbc4d9b2d	-0.012549204
6	0x3cba80a4	0.022766419
7	0x3d033bae	0.032039337
8	0xbcac3af7	-0.02102421
9	0xbcfe54ba	-0.03104626
10	0x3bc60131	0.0060426225
11	0x3d316b89	0.043315444

player_tree_2.W.weight f4 [12, 12]
0	0x3e68cc05	0.22734077
1	0xbeabe3b1	-0.33572152
2	0xbf34a33d	-0.7056158
3	0xbc5d43c1	-0.013504923
4	0xbda6f5cd	-0.081523515
5	0xbe96d372	-0.29458195
6	0x3ec48ca8	0.38388562
7	0x3dcf6205	0.101261176
8	0x3ec16121	0.37769416
9	0xbe2aa5da	-0.1666483
10	0xbe263f68	-0.16235125
11	0xbf24d4cc	-0.643872
12	0xbf0ac76e	-0.54210556
13	0xbeacaba1	-0.33724692
14	0xbc8e7b6c	-0.017392837
15	0x3eca2615	0.3948218
16	0x3e906748	0.28203797
17	0x3e4bf2e2	0.19916871
18	0x3e965325	0.2936031
19	0x3dff984c	0.1248022
20	0xbefd1979	-0.49433497
21	0x3e327be5	0.17430075
22	0xbecc7d0f	-0.39939162
23	0x3d17b5eb	0.037038725
24	0x3f50793f	0.81435007
25	0xbeb4ca97	-0.35310814
26	0x3f19e856	0.6012014
27	0xbd06cd65	-0.032910723
28	0x3ec9f188	0.39442086
29	0x3dfd09bd	0.12355373
30	0xbeacd20e	-0.3375401
31	0xbe0f7122	-0.14008
32	0xbe2edaa7	-0.17075597
33	0x3eae2d05	0.34018722
34	0xbf022125	-0.50831825
35	0xbecff54d	-0.40616837
36	0xbcc01eb4	-0.02345214
37	0xbe0c2c2b	-0.13688724
38	0xb98939e7	-0.00026173817
39	0xbe9c824b	-0.30568156
40	0x3e6703d8	0.2256006
41	0x3c4d5146	0.012531584
42	0x3d60ca33	0.054880332
43	0xbe5bf93b	-0.21481793
44	0x3dc7e45d	0.09760354
45	0xbd9fa8ad	-0.07795844
46	0xbddb73bc	-0.10715434
47	0x3dd36d3b	0.103235684
48	0xbda20273	-0.079106234
49	0xbd74ebe9	-0.059795294
50	0xbedd8c5c	-0.43271148
51	0xbeb72845	-0.3577291
52	0xbc858ebd	-0.016303414
53	0xbc920990	-0.017826825
54	0x3db60676	0.08887951
55	0x3e82061b	0.25395283
56	0x3dcf3e90	0.10119355
57	0x3decbc11	0.11559308
58	0x3e3c2df1	0.183769
59	0x3e51addc	0.20476478
60	0x3eb5f891	0.35541204
61	0x3e2ff434	0.17183
62	0x3e4ef411	0.20210291
63	0x3dda74f1	0.10666836
64	0x3e046619	0.12929572
65	0xbe2d2aa5	-0.16910799
66	0xbdfe2062	-0.1240852
67	0xbeb2422d	-0.34816113
68	0x3ec29c6d	0.38009968
69	0xbc6c8a73	-0.014437306
70	0xbf27f5a4	-0.6560919
71	0xbe82d843	-0.2555562
72	0xbdde7d47	-0.108637385
73	0xbe2f32aa	-0.1710917
74	0xbf0506ed	-0.5196369
75	0x3ee44881	0.44586566
76	0x3d34c892	0.04413659
77	0x3e4acddf	0.19805096
78	0x3d9e439c	0.07727739
79	0x3e5ba04d	0.21447869
80	0x3db4007e	0.087891564
81	0x3c939d89	0.018019455
82	0xbeec0cb0	-0.4610343
83	0x3d632b5a	0.055461265
84	0x3ea95e13	0.33079585
85	0xbe39e90c	-0.18155307
86	0xbcbfc2c2	-0.023408297
87	0x3d85627c	0.06512925
88	0x3ebf6767	0.37383577
89	0xbdf7f214	-0.121067196
90	0x3e83c0a2	0.25732905
91	0xbe3c710e	-0.18402502
92	0x3efabd12	0.48972374
93	0xbdb41a02	-0.08794023
94	0x3daa6553	0.08320107
95	0xbf2c5ed8	-0.6733222
96	0xbee96628	-0.45585752
97	0xbc0569a6	-0.008142864
98	0x3de45e91	0.111508496
99	0x3e855fec	0.26049745
100	0x3f0f063a	0.55868876
101	0x3e86b889	0.26312664
102	0x3e9d5e0d	0.30735818
103	0x3e0ba78e	0.13638136
104	0x3e6c11e8	0.23053706
105	0xbd84efdd	-0.06491063
106	0xbd1f81be	-0.03894209
107	0xbd7f8473	-0.062382173
108	0xbeede004	-0.46459973
109	0x3ee2eb0d	0.44319955
110	0xbdc1a7ec	-0.09455857
111	0x3e8ab768	0.27093053
112	0x3ecdaa21	0.4016886
113	0xbf01802a	-0.5058619
114	0xbf0f82b7	-0.5605883
115	0x3d020a45	0.031748075
116	0xbbfcddfc	-0.0077168923
117	0x3efcf227	0.49403498
118	0x3d89bf6e	0.067259654
119	0x3f06fd29	0.5273004
120	0xbe02ec5a	-0.12785473
121	0x3e0494c1	0.1294737
122	0xbe3ba0a0	-0.18322992
123	0xbe51db81	-0.2049389
124	0xbe9a7fb4	-0.30175555
125	0xbe97f239	-0.2967699
126	0xbf2893f2	-0.65850747
127	0x3db2bdd5	0.08727614
128	0x3d4d4897	0.050118055
129	0xbe8cca65	-0.27498165
130	0xbe510048	-0.20410264
131	0x3dbf22e0	0.09332824
132	0x3e3cc336	0.18433842
133	0x3e67de50	0.22643399
134	0xbe8b87ed	-0.2725214
135	0xbe172990	-0.14761949
136	0xbea099c4	-0.31367314
137	0xbee41c75	-0.4455296
138	0x3de53a08	0.11192709
139	0x3ee1e36a	0.44118816
140	0x3e861412	0.26187187
141	0xbe010501	-0.12599565
142	0xbeadd701	-0.33953097
143	0x3d22a9bb	0.03971265

player_tree_2.W.bias f4 [12]
0	0xbcb9f8bd	-0.022701615
1	0xbd2c5660	-0.04207456
2	0x3b96649e	0.004589631
3	0x3c0d7f05	0.008636241
4	0xbcba2e40	-0.022727132
5	0xbdad0f53	-0.084501885
6	0xbb9af8f4	-0.0047293846
7	0x3cb1914f	0.021675734
8	0xbb5a81d3	-0.0033341541
9	0x3cc23c3e	0.023710366
10	0xbbea4d9f	-0.0071503664
11	0x3cc93e3a	0.024565805

player_tree_2.W_self.weight f4 [12, 12]
0	0x3e143fcc	0.14477462
1	0xbeb556a2	-0.35417658
2	0x3e839572	0.25699955
3	0x3f048003	0.5175783
4	0xbf003332	-0.5007812
5	0xbf48bc1a	-0.7841202
6	0x3dc4fdc7	0.09618717
7	0xbdaa5a23	-0.083179735
8	0xbd2f9db7	-0.042875018
9	0xbef88946	-0.4854223
10	0x3eb8b67b	0.36076722
11	0x3e906dd8	0.28208804
12	0x3ed46357	0.4148204
13	0xbdef5722	-0.11686541
14	0xbe350e75	-0.17681296
15	0xbcafe204	-0.021470077
16	0xbe0c8e2f	-0.13726114
17	0xbee24a27	-0.441972
18	0xbeab36ac	-0.3344015
19	0xbe00325f	-0.12519215
20	0x3f2b5e98	0.66941214
21	0x3e88dffa	0.2673338
22	0x3d96f77f	0.07371425
23	0xbcecb75f	-0.028896032
24	0xbe3d3411	-0.18476893
25	0xbe744a50	-0.23856473
26	0xbe678cbf	-0.22612284
27	0xbebad95c	-0.36493957
28	0x3e7ec29f	0.2487893
29	0xbe116841	-0.14199926
30	0xbedf3fdf	-0.43603417
31	0x3e844edf	0.25841424
32	0xbddbd5e3	-0.10734155
33	0x3b310107	0.002700867
34	0xbe1afd32	-0.15135649
35	0xbd80f712	-0.06297125
36	0xbd985b97	-0.074393444
37	0x3d21cb5e	0.039500587
38	0xbf82b86c	-1.0212531
39	0x3e42e667	0.19033204
40	0x3e82c44b	0.25540385
41	0xbe528628	-0.20558989
42	0x3f3800d3	0.7187626
43	0xbe9a5066	-0.30139464
44	0x3d7ef443	0.062244665
45	0xbdd15071	-0.10220421
46	0x3c3bcda8	0.0114626065
47	0xbe132280	-0.1436863
48	0xbee87c37	-0.45407268
49	0xbdbea92d	-0.093096115
50	0xbea4a361	-0.32155898
51	0x3e560295	0.20899422
52	0x3e9e945d	0.30972567
53	0xbe31b7d4	-0.17355281
54	0xbe0b14b1	-0.13582112
55	0x3e0d576b	0.13802879
56	0x3da3052d	0.079599716
57	0x3e9dd7d4	0.30828726
58	0xbe4ae5d4	-0.19814235
59	0x3e86be7a	0.26317197
60	0xbec7080c	-0.38873327
61	0xbdf3f426	-0.11911802
62	0xbe549110	-0.20758462
63	0xbeea67e8	-0.457824
64	0xbe1f8be6	-0.15580711
65	0x3eb8ca70	0.36091948
66	0xbe1aefd5	-0.15130551
67	0xbecf5c1f	-0.4049997
68	0x3e6811e2	0.22663072
69	0x3ce43ebd	0.027861947
70	0xbe342e48	-0.1759578
71	0xbedc4310	-0.43019915
72	0x3ede2d7c	0.43394077
73	0xbcd80906	-0.02637149
74	0x3e43e86e	0.19131634
75	0x3e027c4c	0.12742728
76	0x3eb2cb16	0.34920567
77	0x3ec76e3c	0.3895129
78	0x3ea5d80a	0.32391387
79	0xbf1befdf	-0.6091289
80	0xbdd51258	-0.104038894
81	0x3e87293f	0.26398656
82	0xbd0cfb00	-0.03441906
83	0xbe97cedf	-0.29650018
84	0x3f109b13	0.56486624
85	0xbdfd23ee	-0.12360369
86	0x3f061e6e	0.5239018
87	0xbd8396e1	-0.06425262
88	0xbd913bfd	-0.0709152
89	0xbd857142	-0.06515743
90	0xbe98336c	-0.29726732
91	0x3ec04b49	0.37557438
92	0x3eda9691	0.42692998
93	0xbe301552	-0.17195633
94	0x3edcef21	0.4315119
95	0x3d8c1329	0.06839592
96	0x3eb518f1	0.3537059
97	0x3ee74b44	0.4517461
98	0xbe637463	-0.22212367
99	0xbe74cccd	-0.2390625
100	0xbde79a60	-0.113087416
101	0xbed57559	-0.41691092
102	0xbf2785a2	-0.6543828
103	0xbdd76963	-0.10518148
104	0xbd694c6f	-0.05695766
105	0xbe656257	-0.22400795
106	0x3e7433d0	0.2384789
107	0xbe893dbd	-0.26804915
108	0x3ebbd1d3	0.3668352
109	0x3ef94944	0.4868871
110	0x3ea6d2b1	0.3258262
111	0xbdbd1e15	-0.09234253
112	0x3f2f4afd	0.684738
113	0x3ed2f2a7	0.41200754
114	0x3ecd7454	0.40127814
115	0x3ed1c216	0.40968388
116	0x3e5d087a	0.21585265
117	0x3efbff62	0.4921828
118	0x3eddfa02	0.43354803
119	0x3f0b3c86	0.54389226
120	0x3f13809b	0.5761811
121	0x3e0b8ac5	0.13627155
122	0xbe83853f	-0.25687596
123	0xbeebc5f3	-0.4604946
124	0x3ee6e4a1	0.45096305
125	0xbe9a1ac7	-0.30098554
126	0x3ecbaaa3	0.39778623
127	0xbceb1145	-0.028694758
128	0x3e38a962	0.18033364
129	0xbe2ec620	-0.17067766
130	0xbe81aafa	-0.25325757
131	0xbe83e433	-0.2576004
132	0x3d3dc54c	0.046330735
133	0x3df07c71	0.11742485
134	0xbcae8584	-0.0213039
135	0xbd479b0c	-0.04873185
136	0x3ba93612	0.0051639164
137	0xbe5a2a6c	-0.21305245
138	0xbe1868e4	-0.14883763
139	0xbed9fc3e	-0.42575258
140	0xbd2a9c62	-0.041653045
141	0xbdd74e74	-0.105130106
142	0xbe06a73c	-0.13149732
143	0x3eb0a84f	0.3450341

player_tree_2.W_self.bias f4 [12]
0	0xbcb9f8bd	-0.022701615
1	0xbd2c5660	-0.04207456
2	0x3b96649e	0.004589631
3	0x3c0d7f05	0.008636241
4	0xbcba2e40	-0.022727132
5	0xbdad0f53	-0.084501885
6	0xbb9af8f4	-0.0047293846
7	0x3cb1914f	0.021675734
8	0xbb5a81d3	-0.0033341541
9	0x3cc23c3e	0.023710366
10	0xbbea4d9f	-0.0071503664
11	0x3cc93e3a	0.024565805

player_tree_3.W.weight f4 [12, 12]
0	0xbebc1c6d	-0.36740437
1	0xbe350726	-0.17678508
2	0xbe2dea99	-0.16984023
3	0xbf51a3d0	-0.81890583
4	0x3edf93a6	0.43667334
5	0x3c069ca1	0.008216054
6	0xbe952e02	-0.29136664
7	0x3ea70659	0.3262203
8	0x3e730bec	0.23735017
9	0xbe54efb1	-0.2079456
10	0xbed4bbb8	-0.41549468
11	0xbd3d201b	-0.046173196
12	0xbeef7b11	-0.4677358
13	0xbec2c1d0	-0.38038492
14	0xbf5803fc	-0.8438108
15	0x3c244554	0.010026295
16	0x3e5b4b3d	0.2141542
17	0x3e03e4b8	0.12880218
18	0xbe82bd90	-0.2553525
19	0x3e5adb7c	0.21372789
20	0x3de79edd	0.11309598
21	0x3e030358	0.12794244
22	0xbe5428b9	-0.2071866
23	0xbe61a35a	-0.2203497
24	0xbe66e5ef	-0.2254865
25	0x3edff9b1	0.43745187
26	0x3c927bda	0.017881323
27	0x3da0b7a1	0.078475244
28	0x3e6c3755	0.23067982
29	0xbe87967f	-0.26482007
30	0xbe3e69ea	-0.1859509
31	0xbe13d8ca	-0.14438167
32	0xbd2d3d69	-0.042294893
33	0x3e88c061	0.26709273
34	0x3f03cbf7	0.514831
35	0x3d0fd8c8	0.035118848
36	0xbe1098a7	-0.14120732
37	0x3e777075	0.24163993
38	0xbed3c631	-0.41362146
39	0x3eee1e43	0.46507463
40	0xbe0cc4c5	-0.13746937
41	0xbec45a99	-0.3835037
42	0xbe5e12a9	-0.21686806
43	0xbdb5e49f	-0.08881497
44	0xbdc67bb2	-0.09691562
45	0xbe0e9fca	-0.13928142
46	0xbe391086	-0.1807271
47	0xbf02cf38	-0.5109744
48	0x3e3ac509	0.18239225
49	0x3eb21444	0.34781086
50	0xbe82bbcd	-0.25533906
51	0xbf3a6480	-0.728096
52	0x3e8d6deb	0.27622923
53	0x3e1ec324	0.15504128
54	0x3e12d99d	0.14340825
55	0xbc520c99	-0.012820386
56	0x3d8a1826	0.06742887
57	0xbe2e3cd5	-0.17015393
58	0x3f04be69	0.5185304
59	0x3d9e30a6	0.07724123
60	0x3e0240fb	0.127201
61	0x3d9bb3df	0.07602667
62	0x3eff8e17	0.49913093
63	0x3e5e0bdb	0.2168421
64	0x3f15691e	0.5836352
65	0x3e263aeb	0.16233413
66	0x3f3cfbb9	0.738216
67	0xbec1d261	-0.3785582
68	0x3e3b1fc3	0.18273835
69	0x3e5656f2	0.20931605
70	0xbe08e154	-0.13367206
71	0x3eb51484	0.35367215
72	0xbdc6f861	-0.09715343
73	0xbd08fea5	-0.033445973
74	0xbe84a1de	-0.25904745
75	0xbe7b0bd9	-0.24516238
76	0xbdadb8e3	-0.0848253
77	0x3e799368	0.24372637
78	0xbdd2c85b	-0.10292121
79	0x3d8451d8	0.06460923
80	0xbd9c8930	-0.07643354
81	0x3e8c193b	0.27363
82	0x3e085c21	0.13316394
83	0x3eba1ef1	0.3635173
84	0x3ee048ab	0.4380544
85	0x3eac550f	0.33658645
86	0x3f21fa16	0.63272226
87	0xbf1c1f13	-0.60984915
88	0xbdc07a9d	-0.093983866
89	0xbe32b722	-0.17452672
90	0x3de56808	0.11201483
91	0xbf017d24	-0.50581574
92	0xbed5fced	-0.4179453
93	0x3e8c0c2e	0.27353042
94	0xbc8cfdf9	-0.017210947
95	0x3e8229c5	0.25422493
96	0xbea227c8	-0.31670976
97	0xbeefd2da	-0.46840554
98	0x3da9673f	0.08271646
99	0xbd32208e	-0.043488078
100	0x3d930821	0.07179285
101	0xbd90fbbe	-0.07079266
102	0x3e8ef563	0.2792159
103	0xbeccbddb	-0.39988598
104	0x3e55d2ae	0.20881149
105	0xbda6da3c	-0.08147094
106	0xbe472824	-0.19448906
107	0x3f09aa39	0.53775364
108	0x3e1d7d2a	0.15379778
109	0xbebc4bef	-0.36776683
110	0xbe5dd48d	-0.21663113
111	0x3d4bec68	0.049786
112	0x3e5df280	0.21674538
113	0xbe6f81cc	-0.23389357
114	0x3d6491d4	0.055803135
115	0x3ee9aa29	0.45637634
116	0xbdf1046d	-0.11768422
117	0xbe9bb8c2	-0.30414397
118	0x3eccc50a	0.3999408
119	0x3d0773b1	0.033069316
120	0x3ead79d1	0.33882
121	0xbf1df3cb	-0.61700124
122	0x3db5e024	0.08880642
123	0x3dbccf30	0.092192054
124	0xbe272400	-0.16322327
125	0xbc02a59d	-0.007974056
126	0xbe62555b	-0.22102873
127	0x3eebb257	0.460345
128	0x3d836cad	0.06417213
129	0xbe8abbab	-0.27096304
130	0xbdd7d700	-0.10539055
131	0xbe59c468	-0.2126633
132	0xbdb41628	-0.087932885
133	0x3da00b93	0.078147076
134	0x3df49ce0	0.11943984
135	0x3eb88e61	0.36046126
136	0x3d7385e3	0.059453856
137	0x3bec3efd	0.007209657
138	0xbd4ba8e7	-0.049721625
139	0xbc9c24ab	-0.019060453
140	0xbdceafb7	-0.10092109
141	0xbec33116	-0.38123387
142	0xbe2113ab	-0.15730159
143	0x3e9c1b2c	0.3048948

player_tree_3.W.bias f4 [12]
0	0xbd1a53cc	-0.03767757
1	0xbcefda29	-0.029278832
2	0xbcd1a4e4	-0.025591321
3	0xbd3914c0	-0.045185804
4	0xbcf3a9ae	-0.029743996
5	0x3c0ec769	0.008714535
6	0xbd166e8e	-0.036726527
7	0xbd82ce89	-0.0638705
8	0xbd5b0c1c	-0.053478345
9	0x3ca8331f	0.020532189
10	0x3cc4a813	0.024005925
11	0x3cffa784	0.031207807

player_tree_3.W_self.weight f4 [12, 12]
0	0x3dd14831	0.102188475
1	0xbe3c4f4a	-0.18389621
2	0x3f0b4dcc	0.54415584
3	0xbf569477	-0.8382029
4	0xbefd6a6d	-0.4949526
5	0xbdc37e07	-0.09545522
6	0x3d91e875	0.07124416
7	0xbed7dbb3	-0.42159805
8	0x3e226e89	0.15862478
9	0xbe85567b	-0.26042542
10	0x3e81da90	0.25362062
11	0xbeb57f64	-0.35448754
12	0xbd49b3bc	-0.049243674
13	0x3eb18492	0.34671456
14	0xbf0f7775	-0.5604165
15	0x3e289e40	0.16466618
16	0xbe18522a	-0.14875093
17	0x3e4d0440	0.20021152
18	0x3c870d04	0.016485699
19	0xbcbee4ec	-0.023302518
20	0x3f564fab	0.83715314
21	0xbda21f3a	-0.07916112
22	0xbed469b0	-0.41486883
23	0xbca9bb6b	-0.02071925
24	0x3d210f70	0.039321363
25	0xbc9691d5	-0.018380085
26	0xbe33a487	-0.17543231
27	0xbe3fcb3d	-0.18729873
28	0xbeeeb37e	-0.46621317
29	0xbe18ccc6	-0.14921865
30	0xbeae9849	-0.3410056
31	0xbec5ea8d	-0.3865551
32	0xbef5ecad	-0.48032132
33	0x3eed9d50	0.46409082
34	0xbeb1c7f1	-0.34722856
35	0x3e158854	0.14602786
36	0xbe05a370	-0.13050628
37	0x3e90034a	0.2812751
38	0x3deb6003	0.11492922
39	0x3e5eecf3	0.21770076
40	0xbf15b74e	-0.58482826
41	0xbe864ea0	-0.2623186
42	0x3cb8ac19	0.022543
43	0xbed8915a	-0.42298394
44	0xbe1bad3e	-0.15202805
45	0xbef73efa	-0.48290235
46	0x3e53b7cd	0.20675583
47	0x3e8c2962	0.27375323
48	0xbee93fd2	-0.45556504
49	0x3edf0f38	0.43566298
50	0xbe81327d	-0.25233832
51	0xbef30982	-0.4746819
52	0xbd858bdb	-0.06520816
53	0xbcf7b065	-0.030235479
54	0xbc973537	-0.018457992
55	0xbd8eac66	-0.06966476
56	0xbe891baf	-0.26778933
57	0xbe1ee3ee	-0.15516636
58	0xbdb564f1	-0.08857144
59	0x3dd0a838	0.10188335
60	0x3eafcdfb	0.34336838
61	0x3a9a6bc8	0.0011781389
62	0x3bbc92f2	0.005754822
63	0x3edc2f57	0.43004867
64	0x3ee95d30	0.4557891
65	0x3dd7acfb	0.1053104
66	0x3e9f98dd	0.31171313
67	0x3e4d7006	0.20062265
68	0x3ed77d91	0.42087987
69	0x3e4e022f	0.2011802
70	0x3dcfc127	0.10144263
71	0xbf043bca	-0.5165373
72	0x3f04066e	0.5157231
73	0xbe59edc1	-0.21282102
74	0x3eac7629	0.336839
75	0xbd4fbc0c	-0.050716445
76	0x3e906b05	0.2820665
77	0xbe99ef16	-0.3006522
78	0x3ef12028	0.47094846
79	0x3d73e7bf	0.059547182
80	0xbc22c7e9	-0.009935358
81	0x3f462bef	0.7741079
82	0x3ef9b81d	0.4877328
83	0x3f0ab591	0.541833
84	0x3cbbdbf8	0.022932038
85	0x3e97caef	0.29647014
86	0x3e9d4a3a	0.30720693
87	0x3e4181c9	0.18897165
88	0x3f133b0c	0.57511973
89	0xbd333fab	-0.04376189
90	0xbd6eac6d	-0.058269907
91	0xbf1236f1	-0.57115084
92	0x3ea993db	0.33120617
93	0xbeba43fc	-0.36379993
94	0x3ed54ac0	0.41658592
95	0xbe1c8104	-0.1528359
96	0x3f35a283	0.709511
97	0xbe89445c	-0.26809967
98	0xbe6ee712	-0.23330334
99	0x3ddbe736	0.10737459
100	0xbd231288	-0.039812595
101	0x3ebafeb1	0.3652244
102	0x3d320953	0.043465924
103	0xbe1d6b32	-0.15372923
104	0xbef005fa	-0.4687956
105	0x3dd4de80	0.10394001
106	0xbe8b8105	-0.27246872
107	0x3eadd062	0.33948046
108	0x3e7f6044	0.24939066
109	0x3eebe2fd	0.46071616
110	0xbdd33c81	-0.103142746
111	0xbf15198a	-0.58242095
112	0xbdd990ea	-0.10623343
113	0xbea422cf	-0.32057807
114	0xbf2808da	-0.65638506
115	0x3ea3b209	0.31971768
116	0xbe276cc1	-0.1635008
117	0x3d311fff	0.043243404
118	0x3e8084e8	0.251014
119	0x3cd9e771	0.026599618
120	0xbec06e90	-0.37584352
121	0xbf19c8f5	-0.6007226
122	0xbe68beec	-0.22729081
123	0x3e97fc3e	0.29684633
124	0xbe5f0be5	-0.21781881
125	0xbe3c4984	-0.18387419
126	0x3da94bf0	0.08266437
127	0xbe636490	-0.2220633
128	0x3e856cd2	0.26059586
129	0x3ec493d4	0.38394034
130	0xbea1ba60	-0.31587505
131	0xbe7f5d0f	-0.24937843
132	0xbeb44d10	-0.35215044
133	0xbdf64bfd	-0.12026212
134	0x3e4803dc	0.19532722
135	0xbdab6535	-0.08368913
136	0x3d94a478	0.072579324
137	0xbedd240c	-0.43191564
138	0x3e060d7a	0.13091078
139	0x3ec56849	0.38556126
140	0x3d960f1b	0.073271
141	0x3e8ff3c7	0.28115675
142	0x3e9e6493	0.30936107
143	0x3e6798f8	0.22616947

player_tree_3.W_self.bias f4 [12]
0	0xbd1a53cc	-0.03767757
1	0xbcefda29	-0.029278832
2	0xbcd1a4e4	-0.025591321
3	0xbd3914c0	-0.045185804
4	0xbcf3a9ae	-0.029743996
5	0x3c0ec769	0.008714535
6	0xbd166e8e	-0.036726527
7	0xbd82ce89	-0.0638705
8	0xbd5b0c1c	-0.053478345
9	0x3ca8331f	0.020532189
10	0x3cc4a813	0.024005925
11	0x3cffa784	0.031207807

player_tree_4.weight f4 [8, 12]
0	0xbe352fe6	-0.17694053
1	0xbf222804	-0.6334231
2	0x3eef632f	0.4675536
3	0x3baa43a0	0.00519605
4	0xbeba441e	-0.36380094
5	0xbe70eb85	-0.23527344
6	0xbe572a47	-0.21012221
7	0x3f0fe6e1	0.5621167
8	0xbe1f7abc	-0.15574163
9	0xbecaa36e	-0.39577812
10	0x3d843d62	0.0645702
11	0xbf049d4c	-0.51802516
12	0xbce368a8	-0.027759865
13	0xbdd2b01c	-0.102874964
14	0xbe447fa5	-0.19189318
15	0x3ea15282	0.3150826
16	0x3dd7cd27	0.105371766
17	0xbf30fd13	-0.6913616
18	0xbf4ee5d3	-0.80819434
19	0xbe816260	-0.25270367
20	0xbea72548	-0.3264563
21	0x3e896efe	0.26842493
22	0xbe3090f8	-0.17242801
23	0xbdab3065	-0.0835884
24	0xbea6fadc	-0.32613266
25	0xbea65ea6	-0.32494086
26	0x3ddfa38d	0.10919867
27	0xbc94f1a8	-0.018181637
28	0x3ea1c360	0.31594372
29	0xbef552a1	-0.47914603
30	0xbe47465b	-0.19460432
31	0xbf0d09ba	-0.55092967
32	0x3e7d3b2d	0.24729605
33	0xbf0dab9b	-0.55339974
34	0x3eda2f8c	0.426144
35	0xbbbb4edb	-0.0057161874
36	0x3e2a20e1	0.16614105
37	0x3e4e5cf2	0.20152643
38	0x3ea0ce1d	0.31407252
39	0x3dfb3cc9	0.12267453
40	0xbeadcce4	-0.33945382
41	0xbd4ed597	-0.050496664
42	0x3f36b6a2	0.71372426
43	0x3eed6678	0.4636724
44	0xbcdef2f5	-0.02721546
45	0x3f0d9fad	0.5532177
46	0xbda22d32	-0.079187766
47	0xbc2aea5d	-0.010431853
48	0xbe98112f	-0.2970061
49	0x3e334a32	0.17508772
50	0xbe1710ab	-0.14752452
51	0x3df96df2	0.121791735
52	0x3f0c82e7	0.5488724
53	0xbe5b6e6e	-0.21428844
54	0xbd80a376	-0.06281178
55	0x3e008767	0.12551652
56	0x3ea62dfc	0.32456958
57	0x3e099ec0	0.13439465
58	0xbf5f3f7e	-0.87206256
59	0xbedd090b	-0.43170962
60	0xbe9eb480	-0.30997086
61	0xbe717a96	-0.23581919
62	0xbeb5c594	-0.35502303
63	0xbe0638f1	-0.13107659
64	0x3ec24c7f	0.37948987
65	0xbeb0df11	-0.34545186
66	0xbedf0db4	-0.43565142
67	0x3e460a03	0.19339757
68	0x3ca1d581	0.019755127
69	0x3e1ea341	0.15491964
70	0x3eae1a55	0.34004465
71	0x3dd69bc6	0.1047893
72	0xbe86bbdf	-0.2631521
73	0x3ce32e04	0.027731903
74	0x3f0460ed	0.51710397
75	0xbdfd4007	-0.12365728
76	0xbdeef9e8	-0.116687596
77	0xbf607a5b	-0.876867
78	0x3f310e98	0.69162893
79	0x3eabb2ec	0.33534944
80	0x3e1c48e8	0.15262187
81	0xbeb0eef0	-0.34557295
82	0xbccb0fc7	-0.024787797
83	0xbcd6183e	-0.026134606
84	0x3e06bb57	0.13157402
85	0xbf1e717a	-0.618919
86	0xbd9215c2	-0.07133056
87	0x3d9e1005	0.07717899
88	0x3efb20e8	0.49048543
89	0xbb967d3e	-0.0045925668
90	0xba8cd1ec	-0.0010743714
91	0x3ddf6d09	0.10909469
92	0xbc613ea5	-0.013747846
93	0x3e4b268e	0.19838926
94	0x3e5d1a27	0.21592008
95	0x3ee67389	0.4501002

player_tree_4.bias f4 [8]
0	0x3d1e7834	0.038688853
1	0x3da3dbdc	0.08000919
2	0xbcb18a6f	-0.021672456
3	0xbd900084	-0.07031348
4	0x3ae77a5a	0.0017660365
5	0x3ce20adf	0.027593074
6	0x3caa77f0	0.020809144
7	0xbd14e145	-0.036347646

sun_influence_1.W.weight f4 [12, 12]
0	0x3e8bebcf	0.27328345
1	0xbe334270	-0.17505813
2	0xbc84bff7	-0.016204817
3	0x3f726b48	0.9469495
4	0xbc6bfe06	-0.014403826
5	0x3efbcfe3	0.49182042
6	0x3e9a0a25	0.30085865
7	0x3e9dc541	0.30814555
8	0xbe76e010	-0.2410891
9	0x3d9e79fb	0.0773811
10	0x3c9f795e	0.019467052
11	0xbdaa2515	-0.08307854
12	0xbe11c458	-0.14235055
13	0x3f1b5fd9	0.60693127
14	0x3e13a54c	0.14418525
15	0xbdda9474	-0.106728464
16	0xbd7bb4f3	-0.061451863
17	0x3e905ddc	0.2819661
18	0xbe9f244e	-0.31082386
19	0xbdad4fe3	-0.08462503
20	0xbcb737ee	-0.022365537
21	0x3deddfe4	0.116149694
22	0x3ee557c2	0.44793516
23	0x3e7ff259	0.24994792
24	0xbdb1eb47	-0.08687454
25	0xbeb90e8b	-0.36143908
26	0x3e366168	0.17810595
27	0x3e7c0e40	0.24614811
28	0xbefd3573	-0.4945484
29	0x3df4fba6	0.11962061
30	0xbea5d4da	-0.32388955
31	0xbe2956f6	-0.16537079
32	0xbf091cee	-0.5355977
33	0xbed3b2f5	-0.4134747
34	0xbe623f51	-0.22094466
35	0xbd9cddf5	-0.076595224
36	0x3db00da4	0.08596352
37	0x3d6ff935	0.05858727
38	0xbde96fcd	-0.113982774
39	0xbcb13e60	-0.021636188
40	0x3e64b938	0.2233628
41	0xbecf9d3c	-0.40549648
42	0x3f062dc2	0.5241357
43	0x3f09ec94	0.53876615
44	0x3d15dbe9	0.036586676
45	0xbe882349	-0.2658942
46	0xbe2b952f	-0.16756128
47	0xbd05462e	-0.03253763
48	0x3db1c27f	0.08679675
49	0xbcb7cecd	-0.022437477
50	0x3eab64d9	0.33475378
51	0xbeaf20c2	-0.3420468
52	0xbe93da2d	-0.28877392
53	0xbd5db0f3	-0.05412383
54	0x3e5868bd	0.21133704
55	0xbe8a3cfc	-0.26999652
56	0x3d52bd09	0.05144981
57	0x3e209594	0.1568206
58	0x3f3dfa84	0.7421038
59	0x3e837187	0.25672552
60	0xbe64338d	-0.2228529
61	0x3d01ee99	0.031721685
62	0x3e390ac6	0.18070516
63	0xbea10b19	-0.3145378
64	0xbe2d52fa	-0.16926184
65	0xbdadf7ac	-0.08494505
66	0x3e4b1b90	0.19834733
67	0x3e5fa94b	0.21841924
68	0x3eabb760	0.33538342
69	0x3e1f50cd	0.15558167
70	0x3d933286	0.07187371
71	0x3c522ad1	0.012827591
72	0x3e77ac2a	0.24186769
73	0xbf11673f	-0.56798166
74	0xbf138f8e	-0.5764092
75	0xbe4d9b94	-0.2007888
76	0x3e0a696a	0.13516775
77	0xbecc321a	-0.39881974
78	0x3e0d20b7	0.13782011
79	0xbea16cb1	-0.31528237
80	0xbec43d6c	-0.3832811
81	0x3dd6ea3c	0.104938954
82	0x3e827652	0.25480896
83	0x3ed23ef2	0.41063648
84	0x3e2b7487	0.1674367
85	0x3ec740b0	0.3891654
86	0x3ee2fc31	0.44333032
87	0xbe49eb85	-0.1971875
88	0x3d361473	0.044453096
89	0x3e806920	0.25080204
90	0xbed951dd	-0.4244527
91	0xbef6ee7e	-0.4822883
92	0xbe406bc9	-0.18791117
93	0x3e8743f1	0.26419023
94	0xbe0c7c9f	-0.13719414
95	0xbf156798	-0.58361197
96	0x3df52432	0.11969794
97	0xbf1c2562	-0.6099454
98	0x3e932b94	0.28744185
99	0xbea24800	-0.31695557
100	0x3ecb6e81	0.39732745
101	0x3d7941ce	0.060853772
102	0xbed3f06f	-0.41394374
103	0xbe178325	-0.14796121
104	0x3dd34f38	0.10317844
105	0x3d7a6055	0.061127026
106	0x3e8d9d31	0.2765899
107	0x3df31c76	0.11870663
108	0xbf068e85	-0.5256122
109	0x3ec75a36	0.38936013
110	0xbe8f85f8	-0.28031898
111	0x3e305155	0.17218526
112	0x3dc8361e	0.09775947
113	0xbdcbd8bd	-0.09953449
114	0xbe878f42	-0.26476485
115	0xbe76400b	-0.24047868
116	0x3f061663	0.5237791
117	0xbe304f87	-0.17217837
118	0xbe3b21f2	-0.18274668
119	0xbc12b8fb	-0.008955236
120	0xbea2a093	-0.31763133
121	0x3af4592c	0.0018642298
122	0xbebfd434	-0.37466586
123	0x3d90c32e	0.070684776
124	0xbe617a70	-0.22019362
125	0xbdf19ad5	-0.1179711
126	0xbe679b22	-0.22617772
127	0x3f0e2345	0.5552257
128	0xbeb4a7a0	-0.35284138
129	0xbef20768	-0.47271276
130	0x3ea38a69	0.31941536
131	0xbe0695c6	-0.13143072
132	0xbda3f0d8	-0.08004922
133	0x3cfb48d2	0.030674372
134	0x3e446000	0.19177246
135	0x3d0e015d	0.03466927
136	0xbe708f56	-0.23492178
137	0xbe58feb4	-0.21190912
138	0x3b9f6439	0.0048642424
139	0xbf4df10a	-0.8044592
140	0x3dc15340	0.09439707
141	0xbac34c30	-0.0014900025
142	0x3f465217	0.7746901
143	0x3e9dae6e	0.30797142

sun_influence_1.W.bias f4 [12]
0	0xbc6f9d2c	-0.014624875
1	0xbc4ee175	-0.012626995
2	0x3da629f6	0.08113472
3	0xbce6ac1a	-0.028158236
4	0xbcea1f5b	-0.028579405
5	0xbc3d86c6	-0.011567777
6	0xbcf23c1a	-0.029569674
7	0xba981c2c	-0.0011605076
8	0xbcea3b7d	-0.02859282
9	0xbc8f7f40	-0.017516732
10	0xbc861696	-0.016368192
11	0x3c272f3e	0.0102041345

sun_influence_1.W_self.weight f4 [12, 12]
0	0xbeadecc0	-0.33969688
1	0x3dc272dd	0.09494565
2	0x3f04d986	0.51894414
3	0xbb7b834f	-0.0038377827
4	0x3de3508d	0.11099348
5	0x3e860f4b	0.26183543
6	0x3ece1c4e	0.4025597
7	0xbf1bd0ea	-0.6086565
8	0x3ebb38e9	0.36566857
9	0x3d0430ab	0.032272976
10	0x3f58a81e	0.84631526
11	0x3ed7a2d1	0.42116407
12	0x3ebd7e87	0.37010595
13	0xbed8f5cd	-0.4237503
14	0xbea30f8a	-0.31847793
15	0x3ce49ea9	0.027907686
16	0x3eef8eb6	0.46788567
17	0x3d3f0b9f	0.046641942
18	0x3d264e7f	0.040602203
19	0xbd8df689	-0.069317885
20	0x3eab6c75	0.33481184
21	0x3eaba028	0.33520627
22	0xbdf8d05b	-0.12149116
23	0xbe85d181	-0.261364
24	0xbeb69070	-0.35657072
25	0xbe1ce4c6	-0.15321645
26	0xbe31d2d9	-0.17365588
27	0x3d58d05d	0.052933086
28	0xbe5e6164	-0.21716839
29	0xbebd6ae0	-0.36995602
30	0x3eaa8504	0.33304608
31	0x3e9b4afd	0.3033065
32	0xbea96ed2	-0.33092362
33	0x3f27aea2	0.65500844
34	0x3ee678c0	0.45014
35	0x3e58df58	0.21178949
36	0x3e9c3e6c	0.30516374
37	0x3dd31024	0.10305813
38	0xbdcc1d55	-0.09966532
39	0x3e901cac	0.28146875
40	0xbe111a73	-0.14170246
41	0xbeb0c524	-0.34525406
42	0xbe6416da	-0.22274342
43	0x3cc9b047	0.024620188
44	0xbe4f76c0	-0.20260143
45	0xbecca7fc	-0.39971912
46	0xbefc5949	-0.4928687
47	0xbd4734e2	-0.048634417
48	0xbe134ec6	-0.14385518
49	0x3cdb69f6	0.026783925
50	0xbefd6a86	-0.49495333
51	0xbe3d4d35	-0.18486483
52	0x3ec45aec	0.38350618
53	0x3ccf6cd2	0.025320444
54	0xbe646716	-0.22304949
55	0xbc1dc320	-0.009629041
56	0xbf2a9700	-0.6663666
57	0xbe075458	-0.13215768
58	0x3e904af9	0.281822
59	0xbe3bc4b8	-0.18336761
60	0xbc4cc2ac	-0.012497585
61	0x3ef4c0d6	0.47803372
62	0x3e9b4668	0.30327153
63	0xbf107ef5	-0.5644372
64	0x3da80048	0.08203179
65	0x3f00bc6b	0.50287503
66	0x3d43448e	0.0476728
67	0xbe7c9fd8	-0.2467035
68	0xbd0e7874	-0.03478284
69	0x3f45a50c	0.77204967
70	0xbed12445	-0.40847984
71	0xbcd3aeb7	-0.025840146
72	0x3d4f0944	0.050545946
73	0xbebb3777	-0.36565754
74	0xbeaa4388	-0.33254647
75	0x3cc874fd	0.024469847
76	0x3ed98673	0.4248539
77	0xbb4eb343	-0.0031539954
78	0x3eb9968e	0.36247677
79	0x3f21bbf2	0.63177407
80	0x3d190a39	0.037363265
81	0x3d1ee8ab	0.03879611
82	0x3cf881e1	0.030335369
83	0x3e6a0cb0	0.22856402
84	0x3f010ad5	0.50407153
85	0x3e43e500	0.19130325
86	0xbef2ef81	-0.47448352
87	0x3ef16118	0.4714439
88	0x3ec0a04c	0.37622297
89	0x3e70b2c1	0.23505689
90	0x3e692d7d	0.22771259
91	0xbd8034ab	-0.062600456
92	0x3eb0e628	0.34550595
93	0x3d8fb447	0.07016807
94	0x3ec6fd1b	0.3886498
95	0x3d08d0f8	0.033402413
96	0x3f03c8e5	0.51478416
97	0xbe501a7f	-0.20322607
98	0x3e9c4b6c	0.30526292
99	0x3e1ca0d0	0.1529572
100	0x3d1356bd	0.035971392
101	0x3d46ce9b	0.048536878
102	0xbe206530	-0.156636
103	0x3e83817a	0.2568472
104	0xbe8ee396	-0.2790801
105	0xbd7003d4	-0.0585974
106	0xbe83b30d	-0.25722542
107	0x3e0ad4e9	0.13557781
108	0x3e587652	0.21138886
109	0x3e61459d	0.21999212
110	0x3ea045af	0.31303164
111	0xbe1b41eb	-0.15161864
112	0x3e58941f	0.21150254
113	0xbe5762ea	-0.21033826
114	0xbe64b817	-0.2233585
115	0xbe6ef965	-0.23337324
116	0xbf142160	-0.57863426
117	0xbe2f4518	-0.17116201
118	0xbe2b40ff	-0.16724013
119	0x3eb27630	0.34855795
120	0xbeba01b8	-0.36329436
121	0xbe79d31b	-0.24396937
122	0xbd8ff265	-0.07028655
123	0x3e45b067	0.19305573
124	0xbe73e032	-0.23815992
125	0xbcef49dc	-0.029210024
126	0xbe01c5b7	-0.12673078
127	0x3e8ed339	0.27895525
128	0xbf05cfac	-0.5227001
129	0xbedadd0f	-0.4274678
130	0xbe6f5c23	-0.23374991
131	0xbf0b9350	-0.54521656
132	0x3e24f58a	0.1610929
133	0xbe92aeeb	-0.28649077
134	0xbc8ab571	-0.016932221
135	0xbf01a00c	-0.5063484
136	0x3e748b20	0.23881197
137	0x3d7a5961	0.061120395
138	0x3e618154	0.22021991
139	0x3e4b2f27	0.19842206
140	0x3dec762a	0.115459755
141	0xbe9bed7d	-0.30454627
142	0xbe8d191c	-0.2755822
143	0xbec51698	-0.384938

sun_influence_1.W_self.bias f4 [12]
0	0xbc6f9d2c	-0.014624875
1	0xbc4ee175	-0.012626995
2	0x3da629f6	0.08113472
3	0xbce6ac1a	-0.028158236
4	0xbcea1f5b	-0.028579405
5	0xbc3d86c6	-0.011567777
6	0xbcf23c1a	-0.029569674
7	0xba981c2c	-0.0011605076
8	0xbcea3b7d	-0.02859282
9	0xbc8f7f40	-0.017516732
10	0xbc861696	-0.016368192
11	0x3c272f3e	0.0102041345

sun_influence_2.W.weight f4 [12, 12]
0	0xbda14651	-0.0787474
1	0xbece6e51	-0.4031854
2	0x3f0d9fcd	0.5532196
3	0xbf7820d0	-0.9692507
4	0xbe0bca88	-0.13651478
5	0xbf23150e	-0.63704
6	0x3df02703	0.11726191
7	0x3b5b8067	0.0033493282
8	0x3eb3a3ac	0.3508581
9	0x3ea42713	0.3206106
10	0xbf2926b4	-0.6607468
11	0xbea75f3f	-0.32689855
12	0xbe0f9a9e	-0.14023826
13	0xbe9edc6e	-0.3102755
14	0x3d9512a6	0.072789475
15	0x3d54076d	0.051764894
16	0x3d9eebd5	0.07759825
17	0xbd9ad25b	-0.07559653
18	0x3d1895c5	0.037252206
19	0x3e883689	0.26604107
20	0xbde0ed6b	-0.10982784
21	0x3df9405c	0.12170479
22	0xbd811ea8	-0.06304675
23	0xbe8237d7	-0.25433227
24	0xbecf38c3	-0.40472993
25	0xbdf46514	-0.119333416
26	0x3d1970b2	0.03746099
27	0xbe323b4c	-0.17405432
28	0x3e23572f	0.15951227
29	0xbecd49d6	-0.40095395
30	0xbdc5d776	-0.096602365
31	0x3d7a6087	0.061127212
32	0x3e9d1b1c	0.30684745
33	0x3e7b054e	0.24513742
34	0xbec68cc6	-0.38779277
35	0x3e9106b0	0.28325415
36	0x3d944990	0.072405934
37	0xbe8965b7	-0.26835415
38	0x3e6eab66	0.23307571
39	0x3e487590	0.19576097
40	0x3eb04c01	0.34432986
41	0x3dfacaa0	0.12245679
42	0xbece34fa	-0.40274793
43	0x3f01bb4d	0.50676423
44	0x3eec71a2	0.46180445
45	0xba003a90	-0.0004891539
46	0x3dfaaeda	0.122403815
47	0x3ed67c72	0.4189182
48	0xbe3b3d58	-0.1828512
49	0xbf193f7d	-0.598625
50	0x3e8c0047	0.27343962
51	0xbf4c8c32	-0.7990142
52	0xbe0a118f	-0.1348326
53	0x3dd14da6	0.102198884
54	0x3d66d951	0.056359593
55	0x3eca7ea3	0.3954974
56	0x3dcbe170	0.09955108
57	0x3de8bef7	0.11364549
58	0x3e2e42a9	0.17017616
59	0x3da575d4	0.080791146
60	0x3e608af2	0.21928003
61	0xbe78c6a2	-0.24294522
62	0x3ebf372d	0.37346783
63	0x3eed81b9	0.46388033
64	0xbebe2272	-0.37135655
65	0xbe05612c	-0.1302535
66	0x3de59e32	0.11211814
67	0x3ec483d7	0.38381836
68	0x3eb27e4f	0.3486199
69	0xbecd2b1f	-0.4007196
70	0x3ecd0f42	0.40050703
71	0xbe89a770	-0.26885557
72	0x3ed49243	0.4151784
73	0xbe6ac9cd	-0.22928543
74	0xbea4ea3f	-0.32209966
75	0xbeae558f	-0.3404965
76	0x3ec8ed0c	0.39243352
77	0x3e603699	0.21895827
78	0x3dca8596	0.09888761
79	0x3dcb3aaf	0.099233024
80	0xbeb01e1d	-0.34397975
81	0x3f03aad3	0.5143253
82	0xbe2adb77	-0.16685282
83	0x3e540fb5	0.20709117
84	0xbc85cc6a	-0.016332824
85	0xbe7f5fc4	-0.24938875
86	0x3e20e94f	0.15714
87	0x3ec1d295	0.37855974
88	0xbeb80541	-0.35941508
89	0xbded8b11	-0.115987904
90	0xbd786e45	-0.060652036
91	0xbdb051b5	-0.086093344
92	0xbe218fd0	-0.15777516
93	0xbd5f3d59	-0.054501865
94	0xbca732b3	-0.020409917
95	0xbf18fd5c	-0.59761596
96	0xbed21a5a	-0.4103573
97	0xbed20d87	-0.41025946
98	0x3eafdeee	0.3434977
99	0x3e0bf356	0.13667044
100	0xbdd11273	-0.10208597
101	0xbecf383f	-0.404726
102	0xbdc20576	-0.09473698
103	0xbec02382	-0.3752709
104	0x3d93d8ec	0.07219109
105	0x3c88da13	0.016705548
106	0x3f1556b8	0.5833545
107	0xbc719d4e	-0.014746977
108	0x3e57d148	0.21075928
109	0xbcc40e2e	-0.023932543
110	0xbe4b3897	-0.19845806
111	0x3d8f7cb5	0.07006208
112	0x3c7d422f	0.015457674
113	0xbe7499af	-0.2388675
114	0xbe3258f6	-0.17416748
115	0x3d9bf394	0.07614818
116	0x3e66df45	0.22546108
117	0xbeedfcd0	-0.46481943
118	0xbee534ac	-0.44766748
119	0x3e9eef1a	0.31041795
120	0x3eaba44e	0.33523792
121	0x3c98f7a6	0.018672775
122	0x3f075a39	0.52872044
123	0xbf05683a	-0.5211216
124	0xbeb4d5f2	-0.35319477
125	0x3e4afdfc	0.1982345
126	0xbef71e32	-0.48265225
127	0xbf035a18	-0.5130935
128	0xbdee1b58	-0.11626309
129	0x3ed84d77	0.422466
130	0x3d3194ca	0.043354787
131	0xbc3d444c	-0.011551928
132	0x3f31bea1	0.694315
133	0xbd872336	-0.06598513
134	0x3d2dc130	0.042420566
135	0xbe0f847b	-0.14015381
136	0xbc684478	-0.0141764805
137	0x3e8d3b92	0.2758451
138	0xbe342246	-0.175912
139	0x3dd570dd	0.104219176
140	0x3d4422e7	0.047884848
141	0x3dcb2b64	0.099203855
142	0x3d92dffa	0.071716264
143	0x3efb7f82	0.49120718

sun_influence_2.W.bias f4 [12]
0	0x3d99d915	0.07512108
1	0xbc19019c	-0.009338763
2	0x3da2c008	0.07946783
3	0xbc0c4016	-0.008560201
4	0x3d84c2d9	0.06482477
5	0xbd617256	-0.05504068
6	0xbd32d5d2	-0.043660946
7	0xbdb479c0	-0.088122845
8	0x3def460d	0.11683283
9	0xbccf69ff	-0.025319098
10	0xbda9fb3c	-0.08299872
11	0xbd1cb5ad	-0.038259197

sun_influence_2.W_self.weight f4 [12, 12]
0	0xbcadb9a5	-0.021206686
1	0xbe43b7ce	-0.19113085
2	0x3ddc1301	0.10745812
3	0xbd2a22d7	-0.041537132
4	0xbeae6bb9	-0.3406656
5	0xbf1450de	-0.57935894
6	0x3e904338	0.28176284
7	0x3cbd0e9d	0.023078257
8	0xbddf0a33	-0.10890617
9	0xbe37ed86	-0.17961702
10	0xbd7a6ecc	-0.06114082
11	0x3ec32a47	0.38118193
12	0x3eb6207a	0.35571653
13	0xbe935a97	-0.28780052
14	0x3e956e58	0.29185748
15	0xbf2ec2c0	-0.68265915
16	0x3f47154a	0.7776686
17	0xbd7f8571	-0.06238312
18	0x3e9692ea	0.29408962
19	0xbd62e723	-0.05539621
20	0xbceb82bd	-0.028748864
21	0x3eded4d0	0.43521738
22	0xbec38ef7	-0.3819501
23	0x3df75d66	0.12078361
24	0x3e7a7dce	0.24462053
25	0x3e704057	0.23462044
26	0x3e9b9213	0.30384883
27	0xbe6c0c02	-0.23051456
28	0xbdefc46f	-0.117073886
29	0x3ebecb2b	0.3726438
30	0x3ed6569c	0.41862953
31	0x3f344195	0.7041257
32	0xbda9afb6	-0.08285467
33	0x3f31126b	0.6916873
34	0xbe9e4de6	-0.30918807
35	0xbe595536	-0.21223912
36	0x3cd656ad	0.026164377
37	0x3e1ccea1	0.15313198
38	0xbe3f87b7	-0.18704115
39	0xbd1c3be2	-0.038143046
40	0x3f06496b	0.52455777
41	0xbf0a7487	-0.54084057
42	0x3d92d790	0.071700215
43	0x3d90d4f5	0.07071868
44	0x3e16d703	0.14730458
45	0xbe665fca	-0.22497478
46	0xbe95cf1f	-0.29259583
47	0x3d0a1cd9	0.033718918
48	0xbf02bfd3	-0.5107395
49	0xbeca247a	-0.39480954
50	0xbdc4cace	-0.096089944
51	0xbe88c9ad	-0.26716366
52	0x3e26e6b4	0.16298944
53	0xbd8fba17	-0.07017916
54	0x3d7fe507	0.062474277
55	0x3e02ee90	0.12786317
56	0x3e21110d	0.1572916
57	0xbe1174db	-0.14204733
58	0xbe689ea0	-0.2271676
59	0xbef78097	-0.48340294
60	0x3cffc497	0.031221671
61	0xbf0b44a8	-0.54401636
62	0xbd6e6b34	-0.058207706
63	0xbdb3a635	-0.08771936
64	0xbe573c58	-0.21019113
65	0xbec467a8	-0.38360333
66	0x3e296b42	0.16544822
67	0x3df50167	0.11963158
68	0x3cc14b87	0.023595585
69	0xbf18eb96	-0.59734476
70	0xbda86a2a	-0.08223374
71	0xbd926a61	-0.071491964
72	0xbdf336a0	-0.11875653
73	0x3e60998e	0.21933576
74	0xbef05fb6	-0.46948022
75	0x3eed5eee	0.46361488
76	0x3ed852a4	0.4225055
77	0xbe7aad87	-0.24480258
78	0xbe5c14a2	-0.21492246
79	0x3ef8cea6	0.4859516
80	0x3ec859b6	0.39130944
81	0x3e9a1f6f	0.30102107
82	0xbe118e7f	-0.14214514
83	0xbda3d66e	-0.079998836
84	0xbe45c06b	-0.19311683
85	0x3cc11250	0.023568302
86	0x3d6a218b	0.057160895
87	0x3e5a89da	0.21341649
88	0x3df58698	0.11988562
89	0xbdc7b689	-0.09751613
90	0x3e6d482b	0.23172061
91	0xbdbc2d86	-0.091883704
92	0xbe28b753	-0.16476183
93	0x3ea6c216	0.3256995
94	0x3e4794a5	0.19490297
95	0x3dbc69f1	0.09199894
96	0x3e4a425e	0.1975188
97	0x3c86d7de	0.016460355
98	0x3e8e8495	0.27835527
99	0x3d4689c9	0.048471246
100	0xbccd8ca1	-0.025091471
101	0xbeb87586	-0.36027163
102	0xbecfb163	-0.40565023
103	0xbec032bc	-0.37538707
104	0xbe85e1b6	-0.26148766
105	0xbf2d98d9	-0.6781135
106	0x3e85038e	0.25979275
107	0x3e8911a3	0.26771268
108	0x3d104286	0.03521969
109	0xbf0d8278	-0.55277205
110	0x3d97e62e	0.0741695
111	0x3e9b5437	0.30337688
112	0x3da3cedb	0.07998439
113	0x3ea42e55	0.320666
114	0xbddbc8a1	-0.10731626
115	0xbe9e7245	-0.30946556
116	0x3e9bc683	0.3042489
117	0xbe247f66	-0.16064224
118	0xbc6bb958	-0.014387451
119	0xbe4c2659	-0.19936503
120	0xbf2bc837	-0.6710238
121	0x3de107ee	0.109878406
122	0x3db69b38	0.089163244
123	0xbe53cb95	-0.20683129
124	0x3ec0093e	0.3750705
125	0xbe5e5874	-0.2171343
126	0xbd3af468	-0.04564324
127	0xbe2cc728	-0.16872847
128	0xbcbc4f6c	-0.02298709
129	0xbec0ed82	-0.37681204
130	0xbd9826aa	-0.074292496
131	0xbdff450b	-0.12464341
132	0x3e8017b7	0.25018093
133	0x3e3e3e79	0.18578519
134	0xbe348053	-0.17627077
135	0x3e1bea80	0.15226173
136	0x3db59b29	0.08867485
137	0xbec371c1	-0.38172725
138	0x3ea63705	0.32463852
139	0x3e781c7f	0.2422962
140	0xbef283e1	-0.4736624
141	0x3edb4830	0.42828512
142	0x3e70a3e2	0.23500016
143	0xbe941266	-0.28920287

sun_influence_2.W_self.bias f4 [12]
0	0x3d99d915	0.07512108
1	0xbc19019c	-0.009338763
2	0x3da2c008	0.07946783
3	0xbc0c4016	-0.008560201
4	0x3d84c2d9	0.06482477
5	0xbd617256	-0.05504068
6	0xbd32d5d2	-0.043660946
7	0xbdb479c0	-0.088122845
8	0x3def460d	0.11683283
9	0xbccf69ff	-0.025319098
10	0xbda9fb3c	-0.08299872
11	0xbd1cb5ad	-0.038259197

sun_influence_3.W.weight f4 [12, 12]
0	0xbe49fc5f	-0.19725178
1	0x3e935d31	0.28782037
2	0x3e1ad470	0.15120101
3	0xbe036728	-0.1283232
4	0xbdec3b20	-0.11534715
5	0xbe6a696a	-0.22891775
6	0x3f0d7c7c	0.55268073
7	0x3df3d335	0.11905519
8	0x3e3d5ae4	0.18491703
9	0xbe9576ce	-0.29192203
10	0x3e8ec888	0.27887368
11	0x3f115dc6	0.5678371
12	0x3f2654bb	0.6497304
13	0xbe8b8b14	-0.27254546
14	0x3f1306e6	0.574324
15	0xbe3c9ab4	-0.1841839
16	0xbed204ad	-0.41019192
17	0x3ee9531b	0.45571217
18	0xbebcbddc	-0.368636
19	0xbe498cc2	-0.19682601
20	0xbd19d7b1	-0.037559215
21	0xbe94cddf	-0.29063317
22	0x3e393deb	0.18090026
23	0x3da74720	0.08167863
24	0xbf4a8726	-0.7911247
25	0xbeed65fb	-0.46366867
26	0xbed493e0	-0.4151907
27	0x3e39b064	0.18133694
28	0x3cb6045a	0.022218872
29	0x3ef8a6d5	0.48564783
30	0xbea4370e	-0.32073253
31	0x3e5f120a	0.21784225
32	0x3ef04277	0.4692571
33	0xbe1f5e1f	-0.15563248
34	0x3e6a5231	0.22882916
35	0x3edd8cae	0.43271393
36	0xbc9705f7	-0.018435461
37	0xbf1b6462	-0.60700047
38	0xba9a9ca1	-0.0011795947
39	0x3e4a01b7	0.19727217
40	0xbd8ef4ae	-0.06980263
41	0xbded688e	-0.11592208
42	0xbe692eff	-0.22771834
43	0x3e47ca13	0.19510679
44	0xbdfb55d9	-0.122722335
45	0x3e61b5b5	0.22041972
46	0xbea60e37	-0.3243272
47	0xbeb134cf	-0.34610602
48	0xbd4d332e	-0.050097637
49	0x3e7bd6b7	0.24593626
50	0x3e15dfbc	0.14636129
51	0xbe1550f9	-0.1458167
52	0xbe4017c8	-0.18759072
53	0x3ecc9ebf	0.39964864
54	0xbdd7ba03	-0.10533526
55	0x3ea74404	0.3266908
56	0x3e772533	0.24135284
57	0x3e21746d	0.15767069
58	0x3e865f1d	0.2624444
59	0xbce0c1d7	-0.02743618
60	0x3e1c9ea1	0.15294887
61	0xbedbd14a	-0.42933112
62	0x3d8144ef	0.06311976
63	0x3d840838	0.0644688
64	0x3eff92e7	0.49916765
65	0xbcc7c65a	-0.024386574
66	0x3d2625e3	0.040563475
67	0xbe98d7a3	-0.29852018
68	0xbe3ef770	-0.18649077
69	0x3e953330	0.29140615
70	0x3eb4a0a6	0.35278815
71	0xbec1455e	-0.37748235
72	0x3e595aa8	0.21225989
73	0xbea3f380	-0.32021713
74	0xbe4b2649	-0.19838823
75	0xbe4b7d97	-0.19872127
76	0xbe912f23	-0.28356275
77	0xbdd4160c	-0.103557676
78	0x3ecd3144	0.4007665
79	0xbe244156	-0.16040549
80	0x3f300556	0.6875814
81	0x3e40e94d	0.18838997
82	0xbe9bee85	-0.30455413
83	0x3e8fc3ec	0.28079164
84	0xbd88cbd5	-0.06679503
85	0x3e38e90c	0.1805765
86	0x3e216143	0.15759759
87	0xbe810c3e	-0.25204653
88	0xbbe31b81	-0.006930769
89	0xbeb81234	-0.35951388
90	0x3e26f650	0.16304898
91	0x3e6a2cd5	0.22868665
92	0xbecbb94c	-0.39789808
93	0xbe56da92	-0.20981815
94	0xbea93bf8	-0.33053565
95	0x3f07b813	0.5301525
96	0xbd141313	-0.036151003
97	0x3d80dbcd	0.06291924
98	0xbe235f1d	-0.15954252
99	0xbe92246f	-0.28543422
100	0x3d7f14f6	0.06227585
101	0x3edcf7b0	0.4315772
102	0xbb7960bc	-0.0038052043
103	0xbec05943	-0.375681
104	0xbde9cc21	-0.114158876
105	0x3e4a0961	0.1973014
106	0x3e5a511d	0.21320005
107	0xbeee66c0	-0.46562767
108	0x3efaa453	0.48953494
109	0xbd95245a	-0.07282324
110	0xbea467bc	-0.32110393
111	0xbf8c68ec	-1.096952
112	0x3de5e733	0.112257384
113	0xbe8085e5	-0.25102153
114	0x3d862b52	0.065512314
115	0x3ef4519f	0.47718522
116	0x3f19dd6a	0.60103476
117	0xbe4ac7cb	-0.19802777
118	0x3f75b91e	0.9598559
119	0xbf0661ed	-0.5249317
120	0x3ee0d6c4	0.43913853
121	0x3e2b817e	0.16748616
122	0x3c59a325	0.013283526
123	0xbf029de5	-0.5102218
124	0xbe722c34	-0.23649675
125	0xbec72915	-0.3889853
126	0x3e53b7d6	0.20675597
127	0x3eb7a3b0	0.3586707
128	0x3e551fc6	0.20812902
129	0x3e72dfff	0.2371826
130	0xbeae23cc	-0.34011686
131	0x3e72c2ca	0.23707119
132	0x3e1a0683	0.15041547
133	0xbd84d3cd	-0.0648571
134	0xbdb6186a	-0.08891375
135	0xbe60d644	-0.21956736
136	0x3d36f559	0.044667576
137	0xbe9defcf	-0.30847022
138	0x3e8dc3dd	0.27688494
139	0xbde2b606	-0.110698745
140	0xbf03a99a	-0.51430666
141	0xbe40c407	-0.18824778
142	0x3e7f6afb	0.24943154
143	0x3f2d707f	0.6774978

sun_influence_3.W.bias f4 [12]
0	0xbcda0489	-0.02661349
1	0xba8ee8b3	-0.001090309
2	0xbcd94c24	-0.026525564
3	0xbd1201fe	-0.03564643
4	0xbc0c38f3	-0.0085585
5	0xbd6ab3a7	-0.057300236
6	0xbd301c09	-0.042995486
7	0xbc418b5a	-0.011813009
8	0xbd15cbf0	-0.036571443
9	0x3d771f7a	0.060332753
10	0x3d13f08f	0.036118086
11	0x3c52d516	0.012868186
