src/Photosynthesis/RL/SavedModels/model_10.pth (torch, 30290 bytes, 34 tensors)

player_tree_1.W.weight f4 [12, 12]
00000000: 9fb4 f1bd ca94 08bf 111a 9b3e a30d 8dbe
00000010: b6bf 173e 6833 813e 5555 ba3d beae 863d
00000020: 191c 1b3d e320 a33e 0d8f 773c 825d 01be
00000030: 3ca2 30be 3f23 783e 2c74 92be 5e47 c6be
00000040: a67e a93e 4b73 b43c 68cb bbbd edaa bf3d
00000050: 5110 abbe d1b0 1b3f b963 253f 95df 8cbd
00000060: c095 b13b 2c48 8dbe 454d 823c 662f 803e
00000070: 73e3 8b3e 1896 b43d cb62 1dbd 6dd0 bd3e
00000080: 34e5 083f 984c be3e 9ff4 83bc 7905 54be
00000090: ec9c febd bb7a c9be 988c 98bd 43cb c83b
000000a0: 5dc4 48be 7ecb 8c3d 83a2 033d 50d4 29be
000000b0: 4ae8 48be 6d44 1bbd a048 5dbf 10c2 093e
000000c0: 5c06 ac3d ab67 16be 6486 b2bd 4772 75be
000000d0: 1cd4 80bd 7c8f 1b3f 4b47 4a3e e597 5ebe
000000e0: ac4c c83e 1173 adbd 1839 933d c53d 813a
000000f0: 0107 9b3d 5015 ab3d 6698 9fbe b177 093d
00000100: 9ba1 c4be 5c08 bfbd 5d1e d2bd bd44 0dbd
00000110: 2211 77be 0456 97bc 03e2 abbe dffb 903e
00000120: 5ee4 1bbe a6b1 393e 4e01 76be efd3 223e
00000130: 3542 403f 72af afbd 5b26 1f3f edc8 9cbe
00000140: 3ca3 94be 30d5 96be a299 a9be b3e9 58bd
00000150: a121 f63e 59b8 753e 3794 63ba 97f5 24be
00000160: 0494 ae3d 539f b5be d192 fabe 209d 2abe
00000170: 9e5e a3be 7914 a03e 0580 c33e 126c 90bd
00000180: 388f 623d b0a1 89be 82ea dfbe 53ad 483e
00000190: 3a45 3bbe c296 b1be 60e7 1e3d 3fb3 8abd
000001a0: 63bd fbbe e6f2 07bd 9525 9b3e 18dc 0fbd
000001b0: 4d93 a1be c226 27be 69a5 ccbe 0644 e53c
000001c0: 765e bcbd 45d6 9f3e a2de 803e 5a4a 103f
000001d0: 2637 74be a86a de3e 776c 24be ef6c 59bc
000001e0: 903e 9fbe 600e 883e 0b13 63bd f5e3 c4bd
000001f0: 4771 d4be fc1c 94bf 9e6b a43e bee9 acbd
00000200: 1519 e93c 8863 0c3c 5cb1 6abe 2050 08be
00000210: f652 263e 49ac 653e fd7e 67be 414f a23e
00000220: eb30 1fbe 67ed bfbe 24b9 51bd 8efa 473d
00000230: 7b4a 943e 10d3 99bd f020 533e d458 3c3f
-0.11802029 -0.53352034 0.30293325 -0.27549466 0.14819226 0.25234532 0.09098307 0.06576298
0.037868593 0.31861028 0.01510979 -0.12633327 -0.17249388 0.24232195 -0.28604257 -0.38726324
0.33104438 0.022027632 -0.09169656 0.093587734 -0.33410886 0.60816675 0.6460529 -0.068785824
0.005419463 -0.27594125 0.015905986 0.25036162 0.27321967 0.088176906 -0.038424294 0.3707308
0.53474736 0.3716781 -0.016107855 -0.20705213 -0.12432274 -0.39351448 -0.07448691 0.0061277463
-0.19606157 0.068747506 0.032137405 -0.16584897 -0.19619861 -0.037907053 -0.8643894 0.13452935
0.083996505 -0.14687984 -0.08717039 -0.23969375 -0.06290457 0.60765815 0.19753759 -0.2173763
0.39120996 -0.08469213 0.07188624 0.0009860328 0.07569695 0.083536744 -0.31170958 0.033561412
-0.38404545 -0.09327766 -0.102596976 -0.034489382 -0.2412763 -0.018473633 -0.3357087 0.28317162
-0.15223834 0.18134174 -0.24023935 0.15901159 0.75101024 -0.085783854 0.621679 -0.30622044
-0.29030788 -0.29459524 -0.33125025 -0.052957248 0.48072532 0.23996104 -0.00086814485 -0.1610931
0.085243255 -0.35473117 -0.48940137 -0.16661501 -0.31908125 0.3126562 0.3818361 -0.07051863
0.055312365 -0.2688117 -0.43733603 0.19597368 -0.18288127 -0.34685332 0.038794875 -0.0677247
-0.49167928 -0.03319063 0.3030211 -0.035122007 -0.31557694 -0.16323379 -0.39969948 0.027986538
-0.091977045 0.31218162 0.25169855 0.5636345 -0.23849162 0.43440747 -0.16057001 -0.013270601
-0.3110242 0.26573467 -0.055438083 -0.09613792 -0.41492674 -1.1571345 0.32113355 -0.0844302
0.028454343 0.008568652 -0.2291922 -0.13311815 0.16242585 0.22429003 -0.22607036 0.3170109
-0.15546004 -0.3748581 -0.051201954 0.048822932 0.28963074 -0.0751096 0.20618033 0.7357304

player_tree_1.W.bias f4 [12]
00000000: b285 053c 6d2a bbbb 9d48 7b3c c9f4 2abb
00000010: e14b 5b3b 4d5c 1ebb f6f0 a5bc df81 5abb
00000020: 153e 53bb 387c 44b9 f77d 12bd 3e21 2cbc
0.008149551 -0.0057118447 0.015337137 -0.0026085845 0.0033461975 -0.0024163902 -0.0202565 -0.003334157
-0.0032233049 -0.00018738292 -0.03576466 -0.010505972

player_tree_1.W_self.weight f4 [12, 12]
00000000: 0ba2 0abe d67d de3d 2636 123f 3e6b 65be
00000010: e437 333f 78ae b3bd f7c9 0bbe bfb8 38be
00000020: e92d 00bd f4a0 d83e ce00 ee3d f62a 57bc
00000030: d8e8 ca3e 0149 53be 9fac 0abe 7c4a 86bd
00000040: 11ae 26be a646 cfbe 569a 2d3e 071a 033f
00000050: ab03 0c3e 1f27 073d 77eb 4f3e d432 00bd
00000060: 6967 2b3e 1ed1 673e 998f 563d d5b2 15be
00000070: b868 143d 10a4 c33d 171b e9be a32e 6b3f
00000080: 943b af3e 20a9 903e 3f7f 1dbe 029c 613e
00000090: a95b 66be d270 0cbd 7a44 c6be 4937 bc3d
000000a0: c9d4 f73e 4d4d 363d 4b6b 11bf 247e dd3d
000000b0: 52ff a13d 3f0f 80be 08f7 c13d a325 9bbe
000000c0: 106d f23e 1a34 583e 9132 14bd 6edb 0e3f
000000d0: d476 6f3e fbff 87be 84ce 3fbe ebb7 793e
000000e0: 9541 4abe 5a27 ebbd 7359 a1bd f4fe 88bd
000000f0: d6e7 8dbe 61fa ecbe d8c8 8ebe d460 a6be
00000100: 7e2e 9a3b 234f a5be d26d 18bf a32d b2bd
00000110: 0e9f a1be d4fa ec3e df13 e8be bd61 113e
00000120: 7012 083f d842 adbd 2be0 97be 5788 d7bd
00000130: aa31 713e 5fec 77bc de65 8b3e 1ead 79bd
00000140: 3961 753e e321 2f3f c4f0 dfbd f8de 393e
00000150: 29db 793b 171f 063e fa9a 183e db31 87be
00000160: 49bf ba3e 136d 863e 8781 dc3d 8fc6 bebe
00000170: e6a1 88bd ad36 92bd 280d c43e 5533 1abf
00000180: a23d 983e a88e a33d 95df 2ebd d1f7 82be
00000190: ef15 57be d940 873e 6ad9 b43e 62c0 2f3d
000001a0: 7816 983e 1342 6abe cbc5 643e debf 983e
000001b0: 2e45 88bc b7e2 3c3e f909 e9bd 4d6e d0be
000001c0: 2cf6 25be 4628 ebbd 6476 303e 1afc 01be
000001d0: f781 8fbe 630d 0cbe 6425 0ebe 7af3 e8bd
000001e0: 3457 dd3a aa9b 1d3e c614 00be 1a78 1d3f
000001f0: 7d32 2bbd db3d 0fbf 7417 0dbf c731 1cbe
00000200: fb9c 0c3e a82d 853e 736b 95be 5977 bdbe
00000210: fd7b dfbe fd43 20bf d9dc c73e 066e 12be
00000220: 6a23 0dbf 1e20 2ebe e3de 8c3d 8cc4 49be
00000230: e137 393e b0fd 28be 70e7 73be 5265 37bf
-0.13538377 0.10863845 0.57113874 -0.22404191 0.7000716 -0.08773512 -0.13651262 -0.18039225
-0.031293783 0.42310297 0.11621247 -0.013132801 0.3963077 -0.20633318 -0.13542412 -0.065571755
-0.16277339 -0.40483588 0.16953406 0.5121159 0.13673274 0.032996293 0.20304666 -0.031298473
0.16738667 0.22638366 0.05238304 -0.14619 0.03623268 0.09552777 -0.4552848 0.91868037
0.34225142 0.28254032 -0.15380572 0.22032169 -0.22495903 -0.03428728 -0.38724118 0.09190232
0.4840453 0.044507314 -0.5680434 0.10815075 0.079100266 -0.25011632 0.094709456 -0.30302152
0.47348833 0.21113625 -0.036181036 0.55803573 0.23385173 -0.26562485 -0.18731123 0.24386565
-0.1975158 -0.11482115 -0.07878389 -0.066892534 -0.2771594 -0.46284774 -0.27887607 -0.3249575
0.0047052493 -0.3228694 -0.5954257 -0.08700111 -0.31566662 0.46285117 -0.4532766 0.1419744
0.53153133 -0.08460015 -0.29663214 -0.10524052 0.23554102 -0.015132039 0.27226156 -0.060956113
0.23962869 0.6841108 -0.10934594 0.18151462 0.0038125014 0.13097797 0.14902869 -0.26405224
0.36474064 0.26255092 0.10766893 -0.37260863 -0.06671505 -0.07139335 0.38291287 -0.60234576
0.29734522 0.07986194 -0.042693693 -0.25579694 -0.21004461 0.26416662 0.35322124 0.04290808
0.29704642 -0.22876768 0.22341077 0.29833883 -0.01663455 0.1844586 -0.11378855 -0.40709153
-0.16207188 -0.11482291 0.17232662 -0.12693825 -0.28028843 -0.13676982 -0.13881451 -0.113745645
0.001688695 0.15391412 -0.12507924 0.61511385 -0.041796196 -0.5595376 -0.5511391 -0.15253364
0.13731758 0.26011395 -0.2918354 -0.37005118 -0.43649283 -0.6260374 0.3903568 -0.14299783
-0.5513216 -0.17004439 0.0687845 -0.19703883 0.18087722 -0.16503024 -0.23818755 -0.7163898

player_tree_1.W_self.bias f4 [12]
00000000: b285 053c 6d2a bbbb 9d48 7b3c c9f4 2abb
00000010: e14b 5b3b 4d5c 1ebb f6f0 a5bc df81 5abb
00000020: 153e 53bb 387c 44b9 f77d 12bd 3e21 2cbc
0.008149551 -0.0057118447 0.015337137 -0.0026085845 0.0033461975 -0.0024163902 -0.0202565 -0.003334157
-0.0032233049 -0.00018738292 -0.03576466 -0.010505972

player_tree_2.W.weight f4 [12, 12]
00000000: 55e4 e13e 02a5 a73e 3392 36be 84de bbbe
00000010: fbd9 cabe e43f 303f b6e6 55be 9cde 0bbf
00000020: 6a17 8ebe 6d77 4a3d 14b8 fdba 0d88 b83e
00000030: 9dcc 653e 912b 123e e537 ba3e 8ad6 42be
00000040: 2fce aabe 4275 bfbe e2bc 123e 7287 813e
00000050: 9938 eb3e 76f6 d43e 82ee 69be 524f 4bbf
00000060: cd73 49be b81b 8b3e 1541 3abe c36d 1ebb
00000070: 58d7 f13e 5971 0c3d 528a 05be ce7d 2dbd
00000080: c85a 453c bacd 0b3e ee2c de3d cb30 653f
00000090: 0d4a 6fbc bd4f 163f a198 023e c490 32be
000000a0: 9d95 8abe 266a 33be 4c01 acbe bf7f 11be
000000b0: 6a65 053d 82b3 13be d5da 813d 6628 c53d
000000c0: 28db 8dbd c3a4 a6be 7ee3 bfbd e422 a0be
000000d0: 18c4 4dbe feae 263f 741f 5dbd 527f 10bc
000000e0: 498d 6e3e b506 163f 27be 7c3d cfc0 303e
000000f0: 0c7a 863e 1011 8dbe 80a8 5abe 8fe1 8ebd
00000100: 27e8 bbbe 5b9f dc3e c345 803e babe 613e
00000110: 6a17 0ebe 0e9d 36bd 0e1a 003e fc7c cfbe
00000120: 88ca 613e 3728 2abe 145c bcbe 5d6e 0ebe
00000130: dc3a 40be be61 2e3f 2422 8b3e a2d3 9ebd
00000140: 7057 253c d50e 063e 9982 6e3e 1f9b 59be
00000150: 306d 093e d4c1 cf3c 1b7d 0c3f b233 9fbe
00000160: a7b0 6f3e 7027 363e f7e5 e9bc f502 623e
00000170: 45d5 603e eebd 24be c106 533d 34f6 33be
00000180: 843b 643e 806b 863e 5321 9b3e fbbd ed3d
00000190: 007b b7be 7104 d13d 265e 013e 50ea a53d
000001a0: a46e df3e 9d34 8b3e cda6 45be d2f1 14be
000001b0: 1c77 7d3e cc6b 963e 675b a53e c006 4cbd
000001c0: 5592 9ebe 77b4 a1be 0e80 9d3e 1c83 8ebc
000001d0: 3e3a 25bf e408 0ebf 19fc 0fbd 109a ffbd
000001e0: 80cd 85be 695b 913e 71c6 943e 874d d93e
000001f0: b856 42be 7f33 013f 1a61 c6be 42a9 623d
00000200: d163 b5be eb81 84be 9098 bbbd e22b d8bd
00000210: 5d99 b6be 41c2 353e 1adb bb3d 0a02 263e
00000220: 99cb 063d e481 89be 3f7b 943e 75b4 143e
00000230: 287f 5a3e 263a cabe bf0f e9bd 1aec 55be
0.44119516 0.32743078 -0.17829208 -0.36693203 -0.3961943 0.6884749 -0.2088879 -0.5463655
-0.2775224 0.0494303 -0.0019357228 0.36041299 0.22441335 0.14274432 0.3637077 -0.19027153
-0.3336043 -0.37394148 0.14329866 0.2529865 0.45941618 0.41594285 -0.2284489 -0.7941791
-0.1967308 0.27169585 -0.1818889 -0.002417431 0.47234607 0.034287784 -0.13041046 -0.042356305
0.01204557 0.13652697 0.108484134 0.8952758 -0.014605057 0.5871542 0.12753536 -0.17438036
-0.2706727 -0.17520961 -0.3359474 -0.14208888 0.03256742 -0.14423946 0.06340567 0.09626846
-0.06926566 -0.32547578 -0.093695626 -0.3127662 -0.20094335 0.65110767 -0.053985074 -0.008819418
0.23296084 0.58603984 0.06170478 0.1726105 0.2626499 -0.2755208 -0.2135334 -0.06976616
-0.36700556 0.4309033 0.25053224 0.22045413 -0.1387612 -0.044583373 0.12509939 -0.40525043
0.22049916 -0.16616903 -0.36789 -0.13909288 -0.18772453 0.6811789 0.27174485 -0.077552095
0.0100916475 0.13091595 0.23292007 -0.2125058 0.13420558 0.02536098 0.54878396 -0.31094128
0.23407231 0.17788482 -0.028552039 0.2207144 0.21956356 -0.16088077 0.051520113 -0.17574388
0.22288328 0.2625389 0.30298862 0.116085015 -0.3583603 0.10205925 0.12633571 0.08101332
0.436391 0.27188578 -0.1930191 -0.14545372 0.24752468 0.29379117 0.32296297 -0.049811125
-0.30971017 -0.31582996 0.3076176 -0.017396502 -0.64541996 -0.55482316 -0.03515253 -0.12480557
-0.26133347 0.28390053 0.2905765 0.4244196 -0.18978393 0.504692 -0.38745958 0.055337198
-0.35427716 -0.2588037 -0.09159958 -0.10555245 -0.35663882 0.17749883 0.0917265 0.16211715
0.03290901 -0.2685691 0.2900028 0.14521964 0.21337569 -0.3949749 -0.113799565 -0.20890847

player_tree_2.W.bias f4 [12]
00000000: 9261 f7bc cf62 993b e73a 353c f8f7 163c
00000010: 2742 843b a6ec 1abc c38e 0abd 38f1 903c
00000020: 8a6f a2bb 63fa 0d3a 9965 86bb e798 5fbc
-0.030197892 0.0046809684 0.011061407 0.009214394 0.0040362063 -0.009455835 -0.033827554 0.017693147
-0.004957144 0.00054160337 -0.004101467 -0.013647295

player_tree_2.W_self.weight f4 [12, 12]
00000000: 1157 31be 4fa2 d53c 7ef0 d23d 1b38 41be
00000010: 71cf 823e 64d5 b2be 04dd 55be cb4c eebe
00000020: 8067 b9be 3e9f 883e 2b27 b93d 51c6 17be
00000030: e1eb e8be d732 8ebe 6ec5 b13d 47d4 4e3e
00000040: 5073 eabe 4233 fcbe 9791 9abe bdb1 2d3f
00000050: 840e 44be 1504 39bd 250c dd3d d0dc e13c
00000060: 3c2b f3be ae31 c83e 8944 e1be ca76 d7bd
00000070: 5e6d 843d 6243 bf3e d587 103e b5e9 adbd
00000080: 6977 a83e 8f10 4a3e cf83 85be 4fb8 b5be
00000090: f35d e03e adcd 9f3d 2365 163f e974 623e
000000a0: 9d3b 6b3c 684e 3c3e 1658 e63e 7535 93be
000000b0: 0408 113f 782b 4ebe f4f1 debe 4785 43be
000000c0: 354c 003f 9231 823d 4950 a7be e3b1 b43d
000000d0: 1d04 edbd 05a7 f73e 72a8 453d 7959 13be
000000e0: 5e27 863e 11bb 6bbc 4ca7 55be 4573 233c
000000f0: 8427 8cbc 39b0 3b3e eb11 3b3d ac5d 283d
00000100: 41cd 9e3e b329 cf3e bd1c 18bf 57be 063e
00000110: 2656 183e 15e6 55bc da3b c63e 8f8d fe3e
00000120: a20a debd 4340 833e c82f e83d 1180 2dbf
00000130: 1f5d 153f 81bc fe3c 0193 b53e 9c30 17bd
00000140: 72db fb3d 7e4c a2be 6ee4 9a3e 0992 0c3e
00000150: f2de 8bbd f89a cfbe 9308 5b3e 5ffa 423e
00000160: dc72 133e 6439 43bd 7270 343e 7a86 083f
00000170: be5f 09bf 4aaa 8d3d bb48 933c 6812 573e
00000180: 2f26 dc3c fad5 393e 0d85 0abf 732b 0e3f
00000190: 4307 51be ae35 f6be 86d1 cbbe 31ce 4cbe
000001a0: 6d71 b03e f996 8c3e 602e 17be 4d12 acbe
000001b0: da86 febe ca78 50bd e32b d5be aee2 e73c
000001c0: 007c a0bd 27ea 8bbe 698d e2be b4b5 103e
000001d0: 3cc4 a5be d83d 8c3e 8261 4b3e f70f 4fbd
000001e0: 8c46 e1bb 575e 1ebe d979 bdbe 4c0e d83e
000001f0: 564b 4d3e 070b c3bd b8e6 60be 2498 4e3e
00000200: 2a4a 15bf b682 bebd b160 4abe b9b8 1cbd
00000210: 6e06 d13d b497 82bd 8b49 d0be edf6 913e
00000220: 1b6f 2fbf 9855 5f3d 3f6b b93d be76 8bbe
00000230: bdaa d3be 620d 6ebe 76c9 073e 653b ecba
-0.1731837 0.026078371 0.102997765 -0.18869059 0.2554889 -0.3492843 -0.20885092 -0.46542963
-0.36211777 0.26683992 0.09040674 -0.14821745 -0.4549246 -0.27773163 0.08680235 0.20198165
-0.457911 -0.49257857 -0.301892 0.6784933 -0.19146162 -0.04516991 0.10793332 0.027571112
-0.47493923 0.39100403 -0.439976 -0.10520704 0.06466173 0.37356097 0.14114316 -0.08491842
0.32903603 0.19732879 -0.26077124 -0.3549218 0.43821678 0.078029014 0.5874807 0.2211491
0.014357475 0.18389285 0.4498908 -0.28751722 0.56652856 -0.2013377 -0.4354397 -0.1909381
0.5011628 0.06357111 -0.3267844 0.08822992 -0.1157305 0.48369613 0.048256345 -0.143896
0.2620191 -0.014387862 -0.208646 0.009976213 -0.017108686 0.18328942 0.045671385 0.041104957
0.3101597 0.404615 -0.5941885 0.13158546 0.14876613 -0.013055344 0.38717538 0.49717376
-0.10841872 0.25634965 0.113372386 -0.6777354 0.58345217 0.031095745 0.35463718 -0.036911592
0.12297715 -0.31698984 0.30252403 0.13727583 -0.06829633 -0.4054792 0.2138999 0.19040821
0.14399284 -0.047662154 0.1762102 0.53330195 -0.53661716 0.06917246 0.017979017 0.21003115
0.026873676 0.18148032 -0.5410927 0.5553505 -0.20412926 -0.4808783 -0.3980829 -0.20000531
0.34461537 0.27458933 -0.14763784 -0.33607712 -0.4971226 -0.050896443 -0.41635045 0.028306331
-0.07836151 -0.27327082 -0.44248512 0.14131814 -0.32376277 0.27390933 0.19861415 -0.050552335
-0.006874865 -0.15465675 -0.37007025 0.42198408 0.2004827 -0.09523588 -0.21963012 0.20175225
-0.5831629 -0.09302275 -0.19763447 -0.038262103 0.102063045 -0.06376591 -0.4068111 0.28508702
-0.6852891 0.054524988 0.09053659 -0.2723903 -0.413412 -0.23247293 0.13260445 -0.0018023072

player_tree_2.W_self.bias f4 [12]
00000000: 9261 f7bc cf62 993b e73a 353c f8f7 163c
00000010: 2742 843b a6ec 1abc c38e 0abd 38f1 903c
00000020: 8a6f a2bb 63fa 0d3a 9965 86bb e798 5fbc
-0.030197892 0.0046809684 0.011061407 0.009214394 0.0040362063 -0.009455835 -0.033827554 0.017693147
-0.004957144 0.00054160337 -0.004101467 -0.013647295

player_tree_3.W.weight f4 [12, 12]
00000000: c1b4 313e c8f8 4fbf f712 02be 3eb7 f43c
00000010: 83e9 26be d203 23be 0cd7 adbd 8fee 53be
00000020: 25d7 203d b40a b5bc f09d 743e d27e 79bd
00000030: d895 b03d cebc 9e3e 21d9 f13e 58d8 32be
00000040: 918e a53d 2369 a9bd c392 c23c fe4e 04be
00000050: e2a4 173d 5022 ec3e 9ec3 35bd 88bd d63e
00000060: 59dd 6a3d 62a7 ab3e 3a74 303d 64ab 233e
00000070: 5a4b 603e 8523 493e b858 21be 7d34 073f
00000080: 0a5b ff3d 8e64 05bf addf b6bc d2c2 b33c
00000090: 1fa0 72be 56a9 393c 4dc5 9d3d 6467 d0bd
000000a0: e40b 363d 81de 8c3e 69b8 603d 8307 b23e
000000b0: 68ae 713d 4d79 97be 727e 173f ec28 42be
000000c0: d5db 5bbe cb74 99bd d3e7 433e 70cc 30be
000000d0: dcee 533e b148 98be e781 433e 00a1 b3bc
000000e0: 76f0 8d3e 6c93 4ebb 3845 95bc e6ee 143e
000000f0: 0fda 09be 49f4 083f ca86 fdbc c8e2 60be
00000100: 176e b13e b6b9 3bbe 79e1 a2be ae1f 19bf
00000110: 8b36 b3be 99e1 033e 117c 72bd 3c93 ff3d
00000120: d5a3 56be 41a7 90bd df11 b1bd d6a1 e93b
00000130: 05e4 94be cd33 e63d a01a 123f e09c 9e3d
00000140: 16ab cf3e d8f4 c7be a003 7c3e 0025 1e3e
00000150: 763a 48be 34af cb3d 57ef f83d fcae 7c3c
00000160: b83d b0bb fafa b63d e29f b03e a26a 2bbe
00000170: 0449 69be ef01 863d 597d 35be 226b 043e
00000180: 435e 453c f476 4f3d f74d 2a3d d032 7a3d
00000190: 964c 72be 64ed db3d 6f73 343f 9379 853d
000001a0: d251 be3b febc 12be 78f5 27bc 86ba c1bd
000001b0: 2f27 1cbd 2e3e cc3e 549b e23e 78f9 863e
000001c0: c7c8 583f 6214 483e 2e0a 743d 7225 0f3e
000001d0: c3f2 fcbd cf6d 193f cfd1 0cbe 8e3c 003e
000001e0: 5107 613e a1b6 023d 4d60 f9be 7423 90be
000001f0: ebca 633d 3602 0dbe 3bdf 0d3e 75a3 a8be
00000200: 2b44 db3d 5c66 61be 7214 093f 415d b23e
00000210: b9ff edbe 787d 9a3d e6e3 8d3e c70f 77bc
00000220: 9d72 983e b44e 063e beef 1abf 47ef 453e
00000230: 69f4 c3bd 8d5d 833e baca 5bbc e533 2bbf
0.17354108 -0.81238985 -0.12702547 0.029872533 -0.16300015 -0.15919426 -0.084882826 -0.20696472
0.039267678 -0.02209983 0.23888373 -0.06091196 0.086223304 0.31003422 0.4723597 -0.17465341
0.08083833 -0.08272006 0.023751622 -0.12920758 0.03702248 0.46119928 -0.04437601 0.41941476
0.05734 0.3352614 0.043079592 0.15983349 0.21903744 0.19642456 -0.157565 0.52814466
0.12468536 -0.5210656 -0.022323454 0.021943484 -0.23693894 0.011331877 0.07703648 -0.1017597
0.044444934 0.27513507 0.054863367 0.34771356 0.059004217 -0.29584733 0.59177315 -0.18960923
-0.21470578 -0.074929796 0.19131403 -0.17265487 0.20696586 -0.2974296 0.19092523 -0.021927357
0.2772252 -0.0031520976 -0.018221483 0.14544258 -0.13462089 0.5349775 -0.030948061 -0.2196151
0.34654304 -0.18332562 -0.31812647 -0.59813964 -0.3500255 0.12879027 -0.05920035 0.124792546
-0.20960934 -0.07063151 -0.08645987 0.007129888 -0.29080215 0.11240349 0.57071877 0.07744765
0.40560216 -0.39053988 0.24610758 0.15443802 -0.19553551 0.09945527 0.121550255 0.015422579
-0.005378451 0.08934589 0.3449698 -0.16739896 -0.2278176 0.065433376 -0.17723598 0.12931493
0.0120463995 0.050650552 0.04157826 0.061083615 -0.23662028 0.10738638 0.7048864 0.06517329
0.0058080936 -0.14329907 -0.010251395 -0.09459405 -0.038123306 0.3989119 0.4425913 0.26362205
0.8468136 0.19539025 0.05958002 0.13979128 -0.123509906 0.5993318 -0.1375191 0.125231
0.21975447 0.03191245 -0.48706284 -0.2815205 0.05561344 -0.13770375 0.13854687 -0.32937208
0.107063614 -0.22011703 0.5354682 0.34836772 -0.46484163 0.075434625 0.27712935 -0.015079445
0.29774943 0.1311596 -0.6052207 0.19329558 -0.09568102 0.2565731 -0.013415033 -0.6687606

player_tree_3.W.bias f4 [12]
00000000: 0aa0 2c3c 3522 ebbb 4a9a 233c 0796 ab3b
00000010: 3520 cb3b 61ab bcbc 443b 1bbd bfa5 2dbd
00000020: ecf1 2e3c 68fc 153a 8f87 01bc 88c4 123c
0.010536203 -0.0071757087 0.009985516 0.0052363905 0.0061989077 -0.023030939 -0.037898317 -0.042394396
0.010677796 0.00057215104 -0.007905855 0.0089579895

player_tree_3.W_self.weight f4 [12, 12]
00000000: 3e34 5bbe 5b48 8abe 4a7f e1bd 6935 d6bd
00000010: 9fc5 dd3e 1bb5 5d3e 9aa1 c93e ed76 aa3e
00000020: 76c1 d03b 981d 083e 7829 a53d bfca bcbe
00000030: 4cde b4be 86f6 3bbc a482 e4bc f764 2fbd
00000040: afe8 81bd 92d0 0ebe 4642 09be 67f8 79bd
00000050: 68bc b2be 6455 40bd 0f4e 373e 37c3 c2be
00000060: 5c3b 78be 8fd9 b03e 416e 7e3e d0ae 8a3e
00000070: 00af a93e 33a8 ecbd 5375 0fbe 2d37 9b3e
00000080: f16e 4f3e 5c96 10be 10b1 e13e 1336 ccbd
00000090: f94b 41bf f994 923d f844 f13d 9b94 d83e
000000a0: b2ee a9bd 7e5d 61be 66d0 82be 2c48 243f
000000b0: 2ffa 533d 2850 d5be 4b70 253e 9753 0bbf
000000c0: c691 5cbe dc1c 7fbe 3145 89be 19a0 cd3e
000000d0: 1b31 273f 0b6b ac3e 9918 75bd c0a2 053e
000000e0: 2795 7ebe 8df5 90be 8e44 a13e d52d 113e
000000f0: 29e0 a23e 49f7 f03d 059c c53e b10f bd3e
00000100: 46c8 54bb ce1f 6fbe e431 0f3e cc84 0cbe
00000110: c226 7dbe f02c 16be 9d4f 3bbd d163 03bf
00000120: 40cb 553e f9b5 4ebf 5ed5 35be adb9 16be
00000130: 7737 353e a36e 15be 879b 043e f1a5 253e
00000140: a113 3e3d 6f35 f13b 130c 8a3c dbde b4bc
00000150: 1164 fc3d 31e4 1dbe 2263 683e 61e9 9d3e
00000160: f6be 8f3e 81c8 2f3f 6973 183d 43e0 20bf
00000170: 3e3b 953c dc8c c6bd c89e a8bd c092 bebe
00000180: 67fa 64bf 3970 1d3e 81bb 68be ca49 b43e
00000190: ff43 143e 8ec2 073f 048b 01bf a5d0 b93e
000001a0: 9985 913c 805f 353e f045 15bf 987a 2fbc
000001b0: 0fb8 82bc b4d7 753e da9a dd3e 648a 0abe
000001c0: 4129 533e 4f4c c1bd 9080 a53e eb84 bcbe
000001d0: 4639 633e 46d8 e5bd 381d 013f b63a 06bf
000001e0: 85cb efbd 042a a8bd 459b 34bd ceca d53a
000001f0: 6925 bebd e1ad cdbd cdbb f6be ab90 b53e
00000200: c7a7 333c e8bd fb3e f808 9e3d 9a28 36be
00000210: df9f fb3d 9340 ccbe 0a9c 6e3e c8bf cd3e
00000220: 3514 02bc 00b2 c23e 0d2f 1a3e adbe 0ebd
00000230: 0b8f 3e3d 015c 243f 9fac 8c3c 97f4 92be
-0.21406648 -0.27008328 -0.110106066 -0.10459406 0.43314835 0.21651118 0.39381105 0.33293858
0.0063707186 0.13292539 0.0806455 -0.36873433 -0.3532585 -0.01147235 -0.027894326 -0.042820897
-0.06343209 -0.13946751 -0.13404188 -0.06102791 -0.34909368 -0.046956435 0.1790087 -0.38039562
-0.24241394 0.34540984 0.24846746 0.27086496 0.33141327 -0.11555519 -0.140096 0.30315533
0.20257165 -0.14119858 0.440804 -0.09971251 -0.7550655 0.071573205 0.11780733 0.42300877
-0.08297481 -0.2200832 -0.2554962 0.64172626 0.051752266 -0.41662717 0.16156118 -0.5442442
-0.21539983 -0.24913353 -0.268106 0.40161207 0.65309304 0.33675417 -0.05983791 0.13050365
-0.24861585 -0.2831234 0.31497616 0.1417764 0.31811646 0.11765916 0.38595596 0.36926034
-0.0032468005 -0.23351976 0.13983876 -0.13722533 -0.24721816 -0.1466558 -0.045730222 -0.5132418
0.20878315 -0.8074642 -0.17757174 -0.14719267 0.1769694 -0.14592986 0.12949954 0.16176583
0.04640544 0.007361106 0.01685146 -0.022078922 0.12323774 -0.1541908 0.22694066 0.30842116
0.2807538 0.6866532 0.03721944 -0.62842196 0.018216725 -0.096948355 -0.0823341 -0.37221336
-0.89444584 0.15374841 -0.22727777 0.35212547 0.14479063 0.5303124 -0.50602746 0.36291996
0.0177639 0.17712212 -0.5830984 -0.010710381 -0.015956907 0.24008065 0.43282205 -0.13529354
0.20621206 -0.09438383 0.32324648 -0.36820158 0.22189817 -0.112228915 0.5043521 -0.52433336
-0.1170874 -0.08211139 -0.04409339 0.0016311051 -0.09284479 -0.100429304 -0.48190156 0.35461935
0.010965294 0.49168324 0.077165544 -0.17788926 0.12286352 -0.39893016 0.23301712 0.4018538
-0.007939388 0.38026428 0.15057011 -0.03484981 0.046523135 0.64202887 0.017172156 -0.28702232

player_tree_3.W_self.bias f4 [12]
00000000: 0aa0 2c3c 3522 ebbb 4a9a 233c 0796 ab3b
00000010: 3520 cb3b 61ab bcbc 443b 1bbd bfa5 2dbd
00000020: ecf1 2e3c 68fc 153a 8f87 01bc 88c4 123c
0.010536203 -0.0071757087 0.009985516 0.0052363905 0.0061989077 -0.023030939 -0.037898317 -0.042394396
0.010677796 0.00057215104 -0.007905855 0.0089579895

player_tree_4.weight f4 [8, 12]
00000000: df27 8c3e 3e6d 37be c136 7e3d 4335 1c3e
00000010: 45a7 4fbd 73cb 8cbe 5554 40bf 7975 9fbe
00000020: 2699 b13e cc02 a43d ad53 f9bd 942d 793f
00000030: 85b6 613e b79a 773e 5ec9 a83e bc14 853e
00000040: 1711 1f3e 3d83 973d 85bb 35bf 47a1 14be
00000050: db73 4d3e e586 eebd e7e9 13bd 87b9 233f
00000060: d7a8 2c3c 150a 7c3d 1db2 1fbf 76e7 f03e
00000070: c7d4 f5be cabf 043f 5e1d e53e 1769 b6be
00000080: 489f 143f 976d eabc cc5d febd 62c6 123d
00000090: 27e3 e73d 7f76 b93c 1c16 26be 5546 c6be
000000a0: 48bc afbd 354f 1ebe a07f 5abe 9169 a63e
000000b0: 31a0 71be 2a79 b0be 53c1 063d 97c6 683e
000000c0: 2fe6 303c f67f de3d 2eb6 cf3e 6b70 653e
000000d0: 9aa2 bbbe 7b7b 64be d16c 71be e759 9f3e
000000e0: 810d 173d 52de 95be 73b8 be3d eac8 c83d
000000f0: 8cd6 3d3f e389 bfbe 3c00 e03e 37f1 02bf
00000100: fa21 2a3f 3191 12be b61c 98be 519a bbbe
00000110: c875 d53e 5cbe 193f f29d 373e 3e13 b3bd
00000120: 519e 403c b789 fd3d 0db7 16be d02f 5d3e
00000130: 964e be3e d94a 493e 4976 553e d2ae 0a3e
00000140: 92b9 7abe 7db4 60bd 2e94 b5be 8db4 c03d
00000150: f4d0 f5bd 0e45 f5bd 0145 6e3e 995b 93be
00000160: c516 f2be d4d3 aabb 697b 323e 0d55 ce3e
00000170: fdfd 13be eb41 b4be fed1 ebbe 48b9 343f
0.2737417 -0.17912766 0.062063936 0.15254693 -0.05069663 -0.2749897 -0.7512868 -0.31144312
0.34687155 0.08008346 -0.12174163 0.9733517 0.22042282 0.24180113 0.3296613 0.25992382
0.15533863 0.073980786 -0.7098926 -0.14514647 0.20063727 -0.11646823 -0.03611174 0.6395497
0.010538301 0.061533052 -0.62381154 0.4705159 -0.480139 0.51855147 0.44748968 -0.35627052
0.58055544 -0.02861671 -0.12420234 0.035833724 0.11322623 0.022639511 -0.16219372 -0.38725534
-0.08580834 -0.15459903 -0.21337748 0.32502416 -0.23596264 -0.3446744 0.032899212 0.22732006
0.010797068 0.1086425 0.4056868 0.22406165 -0.36647493 -0.22312729 -0.23576666 0.31123278
0.036878113 -0.2927118 0.09312525 0.09803946 0.741555 -0.37409887 0.4375018 -0.51149315
0.66458094 -0.14313199 -0.29709405 -0.36641172 0.41691422 0.6005609 0.17931345 -0.087439045
0.011756496 0.12379783 -0.14718266 0.2160027 0.3716933 0.19657458 0.20845903 0.13543251
-0.24484852 -0.054859627 -0.35464615 0.09409437 -0.12002745 -0.11976062 0.2326851 -0.2878082
-0.47282997 -0.00521324 0.1742989 0.40299264 -0.14452358 -0.3520654 -0.4605865 0.70595217

player_tree_4.bias f4 [8]
00000000: 5a5c 423c 7b41 1e3b e624 d3bb f21f 65bc
00000010: b2f0 083b 4ae5 0d3c 49c6 04bb e3c9 223c
0.011862839 0.0024147916 -0.0064436076 -0.013984667 0.0020895419 0.008660624 -0.0020259789 0.009935829

sun_influence_1.W.weight f4 [12, 12]
00000000: 4388 00bf 047a 44be 23a0 a5be d9d7 923e
00000010: 85a9 22be 17a1 c13e 0ec3 83be 01e0 903d
00000020: 1c65 483e 4776 43be 59fb 173e b2bf f83e
00000030: 5d17 da3e becb 063e 05ad d7be c1a3 163e
00000040: 87e4 283e 7009 16bd 23cc 45bb dae0 653e
00000050: 0f8d 013f 2235 46bd ac9e ccbe f4c9 0d3e
00000060: 4c1d 8ebd dfd4 25bf 35fb c43e 2329 5ebe
00000070: e854 9bbe 7c20 9bbe 0d47 b33e 5606 48be
00000080: 15af 50be 9490 7a3e 4e9c 71bf ecdc 6dbe
00000090: c610 7dbe f034 b23e f087 02be cea7 7cbd
000000a0: eb5f 3d3e 5216 3a3d 7966 a9bd fb57 c63d
000000b0: 0d46 15be 6945 a2be 8a4b ce3d 6301 6abe
000000c0: 190b b1be a0c7 7abe 26f3 393e da07 9cbe
000000d0: f7af 5e3e cf68 ad3e 67db 3cbe 8dba a33e
000000e0: 4bef 89be 344a 473e ba96 febc 4da6 9ebe
000000f0: 1feb 9bbd 1467 a43e 97b7 41be 9d76 293e
00000100: abaf 553d 8b34 16bf 7d85 82be a0e5 2bbd
00000110: 5fb0 4cbe e14d 873e bd1b 883e 2978 c1be
00000120: 9664 adbe d9e8 e73d 2ffd df3d c9b3 74be
00000130: 4f59 14be e944 193e 1fd6 bd3d 1872 cebc
00000140: 5861 cd3e b953 083e 4424 4abb d744 f43e
00000150: a806 163d fb38 2dbf cd96 093e 8ab1 6f3e
00000160: 74f0 393f 7f55 7a3b 10c2 0abf 09a3 03be
00000170: 9849 353d 7c72 93be 0832 903e 7dba e4be
00000180: 7f1f 8abd 10ff a9be bca8 b33e 8c1e 16be
00000190: b33f 6ebe cf78 b5be 9031 233f 833a f0be
000001a0: 0a92 253d 56a2 3a3e 7544 213b 8c71 f2bd
000001b0: b572 013e 4000 943d b103 2c3e 63ad 183e
000001c0: 6dd1 1abe 0709 693e e758 64be 867c 993e
000001d0: 92b8 bfbe dafe ec3e 831c 063f 61fb c5be
000001e0: eabf c83e 8ee9 8cbe 4211 753c 3999 02be
000001f0: fc20 2a3e 9309 a13e 0de7 f3bd c959 e23e
00000200: 4f0a ab3e eaca 02bd 2887 513d 078f d1bd
00000210: de15 63bd e9c3 2e3e f8ab 0e3e ec77 39bc
00000220: 3715 e33e 3732 6b3d 7824 dcbe e077 1d3e
00000230: 3263 863b b0fc 733e 85cd adbe 3237 59be
-0.5020792 -0.1918717 -0.32348737 0.28680304 -0.15884979 0.37818214 -0.25734752 0.07073975
0.1956982 -0.19088088 0.14841975 0.48583752 0.4259595 0.13163659 -0.4212419 0.14710905
0.16493426 -0.036630094 -0.003018149 0.22449055 0.50605863 -0.048390515 -0.39964807 0.1384657
-0.06939182 -0.6477794 0.38472906 -0.2169538 -0.30338216 -0.3029822 0.35015145 -0.19533667
-0.20379288 0.24469215 -0.9437913 -0.23228806 -0.2471343 0.34806013 -0.12747169 -0.06168347
0.18493621 0.045431443 -0.08271498 0.0968475 -0.14577504 -0.3169358 0.10073002 -0.22852091
-0.3457878 -0.24490213 0.1815916 -0.3047474 0.21746813 0.33869025 -0.1844307 0.31978264
-0.2694038 0.194619 -0.031077731 -0.30986252 -0.07613205 0.32109892 -0.1891769 0.16549154
0.052169483 -0.58673924 -0.25492468 -0.041967034 -0.19989155 0.26426604 0.26583663 -0.37786987
-0.33865803 0.11323709 0.10936963 -0.23896708 -0.14487194 0.14967693 0.09269356 -0.025200889
0.4011333 0.13313188 -0.003084437 0.4770877 0.03662744 -0.6766507 0.13436432 0.2340757
0.7263253 0.0038197932 -0.54202366 -0.12855162 0.044259638 -0.28798282 0.2816317 -0.4467353
-0.06744289 -0.3320241 0.35089672 -0.1466009 -0.23266487 -0.35443732 0.637475 -0.4691964
0.040422477 0.18225989 0.0024607454 -0.118380636 0.12641414 0.0722661 0.16798283 0.14909892
-0.15118952 0.2275735 -0.22299539 0.29977816 -0.37445503 0.46288186 0.52387255 -0.3866835
0.3920892 -0.27521938 0.014957728 -0.12753762 0.16614145 0.31452617 -0.11909304 0.44209126
0.33406302 -0.031931795 0.051154286 -0.102323584 -0.055440776 0.17066921 0.13932788 -0.0113200955
0.44352123 0.057420935 -0.42996573 0.1537776 0.0041011805 0.23826861 -0.3394586 -0.21212462

sun_influence_1.W.bias f4 [12]
00000000: bbf7 3b3c e803 47bb 7b50 463c c47c 28bb
00000010: 8e9a a139 5ba0 cabc ac20 4abc 4f94 e6bb
00000020: 18ee 9bbb e9ef b6bc 0690 cf3b e029 4f3b
0.011472638 -0.0030367319 0.012104149 -0.0025709132 0.00030823465 -0.024734667 -0.012336891 -0.0070367227
-0.0047586076 -0.022331195 0.0063343076 0.0031610653

sun_influence_1.W_self.weight f4 [12, 12]
00000000: 876c 67be 9522 97be 7798 80be 7f5c 21be
00000010: c18a 84be b24b e43d 8352 b73d adab fdbc
00000020: 77c6 893e be19 153e 9187 aa3c 38bc 07bd
00000030: 8dca c9be 531d 31be eede f8be ad48 513f
00000040: 6671 5b3e b48b 153e f5e8 ed3e 7205 b8bd
00000050: 797f 51be b190 8fbe 0e5b d13c b6b2 e4be
00000060: eb54 813e 1b27 053f 19bc 823e 46fb bdbb
00000070: 65f5 a63e 2808 1fbe 1014 0cbf 73f1 fcbe
00000080: 70e2 9c3e ef82 f9bb cf14 7a3e 4d48 a23d
00000090: 7bc9 a9be c816 1a3e 5807 aabd d6a2 863e
000000a0: edeb 8bbe d3cb 17bd 0ad0 d2bc fbf9 633e
000000b0: ea2a db3e 68db abbd 9aee e7bd 6bee 0c3f
000000c0: 784c 60be 4ad8 5a3e 4687 473e 8c4b 1d3e
000000d0: 6641 843d 1ab5 f13e aca2 bfbc e408 203e
000000e0: a180 0f3f 3389 873e 8878 edbe a1ef 6a3d
000000f0: 9d52 b63e 49ca e5bd 3956 723d 679f ccbe
00000100: 58cc 54be ba04 593e 261b 483e 37d9 c03e
00000110: 132f efbe 5b33 91bd e471 703e 268c 87be
00000120: 4c5d 5abe 63ea f23e 178c 02bf 2236 3e3e
00000130: 77ee 9dbe 55e4 133e c0a1 083e 92a3 8bbd
00000140: 3b8e aa3e 0169 ae3e f9ca 8a3e a123 49bc
00000150: 0cb4 83be a78e 703e 6c73 6abe 43b5 e53c
00000160: c485 6cbe 3774 693e 2546 a33e 33b2 083e
00000170: 604c a53e 4c4f 373c d7db 1fbe 3e12 983e
00000180: bddb ccbb ddeb 5ebe 1be4 183f a366 253e
00000190: 661a 2a3d 9589 febc 84b6 fdbd 5813 4dbe
000001a0: 8315 e0be a94d a73c 1501 b23e 1523 ae3e
000001b0: 72b9 7f3d 6f36 3b3f f459 493e 2206 473e
000001c0: fb06 ddbe 5770 a7be 1e31 6fbc 1bba 693e
000001d0: 321f 20bf 3c76 d9be 3007 243c e0bb c5be
000001e0: d0fb f8bd d08f e2bd 78eb bc3d 7108 c43d
000001f0: 9f88 bb3e b82a 073e a355 b0be 6968 c83e
00000200: 5f9e 84be a23e 423e 51f2 643e 57f8 273e
00000210: 76ae e03d 34ef 92be 80a9 aebe 9043 a43e
00000220: a60d 91be 34e9 a9bd d702 c8be 0d33 03bf
00000230: c439 8c3e bfd9 873e 4f40 f53d 429e 03bd
-0.22599994 -0.29518571 -0.2511632 -0.1575794 -0.2588711 0.1114725 0.08951285 -0.03096565
0.2690923 0.14560601 0.020816596 -0.033138484 -0.39412346 -0.17296343 -0.48607582 0.8175152
0.21429977 0.14604074 0.46466795 -0.089854136 -0.20458783 -0.28040078 0.025556114 -0.44667596
0.252601 0.52012795 0.25534132 -0.0057977764 0.32609096 -0.15530455 -0.5471811 -0.4940296
0.30641508 -0.0076144855 0.24422 0.079239465 -0.3316153 0.15047753 -0.08302182 0.2629611
-0.27328435 -0.037059616 -0.025733966 0.22263329 0.42806178 -0.08391458 -0.113248065 0.55051297
-0.2190417 0.2137157 0.19485196 0.1536085 0.06457786 0.47208482 -0.023392998 0.15628392
0.5605565 0.26471862 -0.4638102 0.057357434 0.35609904 -0.112202235 0.05916426 -0.39965364
-0.20781076 0.2119321 0.19541606 0.37665722 -0.46715602 -0.070898734 0.23480946 -0.26474112
-0.21324652 0.47444448 -0.5099501 0.18575338 -0.30845997 0.1444257 0.13342953 -0.06818308
0.33311638 0.34064487 0.2710798 -0.012276561 -0.25723302 0.23491918 -0.22895592 0.028040534
-0.23097903 0.22798239 0.31889454 0.13349228 0.32284832 0.011188339 -0.15611206 0.29701418
-0.006251781 -0.21769662 0.5972306 0.16152434 0.04152908 -0.031071464 -0.12388328 -0.2002691
-0.43766412 0.020422773 0.3476645 0.3401114 0.062432714 0.73129934 0.1966322 0.19435933
-0.43169388 -0.32702896 -0.014599113 0.228249 -0.625476 -0.42473018 0.010011479 -0.386199
-0.121574044 -0.11062586 0.092245996 0.095719226 0.3662767 0.1319989 -0.34440336 0.3914216
-0.25902078 0.18969205 0.22358061 0.16403328 0.10970776 -0.28698123 -0.34113693 0.32082796
-0.28330725 -0.08296433 -0.39064667 -0.5124977 0.27387822 0.26533315 0.119751565 -0.03213335

sun_influence_1.W_self.bias f4 [12]
00000000: bbf7 3b3c e803 47bb 7b50 463c c47c 28bb
00000010: 8e9a a139 5ba0 cabc ac20 4abc 4f94 e6bb
00000020: 18ee 9bbb e9ef b6bc 0690 cf3b e029 4f3b
0.011472638 -0.0030367319 0.012104149 -0.0025709132 0.00030823465 -0.024734667 -0.012336891 -0.0070367227
-0.0047586076 -0.022331195 0.0063343076 0.0031610653

sun_influence_2.W.weight f4 [12, 12]
00000000: 0a4a 0fbe d57e 6c3e 85b4 853c 064c d1bc
00000010: 3b5f 113e ee9a b8bd 0ff1 b2be e4bf 693e
00000020: 7891 09be 27e0 833e aaa7 4bbe 3255 de3d
00000030: 88f5 eebd 1baf 3c3f 090a c93e 53bc 883e
00000040: 0ef6 0abe 0ee8 083f 6d28 c83e 90ba 38be
00000050: 9b14 60bc 5364 9bbe d51d c53e 508d 5b3d
00000060: 13e0 86be 4439 753e f0cc 14be 7085 8a3e
00000070: 7853 7ebe caa3 4cbe 9a64 2fbe af45 b23d
00000080: 7ef0 3d3f 24b8 15bc 234a c53d 7f17 1abd
00000090: a266 ccbe 71d2 b1be 7d70 9f3e 33e4 073e
000000a0: 74fe d8bb 2b66 bfbe 3924 8a3e 6bbc 71be
000000b0: 6375 603d b588 afbd dccc a03b ef91 84be
000000c0: 220d d93c bc9c 113f 0ac3 a3be 22a0 81be
000000d0: 3502 81be 93ba cdbe 97ba 78be 8a7d adbe
000000e0: 341e f83d 4e98 a83e 1023 4cbe 4bd0 d0be
000000f0: bfef 1dbe 30ca 9fbe 74ce 2f3d d1b5 84bb
00000100: 1514 bd3d 98cc 2abf 3be9 2dbe 4802 533e
00000110: cd3a 153e fa20 91be 5018 aab9 db09 9a3d
00000120: 9a87 25be 9d6b 073f b3be a2be 9c14 6cbe
00000130: 9332 1a3e 168c f2ba f4aa 233e f7e3 c03d
00000140: 6648 fa3c d77c c2be 2eed 9cbe 76c1 e7bb
00000150: 1a51 4ebe f04e 69bd 66c4 b43e c39d c03c
00000160: b340 a13d d31c 313e 5ab5 423d f64a 333e
00000170: f005 05bf dd4e 83be d68e 92bd d906 8e3d
00000180: 75e4 c7be 989a ccbe 1344 26bd 26d9 733e
00000190: 81e5 ff3d dbce 1abf 8f8c ae3e b994 c2be
000001a0: 9129 773e cb82 3d3e 1497 01bf 64c0 41bc
000001b0: 2d41 18bf f572 013e 2f6c 22be 0f29 f9be
000001c0: b4e2 3abe fc17 16bf a56c 6bbe 1cc9 99be
000001d0: 618a bbbb 459e 803c a71b c23c 1349 b9be
000001e0: 0086 bc3e 27e6 0a3f da86 b3be 879d c4bd
000001f0: 31f6 993e edb9 25bd 225a 793d 6732 2cbf
00000200: a476 9cbe 3335 abbd 6214 a7be fc20 c9ba
00000210: 2363 59be ce83 0dbd 52a6 3dbc c391 8dbe
00000220: 3d6d 66be be28 e33e 667b ae3d 0d68 b2be
00000230: 6597 6f3e e75b 173e 33f9 ba3e 4c79 ce3e
-0.13993087 0.23095258 0.01632143 -0.025548946 0.14196484 -0.090139255 -0.34949538 0.22827107
-0.13434398 0.25756952 -0.19888178 0.108560935 -0.11667925 0.7370469 0.3926547 0.2670618
-0.13570425 0.5347909 0.39093342 -0.18039918 -0.013676788 -0.3034998 0.38499323 0.053601563
-0.2634283 0.23947626 -0.14531302 0.2705493 -0.24836528 -0.19984356 -0.1712822 0.08704697
0.74195087 -0.009138141 0.09633281 -0.037620064 -0.39922053 -0.34730867 0.3114051 0.13270645
-0.00662213 -0.37382635 0.2698076 -0.23607032 0.05479945 -0.08570997 0.0049072336 -0.25892588
0.02649552 0.5687978 -0.3198474 -0.25317484 -0.25196996 -0.40181407 -0.24289928 -0.3388484
0.12115136 0.329287 -0.1993525 -0.40783915 -0.15423487 -0.31208944 0.0429215 -0.0040499945
0.09232346 -0.66718435 -0.16983502 0.20606339 0.14573212 -0.28345472 -0.0003244304 0.07521411
-0.16165009 0.5289858 -0.31786117 -0.23054737 0.15058355 -0.0018504884 0.15983182 0.09418481
0.0305521 -0.3798587 -0.30649704 -0.007072623 -0.20148125 -0.056960046 0.3530609 0.023512727
0.078736685 0.17296152 0.04753623 0.17509064 -0.51962185 -0.25646105 -0.0715615 0.069349
-0.39041486 -0.39961696 -0.040592264 0.23813304 0.12494946 -0.60471886 0.34091613 -0.3800409
0.2413695 0.18506925 -0.5062115 -0.011825655 -0.5947445 0.12641509 -0.15861581 -0.48664138
-0.18250543 -0.5863035 -0.22990663 -0.30036247 -0.005723283 0.015700469 0.023694826 -0.36188564
0.36820984 0.54257435 -0.3506382 -0.096003585 0.30070642 -0.040460516 0.060876973 -0.6726441
-0.30559266 -0.08359756 -0.32632738 -0.0015344913 -0.21229224 -0.034549527 -0.011575298 -0.2765027
-0.22502609 0.4436702 0.0851963 -0.3484501 0.23397596 0.14781152 0.3651825 0.40326917

sun_influence_2.W.bias f4 [12]
00000000: b61b 4bbb 4377 443c eff5 a13b 3e7a 633b
00000010: 07da 503b 226d c23b 576d 043b db9c 623c
00000020: 39de a6bc c852 0fbc c2d6 15bc d527 0dbd
-0.0030991859 0.011991325 0.0049426476 0.0034710313 0.0031868236 0.00593342 0.0020206773 0.013831343
-0.020369636 -0.008747764 -0.0091454405 -0.034461815

sun_influence_2.W_self.weight f4 [12, 12]
00000000: f512 fabd 7f77 ef3c cf70 9abe 1100 183f
00000010: 71f3 07bf f8fe c1be 06b1 b4bd e913 ad3d
00000020: d6fc 1abe 7f97 e83e 2279 263e 25de 8c3c
00000030: a26d 823d d338 733e a535 c23e 69e6 b63e
00000040: e480 c73e b12e 5e3e f9d9 3dbd 0bb4 183e
00000050: d694 83be 3b48 1c3e 472d a83e 67b5 673e
00000060: bb81 48be dc00 bebc c6b7 8c3d 0f1b fbbe
00000070: f48b 1b3e 2b07 4f3d 6208 5f3e 3ff6 cd3e
00000080: 609b 6cbe 0e2f 5cbe 93f2 60bd 2957 6f3d
00000090: 1e1f 64bf 4375 3bbe d000 2c3e a32b b13e
000000a0: 4fae d93e da58 16be 5ecd 3ebf 4aef cdbe
000000b0: add5 c43e d11b 583e f5c8 e93e daba e53c
000000c0: fef6 f23d 6cb1 053f 6b33 f4bd e5d2 da3d
000000d0: 468b af3e 8c9f 01be 98eb 52bd 6025 82be
000000e0: e0f2 1bbe 97c9 01be a0a8 63be 3d8b bbbe
000000f0: 041c 133f d8e2 ec3e ae05 823d edb1 b63e
00000100: 414f be3e d93e 353e 91a0 293e f050 95be
00000110: e3d7 353e 880b 0cbe a291 803f 1e53 a3be
00000120: fa61 8f3e bd7e cdbd c1ed a2bb d403 943e
00000130: b3eb 73bb f627 64be 974c 69be 3e07 d6bc
00000140: 2562 a2be 60c8 3f3e cb04 bcbe 6679 0e3f
00000150: 932f 04be 8109 7fbb 5fc5 98be dc77 82be
00000160: ef4b 023e f9a3 753e 752c 08bf 07d9 733e
00000170: 5397 d7be dc20 88be b83a ff3e c432 0bbf
00000180: e7f8 4cbf aae5 9e3d da37 e0bc c0f3 8b3c
00000190: a477 db3d 169b 94bd ed40 943e d0db 033d
000001a0: 51d2 813e a39a 423e 4c2e 2f3e 7c8b 0a3d
000001b0: dfbf b0be 42e7 5bbe 1d7e 83be 9a90 3a3e
000001c0: 70ef afbd f7de c7be b886 b8bd 88f4 10be
000001d0: 73a6 8f3d 38b3 c33e ebf4 6c3e 55b8 fcbe
000001e0: 531f 9e3e a66d 4dbe 8b7a 21bd 6215 0a3c
000001f0: e253 b2be 9446 20be a212 b53e 0778 8fbe
00000200: 9b8e b9bd 83ba 10bf 43d9 9c3e 8efe 38be
00000210: 0af8 aebc fb21 43bc 23ac 263d c789 51bf
00000220: eea7 093f 87be 8ebe 8b84 4fbe 21cd 193f
00000230: bf32 e33e e29b f1bc 5d5b a33e 38ef d1be
-0.12210647 0.029231785 -0.3016419 0.593751 -0.5310584 -0.37889838 -0.08822827 0.08451063
-0.15135512 0.45428082 0.16257146 0.01719577 0.06368567 0.23752145 0.37931553 0.35722664
0.38965523 0.21697499 -0.046350453 0.14912431 -0.2569949 0.15261929 0.32847044 0.22627793
-0.19580738 -0.02319377 0.068709895 -0.49044082 0.15190107 0.050543945 0.21780542 0.40226933
-0.23106146 -0.21502325 -0.054918837 0.05843273 -0.8910998 -0.1830645 0.16797185 0.34603605
0.425158 -0.14682332 -0.74532115 -0.40221626 0.38444272 0.21104361 0.4566113 0.0280432
0.11863516 0.5222385 -0.1192387 0.10684756 0.34285945 -0.12658519 -0.05149421 -0.2541914
-0.15229368 -0.12674557 -0.22232294 -0.36629668 0.57464623 0.46266818 0.063487396 0.35682622
0.3716984 0.17699756 0.16565157 -0.29163313 0.17758135 -0.13676274 1.0044444 -0.3189935
0.28004438 -0.10033939 -0.00497219 0.2890917 -0.0037219345 -0.22280869 -0.22783123 -0.0261265
-0.31715503 0.18728781 -0.36722407 0.5565399 -0.12908773 -0.0038915577 -0.29838082 -0.2548207
0.12724279 0.23988332 -0.53192836 0.23813258 -0.4210764 -0.2658757 0.49849486 -0.5437434
-0.80067295 0.07758649 -0.027370382 0.017084002 0.10716179 -0.07256143 0.28955784 0.03219205
0.2535577 0.19004302 0.17107505 0.03382443 -0.34521386 -0.21474937 -0.25682154 0.18219224
-0.08590591 -0.39037296 -0.090100706 -0.14155781 0.070141695 0.3822267 0.23140304 -0.49359384
0.30883273 -0.20061359 -0.039423507 0.00842795 -0.34829623 -0.15651923 0.35365778 -0.2802126
-0.09060403 -0.56534594 0.30634508 -0.18065855 -0.021358509 -0.011909957 0.040691506 -0.81850857
0.53771865 -0.27879736 -0.20265405 0.60078627 0.44374654 -0.029493276 0.31905642 -0.41002822

sun_influence_2.W_self.bias f4 [12]
00000000: b61b 4bbb 4377 443c eff5 a13b 3e7a 633b
00000010: 07da 503b 226d c23b 576d 043b db9c 623c
00000020: 39de a6bc c852 0fbc c2d6 15bc d527 0dbd
-0.0030991859 0.011991325 0.0049426476 0.0034710313 0.0031868236 0.00593342 0.0020206773 0.013831343
-0.020369636 -0.008747764 -0.0091454405 -0.034461815

sun_influence_3.W.weight f4 [12, 12]
00000000: 270d 83be 5fed db3a 8963 7f3d f657 99be
00000010: 0273 03be d03f 85be 0316 c13d bab9 01bf
00000020: 71da 51bc 4baa 88bd 6e6f 21be 9f72 62be
00000030: db71 253e 534c d1bd 5254 05bf cc4b 303e
00000040: 81c1 52be 2426 a33e ed5b b53e 64f2 a83d
00000050: fcfa 38be c96c aabe 22a3 fabc cb9c 01bd
00000060: 136b bcbe 6ba6 d73c 3a14 2cbe 9bfa bfbc
00000070: 90df 363e 1955 2a3d fb6f 02be d7f9 4a3e
00000080: 584c 953d d109 b5be c146 05bb 75e9 41be
00000090: c30f f83d aa3b 713e 4ec0 22be d03d 2abe
000000a0: 012d a2bd e3ff 77bd 44ea a63e 812c 0abf
000000b0: d339 143e 3b69 cb3d 69b0 3a3d c006 fcbe
000000c0: d6e8 693e dbd5 d3be a5d5 c83d a98d cbbd
000000d0: 170f d8be 4afe 05bd 87ee 92be 94d1 f83e
000000e0: 6503 7bbd 25f6 b03e 7c73 8c3e a42d 973e
000000f0: c6a4 2c3e 81e9 92be 239f c63e 9b05 41bd
00000100: d1c7 733c 6aee 193e 2d44 433e dbb6 883e
00000110: 7921 9ebe 3dd4 82bd 1b9a a2bd d75a 4dbe
00000120: c4b4 12be 0eaf f33e 04c8 cc3c a71a 823e
00000130: 8436 af3e b790 133f 9534 823e 7b6b 903e
00000140: 4282 abbd e83d 63be c8bf afbc 2a91 a3be
00000150: 1a5c 803d 14e6 32be ab6c ccbe e6a3 2bbe
00000160: aeb7 a1bc a693 a6be e575 713d e0b1 3fbe
00000170: b7ad 8fbe bd6f d53d 8e93 093e d3a1 98be
00000180: 0de8 8d3d a84f eabe 48d3 433d a9c2 0cbf
00000190: 5886 f0bd e8c7 d8bc 6f19 e0ba 2776 0f3f
000001a0: 28ad 3fbb ab64 51be 3288 833e a804 cdbd
000001b0: 69eb 05be 519c 90be b6ea 003d 09b5 46be
000001c0: bd9c 483d fb34 0dbf 586f b4be 8daa 643d
000001d0: c69e c33e 0a99 a33e db29 0dbe fa58 7fbe
000001e0: 9164 c33e ece3 d5bd 760b a3bc 9e55 c63e
000001f0: dfb9 01be 75d9 a9be 23f2 b7be cc88 b23e
00000200: fa2f 93bd 4ec6 30be 060c b1bd 28c3 b83e
00000210: f801 8abd 2e98 863e fc1a 983e 0a00 723d
00000220: eafe 05be af8f d0bd fac7 ac3e b436 85be
00000230: f14b 76bd 7ee1 09be 8f95 15bf 7152 aa3e
-0.25595972 0.0016779116 0.062350783 -0.2994992 -0.12836841 -0.26025248 0.094280265 -0.5067402
-0.012808428 -0.06673106 -0.15765163 -0.22114037 0.16156714 -0.10219636 -0.5208179 0.17216414
-0.20581628 0.31865036 0.35421696 0.08249357 -0.18064493 -0.3328612 -0.030595366 -0.03164367
-0.3680044 0.026324471 -0.16804591 -0.023434928 0.1785872 0.04158506 -0.1273803 0.19821869
0.07289952 -0.35359052 -0.0020336362 -0.18936713 0.12112381 0.23557916 -0.15893671 -0.16625142
-0.0791874 -0.060546767 0.32600605 -0.5397416 0.14475183 0.099321805 0.045578394 -0.492239
0.22842726 -0.41374096 0.098063745 -0.09939129 -0.42199013 -0.032713212 -0.28697607 0.48597395
-0.061282534 0.34562793 0.27431858 0.2952701 0.16859731 -0.28693774 0.38793287 -0.047124486
0.014879183 0.15032354 0.19068976 0.26702008 -0.30884913 -0.063881375 -0.079395495 -0.20054184
-0.14326769 0.47594494 0.024997719 0.2541096 0.3422128 0.5764269 0.25430742 0.28207
-0.08374454 -0.22191584 -0.021453753 -0.3194669 0.06267567 -0.1747058 -0.39926657 -0.16761741
-0.019740906 -0.32534522 0.058950324 -0.18720198 -0.2806222 0.10421703 0.13435194 -0.29810962
0.06929026 -0.45763898 0.047808915 -0.5498453 -0.11744374 -0.02646251 -0.0017097424 0.5603966
-0.0029247496 -0.20448558 0.25689846 -0.10010654 -0.13078083 -0.2824426 0.031473838 -0.19404997
0.048977602 -0.55158967 -0.352412 0.055826712 0.38207072 0.31952697 -0.13785498 -0.24936286
0.38162664 -0.10443863 -0.019902926 0.38737196 -0.1266856 -0.3317372 -0.35926923 0.34869993
-0.07186885 -0.17263147 -0.086448714 0.36086392 -0.06738657 0.2628798 0.29708087 0.05908207
-0.13085523 -0.101836555 0.3374632 -0.26018298 -0.060131017 -0.13464925 -0.58431333 0.33266023

sun_influence_3.W.bias f4 [12]
00000000: 7645 a1bb 5a36 c2ba 9f50 9dbc 57f7 c1bb
00000010: a8fd 983b 13bf a03b ff36 613c b0c7 c4bb
00000020: 3302 303c eec3 87bc 8e79 483c 4ff2 c53b
-0.0049216105 -0.0014817223 -0.019203482 -0.005919378 0.00466891 0.0049055903 0.013746022 -0.00600525
0.010742712 -0.016572919 0.012236012 0.0060408483

sun_influence_3.W_self.weight f4 [12, 12]
00000000: e7be 47be 4a81 c23d c2e0 f43d b209 853e
00000010: 485e f43e df8a 40bc da07 80bc b8b2 bc3e
00000020: 843e 0fbe 990f 30be 85e6 7dbd 3584 bd3d
00000030: 7007 c63c 4c6e 83bb b005 a63d c1ac d53e
00000040: 0ca6 e9bd 053b 8ebe 128b 39be 1937 4f3e
00000050: 30e8 c8be 9e9f c33e c876 55be 83c0 353e
00000060: dbca ac3d 5979 aebd e783 3d3e 3db8 1d3e
00000070: ae41 c9bd 7192 0f3e 5480 bfbe 63a8 623e
00000080: 9897 42bf 907a 933e a27d 86be 667b 1cbb
00000090: ab0e 453e a90d 853e d7d3 943e 541d 4b3e
000000a0: 4e42 73bd ba65 2bbf 70e9 cdbd 8948 af3d
000000b0: 5b44 01bf 9aee 54bd 5412 0e3f 80e3 f0bd
000000c0: bceb 74be 3058 29be 90fd f1bc e3d4 183f
000000d0: dd3b 94be ea42 51bc 709c 463e 885d bbbe
000000e0: 4780 98be 7318 a33e 2486 83be 1c04 9e3e
000000f0: c1bb ca3d 4fea 593d 93b3 44be 2b6c 183f
00000100: c37d 4dbe 4900 003f 05ab af3e 93b2 5c3d
00000110: e11b 82bd dc5b 03bf f707 2abf 383c c03d
00000120: da6f 95be 796f 673e f5ab 093f e90d 623e
00000130: 4f9b bd3d 46ee 593d d114 e43e 757c 673e
00000140: 3514 5f3d 235f 0ebe f986 e33d 958b fc3c
00000150: 25b2 b0be 4bcb 0abe 1b93 56be 48bc 9f3d
00000160: 14c1 31be b606 97bd d252 a93e 1fc3 56bd
00000170: 6c4d cd3c d3e0 3c3e ad73 65be f7a6 163c
00000180: 9f32 2cbd 3192 53bf 3f60 1c3e 445b 3c3e
00000190: aefc 79be b40f 293f 126b 983e 345b 743d
000001a0: a970 e0bc cc57 0d3e 7a1f 75be e2e8 383c
000001b0: d3bd 49be bb68 7c3e 9065 7e3e dc79 473d
000001c0: 4ba7 bfbd 0507 34bd 35c1 14be 4bc0 fdbd
000001d0: 03e9 97be 84d5 efbc 4535 cdbd 5391 4ebe
000001e0: 9cfa 023f 17d7 e43c e9d6 e1bd 6ddc 0b3f
000001f0: e3fc 13be 67bd 033d 4794 583d edc5 c7bd
00000200: e285 bd3e be0b a13e cbc3 e03e cc18 f8be
00000210: 5075 c6be 1cc6 81be 95d8 e3be 79d1 d2be
00000220: 3819 31bd 747b 9c3e 55c6 b6be 3548 11bf
00000230: 3242 fd3c c498 9b3e 1231 a13e db98 6abe
-0.19506417 0.09497316 0.11956932 0.2598396 0.4772818 -0.011751859 -0.015628744 0.36855102
-0.13988692 -0.1719345 -0.06198742 0.09253732 0.024173468 -0.004010951 0.081065536 0.41733363
-0.11408624 -0.27779403 -0.18119457 0.20235862 -0.39239645 0.38207716 -0.20846093 0.17749219
0.08437129 -0.08519239 0.18507348 0.15402313 -0.098269805 0.14020707 -0.37402594 0.22134547
-0.76012564 0.28804445 -0.26267725 -0.0023877262 0.19243877 0.25986984 0.2906787 0.19835407
-0.059389405 -0.669521 -0.1005429 0.08558757 -0.5049493 -0.05198536 0.55496716 -0.11762142
-0.2391805 -0.16537547 -0.029539853 0.5969984 -0.28951922 -0.012772301 0.19395614 -0.36594796
-0.29785368 0.3185459 -0.2568828 0.3086251 0.098990925 0.05320197 -0.19209127 0.5954005
-0.20067506 0.50000435 0.34310165 0.05388124 -0.06352974 -0.5131204 -0.66418403 0.09386486
-0.29186898 0.22601117 0.5377801 0.22075619 0.092581384 0.05320575 0.44547132 0.2260607
0.05446263 -0.1390348 0.11109728 0.030828277 -0.34510913 -0.13554113 -0.20954554 0.07799584
-0.1735881 -0.07374327 0.33071 -0.052432176 0.025061332 0.18445139 -0.22407408 0.009195081
-0.042040464 -0.82644945 0.1527109 0.1839419 -0.24412796 0.66039586 0.29769188 0.05965729
-0.02739747 0.13803023 -0.23937789 0.011285992 -0.19701318 0.24649327 0.2484343 0.0487002
-0.093580805 -0.043952007 -0.14526828 -0.123901926 -0.2966996 -0.029276617 -0.10019926 -0.20172624
0.5116365 0.027934594 -0.11027319 0.5463322 -0.14451937 0.03216305 0.052875783 -0.09754548
0.37016207 0.3145427 0.43899378 -0.4845642 -0.38761377 -0.25346458 -0.44501176 -0.4117544
-0.04323694 0.30562937 -0.3569819 -0.56750804 0.030915353 0.30389988 0.3148275 -0.22909872

sun_influence_3.W_self.bias f4 [12]
00000000: 7645 a1bb 5a36 c2ba 9f50 9dbc 57f7 c1bb
00000010: a8fd 983b 13bf a03b ff36 613c b0c7 c4bb
00000020: 3302 303c eec3 87bc 8e79 483c 4ff2 c53b
-0.0049216105 -0.0014817223 -0.019203482 -0.005919378 0.00466891 0.0049055903 0.013746022 -0.00600525
0.010742712 -0.016572919 0.012236012 0.0060408483

sun_influence_4.weight f4 [8, 12]
00000000: 598d a53e f42a 77be 19c7 7dbe 31c0 d83c
00000010: 3bb9 17bf 5627 3bbf ff7d 663d f0d4 29bf
00000020: ea4d 41be 4f0a f1be 0f53 f1be 02d2 76be
00000030: 1ea0 b5be 28c9 06bb f210 7f3e a5ea 9fbe
00000040: 6be1 bcbe 4ab0 50be b7b7 8bbe 512f 05be
00000050: 43f0 a9bd 7e17 5ebd 7ead 02be f11d abbe
00000060: f696 d8be 91b3 3cbf 6f5d 6d3e 8bca 79be
00000070: 3935 0e3f 61c0 fe3b 132d a3bd c4dc d33e
00000080: f393 ca3d 210b 13be 6141 043f f548 1cbe
00000090: da50 243e f028 0ebd ffa3 d93e 10b3 0ebf
000000a0: 44c9 f83d b5a3 df3e ab14 7a3d 58d3 6abd
000000b0: 62e0 21be 7d5f 973d 961a 5bbe 2077 d33e
000000c0: b3ae eb3c 5c38 103e 883f a4be 21a0 cfbe
000000d0: e828 0ebf e1af ffbd 9a83 68be 0882 643d
000000e0: e917 adbe b7d5 0bbe 44bb afbd 5a73 203f
000000f0: 512d 18be 0c6f 9cbc 6ec8 903d 6d32 17be
00000100: 3f71 483f 31de babe 0ea5 b6be 117d 24be
00000110: e420 503e 2dba b7be 56bd d63e f6e5 edbe
00000120: d91a 783d 289a a1be 7950 acbe f27b 883e
00000130: 1325 a53e b7ec 18bf 6c59 68bd 2bcd 1bbf
00000140: 73d8 11bd 925d c13d 8afc 39be b2d4 e2bd
00000150: da35 bc3e 3fe6 30bd 6d11 01bf 0a61 733d
00000160: f487 04bf 4341 adbd be37 21be 7680 b83e
00000170: fc3c 7fbe f419 8abd 2a05 ce3e 1b22 64be
0.32334402 -0.24137479 -0.24782981 0.026458832 -0.59267014 -0.73106897 0.056272503 -0.6634054
-0.18877378 -0.47078177 -0.4713368 -0.24103549 -0.35473722 -0.0020566676 0.24908808 -0.31233707
-0.3689073 -0.20379749 -0.272886 -0.13006331 -0.082977794 -0.054221623 -0.12761495 -0.3342128
-0.42302674 -0.73711497 0.23180173 -0.2439367 0.5554996 0.007774398 -0.079675816 0.41379368
0.098915 -0.14359714 0.5166226 -0.15262206 0.16046467 -0.03470701 0.42507932 -0.5574198
0.12147763 0.43679586 0.061054867 -0.05733046 -0.15808252 0.0739126 -0.2139686 0.41301823
0.028769827 0.14084 -0.3207972 -0.40551856 -0.5553117 -0.12484718 -0.22706452 0.05578807
-0.33807305 -0.13655744 -0.0858064 0.6267601 -0.14861037 -0.01909592 0.07069479 -0.1476533
0.782978 -0.36497644 -0.35672802 -0.16063334 0.20325047 -0.35884228 0.41941327 -0.4646451
0.06057248 -0.31562924 -0.33655146 0.26657063 0.32254848 -0.597362 -0.056725904 -0.60859936
-0.035606813 0.09441675 -0.18162742 -0.11075725 0.36759835 -0.04318833 -0.50417215 0.059418716
-0.5176995 -0.08459713 -0.1574392 0.36035508 -0.24925607 -0.067432314 0.40238315 -0.22278635
